#loc1 = loc("p0.72")
#loc2 = loc("p1.79")
#loc3 = loc("p2.84")
#loc4 = loc("p3.110")
#loc5 = loc("p4.114")
#loc6 = loc("p5.122")
#loc7 = loc("p6.126")
#loc8 = loc("p7.133")
#loc9 = loc("p8.144")
#loc10 = loc("p9.149")
#loc11 = loc("p10.156")
#loc12 = loc("p11.167")
#loc13 = loc("p12.172")
#loc14 = loc("p13.179")
#loc15 = loc("p14.190")
#loc16 = loc("p15.195")
#loc17 = loc("p16.202")
#loc18 = loc("p17.213")
#loc19 = loc("p18.218")
#loc20 = loc("p19.225")
#loc21 = loc("p20.236")
#loc22 = loc("p21.241")
#loc23 = loc("p22.248")
#loc24 = loc("p23.259")
#loc25 = loc("p24.264")
#loc26 = loc("p25.271")
#loc27 = loc("p26.282")
#loc28 = loc("p27.287")
#loc29 = loc("p28.294")
#loc30 = loc("p29.305")
#loc31 = loc("p30.310")
#loc32 = loc("p31.317")
#loc33 = loc("p32.328")
#loc34 = loc("p33.333")
#loc35 = loc("p34.340")
#loc36 = loc("p35.351")
#loc37 = loc("p36.356")
#loc38 = loc("p37.363")
#loc39 = loc("p38.374")
#loc40 = loc("p39.379")
#loc41 = loc("p40.386")
#loc42 = loc("p41.397")
#loc43 = loc("p42.402")
#loc44 = loc("p43.409")
#loc45 = loc("p44.420")
#loc46 = loc("p45.425")
#loc47 = loc("p46.432")
#loc48 = loc("p47.443")
#loc49 = loc("p48.448")
#loc50 = loc("p49.455")
#loc51 = loc("p50.466")
#loc52 = loc("p51.471")
#loc53 = loc("p52.478")
#loc54 = loc("p53.489")
#loc55 = loc("p54.494")
#loc56 = loc("p55.501")
#loc57 = loc("p56.512")
#loc58 = loc("p57.517")
#loc59 = loc("p58.524")
#loc60 = loc("p59.535")
#loc61 = loc("p60.540")
#loc62 = loc("p61.547")
#loc63 = loc("p62.558")
#loc64 = loc("p63.563")
#loc65 = loc("p64.570")
#loc66 = loc("p65.581")
#loc67 = loc("p66.586")
#loc68 = loc("p67.593")
#loc69 = loc("p68.604")
#loc70 = loc("p69.609")
#loc71 = loc("p70.616")
#loc72 = loc("p71.627")
#loc73 = loc("p72.632")
#loc74 = loc("p73.639")
#loc75 = loc("p74.650")
#loc76 = loc("p75.655")
#loc77 = loc("p76.662")
#loc78 = loc("p77.673")
#loc79 = loc("p78.678")
#loc80 = loc("p79.685")
#loc81 = loc("p80.696")
#loc82 = loc("p81.701")
#loc83 = loc("p82.708")
#loc84 = loc("p83.719")
#loc85 = loc("p84.724")
#loc86 = loc("p85.731")
#loc87 = loc("p86.742")
#loc88 = loc("p87.747")
#loc89 = loc("p88.754")
#loc90 = loc("p89.765")
#loc91 = loc("p90.770")
#loc92 = loc("p91.777")
#loc93 = loc("p92.788")
#loc94 = loc("p93.793")
#loc95 = loc("p94.800")
#loc96 = loc("p95.811")
#loc97 = loc("p96.816")
#loc98 = loc("p97.823")
#loc99 = loc("p98.834")
#loc100 = loc("p99.839")
#loc101 = loc("p100.846")
#loc102 = loc("p101.857")
#loc103 = loc("p102.862")
#loc104 = loc("p103.869")
#loc105 = loc("p104.880")
#loc106 = loc("p105.885")
#loc107 = loc("p106.892")
#loc108 = loc("p107.903")
#loc109 = loc("p108.908")
#loc110 = loc("p109.915")
#loc111 = loc("p110.926")
#loc112 = loc("p111.931")
#loc113 = loc("p112.938")
#loc114 = loc("p113.949")
#loc115 = loc("p114.954")
#loc116 = loc("p115.961")
#loc117 = loc("p116.972")
#loc118 = loc("p117.976")
#loc119 = loc("p118.982")
#loc120 = loc("p119.986")
#loc121 = loc("p120.1059")
#loc122 = loc("p121.1134")
#loc123 = loc("p122.1141")
#loc124 = loc("p123.1152")
#loc125 = loc("p124.1157")
#loc126 = loc("p125.1167")
#loc127 = loc("p126.1171")
#loc128 = loc("p127.1177")
#loc129 = loc("p128.1182")
#loc130 = loc("p129.1191")
#loc131 = loc("p130.1195")
#loc132 = loc("p131.1203")
#loc133 = loc("p132.1207")
#loc134 = loc("p133.1213")
#loc135 = loc("p134.1218")
#loc136 = loc("p135.1227")
#loc137 = loc("p136.1231")
#loc138 = loc("p137.1237")
#loc139 = loc("p138.1241")
#loc140 = loc("p139.1247")
#loc141 = loc("p140.1252")
#loc142 = loc("p141.1261")
#loc143 = loc("p142.1265")
#loc144 = loc("p143.1273")
#loc145 = loc("p144.1277")
#loc146 = loc("p145.1283")
#loc147 = loc("p146.1288")
#loc148 = loc("p147.1297")
#loc149 = loc("p148.1301")
#loc150 = loc("p149.1307")
#loc151 = loc("p150.1311")
#loc152 = loc("p151.1317")
#loc153 = loc("p152.1322")
#loc154 = loc("p153.1331")
#loc155 = loc("p154.1335")
#loc156 = loc("p155.1343")
#loc157 = loc("p156.1347")
#loc158 = loc("p157.1353")
#loc159 = loc("p158.1358")
#loc160 = loc("p159.1367")
#loc161 = loc("p160.1371")
#loc162 = loc("p161.1377")
#loc163 = loc("p162.1381")
#loc164 = loc("p163.1387")
#loc165 = loc("p164.1392")
#loc166 = loc("p165.1401")
#loc167 = loc("p166.1405")
#loc168 = loc("p167.1413")
#loc169 = loc("p168.1417")
#loc170 = loc("p169.1423")
#loc171 = loc("p170.1428")
#loc172 = loc("p171.1437")
#loc173 = loc("p172.1441")
#loc174 = loc("p173.1447")
#loc175 = loc("p174.1451")
#loc176 = loc("p175.1457")
#loc177 = loc("p176.1462")
#loc178 = loc("p177.1471")
#loc179 = loc("p178.1475")
#loc180 = loc("p179.1483")
#loc181 = loc("p180.1487")
#loc182 = loc("p181.1493")
#loc183 = loc("p182.1498")
#loc184 = loc("p183.1507")
#loc185 = loc("p184.1511")
#loc186 = loc("p185.1517")
#loc187 = loc("p186.1521")
#loc188 = loc("p187.1527")
#loc189 = loc("p188.1532")
#loc190 = loc("p189.1541")
#loc191 = loc("p190.1545")
#loc192 = loc("p191.1553")
#loc193 = loc("p192.1557")
#loc194 = loc("p193.1563")
#loc195 = loc("p194.1568")
#loc196 = loc("p195.1577")
#loc197 = loc("p196.1581")
#loc198 = loc("p197.1587")
#loc199 = loc("p198.1591")
#loc200 = loc("p199.1597")
#loc201 = loc("p200.1602")
#loc202 = loc("p201.1611")
#loc203 = loc("p202.1615")
#loc204 = loc("p203.1623")
#loc205 = loc("p204.1627")
#loc206 = loc("p205.1633")
#loc207 = loc("p206.1638")
#loc208 = loc("p207.1647")
#loc209 = loc("p208.1651")
#loc210 = loc("p209.1657")
#loc211 = loc("p210.1661")
#loc212 = loc("p211.1667")
#loc213 = loc("p212.1672")
#loc214 = loc("p213.1681")
#loc215 = loc("p214.1685")
#loc216 = loc("p215.1693")
#loc217 = loc("p216.1697")
#loc218 = loc("p217.1703")
#loc219 = loc("p218.1708")
#loc220 = loc("p219.1717")
#loc221 = loc("p220.1721")
#loc222 = loc("p221.1727")
#loc223 = loc("p222.1731")
#loc224 = loc("p223.1737")
#loc225 = loc("p224.1742")
#loc226 = loc("p225.1751")
#loc227 = loc("p226.1755")
#loc228 = loc("p227.1763")
#loc229 = loc("p228.1767")
#loc230 = loc("p229.1773")
#loc231 = loc("p230.1778")
#loc232 = loc("p231.1787")
#loc233 = loc("p232.1791")
#loc234 = loc("p233.1797")
#loc235 = loc("p234.1801")
#loc236 = loc("p235.1807")
#loc237 = loc("p236.1812")
#loc238 = loc("p237.1821")
#loc239 = loc("p238.1825")
#loc240 = loc("p239.1833")
#loc241 = loc("p240.1837")
#loc242 = loc("p241.1843")
#loc243 = loc("p242.1848")
#loc244 = loc("p243.1857")
#loc245 = loc("p244.1861")
#loc246 = loc("p245.1867")
#loc247 = loc("p246.1871")
#loc248 = loc("p247.1877")
#loc249 = loc("p248.1882")
#loc250 = loc("p249.1891")
#loc251 = loc("p250.1895")
#loc252 = loc("p251.1903")
#loc253 = loc("p252.1907")
#loc254 = loc("p253.1913")
#loc255 = loc("p254.1918")
#loc256 = loc("p255.1927")
#loc257 = loc("p256.1931")
#loc258 = loc("p257.1937")
#loc259 = loc("p258.1941")
#loc260 = loc("p259.1947")
#loc261 = loc("p260.1952")
#loc262 = loc("p261.1961")
#loc263 = loc("p262.1965")
#loc264 = loc("p263.1973")
#loc265 = loc("p264.1977")
#loc266 = loc("p265.1983")
#loc267 = loc("p266.1988")
#loc268 = loc("p267.1997")
#loc269 = loc("p268.2001")
#loc270 = loc("p269.2007")
#loc271 = loc("p270.2011")
#loc272 = loc("p271.2017")
#loc273 = loc("p272.2022")
#loc274 = loc("p273.2031")
#loc275 = loc("p274.2035")
#loc276 = loc("p275.2043")
#loc277 = loc("p276.2047")
#loc278 = loc("p277.2053")
#loc279 = loc("p278.2058")
#loc280 = loc("p279.2067")
#loc281 = loc("p280.2071")
#loc282 = loc("p281.2077")
#loc283 = loc("p282.2081")
#loc284 = loc("p283.2087")
#loc285 = loc("p284.2092")
#loc286 = loc("p285.2101")
#loc287 = loc("p286.2105")
#loc288 = loc("p287.2113")
#loc289 = loc("p288.2117")
#loc290 = loc("p289.2123")
#loc291 = loc("p290.2128")
#loc292 = loc("p291.2137")
#loc293 = loc("p292.2141")
#loc294 = loc("p293.2147")
#loc295 = loc("p294.2151")
#loc296 = loc("p295.2157")
#loc297 = loc("p296.2162")
#loc298 = loc("p297.2171")
#loc299 = loc("p298.2175")
#loc300 = loc("p299.2183")
#loc301 = loc("p300.2187")
#loc302 = loc("p301.2193")
#loc303 = loc("p302.2198")
#loc304 = loc("p303.2207")
#loc305 = loc("p304.2211")
#loc306 = loc("p305.2217")
#loc307 = loc("p306.2221")
#loc308 = loc("p307.2227")
#loc309 = loc("p308.2232")
#loc310 = loc("p309.2241")
#loc311 = loc("p310.2245")
#loc312 = loc("p311.2253")
#loc313 = loc("p312.2257")
#loc314 = loc("p313.2263")
#loc315 = loc("p314.2268")
#loc316 = loc("p315.2277")
#loc317 = loc("p316.2281")
#loc318 = loc("p317.2287")
#loc319 = loc("p318.2291")
#loc320 = loc("p319.2297")
#loc321 = loc("p320.2302")
#loc322 = loc("p321.2311")
#loc323 = loc("p322.2315")
#loc324 = loc("p323.2323")
#loc325 = loc("p324.2327")
#loc326 = loc("p325.2333")
#loc327 = loc("p326.2338")
#loc328 = loc("p327.2347")
#loc329 = loc("p328.2351")
#loc330 = loc("p329.2357")
#loc331 = loc("p330.2361")
#loc332 = loc("p331.2367")
#loc333 = loc("p332.2372")
#loc334 = loc("p333.2381")
#loc335 = loc("p334.2385")
#loc336 = loc("p335.2393")
#loc337 = loc("p336.2397")
#loc338 = loc("p337.2403")
#loc339 = loc("p338.2408")
#loc340 = loc("p339.2417")
#loc341 = loc("p340.2421")
#loc342 = loc("p341.2427")
#loc343 = loc("p342.2431")
#loc344 = loc("p343.2437")
#loc345 = loc("p344.2442")
#loc346 = loc("p345.2451")
#loc347 = loc("p346.2455")
#loc348 = loc("p347.2463")
#loc349 = loc("p348.2467")
#loc350 = loc("p349.2473")
#loc351 = loc("p350.2478")
#loc352 = loc("p351.2487")
#loc353 = loc("p352.2491")
#loc354 = loc("p353.2497")
#loc355 = loc("p354.2501")
#loc356 = loc("p355.2507")
#loc357 = loc("p356.2512")
#loc358 = loc("p357.2521")
#loc359 = loc("p358.2525")
#loc360 = loc("p359.2533")
#loc361 = loc("p360.2537")
#loc362 = loc("p361.2543")
#loc363 = loc("p362.2548")
#loc364 = loc("p363.2557")
#loc365 = loc("p364.2561")
#loc366 = loc("p365.2567")
#loc367 = loc("p366.2571")
#loc368 = loc("p367.2577")
#loc369 = loc("p368.2582")
#loc370 = loc("p369.2591")
#loc371 = loc("p370.2595")
#loc372 = loc("p371.2603")
#loc373 = loc("p372.2607")
#loc374 = loc("p373.2613")
#loc375 = loc("p374.2618")
#loc376 = loc("p375.2627")
#loc377 = loc("p376.2631")
#loc378 = loc("p377.2637")
#loc379 = loc("p378.2641")
#loc380 = loc("p379.2647")
#loc381 = loc("p380.2652")
#loc382 = loc("p381.2661")
#loc383 = loc("p382.2665")
#loc384 = loc("p383.2673")
#loc385 = loc("p384.2677")
#loc386 = loc("p385.2683")
#loc387 = loc("p386.2688")
#loc388 = loc("p387.2697")
#loc389 = loc("p388.2701")
#loc390 = loc("p389.2707")
#loc391 = loc("p390.2711")
#loc392 = loc("p391.2717")
#loc393 = loc("p392.2722")
#loc394 = loc("p393.2731")
#loc395 = loc("p394.2735")
#loc396 = loc("p395.2743")
#loc397 = loc("p396.2747")
#loc398 = loc("p397.2753")
#loc399 = loc("p398.2758")
#loc400 = loc("p399.2767")
#loc401 = loc("p400.2771")
#loc402 = loc("p401.2777")
#loc403 = loc("p402.2781")
#loc404 = loc("p403.2787")
#loc405 = loc("p404.2792")
#loc406 = loc("p405.2801")
#loc407 = loc("p406.2805")
#loc408 = loc("p407.2813")
#loc409 = loc("p408.2817")
#loc410 = loc("p409.2823")
#loc411 = loc("p410.2828")
#loc412 = loc("p411.2837")
#loc413 = loc("p412.2841")
#loc414 = loc("p413.2847")
#loc415 = loc("p414.2851")
#loc416 = loc("p415.2857")
#loc417 = loc("p416.2862")
#loc418 = loc("p417.2871")
#loc419 = loc("p418.2875")
#loc420 = loc("p419.2883")
#loc421 = loc("p420.2887")
#loc422 = loc("p421.2893")
#loc423 = loc("p422.2898")
#loc424 = loc("p423.2907")
#loc425 = loc("p424.2911")
#loc426 = loc("p425.2917")
#loc427 = loc("p426.2921")
#loc428 = loc("p427.2927")
#loc429 = loc("p428.2932")
#loc430 = loc("p429.2941")
#loc431 = loc("p430.2945")
#loc432 = loc("p431.2953")
#loc433 = loc("p432.2957")
#loc434 = loc("p433.2963")
#loc435 = loc("p434.2968")
#loc436 = loc("p435.2977")
#loc437 = loc("p436.2981")
#loc438 = loc("p437.2987")
#loc439 = loc("p438.2991")
#loc440 = loc("p439.2997")
#loc441 = loc("p440.3002")
#loc442 = loc("p441.3011")
#loc443 = loc("p442.3015")
#loc444 = loc("p443.3023")
#loc445 = loc("p444.3027")
#loc446 = loc("p445.3033")
#loc447 = loc("p446.3038")
#loc448 = loc("p447.3047")
#loc449 = loc("p448.3051")
#loc450 = loc("p449.3057")
#loc451 = loc("p450.3061")
#loc452 = loc("p451.3067")
#loc453 = loc("p452.3072")
#loc454 = loc("p453.3080")
#loc455 = loc("p454.3085")
#loc456 = loc("p455.3092")
#loc457 = loc("p456.3096")
#loc458 = loc("p457.3098")
#loc459 = loc("p458.3197")
#loc460 = loc("p459.3201")
#loc461 = loc("p460.3217")
#loc462 = loc("p461.3221")
#loc463 = loc("p462.3470")
#loc464 = loc("p463.3474")
#loc465 = loc("p464.3490")
#loc466 = loc("p465.3494")
#loc467 = loc("p466.3743")
#loc468 = loc("p467.3747")
#loc469 = loc("p468.3763")
#loc470 = loc("p469.3767")
#loc471 = loc("p470.4016")
#loc472 = loc("p471.4020")
#loc473 = loc("p472.4036")
#loc474 = loc("p473.4040")
#loc475 = loc("p474.4289")
#loc476 = loc("p475.4293")
#loc477 = loc("p476.4309")
#loc478 = loc("p477.4313")
#loc479 = loc("p478.4562")
#loc480 = loc("p479.4566")
#loc481 = loc("p480.4582")
#loc482 = loc("p481.4586")
#loc483 = loc("p482.4835")
#loc484 = loc("p483.4839")
#loc485 = loc("p484.4855")
#loc486 = loc("p485.4859")
#loc487 = loc("p486.5108")
#loc488 = loc("p487.5112")
#loc489 = loc("p488.5128")
#loc490 = loc("p489.5132")
#loc491 = loc("p490.5381")
#loc492 = loc("p491.5385")
#loc493 = loc("p492.5401")
#loc494 = loc("p493.5405")
#loc495 = loc("p494.5654")
#loc496 = loc("p495.5658")
#loc497 = loc("p496.5674")
#loc498 = loc("p497.5678")
#loc499 = loc("p498.5927")
#loc500 = loc("p499.5931")
#loc501 = loc("p500.5947")
#loc502 = loc("p501.5951")
#loc503 = loc("p502.6200")
#loc504 = loc("p503.6204")
#loc505 = loc("p504.6220")
#loc506 = loc("p505.6224")
#loc507 = loc("p506.6473")
#loc508 = loc("p507.6477")
#loc509 = loc("p508.6493")
#loc510 = loc("p509.6497")
#loc511 = loc("p510.6746")
#loc512 = loc("p511.6750")
#loc513 = loc("p512.6766")
#loc514 = loc("p513.6770")
#loc515 = loc("p514.7019")
#loc516 = loc("p515.7023")
#loc517 = loc("p516.7039")
#loc518 = loc("p517.7043")
#loc519 = loc("p518.7292")
#loc520 = loc("p519.7296")
#loc521 = loc("p520.7312")
#loc522 = loc("p521.7316")
#loc523 = loc("p522.7565")
#loc524 = loc("p523.7569")
#loc525 = loc("p524.7585")
#loc526 = loc("p525.7589")
#loc527 = loc("p526.7838")
#loc528 = loc("p527.7842")
#loc529 = loc("p528.7858")
#loc530 = loc("p529.7862")
#loc531 = loc("p530.8111")
#loc532 = loc("p531.8115")
#loc533 = loc("p532.8131")
#loc534 = loc("p533.8135")
#loc535 = loc("p534.8384")
#loc536 = loc("p535.8388")
#loc537 = loc("p536.8404")
#loc538 = loc("p537.8408")
#loc539 = loc("p538.8657")
#loc540 = loc("p539.8661")
#loc541 = loc("p540.8677")
#loc542 = loc("p541.8681")
#loc543 = loc("p542.8930")
#loc544 = loc("p543.8934")
#loc545 = loc("p544.8950")
#loc546 = loc("p545.8954")
#loc547 = loc("p546.9203")
#loc548 = loc("p547.9207")
#loc549 = loc("p548.9223")
#loc550 = loc("p549.9227")
#loc551 = loc("p550.9476")
#loc552 = loc("p551.9480")
#loc553 = loc("p552.9496")
#loc554 = loc("p553.9500")
#loc555 = loc("p554.9749")
#loc556 = loc("p555.9753")
#loc557 = loc("p556.9769")
#loc558 = loc("p557.9773")
#loc559 = loc("p558.10022")
#loc560 = loc("p559.10026")
#loc561 = loc("p560.10042")
#loc562 = loc("p561.10046")
#loc563 = loc("p562.10295")
#loc564 = loc("p563.10299")
#loc565 = loc("p564.10315")
#loc566 = loc("p565.10319")
#loc567 = loc("p566.11170")
#loc568 = loc("p567.18810")
#loc569 = loc("p568.25898")
#loc570 = loc("p569.25913")
#loc571 = loc("p570.25932")
#loc572 = loc("p571.25936")
#loc573 = loc("p572.25944")
#loc574 = loc("p573.25952")
#loc575 = loc("p574.26002")
#loc576 = loc("p575.26017")
#loc577 = loc("p576.26058")
#loc578 = loc("p577.26073")
#loc579 = loc("p578.26105")
#loc580 = loc("p579.26198")
#loc581 = loc("p580.26265")
#loc582 = loc("p581.26272")
#loc583 = loc("p582.26283")
#loc584 = loc("p583.26288")
#loc585 = loc("p584.26295")
#loc586 = loc("p585.26306")
#loc587 = loc("p586.26336")
#loc588 = loc("p587.26367")
#loc589 = loc("p588.26460")
#loc590 = loc("p589.26537")
#loc591 = loc("p590.26559")
#loc592 = loc("p591.26587")
#loc593 = loc("p592.26680")
#loc594 = loc("p593.26747")
#loc595 = loc("p594.26754")
#loc596 = loc("p595.26765")
#loc597 = loc("p596.26770")
#loc598 = loc("p597.26777")
#loc599 = loc("p598.26788")
#loc600 = loc("p599.26807")
#loc601 = loc("p600.26900")
#loc602 = loc("p601.26977")
#loc603 = loc("p602.26999")
#loc604 = loc("p603.27027")
#loc605 = loc("p604.27120")
#loc606 = loc("p605.27187")
#loc607 = loc("p606.27194")
#loc608 = loc("p607.27205")
#loc609 = loc("p608.27210")
#loc610 = loc("p609.27217")
#loc611 = loc("p610.27228")
#loc612 = loc("p611.27247")
#loc613 = loc("p612.27340")
#loc614 = loc("p613.27417")
#loc615 = loc("p614.27439")
#loc616 = loc("p615.27467")
#loc617 = loc("p616.27560")
#loc618 = loc("p617.27627")
#loc619 = loc("p618.27634")
#loc620 = loc("p619.27645")
#loc621 = loc("p620.27650")
#loc622 = loc("p621.27657")
#loc623 = loc("p622.27668")
#loc624 = loc("p623.27687")
#loc625 = loc("p624.27780")
#loc626 = loc("p625.27857")
#loc627 = loc("p626.27879")
#loc628 = loc("p627.27907")
#loc629 = loc("p628.28000")
#loc630 = loc("p629.28067")
#loc631 = loc("p630.28074")
#loc632 = loc("p631.28085")
#loc633 = loc("p632.28090")
#loc634 = loc("p633.28097")
#loc635 = loc("p634.28108")
#loc636 = loc("p635.28127")
#loc637 = loc("p636.28220")
#loc638 = loc("p637.28297")
#loc639 = loc("p638.28319")
#loc640 = loc("p639.28347")
#loc641 = loc("p640.28440")
#loc642 = loc("p641.28507")
#loc643 = loc("p642.28514")
#loc644 = loc("p643.28525")
#loc645 = loc("p644.28530")
#loc646 = loc("p645.28537")
#loc647 = loc("p646.28548")
#loc648 = loc("p647.28567")
#loc649 = loc("p648.28660")
#loc650 = loc("p649.28737")
#loc651 = loc("p650.28759")
#loc652 = loc("p651.28787")
#loc653 = loc("p652.28880")
#loc654 = loc("p653.28947")
#loc655 = loc("p654.28954")
#loc656 = loc("p655.28965")
#loc657 = loc("p656.28970")
#loc658 = loc("p657.28977")
#loc659 = loc("p658.28988")
#loc660 = loc("p659.29007")
#loc661 = loc("p660.29100")
#loc662 = loc("p661.29177")
#loc663 = loc("p662.29199")
#loc664 = loc("p663.29227")
#loc665 = loc("p664.29320")
#loc666 = loc("p665.29387")
#loc667 = loc("p666.29394")
#loc668 = loc("p667.29405")
#loc669 = loc("p668.29410")
#loc670 = loc("p669.29417")
#loc671 = loc("p670.29428")
#loc672 = loc("p671.29447")
#loc673 = loc("p672.29540")
#loc674 = loc("p673.29617")
#loc675 = loc("p674.29639")
#loc676 = loc("p675.29667")
#loc677 = loc("p676.29760")
#loc678 = loc("p677.29827")
#loc679 = loc("p678.29834")
#loc680 = loc("p679.29845")
#loc681 = loc("p680.29850")
#loc682 = loc("p681.29857")
#loc683 = loc("p682.29868")
#loc684 = loc("p683.29887")
#loc685 = loc("p684.29980")
#loc686 = loc("p685.30057")
#loc687 = loc("p686.30079")
#loc688 = loc("p687.30107")
#loc689 = loc("p688.30200")
#loc690 = loc("p689.30267")
#loc691 = loc("p690.30274")
#loc692 = loc("p691.30285")
#loc693 = loc("p692.30290")
#loc694 = loc("p693.30297")
#loc695 = loc("p694.30308")
#loc696 = loc("p695.30327")
#loc697 = loc("p696.30420")
#loc698 = loc("p697.30497")
#loc699 = loc("p698.30519")
#loc700 = loc("p699.30547")
#loc701 = loc("p700.30640")
#loc702 = loc("p701.30707")
#loc703 = loc("p702.30714")
#loc704 = loc("p703.30725")
#loc705 = loc("p704.30730")
#loc706 = loc("p705.30737")
#loc707 = loc("p706.30748")
#loc708 = loc("p707.30767")
#loc709 = loc("p708.30860")
#loc710 = loc("p709.30937")
#loc711 = loc("p710.30959")
#loc712 = loc("p711.30987")
#loc713 = loc("p712.31080")
#loc714 = loc("p713.31147")
#loc715 = loc("p714.31154")
#loc716 = loc("p715.31165")
#loc717 = loc("p716.31170")
#loc718 = loc("p717.31177")
#loc719 = loc("p718.31188")
#loc720 = loc("p719.31207")
#loc721 = loc("p720.31300")
#loc722 = loc("p721.31377")
#loc723 = loc("p722.31399")
#loc724 = loc("p723.31427")
#loc725 = loc("p724.31520")
#loc726 = loc("p725.31587")
#loc727 = loc("p726.31594")
#loc728 = loc("p727.31605")
#loc729 = loc("p728.31610")
#loc730 = loc("p729.31617")
#loc731 = loc("p730.31628")
#loc732 = loc("p731.31647")
#loc733 = loc("p732.31740")
#loc734 = loc("p733.31817")
#loc735 = loc("p734.31839")
#loc736 = loc("p735.31867")
#loc737 = loc("p736.31960")
#loc738 = loc("p737.32027")
#loc739 = loc("p738.32034")
#loc740 = loc("p739.32045")
#loc741 = loc("p740.32050")
#loc742 = loc("p741.32057")
#loc743 = loc("p742.32068")
#loc744 = loc("p743.32087")
#loc745 = loc("p744.32180")
#loc746 = loc("p745.32257")
#loc747 = loc("p746.32279")
#loc748 = loc("p747.32307")
#loc749 = loc("p748.32400")
#loc750 = loc("p749.32467")
#loc751 = loc("p750.32474")
#loc752 = loc("p751.32485")
#loc753 = loc("p752.32490")
#loc754 = loc("p753.32497")
#loc755 = loc("p754.32508")
#loc756 = loc("p755.32527")
#loc757 = loc("p756.32620")
#loc758 = loc("p757.32697")
#loc759 = loc("p758.32719")
#loc760 = loc("p759.32747")
#loc761 = loc("p760.32840")
#loc762 = loc("p761.32907")
#loc763 = loc("p762.32914")
#loc764 = loc("p763.32925")
#loc765 = loc("p764.32930")
#loc766 = loc("p765.32937")
#loc767 = loc("p766.32948")
#loc768 = loc("p767.32967")
#loc769 = loc("p768.33060")
#loc770 = loc("p769.33137")
#loc771 = loc("p770.33159")
#loc772 = loc("p771.33187")
#loc773 = loc("p772.33280")
#loc774 = loc("p773.33347")
#loc775 = loc("p774.33354")
#loc776 = loc("p775.33365")
#loc777 = loc("p776.33370")
#loc778 = loc("p777.33377")
#loc779 = loc("p778.33388")
#loc780 = loc("p779.33407")
#loc781 = loc("p780.33500")
#loc782 = loc("p781.33577")
#loc783 = loc("p782.33599")
#loc784 = loc("p783.33627")
#loc785 = loc("p784.33720")
#loc885 = loc("reduce-window.25981")
#loc5740 = loc("reduce-window.26051")
#loc5779 = loc("reduce-window.25921")
#loc5907 = loc("reduce-window.26345")
#loc9458 = loc("custom-call.33728")
#loc9467 = loc("custom-call.33288")
#loc9476 = loc("custom-call.33068")
#loc9485 = loc("custom-call.32628")
#loc9494 = loc("custom-call.32408")
#loc9503 = loc("custom-call.31748")
#loc9512 = loc("custom-call.31528")
#loc9521 = loc("custom-call.31088")
#loc9530 = loc("custom-call.30428")
#loc9539 = loc("custom-call.29988")
#loc9548 = loc("custom-call.29768")
#loc9557 = loc("custom-call.29548")
#loc9566 = loc("custom-call.29328")
#loc9575 = loc("custom-call.28888")
#loc9584 = loc("custom-call.28668")
#loc9593 = loc("custom-call.14667")
#loc9594 = loc("custom-call.10866")
#loc9595 = loc("custom-call.10865")
#loc9614 = loc("custom-call.14522")
#loc9615 = loc("custom-call.10876")
#loc9616 = loc("custom-call.10875")
#loc9635 = loc("custom-call.3655")
#loc9636 = loc("custom-call.2936")
#loc9637 = loc("custom-call.2931")
#loc9656 = loc("custom-call.14265")
#loc9657 = loc("custom-call.10898")
#loc9658 = loc("custom-call.10897")
#loc9677 = loc("custom-call.3109")
#loc9678 = loc("custom-call.3076")
#loc9679 = loc("custom-call.3071")
#loc9698 = loc("custom-call.13639")
#loc9699 = loc("custom-call.10954")
#loc9700 = loc("custom-call.10953")
#loc9719 = loc("custom-call.25648")
#loc9720 = loc("custom-call.18220")
#loc9721 = loc("custom-call.18219")
#loc9740 = loc("custom-call.17321")
#loc9749 = loc("custom-call.13494")
#loc9750 = loc("custom-call.10964")
#loc9751 = loc("custom-call.10963")
#loc9770 = loc("custom-call.32188")
#loc9779 = loc("custom-call.13466")
#loc9788 = loc("custom-call.13209")
#loc9797 = loc("custom-call.23676")
#loc9806 = loc("custom-call.12695")
#loc9815 = loc("custom-call.12354")
#loc9816 = loc("custom-call.11064")
#loc9817 = loc("custom-call.11063")
#loc9836 = loc("custom-call.31968")
#loc9845 = loc("custom-call.5181")
#loc9846 = loc("custom-call.2552")
#loc9847 = loc("custom-call.2547")
#loc9866 = loc("custom-call.12438")
#loc9875 = loc("custom-call.9360")
#loc9884 = loc("custom-call.9822")
#loc9885 = loc("custom-call.1362")
#loc9886 = loc("custom-call.1357")
#loc9905 = loc("custom-call.15779")
#loc9914 = loc("custom-call.14410")
#loc9915 = loc("custom-call.10888")
#loc9916 = loc("custom-call.10887")
#loc9935 = loc("custom-call.14153")
#loc9936 = loc("custom-call.10910")
#loc9937 = loc("custom-call.10909")
#loc9956 = loc("custom-call.12097")
#loc9957 = loc("custom-call.11086")
#loc9958 = loc("custom-call.11085")
#loc9977 = loc("custom-call.8184")
#loc9978 = loc("custom-call.1782")
#loc9979 = loc("custom-call.1777")
#loc9998 = loc("custom-call.12611")
#loc9999 = loc("custom-call.11042")
#loc10000 = loc("custom-call.11041")
#loc10019 = loc("custom-call.14779")
#loc10020 = loc("custom-call.10854")
#loc10021 = loc("custom-call.10853")
#loc10040 = loc("custom-call.3928")
#loc10041 = loc("custom-call.2866")
#loc10042 = loc("custom-call.2861")
#loc10061 = loc("custom-call.11952")
#loc10062 = loc("custom-call.11096")
#loc10063 = loc("custom-call.11095")
#loc10082 = loc("custom-call.9549")
#loc10083 = loc("custom-call.1432")
#loc10084 = loc("custom-call.1427")
#loc10103 = loc("custom-call.11924")
#loc10112 = loc("custom-call.11695")
#loc10113 = loc("custom-call.11118")
#loc10114 = loc("custom-call.11117")
#loc10133 = loc("custom-call.11583")
#loc10134 = loc("custom-call.11130")
#loc10135 = loc("custom-call.11129")
#loc10154 = loc("custom-call.11410")
#loc10163 = loc("custom-call.19849")
#loc10164 = loc("custom-call.18714")
#loc10165 = loc("custom-call.18713")
#loc10184 = loc("custom-call.25503")
#loc10185 = loc("custom-call.18230")
#loc10186 = loc("custom-call.18229")
#loc10205 = loc("custom-call.25760")
#loc10206 = loc("custom-call.18208")
#loc10207 = loc("custom-call.18207")
#loc10226 = loc("custom-call.16835")
#loc10227 = loc("custom-call.10678")
#loc10228 = loc("custom-call.10677")
#loc10247 = loc("custom-call.9661")
#loc10248 = loc("custom-call.1396")
#loc10249 = loc("custom-call.1391")
#loc10268 = loc("custom-call.25246")
#loc10269 = loc("custom-call.18252")
#loc10270 = loc("custom-call.18251")
#loc10289 = loc("custom-call.5020")
#loc10290 = loc("custom-call.2586")
#loc10291 = loc("custom-call.2581")
#loc10310 = loc("custom-call.27788")
#loc10319 = loc("custom-call.25134")
#loc10320 = loc("custom-call.18264")
#loc10321 = loc("custom-call.18263")
#loc10340 = loc("custom-call.25218")
#loc10349 = loc("custom-call.24989")
#loc10350 = loc("custom-call.18274")
#loc10351 = loc("custom-call.18273")
#loc10370 = loc("custom-call.24877")
#loc10371 = loc("custom-call.18286")
#loc10372 = loc("custom-call.18285")
#loc10391 = loc("custom-call.14237")
#loc10400 = loc("custom-call.21648")
#loc10401 = loc("custom-call.18560")
#loc10402 = loc("custom-call.18559")
#loc10421 = loc("custom-call.24704")
#loc10430 = loc("custom-call.24620")
#loc10431 = loc("custom-call.18308")
#loc10432 = loc("custom-call.18307")
#loc10451 = loc("custom-call.24475")
#loc10452 = loc("custom-call.18318")
#loc10453 = loc("custom-call.18317")
#loc10472 = loc("custom-call.11181")
#loc10473 = loc("custom-call.11162")
#loc10474 = loc("custom-call.11161")
#loc10493 = loc("custom-call.5727")
#loc10494 = loc("custom-call.2412")
#loc10495 = loc("custom-call.2407")
#loc10514 = loc("custom-call.24190")
#loc10523 = loc("custom-call.24961")
#loc10532 = loc("custom-call.23961")
#loc10533 = loc("custom-call.18362")
#loc10534 = loc("custom-call.18361")
#loc10553 = loc("custom-call.23704")
#loc10554 = loc("custom-call.18384")
#loc10555 = loc("custom-call.18383")
#loc10574 = loc("custom-call.11840")
#loc10575 = loc("custom-call.11108")
#loc10576 = loc("custom-call.11107")
#loc10595 = loc("custom-call.21134")
#loc10596 = loc("custom-call.18604")
#loc10597 = loc("custom-call.18603")
#loc10616 = loc("custom-call.21279")
#loc10617 = loc("custom-call.18594")
#loc10618 = loc("custom-call.18593")
#loc10637 = loc("custom-call.20877")
#loc10638 = loc("custom-call.18626")
#loc10639 = loc("custom-call.18625")
#loc10658 = loc("custom-call.16466")
#loc10659 = loc("custom-call.10712")
#loc10660 = loc("custom-call.10711")
#loc10679 = loc("custom-call.29108")
#loc10688 = loc("custom-call.28448")
#loc10697 = loc("custom-call.20363")
#loc10698 = loc("custom-call.18670")
#loc10699 = loc("custom-call.18669")
#loc10718 = loc("custom-call.25475")
#loc10727 = loc("custom-call.6385")
#loc10728 = loc("custom-call.2236")
#loc10729 = loc("custom-call.2231")
#loc10748 = loc("custom-call.23592")
#loc10749 = loc("custom-call.18396")
#loc10750 = loc("custom-call.18395")
#loc10769 = loc("custom-call.14494")
#loc10778 = loc("custom-call.19480")
#loc10779 = loc("custom-call.18748")
#loc10780 = loc("custom-call.18747")
#loc10799 = loc("custom-call.13237")
#loc10800 = loc("custom-call.10986")
#loc10801 = loc("custom-call.10985")
#loc10820 = loc("custom-call.17606")
#loc10821 = loc("custom-call.10612")
#loc10822 = loc("custom-call.10611")
#loc10841 = loc("custom-call.12952")
#loc10850 = loc("custom-call.17494")
#loc10851 = loc("custom-call.10624")
#loc10852 = loc("custom-call.10623")
#loc10871 = loc("custom-call.18008")
#loc10872 = loc("custom-call.10580")
#loc10873 = loc("custom-call.10579")
#loc10892 = loc("custom-call.20508")
#loc10893 = loc("custom-call.18660")
#loc10894 = loc("custom-call.18659")
#loc10913 = loc("custom-call.10095")
#loc10914 = loc("custom-call.1292")
#loc10915 = loc("custom-call.1287")
#loc10934 = loc("custom-call.20078")
#loc10943 = loc("custom-call.11326")
#loc10944 = loc("custom-call.11152")
#loc10945 = loc("custom-call.11151")
#loc10964 = loc("custom-call.6630")
#loc10973 = loc("custom-call.12209")
#loc10974 = loc("custom-call.11074")
#loc10975 = loc("custom-call.11073")
#loc10994 = loc("custom-call.14008")
#loc10995 = loc("custom-call.10920")
#loc10996 = loc("custom-call.10919")
#loc11015 = loc("custom-call.25732")
#loc11024 = loc("custom-call.3382")
#loc11025 = loc("custom-call.3006")
#loc11026 = loc("custom-call.3001")
#loc11045 = loc("custom-call.14751")
#loc11054 = loc("custom-call.18821")
#loc11055 = loc("custom-call.18802")
#loc11056 = loc("custom-call.18801")
#loc11075 = loc("custom-call.25391")
#loc11076 = loc("custom-call.18242")
#loc11077 = loc("custom-call.18241")
#loc11096 = loc("custom-call.21022")
#loc11097 = loc("custom-call.18616")
#loc11098 = loc("custom-call.18615")
#loc11117 = loc("custom-call.26206")
#loc11126 = loc("custom-call.19078")
#loc11127 = loc("custom-call.18780")
#loc11128 = loc("custom-call.18779")
#loc11147 = loc("custom-call.21620")
#loc11156 = loc("custom-call.24106")
#loc11157 = loc("custom-call.18352")
#loc11158 = loc("custom-call.18351")
#loc11177 = loc("custom-call.14924")
#loc11178 = loc("custom-call.10844")
#loc11179 = loc("custom-call.10843")
#loc11198 = loc("custom-call.4992")
#loc11207 = loc("custom-call.21106")
#loc11216 = loc("custom-call.22564")
#loc11217 = loc("custom-call.18484")
#loc11218 = loc("custom-call.18483")
#loc11237 = loc("custom-call.3354")
#loc11246 = loc("custom-call.30868")
#loc11255 = loc("custom-call.23162")
#loc11264 = loc("custom-call.20849")
#loc11273 = loc("custom-call.30208")
#loc11282 = loc("custom-call.24447")
#loc11291 = loc("custom-call.19223")
#loc11292 = loc("custom-call.18770")
#loc11293 = loc("custom-call.18769")
#loc11312 = loc("custom-call.21536")
#loc11313 = loc("custom-call.18572")
#loc11314 = loc("custom-call.18571")
#loc11333 = loc("custom-call.15181")
#loc11334 = loc("custom-call.10822")
#loc11335 = loc("custom-call.10821")
#loc11354 = loc("custom-call.23849")
#loc11355 = loc("custom-call.18374")
#loc11356 = loc("custom-call.18373")
#loc11375 = loc("custom-call.20106")
#loc11376 = loc("custom-call.18692")
#loc11377 = loc("custom-call.18691")
#loc11396 = loc("custom-call.8541")
#loc11405 = loc("custom-call.11667")
#loc11414 = loc("custom-call.19592")
#loc11415 = loc("custom-call.18736")
#loc11416 = loc("custom-call.18735")
#loc11435 = loc("custom-call.10179")
#loc11444 = loc("custom-call.12181")
#loc11453 = loc("custom-call.22391")
#loc11462 = loc("custom-call.11438")
#loc11463 = loc("custom-call.11140")
#loc11464 = loc("custom-call.11139")
#loc11483 = loc("custom-call.23933")
#loc11492 = loc("custom-call.15036")
#loc11493 = loc("custom-call.10832")
#loc11494 = loc("custom-call.10831")
#loc11513 = loc("custom-call.19050")
#loc11522 = loc("custom-call.7722")
#loc11531 = loc("custom-call.9906")
#loc11540 = loc("custom-call.19821")
#loc11549 = loc("custom-call.13125")
#loc11550 = loc("custom-call.10998")
#loc11551 = loc("custom-call.10997")
#loc11570 = loc("custom-call.19335")
#loc11571 = loc("custom-call.18758")
#loc11572 = loc("custom-call.18757")
#loc11591 = loc("custom-call.19737")
#loc11592 = loc("custom-call.18726")
#loc11593 = loc("custom-call.18725")
#loc11612 = loc("custom-call.12466")
#loc11613 = loc("custom-call.11052")
#loc11614 = loc("custom-call.11051")
#loc11633 = loc("custom-call.4474")
#loc11634 = loc("custom-call.2726")
#loc11635 = loc("custom-call.2721")
#loc11654 = loc("custom-call.22821")
#loc11655 = loc("custom-call.18462")
#loc11656 = loc("custom-call.18461")
#loc11675 = loc("custom-call.15695")
#loc11676 = loc("custom-call.10778")
#loc11677 = loc("custom-call.10777")
#loc11696 = loc("custom-call.12868")
#loc11697 = loc("custom-call.11020")
#loc11698 = loc("custom-call.11019")
#loc11717 = loc("custom-call.13382")
#loc11718 = loc("custom-call.10976")
#loc11719 = loc("custom-call.10975")
#loc11738 = loc("custom-call.32848")
#loc11747 = loc("custom-call.22648")
#loc11756 = loc("custom-call.22134")
#loc11765 = loc("custom-call.15807")
#loc11766 = loc("custom-call.10766")
#loc11767 = loc("custom-call.10765")
#loc11786 = loc("custom-call.16036")
#loc11795 = loc("custom-call.21363")
#loc11804 = loc("custom-call.8296")
#loc11805 = loc("custom-call.1746")
#loc11806 = loc("custom-call.1741")
#loc11825 = loc("custom-call.13751")
#loc11826 = loc("custom-call.10942")
#loc11827 = loc("custom-call.10941")
#loc11846 = loc("custom-call.10480")
#loc11847 = loc("custom-call.1186")
#loc11848 = loc("custom-call.1181")
#loc11867 = loc("custom-call.21391")
#loc11868 = loc("custom-call.18582")
#loc11869 = loc("custom-call.18581")
#loc11888 = loc("custom-call.26468")
#loc11897 = loc("custom-call.15008")
#loc11906 = loc("custom-call.12980")
#loc11907 = loc("custom-call.11008")
#loc11908 = loc("custom-call.11007")
#loc11927 = loc("custom-call.7204")
#loc11928 = loc("custom-call.2026")
#loc11929 = loc("custom-call.2021")
#loc11948 = loc("custom-call.20765")
#loc11949 = loc("custom-call.18638")
#loc11950 = loc("custom-call.18637")
#loc11969 = loc("custom-call.33508")
#loc11978 = loc("custom-call.20620")
#loc11979 = loc("custom-call.18648")
#loc11980 = loc("custom-call.18647")
#loc11999 = loc("custom-call.7638")
#loc12000 = loc("custom-call.1922")
#loc12001 = loc("custom-call.1917")
#loc12020 = loc("custom-call.23190")
#loc12021 = loc("custom-call.18428")
#loc12022 = loc("custom-call.18427")
#loc12041 = loc("custom-call.6357")
#loc12050 = loc("custom-call.23419")
#loc12059 = loc("custom-call.24732")
#loc12060 = loc("custom-call.18296")
#loc12061 = loc("custom-call.18295")
#loc12080 = loc("custom-call.22307")
#loc12081 = loc("custom-call.18506")
#loc12082 = loc("custom-call.18505")
#loc12101 = loc("custom-call.4362")
#loc12102 = loc("custom-call.2762")
#loc12103 = loc("custom-call.2757")
#loc12122 = loc("custom-call.22419")
#loc12123 = loc("custom-call.18494")
#loc12124 = loc("custom-call.18493")
#loc12143 = loc("custom-call.10368")
#loc12144 = loc("custom-call.1222")
#loc12145 = loc("custom-call.1217")
#loc12164 = loc("custom-call.20251")
#loc12165 = loc("custom-call.18682")
#loc12166 = loc("custom-call.18681")
#loc12185 = loc("custom-call.22933")
#loc12186 = loc("custom-call.18450")
#loc12187 = loc("custom-call.18449")
#loc12206 = loc("custom-call.21877")
#loc12215 = loc("custom-call.28228")
#loc12224 = loc("custom-call.20335")
#loc12233 = loc("custom-call.13980")
#loc12242 = loc("custom-call.21793")
#loc12243 = loc("custom-call.18550")
#loc12244 = loc("custom-call.18549")
#loc12263 = loc("custom-call.21905")
#loc12264 = loc("custom-call.18538")
#loc12265 = loc("custom-call.18537")
#loc12284 = loc("custom-call.16064")
#loc12285 = loc("custom-call.10744")
#loc12286 = loc("custom-call.10743")
#loc12305 = loc("custom-call.22162")
#loc12306 = loc("custom-call.18516")
#loc12307 = loc("custom-call.18515")
#loc12326 = loc("custom-call.10207")
#loc12327 = loc("custom-call.1256")
#loc12328 = loc("custom-call.1251")
#loc12347 = loc("custom-call.8268")
#loc12356 = loc("custom-call.22050")
#loc12357 = loc("custom-call.18528")
#loc12358 = loc("custom-call.18527")
#loc12377 = loc("custom-call.22676")
#loc12378 = loc("custom-call.18472")
#loc12379 = loc("custom-call.18471")
#loc12398 = loc("custom-call.22905")
#loc12407 = loc("custom-call.7365")
#loc12408 = loc("custom-call.1992")
#loc12409 = loc("custom-call.1987")
#loc12428 = loc("custom-call.13723")
#loc12437 = loc("custom-call.23078")
#loc12438 = loc("custom-call.18440")
#loc12439 = loc("custom-call.18439")
#loc12458 = loc("custom-call.12723")
#loc12459 = loc("custom-call.11030")
#loc12460 = loc("custom-call.11029")
#loc12479 = loc("custom-call.15265")
#loc12488 = loc("custom-call.15293")
#loc12489 = loc("custom-call.10810")
#loc12490 = loc("custom-call.10809")
#loc12509 = loc("custom-call.8569")
#loc12510 = loc("custom-call.1676")
#loc12511 = loc("custom-call.1671")
#loc12530 = loc("custom-call.15522")
#loc12539 = loc("custom-call.15550")
#loc12540 = loc("custom-call.10788")
#loc12541 = loc("custom-call.10787")
#loc12560 = loc("custom-call.15952")
#loc12561 = loc("custom-call.10756")
#loc12562 = loc("custom-call.10755")
#loc12581 = loc("custom-call.16293")
#loc12590 = loc("custom-call.16321")
#loc12591 = loc("custom-call.10722")
#loc12592 = loc("custom-call.10721")
#loc12611 = loc("custom-call.16550")
#loc12620 = loc("custom-call.16723")
#loc12621 = loc("custom-call.10690")
#loc12622 = loc("custom-call.10689")
#loc12641 = loc("custom-call.31308")
#loc12650 = loc("custom-call.9003")
#loc12651 = loc("custom-call.1572")
#loc12652 = loc("custom-call.1567")
#loc12671 = loc("custom-call.16807")
#loc12680 = loc("custom-call.6273")
#loc12681 = loc("custom-call.2272")
#loc12682 = loc("custom-call.2267")
#loc12701 = loc("custom-call.17064")
#loc12710 = loc("custom-call.16209")
#loc12711 = loc("custom-call.10734")
#loc12712 = loc("custom-call.10733")
#loc12731 = loc("custom-call.17092")
#loc12732 = loc("custom-call.10656")
#loc12733 = loc("custom-call.10655")
#loc12752 = loc("custom-call.17237")
#loc12753 = loc("custom-call.10646")
#loc12754 = loc("custom-call.10645")
#loc12773 = loc("custom-call.4173")
#loc12782 = loc("custom-call.24218")
#loc12783 = loc("custom-call.18340")
#loc12784 = loc("custom-call.18339")
#loc12803 = loc("custom-call.23447")
#loc12804 = loc("custom-call.18406")
#loc12805 = loc("custom-call.18405")
#loc12824 = loc("custom-call.17349")
#loc12825 = loc("custom-call.10634")
#loc12826 = loc("custom-call.10633")
#loc12845 = loc("custom-call.17578")
#loc12854 = loc("custom-call.16578")
#loc12855 = loc("custom-call.10700")
#loc12856 = loc("custom-call.10699")
#loc12875 = loc("custom-call.5839")
#loc12876 = loc("custom-call.2376")
#loc12877 = loc("custom-call.2371")
#loc12896 = loc("custom-call.17751")
#loc12897 = loc("custom-call.10602")
#loc12898 = loc("custom-call.10601")
#loc12917 = loc("custom-call.17863")
#loc12918 = loc("custom-call.10590")
#loc12919 = loc("custom-call.10589")
#loc12938 = loc("custom-call.18092")
#loc12947 = loc("custom-call.18120")
#loc12948 = loc("custom-call.10568")
#loc12949 = loc("custom-call.10567")
#loc12968 = loc("custom-call.27128")
#loc12977 = loc("custom-call.5293")
#loc12978 = loc("custom-call.2516")
#loc12979 = loc("custom-call.2511")
#loc12998 = loc("custom-call.3270")
#loc12999 = loc("custom-call.3042")
#loc13000 = loc("custom-call.3037")
#loc13019 = loc("custom-call.3543")
#loc13020 = loc("custom-call.2972")
#loc13021 = loc("custom-call.2967")
#loc13040 = loc("custom-call.18966")
#loc13041 = loc("custom-call.18792")
#loc13042 = loc("custom-call.18791")
#loc13061 = loc("custom-call.9388")
#loc13062 = loc("custom-call.1466")
#loc13063 = loc("custom-call.1461")
#loc13082 = loc("custom-call.6931")
#loc13083 = loc("custom-call.2096")
#loc13084 = loc("custom-call.2091")
#loc13103 = loc("custom-call.3627")
#loc13112 = loc("custom-call.19564")
#loc13121 = loc("custom-call.5454")
#loc13122 = loc("custom-call.2482")
#loc13123 = loc("custom-call.2477")
#loc13142 = loc("custom-call.15438")
#loc13143 = loc("custom-call.10800")
#loc13144 = loc("custom-call.10799")
#loc13163 = loc("custom-call.3816")
#loc13164 = loc("custom-call.2902")
#loc13165 = loc("custom-call.2897")
#loc13184 = loc("custom-call.7449")
#loc13193 = loc("custom-call.19994")
#loc13194 = loc("custom-call.18704")
#loc13195 = loc("custom-call.18703")
#loc13214 = loc("custom-call.27568")
#loc13223 = loc("custom-call.3900")
#loc13232 = loc("custom-call.19307")
#loc13241 = loc("custom-call.4446")
#loc13250 = loc("custom-call.4089")
#loc13251 = loc("custom-call.2832")
#loc13252 = loc("custom-call.2827")
#loc13271 = loc("custom-call.23335")
#loc13272 = loc("custom-call.18418")
#loc13273 = loc("custom-call.18417")
#loc13292 = loc("custom-call.4201")
#loc13293 = loc("custom-call.2796")
#loc13294 = loc("custom-call.2791")
#loc13313 = loc("custom-call.4635")
#loc13314 = loc("custom-call.2692")
#loc13315 = loc("custom-call.2687")
#loc13334 = loc("custom-call.26908")
#loc13343 = loc("custom-call.4719")
#loc13352 = loc("custom-call.4747")
#loc13353 = loc("custom-call.2656")
#loc13354 = loc("custom-call.2651")
#loc13373 = loc("custom-call.4908")
#loc13374 = loc("custom-call.2622")
#loc13375 = loc("custom-call.2617")
#loc13394 = loc("custom-call.5265")
#loc13403 = loc("custom-call.5566")
#loc13404 = loc("custom-call.2446")
#loc13405 = loc("custom-call.2441")
#loc13424 = loc("custom-call.5811")
#loc13433 = loc("custom-call.8814")
#loc13442 = loc("custom-call.6000")
#loc13443 = loc("custom-call.2342")
#loc13444 = loc("custom-call.2337")
#loc13463 = loc("custom-call.6084")
#loc13472 = loc("custom-call.20592")
#loc13481 = loc("custom-call.6112")
#loc13482 = loc("custom-call.2306")
#loc13483 = loc("custom-call.2301")
#loc13502 = loc("custom-call.6546")
#loc13503 = loc("custom-call.2202")
#loc13504 = loc("custom-call.2197")
#loc13523 = loc("custom-call.6658")
#loc13524 = loc("custom-call.2166")
#loc13525 = loc("custom-call.2161")
#loc13544 = loc("custom-call.6819")
#loc13545 = loc("custom-call.2132")
#loc13546 = loc("custom-call.2127")
#loc13565 = loc("custom-call.9934")
#loc13566 = loc("custom-call.1326")
#loc13567 = loc("custom-call.1321")
#loc13586 = loc("custom-call.9276")
#loc13587 = loc("custom-call.1502")
#loc13588 = loc("custom-call.1497")
#loc13607 = loc("custom-call.6903")
#loc13616 = loc("custom-call.7092")
#loc13617 = loc("custom-call.2062")
#loc13618 = loc("custom-call.2057")
#loc13637 = loc("custom-call.24363")
#loc13638 = loc("custom-call.18330")
#loc13639 = loc("custom-call.18329")
#loc13658 = loc("custom-call.7176")
#loc13667 = loc("custom-call.7477")
#loc13668 = loc("custom-call.1956")
#loc13669 = loc("custom-call.1951")
#loc13688 = loc("custom-call.17835")
#loc13697 = loc("custom-call.7750")
#loc13698 = loc("custom-call.1886")
#loc13699 = loc("custom-call.1881")
#loc13718 = loc("custom-call.7911")
#loc13719 = loc("custom-call.1852")
#loc13720 = loc("custom-call.1847")
#loc13739 = loc("custom-call.13896")
#loc13740 = loc("custom-call.10932")
#loc13741 = loc("custom-call.10931")
#loc13760 = loc("custom-call.16980")
#loc13761 = loc("custom-call.10668")
#loc13762 = loc("custom-call.10667")
#loc13781 = loc("custom-call.7995")
#loc13790 = loc("custom-call.8023")
#loc13791 = loc("custom-call.1816")
#loc13792 = loc("custom-call.1811")
#loc13811 = loc("custom-call.8457")
#loc13812 = loc("custom-call.1712")
#loc13813 = loc("custom-call.1707")
#loc13832 = loc("custom-call.30648")
#loc13841 = loc("custom-call.8730")
#loc13842 = loc("custom-call.1642")
#loc13843 = loc("custom-call.1637")
#loc13862 = loc("custom-call.8842")
#loc13863 = loc("custom-call.1606")
#loc13864 = loc("custom-call.1601")
#loc13883 = loc("custom-call.9087")
#loc13892 = loc("custom-call.9115")
#loc13893 = loc("custom-call.1536")
#loc13894 = loc("custom-call.1531")
#loc13913 = loc("custom-call.9633")
#loc13922 = loc("custom-call.10452")
#loc13931 = loc("custom-call.26688")
#loc13940 = loc("custom-call.27348")
#loc13949 = loc("custom-call.5538")
#loc13958 = loc("custom-call.28008")
module @SyncTensorsGraph.33806 attributes {mhlo.cross_program_prefetches = [], mhlo.input_output_alias = [], mhlo.is_dynamic = false, mhlo.use_auto_spmd_partitioning = false} {
  func.func @main(%arg0: tensor<1024xf32> {ttcore.argument_type = #ttcore.argument_type<parameter>, ttir.name = "L__self___bracket_core_state_proj.bias"} loc("p0.72"), %arg1: tensor<1024x32xf32> {ttcore.argument_type = #ttcore.argument_type<parameter>, ttir.name = "L__self___bracket_core_state_proj.weight"} loc("p1.79"), %arg2: tensor<1x32xf32> {ttcore.argument_type = #ttcore.argument_type<input>, ttir.name = "args_0"} loc("p2.84"), %arg3: tensor<1024xf32> {ttcore.argument_type = #ttcore.argument_type<parameter>, ttir.name = "L__self___bracket_core_action_in_proj.bias"} loc("p3.110"), %arg4: tensor<1024x32xf32> {ttcore.argument_type = #ttcore.argument_type<parameter>, ttir.name = "L__self___bracket_core_action_in_proj.weight"} loc("p4.114"), %arg5: tensor<32xf32> {ttcore.argument_type = #ttcore.argument_type<parameter>, ttir.name = "L__self___bracket_core_action_out_proj.bias"} loc("p5.122"), %arg6: tensor<32x1024xf32> {ttcore.argument_type = #ttcore.argument_type<parameter>, ttir.name = "L__self___bracket_core_action_out_proj.weight"} loc("p6.126"), %arg7: tensor<1024xf32> {ttcore.argument_type = #ttcore.argument_type<parameter>, ttir.name = "L__self___bracket_core_paligemma_with_expert_gemma_expert_model_norm_weight"} loc("p7.133"), %arg8: tensor<1024x4096xf32> {ttcore.argument_type = #ttcore.argument_type<parameter>, ttir.name = "L__self___bracket_core_paligemma_with_expert_gemma_expert_model_layers_17_mlp_down_proj.weight"} loc("p8.144"), %arg9: tensor<4096x1024xf32> {ttcore.argument_type = #ttcore.argument_type<parameter>, ttir.name = "L__self___bracket_core_paligemma_with_expert_gemma_expert_model_layers_17_mlp_up_proj.weight"} loc("p9.149"), %arg10: tensor<1024xf32> {ttcore.argument_type = #ttcore.argument_type<parameter>, ttir.name = "L__self___bracket_core_paligemma_with_expert_gemma_expert_model_layers_17_post_attention_layernorm_weight"} loc("p10.156"), %arg11: tensor<1024x2048xf32> {ttcore.argument_type = #ttcore.argument_type<parameter>, ttir.name = "L__self___bracket_core_paligemma_with_expert_gemma_expert_model_layers_17_self_attn_o_proj.weight"} loc("p11.167"), %arg12: tensor<256x1024xf32> {ttcore.argument_type = #ttcore.argument_type<parameter>, ttir.name = "L__self___bracket_core_paligemma_with_expert_gemma_expert_model_layers_17_self_attn_v_proj.weight"} loc("p12.172"), %arg13: tensor<1024xf32> {ttcore.argument_type = #ttcore.argument_type<parameter>, ttir.name = "L__self___bracket_core_paligemma_with_expert_gemma_expert_model_layers_17_input_layernorm_weight"} loc("p13.179"), %arg14: tensor<1024x4096xf32> {ttcore.argument_type = #ttcore.argument_type<parameter>, ttir.name = "L__self___bracket_core_paligemma_with_expert_gemma_expert_model_layers_16_mlp_down_proj.weight"} loc("p14.190"), %arg15: tensor<4096x1024xf32> {ttcore.argument_type = #ttcore.argument_type<parameter>, ttir.name = "L__self___bracket_core_paligemma_with_expert_gemma_expert_model_layers_16_mlp_up_proj.weight"} loc("p15.195"), %arg16: tensor<1024xf32> {ttcore.argument_type = #ttcore.argument_type<parameter>, ttir.name = "L__self___bracket_core_paligemma_with_expert_gemma_expert_model_layers_16_post_attention_layernorm_weight"} loc("p16.202"), %arg17: tensor<1024x2048xf32> {ttcore.argument_type = #ttcore.argument_type<parameter>, ttir.name = "L__self___bracket_core_paligemma_with_expert_gemma_expert_model_layers_16_self_attn_o_proj.weight"} loc("p17.213"), %arg18: tensor<256x1024xf32> {ttcore.argument_type = #ttcore.argument_type<parameter>, ttir.name = "L__self___bracket_core_paligemma_with_expert_gemma_expert_model_layers_16_self_attn_v_proj.weight"} loc("p18.218"), %arg19: tensor<1024xf32> {ttcore.argument_type = #ttcore.argument_type<parameter>, ttir.name = "L__self___bracket_core_paligemma_with_expert_gemma_expert_model_layers_16_input_layernorm_weight"} loc("p19.225"), %arg20: tensor<1024x4096xf32> {ttcore.argument_type = #ttcore.argument_type<parameter>, ttir.name = "L__self___bracket_core_paligemma_with_expert_gemma_expert_model_layers_15_mlp_down_proj.weight"} loc("p20.236"), %arg21: tensor<4096x1024xf32> {ttcore.argument_type = #ttcore.argument_type<parameter>, ttir.name = "L__self___bracket_core_paligemma_with_expert_gemma_expert_model_layers_15_mlp_up_proj.weight"} loc("p21.241"), %arg22: tensor<1024xf32> {ttcore.argument_type = #ttcore.argument_type<parameter>, ttir.name = "L__self___bracket_core_paligemma_with_expert_gemma_expert_model_layers_15_post_attention_layernorm_weight"} loc("p22.248"), %arg23: tensor<1024x2048xf32> {ttcore.argument_type = #ttcore.argument_type<parameter>, ttir.name = "L__self___bracket_core_paligemma_with_expert_gemma_expert_model_layers_15_self_attn_o_proj.weight"} loc("p23.259"), %arg24: tensor<256x1024xf32> {ttcore.argument_type = #ttcore.argument_type<parameter>, ttir.name = "L__self___bracket_core_paligemma_with_expert_gemma_expert_model_layers_15_self_attn_v_proj.weight"} loc("p24.264"), %arg25: tensor<1024xf32> {ttcore.argument_type = #ttcore.argument_type<parameter>, ttir.name = "L__self___bracket_core_paligemma_with_expert_gemma_expert_model_layers_15_input_layernorm_weight"} loc("p25.271"), %arg26: tensor<1024x4096xf32> {ttcore.argument_type = #ttcore.argument_type<parameter>, ttir.name = "L__self___bracket_core_paligemma_with_expert_gemma_expert_model_layers_14_mlp_down_proj.weight"} loc("p26.282"), %arg27: tensor<4096x1024xf32> {ttcore.argument_type = #ttcore.argument_type<parameter>, ttir.name = "L__self___bracket_core_paligemma_with_expert_gemma_expert_model_layers_14_mlp_up_proj.weight"} loc("p27.287"), %arg28: tensor<1024xf32> {ttcore.argument_type = #ttcore.argument_type<parameter>, ttir.name = "L__self___bracket_core_paligemma_with_expert_gemma_expert_model_layers_14_post_attention_layernorm_weight"} loc("p28.294"), %arg29: tensor<1024x2048xf32> {ttcore.argument_type = #ttcore.argument_type<parameter>, ttir.name = "L__self___bracket_core_paligemma_with_expert_gemma_expert_model_layers_14_self_attn_o_proj.weight"} loc("p29.305"), %arg30: tensor<256x1024xf32> {ttcore.argument_type = #ttcore.argument_type<parameter>, ttir.name = "L__self___bracket_core_paligemma_with_expert_gemma_expert_model_layers_14_self_attn_v_proj.weight"} loc("p30.310"), %arg31: tensor<1024xf32> {ttcore.argument_type = #ttcore.argument_type<parameter>, ttir.name = "L__self___bracket_core_paligemma_with_expert_gemma_expert_model_layers_14_input_layernorm_weight"} loc("p31.317"), %arg32: tensor<1024x4096xf32> {ttcore.argument_type = #ttcore.argument_type<parameter>, ttir.name = "L__self___bracket_core_paligemma_with_expert_gemma_expert_model_layers_13_mlp_down_proj.weight"} loc("p32.328"), %arg33: tensor<4096x1024xf32> {ttcore.argument_type = #ttcore.argument_type<parameter>, ttir.name = "L__self___bracket_core_paligemma_with_expert_gemma_expert_model_layers_13_mlp_up_proj.weight"} loc("p33.333"), %arg34: tensor<1024xf32> {ttcore.argument_type = #ttcore.argument_type<parameter>, ttir.name = "L__self___bracket_core_paligemma_with_expert_gemma_expert_model_layers_13_post_attention_layernorm_weight"} loc("p34.340"), %arg35: tensor<1024x2048xf32> {ttcore.argument_type = #ttcore.argument_type<parameter>, ttir.name = "L__self___bracket_core_paligemma_with_expert_gemma_expert_model_layers_13_self_attn_o_proj.weight"} loc("p35.351"), %arg36: tensor<256x1024xf32> {ttcore.argument_type = #ttcore.argument_type<parameter>, ttir.name = "L__self___bracket_core_paligemma_with_expert_gemma_expert_model_layers_13_self_attn_v_proj.weight"} loc("p36.356"), %arg37: tensor<1024xf32> {ttcore.argument_type = #ttcore.argument_type<parameter>, ttir.name = "L__self___bracket_core_paligemma_with_expert_gemma_expert_model_layers_13_input_layernorm_weight"} loc("p37.363"), %arg38: tensor<1024x4096xf32> {ttcore.argument_type = #ttcore.argument_type<parameter>, ttir.name = "L__self___bracket_core_paligemma_with_expert_gemma_expert_model_layers_12_mlp_down_proj.weight"} loc("p38.374"), %arg39: tensor<4096x1024xf32> {ttcore.argument_type = #ttcore.argument_type<parameter>, ttir.name = "L__self___bracket_core_paligemma_with_expert_gemma_expert_model_layers_12_mlp_up_proj.weight"} loc("p39.379"), %arg40: tensor<1024xf32> {ttcore.argument_type = #ttcore.argument_type<parameter>, ttir.name = "L__self___bracket_core_paligemma_with_expert_gemma_expert_model_layers_12_post_attention_layernorm_weight"} loc("p40.386"), %arg41: tensor<1024x2048xf32> {ttcore.argument_type = #ttcore.argument_type<parameter>, ttir.name = "L__self___bracket_core_paligemma_with_expert_gemma_expert_model_layers_12_self_attn_o_proj.weight"} loc("p41.397"), %arg42: tensor<256x1024xf32> {ttcore.argument_type = #ttcore.argument_type<parameter>, ttir.name = "L__self___bracket_core_paligemma_with_expert_gemma_expert_model_layers_12_self_attn_v_proj.weight"} loc("p42.402"), %arg43: tensor<1024xf32> {ttcore.argument_type = #ttcore.argument_type<parameter>, ttir.name = "L__self___bracket_core_paligemma_with_expert_gemma_expert_model_layers_12_input_layernorm_weight"} loc("p43.409"), %arg44: tensor<1024x4096xf32> {ttcore.argument_type = #ttcore.argument_type<parameter>, ttir.name = "L__self___bracket_core_paligemma_with_expert_gemma_expert_model_layers_11_mlp_down_proj.weight"} loc("p44.420"), %arg45: tensor<4096x1024xf32> {ttcore.argument_type = #ttcore.argument_type<parameter>, ttir.name = "L__self___bracket_core_paligemma_with_expert_gemma_expert_model_layers_11_mlp_up_proj.weight"} loc("p45.425"), %arg46: tensor<1024xf32> {ttcore.argument_type = #ttcore.argument_type<parameter>, ttir.name = "L__self___bracket_core_paligemma_with_expert_gemma_expert_model_layers_11_post_attention_layernorm_weight"} loc("p46.432"), %arg47: tensor<1024x2048xf32> {ttcore.argument_type = #ttcore.argument_type<parameter>, ttir.name = "L__self___bracket_core_paligemma_with_expert_gemma_expert_model_layers_11_self_attn_o_proj.weight"} loc("p47.443"), %arg48: tensor<256x1024xf32> {ttcore.argument_type = #ttcore.argument_type<parameter>, ttir.name = "L__self___bracket_core_paligemma_with_expert_gemma_expert_model_layers_11_self_attn_v_proj.weight"} loc("p48.448"), %arg49: tensor<1024xf32> {ttcore.argument_type = #ttcore.argument_type<parameter>, ttir.name = "L__self___bracket_core_paligemma_with_expert_gemma_expert_model_layers_11_input_layernorm_weight"} loc("p49.455"), %arg50: tensor<1024x4096xf32> {ttcore.argument_type = #ttcore.argument_type<parameter>, ttir.name = "L__self___bracket_core_paligemma_with_expert_gemma_expert_model_layers_10_mlp_down_proj.weight"} loc("p50.466"), %arg51: tensor<4096x1024xf32> {ttcore.argument_type = #ttcore.argument_type<parameter>, ttir.name = "L__self___bracket_core_paligemma_with_expert_gemma_expert_model_layers_10_mlp_up_proj.weight"} loc("p51.471"), %arg52: tensor<1024xf32> {ttcore.argument_type = #ttcore.argument_type<parameter>, ttir.name = "L__self___bracket_core_paligemma_with_expert_gemma_expert_model_layers_10_post_attention_layernorm_weight"} loc("p52.478"), %arg53: tensor<1024x2048xf32> {ttcore.argument_type = #ttcore.argument_type<parameter>, ttir.name = "L__self___bracket_core_paligemma_with_expert_gemma_expert_model_layers_10_self_attn_o_proj.weight"} loc("p53.489"), %arg54: tensor<256x1024xf32> {ttcore.argument_type = #ttcore.argument_type<parameter>, ttir.name = "L__self___bracket_core_paligemma_with_expert_gemma_expert_model_layers_10_self_attn_v_proj.weight"} loc("p54.494"), %arg55: tensor<1024xf32> {ttcore.argument_type = #ttcore.argument_type<parameter>, ttir.name = "L__self___bracket_core_paligemma_with_expert_gemma_expert_model_layers_10_input_layernorm_weight"} loc("p55.501"), %arg56: tensor<1024x4096xf32> {ttcore.argument_type = #ttcore.argument_type<parameter>, ttir.name = "L__self___bracket_core_paligemma_with_expert_gemma_expert_model_layers_9_mlp_down_proj.weight"} loc("p56.512"), %arg57: tensor<4096x1024xf32> {ttcore.argument_type = #ttcore.argument_type<parameter>, ttir.name = "L__self___bracket_core_paligemma_with_expert_gemma_expert_model_layers_9_mlp_up_proj.weight"} loc("p57.517"), %arg58: tensor<1024xf32> {ttcore.argument_type = #ttcore.argument_type<parameter>, ttir.name = "L__self___bracket_core_paligemma_with_expert_gemma_expert_model_layers_9_post_attention_layernorm_weight"} loc("p58.524"), %arg59: tensor<1024x2048xf32> {ttcore.argument_type = #ttcore.argument_type<parameter>, ttir.name = "L__self___bracket_core_paligemma_with_expert_gemma_expert_model_layers_9_self_attn_o_proj.weight"} loc("p59.535"), %arg60: tensor<256x1024xf32> {ttcore.argument_type = #ttcore.argument_type<parameter>, ttir.name = "L__self___bracket_core_paligemma_with_expert_gemma_expert_model_layers_9_self_attn_v_proj.weight"} loc("p60.540"), %arg61: tensor<1024xf32> {ttcore.argument_type = #ttcore.argument_type<parameter>, ttir.name = "L__self___bracket_core_paligemma_with_expert_gemma_expert_model_layers_9_input_layernorm_weight"} loc("p61.547"), %arg62: tensor<1024x4096xf32> {ttcore.argument_type = #ttcore.argument_type<parameter>, ttir.name = "L__self___bracket_core_paligemma_with_expert_gemma_expert_model_layers_8_mlp_down_proj.weight"} loc("p62.558"), %arg63: tensor<4096x1024xf32> {ttcore.argument_type = #ttcore.argument_type<parameter>, ttir.name = "L__self___bracket_core_paligemma_with_expert_gemma_expert_model_layers_8_mlp_up_proj.weight"} loc("p63.563"), %arg64: tensor<1024xf32> {ttcore.argument_type = #ttcore.argument_type<parameter>, ttir.name = "L__self___bracket_core_paligemma_with_expert_gemma_expert_model_layers_8_post_attention_layernorm_weight"} loc("p64.570"), %arg65: tensor<1024x2048xf32> {ttcore.argument_type = #ttcore.argument_type<parameter>, ttir.name = "L__self___bracket_core_paligemma_with_expert_gemma_expert_model_layers_8_self_attn_o_proj.weight"} loc("p65.581"), %arg66: tensor<256x1024xf32> {ttcore.argument_type = #ttcore.argument_type<parameter>, ttir.name = "L__self___bracket_core_paligemma_with_expert_gemma_expert_model_layers_8_self_attn_v_proj.weight"} loc("p66.586"), %arg67: tensor<1024xf32> {ttcore.argument_type = #ttcore.argument_type<parameter>, ttir.name = "L__self___bracket_core_paligemma_with_expert_gemma_expert_model_layers_8_input_layernorm_weight"} loc("p67.593"), %arg68: tensor<1024x4096xf32> {ttcore.argument_type = #ttcore.argument_type<parameter>, ttir.name = "L__self___bracket_core_paligemma_with_expert_gemma_expert_model_layers_7_mlp_down_proj.weight"} loc("p68.604"), %arg69: tensor<4096x1024xf32> {ttcore.argument_type = #ttcore.argument_type<parameter>, ttir.name = "L__self___bracket_core_paligemma_with_expert_gemma_expert_model_layers_7_mlp_up_proj.weight"} loc("p69.609"), %arg70: tensor<1024xf32> {ttcore.argument_type = #ttcore.argument_type<parameter>, ttir.name = "L__self___bracket_core_paligemma_with_expert_gemma_expert_model_layers_7_post_attention_layernorm_weight"} loc("p70.616"), %arg71: tensor<1024x2048xf32> {ttcore.argument_type = #ttcore.argument_type<parameter>, ttir.name = "L__self___bracket_core_paligemma_with_expert_gemma_expert_model_layers_7_self_attn_o_proj.weight"} loc("p71.627"), %arg72: tensor<256x1024xf32> {ttcore.argument_type = #ttcore.argument_type<parameter>, ttir.name = "L__self___bracket_core_paligemma_with_expert_gemma_expert_model_layers_7_self_attn_v_proj.weight"} loc("p72.632"), %arg73: tensor<1024xf32> {ttcore.argument_type = #ttcore.argument_type<parameter>, ttir.name = "L__self___bracket_core_paligemma_with_expert_gemma_expert_model_layers_7_input_layernorm_weight"} loc("p73.639"), %arg74: tensor<1024x4096xf32> {ttcore.argument_type = #ttcore.argument_type<parameter>, ttir.name = "L__self___bracket_core_paligemma_with_expert_gemma_expert_model_layers_6_mlp_down_proj.weight"} loc("p74.650"), %arg75: tensor<4096x1024xf32> {ttcore.argument_type = #ttcore.argument_type<parameter>, ttir.name = "L__self___bracket_core_paligemma_with_expert_gemma_expert_model_layers_6_mlp_up_proj.weight"} loc("p75.655"), %arg76: tensor<1024xf32> {ttcore.argument_type = #ttcore.argument_type<parameter>, ttir.name = "L__self___bracket_core_paligemma_with_expert_gemma_expert_model_layers_6_post_attention_layernorm_weight"} loc("p76.662"), %arg77: tensor<1024x2048xf32> {ttcore.argument_type = #ttcore.argument_type<parameter>, ttir.name = "L__self___bracket_core_paligemma_with_expert_gemma_expert_model_layers_6_self_attn_o_proj.weight"} loc("p77.673"), %arg78: tensor<256x1024xf32> {ttcore.argument_type = #ttcore.argument_type<parameter>, ttir.name = "L__self___bracket_core_paligemma_with_expert_gemma_expert_model_layers_6_self_attn_v_proj.weight"} loc("p78.678"), %arg79: tensor<1024xf32> {ttcore.argument_type = #ttcore.argument_type<parameter>, ttir.name = "L__self___bracket_core_paligemma_with_expert_gemma_expert_model_layers_6_input_layernorm_weight"} loc("p79.685"), %arg80: tensor<1024x4096xf32> {ttcore.argument_type = #ttcore.argument_type<parameter>, ttir.name = "L__self___bracket_core_paligemma_with_expert_gemma_expert_model_layers_5_mlp_down_proj.weight"} loc("p80.696"), %arg81: tensor<4096x1024xf32> {ttcore.argument_type = #ttcore.argument_type<parameter>, ttir.name = "L__self___bracket_core_paligemma_with_expert_gemma_expert_model_layers_5_mlp_up_proj.weight"} loc("p81.701"), %arg82: tensor<1024xf32> {ttcore.argument_type = #ttcore.argument_type<parameter>, ttir.name = "L__self___bracket_core_paligemma_with_expert_gemma_expert_model_layers_5_post_attention_layernorm_weight"} loc("p82.708"), %arg83: tensor<1024x2048xf32> {ttcore.argument_type = #ttcore.argument_type<parameter>, ttir.name = "L__self___bracket_core_paligemma_with_expert_gemma_expert_model_layers_5_self_attn_o_proj.weight"} loc("p83.719"), %arg84: tensor<256x1024xf32> {ttcore.argument_type = #ttcore.argument_type<parameter>, ttir.name = "L__self___bracket_core_paligemma_with_expert_gemma_expert_model_layers_5_self_attn_v_proj.weight"} loc("p84.724"), %arg85: tensor<1024xf32> {ttcore.argument_type = #ttcore.argument_type<parameter>, ttir.name = "L__self___bracket_core_paligemma_with_expert_gemma_expert_model_layers_5_input_layernorm_weight"} loc("p85.731"), %arg86: tensor<1024x4096xf32> {ttcore.argument_type = #ttcore.argument_type<parameter>, ttir.name = "L__self___bracket_core_paligemma_with_expert_gemma_expert_model_layers_4_mlp_down_proj.weight"} loc("p86.742"), %arg87: tensor<4096x1024xf32> {ttcore.argument_type = #ttcore.argument_type<parameter>, ttir.name = "L__self___bracket_core_paligemma_with_expert_gemma_expert_model_layers_4_mlp_up_proj.weight"} loc("p87.747"), %arg88: tensor<1024xf32> {ttcore.argument_type = #ttcore.argument_type<parameter>, ttir.name = "L__self___bracket_core_paligemma_with_expert_gemma_expert_model_layers_4_post_attention_layernorm_weight"} loc("p88.754"), %arg89: tensor<1024x2048xf32> {ttcore.argument_type = #ttcore.argument_type<parameter>, ttir.name = "L__self___bracket_core_paligemma_with_expert_gemma_expert_model_layers_4_self_attn_o_proj.weight"} loc("p89.765"), %arg90: tensor<256x1024xf32> {ttcore.argument_type = #ttcore.argument_type<parameter>, ttir.name = "L__self___bracket_core_paligemma_with_expert_gemma_expert_model_layers_4_self_attn_v_proj.weight"} loc("p90.770"), %arg91: tensor<1024xf32> {ttcore.argument_type = #ttcore.argument_type<parameter>, ttir.name = "L__self___bracket_core_paligemma_with_expert_gemma_expert_model_layers_4_input_layernorm_weight"} loc("p91.777"), %arg92: tensor<1024x4096xf32> {ttcore.argument_type = #ttcore.argument_type<parameter>, ttir.name = "L__self___bracket_core_paligemma_with_expert_gemma_expert_model_layers_3_mlp_down_proj.weight"} loc("p92.788"), %arg93: tensor<4096x1024xf32> {ttcore.argument_type = #ttcore.argument_type<parameter>, ttir.name = "L__self___bracket_core_paligemma_with_expert_gemma_expert_model_layers_3_mlp_up_proj.weight"} loc("p93.793"), %arg94: tensor<1024xf32> {ttcore.argument_type = #ttcore.argument_type<parameter>, ttir.name = "L__self___bracket_core_paligemma_with_expert_gemma_expert_model_layers_3_post_attention_layernorm_weight"} loc("p94.800"), %arg95: tensor<1024x2048xf32> {ttcore.argument_type = #ttcore.argument_type<parameter>, ttir.name = "L__self___bracket_core_paligemma_with_expert_gemma_expert_model_layers_3_self_attn_o_proj.weight"} loc("p95.811"), %arg96: tensor<256x1024xf32> {ttcore.argument_type = #ttcore.argument_type<parameter>, ttir.name = "L__self___bracket_core_paligemma_with_expert_gemma_expert_model_layers_3_self_attn_v_proj.weight"} loc("p96.816"), %arg97: tensor<1024xf32> {ttcore.argument_type = #ttcore.argument_type<parameter>, ttir.name = "L__self___bracket_core_paligemma_with_expert_gemma_expert_model_layers_3_input_layernorm_weight"} loc("p97.823"), %arg98: tensor<1024x4096xf32> {ttcore.argument_type = #ttcore.argument_type<parameter>, ttir.name = "L__self___bracket_core_paligemma_with_expert_gemma_expert_model_layers_2_mlp_down_proj.weight"} loc("p98.834"), %arg99: tensor<4096x1024xf32> {ttcore.argument_type = #ttcore.argument_type<parameter>, ttir.name = "L__self___bracket_core_paligemma_with_expert_gemma_expert_model_layers_2_mlp_up_proj.weight"} loc("p99.839"), %arg100: tensor<1024xf32> {ttcore.argument_type = #ttcore.argument_type<parameter>, ttir.name = "L__self___bracket_core_paligemma_with_expert_gemma_expert_model_layers_2_post_attention_layernorm_weight"} loc("p100.846"), %arg101: tensor<1024x2048xf32> {ttcore.argument_type = #ttcore.argument_type<parameter>, ttir.name = "L__self___bracket_core_paligemma_with_expert_gemma_expert_model_layers_2_self_attn_o_proj.weight"} loc("p101.857"), %arg102: tensor<256x1024xf32> {ttcore.argument_type = #ttcore.argument_type<parameter>, ttir.name = "L__self___bracket_core_paligemma_with_expert_gemma_expert_model_layers_2_self_attn_v_proj.weight"} loc("p102.862"), %arg103: tensor<1024xf32> {ttcore.argument_type = #ttcore.argument_type<parameter>, ttir.name = "L__self___bracket_core_paligemma_with_expert_gemma_expert_model_layers_2_input_layernorm_weight"} loc("p103.869"), %arg104: tensor<1024x4096xf32> {ttcore.argument_type = #ttcore.argument_type<parameter>, ttir.name = "L__self___bracket_core_paligemma_with_expert_gemma_expert_model_layers_1_mlp_down_proj.weight"} loc("p104.880"), %arg105: tensor<4096x1024xf32> {ttcore.argument_type = #ttcore.argument_type<parameter>, ttir.name = "L__self___bracket_core_paligemma_with_expert_gemma_expert_model_layers_1_mlp_up_proj.weight"} loc("p105.885"), %arg106: tensor<1024xf32> {ttcore.argument_type = #ttcore.argument_type<parameter>, ttir.name = "L__self___bracket_core_paligemma_with_expert_gemma_expert_model_layers_1_post_attention_layernorm_weight"} loc("p106.892"), %arg107: tensor<1024x2048xf32> {ttcore.argument_type = #ttcore.argument_type<parameter>, ttir.name = "L__self___bracket_core_paligemma_with_expert_gemma_expert_model_layers_1_self_attn_o_proj.weight"} loc("p107.903"), %arg108: tensor<256x1024xf32> {ttcore.argument_type = #ttcore.argument_type<parameter>, ttir.name = "L__self___bracket_core_paligemma_with_expert_gemma_expert_model_layers_1_self_attn_v_proj.weight"} loc("p108.908"), %arg109: tensor<1024xf32> {ttcore.argument_type = #ttcore.argument_type<parameter>, ttir.name = "L__self___bracket_core_paligemma_with_expert_gemma_expert_model_layers_1_input_layernorm_weight"} loc("p109.915"), %arg110: tensor<1024x4096xf32> {ttcore.argument_type = #ttcore.argument_type<parameter>, ttir.name = "L__self___bracket_core_paligemma_with_expert_gemma_expert_model_layers_0_mlp_down_proj.weight"} loc("p110.926"), %arg111: tensor<4096x1024xf32> {ttcore.argument_type = #ttcore.argument_type<parameter>, ttir.name = "L__self___bracket_core_paligemma_with_expert_gemma_expert_model_layers_0_mlp_up_proj.weight"} loc("p111.931"), %arg112: tensor<1024xf32> {ttcore.argument_type = #ttcore.argument_type<parameter>, ttir.name = "L__self___bracket_core_paligemma_with_expert_gemma_expert_model_layers_0_post_attention_layernorm_weight"} loc("p112.938"), %arg113: tensor<1024x2048xf32> {ttcore.argument_type = #ttcore.argument_type<parameter>, ttir.name = "L__self___bracket_core_paligemma_with_expert_gemma_expert_model_layers_0_self_attn_o_proj.weight"} loc("p113.949"), %arg114: tensor<256x1024xf32> {ttcore.argument_type = #ttcore.argument_type<parameter>, ttir.name = "L__self___bracket_core_paligemma_with_expert_gemma_expert_model_layers_0_self_attn_v_proj.weight"} loc("p114.954"), %arg115: tensor<1024xf32> {ttcore.argument_type = #ttcore.argument_type<parameter>, ttir.name = "L__self___bracket_core_paligemma_with_expert_gemma_expert_model_layers_0_input_layernorm_weight"} loc("p115.961"), %arg116: tensor<1024xf32> {ttcore.argument_type = #ttcore.argument_type<parameter>, ttir.name = "L__self___bracket_core_action_time_mlp_out.bias"} loc("p116.972"), %arg117: tensor<1024x1024xf32> {ttcore.argument_type = #ttcore.argument_type<parameter>, ttir.name = "L__self___bracket_core_action_time_mlp_out.weight"} loc("p117.976"), %arg118: tensor<1024xf32> {ttcore.argument_type = #ttcore.argument_type<parameter>, ttir.name = "L__self___bracket_core_action_time_mlp_in.bias"} loc("p118.982"), %arg119: tensor<1024x2048xf32> {ttcore.argument_type = #ttcore.argument_type<parameter>, ttir.name = "L__self___bracket_core_action_time_mlp_in.weight"} loc("p119.986"), %arg120: tensor<1x50x32xf32> {ttcore.argument_type = #ttcore.argument_type<input>, ttir.name = "args_9"} loc("p120.1059"), %arg121: tensor<256x2048xf32> {ttcore.argument_type = #ttcore.argument_type<parameter>, ttir.name = "L__self___bracket_core_paligemma_with_expert_paligemma_model_language_model_layers_0_self_attn_v_proj.weight"} loc("p121.1134"), %arg122: tensor<2048xf32> {ttcore.argument_type = #ttcore.argument_type<parameter>, ttir.name = "L__self___bracket_core_paligemma_with_expert_paligemma_model_language_model_layers_0_input_layernorm_weight"} loc("p122.1141"), %arg123: tensor<1x48xi64> {ttcore.argument_type = #ttcore.argument_type<input>, ttir.name = "args_7"} loc("p123.1152"), %arg124: tensor<257152x2048xf32> {ttcore.argument_type = #ttcore.argument_type<parameter>, ttir.name = "L__self___bracket_core_paligemma_with_expert_paligemma_model_language_model_embed_tokens.weight"} loc("p124.1157"), %arg125: tensor<2048xf32> {ttcore.argument_type = #ttcore.argument_type<parameter>, ttir.name = "L__self___bracket_core_paligemma_with_expert_paligemma_model_multi_modal_projector_linear.bias"} loc("p125.1167"), %arg126: tensor<2048x1152xf32> {ttcore.argument_type = #ttcore.argument_type<parameter>, ttir.name = "L__self___bracket_core_paligemma_with_expert_paligemma_model_multi_modal_projector_linear.weight"} loc("p126.1171"), %arg127: tensor<1152xf32> {ttcore.argument_type = #ttcore.argument_type<parameter>, ttir.name = "L__self___bracket_core_paligemma_with_expert_paligemma_model_vision_tower_vision_model_post_layernorm.bias"} loc("p127.1177"), %arg128: tensor<1152xf32> {ttcore.argument_type = #ttcore.argument_type<parameter>, ttir.name = "L__self___bracket_core_paligemma_with_expert_paligemma_model_vision_tower_vision_model_post_layernorm.weight"} loc("p128.1182"), %arg129: tensor<1152xf32> {ttcore.argument_type = #ttcore.argument_type<parameter>, ttir.name = "L__self___bracket_core_paligemma_with_expert_paligemma_model_vision_tower_vision_model_encoder_layers_26_mlp_fc2.bias"} loc("p129.1191"), %arg130: tensor<1152x4304xf32> {ttcore.argument_type = #ttcore.argument_type<parameter>, ttir.name = "L__self___bracket_core_paligemma_with_expert_paligemma_model_vision_tower_vision_model_encoder_layers_26_mlp_fc2.weight"} loc("p130.1195"), %arg131: tensor<4304xf32> {ttcore.argument_type = #ttcore.argument_type<parameter>, ttir.name = "L__self___bracket_core_paligemma_with_expert_paligemma_model_vision_tower_vision_model_encoder_layers_26_mlp_fc1.bias"} loc("p131.1203"), %arg132: tensor<4304x1152xf32> {ttcore.argument_type = #ttcore.argument_type<parameter>, ttir.name = "L__self___bracket_core_paligemma_with_expert_paligemma_model_vision_tower_vision_model_encoder_layers_26_mlp_fc1.weight"} loc("p132.1207"), %arg133: tensor<1152xf32> {ttcore.argument_type = #ttcore.argument_type<parameter>, ttir.name = "L__self___bracket_core_paligemma_with_expert_paligemma_model_vision_tower_vision_model_encoder_layers_26_layer_norm2.bias"} loc("p133.1213"), %arg134: tensor<1152xf32> {ttcore.argument_type = #ttcore.argument_type<parameter>, ttir.name = "L__self___bracket_core_paligemma_with_expert_paligemma_model_vision_tower_vision_model_encoder_layers_26_layer_norm2.weight"} loc("p134.1218"), %arg135: tensor<1152xf32> {ttcore.argument_type = #ttcore.argument_type<parameter>, ttir.name = "L__self___bracket_core_paligemma_with_expert_paligemma_model_vision_tower_vision_model_encoder_layers_26_self_attn_out_proj.bias"} loc("p135.1227"), %arg136: tensor<1152x1152xf32> {ttcore.argument_type = #ttcore.argument_type<parameter>, ttir.name = "L__self___bracket_core_paligemma_with_expert_paligemma_model_vision_tower_vision_model_encoder_layers_26_self_attn_out_proj.weight"} loc("p136.1231"), %arg137: tensor<1152xf32> {ttcore.argument_type = #ttcore.argument_type<parameter>, ttir.name = "L__self___bracket_core_paligemma_with_expert_paligemma_model_vision_tower_vision_model_encoder_layers_26_self_attn_v_proj.bias"} loc("p137.1237"), %arg138: tensor<1152x1152xf32> {ttcore.argument_type = #ttcore.argument_type<parameter>, ttir.name = "L__self___bracket_core_paligemma_with_expert_paligemma_model_vision_tower_vision_model_encoder_layers_26_self_attn_v_proj.weight"} loc("p138.1241"), %arg139: tensor<1152xf32> {ttcore.argument_type = #ttcore.argument_type<parameter>, ttir.name = "L__self___bracket_core_paligemma_with_expert_paligemma_model_vision_tower_vision_model_encoder_layers_26_layer_norm1.bias"} loc("p139.1247"), %arg140: tensor<1152xf32> {ttcore.argument_type = #ttcore.argument_type<parameter>, ttir.name = "L__self___bracket_core_paligemma_with_expert_paligemma_model_vision_tower_vision_model_encoder_layers_26_layer_norm1.weight"} loc("p140.1252"), %arg141: tensor<1152xf32> {ttcore.argument_type = #ttcore.argument_type<parameter>, ttir.name = "L__self___bracket_core_paligemma_with_expert_paligemma_model_vision_tower_vision_model_encoder_layers_25_mlp_fc2.bias"} loc("p141.1261"), %arg142: tensor<1152x4304xf32> {ttcore.argument_type = #ttcore.argument_type<parameter>, ttir.name = "L__self___bracket_core_paligemma_with_expert_paligemma_model_vision_tower_vision_model_encoder_layers_25_mlp_fc2.weight"} loc("p142.1265"), %arg143: tensor<4304xf32> {ttcore.argument_type = #ttcore.argument_type<parameter>, ttir.name = "L__self___bracket_core_paligemma_with_expert_paligemma_model_vision_tower_vision_model_encoder_layers_25_mlp_fc1.bias"} loc("p143.1273"), %arg144: tensor<4304x1152xf32> {ttcore.argument_type = #ttcore.argument_type<parameter>, ttir.name = "L__self___bracket_core_paligemma_with_expert_paligemma_model_vision_tower_vision_model_encoder_layers_25_mlp_fc1.weight"} loc("p144.1277"), %arg145: tensor<1152xf32> {ttcore.argument_type = #ttcore.argument_type<parameter>, ttir.name = "L__self___bracket_core_paligemma_with_expert_paligemma_model_vision_tower_vision_model_encoder_layers_25_layer_norm2.bias"} loc("p145.1283"), %arg146: tensor<1152xf32> {ttcore.argument_type = #ttcore.argument_type<parameter>, ttir.name = "L__self___bracket_core_paligemma_with_expert_paligemma_model_vision_tower_vision_model_encoder_layers_25_layer_norm2.weight"} loc("p146.1288"), %arg147: tensor<1152xf32> {ttcore.argument_type = #ttcore.argument_type<parameter>, ttir.name = "L__self___bracket_core_paligemma_with_expert_paligemma_model_vision_tower_vision_model_encoder_layers_25_self_attn_out_proj.bias"} loc("p147.1297"), %arg148: tensor<1152x1152xf32> {ttcore.argument_type = #ttcore.argument_type<parameter>, ttir.name = "L__self___bracket_core_paligemma_with_expert_paligemma_model_vision_tower_vision_model_encoder_layers_25_self_attn_out_proj.weight"} loc("p148.1301"), %arg149: tensor<1152xf32> {ttcore.argument_type = #ttcore.argument_type<parameter>, ttir.name = "L__self___bracket_core_paligemma_with_expert_paligemma_model_vision_tower_vision_model_encoder_layers_25_self_attn_v_proj.bias"} loc("p149.1307"), %arg150: tensor<1152x1152xf32> {ttcore.argument_type = #ttcore.argument_type<parameter>, ttir.name = "L__self___bracket_core_paligemma_with_expert_paligemma_model_vision_tower_vision_model_encoder_layers_25_self_attn_v_proj.weight"} loc("p150.1311"), %arg151: tensor<1152xf32> {ttcore.argument_type = #ttcore.argument_type<parameter>, ttir.name = "L__self___bracket_core_paligemma_with_expert_paligemma_model_vision_tower_vision_model_encoder_layers_25_layer_norm1.bias"} loc("p151.1317"), %arg152: tensor<1152xf32> {ttcore.argument_type = #ttcore.argument_type<parameter>, ttir.name = "L__self___bracket_core_paligemma_with_expert_paligemma_model_vision_tower_vision_model_encoder_layers_25_layer_norm1.weight"} loc("p152.1322"), %arg153: tensor<1152xf32> {ttcore.argument_type = #ttcore.argument_type<parameter>, ttir.name = "L__self___bracket_core_paligemma_with_expert_paligemma_model_vision_tower_vision_model_encoder_layers_24_mlp_fc2.bias"} loc("p153.1331"), %arg154: tensor<1152x4304xf32> {ttcore.argument_type = #ttcore.argument_type<parameter>, ttir.name = "L__self___bracket_core_paligemma_with_expert_paligemma_model_vision_tower_vision_model_encoder_layers_24_mlp_fc2.weight"} loc("p154.1335"), %arg155: tensor<4304xf32> {ttcore.argument_type = #ttcore.argument_type<parameter>, ttir.name = "L__self___bracket_core_paligemma_with_expert_paligemma_model_vision_tower_vision_model_encoder_layers_24_mlp_fc1.bias"} loc("p155.1343"), %arg156: tensor<4304x1152xf32> {ttcore.argument_type = #ttcore.argument_type<parameter>, ttir.name = "L__self___bracket_core_paligemma_with_expert_paligemma_model_vision_tower_vision_model_encoder_layers_24_mlp_fc1.weight"} loc("p156.1347"), %arg157: tensor<1152xf32> {ttcore.argument_type = #ttcore.argument_type<parameter>, ttir.name = "L__self___bracket_core_paligemma_with_expert_paligemma_model_vision_tower_vision_model_encoder_layers_24_layer_norm2.bias"} loc("p157.1353"), %arg158: tensor<1152xf32> {ttcore.argument_type = #ttcore.argument_type<parameter>, ttir.name = "L__self___bracket_core_paligemma_with_expert_paligemma_model_vision_tower_vision_model_encoder_layers_24_layer_norm2.weight"} loc("p158.1358"), %arg159: tensor<1152xf32> {ttcore.argument_type = #ttcore.argument_type<parameter>, ttir.name = "L__self___bracket_core_paligemma_with_expert_paligemma_model_vision_tower_vision_model_encoder_layers_24_self_attn_out_proj.bias"} loc("p159.1367"), %arg160: tensor<1152x1152xf32> {ttcore.argument_type = #ttcore.argument_type<parameter>, ttir.name = "L__self___bracket_core_paligemma_with_expert_paligemma_model_vision_tower_vision_model_encoder_layers_24_self_attn_out_proj.weight"} loc("p160.1371"), %arg161: tensor<1152xf32> {ttcore.argument_type = #ttcore.argument_type<parameter>, ttir.name = "L__self___bracket_core_paligemma_with_expert_paligemma_model_vision_tower_vision_model_encoder_layers_24_self_attn_v_proj.bias"} loc("p161.1377"), %arg162: tensor<1152x1152xf32> {ttcore.argument_type = #ttcore.argument_type<parameter>, ttir.name = "L__self___bracket_core_paligemma_with_expert_paligemma_model_vision_tower_vision_model_encoder_layers_24_self_attn_v_proj.weight"} loc("p162.1381"), %arg163: tensor<1152xf32> {ttcore.argument_type = #ttcore.argument_type<parameter>, ttir.name = "L__self___bracket_core_paligemma_with_expert_paligemma_model_vision_tower_vision_model_encoder_layers_24_layer_norm1.bias"} loc("p163.1387"), %arg164: tensor<1152xf32> {ttcore.argument_type = #ttcore.argument_type<parameter>, ttir.name = "L__self___bracket_core_paligemma_with_expert_paligemma_model_vision_tower_vision_model_encoder_layers_24_layer_norm1.weight"} loc("p164.1392"), %arg165: tensor<1152xf32> {ttcore.argument_type = #ttcore.argument_type<parameter>, ttir.name = "L__self___bracket_core_paligemma_with_expert_paligemma_model_vision_tower_vision_model_encoder_layers_23_mlp_fc2.bias"} loc("p165.1401"), %arg166: tensor<1152x4304xf32> {ttcore.argument_type = #ttcore.argument_type<parameter>, ttir.name = "L__self___bracket_core_paligemma_with_expert_paligemma_model_vision_tower_vision_model_encoder_layers_23_mlp_fc2.weight"} loc("p166.1405"), %arg167: tensor<4304xf32> {ttcore.argument_type = #ttcore.argument_type<parameter>, ttir.name = "L__self___bracket_core_paligemma_with_expert_paligemma_model_vision_tower_vision_model_encoder_layers_23_mlp_fc1.bias"} loc("p167.1413"), %arg168: tensor<4304x1152xf32> {ttcore.argument_type = #ttcore.argument_type<parameter>, ttir.name = "L__self___bracket_core_paligemma_with_expert_paligemma_model_vision_tower_vision_model_encoder_layers_23_mlp_fc1.weight"} loc("p168.1417"), %arg169: tensor<1152xf32> {ttcore.argument_type = #ttcore.argument_type<parameter>, ttir.name = "L__self___bracket_core_paligemma_with_expert_paligemma_model_vision_tower_vision_model_encoder_layers_23_layer_norm2.bias"} loc("p169.1423"), %arg170: tensor<1152xf32> {ttcore.argument_type = #ttcore.argument_type<parameter>, ttir.name = "L__self___bracket_core_paligemma_with_expert_paligemma_model_vision_tower_vision_model_encoder_layers_23_layer_norm2.weight"} loc("p170.1428"), %arg171: tensor<1152xf32> {ttcore.argument_type = #ttcore.argument_type<parameter>, ttir.name = "L__self___bracket_core_paligemma_with_expert_paligemma_model_vision_tower_vision_model_encoder_layers_23_self_attn_out_proj.bias"} loc("p171.1437"), %arg172: tensor<1152x1152xf32> {ttcore.argument_type = #ttcore.argument_type<parameter>, ttir.name = "L__self___bracket_core_paligemma_with_expert_paligemma_model_vision_tower_vision_model_encoder_layers_23_self_attn_out_proj.weight"} loc("p172.1441"), %arg173: tensor<1152xf32> {ttcore.argument_type = #ttcore.argument_type<parameter>, ttir.name = "L__self___bracket_core_paligemma_with_expert_paligemma_model_vision_tower_vision_model_encoder_layers_23_self_attn_v_proj.bias"} loc("p173.1447"), %arg174: tensor<1152x1152xf32> {ttcore.argument_type = #ttcore.argument_type<parameter>, ttir.name = "L__self___bracket_core_paligemma_with_expert_paligemma_model_vision_tower_vision_model_encoder_layers_23_self_attn_v_proj.weight"} loc("p174.1451"), %arg175: tensor<1152xf32> {ttcore.argument_type = #ttcore.argument_type<parameter>, ttir.name = "L__self___bracket_core_paligemma_with_expert_paligemma_model_vision_tower_vision_model_encoder_layers_23_layer_norm1.bias"} loc("p175.1457"), %arg176: tensor<1152xf32> {ttcore.argument_type = #ttcore.argument_type<parameter>, ttir.name = "L__self___bracket_core_paligemma_with_expert_paligemma_model_vision_tower_vision_model_encoder_layers_23_layer_norm1.weight"} loc("p176.1462"), %arg177: tensor<1152xf32> {ttcore.argument_type = #ttcore.argument_type<parameter>, ttir.name = "L__self___bracket_core_paligemma_with_expert_paligemma_model_vision_tower_vision_model_encoder_layers_22_mlp_fc2.bias"} loc("p177.1471"), %arg178: tensor<1152x4304xf32> {ttcore.argument_type = #ttcore.argument_type<parameter>, ttir.name = "L__self___bracket_core_paligemma_with_expert_paligemma_model_vision_tower_vision_model_encoder_layers_22_mlp_fc2.weight"} loc("p178.1475"), %arg179: tensor<4304xf32> {ttcore.argument_type = #ttcore.argument_type<parameter>, ttir.name = "L__self___bracket_core_paligemma_with_expert_paligemma_model_vision_tower_vision_model_encoder_layers_22_mlp_fc1.bias"} loc("p179.1483"), %arg180: tensor<4304x1152xf32> {ttcore.argument_type = #ttcore.argument_type<parameter>, ttir.name = "L__self___bracket_core_paligemma_with_expert_paligemma_model_vision_tower_vision_model_encoder_layers_22_mlp_fc1.weight"} loc("p180.1487"), %arg181: tensor<1152xf32> {ttcore.argument_type = #ttcore.argument_type<parameter>, ttir.name = "L__self___bracket_core_paligemma_with_expert_paligemma_model_vision_tower_vision_model_encoder_layers_22_layer_norm2.bias"} loc("p181.1493"), %arg182: tensor<1152xf32> {ttcore.argument_type = #ttcore.argument_type<parameter>, ttir.name = "L__self___bracket_core_paligemma_with_expert_paligemma_model_vision_tower_vision_model_encoder_layers_22_layer_norm2.weight"} loc("p182.1498"), %arg183: tensor<1152xf32> {ttcore.argument_type = #ttcore.argument_type<parameter>, ttir.name = "L__self___bracket_core_paligemma_with_expert_paligemma_model_vision_tower_vision_model_encoder_layers_22_self_attn_out_proj.bias"} loc("p183.1507"), %arg184: tensor<1152x1152xf32> {ttcore.argument_type = #ttcore.argument_type<parameter>, ttir.name = "L__self___bracket_core_paligemma_with_expert_paligemma_model_vision_tower_vision_model_encoder_layers_22_self_attn_out_proj.weight"} loc("p184.1511"), %arg185: tensor<1152xf32> {ttcore.argument_type = #ttcore.argument_type<parameter>, ttir.name = "L__self___bracket_core_paligemma_with_expert_paligemma_model_vision_tower_vision_model_encoder_layers_22_self_attn_v_proj.bias"} loc("p185.1517"), %arg186: tensor<1152x1152xf32> {ttcore.argument_type = #ttcore.argument_type<parameter>, ttir.name = "L__self___bracket_core_paligemma_with_expert_paligemma_model_vision_tower_vision_model_encoder_layers_22_self_attn_v_proj.weight"} loc("p186.1521"), %arg187: tensor<1152xf32> {ttcore.argument_type = #ttcore.argument_type<parameter>, ttir.name = "L__self___bracket_core_paligemma_with_expert_paligemma_model_vision_tower_vision_model_encoder_layers_22_layer_norm1.bias"} loc("p187.1527"), %arg188: tensor<1152xf32> {ttcore.argument_type = #ttcore.argument_type<parameter>, ttir.name = "L__self___bracket_core_paligemma_with_expert_paligemma_model_vision_tower_vision_model_encoder_layers_22_layer_norm1.weight"} loc("p188.1532"), %arg189: tensor<1152xf32> {ttcore.argument_type = #ttcore.argument_type<parameter>, ttir.name = "L__self___bracket_core_paligemma_with_expert_paligemma_model_vision_tower_vision_model_encoder_layers_21_mlp_fc2.bias"} loc("p189.1541"), %arg190: tensor<1152x4304xf32> {ttcore.argument_type = #ttcore.argument_type<parameter>, ttir.name = "L__self___bracket_core_paligemma_with_expert_paligemma_model_vision_tower_vision_model_encoder_layers_21_mlp_fc2.weight"} loc("p190.1545"), %arg191: tensor<4304xf32> {ttcore.argument_type = #ttcore.argument_type<parameter>, ttir.name = "L__self___bracket_core_paligemma_with_expert_paligemma_model_vision_tower_vision_model_encoder_layers_21_mlp_fc1.bias"} loc("p191.1553"), %arg192: tensor<4304x1152xf32> {ttcore.argument_type = #ttcore.argument_type<parameter>, ttir.name = "L__self___bracket_core_paligemma_with_expert_paligemma_model_vision_tower_vision_model_encoder_layers_21_mlp_fc1.weight"} loc("p192.1557"), %arg193: tensor<1152xf32> {ttcore.argument_type = #ttcore.argument_type<parameter>, ttir.name = "L__self___bracket_core_paligemma_with_expert_paligemma_model_vision_tower_vision_model_encoder_layers_21_layer_norm2.bias"} loc("p193.1563"), %arg194: tensor<1152xf32> {ttcore.argument_type = #ttcore.argument_type<parameter>, ttir.name = "L__self___bracket_core_paligemma_with_expert_paligemma_model_vision_tower_vision_model_encoder_layers_21_layer_norm2.weight"} loc("p194.1568"), %arg195: tensor<1152xf32> {ttcore.argument_type = #ttcore.argument_type<parameter>, ttir.name = "L__self___bracket_core_paligemma_with_expert_paligemma_model_vision_tower_vision_model_encoder_layers_21_self_attn_out_proj.bias"} loc("p195.1577"), %arg196: tensor<1152x1152xf32> {ttcore.argument_type = #ttcore.argument_type<parameter>, ttir.name = "L__self___bracket_core_paligemma_with_expert_paligemma_model_vision_tower_vision_model_encoder_layers_21_self_attn_out_proj.weight"} loc("p196.1581"), %arg197: tensor<1152xf32> {ttcore.argument_type = #ttcore.argument_type<parameter>, ttir.name = "L__self___bracket_core_paligemma_with_expert_paligemma_model_vision_tower_vision_model_encoder_layers_21_self_attn_v_proj.bias"} loc("p197.1587"), %arg198: tensor<1152x1152xf32> {ttcore.argument_type = #ttcore.argument_type<parameter>, ttir.name = "L__self___bracket_core_paligemma_with_expert_paligemma_model_vision_tower_vision_model_encoder_layers_21_self_attn_v_proj.weight"} loc("p198.1591"), %arg199: tensor<1152xf32> {ttcore.argument_type = #ttcore.argument_type<parameter>, ttir.name = "L__self___bracket_core_paligemma_with_expert_paligemma_model_vision_tower_vision_model_encoder_layers_21_layer_norm1.bias"} loc("p199.1597"), %arg200: tensor<1152xf32> {ttcore.argument_type = #ttcore.argument_type<parameter>, ttir.name = "L__self___bracket_core_paligemma_with_expert_paligemma_model_vision_tower_vision_model_encoder_layers_21_layer_norm1.weight"} loc("p200.1602"), %arg201: tensor<1152xf32> {ttcore.argument_type = #ttcore.argument_type<parameter>, ttir.name = "L__self___bracket_core_paligemma_with_expert_paligemma_model_vision_tower_vision_model_encoder_layers_20_mlp_fc2.bias"} loc("p201.1611"), %arg202: tensor<1152x4304xf32> {ttcore.argument_type = #ttcore.argument_type<parameter>, ttir.name = "L__self___bracket_core_paligemma_with_expert_paligemma_model_vision_tower_vision_model_encoder_layers_20_mlp_fc2.weight"} loc("p202.1615"), %arg203: tensor<4304xf32> {ttcore.argument_type = #ttcore.argument_type<parameter>, ttir.name = "L__self___bracket_core_paligemma_with_expert_paligemma_model_vision_tower_vision_model_encoder_layers_20_mlp_fc1.bias"} loc("p203.1623"), %arg204: tensor<4304x1152xf32> {ttcore.argument_type = #ttcore.argument_type<parameter>, ttir.name = "L__self___bracket_core_paligemma_with_expert_paligemma_model_vision_tower_vision_model_encoder_layers_20_mlp_fc1.weight"} loc("p204.1627"), %arg205: tensor<1152xf32> {ttcore.argument_type = #ttcore.argument_type<parameter>, ttir.name = "L__self___bracket_core_paligemma_with_expert_paligemma_model_vision_tower_vision_model_encoder_layers_20_layer_norm2.bias"} loc("p205.1633"), %arg206: tensor<1152xf32> {ttcore.argument_type = #ttcore.argument_type<parameter>, ttir.name = "L__self___bracket_core_paligemma_with_expert_paligemma_model_vision_tower_vision_model_encoder_layers_20_layer_norm2.weight"} loc("p206.1638"), %arg207: tensor<1152xf32> {ttcore.argument_type = #ttcore.argument_type<parameter>, ttir.name = "L__self___bracket_core_paligemma_with_expert_paligemma_model_vision_tower_vision_model_encoder_layers_20_self_attn_out_proj.bias"} loc("p207.1647"), %arg208: tensor<1152x1152xf32> {ttcore.argument_type = #ttcore.argument_type<parameter>, ttir.name = "L__self___bracket_core_paligemma_with_expert_paligemma_model_vision_tower_vision_model_encoder_layers_20_self_attn_out_proj.weight"} loc("p208.1651"), %arg209: tensor<1152xf32> {ttcore.argument_type = #ttcore.argument_type<parameter>, ttir.name = "L__self___bracket_core_paligemma_with_expert_paligemma_model_vision_tower_vision_model_encoder_layers_20_self_attn_v_proj.bias"} loc("p209.1657"), %arg210: tensor<1152x1152xf32> {ttcore.argument_type = #ttcore.argument_type<parameter>, ttir.name = "L__self___bracket_core_paligemma_with_expert_paligemma_model_vision_tower_vision_model_encoder_layers_20_self_attn_v_proj.weight"} loc("p210.1661"), %arg211: tensor<1152xf32> {ttcore.argument_type = #ttcore.argument_type<parameter>, ttir.name = "L__self___bracket_core_paligemma_with_expert_paligemma_model_vision_tower_vision_model_encoder_layers_20_layer_norm1.bias"} loc("p211.1667"), %arg212: tensor<1152xf32> {ttcore.argument_type = #ttcore.argument_type<parameter>, ttir.name = "L__self___bracket_core_paligemma_with_expert_paligemma_model_vision_tower_vision_model_encoder_layers_20_layer_norm1.weight"} loc("p212.1672"), %arg213: tensor<1152xf32> {ttcore.argument_type = #ttcore.argument_type<parameter>, ttir.name = "L__self___bracket_core_paligemma_with_expert_paligemma_model_vision_tower_vision_model_encoder_layers_19_mlp_fc2.bias"} loc("p213.1681"), %arg214: tensor<1152x4304xf32> {ttcore.argument_type = #ttcore.argument_type<parameter>, ttir.name = "L__self___bracket_core_paligemma_with_expert_paligemma_model_vision_tower_vision_model_encoder_layers_19_mlp_fc2.weight"} loc("p214.1685"), %arg215: tensor<4304xf32> {ttcore.argument_type = #ttcore.argument_type<parameter>, ttir.name = "L__self___bracket_core_paligemma_with_expert_paligemma_model_vision_tower_vision_model_encoder_layers_19_mlp_fc1.bias"} loc("p215.1693"), %arg216: tensor<4304x1152xf32> {ttcore.argument_type = #ttcore.argument_type<parameter>, ttir.name = "L__self___bracket_core_paligemma_with_expert_paligemma_model_vision_tower_vision_model_encoder_layers_19_mlp_fc1.weight"} loc("p216.1697"), %arg217: tensor<1152xf32> {ttcore.argument_type = #ttcore.argument_type<parameter>, ttir.name = "L__self___bracket_core_paligemma_with_expert_paligemma_model_vision_tower_vision_model_encoder_layers_19_layer_norm2.bias"} loc("p217.1703"), %arg218: tensor<1152xf32> {ttcore.argument_type = #ttcore.argument_type<parameter>, ttir.name = "L__self___bracket_core_paligemma_with_expert_paligemma_model_vision_tower_vision_model_encoder_layers_19_layer_norm2.weight"} loc("p218.1708"), %arg219: tensor<1152xf32> {ttcore.argument_type = #ttcore.argument_type<parameter>, ttir.name = "L__self___bracket_core_paligemma_with_expert_paligemma_model_vision_tower_vision_model_encoder_layers_19_self_attn_out_proj.bias"} loc("p219.1717"), %arg220: tensor<1152x1152xf32> {ttcore.argument_type = #ttcore.argument_type<parameter>, ttir.name = "L__self___bracket_core_paligemma_with_expert_paligemma_model_vision_tower_vision_model_encoder_layers_19_self_attn_out_proj.weight"} loc("p220.1721"), %arg221: tensor<1152xf32> {ttcore.argument_type = #ttcore.argument_type<parameter>, ttir.name = "L__self___bracket_core_paligemma_with_expert_paligemma_model_vision_tower_vision_model_encoder_layers_19_self_attn_v_proj.bias"} loc("p221.1727"), %arg222: tensor<1152x1152xf32> {ttcore.argument_type = #ttcore.argument_type<parameter>, ttir.name = "L__self___bracket_core_paligemma_with_expert_paligemma_model_vision_tower_vision_model_encoder_layers_19_self_attn_v_proj.weight"} loc("p222.1731"), %arg223: tensor<1152xf32> {ttcore.argument_type = #ttcore.argument_type<parameter>, ttir.name = "L__self___bracket_core_paligemma_with_expert_paligemma_model_vision_tower_vision_model_encoder_layers_19_layer_norm1.bias"} loc("p223.1737"), %arg224: tensor<1152xf32> {ttcore.argument_type = #ttcore.argument_type<parameter>, ttir.name = "L__self___bracket_core_paligemma_with_expert_paligemma_model_vision_tower_vision_model_encoder_layers_19_layer_norm1.weight"} loc("p224.1742"), %arg225: tensor<1152xf32> {ttcore.argument_type = #ttcore.argument_type<parameter>, ttir.name = "L__self___bracket_core_paligemma_with_expert_paligemma_model_vision_tower_vision_model_encoder_layers_18_mlp_fc2.bias"} loc("p225.1751"), %arg226: tensor<1152x4304xf32> {ttcore.argument_type = #ttcore.argument_type<parameter>, ttir.name = "L__self___bracket_core_paligemma_with_expert_paligemma_model_vision_tower_vision_model_encoder_layers_18_mlp_fc2.weight"} loc("p226.1755"), %arg227: tensor<4304xf32> {ttcore.argument_type = #ttcore.argument_type<parameter>, ttir.name = "L__self___bracket_core_paligemma_with_expert_paligemma_model_vision_tower_vision_model_encoder_layers_18_mlp_fc1.bias"} loc("p227.1763"), %arg228: tensor<4304x1152xf32> {ttcore.argument_type = #ttcore.argument_type<parameter>, ttir.name = "L__self___bracket_core_paligemma_with_expert_paligemma_model_vision_tower_vision_model_encoder_layers_18_mlp_fc1.weight"} loc("p228.1767"), %arg229: tensor<1152xf32> {ttcore.argument_type = #ttcore.argument_type<parameter>, ttir.name = "L__self___bracket_core_paligemma_with_expert_paligemma_model_vision_tower_vision_model_encoder_layers_18_layer_norm2.bias"} loc("p229.1773"), %arg230: tensor<1152xf32> {ttcore.argument_type = #ttcore.argument_type<parameter>, ttir.name = "L__self___bracket_core_paligemma_with_expert_paligemma_model_vision_tower_vision_model_encoder_layers_18_layer_norm2.weight"} loc("p230.1778"), %arg231: tensor<1152xf32> {ttcore.argument_type = #ttcore.argument_type<parameter>, ttir.name = "L__self___bracket_core_paligemma_with_expert_paligemma_model_vision_tower_vision_model_encoder_layers_18_self_attn_out_proj.bias"} loc("p231.1787"), %arg232: tensor<1152x1152xf32> {ttcore.argument_type = #ttcore.argument_type<parameter>, ttir.name = "L__self___bracket_core_paligemma_with_expert_paligemma_model_vision_tower_vision_model_encoder_layers_18_self_attn_out_proj.weight"} loc("p232.1791"), %arg233: tensor<1152xf32> {ttcore.argument_type = #ttcore.argument_type<parameter>, ttir.name = "L__self___bracket_core_paligemma_with_expert_paligemma_model_vision_tower_vision_model_encoder_layers_18_self_attn_v_proj.bias"} loc("p233.1797"), %arg234: tensor<1152x1152xf32> {ttcore.argument_type = #ttcore.argument_type<parameter>, ttir.name = "L__self___bracket_core_paligemma_with_expert_paligemma_model_vision_tower_vision_model_encoder_layers_18_self_attn_v_proj.weight"} loc("p234.1801"), %arg235: tensor<1152xf32> {ttcore.argument_type = #ttcore.argument_type<parameter>, ttir.name = "L__self___bracket_core_paligemma_with_expert_paligemma_model_vision_tower_vision_model_encoder_layers_18_layer_norm1.bias"} loc("p235.1807"), %arg236: tensor<1152xf32> {ttcore.argument_type = #ttcore.argument_type<parameter>, ttir.name = "L__self___bracket_core_paligemma_with_expert_paligemma_model_vision_tower_vision_model_encoder_layers_18_layer_norm1.weight"} loc("p236.1812"), %arg237: tensor<1152xf32> {ttcore.argument_type = #ttcore.argument_type<parameter>, ttir.name = "L__self___bracket_core_paligemma_with_expert_paligemma_model_vision_tower_vision_model_encoder_layers_17_mlp_fc2.bias"} loc("p237.1821"), %arg238: tensor<1152x4304xf32> {ttcore.argument_type = #ttcore.argument_type<parameter>, ttir.name = "L__self___bracket_core_paligemma_with_expert_paligemma_model_vision_tower_vision_model_encoder_layers_17_mlp_fc2.weight"} loc("p238.1825"), %arg239: tensor<4304xf32> {ttcore.argument_type = #ttcore.argument_type<parameter>, ttir.name = "L__self___bracket_core_paligemma_with_expert_paligemma_model_vision_tower_vision_model_encoder_layers_17_mlp_fc1.bias"} loc("p239.1833"), %arg240: tensor<4304x1152xf32> {ttcore.argument_type = #ttcore.argument_type<parameter>, ttir.name = "L__self___bracket_core_paligemma_with_expert_paligemma_model_vision_tower_vision_model_encoder_layers_17_mlp_fc1.weight"} loc("p240.1837"), %arg241: tensor<1152xf32> {ttcore.argument_type = #ttcore.argument_type<parameter>, ttir.name = "L__self___bracket_core_paligemma_with_expert_paligemma_model_vision_tower_vision_model_encoder_layers_17_layer_norm2.bias"} loc("p241.1843"), %arg242: tensor<1152xf32> {ttcore.argument_type = #ttcore.argument_type<parameter>, ttir.name = "L__self___bracket_core_paligemma_with_expert_paligemma_model_vision_tower_vision_model_encoder_layers_17_layer_norm2.weight"} loc("p242.1848"), %arg243: tensor<1152xf32> {ttcore.argument_type = #ttcore.argument_type<parameter>, ttir.name = "L__self___bracket_core_paligemma_with_expert_paligemma_model_vision_tower_vision_model_encoder_layers_17_self_attn_out_proj.bias"} loc("p243.1857"), %arg244: tensor<1152x1152xf32> {ttcore.argument_type = #ttcore.argument_type<parameter>, ttir.name = "L__self___bracket_core_paligemma_with_expert_paligemma_model_vision_tower_vision_model_encoder_layers_17_self_attn_out_proj.weight"} loc("p244.1861"), %arg245: tensor<1152xf32> {ttcore.argument_type = #ttcore.argument_type<parameter>, ttir.name = "L__self___bracket_core_paligemma_with_expert_paligemma_model_vision_tower_vision_model_encoder_layers_17_self_attn_v_proj.bias"} loc("p245.1867"), %arg246: tensor<1152x1152xf32> {ttcore.argument_type = #ttcore.argument_type<parameter>, ttir.name = "L__self___bracket_core_paligemma_with_expert_paligemma_model_vision_tower_vision_model_encoder_layers_17_self_attn_v_proj.weight"} loc("p246.1871"), %arg247: tensor<1152xf32> {ttcore.argument_type = #ttcore.argument_type<parameter>, ttir.name = "L__self___bracket_core_paligemma_with_expert_paligemma_model_vision_tower_vision_model_encoder_layers_17_layer_norm1.bias"} loc("p247.1877"), %arg248: tensor<1152xf32> {ttcore.argument_type = #ttcore.argument_type<parameter>, ttir.name = "L__self___bracket_core_paligemma_with_expert_paligemma_model_vision_tower_vision_model_encoder_layers_17_layer_norm1.weight"} loc("p248.1882"), %arg249: tensor<1152xf32> {ttcore.argument_type = #ttcore.argument_type<parameter>, ttir.name = "L__self___bracket_core_paligemma_with_expert_paligemma_model_vision_tower_vision_model_encoder_layers_16_mlp_fc2.bias"} loc("p249.1891"), %arg250: tensor<1152x4304xf32> {ttcore.argument_type = #ttcore.argument_type<parameter>, ttir.name = "L__self___bracket_core_paligemma_with_expert_paligemma_model_vision_tower_vision_model_encoder_layers_16_mlp_fc2.weight"} loc("p250.1895"), %arg251: tensor<4304xf32> {ttcore.argument_type = #ttcore.argument_type<parameter>, ttir.name = "L__self___bracket_core_paligemma_with_expert_paligemma_model_vision_tower_vision_model_encoder_layers_16_mlp_fc1.bias"} loc("p251.1903"), %arg252: tensor<4304x1152xf32> {ttcore.argument_type = #ttcore.argument_type<parameter>, ttir.name = "L__self___bracket_core_paligemma_with_expert_paligemma_model_vision_tower_vision_model_encoder_layers_16_mlp_fc1.weight"} loc("p252.1907"), %arg253: tensor<1152xf32> {ttcore.argument_type = #ttcore.argument_type<parameter>, ttir.name = "L__self___bracket_core_paligemma_with_expert_paligemma_model_vision_tower_vision_model_encoder_layers_16_layer_norm2.bias"} loc("p253.1913"), %arg254: tensor<1152xf32> {ttcore.argument_type = #ttcore.argument_type<parameter>, ttir.name = "L__self___bracket_core_paligemma_with_expert_paligemma_model_vision_tower_vision_model_encoder_layers_16_layer_norm2.weight"} loc("p254.1918"), %arg255: tensor<1152xf32> {ttcore.argument_type = #ttcore.argument_type<parameter>, ttir.name = "L__self___bracket_core_paligemma_with_expert_paligemma_model_vision_tower_vision_model_encoder_layers_16_self_attn_out_proj.bias"} loc("p255.1927"), %arg256: tensor<1152x1152xf32> {ttcore.argument_type = #ttcore.argument_type<parameter>, ttir.name = "L__self___bracket_core_paligemma_with_expert_paligemma_model_vision_tower_vision_model_encoder_layers_16_self_attn_out_proj.weight"} loc("p256.1931"), %arg257: tensor<1152xf32> {ttcore.argument_type = #ttcore.argument_type<parameter>, ttir.name = "L__self___bracket_core_paligemma_with_expert_paligemma_model_vision_tower_vision_model_encoder_layers_16_self_attn_v_proj.bias"} loc("p257.1937"), %arg258: tensor<1152x1152xf32> {ttcore.argument_type = #ttcore.argument_type<parameter>, ttir.name = "L__self___bracket_core_paligemma_with_expert_paligemma_model_vision_tower_vision_model_encoder_layers_16_self_attn_v_proj.weight"} loc("p258.1941"), %arg259: tensor<1152xf32> {ttcore.argument_type = #ttcore.argument_type<parameter>, ttir.name = "L__self___bracket_core_paligemma_with_expert_paligemma_model_vision_tower_vision_model_encoder_layers_16_layer_norm1.bias"} loc("p259.1947"), %arg260: tensor<1152xf32> {ttcore.argument_type = #ttcore.argument_type<parameter>, ttir.name = "L__self___bracket_core_paligemma_with_expert_paligemma_model_vision_tower_vision_model_encoder_layers_16_layer_norm1.weight"} loc("p260.1952"), %arg261: tensor<1152xf32> {ttcore.argument_type = #ttcore.argument_type<parameter>, ttir.name = "L__self___bracket_core_paligemma_with_expert_paligemma_model_vision_tower_vision_model_encoder_layers_15_mlp_fc2.bias"} loc("p261.1961"), %arg262: tensor<1152x4304xf32> {ttcore.argument_type = #ttcore.argument_type<parameter>, ttir.name = "L__self___bracket_core_paligemma_with_expert_paligemma_model_vision_tower_vision_model_encoder_layers_15_mlp_fc2.weight"} loc("p262.1965"), %arg263: tensor<4304xf32> {ttcore.argument_type = #ttcore.argument_type<parameter>, ttir.name = "L__self___bracket_core_paligemma_with_expert_paligemma_model_vision_tower_vision_model_encoder_layers_15_mlp_fc1.bias"} loc("p263.1973"), %arg264: tensor<4304x1152xf32> {ttcore.argument_type = #ttcore.argument_type<parameter>, ttir.name = "L__self___bracket_core_paligemma_with_expert_paligemma_model_vision_tower_vision_model_encoder_layers_15_mlp_fc1.weight"} loc("p264.1977"), %arg265: tensor<1152xf32> {ttcore.argument_type = #ttcore.argument_type<parameter>, ttir.name = "L__self___bracket_core_paligemma_with_expert_paligemma_model_vision_tower_vision_model_encoder_layers_15_layer_norm2.bias"} loc("p265.1983"), %arg266: tensor<1152xf32> {ttcore.argument_type = #ttcore.argument_type<parameter>, ttir.name = "L__self___bracket_core_paligemma_with_expert_paligemma_model_vision_tower_vision_model_encoder_layers_15_layer_norm2.weight"} loc("p266.1988"), %arg267: tensor<1152xf32> {ttcore.argument_type = #ttcore.argument_type<parameter>, ttir.name = "L__self___bracket_core_paligemma_with_expert_paligemma_model_vision_tower_vision_model_encoder_layers_15_self_attn_out_proj.bias"} loc("p267.1997"), %arg268: tensor<1152x1152xf32> {ttcore.argument_type = #ttcore.argument_type<parameter>, ttir.name = "L__self___bracket_core_paligemma_with_expert_paligemma_model_vision_tower_vision_model_encoder_layers_15_self_attn_out_proj.weight"} loc("p268.2001"), %arg269: tensor<1152xf32> {ttcore.argument_type = #ttcore.argument_type<parameter>, ttir.name = "L__self___bracket_core_paligemma_with_expert_paligemma_model_vision_tower_vision_model_encoder_layers_15_self_attn_v_proj.bias"} loc("p269.2007"), %arg270: tensor<1152x1152xf32> {ttcore.argument_type = #ttcore.argument_type<parameter>, ttir.name = "L__self___bracket_core_paligemma_with_expert_paligemma_model_vision_tower_vision_model_encoder_layers_15_self_attn_v_proj.weight"} loc("p270.2011"), %arg271: tensor<1152xf32> {ttcore.argument_type = #ttcore.argument_type<parameter>, ttir.name = "L__self___bracket_core_paligemma_with_expert_paligemma_model_vision_tower_vision_model_encoder_layers_15_layer_norm1.bias"} loc("p271.2017"), %arg272: tensor<1152xf32> {ttcore.argument_type = #ttcore.argument_type<parameter>, ttir.name = "L__self___bracket_core_paligemma_with_expert_paligemma_model_vision_tower_vision_model_encoder_layers_15_layer_norm1.weight"} loc("p272.2022"), %arg273: tensor<1152xf32> {ttcore.argument_type = #ttcore.argument_type<parameter>, ttir.name = "L__self___bracket_core_paligemma_with_expert_paligemma_model_vision_tower_vision_model_encoder_layers_14_mlp_fc2.bias"} loc("p273.2031"), %arg274: tensor<1152x4304xf32> {ttcore.argument_type = #ttcore.argument_type<parameter>, ttir.name = "L__self___bracket_core_paligemma_with_expert_paligemma_model_vision_tower_vision_model_encoder_layers_14_mlp_fc2.weight"} loc("p274.2035"), %arg275: tensor<4304xf32> {ttcore.argument_type = #ttcore.argument_type<parameter>, ttir.name = "L__self___bracket_core_paligemma_with_expert_paligemma_model_vision_tower_vision_model_encoder_layers_14_mlp_fc1.bias"} loc("p275.2043"), %arg276: tensor<4304x1152xf32> {ttcore.argument_type = #ttcore.argument_type<parameter>, ttir.name = "L__self___bracket_core_paligemma_with_expert_paligemma_model_vision_tower_vision_model_encoder_layers_14_mlp_fc1.weight"} loc("p276.2047"), %arg277: tensor<1152xf32> {ttcore.argument_type = #ttcore.argument_type<parameter>, ttir.name = "L__self___bracket_core_paligemma_with_expert_paligemma_model_vision_tower_vision_model_encoder_layers_14_layer_norm2.bias"} loc("p277.2053"), %arg278: tensor<1152xf32> {ttcore.argument_type = #ttcore.argument_type<parameter>, ttir.name = "L__self___bracket_core_paligemma_with_expert_paligemma_model_vision_tower_vision_model_encoder_layers_14_layer_norm2.weight"} loc("p278.2058"), %arg279: tensor<1152xf32> {ttcore.argument_type = #ttcore.argument_type<parameter>, ttir.name = "L__self___bracket_core_paligemma_with_expert_paligemma_model_vision_tower_vision_model_encoder_layers_14_self_attn_out_proj.bias"} loc("p279.2067"), %arg280: tensor<1152x1152xf32> {ttcore.argument_type = #ttcore.argument_type<parameter>, ttir.name = "L__self___bracket_core_paligemma_with_expert_paligemma_model_vision_tower_vision_model_encoder_layers_14_self_attn_out_proj.weight"} loc("p280.2071"), %arg281: tensor<1152xf32> {ttcore.argument_type = #ttcore.argument_type<parameter>, ttir.name = "L__self___bracket_core_paligemma_with_expert_paligemma_model_vision_tower_vision_model_encoder_layers_14_self_attn_v_proj.bias"} loc("p281.2077"), %arg282: tensor<1152x1152xf32> {ttcore.argument_type = #ttcore.argument_type<parameter>, ttir.name = "L__self___bracket_core_paligemma_with_expert_paligemma_model_vision_tower_vision_model_encoder_layers_14_self_attn_v_proj.weight"} loc("p282.2081"), %arg283: tensor<1152xf32> {ttcore.argument_type = #ttcore.argument_type<parameter>, ttir.name = "L__self___bracket_core_paligemma_with_expert_paligemma_model_vision_tower_vision_model_encoder_layers_14_layer_norm1.bias"} loc("p283.2087"), %arg284: tensor<1152xf32> {ttcore.argument_type = #ttcore.argument_type<parameter>, ttir.name = "L__self___bracket_core_paligemma_with_expert_paligemma_model_vision_tower_vision_model_encoder_layers_14_layer_norm1.weight"} loc("p284.2092"), %arg285: tensor<1152xf32> {ttcore.argument_type = #ttcore.argument_type<parameter>, ttir.name = "L__self___bracket_core_paligemma_with_expert_paligemma_model_vision_tower_vision_model_encoder_layers_13_mlp_fc2.bias"} loc("p285.2101"), %arg286: tensor<1152x4304xf32> {ttcore.argument_type = #ttcore.argument_type<parameter>, ttir.name = "L__self___bracket_core_paligemma_with_expert_paligemma_model_vision_tower_vision_model_encoder_layers_13_mlp_fc2.weight"} loc("p286.2105"), %arg287: tensor<4304xf32> {ttcore.argument_type = #ttcore.argument_type<parameter>, ttir.name = "L__self___bracket_core_paligemma_with_expert_paligemma_model_vision_tower_vision_model_encoder_layers_13_mlp_fc1.bias"} loc("p287.2113"), %arg288: tensor<4304x1152xf32> {ttcore.argument_type = #ttcore.argument_type<parameter>, ttir.name = "L__self___bracket_core_paligemma_with_expert_paligemma_model_vision_tower_vision_model_encoder_layers_13_mlp_fc1.weight"} loc("p288.2117"), %arg289: tensor<1152xf32> {ttcore.argument_type = #ttcore.argument_type<parameter>, ttir.name = "L__self___bracket_core_paligemma_with_expert_paligemma_model_vision_tower_vision_model_encoder_layers_13_layer_norm2.bias"} loc("p289.2123"), %arg290: tensor<1152xf32> {ttcore.argument_type = #ttcore.argument_type<parameter>, ttir.name = "L__self___bracket_core_paligemma_with_expert_paligemma_model_vision_tower_vision_model_encoder_layers_13_layer_norm2.weight"} loc("p290.2128"), %arg291: tensor<1152xf32> {ttcore.argument_type = #ttcore.argument_type<parameter>, ttir.name = "L__self___bracket_core_paligemma_with_expert_paligemma_model_vision_tower_vision_model_encoder_layers_13_self_attn_out_proj.bias"} loc("p291.2137"), %arg292: tensor<1152x1152xf32> {ttcore.argument_type = #ttcore.argument_type<parameter>, ttir.name = "L__self___bracket_core_paligemma_with_expert_paligemma_model_vision_tower_vision_model_encoder_layers_13_self_attn_out_proj.weight"} loc("p292.2141"), %arg293: tensor<1152xf32> {ttcore.argument_type = #ttcore.argument_type<parameter>, ttir.name = "L__self___bracket_core_paligemma_with_expert_paligemma_model_vision_tower_vision_model_encoder_layers_13_self_attn_v_proj.bias"} loc("p293.2147"), %arg294: tensor<1152x1152xf32> {ttcore.argument_type = #ttcore.argument_type<parameter>, ttir.name = "L__self___bracket_core_paligemma_with_expert_paligemma_model_vision_tower_vision_model_encoder_layers_13_self_attn_v_proj.weight"} loc("p294.2151"), %arg295: tensor<1152xf32> {ttcore.argument_type = #ttcore.argument_type<parameter>, ttir.name = "L__self___bracket_core_paligemma_with_expert_paligemma_model_vision_tower_vision_model_encoder_layers_13_layer_norm1.bias"} loc("p295.2157"), %arg296: tensor<1152xf32> {ttcore.argument_type = #ttcore.argument_type<parameter>, ttir.name = "L__self___bracket_core_paligemma_with_expert_paligemma_model_vision_tower_vision_model_encoder_layers_13_layer_norm1.weight"} loc("p296.2162"), %arg297: tensor<1152xf32> {ttcore.argument_type = #ttcore.argument_type<parameter>, ttir.name = "L__self___bracket_core_paligemma_with_expert_paligemma_model_vision_tower_vision_model_encoder_layers_12_mlp_fc2.bias"} loc("p297.2171"), %arg298: tensor<1152x4304xf32> {ttcore.argument_type = #ttcore.argument_type<parameter>, ttir.name = "L__self___bracket_core_paligemma_with_expert_paligemma_model_vision_tower_vision_model_encoder_layers_12_mlp_fc2.weight"} loc("p298.2175"), %arg299: tensor<4304xf32> {ttcore.argument_type = #ttcore.argument_type<parameter>, ttir.name = "L__self___bracket_core_paligemma_with_expert_paligemma_model_vision_tower_vision_model_encoder_layers_12_mlp_fc1.bias"} loc("p299.2183"), %arg300: tensor<4304x1152xf32> {ttcore.argument_type = #ttcore.argument_type<parameter>, ttir.name = "L__self___bracket_core_paligemma_with_expert_paligemma_model_vision_tower_vision_model_encoder_layers_12_mlp_fc1.weight"} loc("p300.2187"), %arg301: tensor<1152xf32> {ttcore.argument_type = #ttcore.argument_type<parameter>, ttir.name = "L__self___bracket_core_paligemma_with_expert_paligemma_model_vision_tower_vision_model_encoder_layers_12_layer_norm2.bias"} loc("p301.2193"), %arg302: tensor<1152xf32> {ttcore.argument_type = #ttcore.argument_type<parameter>, ttir.name = "L__self___bracket_core_paligemma_with_expert_paligemma_model_vision_tower_vision_model_encoder_layers_12_layer_norm2.weight"} loc("p302.2198"), %arg303: tensor<1152xf32> {ttcore.argument_type = #ttcore.argument_type<parameter>, ttir.name = "L__self___bracket_core_paligemma_with_expert_paligemma_model_vision_tower_vision_model_encoder_layers_12_self_attn_out_proj.bias"} loc("p303.2207"), %arg304: tensor<1152x1152xf32> {ttcore.argument_type = #ttcore.argument_type<parameter>, ttir.name = "L__self___bracket_core_paligemma_with_expert_paligemma_model_vision_tower_vision_model_encoder_layers_12_self_attn_out_proj.weight"} loc("p304.2211"), %arg305: tensor<1152xf32> {ttcore.argument_type = #ttcore.argument_type<parameter>, ttir.name = "L__self___bracket_core_paligemma_with_expert_paligemma_model_vision_tower_vision_model_encoder_layers_12_self_attn_v_proj.bias"} loc("p305.2217"), %arg306: tensor<1152x1152xf32> {ttcore.argument_type = #ttcore.argument_type<parameter>, ttir.name = "L__self___bracket_core_paligemma_with_expert_paligemma_model_vision_tower_vision_model_encoder_layers_12_self_attn_v_proj.weight"} loc("p306.2221"), %arg307: tensor<1152xf32> {ttcore.argument_type = #ttcore.argument_type<parameter>, ttir.name = "L__self___bracket_core_paligemma_with_expert_paligemma_model_vision_tower_vision_model_encoder_layers_12_layer_norm1.bias"} loc("p307.2227"), %arg308: tensor<1152xf32> {ttcore.argument_type = #ttcore.argument_type<parameter>, ttir.name = "L__self___bracket_core_paligemma_with_expert_paligemma_model_vision_tower_vision_model_encoder_layers_12_layer_norm1.weight"} loc("p308.2232"), %arg309: tensor<1152xf32> {ttcore.argument_type = #ttcore.argument_type<parameter>, ttir.name = "L__self___bracket_core_paligemma_with_expert_paligemma_model_vision_tower_vision_model_encoder_layers_11_mlp_fc2.bias"} loc("p309.2241"), %arg310: tensor<1152x4304xf32> {ttcore.argument_type = #ttcore.argument_type<parameter>, ttir.name = "L__self___bracket_core_paligemma_with_expert_paligemma_model_vision_tower_vision_model_encoder_layers_11_mlp_fc2.weight"} loc("p310.2245"), %arg311: tensor<4304xf32> {ttcore.argument_type = #ttcore.argument_type<parameter>, ttir.name = "L__self___bracket_core_paligemma_with_expert_paligemma_model_vision_tower_vision_model_encoder_layers_11_mlp_fc1.bias"} loc("p311.2253"), %arg312: tensor<4304x1152xf32> {ttcore.argument_type = #ttcore.argument_type<parameter>, ttir.name = "L__self___bracket_core_paligemma_with_expert_paligemma_model_vision_tower_vision_model_encoder_layers_11_mlp_fc1.weight"} loc("p312.2257"), %arg313: tensor<1152xf32> {ttcore.argument_type = #ttcore.argument_type<parameter>, ttir.name = "L__self___bracket_core_paligemma_with_expert_paligemma_model_vision_tower_vision_model_encoder_layers_11_layer_norm2.bias"} loc("p313.2263"), %arg314: tensor<1152xf32> {ttcore.argument_type = #ttcore.argument_type<parameter>, ttir.name = "L__self___bracket_core_paligemma_with_expert_paligemma_model_vision_tower_vision_model_encoder_layers_11_layer_norm2.weight"} loc("p314.2268"), %arg315: tensor<1152xf32> {ttcore.argument_type = #ttcore.argument_type<parameter>, ttir.name = "L__self___bracket_core_paligemma_with_expert_paligemma_model_vision_tower_vision_model_encoder_layers_11_self_attn_out_proj.bias"} loc("p315.2277"), %arg316: tensor<1152x1152xf32> {ttcore.argument_type = #ttcore.argument_type<parameter>, ttir.name = "L__self___bracket_core_paligemma_with_expert_paligemma_model_vision_tower_vision_model_encoder_layers_11_self_attn_out_proj.weight"} loc("p316.2281"), %arg317: tensor<1152xf32> {ttcore.argument_type = #ttcore.argument_type<parameter>, ttir.name = "L__self___bracket_core_paligemma_with_expert_paligemma_model_vision_tower_vision_model_encoder_layers_11_self_attn_v_proj.bias"} loc("p317.2287"), %arg318: tensor<1152x1152xf32> {ttcore.argument_type = #ttcore.argument_type<parameter>, ttir.name = "L__self___bracket_core_paligemma_with_expert_paligemma_model_vision_tower_vision_model_encoder_layers_11_self_attn_v_proj.weight"} loc("p318.2291"), %arg319: tensor<1152xf32> {ttcore.argument_type = #ttcore.argument_type<parameter>, ttir.name = "L__self___bracket_core_paligemma_with_expert_paligemma_model_vision_tower_vision_model_encoder_layers_11_layer_norm1.bias"} loc("p319.2297"), %arg320: tensor<1152xf32> {ttcore.argument_type = #ttcore.argument_type<parameter>, ttir.name = "L__self___bracket_core_paligemma_with_expert_paligemma_model_vision_tower_vision_model_encoder_layers_11_layer_norm1.weight"} loc("p320.2302"), %arg321: tensor<1152xf32> {ttcore.argument_type = #ttcore.argument_type<parameter>, ttir.name = "L__self___bracket_core_paligemma_with_expert_paligemma_model_vision_tower_vision_model_encoder_layers_10_mlp_fc2.bias"} loc("p321.2311"), %arg322: tensor<1152x4304xf32> {ttcore.argument_type = #ttcore.argument_type<parameter>, ttir.name = "L__self___bracket_core_paligemma_with_expert_paligemma_model_vision_tower_vision_model_encoder_layers_10_mlp_fc2.weight"} loc("p322.2315"), %arg323: tensor<4304xf32> {ttcore.argument_type = #ttcore.argument_type<parameter>, ttir.name = "L__self___bracket_core_paligemma_with_expert_paligemma_model_vision_tower_vision_model_encoder_layers_10_mlp_fc1.bias"} loc("p323.2323"), %arg324: tensor<4304x1152xf32> {ttcore.argument_type = #ttcore.argument_type<parameter>, ttir.name = "L__self___bracket_core_paligemma_with_expert_paligemma_model_vision_tower_vision_model_encoder_layers_10_mlp_fc1.weight"} loc("p324.2327"), %arg325: tensor<1152xf32> {ttcore.argument_type = #ttcore.argument_type<parameter>, ttir.name = "L__self___bracket_core_paligemma_with_expert_paligemma_model_vision_tower_vision_model_encoder_layers_10_layer_norm2.bias"} loc("p325.2333"), %arg326: tensor<1152xf32> {ttcore.argument_type = #ttcore.argument_type<parameter>, ttir.name = "L__self___bracket_core_paligemma_with_expert_paligemma_model_vision_tower_vision_model_encoder_layers_10_layer_norm2.weight"} loc("p326.2338"), %arg327: tensor<1152xf32> {ttcore.argument_type = #ttcore.argument_type<parameter>, ttir.name = "L__self___bracket_core_paligemma_with_expert_paligemma_model_vision_tower_vision_model_encoder_layers_10_self_attn_out_proj.bias"} loc("p327.2347"), %arg328: tensor<1152x1152xf32> {ttcore.argument_type = #ttcore.argument_type<parameter>, ttir.name = "L__self___bracket_core_paligemma_with_expert_paligemma_model_vision_tower_vision_model_encoder_layers_10_self_attn_out_proj.weight"} loc("p328.2351"), %arg329: tensor<1152xf32> {ttcore.argument_type = #ttcore.argument_type<parameter>, ttir.name = "L__self___bracket_core_paligemma_with_expert_paligemma_model_vision_tower_vision_model_encoder_layers_10_self_attn_v_proj.bias"} loc("p329.2357"), %arg330: tensor<1152x1152xf32> {ttcore.argument_type = #ttcore.argument_type<parameter>, ttir.name = "L__self___bracket_core_paligemma_with_expert_paligemma_model_vision_tower_vision_model_encoder_layers_10_self_attn_v_proj.weight"} loc("p330.2361"), %arg331: tensor<1152xf32> {ttcore.argument_type = #ttcore.argument_type<parameter>, ttir.name = "L__self___bracket_core_paligemma_with_expert_paligemma_model_vision_tower_vision_model_encoder_layers_10_layer_norm1.bias"} loc("p331.2367"), %arg332: tensor<1152xf32> {ttcore.argument_type = #ttcore.argument_type<parameter>, ttir.name = "L__self___bracket_core_paligemma_with_expert_paligemma_model_vision_tower_vision_model_encoder_layers_10_layer_norm1.weight"} loc("p332.2372"), %arg333: tensor<1152xf32> {ttcore.argument_type = #ttcore.argument_type<parameter>, ttir.name = "L__self___bracket_core_paligemma_with_expert_paligemma_model_vision_tower_vision_model_encoder_layers_9_mlp_fc2.bias"} loc("p333.2381"), %arg334: tensor<1152x4304xf32> {ttcore.argument_type = #ttcore.argument_type<parameter>, ttir.name = "L__self___bracket_core_paligemma_with_expert_paligemma_model_vision_tower_vision_model_encoder_layers_9_mlp_fc2.weight"} loc("p334.2385"), %arg335: tensor<4304xf32> {ttcore.argument_type = #ttcore.argument_type<parameter>, ttir.name = "L__self___bracket_core_paligemma_with_expert_paligemma_model_vision_tower_vision_model_encoder_layers_9_mlp_fc1.bias"} loc("p335.2393"), %arg336: tensor<4304x1152xf32> {ttcore.argument_type = #ttcore.argument_type<parameter>, ttir.name = "L__self___bracket_core_paligemma_with_expert_paligemma_model_vision_tower_vision_model_encoder_layers_9_mlp_fc1.weight"} loc("p336.2397"), %arg337: tensor<1152xf32> {ttcore.argument_type = #ttcore.argument_type<parameter>, ttir.name = "L__self___bracket_core_paligemma_with_expert_paligemma_model_vision_tower_vision_model_encoder_layers_9_layer_norm2.bias"} loc("p337.2403"), %arg338: tensor<1152xf32> {ttcore.argument_type = #ttcore.argument_type<parameter>, ttir.name = "L__self___bracket_core_paligemma_with_expert_paligemma_model_vision_tower_vision_model_encoder_layers_9_layer_norm2.weight"} loc("p338.2408"), %arg339: tensor<1152xf32> {ttcore.argument_type = #ttcore.argument_type<parameter>, ttir.name = "L__self___bracket_core_paligemma_with_expert_paligemma_model_vision_tower_vision_model_encoder_layers_9_self_attn_out_proj.bias"} loc("p339.2417"), %arg340: tensor<1152x1152xf32> {ttcore.argument_type = #ttcore.argument_type<parameter>, ttir.name = "L__self___bracket_core_paligemma_with_expert_paligemma_model_vision_tower_vision_model_encoder_layers_9_self_attn_out_proj.weight"} loc("p340.2421"), %arg341: tensor<1152xf32> {ttcore.argument_type = #ttcore.argument_type<parameter>, ttir.name = "L__self___bracket_core_paligemma_with_expert_paligemma_model_vision_tower_vision_model_encoder_layers_9_self_attn_v_proj.bias"} loc("p341.2427"), %arg342: tensor<1152x1152xf32> {ttcore.argument_type = #ttcore.argument_type<parameter>, ttir.name = "L__self___bracket_core_paligemma_with_expert_paligemma_model_vision_tower_vision_model_encoder_layers_9_self_attn_v_proj.weight"} loc("p342.2431"), %arg343: tensor<1152xf32> {ttcore.argument_type = #ttcore.argument_type<parameter>, ttir.name = "L__self___bracket_core_paligemma_with_expert_paligemma_model_vision_tower_vision_model_encoder_layers_9_layer_norm1.bias"} loc("p343.2437"), %arg344: tensor<1152xf32> {ttcore.argument_type = #ttcore.argument_type<parameter>, ttir.name = "L__self___bracket_core_paligemma_with_expert_paligemma_model_vision_tower_vision_model_encoder_layers_9_layer_norm1.weight"} loc("p344.2442"), %arg345: tensor<1152xf32> {ttcore.argument_type = #ttcore.argument_type<parameter>, ttir.name = "L__self___bracket_core_paligemma_with_expert_paligemma_model_vision_tower_vision_model_encoder_layers_8_mlp_fc2.bias"} loc("p345.2451"), %arg346: tensor<1152x4304xf32> {ttcore.argument_type = #ttcore.argument_type<parameter>, ttir.name = "L__self___bracket_core_paligemma_with_expert_paligemma_model_vision_tower_vision_model_encoder_layers_8_mlp_fc2.weight"} loc("p346.2455"), %arg347: tensor<4304xf32> {ttcore.argument_type = #ttcore.argument_type<parameter>, ttir.name = "L__self___bracket_core_paligemma_with_expert_paligemma_model_vision_tower_vision_model_encoder_layers_8_mlp_fc1.bias"} loc("p347.2463"), %arg348: tensor<4304x1152xf32> {ttcore.argument_type = #ttcore.argument_type<parameter>, ttir.name = "L__self___bracket_core_paligemma_with_expert_paligemma_model_vision_tower_vision_model_encoder_layers_8_mlp_fc1.weight"} loc("p348.2467"), %arg349: tensor<1152xf32> {ttcore.argument_type = #ttcore.argument_type<parameter>, ttir.name = "L__self___bracket_core_paligemma_with_expert_paligemma_model_vision_tower_vision_model_encoder_layers_8_layer_norm2.bias"} loc("p349.2473"), %arg350: tensor<1152xf32> {ttcore.argument_type = #ttcore.argument_type<parameter>, ttir.name = "L__self___bracket_core_paligemma_with_expert_paligemma_model_vision_tower_vision_model_encoder_layers_8_layer_norm2.weight"} loc("p350.2478"), %arg351: tensor<1152xf32> {ttcore.argument_type = #ttcore.argument_type<parameter>, ttir.name = "L__self___bracket_core_paligemma_with_expert_paligemma_model_vision_tower_vision_model_encoder_layers_8_self_attn_out_proj.bias"} loc("p351.2487"), %arg352: tensor<1152x1152xf32> {ttcore.argument_type = #ttcore.argument_type<parameter>, ttir.name = "L__self___bracket_core_paligemma_with_expert_paligemma_model_vision_tower_vision_model_encoder_layers_8_self_attn_out_proj.weight"} loc("p352.2491"), %arg353: tensor<1152xf32> {ttcore.argument_type = #ttcore.argument_type<parameter>, ttir.name = "L__self___bracket_core_paligemma_with_expert_paligemma_model_vision_tower_vision_model_encoder_layers_8_self_attn_v_proj.bias"} loc("p353.2497"), %arg354: tensor<1152x1152xf32> {ttcore.argument_type = #ttcore.argument_type<parameter>, ttir.name = "L__self___bracket_core_paligemma_with_expert_paligemma_model_vision_tower_vision_model_encoder_layers_8_self_attn_v_proj.weight"} loc("p354.2501"), %arg355: tensor<1152xf32> {ttcore.argument_type = #ttcore.argument_type<parameter>, ttir.name = "L__self___bracket_core_paligemma_with_expert_paligemma_model_vision_tower_vision_model_encoder_layers_8_layer_norm1.bias"} loc("p355.2507"), %arg356: tensor<1152xf32> {ttcore.argument_type = #ttcore.argument_type<parameter>, ttir.name = "L__self___bracket_core_paligemma_with_expert_paligemma_model_vision_tower_vision_model_encoder_layers_8_layer_norm1.weight"} loc("p356.2512"), %arg357: tensor<1152xf32> {ttcore.argument_type = #ttcore.argument_type<parameter>, ttir.name = "L__self___bracket_core_paligemma_with_expert_paligemma_model_vision_tower_vision_model_encoder_layers_7_mlp_fc2.bias"} loc("p357.2521"), %arg358: tensor<1152x4304xf32> {ttcore.argument_type = #ttcore.argument_type<parameter>, ttir.name = "L__self___bracket_core_paligemma_with_expert_paligemma_model_vision_tower_vision_model_encoder_layers_7_mlp_fc2.weight"} loc("p358.2525"), %arg359: tensor<4304xf32> {ttcore.argument_type = #ttcore.argument_type<parameter>, ttir.name = "L__self___bracket_core_paligemma_with_expert_paligemma_model_vision_tower_vision_model_encoder_layers_7_mlp_fc1.bias"} loc("p359.2533"), %arg360: tensor<4304x1152xf32> {ttcore.argument_type = #ttcore.argument_type<parameter>, ttir.name = "L__self___bracket_core_paligemma_with_expert_paligemma_model_vision_tower_vision_model_encoder_layers_7_mlp_fc1.weight"} loc("p360.2537"), %arg361: tensor<1152xf32> {ttcore.argument_type = #ttcore.argument_type<parameter>, ttir.name = "L__self___bracket_core_paligemma_with_expert_paligemma_model_vision_tower_vision_model_encoder_layers_7_layer_norm2.bias"} loc("p361.2543"), %arg362: tensor<1152xf32> {ttcore.argument_type = #ttcore.argument_type<parameter>, ttir.name = "L__self___bracket_core_paligemma_with_expert_paligemma_model_vision_tower_vision_model_encoder_layers_7_layer_norm2.weight"} loc("p362.2548"), %arg363: tensor<1152xf32> {ttcore.argument_type = #ttcore.argument_type<parameter>, ttir.name = "L__self___bracket_core_paligemma_with_expert_paligemma_model_vision_tower_vision_model_encoder_layers_7_self_attn_out_proj.bias"} loc("p363.2557"), %arg364: tensor<1152x1152xf32> {ttcore.argument_type = #ttcore.argument_type<parameter>, ttir.name = "L__self___bracket_core_paligemma_with_expert_paligemma_model_vision_tower_vision_model_encoder_layers_7_self_attn_out_proj.weight"} loc("p364.2561"), %arg365: tensor<1152xf32> {ttcore.argument_type = #ttcore.argument_type<parameter>, ttir.name = "L__self___bracket_core_paligemma_with_expert_paligemma_model_vision_tower_vision_model_encoder_layers_7_self_attn_v_proj.bias"} loc("p365.2567"), %arg366: tensor<1152x1152xf32> {ttcore.argument_type = #ttcore.argument_type<parameter>, ttir.name = "L__self___bracket_core_paligemma_with_expert_paligemma_model_vision_tower_vision_model_encoder_layers_7_self_attn_v_proj.weight"} loc("p366.2571"), %arg367: tensor<1152xf32> {ttcore.argument_type = #ttcore.argument_type<parameter>, ttir.name = "L__self___bracket_core_paligemma_with_expert_paligemma_model_vision_tower_vision_model_encoder_layers_7_layer_norm1.bias"} loc("p367.2577"), %arg368: tensor<1152xf32> {ttcore.argument_type = #ttcore.argument_type<parameter>, ttir.name = "L__self___bracket_core_paligemma_with_expert_paligemma_model_vision_tower_vision_model_encoder_layers_7_layer_norm1.weight"} loc("p368.2582"), %arg369: tensor<1152xf32> {ttcore.argument_type = #ttcore.argument_type<parameter>, ttir.name = "L__self___bracket_core_paligemma_with_expert_paligemma_model_vision_tower_vision_model_encoder_layers_6_mlp_fc2.bias"} loc("p369.2591"), %arg370: tensor<1152x4304xf32> {ttcore.argument_type = #ttcore.argument_type<parameter>, ttir.name = "L__self___bracket_core_paligemma_with_expert_paligemma_model_vision_tower_vision_model_encoder_layers_6_mlp_fc2.weight"} loc("p370.2595"), %arg371: tensor<4304xf32> {ttcore.argument_type = #ttcore.argument_type<parameter>, ttir.name = "L__self___bracket_core_paligemma_with_expert_paligemma_model_vision_tower_vision_model_encoder_layers_6_mlp_fc1.bias"} loc("p371.2603"), %arg372: tensor<4304x1152xf32> {ttcore.argument_type = #ttcore.argument_type<parameter>, ttir.name = "L__self___bracket_core_paligemma_with_expert_paligemma_model_vision_tower_vision_model_encoder_layers_6_mlp_fc1.weight"} loc("p372.2607"), %arg373: tensor<1152xf32> {ttcore.argument_type = #ttcore.argument_type<parameter>, ttir.name = "L__self___bracket_core_paligemma_with_expert_paligemma_model_vision_tower_vision_model_encoder_layers_6_layer_norm2.bias"} loc("p373.2613"), %arg374: tensor<1152xf32> {ttcore.argument_type = #ttcore.argument_type<parameter>, ttir.name = "L__self___bracket_core_paligemma_with_expert_paligemma_model_vision_tower_vision_model_encoder_layers_6_layer_norm2.weight"} loc("p374.2618"), %arg375: tensor<1152xf32> {ttcore.argument_type = #ttcore.argument_type<parameter>, ttir.name = "L__self___bracket_core_paligemma_with_expert_paligemma_model_vision_tower_vision_model_encoder_layers_6_self_attn_out_proj.bias"} loc("p375.2627"), %arg376: tensor<1152x1152xf32> {ttcore.argument_type = #ttcore.argument_type<parameter>, ttir.name = "L__self___bracket_core_paligemma_with_expert_paligemma_model_vision_tower_vision_model_encoder_layers_6_self_attn_out_proj.weight"} loc("p376.2631"), %arg377: tensor<1152xf32> {ttcore.argument_type = #ttcore.argument_type<parameter>, ttir.name = "L__self___bracket_core_paligemma_with_expert_paligemma_model_vision_tower_vision_model_encoder_layers_6_self_attn_v_proj.bias"} loc("p377.2637"), %arg378: tensor<1152x1152xf32> {ttcore.argument_type = #ttcore.argument_type<parameter>, ttir.name = "L__self___bracket_core_paligemma_with_expert_paligemma_model_vision_tower_vision_model_encoder_layers_6_self_attn_v_proj.weight"} loc("p378.2641"), %arg379: tensor<1152xf32> {ttcore.argument_type = #ttcore.argument_type<parameter>, ttir.name = "L__self___bracket_core_paligemma_with_expert_paligemma_model_vision_tower_vision_model_encoder_layers_6_layer_norm1.bias"} loc("p379.2647"), %arg380: tensor<1152xf32> {ttcore.argument_type = #ttcore.argument_type<parameter>, ttir.name = "L__self___bracket_core_paligemma_with_expert_paligemma_model_vision_tower_vision_model_encoder_layers_6_layer_norm1.weight"} loc("p380.2652"), %arg381: tensor<1152xf32> {ttcore.argument_type = #ttcore.argument_type<parameter>, ttir.name = "L__self___bracket_core_paligemma_with_expert_paligemma_model_vision_tower_vision_model_encoder_layers_5_mlp_fc2.bias"} loc("p381.2661"), %arg382: tensor<1152x4304xf32> {ttcore.argument_type = #ttcore.argument_type<parameter>, ttir.name = "L__self___bracket_core_paligemma_with_expert_paligemma_model_vision_tower_vision_model_encoder_layers_5_mlp_fc2.weight"} loc("p382.2665"), %arg383: tensor<4304xf32> {ttcore.argument_type = #ttcore.argument_type<parameter>, ttir.name = "L__self___bracket_core_paligemma_with_expert_paligemma_model_vision_tower_vision_model_encoder_layers_5_mlp_fc1.bias"} loc("p383.2673"), %arg384: tensor<4304x1152xf32> {ttcore.argument_type = #ttcore.argument_type<parameter>, ttir.name = "L__self___bracket_core_paligemma_with_expert_paligemma_model_vision_tower_vision_model_encoder_layers_5_mlp_fc1.weight"} loc("p384.2677"), %arg385: tensor<1152xf32> {ttcore.argument_type = #ttcore.argument_type<parameter>, ttir.name = "L__self___bracket_core_paligemma_with_expert_paligemma_model_vision_tower_vision_model_encoder_layers_5_layer_norm2.bias"} loc("p385.2683"), %arg386: tensor<1152xf32> {ttcore.argument_type = #ttcore.argument_type<parameter>, ttir.name = "L__self___bracket_core_paligemma_with_expert_paligemma_model_vision_tower_vision_model_encoder_layers_5_layer_norm2.weight"} loc("p386.2688"), %arg387: tensor<1152xf32> {ttcore.argument_type = #ttcore.argument_type<parameter>, ttir.name = "L__self___bracket_core_paligemma_with_expert_paligemma_model_vision_tower_vision_model_encoder_layers_5_self_attn_out_proj.bias"} loc("p387.2697"), %arg388: tensor<1152x1152xf32> {ttcore.argument_type = #ttcore.argument_type<parameter>, ttir.name = "L__self___bracket_core_paligemma_with_expert_paligemma_model_vision_tower_vision_model_encoder_layers_5_self_attn_out_proj.weight"} loc("p388.2701"), %arg389: tensor<1152xf32> {ttcore.argument_type = #ttcore.argument_type<parameter>, ttir.name = "L__self___bracket_core_paligemma_with_expert_paligemma_model_vision_tower_vision_model_encoder_layers_5_self_attn_v_proj.bias"} loc("p389.2707"), %arg390: tensor<1152x1152xf32> {ttcore.argument_type = #ttcore.argument_type<parameter>, ttir.name = "L__self___bracket_core_paligemma_with_expert_paligemma_model_vision_tower_vision_model_encoder_layers_5_self_attn_v_proj.weight"} loc("p390.2711"), %arg391: tensor<1152xf32> {ttcore.argument_type = #ttcore.argument_type<parameter>, ttir.name = "L__self___bracket_core_paligemma_with_expert_paligemma_model_vision_tower_vision_model_encoder_layers_5_layer_norm1.bias"} loc("p391.2717"), %arg392: tensor<1152xf32> {ttcore.argument_type = #ttcore.argument_type<parameter>, ttir.name = "L__self___bracket_core_paligemma_with_expert_paligemma_model_vision_tower_vision_model_encoder_layers_5_layer_norm1.weight"} loc("p392.2722"), %arg393: tensor<1152xf32> {ttcore.argument_type = #ttcore.argument_type<parameter>, ttir.name = "L__self___bracket_core_paligemma_with_expert_paligemma_model_vision_tower_vision_model_encoder_layers_4_mlp_fc2.bias"} loc("p393.2731"), %arg394: tensor<1152x4304xf32> {ttcore.argument_type = #ttcore.argument_type<parameter>, ttir.name = "L__self___bracket_core_paligemma_with_expert_paligemma_model_vision_tower_vision_model_encoder_layers_4_mlp_fc2.weight"} loc("p394.2735"), %arg395: tensor<4304xf32> {ttcore.argument_type = #ttcore.argument_type<parameter>, ttir.name = "L__self___bracket_core_paligemma_with_expert_paligemma_model_vision_tower_vision_model_encoder_layers_4_mlp_fc1.bias"} loc("p395.2743"), %arg396: tensor<4304x1152xf32> {ttcore.argument_type = #ttcore.argument_type<parameter>, ttir.name = "L__self___bracket_core_paligemma_with_expert_paligemma_model_vision_tower_vision_model_encoder_layers_4_mlp_fc1.weight"} loc("p396.2747"), %arg397: tensor<1152xf32> {ttcore.argument_type = #ttcore.argument_type<parameter>, ttir.name = "L__self___bracket_core_paligemma_with_expert_paligemma_model_vision_tower_vision_model_encoder_layers_4_layer_norm2.bias"} loc("p397.2753"), %arg398: tensor<1152xf32> {ttcore.argument_type = #ttcore.argument_type<parameter>, ttir.name = "L__self___bracket_core_paligemma_with_expert_paligemma_model_vision_tower_vision_model_encoder_layers_4_layer_norm2.weight"} loc("p398.2758"), %arg399: tensor<1152xf32> {ttcore.argument_type = #ttcore.argument_type<parameter>, ttir.name = "L__self___bracket_core_paligemma_with_expert_paligemma_model_vision_tower_vision_model_encoder_layers_4_self_attn_out_proj.bias"} loc("p399.2767"), %arg400: tensor<1152x1152xf32> {ttcore.argument_type = #ttcore.argument_type<parameter>, ttir.name = "L__self___bracket_core_paligemma_with_expert_paligemma_model_vision_tower_vision_model_encoder_layers_4_self_attn_out_proj.weight"} loc("p400.2771"), %arg401: tensor<1152xf32> {ttcore.argument_type = #ttcore.argument_type<parameter>, ttir.name = "L__self___bracket_core_paligemma_with_expert_paligemma_model_vision_tower_vision_model_encoder_layers_4_self_attn_v_proj.bias"} loc("p401.2777"), %arg402: tensor<1152x1152xf32> {ttcore.argument_type = #ttcore.argument_type<parameter>, ttir.name = "L__self___bracket_core_paligemma_with_expert_paligemma_model_vision_tower_vision_model_encoder_layers_4_self_attn_v_proj.weight"} loc("p402.2781"), %arg403: tensor<1152xf32> {ttcore.argument_type = #ttcore.argument_type<parameter>, ttir.name = "L__self___bracket_core_paligemma_with_expert_paligemma_model_vision_tower_vision_model_encoder_layers_4_layer_norm1.bias"} loc("p403.2787"), %arg404: tensor<1152xf32> {ttcore.argument_type = #ttcore.argument_type<parameter>, ttir.name = "L__self___bracket_core_paligemma_with_expert_paligemma_model_vision_tower_vision_model_encoder_layers_4_layer_norm1.weight"} loc("p404.2792"), %arg405: tensor<1152xf32> {ttcore.argument_type = #ttcore.argument_type<parameter>, ttir.name = "L__self___bracket_core_paligemma_with_expert_paligemma_model_vision_tower_vision_model_encoder_layers_3_mlp_fc2.bias"} loc("p405.2801"), %arg406: tensor<1152x4304xf32> {ttcore.argument_type = #ttcore.argument_type<parameter>, ttir.name = "L__self___bracket_core_paligemma_with_expert_paligemma_model_vision_tower_vision_model_encoder_layers_3_mlp_fc2.weight"} loc("p406.2805"), %arg407: tensor<4304xf32> {ttcore.argument_type = #ttcore.argument_type<parameter>, ttir.name = "L__self___bracket_core_paligemma_with_expert_paligemma_model_vision_tower_vision_model_encoder_layers_3_mlp_fc1.bias"} loc("p407.2813"), %arg408: tensor<4304x1152xf32> {ttcore.argument_type = #ttcore.argument_type<parameter>, ttir.name = "L__self___bracket_core_paligemma_with_expert_paligemma_model_vision_tower_vision_model_encoder_layers_3_mlp_fc1.weight"} loc("p408.2817"), %arg409: tensor<1152xf32> {ttcore.argument_type = #ttcore.argument_type<parameter>, ttir.name = "L__self___bracket_core_paligemma_with_expert_paligemma_model_vision_tower_vision_model_encoder_layers_3_layer_norm2.bias"} loc("p409.2823"), %arg410: tensor<1152xf32> {ttcore.argument_type = #ttcore.argument_type<parameter>, ttir.name = "L__self___bracket_core_paligemma_with_expert_paligemma_model_vision_tower_vision_model_encoder_layers_3_layer_norm2.weight"} loc("p410.2828"), %arg411: tensor<1152xf32> {ttcore.argument_type = #ttcore.argument_type<parameter>, ttir.name = "L__self___bracket_core_paligemma_with_expert_paligemma_model_vision_tower_vision_model_encoder_layers_3_self_attn_out_proj.bias"} loc("p411.2837"), %arg412: tensor<1152x1152xf32> {ttcore.argument_type = #ttcore.argument_type<parameter>, ttir.name = "L__self___bracket_core_paligemma_with_expert_paligemma_model_vision_tower_vision_model_encoder_layers_3_self_attn_out_proj.weight"} loc("p412.2841"), %arg413: tensor<1152xf32> {ttcore.argument_type = #ttcore.argument_type<parameter>, ttir.name = "L__self___bracket_core_paligemma_with_expert_paligemma_model_vision_tower_vision_model_encoder_layers_3_self_attn_v_proj.bias"} loc("p413.2847"), %arg414: tensor<1152x1152xf32> {ttcore.argument_type = #ttcore.argument_type<parameter>, ttir.name = "L__self___bracket_core_paligemma_with_expert_paligemma_model_vision_tower_vision_model_encoder_layers_3_self_attn_v_proj.weight"} loc("p414.2851"), %arg415: tensor<1152xf32> {ttcore.argument_type = #ttcore.argument_type<parameter>, ttir.name = "L__self___bracket_core_paligemma_with_expert_paligemma_model_vision_tower_vision_model_encoder_layers_3_layer_norm1.bias"} loc("p415.2857"), %arg416: tensor<1152xf32> {ttcore.argument_type = #ttcore.argument_type<parameter>, ttir.name = "L__self___bracket_core_paligemma_with_expert_paligemma_model_vision_tower_vision_model_encoder_layers_3_layer_norm1.weight"} loc("p416.2862"), %arg417: tensor<1152xf32> {ttcore.argument_type = #ttcore.argument_type<parameter>, ttir.name = "L__self___bracket_core_paligemma_with_expert_paligemma_model_vision_tower_vision_model_encoder_layers_2_mlp_fc2.bias"} loc("p417.2871"), %arg418: tensor<1152x4304xf32> {ttcore.argument_type = #ttcore.argument_type<parameter>, ttir.name = "L__self___bracket_core_paligemma_with_expert_paligemma_model_vision_tower_vision_model_encoder_layers_2_mlp_fc2.weight"} loc("p418.2875"), %arg419: tensor<4304xf32> {ttcore.argument_type = #ttcore.argument_type<parameter>, ttir.name = "L__self___bracket_core_paligemma_with_expert_paligemma_model_vision_tower_vision_model_encoder_layers_2_mlp_fc1.bias"} loc("p419.2883"), %arg420: tensor<4304x1152xf32> {ttcore.argument_type = #ttcore.argument_type<parameter>, ttir.name = "L__self___bracket_core_paligemma_with_expert_paligemma_model_vision_tower_vision_model_encoder_layers_2_mlp_fc1.weight"} loc("p420.2887"), %arg421: tensor<1152xf32> {ttcore.argument_type = #ttcore.argument_type<parameter>, ttir.name = "L__self___bracket_core_paligemma_with_expert_paligemma_model_vision_tower_vision_model_encoder_layers_2_layer_norm2.bias"} loc("p421.2893"), %arg422: tensor<1152xf32> {ttcore.argument_type = #ttcore.argument_type<parameter>, ttir.name = "L__self___bracket_core_paligemma_with_expert_paligemma_model_vision_tower_vision_model_encoder_layers_2_layer_norm2.weight"} loc("p422.2898"), %arg423: tensor<1152xf32> {ttcore.argument_type = #ttcore.argument_type<parameter>, ttir.name = "L__self___bracket_core_paligemma_with_expert_paligemma_model_vision_tower_vision_model_encoder_layers_2_self_attn_out_proj.bias"} loc("p423.2907"), %arg424: tensor<1152x1152xf32> {ttcore.argument_type = #ttcore.argument_type<parameter>, ttir.name = "L__self___bracket_core_paligemma_with_expert_paligemma_model_vision_tower_vision_model_encoder_layers_2_self_attn_out_proj.weight"} loc("p424.2911"), %arg425: tensor<1152xf32> {ttcore.argument_type = #ttcore.argument_type<parameter>, ttir.name = "L__self___bracket_core_paligemma_with_expert_paligemma_model_vision_tower_vision_model_encoder_layers_2_self_attn_v_proj.bias"} loc("p425.2917"), %arg426: tensor<1152x1152xf32> {ttcore.argument_type = #ttcore.argument_type<parameter>, ttir.name = "L__self___bracket_core_paligemma_with_expert_paligemma_model_vision_tower_vision_model_encoder_layers_2_self_attn_v_proj.weight"} loc("p426.2921"), %arg427: tensor<1152xf32> {ttcore.argument_type = #ttcore.argument_type<parameter>, ttir.name = "L__self___bracket_core_paligemma_with_expert_paligemma_model_vision_tower_vision_model_encoder_layers_2_layer_norm1.bias"} loc("p427.2927"), %arg428: tensor<1152xf32> {ttcore.argument_type = #ttcore.argument_type<parameter>, ttir.name = "L__self___bracket_core_paligemma_with_expert_paligemma_model_vision_tower_vision_model_encoder_layers_2_layer_norm1.weight"} loc("p428.2932"), %arg429: tensor<1152xf32> {ttcore.argument_type = #ttcore.argument_type<parameter>, ttir.name = "L__self___bracket_core_paligemma_with_expert_paligemma_model_vision_tower_vision_model_encoder_layers_1_mlp_fc2.bias"} loc("p429.2941"), %arg430: tensor<1152x4304xf32> {ttcore.argument_type = #ttcore.argument_type<parameter>, ttir.name = "L__self___bracket_core_paligemma_with_expert_paligemma_model_vision_tower_vision_model_encoder_layers_1_mlp_fc2.weight"} loc("p430.2945"), %arg431: tensor<4304xf32> {ttcore.argument_type = #ttcore.argument_type<parameter>, ttir.name = "L__self___bracket_core_paligemma_with_expert_paligemma_model_vision_tower_vision_model_encoder_layers_1_mlp_fc1.bias"} loc("p431.2953"), %arg432: tensor<4304x1152xf32> {ttcore.argument_type = #ttcore.argument_type<parameter>, ttir.name = "L__self___bracket_core_paligemma_with_expert_paligemma_model_vision_tower_vision_model_encoder_layers_1_mlp_fc1.weight"} loc("p432.2957"), %arg433: tensor<1152xf32> {ttcore.argument_type = #ttcore.argument_type<parameter>, ttir.name = "L__self___bracket_core_paligemma_with_expert_paligemma_model_vision_tower_vision_model_encoder_layers_1_layer_norm2.bias"} loc("p433.2963"), %arg434: tensor<1152xf32> {ttcore.argument_type = #ttcore.argument_type<parameter>, ttir.name = "L__self___bracket_core_paligemma_with_expert_paligemma_model_vision_tower_vision_model_encoder_layers_1_layer_norm2.weight"} loc("p434.2968"), %arg435: tensor<1152xf32> {ttcore.argument_type = #ttcore.argument_type<parameter>, ttir.name = "L__self___bracket_core_paligemma_with_expert_paligemma_model_vision_tower_vision_model_encoder_layers_1_self_attn_out_proj.bias"} loc("p435.2977"), %arg436: tensor<1152x1152xf32> {ttcore.argument_type = #ttcore.argument_type<parameter>, ttir.name = "L__self___bracket_core_paligemma_with_expert_paligemma_model_vision_tower_vision_model_encoder_layers_1_self_attn_out_proj.weight"} loc("p436.2981"), %arg437: tensor<1152xf32> {ttcore.argument_type = #ttcore.argument_type<parameter>, ttir.name = "L__self___bracket_core_paligemma_with_expert_paligemma_model_vision_tower_vision_model_encoder_layers_1_self_attn_v_proj.bias"} loc("p437.2987"), %arg438: tensor<1152x1152xf32> {ttcore.argument_type = #ttcore.argument_type<parameter>, ttir.name = "L__self___bracket_core_paligemma_with_expert_paligemma_model_vision_tower_vision_model_encoder_layers_1_self_attn_v_proj.weight"} loc("p438.2991"), %arg439: tensor<1152xf32> {ttcore.argument_type = #ttcore.argument_type<parameter>, ttir.name = "L__self___bracket_core_paligemma_with_expert_paligemma_model_vision_tower_vision_model_encoder_layers_1_layer_norm1.bias"} loc("p439.2997"), %arg440: tensor<1152xf32> {ttcore.argument_type = #ttcore.argument_type<parameter>, ttir.name = "L__self___bracket_core_paligemma_with_expert_paligemma_model_vision_tower_vision_model_encoder_layers_1_layer_norm1.weight"} loc("p440.3002"), %arg441: tensor<1152xf32> {ttcore.argument_type = #ttcore.argument_type<parameter>, ttir.name = "L__self___bracket_core_paligemma_with_expert_paligemma_model_vision_tower_vision_model_encoder_layers_0_mlp_fc2.bias"} loc("p441.3011"), %arg442: tensor<1152x4304xf32> {ttcore.argument_type = #ttcore.argument_type<parameter>, ttir.name = "L__self___bracket_core_paligemma_with_expert_paligemma_model_vision_tower_vision_model_encoder_layers_0_mlp_fc2.weight"} loc("p442.3015"), %arg443: tensor<4304xf32> {ttcore.argument_type = #ttcore.argument_type<parameter>, ttir.name = "L__self___bracket_core_paligemma_with_expert_paligemma_model_vision_tower_vision_model_encoder_layers_0_mlp_fc1.bias"} loc("p443.3023"), %arg444: tensor<4304x1152xf32> {ttcore.argument_type = #ttcore.argument_type<parameter>, ttir.name = "L__self___bracket_core_paligemma_with_expert_paligemma_model_vision_tower_vision_model_encoder_layers_0_mlp_fc1.weight"} loc("p444.3027"), %arg445: tensor<1152xf32> {ttcore.argument_type = #ttcore.argument_type<parameter>, ttir.name = "L__self___bracket_core_paligemma_with_expert_paligemma_model_vision_tower_vision_model_encoder_layers_0_layer_norm2.bias"} loc("p445.3033"), %arg446: tensor<1152xf32> {ttcore.argument_type = #ttcore.argument_type<parameter>, ttir.name = "L__self___bracket_core_paligemma_with_expert_paligemma_model_vision_tower_vision_model_encoder_layers_0_layer_norm2.weight"} loc("p446.3038"), %arg447: tensor<1152xf32> {ttcore.argument_type = #ttcore.argument_type<parameter>, ttir.name = "L__self___bracket_core_paligemma_with_expert_paligemma_model_vision_tower_vision_model_encoder_layers_0_self_attn_out_proj.bias"} loc("p447.3047"), %arg448: tensor<1152x1152xf32> {ttcore.argument_type = #ttcore.argument_type<parameter>, ttir.name = "L__self___bracket_core_paligemma_with_expert_paligemma_model_vision_tower_vision_model_encoder_layers_0_self_attn_out_proj.weight"} loc("p448.3051"), %arg449: tensor<1152xf32> {ttcore.argument_type = #ttcore.argument_type<parameter>, ttir.name = "L__self___bracket_core_paligemma_with_expert_paligemma_model_vision_tower_vision_model_encoder_layers_0_self_attn_v_proj.bias"} loc("p449.3057"), %arg450: tensor<1152x1152xf32> {ttcore.argument_type = #ttcore.argument_type<parameter>, ttir.name = "L__self___bracket_core_paligemma_with_expert_paligemma_model_vision_tower_vision_model_encoder_layers_0_self_attn_v_proj.weight"} loc("p450.3061"), %arg451: tensor<1152xf32> {ttcore.argument_type = #ttcore.argument_type<parameter>, ttir.name = "L__self___bracket_core_paligemma_with_expert_paligemma_model_vision_tower_vision_model_encoder_layers_0_layer_norm1.bias"} loc("p451.3067"), %arg452: tensor<1152xf32> {ttcore.argument_type = #ttcore.argument_type<parameter>, ttir.name = "L__self___bracket_core_paligemma_with_expert_paligemma_model_vision_tower_vision_model_encoder_layers_0_layer_norm1.weight"} loc("p452.3072"), %arg453: tensor<1x256xi64> {ttcore.argument_type = #ttcore.argument_type<constant>, ttir.name = "L__self___bracket_core_paligemma_with_expert_paligemma_model_vision_tower_vision_model_embeddings_position_ids"} loc("p453.3080"), %arg454: tensor<256x1152xf32> {ttcore.argument_type = #ttcore.argument_type<parameter>, ttir.name = "L__self___bracket_core_paligemma_with_expert_paligemma_model_vision_tower_vision_model_embeddings_position_embedding.weight"} loc("p454.3085"), %arg455: tensor<1152xf32> {ttcore.argument_type = #ttcore.argument_type<parameter>, ttir.name = "L__self___bracket_core_paligemma_with_expert_paligemma_model_vision_tower_vision_model_embeddings_patch_embedding.bias"} loc("p455.3092"), %arg456: tensor<1152x3x14x14xf32> {ttcore.argument_type = #ttcore.argument_type<parameter>, ttir.name = "L__self___bracket_core_paligemma_with_expert_paligemma_model_vision_tower_vision_model_embeddings_patch_embedding.weight"}…
#loc12181 = loc("broadcast.20321")
#loc12182 = loc("multiply.20322")
#loc12183 = loc("broadcast.20325")
#loc12184 = loc("add.20326")
#loc12188 = loc("reduce.22979")
#loc12189 = loc("multiply.22988")
#loc12190 = loc("broadcast.22998")
#loc12191 = loc("subtract.22999")
#loc12192 = loc("subtract.22954")
#loc12193 = loc("multiply.22955")
#loc12194 = loc("reduce.22962")
#loc12195 = loc("multiply.22971")
#loc12196 = loc("reshape.22972")
#loc12197 = loc("add.22992")
#loc12198 = loc("rsqrt.22993")
#loc12199 = loc("reshape.23000")
#loc12200 = loc("broadcast.23001")
#loc12201 = loc("multiply.23002")
#loc12202 = loc("broadcast.23003")
#loc12203 = loc("multiply.23004")
#loc12204 = loc("broadcast.23007")
#loc12205 = loc("add.23008")
#loc12207 = loc("multiply.21892")
#loc12208 = loc("power.21878")
#loc12209 = loc("multiply.21881")
#loc12210 = loc("add.21882")
#loc12211 = loc("multiply.21885")
#loc12212 = loc("tanh.21886")
#loc12213 = loc("add.21889")
#loc12214 = loc("multiply.21893")
#loc12216 = loc("multiply.28243")
#loc12217 = loc("power.28229")
#loc12218 = loc("multiply.28232")
#loc12219 = loc("add.28233")
#loc12220 = loc("multiply.28236")
#loc12221 = loc("tanh.28237")
#loc12222 = loc("add.28240")
#loc12223 = loc("multiply.28244")
#loc12225 = loc("multiply.20350")
#loc12226 = loc("power.20336")
#loc12227 = loc("multiply.20339")
#loc12228 = loc("add.20340")
#loc12229 = loc("multiply.20343")
#loc12230 = loc("tanh.20344")
#loc12231 = loc("add.20347")
#loc12232 = loc("multiply.20351")
#loc12234 = loc("multiply.13995")
#loc12235 = loc("power.13981")
#loc12236 = loc("multiply.13984")
#loc12237 = loc("add.13985")
#loc12238 = loc("multiply.13988")
#loc12239 = loc("tanh.13989")
#loc12240 = loc("add.13992")
#loc12241 = loc("multiply.13996")
#loc12245 = loc("reduce.21839")
#loc12246 = loc("multiply.21848")
#loc12247 = loc("broadcast.21858")
#loc12248 = loc("subtract.21859")
#loc12249 = loc("subtract.21814")
#loc12250 = loc("multiply.21815")
#loc12251 = loc("reduce.21822")
#loc12252 = loc("multiply.21831")
#loc12253 = loc("reshape.21832")
#loc12254 = loc("add.21852")
#loc12255 = loc("rsqrt.21853")
#loc12256 = loc("reshape.21860")
#loc12257 = loc("broadcast.21861")
#loc12258 = loc("multiply.21862")
#loc12259 = loc("broadcast.21863")
#loc12260 = loc("multiply.21864")
#loc12261 = loc("broadcast.21867")
#loc12262 = loc("add.21868")
#loc12266 = loc("reduce.21951")
#loc12267 = loc("multiply.21960")
#loc12268 = loc("broadcast.21970")
#loc12269 = loc("subtract.21971")
#loc12270 = loc("subtract.21926")
#loc12271 = loc("multiply.21927")
#loc12272 = loc("reduce.21934")
#loc12273 = loc("multiply.21943")
#loc12274 = loc("reshape.21944")
#loc12275 = loc("add.21964")
#loc12276 = loc("rsqrt.21965")
#loc12277 = loc("reshape.21972")
#loc12278 = loc("broadcast.21973")
#loc12279 = loc("multiply.21974")
#loc12280 = loc("broadcast.21975")
#loc12281 = loc("multiply.21976")
#loc12282 = loc("broadcast.21979")
#loc12283 = loc("add.21980")
#loc12287 = loc("reduce.16110")
#loc12288 = loc("multiply.16119")
#loc12289 = loc("broadcast.16129")
#loc12290 = loc("subtract.16130")
#loc12291 = loc("subtract.16085")
#loc12292 = loc("multiply.16086")
#loc12293 = loc("reduce.16093")
#loc12294 = loc("multiply.16102")
#loc12295 = loc("reshape.16103")
#loc12296 = loc("add.16123")
#loc12297 = loc("rsqrt.16124")
#loc12298 = loc("reshape.16131")
#loc12299 = loc("broadcast.16132")
#loc12300 = loc("multiply.16133")
#loc12301 = loc("broadcast.16134")
#loc12302 = loc("multiply.16135")
#loc12303 = loc("broadcast.16138")
#loc12304 = loc("add.16139")
#loc12308 = loc("reduce.22208")
#loc12309 = loc("multiply.22217")
#loc12310 = loc("broadcast.22227")
#loc12311 = loc("subtract.22228")
#loc12312 = loc("subtract.22183")
#loc12313 = loc("multiply.22184")
#loc12314 = loc("reduce.22191")
#loc12315 = loc("multiply.22200")
#loc12316 = loc("reshape.22201")
#loc12317 = loc("add.22221")
#loc12318 = loc("rsqrt.22222")
#loc12319 = loc("reshape.22229")
#loc12320 = loc("broadcast.22230")
#loc12321 = loc("multiply.22231")
#loc12322 = loc("broadcast.22232")
#loc12323 = loc("multiply.22233")
#loc12324 = loc("broadcast.22236")
#loc12325 = loc("add.22237")
#loc12329 = loc("reduce.10253")
#loc12330 = loc("multiply.10262")
#loc12331 = loc("broadcast.10272")
#loc12332 = loc("subtract.10273")
#loc12333 = loc("subtract.10228")
#loc12334 = loc("multiply.10229")
#loc12335 = loc("reduce.10236")
#loc12336 = loc("multiply.10245")
#loc12337 = loc("reshape.10246")
#loc12338 = loc("add.10266")
#loc12339 = loc("rsqrt.10267")
#loc12340 = loc("reshape.10274")
#loc12341 = loc("broadcast.10275")
#loc12342 = loc("multiply.10276")
#loc12343 = loc("broadcast.10277")
#loc12344 = loc("multiply.10278")
#loc12345 = loc("broadcast.10281")
#loc12346 = loc("add.10282")
#loc12348 = loc("multiply.8283")
#loc12349 = loc("power.8269")
#loc12350 = loc("multiply.8272")
#loc12351 = loc("add.8273")
#loc12352 = loc("multiply.8276")
#loc12353 = loc("tanh.8277")
#loc12354 = loc("add.8280")
#loc12355 = loc("multiply.8284")
#loc12359 = loc("reduce.22096")
#loc12360 = loc("multiply.22105")
#loc12361 = loc("broadcast.22115")
#loc12362 = loc("subtract.22116")
#loc12363 = loc("subtract.22071")
#loc12364 = loc("multiply.22072")
#loc12365 = loc("reduce.22079")
#loc12366 = loc("multiply.22088")
#loc12367 = loc("reshape.22089")
#loc12368 = loc("add.22109")
#loc12369 = loc("rsqrt.22110")
#loc12370 = loc("reshape.22117")
#loc12371 = loc("broadcast.22118")
#loc12372 = loc("multiply.22119")
#loc12373 = loc("broadcast.22120")
#loc12374 = loc("multiply.22121")
#loc12375 = loc("broadcast.22124")
#loc12376 = loc("add.22125")
#loc12380 = loc("reduce.22722")
#loc12381 = loc("multiply.22731")
#loc12382 = loc("broadcast.22741")
#loc12383 = loc("subtract.22742")
#loc12384 = loc("subtract.22697")
#loc12385 = loc("multiply.22698")
#loc12386 = loc("reduce.22705")
#loc12387 = loc("multiply.22714")
#loc12388 = loc("reshape.22715")
#loc12389 = loc("add.22735")
#loc12390 = loc("rsqrt.22736")
#loc12391 = loc("reshape.22743")
#loc12392 = loc("broadcast.22744")
#loc12393 = loc("multiply.22745")
#loc12394 = loc("broadcast.22746")
#loc12395 = loc("multiply.22747")
#loc12396 = loc("broadcast.22750")
#loc12397 = loc("add.22751")
#loc12399 = loc("multiply.22920")
#loc12400 = loc("power.22906")
#loc12401 = loc("multiply.22909")
#loc12402 = loc("add.22910")
#loc12403 = loc("multiply.22913")
#loc12404 = loc("tanh.22914")
#loc12405 = loc("add.22917")
#loc12406 = loc("multiply.22921")
#loc12410 = loc("reduce.7411")
#loc12411 = loc("multiply.7420")
#loc12412 = loc("broadcast.7430")
#loc12413 = loc("subtract.7431")
#loc12414 = loc("subtract.7386")
#loc12415 = loc("multiply.7387")
#loc12416 = loc("reduce.7394")
#loc12417 = loc("multiply.7403")
#loc12418 = loc("reshape.7404")
#loc12419 = loc("add.7424")
#loc12420 = loc("rsqrt.7425")
#loc12421 = loc("reshape.7432")
#loc12422 = loc("broadcast.7433")
#loc12423 = loc("multiply.7434")
#loc12424 = loc("broadcast.7435")
#loc12425 = loc("multiply.7436")
#loc12426 = loc("broadcast.7439")
#loc12427 = loc("add.7440")
#loc12429 = loc("multiply.13738")
#loc12430 = loc("power.13724")
#loc12431 = loc("multiply.13727")
#loc12432 = loc("add.13728")
#loc12433 = loc("multiply.13731")
#loc12434 = loc("tanh.13732")
#loc12435 = loc("add.13735")
#loc12436 = loc("multiply.13739")
#loc12440 = loc("reduce.23124")
#loc12441 = loc("multiply.23133")
#loc12442 = loc("broadcast.23143")
#loc12443 = loc("subtract.23144")
#loc12444 = loc("subtract.23099")
#loc12445 = loc("multiply.23100")
#loc12446 = loc("reduce.23107")
#loc12447 = loc("multiply.23116")
#loc12448 = loc("reshape.23117")
#loc12449 = loc("add.23137")
#loc12450 = loc("rsqrt.23138")
#loc12451 = loc("reshape.23145")
#loc12452 = loc("broadcast.23146")
#loc12453 = loc("multiply.23147")
#loc12454 = loc("broadcast.23148")
#loc12455 = loc("multiply.23149")
#loc12456 = loc("broadcast.23152")
#loc12457 = loc("add.23153")
#loc12461 = loc("reduce.12769")
#loc12462 = loc("multiply.12778")
#loc12463 = loc("broadcast.12788")
#loc12464 = loc("subtract.12789")
#loc12465 = loc("subtract.12744")
#loc12466 = loc("multiply.12745")
#loc12467 = loc("reduce.12752")
#loc12468 = loc("multiply.12761")
#loc12469 = loc("reshape.12762")
#loc12470 = loc("add.12782")
#loc12471 = loc("rsqrt.12783")
#loc12472 = loc("reshape.12790")
#loc12473 = loc("broadcast.12791")
#loc12474 = loc("multiply.12792")
#loc12475 = loc("broadcast.12793")
#loc12476 = loc("multiply.12794")
#loc12477 = loc("broadcast.12797")
#loc12478 = loc("add.12798")
#loc12480 = loc("multiply.15280")
#loc12481 = loc("power.15266")
#loc12482 = loc("multiply.15269")
#loc12483 = loc("add.15270")
#loc12484 = loc("multiply.15273")
#loc12485 = loc("tanh.15274")
#loc12486 = loc("add.15277")
#loc12487 = loc("multiply.15281")
#loc12491 = loc("reduce.15339")
#loc12492 = loc("multiply.15348")
#loc12493 = loc("broadcast.15358")
#loc12494 = loc("subtract.15359")
#loc12495 = loc("subtract.15314")
#loc12496 = loc("multiply.15315")
#loc12497 = loc("reduce.15322")
#loc12498 = loc("multiply.15331")
#loc12499 = loc("reshape.15332")
#loc12500 = loc("add.15352")
#loc12501 = loc("rsqrt.15353")
#loc12502 = loc("reshape.15360")
#loc12503 = loc("broadcast.15361")
#loc12504 = loc("multiply.15362")
#loc12505 = loc("broadcast.15363")
#loc12506 = loc("multiply.15364")
#loc12507 = loc("broadcast.15367")
#loc12508 = loc("add.15368")
#loc12512 = loc("reduce.8615")
#loc12513 = loc("multiply.8624")
#loc12514 = loc("broadcast.8634")
#loc12515 = loc("subtract.8635")
#loc12516 = loc("subtract.8590")
#loc12517 = loc("multiply.8591")
#loc12518 = loc("reduce.8598")
#loc12519 = loc("multiply.8607")
#loc12520 = loc("reshape.8608")
#loc12521 = loc("add.8628")
#loc12522 = loc("rsqrt.8629")
#loc12523 = loc("reshape.8636")
#loc12524 = loc("broadcast.8637")
#loc12525 = loc("multiply.8638")
#loc12526 = loc("broadcast.8639")
#loc12527 = loc("multiply.8640")
#loc12528 = loc("broadcast.8643")
#loc12529 = loc("add.8644")
#loc12531 = loc("multiply.15537")
#loc12532 = loc("power.15523")
#loc12533 = loc("multiply.15526")
#loc12534 = loc("add.15527")
#loc12535 = loc("multiply.15530")
#loc12536 = loc("tanh.15531")
#loc12537 = loc("add.15534")
#loc12538 = loc("multiply.15538")
#loc12542 = loc("reduce.15596")
#loc12543 = loc("multiply.15605")
#loc12544 = loc("broadcast.15615")
#loc12545 = loc("subtract.15616")
#loc12546 = loc("subtract.15571")
#loc12547 = loc("multiply.15572")
#loc12548 = loc("reduce.15579")
#loc12549 = loc("multiply.15588")
#loc12550 = loc("reshape.15589")
#loc12551 = loc("add.15609")
#loc12552 = loc("rsqrt.15610")
#loc12553 = loc("reshape.15617")
#loc12554 = loc("broadcast.15618")
#loc12555 = loc("multiply.15619")
#loc12556 = loc("broadcast.15620")
#loc12557 = loc("multiply.15621")
#loc12558 = loc("broadcast.15624")
#loc12559 = loc("add.15625")
#loc12563 = loc("reduce.15998")
#loc12564 = loc("multiply.16007")
#loc12565 = loc("broadcast.16017")
#loc12566 = loc("subtract.16018")
#loc12567 = loc("subtract.15973")
#loc12568 = loc("multiply.15974")
#loc12569 = loc("reduce.15981")
#loc12570 = loc("multiply.15990")
#loc12571 = loc("reshape.15991")
#loc12572 = loc("add.16011")
#loc12573 = loc("rsqrt.16012")
#loc12574 = loc("reshape.16019")
#loc12575 = loc("broadcast.16020")
#loc12576 = loc("multiply.16021")
#loc12577 = loc("broadcast.16022")
#loc12578 = loc("multiply.16023")
#loc12579 = loc("broadcast.16026")
#loc12580 = loc("add.16027")
#loc12582 = loc("multiply.16308")
#loc12583 = loc("power.16294")
#loc12584 = loc("multiply.16297")
#loc12585 = loc("add.16298")
#loc12586 = loc("multiply.16301")
#loc12587 = loc("tanh.16302")
#loc12588 = loc("add.16305")
#loc12589 = loc("multiply.16309")
#loc12593 = loc("reduce.16367")
#loc12594 = loc("multiply.16376")
#loc12595 = loc("broadcast.16386")
#loc12596 = loc("subtract.16387")
#loc12597 = loc("subtract.16342")
#loc12598 = loc("multiply.16343")
#loc12599 = loc("reduce.16350")
#loc12600 = loc("multiply.16359")
#loc12601 = loc("reshape.16360")
#loc12602 = loc("add.16380")
#loc12603 = loc("rsqrt.16381")
#loc12604 = loc("reshape.16388")
#loc12605 = loc("broadcast.16389")
#loc12606 = loc("multiply.16390")
#loc12607 = loc("broadcast.16391")
#loc12608 = loc("multiply.16392")
#loc12609 = loc("broadcast.16395")
#loc12610 = loc("add.16396")
#loc12612 = loc("multiply.16565")
#loc12613 = loc("power.16551")
#loc12614 = loc("multiply.16554")
#loc12615 = loc("add.16555")
#loc12616 = loc("multiply.16558")
#loc12617 = loc("tanh.16559")
#loc12618 = loc("add.16562")
#loc12619 = loc("multiply.16566")
#loc12623 = loc("reduce.16769")
#loc12624 = loc("multiply.16778")
#loc12625 = loc("broadcast.16788")
#loc12626 = loc("subtract.16789")
#loc12627 = loc("subtract.16744")
#loc12628 = loc("multiply.16745")
#loc12629 = loc("reduce.16752")
#loc12630 = loc("multiply.16761")
#loc12631 = loc("reshape.16762")
#loc12632 = loc("add.16782")
#loc12633 = loc("rsqrt.16783")
#loc12634 = loc("reshape.16790")
#loc12635 = loc("broadcast.16791")
#loc12636 = loc("multiply.16792")
#loc12637 = loc("broadcast.16793")
#loc12638 = loc("multiply.16794")
#loc12639 = loc("broadcast.16797")
#loc12640 = loc("add.16798")
#loc12642 = loc("multiply.31323")
#loc12643 = loc("power.31309")
#loc12644 = loc("multiply.31312")
#loc12645 = loc("add.31313")
#loc12646 = loc("multiply.31316")
#loc12647 = loc("tanh.31317")
#loc12648 = loc("add.31320")
#loc12649 = loc("multiply.31324")
#loc12653 = loc("reduce.9049")
#loc12654 = loc("multiply.9058")
#loc12655 = loc("broadcast.9068")
#loc12656 = loc("subtract.9069")
#loc12657 = loc("subtract.9024")
#loc12658 = loc("multiply.9025")
#loc12659 = loc("reduce.9032")
#loc12660 = loc("multiply.9041")
#loc12661 = loc("reshape.9042")
#loc12662 = loc("add.9062")
#loc12663 = loc("rsqrt.9063")
#loc12664 = loc("reshape.9070")
#loc12665 = loc("broadcast.9071")
#loc12666 = loc("multiply.9072")
#loc12667 = loc("broadcast.9073")
#loc12668 = loc("multiply.9074")
#loc12669 = loc("broadcast.9077")
#loc12670 = loc("add.9078")
#loc12672 = loc("multiply.16822")
#loc12673 = loc("power.16808")
#loc12674 = loc("multiply.16811")
#loc12675 = loc("add.16812")
#loc12676 = loc("multiply.16815")
#loc12677 = loc("tanh.16816")
#loc12678 = loc("add.16819")
#loc12679 = loc("multiply.16823")
#loc12683 = loc("reduce.6319")
#loc12684 = loc("multiply.6328")
#loc12685 = loc("broadcast.6338")
#loc12686 = loc("subtract.6339")
#loc12687 = loc("subtract.6294")
#loc12688 = loc("multiply.6295")
#loc12689 = loc("reduce.6302")
#loc12690 = loc("multiply.6311")
#loc12691 = loc("reshape.6312")
#loc12692 = loc("add.6332")
#loc12693 = loc("rsqrt.6333")
#loc12694 = loc("reshape.6340")
#loc12695 = loc("broadcast.6341")
#loc12696 = loc("multiply.6342")
#loc12697 = loc("broadcast.6343")
#loc12698 = loc("multiply.6344")
#loc12699 = loc("broadcast.6347")
#loc12700 = loc("add.6348")
#loc12702 = loc("multiply.17079")
#loc12703 = loc("power.17065")
#loc12704 = loc("multiply.17068")
#loc12705 = loc("add.17069")
#loc12706 = loc("multiply.17072")
#loc12707 = loc("tanh.17073")
#loc12708 = loc("add.17076")
#loc12709 = loc("multiply.17080")
#loc12713 = loc("reduce.16255")
#loc12714 = loc("multiply.16264")
#loc12715 = loc("broadcast.16274")
#loc12716 = loc("subtract.16275")
#loc12717 = loc("subtract.16230")
#loc12718 = loc("multiply.16231")
#loc12719 = loc("reduce.16238")
#loc12720 = loc("multiply.16247")
#loc12721 = loc("reshape.16248")
#loc12722 = loc("add.16268")
#loc12723 = loc("rsqrt.16269")
#loc12724 = loc("reshape.16276")
#loc12725 = loc("broadcast.16277")
#loc12726 = loc("multiply.16278")
#loc12727 = loc("broadcast.16279")
#loc12728 = loc("multiply.16280")
#loc12729 = loc("broadcast.16283")
#loc12730 = loc("add.16284")
#loc12734 = loc("reduce.17138")
#loc12735 = loc("multiply.17147")
#loc12736 = loc("broadcast.17157")
#loc12737 = loc("subtract.17158")
#loc12738 = loc("subtract.17113")
#loc12739 = loc("multiply.17114")
#loc12740 = loc("reduce.17121")
#loc12741 = loc("multiply.17130")
#loc12742 = loc("reshape.17131")
#loc12743 = loc("add.17151")
#loc12744 = loc("rsqrt.17152")
#loc12745 = loc("reshape.17159")
#loc12746 = loc("broadcast.17160")
#loc12747 = loc("multiply.17161")
#loc12748 = loc("broadcast.17162")
#loc12749 = loc("multiply.17163")
#loc12750 = loc("broadcast.17166")
#loc12751 = loc("add.17167")
#loc12755 = loc("reduce.17283")
#loc12756 = loc("multiply.17292")
#loc12757 = loc("broadcast.17302")
#loc12758 = loc("subtract.17303")
#loc12759 = loc("subtract.17258")
#loc12760 = loc("multiply.17259")
#loc12761 = loc("reduce.17266")
#loc12762 = loc("multiply.17275")
#loc12763 = loc("reshape.17276")
#loc12764 = loc("add.17296")
#loc12765 = loc("rsqrt.17297")
#loc12766 = loc("reshape.17304")
#loc12767 = loc("broadcast.17305")
#loc12768 = loc("multiply.17306")
#loc12769 = loc("broadcast.17307")
#loc12770 = loc("multiply.17308")
#loc12771 = loc("broadcast.17311")
#loc12772 = loc("add.17312")
#loc12774 = loc("multiply.4188")
#loc12775 = loc("power.4174")
#loc12776 = loc("multiply.4177")
#loc12777 = loc("add.4178")
#loc12778 = loc("multiply.4181")
#loc12779 = loc("tanh.4182")
#loc12780 = loc("add.4185")
#loc12781 = loc("multiply.4189")
#loc12785 = loc("reduce.24264")
#loc12786 = loc("multiply.24273")
#loc12787 = loc("broadcast.24283")
#loc12788 = loc("subtract.24284")
#loc12789 = loc("subtract.24239")
#loc12790 = loc("multiply.24240")
#loc12791 = loc("reduce.24247")
#loc12792 = loc("multiply.24256")
#loc12793 = loc("reshape.24257")
#loc12794 = loc("add.24277")
#loc12795 = loc("rsqrt.24278")
#loc12796 = loc("reshape.24285")
#loc12797 = loc("broadcast.24286")
#loc12798 = loc("multiply.24287")
#loc12799 = loc("broadcast.24288")
#loc12800 = loc("multiply.24289")
#loc12801 = loc("broadcast.24292")
#loc12802 = loc("add.24293")
#loc12806 = loc("reduce.23493")
#loc12807 = loc("multiply.23502")
#loc12808 = loc("broadcast.23512")
#loc12809 = loc("subtract.23513")
#loc12810 = loc("subtract.23468")
#loc12811 = loc("multiply.23469")
#loc12812 = loc("reduce.23476")
#loc12813 = loc("multiply.23485")
#loc12814 = loc("reshape.23486")
#loc12815 = loc("add.23506")
#loc12816 = loc("rsqrt.23507")
#loc12817 = loc("reshape.23514")
#loc12818 = loc("broadcast.23515")
#loc12819 = loc("multiply.23516")
#loc12820 = loc("broadcast.23517")
#loc12821 = loc("multiply.23518")
#loc12822 = loc("broadcast.23521")
#loc12823 = loc("add.23522")
#loc12827 = loc("reduce.17395")
#loc12828 = loc("multiply.17404")
#loc12829 = loc("broadcast.17414")
#loc12830 = loc("subtract.17415")
#loc12831 = loc("subtract.17370")
#loc12832 = loc("multiply.17371")
#loc12833 = loc("reduce.17378")
#loc12834 = loc("multiply.17387")
#loc12835 = loc("reshape.17388")
#loc12836 = loc("add.17408")
#loc12837 = loc("rsqrt.17409")
#loc12838 = loc("reshape.17416")
#loc12839 = loc("broadcast.17417")
#loc12840 = loc("multiply.17418")
#loc12841 = loc("broadcast.17419")
#loc12842 = loc("multiply.17420")
#loc12843 = loc("broadcast.17423")
#loc12844 = loc("add.17424")
#loc12846 = loc("multiply.17593")
#loc12847 = loc("power.17579")
#loc12848 = loc("multiply.17582")
#loc12849 = loc("add.17583")
#loc12850 = loc("multiply.17586")
#loc12851 = loc("tanh.17587")
#loc12852 = loc("add.17590")
#loc12853 = loc("multiply.17594")
#loc12857 = loc("reduce.16624")
#loc12858 = loc("multiply.16633")
#loc12859 = loc("broadcast.16643")
#loc12860 = loc("subtract.16644")
#loc12861 = loc("subtract.16599")
#loc12862 = loc("multiply.16600")
#loc12863 = loc("reduce.16607")
#loc12864 = loc("multiply.16616")
#loc12865 = loc("reshape.16617")
#loc12866 = loc("add.16637")
#loc12867 = loc("rsqrt.16638")
#loc12868 = loc("reshape.16645")
#loc12869 = loc("broadcast.16646")
#loc12870 = loc("multiply.16647")
#loc12871 = loc("broadcast.16648")
#loc12872 = loc("multiply.16649")
#loc12873 = loc("broadcast.16652")
#loc12874 = loc("add.16653")
#loc12878 = loc("reduce.5885")
#loc12879 = loc("multiply.5894")
#loc12880 = loc("broadcast.5904")
#loc12881 = loc("subtract.5905")
#loc12882 = loc("subtract.5860")
#loc12883 = loc("multiply.5861")
#loc12884 = loc("reduce.5868")
#loc12885 = loc("multiply.5877")
#loc12886 = loc("reshape.5878")
#loc12887 = loc("add.5898")
#loc12888 = loc("rsqrt.5899")
#loc12889 = loc("reshape.5906")
#loc12890 = loc("broadcast.5907")
#loc12891 = loc("multiply.5908")
#loc12892 = loc("broadcast.5909")
#loc12893 = loc("multiply.5910")
#loc12894 = loc("broadcast.5913")
#loc12895 = loc("add.5914")
#loc12899 = loc("reduce.17797")
#loc12900 = loc("multiply.17806")
#loc12901 = loc("broadcast.17816")
#loc12902 = loc("subtract.17817")
#loc12903 = loc("subtract.17772")
#loc12904 = loc("multiply.17773")
#loc12905 = loc("reduce.17780")
#loc12906 = loc("multiply.17789")
#loc12907 = loc("reshape.17790")
#loc12908 = loc("add.17810")
#loc12909 = loc("rsqrt.17811")
#loc12910 = loc("reshape.17818")
#loc12911 = loc("broadcast.17819")
#loc12912 = loc("multiply.17820")
#loc12913 = loc("broadcast.17821")
#loc12914 = loc("multiply.17822")
#loc12915 = loc("broadcast.17825")
#loc12916 = loc("add.17826")
#loc12920 = loc("reduce.17909")
#loc12921 = loc("multiply.17918")
#loc12922 = loc("broadcast.17928")
#loc12923 = loc("subtract.17929")
#loc12924 = loc("subtract.17884")
#loc12925 = loc("multiply.17885")
#loc12926 = loc("reduce.17892")
#loc12927 = loc("multiply.17901")
#loc12928 = loc("reshape.17902")
#loc12929 = loc("add.17922")
#loc12930 = loc("rsqrt.17923")
#loc12931 = loc("reshape.17930")
#loc12932 = loc("broadcast.17931")
#loc12933 = loc("multiply.17932")
#loc12934 = loc("broadcast.17933")
#loc12935 = loc("multiply.17934")
#loc12936 = loc("broadcast.17937")
#loc12937 = loc("add.17938")
#loc12939 = loc("multiply.18107")
#loc12940 = loc("power.18093")
#loc12941 = loc("multiply.18096")
#loc12942 = loc("add.18097")
#loc12943 = loc("multiply.18100")
#loc12944 = loc("tanh.18101")
#loc12945 = loc("add.18104")
#loc12946 = loc("multiply.18108")
#loc12950 = loc("reduce.18166")
#loc12951 = loc("multiply.18175")
#loc12952 = loc("broadcast.18185")
#loc12953 = loc("subtract.18186")
#loc12954 = loc("subtract.18141")
#loc12955 = loc("multiply.18142")
#loc12956 = loc("reduce.18149")
#loc12957 = loc("multiply.18158")
#loc12958 = loc("reshape.18159")
#loc12959 = loc("add.18179")
#loc12960 = loc("rsqrt.18180")
#loc12961 = loc("reshape.18187")
#loc12962 = loc("broadcast.18188")
#loc12963 = loc("multiply.18189")
#loc12964 = loc("broadcast.18190")
#loc12965 = loc("multiply.18191")
#loc12966 = loc("broadcast.18194")
#loc12967 = loc("add.18195")
#loc12969 = loc("multiply.27143")
#loc12970 = loc("power.27129")
#loc12971 = loc("multiply.27132")
#loc12972 = loc("add.27133")
#loc12973 = loc("multiply.27136")
#loc12974 = loc("tanh.27137")
#loc12975 = loc("add.27140")
#loc12976 = loc("multiply.27144")
#loc12980 = loc("reduce.5339")
#loc12981 = loc("multiply.5348")
#loc12982 = loc("broadcast.5358")
#loc12983 = loc("subtract.5359")
#loc12984 = loc("subtract.5314")
#loc12985 = loc("multiply.5315")
#loc12986 = loc("reduce.5322")
#loc12987 = loc("multiply.5331")
#loc12988 = loc("reshape.5332")
#loc12989 = loc("add.5352")
#loc12990 = loc("rsqrt.5353")
#loc12991 = loc("reshape.5360")
#loc12992 = loc("broadcast.5361")
#loc12993 = loc("multiply.5362")
#loc12994 = loc("broadcast.5363")
#loc12995 = loc("multiply.5364")
#loc12996 = loc("broadcast.5367")
#loc12997 = loc("add.5368")
#loc13001 = loc("reduce.3316")
#loc13002 = loc("multiply.3325")
#loc13003 = loc("broadcast.3335")
#loc13004 = loc("subtract.3336")
#loc13005 = loc("subtract.3291")
#loc13006 = loc("multiply.3292")
#loc13007 = loc("reduce.3299")
#loc13008 = loc("multiply.3308")
#loc13009 = loc("reshape.3309")
#loc13010 = loc("add.3329")
#loc13011 = loc("rsqrt.3330")
#loc13012 = loc("reshape.3337")
#loc13013 = loc("broadcast.3338")
#loc13014 = loc("multiply.3339")
#loc13015 = loc("broadcast.3340")
#loc13016 = loc("multiply.3341")
#loc13017 = loc("broadcast.3344")
#loc13018 = loc("add.3345")
#loc13022 = loc("reduce.3589")
#loc13023 = loc("multiply.3598")
#loc13024 = loc("broadcast.3608")
#loc13025 = loc("subtract.3609")
#loc13026 = loc("subtract.3564")
#loc13027 = loc("multiply.3565")
#loc13028 = loc("reduce.3572")
#loc13029 = loc("multiply.3581")
#loc13030 = loc("reshape.3582")
#loc13031 = loc("add.3602")
#loc13032 = loc("rsqrt.3603")
#loc13033 = loc("reshape.3610")
#loc13034 = loc("broadcast.3611")
#loc13035 = loc("multiply.3612")
#loc13036 = loc("broadcast.3613")
#loc13037 = loc("multiply.3614")
#loc13038 = loc("broadcast.3617")
#loc13039 = loc("add.3618")
#loc13043 = loc("reduce.19012")
#loc13044 = loc("multiply.19021")
#loc13045 = loc("broadcast.19031")
#loc13046 = loc("subtract.19032")
#loc13047 = loc("subtract.18987")
#loc13048 = loc("multiply.18988")
#loc13049 = loc("reduce.18995")
#loc13050 = loc("multiply.19004")
#loc13051 = loc("reshape.19005")
#loc13052 = loc("add.19025")
#loc13053 = loc("rsqrt.19026")
#loc13054 = loc("reshape.19033")
#loc13055 = loc("broadcast.19034")
#loc13056 = loc("multiply.19035")
#loc13057 = loc("broadcast.19036")
#loc13058 = loc("multiply.19037")
#loc13059 = loc("broadcast.19040")
#loc13060 = loc("add.19041")
#loc13064 = loc("reduce.9434")
#loc13065 = loc("multiply.9443")
#loc13066 = loc("broadcast.9453")
#loc13067 = loc("subtract.9454")
#loc13068 = loc("subtract.9409")
#loc13069 = loc("multiply.9410")
#loc13070 = loc("reduce.9417")
#loc13071 = loc("multiply.9426")
#loc13072 = loc("reshape.9427")
#loc13073 = loc("add.9447")
#loc13074 = loc("rsqrt.9448")
#loc13075 = loc("reshape.9455")
#loc13076 = loc("broadcast.9456")
#loc13077 = loc("multiply.9457")
#loc13078 = loc("broadcast.9458")
#loc13079 = loc("multiply.9459")
#loc13080 = loc("broadcast.9462")
#loc13081 = loc("add.9463")
#loc13085 = loc("reduce.6977")
#loc13086 = loc("multiply.6986")
#loc13087 = loc("broadcast.6996")
#loc13088 = loc("subtract.6997")
#loc13089 = loc("subtract.6952")
#loc13090 = loc("multiply.6953")
#loc13091 = loc("reduce.6960")
#loc13092 = loc("multiply.6969")
#loc13093 = loc("reshape.6970")
#loc13094 = loc("add.6990")
#loc13095 = loc("rsqrt.6991")
#loc13096 = loc("reshape.6998")
#loc13097 = loc("broadcast.6999")
#loc13098 = loc("multiply.7000")
#loc13099 = loc("broadcast.7001")
#loc13100 = loc("multiply.7002")
#loc13101 = loc("broadcast.7005")
#loc13102 = loc("add.7006")
#loc13104 = loc("multiply.3642")
#loc13105 = loc("power.3628")
#loc13106 = loc("multiply.3631")
#loc13107 = loc("add.3632")
#loc13108 = loc("multiply.3635")
#loc13109 = loc("tanh.3636")
#loc13110 = loc("add.3639")
#loc13111 = loc("multiply.3643")
#loc13113 = loc("multiply.19579")
#loc13114 = loc("power.19565")
#loc13115 = loc("multiply.19568")
#loc13116 = loc("add.19569")
#loc13117 = loc("multiply.19572")
#loc13118 = loc("tanh.19573")
#loc13119 = loc("add.19576")
#loc13120 = loc("multiply.19580")
#loc13124 = loc("reduce.5500")
#loc13125 = loc("multiply.5509")
#loc13126 = loc("broadcast.5519")
#loc13127 = loc("subtract.5520")
#loc13128 = loc("subtract.5475")
#loc13129 = loc("multiply.5476")
#loc13130 = loc("reduce.5483")
#loc13131 = loc("multiply.5492")
#loc13132 = loc("reshape.5493")
#loc13133 = loc("add.5513")
#loc13134 = loc("rsqrt.5514")
#loc13135 = loc("reshape.5521")
#loc13136 = loc("broadcast.5522")
#loc13137 = loc("multiply.5523")
#loc13138 = loc("broadcast.5524")
#loc13139 = loc("multiply.5525")
#loc13140 = loc("broadcast.5528")
#loc13141 = loc("add.5529")
#loc13145 = loc("reduce.15484")
#loc13146 = loc("multiply.15493")
#loc13147 = loc("broadcast.15503")
#loc13148 = loc("subtract.15504")
#loc13149 = loc("subtract.15459")
#loc13150 = loc("multiply.15460")
#loc13151 = loc("reduce.15467")
#loc13152 = loc("multiply.15476")
#loc13153 = loc("reshape.15477")
#loc13154 = loc("add.15497")
#loc13155 = loc("rsqrt.15498")
#loc13156 = loc("reshape.15505")
#loc13157 = loc("broadcast.15506")
#loc13158 = loc("multiply.15507")
#loc13159 = loc("broadcast.15508")
#loc13160 = loc("multiply.15509")
#loc13161 = loc("broadcast.15512")
#loc13162 = loc("add.15513")
#loc13166 = loc("reduce.3862")
#loc13167 = loc("multiply.3871")
#loc13168 = loc("broadcast.3881")
#loc13169 = loc("subtract.3882")
#loc13170 = loc("subtract.3837")
#loc13171 = loc("multiply.3838")
#loc13172 = loc("reduce.3845")
#loc13173 = loc("multiply.3854")
#loc13174 = loc("reshape.3855")
#loc13175 = loc("add.3875")
#loc13176 = loc("rsqrt.3876")
#loc13177 = loc("reshape.3883")
#loc13178 = loc("broadcast.3884")
#loc13179 = loc("multiply.3885")
#loc13180 = loc("broadcast.3886")
#loc13181 = loc("multiply.3887")
#loc13182 = loc("broadcast.3890")
#loc13183 = loc("add.3891")
#loc13185 = loc("multiply.7464")
#loc13186 = loc("power.7450")
#loc13187 = loc("multiply.7453")
#loc13188 = loc("add.7454")
#loc13189 = loc("multiply.7457")
#loc13190 = loc("tanh.7458")
#loc13191 = loc("add.7461")
#loc13192 = loc("multiply.7465")
#loc13196 = loc("reduce.20040")
#loc13197 = loc("multiply.20049")
#loc13198 = loc("broadcast.20059")
#loc13199 = loc("subtract.20060")
#loc13200 = loc("subtract.20015")
#loc13201 = loc("multiply.20016")
#loc13202 = loc("reduce.20023")
#loc13203 = loc("multiply.20032")
#loc13204 = loc("reshape.20033")
#loc13205 = loc("add.20053")
#loc13206 = loc("rsqrt.20054")
#loc13207 = loc("reshape.20061")
#loc13208 = loc("broadcast.20062")
#loc13209 = loc("multiply.20063")
#loc13210 = loc("broadcast.20064")
#loc13211 = loc("multiply.20065")
#loc13212 = loc("broadcast.20068")
#loc13213 = loc("add.20069")
#loc13215 = loc("multiply.27583")
#loc13216 = loc("power.27569")
#loc13217 = loc("multiply.27572")
#loc13218 = loc("add.27573")
#loc13219 = loc("multiply.27576")
#loc13220 = loc("tanh.27577")
#loc13221 = loc("add.27580")
#loc13222 = loc("multiply.27584")
#loc13224 = loc("multiply.3915")
#loc13225 = loc("power.3901")
#loc13226 = loc("multiply.3904")
#loc13227 = loc("add.3905")
#loc13228 = loc("multiply.3908")
#loc13229 = loc("tanh.3909")
#loc13230 = loc("add.3912")
#loc13231 = loc("multiply.3916")
#loc13233 = loc("multiply.19322")
#loc13234 = loc("power.19308")
#loc13235 = loc("multiply.19311")
#loc13236 = loc("add.19312")
#loc13237 = loc("multiply.19315")
#loc13238 = loc("tanh.19316")
#loc13239 = loc("add.19319")
#loc13240 = loc("multiply.19323")
#loc13242 = loc("multiply.4461")
#loc13243 = loc("power.4447")
#loc13244 = loc("multiply.4450")
#loc13245 = loc("add.4451")
#loc13246 = loc("multiply.4454")
#loc13247 = loc("tanh.4455")
#loc13248 = loc("add.4458")
#loc13249 = loc("multiply.4462")
#loc13253 = loc("reduce.4135")
#loc13254 = loc("multiply.4144")
#loc13255 = loc("broadcast.4154")
#loc13256 = loc("subtract.4155")
#loc13257 = loc("subtract.4110")
#loc13258 = loc("multiply.4111")
#loc13259 = loc("reduce.4118")
#loc13260 = loc("multiply.4127")
#loc13261 = loc("reshape.4128")
#loc13262 = loc("add.4148")
#loc13263 = loc("rsqrt.4149")
#loc13264 = loc("reshape.4156")
#loc13265 = loc("broadcast.4157")
#loc13266 = loc("multiply.4158")
#loc13267 = loc("broadcast.4159")
#loc13268 = loc("multiply.4160")
#loc13269 = loc("broadcast.4163")
#loc13270 = loc("add.4164")
#loc13274 = loc("reduce.23381")
#loc13275 = loc("multiply.23390")
#loc13276 = loc("broadcast.23400")
#loc13277 = loc("subtract.23401")
#loc13278 = loc("subtract.23356")
#loc13279 = loc("multiply.23357")
#loc13280 = loc("reduce.23364")
#loc13281 = loc("multiply.23373")
#loc13282 = loc("reshape.23374")
#loc13283 = loc("add.23394")
#loc13284 = loc("rsqrt.23395")
#loc13285 = loc("reshape.23402")
#loc13286 = loc("broadcast.23403")
#loc13287 = loc("multiply.23404")
#loc13288 = loc("broadcast.23405")
#loc13289 = loc("multiply.23406")
#loc13290 = loc("broadcast.23409")
#loc13291 = loc("add.23410")
#loc13295 = loc("reduce.4247")
#loc13296 = loc("multiply.4256")
#loc13297 = loc("broadcast.4266")
#loc13298 = loc("subtract.4267")
#loc13299 = loc("subtract.4222")
#loc13300 = loc("multiply.4223")
#loc13301 = loc("reduce.4230")
#loc13302 = loc("multiply.4239")
#loc13303 = loc("reshape.4240")
#loc13304 = loc("add.4260")
#loc13305 = loc("rsqrt.4261")
#loc13306 = loc("reshape.4268")
#loc13307 = loc("broadcast.4269")
#loc13308 = loc("multiply.4270")
#loc13309 = loc("broadcast.4271")
#loc13310 = loc("multiply.4272")
#loc13311 = loc("broadcast.4275")
#loc13312 = loc("add.4276")
#loc13316 = loc("reduce.4681")
#loc13317 = loc("multiply.4690")
#loc13318 = loc("broadcast.4700")
#loc13319 = loc("subtract.4701")
#loc13320 = loc("subtract.4656")
#loc13321 = loc("multiply.4657")
#loc13322 = loc("reduce.4664")
#loc13323 = loc("multiply.4673")
#loc13324 = loc("reshape.4674")
#loc13325 = loc("add.4694")
#loc13326 = loc("rsqrt.4695")
#loc13327 = loc("reshape.4702")
#loc13328 = loc("broadcast.4703")
#loc13329 = loc("multiply.4704")
#loc13330 = loc("broadcast.4705")
#loc13331 = loc("multiply.4706")
#loc13332 = loc("broadcast.4709")
#loc13333 = loc("add.4710")
#loc13335 = loc("multiply.26923")
#loc13336 = loc("power.26909")
#loc13337 = loc("multiply.26912")
#loc13338 = loc("add.26913")
#loc13339 = loc("multiply.26916")
#loc13340 = loc("tanh.26917")
#loc13341 = loc("add.26920")
#loc13342 = loc("multiply.26924")
#loc13344 = loc("multiply.4734")
#loc13345 = loc("power.4720")
#loc13346 = loc("multiply.4723")
#loc13347 = loc("add.4724")
#loc13348 = loc("multiply.4727")
#loc13349 = loc("tanh.4728")
#loc13350 = loc("add.4731")
#loc13351 = loc("multiply.4735")
#loc13355 = loc("reduce.4793")
#loc13356 = loc("multiply.4802")
#loc13357 = loc("broadcast.4812")
#loc13358 = loc("subtract.4813")
#loc13359 = loc("subtract.4768")
#loc13360 = loc("multiply.4769")
#loc13361 = loc("reduce.4776")
#loc13362 = loc("multiply.4785")
#loc13363 = loc("reshape.4786")
#loc13364 = loc("add.4806")
#loc13365 = loc("rsqrt.4807")
#loc13366 = loc("reshape.4814")
#loc13367 = loc("broadcast.4815")
#loc13368 = loc("multiply.4816")
#loc13369 = loc("broadcast.4817")
#loc13370 = loc("multiply.4818")
#loc13371 = loc("broadcast.4821")
#loc13372 = loc("add.4822")
#loc13376 = loc("reduce.4954")
#loc13377 = loc("multiply.4963")
#loc13378 = loc("broadcast.4973")
#loc13379 = loc("subtract.4974")
#loc13380 = loc("subtract.4929")
#loc13381 = loc("multiply.4930")
#loc13382 = loc("reduce.4937")
#loc13383 = loc("multiply.4946")
#loc13384 = loc("reshape.4947")
#loc13385 = loc("add.4967")
#loc13386 = loc("rsqrt.4968")
#loc13387 = loc("reshape.4975")
#loc13388 = loc("broadcast.4976")
#loc13389 = loc("multiply.4977")
#loc13390 = loc("broadcast.4978")
#loc13391 = loc("multiply.4979")
#loc13392 = loc("broadcast.4982")
#loc13393 = loc("add.4983")
#loc13395 = loc("multiply.5280")
#loc13396 = loc("power.5266")
#loc13397 = loc("multiply.5269")
#loc13398 = loc("add.5270")
#loc13399 = loc("multiply.5273")
#loc13400 = loc("tanh.5274")
#loc13401 = loc("add.5277")
#loc13402 = loc("multiply.5281")
#loc13406 = loc("reduce.5612")
#loc13407 = loc("multiply.5621")
#loc13408 = loc("broadcast.5631")
#loc13409 = loc("subtract.5632")
#loc13410 = loc("subtract.5587")
#loc13411 = loc("multiply.5588")
#loc13412 = loc("reduce.5595")
#loc13413 = loc("multiply.5604")
#loc13414 = loc("reshape.5605")
#loc13415 = loc("add.5625")
#loc13416 = loc("rsqrt.5626")
#loc13417 = loc("reshape.5633")
#loc13418 = loc("broadcast.5634")
#loc13419 = loc("multiply.5635")
#loc13420 = loc("broadcast.5636")
#loc13421 = loc("multiply.5637")
#loc13422 = loc("broadcast.5640")
#loc13423 = loc("add.5641")
#loc13425 = loc("multiply.5826")
#loc13426 = loc("power.5812")
#loc13427 = loc("multiply.5815")
#loc13428 = loc("add.5816")
#loc13429 = loc("multiply.5819")
#loc13430 = loc("tanh.5820")
#loc13431 = loc("add.5823")
#loc13432 = loc("multiply.5827")
#loc13434 = loc("multiply.8829")
#loc13435 = loc("power.8815")
#loc13436 = loc("multiply.8818")
#loc13437 = loc("add.8819")
#loc13438 = loc("multiply.8822")
#loc13439 = loc("tanh.8823")
#loc13440 = loc("add.8826")
#loc13441 = loc("multiply.8830")
#loc13445 = loc("reduce.6046")
#loc13446 = loc("multiply.6055")
#loc13447 = loc("broadcast.6065")
#loc13448 = loc("subtract.6066")
#loc13449 = loc("subtract.6021")
#loc13450 = loc("multiply.6022")
#loc13451 = loc("reduce.6029")
#loc13452 = loc("multiply.6038")
#loc13453 = loc("reshape.6039")
#loc13454 = loc("add.6059")
#loc13455 = loc("rsqrt.6060")
#loc13456 = loc("reshape.6067")
#loc13457 = loc("broadcast.6068")
#loc13458 = loc("multiply.6069")
#loc13459 = loc("broadcast.6070")
#loc13460 = loc("multiply.6071")
#loc13461 = loc("broadcast.6074")
#loc13462 = loc("add.6075")
#loc13464 = loc("multiply.6099")
#loc13465 = loc("power.6085")
#loc13466 = loc("multiply.6088")
#loc13467 = loc("add.6089")
#loc13468 = loc("multiply.6092")
#loc13469 = loc("tanh.6093")
#loc13470 = loc("add.6096")
#loc13471 = loc("multiply.6100")
#loc13473 = loc("multiply.20607")
#loc13474 = loc("power.20593")
#loc13475 = loc("multiply.20596")
#loc13476 = loc("add.20597")
#loc13477 = loc("multiply.20600")
#loc13478 = loc("tanh.20601")
#loc13479 = loc("add.20604")
#loc13480 = loc("multiply.20608")
#loc13484 = loc("reduce.6158")
#loc13485 = loc("multiply.6167")
#loc13486 = loc("broadcast.6177")
#loc13487 = loc("subtract.6178")
#loc13488 = loc("subtract.6133")
#loc13489 = loc("multiply.6134")
#loc13490 = loc("reduce.6141")
#loc13491 = loc("multiply.6150")
#loc13492 = loc("reshape.6151")
#loc13493 = loc("add.6171")
#loc13494 = loc("rsqrt.6172")
#loc13495 = loc("reshape.6179")
#loc13496 = loc("broadcast.6180")
#loc13497 = loc("multiply.6181")
#loc13498 = loc("broadcast.6182")
#loc13499 = loc("multiply.6183")
#loc13500 = loc("broadcast.6186")
#loc13501 = loc("add.6187")
#loc13505 = loc("reduce.6592")
#loc13506 = loc("multiply.6601")
#loc13507 = loc("broadcast.6611")
#loc13508 = loc("subtract.6612")
#loc13509 = loc("subtract.6567")
#loc13510 = loc("multiply.6568")
#loc13511 = loc("reduce.6575")
#loc13512 = loc("multiply.6584")
#loc13513 = loc("reshape.6585")
#loc13514 = loc("add.6605")
#loc13515 = loc("rsqrt.6606")
#loc13516 = loc("reshape.6613")
#loc13517 = loc("broadcast.6614")
#loc13518 = loc("multiply.6615")
#loc13519 = loc("broadcast.6616")
#loc13520 = loc("multiply.6617")
#loc13521 = loc("broadcast.6620")
#loc13522 = loc("add.6621")
#loc13526 = loc("reduce.6704")
#loc13527 = loc("multiply.6713")
#loc13528 = loc("broadcast.6723")
#loc13529 = loc("subtract.6724")
#loc13530 = loc("subtract.6679")
#loc13531 = loc("multiply.6680")
#loc13532 = loc("reduce.6687")
#loc13533 = loc("multiply.6696")
#loc13534 = loc("reshape.6697")
#loc13535 = loc("add.6717")
#loc13536 = loc("rsqrt.6718")
#loc13537 = loc("reshape.6725")
#loc13538 = loc("broadcast.6726")
#loc13539 = loc("multiply.6727")
#loc13540 = loc("broadcast.6728")
#loc13541 = loc("multiply.6729")
#loc13542 = loc("broadcast.6732")
#loc13543 = loc("add.6733")
#loc13547 = loc("reduce.6865")
#loc13548 = loc("multiply.6874")
#loc13549 = loc("broadcast.6884")
#loc13550 = loc("subtract.6885")
#loc13551 = loc("subtract.6840")
#loc13552 = loc("multiply.6841")
#loc13553 = loc("reduce.6848")
#loc13554 = loc("multiply.6857")
#loc13555 = loc("reshape.6858")
#loc13556 = loc("add.6878")
#loc13557 = loc("rsqrt.6879")
#loc13558 = loc("reshape.6886")
#loc13559 = loc("broadcast.6887")
#loc13560 = loc("multiply.6888")
#loc13561 = loc("broadcast.6889")
#loc13562 = loc("multiply.6890")
#loc13563 = loc("broadcast.6893")
#loc13564 = loc("add.6894")
#loc13568 = loc("reduce.9980")
#loc13569 = loc("multiply.9989")
#loc13570 = loc("broadcast.9999")
#loc13571 = loc("subtract.10000")
#loc13572 = loc("subtract.9955")
#loc13573 = loc("multiply.9956")
#loc13574 = loc("reduce.9963")
#loc13575 = loc("multiply.9972")
#loc13576 = loc("reshape.9973")
#loc13577 = loc("add.9993")
#loc13578 = loc("rsqrt.9994")
#loc13579 = loc("reshape.10001")
#loc13580 = loc("broadcast.10002")
#loc13581 = loc("multiply.10003")
#loc13582 = loc("broadcast.10004")
#loc13583 = loc("multiply.10005")
#loc13584 = loc("broadcast.10008")
#loc13585 = loc("add.10009")
#loc13589 = loc("reduce.9322")
#loc13590 = loc("multiply.9331")
#loc13591 = loc("broadcast.9341")
#loc13592 = loc("subtract.9342")
#loc13593 = loc("subtract.9297")
#loc13594 = loc("multiply.9298")
#loc13595 = loc("reduce.9305")
#loc13596 = loc("multiply.9314")
#loc13597 = loc("reshape.9315")
#loc13598 = loc("add.9335")
#loc13599 = loc("rsqrt.9336")
#loc13600 = loc("reshape.9343")
#loc13601 = loc("broadcast.9344")
#loc13602 = loc("multiply.9345")
#loc13603 = loc("broadcast.9346")
#loc13604 = loc("multiply.9347")
#loc13605 = loc("broadcast.9350")
#loc13606 = loc("add.9351")
#loc13608 = loc("multiply.6918")
#loc13609 = loc("power.6904")
#loc13610 = loc("multiply.6907")
#loc13611 = loc("add.6908")
#loc13612 = loc("multiply.6911")
#loc13613 = loc("tanh.6912")
#loc13614 = loc("add.6915")
#loc13615 = loc("multiply.6919")
#loc13619 = loc("reduce.7138")
#loc13620 = loc("multiply.7147")
#loc13621 = loc("broadcast.7157")
#loc13622 = loc("subtract.7158")
#loc13623 = loc("subtract.7113")
#loc13624 = loc("multiply.7114")
#loc13625 = loc("reduce.7121")
#loc13626 = loc("multiply.7130")
#loc13627 = loc("reshape.7131")
#loc13628 = loc("add.7151")
#loc13629 = loc("rsqrt.7152")
#loc13630 = loc("reshape.7159")
#loc13631 = loc("broadcast.7160")
#loc13632 = loc("multiply.7161")
#loc13633 = loc("broadcast.7162")
#loc13634 = loc("multiply.7163")
#loc13635 = loc("broadcast.7166")
#loc13636 = loc("add.7167")
#loc13640 = loc("reduce.24409")
#loc13641 = loc("multiply.24418")
#loc13642 = loc("broadcast.24428")
#loc13643 = loc("subtract.24429")
#loc13644 = loc("subtract.24384")
#loc13645 = loc("multiply.24385")
#loc13646 = loc("reduce.24392")
#loc13647 = loc("multiply.24401")
#loc13648 = loc("reshape.24402")
#loc13649 = loc("add.24422")
#loc13650 = loc("rsqrt.24423")
#loc13651 = loc("reshape.24430")
#loc13652 = loc("broadcast.24431")
#loc13653 = loc("multiply.24432")
#loc13654 = loc("broadcast.24433")
#loc13655 = loc("multiply.24434")
#loc13656 = loc("broadcast.24437")
#loc13657 = loc("add.24438")
#loc13659 = loc("multiply.7191")
#loc13660 = loc("power.7177")
#loc13661 = loc("multiply.7180")
#loc13662 = loc("add.7181")
#loc13663 = loc("multiply.7184")
#loc13664 = loc("tanh.7185")
#loc13665 = loc("add.7188")
#loc13666 = loc("multiply.7192")
#loc13670 = loc("reduce.7523")
#loc13671 = loc("multiply.7532")
#loc13672 = loc("broadcast.7542")
#loc13673 = loc("subtract.7543")
#loc13674 = loc("subtract.7498")
#loc13675 = loc("multiply.7499")
#loc13676 = loc("reduce.7506")
#loc13677 = loc("multiply.7515")
#loc13678 = loc("reshape.7516")
#loc13679 = loc("add.7536")
#loc13680 = loc("rsqrt.7537")
#loc13681 = loc("reshape.7544")
#loc13682 = loc("broadcast.7545")
#loc13683 = loc("multiply.7546")
#loc13684 = loc("broadcast.7547")
#loc13685 = loc("multiply.7548")
#loc13686 = loc("broadcast.7551")
#loc13687 = loc("add.7552")
#loc13689 = loc("multiply.17850")
#loc13690 = loc("power.17836")
#loc13691 = loc("multiply.17839")
#loc13692 = loc("add.17840")
#loc13693 = loc("multiply.17843")
#loc13694 = loc("tanh.17844")
#loc13695 = loc("add.17847")
#loc13696 = loc("multiply.17851")
#loc13700 = loc("reduce.7796")
#loc13701 = loc("multiply.7805")
#loc13702 = loc("broadcast.7815")
#loc13703 = loc("subtract.7816")
#loc13704 = loc("subtract.7771")
#loc13705 = loc("multiply.7772")
#loc13706 = loc("reduce.7779")
#loc13707 = loc("multiply.7788")
#loc13708 = loc("reshape.7789")
#loc13709 = loc("add.7809")
#loc13710 = loc("rsqrt.7810")
#loc13711 = loc("reshape.7817")
#loc13712 = loc("broadcast.7818")
#loc13713 = loc("multiply.7819")
#loc13714 = loc("broadcast.7820")
#loc13715 = loc("multiply.7821")
#loc13716 = loc("broadcast.7824")
#loc13717 = loc("add.7825")
#loc13721 = loc("reduce.7957")
#loc13722 = loc("multiply.7966")
#loc13723 = loc("broadcast.7976")
#loc13724 = loc("subtract.7977")
#loc13725 = loc("subtract.7932")
#loc13726 = loc("multiply.7933")
#loc13727 = loc("reduce.7940")
#loc13728 = loc("multiply.7949")
#loc13729 = loc("reshape.7950")
#loc13730 = loc("add.7970")
#loc13731 = loc("rsqrt.7971")
#loc13732 = loc("reshape.7978")
#loc13733 = loc("broadcast.7979")
#loc13734 = loc("multiply.7980")
#loc13735 = loc("broadcast.7981")
#loc13736 = loc("multiply.7982")
#loc13737 = loc("broadcast.7985")
#loc13738 = loc("add.7986")
#loc13742 = loc("reduce.13942")
#loc13743 = loc("multiply.13951")
#loc13744 = loc("broadcast.13961")
#loc13745 = loc("subtract.13962")
#loc13746 = loc("subtract.13917")
#loc13747 = loc("multiply.13918")
#loc13748 = loc("reduce.13925")
#loc13749 = loc("multiply.13934")
#loc13750 = loc("reshape.13935")
#loc13751 = loc("add.13955")
#loc13752 = loc("rsqrt.13956")
#loc13753 = loc("reshape.13963")
#loc13754 = loc("broadcast.13964")
#loc13755 = loc("multiply.13965")
#loc13756 = loc("broadcast.13966")
#loc13757 = loc("multiply.13967")
#loc13758 = loc("broadcast.13970")
#loc13759 = loc("add.13971")
#loc13763 = loc("reduce.17026")
#loc13764 = loc("multiply.17035")
#loc13765 = loc("broadcast.17045")
#loc13766 = loc("subtract.17046")
#loc13767 = loc("subtract.17001")
#loc13768 = loc("multiply.17002")
#loc13769 = loc("reduce.17009")
#loc13770 = loc("multiply.17018")
#loc13771 = loc("reshape.17019")
#loc13772 = loc("add.17039")
#loc13773 = loc("rsqrt.17040")
#loc13774 = loc("reshape.17047")
#loc13775 = loc("broadcast.17048")
#loc13776 = loc("multiply.17049")
#loc13777 = loc("broadcast.17050")
#loc13778 = loc("multiply.17051")
#loc13779 = loc("broadcast.17054")
#loc13780 = loc("add.17055")
#loc13782 = loc("multiply.8010")
#loc13783 = loc("power.7996")
#loc13784 = loc("multiply.7999")
#loc13785 = loc("add.8000")
#loc13786 = loc("multiply.8003")
#loc13787 = loc("tanh.8004")
#loc13788 = loc("add.8007")
#loc13789 = loc("multiply.8011")
#loc13793 = loc("reduce.8069")
#loc13794 = loc("multiply.8078")
#loc13795 = loc("broadcast.8088")
#loc13796 = loc("subtract.8089")
#loc13797 = loc("subtract.8044")
#loc13798 = loc("multiply.8045")
#loc13799 = loc("reduce.8052")
#loc13800 = loc("multiply.8061")
#loc13801 = loc("reshape.8062")
#loc13802 = loc("add.8082")
#loc13803 = loc("rsqrt.8083")
#loc13804 = loc("reshape.8090")
#loc13805 = loc("broadcast.8091")
#loc13806 = loc("multiply.8092")
#loc13807 = loc("broadcast.8093")
#loc13808 = loc("multiply.8094")
#loc13809 = loc("broadcast.8097")
#loc13810 = loc("add.8098")
#loc13814 = loc("reduce.8503")
#loc13815 = loc("multiply.8512")
#loc13816 = loc("broadcast.8522")
#loc13817 = loc("subtract.8523")
#loc13818 = loc("subtract.8478")
#loc13819 = loc("multiply.8479")
#loc13820 = loc("reduce.8486")
#loc13821 = loc("multiply.8495")
#loc13822 = loc("reshape.8496")
#loc13823 = loc("add.8516")
#loc13824 = loc("rsqrt.8517")
#loc13825 = loc("reshape.8524")
#loc13826 = loc("broadcast.8525")
#loc13827 = loc("multiply.8526")
#loc13828 = loc("broadcast.8527")
#loc13829 = loc("multiply.8528")
#loc13830 = loc("broadcast.8531")
#loc13831 = loc("add.8532")
#loc13833 = loc("multiply.30663")
#loc13834 = loc("power.30649")
#loc13835 = loc("multiply.30652")
#loc13836 = loc("add.30653")
#loc13837 = loc("multiply.30656")
#loc13838 = loc("tanh.30657")
#loc13839 = loc("add.30660")
#loc13840 = loc("multiply.30664")
#loc13844 = loc("reduce.8776")
#loc13845 = loc("multiply.8785")
#loc13846 = loc("broadcast.8795")
#loc13847 = loc("subtract.8796")
#loc13848 = loc("subtract.8751")
#loc13849 = loc("multiply.8752")
#loc13850 = loc("reduce.8759")
#loc13851 = loc("multiply.8768")
#loc13852 = loc("reshape.8769")
#loc13853 = loc("add.8789")
#loc13854 = loc("rsqrt.8790")
#loc13855 = loc("reshape.8797")
#loc13856 = loc("broadcast.8798")
#loc13857 = loc("multiply.8799")
#loc13858 = loc("broadcast.8800")
#loc13859 = loc("multiply.8801")
#loc13860 = loc("broadcast.8804")
#loc13861 = loc("add.8805")
#loc13865 = loc("reduce.8888")
#loc13866 = loc("multiply.8897")
#loc13867 = loc("broadcast.8907")
#loc13868 = loc("subtract.8908")
#loc13869 = loc("subtract.8863")
#loc13870 = loc("multiply.8864")
#loc13871 = loc("reduce.8871")
#loc13872 = loc("multiply.8880")
#loc13873 = loc("reshape.8881")
#loc13874 = loc("add.8901")
#loc13875 = loc("rsqrt.8902")
#loc13876 = loc("reshape.8909")
#loc13877 = loc("broadcast.8910")
#loc13878 = loc("multiply.8911")
#loc13879 = loc("broadcast.8912")
#loc13880 = loc("multiply.8913")
#loc13881 = loc("broadcast.8916")
#loc13882 = loc("add.8917")
#loc13884 = loc("multiply.9102")
#loc13885 = loc("power.9088")
#loc13886 = loc("multiply.9091")
#loc13887 = loc("add.9092")
#loc13888 = loc("multiply.9095")
#loc13889 = loc("tanh.9096")
#loc13890 = loc("add.9099")
#loc13891 = loc("multiply.9103")
#loc13895 = loc("reduce.9161")
#loc13896 = loc("multiply.9170")
#loc13897 = loc("broadcast.9180")
#loc13898 = loc("subtract.9181")
#loc13899 = loc("subtract.9136")
#loc13900 = loc("multiply.9137")
#loc13901 = loc("reduce.9144")
#loc13902 = loc("multiply.9153")
#loc13903 = loc("reshape.9154")
#loc13904 = loc("add.9174")
#loc13905 = loc("rsqrt.9175")
#loc13906 = loc("reshape.9182")
#loc13907 = loc("broadcast.9183")
#loc13908 = loc("multiply.9184")
#loc13909 = loc("broadcast.9185")
#loc13910 = loc("multiply.9186")
#loc13911 = loc("broadcast.9189")
#loc13912 = loc("add.9190")
#loc13914 = loc("multiply.9648")
#loc13915 = loc("power.9634")
#loc13916 = loc("multiply.9637")
#loc13917 = loc("add.9638")
#loc13918 = loc("multiply.9641")
#loc13919 = loc("tanh.9642")
#loc13920 = loc("add.9645")
#loc13921 = loc("multiply.9649")
#loc13923 = loc("multiply.10467")
#loc13924 = loc("power.10453")
#loc13925 = loc("multiply.10456")
#loc13926 = loc("add.10457")
#loc13927 = loc("multiply.10460")
#loc13928 = loc("tanh.10461")
#loc13929 = loc("add.10464")
#loc13930 = loc("multiply.10468")
#loc13932 = loc("multiply.26703")
#loc13933 = loc("power.26689")
#loc13934 = loc("multiply.26692")
#loc13935 = loc("add.26693")
#loc13936 = loc("multiply.26696")
#loc13937 = loc("tanh.26697")
#loc13938 = loc("add.26700")
#loc13939 = loc("multiply.26704")
#loc13941 = loc("multiply.27363")
#loc13942 = loc("power.27349")
#loc13943 = loc("multiply.27352")
#loc13944 = loc("add.27353")
#loc13945 = loc("multiply.27356")
#loc13946 = loc("tanh.27357")
#loc13947 = loc("add.27360")
#loc13948 = loc("multiply.27364")
#loc13950 = loc("multiply.5553")
#loc13951 = loc("power.5539")
#loc13952 = loc("multiply.5542")
#loc13953 = loc("add.5543")
#loc13954 = loc("multiply.5546")
#loc13955 = loc("tanh.5547")
#loc13956 = loc("add.5550")
#loc13957 = loc("multiply.5554")
#loc13959 = loc("multiply.28023")
#loc13960 = loc("power.28009")
#loc13961 = loc("multiply.28012")
#loc13962 = loc("add.28013")
#loc13963 = loc("multiply.28016")
#loc13964 = loc("tanh.28017")
#loc13965 = loc("add.28020")
#loc13966 = loc("multiply.28024")
