#loc1 = loc("p0.72")
#loc2 = loc("p1.79")
#loc3 = loc("p2.84")
#loc4 = loc("p3.110")
#loc5 = loc("p4.114")
#loc6 = loc("p5.122")
#loc7 = loc("p6.126")
#loc8 = loc("p7.133")
#loc9 = loc("p8.144")
#loc10 = loc("p9.149")
#loc11 = loc("p10.156")
#loc12 = loc("p11.167")
#loc13 = loc("p12.172")
#loc14 = loc("p13.179")
#loc15 = loc("p14.190")
#loc16 = loc("p15.195")
#loc17 = loc("p16.202")
#loc18 = loc("p17.213")
#loc19 = loc("p18.218")
#loc20 = loc("p19.225")
#loc21 = loc("p20.236")
#loc22 = loc("p21.241")
#loc23 = loc("p22.248")
#loc24 = loc("p23.259")
#loc25 = loc("p24.264")
#loc26 = loc("p25.271")
#loc27 = loc("p26.282")
#loc28 = loc("p27.287")
#loc29 = loc("p28.294")
#loc30 = loc("p29.305")
#loc31 = loc("p30.310")
#loc32 = loc("p31.317")
#loc33 = loc("p32.328")
#loc34 = loc("p33.333")
#loc35 = loc("p34.340")
#loc36 = loc("p35.351")
#loc37 = loc("p36.356")
#loc38 = loc("p37.363")
#loc39 = loc("p38.374")
#loc40 = loc("p39.379")
#loc41 = loc("p40.386")
#loc42 = loc("p41.397")
#loc43 = loc("p42.402")
#loc44 = loc("p43.409")
#loc45 = loc("p44.420")
#loc46 = loc("p45.425")
#loc47 = loc("p46.432")
#loc48 = loc("p47.443")
#loc49 = loc("p48.448")
#loc50 = loc("p49.455")
#loc51 = loc("p50.466")
#loc52 = loc("p51.471")
#loc53 = loc("p52.478")
#loc54 = loc("p53.489")
#loc55 = loc("p54.494")
#loc56 = loc("p55.501")
#loc57 = loc("p56.512")
#loc58 = loc("p57.517")
#loc59 = loc("p58.524")
#loc60 = loc("p59.535")
#loc61 = loc("p60.540")
#loc62 = loc("p61.547")
#loc63 = loc("p62.558")
#loc64 = loc("p63.563")
#loc65 = loc("p64.570")
#loc66 = loc("p65.581")
#loc67 = loc("p66.586")
#loc68 = loc("p67.593")
#loc69 = loc("p68.604")
#loc70 = loc("p69.609")
#loc71 = loc("p70.616")
#loc72 = loc("p71.627")
#loc73 = loc("p72.632")
#loc74 = loc("p73.639")
#loc75 = loc("p74.650")
#loc76 = loc("p75.655")
#loc77 = loc("p76.662")
#loc78 = loc("p77.673")
#loc79 = loc("p78.678")
#loc80 = loc("p79.685")
#loc81 = loc("p80.696")
#loc82 = loc("p81.701")
#loc83 = loc("p82.708")
#loc84 = loc("p83.719")
#loc85 = loc("p84.724")
#loc86 = loc("p85.731")
#loc87 = loc("p86.742")
#loc88 = loc("p87.747")
#loc89 = loc("p88.754")
#loc90 = loc("p89.765")
#loc91 = loc("p90.770")
#loc92 = loc("p91.777")
#loc93 = loc("p92.788")
#loc94 = loc("p93.793")
#loc95 = loc("p94.800")
#loc96 = loc("p95.811")
#loc97 = loc("p96.816")
#loc98 = loc("p97.823")
#loc99 = loc("p98.834")
#loc100 = loc("p99.839")
#loc101 = loc("p100.846")
#loc102 = loc("p101.857")
#loc103 = loc("p102.862")
#loc104 = loc("p103.869")
#loc105 = loc("p104.880")
#loc106 = loc("p105.885")
#loc107 = loc("p106.892")
#loc108 = loc("p107.903")
#loc109 = loc("p108.908")
#loc110 = loc("p109.915")
#loc111 = loc("p110.926")
#loc112 = loc("p111.931")
#loc113 = loc("p112.938")
#loc114 = loc("p113.949")
#loc115 = loc("p114.954")
#loc116 = loc("p115.961")
#loc117 = loc("p116.972")
#loc118 = loc("p117.976")
#loc119 = loc("p118.982")
#loc120 = loc("p119.986")
#loc121 = loc("p120.1059")
#loc122 = loc("p121.1134")
#loc123 = loc("p122.1141")
#loc124 = loc("p123.1152")
#loc125 = loc("p124.1157")
#loc126 = loc("p125.1167")
#loc127 = loc("p126.1171")
#loc128 = loc("p127.1177")
#loc129 = loc("p128.1182")
#loc130 = loc("p129.1191")
#loc131 = loc("p130.1195")
#loc132 = loc("p131.1203")
#loc133 = loc("p132.1207")
#loc134 = loc("p133.1213")
#loc135 = loc("p134.1218")
#loc136 = loc("p135.1227")
#loc137 = loc("p136.1231")
#loc138 = loc("p137.1237")
#loc139 = loc("p138.1241")
#loc140 = loc("p139.1247")
#loc141 = loc("p140.1252")
#loc142 = loc("p141.1261")
#loc143 = loc("p142.1265")
#loc144 = loc("p143.1273")
#loc145 = loc("p144.1277")
#loc146 = loc("p145.1283")
#loc147 = loc("p146.1288")
#loc148 = loc("p147.1297")
#loc149 = loc("p148.1301")
#loc150 = loc("p149.1307")
#loc151 = loc("p150.1311")
#loc152 = loc("p151.1317")
#loc153 = loc("p152.1322")
#loc154 = loc("p153.1331")
#loc155 = loc("p154.1335")
#loc156 = loc("p155.1343")
#loc157 = loc("p156.1347")
#loc158 = loc("p157.1353")
#loc159 = loc("p158.1358")
#loc160 = loc("p159.1367")
#loc161 = loc("p160.1371")
#loc162 = loc("p161.1377")
#loc163 = loc("p162.1381")
#loc164 = loc("p163.1387")
#loc165 = loc("p164.1392")
#loc166 = loc("p165.1401")
#loc167 = loc("p166.1405")
#loc168 = loc("p167.1413")
#loc169 = loc("p168.1417")
#loc170 = loc("p169.1423")
#loc171 = loc("p170.1428")
#loc172 = loc("p171.1437")
#loc173 = loc("p172.1441")
#loc174 = loc("p173.1447")
#loc175 = loc("p174.1451")
#loc176 = loc("p175.1457")
#loc177 = loc("p176.1462")
#loc178 = loc("p177.1471")
#loc179 = loc("p178.1475")
#loc180 = loc("p179.1483")
#loc181 = loc("p180.1487")
#loc182 = loc("p181.1493")
#loc183 = loc("p182.1498")
#loc184 = loc("p183.1507")
#loc185 = loc("p184.1511")
#loc186 = loc("p185.1517")
#loc187 = loc("p186.1521")
#loc188 = loc("p187.1527")
#loc189 = loc("p188.1532")
#loc190 = loc("p189.1541")
#loc191 = loc("p190.1545")
#loc192 = loc("p191.1553")
#loc193 = loc("p192.1557")
#loc194 = loc("p193.1563")
#loc195 = loc("p194.1568")
#loc196 = loc("p195.1577")
#loc197 = loc("p196.1581")
#loc198 = loc("p197.1587")
#loc199 = loc("p198.1591")
#loc200 = loc("p199.1597")
#loc201 = loc("p200.1602")
#loc202 = loc("p201.1611")
#loc203 = loc("p202.1615")
#loc204 = loc("p203.1623")
#loc205 = loc("p204.1627")
#loc206 = loc("p205.1633")
#loc207 = loc("p206.1638")
#loc208 = loc("p207.1647")
#loc209 = loc("p208.1651")
#loc210 = loc("p209.1657")
#loc211 = loc("p210.1661")
#loc212 = loc("p211.1667")
#loc213 = loc("p212.1672")
#loc214 = loc("p213.1681")
#loc215 = loc("p214.1685")
#loc216 = loc("p215.1693")
#loc217 = loc("p216.1697")
#loc218 = loc("p217.1703")
#loc219 = loc("p218.1708")
#loc220 = loc("p219.1717")
#loc221 = loc("p220.1721")
#loc222 = loc("p221.1727")
#loc223 = loc("p222.1731")
#loc224 = loc("p223.1737")
#loc225 = loc("p224.1742")
#loc226 = loc("p225.1751")
#loc227 = loc("p226.1755")
#loc228 = loc("p227.1763")
#loc229 = loc("p228.1767")
#loc230 = loc("p229.1773")
#loc231 = loc("p230.1778")
#loc232 = loc("p231.1787")
#loc233 = loc("p232.1791")
#loc234 = loc("p233.1797")
#loc235 = loc("p234.1801")
#loc236 = loc("p235.1807")
#loc237 = loc("p236.1812")
#loc238 = loc("p237.1821")
#loc239 = loc("p238.1825")
#loc240 = loc("p239.1833")
#loc241 = loc("p240.1837")
#loc242 = loc("p241.1843")
#loc243 = loc("p242.1848")
#loc244 = loc("p243.1857")
#loc245 = loc("p244.1861")
#loc246 = loc("p245.1867")
#loc247 = loc("p246.1871")
#loc248 = loc("p247.1877")
#loc249 = loc("p248.1882")
#loc250 = loc("p249.1891")
#loc251 = loc("p250.1895")
#loc252 = loc("p251.1903")
#loc253 = loc("p252.1907")
#loc254 = loc("p253.1913")
#loc255 = loc("p254.1918")
#loc256 = loc("p255.1927")
#loc257 = loc("p256.1931")
#loc258 = loc("p257.1937")
#loc259 = loc("p258.1941")
#loc260 = loc("p259.1947")
#loc261 = loc("p260.1952")
#loc262 = loc("p261.1961")
#loc263 = loc("p262.1965")
#loc264 = loc("p263.1973")
#loc265 = loc("p264.1977")
#loc266 = loc("p265.1983")
#loc267 = loc("p266.1988")
#loc268 = loc("p267.1997")
#loc269 = loc("p268.2001")
#loc270 = loc("p269.2007")
#loc271 = loc("p270.2011")
#loc272 = loc("p271.2017")
#loc273 = loc("p272.2022")
#loc274 = loc("p273.2031")
#loc275 = loc("p274.2035")
#loc276 = loc("p275.2043")
#loc277 = loc("p276.2047")
#loc278 = loc("p277.2053")
#loc279 = loc("p278.2058")
#loc280 = loc("p279.2067")
#loc281 = loc("p280.2071")
#loc282 = loc("p281.2077")
#loc283 = loc("p282.2081")
#loc284 = loc("p283.2087")
#loc285 = loc("p284.2092")
#loc286 = loc("p285.2101")
#loc287 = loc("p286.2105")
#loc288 = loc("p287.2113")
#loc289 = loc("p288.2117")
#loc290 = loc("p289.2123")
#loc291 = loc("p290.2128")
#loc292 = loc("p291.2137")
#loc293 = loc("p292.2141")
#loc294 = loc("p293.2147")
#loc295 = loc("p294.2151")
#loc296 = loc("p295.2157")
#loc297 = loc("p296.2162")
#loc298 = loc("p297.2171")
#loc299 = loc("p298.2175")
#loc300 = loc("p299.2183")
#loc301 = loc("p300.2187")
#loc302 = loc("p301.2193")
#loc303 = loc("p302.2198")
#loc304 = loc("p303.2207")
#loc305 = loc("p304.2211")
#loc306 = loc("p305.2217")
#loc307 = loc("p306.2221")
#loc308 = loc("p307.2227")
#loc309 = loc("p308.2232")
#loc310 = loc("p309.2241")
#loc311 = loc("p310.2245")
#loc312 = loc("p311.2253")
#loc313 = loc("p312.2257")
#loc314 = loc("p313.2263")
#loc315 = loc("p314.2268")
#loc316 = loc("p315.2277")
#loc317 = loc("p316.2281")
#loc318 = loc("p317.2287")
#loc319 = loc("p318.2291")
#loc320 = loc("p319.2297")
#loc321 = loc("p320.2302")
#loc322 = loc("p321.2311")
#loc323 = loc("p322.2315")
#loc324 = loc("p323.2323")
#loc325 = loc("p324.2327")
#loc326 = loc("p325.2333")
#loc327 = loc("p326.2338")
#loc328 = loc("p327.2347")
#loc329 = loc("p328.2351")
#loc330 = loc("p329.2357")
#loc331 = loc("p330.2361")
#loc332 = loc("p331.2367")
#loc333 = loc("p332.2372")
#loc334 = loc("p333.2381")
#loc335 = loc("p334.2385")
#loc336 = loc("p335.2393")
#loc337 = loc("p336.2397")
#loc338 = loc("p337.2403")
#loc339 = loc("p338.2408")
#loc340 = loc("p339.2417")
#loc341 = loc("p340.2421")
#loc342 = loc("p341.2427")
#loc343 = loc("p342.2431")
#loc344 = loc("p343.2437")
#loc345 = loc("p344.2442")
#loc346 = loc("p345.2451")
#loc347 = loc("p346.2455")
#loc348 = loc("p347.2463")
#loc349 = loc("p348.2467")
#loc350 = loc("p349.2473")
#loc351 = loc("p350.2478")
#loc352 = loc("p351.2487")
#loc353 = loc("p352.2491")
#loc354 = loc("p353.2497")
#loc355 = loc("p354.2501")
#loc356 = loc("p355.2507")
#loc357 = loc("p356.2512")
#loc358 = loc("p357.2521")
#loc359 = loc("p358.2525")
#loc360 = loc("p359.2533")
#loc361 = loc("p360.2537")
#loc362 = loc("p361.2543")
#loc363 = loc("p362.2548")
#loc364 = loc("p363.2557")
#loc365 = loc("p364.2561")
#loc366 = loc("p365.2567")
#loc367 = loc("p366.2571")
#loc368 = loc("p367.2577")
#loc369 = loc("p368.2582")
#loc370 = loc("p369.2591")
#loc371 = loc("p370.2595")
#loc372 = loc("p371.2603")
#loc373 = loc("p372.2607")
#loc374 = loc("p373.2613")
#loc375 = loc("p374.2618")
#loc376 = loc("p375.2627")
#loc377 = loc("p376.2631")
#loc378 = loc("p377.2637")
#loc379 = loc("p378.2641")
#loc380 = loc("p379.2647")
#loc381 = loc("p380.2652")
#loc382 = loc("p381.2661")
#loc383 = loc("p382.2665")
#loc384 = loc("p383.2673")
#loc385 = loc("p384.2677")
#loc386 = loc("p385.2683")
#loc387 = loc("p386.2688")
#loc388 = loc("p387.2697")
#loc389 = loc("p388.2701")
#loc390 = loc("p389.2707")
#loc391 = loc("p390.2711")
#loc392 = loc("p391.2717")
#loc393 = loc("p392.2722")
#loc394 = loc("p393.2731")
#loc395 = loc("p394.2735")
#loc396 = loc("p395.2743")
#loc397 = loc("p396.2747")
#loc398 = loc("p397.2753")
#loc399 = loc("p398.2758")
#loc400 = loc("p399.2767")
#loc401 = loc("p400.2771")
#loc402 = loc("p401.2777")
#loc403 = loc("p402.2781")
#loc404 = loc("p403.2787")
#loc405 = loc("p404.2792")
#loc406 = loc("p405.2801")
#loc407 = loc("p406.2805")
#loc408 = loc("p407.2813")
#loc409 = loc("p408.2817")
#loc410 = loc("p409.2823")
#loc411 = loc("p410.2828")
#loc412 = loc("p411.2837")
#loc413 = loc("p412.2841")
#loc414 = loc("p413.2847")
#loc415 = loc("p414.2851")
#loc416 = loc("p415.2857")
#loc417 = loc("p416.2862")
#loc418 = loc("p417.2871")
#loc419 = loc("p418.2875")
#loc420 = loc("p419.2883")
#loc421 = loc("p420.2887")
#loc422 = loc("p421.2893")
#loc423 = loc("p422.2898")
#loc424 = loc("p423.2907")
#loc425 = loc("p424.2911")
#loc426 = loc("p425.2917")
#loc427 = loc("p426.2921")
#loc428 = loc("p427.2927")
#loc429 = loc("p428.2932")
#loc430 = loc("p429.2941")
#loc431 = loc("p430.2945")
#loc432 = loc("p431.2953")
#loc433 = loc("p432.2957")
#loc434 = loc("p433.2963")
#loc435 = loc("p434.2968")
#loc436 = loc("p435.2977")
#loc437 = loc("p436.2981")
#loc438 = loc("p437.2987")
#loc439 = loc("p438.2991")
#loc440 = loc("p439.2997")
#loc441 = loc("p440.3002")
#loc442 = loc("p441.3011")
#loc443 = loc("p442.3015")
#loc444 = loc("p443.3023")
#loc445 = loc("p444.3027")
#loc446 = loc("p445.3033")
#loc447 = loc("p446.3038")
#loc448 = loc("p447.3047")
#loc449 = loc("p448.3051")
#loc450 = loc("p449.3057")
#loc451 = loc("p450.3061")
#loc452 = loc("p451.3067")
#loc453 = loc("p452.3072")
#loc454 = loc("p453.3080")
#loc455 = loc("p454.3085")
#loc456 = loc("p455.3092")
#loc457 = loc("p456.3096")
#loc458 = loc("p457.3098")
#loc459 = loc("p458.3197")
#loc460 = loc("p459.3201")
#loc461 = loc("p460.3217")
#loc462 = loc("p461.3221")
#loc463 = loc("p462.3470")
#loc464 = loc("p463.3474")
#loc465 = loc("p464.3490")
#loc466 = loc("p465.3494")
#loc467 = loc("p466.3743")
#loc468 = loc("p467.3747")
#loc469 = loc("p468.3763")
#loc470 = loc("p469.3767")
#loc471 = loc("p470.4016")
#loc472 = loc("p471.4020")
#loc473 = loc("p472.4036")
#loc474 = loc("p473.4040")
#loc475 = loc("p474.4289")
#loc476 = loc("p475.4293")
#loc477 = loc("p476.4309")
#loc478 = loc("p477.4313")
#loc479 = loc("p478.4562")
#loc480 = loc("p479.4566")
#loc481 = loc("p480.4582")
#loc482 = loc("p481.4586")
#loc483 = loc("p482.4835")
#loc484 = loc("p483.4839")
#loc485 = loc("p484.4855")
#loc486 = loc("p485.4859")
#loc487 = loc("p486.5108")
#loc488 = loc("p487.5112")
#loc489 = loc("p488.5128")
#loc490 = loc("p489.5132")
#loc491 = loc("p490.5381")
#loc492 = loc("p491.5385")
#loc493 = loc("p492.5401")
#loc494 = loc("p493.5405")
#loc495 = loc("p494.5654")
#loc496 = loc("p495.5658")
#loc497 = loc("p496.5674")
#loc498 = loc("p497.5678")
#loc499 = loc("p498.5927")
#loc500 = loc("p499.5931")
#loc501 = loc("p500.5947")
#loc502 = loc("p501.5951")
#loc503 = loc("p502.6200")
#loc504 = loc("p503.6204")
#loc505 = loc("p504.6220")
#loc506 = loc("p505.6224")
#loc507 = loc("p506.6473")
#loc508 = loc("p507.6477")
#loc509 = loc("p508.6493")
#loc510 = loc("p509.6497")
#loc511 = loc("p510.6746")
#loc512 = loc("p511.6750")
#loc513 = loc("p512.6766")
#loc514 = loc("p513.6770")
#loc515 = loc("p514.7019")
#loc516 = loc("p515.7023")
#loc517 = loc("p516.7039")
#loc518 = loc("p517.7043")
#loc519 = loc("p518.7292")
#loc520 = loc("p519.7296")
#loc521 = loc("p520.7312")
#loc522 = loc("p521.7316")
#loc523 = loc("p522.7565")
#loc524 = loc("p523.7569")
#loc525 = loc("p524.7585")
#loc526 = loc("p525.7589")
#loc527 = loc("p526.7838")
#loc528 = loc("p527.7842")
#loc529 = loc("p528.7858")
#loc530 = loc("p529.7862")
#loc531 = loc("p530.8111")
#loc532 = loc("p531.8115")
#loc533 = loc("p532.8131")
#loc534 = loc("p533.8135")
#loc535 = loc("p534.8384")
#loc536 = loc("p535.8388")
#loc537 = loc("p536.8404")
#loc538 = loc("p537.8408")
#loc539 = loc("p538.8657")
#loc540 = loc("p539.8661")
#loc541 = loc("p540.8677")
#loc542 = loc("p541.8681")
#loc543 = loc("p542.8930")
#loc544 = loc("p543.8934")
#loc545 = loc("p544.8950")
#loc546 = loc("p545.8954")
#loc547 = loc("p546.9203")
#loc548 = loc("p547.9207")
#loc549 = loc("p548.9223")
#loc550 = loc("p549.9227")
#loc551 = loc("p550.9476")
#loc552 = loc("p551.9480")
#loc553 = loc("p552.9496")
#loc554 = loc("p553.9500")
#loc555 = loc("p554.9749")
#loc556 = loc("p555.9753")
#loc557 = loc("p556.9769")
#loc558 = loc("p557.9773")
#loc559 = loc("p558.10022")
#loc560 = loc("p559.10026")
#loc561 = loc("p560.10042")
#loc562 = loc("p561.10046")
#loc563 = loc("p562.10295")
#loc564 = loc("p563.10299")
#loc565 = loc("p564.10315")
#loc566 = loc("p565.10319")
#loc567 = loc("p566.11170")
#loc568 = loc("p567.18810")
#loc569 = loc("p568.25898")
#loc570 = loc("p569.25913")
#loc571 = loc("p570.25932")
#loc572 = loc("p571.25936")
#loc573 = loc("p572.25944")
#loc574 = loc("p573.25952")
#loc575 = loc("p574.26002")
#loc576 = loc("p575.26017")
#loc577 = loc("p576.26058")
#loc578 = loc("p577.26073")
#loc579 = loc("p578.26105")
#loc580 = loc("p579.26198")
#loc581 = loc("p580.26265")
#loc582 = loc("p581.26272")
#loc583 = loc("p582.26283")
#loc584 = loc("p583.26288")
#loc585 = loc("p584.26295")
#loc586 = loc("p585.26306")
#loc587 = loc("p586.26336")
#loc588 = loc("p587.26367")
#loc589 = loc("p588.26460")
#loc590 = loc("p589.26537")
#loc591 = loc("p590.26559")
#loc592 = loc("p591.26587")
#loc593 = loc("p592.26680")
#loc594 = loc("p593.26747")
#loc595 = loc("p594.26754")
#loc596 = loc("p595.26765")
#loc597 = loc("p596.26770")
#loc598 = loc("p597.26777")
#loc599 = loc("p598.26788")
#loc600 = loc("p599.26807")
#loc601 = loc("p600.26900")
#loc602 = loc("p601.26977")
#loc603 = loc("p602.26999")
#loc604 = loc("p603.27027")
#loc605 = loc("p604.27120")
#loc606 = loc("p605.27187")
#loc607 = loc("p606.27194")
#loc608 = loc("p607.27205")
#loc609 = loc("p608.27210")
#loc610 = loc("p609.27217")
#loc611 = loc("p610.27228")
#loc612 = loc("p611.27247")
#loc613 = loc("p612.27340")
#loc614 = loc("p613.27417")
#loc615 = loc("p614.27439")
#loc616 = loc("p615.27467")
#loc617 = loc("p616.27560")
#loc618 = loc("p617.27627")
#loc619 = loc("p618.27634")
#loc620 = loc("p619.27645")
#loc621 = loc("p620.27650")
#loc622 = loc("p621.27657")
#loc623 = loc("p622.27668")
#loc624 = loc("p623.27687")
#loc625 = loc("p624.27780")
#loc626 = loc("p625.27857")
#loc627 = loc("p626.27879")
#loc628 = loc("p627.27907")
#loc629 = loc("p628.28000")
#loc630 = loc("p629.28067")
#loc631 = loc("p630.28074")
#loc632 = loc("p631.28085")
#loc633 = loc("p632.28090")
#loc634 = loc("p633.28097")
#loc635 = loc("p634.28108")
#loc636 = loc("p635.28127")
#loc637 = loc("p636.28220")
#loc638 = loc("p637.28297")
#loc639 = loc("p638.28319")
#loc640 = loc("p639.28347")
#loc641 = loc("p640.28440")
#loc642 = loc("p641.28507")
#loc643 = loc("p642.28514")
#loc644 = loc("p643.28525")
#loc645 = loc("p644.28530")
#loc646 = loc("p645.28537")
#loc647 = loc("p646.28548")
#loc648 = loc("p647.28567")
#loc649 = loc("p648.28660")
#loc650 = loc("p649.28737")
#loc651 = loc("p650.28759")
#loc652 = loc("p651.28787")
#loc653 = loc("p652.28880")
#loc654 = loc("p653.28947")
#loc655 = loc("p654.28954")
#loc656 = loc("p655.28965")
#loc657 = loc("p656.28970")
#loc658 = loc("p657.28977")
#loc659 = loc("p658.28988")
#loc660 = loc("p659.29007")
#loc661 = loc("p660.29100")
#loc662 = loc("p661.29177")
#loc663 = loc("p662.29199")
#loc664 = loc("p663.29227")
#loc665 = loc("p664.29320")
#loc666 = loc("p665.29387")
#loc667 = loc("p666.29394")
#loc668 = loc("p667.29405")
#loc669 = loc("p668.29410")
#loc670 = loc("p669.29417")
#loc671 = loc("p670.29428")
#loc672 = loc("p671.29447")
#loc673 = loc("p672.29540")
#loc674 = loc("p673.29617")
#loc675 = loc("p674.29639")
#loc676 = loc("p675.29667")
#loc677 = loc("p676.29760")
#loc678 = loc("p677.29827")
#loc679 = loc("p678.29834")
#loc680 = loc("p679.29845")
#loc681 = loc("p680.29850")
#loc682 = loc("p681.29857")
#loc683 = loc("p682.29868")
#loc684 = loc("p683.29887")
#loc685 = loc("p684.29980")
#loc686 = loc("p685.30057")
#loc687 = loc("p686.30079")
#loc688 = loc("p687.30107")
#loc689 = loc("p688.30200")
#loc690 = loc("p689.30267")
#loc691 = loc("p690.30274")
#loc692 = loc("p691.30285")
#loc693 = loc("p692.30290")
#loc694 = loc("p693.30297")
#loc695 = loc("p694.30308")
#loc696 = loc("p695.30327")
#loc697 = loc("p696.30420")
#loc698 = loc("p697.30497")
#loc699 = loc("p698.30519")
#loc700 = loc("p699.30547")
#loc701 = loc("p700.30640")
#loc702 = loc("p701.30707")
#loc703 = loc("p702.30714")
#loc704 = loc("p703.30725")
#loc705 = loc("p704.30730")
#loc706 = loc("p705.30737")
#loc707 = loc("p706.30748")
#loc708 = loc("p707.30767")
#loc709 = loc("p708.30860")
#loc710 = loc("p709.30937")
#loc711 = loc("p710.30959")
#loc712 = loc("p711.30987")
#loc713 = loc("p712.31080")
#loc714 = loc("p713.31147")
#loc715 = loc("p714.31154")
#loc716 = loc("p715.31165")
#loc717 = loc("p716.31170")
#loc718 = loc("p717.31177")
#loc719 = loc("p718.31188")
#loc720 = loc("p719.31207")
#loc721 = loc("p720.31300")
#loc722 = loc("p721.31377")
#loc723 = loc("p722.31399")
#loc724 = loc("p723.31427")
#loc725 = loc("p724.31520")
#loc726 = loc("p725.31587")
#loc727 = loc("p726.31594")
#loc728 = loc("p727.31605")
#loc729 = loc("p728.31610")
#loc730 = loc("p729.31617")
#loc731 = loc("p730.31628")
#loc732 = loc("p731.31647")
#loc733 = loc("p732.31740")
#loc734 = loc("p733.31817")
#loc735 = loc("p734.31839")
#loc736 = loc("p735.31867")
#loc737 = loc("p736.31960")
#loc738 = loc("p737.32027")
#loc739 = loc("p738.32034")
#loc740 = loc("p739.32045")
#loc741 = loc("p740.32050")
#loc742 = loc("p741.32057")
#loc743 = loc("p742.32068")
#loc744 = loc("p743.32087")
#loc745 = loc("p744.32180")
#loc746 = loc("p745.32257")
#loc747 = loc("p746.32279")
#loc748 = loc("p747.32307")
#loc749 = loc("p748.32400")
#loc750 = loc("p749.32467")
#loc751 = loc("p750.32474")
#loc752 = loc("p751.32485")
#loc753 = loc("p752.32490")
#loc754 = loc("p753.32497")
#loc755 = loc("p754.32508")
#loc756 = loc("p755.32527")
#loc757 = loc("p756.32620")
#loc758 = loc("p757.32697")
#loc759 = loc("p758.32719")
#loc760 = loc("p759.32747")
#loc761 = loc("p760.32840")
#loc762 = loc("p761.32907")
#loc763 = loc("p762.32914")
#loc764 = loc("p763.32925")
#loc765 = loc("p764.32930")
#loc766 = loc("p765.32937")
#loc767 = loc("p766.32948")
#loc768 = loc("p767.32967")
#loc769 = loc("p768.33060")
#loc770 = loc("p769.33137")
#loc771 = loc("p770.33159")
#loc772 = loc("p771.33187")
#loc773 = loc("p772.33280")
#loc774 = loc("p773.33347")
#loc775 = loc("p774.33354")
#loc776 = loc("p775.33365")
#loc777 = loc("p776.33370")
#loc778 = loc("p777.33377")
#loc779 = loc("p778.33388")
#loc780 = loc("p779.33407")
#loc781 = loc("p780.33500")
#loc782 = loc("p781.33577")
#loc783 = loc("p782.33599")
#loc784 = loc("p783.33627")
#loc785 = loc("p784.33720")
#loc902 = loc("reduce-window.25981")
#loc6205 = loc("reduce-window.26051")
#loc6245 = loc("reduce-window.25921")
#loc6383 = loc("reduce-window.26345")
#loc10240 = loc("custom-call.33728")
#loc10249 = loc("custom-call.33288")
#loc10258 = loc("custom-call.33068")
#loc10267 = loc("custom-call.32628")
#loc10276 = loc("custom-call.32408")
#loc10285 = loc("custom-call.31748")
#loc10294 = loc("custom-call.31528")
#loc10303 = loc("custom-call.31088")
#loc10312 = loc("custom-call.30428")
#loc10321 = loc("custom-call.29988")
#loc10330 = loc("custom-call.29768")
#loc10339 = loc("custom-call.29548")
#loc10348 = loc("custom-call.29328")
#loc10357 = loc("custom-call.28888")
#loc10366 = loc("custom-call.28668")
#loc10375 = loc("custom-call.14667")
#loc10376 = loc("custom-call.10866")
#loc10377 = loc("custom-call.10865")
#loc10396 = loc("custom-call.14522")
#loc10397 = loc("custom-call.10876")
#loc10398 = loc("custom-call.10875")
#loc10417 = loc("custom-call.3655")
#loc10418 = loc("custom-call.2936")
#loc10419 = loc("custom-call.2931")
#loc10438 = loc("custom-call.14265")
#loc10439 = loc("custom-call.10898")
#loc10440 = loc("custom-call.10897")
#loc10459 = loc("custom-call.3109")
#loc10460 = loc("custom-call.3076")
#loc10461 = loc("custom-call.3071")
#loc10480 = loc("custom-call.13639")
#loc10481 = loc("custom-call.10954")
#loc10482 = loc("custom-call.10953")
#loc10501 = loc("custom-call.25648")
#loc10502 = loc("custom-call.18220")
#loc10503 = loc("custom-call.18219")
#loc10522 = loc("custom-call.17321")
#loc10531 = loc("custom-call.13494")
#loc10532 = loc("custom-call.10964")
#loc10533 = loc("custom-call.10963")
#loc10552 = loc("custom-call.32188")
#loc10561 = loc("custom-call.13466")
#loc10570 = loc("custom-call.13209")
#loc10579 = loc("custom-call.23676")
#loc10588 = loc("custom-call.12695")
#loc10597 = loc("custom-call.12354")
#loc10598 = loc("custom-call.11064")
#loc10599 = loc("custom-call.11063")
#loc10618 = loc("custom-call.31968")
#loc10627 = loc("custom-call.5181")
#loc10628 = loc("custom-call.2552")
#loc10629 = loc("custom-call.2547")
#loc10648 = loc("custom-call.12438")
#loc10657 = loc("custom-call.9360")
#loc10666 = loc("custom-call.9822")
#loc10667 = loc("custom-call.1362")
#loc10668 = loc("custom-call.1357")
#loc10687 = loc("custom-call.15779")
#loc10696 = loc("custom-call.14410")
#loc10697 = loc("custom-call.10888")
#loc10698 = loc("custom-call.10887")
#loc10717 = loc("custom-call.14153")
#loc10718 = loc("custom-call.10910")
#loc10719 = loc("custom-call.10909")
#loc10738 = loc("custom-call.12097")
#loc10739 = loc("custom-call.11086")
#loc10740 = loc("custom-call.11085")
#loc10759 = loc("custom-call.8184")
#loc10760 = loc("custom-call.1782")
#loc10761 = loc("custom-call.1777")
#loc10780 = loc("custom-call.12611")
#loc10781 = loc("custom-call.11042")
#loc10782 = loc("custom-call.11041")
#loc10801 = loc("custom-call.14779")
#loc10802 = loc("custom-call.10854")
#loc10803 = loc("custom-call.10853")
#loc10822 = loc("custom-call.3928")
#loc10823 = loc("custom-call.2866")
#loc10824 = loc("custom-call.2861")
#loc10843 = loc("custom-call.11952")
#loc10844 = loc("custom-call.11096")
#loc10845 = loc("custom-call.11095")
#loc10864 = loc("custom-call.9549")
#loc10865 = loc("custom-call.1432")
#loc10866 = loc("custom-call.1427")
#loc10885 = loc("custom-call.11924")
#loc10894 = loc("custom-call.11695")
#loc10895 = loc("custom-call.11118")
#loc10896 = loc("custom-call.11117")
#loc10915 = loc("custom-call.11583")
#loc10916 = loc("custom-call.11130")
#loc10917 = loc("custom-call.11129")
#loc10936 = loc("custom-call.11410")
#loc10945 = loc("custom-call.19849")
#loc10946 = loc("custom-call.18714")
#loc10947 = loc("custom-call.18713")
#loc10966 = loc("custom-call.25503")
#loc10967 = loc("custom-call.18230")
#loc10968 = loc("custom-call.18229")
#loc10987 = loc("custom-call.25760")
#loc10988 = loc("custom-call.18208")
#loc10989 = loc("custom-call.18207")
#loc11008 = loc("custom-call.16835")
#loc11009 = loc("custom-call.10678")
#loc11010 = loc("custom-call.10677")
#loc11029 = loc("custom-call.9661")
#loc11030 = loc("custom-call.1396")
#loc11031 = loc("custom-call.1391")
#loc11050 = loc("custom-call.25246")
#loc11051 = loc("custom-call.18252")
#loc11052 = loc("custom-call.18251")
#loc11071 = loc("custom-call.5020")
#loc11072 = loc("custom-call.2586")
#loc11073 = loc("custom-call.2581")
#loc11092 = loc("custom-call.27788")
#loc11101 = loc("custom-call.25134")
#loc11102 = loc("custom-call.18264")
#loc11103 = loc("custom-call.18263")
#loc11122 = loc("custom-call.25218")
#loc11131 = loc("custom-call.24989")
#loc11132 = loc("custom-call.18274")
#loc11133 = loc("custom-call.18273")
#loc11152 = loc("custom-call.24877")
#loc11153 = loc("custom-call.18286")
#loc11154 = loc("custom-call.18285")
#loc11173 = loc("custom-call.14237")
#loc11182 = loc("custom-call.21648")
#loc11183 = loc("custom-call.18560")
#loc11184 = loc("custom-call.18559")
#loc11203 = loc("custom-call.24704")
#loc11212 = loc("custom-call.24620")
#loc11213 = loc("custom-call.18308")
#loc11214 = loc("custom-call.18307")
#loc11233 = loc("custom-call.24475")
#loc11234 = loc("custom-call.18318")
#loc11235 = loc("custom-call.18317")
#loc11254 = loc("custom-call.11181")
#loc11255 = loc("custom-call.11162")
#loc11256 = loc("custom-call.11161")
#loc11275 = loc("custom-call.5727")
#loc11276 = loc("custom-call.2412")
#loc11277 = loc("custom-call.2407")
#loc11296 = loc("custom-call.24190")
#loc11305 = loc("custom-call.24961")
#loc11314 = loc("custom-call.23961")
#loc11315 = loc("custom-call.18362")
#loc11316 = loc("custom-call.18361")
#loc11335 = loc("custom-call.23704")
#loc11336 = loc("custom-call.18384")
#loc11337 = loc("custom-call.18383")
#loc11356 = loc("custom-call.11840")
#loc11357 = loc("custom-call.11108")
#loc11358 = loc("custom-call.11107")
#loc11377 = loc("custom-call.21134")
#loc11378 = loc("custom-call.18604")
#loc11379 = loc("custom-call.18603")
#loc11398 = loc("custom-call.21279")
#loc11399 = loc("custom-call.18594")
#loc11400 = loc("custom-call.18593")
#loc11419 = loc("custom-call.20877")
#loc11420 = loc("custom-call.18626")
#loc11421 = loc("custom-call.18625")
#loc11440 = loc("custom-call.16466")
#loc11441 = loc("custom-call.10712")
#loc11442 = loc("custom-call.10711")
#loc11461 = loc("custom-call.29108")
#loc11470 = loc("custom-call.28448")
#loc11479 = loc("custom-call.20363")
#loc11480 = loc("custom-call.18670")
#loc11481 = loc("custom-call.18669")
#loc11500 = loc("custom-call.25475")
#loc11509 = loc("custom-call.6385")
#loc11510 = loc("custom-call.2236")
#loc11511 = loc("custom-call.2231")
#loc11530 = loc("custom-call.23592")
#loc11531 = loc("custom-call.18396")
#loc11532 = loc("custom-call.18395")
#loc11551 = loc("custom-call.14494")
#loc11560 = loc("custom-call.19480")
#loc11561 = loc("custom-call.18748")
#loc11562 = loc("custom-call.18747")
#loc11581 = loc("custom-call.13237")
#loc11582 = loc("custom-call.10986")
#loc11583 = loc("custom-call.10985")
#loc11602 = loc("custom-call.17606")
#loc11603 = loc("custom-call.10612")
#loc11604 = loc("custom-call.10611")
#loc11623 = loc("custom-call.12952")
#loc11632 = loc("custom-call.17494")
#loc11633 = loc("custom-call.10624")
#loc11634 = loc("custom-call.10623")
#loc11653 = loc("custom-call.18008")
#loc11654 = loc("custom-call.10580")
#loc11655 = loc("custom-call.10579")
#loc11674 = loc("custom-call.20508")
#loc11675 = loc("custom-call.18660")
#loc11676 = loc("custom-call.18659")
#loc11695 = loc("custom-call.10095")
#loc11696 = loc("custom-call.1292")
#loc11697 = loc("custom-call.1287")
#loc11716 = loc("custom-call.20078")
#loc11725 = loc("custom-call.11326")
#loc11726 = loc("custom-call.11152")
#loc11727 = loc("custom-call.11151")
#loc11746 = loc("custom-call.6630")
#loc11755 = loc("custom-call.12209")
#loc11756 = loc("custom-call.11074")
#loc11757 = loc("custom-call.11073")
#loc11776 = loc("custom-call.14008")
#loc11777 = loc("custom-call.10920")
#loc11778 = loc("custom-call.10919")
#loc11797 = loc("custom-call.25732")
#loc11806 = loc("custom-call.3382")
#loc11807 = loc("custom-call.3006")
#loc11808 = loc("custom-call.3001")
#loc11827 = loc("custom-call.14751")
#loc11836 = loc("custom-call.18821")
#loc11837 = loc("custom-call.18802")
#loc11838 = loc("custom-call.18801")
#loc11857 = loc("custom-call.25391")
#loc11858 = loc("custom-call.18242")
#loc11859 = loc("custom-call.18241")
#loc11878 = loc("custom-call.21022")
#loc11879 = loc("custom-call.18616")
#loc11880 = loc("custom-call.18615")
#loc11899 = loc("custom-call.26206")
#loc11908 = loc("custom-call.19078")
#loc11909 = loc("custom-call.18780")
#loc11910 = loc("custom-call.18779")
#loc11929 = loc("custom-call.21620")
#loc11938 = loc("custom-call.24106")
#loc11939 = loc("custom-call.18352")
#loc11940 = loc("custom-call.18351")
#loc11959 = loc("custom-call.14924")
#loc11960 = loc("custom-call.10844")
#loc11961 = loc("custom-call.10843")
#loc11980 = loc("custom-call.4992")
#loc11989 = loc("custom-call.21106")
#loc11998 = loc("custom-call.22564")
#loc11999 = loc("custom-call.18484")
#loc12000 = loc("custom-call.18483")
#loc12019 = loc("custom-call.3354")
#loc12028 = loc("custom-call.30868")
#loc12037 = loc("custom-call.23162")
#loc12046 = loc("custom-call.20849")
#loc12055 = loc("custom-call.30208")
#loc12064 = loc("custom-call.24447")
#loc12073 = loc("custom-call.19223")
#loc12074 = loc("custom-call.18770")
#loc12075 = loc("custom-call.18769")
#loc12094 = loc("custom-call.21536")
#loc12095 = loc("custom-call.18572")
#loc12096 = loc("custom-call.18571")
#loc12115 = loc("custom-call.15181")
#loc12116 = loc("custom-call.10822")
#loc12117 = loc("custom-call.10821")
#loc12136 = loc("custom-call.23849")
#loc12137 = loc("custom-call.18374")
#loc12138 = loc("custom-call.18373")
#loc12157 = loc("custom-call.20106")
#loc12158 = loc("custom-call.18692")
#loc12159 = loc("custom-call.18691")
#loc12178 = loc("custom-call.8541")
#loc12187 = loc("custom-call.11667")
#loc12196 = loc("custom-call.19592")
#loc12197 = loc("custom-call.18736")
#loc12198 = loc("custom-call.18735")
#loc12217 = loc("custom-call.10179")
#loc12226 = loc("custom-call.12181")
#loc12235 = loc("custom-call.22391")
#loc12244 = loc("custom-call.11438")
#loc12245 = loc("custom-call.11140")
#loc12246 = loc("custom-call.11139")
#loc12265 = loc("custom-call.23933")
#loc12274 = loc("custom-call.15036")
#loc12275 = loc("custom-call.10832")
#loc12276 = loc("custom-call.10831")
#loc12295 = loc("custom-call.19050")
#loc12304 = loc("custom-call.7722")
#loc12313 = loc("custom-call.9906")
#loc12322 = loc("custom-call.19821")
#loc12331 = loc("custom-call.13125")
#loc12332 = loc("custom-call.10998")
#loc12333 = loc("custom-call.10997")
#loc12352 = loc("custom-call.19335")
#loc12353 = loc("custom-call.18758")
#loc12354 = loc("custom-call.18757")
#loc12373 = loc("custom-call.19737")
#loc12374 = loc("custom-call.18726")
#loc12375 = loc("custom-call.18725")
#loc12394 = loc("custom-call.12466")
#loc12395 = loc("custom-call.11052")
#loc12396 = loc("custom-call.11051")
#loc12415 = loc("custom-call.4474")
#loc12416 = loc("custom-call.2726")
#loc12417 = loc("custom-call.2721")
#loc12436 = loc("custom-call.22821")
#loc12437 = loc("custom-call.18462")
#loc12438 = loc("custom-call.18461")
#loc12457 = loc("custom-call.15695")
#loc12458 = loc("custom-call.10778")
#loc12459 = loc("custom-call.10777")
#loc12478 = loc("custom-call.12868")
#loc12479 = loc("custom-call.11020")
#loc12480 = loc("custom-call.11019")
#loc12499 = loc("custom-call.13382")
#loc12500 = loc("custom-call.10976")
#loc12501 = loc("custom-call.10975")
#loc12520 = loc("custom-call.32848")
#loc12529 = loc("custom-call.22648")
#loc12538 = loc("custom-call.22134")
#loc12547 = loc("custom-call.15807")
#loc12548 = loc("custom-call.10766")
#loc12549 = loc("custom-call.10765")
#loc12568 = loc("custom-call.16036")
#loc12577 = loc("custom-call.21363")
#loc12586 = loc("custom-call.8296")
#loc12587 = loc("custom-call.1746")
#loc12588 = loc("custom-call.1741")
#loc12607 = loc("custom-call.13751")
#loc12608 = loc("custom-call.10942")
#loc12609 = loc("custom-call.10941")
#loc12628 = loc("custom-call.10480")
#loc12629 = loc("custom-call.1186")
#loc12630 = loc("custom-call.1181")
#loc12649 = loc("custom-call.21391")
#loc12650 = loc("custom-call.18582")
#loc12651 = loc("custom-call.18581")
#loc12670 = loc("custom-call.26468")
#loc12679 = loc("custom-call.15008")
#loc12688 = loc("custom-call.12980")
#loc12689 = loc("custom-call.11008")
#loc12690 = loc("custom-call.11007")
#loc12709 = loc("custom-call.7204")
#loc12710 = loc("custom-call.2026")
#loc12711 = loc("custom-call.2021")
#loc12730 = loc("custom-call.20765")
#loc12731 = loc("custom-call.18638")
#loc12732 = loc("custom-call.18637")
#loc12751 = loc("custom-call.33508")
#loc12760 = loc("custom-call.20620")
#loc12761 = loc("custom-call.18648")
#loc12762 = loc("custom-call.18647")
#loc12781 = loc("custom-call.7638")
#loc12782 = loc("custom-call.1922")
#loc12783 = loc("custom-call.1917")
#loc12802 = loc("custom-call.23190")
#loc12803 = loc("custom-call.18428")
#loc12804 = loc("custom-call.18427")
#loc12823 = loc("custom-call.6357")
#loc12832 = loc("custom-call.23419")
#loc12841 = loc("custom-call.24732")
#loc12842 = loc("custom-call.18296")
#loc12843 = loc("custom-call.18295")
#loc12862 = loc("custom-call.22307")
#loc12863 = loc("custom-call.18506")
#loc12864 = loc("custom-call.18505")
#loc12883 = loc("custom-call.4362")
#loc12884 = loc("custom-call.2762")
#loc12885 = loc("custom-call.2757")
#loc12904 = loc("custom-call.22419")
#loc12905 = loc("custom-call.18494")
#loc12906 = loc("custom-call.18493")
#loc12925 = loc("custom-call.10368")
#loc12926 = loc("custom-call.1222")
#loc12927 = loc("custom-call.1217")
#loc12946 = loc("custom-call.20251")
#loc12947 = loc("custom-call.18682")
#loc12948 = loc("custom-call.18681")
#loc12967 = loc("custom-call.22933")
#loc12968 = loc("custom-call.18450")
#loc12969 = loc("custom-call.18449")
#loc12988 = loc("custom-call.21877")
#loc12997 = loc("custom-call.28228")
#loc13006 = loc("custom-call.20335")
#loc13015 = loc("custom-call.13980")
#loc13024 = loc("custom-call.21793")
#loc13025 = loc("custom-call.18550")
#loc13026 = loc("custom-call.18549")
#loc13045 = loc("custom-call.21905")
#loc13046 = loc("custom-call.18538")
#loc13047 = loc("custom-call.18537")
#loc13066 = loc("custom-call.16064")
#loc13067 = loc("custom-call.10744")
#loc13068 = loc("custom-call.10743")
#loc13087 = loc("custom-call.22162")
#loc13088 = loc("custom-call.18516")
#loc13089 = loc("custom-call.18515")
#loc13108 = loc("custom-call.10207")
#loc13109 = loc("custom-call.1256")
#loc13110 = loc("custom-call.1251")
#loc13129 = loc("custom-call.8268")
#loc13138 = loc("custom-call.22050")
#loc13139 = loc("custom-call.18528")
#loc13140 = loc("custom-call.18527")
#loc13159 = loc("custom-call.22676")
#loc13160 = loc("custom-call.18472")
#loc13161 = loc("custom-call.18471")
#loc13180 = loc("custom-call.22905")
#loc13189 = loc("custom-call.7365")
#loc13190 = loc("custom-call.1992")
#loc13191 = loc("custom-call.1987")
#loc13210 = loc("custom-call.13723")
#loc13219 = loc("custom-call.23078")
#loc13220 = loc("custom-call.18440")
#loc13221 = loc("custom-call.18439")
#loc13240 = loc("custom-call.12723")
#loc13241 = loc("custom-call.11030")
#loc13242 = loc("custom-call.11029")
#loc13261 = loc("custom-call.15265")
#loc13270 = loc("custom-call.15293")
#loc13271 = loc("custom-call.10810")
#loc13272 = loc("custom-call.10809")
#loc13291 = loc("custom-call.8569")
#loc13292 = loc("custom-call.1676")
#loc13293 = loc("custom-call.1671")
#loc13312 = loc("custom-call.15522")
#loc13321 = loc("custom-call.15550")
#loc13322 = loc("custom-call.10788")
#loc13323 = loc("custom-call.10787")
#loc13342 = loc("custom-call.15952")
#loc13343 = loc("custom-call.10756")
#loc13344 = loc("custom-call.10755")
#loc13363 = loc("custom-call.16293")
#loc13372 = loc("custom-call.16321")
#loc13373 = loc("custom-call.10722")
#loc13374 = loc("custom-call.10721")
#loc13393 = loc("custom-call.16550")
#loc13402 = loc("custom-call.16723")
#loc13403 = loc("custom-call.10690")
#loc13404 = loc("custom-call.10689")
#loc13423 = loc("custom-call.31308")
#loc13432 = loc("custom-call.9003")
#loc13433 = loc("custom-call.1572")
#loc13434 = loc("custom-call.1567")
#loc13453 = loc("custom-call.16807")
#loc13462 = loc("custom-call.6273")
#loc13463 = loc("custom-call.2272")
#loc13464 = loc("custom-call.2267")
#loc13483 = loc("custom-call.17064")
#loc13492 = loc("custom-call.16209")
#loc13493 = loc("custom-call.10734")
#loc13494 = loc("custom-call.10733")
#loc13513 = loc("custom-call.17092")
#loc13514 = loc("custom-call.10656")
#loc13515 = loc("custom-call.10655")
#loc13534 = loc("custom-call.17237")
#loc13535 = loc("custom-call.10646")
#loc13536 = loc("custom-call.10645")
#loc13555 = loc("custom-call.4173")
#loc13564 = loc("custom-call.24218")
#loc13565 = loc("custom-call.18340")
#loc13566 = loc("custom-call.18339")
#loc13585 = loc("custom-call.23447")
#loc13586 = loc("custom-call.18406")
#loc13587 = loc("custom-call.18405")
#loc13606 = loc("custom-call.17349")
#loc13607 = loc("custom-call.10634")
#loc13608 = loc("custom-call.10633")
#loc13627 = loc("custom-call.17578")
#loc13636 = loc("custom-call.16578")
#loc13637 = loc("custom-call.10700")
#loc13638 = loc("custom-call.10699")
#loc13657 = loc("custom-call.5839")
#loc13658 = loc("custom-call.2376")
#loc13659 = loc("custom-call.2371")
#loc13678 = loc("custom-call.17751")
#loc13679 = loc("custom-call.10602")
#loc13680 = loc("custom-call.10601")
#loc13699 = loc("custom-call.17863")
#loc13700 = loc("custom-call.10590")
#loc13701 = loc("custom-call.10589")
#loc13720 = loc("custom-call.18092")
#loc13729 = loc("custom-call.18120")
#loc13730 = loc("custom-call.10568")
#loc13731 = loc("custom-call.10567")
#loc13750 = loc("custom-call.27128")
#loc13759 = loc("custom-call.5293")
#loc13760 = loc("custom-call.2516")
#loc13761 = loc("custom-call.2511")
#loc13780 = loc("custom-call.3270")
#loc13781 = loc("custom-call.3042")
#loc13782 = loc("custom-call.3037")
#loc13801 = loc("custom-call.3543")
#loc13802 = loc("custom-call.2972")
#loc13803 = loc("custom-call.2967")
#loc13822 = loc("custom-call.18966")
#loc13823 = loc("custom-call.18792")
#loc13824 = loc("custom-call.18791")
#loc13843 = loc("custom-call.9388")
#loc13844 = loc("custom-call.1466")
#loc13845 = loc("custom-call.1461")
#loc13864 = loc("custom-call.6931")
#loc13865 = loc("custom-call.2096")
#loc13866 = loc("custom-call.2091")
#loc13885 = loc("custom-call.3627")
#loc13894 = loc("custom-call.19564")
#loc13903 = loc("custom-call.5454")
#loc13904 = loc("custom-call.2482")
#loc13905 = loc("custom-call.2477")
#loc13924 = loc("custom-call.15438")
#loc13925 = loc("custom-call.10800")
#loc13926 = loc("custom-call.10799")
#loc13945 = loc("custom-call.3816")
#loc13946 = loc("custom-call.2902")
#loc13947 = loc("custom-call.2897")
#loc13966 = loc("custom-call.7449")
#loc13975 = loc("custom-call.19994")
#loc13976 = loc("custom-call.18704")
#loc13977 = loc("custom-call.18703")
#loc13996 = loc("custom-call.27568")
#loc14005 = loc("custom-call.3900")
#loc14014 = loc("custom-call.19307")
#loc14023 = loc("custom-call.4446")
#loc14032 = loc("custom-call.4089")
#loc14033 = loc("custom-call.2832")
#loc14034 = loc("custom-call.2827")
#loc14053 = loc("custom-call.23335")
#loc14054 = loc("custom-call.18418")
#loc14055 = loc("custom-call.18417")
#loc14074 = loc("custom-call.4201")
#loc14075 = loc("custom-call.2796")
#loc14076 = loc("custom-call.2791")
#loc14095 = loc("custom-call.4635")
#loc14096 = loc("custom-call.2692")
#loc14097 = loc("custom-call.2687")
#loc14116 = loc("custom-call.26908")
#loc14125 = loc("custom-call.4719")
#loc14134 = loc("custom-call.4747")
#loc14135 = loc("custom-call.2656")
#loc14136 = loc("custom-call.2651")
#loc14155 = loc("custom-call.4908")
#loc14156 = loc("custom-call.2622")
#loc14157 = loc("custom-call.2617")
#loc14176 = loc("custom-call.5265")
#loc14185 = loc("custom-call.5566")
#loc14186 = loc("custom-call.2446")
#loc14187 = loc("custom-call.2441")
#loc14206 = loc("custom-call.5811")
#loc14215 = loc("custom-call.8814")
#loc14224 = loc("custom-call.6000")
#loc14225 = loc("custom-call.2342")
#loc14226 = loc("custom-call.2337")
#loc14245 = loc("custom-call.6084")
#loc14254 = loc("custom-call.20592")
#loc14263 = loc("custom-call.6112")
#loc14264 = loc("custom-call.2306")
#loc14265 = loc("custom-call.2301")
#loc14284 = loc("custom-call.6546")
#loc14285 = loc("custom-call.2202")
#loc14286 = loc("custom-call.2197")
#loc14305 = loc("custom-call.6658")
#loc14306 = loc("custom-call.2166")
#loc14307 = loc("custom-call.2161")
#loc14326 = loc("custom-call.6819")
#loc14327 = loc("custom-call.2132")
#loc14328 = loc("custom-call.2127")
#loc14347 = loc("custom-call.9934")
#loc14348 = loc("custom-call.1326")
#loc14349 = loc("custom-call.1321")
#loc14368 = loc("custom-call.9276")
#loc14369 = loc("custom-call.1502")
#loc14370 = loc("custom-call.1497")
#loc14389 = loc("custom-call.6903")
#loc14398 = loc("custom-call.7092")
#loc14399 = loc("custom-call.2062")
#loc14400 = loc("custom-call.2057")
#loc14419 = loc("custom-call.24363")
#loc14420 = loc("custom-call.18330")
#loc14421 = loc("custom-call.18329")
#loc14440 = loc("custom-call.7176")
#loc14449 = loc("custom-call.7477")
#loc14450 = loc("custom-call.1956")
#loc14451 = loc("custom-call.1951")
#loc14470 = loc("custom-call.17835")
#loc14479 = loc("custom-call.7750")
#loc14480 = loc("custom-call.1886")
#loc14481 = loc("custom-call.1881")
#loc14500 = loc("custom-call.7911")
#loc14501 = loc("custom-call.1852")
#loc14502 = loc("custom-call.1847")
#loc14521 = loc("custom-call.13896")
#loc14522 = loc("custom-call.10932")
#loc14523 = loc("custom-call.10931")
#loc14542 = loc("custom-call.16980")
#loc14543 = loc("custom-call.10668")
#loc14544 = loc("custom-call.10667")
#loc14563 = loc("custom-call.7995")
#loc14572 = loc("custom-call.8023")
#loc14573 = loc("custom-call.1816")
#loc14574 = loc("custom-call.1811")
#loc14593 = loc("custom-call.8457")
#loc14594 = loc("custom-call.1712")
#loc14595 = loc("custom-call.1707")
#loc14614 = loc("custom-call.30648")
#loc14623 = loc("custom-call.8730")
#loc14624 = loc("custom-call.1642")
#loc14625 = loc("custom-call.1637")
#loc14644 = loc("custom-call.8842")
#loc14645 = loc("custom-call.1606")
#loc14646 = loc("custom-call.1601")
#loc14665 = loc("custom-call.9087")
#loc14674 = loc("custom-call.9115")
#loc14675 = loc("custom-call.1536")
#loc14676 = loc("custom-call.1531")
#loc14695 = loc("custom-call.9633")
#loc14704 = loc("custom-call.10452")
#loc14713 = loc("custom-call.26688")
#loc14722 = loc("custom-call.27348")
#loc14731 = loc("custom-call.5538")
#loc14740 = loc("custom-call.28008")
module @SyncTensorsGraph.33806 attributes {mhlo.cross_program_prefetches = [], mhlo.input_output_alias = [], mhlo.is_dynamic = false, mhlo.use_auto_spmd_partitioning = false} {
  func.func @main(%arg0: tensor<1024xf32> loc("p0.72"), %arg1: tensor<1024x32xf32> loc("p1.79"), %arg2: tensor<1x32xf32> loc("p2.84"), %arg3: tensor<1024xf32> loc("p3.110"), %arg4: tensor<1024x32xf32> loc("p4.114"), %arg5: tensor<32xf32> loc("p5.122"), %arg6: tensor<32x1024xf32> loc("p6.126"), %arg7: tensor<1024xf32> loc("p7.133"), %arg8: tensor<1024x4096xf32> loc("p8.144"), %arg9: tensor<4096x1024xf32> loc("p9.149"), %arg10: tensor<1024xf32> loc("p10.156"), %arg11: tensor<1024x2048xf32> loc("p11.167"), %arg12: tensor<256x1024xf32> loc("p12.172"), %arg13: tensor<1024xf32> loc("p13.179"), %arg14: tensor<1024x4096xf32> loc("p14.190"), %arg15: tensor<4096x1024xf32> loc("p15.195"), %arg16: tensor<1024xf32> loc("p16.202"), %arg17: tensor<1024x2048xf32> loc("p17.213"), %arg18: tensor<256x1024xf32> loc("p18.218"), %arg19: tensor<1024xf32> loc("p19.225"), %arg20: tensor<1024x4096xf32> loc("p20.236"), %arg21: tensor<4096x1024xf32> loc("p21.241"), %arg22: tensor<1024xf32> loc("p22.248"), %arg23: tensor<1024x2048xf32> loc("p23.259"), %arg24: tensor<256x1024xf32> loc("p24.264"), %arg25: tensor<1024xf32> loc("p25.271"), %arg26: tensor<1024x4096xf32> loc("p26.282"), %arg27: tensor<4096x1024xf32> loc("p27.287"), %arg28: tensor<1024xf32> loc("p28.294"), %arg29: tensor<1024x2048xf32> loc("p29.305"), %arg30: tensor<256x1024xf32> loc("p30.310"), %arg31: tensor<1024xf32> loc("p31.317"), %arg32: tensor<1024x4096xf32> loc("p32.328"), %arg33: tensor<4096x1024xf32> loc("p33.333"), %arg34: tensor<1024xf32> loc("p34.340"), %arg35: tensor<1024x2048xf32> loc("p35.351"), %arg36: tensor<256x1024xf32> loc("p36.356"), %arg37: tensor<1024xf32> loc("p37.363"), %arg38: tensor<1024x4096xf32> loc("p38.374"), %arg39: tensor<4096x1024xf32> loc("p39.379"), %arg40: tensor<1024xf32> loc("p40.386"), %arg41: tensor<1024x2048xf32> loc("p41.397"), %arg42: tensor<256x1024xf32> loc("p42.402"), %arg43: tensor<1024xf32> loc("p43.409"), %arg44: tensor<1024x4096xf32> loc("p44.420"), %arg45: tensor<4096x1024xf32> loc("p45.425"), %arg46: tensor<1024xf32> loc("p46.432"), %arg47: tensor<1024x2048xf32> loc("p47.443"), %arg48: tensor<256x1024xf32> loc("p48.448"), %arg49: tensor<1024xf32> loc("p49.455"), %arg50: tensor<1024x4096xf32> loc("p50.466"), %arg51: tensor<4096x1024xf32> loc("p51.471"), %arg52: tensor<1024xf32> loc("p52.478"), %arg53: tensor<1024x2048xf32> loc("p53.489"), %arg54: tensor<256x1024xf32> loc("p54.494"), %arg55: tensor<1024xf32> loc("p55.501"), %arg56: tensor<1024x4096xf32> loc("p56.512"), %arg57: tensor<4096x1024xf32> loc("p57.517"), %arg58: tensor<1024xf32> loc("p58.524"), %arg59: tensor<1024x2048xf32> loc("p59.535"), %arg60: tensor<256x1024xf32> loc("p60.540"), %arg61: tensor<1024xf32> loc("p61.547"), %arg62: tensor<1024x4096xf32> loc("p62.558"), %arg63: tensor<4096x1024xf32> loc("p63.563"), %arg64: tensor<1024xf32> loc("p64.570"), %arg65: tensor<1024x2048xf32> loc("p65.581"), %arg66: tensor<256x1024xf32> loc("p66.586"), %arg67: tensor<1024xf32> loc("p67.593"), %arg68: tensor<1024x4096xf32> loc("p68.604"), %arg69: tensor<4096x1024xf32> loc("p69.609"), %arg70: tensor<1024xf32> loc("p70.616"), %arg71: tensor<1024x2048xf32> loc("p71.627"), %arg72: tensor<256x1024xf32> loc("p72.632"), %arg73: tensor<1024xf32> loc("p73.639"), %arg74: tensor<1024x4096xf32> loc("p74.650"), %arg75: tensor<4096x1024xf32> loc("p75.655"), %arg76: tensor<1024xf32> loc("p76.662"), %arg77: tensor<1024x2048xf32> loc("p77.673"), %arg78: tensor<256x1024xf32> loc("p78.678"), %arg79: tensor<1024xf32> loc("p79.685"), %arg80: tensor<1024x4096xf32> loc("p80.696"), %arg81: tensor<4096x1024xf32> loc("p81.701"), %arg82: tensor<1024xf32> loc("p82.708"), %arg83: tensor<1024x2048xf32> loc("p83.719"), %arg84: tensor<256x1024xf32> loc("p84.724"), %arg85: tensor<1024xf32> loc("p85.731"), %arg86: tensor<1024x4096xf32> loc("p86.742"), %arg87: tensor<4096x1024xf32> loc("p87.747"), %arg88: tensor<1024xf32> loc("p88.754"), %arg89: tensor<1024x2048xf32> loc("p89.765"), %arg90: tensor<256x1024xf32> loc("p90.770"), %arg91: tensor<1024xf32> loc("p91.777"), %arg92: tensor<1024x4096xf32> loc("p92.788"), %arg93: tensor<4096x1024xf32> loc("p93.793"), %arg94: tensor<1024xf32> loc("p94.800"), %arg95: tensor<1024x2048xf32> loc("p95.811"), %arg96: tensor<256x1024xf32> loc("p96.816"), %arg97: tensor<1024xf32> loc("p97.823"), %arg98: tensor<1024x4096xf32> loc("p98.834"), %arg99: tensor<4096x1024xf32> loc("p99.839"), %arg100: tensor<1024xf32> loc("p100.846"), %arg101: tensor<1024x2048xf32> loc("p101.857"), %arg102: tensor<256x1024xf32> loc("p102.862"), %arg103: tensor<1024xf32> loc("p103.869"), %arg104: tensor<1024x4096xf32> loc("p104.880"), %arg105: tensor<4096x1024xf32> loc("p105.885"), %arg106: tensor<1024xf32> loc("p106.892"), %arg107: tensor<1024x2048xf32> loc("p107.903"), %arg108: tensor<256x1024xf32> loc("p108.908"), %arg109: tensor<1024xf32> loc("p109.915"), %arg110: tensor<1024x4096xf32> loc("p110.926"), %arg111: tensor<4096x1024xf32> loc("p111.931"), %arg112: tensor<1024xf32> loc("p112.938"), %arg113: tensor<1024x2048xf32> loc("p113.949"), %arg114: tensor<256x1024xf32> loc("p114.954"), %arg115: tensor<1024xf32> loc("p115.961"), %arg116: tensor<1024xf32> loc("p116.972"), %arg117: tensor<1024x1024xf32> loc("p117.976"), %arg118: tensor<1024xf32> loc("p118.982"), %arg119: tensor<1024x2048xf32> loc("p119.986"), %arg120: tensor<1x50x32xf32> loc("p120.1059"), %arg121: tensor<256x2048xf32> loc("p121.1134"), %arg122: tensor<2048xf32> loc("p122.1141"), %arg123: tensor<1x48xi64> loc("p123.1152"), %arg124: tensor<257152x2048xf32> loc("p124.1157"), %arg125: tensor<2048xf32> loc("p125.1167"), %arg126: tensor<2048x1152xf32> loc("p126.1171"), %arg127: tensor<1152xf32> loc("p127.1177"), %arg128: tensor<1152xf32> loc("p128.1182"), %arg129: tensor<1152xf32> loc("p129.1191"), %arg130: tensor<1152x4304xf32> loc("p130.1195"), %arg131: tensor<4304xf32> loc("p131.1203"), %arg132: tensor<4304x1152xf32> loc("p132.1207"), %arg133: tensor<1152xf32> loc("p133.1213"), %arg134: tensor<1152xf32> loc("p134.1218"), %arg135: tensor<1152xf32> loc("p135.1227"), %arg136: tensor<1152x1152xf32> loc("p136.1231"), %arg137: tensor<1152xf32> loc("p137.1237"), %arg138: tensor<1152x1152xf32> loc("p138.1241"), %arg139: tensor<1152xf32> loc("p139.1247"), %arg140: tensor<1152xf32> loc("p140.1252"), %arg141: tensor<1152xf32> loc("p141.1261"), %arg142: tensor<1152x4304xf32> loc("p142.1265"), %arg143: tensor<4304xf32> loc("p143.1273"), %arg144: tensor<4304x1152xf32> loc("p144.1277"), %arg145: tensor<1152xf32> loc("p145.1283"), %arg146: tensor<1152xf32> loc("p146.1288"), %arg147: tensor<1152xf32> loc("p147.1297"), %arg148: tensor<1152x1152xf32> loc("p148.1301"), %arg149: tensor<1152xf32> loc("p149.1307"), %arg150: tensor<1152x1152xf32> loc("p150.1311"), %arg151: tensor<1152xf32> loc("p151.1317"), %arg152: tensor<1152xf32> loc("p152.1322"), %arg153: tensor<1152xf32> loc("p153.1331"), %arg154: tensor<1152x4304xf32> loc("p154.1335"), %arg155: tensor<4304xf32> loc("p155.1343"), %arg156: tensor<4304x1152xf32> loc("p156.1347"), %arg157: tensor<1152xf32> loc("p157.1353"), %arg158: tensor<1152xf32> loc("p158.1358"), %arg159: tensor<1152xf32> loc("p159.1367"), %arg160: tensor<1152x1152xf32> loc("p160.1371"), %arg161: tensor<1152xf32> loc("p161.1377"), %arg162: tensor<1152x1152xf32> loc("p162.1381"), %arg163: tensor<1152xf32> loc("p163.1387"), %arg164: tensor<1152xf32> loc("p164.1392"), %arg165: tensor<1152xf32> loc("p165.1401"), %arg166: tensor<1152x4304xf32> loc("p166.1405"), %arg167: tensor<4304xf32> loc("p167.1413"), %arg168: tensor<4304x1152xf32> loc("p168.1417"), %arg169: tensor<1152xf32> loc("p169.1423"), %arg170: tensor<1152xf32> loc("p170.1428"), %arg171: tensor<1152xf32> loc("p171.1437"), %arg172: tensor<1152x1152xf32> loc("p172.1441"), %arg173: tensor<1152xf32> loc("p173.1447"), %arg174: tensor<1152x1152xf32> loc("p174.1451"), %arg175: tensor<1152xf32> loc("p175.1457"), %arg176: tensor<1152xf32> loc("p176.1462"), %arg177: tensor<1152xf32> loc("p177.1471"), %arg178: tensor<1152x4304xf32> loc("p178.1475"), %arg179: tensor<4304xf32> loc("p179.1483"), %arg180: tensor<4304x1152xf32> loc("p180.1487"), %arg181: tensor<1152xf32> loc("p181.1493"), %arg182: tensor<1152xf32> loc("p182.1498"), %arg183: tensor<1152xf32> loc("p183.1507"), %arg184: tensor<1152x1152xf32> loc("p184.1511"), %arg185: tensor<1152xf32> loc("p185.1517"), %arg186: tensor<1152x1152xf32> loc("p186.1521"), %arg187: tensor<1152xf32> loc("p187.1527"), %arg188: tensor<1152xf32> loc("p188.1532"), %arg189: tensor<1152xf32> loc("p189.1541"), %arg190: tensor<1152x4304xf32> loc("p190.1545"), %arg191: tensor<4304xf32> loc("p191.1553"), %arg192: tensor<4304x1152xf32> loc("p192.1557"), %arg193: tensor<1152xf32> loc("p193.1563"), %arg194: tensor<1152xf32> loc("p194.1568"), %arg195: tensor<1152xf32> loc("p195.1577"), %arg196: tensor<1152x1152xf32> loc("p196.1581"), %arg197: tensor<1152xf32> loc("p197.1587"), %arg198: tensor<1152x1152xf32> loc("p198.1591"), %arg199: tensor<1152xf32> loc("p199.1597"), %arg200: tensor<1152xf32> loc("p200.1602"), %arg201: tensor<1152xf32> loc("p201.1611"), %arg202: tensor<1152x4304xf32> loc("p202.1615"), %arg203: tensor<4304xf32> loc("p203.1623"), %arg204: tensor<4304x1152xf32> loc("p204.1627"), %arg205: tensor<1152xf32> loc("p205.1633"), %arg206: tensor<1152xf32> loc("p206.1638"), %arg207: tensor<1152xf32> loc("p207.1647"), %arg208: tensor<1152x1152xf32> loc("p208.1651"), %arg209: tensor<1152xf32> loc("p209.1657"), %arg210: tensor<1152x1152xf32> loc("p210.1661"), %arg211: tensor<1152xf32> loc("p211.1667"), %arg212: tensor<1152xf32> loc("p212.1672"), %arg213: tensor<1152xf32> loc("p213.1681"), %arg214: tensor<1152x4304xf32> loc("p214.1685"), %arg215: tensor<4304xf32> loc("p215.1693"), %arg216: tensor<4304x1152xf32> loc("p216.1697"), %arg217: tensor<1152xf32> loc("p217.1703"), %arg218: tensor<1152xf32> loc("p218.1708"), %arg219: tensor<1152xf32> loc("p219.1717"), %arg220: tensor<1152x1152xf32> loc("p220.1721"), %arg221: tensor<1152xf32> loc("p221.1727"), %arg222: tensor<1152x1152xf32> loc("p222.1731"), %arg223: tensor<1152xf32> loc("p223.1737"), %arg224: tensor<1152xf32> loc("p224.1742"), %arg225: tensor<1152xf32> loc("p225.1751"), %arg226: tensor<1152x4304xf32> loc("p226.1755"), %arg227: tensor<4304xf32> loc("p227.1763"), %arg228: tensor<4304x1152xf32> loc("p228.1767"), %arg229: tensor<1152xf32> loc("p229.1773"), %arg230: tensor<1152xf32> loc("p230.1778"), %arg231: tensor<1152xf32> loc("p231.1787"), %arg232: tensor<1152x1152xf32> loc("p232.1791"), %arg233: tensor<1152xf32> loc("p233.1797"), %arg234: tensor<1152x1152xf32> loc("p234.1801"), %arg235: tensor<1152xf32> loc("p235.1807"), %arg236: tensor<1152xf32> loc("p236.1812"), %arg237: tensor<1152xf32> loc("p237.1821"), %arg238: tensor<1152x4304xf32> loc("p238.1825"), %arg239: tensor<4304xf32> loc("p239.1833"), %arg240: tensor<4304x1152xf32> loc("p240.1837"), %arg241: tensor<1152xf32> loc("p241.1843"), %arg242: tensor<1152xf32> loc("p242.1848"), %arg243: tensor<1152xf32> loc("p243.1857"), %arg244: tensor<1152x1152xf32> loc("p244.1861"), %arg245: tensor<1152xf32> loc("p245.1867"), %arg246: tensor<1152x1152xf32> loc("p246.1871"), %arg247: tensor<1152xf32> loc("p247.1877"), %arg248: tensor<1152xf32> loc("p248.1882"), %arg249: tensor<1152xf32> loc("p249.1891"), %arg250: tensor<1152x4304xf32> loc("p250.1895"), %arg251: tensor<4304xf32> loc("p251.1903"), %arg252: tensor<4304x1152xf32> loc("p252.1907"), %arg253: tensor<1152xf32> loc("p253.1913"), %arg254: tensor<1152xf32> loc("p254.1918"), %arg255: tensor<1152xf32> loc("p255.1927"), %arg256: tensor<1152x1152xf32> loc("p256.1931"), %arg257: tensor<1152xf32> loc("p257.1937"), %arg258: tensor<1152x1152xf32> loc("p258.1941"), %arg259: tensor<1152xf32> loc("p259.1947"), %arg260: tensor<1152xf32> loc("p260.1952"), %arg261: tensor<1152xf32> loc("p261.1961"), %arg262: tensor<1152x4304xf32> loc("p262.1965"), %arg263: tensor<4304xf32> loc("p263.1973"), %arg264: tensor<4304x1152xf32> loc("p264.1977"), %arg265: tensor<1152xf32> loc("p265.1983"), %arg266: tensor<1152xf32> loc("p266.1988"), %arg267: tensor<1152xf32> loc("p267.1997"), %arg268: tensor<1152x1152xf32> loc("p268.2001"), %arg269: tensor<1152xf32> loc("p269.2007"), %arg270: tensor<1152x1152xf32> loc("p270.2011"), %arg271: tensor<1152xf32> loc("p271.2017"), %arg272: tensor<1152xf32> loc("p272.2022"), %arg273: tensor<1152xf32> loc("p273.2031"), %arg274: tensor<1152x4304xf32> loc("p274.2035"), %arg275: tensor<4304xf32> loc("p275.2043"), %arg276: tensor<4304x1152xf32> loc("p276.2047"), %arg277: tensor<1152xf32> loc("p277.2053"), %arg278: tensor<1152xf32> loc("p278.2058"), %arg279: tensor<1152xf32> loc("p279.2067"), %arg280: tensor<1152x1152xf32> loc("p280.2071"), %arg281: tensor<1152xf32> loc("p281.2077"), %arg282: tensor<1152x1152xf32> loc("p282.2081"), %arg283: tensor<1152xf32> loc("p283.2087"), %arg284: tensor<1152xf32> loc("p284.2092"), %arg285: tensor<1152xf32> loc("p285.2101"), %arg286: tensor<1152x4304xf32> loc("p286.2105"), %arg287: tensor<4304xf32> loc("p287.2113"), %arg288: tensor<4304x1152xf32> loc("p288.2117"), %arg289: tensor<1152xf32> loc("p289.2123"), %arg290: tensor<1152xf32> loc("p290.2128"), %arg291: tensor<1152xf32> loc("p291.2137"), %arg292: tensor<1152x1152xf32> loc("p292.2141"), %arg293: tensor<1152xf32> loc("p293.2147"), %arg294: tensor<1152x1152xf32> loc("p294.2151"), %arg295: tensor<1152xf32> loc("p295.2157"), %arg296: tensor<1152xf32> loc("p296.2162"), %arg297: tensor<1152xf32> loc("p297.2171"), %arg298: tensor<1152x4304xf32> loc("p298.2175"), %arg299: tensor<4304xf32> loc("p299.2183"), %arg300: tensor<4304x1152xf32> loc("p300.2187"), %arg301: tensor<1152xf32> loc("p301.2193"), %arg302: tensor<1152xf32> loc("p302.2198"), %arg303: tensor<1152xf32> loc("p303.2207"), %arg304: tensor<1152x1152xf32> loc("p304.2211"), %arg305: tensor<1152xf32> loc("p305.2217"), %arg306: tensor<1152x1152xf32> loc("p306.2221"), %arg307: tensor<1152xf32> loc("p307.2227"), %arg308: tensor<1152xf32> loc("p308.2232"), %arg309: tensor<1152xf32> loc("p309.2241"), %arg310: tensor<1152x4304xf32> loc("p310.2245"), %arg311: tensor<4304xf32> loc("p311.2253"), %arg312: tensor<4304x1152xf32> loc("p312.2257"), %arg313: tensor<1152xf32> loc("p313.2263"), %arg314: tensor<1152xf32> loc("p314.2268"), %arg315: tensor<1152xf32> loc("p315.2277"), %arg316: tensor<1152x1152xf32> loc("p316.2281"), %arg317: tensor<1152xf32> loc("p317.2287"), %arg318: tensor<1152x1152xf32> loc("p318.2291"), %arg319: tensor<1152xf32> loc("p319.2297"), %arg320: tensor<1152xf32> loc("p320.2302"), %arg321: tensor<1152xf32> loc("p321.2311"), %arg322: tensor<1152x4304xf32> loc("p322.2315"), %arg323: tensor<4304xf32> loc("p323.2323"), %arg324: tensor<4304x1152xf32> loc("p324.2327"), %arg325: tensor<1152xf32> loc("p325.2333"), %arg326: tensor<1152xf32> loc("p326.2338"), %arg327: tensor<1152xf32> loc("p327.2347"), %arg328: tensor<1152x1152xf32> loc("p328.2351"), %arg329: tensor<1152xf32> loc("p329.2357"), %arg330: tensor<1152x1152xf32> loc("p330.2361"), %arg331: tensor<1152xf32> loc("p331.2367"), %arg332: tensor<1152xf32> loc("p332.2372"), %arg333: tensor<1152xf32> loc("p333.2381"), %arg334: tensor<1152x4304xf32> loc("p334.2385"), %arg335: tensor<4304xf32> loc("p335.2393"), %arg336: tensor<4304x1152xf32> loc("p336.2397"), %arg337: tensor<1152xf32> loc("p337.2403"), %arg338: tensor<1152xf32> loc("p338.2408"), %arg339: tensor<1152xf32> loc("p339.2417"), %arg340: tensor<1152x1152xf32> loc("p340.2421"), %arg341: tensor<1152xf32> loc("p341.2427"), %arg342: tensor<1152x1152xf32> loc("p342.2431"), %arg343: tensor<1152xf32> loc("p343.2437"), %arg344: tensor<1152xf32> loc("p344.2442"), %arg345: tensor<1152xf32> loc("p345.2451"), %arg346: tensor<1152x4304xf32> loc("p346.2455"), %arg347: tensor<4304xf32> loc("p347.2463"), %arg348: tensor<4304x1152xf32> loc("p348.2467"), %arg349: tensor<1152xf32> loc("p349.2473"), %arg350: tensor<1152xf32> loc("p350.2478"), %arg351: tensor<1152xf32> loc("p351.2487"), %arg352: tensor<1152x1152xf32> loc("p352.2491"), %arg353: tensor<1152xf32> loc("p353.2497"), %arg354: tensor<1152x1152xf32> loc("p354.2501"), %arg355: tensor<1152xf32> loc("p355.2507"), %arg356: tensor<1152xf32> loc("p356.2512"), %arg357: tensor<1152xf32> loc("p357.2521"), %arg358: tensor<1152x4304xf32> loc("p358.2525"), %arg359: tensor<4304xf32> loc("p359.2533"), %arg360: tensor<4304x1152xf32> loc("p360.2537"), %arg361: tensor<1152xf32> loc("p361.2543"), %arg362: tensor<1152xf32> loc("p362.2548"), %arg363: tensor<1152xf32> loc("p363.2557"), %arg364: tensor<1152x1152xf32> loc("p364.2561"), %arg365: tensor<1152xf32> loc("p365.2567"), %arg366: tensor<1152x1152xf32> loc("p366.2571"), %arg367: tensor<1152xf32> loc("p367.2577"), %arg368: tensor<1152xf32> loc("p368.2582"), %arg369: tensor<1152xf32> loc("p369.2591"), %arg370: tensor<1152x4304xf32> loc("p370.2595"), %arg371: tensor<4304xf32> loc("p371.2603"), %arg372: tensor<4304x1152xf32> loc("p372.2607"), %arg373: tensor<1152xf32> loc("p373.2613"), %arg374: tensor<1152xf32> loc("p374.2618"), %arg375: tensor<1152xf32> loc("p375.2627"), %arg376: tensor<1152x1152xf32> loc("p376.2631"), %arg377: tensor<1152xf32> loc("p377.2637"), %arg378: tensor<1152x1152xf32> loc("p378.2641"), %arg379: tensor<1152xf32> loc("p379.2647"), %arg380: tensor<1152xf32> loc("p380.2652"), %arg381: tensor<1152xf32> loc("p381.2661"), %arg382: tensor<1152x4304xf32> loc("p382.2665"), %arg383: tensor<4304xf32> loc("p383.2673"), %arg384: tensor<4304x1152xf32> loc("p384.2677"), %arg385: tensor<1152xf32> loc("p385.2683"), %arg386: tensor<1152xf32> loc("p386.2688"), %arg387: tensor<1152xf32> loc("p387.2697"), %arg388: tensor<1152x1152xf32> loc("p388.2701"), %arg389: tensor<1152xf32> loc("p389.2707"), %arg390: tensor<1152x1152xf32> loc("p390.2711"), %arg391: tensor<1152xf32> loc("p391.2717"), %arg392: tensor<1152xf32> loc("p392.2722"), %arg393: tensor<1152xf32> loc("p393.2731"), %arg394: tensor<1152x4304xf32> loc("p394.2735"), %arg395: tensor<4304xf32> loc("p395.2743"), %arg396: tensor<4304x1152xf32> loc("p396.2747"), %arg397: tensor<1152xf32> loc("p397.2753"), %arg398: tensor<1152xf32> loc("p398.2758"), %arg399: tensor<1152xf32> loc("p399.2767"), %arg400: tensor<1152x1152xf32> loc("p400.2771"), %arg401: tensor<1152xf32> loc("p401.2777"), %arg402: tensor<1152x1152xf32> loc("p402.2781"), %arg403: tensor<1152xf32> loc("p403.2787"), %arg404: tensor<1152xf32> loc("p404.2792"), %arg405: tensor<1152xf32> loc("p405.2801"), %arg406: tensor<1152x4304xf32> loc("p406.2805"), %arg407: tensor<4304xf32> loc("p407.2813"), %arg408: tensor<4304x1152xf32> loc("p408.2817"), %arg409: tensor<1152xf32> loc("p409.2823"), %arg410: tensor<1152xf32> loc("p410.2828"), %arg411: tensor<1152xf32> loc("p411.2837"), %arg412: tensor<1152x1152xf32> loc("p412.2841"), %arg413: tensor<1152xf32> loc("p413.2847"), %arg414: tensor<1152x1152xf32> loc("p414.2851"), %arg415: tensor<1152xf32> loc("p415.2857"), %arg416: tensor<1152xf32> loc("p416.2862"), %arg417: tensor<1152xf32> loc("p417.2871"), %arg418: tensor<1152x4304xf32> loc("p418.2875"), %arg419: tensor<4304xf32> loc("p419.2883"), %arg420: tensor<4304x1152xf32> loc("p420.2887"), %arg421: tensor<1152xf32> loc("p421.2893"), %arg422: tensor<1152xf32> loc("p422.2898"), %arg423: tensor<1152xf32> loc("p423.2907"), %arg424: tensor<1152x1152xf32> loc("p424.2911"), %arg425: tensor<1152xf32> loc("p425.2917"), %arg426: tensor<1152x1152xf32> loc("p426.2921"), %arg427: tensor<1152xf32> loc("p427.2927"), %arg428: tensor<1152xf32> loc("p428.2932"), %arg429: tensor<1152xf32> loc("p429.2941"), %arg430: tensor<1152x4304xf32> loc("p430.2945"), %arg431: tensor<4304xf32> loc("p431.2953"), %arg432: tensor<4304x1152xf32> loc("p432.2957"), %arg433: tensor<1152xf32> loc("p433.2963"), %arg434: tensor<1152xf32> loc("p434.2968"), %arg435: tensor<1152xf32> loc("p435.2977"), %arg436: tensor<1152x1152xf32> loc("p436.2981"), %arg437: tensor<1152xf32> loc("p437.2987"), %arg438: tensor<1152x1152xf32> loc("p438.2991"), %arg439: tensor<1152xf32> loc("p439.2997"), %arg440: tensor<1152xf32> loc("p440.3002"), %arg441: tensor<1152xf32> loc("p441.3011"), %arg442: tensor<1152x4304xf32> loc("p442.3015"), %arg443: tensor<4304xf32> loc("p443.3023"), %arg444: tensor<4304x1152xf32> loc("p444.3027"), %arg445: tensor<1152xf32> loc("p445.3033"), %arg446: tensor<1152xf32> loc("p446.3038"), %arg447: tensor<1152xf32> loc("p447.3047"), %arg448: tensor<1152x1152xf32> loc("p448.3051"), %arg449: tensor<1152xf32> loc("p449.3057"), %arg450: tensor<1152x1152xf32> loc("p450.3061"), %arg451: tensor<1152xf32> loc("p451.3067"), %arg452: tensor<1152xf32> loc("p452.3072"), %arg453: tensor<1x256xi64> loc("p453.3080"), %arg454: tensor<256x1152xf32> loc("p454.3085"), %arg455: tensor<1152xf32> loc("p455.3092"), %arg456: tensor<1152x3x14x14xf32> loc("p456.3096"), %arg457: tensor<1x3x224x224xf32> loc("p457.3098"), %arg458: tensor<1152xf32> loc("p458.3197"), %arg459: tensor<1152x1152xf32> loc("p459.3201"), %arg460: tensor<1152xf32> loc("p460.3217"), %arg461: tensor<1152x1152xf32> loc("p461.3221"), %arg462: tensor<1152xf32> loc("p462.3470"), %arg463: tensor<1152x1152xf32> loc("p463.3474"), %arg464: tensor<1152xf32> loc("p464.3490"), %arg465: tensor<1152x1152xf32> loc("p465.3494"), %arg466: tensor<1152xf32> loc("p466.3743"), %arg467: tensor<1152x1152xf32> loc("p467.3747"), %arg468: tensor<1152xf32> loc("p468.3763"), %arg469: tensor<1152x1152xf32> loc("p469.3767"), %arg470: tensor<1152xf32> loc("p470.4016"), %arg471: tensor<1152x1152xf32> loc("p471.4020"), %arg472: tensor<1152xf32> loc("p472.4036"), %arg473: tensor<1152x1152xf32> loc("p473.4040"), %arg474: tensor<1152xf32> loc("p474.4289"), %arg475: tensor<1152x1152xf32> loc("p475.4293"), %arg476: tensor<1152xf32> loc("p476.4309"), %arg477: tensor<1152x1152xf32> loc("p477.4313"), %arg478: tensor<1152xf32> loc("p478.4562"), %arg479: tensor<1152x1152xf32> loc("p479.4566"), %arg480: tensor<1152xf32> loc("p480.4582"), %arg481: tensor<1152x1152xf32> loc("p481.4586"), %arg482: tensor<1152xf32> loc("p482.4835"), %arg483: tensor<1152x1152xf32> loc("p483.4839"), %arg484: tensor<1152xf32> loc("p484.4855"), %arg485: tensor<1152x1152xf32> loc("p485.4859"), %arg486: tensor<1152xf32> loc("p486.5108"), %arg487: tensor<1152x1152xf32> loc("p487.5112"), %arg488: tensor<1152xf32> loc("p488.5128"), %arg489: tensor<1152x1152xf32> loc("p489.5132"), %arg490: tensor<1152xf32> loc("p490.5381"), %arg491: tensor<1152x1152xf32> loc("p491.5385"), %arg492: tensor<1152xf32> loc("p492.5401"), %arg493: tensor<1152x1152xf32> loc("p493.5405"), %arg494: tensor<1152xf32> loc("p494.5654"), %arg495: tensor<1152x1152xf32> loc("p495.5658"), %arg496: tensor<1152xf32> loc("p496.5674"), %arg497: tensor<1152x1152xf32> loc("p497.5678"), %arg498: tensor<1152xf32> loc("p498.5927"), %arg499: tensor<1152x1152xf32> loc("p499.5931"), %arg500: tensor<1152xf32> loc("p500.5947"), %arg501: tensor<1152x1152xf32> loc("p501.5951"), %arg502: tensor<1152xf32> loc("p502.6200"), %arg503: tensor<1152x1152xf32> loc("p503.6204"), %arg504: tensor<1152xf32> loc("p504.6220"), %arg505: tensor<1152x1152xf32> loc("p505.6224"), %arg506: tensor<1152xf32> loc("p506.6473"), %arg507: tensor<1152x1152xf32> loc("p507.6477"), %arg508: tensor<1152xf32> loc("p508.6493"), %arg509: tensor<1152x1152xf32> loc("p509.6497"), %arg510: tensor<1152xf32> loc("p510.6746"), %arg511: tensor<1152x1152xf32> loc("p511.6750"), %arg512: tensor<1152xf32> loc("p512.6766"), %arg513: tensor<1152x1152xf32> loc("p513.6770"), %arg514: tensor<1152xf32> loc("p514.7019"), %arg515: tensor<1152x1152xf32> loc("p515.7023"), %arg516: tensor<1152xf32> loc("p516.7039"), %arg517: tensor<1152x1152xf32> loc("p517.7043"), %arg518: tensor<1152xf32> loc("p518.7292"), %arg519: tensor<1152x1152xf32> loc("p519.7296"), %arg520: tensor<1152xf32> loc("p520.7312"), %arg521: tensor<1152x1152xf32> loc("p521.7316"), %arg522: tensor<1152xf32> loc("p522.7565"), %arg523: tensor<1152x1152xf32> loc("p523.7569"), %arg524: tensor<1152xf32> loc("p524.7585"), %arg525: tensor<1152x1152xf32> loc("p525.7589"), %arg526: tensor<1152xf32> loc("p526.7838"), %arg527: tensor<1152x1152xf32> loc("p527.7842"), %arg528: tensor<1152xf32> loc("p528.7858"), %arg529: tensor<1152x1152xf32> loc("p529.7862"), %arg530: tensor<1152xf32> loc("p530.8111"), %arg531: tensor<1152x1152xf32> loc("p531.8115"), %arg532: tensor<1152xf32> loc("p532.8131"), %arg533: tensor<1152x1152xf32> loc("p533.8135"), %arg534: tensor<1152xf32> loc("p534.8384"), %arg535: tensor<1152x1152xf32> loc("p535.8388"), %arg536: tensor<1152xf32> loc("p536.8404"), %arg537: tensor<1152x1152xf32> loc("p537.8408"), %arg538: tensor<1152xf32> loc("p538.8657"), %arg539: tensor<1152x1152xf32> loc("p539.8661"), %arg540: tensor<1152xf32> loc("p540.8677"), %arg541: tensor<1152x1152xf32> loc("p541.8681"), %arg542: tensor<1152xf32> loc("p542.8930"), %arg543: tensor<1152x1152xf32> loc("p543.8934"), %arg544: tensor<1152xf32> loc("p544.8950"), %arg545: tensor<1152x1152xf32> loc("p545.8954"), %arg546: tensor<1152xf32> loc("p546.9203"), %arg547: tensor<1152x1152xf32> loc("p547.9207"), %arg548: tensor<1152xf32> loc("p548.9223"), %arg549: tensor<1152x1152xf32> loc("p549.9227"), %arg550: tensor<1152xf32> loc("p550.9476"), %arg551: tensor<1152x1152xf32> loc("p551.9480"), %arg552: tensor<1152xf32> loc("p552.9496"), %arg553: tensor<1152x1152xf32> loc("p553.9500"), %arg554: tensor<1152xf32> loc("p554.9749"), %arg555: tensor<1152x1152xf32> loc("p555.9753"), %arg556: tensor<1152xf32> loc("p556.9769"), %arg557: tensor<1152x1152xf32> loc("p557.9773"), %arg558: tensor<1152xf32> loc("p558.10022"), %arg559: tensor<1152x1152xf32> loc("p559.10026"), %arg560: tensor<1152xf32> loc("p560.10042"), %arg561: tensor<1152x1152xf32> loc("p561.10046"), %arg562: tensor<1152xf32> loc("p562.10295"), %arg563: tensor<1152x1152xf32> loc("p563.10299"), %arg564: tensor<1152xf32> loc("p564.10315"), %arg565: tensor<1152x1152xf32> loc("p565.10319"), %arg566: tensor<1x3x224x224xf32> loc("p566.11170"), %arg567: tensor<1x3x224x224xf32> loc("p567.18810"), %arg568: tensor<i1> loc("p568.25898"), %arg569: tensor<51xf32> loc("p569.25913"), %arg570: tensor<1x48xi1> loc("p570.25932"), %arg571: tensor<1xi1> loc("p571.25936"), %arg572: tensor<1xi1> loc("p572.25944"), %arg573: tensor<1xi1> loc("p573.25952"), %arg574: tensor<128xf32> loc("p574.26002"), %arg575: tensor<256x1024xf32> loc("p575.26017"), %arg576: tensor<128xf32> loc("p576.26058"), %arg577: tensor<256x2048xf32> loc("p577.26073"), %arg578: tensor<2048x1024xf32> loc("p578.26105"), %arg579: tensor<4096x1024xf32> loc("p579.26198"), %arg580: tensor<256x2048xf32> loc("p580.26265"), %arg581: tensor<2048xf32> loc("p581.26272"), %arg582: tensor<2048x16384xf32> loc("p582.26283"), %arg583: tensor<16384x2048xf32> loc("p583.26288"), %arg584: tensor<2048xf32> loc("p584.26295"), %arg585: tensor<2048x2048xf32> loc("p585.26306"), %arg586: tensor<816xi1> loc("p586.26336"), %arg587: tensor<2048x2048xf32> loc("p587.26367"), %arg588: tensor<16384x2048xf32> loc("p588.26460"), %arg589: tensor<256x1024xf32> loc("p589.26537"), %arg590: tensor<256x2048xf32> loc("p590.26559"), %arg591: tensor<2048x1024xf32> loc("p591.26587"), %arg592: tensor<4096x1024xf32> loc("p592.26680"), %arg593: tensor<256x2048xf32> loc("p593.26747"), %arg594: tensor<2048xf32> loc("p594.26754"), %arg595: tensor<2048x16384xf32> loc("p595.26765"), %arg596: tensor<16384x2048xf32> loc("p596.26770"), %arg597: tensor<2048xf32> loc("p597.26777"), %arg598: tensor<2048x2048xf32> loc("p598.26788"), %arg599: tensor<2048x2048xf32> loc("p599.26807"), %arg600: tensor<16384x2048xf32> loc("p600.26900"), %arg601: tensor<256x1024xf32> loc("p601.26977"), %arg602: tensor<256x2048xf32> loc("p602.26999"), %arg603: tensor<2048x1024xf32> loc("p603.27027"), %arg604: tensor<4096x1024xf32> loc("p604.27120"), %arg605: tensor<256x2048xf32> loc("p605.27187"), %arg606: tensor<2048xf32> loc("p606.27194"), %arg607: tensor<2048x16384xf32> loc("p607.27205"), %arg608: tensor<16384x2048xf32> loc("p608.27210"), %arg609: tensor<2048xf32> loc("p609.27217"), %arg610: tensor<2048x2048xf32> loc("p610.27228"), %arg611: tensor<2048x2048xf32> loc("p611.27247"), %arg612: tensor<16384x2048xf32> loc("p612.27340"), %arg613: tensor<256x1024xf32> loc("p613.27417"), %arg614: tensor<256x2048xf32> loc("p614.27439"), %arg615: tensor<2048x1024xf32> loc("p615.27467"), %arg616: tensor<4096x1024xf32> loc("p616.27560"), %arg617: tensor<256x2048xf32> loc("p617.27627"), %arg618: tensor<2048xf32> loc("p618.27634"), %arg619: tensor<2048x16384xf32> loc("p619.27645"), %arg620: tensor<16384x2048xf32> loc("p620.27650"), %arg621: tensor<2048xf32> loc("p621.27657"), %arg622: tensor<2048x2048xf32> loc("p622.27668"), %arg623: tensor<2048x2048xf32> loc("p623.27687"), %arg624: tensor<16384x2048xf32> loc("p624.27780"), %arg625: tensor<256x1024xf32> loc("p625.27857"), %arg626: tensor<256x2048xf32> loc("p626.27879"), %arg627: tensor<2048x1024xf32> loc("p627.27907"), %arg628: tensor<4096x1024xf32> loc("p628.28000"), %arg629: tensor<256x2048xf32> loc("p629.28067"), %arg630: tensor<2048xf32> loc("p630.28074"), %arg631: tensor<2048x16384xf32> loc("p631.28085"), %arg632: tensor<16384x2048xf32> loc("p632.28090"), %arg633: tensor<2048xf32> loc("p633.28097"), %arg634: tensor<2048x2048xf32> loc("p634.28108"), %arg635: tensor<2048x2048xf32> loc("p635.28127"), %arg636: tensor<16384x2048xf32> loc("p636.28220"), %arg637: tensor<256x1024xf32> loc("p637.28297"), %arg638: tensor<256x2048xf32> loc("p638.28319"), %arg639: tensor<2048x1024xf32> loc("p639.28347"), %arg640: tensor<4096x1024xf32> loc("p640.28440"), %arg641: tensor<256x2048xf32> loc("p641.28507"), %arg642: tensor<2048xf32> loc("p642.28514"), %arg643: tensor<2048x16384xf32> loc("p643.28525"), %arg644: tensor<16384x2048xf32> loc("p644.28530"), %arg645: tensor<2048xf32> loc("p645.28537"), %arg646: tensor<2048x2048xf32> loc("p646.28548"), %arg647: tensor<2048x2048xf32> loc("p647.28567"), %arg648: tensor<16384x2048xf32> loc("p648.28660"), %arg649: tensor<256x1024xf32> loc("p649.28737"), %arg650: tensor<256x2048xf32> loc("p650.28759"), %arg651: tensor<2048x1024xf32> loc("p651.28787"), %arg652: tensor<4096x1024xf32> loc("p652.28880"), %arg653: tensor<256x2048xf32> loc("p653.28947"), %arg654: tensor<2048xf32> loc("p654.28954"), %arg655: tensor<2048x16384xf32> loc("p655.28965"), %arg656: tensor<16384x2048xf32> loc("p656.28970"), %arg657: tensor<2048xf32> loc("p657.28977"), %arg658: tensor<2048x2048xf32> loc("p658.28988"), %arg659: tensor<2048x2048xf32> loc("p659.29007"), %arg660: tensor<16384x2048xf32> loc("p660.29100"), %arg661: tensor<256x1024xf32> loc("p661.29177"), %arg662: tensor<256x2048xf32> loc("p662.29199"), %arg663: tensor<2048x1024xf32> loc("p663.29227"), %arg664: tensor<4096x1024xf32> loc("p664.29320"), %arg665: tensor<256x2048xf32> loc("p665.29387"), %arg666: tensor<2048xf32> loc("p666.29394"), %arg667: tensor<2048x16384xf32> loc("p667.29405"), %arg668: tensor<16384x2048xf32> loc("p668.29410"), %arg669: tensor<2048xf32> loc("p669.29417"), %arg670: tensor<2048x2048xf32> loc("p670.29428"), %arg671: tensor<2048x2048xf32> loc("p671.29447"), %arg672: tensor<16384x2048xf32> loc("p672.29540"), %arg673: tensor<256x1024xf32> loc("p673.29617"), %arg674: tensor<256x2048xf32> loc("p674.29639"), %arg675: tensor<2048x1024xf32> loc("p675.29667"), %arg676: tensor<4096x1024xf32> loc("p676.29760"), %arg677: tensor<256x2048xf32> loc("p677.29827"), %arg678: tensor<2048xf32> loc("p678.29834"), %arg679: tensor<2048x16384xf32> loc("p679.29845"), %arg680: tensor<16384x2048xf32> loc("p680.29850"), %arg681: tensor<2048xf32> loc("p681.29857"), %arg682: tensor<2048x2048xf32> loc("p682.29868"), %arg683: tensor<2048x2048xf32> loc("p683.29887"), %arg684: tensor<16384x2048xf32> loc("p684.29980"), %arg685: tensor<256x1024xf32> loc("p685.30057"), %arg686: tensor<256x2048xf32> loc("p686.30079"), %arg687: tensor<2048x1024xf32> loc("p687.30107"), %arg688: tensor<4096x1024xf32> loc("p688.30200"), %arg689: tensor<256x2048xf32> loc("p689.30267"), %arg690: tensor<2048xf32> loc("p690.30274"), %arg691: tensor<2048x16384xf32> loc("p691.30285"), %arg692: tensor<16384x2048xf32> loc("p692.30290"), %arg693: tensor<2048xf32> loc("p693.30297"), %arg694: tensor<2048x2048xf32> loc("p694.30308"), %arg695: tensor<2048x2048xf32> loc("p695.30327"), %arg696: tensor<16384x2048xf32> loc("p696.30420"), %arg697: tensor<256x1024xf32> loc("p697.30497"), %arg698: tensor<256x2048xf32> loc("p698.30519"), %arg699: tensor<2048x1024xf32> loc("p699.30547"), %arg700: tensor<4096x1024xf32> loc("p700.30640"), %arg701: tensor<256x2048xf32> loc("p701.30707"), %arg702: tensor<2048xf32> loc("p702.30714"), %arg703: tensor<2048x16384xf32> loc("p703.30725"), %arg704: tensor<16384x2048xf32> loc("p704.30730"), %arg705: tensor<2048xf32> loc("p705.30737"), %arg706: tensor<2048x2048xf32> loc("p706.30748"), %arg707: tensor<2048x2048xf32> loc("p707.30767"), %arg708: tensor<16384x2048xf32> loc("p708.30860"), %arg709: tensor<256x1024xf32> loc("p709.30937"), %arg710: tensor<256x2048xf32> loc("p710.30959"), %arg711: tensor<2048x1024xf32> loc("p711.30987"), %arg712: tensor<4096x1024xf32> loc("p712.31080"), %arg713: tensor<256x2048xf32> loc("p713.31147"), %arg714: tensor<2048xf32> loc("p714.31154"), %arg715: tensor<2048x16384xf32> loc("p715.31165"), %arg716: tensor<16384x2048xf32> loc("p716.31170"), %arg717: tensor<2048xf32> loc("p717.31177"), %arg718: tensor<2048x2048xf32> loc("p718.31188"), %arg719: tensor<2048x2048xf32> loc("p719.31207"), %arg720: tensor<16384x2048xf32> loc("p720.31300"), %arg721: tensor<256x1024xf32> loc("p721.31377"), %arg722: tensor<256x2048xf32> loc("p722.31399"), %arg723: tensor<2048x1024xf32> loc("p723.31427"), %arg724: tensor<4096x1024xf32> loc("p724.31520"), %arg725: tensor<256x2048xf32> loc("p725.31587"), %arg726: tensor<2048xf32> loc("p726.31594"), %arg727: tensor<2048x16384xf32> loc("p727.31605"), %arg728: tensor<16384x2048xf32> loc("p728.31610"), %arg729: tensor<2048xf32> loc("p729.31617"), %arg730: tensor<2048x2048xf32> loc("p730.31628"), %arg731: tensor<2048x2048xf32> loc("p731.31647"), %arg732: tensor<16384x2048xf32> loc("p732.31740"), %arg733: tensor<256x1024xf32> loc("p733.31817"), %arg734: tensor<256x2048xf32> loc("p734.31839"), %arg735: tensor<2048x1024xf32> loc("p735.31867"), %arg736: tensor<4096x1024xf32> loc("p736.31960"), %arg737: tensor<256x2048xf32> loc("p737.32027"), %arg738: tensor<2048xf32> loc("p738.32034"), %arg739: tensor<2048x16384xf32> loc("p739.32045"), %arg740: tensor<16384x2048xf32> loc("p740.32050"), %arg741: tensor<2048xf32> loc("p741.32057"), %arg742: tensor<2048x2048xf32> loc("p742.32068"), %arg743: tensor<2048x2048xf32> loc("p743.32087"), %arg744: tensor<16384x2048xf32> loc("p744.32180"), %arg745: tensor<256x1024xf32> loc("p745.32257"), %arg746: tensor<256x2048xf32> loc("p746.32279"), %arg747: tensor<2048x1024xf32> loc("p747.32307"), %arg748: tensor<4096x1024xf32> loc("p748.32400"), %arg749: tensor<256x2048xf32> loc("p749.32467"), %arg750: tensor<2048xf32> loc("p750.32474"), %arg751: tensor<2048x16384xf32> loc("p751.32485"), %arg752: tensor<16384x2048xf32> loc("p752.32490"), %arg753: tensor<2048xf32> loc("p753.32497"), %arg754: tensor<2048x2048xf32> loc("p754.32508"), %arg755: tensor<2048x2048xf32> loc("p755.32527"), %arg756: tensor<16384x2048xf32> loc("p756.32620"), %arg757: tensor<256x1024xf32> loc("p757.32697"), %arg758: tensor<256x2048xf32> loc("p758.32719"), %arg759: tensor<2048x1024xf32> loc("p759.32747"), %arg760: tensor<4096x1024xf32> loc("p760.32840"), %arg761: tensor<256x2048xf32> loc("p761.32907"), %arg762: tensor<2048xf32> loc("p762.32914"), %arg763: tensor<2048x16384xf32> loc("p763.32925"), %arg764: tensor<16384x2048xf32> loc("p764.32930"), %arg765: tensor<2048xf32> loc("p765.32937"), %arg766: tensor<2048x2048xf32> loc("p766.32948"), %arg767: tensor<2048x2048xf32> loc("p767.32967"), %arg768: tensor<16384x2048xf32> loc("p768.33060"), %arg769: tensor<256x1024xf32> loc("p769.33137"), %arg770: tensor<256x2048xf32> loc("p770.33159"), %arg771: tensor<2048x1024xf32> loc("p771.33187"), %arg772: tensor<4096x1024xf32> loc("p772.33280"), %arg773: tensor<256x2048xf32> loc("p773.33347"), %arg774: tensor<2048xf32> loc("p774.33354"), %arg775: tensor<2048x16384xf32> loc("p775.33365"), %arg776: tensor<16384x2048xf32> loc("p776.33370"), %arg777: tensor<2048xf32> loc("p777.33377"), %arg778: tensor<2048x2048xf32> loc("p778.33388"), %arg779: tensor<2048x2048xf32> loc("p779.33407"), %arg780: tensor<16384x2048xf32> loc("p780.33500"), %arg781: tensor<256x1024xf32> loc("p781.33577"), %arg782: tensor<256x2048xf32> loc("p782.33599"), %arg783: tensor<2048x1024xf32> loc("p783.33627"), %arg784: tensor<4096x1024xf32> loc("p784.33720")) -> tensor<1x50x1024xf32> {
    %cst = stablehlo.constant dense<5.000000e-01> : tensor<1x512xf64> loc(#loc)
    %cst_0 = stablehlo.constant dense<-5.000000e-01> : tensor<1x50x32xf32> loc(#loc)
    %cst_1 = stablehlo.constant dense<-2.38197633E+38> : tensor<1x1x816x816xf32> loc(#loc)
    %cst_2 = stablehlo.constant dense<0.000000e+00> : tensor<1x1x816x816xf32> loc(#loc)
    %cst_3 = stablehlo.constant dense<6.250000e-02> : tensor<1x8x816x816xf32> loc(#loc)
    %cst_4 = stablehlo.constant dense<-2.38197633E+38> : tensor<1x1x51x867xf32> loc(#loc)
    %cst_5 = stablehlo.constant dense<0.000000e+00> : tensor<1x1x51x867xf32> loc(#loc)
    %cst_6 = stablehlo.constant dense<6.250000e-02> : tensor<1x8x51x867xf32> loc(#loc)
    %c = stablehlo.constant dense<1> : tensor<1x816xi64> loc(#loc)
    %cst_7 = stablehlo.constant dense<1.000000e+00> : tensor<2048xf32> loc(#loc)
    %cst_8 = stablehlo.constant dense<9.99999997E-7> : tensor<1x816x1xf32> loc(#loc)
    %cst_9 = stablehlo.constant dense<4.8828125E-4> : tensor<1x816xf32> loc(#loc)
    %cst_10 = stablehlo.constant dense<2.000000e+00> : tensor<1x816x2048xf32> loc(#loc)
    %cst_11 = stablehlo.constant dense<45.2548332> : tensor<1x48x2048xf32> loc(#loc)
    %cst_12 = stablehlo.constant dense<0.117851131> : tensor<1x16x256x256xf32> loc(#loc)
    %c_13 = stablehlo.constant dense<1> : tensor<1x51xi64> loc(#loc)
    %cst_14 = stablehlo.constant dense<1.000000e+00> : tensor<1024xf32> loc(#loc)
    %cst_15 = stablehlo.constant dense<9.99999997E-7> : tensor<1x51x1xf32> loc(#loc)
    %cst_16 = stablehlo.constant dense<9.765625E-4> : tensor<1x51xf32> loc(#loc)
    %cst_17 = stablehlo.constant dense<2.000000e+00> : tensor<1x51x1024xf32> loc(#loc)
    %cst_18 = stablehlo.constant dense<3.1415926535897931> : tensor<512xf64> loc(#loc)
    %cst_19 = stablehlo.constant dense<2.000000e+00> : tensor<512xf64> loc(#loc)
    %cst_20 = stablehlo.constant dense<4.000000e-03> : tensor<512xf64> loc(#loc)
    %cst_21 = stablehlo.constant dense<"…"> : tensor<512xf64> loc(#loc)
    %cst_22 = stablehlo.constant dense<"…"> : tensor<512xf64> loc(#loc)
    %c_23 = stablehlo.constant dense<"…"> : tensor<512xi1> loc(#loc)
    %cst_24 = stablehlo.constant dense<1.000000e+03> : tensor<512xf64> loc(#loc)
    %cst_25 = stablehlo.constant dense<1.000000e+00> : tensor<512xf64> loc(#loc)
    %cst_26 = stablehlo.constant dense<9.99999971E-10> : tensor<f32> loc(#loc)
    %cst_27 = stablehlo.constant dense<0xFF800000> : tensor<f32> loc(#loc)
    %c_28 = stablehlo.constant dense<0> : tensor<i64> loc(#loc)
    %cst_29 = stablehlo.constant dense<0.000000e+00> : tensor<f32> loc(#loc)
    %0 = stablehlo.custom_call @tt.mark_argument(%arg120) {api_version = 0 : i32, mhlo.frontend_attributes = {ttcore.argument_type = "input", ttir.name = "args_9"}} : (tensor<1x50x32xf32>) -> tensor<1x50x32xf32> loc(#loc786)
    %1 = stablehlo.reshape %arg2 : (tensor<1x32xf32>) -> tensor<1x1x32xf32> loc(#loc787)
    %2 = stablehlo.custom_call @tt.mark_argument(%1) {api_version = 0 : i32, mhlo.frontend_attributes = {ttcore.argument_type = "input", ttir.name = "args_0"}} : (tensor<1x1x32xf32>) -> tensor<1x1x32xf32> loc(#loc788)
    %3 = stablehlo.reshape %2 : (tensor<1x1x32xf32>) -> tensor<1x32xf32> loc(#loc789)
    %4 = stablehlo.reshape %arg1 : (tensor<1024x32xf32>) -> tensor<1x1024x32xf32> loc(#loc790)
    %5 = stablehlo.custom_call @tt.mark_argument(%4) {api_version = 0 : i32, mhlo.frontend_attributes = {ttcore.argument_type = "parameter", ttir.name = "L__self___bracket_core_state_proj.weight"}} : (tensor<1x1024x32xf32>) -> tensor<1x1024x32xf32> loc(#loc791)
    %6 = stablehlo.reshape %5 : (tensor<1x1024x32xf32>) -> tensor<1024x32xf32> loc(#loc792)
    %7 = stablehlo.transpose %6, dims = [1, 0] {result_layout = dense<[0, 1]> : tensor<2xindex>, xla_shape = "f32[32,1024]{0,1}"} : (tensor<1024x32xf32>) -> tensor<32x1024xf32> loc(#loc793)
    %8 = stablehlo.dot_general %3, %7, contracting_dims = [1] x [0] : (tensor<1x32xf32>, tensor<32x1024xf32>) -> tensor<1x1024xf32> loc(#loc794)
    %9 = stablehlo.reshape %arg0 : (tensor<1024xf32>) -> tensor<1x1x1024xf32> loc(#loc795)
    %10 = stablehlo.custom_call @tt.mark_argument(%9) {api_version = 0 : i32, mhlo.frontend_attributes = {ttcore.argument_type = "parameter", ttir.name = "L__self___bracket_core_state_proj.bias"}} : (tensor<1x1x1024xf32>) -> tensor<1x1x1024xf32> loc(#loc796)
    %11 = stablehlo.reshape %10 : (tensor<1x1x1024xf32>) -> tensor<1x1024xf32> loc(#loc797)
    %12 = stablehlo.add %8, %11 : tensor<1x1024xf32> loc(#loc798)
    %13 = stablehlo.reshape %12 : (tensor<1x1024xf32>) -> tensor<1x1x1024xf32> loc(#loc799)
    %14 = stablehlo.reshape %0 : (tensor<1x50x32xf32>) -> tensor<50x32xf32> loc(#loc800)
    %15 = stablehlo.reshape %arg4 : (tensor<1024x32xf32>) -> tensor<1x1024x32xf32> loc(#loc801)
    %16 = stablehlo.custom_call @tt.mark_argument(%15) {api_version = 0 : i32, mhlo.frontend_attributes = {ttcore.argument_type = "parameter", ttir.name = "L__self___bracket_core_action_in_proj.weight"}} : (tensor<1x1024x32xf32>) -> tensor<1x1024x32xf32> loc(#loc802)
    %17 = stablehlo.reshape %16 : (tensor<1x1024x32xf32>) -> tensor<1024x32xf32> loc(#loc803)
    %18 = stablehlo.transpose %17, dims = [1, 0] {result_layout = dense<[0, 1]> : tensor<2xindex>, xla_shape = "f32[32,1024]{0,1}"} : (tensor<1024x32xf32>) -> tensor<32x1024xf32> loc(#loc804)
    %19 = stablehlo.dot_general %14, %18, contracting_dims = [1] x [0] : (tensor<50x32xf32>, tensor<32x1024xf32>) -> tensor<50x1024xf32> loc(#loc805)
    %20 = stablehlo.reshape %19 : (tensor<50x1024xf32>) -> tensor<1x50x1024xf32> loc(#loc806)
    %21 = stablehlo.reshape %arg3 : (tensor<1024xf32>) -> tensor<1x1x1024xf32> loc(#loc807)
    %22 = stablehlo.custom_call @tt.mark_argument(%21) {api_version = 0 : i32, mhlo.frontend_attributes = {ttcore.argument_type = "parameter", ttir.name = "L__self___bracket_core_action_in_proj.bias"}} : (tensor<1x1x1024xf32>) -> tensor<1x1x1024xf32> loc(#loc808)
    %23 = stablehlo.reshape %22 : (tensor<1x1x1024xf32>) -> tensor<1024xf32> loc(#loc809)
    %24 = stablehlo.broadcast_in_dim %23, dims = [2] : (tensor<1024xf32>) -> tensor<1x50x1024xf32> loc(#loc810)
    %25 = stablehlo.add %20, %24 : tensor<1x50x1024xf32> loc(#loc811)
    %26 = stablehlo.select %c_23, %cst_22, %cst_21 : tensor<512xi1>, tensor<512xf64> loc(#loc812)
    %27 = stablehlo.power %cst_24, %26 : tensor<512xf64> loc(#loc813)
    %28 = stablehlo.multiply %27, %cst_20 : tensor<512xf64> loc(#loc814)
    %29 = stablehlo.divide %cst_25, %28 : tensor<512xf64> loc(#loc815)
    %30 = stablehlo.multiply %29, %cst_19 : tensor<512xf64> loc(#loc816)
    %31 = stablehlo.multiply %30, %cst_18 : tensor<512xf64> loc(#loc817)
    %32 = stablehlo.reshape %31 : (tensor<512xf64>) -> tensor<1x512xf64> loc(#loc818)
    %33 = stablehlo.sine %32 : tensor<1x512xf64> loc(#loc819)
    %34 = stablehlo.cosine %32 : tensor<1x512xf64> loc(#loc820)
    %35 = stablehlo.concatenate %33, %34, dim = 1 : (tensor<1x512xf64>, tensor<1x512xf64>) -> tensor<1x1024xf64> loc(#loc821)
    %36 = stablehlo.convert %35 : (tensor<1x1024xf64>) -> tensor<1x1024xf32> loc(#loc822)
    %37 = stablehlo.broadcast_in_dim %36, dims = [0, 2] : (tensor<1x1024xf32>) -> tensor<1x50x1024xf32> loc(#loc823)
    %38 = stablehlo.concatenate %25, %37, dim = 2 : (tensor<1x50x1024xf32>, tensor<1x50x1024xf32>) -> tensor<1x50x2048xf32> loc(#loc824)
    %39 = stablehlo.reshape %38 : (tensor<1x50x2048xf32>) -> tensor<50x2048xf32> loc(#loc825)
    %40 = stablehlo.reshape %arg119 : (tensor<1024x2048xf32>) -> tensor<1x1024x2048xf32> loc(#loc826)
    %41 = stablehlo.custom_call @tt.mark_argument(%40) {api_version = 0 : i32, mhlo.frontend_attributes = {ttcore.argument_type = "parameter", ttir.name = "L__self___bracket_core_action_time_mlp_in.weight"}} : (tensor<1x1024x2048xf32>) -> tensor<1x1024x2048xf32> loc(#loc827)
    %42 = stablehlo.reshape %41 : (tensor<1x1024x2048xf32>) -> tensor<1024x2048xf32> loc(#loc828)
    %43 = stablehlo.transpose %42, dims = [1, 0] {result_layout = dense<[0, 1]> : tensor<2xindex>, xla_shape = "f32[2048,1024]{0,1}"} : (tensor<1024x2048xf32>) -> tensor<2048x1024xf32> loc(#loc829)
    %44 = stablehlo.dot_general %39, %43, contracting_dims = [1] x [0] : (tensor<50x2048xf32>, tensor<2048x1024xf32>) -> tensor<50x1024xf32> loc(#loc830)
    %45 = stablehlo.reshape %44 : (tensor<50x1024xf32>) -> tensor<1x50x1024xf32> loc(#loc831)
    %46 = stablehlo.reshape %arg118 : (tensor<1024xf32>) -> tensor<1x1x1024xf32> loc(#loc832)
    %47 = stablehlo.custom_call @tt.mark_argument(%46) {api_version = 0 : i32, mhlo.frontend_attributes = {ttcore.argument_type = "parameter", ttir.name = "L__self___bracket_core_action_time_mlp_in.bias"}} : (tensor<1x1x1024xf32>) -> tensor<1x1x1024xf32> loc(#loc833)
    %48 = stablehlo.reshape %47 : (tensor<1x1x1024xf32>) -> tensor<1024xf32> loc(#loc834)
    %49 = stablehlo.broadcast_in_dim %48, dims = [2] : (tensor<1024xf32>) -> tensor<1x50x1024xf32> loc(#loc835)
    %50 = stablehlo.add %45, %49 : tensor<1x50x1024xf32> loc(#loc836)
    %51 = stablehlo.logistic %50 : tensor<1x50x1024xf32> loc(#loc837)
    %52 = stablehlo.multiply %50, %51 : tensor<1x50x1024xf32> loc(#loc838)
    %53 = stablehlo.reshape %52 : (tensor<1x50x1024xf32>) -> tensor<50x1024xf32> loc(#loc839)
    %54 = stablehlo.reshape %arg117 : (tensor<1024x1024xf32>) -> tensor<1x1024x1024xf32> loc(#loc840)
    %55 = stablehlo.custom_call @tt.mark_argument(%54) {api_version = 0 : i32, mhlo.frontend_attributes = {ttcore.argument_type = "parameter", ttir.name = "L__self___bracket_core_action_time_mlp_out.weight"}} : (tensor<1x1024x1024xf32>) -> tensor<1x1024x1024xf32> loc(#loc841)
    %56 = stablehlo.reshape %55 : (tensor<1x1024x1024xf32>) -> tensor<1024x1024xf32> loc(#loc842)
    %57 = stablehlo.transpose %56, dims = [1, 0] {result_layout = dense<[0, 1]> : tensor<2xindex>, xla_shape = "f32[1024,1024]{0,1}"} : (tensor<1024x1024xf32>) -> tensor<1024x1024xf32> loc(#loc843)
    %58 = stablehlo.dot_general %53, %57, contracting_dims = [1] x [0] : (tensor<50x1024xf32>, tensor<1024x1024xf32>) -> tensor<50x1024xf32> loc(#loc844)
    %59 = stablehlo.reshape %58 : (tensor<50x1024xf32>) -> tensor<1x50x1024xf32> loc(#loc845)
    %60 = stablehlo.reshape %arg116 : (tensor<1024xf32>) -> tensor<1x1x1024xf32> loc(#loc846)
    %61 = stablehlo.custom_call @tt.mark_argument(%60) {api_version = 0 : i32, mhlo.frontend_attributes = {ttcore.argument_type = "parameter", ttir.name = "L__self___bracket_core_action_time_mlp_out.bias"}} : (tensor<1x1x1024xf32>) -> tensor<1x1x1024xf32> loc(#loc847)
    %62 = stablehlo.reshape %61 : (tensor<1x1x1024xf32>) -> tensor<1024xf32> loc(#loc848)
    %63 = stablehlo.broadcast_in_dim %62, dims = [2] : (tensor<1024xf32>) -> tensor<1x50x1024xf32> loc(#loc849)
    %64 = stablehlo.add %59, %63 : tensor<1x50x1024xf32> loc(#loc850)
    %65 = stablehlo.concatenate %13, %64, dim = 1 : (tensor<1x1x1024xf32>, tensor<1x50x1024xf32>) -> tensor<1x51x1024xf32> loc(#loc851)
    %66 = stablehlo.power %65, %cst_17 : tensor<1x51x1024xf32> loc(#loc852)
    %67 = stablehlo.reduce(%66 init: %cst_29) applies stablehlo.add across dimensions = [2] : (tensor<1x51x1024xf32>, tensor<f32>) -> tensor<1x51xf32> loc(#loc853)
    %68 = stablehlo.multiply %67, %cst_16 : tensor<1x51xf32> loc(#loc854)
    %69 = stablehlo.reshape %68 : (tensor<1x51xf32>) -> tensor<1x51x1xf32> loc(#loc855)
    %70 = stablehlo.add %69, %cst_15 : tensor<1x51x1xf32> loc(#loc856)
    %71 = stablehlo.rsqrt %70 : tensor<1x51x1xf32> loc(#loc857)
    %72 = stablehlo.reshape %71 : (tensor<1x51x1xf32>) -> tensor<1x51xf32> loc(#loc858)
    %73 = stablehlo.broadcast_in_dim %72, dims = [0, 1] : (tensor<1x51xf32>) -> tensor<1x51x1024xf32> loc(#loc859)
    %74 = stablehlo.multiply %65, %73 : tensor<1x51x1024xf32> loc(#loc860)
    %75 = stablehlo.reshape %arg115 : (tensor<1024xf32>) -> tensor<1x1x1024xf32> loc(#loc861)
    %76 = stablehlo.custom_call @tt.mark_argument(%75) {api_version = 0 : i32, mhlo.frontend_attributes = {ttcore.argument_type = "parameter", ttir.name = "L__self___bracket_core_paligemma_with_expert_gemma_expert_model_layers_0_input_layernorm_weight"}} : (tensor<1x1x1024xf32>) -> tensor<1x1x1024xf32> loc(#loc862)
    %77 = stablehlo.reshape %76 : (tensor<1x1x1024xf32>) -> tensor<1024xf32> loc(#loc863)
    %78 = stablehlo.add %77, %cst_14 : tensor<1024xf32> loc(#loc864)
    %79 = stablehlo.broadcast_in_dim %78, dims = [2] : (tensor<1024xf32>) -> tensor<1x51x1024xf32> loc(#loc865)
    %80 = stablehlo.multiply %74, %79 : tensor<1x51x1024xf32> loc(#loc866)
    %81 = stablehlo.reshape %80 : (tensor<1x51x1024xf32>) -> tensor<51x1024xf32> loc(#loc867)
    %82 = stablehlo.reshape %arg578 : (tensor<2048x1024xf32>) -> tensor<1x2048x1024xf32> loc(#loc868)
    %83 = stablehlo.custom_call @tt.mark_argument(%82) {api_version = 0 : i32, mhlo.frontend_attributes = {ttcore.argument_type = "parameter", ttir.name = "L__self___bracket_core_paligemma_with_expert_gemma_expert_model_layers_0_self_attn_q_proj.weight"}} : (tensor<1x2048x1024xf32>) -> tensor<1x2048x1024xf32> loc(#loc869)
    %84 = stablehlo.reshape %83 : (tensor<1x2048x1024xf32>) -> tensor<2048x1024xf32> loc(#loc870)
    %85 = stablehlo.transpose %84, dims = [1, 0] {result_layout = dense<[0, 1]> : tensor<2xindex>, xla_shape = "f32[1024,2048]{0,1}"} : (tensor<2048x1024xf32>) -> tensor<1024x2048xf32> loc(#loc871)
    %86 = stablehlo.dot_general %81, %85, contracting_dims = [1] x [0] : (tensor<51x1024xf32>, tensor<1024x2048xf32>) -> tensor<51x2048xf32> loc(#loc872)
    %87 = stablehlo.reshape %86 : (tensor<51x2048xf32>) -> tensor<1x51x8x256xf32> loc(#loc873)
    %88 = stablehlo.transpose %87, dims = [0, 2, 1, 3] {result_layout = dense<[3, 1, 2, 0]> : tensor<4xindex>, xla_shape = "f32[1,8,51,256]{3,1,2,0}"} : (tensor<1x51x8x256xf32>) -> tensor<1x8x51x256xf32> loc(#loc874)
    %89 = stablehlo.reshape %arg574 : (tensor<128xf32>) -> tensor<1x1x128xf32> loc(#loc875)
    %90 = stablehlo.custom_call @tt.mark_argument(%89) {api_version = 0 : i32, mhlo.frontend_attributes = {ttcore.argument_type = "constant", ttir.name = "L__self___bracket_core_paligemma_with_expert_gemma_expert_model_rotary_emb_inv_freq"}} : (tensor<1x1x128xf32>) -> tensor<1x1x128xf32> loc(#loc876)
    %91 = stablehlo.reshape %90 : (tensor<1x1x128xf32>) -> tensor<1x128x1xf32> loc(#loc877)
    %92 = stablehlo.reshape %arg573 : (tensor<1xi1>) -> tensor<1x1x1xi1> loc(#loc878)
    %93 = stablehlo.custom_call @tt.mark_argument(%92) {api_version = 0 : i32, mhlo.frontend_attributes = {ttcore.argument_type = "input", ttir.name = "args_2"}} : (tensor<1x1x1xi1>) -> tensor<1x1x1xi1> loc(#loc879)
    %94 = stablehlo.reshape %93 : (tensor<1x1x1xi1>) -> tensor<1xi1> loc(#loc880)
    %95 = stablehlo.broadcast_in_dim %94, dims = [0] : (tensor<1xi1>) -> tensor<1x256xi1> loc(#loc881)
    %96 = stablehlo.reshape %arg572 : (tensor<1xi1>) -> tensor<1x1x1xi1> loc(#loc882)
    %97 = stablehlo.custom_call @tt.mark_argument(%96) {api_version = 0 : i32, mhlo.frontend_attributes = {ttcore.argument_type = "input", ttir.name = "args_4"}} : (tensor<1x1x1xi1>) -> tensor<1x1x1xi1> loc(#loc883)
    %98 = stablehlo.reshape %97 : (tensor<1x1x1xi1>) -> tensor<1xi1> loc(#loc884)
    %99 = stablehlo.broadcast_in_dim %98, dims = [0] : (tensor<1xi1>) -> tensor<1x256xi1> loc(#loc885)
    %100 = stablehlo.reshape %arg571 : (tensor<1xi1>) -> tensor<1x1x1xi1> loc(#loc886)
    %101 = stablehlo.custom_call @tt.mark_argument(%100) {api_version = 0 : i32, mhlo.frontend_attributes = {ttcore.argument_type = "input", ttir.name = "args_6"}} : (tensor<1x1x1xi1>) -> tensor<1x1x1xi1> loc(#loc887)
    %102 = stablehlo.reshape %101 : (tensor<1x1x1xi1>) -> tensor<1xi1> loc(#loc888)
    %103 = stablehlo.broadcast_in_dim %102, dims = [0] : (tensor<1xi1>) -> tensor<1x256xi1> loc(#loc889)
    %104 = stablehlo.reshape %arg570 : (tensor<1x48xi1>) -> tensor<1x1x48xi1> loc(#loc890)
    %105 = stablehlo.custom_call @tt.mark_argument(%104) {api_version = 0 : i32, mhlo.frontend_attributes = {ttcore.argument_type = "input", ttir.name = "args_8"}} : (tensor<1x1x48xi1>) -> tensor<1x1x48xi1> loc(#loc891)
    %106 = stablehlo.reshape %105 : (tensor<1x1x48xi1>) -> tensor<1x48xi1> loc(#loc892)
    %107 = stablehlo.concatenate %95, %99, %103, %106, dim = 1 : (tensor<1x256xi1>, tensor<1x256xi1>, tensor<1x256xi1>, tensor<1x48xi1>) -> tensor<1x816xi1> loc(#loc893)
    %108 = stablehlo.convert %107 : (tensor<1x816xi1>) -> tensor<1x816xi64> loc(#loc894)
    %109 = stablehlo.reduce(%108 init: %c_28) applies stablehlo.add across dimensions = [1] : (tensor<1x816xi64>, tensor<i64>) -> tensor<1xi64> loc(#loc895)
    %110 = stablehlo.broadcast_in_dim %109, dims = [0] : (tensor<1xi64>) -> tensor<1x51xi64> loc(#loc896)
    %111 = stablehlo.reshape %arg568 : (tensor<i1>) -> tensor<1x1xi1> loc(#loc897)
    %112 = stablehlo.reshape %arg568 : (tensor<i1>) -> tensor<1xi1> loc(#loc898)
    %113 = stablehlo.broadcast_in_dim %112, dims = [0] : (tensor<1xi1>) -> tensor<1x50xi1> loc(#loc899)
    %114 = stablehlo.concatenate %111, %113, dim = 1 : (tensor<1x1xi1>, tensor<1x50xi1>) -> tensor<1x51xi1> loc(#loc900)
    %115 = stablehlo.convert %114 : (tensor<1x51xi1>) -> tensor<1x51xi64> loc(#loc901)
    %116 = "stablehlo.reduce_window"(%115, %c_28) <{padding = dense<[[0, 0], [50, 0]]> : tensor<2x2xi64>, window_dimensions = array<i64: 1, 51>}> ({
    ^bb0(%arg785: tensor<i64> loc("reduce-window.25981"), %arg786: tensor<i64> loc("reduce-window.25981")):
      %9450 = stablehlo.add %arg785, %arg786 : tensor<i64> loc(#loc903)
      stablehlo.return %9450 : tensor<i64> loc(#loc)
    }) : (tensor<1x51xi64>, tensor<i64>) -> tensor<1x51xi64> loc(#loc902)
    %117 = stablehlo.add %110, %116 : tensor<1x51xi64> loc(#loc904)
    %118 = stablehlo.subtract %117, %c_13 : tensor<1x51xi64> loc(#loc905)
    %119 = stablehlo.reshape %118 : (tensor<1x51xi64>) -> tensor<1x1x51xi64> loc(#loc906)
    %120 = stablehlo.convert %119 : (tensor<1x1x51xi64>) -> tensor<1x1x51xf32> loc(#loc907)
    %121 = stablehlo.dot_general %91, %120, batching_dims = [0] x [0], contracting_dims = [2] x [1] : (tensor<1x128x1xf32>, tensor<1x1x51xf32>) -> tensor<1x128x51xf32> loc(#loc908)
    %122 = stablehlo.transpose %121, dims = [0, 2, 1] {result_layout = dense<[1, 2, 0]> : tensor<3xindex>, xla_shape = "f32[1,51,128]{1,2,0}"} : (tensor<1x128x51xf32>) -> tensor<1x51x128xf32> loc(#loc909)
    %123 = stablehlo.concatenate %122, %122, dim = 2 : (tensor<1x51x128xf32>, tensor<1x51x128xf32>) -> tensor<1x51x256xf32> loc(#loc910)
    %124 = stablehlo.cosine %123 : tensor<1x51x256xf32> loc(#loc911)
    %125 = stablehlo.reshape %124 : (tensor<1x51x256xf32>) -> tensor<1x1x51x256xf32> loc(#loc912)
    %126 = stablehlo.broadcast_in_dim %124, dims = [0, 2, 3] : (tensor<1x51x256xf32>) -> tensor<1x8x51x256xf32> loc(#loc913)
    %127 = stablehlo.multiply %88, %126 : tensor<1x8x51x256xf32> loc(#loc914)
    %128 = stablehlo.slice %88 [0:1, 0:8, 0:51, 128:256] : (tensor<1x8x51x256xf32>) -> tensor<1x8x51x128xf32> loc(#loc915)
    %129 = stablehlo.negate %128 : tensor<1x8x51x128xf32> loc(#loc916)
    %130 = stablehlo.slice %88 [0:1, 0:8, 0:51, 0:128] : (tensor<1x8x51x256xf32>) -> tensor<1x8x51x128xf32> loc(#loc917)
    %131 = stablehlo.concatenate %129, %130, dim = 3 : (tensor<1x8x51x128xf32>, tensor<1x8x51x128xf32>) -> tensor<1x8x51x256xf32> loc(#loc918)
    %132 = stablehlo.sine %123 : tensor<1x51x256xf32> loc(#loc919)
    %133 = stablehlo.reshape %132 : (tensor<1x51x256xf32>) -> tensor<1x1x51x256xf32> loc(#loc920)
    %134 = stablehlo.broadcast_in_dim %132, dims = [0, 2, 3] : (tensor<1x51x256xf32>) -> tensor<1x8x51x256xf32> loc(#loc921)
    %135 = stablehlo.multiply %131, %134 : tensor<1x8x51x256xf32> loc(#loc922)
    %136 = stablehlo.add %127, %135 : tensor<1x8x51x256xf32> loc(#loc923)
    %137 = stablehlo.custom_call @tt.mark_argument(%arg567) {api_version = 0 : i32, mhlo.frontend_attributes = {ttcore.argument_type = "input", ttir.name = "args_1"}} : (tensor<1x3x224x224xf32>) -> tensor<1x3x224x224xf32> loc(#loc924)
    %138 = stablehlo.custom_call @tt.mark_argument(%arg456) {api_version = 0 : i32, mhlo.frontend_attributes = {ttcore.argument_type = "parameter", ttir.name = "L__self___bracket_core_paligemma_with_expert_paligemma_model_vision_tower_vision_model_embeddings_patch_embedding.weight"}} : (tensor<1152x3x14x14xf32>) -> tensor<1152x3x14x14xf32> loc(#loc925)
    %139 = stablehlo.convolution(%137, %138) dim_numbers = [b, f, 0, 1]x[o, i, 0, 1]->[b, f, 0, 1], window = {stride = [14, 14]} {batch_group_count = 1 : i64, feature_group_count = 1 : i64} : (tensor<1x3x224x224xf32>, tensor<1152x3x14x14xf32>) -> tensor<1x1152x16x16xf32> loc(#loc926)
    %140 = stablehlo.reshape %arg455 : (tensor<1152xf32>) -> tensor<1x1x1152xf32> loc(#loc927)
    %141 = stablehlo.custom_call @tt.mark_argument(%140) {api_version = 0 : i32, mhlo.frontend_attributes = {ttcore.argument_type = "parameter", ttir.name = "L__self___bracket_core_paligemma_with_expert_paligemma_model_vision_tower_vision_model_embeddings_patch_embedding.bias"}} : (tensor<1x1x1152xf32>) -> tensor<1x1x1152xf32> loc(#loc928)
    %142 = stablehlo.reshape %141 : (tensor<1x1x1152xf32>) -> tensor<1152xf32> loc(#loc929)
    %143 = stablehlo.broadcast_in_dim %142, dims = [1] : (tensor<1152xf32>) -> tensor<1x1152x16x16xf32> loc(#loc930)
    %144 = stablehlo.add %139, %143 : tensor<1x1152x16x16xf32> loc(#loc931)
    %145 = stablehlo.reshape %144 : (tensor<1x1152x16x16xf32>) -> tensor<1x1152x256xf32> loc(#loc932)
    %146 = stablehlo.transpose %145, dims = [0, 2, 1] {result_layout = dense<[1, 2, 0]> : tensor<3xindex>, xla_shape = "f32[1,256,1152]{1,2,0}"} : (tensor<1x1152x256xf32>) -> tensor<1x256x1152xf32> loc(#loc933)
    %147 = stablehlo.reshape %arg454 : (tensor<256x1152xf32>) -> tensor<1x256x1152xf32> loc(#loc934)
    %148 = stablehlo.custom_call @tt.mark_argument(%147) {api_version = 0 : i32, mhlo.frontend_attributes = {ttcore.argument_type = "parameter", ttir.name = "L__self___bracket_core_paligemma_with_expert_paligemma_model_vision_tower_vision_model_embeddings_position_embedding.weight"}} : (tensor<1x256x1152xf32>) -> tensor<1x256x1152xf32> loc(#loc935)
    %149 = stablehlo.reshape %148 : (tensor<1x256x1152xf32>) -> tensor<256x1152xf32> loc(#loc936)
    %150 = stablehlo.reshape %arg453 : (tensor<1x256xi64>) -> tensor<1x1x256xi64> loc(#loc937)
    %151 = stablehlo.custom_call @tt.mark_argument(%150) {api_version = 0 : i32, mhlo.frontend_attributes = {ttcore.argument_type = "constant", ttir.name = "L__self___bracket_core_paligemma_with_expert_paligemma_model_vision_tower_vision_model_embeddings_position_ids"}} : (tensor<1x1x256xi64>) -> tensor<1x1x256xi64> loc(#loc938)
    %152 = stablehlo.reshape %151 : (tensor<1x1x256xi64>) -> tensor<256xi64> loc(#loc939)
    %153 = stablehlo.convert %152 : (tensor<256xi64>) -> tensor<256xui32> loc(#loc940)
    %154 = "stablehlo.gather"(%149, %153) <{dimension_numbers = #stablehlo.gather<offset_dims = [1], collapsed_slice_dims = [0], start_index_map = [0], index_vector_dim = 1>, slice_sizes = array<i64: 1, 1152>}> : (tensor<256x1152xf32>, tensor<256xui32>) -> tensor<256x1152xf32> loc(#loc941)
    %155 = stablehlo.reshape %154 : (tensor<256x1152xf32>) -> tensor<1x256x1152xf32> loc(#loc942)
    %156 = stablehlo.add %146, %155 {result_layout = dense<[1, 2, 0]> : tensor<3xindex>, xla_shape = "f32[1,256,1152]{1,2,0}"} : tensor<1x256x1152xf32> loc(#loc943)
    %157 = stablehlo.reshape %arg452 : (tensor<1152xf32>) -> tensor<1x1x1152xf32> loc(#loc944)
    %158 = stablehlo.custom_call @tt.mark_argument(%157) {api_version = 0 : i32, mhlo.frontend_attributes = {ttcore.argument_type = "parameter", ttir.name = "L__self___bracket_core_paligemma_with_expert_paligemma_model_vision_tower_vision_model_encoder_layers_0_layer_norm1.weight"}} : (tensor<1x1x1152xf32>) -> tensor<1x1x1152xf32> loc(#loc945)
    %159 = stablehlo.reshape %158 : (tensor<1x1x1152xf32>) -> tensor<1152xf32> loc(#loc946)
    %160 = stablehlo.reshape %arg451 : (tensor<1152xf32>) -> tensor<1x1x1152xf32> loc(#loc947)
    %161 = stablehlo.custom_call @tt.mark_argument(%160) {api_version = 0 : i32, mhlo.frontend_attributes = {ttcore.argument_type = "parameter", ttir.name = "L__self___bracket_core_paligemma_with_expert_paligemma_model_vision_tower_vision_model_encoder_layers_0_layer_norm1.bias"}} : (tensor<1x1x1152xf32>) -> tensor<1x1x1152xf32> loc(#loc948)
    %162 = stablehlo.reshape %161 : (tensor<1x1x1152xf32>) -> tensor<1152xf32> loc(#loc949)
    %163 = stablehlo.composite "tenstorrent.layer_norm" %156, %159, %162 {composite_attributes = {epsilon = 9.99999997E-7 : f32, normalized_shape = dense<1152> : tensor<1xi64>}, decomposition = @tenstorrent.layer_norm.impl_57} : (tensor<1x256x1152xf32>, tensor<1152xf32>, tensor<1152xf32>) -> tensor<1x256x1152xf32> loc(#loc950)
    %164 = stablehlo.reshape %163 : (tensor<1x256x1152xf32>) -> tensor<256x1152xf32> loc(#loc951)
    %165 = stablehlo.reshape %arg461 : (tensor<1152x1152xf32>) -> tensor<1x1152x1152xf32> loc(#loc952)
    %166 = stablehlo.custom_call @tt.mark_argument(%165) {api_version = 0 : i32, mhlo.frontend_attributes = {ttcore.argument_type = "parameter", ttir.name = "L__self___bracket_core_paligemma_with_expert_paligemma_model_vision_tower_vision_model_encoder_layers_0_self_attn_q_proj.weight"}} : (tensor<1x1152x1152xf32>) -> tensor<1x1152x1152xf32> loc(#loc953)
    %167 = stablehlo.reshape %166 : (tensor<1x1152x1152xf32>) -> tensor<1152x1152xf32> loc(#loc954)
    %168 = stablehlo.transpose %167, dims = [1, 0] {result_layout = dense<[0, 1]> : tensor<2xindex>, xla_shape = "f32[1152,1152]{0,1}"} : (tensor<1152x1152xf32>) -> tensor<1152x1152xf32> loc(#loc955)
    %169 = stablehlo.dot_general %164, %168, contracting_dims = [1] x [0] : (tensor<256x1152xf32>, tensor<1152x1152xf32>) -> tensor<256x1152xf32> loc(#loc956)
    %170 = stablehlo.reshape %169 : (tensor<256x1152xf32>) -> tensor<1x256x1152xf32> loc(#loc957)
    %171 = stablehlo.reshape %arg460 : (tensor<1152xf32>) -> tensor<1x1x1152xf32> loc(#loc958)
    %172 = stablehlo.custom_call @tt.mark_argument(%171) {api_version = 0 : i32, mhlo.frontend_attributes = {ttcore.argument_type = "parameter", ttir.name = "L__self___bracket_core_paligemma_with_expert_paligemma_model_vision_tower_vision_model_encoder_layers_0_self_attn_q_proj.bias"}} : (tensor<1x1x1152xf32>) -> tensor<1x1x1152xf32> loc(#loc959)
    %173 = stablehlo.reshape %172 : (tensor<1x1x1152xf32>) -> tensor<1152xf32> loc(#loc960)
    %174 = stablehlo.broadcast_in_dim %173, dims = [2] : (tensor<1152xf32>) -> tensor<1x256x1152xf32> loc(#loc961)
    %175 = stablehlo.add %170, %174 : tensor<1x256x1152xf32> loc(#loc962)
    %176 = stablehlo.reshape %175 : (tensor<1x256x1152xf32>) -> tensor<1x256x16x72xf32> loc(#loc963)
    %177 = stablehlo.transpose %176, dims = [0, 2, 1, 3] {result_layout = dense<[3, 1, 2, 0]> : tensor<4xindex>, xla_shape = "f32[1,16,256,72]{3,1,2,0}"} : (tensor<1x256x16x72xf32>) -> tensor<1x16x256x72xf32> loc(#loc964)
    %178 = stablehlo.reshape %arg459 : (tensor<1152x1152xf32>) -> tensor<1x1152x1152xf32> loc(#loc965)
    %179 = stablehlo.custom_call @tt.mark_argument(%178) {api_version = 0 : i32, mhlo.frontend_attributes = {ttcore.argument_type = "parameter", ttir.name = "L__self___bracket_core_paligemma_with_expert_paligemma_model_vision_tower_vision_model_encoder_layers_0_self_attn_k_proj.weight"}} : (tensor<1x1152x1152xf32>) -> tensor<1x1152x1152xf32> loc(#loc966)
    %180 = stablehlo.reshape %179 : (tensor<1x1152x1152xf32>) -> tensor<1152x1152xf32> loc(#loc967)
    %181 = stablehlo.transpose %180, dims = [1, 0] {result_layout = dense<[0, 1]> : tensor<2xindex>, xla_shape = "f32[1152,1152]{0,1}"} : (tensor<1152x1152xf32>) -> tensor<1152x1152xf32> loc(#loc968)
    %182 = stablehlo.dot_general %164, %181, contracting_dims = [1] x [0] : (tensor<256x1152xf32>, tensor<1152x1152xf32>) -> tensor<256x1152xf32> loc(#loc969)
    %183 = stablehlo.reshape %182 : (tensor<256x1152xf32>) -> tensor<1x256x1152xf32> loc(#loc970)
    %184 = stablehlo.reshape %arg458 : (tensor<1152xf32>) -> tensor<1x1x1152xf32> loc(#loc971)
    %185 = stablehlo.custom_call @tt.mark_argument(%184) {api_version = 0 : i32, mhlo.frontend_attributes = {ttcore.argument_type = "parameter", ttir.name = "L__self___bracket_core_paligemma_with_expert_paligemma_model_vision_tower_vision_model_encoder_layers_0_self_attn_k_proj.bias"}} : (tensor<1x1x1152xf32>) -> tensor<1x1x1152xf32> loc(#loc972)
    %186 = stablehlo.reshape %185 : (tensor<1x1x1152xf32>) -> tensor<1152xf32> loc(#loc973)
    %187 = stablehlo.broadcast_in_dim %186, dims = [2] : (tensor<1152xf32>) -> tensor<1x256x1152xf32> loc(#loc974)
    %188 = stablehlo.add %183, %187 : tensor<1x256x1152xf32> loc(#loc975)
    %189 = stablehlo.reshape %188 : (tensor<1x256x1152xf32>) -> tensor<1x256x16x72xf32> loc(#loc976)
    %190 = stablehlo.transpose %189, dims = [0, 2, 3, 1] : (tensor<1x256x16x72xf32>) -> tensor<1x16x72x256xf32> loc(#loc977)
    %191 = stablehlo.dot_general %177, %190, batching_dims = [0, 1] x [0, 1], contracting_dims = [3] x [2] {mhlo.frontend_attributes = {grad_x = "false", grad_y = "false"}} : (tensor<1x16x256x72xf32>, tensor<1x16x72x256xf32>) -> tensor<1x16x256x256xf32> loc(#loc978)
    %192 = stablehlo.multiply %191, %cst_12 : tensor<1x16x256x256xf32> loc(#loc979)
    %193 = stablehlo.reduce(%192 init: %cst_27) applies stablehlo.maximum across dimensions = [3] : (tensor<1x16x256x256xf32>, tensor<f32>) -> tensor<1x16x256xf32> loc(#loc980)
    %194 = stablehlo.broadcast_in_dim %193, dims = [0, 1, 2] : (tensor<1x16x256xf32>) -> tensor<1x16x256x256xf32> loc(#loc981)
    %195 = stablehlo.subtract %192, %194 : tensor<1x16x256x256xf32> loc(#loc982)
    %196 = stablehlo.exponential %195 : tensor<1x16x256x256xf32> loc(#loc983)
    %197 = stablehlo.reduce(%196 init: %cst_29) applies stablehlo.add across dimensions = [3] : (tensor<1x16x256x256xf32>, tensor<f32>) -> tensor<1x16x256xf32> loc(#loc984)
    %198 = stablehlo.broadcast_in_dim %197, dims = [0, 1, 2] : (tensor<1x16x256xf32>) -> tensor<1x16x256x256xf32> loc(#loc985)
    %199 = stablehlo.divide %196, %198 : tensor<1x16x256x256xf32> loc(#loc986)
    %200 = stablehlo.reshape %arg450 : (tensor<1152x1152xf32>) -> tensor<1x1152x1152xf32> loc(#loc987)
    %201 = stablehlo.custom_call @tt.mark_argument(%200) {api_version = 0 : i32, mhlo.frontend_attributes = {ttcore.argument_type = "parameter", ttir.name = "L__self___bracket_core_paligemma_with_expert_paligemma_model_vision_tower_vision_model_encoder_layers_0_self_attn_v_proj.weight"}} : (tensor<1x1152x1152xf32>) -> tensor<1x1152x1152xf32> loc(#loc988)
    %202 = stablehlo.reshape %201 : (tensor<1x1152x1152xf32>) -> tensor<1152x1152xf32> loc(#loc989)
    %203 = stablehlo.transpose %202, dims = [1, 0] {result_layout = dense<[0, 1]> : tensor<2xindex>, xla_shape = "f32[1152,1152]{0,1}"} : (tensor<1152x1152xf32>) -> tensor<1152x1152xf32> loc(#loc990)
    %204 = stablehlo.dot_general %164, %203, contracting_dims = [1] x [0] : (tensor<256x1152xf32>, tensor<1152x1152xf32>) -> tensor<256x1152xf32> loc(#loc991)
    %205 = stablehlo.reshape %204 : (tensor<256x1152xf32>) -> tensor<1x256x1152xf32> loc(#loc992)
    %206 = stablehlo.reshape %arg449 : (tensor<1152xf32>) -> tensor<1x1x1152xf32> loc(#loc993)
    %207 = stablehlo.custom_call @tt.mark_argument(%206) {api_version = 0 : i32, mhlo.frontend_attributes = {ttcore.argument_type = "parameter", ttir.name = "L__self___bracket_core_paligemma_with_expert_paligemma_model_vision_tower_vision_model_encoder_layers_0_self_attn_v_proj.bias"}} : (tensor<1x1x1152xf32>) -> tensor<1x1x1152xf32> loc(#loc994)
    %208 = stablehlo.reshape %207 : (tensor<1x1x1152xf32>) -> tensor<1152xf32> loc(#loc995)
    %209 = stablehlo.broadcast_in_dim %208, dims = [2] : (tensor<1152xf32>) -> tensor<1x256x1152xf32> loc(#loc996)
    %210 = stablehlo.add %205, %209 : tensor<1x256x1152xf32> loc(#loc997)
    %211 = stablehlo.reshape %210 : (tensor<1x256x1152xf32>) -> tensor<1x256x16x72xf32> loc(#loc998)
    %212 = stablehlo.transpose %211, dims = [0, 2, 1, 3] {result_layout = dense<[3, 1, 2, 0]> : tensor<4xindex>, xla_shape = "f32[1,16,256,72]{3,1,2,0}"} : (tensor<1x256x16x72xf32>) -> tensor<1x16x256x72xf32> loc(#loc999)
    %213 = stablehlo.dot_general %199, %212, batching_dims = [0, 1] x [0, 1], contracting_dims = [3] x [2] {mhlo.frontend_attributes = {grad_x = "false", grad_y = "false"}} : (tensor<1x16x256x256xf32>, tensor<1x16x256x72xf32>) -> tensor<1x16x256x72xf32> loc(#loc1000)
    %214 = stablehlo.transpose %213, dims = [0, 2, 1, 3] {result_layout = dense<[3, 1, 2, 0]> : tensor<4xindex>, xla_shape = "f32[1,256,16,72]{3,1,2,0}"} : (tensor<1x16x256x72xf32>) -> tensor<1x256x16x72xf32> loc(#loc1001)
    %215 = stablehlo.reshape %214 : (tensor<1x256x16x72xf32>) -> tensor<256x1152xf32> loc(#loc1002)
    %216 = stablehlo.reshape %arg448 : (tensor<1152x1152xf32>) -> tensor<1x1152x1152xf32> loc(#loc1003)
    %217 = stablehlo.custom_call @tt.mark_argument(%216) {api_version = 0 : i32, mhlo.frontend_attributes = {ttcore.argument_type = "parameter", ttir.name = "L__self___bracket_core_paligemma_with_expert_paligemma_model_vision_tower_vision_model_encoder_layers_0_self_attn_out_proj.weight"}} : (tensor<1x1152x1152xf32>) -> tensor<1x1152x1152xf32> loc(#loc1004)
    %218 = stablehlo.reshape %217 : (tensor<1x1152x1152xf32>) -> tensor<1152x1152xf32> loc(#loc1005)
    %219 = stablehlo.transpose %218, dims = [1, 0] {result_layout = dense<[0, 1]> : tensor<2xindex>, xla_shape = "f32[1152,1152]{0,1}"} : (tensor<1152x1152xf32>) -> tensor<1152x1152xf32> loc(#loc1006)
    %220 = stablehlo.dot_general %215, %219, contracting_dims = [1] x [0] : (tensor<256x1152xf32>, tensor<1152x1152xf32>) -> tensor<256x1152xf32> loc(#loc1007)
    %221 = stablehlo.reshape %220 : (tensor<256x1152xf32>) -> tensor<1x256x1152xf32> loc(#loc1008)
    %222 = stablehlo.reshape %arg447 : (tensor<1152xf32>) -> tensor<1x1x1152xf32> loc(#loc1009)
    %223 = stablehlo.custom_call @tt.mark_argument(%222) {api_version = 0 : i32, mhlo.frontend_attributes = {ttcore.argument_type = "parameter", ttir.name = "L__self___bracket_core_paligemma_with_expert_paligemma_model_vision_tower_vision_model_encoder_layers_0_self_attn_out_proj.bias"}} : (tensor<1x1x1152xf32>) -> tensor<1x1x1152xf32> loc(#loc1010)
    %224 = stablehlo.reshape %223 : (tensor<1x1x1152xf32>) -> tensor<1152xf32> loc(#loc1011)
    %225 = stablehlo.broadcast_in_dim %224, dims = [2] : (tensor<1152xf32>) -> tensor<1x256x1152xf32> loc(#loc1012)
    %226 = stablehlo.add %221, %225 : tensor<1x256x1152xf32> loc(#loc1013)
    %227 = stablehlo.add %156, %226 {result_layout = dense<[1, 2, 0]> : tensor<3xindex>, xla_shape = "f32[1,256,1152]{1,2,0}"} : tensor<1x256x1152xf32> loc(#loc1014)
    %228 = stablehlo.reshape %arg446 : (tensor<1152xf32>) -> tensor<1x1x1152xf32> loc(#loc1015)
    %229 = stablehlo.custom_call @tt.mark_argument(%228) {api_version = 0 : i32, mhlo.frontend_attributes = {ttcore.argument_type = "parameter", ttir.name = "L__self___bracket_core_paligemma_with_expert_paligemma_model_vision_tower_vision_model_encoder_layers_0_layer_norm2.weight"}} : (tensor<1x1x1152xf32>) -> tensor<1x1x1152xf32> loc(#loc1016)
    %230 = stablehlo.reshape %229 : (tensor<1x1x1152xf32>) -> tensor<1152xf32> loc(#loc1017)
    %231 = stablehlo.reshape %arg445 : (tensor<1152xf32>) -> tensor<1x1x1152xf32> loc(#loc1018)
    %232 = stablehlo.custom_call @tt.mark_argument(%231) {api_version = 0 : i32, mhlo.frontend_attributes = {ttcore.argument_type = "parameter", ttir.name = "L__self___bracket_core_paligemma_with_expert_paligemma_model_vision_tower_vision_model_encoder_layers_0_layer_norm2.bias"}} : (tensor<1x1x1152xf32>) -> tensor<1x1x1152xf32> loc(#loc1019)
    %233 = stablehlo.reshape %232 : (tensor<1x1x1152xf32>) -> tensor<1152xf32> loc(#loc1020)
    %234 = stablehlo.composite "tenstorrent.layer_norm" %227, %230, %233 {composite_attributes = {epsilon = 9.99999997E-7 : f32, normalized_shape = dense<1152> : tensor<1xi64>}, decomposition = @tenstorrent.layer_norm.impl_131} : (tensor<1x256x1152xf32>, tensor<1152xf32>, tensor<1152xf32>) -> tensor<1x256x1152xf32> loc(#loc1021)
    %235 = stablehlo.reshape %234 : (tensor<1x256x1152xf32>) -> tensor<256x1152xf32> loc(#loc1022)
    %236 = stablehlo.reshape %arg444 : (tensor<4304x1152xf32>) -> tensor<1x4304x1152xf32> loc(#loc1023)
    %237 = stablehlo.custom_call @tt.mark_argument(%236) {api_version = 0 : i32, mhlo.frontend_attributes = {ttcore.argument_type = "parameter", ttir.name = "L__self___bracket_core_paligemma_with_expert_paligemma_model_vision_tower_vision_model_encoder_layers_0_mlp_fc1.weight"}} : (tensor<1x4304x1152xf32>) -> tensor<1x4304x1152xf32> loc(#loc1024)
    %238 = stablehlo.reshape %237 : (tensor<1x4304x1152xf32>) -> tensor<4304x1152xf32> loc(#loc1025)
    %239 = stablehlo.transpose %238, dims = [1, 0] {result_layout = dense<[0, 1]> : tensor<2xindex>, xla_shape = "f32[1152,4304]{0,1}"} : (tensor<4304x1152xf32>) -> tensor<1152x4304xf32> loc(#loc1026)
    %240 = stablehlo.dot_general %235, %239, contracting_dims = [1] x [0] : (tensor<256x1152xf32>, tensor<1152x4304xf32>) -> tensor<256x4304xf32> loc(#loc1027)
    %241 = stablehlo.reshape %240 : (tensor<256x4304xf32>) -> tensor<1x256x4304xf32> loc(#loc1028)
    %242 = stablehlo.reshape %arg443 : (tensor<4304xf32>) -> tensor<1x1x4304xf32> loc(#loc1029)
    %243 = stablehlo.custom_call @tt.mark_argument(%242) {api_version = 0 : i32, mhlo.frontend_attributes = {ttcore.argument_type = "parameter", ttir.name = "L__self___bracket_core_paligemma_with_expert_paligemma_model_vision_tower_vision_model_encoder_layers_0_mlp_fc1.bias"}} : (tensor<1x1x4304xf32>) -> tensor<1x1x4304xf32> loc(#loc1030)
    %244 = stablehlo.reshape %243 : (tensor<1x1x4304xf32>) -> tensor<4304xf32> loc(#loc1031)
    %245 = stablehlo.broadcast_in_dim %244, dims = [2] : (tensor<4304xf32>) -> tensor<1x256x4304xf32> loc(#loc1032)
    %246 = stablehlo.add %241, %245 : tensor<1x256x4304xf32> loc(#loc1033)
    %247 = stablehlo.composite "tenstorrent.gelu_tanh" %246 {composite_attributes = {approximate = "tanh"}, decomposition = @tenstorrent.gelu_tanh.impl_57} : (tensor<1x256x4304xf32>) -> tensor<1x256x4304xf32> loc(#loc1034)
    %248 = stablehlo.reshape %247 : (tensor<1x256x4304xf32>) -> tensor<256x4304xf32> loc(#loc1035)
    %249 = stablehlo.reshape %arg442 : (tensor<1152x4304xf32>) -> tensor<1x1152x4304xf32> loc(#loc1036)
    %250 = stablehlo.custom_call @tt.mark_argument(%249) {api_version = 0 : i32, mhlo.frontend_attributes = {ttcore.argument_type = "parameter", ttir.name = "L__self___bracket_core_paligemma_with_expert_paligemma_model_vision_tower_vision_model_encoder_layers_0_mlp_fc2.weight"}} : (tensor<1x1152x4304xf32>) -> tensor<1x1152x4304xf32> loc(#loc1037)
    %251 = stablehlo.reshape %250 : (tensor<1x1152x4304xf32>) -> tensor<1152x4304xf32> loc(#loc1038)
    %252 = stablehlo.transpose %251, dims = [1, 0] {result_layout = dense<[0, 1]> : tensor<2xindex>, xla_shape = "f32[4304,1152]{0,1}"} : (tensor<1152x4304xf32>) -> tensor<4304x1152xf32> loc(#loc1039)
    %253 = stablehlo.dot_general %248, %252, contracting_dims = [1] x [0] : (tensor<256x4304xf32>, tensor<4304x1152xf32>) -> tensor<256x1152xf32> loc(#loc1040)
    %254 = stablehlo.reshape %253 : (tensor<256x1152xf32>) -> tensor<1x256x1152xf32> loc(#loc1041)
    %255 = stablehlo.reshape %arg441 : (tensor<1152xf32>) -> tensor<1x1x1152xf32> loc(#loc1042)
    %256 = stablehlo.custom_call @tt.mark_argument(%255) {api_version = 0 : i32, mhlo.frontend_attributes = {ttcore.argument_type = "parameter", ttir.name = "L__self___bracket_core_paligemma_with_expert_paligemma_model_vision_tower_vision_model_encoder_layers_0_mlp_fc2.bias"}} : (tensor<1x1x1152xf32>) -> tensor<1x1x1152xf32> loc(#loc1043)
    %257 = stablehlo.reshape %256 : (tensor<1x1x1152xf32>) -> tensor<1152xf32> loc(#loc1044)
    %258 = stablehlo.broadcast_in_dim %257, dims = [2] : (tensor<1152xf32>) -> tensor<1x256x1152xf32> loc(#loc1045)
    %259 = stablehlo.add %254, %258 : tensor<1x256x1152xf32> loc(#loc1046)
    %260 = stablehlo.add %227, %259 {result_layout = dense<[1, 2, 0]> : tensor<3xindex>, xla_shape = "f32[1,256,1152]{1,2,0}"} : tensor<1x256x1152xf32> loc(#loc1047)
    %261 = stablehlo.reshape %arg440 : (tensor<1152xf32>) -> tensor<1x1x1152xf32> loc(#loc1048)
    %262 = stablehlo.custom_call @tt.mark_argument(%261) {api_version = 0 : i32, mhlo.frontend_attributes = {ttcore.argument_type = "parameter", ttir.name = "L__self___bracket_core_paligemma_with_expert_paligemma_model_vision_tower_vision_model_encoder_layers_1_layer_norm1.weight"}} : (tensor<1x1x1152xf32>) -> tensor<1x1x1152xf32> loc(#loc1049)
    %263 = stablehlo.reshape %262 : (tensor<1x1x1152xf32>) -> tensor<1152xf32> loc(#loc1050)
    %264 = stablehlo.reshape %arg439 : (tensor<1152xf32>) -> tensor<1x1x1152xf32> loc(#loc1051)
    %265 = stablehlo.custom_call @tt.mark_argument(%264) {api_version = 0 : i32, mhlo.frontend_attributes = {ttcore.argument_type = "parameter", ttir.name = "L__self___bracket_core_paligemma_with_expert_paligemma_model_vision_tower_vision_model_encoder_layers_1_layer_norm1.bias"}} : (tensor<1x1x1152xf32>) -> tensor<1x1x1152xf32> loc(#loc1052)
    %266 = stablehlo.reshape %265 : (tensor<1x1x1152xf32>) -> tensor<1152xf32> loc(#loc1053)
    %267 = stablehlo.composite "tenstorrent.layer_norm" %260, %263, %266 {composite_attributes = {epsilon = 9.99999997E-7 : f32, normalized_shape = dense<1152> : tensor<1xi64>}, decomposition = @tenstorrent.layer_norm.impl_60} : (tensor<1x256x1152xf32>, tensor<1152xf32>, tensor<1152xf32>) -> tensor<1x256x1152xf32> loc(#loc1054)
    %268 = stablehlo.reshape %267 : (tensor<1x256x1152xf32>) -> tensor<256x1152xf32> loc(#loc1055)
    %269 = stablehlo.reshape %arg465 : (tensor<1152x1152xf32>) -> tensor<1x1152x1152xf32> loc(#loc1056)
    %270 = stablehlo.custom_call @tt.mark_argument(%269) {api_version = 0 : i32, mhlo.frontend_attributes = {ttcore.argument_type = "parameter", ttir.name = "L__self___bracket_core_paligemma_with_expert_paligemma_model_vision_tower_vision_model_encoder_layers_1_self_attn_q_proj.weight"}} : (tensor<1x1152x1152xf32>) -> tensor<1x1152x1152xf32> loc(#loc1057)
    %271 = stablehlo.reshape %270 : (tensor<1x1152x1152xf32>) -> tensor<1152x1152xf32> loc(#loc1058)
    %272 = stablehlo.transpose %271, dims = [1, 0] {result_layout = dense<[0, 1]> : tensor<2xindex>, xla_shape = "f32[1152,1152]{0,1}"} : (tensor<1152x1152xf32>) -> tensor<1152x1152xf32> loc(#loc1059)
    %273 = stablehlo.dot_general %268, %272, contracting_dims = [1] x [0] : (tensor<256x1152xf32>, tensor<1152x1152xf32>) -> tensor<256x1152xf32> loc(#loc1060)
    %274 = stablehlo.reshape %273 : (tensor<256x1152xf32>) -> tensor<1x256x1152xf32> loc(#loc1061)
    %275 = stablehlo.reshape %arg464 : (tensor<1152xf32>) -> tensor<1x1x1152xf32> loc(#loc1062)
    %276 = stablehlo.custom_call @tt.mark_argument(%275) {api_version = 0 : i32, mhlo.frontend_attributes = {ttcore.argument_type = "parameter", ttir.name = "L__self___bracket_core_paligemma_with_expert_paligemma_model_vision_tower_vision_model_encoder_layers_1_self_attn_q_proj.bias"}} : (tensor<1x1x1152xf32>) -> tensor<1x1x1152xf32> loc(#loc1063)
    %277 = stablehlo.reshape %276 : (tensor<1x1x1152xf32>) -> tensor<1152xf32> loc(#loc1064)
    %278 = stablehlo.broadcast_in_dim %277, dims = [2] : (tensor<1152xf32>) -> tensor<1x256x1152xf32> loc(#loc1065)
    %279 = stablehlo.add %274, %278 : tensor<1x256x1152xf32> loc(#loc1066)
    %280 = stablehlo.reshape %279 : (tensor<1x256x1152xf32>) -> tensor<1x256x16x72xf32> loc(#loc1067)
    %281 = stablehlo.transpose %280, dims = [0, 2, 1, 3] {result_layout = dense<[3, 1, 2, 0]> : tensor<4xindex>, xla_shape = "f32[1,16,256,72]{3,1,2,0}"} : (tensor<1x256x16x72xf32>) -> tensor<1x16x256x72xf32> loc(#loc1068)
    %282 = stablehlo.reshape %arg463 : (tensor<1152x1152xf32>) -> tensor<1x1152x1152xf32> loc(#loc1069)
    %283 = stablehlo.custom_call @tt.mark_argument(%282) {api_version = 0 : i32, mhlo.frontend_attributes = {ttcore.argument_type = "parameter", ttir.name = "L__self___bracket_core_paligemma_with_expert_paligemma_model_vision_tower_vision_model_encoder_layers_1_self_attn_k_proj.weight"}} : (tensor<1x1152x1152xf32>) -> tensor<1x1152x1152xf32> loc(#loc1070)
    %284 = stablehlo.reshape %283 : (tensor<1x1152x1152xf32>) -> tensor<1152x1152xf32> loc(#loc1071)
    %285 = stablehlo.transpose %284, dims = [1, 0] {result_layout = dense<[0, 1]> : tensor<2xindex>, xla_shape = "f32[1152,1152]{0,1}"} : (tensor<1152x1152xf32>) -> tensor<1152x1152xf32> loc(#loc1072)
    %286 = stablehlo.dot_general %268, %285, contracting_dims = [1] x [0] : (tensor<256x1152xf32>, tensor<1152x1152xf32>) -> tensor<256x1152xf32> loc(#loc1073)
    %287 = stablehlo.reshape %286 : (tensor<256x1152xf32>) -> tensor<1x256x1152xf32> loc(#loc1074)
    %288 = stablehlo.reshape %arg462 : (tensor<1152xf32>) -> tensor<1x1x1152xf32> loc(#loc1075)
    %289 = stablehlo.custom_call @tt.mark_argument(%288) {api_version = 0 : i32, mhlo.frontend_attributes = {ttcore.argument_type = "parameter", ttir.name = "L__self___bracket_core_paligemma_with_expert_paligemma_model_vision_tower_vision_model_encoder_layers_1_self_attn_k_proj.bias"}} : (tensor<1x1x1152xf32>) -> tensor<1x1x1152xf32> loc(#loc1076)
    %290 = stablehlo.reshape %289 : (tensor<1x1x1152xf32>) -> tensor<1152xf32> loc(#loc1077)
    %291 = stablehlo.broadcast_in_dim %290, dims = [2] : (tensor<1152xf32>) -> tensor<1x256x1152xf32> loc(#loc1078)
    %292 = stablehlo.add %287, %291 : tensor<1x256x1152xf32> loc(#loc1079)
    %293 = stablehlo.reshape %292 : (tensor<1x256x1152xf32>) -> tensor<1x256x16x72xf32> loc(#loc1080)
    %294 = stablehlo.transpose %293, dims = [0, 2, 3, 1] : (tensor<1x256x16x72xf32>) -> tensor<1x16x72x256xf32> loc(#loc1081)
    %295 = stablehlo.dot_general %281, %294, batching_dims = [0, 1] x [0, 1], contracting_dims = [3] x [2] {mhlo.frontend_attributes = {grad_x = "false", grad_y = "false"}} : (tensor<1x16x256x72xf32>, tensor<1x16x72x256xf32>) -> tensor<1x16x256x256xf32> loc(#loc1082)
    %296 = stablehlo.multiply %295, %cst_12 : tensor<1x16x256x256xf32> loc(#loc1083)
    %297 = stablehlo.reduce(%296 init: %cst_27) applies stablehlo.maximum across dimensions = [3] : (tensor<1x16x256x256xf32>, tensor<f32>) -> tensor<1x16x256xf32> loc(#loc1084)
    %298 = stablehlo.broadcast_in_dim %297, dims = [0, 1, 2] : (tensor<1x16x256xf32>) -> tensor<1x16x256x256xf32> loc(#loc1085)
    %299 = stablehlo.subtract %296, %298 : tensor<1x16x256x256xf32> loc(#loc1086)
    %300 = stablehlo.exponential %299 : tensor<1x16x256x256xf32> loc(#loc1087)
    %301 = stablehlo.reduce(%300 init: %cst_29) applies stablehlo.add across dimensions = [3] : (tensor<1x16x256x256xf32>, tensor<f32>) -> tensor<1x16x256xf32> loc(#loc1088)
    %302 = stablehlo.broadcast_in_dim %301, dims = [0, 1, 2] : (tensor<1x16x256xf32>) -> tensor<1x16x256x256xf32> loc(#loc1089)
    %303 = stablehlo.divide %300, %302 : tensor<1x16x256x256xf32> loc(#loc1090)
    %304 = stablehlo.reshape %arg438 : (tensor<1152x1152xf32>) -> tensor<1x1152x1152xf32> loc(#loc1091)
    %305 = stablehlo.custom_call @tt.mark_argument(%304) {api_version = 0 : i32, mhlo.frontend_attributes = {ttcore.argument_type = "parameter", ttir.name = "L__self___bracket_core_paligemma_with_expert_paligemma_model_vision_tower_vision_model_encoder_layers_1_self_attn_v_proj.weight"}} : (tensor<1x1152x1152xf32>) -> tensor<1x1152x1152xf32> loc(#loc1092)
    %306 = stablehlo.reshape %305 : (tensor<1x1152x1152xf32>) -> tensor<1152x1152xf32> loc(#loc1093)
    %307 = stablehlo.transpose %306, dims = [1, 0] {result_layout = dense<[0, 1]> : tensor<2xindex>, xla_shape = "f32[1152,1152]{0,1}"} : (tensor<1152x1152xf32>) -> tensor<1152x1152xf32> loc(#loc1094)
    %308 = stablehlo.dot_general %268, %307, contracting_dims = [1] x [0] : (tensor<256x1152xf32>, tensor<1152x1152xf32>) -> tensor<256x1152xf32> loc(#loc1095)
    %309 = stablehlo.reshape %308 : (tensor<256x1152xf32>) -> tensor<1x256x1152xf32> loc(#loc1096)
    %310 = stablehlo.reshape %arg437 : (tensor<1152xf32>) -> tensor<1x1x1152xf32> loc(#loc1097)
    %311 = stablehlo.custom_call @tt.mark_argument(%310) {api_version = 0 : i32, mhlo.frontend_attributes = {ttcore.argument_type = "parameter", ttir.name = "L__self___bracket_core_paligemma_with_expert_paligemma_model_vision_tower_vision_model_encoder_layers_1_self_attn_v_proj.bias"}} : (tensor<1x1x1152xf32>) -> tensor<1x1x1152xf32> loc(#loc1098)
    %312 = stablehlo.reshape %311 : (tensor<1x1x1152xf32>) -> tensor<1152xf32> loc(#loc1099)
    %313 = stablehlo.broadcast_in_dim %312, dims = [2] : (tensor<1152xf32>) -> tensor<1x256x1152xf32> loc(#loc1100)
    %314 = stablehlo.add %309, %313 : tensor<1x256x1152xf32> loc(#loc1101)
    %315 = stablehlo.reshape %314 : (tensor<1x256x1152xf32>) -> tensor<1x256x16x72xf32> loc(#loc1102)
    %316 = stablehlo.transpose %315, dims = [0, 2, 1, 3] {result_layout = dense<[3, 1, 2, 0]> : tensor<4xindex>, xla_shape = "f32[1,16,256,72]{3,1,2,0}"} : (tensor<1x256x16x72xf32>) -> tensor<1x16x256x72xf32> loc(#loc1103)
    %317 = stablehlo.dot_general %303, %316, batching_dims = [0, 1] x [0, 1], contracting_dims = [3] x [2] {mhlo.frontend_attributes = {grad_x = "false", grad_y = "false"}} : (tensor<1x16x256x256xf32>, tensor<1x16x256x72xf32>) -> tensor<1x16x256x72xf32> loc(#loc1104)
    %318 = stablehlo.transpose %317, dims = [0, 2, 1, 3] {result_layout = dense<[3, 1, 2, 0]> : tensor<4xindex>, xla_shape = "f32[1,256,16,72]{3,1,2,0}"} : (tensor<1x16x256x72xf32>) -> tensor<1x256x16x72xf32> loc(#loc1105)
    %319 = stablehlo.reshape %318 : (tensor<1x256x16x72xf32>) -> tensor<256x1152xf32> loc(#loc1106)
    %320 = stablehlo.reshape %arg436 : (tensor<1152x1152xf32>) -> tensor<1x1152x1152xf32> loc(#loc1107)
    %321 = stablehlo.custom_call @tt.mark_argument(%320) {api_version = 0 : i32, mhlo.frontend_attributes = {ttcore.argument_type = "parameter", ttir.name = "L__self___bracket_core_paligemma_with_expert_paligemma_model_vision_tower_vision_model_encoder_layers_1_self_attn_out_proj.weight"}} : (tensor<1x1152x1152xf32>) -> tensor<1x1152x1152xf32> loc(#loc1108)
    %322 = stablehlo.reshape %321 : (tensor<1x1152x1152xf32>) -> tensor<1152x1152xf32> loc(#loc1109)
    %323 = stablehlo.transpose %322, dims = [1, 0] {result_layout = dense<[0, 1]> : tensor<2xindex>, xla_shape = "f32[1152,1152]{0,1}"} : (tensor<1152x1152xf32>) -> tensor<1152x1152xf32> loc(#loc1110)
    %324 = stablehlo.dot_general %319, %323, contracting_dims = [1] x [0] : (tensor<256x1152xf32>, tensor<1152x1152xf32>) -> tensor<256x1152xf32> loc(#loc1111)
    %325 = stablehlo.reshape %324 : (tensor<256x1152xf32>) -> tensor<1x256x1152xf32> loc(#loc1112)
    %326 = stablehlo.reshape %arg435 : (tensor<1152xf32>) -> tensor<1x1x1152xf32> loc(#loc1113)
    %327 = stablehlo.custom_call @tt.mark_argument(%326) {api_version = 0 : i32, mhlo.frontend_attributes = {ttcore.argument_type = "parameter", ttir.name = "L__self___bracket_core_paligemma_with_expert_paligemma_model_vision_tower_vision_model_encoder_layers_1_self_attn_out_proj.bias"}} : (tensor<1x1x1152xf32>) -> tensor<1x1x1152xf32> loc(#loc1114)
    %328 = stablehlo.reshape %327 : (tensor<1x1x1152xf32>) -> tensor<1152xf32> loc(#loc1115)
    %329 = stablehlo.broadcast_in_dim %328, dims = [2] : (tensor<1152xf32>) -> tensor<1x256x1152xf32> loc(#loc1116)
    %330 = stablehlo.add %325, %329 : tensor<1x256x1152xf32> loc(#loc1117)
    %331 = stablehlo.add %260, %330 {result_layout = dense<[1, 2, 0]> : tensor<3xindex>, xla_shape = "f32[1,256,1152]{1,2,0}"} : tensor<1x256x1152xf32> loc(#loc1118)
    %332 = stablehlo.reshape %arg434 : (tensor<1152xf32>) -> tensor<1x1x1152xf32> loc(#loc1119)
    %333 = stablehlo.custom_call @tt.mark_argument(%332) {api_version = 0 : i32, mhlo.frontend_attributes = {ttcore.argument_type = "parameter", ttir.name = "L__self___bracket_core_paligemma_with_expert_paligemma_model_vision_tower_vision_model_encoder_layers_1_layer_norm2.weight"}} : (tensor<1x1x1152xf32>) -> tensor<1x1x1152xf32> loc(#loc1120)
    %334 = stablehlo.reshape %333 : (tensor<1x1x1152xf32>) -> tensor<1152xf32> loc(#loc1121)
    %335 = stablehlo.reshape %arg433 : (tensor<1152xf32>) -> tensor<1x1x1152xf32> loc(#loc1122)
    %336 = stablehlo.custom_call @tt.mark_argument(%335) {api_version = 0 : i32, mhlo.frontend_attributes = {ttcore.argument_type = "parameter", ttir.name = "L__self___bracket_core_paligemma_with_expert_paligemma_model_vision_tower_vision_model_encoder_layers_1_layer_norm2.bias"}} : (tensor<1x1x1152xf32>) -> tensor<1x1x1152xf32> loc(#loc1123)
    %337 = stablehlo.reshape %336 : (tensor<1x1x1152xf32>) -> tensor<1152xf32> loc(#loc1124)
    %338 = stablehlo.composite "tenstorrent.layer_norm" %331, %334, %337 {composite_attributes = {epsilon = 9.99999997E-7 : f32, normalized_shape = dense<1152> : tensor<1xi64>}, decomposition = @tenstorrent.layer_norm.impl_64} : (tensor<1x256x1152xf32>, tensor<1152xf32>, tensor<1152xf32>) -> tensor<1x256x1152xf32> loc(#loc1125)
    %339 = stablehlo.reshape %338 : (tensor<1x256x1152xf32>) -> tensor<256x1152xf32> loc(#loc1126)
    %340 = stablehlo.reshape %arg432 : (tensor<4304x1152xf32>) -> tensor<1x4304x1152xf32> loc(#loc1127)
    %341 = stablehlo.custom_call @tt.mark_argument(%340) {api_version = 0 : i32, mhlo.frontend_attributes = {ttcore.argument_type = "parameter", ttir.name = "L__self___bracket_core_paligemma_with_expert_paligemma_model_vision_tower_vision_model_encoder_layers_1_mlp_fc1.weight"}} : (tensor<1x4304x1152xf32>) -> tensor<1x4304x1152xf32> loc(#loc1128)
    %342 = stablehlo.reshape %341 : (tensor<1x4304x1152xf32>) -> tensor<4304x1152xf32> loc(#loc1129)
    %343 = stablehlo.transpose %342, dims = [1, 0] {result_layout = dense<[0, 1]> : tensor<2xindex>, xla_shape = "f32[1152,4304]{0,1}"} : (tensor<4304x1152xf32>) -> tensor<1152x4304xf32> loc(#loc1130)
    %344 = stablehlo.dot_general %339, %343, contracting_dims = [1] x [0] : (tensor<256x1152xf32>, tensor<1152x4304xf32>) -> tensor<256x4304xf32> loc(#loc1131)
    %345 = stablehlo.reshape %344 : (tensor<256x4304xf32>) -> tensor<1x256x4304xf32> loc(#loc1132)
    %346 = stablehlo.reshape %arg431 : (tensor<4304xf32>) -> tensor<1x1x4304xf32> loc(#loc1133)
    %347 = stablehlo.custom_call @tt.mark_argument(%346) {api_version = 0 : i32, mhlo.frontend_attributes = {ttcore.argument_type = "parameter", ttir.name = "L__self___bracket_core_paligemma_with_expert_paligemma_model_vision_tower_vision_model_encoder_layers_1_mlp_fc1.bias"}} : (tensor<1x1x4304xf32>) -> tensor<1x1x4304xf32> loc(#loc1134)
    %348 = stablehlo.reshape %347 : (tensor<1x1x4304xf32>) -> tensor<4304xf32> loc(#loc1135)
    %349 = stablehlo.broadcast_in_dim %348, dims = [2] : (tensor<4304xf32>) -> tensor<1x256x4304xf32> loc(#loc1136)
    %350 = stablehlo.add %345, %349 : tensor<1x256x4304xf32> loc(#loc1137)
    %351 = stablehlo.composite "tenstorrent.gelu_tanh" %350 {composite_attributes = {approximate = "tanh"}, decomposition = @tenstorrent.gelu_tanh.impl_94} : (tensor<1x256x4304xf32>) -> tensor<1x256x4304xf32> loc(#loc1138)
    %352 = stablehlo.reshape %351 : (tensor<1x256x4304xf32>) -> tensor<256x4304xf32> loc(#loc1139)
    %353 = stablehlo.reshape %arg430 : (tensor<1152x4304xf32>) -> tensor<1x1152x4304xf32> loc(#loc1140)
    %354 = stablehlo.custom_call @tt.mark_argument(%353) {api_version = 0 : i32, mhlo.frontend_attributes = {ttcore.argument_type = "parameter", ttir.name = "L__self___bracket_core_paligemma_with_expert_paligemma_model_vision_tower_vision_model_encoder_layers_1_mlp_fc2.weight"}} : (tensor<1x1152x4304xf32>) -> tensor<1x1152x4304xf32> loc(#loc1141)
    %355 = stablehlo.reshape %354 : (tensor<1x1152x4304xf32>) -> tensor<1152x4304xf32> loc(#loc1142)
    %356 = stablehlo.transpose %355, dims = [1, 0] {result_layout = dense<[0, 1]> : tensor<2xindex>, xla_shape = "f32[4304,1152]{0,1}"} : (tensor<1152x4304xf32>) -> tensor<4304x1152xf32> loc(#loc1143)
    %357 = stablehlo.dot_general %352, %356, contracting_dims = [1] x [0] : (tensor<256x4304xf32>, tensor<4304x1152xf32>) -> tensor<256x1152xf32> loc(#loc1144)
    %358 = stablehlo.reshape %357 : (tensor<256x1152xf32>) -> tensor<1x256x1152xf32> loc(#loc1145)
    %359 = stablehlo.reshape %arg429 : (tensor<1152xf32>) -> tensor<1x1x1152xf32> loc(#loc1146)
    %360 = stablehlo.custom_call @tt.mark_argument(%359) {api_version = 0 : i32, mhlo.frontend_attributes = {ttcore.argument_type = "parameter", ttir.name = "L__self___bracket_core_paligemma_with_expert_paligemma_model_vision_tower_vision_model_encoder_layers_1_mlp_fc2.bias"}} : (tensor<1x1x1152xf32>) -> tensor<1x1x1152xf32> loc(#loc1147)
    %361 = stablehlo.reshape %360 : (tensor<1x1x1152xf32>) -> tensor<1152xf32> loc(#loc1148)
    %362 = stablehlo.broadcast_in_dim %361, dims = [2] : (tensor<1152xf32>) -> tensor<1x256x1152xf32> loc(#loc1149)
    %363 = stablehlo.add %358, %362 : tensor<1x256x1152xf32> loc(#loc1150)
    %364 = stablehlo.add %331, %363 {result_layout = dense<[1, 2, 0]> : tensor<3xindex>, xla_shape = "f32[1,256,1152]{1,2,0}"} : tensor<1x256x1152xf32> loc(#loc1151)
    %365 = stablehlo.reshape %arg428 : (tensor<1152xf32>) -> tensor<1x1x1152xf32> loc(#loc1152)
    %366 = stablehlo.custom_call @tt.mark_argument(%365) {api_version = 0 : i32, mhlo.frontend_attributes = {ttcore.argument_type = "parameter", ttir.name = "L__self___bracket_core_paligemma_with_expert_paligemma_model_vision_tower_vision_model_encoder_layers_2_layer_norm1.weight"}} : (tensor<1x1x1152xf32>) -> tensor<1x1x1152xf32> loc(#loc1153)
    %367 = stablehlo.reshape %366 : (tensor<1x1x1152xf32>) -> tensor<1152xf32> loc(#loc1154)
    %368 = stablehlo.reshape %arg427 : (tensor<1152xf32>) -> tensor<1x1x1152xf32> loc(#loc1155)
    %369 = stablehlo.custom_call @tt.mark_argument(%368) {api_version = 0 : i32, mhlo.frontend_attributes = {ttcore.argument_type = "parameter", ttir.name = "L__self___bracket_core_paligemma_with_expert_paligemma_model_vision_tower_vision_model_encoder_layers_2_layer_norm1.bias"}} : (tensor<1x1x1152xf32>) -> tensor<1x1x1152xf32> loc(#loc1156)
    %370 = stablehlo.reshape %369 : (tensor<1x1x1152xf32>) -> tensor<1152xf32> loc(#loc1157)
    %371 = stablehlo.composite "tenstorrent.layer_norm" %364, %367, %370 {composite_attributes = {epsilon = 9.99999997E-7 : f32, normalized_shape = dense<1152> : tensor<1xi64>}, decomposition = @tenstorrent.layer_norm.impl_73} : (tensor<1x256x1152xf32>, tensor<1152xf32>, tensor<1152xf32>) -> tensor<1x256x1152xf32> loc(#loc1158)
    %372 = stablehlo.reshape %371 : (tensor<1x256x1152xf32>) -> tensor<256x1152xf32> loc(#loc1159)
    %373 = stablehlo.reshape %arg469 : (tensor<1152x1152xf32>) -> tensor<1x1152x1152xf32> loc(#loc1160)
    %374 = stablehlo.custom_call @tt.mark_argument(%373) {api_version = 0 : i32, mhlo.frontend_attributes = {ttcore.argument_type = "parameter", ttir.name = "L__self___bracket_core_paligemma_with_expert_paligemma_model_vision_tower_vision_model_encoder_layers_2_self_attn_q_proj.weight"}} : (tensor<1x1152x1152xf32>) -> tensor<1x1152x1152xf32> loc(#loc1161)
    %375 = stablehlo.reshape %374 : (tensor<1x1152x1152xf32>) -> tensor<1152x1152xf32> loc(#loc1162)
    %376 = stablehlo.transpose %375, dims = [1, 0] {result_layout = dense<[0, 1]> : tensor<2xindex>, xla_shape = "f32[1152,1152]{0,1}"} : (tensor<1152x1152xf32>) -> tensor<1152x1152xf32> loc(#loc1163)
    %377 = stablehlo.dot_general %372, %376, contracting_dims = [1] x [0] : (tensor<256x1152xf32>, tensor<1152x1152xf32>) -> tensor<256x1152xf32> loc(#loc1164)
    %378 = stablehlo.reshape %377 : (tensor<256x1152xf32>) -> tensor<1x256x1152xf32> loc(#loc1165)
    %379 = stablehlo.reshape %arg468 : (tensor<1152xf32>) -> tensor<1x1x1152xf32> loc(#loc1166)
    %380 = stablehlo.custom_call @tt.mark_argument(%379) {api_version = 0 : i32, mhlo.frontend_attributes = {ttcore.argument_type = "parameter", ttir.name = "L__self___bracket_core_paligemma_with_expert_paligemma_model_vision_tower_vision_model_encoder_layers_2_self_attn_q_proj.bias"}} : (tensor<1x1x1152xf32>) -> tensor<1x1x1152xf32> loc(#loc1167)
    %381 = stablehlo.reshape %380 : (tensor<1x1x1152xf32>) -> tensor<1152xf32> loc(#loc1168)
    %382 = stablehlo.broadcast_in_dim %381, dims = [2] : (tensor<1152xf32>) -> tensor<1x256x1152xf32> loc(#loc1169)
    %383 = stablehlo.add %378, %382 : tensor<1x256x1152xf32> loc(#loc1170)
    %384 = stablehlo.reshape %383 : (tensor<1x256x1152xf32>) -> tensor<1x256x16x72xf32> loc(#loc1171)
    %385 = stablehlo.transpose %384, dims = [0, 2, 1, 3] {result_layout = dense<[3, 1, 2, 0]> : tensor<4xindex>, xla_shape = "f32[1,16,256,72]{3,1,2,0}"} : (tensor<1x256x16x72xf32>) -> tensor<1x16x256x72xf32> loc(#loc1172)
    %386 = stablehlo.reshape %arg467 : (tensor<1152x1152xf32>) -> tensor<1x1152x1152xf32> loc(#loc1173)
    %387 = stablehlo.custom_call @tt.mark_argument(%386) {api_version = 0 : i32, mhlo.frontend_attributes = {ttcore.argument_type = "parameter", ttir.name = "L__self___bracket_core_paligemma_with_expert_paligemma_model_vision_tower_vision_model_encoder_layers_2_self_attn_k_proj.weight"}} : (tensor<1x1152x1152xf32>) -> tensor<1x1152x1152xf32> loc(#loc1174)
    %388 = stablehlo.reshape %387 : (tensor<1x1152x1152xf32>) -> tensor<1152x1152xf32> loc(#loc1175)
    %389 = stablehlo.transpose %388, dims = [1, 0] {result_layout = dense<[0, 1]> : tensor<2xindex>, xla_shape = "f32[1152,1152]{0,1}"} : (tensor<1152x1152xf32>) -> tensor<1152x1152xf32> loc(#loc1176)
    %390 = stablehlo.dot_general %372, %389, contracting_dims = [1] x [0] : (tensor<256x1152xf32>, tensor<1152x1152xf32>) -> tensor<256x1152xf32> loc(#loc1177)
    %391 = stablehlo.reshape %390 : (tensor<256x1152xf32>) -> tensor<1x256x1152xf32> loc(#loc1178)
    %392 = stablehlo.reshape %arg466 : (tensor<1152xf32>) -> tensor<1x1x1152xf32> loc(#loc1179)
    %393 = stablehlo.custom_call @tt.mark_argument(%392) {api_version = 0 : i32, mhlo.frontend_attributes = {ttcore.argument_type = "parameter", ttir.name = "L__self___bracket_core_paligemma_with_expert_paligemma_model_vision_tower_vision_model_encoder_layers_2_self_attn_k_proj.bias"}} : (tensor<1x1x1152xf32>) -> tensor<1x1x1152xf32> loc(#loc1180)
    %394 = stablehlo.reshape %393 : (tensor<1x1x1152xf32>) -> tensor<1152xf32> loc(#loc1181)
    %395 = stablehlo.broadcast_in_dim %394, dims = [2] : (tensor<1152xf32>) -> tensor<1x256x1152xf32> loc(#loc1182)
    %396 = stablehlo.add %391, %395 : tensor<1x256x1152xf32> loc(#loc1183)
    %397 = stablehlo.reshape %396 : (tensor<1x256x1152xf32>) -> tensor<1x256x16x72xf32> loc(#loc1184)
    %398 = stablehlo.transpose %397, dims = [0, 2, 3, 1] : (tensor<1x256x16x72xf32>) -> tensor<1x16x72x256xf32> loc(#loc1185)
    %399 = stablehlo.dot_general %385, %398, batching_dims = [0, 1] x [0, 1], contracting_dims = [3] x [2] {mhlo.frontend_attributes = {grad_x = "false", grad_y = "false"}} : (tensor<1x16x256x72xf32>, tensor<1x16x72x256xf32>) -> tensor<1x16x256x256xf32> loc(#loc1186)
    %400 = stablehlo.multiply %399, %cst_12 : tensor<1x16x256x256xf32> loc(#loc1187)
    %401 = stablehlo.reduce(%400 init: %cst_27) applies stablehlo.maximum across dimensions = [3] : (tensor<1x16x256x256xf32>, tensor<f32>) -> tensor<1x16x256xf32> loc(#loc1188)
    %402 = stablehlo.broadcast_in_dim %401, dims = [0, 1, 2] : (tensor<1x16x256xf32>) -> tensor<1x16x256x256xf32> loc(#loc1189)
    %403 = stablehlo.subtract %400, %402 : tensor<1x16x256x256xf32> loc(#loc1190)
    %404 = stablehlo.exponential %403 : tensor<1x16x256x256xf32> loc(#loc1191)
    %405 = stablehlo.reduce(%404 init: %cst_29) applies stablehlo.add across dimensions = [3] : (tensor<1x16x256x256xf32>, tensor<f32>) -> tensor<1x16x256xf32> loc(#loc1192)
    %406 = stablehlo.broadcast_in_dim %405, dims = [0, 1, 2] : (tensor<1x16x256xf32>) -> tensor<1x16x256x256xf32> loc(#loc1193)
    %407 = stablehlo.divide %404, %406 : tensor<1x16x256x256xf32> loc(#loc1194)
    %408 = stablehlo.reshape %arg426 : (tensor<1152x1152xf32>) -> tensor<1x1152x1152xf32> loc(#loc1195)
    %409 = stablehlo.custom_call @tt.mark_argument(%408) {api_version = 0 : i32, mhlo.frontend_attributes = {ttcore.argument_type = "parameter", ttir.name = "L__self___bracket_core_paligemma_with_expert_paligemma_model_vision_tower_vision_model_encoder_layers_2_self_attn_v_proj.weight"}} : (tensor<1x1152x1152xf32>) -> tensor<1x1152x1152xf32> loc(#loc1196)
    %410 = stablehlo.reshape %409 : (tensor<1x1152x1152xf32>) -> tensor<1152x1152xf32> loc(#loc1197)
    %411 = stablehlo.transpose %410, dims = [1, 0] {result_layout = dense<[0, 1]> : tensor<2xindex>, xla_shape = "f32[1152,1152]{0,1}"} : (tensor<1152x1152xf32>) -> tensor<1152x1152xf32> loc(#loc1198)
    %412 = stablehlo.dot_general %372, %411, contracting_dims = [1] x [0] : (tensor<256x1152xf32>, tensor<1152x1152xf32>) -> tensor<256x1152xf32> loc(#loc1199)
    %413 = stablehlo.reshape %412 : (tensor<256x1152xf32>) -> tensor<1x256x1152xf32> loc(#loc1200)
    %414 = stablehlo.reshape %arg425 : (tensor<1152xf32>) -> tensor<1x1x1152xf32> loc(#loc1201)
    %415 = stablehlo.custom_call @tt.mark_argument(%414) {api_version = 0 : i32, mhlo.frontend_attributes = {ttcore.argument_type = "parameter", ttir.name = "L__self___bracket_core_paligemma_with_expert_paligemma_model_vision_tower_vision_model_encoder_layers_2_self_attn_v_proj.bias"}} : (tensor<1x1x1152xf32>) -> tensor<1x1x1152xf32> loc(#loc1202)
    %416 = stablehlo.reshape %415 : (tensor<1x1x1152xf32>) -> tensor<1152xf32> loc(#loc1203)
    %417 = stablehlo.broadcast_in_dim %416, dims = [2] : (tensor<1152xf32>) -> tensor<1x256x1152xf32> loc(#loc1204)
    %418 = stablehlo.add %413, %417 : tensor<1x256x1152xf32> loc(#loc1205)
    %419 = stablehlo.reshape %418 : (tensor<1x256x1152xf32>) -> tensor<1x256x16x72xf32> loc(#loc1206)
    %420 = stablehlo.transpose %419, dims = [0, 2, 1, 3] {result_layout = dense<[3, 1, 2, 0]> : tensor<4xindex>, xla_shape = "f32[1,16,256,72]{3,1,2,0}"} : (tensor<1x256x16x72xf32>) -> tensor<1x16x256x72xf32> loc(#loc1207)
    %421 = stablehlo.dot_general %407, %420, batching_dims = [0, 1] x [0, 1], contracting_dims = [3] x [2] {mhlo.frontend_attributes = {grad_x = "false", grad_y = "false"}} : (tensor<1x16x256x256xf32>, tensor<1x16x256x72xf32>) -> tensor<1x16x256x72xf32> loc(#loc1208)
    %422 = stablehlo.transpose %421, dims = [0, 2, 1, 3] {result_layout = dense<[3, 1, 2, 0]> : tensor<4xindex>, xla_shape = "f32[1,256,16,72]{3,1,2,0}"} : (tensor<1x16x256x72xf32>) -> tensor<1x256x16x72xf32> loc(#loc1209)
    %423 = stablehlo.reshape %422 : (tensor<1x256x16x72xf32>) -> tensor<256x1152xf32> loc(#loc1210)
    %424 = stablehlo.reshape %arg424 : (tensor<1152x1152xf32>) -> tensor<1x1152x1152xf32> loc(#loc1211)
    %425 = stablehlo.custom_call @tt.mark_argument(%424) {api_version = 0 : i32, mhlo.frontend_attributes = {ttcore.argument_type = "parameter", ttir.name = "L__self___bracket_core_paligemma_with_expert_paligemma_model_vision_tower_vision_model_encoder_layers_2_self_attn_out_proj.weight"}} : (tensor<1x1152x1152xf32>) -> tensor<1x1152x1152xf32> loc(#loc1212)
    %426 = stablehlo.reshape %425 : (tensor<1x1152x1152xf32>) -> tensor<1152x1152xf32> loc(#loc1213)
    %427 = stablehlo.transpose %426, dims = [1, 0] {result_layout = dense<[0, 1]> : tensor<2xindex>, xla_shape = "f32[1152,1152]{0,1}"} : (tensor<1152x1152xf32>) -> tensor<1152x1152xf32> loc(#loc1214)
    %428 = stablehlo.dot_general %423, %427, contracting_dims = [1] x [0] : (tensor<256x1152xf32>, tensor<1152x1152xf32>) -> tensor<256x1152xf32> loc(#loc1215)
    %429 = stablehlo.reshape %428 : (tensor<256x1152xf32>) -> tensor<1x256x1152xf32> loc(#loc1216)
    %430 = stablehlo.reshape %arg423 : (tensor<1152xf32>) -> tensor<1x1x1152xf32> loc(#loc1217)
    %431 = stablehlo.custom_call @tt.mark_argument(%430) {api_version = 0 : i32, mhlo.frontend_attributes = {ttcore.argument_type = "parameter", ttir.name = "L__self___bracket_core_paligemma_with_expert_paligemma_model_vision_tower_vision_model_encoder_layers_2_self_attn_out_proj.bias"}} : (tensor<1x1x1152xf32>) -> tensor<1x1x1152xf32> loc(#loc1218)
    %432 = stablehlo.reshape %431 : (tensor<1x1x1152xf32>) -> tensor<1152xf32> loc(#loc1219)
    %433 = stablehlo.broadcast_in_dim %432, dims = [2] : (tensor<1152xf32>) -> tensor<1x256x1152xf32> loc(#loc1220)
    %434 = stablehlo.add %429, %433 : tensor<1x256x1152xf32> loc(#loc1221)
    %435 = stablehlo.add %364, %434 {result_layout = dense<[1, 2, 0]> : tensor<3xindex>, xla_shape = "f32[1,256,1152]{1,2,0}"} : tensor<1x256x1152xf32> loc(#loc1222)
    %436 = stablehlo.reshape %arg422 : (tensor<1152xf32>) -> tensor<1x1x1152xf32> loc(#loc1223)
    %437 = stablehlo.custom_call @tt.mark_argument(%436) {api_version = 0 : i32, mhlo.frontend_attributes = {ttcore.argument_type = "parameter", ttir.name = "L__self___bracket_core_paligemma_with_expert_paligemma_model_vision_tower_vision_model_encoder_layers_2_layer_norm2.weight"}} : (tensor<1x1x1152xf32>) -> tensor<1x1x1152xf32> loc(#loc1224)
    %438 = stablehlo.reshape %437 : (tensor<1x1x1152xf32>) -> tensor<1152xf32> loc(#loc1225)
    %439 = stablehlo.reshape %arg421 : (tensor<1152xf32>) -> tensor<1x1x1152xf32> loc(#loc1226)
    %440 = stablehlo.custom_call @tt.mark_argument(%439) {api_version = 0 : i32, mhlo.frontend_attributes = {ttcore.argument_type = "parameter", ttir.name = "L__self___bracket_core_paligemma_with_expert_paligemma_model_vision_tower_vision_model_encoder_layers_2_layer_norm2.bias"}} : (tensor<1x1x1152xf32>) -> tensor<1x1x1152xf32> loc(#loc1227)
    %441 = stablehlo.reshape %440 : (tensor<1x1x1152xf32>) -> tensor<1152xf32> loc(#loc1228)
    %442 = stablehlo.composite "tenstorrent.layer_norm" %435, %438, %441 {composite_attributes = {epsilon = 9.99999997E-7 : f32, normalized_shape = dense<1152> : tensor<1xi64>}, decomposition = @tenstorrent.layer_norm.impl_46} : (tensor<1x256x1152xf32>, tensor<1152xf32>, tensor<1152xf32>) -> tensor<1x256x1152xf32> loc(#lo…
#loc12963 = loc("broadcast.20321")
#loc12964 = loc("multiply.20322")
#loc12965 = loc("broadcast.20325")
#loc12966 = loc("add.20326")
#loc12970 = loc("reduce.22979")
#loc12971 = loc("multiply.22988")
#loc12972 = loc("broadcast.22998")
#loc12973 = loc("subtract.22999")
#loc12974 = loc("subtract.22954")
#loc12975 = loc("multiply.22955")
#loc12976 = loc("reduce.22962")
#loc12977 = loc("multiply.22971")
#loc12978 = loc("reshape.22972")
#loc12979 = loc("add.22992")
#loc12980 = loc("rsqrt.22993")
#loc12981 = loc("reshape.23000")
#loc12982 = loc("broadcast.23001")
#loc12983 = loc("multiply.23002")
#loc12984 = loc("broadcast.23003")
#loc12985 = loc("multiply.23004")
#loc12986 = loc("broadcast.23007")
#loc12987 = loc("add.23008")
#loc12989 = loc("multiply.21892")
#loc12990 = loc("power.21878")
#loc12991 = loc("multiply.21881")
#loc12992 = loc("add.21882")
#loc12993 = loc("multiply.21885")
#loc12994 = loc("tanh.21886")
#loc12995 = loc("add.21889")
#loc12996 = loc("multiply.21893")
#loc12998 = loc("multiply.28243")
#loc12999 = loc("power.28229")
#loc13000 = loc("multiply.28232")
#loc13001 = loc("add.28233")
#loc13002 = loc("multiply.28236")
#loc13003 = loc("tanh.28237")
#loc13004 = loc("add.28240")
#loc13005 = loc("multiply.28244")
#loc13007 = loc("multiply.20350")
#loc13008 = loc("power.20336")
#loc13009 = loc("multiply.20339")
#loc13010 = loc("add.20340")
#loc13011 = loc("multiply.20343")
#loc13012 = loc("tanh.20344")
#loc13013 = loc("add.20347")
#loc13014 = loc("multiply.20351")
#loc13016 = loc("multiply.13995")
#loc13017 = loc("power.13981")
#loc13018 = loc("multiply.13984")
#loc13019 = loc("add.13985")
#loc13020 = loc("multiply.13988")
#loc13021 = loc("tanh.13989")
#loc13022 = loc("add.13992")
#loc13023 = loc("multiply.13996")
#loc13027 = loc("reduce.21839")
#loc13028 = loc("multiply.21848")
#loc13029 = loc("broadcast.21858")
#loc13030 = loc("subtract.21859")
#loc13031 = loc("subtract.21814")
#loc13032 = loc("multiply.21815")
#loc13033 = loc("reduce.21822")
#loc13034 = loc("multiply.21831")
#loc13035 = loc("reshape.21832")
#loc13036 = loc("add.21852")
#loc13037 = loc("rsqrt.21853")
#loc13038 = loc("reshape.21860")
#loc13039 = loc("broadcast.21861")
#loc13040 = loc("multiply.21862")
#loc13041 = loc("broadcast.21863")
#loc13042 = loc("multiply.21864")
#loc13043 = loc("broadcast.21867")
#loc13044 = loc("add.21868")
#loc13048 = loc("reduce.21951")
#loc13049 = loc("multiply.21960")
#loc13050 = loc("broadcast.21970")
#loc13051 = loc("subtract.21971")
#loc13052 = loc("subtract.21926")
#loc13053 = loc("multiply.21927")
#loc13054 = loc("reduce.21934")
#loc13055 = loc("multiply.21943")
#loc13056 = loc("reshape.21944")
#loc13057 = loc("add.21964")
#loc13058 = loc("rsqrt.21965")
#loc13059 = loc("reshape.21972")
#loc13060 = loc("broadcast.21973")
#loc13061 = loc("multiply.21974")
#loc13062 = loc("broadcast.21975")
#loc13063 = loc("multiply.21976")
#loc13064 = loc("broadcast.21979")
#loc13065 = loc("add.21980")
#loc13069 = loc("reduce.16110")
#loc13070 = loc("multiply.16119")
#loc13071 = loc("broadcast.16129")
#loc13072 = loc("subtract.16130")
#loc13073 = loc("subtract.16085")
#loc13074 = loc("multiply.16086")
#loc13075 = loc("reduce.16093")
#loc13076 = loc("multiply.16102")
#loc13077 = loc("reshape.16103")
#loc13078 = loc("add.16123")
#loc13079 = loc("rsqrt.16124")
#loc13080 = loc("reshape.16131")
#loc13081 = loc("broadcast.16132")
#loc13082 = loc("multiply.16133")
#loc13083 = loc("broadcast.16134")
#loc13084 = loc("multiply.16135")
#loc13085 = loc("broadcast.16138")
#loc13086 = loc("add.16139")
#loc13090 = loc("reduce.22208")
#loc13091 = loc("multiply.22217")
#loc13092 = loc("broadcast.22227")
#loc13093 = loc("subtract.22228")
#loc13094 = loc("subtract.22183")
#loc13095 = loc("multiply.22184")
#loc13096 = loc("reduce.22191")
#loc13097 = loc("multiply.22200")
#loc13098 = loc("reshape.22201")
#loc13099 = loc("add.22221")
#loc13100 = loc("rsqrt.22222")
#loc13101 = loc("reshape.22229")
#loc13102 = loc("broadcast.22230")
#loc13103 = loc("multiply.22231")
#loc13104 = loc("broadcast.22232")
#loc13105 = loc("multiply.22233")
#loc13106 = loc("broadcast.22236")
#loc13107 = loc("add.22237")
#loc13111 = loc("reduce.10253")
#loc13112 = loc("multiply.10262")
#loc13113 = loc("broadcast.10272")
#loc13114 = loc("subtract.10273")
#loc13115 = loc("subtract.10228")
#loc13116 = loc("multiply.10229")
#loc13117 = loc("reduce.10236")
#loc13118 = loc("multiply.10245")
#loc13119 = loc("reshape.10246")
#loc13120 = loc("add.10266")
#loc13121 = loc("rsqrt.10267")
#loc13122 = loc("reshape.10274")
#loc13123 = loc("broadcast.10275")
#loc13124 = loc("multiply.10276")
#loc13125 = loc("broadcast.10277")
#loc13126 = loc("multiply.10278")
#loc13127 = loc("broadcast.10281")
#loc13128 = loc("add.10282")
#loc13130 = loc("multiply.8283")
#loc13131 = loc("power.8269")
#loc13132 = loc("multiply.8272")
#loc13133 = loc("add.8273")
#loc13134 = loc("multiply.8276")
#loc13135 = loc("tanh.8277")
#loc13136 = loc("add.8280")
#loc13137 = loc("multiply.8284")
#loc13141 = loc("reduce.22096")
#loc13142 = loc("multiply.22105")
#loc13143 = loc("broadcast.22115")
#loc13144 = loc("subtract.22116")
#loc13145 = loc("subtract.22071")
#loc13146 = loc("multiply.22072")
#loc13147 = loc("reduce.22079")
#loc13148 = loc("multiply.22088")
#loc13149 = loc("reshape.22089")
#loc13150 = loc("add.22109")
#loc13151 = loc("rsqrt.22110")
#loc13152 = loc("reshape.22117")
#loc13153 = loc("broadcast.22118")
#loc13154 = loc("multiply.22119")
#loc13155 = loc("broadcast.22120")
#loc13156 = loc("multiply.22121")
#loc13157 = loc("broadcast.22124")
#loc13158 = loc("add.22125")
#loc13162 = loc("reduce.22722")
#loc13163 = loc("multiply.22731")
#loc13164 = loc("broadcast.22741")
#loc13165 = loc("subtract.22742")
#loc13166 = loc("subtract.22697")
#loc13167 = loc("multiply.22698")
#loc13168 = loc("reduce.22705")
#loc13169 = loc("multiply.22714")
#loc13170 = loc("reshape.22715")
#loc13171 = loc("add.22735")
#loc13172 = loc("rsqrt.22736")
#loc13173 = loc("reshape.22743")
#loc13174 = loc("broadcast.22744")
#loc13175 = loc("multiply.22745")
#loc13176 = loc("broadcast.22746")
#loc13177 = loc("multiply.22747")
#loc13178 = loc("broadcast.22750")
#loc13179 = loc("add.22751")
#loc13181 = loc("multiply.22920")
#loc13182 = loc("power.22906")
#loc13183 = loc("multiply.22909")
#loc13184 = loc("add.22910")
#loc13185 = loc("multiply.22913")
#loc13186 = loc("tanh.22914")
#loc13187 = loc("add.22917")
#loc13188 = loc("multiply.22921")
#loc13192 = loc("reduce.7411")
#loc13193 = loc("multiply.7420")
#loc13194 = loc("broadcast.7430")
#loc13195 = loc("subtract.7431")
#loc13196 = loc("subtract.7386")
#loc13197 = loc("multiply.7387")
#loc13198 = loc("reduce.7394")
#loc13199 = loc("multiply.7403")
#loc13200 = loc("reshape.7404")
#loc13201 = loc("add.7424")
#loc13202 = loc("rsqrt.7425")
#loc13203 = loc("reshape.7432")
#loc13204 = loc("broadcast.7433")
#loc13205 = loc("multiply.7434")
#loc13206 = loc("broadcast.7435")
#loc13207 = loc("multiply.7436")
#loc13208 = loc("broadcast.7439")
#loc13209 = loc("add.7440")
#loc13211 = loc("multiply.13738")
#loc13212 = loc("power.13724")
#loc13213 = loc("multiply.13727")
#loc13214 = loc("add.13728")
#loc13215 = loc("multiply.13731")
#loc13216 = loc("tanh.13732")
#loc13217 = loc("add.13735")
#loc13218 = loc("multiply.13739")
#loc13222 = loc("reduce.23124")
#loc13223 = loc("multiply.23133")
#loc13224 = loc("broadcast.23143")
#loc13225 = loc("subtract.23144")
#loc13226 = loc("subtract.23099")
#loc13227 = loc("multiply.23100")
#loc13228 = loc("reduce.23107")
#loc13229 = loc("multiply.23116")
#loc13230 = loc("reshape.23117")
#loc13231 = loc("add.23137")
#loc13232 = loc("rsqrt.23138")
#loc13233 = loc("reshape.23145")
#loc13234 = loc("broadcast.23146")
#loc13235 = loc("multiply.23147")
#loc13236 = loc("broadcast.23148")
#loc13237 = loc("multiply.23149")
#loc13238 = loc("broadcast.23152")
#loc13239 = loc("add.23153")
#loc13243 = loc("reduce.12769")
#loc13244 = loc("multiply.12778")
#loc13245 = loc("broadcast.12788")
#loc13246 = loc("subtract.12789")
#loc13247 = loc("subtract.12744")
#loc13248 = loc("multiply.12745")
#loc13249 = loc("reduce.12752")
#loc13250 = loc("multiply.12761")
#loc13251 = loc("reshape.12762")
#loc13252 = loc("add.12782")
#loc13253 = loc("rsqrt.12783")
#loc13254 = loc("reshape.12790")
#loc13255 = loc("broadcast.12791")
#loc13256 = loc("multiply.12792")
#loc13257 = loc("broadcast.12793")
#loc13258 = loc("multiply.12794")
#loc13259 = loc("broadcast.12797")
#loc13260 = loc("add.12798")
#loc13262 = loc("multiply.15280")
#loc13263 = loc("power.15266")
#loc13264 = loc("multiply.15269")
#loc13265 = loc("add.15270")
#loc13266 = loc("multiply.15273")
#loc13267 = loc("tanh.15274")
#loc13268 = loc("add.15277")
#loc13269 = loc("multiply.15281")
#loc13273 = loc("reduce.15339")
#loc13274 = loc("multiply.15348")
#loc13275 = loc("broadcast.15358")
#loc13276 = loc("subtract.15359")
#loc13277 = loc("subtract.15314")
#loc13278 = loc("multiply.15315")
#loc13279 = loc("reduce.15322")
#loc13280 = loc("multiply.15331")
#loc13281 = loc("reshape.15332")
#loc13282 = loc("add.15352")
#loc13283 = loc("rsqrt.15353")
#loc13284 = loc("reshape.15360")
#loc13285 = loc("broadcast.15361")
#loc13286 = loc("multiply.15362")
#loc13287 = loc("broadcast.15363")
#loc13288 = loc("multiply.15364")
#loc13289 = loc("broadcast.15367")
#loc13290 = loc("add.15368")
#loc13294 = loc("reduce.8615")
#loc13295 = loc("multiply.8624")
#loc13296 = loc("broadcast.8634")
#loc13297 = loc("subtract.8635")
#loc13298 = loc("subtract.8590")
#loc13299 = loc("multiply.8591")
#loc13300 = loc("reduce.8598")
#loc13301 = loc("multiply.8607")
#loc13302 = loc("reshape.8608")
#loc13303 = loc("add.8628")
#loc13304 = loc("rsqrt.8629")
#loc13305 = loc("reshape.8636")
#loc13306 = loc("broadcast.8637")
#loc13307 = loc("multiply.8638")
#loc13308 = loc("broadcast.8639")
#loc13309 = loc("multiply.8640")
#loc13310 = loc("broadcast.8643")
#loc13311 = loc("add.8644")
#loc13313 = loc("multiply.15537")
#loc13314 = loc("power.15523")
#loc13315 = loc("multiply.15526")
#loc13316 = loc("add.15527")
#loc13317 = loc("multiply.15530")
#loc13318 = loc("tanh.15531")
#loc13319 = loc("add.15534")
#loc13320 = loc("multiply.15538")
#loc13324 = loc("reduce.15596")
#loc13325 = loc("multiply.15605")
#loc13326 = loc("broadcast.15615")
#loc13327 = loc("subtract.15616")
#loc13328 = loc("subtract.15571")
#loc13329 = loc("multiply.15572")
#loc13330 = loc("reduce.15579")
#loc13331 = loc("multiply.15588")
#loc13332 = loc("reshape.15589")
#loc13333 = loc("add.15609")
#loc13334 = loc("rsqrt.15610")
#loc13335 = loc("reshape.15617")
#loc13336 = loc("broadcast.15618")
#loc13337 = loc("multiply.15619")
#loc13338 = loc("broadcast.15620")
#loc13339 = loc("multiply.15621")
#loc13340 = loc("broadcast.15624")
#loc13341 = loc("add.15625")
#loc13345 = loc("reduce.15998")
#loc13346 = loc("multiply.16007")
#loc13347 = loc("broadcast.16017")
#loc13348 = loc("subtract.16018")
#loc13349 = loc("subtract.15973")
#loc13350 = loc("multiply.15974")
#loc13351 = loc("reduce.15981")
#loc13352 = loc("multiply.15990")
#loc13353 = loc("reshape.15991")
#loc13354 = loc("add.16011")
#loc13355 = loc("rsqrt.16012")
#loc13356 = loc("reshape.16019")
#loc13357 = loc("broadcast.16020")
#loc13358 = loc("multiply.16021")
#loc13359 = loc("broadcast.16022")
#loc13360 = loc("multiply.16023")
#loc13361 = loc("broadcast.16026")
#loc13362 = loc("add.16027")
#loc13364 = loc("multiply.16308")
#loc13365 = loc("power.16294")
#loc13366 = loc("multiply.16297")
#loc13367 = loc("add.16298")
#loc13368 = loc("multiply.16301")
#loc13369 = loc("tanh.16302")
#loc13370 = loc("add.16305")
#loc13371 = loc("multiply.16309")
#loc13375 = loc("reduce.16367")
#loc13376 = loc("multiply.16376")
#loc13377 = loc("broadcast.16386")
#loc13378 = loc("subtract.16387")
#loc13379 = loc("subtract.16342")
#loc13380 = loc("multiply.16343")
#loc13381 = loc("reduce.16350")
#loc13382 = loc("multiply.16359")
#loc13383 = loc("reshape.16360")
#loc13384 = loc("add.16380")
#loc13385 = loc("rsqrt.16381")
#loc13386 = loc("reshape.16388")
#loc13387 = loc("broadcast.16389")
#loc13388 = loc("multiply.16390")
#loc13389 = loc("broadcast.16391")
#loc13390 = loc("multiply.16392")
#loc13391 = loc("broadcast.16395")
#loc13392 = loc("add.16396")
#loc13394 = loc("multiply.16565")
#loc13395 = loc("power.16551")
#loc13396 = loc("multiply.16554")
#loc13397 = loc("add.16555")
#loc13398 = loc("multiply.16558")
#loc13399 = loc("tanh.16559")
#loc13400 = loc("add.16562")
#loc13401 = loc("multiply.16566")
#loc13405 = loc("reduce.16769")
#loc13406 = loc("multiply.16778")
#loc13407 = loc("broadcast.16788")
#loc13408 = loc("subtract.16789")
#loc13409 = loc("subtract.16744")
#loc13410 = loc("multiply.16745")
#loc13411 = loc("reduce.16752")
#loc13412 = loc("multiply.16761")
#loc13413 = loc("reshape.16762")
#loc13414 = loc("add.16782")
#loc13415 = loc("rsqrt.16783")
#loc13416 = loc("reshape.16790")
#loc13417 = loc("broadcast.16791")
#loc13418 = loc("multiply.16792")
#loc13419 = loc("broadcast.16793")
#loc13420 = loc("multiply.16794")
#loc13421 = loc("broadcast.16797")
#loc13422 = loc("add.16798")
#loc13424 = loc("multiply.31323")
#loc13425 = loc("power.31309")
#loc13426 = loc("multiply.31312")
#loc13427 = loc("add.31313")
#loc13428 = loc("multiply.31316")
#loc13429 = loc("tanh.31317")
#loc13430 = loc("add.31320")
#loc13431 = loc("multiply.31324")
#loc13435 = loc("reduce.9049")
#loc13436 = loc("multiply.9058")
#loc13437 = loc("broadcast.9068")
#loc13438 = loc("subtract.9069")
#loc13439 = loc("subtract.9024")
#loc13440 = loc("multiply.9025")
#loc13441 = loc("reduce.9032")
#loc13442 = loc("multiply.9041")
#loc13443 = loc("reshape.9042")
#loc13444 = loc("add.9062")
#loc13445 = loc("rsqrt.9063")
#loc13446 = loc("reshape.9070")
#loc13447 = loc("broadcast.9071")
#loc13448 = loc("multiply.9072")
#loc13449 = loc("broadcast.9073")
#loc13450 = loc("multiply.9074")
#loc13451 = loc("broadcast.9077")
#loc13452 = loc("add.9078")
#loc13454 = loc("multiply.16822")
#loc13455 = loc("power.16808")
#loc13456 = loc("multiply.16811")
#loc13457 = loc("add.16812")
#loc13458 = loc("multiply.16815")
#loc13459 = loc("tanh.16816")
#loc13460 = loc("add.16819")
#loc13461 = loc("multiply.16823")
#loc13465 = loc("reduce.6319")
#loc13466 = loc("multiply.6328")
#loc13467 = loc("broadcast.6338")
#loc13468 = loc("subtract.6339")
#loc13469 = loc("subtract.6294")
#loc13470 = loc("multiply.6295")
#loc13471 = loc("reduce.6302")
#loc13472 = loc("multiply.6311")
#loc13473 = loc("reshape.6312")
#loc13474 = loc("add.6332")
#loc13475 = loc("rsqrt.6333")
#loc13476 = loc("reshape.6340")
#loc13477 = loc("broadcast.6341")
#loc13478 = loc("multiply.6342")
#loc13479 = loc("broadcast.6343")
#loc13480 = loc("multiply.6344")
#loc13481 = loc("broadcast.6347")
#loc13482 = loc("add.6348")
#loc13484 = loc("multiply.17079")
#loc13485 = loc("power.17065")
#loc13486 = loc("multiply.17068")
#loc13487 = loc("add.17069")
#loc13488 = loc("multiply.17072")
#loc13489 = loc("tanh.17073")
#loc13490 = loc("add.17076")
#loc13491 = loc("multiply.17080")
#loc13495 = loc("reduce.16255")
#loc13496 = loc("multiply.16264")
#loc13497 = loc("broadcast.16274")
#loc13498 = loc("subtract.16275")
#loc13499 = loc("subtract.16230")
#loc13500 = loc("multiply.16231")
#loc13501 = loc("reduce.16238")
#loc13502 = loc("multiply.16247")
#loc13503 = loc("reshape.16248")
#loc13504 = loc("add.16268")
#loc13505 = loc("rsqrt.16269")
#loc13506 = loc("reshape.16276")
#loc13507 = loc("broadcast.16277")
#loc13508 = loc("multiply.16278")
#loc13509 = loc("broadcast.16279")
#loc13510 = loc("multiply.16280")
#loc13511 = loc("broadcast.16283")
#loc13512 = loc("add.16284")
#loc13516 = loc("reduce.17138")
#loc13517 = loc("multiply.17147")
#loc13518 = loc("broadcast.17157")
#loc13519 = loc("subtract.17158")
#loc13520 = loc("subtract.17113")
#loc13521 = loc("multiply.17114")
#loc13522 = loc("reduce.17121")
#loc13523 = loc("multiply.17130")
#loc13524 = loc("reshape.17131")
#loc13525 = loc("add.17151")
#loc13526 = loc("rsqrt.17152")
#loc13527 = loc("reshape.17159")
#loc13528 = loc("broadcast.17160")
#loc13529 = loc("multiply.17161")
#loc13530 = loc("broadcast.17162")
#loc13531 = loc("multiply.17163")
#loc13532 = loc("broadcast.17166")
#loc13533 = loc("add.17167")
#loc13537 = loc("reduce.17283")
#loc13538 = loc("multiply.17292")
#loc13539 = loc("broadcast.17302")
#loc13540 = loc("subtract.17303")
#loc13541 = loc("subtract.17258")
#loc13542 = loc("multiply.17259")
#loc13543 = loc("reduce.17266")
#loc13544 = loc("multiply.17275")
#loc13545 = loc("reshape.17276")
#loc13546 = loc("add.17296")
#loc13547 = loc("rsqrt.17297")
#loc13548 = loc("reshape.17304")
#loc13549 = loc("broadcast.17305")
#loc13550 = loc("multiply.17306")
#loc13551 = loc("broadcast.17307")
#loc13552 = loc("multiply.17308")
#loc13553 = loc("broadcast.17311")
#loc13554 = loc("add.17312")
#loc13556 = loc("multiply.4188")
#loc13557 = loc("power.4174")
#loc13558 = loc("multiply.4177")
#loc13559 = loc("add.4178")
#loc13560 = loc("multiply.4181")
#loc13561 = loc("tanh.4182")
#loc13562 = loc("add.4185")
#loc13563 = loc("multiply.4189")
#loc13567 = loc("reduce.24264")
#loc13568 = loc("multiply.24273")
#loc13569 = loc("broadcast.24283")
#loc13570 = loc("subtract.24284")
#loc13571 = loc("subtract.24239")
#loc13572 = loc("multiply.24240")
#loc13573 = loc("reduce.24247")
#loc13574 = loc("multiply.24256")
#loc13575 = loc("reshape.24257")
#loc13576 = loc("add.24277")
#loc13577 = loc("rsqrt.24278")
#loc13578 = loc("reshape.24285")
#loc13579 = loc("broadcast.24286")
#loc13580 = loc("multiply.24287")
#loc13581 = loc("broadcast.24288")
#loc13582 = loc("multiply.24289")
#loc13583 = loc("broadcast.24292")
#loc13584 = loc("add.24293")
#loc13588 = loc("reduce.23493")
#loc13589 = loc("multiply.23502")
#loc13590 = loc("broadcast.23512")
#loc13591 = loc("subtract.23513")
#loc13592 = loc("subtract.23468")
#loc13593 = loc("multiply.23469")
#loc13594 = loc("reduce.23476")
#loc13595 = loc("multiply.23485")
#loc13596 = loc("reshape.23486")
#loc13597 = loc("add.23506")
#loc13598 = loc("rsqrt.23507")
#loc13599 = loc("reshape.23514")
#loc13600 = loc("broadcast.23515")
#loc13601 = loc("multiply.23516")
#loc13602 = loc("broadcast.23517")
#loc13603 = loc("multiply.23518")
#loc13604 = loc("broadcast.23521")
#loc13605 = loc("add.23522")
#loc13609 = loc("reduce.17395")
#loc13610 = loc("multiply.17404")
#loc13611 = loc("broadcast.17414")
#loc13612 = loc("subtract.17415")
#loc13613 = loc("subtract.17370")
#loc13614 = loc("multiply.17371")
#loc13615 = loc("reduce.17378")
#loc13616 = loc("multiply.17387")
#loc13617 = loc("reshape.17388")
#loc13618 = loc("add.17408")
#loc13619 = loc("rsqrt.17409")
#loc13620 = loc("reshape.17416")
#loc13621 = loc("broadcast.17417")
#loc13622 = loc("multiply.17418")
#loc13623 = loc("broadcast.17419")
#loc13624 = loc("multiply.17420")
#loc13625 = loc("broadcast.17423")
#loc13626 = loc("add.17424")
#loc13628 = loc("multiply.17593")
#loc13629 = loc("power.17579")
#loc13630 = loc("multiply.17582")
#loc13631 = loc("add.17583")
#loc13632 = loc("multiply.17586")
#loc13633 = loc("tanh.17587")
#loc13634 = loc("add.17590")
#loc13635 = loc("multiply.17594")
#loc13639 = loc("reduce.16624")
#loc13640 = loc("multiply.16633")
#loc13641 = loc("broadcast.16643")
#loc13642 = loc("subtract.16644")
#loc13643 = loc("subtract.16599")
#loc13644 = loc("multiply.16600")
#loc13645 = loc("reduce.16607")
#loc13646 = loc("multiply.16616")
#loc13647 = loc("reshape.16617")
#loc13648 = loc("add.16637")
#loc13649 = loc("rsqrt.16638")
#loc13650 = loc("reshape.16645")
#loc13651 = loc("broadcast.16646")
#loc13652 = loc("multiply.16647")
#loc13653 = loc("broadcast.16648")
#loc13654 = loc("multiply.16649")
#loc13655 = loc("broadcast.16652")
#loc13656 = loc("add.16653")
#loc13660 = loc("reduce.5885")
#loc13661 = loc("multiply.5894")
#loc13662 = loc("broadcast.5904")
#loc13663 = loc("subtract.5905")
#loc13664 = loc("subtract.5860")
#loc13665 = loc("multiply.5861")
#loc13666 = loc("reduce.5868")
#loc13667 = loc("multiply.5877")
#loc13668 = loc("reshape.5878")
#loc13669 = loc("add.5898")
#loc13670 = loc("rsqrt.5899")
#loc13671 = loc("reshape.5906")
#loc13672 = loc("broadcast.5907")
#loc13673 = loc("multiply.5908")
#loc13674 = loc("broadcast.5909")
#loc13675 = loc("multiply.5910")
#loc13676 = loc("broadcast.5913")
#loc13677 = loc("add.5914")
#loc13681 = loc("reduce.17797")
#loc13682 = loc("multiply.17806")
#loc13683 = loc("broadcast.17816")
#loc13684 = loc("subtract.17817")
#loc13685 = loc("subtract.17772")
#loc13686 = loc("multiply.17773")
#loc13687 = loc("reduce.17780")
#loc13688 = loc("multiply.17789")
#loc13689 = loc("reshape.17790")
#loc13690 = loc("add.17810")
#loc13691 = loc("rsqrt.17811")
#loc13692 = loc("reshape.17818")
#loc13693 = loc("broadcast.17819")
#loc13694 = loc("multiply.17820")
#loc13695 = loc("broadcast.17821")
#loc13696 = loc("multiply.17822")
#loc13697 = loc("broadcast.17825")
#loc13698 = loc("add.17826")
#loc13702 = loc("reduce.17909")
#loc13703 = loc("multiply.17918")
#loc13704 = loc("broadcast.17928")
#loc13705 = loc("subtract.17929")
#loc13706 = loc("subtract.17884")
#loc13707 = loc("multiply.17885")
#loc13708 = loc("reduce.17892")
#loc13709 = loc("multiply.17901")
#loc13710 = loc("reshape.17902")
#loc13711 = loc("add.17922")
#loc13712 = loc("rsqrt.17923")
#loc13713 = loc("reshape.17930")
#loc13714 = loc("broadcast.17931")
#loc13715 = loc("multiply.17932")
#loc13716 = loc("broadcast.17933")
#loc13717 = loc("multiply.17934")
#loc13718 = loc("broadcast.17937")
#loc13719 = loc("add.17938")
#loc13721 = loc("multiply.18107")
#loc13722 = loc("power.18093")
#loc13723 = loc("multiply.18096")
#loc13724 = loc("add.18097")
#loc13725 = loc("multiply.18100")
#loc13726 = loc("tanh.18101")
#loc13727 = loc("add.18104")
#loc13728 = loc("multiply.18108")
#loc13732 = loc("reduce.18166")
#loc13733 = loc("multiply.18175")
#loc13734 = loc("broadcast.18185")
#loc13735 = loc("subtract.18186")
#loc13736 = loc("subtract.18141")
#loc13737 = loc("multiply.18142")
#loc13738 = loc("reduce.18149")
#loc13739 = loc("multiply.18158")
#loc13740 = loc("reshape.18159")
#loc13741 = loc("add.18179")
#loc13742 = loc("rsqrt.18180")
#loc13743 = loc("reshape.18187")
#loc13744 = loc("broadcast.18188")
#loc13745 = loc("multiply.18189")
#loc13746 = loc("broadcast.18190")
#loc13747 = loc("multiply.18191")
#loc13748 = loc("broadcast.18194")
#loc13749 = loc("add.18195")
#loc13751 = loc("multiply.27143")
#loc13752 = loc("power.27129")
#loc13753 = loc("multiply.27132")
#loc13754 = loc("add.27133")
#loc13755 = loc("multiply.27136")
#loc13756 = loc("tanh.27137")
#loc13757 = loc("add.27140")
#loc13758 = loc("multiply.27144")
#loc13762 = loc("reduce.5339")
#loc13763 = loc("multiply.5348")
#loc13764 = loc("broadcast.5358")
#loc13765 = loc("subtract.5359")
#loc13766 = loc("subtract.5314")
#loc13767 = loc("multiply.5315")
#loc13768 = loc("reduce.5322")
#loc13769 = loc("multiply.5331")
#loc13770 = loc("reshape.5332")
#loc13771 = loc("add.5352")
#loc13772 = loc("rsqrt.5353")
#loc13773 = loc("reshape.5360")
#loc13774 = loc("broadcast.5361")
#loc13775 = loc("multiply.5362")
#loc13776 = loc("broadcast.5363")
#loc13777 = loc("multiply.5364")
#loc13778 = loc("broadcast.5367")
#loc13779 = loc("add.5368")
#loc13783 = loc("reduce.3316")
#loc13784 = loc("multiply.3325")
#loc13785 = loc("broadcast.3335")
#loc13786 = loc("subtract.3336")
#loc13787 = loc("subtract.3291")
#loc13788 = loc("multiply.3292")
#loc13789 = loc("reduce.3299")
#loc13790 = loc("multiply.3308")
#loc13791 = loc("reshape.3309")
#loc13792 = loc("add.3329")
#loc13793 = loc("rsqrt.3330")
#loc13794 = loc("reshape.3337")
#loc13795 = loc("broadcast.3338")
#loc13796 = loc("multiply.3339")
#loc13797 = loc("broadcast.3340")
#loc13798 = loc("multiply.3341")
#loc13799 = loc("broadcast.3344")
#loc13800 = loc("add.3345")
#loc13804 = loc("reduce.3589")
#loc13805 = loc("multiply.3598")
#loc13806 = loc("broadcast.3608")
#loc13807 = loc("subtract.3609")
#loc13808 = loc("subtract.3564")
#loc13809 = loc("multiply.3565")
#loc13810 = loc("reduce.3572")
#loc13811 = loc("multiply.3581")
#loc13812 = loc("reshape.3582")
#loc13813 = loc("add.3602")
#loc13814 = loc("rsqrt.3603")
#loc13815 = loc("reshape.3610")
#loc13816 = loc("broadcast.3611")
#loc13817 = loc("multiply.3612")
#loc13818 = loc("broadcast.3613")
#loc13819 = loc("multiply.3614")
#loc13820 = loc("broadcast.3617")
#loc13821 = loc("add.3618")
#loc13825 = loc("reduce.19012")
#loc13826 = loc("multiply.19021")
#loc13827 = loc("broadcast.19031")
#loc13828 = loc("subtract.19032")
#loc13829 = loc("subtract.18987")
#loc13830 = loc("multiply.18988")
#loc13831 = loc("reduce.18995")
#loc13832 = loc("multiply.19004")
#loc13833 = loc("reshape.19005")
#loc13834 = loc("add.19025")
#loc13835 = loc("rsqrt.19026")
#loc13836 = loc("reshape.19033")
#loc13837 = loc("broadcast.19034")
#loc13838 = loc("multiply.19035")
#loc13839 = loc("broadcast.19036")
#loc13840 = loc("multiply.19037")
#loc13841 = loc("broadcast.19040")
#loc13842 = loc("add.19041")
#loc13846 = loc("reduce.9434")
#loc13847 = loc("multiply.9443")
#loc13848 = loc("broadcast.9453")
#loc13849 = loc("subtract.9454")
#loc13850 = loc("subtract.9409")
#loc13851 = loc("multiply.9410")
#loc13852 = loc("reduce.9417")
#loc13853 = loc("multiply.9426")
#loc13854 = loc("reshape.9427")
#loc13855 = loc("add.9447")
#loc13856 = loc("rsqrt.9448")
#loc13857 = loc("reshape.9455")
#loc13858 = loc("broadcast.9456")
#loc13859 = loc("multiply.9457")
#loc13860 = loc("broadcast.9458")
#loc13861 = loc("multiply.9459")
#loc13862 = loc("broadcast.9462")
#loc13863 = loc("add.9463")
#loc13867 = loc("reduce.6977")
#loc13868 = loc("multiply.6986")
#loc13869 = loc("broadcast.6996")
#loc13870 = loc("subtract.6997")
#loc13871 = loc("subtract.6952")
#loc13872 = loc("multiply.6953")
#loc13873 = loc("reduce.6960")
#loc13874 = loc("multiply.6969")
#loc13875 = loc("reshape.6970")
#loc13876 = loc("add.6990")
#loc13877 = loc("rsqrt.6991")
#loc13878 = loc("reshape.6998")
#loc13879 = loc("broadcast.6999")
#loc13880 = loc("multiply.7000")
#loc13881 = loc("broadcast.7001")
#loc13882 = loc("multiply.7002")
#loc13883 = loc("broadcast.7005")
#loc13884 = loc("add.7006")
#loc13886 = loc("multiply.3642")
#loc13887 = loc("power.3628")
#loc13888 = loc("multiply.3631")
#loc13889 = loc("add.3632")
#loc13890 = loc("multiply.3635")
#loc13891 = loc("tanh.3636")
#loc13892 = loc("add.3639")
#loc13893 = loc("multiply.3643")
#loc13895 = loc("multiply.19579")
#loc13896 = loc("power.19565")
#loc13897 = loc("multiply.19568")
#loc13898 = loc("add.19569")
#loc13899 = loc("multiply.19572")
#loc13900 = loc("tanh.19573")
#loc13901 = loc("add.19576")
#loc13902 = loc("multiply.19580")
#loc13906 = loc("reduce.5500")
#loc13907 = loc("multiply.5509")
#loc13908 = loc("broadcast.5519")
#loc13909 = loc("subtract.5520")
#loc13910 = loc("subtract.5475")
#loc13911 = loc("multiply.5476")
#loc13912 = loc("reduce.5483")
#loc13913 = loc("multiply.5492")
#loc13914 = loc("reshape.5493")
#loc13915 = loc("add.5513")
#loc13916 = loc("rsqrt.5514")
#loc13917 = loc("reshape.5521")
#loc13918 = loc("broadcast.5522")
#loc13919 = loc("multiply.5523")
#loc13920 = loc("broadcast.5524")
#loc13921 = loc("multiply.5525")
#loc13922 = loc("broadcast.5528")
#loc13923 = loc("add.5529")
#loc13927 = loc("reduce.15484")
#loc13928 = loc("multiply.15493")
#loc13929 = loc("broadcast.15503")
#loc13930 = loc("subtract.15504")
#loc13931 = loc("subtract.15459")
#loc13932 = loc("multiply.15460")
#loc13933 = loc("reduce.15467")
#loc13934 = loc("multiply.15476")
#loc13935 = loc("reshape.15477")
#loc13936 = loc("add.15497")
#loc13937 = loc("rsqrt.15498")
#loc13938 = loc("reshape.15505")
#loc13939 = loc("broadcast.15506")
#loc13940 = loc("multiply.15507")
#loc13941 = loc("broadcast.15508")
#loc13942 = loc("multiply.15509")
#loc13943 = loc("broadcast.15512")
#loc13944 = loc("add.15513")
#loc13948 = loc("reduce.3862")
#loc13949 = loc("multiply.3871")
#loc13950 = loc("broadcast.3881")
#loc13951 = loc("subtract.3882")
#loc13952 = loc("subtract.3837")
#loc13953 = loc("multiply.3838")
#loc13954 = loc("reduce.3845")
#loc13955 = loc("multiply.3854")
#loc13956 = loc("reshape.3855")
#loc13957 = loc("add.3875")
#loc13958 = loc("rsqrt.3876")
#loc13959 = loc("reshape.3883")
#loc13960 = loc("broadcast.3884")
#loc13961 = loc("multiply.3885")
#loc13962 = loc("broadcast.3886")
#loc13963 = loc("multiply.3887")
#loc13964 = loc("broadcast.3890")
#loc13965 = loc("add.3891")
#loc13967 = loc("multiply.7464")
#loc13968 = loc("power.7450")
#loc13969 = loc("multiply.7453")
#loc13970 = loc("add.7454")
#loc13971 = loc("multiply.7457")
#loc13972 = loc("tanh.7458")
#loc13973 = loc("add.7461")
#loc13974 = loc("multiply.7465")
#loc13978 = loc("reduce.20040")
#loc13979 = loc("multiply.20049")
#loc13980 = loc("broadcast.20059")
#loc13981 = loc("subtract.20060")
#loc13982 = loc("subtract.20015")
#loc13983 = loc("multiply.20016")
#loc13984 = loc("reduce.20023")
#loc13985 = loc("multiply.20032")
#loc13986 = loc("reshape.20033")
#loc13987 = loc("add.20053")
#loc13988 = loc("rsqrt.20054")
#loc13989 = loc("reshape.20061")
#loc13990 = loc("broadcast.20062")
#loc13991 = loc("multiply.20063")
#loc13992 = loc("broadcast.20064")
#loc13993 = loc("multiply.20065")
#loc13994 = loc("broadcast.20068")
#loc13995 = loc("add.20069")
#loc13997 = loc("multiply.27583")
#loc13998 = loc("power.27569")
#loc13999 = loc("multiply.27572")
#loc14000 = loc("add.27573")
#loc14001 = loc("multiply.27576")
#loc14002 = loc("tanh.27577")
#loc14003 = loc("add.27580")
#loc14004 = loc("multiply.27584")
#loc14006 = loc("multiply.3915")
#loc14007 = loc("power.3901")
#loc14008 = loc("multiply.3904")
#loc14009 = loc("add.3905")
#loc14010 = loc("multiply.3908")
#loc14011 = loc("tanh.3909")
#loc14012 = loc("add.3912")
#loc14013 = loc("multiply.3916")
#loc14015 = loc("multiply.19322")
#loc14016 = loc("power.19308")
#loc14017 = loc("multiply.19311")
#loc14018 = loc("add.19312")
#loc14019 = loc("multiply.19315")
#loc14020 = loc("tanh.19316")
#loc14021 = loc("add.19319")
#loc14022 = loc("multiply.19323")
#loc14024 = loc("multiply.4461")
#loc14025 = loc("power.4447")
#loc14026 = loc("multiply.4450")
#loc14027 = loc("add.4451")
#loc14028 = loc("multiply.4454")
#loc14029 = loc("tanh.4455")
#loc14030 = loc("add.4458")
#loc14031 = loc("multiply.4462")
#loc14035 = loc("reduce.4135")
#loc14036 = loc("multiply.4144")
#loc14037 = loc("broadcast.4154")
#loc14038 = loc("subtract.4155")
#loc14039 = loc("subtract.4110")
#loc14040 = loc("multiply.4111")
#loc14041 = loc("reduce.4118")
#loc14042 = loc("multiply.4127")
#loc14043 = loc("reshape.4128")
#loc14044 = loc("add.4148")
#loc14045 = loc("rsqrt.4149")
#loc14046 = loc("reshape.4156")
#loc14047 = loc("broadcast.4157")
#loc14048 = loc("multiply.4158")
#loc14049 = loc("broadcast.4159")
#loc14050 = loc("multiply.4160")
#loc14051 = loc("broadcast.4163")
#loc14052 = loc("add.4164")
#loc14056 = loc("reduce.23381")
#loc14057 = loc("multiply.23390")
#loc14058 = loc("broadcast.23400")
#loc14059 = loc("subtract.23401")
#loc14060 = loc("subtract.23356")
#loc14061 = loc("multiply.23357")
#loc14062 = loc("reduce.23364")
#loc14063 = loc("multiply.23373")
#loc14064 = loc("reshape.23374")
#loc14065 = loc("add.23394")
#loc14066 = loc("rsqrt.23395")
#loc14067 = loc("reshape.23402")
#loc14068 = loc("broadcast.23403")
#loc14069 = loc("multiply.23404")
#loc14070 = loc("broadcast.23405")
#loc14071 = loc("multiply.23406")
#loc14072 = loc("broadcast.23409")
#loc14073 = loc("add.23410")
#loc14077 = loc("reduce.4247")
#loc14078 = loc("multiply.4256")
#loc14079 = loc("broadcast.4266")
#loc14080 = loc("subtract.4267")
#loc14081 = loc("subtract.4222")
#loc14082 = loc("multiply.4223")
#loc14083 = loc("reduce.4230")
#loc14084 = loc("multiply.4239")
#loc14085 = loc("reshape.4240")
#loc14086 = loc("add.4260")
#loc14087 = loc("rsqrt.4261")
#loc14088 = loc("reshape.4268")
#loc14089 = loc("broadcast.4269")
#loc14090 = loc("multiply.4270")
#loc14091 = loc("broadcast.4271")
#loc14092 = loc("multiply.4272")
#loc14093 = loc("broadcast.4275")
#loc14094 = loc("add.4276")
#loc14098 = loc("reduce.4681")
#loc14099 = loc("multiply.4690")
#loc14100 = loc("broadcast.4700")
#loc14101 = loc("subtract.4701")
#loc14102 = loc("subtract.4656")
#loc14103 = loc("multiply.4657")
#loc14104 = loc("reduce.4664")
#loc14105 = loc("multiply.4673")
#loc14106 = loc("reshape.4674")
#loc14107 = loc("add.4694")
#loc14108 = loc("rsqrt.4695")
#loc14109 = loc("reshape.4702")
#loc14110 = loc("broadcast.4703")
#loc14111 = loc("multiply.4704")
#loc14112 = loc("broadcast.4705")
#loc14113 = loc("multiply.4706")
#loc14114 = loc("broadcast.4709")
#loc14115 = loc("add.4710")
#loc14117 = loc("multiply.26923")
#loc14118 = loc("power.26909")
#loc14119 = loc("multiply.26912")
#loc14120 = loc("add.26913")
#loc14121 = loc("multiply.26916")
#loc14122 = loc("tanh.26917")
#loc14123 = loc("add.26920")
#loc14124 = loc("multiply.26924")
#loc14126 = loc("multiply.4734")
#loc14127 = loc("power.4720")
#loc14128 = loc("multiply.4723")
#loc14129 = loc("add.4724")
#loc14130 = loc("multiply.4727")
#loc14131 = loc("tanh.4728")
#loc14132 = loc("add.4731")
#loc14133 = loc("multiply.4735")
#loc14137 = loc("reduce.4793")
#loc14138 = loc("multiply.4802")
#loc14139 = loc("broadcast.4812")
#loc14140 = loc("subtract.4813")
#loc14141 = loc("subtract.4768")
#loc14142 = loc("multiply.4769")
#loc14143 = loc("reduce.4776")
#loc14144 = loc("multiply.4785")
#loc14145 = loc("reshape.4786")
#loc14146 = loc("add.4806")
#loc14147 = loc("rsqrt.4807")
#loc14148 = loc("reshape.4814")
#loc14149 = loc("broadcast.4815")
#loc14150 = loc("multiply.4816")
#loc14151 = loc("broadcast.4817")
#loc14152 = loc("multiply.4818")
#loc14153 = loc("broadcast.4821")
#loc14154 = loc("add.4822")
#loc14158 = loc("reduce.4954")
#loc14159 = loc("multiply.4963")
#loc14160 = loc("broadcast.4973")
#loc14161 = loc("subtract.4974")
#loc14162 = loc("subtract.4929")
#loc14163 = loc("multiply.4930")
#loc14164 = loc("reduce.4937")
#loc14165 = loc("multiply.4946")
#loc14166 = loc("reshape.4947")
#loc14167 = loc("add.4967")
#loc14168 = loc("rsqrt.4968")
#loc14169 = loc("reshape.4975")
#loc14170 = loc("broadcast.4976")
#loc14171 = loc("multiply.4977")
#loc14172 = loc("broadcast.4978")
#loc14173 = loc("multiply.4979")
#loc14174 = loc("broadcast.4982")
#loc14175 = loc("add.4983")
#loc14177 = loc("multiply.5280")
#loc14178 = loc("power.5266")
#loc14179 = loc("multiply.5269")
#loc14180 = loc("add.5270")
#loc14181 = loc("multiply.5273")
#loc14182 = loc("tanh.5274")
#loc14183 = loc("add.5277")
#loc14184 = loc("multiply.5281")
#loc14188 = loc("reduce.5612")
#loc14189 = loc("multiply.5621")
#loc14190 = loc("broadcast.5631")
#loc14191 = loc("subtract.5632")
#loc14192 = loc("subtract.5587")
#loc14193 = loc("multiply.5588")
#loc14194 = loc("reduce.5595")
#loc14195 = loc("multiply.5604")
#loc14196 = loc("reshape.5605")
#loc14197 = loc("add.5625")
#loc14198 = loc("rsqrt.5626")
#loc14199 = loc("reshape.5633")
#loc14200 = loc("broadcast.5634")
#loc14201 = loc("multiply.5635")
#loc14202 = loc("broadcast.5636")
#loc14203 = loc("multiply.5637")
#loc14204 = loc("broadcast.5640")
#loc14205 = loc("add.5641")
#loc14207 = loc("multiply.5826")
#loc14208 = loc("power.5812")
#loc14209 = loc("multiply.5815")
#loc14210 = loc("add.5816")
#loc14211 = loc("multiply.5819")
#loc14212 = loc("tanh.5820")
#loc14213 = loc("add.5823")
#loc14214 = loc("multiply.5827")
#loc14216 = loc("multiply.8829")
#loc14217 = loc("power.8815")
#loc14218 = loc("multiply.8818")
#loc14219 = loc("add.8819")
#loc14220 = loc("multiply.8822")
#loc14221 = loc("tanh.8823")
#loc14222 = loc("add.8826")
#loc14223 = loc("multiply.8830")
#loc14227 = loc("reduce.6046")
#loc14228 = loc("multiply.6055")
#loc14229 = loc("broadcast.6065")
#loc14230 = loc("subtract.6066")
#loc14231 = loc("subtract.6021")
#loc14232 = loc("multiply.6022")
#loc14233 = loc("reduce.6029")
#loc14234 = loc("multiply.6038")
#loc14235 = loc("reshape.6039")
#loc14236 = loc("add.6059")
#loc14237 = loc("rsqrt.6060")
#loc14238 = loc("reshape.6067")
#loc14239 = loc("broadcast.6068")
#loc14240 = loc("multiply.6069")
#loc14241 = loc("broadcast.6070")
#loc14242 = loc("multiply.6071")
#loc14243 = loc("broadcast.6074")
#loc14244 = loc("add.6075")
#loc14246 = loc("multiply.6099")
#loc14247 = loc("power.6085")
#loc14248 = loc("multiply.6088")
#loc14249 = loc("add.6089")
#loc14250 = loc("multiply.6092")
#loc14251 = loc("tanh.6093")
#loc14252 = loc("add.6096")
#loc14253 = loc("multiply.6100")
#loc14255 = loc("multiply.20607")
#loc14256 = loc("power.20593")
#loc14257 = loc("multiply.20596")
#loc14258 = loc("add.20597")
#loc14259 = loc("multiply.20600")
#loc14260 = loc("tanh.20601")
#loc14261 = loc("add.20604")
#loc14262 = loc("multiply.20608")
#loc14266 = loc("reduce.6158")
#loc14267 = loc("multiply.6167")
#loc14268 = loc("broadcast.6177")
#loc14269 = loc("subtract.6178")
#loc14270 = loc("subtract.6133")
#loc14271 = loc("multiply.6134")
#loc14272 = loc("reduce.6141")
#loc14273 = loc("multiply.6150")
#loc14274 = loc("reshape.6151")
#loc14275 = loc("add.6171")
#loc14276 = loc("rsqrt.6172")
#loc14277 = loc("reshape.6179")
#loc14278 = loc("broadcast.6180")
#loc14279 = loc("multiply.6181")
#loc14280 = loc("broadcast.6182")
#loc14281 = loc("multiply.6183")
#loc14282 = loc("broadcast.6186")
#loc14283 = loc("add.6187")
#loc14287 = loc("reduce.6592")
#loc14288 = loc("multiply.6601")
#loc14289 = loc("broadcast.6611")
#loc14290 = loc("subtract.6612")
#loc14291 = loc("subtract.6567")
#loc14292 = loc("multiply.6568")
#loc14293 = loc("reduce.6575")
#loc14294 = loc("multiply.6584")
#loc14295 = loc("reshape.6585")
#loc14296 = loc("add.6605")
#loc14297 = loc("rsqrt.6606")
#loc14298 = loc("reshape.6613")
#loc14299 = loc("broadcast.6614")
#loc14300 = loc("multiply.6615")
#loc14301 = loc("broadcast.6616")
#loc14302 = loc("multiply.6617")
#loc14303 = loc("broadcast.6620")
#loc14304 = loc("add.6621")
#loc14308 = loc("reduce.6704")
#loc14309 = loc("multiply.6713")
#loc14310 = loc("broadcast.6723")
#loc14311 = loc("subtract.6724")
#loc14312 = loc("subtract.6679")
#loc14313 = loc("multiply.6680")
#loc14314 = loc("reduce.6687")
#loc14315 = loc("multiply.6696")
#loc14316 = loc("reshape.6697")
#loc14317 = loc("add.6717")
#loc14318 = loc("rsqrt.6718")
#loc14319 = loc("reshape.6725")
#loc14320 = loc("broadcast.6726")
#loc14321 = loc("multiply.6727")
#loc14322 = loc("broadcast.6728")
#loc14323 = loc("multiply.6729")
#loc14324 = loc("broadcast.6732")
#loc14325 = loc("add.6733")
#loc14329 = loc("reduce.6865")
#loc14330 = loc("multiply.6874")
#loc14331 = loc("broadcast.6884")
#loc14332 = loc("subtract.6885")
#loc14333 = loc("subtract.6840")
#loc14334 = loc("multiply.6841")
#loc14335 = loc("reduce.6848")
#loc14336 = loc("multiply.6857")
#loc14337 = loc("reshape.6858")
#loc14338 = loc("add.6878")
#loc14339 = loc("rsqrt.6879")
#loc14340 = loc("reshape.6886")
#loc14341 = loc("broadcast.6887")
#loc14342 = loc("multiply.6888")
#loc14343 = loc("broadcast.6889")
#loc14344 = loc("multiply.6890")
#loc14345 = loc("broadcast.6893")
#loc14346 = loc("add.6894")
#loc14350 = loc("reduce.9980")
#loc14351 = loc("multiply.9989")
#loc14352 = loc("broadcast.9999")
#loc14353 = loc("subtract.10000")
#loc14354 = loc("subtract.9955")
#loc14355 = loc("multiply.9956")
#loc14356 = loc("reduce.9963")
#loc14357 = loc("multiply.9972")
#loc14358 = loc("reshape.9973")
#loc14359 = loc("add.9993")
#loc14360 = loc("rsqrt.9994")
#loc14361 = loc("reshape.10001")
#loc14362 = loc("broadcast.10002")
#loc14363 = loc("multiply.10003")
#loc14364 = loc("broadcast.10004")
#loc14365 = loc("multiply.10005")
#loc14366 = loc("broadcast.10008")
#loc14367 = loc("add.10009")
#loc14371 = loc("reduce.9322")
#loc14372 = loc("multiply.9331")
#loc14373 = loc("broadcast.9341")
#loc14374 = loc("subtract.9342")
#loc14375 = loc("subtract.9297")
#loc14376 = loc("multiply.9298")
#loc14377 = loc("reduce.9305")
#loc14378 = loc("multiply.9314")
#loc14379 = loc("reshape.9315")
#loc14380 = loc("add.9335")
#loc14381 = loc("rsqrt.9336")
#loc14382 = loc("reshape.9343")
#loc14383 = loc("broadcast.9344")
#loc14384 = loc("multiply.9345")
#loc14385 = loc("broadcast.9346")
#loc14386 = loc("multiply.9347")
#loc14387 = loc("broadcast.9350")
#loc14388 = loc("add.9351")
#loc14390 = loc("multiply.6918")
#loc14391 = loc("power.6904")
#loc14392 = loc("multiply.6907")
#loc14393 = loc("add.6908")
#loc14394 = loc("multiply.6911")
#loc14395 = loc("tanh.6912")
#loc14396 = loc("add.6915")
#loc14397 = loc("multiply.6919")
#loc14401 = loc("reduce.7138")
#loc14402 = loc("multiply.7147")
#loc14403 = loc("broadcast.7157")
#loc14404 = loc("subtract.7158")
#loc14405 = loc("subtract.7113")
#loc14406 = loc("multiply.7114")
#loc14407 = loc("reduce.7121")
#loc14408 = loc("multiply.7130")
#loc14409 = loc("reshape.7131")
#loc14410 = loc("add.7151")
#loc14411 = loc("rsqrt.7152")
#loc14412 = loc("reshape.7159")
#loc14413 = loc("broadcast.7160")
#loc14414 = loc("multiply.7161")
#loc14415 = loc("broadcast.7162")
#loc14416 = loc("multiply.7163")
#loc14417 = loc("broadcast.7166")
#loc14418 = loc("add.7167")
#loc14422 = loc("reduce.24409")
#loc14423 = loc("multiply.24418")
#loc14424 = loc("broadcast.24428")
#loc14425 = loc("subtract.24429")
#loc14426 = loc("subtract.24384")
#loc14427 = loc("multiply.24385")
#loc14428 = loc("reduce.24392")
#loc14429 = loc("multiply.24401")
#loc14430 = loc("reshape.24402")
#loc14431 = loc("add.24422")
#loc14432 = loc("rsqrt.24423")
#loc14433 = loc("reshape.24430")
#loc14434 = loc("broadcast.24431")
#loc14435 = loc("multiply.24432")
#loc14436 = loc("broadcast.24433")
#loc14437 = loc("multiply.24434")
#loc14438 = loc("broadcast.24437")
#loc14439 = loc("add.24438")
#loc14441 = loc("multiply.7191")
#loc14442 = loc("power.7177")
#loc14443 = loc("multiply.7180")
#loc14444 = loc("add.7181")
#loc14445 = loc("multiply.7184")
#loc14446 = loc("tanh.7185")
#loc14447 = loc("add.7188")
#loc14448 = loc("multiply.7192")
#loc14452 = loc("reduce.7523")
#loc14453 = loc("multiply.7532")
#loc14454 = loc("broadcast.7542")
#loc14455 = loc("subtract.7543")
#loc14456 = loc("subtract.7498")
#loc14457 = loc("multiply.7499")
#loc14458 = loc("reduce.7506")
#loc14459 = loc("multiply.7515")
#loc14460 = loc("reshape.7516")
#loc14461 = loc("add.7536")
#loc14462 = loc("rsqrt.7537")
#loc14463 = loc("reshape.7544")
#loc14464 = loc("broadcast.7545")
#loc14465 = loc("multiply.7546")
#loc14466 = loc("broadcast.7547")
#loc14467 = loc("multiply.7548")
#loc14468 = loc("broadcast.7551")
#loc14469 = loc("add.7552")
#loc14471 = loc("multiply.17850")
#loc14472 = loc("power.17836")
#loc14473 = loc("multiply.17839")
#loc14474 = loc("add.17840")
#loc14475 = loc("multiply.17843")
#loc14476 = loc("tanh.17844")
#loc14477 = loc("add.17847")
#loc14478 = loc("multiply.17851")
#loc14482 = loc("reduce.7796")
#loc14483 = loc("multiply.7805")
#loc14484 = loc("broadcast.7815")
#loc14485 = loc("subtract.7816")
#loc14486 = loc("subtract.7771")
#loc14487 = loc("multiply.7772")
#loc14488 = loc("reduce.7779")
#loc14489 = loc("multiply.7788")
#loc14490 = loc("reshape.7789")
#loc14491 = loc("add.7809")
#loc14492 = loc("rsqrt.7810")
#loc14493 = loc("reshape.7817")
#loc14494 = loc("broadcast.7818")
#loc14495 = loc("multiply.7819")
#loc14496 = loc("broadcast.7820")
#loc14497 = loc("multiply.7821")
#loc14498 = loc("broadcast.7824")
#loc14499 = loc("add.7825")
#loc14503 = loc("reduce.7957")
#loc14504 = loc("multiply.7966")
#loc14505 = loc("broadcast.7976")
#loc14506 = loc("subtract.7977")
#loc14507 = loc("subtract.7932")
#loc14508 = loc("multiply.7933")
#loc14509 = loc("reduce.7940")
#loc14510 = loc("multiply.7949")
#loc14511 = loc("reshape.7950")
#loc14512 = loc("add.7970")
#loc14513 = loc("rsqrt.7971")
#loc14514 = loc("reshape.7978")
#loc14515 = loc("broadcast.7979")
#loc14516 = loc("multiply.7980")
#loc14517 = loc("broadcast.7981")
#loc14518 = loc("multiply.7982")
#loc14519 = loc("broadcast.7985")
#loc14520 = loc("add.7986")
#loc14524 = loc("reduce.13942")
#loc14525 = loc("multiply.13951")
#loc14526 = loc("broadcast.13961")
#loc14527 = loc("subtract.13962")
#loc14528 = loc("subtract.13917")
#loc14529 = loc("multiply.13918")
#loc14530 = loc("reduce.13925")
#loc14531 = loc("multiply.13934")
#loc14532 = loc("reshape.13935")
#loc14533 = loc("add.13955")
#loc14534 = loc("rsqrt.13956")
#loc14535 = loc("reshape.13963")
#loc14536 = loc("broadcast.13964")
#loc14537 = loc("multiply.13965")
#loc14538 = loc("broadcast.13966")
#loc14539 = loc("multiply.13967")
#loc14540 = loc("broadcast.13970")
#loc14541 = loc("add.13971")
#loc14545 = loc("reduce.17026")
#loc14546 = loc("multiply.17035")
#loc14547 = loc("broadcast.17045")
#loc14548 = loc("subtract.17046")
#loc14549 = loc("subtract.17001")
#loc14550 = loc("multiply.17002")
#loc14551 = loc("reduce.17009")
#loc14552 = loc("multiply.17018")
#loc14553 = loc("reshape.17019")
#loc14554 = loc("add.17039")
#loc14555 = loc("rsqrt.17040")
#loc14556 = loc("reshape.17047")
#loc14557 = loc("broadcast.17048")
#loc14558 = loc("multiply.17049")
#loc14559 = loc("broadcast.17050")
#loc14560 = loc("multiply.17051")
#loc14561 = loc("broadcast.17054")
#loc14562 = loc("add.17055")
#loc14564 = loc("multiply.8010")
#loc14565 = loc("power.7996")
#loc14566 = loc("multiply.7999")
#loc14567 = loc("add.8000")
#loc14568 = loc("multiply.8003")
#loc14569 = loc("tanh.8004")
#loc14570 = loc("add.8007")
#loc14571 = loc("multiply.8011")
#loc14575 = loc("reduce.8069")
#loc14576 = loc("multiply.8078")
#loc14577 = loc("broadcast.8088")
#loc14578 = loc("subtract.8089")
#loc14579 = loc("subtract.8044")
#loc14580 = loc("multiply.8045")
#loc14581 = loc("reduce.8052")
#loc14582 = loc("multiply.8061")
#loc14583 = loc("reshape.8062")
#loc14584 = loc("add.8082")
#loc14585 = loc("rsqrt.8083")
#loc14586 = loc("reshape.8090")
#loc14587 = loc("broadcast.8091")
#loc14588 = loc("multiply.8092")
#loc14589 = loc("broadcast.8093")
#loc14590 = loc("multiply.8094")
#loc14591 = loc("broadcast.8097")
#loc14592 = loc("add.8098")
#loc14596 = loc("reduce.8503")
#loc14597 = loc("multiply.8512")
#loc14598 = loc("broadcast.8522")
#loc14599 = loc("subtract.8523")
#loc14600 = loc("subtract.8478")
#loc14601 = loc("multiply.8479")
#loc14602 = loc("reduce.8486")
#loc14603 = loc("multiply.8495")
#loc14604 = loc("reshape.8496")
#loc14605 = loc("add.8516")
#loc14606 = loc("rsqrt.8517")
#loc14607 = loc("reshape.8524")
#loc14608 = loc("broadcast.8525")
#loc14609 = loc("multiply.8526")
#loc14610 = loc("broadcast.8527")
#loc14611 = loc("multiply.8528")
#loc14612 = loc("broadcast.8531")
#loc14613 = loc("add.8532")
#loc14615 = loc("multiply.30663")
#loc14616 = loc("power.30649")
#loc14617 = loc("multiply.30652")
#loc14618 = loc("add.30653")
#loc14619 = loc("multiply.30656")
#loc14620 = loc("tanh.30657")
#loc14621 = loc("add.30660")
#loc14622 = loc("multiply.30664")
#loc14626 = loc("reduce.8776")
#loc14627 = loc("multiply.8785")
#loc14628 = loc("broadcast.8795")
#loc14629 = loc("subtract.8796")
#loc14630 = loc("subtract.8751")
#loc14631 = loc("multiply.8752")
#loc14632 = loc("reduce.8759")
#loc14633 = loc("multiply.8768")
#loc14634 = loc("reshape.8769")
#loc14635 = loc("add.8789")
#loc14636 = loc("rsqrt.8790")
#loc14637 = loc("reshape.8797")
#loc14638 = loc("broadcast.8798")
#loc14639 = loc("multiply.8799")
#loc14640 = loc("broadcast.8800")
#loc14641 = loc("multiply.8801")
#loc14642 = loc("broadcast.8804")
#loc14643 = loc("add.8805")
#loc14647 = loc("reduce.8888")
#loc14648 = loc("multiply.8897")
#loc14649 = loc("broadcast.8907")
#loc14650 = loc("subtract.8908")
#loc14651 = loc("subtract.8863")
#loc14652 = loc("multiply.8864")
#loc14653 = loc("reduce.8871")
#loc14654 = loc("multiply.8880")
#loc14655 = loc("reshape.8881")
#loc14656 = loc("add.8901")
#loc14657 = loc("rsqrt.8902")
#loc14658 = loc("reshape.8909")
#loc14659 = loc("broadcast.8910")
#loc14660 = loc("multiply.8911")
#loc14661 = loc("broadcast.8912")
#loc14662 = loc("multiply.8913")
#loc14663 = loc("broadcast.8916")
#loc14664 = loc("add.8917")
#loc14666 = loc("multiply.9102")
#loc14667 = loc("power.9088")
#loc14668 = loc("multiply.9091")
#loc14669 = loc("add.9092")
#loc14670 = loc("multiply.9095")
#loc14671 = loc("tanh.9096")
#loc14672 = loc("add.9099")
#loc14673 = loc("multiply.9103")
#loc14677 = loc("reduce.9161")
#loc14678 = loc("multiply.9170")
#loc14679 = loc("broadcast.9180")
#loc14680 = loc("subtract.9181")
#loc14681 = loc("subtract.9136")
#loc14682 = loc("multiply.9137")
#loc14683 = loc("reduce.9144")
#loc14684 = loc("multiply.9153")
#loc14685 = loc("reshape.9154")
#loc14686 = loc("add.9174")
#loc14687 = loc("rsqrt.9175")
#loc14688 = loc("reshape.9182")
#loc14689 = loc("broadcast.9183")
#loc14690 = loc("multiply.9184")
#loc14691 = loc("broadcast.9185")
#loc14692 = loc("multiply.9186")
#loc14693 = loc("broadcast.9189")
#loc14694 = loc("add.9190")
#loc14696 = loc("multiply.9648")
#loc14697 = loc("power.9634")
#loc14698 = loc("multiply.9637")
#loc14699 = loc("add.9638")
#loc14700 = loc("multiply.9641")
#loc14701 = loc("tanh.9642")
#loc14702 = loc("add.9645")
#loc14703 = loc("multiply.9649")
#loc14705 = loc("multiply.10467")
#loc14706 = loc("power.10453")
#loc14707 = loc("multiply.10456")
#loc14708 = loc("add.10457")
#loc14709 = loc("multiply.10460")
#loc14710 = loc("tanh.10461")
#loc14711 = loc("add.10464")
#loc14712 = loc("multiply.10468")
#loc14714 = loc("multiply.26703")
#loc14715 = loc("power.26689")
#loc14716 = loc("multiply.26692")
#loc14717 = loc("add.26693")
#loc14718 = loc("multiply.26696")
#loc14719 = loc("tanh.26697")
#loc14720 = loc("add.26700")
#loc14721 = loc("multiply.26704")
#loc14723 = loc("multiply.27363")
#loc14724 = loc("power.27349")
#loc14725 = loc("multiply.27352")
#loc14726 = loc("add.27353")
#loc14727 = loc("multiply.27356")
#loc14728 = loc("tanh.27357")
#loc14729 = loc("add.27360")
#loc14730 = loc("multiply.27364")
#loc14732 = loc("multiply.5553")
#loc14733 = loc("power.5539")
#loc14734 = loc("multiply.5542")
#loc14735 = loc("add.5543")
#loc14736 = loc("multiply.5546")
#loc14737 = loc("tanh.5547")
#loc14738 = loc("add.5550")
#loc14739 = loc("multiply.5554")
#loc14741 = loc("multiply.28023")
#loc14742 = loc("power.28009")
#loc14743 = loc("multiply.28012")
#loc14744 = loc("add.28013")
#loc14745 = loc("multiply.28016")
#loc14746 = loc("tanh.28017")
#loc14747 = loc("add.28020")
#loc14748 = loc("multiply.28024")
