#loc1 = loc("p0.72")
#loc2 = loc("p1.79")
#loc3 = loc("p2.84")
#loc4 = loc("p3.110")
#loc5 = loc("p4.114")
#loc6 = loc("p5.122")
#loc7 = loc("p6.126")
#loc8 = loc("p7.133")
#loc9 = loc("p8.144")
#loc10 = loc("p9.149")
#loc11 = loc("p10.156")
#loc12 = loc("p11.167")
#loc13 = loc("p12.172")
#loc14 = loc("p13.179")
#loc15 = loc("p14.190")
#loc16 = loc("p15.195")
#loc17 = loc("p16.202")
#loc18 = loc("p17.213")
#loc19 = loc("p18.218")
#loc20 = loc("p19.225")
#loc21 = loc("p20.236")
#loc22 = loc("p21.241")
#loc23 = loc("p22.248")
#loc24 = loc("p23.259")
#loc25 = loc("p24.264")
#loc26 = loc("p25.271")
#loc27 = loc("p26.282")
#loc28 = loc("p27.287")
#loc29 = loc("p28.294")
#loc30 = loc("p29.305")
#loc31 = loc("p30.310")
#loc32 = loc("p31.317")
#loc33 = loc("p32.328")
#loc34 = loc("p33.333")
#loc35 = loc("p34.340")
#loc36 = loc("p35.351")
#loc37 = loc("p36.356")
#loc38 = loc("p37.363")
#loc39 = loc("p38.374")
#loc40 = loc("p39.379")
#loc41 = loc("p40.386")
#loc42 = loc("p41.397")
#loc43 = loc("p42.402")
#loc44 = loc("p43.409")
#loc45 = loc("p44.420")
#loc46 = loc("p45.425")
#loc47 = loc("p46.432")
#loc48 = loc("p47.443")
#loc49 = loc("p48.448")
#loc50 = loc("p49.455")
#loc51 = loc("p50.466")
#loc52 = loc("p51.471")
#loc53 = loc("p52.478")
#loc54 = loc("p53.489")
#loc55 = loc("p54.494")
#loc56 = loc("p55.501")
#loc57 = loc("p56.512")
#loc58 = loc("p57.517")
#loc59 = loc("p58.524")
#loc60 = loc("p59.535")
#loc61 = loc("p60.540")
#loc62 = loc("p61.547")
#loc63 = loc("p62.558")
#loc64 = loc("p63.563")
#loc65 = loc("p64.570")
#loc66 = loc("p65.581")
#loc67 = loc("p66.586")
#loc68 = loc("p67.593")
#loc69 = loc("p68.604")
#loc70 = loc("p69.609")
#loc71 = loc("p70.616")
#loc72 = loc("p71.627")
#loc73 = loc("p72.632")
#loc74 = loc("p73.639")
#loc75 = loc("p74.650")
#loc76 = loc("p75.655")
#loc77 = loc("p76.662")
#loc78 = loc("p77.673")
#loc79 = loc("p78.678")
#loc80 = loc("p79.685")
#loc81 = loc("p80.696")
#loc82 = loc("p81.701")
#loc83 = loc("p82.708")
#loc84 = loc("p83.719")
#loc85 = loc("p84.724")
#loc86 = loc("p85.731")
#loc87 = loc("p86.742")
#loc88 = loc("p87.747")
#loc89 = loc("p88.754")
#loc90 = loc("p89.765")
#loc91 = loc("p90.770")
#loc92 = loc("p91.777")
#loc93 = loc("p92.788")
#loc94 = loc("p93.793")
#loc95 = loc("p94.800")
#loc96 = loc("p95.811")
#loc97 = loc("p96.816")
#loc98 = loc("p97.823")
#loc99 = loc("p98.834")
#loc100 = loc("p99.839")
#loc101 = loc("p100.846")
#loc102 = loc("p101.857")
#loc103 = loc("p102.862")
#loc104 = loc("p103.869")
#loc105 = loc("p104.880")
#loc106 = loc("p105.885")
#loc107 = loc("p106.892")
#loc108 = loc("p107.903")
#loc109 = loc("p108.908")
#loc110 = loc("p109.915")
#loc111 = loc("p110.926")
#loc112 = loc("p111.931")
#loc113 = loc("p112.938")
#loc114 = loc("p113.949")
#loc115 = loc("p114.954")
#loc116 = loc("p115.961")
#loc117 = loc("p116.972")
#loc118 = loc("p117.976")
#loc119 = loc("p118.982")
#loc120 = loc("p119.986")
#loc121 = loc("p120.1059")
#loc122 = loc("p121.1134")
#loc123 = loc("p122.1141")
#loc124 = loc("p123.1152")
#loc125 = loc("p124.1157")
#loc126 = loc("p125.1167")
#loc127 = loc("p126.1171")
#loc128 = loc("p127.1177")
#loc129 = loc("p128.1182")
#loc130 = loc("p129.1191")
#loc131 = loc("p130.1195")
#loc132 = loc("p131.1203")
#loc133 = loc("p132.1207")
#loc134 = loc("p133.1213")
#loc135 = loc("p134.1218")
#loc136 = loc("p135.1227")
#loc137 = loc("p136.1231")
#loc138 = loc("p137.1237")
#loc139 = loc("p138.1241")
#loc140 = loc("p139.1247")
#loc141 = loc("p140.1252")
#loc142 = loc("p141.1261")
#loc143 = loc("p142.1265")
#loc144 = loc("p143.1273")
#loc145 = loc("p144.1277")
#loc146 = loc("p145.1283")
#loc147 = loc("p146.1288")
#loc148 = loc("p147.1297")
#loc149 = loc("p148.1301")
#loc150 = loc("p149.1307")
#loc151 = loc("p150.1311")
#loc152 = loc("p151.1317")
#loc153 = loc("p152.1322")
#loc154 = loc("p153.1331")
#loc155 = loc("p154.1335")
#loc156 = loc("p155.1343")
#loc157 = loc("p156.1347")
#loc158 = loc("p157.1353")
#loc159 = loc("p158.1358")
#loc160 = loc("p159.1367")
#loc161 = loc("p160.1371")
#loc162 = loc("p161.1377")
#loc163 = loc("p162.1381")
#loc164 = loc("p163.1387")
#loc165 = loc("p164.1392")
#loc166 = loc("p165.1401")
#loc167 = loc("p166.1405")
#loc168 = loc("p167.1413")
#loc169 = loc("p168.1417")
#loc170 = loc("p169.1423")
#loc171 = loc("p170.1428")
#loc172 = loc("p171.1437")
#loc173 = loc("p172.1441")
#loc174 = loc("p173.1447")
#loc175 = loc("p174.1451")
#loc176 = loc("p175.1457")
#loc177 = loc("p176.1462")
#loc178 = loc("p177.1471")
#loc179 = loc("p178.1475")
#loc180 = loc("p179.1483")
#loc181 = loc("p180.1487")
#loc182 = loc("p181.1493")
#loc183 = loc("p182.1498")
#loc184 = loc("p183.1507")
#loc185 = loc("p184.1511")
#loc186 = loc("p185.1517")
#loc187 = loc("p186.1521")
#loc188 = loc("p187.1527")
#loc189 = loc("p188.1532")
#loc190 = loc("p189.1541")
#loc191 = loc("p190.1545")
#loc192 = loc("p191.1553")
#loc193 = loc("p192.1557")
#loc194 = loc("p193.1563")
#loc195 = loc("p194.1568")
#loc196 = loc("p195.1577")
#loc197 = loc("p196.1581")
#loc198 = loc("p197.1587")
#loc199 = loc("p198.1591")
#loc200 = loc("p199.1597")
#loc201 = loc("p200.1602")
#loc202 = loc("p201.1611")
#loc203 = loc("p202.1615")
#loc204 = loc("p203.1623")
#loc205 = loc("p204.1627")
#loc206 = loc("p205.1633")
#loc207 = loc("p206.1638")
#loc208 = loc("p207.1647")
#loc209 = loc("p208.1651")
#loc210 = loc("p209.1657")
#loc211 = loc("p210.1661")
#loc212 = loc("p211.1667")
#loc213 = loc("p212.1672")
#loc214 = loc("p213.1681")
#loc215 = loc("p214.1685")
#loc216 = loc("p215.1693")
#loc217 = loc("p216.1697")
#loc218 = loc("p217.1703")
#loc219 = loc("p218.1708")
#loc220 = loc("p219.1717")
#loc221 = loc("p220.1721")
#loc222 = loc("p221.1727")
#loc223 = loc("p222.1731")
#loc224 = loc("p223.1737")
#loc225 = loc("p224.1742")
#loc226 = loc("p225.1751")
#loc227 = loc("p226.1755")
#loc228 = loc("p227.1763")
#loc229 = loc("p228.1767")
#loc230 = loc("p229.1773")
#loc231 = loc("p230.1778")
#loc232 = loc("p231.1787")
#loc233 = loc("p232.1791")
#loc234 = loc("p233.1797")
#loc235 = loc("p234.1801")
#loc236 = loc("p235.1807")
#loc237 = loc("p236.1812")
#loc238 = loc("p237.1821")
#loc239 = loc("p238.1825")
#loc240 = loc("p239.1833")
#loc241 = loc("p240.1837")
#loc242 = loc("p241.1843")
#loc243 = loc("p242.1848")
#loc244 = loc("p243.1857")
#loc245 = loc("p244.1861")
#loc246 = loc("p245.1867")
#loc247 = loc("p246.1871")
#loc248 = loc("p247.1877")
#loc249 = loc("p248.1882")
#loc250 = loc("p249.1891")
#loc251 = loc("p250.1895")
#loc252 = loc("p251.1903")
#loc253 = loc("p252.1907")
#loc254 = loc("p253.1913")
#loc255 = loc("p254.1918")
#loc256 = loc("p255.1927")
#loc257 = loc("p256.1931")
#loc258 = loc("p257.1937")
#loc259 = loc("p258.1941")
#loc260 = loc("p259.1947")
#loc261 = loc("p260.1952")
#loc262 = loc("p261.1961")
#loc263 = loc("p262.1965")
#loc264 = loc("p263.1973")
#loc265 = loc("p264.1977")
#loc266 = loc("p265.1983")
#loc267 = loc("p266.1988")
#loc268 = loc("p267.1997")
#loc269 = loc("p268.2001")
#loc270 = loc("p269.2007")
#loc271 = loc("p270.2011")
#loc272 = loc("p271.2017")
#loc273 = loc("p272.2022")
#loc274 = loc("p273.2031")
#loc275 = loc("p274.2035")
#loc276 = loc("p275.2043")
#loc277 = loc("p276.2047")
#loc278 = loc("p277.2053")
#loc279 = loc("p278.2058")
#loc280 = loc("p279.2067")
#loc281 = loc("p280.2071")
#loc282 = loc("p281.2077")
#loc283 = loc("p282.2081")
#loc284 = loc("p283.2087")
#loc285 = loc("p284.2092")
#loc286 = loc("p285.2101")
#loc287 = loc("p286.2105")
#loc288 = loc("p287.2113")
#loc289 = loc("p288.2117")
#loc290 = loc("p289.2123")
#loc291 = loc("p290.2128")
#loc292 = loc("p291.2137")
#loc293 = loc("p292.2141")
#loc294 = loc("p293.2147")
#loc295 = loc("p294.2151")
#loc296 = loc("p295.2157")
#loc297 = loc("p296.2162")
#loc298 = loc("p297.2171")
#loc299 = loc("p298.2175")
#loc300 = loc("p299.2183")
#loc301 = loc("p300.2187")
#loc302 = loc("p301.2193")
#loc303 = loc("p302.2198")
#loc304 = loc("p303.2207")
#loc305 = loc("p304.2211")
#loc306 = loc("p305.2217")
#loc307 = loc("p306.2221")
#loc308 = loc("p307.2227")
#loc309 = loc("p308.2232")
#loc310 = loc("p309.2241")
#loc311 = loc("p310.2245")
#loc312 = loc("p311.2253")
#loc313 = loc("p312.2257")
#loc314 = loc("p313.2263")
#loc315 = loc("p314.2268")
#loc316 = loc("p315.2277")
#loc317 = loc("p316.2281")
#loc318 = loc("p317.2287")
#loc319 = loc("p318.2291")
#loc320 = loc("p319.2297")
#loc321 = loc("p320.2302")
#loc322 = loc("p321.2311")
#loc323 = loc("p322.2315")
#loc324 = loc("p323.2323")
#loc325 = loc("p324.2327")
#loc326 = loc("p325.2333")
#loc327 = loc("p326.2338")
#loc328 = loc("p327.2347")
#loc329 = loc("p328.2351")
#loc330 = loc("p329.2357")
#loc331 = loc("p330.2361")
#loc332 = loc("p331.2367")
#loc333 = loc("p332.2372")
#loc334 = loc("p333.2381")
#loc335 = loc("p334.2385")
#loc336 = loc("p335.2393")
#loc337 = loc("p336.2397")
#loc338 = loc("p337.2403")
#loc339 = loc("p338.2408")
#loc340 = loc("p339.2417")
#loc341 = loc("p340.2421")
#loc342 = loc("p341.2427")
#loc343 = loc("p342.2431")
#loc344 = loc("p343.2437")
#loc345 = loc("p344.2442")
#loc346 = loc("p345.2451")
#loc347 = loc("p346.2455")
#loc348 = loc("p347.2463")
#loc349 = loc("p348.2467")
#loc350 = loc("p349.2473")
#loc351 = loc("p350.2478")
#loc352 = loc("p351.2487")
#loc353 = loc("p352.2491")
#loc354 = loc("p353.2497")
#loc355 = loc("p354.2501")
#loc356 = loc("p355.2507")
#loc357 = loc("p356.2512")
#loc358 = loc("p357.2521")
#loc359 = loc("p358.2525")
#loc360 = loc("p359.2533")
#loc361 = loc("p360.2537")
#loc362 = loc("p361.2543")
#loc363 = loc("p362.2548")
#loc364 = loc("p363.2557")
#loc365 = loc("p364.2561")
#loc366 = loc("p365.2567")
#loc367 = loc("p366.2571")
#loc368 = loc("p367.2577")
#loc369 = loc("p368.2582")
#loc370 = loc("p369.2591")
#loc371 = loc("p370.2595")
#loc372 = loc("p371.2603")
#loc373 = loc("p372.2607")
#loc374 = loc("p373.2613")
#loc375 = loc("p374.2618")
#loc376 = loc("p375.2627")
#loc377 = loc("p376.2631")
#loc378 = loc("p377.2637")
#loc379 = loc("p378.2641")
#loc380 = loc("p379.2647")
#loc381 = loc("p380.2652")
#loc382 = loc("p381.2661")
#loc383 = loc("p382.2665")
#loc384 = loc("p383.2673")
#loc385 = loc("p384.2677")
#loc386 = loc("p385.2683")
#loc387 = loc("p386.2688")
#loc388 = loc("p387.2697")
#loc389 = loc("p388.2701")
#loc390 = loc("p389.2707")
#loc391 = loc("p390.2711")
#loc392 = loc("p391.2717")
#loc393 = loc("p392.2722")
#loc394 = loc("p393.2731")
#loc395 = loc("p394.2735")
#loc396 = loc("p395.2743")
#loc397 = loc("p396.2747")
#loc398 = loc("p397.2753")
#loc399 = loc("p398.2758")
#loc400 = loc("p399.2767")
#loc401 = loc("p400.2771")
#loc402 = loc("p401.2777")
#loc403 = loc("p402.2781")
#loc404 = loc("p403.2787")
#loc405 = loc("p404.2792")
#loc406 = loc("p405.2801")
#loc407 = loc("p406.2805")
#loc408 = loc("p407.2813")
#loc409 = loc("p408.2817")
#loc410 = loc("p409.2823")
#loc411 = loc("p410.2828")
#loc412 = loc("p411.2837")
#loc413 = loc("p412.2841")
#loc414 = loc("p413.2847")
#loc415 = loc("p414.2851")
#loc416 = loc("p415.2857")
#loc417 = loc("p416.2862")
#loc418 = loc("p417.2871")
#loc419 = loc("p418.2875")
#loc420 = loc("p419.2883")
#loc421 = loc("p420.2887")
#loc422 = loc("p421.2893")
#loc423 = loc("p422.2898")
#loc424 = loc("p423.2907")
#loc425 = loc("p424.2911")
#loc426 = loc("p425.2917")
#loc427 = loc("p426.2921")
#loc428 = loc("p427.2927")
#loc429 = loc("p428.2932")
#loc430 = loc("p429.2941")
#loc431 = loc("p430.2945")
#loc432 = loc("p431.2953")
#loc433 = loc("p432.2957")
#loc434 = loc("p433.2963")
#loc435 = loc("p434.2968")
#loc436 = loc("p435.2977")
#loc437 = loc("p436.2981")
#loc438 = loc("p437.2987")
#loc439 = loc("p438.2991")
#loc440 = loc("p439.2997")
#loc441 = loc("p440.3002")
#loc442 = loc("p441.3011")
#loc443 = loc("p442.3015")
#loc444 = loc("p443.3023")
#loc445 = loc("p444.3027")
#loc446 = loc("p445.3033")
#loc447 = loc("p446.3038")
#loc448 = loc("p447.3047")
#loc449 = loc("p448.3051")
#loc450 = loc("p449.3057")
#loc451 = loc("p450.3061")
#loc452 = loc("p451.3067")
#loc453 = loc("p452.3072")
#loc454 = loc("p453.3080")
#loc455 = loc("p454.3085")
#loc456 = loc("p455.3092")
#loc457 = loc("p456.3096")
#loc458 = loc("p457.3098")
#loc459 = loc("p458.3197")
#loc460 = loc("p459.3201")
#loc461 = loc("p460.3217")
#loc462 = loc("p461.3221")
#loc463 = loc("p462.3470")
#loc464 = loc("p463.3474")
#loc465 = loc("p464.3490")
#loc466 = loc("p465.3494")
#loc467 = loc("p466.3743")
#loc468 = loc("p467.3747")
#loc469 = loc("p468.3763")
#loc470 = loc("p469.3767")
#loc471 = loc("p470.4016")
#loc472 = loc("p471.4020")
#loc473 = loc("p472.4036")
#loc474 = loc("p473.4040")
#loc475 = loc("p474.4289")
#loc476 = loc("p475.4293")
#loc477 = loc("p476.4309")
#loc478 = loc("p477.4313")
#loc479 = loc("p478.4562")
#loc480 = loc("p479.4566")
#loc481 = loc("p480.4582")
#loc482 = loc("p481.4586")
#loc483 = loc("p482.4835")
#loc484 = loc("p483.4839")
#loc485 = loc("p484.4855")
#loc486 = loc("p485.4859")
#loc487 = loc("p486.5108")
#loc488 = loc("p487.5112")
#loc489 = loc("p488.5128")
#loc490 = loc("p489.5132")
#loc491 = loc("p490.5381")
#loc492 = loc("p491.5385")
#loc493 = loc("p492.5401")
#loc494 = loc("p493.5405")
#loc495 = loc("p494.5654")
#loc496 = loc("p495.5658")
#loc497 = loc("p496.5674")
#loc498 = loc("p497.5678")
#loc499 = loc("p498.5927")
#loc500 = loc("p499.5931")
#loc501 = loc("p500.5947")
#loc502 = loc("p501.5951")
#loc503 = loc("p502.6200")
#loc504 = loc("p503.6204")
#loc505 = loc("p504.6220")
#loc506 = loc("p505.6224")
#loc507 = loc("p506.6473")
#loc508 = loc("p507.6477")
#loc509 = loc("p508.6493")
#loc510 = loc("p509.6497")
#loc511 = loc("p510.6746")
#loc512 = loc("p511.6750")
#loc513 = loc("p512.6766")
#loc514 = loc("p513.6770")
#loc515 = loc("p514.7019")
#loc516 = loc("p515.7023")
#loc517 = loc("p516.7039")
#loc518 = loc("p517.7043")
#loc519 = loc("p518.7292")
#loc520 = loc("p519.7296")
#loc521 = loc("p520.7312")
#loc522 = loc("p521.7316")
#loc523 = loc("p522.7565")
#loc524 = loc("p523.7569")
#loc525 = loc("p524.7585")
#loc526 = loc("p525.7589")
#loc527 = loc("p526.7838")
#loc528 = loc("p527.7842")
#loc529 = loc("p528.7858")
#loc530 = loc("p529.7862")
#loc531 = loc("p530.8111")
#loc532 = loc("p531.8115")
#loc533 = loc("p532.8131")
#loc534 = loc("p533.8135")
#loc535 = loc("p534.8384")
#loc536 = loc("p535.8388")
#loc537 = loc("p536.8404")
#loc538 = loc("p537.8408")
#loc539 = loc("p538.8657")
#loc540 = loc("p539.8661")
#loc541 = loc("p540.8677")
#loc542 = loc("p541.8681")
#loc543 = loc("p542.8930")
#loc544 = loc("p543.8934")
#loc545 = loc("p544.8950")
#loc546 = loc("p545.8954")
#loc547 = loc("p546.9203")
#loc548 = loc("p547.9207")
#loc549 = loc("p548.9223")
#loc550 = loc("p549.9227")
#loc551 = loc("p550.9476")
#loc552 = loc("p551.9480")
#loc553 = loc("p552.9496")
#loc554 = loc("p553.9500")
#loc555 = loc("p554.9749")
#loc556 = loc("p555.9753")
#loc557 = loc("p556.9769")
#loc558 = loc("p557.9773")
#loc559 = loc("p558.10022")
#loc560 = loc("p559.10026")
#loc561 = loc("p560.10042")
#loc562 = loc("p561.10046")
#loc563 = loc("p562.10295")
#loc564 = loc("p563.10299")
#loc565 = loc("p564.10315")
#loc566 = loc("p565.10319")
#loc567 = loc("p566.11170")
#loc568 = loc("p567.18810")
#loc569 = loc("p568.25898")
#loc570 = loc("p569.25913")
#loc571 = loc("p570.25932")
#loc572 = loc("p571.25936")
#loc573 = loc("p572.25944")
#loc574 = loc("p573.25952")
#loc575 = loc("p574.26002")
#loc576 = loc("p575.26017")
#loc577 = loc("p576.26058")
#loc578 = loc("p577.26073")
#loc579 = loc("p578.26105")
#loc580 = loc("p579.26198")
#loc581 = loc("p580.26265")
#loc582 = loc("p581.26272")
#loc583 = loc("p582.26283")
#loc584 = loc("p583.26288")
#loc585 = loc("p584.26295")
#loc586 = loc("p585.26306")
#loc587 = loc("p586.26336")
#loc588 = loc("p587.26367")
#loc589 = loc("p588.26460")
#loc590 = loc("p589.26537")
#loc591 = loc("p590.26559")
#loc592 = loc("p591.26587")
#loc593 = loc("p592.26680")
#loc594 = loc("p593.26747")
#loc595 = loc("p594.26754")
#loc596 = loc("p595.26765")
#loc597 = loc("p596.26770")
#loc598 = loc("p597.26777")
#loc599 = loc("p598.26788")
#loc600 = loc("p599.26807")
#loc601 = loc("p600.26900")
#loc602 = loc("p601.26977")
#loc603 = loc("p602.26999")
#loc604 = loc("p603.27027")
#loc605 = loc("p604.27120")
#loc606 = loc("p605.27187")
#loc607 = loc("p606.27194")
#loc608 = loc("p607.27205")
#loc609 = loc("p608.27210")
#loc610 = loc("p609.27217")
#loc611 = loc("p610.27228")
#loc612 = loc("p611.27247")
#loc613 = loc("p612.27340")
#loc614 = loc("p613.27417")
#loc615 = loc("p614.27439")
#loc616 = loc("p615.27467")
#loc617 = loc("p616.27560")
#loc618 = loc("p617.27627")
#loc619 = loc("p618.27634")
#loc620 = loc("p619.27645")
#loc621 = loc("p620.27650")
#loc622 = loc("p621.27657")
#loc623 = loc("p622.27668")
#loc624 = loc("p623.27687")
#loc625 = loc("p624.27780")
#loc626 = loc("p625.27857")
#loc627 = loc("p626.27879")
#loc628 = loc("p627.27907")
#loc629 = loc("p628.28000")
#loc630 = loc("p629.28067")
#loc631 = loc("p630.28074")
#loc632 = loc("p631.28085")
#loc633 = loc("p632.28090")
#loc634 = loc("p633.28097")
#loc635 = loc("p634.28108")
#loc636 = loc("p635.28127")
#loc637 = loc("p636.28220")
#loc638 = loc("p637.28297")
#loc639 = loc("p638.28319")
#loc640 = loc("p639.28347")
#loc641 = loc("p640.28440")
#loc642 = loc("p641.28507")
#loc643 = loc("p642.28514")
#loc644 = loc("p643.28525")
#loc645 = loc("p644.28530")
#loc646 = loc("p645.28537")
#loc647 = loc("p646.28548")
#loc648 = loc("p647.28567")
#loc649 = loc("p648.28660")
#loc650 = loc("p649.28737")
#loc651 = loc("p650.28759")
#loc652 = loc("p651.28787")
#loc653 = loc("p652.28880")
#loc654 = loc("p653.28947")
#loc655 = loc("p654.28954")
#loc656 = loc("p655.28965")
#loc657 = loc("p656.28970")
#loc658 = loc("p657.28977")
#loc659 = loc("p658.28988")
#loc660 = loc("p659.29007")
#loc661 = loc("p660.29100")
#loc662 = loc("p661.29177")
#loc663 = loc("p662.29199")
#loc664 = loc("p663.29227")
#loc665 = loc("p664.29320")
#loc666 = loc("p665.29387")
#loc667 = loc("p666.29394")
#loc668 = loc("p667.29405")
#loc669 = loc("p668.29410")
#loc670 = loc("p669.29417")
#loc671 = loc("p670.29428")
#loc672 = loc("p671.29447")
#loc673 = loc("p672.29540")
#loc674 = loc("p673.29617")
#loc675 = loc("p674.29639")
#loc676 = loc("p675.29667")
#loc677 = loc("p676.29760")
#loc678 = loc("p677.29827")
#loc679 = loc("p678.29834")
#loc680 = loc("p679.29845")
#loc681 = loc("p680.29850")
#loc682 = loc("p681.29857")
#loc683 = loc("p682.29868")
#loc684 = loc("p683.29887")
#loc685 = loc("p684.29980")
#loc686 = loc("p685.30057")
#loc687 = loc("p686.30079")
#loc688 = loc("p687.30107")
#loc689 = loc("p688.30200")
#loc690 = loc("p689.30267")
#loc691 = loc("p690.30274")
#loc692 = loc("p691.30285")
#loc693 = loc("p692.30290")
#loc694 = loc("p693.30297")
#loc695 = loc("p694.30308")
#loc696 = loc("p695.30327")
#loc697 = loc("p696.30420")
#loc698 = loc("p697.30497")
#loc699 = loc("p698.30519")
#loc700 = loc("p699.30547")
#loc701 = loc("p700.30640")
#loc702 = loc("p701.30707")
#loc703 = loc("p702.30714")
#loc704 = loc("p703.30725")
#loc705 = loc("p704.30730")
#loc706 = loc("p705.30737")
#loc707 = loc("p706.30748")
#loc708 = loc("p707.30767")
#loc709 = loc("p708.30860")
#loc710 = loc("p709.30937")
#loc711 = loc("p710.30959")
#loc712 = loc("p711.30987")
#loc713 = loc("p712.31080")
#loc714 = loc("p713.31147")
#loc715 = loc("p714.31154")
#loc716 = loc("p715.31165")
#loc717 = loc("p716.31170")
#loc718 = loc("p717.31177")
#loc719 = loc("p718.31188")
#loc720 = loc("p719.31207")
#loc721 = loc("p720.31300")
#loc722 = loc("p721.31377")
#loc723 = loc("p722.31399")
#loc724 = loc("p723.31427")
#loc725 = loc("p724.31520")
#loc726 = loc("p725.31587")
#loc727 = loc("p726.31594")
#loc728 = loc("p727.31605")
#loc729 = loc("p728.31610")
#loc730 = loc("p729.31617")
#loc731 = loc("p730.31628")
#loc732 = loc("p731.31647")
#loc733 = loc("p732.31740")
#loc734 = loc("p733.31817")
#loc735 = loc("p734.31839")
#loc736 = loc("p735.31867")
#loc737 = loc("p736.31960")
#loc738 = loc("p737.32027")
#loc739 = loc("p738.32034")
#loc740 = loc("p739.32045")
#loc741 = loc("p740.32050")
#loc742 = loc("p741.32057")
#loc743 = loc("p742.32068")
#loc744 = loc("p743.32087")
#loc745 = loc("p744.32180")
#loc746 = loc("p745.32257")
#loc747 = loc("p746.32279")
#loc748 = loc("p747.32307")
#loc749 = loc("p748.32400")
#loc750 = loc("p749.32467")
#loc751 = loc("p750.32474")
#loc752 = loc("p751.32485")
#loc753 = loc("p752.32490")
#loc754 = loc("p753.32497")
#loc755 = loc("p754.32508")
#loc756 = loc("p755.32527")
#loc757 = loc("p756.32620")
#loc758 = loc("p757.32697")
#loc759 = loc("p758.32719")
#loc760 = loc("p759.32747")
#loc761 = loc("p760.32840")
#loc762 = loc("p761.32907")
#loc763 = loc("p762.32914")
#loc764 = loc("p763.32925")
#loc765 = loc("p764.32930")
#loc766 = loc("p765.32937")
#loc767 = loc("p766.32948")
#loc768 = loc("p767.32967")
#loc769 = loc("p768.33060")
#loc770 = loc("p769.33137")
#loc771 = loc("p770.33159")
#loc772 = loc("p771.33187")
#loc773 = loc("p772.33280")
#loc774 = loc("p773.33347")
#loc775 = loc("p774.33354")
#loc776 = loc("p775.33365")
#loc777 = loc("p776.33370")
#loc778 = loc("p777.33377")
#loc779 = loc("p778.33388")
#loc780 = loc("p779.33407")
#loc781 = loc("p780.33500")
#loc782 = loc("p781.33577")
#loc783 = loc("p782.33599")
#loc784 = loc("p783.33627")
#loc785 = loc("p784.33720")
module @SyncTensorsGraph.33806 attributes {mhlo.cross_program_prefetches = [], mhlo.input_output_alias = [], mhlo.is_dynamic = false, mhlo.use_auto_spmd_partitioning = false, ttcore.meshes = #ttcore.meshes<[<"mesh" = 1x1>]>} {
  ttcore.device_module {
    builtin.module @SyncTensorsGraph.33806 attributes {mhlo.cross_program_prefetches = [], mhlo.input_output_alias = [], mhlo.is_dynamic = false, mhlo.use_auto_spmd_partitioning = false, ttcore.meshes = #ttcore.meshes<[<"mesh" = 1x1>]>} {
      func.func @main(%arg0: tensor<1024xf32> {ttcore.argument_type = #ttcore.argument_type<parameter>, ttcore.local_shape = #ttcore<local_shape local_shape = tensor<1024xf32>>, ttcore.shard_status = #ttcore.shard_status<unsharded>, ttir.name = "L__self___bracket_core_state_proj.bias"} loc("p0.72"), %arg1: tensor<1024x32xf32> {ttcore.argument_type = #ttcore.argument_type<parameter>, ttcore.local_shape = #ttcore<local_shape local_shape = tensor<1024x32xf32>>, ttcore.shard_status = #ttcore.shard_status<unsharded>, ttir.name = "L__self___bracket_core_state_proj.weight"} loc("p1.79"), %arg2: tensor<1x32xf32> {ttcore.argument_type = #ttcore.argument_type<input>, ttcore.local_shape = #ttcore<local_shape local_shape = tensor<1x32xf32>>, ttcore.shard_status = #ttcore.shard_status<unsharded>, ttir.name = "args_0"} loc("p2.84"), %arg3: tensor<1024xf32> {ttcore.argument_type = #ttcore.argument_type<parameter>, ttcore.local_shape = #ttcore<local_shape local_shape = tensor<1024xf32>>, ttcore.shard_status = #ttcore.shard_status<unsharded>, ttir.name = "L__self___bracket_core_action_in_proj.bias"} loc("p3.110"), %arg4: tensor<1024x32xf32> {ttcore.argument_type = #ttcore.argument_type<parameter>, ttcore.local_shape = #ttcore<local_shape local_shape = tensor<1024x32xf32>>, ttcore.shard_status = #ttcore.shard_status<unsharded>, ttir.name = "L__self___bracket_core_action_in_proj.weight"} loc("p4.114"), %arg5: tensor<32xf32> {ttcore.argument_type = #ttcore.argument_type<parameter>, ttcore.local_shape = #ttcore<local_shape local_shape = tensor<32xf32>>, ttcore.shard_status = #ttcore.shard_status<unsharded>, ttir.name = "L__self___bracket_core_action_out_proj.bias"} loc("p5.122"), %arg6: tensor<32x1024xf32> {ttcore.argument_type = #ttcore.argument_type<parameter>, ttcore.local_shape = #ttcore<local_shape local_shape = tensor<32x1024xf32>>, ttcore.shard_status = #ttcore.shard_status<unsharded>, ttir.name = "L__self___bracket_core_action_out_proj.weight"} loc("p6.126"), %arg7: tensor<1024xf32> {ttcore.argument_type = #ttcore.argument_type<parameter>, ttcore.local_shape = #ttcore<local_shape local_shape = tensor<1024xf32>>, ttcore.shard_status = #ttcore.shard_status<unsharded>, ttir.name = "L__self___bracket_core_paligemma_with_expert_gemma_expert_model_norm_weight"} loc("p7.133"), %arg8: tensor<1024x4096xf32> {ttcore.argument_type = #ttcore.argument_type<parameter>, ttcore.local_shape = #ttcore<local_shape local_shape = tensor<1024x4096xf32>>, ttcore.shard_status = #ttcore.shard_status<unsharded>, ttir.name = "L__self___bracket_core_paligemma_with_expert_gemma_expert_model_layers_17_mlp_down_proj.weight"} loc("p8.144"), %arg9: tensor<4096x1024xf32> {ttcore.argument_type = #ttcore.argument_type<parameter>, ttcore.local_shape = #ttcore<local_shape local_shape = tensor<4096x1024xf32>>, ttcore.shard_status = #ttcore.shard_status<unsharded>, ttir.name = "L__self___bracket_core_paligemma_with_expert_gemma_expert_model_layers_17_mlp_up_proj.weight"} loc("p9.149"), %arg10: tensor<1024xf32> {ttcore.argument_type = #ttcore.argument_type<parameter>, ttcore.local_shape = #ttcore<local_shape local_shape = tensor<1024xf32>>, ttcore.shard_status = #ttcore.shard_status<unsharded>, ttir.name = "L__self___bracket_core_paligemma_with_expert_gemma_expert_model_layers_17_post_attention_layernorm_weight"} loc("p10.156"), %arg11: tensor<1024x2048xf32> {ttcore.argument_type = #ttcore.argument_type<parameter>, ttcore.local_shape = #ttcore<local_shape local_shape = tensor<1024x2048xf32>>, ttcore.shard_status = #ttcore.shard_status<unsharded>, ttir.name = "L__self___bracket_core_paligemma_with_expert_gemma_expert_model_layers_17_self_attn_o_proj.weight"} loc("p11.167"), %arg12: tensor<256x1024xf32> {ttcore.argument_type = #ttcore.argument_type<parameter>, ttcore.local_shape = #ttcore<local_shape local_shape = tensor<256x1024xf32>>, ttcore.shard_status = #ttcore.shard_status<unsharded>, ttir.name = "L__self___bracket_core_paligemma_with_expert_gemma_expert_model_layers_17_self_attn_v_proj.weight"} loc("p12.172"), %arg13: tensor<1024xf32> {ttcore.argument_type = #ttcore.argument_type<parameter>, ttcore.local_shape = #ttcore<local_shape local_shape = tensor<1024xf32>>, ttcore.shard_status = #ttcore.shard_status<unsharded>, ttir.name = "L__self___bracket_core_paligemma_with_expert_gemma_expert_model_layers_17_input_layernorm_weight"} loc("p13.179"), %arg14: tensor<1024x4096xf32> {ttcore.argument_type = #ttcore.argument_type<parameter>, ttcore.local_shape = #ttcore<local_shape local_shape = tensor<1024x4096xf32>>, ttcore.shard_status = #ttcore.shard_status<unsharded>, ttir.name = "L__self___bracket_core_paligemma_with_expert_gemma_expert_model_layers_16_mlp_down_proj.weight"} loc("p14.190"), %arg15: tensor<4096x1024xf32> {ttcore.argument_type = #ttcore.argument_type<parameter>, ttcore.local_shape = #ttcore<local_shape local_shape = tensor<4096x1024xf32>>, ttcore.shard_status = #ttcore.shard_status<unsharded>, ttir.name = "L__self___bracket_core_paligemma_with_expert_gemma_expert_model_layers_16_mlp_up_proj.weight"} loc("p15.195"), %arg16: tensor<1024xf32> {ttcore.argument_type = #ttcore.argument_type<parameter>, ttcore.local_shape = #ttcore<local_shape local_shape = tensor<1024xf32>>, ttcore.shard_status = #ttcore.shard_status<unsharded>, ttir.name = "L__self___bracket_core_paligemma_with_expert_gemma_expert_model_layers_16_post_attention_layernorm_weight"} loc("p16.202"), %arg17: tensor<1024x2048xf32> {ttcore.argument_type = #ttcore.argument_type<parameter>, ttcore.local_shape = #ttcore<local_shape local_shape = tensor<1024x2048xf32>>, ttcore.shard_status = #ttcore.shard_status<unsharded>, ttir.name = "L__self___bracket_core_paligemma_with_expert_gemma_expert_model_layers_16_self_attn_o_proj.weight"} loc("p17.213"), %arg18: tensor<256x1024xf32> {ttcore.argument_type = #ttcore.argument_type<parameter>, ttcore.local_shape = #ttcore<local_shape local_shape = tensor<256x1024xf32>>, ttcore.shard_status = #ttcore.shard_status<unsharded>, ttir.name = "L__self___bracket_core_paligemma_with_expert_gemma_expert_model_layers_16_self_attn_v_proj.weight"} loc("p18.218"), %arg19: tensor<1024xf32> {ttcore.argument_type = #ttcore.argument_type<parameter>, ttcore.local_shape = #ttcore<local_shape local_shape = tensor<1024xf32>>, ttcore.shard_status = #ttcore.shard_status<unsharded>, ttir.name = "L__self___bracket_core_paligemma_with_expert_gemma_expert_model_layers_16_input_layernorm_weight"} loc("p19.225"), %arg20: tensor<1024x4096xf32> {ttcore.argument_type = #ttcore.argument_type<parameter>, ttcore.local_shape = #ttcore<local_shape local_shape = tensor<1024x4096xf32>>, ttcore.shard_status = #ttcore.shard_status<unsharded>, ttir.name = "L__self___bracket_core_paligemma_with_expert_gemma_expert_model_layers_15_mlp_down_proj.weight"} loc("p20.236"), %arg21: tensor<4096x1024xf32> {ttcore.argument_type = #ttcore.argument_type<parameter>, ttcore.local_shape = #ttcore<local_shape local_shape = tensor<4096x1024xf32>>, ttcore.shard_status = #ttcore.shard_status<unsharded>, ttir.name = "L__self___bracket_core_paligemma_with_expert_gemma_expert_model_layers_15_mlp_up_proj.weight"} loc("p21.241"), %arg22: tensor<1024xf32> {ttcore.argument_type = #ttcore.argument_type<parameter>, ttcore.local_shape = #ttcore<local_shape local_shape = tensor<1024xf32>>, ttcore.shard_status = #ttcore.shard_status<unsharded>, ttir.name = "L__self___bracket_core_paligemma_with_expert_gemma_expert_model_layers_15_post_attention_layernorm_weight"} loc("p22.248"), %arg23: tensor<1024x2048xf32> {ttcore.argument_type = #ttcore.argument_type<parameter>, ttcore.local_shape = #ttcore<local_shape local_shape = tensor<1024x2048xf32>>, ttcore.shard_status = #ttcore.shard_status<unsharded>, ttir.name = "L__self___bracket_core_paligemma_with_expert_gemma_expert_model_layers_15_self_attn_o_proj.weight"} loc("p23.259"), %arg24: tensor<256x1024xf32> {ttcore.argument_type = #ttcore.argument_type<parameter>, ttcore.local_shape = #ttcore<local_shape local_shape = tensor<256x1024xf32>>, ttcore.shard_status = #ttcore.shard_status<unsharded>, ttir.name = "L__self___bracket_core_paligemma_with_expert_gemma_expert_model_layers_15_self_attn_v_proj.weight"} loc("p24.264"), %arg25: tensor<1024xf32> {ttcore.argument_type = #ttcore.argument_type<parameter>, ttcore.local_shape = #ttcore<local_shape local_shape = tensor<1024xf32>>, ttcore.shard_status = #ttcore.shard_status<unsharded>, ttir.name = "L__self___bracket_core_paligemma_with_expert_gemma_expert_model_layers_15_input_layernorm_weight"} loc("p25.271"), %arg26: tensor<1024x4096xf32> {ttcore.argument_type = #ttcore.argument_type<parameter>, ttcore.local_shape = #ttcore<local_shape local_shape = tensor<1024x4096xf32>>, ttcore.shard_status = #ttcore.shard_status<unsharded>, ttir.name = "L__self___bracket_core_paligemma_with_expert_gemma_expert_model_layers_14_mlp_down_proj.weight"} loc("p26.282"), %arg27: tensor<4096x1024xf32> {ttcore.argument_type = #ttcore.argument_type<parameter>, ttcore.local_shape = #ttcore<local_shape local_shape = tensor<4096x1024xf32>>, ttcore.shard_status = #ttcore.shard_status<unsharded>, ttir.name = "L__self___bracket_core_paligemma_with_expert_gemma_expert_model_layers_14_mlp_up_proj.weight"} loc("p27.287"), %arg28: tensor<1024xf32> {ttcore.argument_type = #ttcore.argument_type<parameter>, ttcore.local_shape = #ttcore<local_shape local_shape = tensor<1024xf32>>, ttcore.shard_status = #ttcore.shard_status<unsharded>, ttir.name = "L__self___bracket_core_paligemma_with_expert_gemma_expert_model_layers_14_post_attention_layernorm_weight"} loc("p28.294"), %arg29: tensor<1024x2048xf32> {ttcore.argument_type = #ttcore.argument_type<parameter>, ttcore.local_shape = #ttcore<local_shape local_shape = tensor<1024x2048xf32>>, ttcore.shard_status = #ttcore.shard_status<unsharded>, ttir.name = "L__self___bracket_core_paligemma_with_expert_gemma_expert_model_layers_14_self_attn_o_proj.weight"} loc("p29.305"), %arg30: tensor<256x1024xf32> {ttcore.argument_type = #ttcore.argument_type<parameter>, ttcore.local_shape = #ttcore<local_shape local_shape = tensor<256x1024xf32>>, ttcore.shard_status = #ttcore.shard_status<unsharded>, ttir.name = "L__self___bracket_core_paligemma_with_expert_gemma_expert_model_layers_14_self_attn_v_proj.weight"} loc("p30.310"), %arg31: tensor<1024xf32> {ttcore.argument_type = #ttcore.argument_type<parameter>, ttcore.local_shape = #ttcore<local_shape local_shape = tensor<1024xf32>>, ttcore.shard_status = #ttcore.shard_status<unsharded>, ttir.name = "L__self___bracket_core_paligemma_with_expert_gemma_expert_model_layers_14_input_layernorm_weight"} loc("p31.317"), %arg32: tensor<1024x4096xf32> {ttcore.argument_type = #ttcore.argument_type<parameter>, ttcore.local_shape = #ttcore<local_shape local_shape = tensor<1024x4096xf32>>, ttcore.shard_status = #ttcore.shard_status<unsharded>, ttir.name = "L__self___bracket_core_paligemma_with_expert_gemma_expert_model_layers_13_mlp_down_proj.weight"} loc("p32.328"), %arg33: tensor<4096x1024xf32> {ttcore.argument_type = #ttcore.argument_type<parameter>, ttcore.local_shape = #ttcore<local_shape local_shape = tensor<4096x1024xf32>>, ttcore.shard_status = #ttcore.shard_status<unsharded>, ttir.name = "L__self___bracket_core_paligemma_with_expert_gemma_expert_model_layers_13_mlp_up_proj.weight"} loc("p33.333"), %arg34: tensor<1024xf32> {ttcore.argument_type = #ttcore.argument_type<parameter>, ttcore.local_shape = #ttcore<local_shape local_shape = tensor<1024xf32>>, ttcore.shard_status = #ttcore.shard_status<unsharded>, ttir.name = "L__self___bracket_core_paligemma_with_expert_gemma_expert_model_layers_13_post_attention_layernorm_weight"} loc("p34.340"), %arg35: tensor<1024x2048xf32> {ttcore.argument_type = #ttcore.argument_type<parameter>, ttcore.local_shape = #ttcore<local_shape local_shape = tensor<1024x2048xf32>>, ttcore.shard_status = #ttcore.shard_status<unsharded>, ttir.name = "L__self___bracket_core_paligemma_with_expert_gemma_expert_model_layers_13_self_attn_o_proj.weight"} loc("p35.351"), %arg36: tensor<256x1024xf32> {ttcore.argument_type = #ttcore.argument_type<parameter>, ttcore.local_shape = #ttcore<local_shape local_shape = tensor<256x1024xf32>>, ttcore.shard_status = #ttcore.shard_status<unsharded>, ttir.name = "L__self___bracket_core_paligemma_with_expert_gemma_expert_model_layers_13_self_attn_v_proj.weight"} loc("p36.356"), %arg37: tensor<1024xf32> {ttcore.argument_type = #ttcore.argument_type<parameter>, ttcore.local_shape = #ttcore<local_shape local_shape = tensor<1024xf32>>, ttcore.shard_status = #ttcore.shard_status<unsharded>, ttir.name = "L__self___bracket_core_paligemma_with_expert_gemma_expert_model_layers_13_input_layernorm_weight"} loc("p37.363"), %arg38: tensor<1024x4096xf32> {ttcore.argument_type = #ttcore.argument_type<parameter>, ttcore.local_shape = #ttcore<local_shape local_shape = tensor<1024x4096xf32>>, ttcore.shard_status = #ttcore.shard_status<unsharded>, ttir.name = "L__self___bracket_core_paligemma_with_expert_gemma_expert_model_layers_12_mlp_down_proj.weight"} loc("p38.374"), %arg39: tensor<4096x1024xf32> {ttcore.argument_type = #ttcore.argument_type<parameter>, ttcore.local_shape = #ttcore<local_shape local_shape = tensor<4096x1024xf32>>, ttcore.shard_status = #ttcore.shard_status<unsharded>, ttir.name = "L__self___bracket_core_paligemma_with_expert_gemma_expert_model_layers_12_mlp_up_proj.weight"} loc("p39.379"), %arg40: tensor<1024xf32> {ttcore.argument_type = #ttcore.argument_type<parameter>, ttcore.local_shape = #ttcore<local_shape local_shape = tensor<1024xf32>>, ttcore.shard_status = #ttcore.shard_status<unsharded>, ttir.name = "L__self___bracket_core_paligemma_with_expert_gemma_expert_model_layers_12_post_attention_layernorm_weight"} loc("p40.386"), %arg41: tensor<1024x2048xf32> {ttcore.argument_type = #ttcore.argument_type<parameter>, ttcore.local_shape = #ttcore<local_shape local_shape = tensor<1024x2048xf32>>, ttcore.shard_status = #ttcore.shard_status<unsharded>, ttir.name = "L__self___bracket_core_paligemma_with_expert_gemma_expert_model_layers_12_self_attn_o_proj.weight"} loc("p41.397"), %arg42: tensor<256x1024xf32> {ttcore.argument_type = #ttcore.argument_type<parameter>, ttcore.local_shape = #ttcore<local_shape local_shape = tensor<256x1024xf32>>, ttcore.shard_status = #ttcore.shard_status<unsharded>, ttir.name = "L__self___bracket_core_paligemma_with_expert_gemma_expert_model_layers_12_self_attn_v_proj.weight"} loc("p42.402"), %arg43: tensor<1024xf32> {ttcore.argument_type = #ttcore.argument_type<parameter>, ttcore.local_shape = #ttcore<local_shape local_shape = tensor<1024xf32>>, ttcore.shard_status = #ttcore.shard_status<unsharded>, ttir.name = "L__self___bracket_core_paligemma_with_expert_gemma_expert_model_layers_12_input_layernorm_weight"} loc("p43.409"), %arg44: tensor<1024x4096xf32> {ttcore.argument_type = #ttcore.argument_type<parameter>, ttcore.local_shape = #ttcore<local_shape local_shape = tensor<1024x4096xf32>>, ttcore.shard_status = #ttcore.shard_status<unsharded>, ttir.name = "L__self___bracket_core_paligemma_with_expert_gemma_expert_model_layers_11_mlp_down_proj.weight"} loc("p44.420"), %arg45: tensor<4096x1024xf32> {ttcore.argument_type = #ttcore.argument_type<parameter>, ttcore.local_shape = #ttcore<local_shape local_shape = tensor<4096x1024xf32>>, ttcore.shard_status = #ttcore.shard_status<unsharded>, ttir.name = "L__self___bracket_core_paligemma_with_expert_gemma_expert_model_layers_11_mlp_up_proj.weight"} loc("p45.425"), %arg46: tensor<1024xf32> {ttcore.argument_type = #ttcore.argument_type<parameter>, ttcore.local_shape = #ttcore<local_shape local_shape = tensor<1024xf32>>, ttcore.shard_status = #ttcore.shard_status<unsharded>, ttir.name = "L__self___bracket_core_paligemma_with_expert_gemma_expert_model_layers_11_post_attention_layernorm_weight"} loc("p46.432"), %arg47: tensor<1024x2048xf32> {ttcore.argument_type = #ttcore.argument_type<parameter>, ttcore.local_shape = #ttcore<local_shape local_shape = tensor<1024x2048xf32>>, ttcore.shard_status = #ttcore.shard_status<unsharded>, ttir.name = "L__self___bracket_core_paligemma_with_expert_gemma_expert_model_layers_11_self_attn_o_proj.weight"} loc("p47.443"), %arg48: tensor<256x1024xf32> {ttcore.argument_type = #ttcore.argument_type<parameter>, ttcore.local_shape = #ttcore<local_shape local_shape = tensor<256x1024xf32>>, ttcore.shard_status = #ttcore.shard_status<unsharded>, ttir.name = "L__self___bracket_core_paligemma_with_expert_gemma_expert_model_layers_11_self_attn_v_proj.weight"} loc("p48.448"), %arg49: tensor<1024xf32> {ttcore.argument_type = #ttcore.argument_type<parameter>, ttcore.local_shape = #ttcore<local_shape local_shape = tensor<1024xf32>>, ttcore.shard_status = #ttcore.shard_status<unsharded>, ttir.name = "L__self___bracket_core_paligemma_with_expert_gemma_expert_model_layers_11_input_layernorm_weight"} loc("p49.455"), %arg50: tensor<1024x4096xf32> {ttcore.argument_type = #ttcore.argument_type<parameter>, ttcore.local_shape = #ttcore<local_shape local_shape = tensor<1024x4096xf32>>, ttcore.shard_status = #ttcore.shard_status<unsharded>, ttir.name = "L__self___bracket_core_paligemma_with_expert_gemma_expert_model_layers_10_mlp_down_proj.weight"} loc("p50.466"), %arg51: tensor<4096x1024xf32> {ttcore.argument_type = #ttcore.argument_type<parameter>, ttcore.local_shape = #ttcore<local_shape local_shape = tensor<4096x1024xf32>>, ttcore.shard_status = #ttcore.shard_status<unsharded>, ttir.name = "L__self___bracket_core_paligemma_with_expert_gemma_expert_model_layers_10_mlp_up_proj.weight"} loc("p51.471"), %arg52: tensor<1024xf32> {ttcore.argument_type = #ttcore.argument_type<parameter>, ttcore.local_shape = #ttcore<local_shape local_shape = tensor<1024xf32>>, ttcore.shard_status = #ttcore.shard_status<unsharded>, ttir.name = "L__self___bracket_core_paligemma_with_expert_gemma_expert_model_layers_10_post_attention_layernorm_weight"} loc("p52.478"), %arg53: tensor<1024x2048xf32> {ttcore.argument_type = #ttcore.argument_type<parameter>, ttcore.local_shape = #ttcore<local_shape local_shape = tensor<1024x2048xf32>>, ttcore.shard_status = #ttcore.shard_status<unsharded>, ttir.name = "L__self___bracket_core_paligemma_with_expert_gemma_expert_model_layers_10_self_attn_o_proj.weight"} loc("p53.489"), %arg54: tensor<256x1024xf32> {ttcore.argument_type = #ttcore.argument_type<parameter>, ttcore.local_shape = #ttcore<local_shape local_shape = tensor<256x1024xf32>>, ttcore.shard_status = #ttcore.shard_status<unsharded>, ttir.name = "L__self___bracket_core_paligemma_with_expert_gemma_expert_model_layers_10_self_attn_v_proj.weight"} loc("p54.494"), %arg55: tensor<1024xf32> {ttcore.argument_type = #ttcore.argument_type<parameter>, ttcore.local_shape = #ttcore<local_shape local_shape = tensor<1024xf32>>, ttcore.shard_status = #ttcore.shard_status<unsharded>, ttir.name = "L__self___bracket_core_paligemma_with_expert_gemma_expert_model_layers_10_input_layernorm_weight"} loc("p55.501"), %arg56: tensor<1024x4096xf32> {ttcore.argument_type = #ttcore.argument_type<parameter>, ttcore.local_shape = #ttcore<local_shape local_shape = tensor<1024x4096xf32>>, ttcore.shard_status = #ttcore.shard_status<unsharded>, ttir.name = "L__self___bracket_core_paligemma_with_expert_gemma_expert_model_layers_9_mlp_down_proj.weight"} loc("p56.512"), %arg57: tensor<4096x1024xf32> {ttcore.argument_type = #ttcore.argument_type<parameter>, ttcore.local_shape = #ttcore<local_shape local_shape = tensor<4096x1024xf32>>, ttcore.shard_status = #ttcore.shard_status<unsharded>, ttir.name = "L__self___bracket_core_paligemma_with_expert_gemma_expert_model_layers_9_mlp_up_proj.weight"} loc("p57.517"), %arg58: tensor<1024xf32> {ttcore.argument_type = #ttcore.argument_type<parameter>, ttcore.local_shape = #ttcore<local_shape local_shape = tensor<1024xf32>>, ttcore.shard_status = #ttcore.shard_status<unsharded>, ttir.name = "L__self___bracket_core_paligemma_with_expert_gemma_expert_model_layers_9_post_attention_layernorm_weight"} loc("p58.524"), %arg59: tensor<1024x2048xf32> {ttcore.argument_type = #ttcore.argument_type<parameter>, ttcore.local_shape = #ttcore<local_shape local_shape = tensor<1024x2048xf32>>, ttcore.shard_status = #ttcore.shard_status<unsharded>, ttir.name = "L__self___bracket_core_paligemma_with_expert_gemma_expert_model_layers_9_self_attn_o_proj.weight"} loc("p59.535"), %arg60: tensor<256x1024xf32> {ttcore.argument_type = #ttcore.argument_type<parameter>, ttcore.local_shape = #ttcore<local_shape local_shape = tensor<256x1024xf32>>, ttcore.shard_status = #ttcore.shard_status<unsharded>, ttir.name = "L__self___bracket_core_paligemma_with_expert_gemma_expert_model_layers_9_self_attn_v_proj.weight"} loc("p60.540"), %arg61: tensor<1024xf32> {ttcore.argument_type = #ttcore.argument_type<parameter>, ttcore.local_shape = #ttcore<local_shape local_shape = tensor<1024xf32>>, ttcore.shard_status = #ttcore.shard_status<unsharded>, ttir.name = "L__self___bracket_core_paligemma_with_expert_gemma_expert_model_layers_9_input_layernorm_weight"} loc("p61.547"), %arg62: tensor<1024x4096xf32> {ttcore.argument_type = #ttcore.argument_type<parameter>, ttcore.local_shape = #ttcore<local_shape local_shape = tensor<1024x4096xf32>>, ttcore.shard_status = #ttcore.shard_status<unsharded>, ttir.name = "L__self___bracket_core_paligemma_with_expert_gemma_expert_model_layers_8_mlp_down_proj.weight"} loc("p62.558"), %arg63: tensor<4096x1024xf32> {ttcore.argument_type = #ttcore.argument_type<parameter>, ttcore.local_shape = #ttcore<local_shape local_shape = tensor<4096x1024xf32>>, ttcore.shard_status = #ttcore.shard_status<unsharded>, ttir.name = "L__self___bracket_core_paligemma_with_expert_gemma_expert_model_layers_8_mlp_up_proj.weight"} loc("p63.563"), %arg64: tensor<1024xf32> {ttcore.argument_type = #ttcore.argument_type<parameter>, ttcore.local_shape = #ttcore<local_shape local_shape = tensor<1024xf32>>, ttcore.shard_status = #ttcore.shard_status<unsharded>, ttir.name = "L__self___bracket_core_paligemma_with_expert_gemma_expert_model_layers_8_post_attention_layernorm_weight"} loc("p64.570"), %arg65: tensor<1024x2048xf32> {ttcore.argument_type = #ttcore.argument_type<parameter>, ttcore.local_shape = #ttcore<local_shape local_shape = tensor<1024x2048xf32>>, ttcore.shard_status = #ttcore.shard_status<unsharded>, ttir.name = "L__self___bracket_core_paligemma_with_expert_gemma_expert_model_layers_8_self_attn_o_proj.weight"} loc("p65.581"), %arg66: tensor<256x1024xf32> {ttcore.argument_type = #ttcore.argument_type<parameter>, ttcore.local_shape = #ttcore<local_shape local_shape = tensor<256x1024xf32>>, ttcore.shard_status = #ttcore.shard_status<unsharded>, ttir.name = "L__self___bracket_core_paligemma_with_expert_gemma_expert_model_layers_8_self_attn_v_proj.weight"} loc("p66.586"), %arg67: tensor<1024xf32> {ttcore.argument_type = #ttcore.argument_type<parameter>, ttcore.local_shape = #ttcore<local_shape local_shape = tensor<1024xf32>>, ttcore.shard_status = #ttcore.shard_status<unsharded>, ttir.name = "L__self___bracket_core_paligemma_with_expert_gemma_expert_model_layers_8_input_layernorm_weight"} loc("p67.593"), %arg68: tensor<1024x4096xf32> {ttcore.argument_type = #ttcore.argument_type<parameter>, ttcore.local_shape = #ttcore<local_shape local_shape = tensor<1024x4096xf32>>, ttcore.shard_status = #ttcore.shard_status<unsharded>, ttir.name = "L__self___bracket_core_paligemma_with_expert_gemma_expert_model_layers_7_mlp_down_proj.weight"} loc("p68.604"), %arg69: tensor<4096x1024xf32> {ttcore.argument_type = #ttcore.argument_type<parameter>, ttcore.local_shape = #ttcore<local_shape local_shape = tensor<4096x1024xf32>>, ttcore.shard_status = #ttcore.shard_status<unsharded>, ttir.name = "L__self___bracket_core_paligemma_with_expert_gemma_expert_model_layers_7_mlp_up_proj.weight"} loc("p69.609"), %arg70: tensor<1024xf32> {ttcore.argument_type = #ttcore.argument_type<parameter>, ttcore.local_shape = #ttcore<local_shape local_shape = tensor<1024xf32>>, ttcore.shard_status = #ttcore.shard_status<unsharded>, ttir.name = "L__self___bracket_core_paligemma_with_expert_gemma_expert_model_layers_7_post_attention_layernorm_weight"} loc("p70.616"), %arg71: tensor<1024x2048xf32> {ttcore.argument_type = #ttcore.argument_type<parameter>, ttcore.local_shape = #ttcore<local_shape local_shape = tensor<1024x2048xf32>>, ttcore.shard_status = #ttcore.shard_status<unsharded>, ttir.name = "L__self___bracket_core_paligemma_with_expert_gemma_expert_model_layers_7_self_attn_o_proj.weight"} loc("p71.627"), %arg72: tensor<256x1024xf32> {ttcore.argument_type = #ttcore.argument_type<parameter>, ttcore.local_shape = #ttcore<local_shape local_shape = tensor<256x1024xf32>>, ttcore.shard_status = #ttcore.shard_status<unsharded>, ttir.name = "L__self___bracket_core_paligemma_with_expert_gemma_expert_model_layers_7_self_attn_v_proj.weight"} loc("p72.632"), %arg73: tensor<1024xf32> {ttcore.argument_type = #ttcore.argument_type<parameter>, ttcore.local_shape = #ttcore<local_shape local_shape = tensor<1024xf32>>, ttcore.shard_status = #ttcore.shard_status<unsharded>, ttir.name = "L__self___bracket_core_paligemma_with_expert_gemma_expert_model_layers_7_input_layernorm_weight"} loc("p73.639"), %arg74: tensor<1024x4096xf32> {ttcore.argument_type = #ttcore.argument_type<parameter>, ttcore.local_shape = #ttcore<local_shape local_shape = tensor<1024x4096xf32>>, ttcore.shard_status = #ttcore.shard_status<unsharded>, ttir.name = "L__self___bracket_core_paligemma_with_expert_gemma_expert_model_layers_6_mlp_down_proj.weight"} loc("p74.650"), %arg75: tensor<4096x1024xf32> {ttcore.argument_type = #ttcore.argument_type<parameter>, ttcore.local_shape = #ttcore<local_shape local_shape = tensor<4096x1024xf32>>, ttcore.shard_status = #ttcore.shard_status<unsharded>, ttir.name = "L__self___bracket_core_paligemma_with_expert_gemma_expert_model_layers_6_mlp_up_proj.weight"} loc("p75.655"), %arg76: tensor<1024xf32> {ttcore.argument_type = #ttcore.argument_type<parameter>, ttcore.local_shape = #ttcore<local_shape local_shape = tensor<1024xf32>>, ttcore.shard_status = #ttcore.shard_status<unsharded>, ttir.name = "L__self___bracket_core_paligemma_with_expert_gemma_expert_model_layers_6_post_attention_layernorm_weight"} loc("p76.662"), %arg77: tensor<1024x2048xf32> {ttcore.argument_type = #ttcore.argument_type<parameter>, ttcore.local_shape = #ttcore<local_shape local_shape = tensor<1024x2048xf32>>, ttcore.shard_status = #ttcore.shard_status<unsharded>, ttir.name = "L__self___bracket_core_paligemma_with_expert_gemma_expert_model_layers_6_self_attn_o_proj.weight"} loc("p77.673"), %arg78: tensor<256x1024xf32> {ttcore.argument_type = #ttcore.argument_type<parameter>, ttcore.local_shape = #ttcore<local_shape local_shape = tensor<256x1024xf32>>, ttcore.shard_status = #ttcore.shard_status<unsharded>, ttir.name = "L__self___bracket_core_paligemma_with_expert_gemma_expert_model_layers_6_self_attn_v_proj.weight"} loc("p78.678"), %arg79: tensor<1024xf32> {ttcore.argument_type = #ttcore.argument_type<parameter>, ttcore.local_shape = #ttcore<local_shape local_shape = tensor<1024xf32>>, ttcore.shard_status = #ttcore.shard_status<unsharded>, ttir.name = "L__self___bracket_core_paligemma_with_expert_gemma_expert_model_layers_6_input_layernorm_weight"} loc("p79.685"), %arg80: tensor<1024x4096xf32> {ttcore.argument_type = #ttcore.argument_type<parameter>, ttcore.local_shape = #ttcore<local_shape local_shape = tensor<1024x4096xf32>>, ttcore.shard_status = #ttcore.shard_status<unsharded>, ttir.name = "L__self___bracket_core_paligemma_with_expert_gemma_expert_model_layers_5_mlp_down_proj.weight"} loc("p80.696"), %arg81: tensor<4096x1024xf32> {ttcore.argument_type = #ttcore.argument_type<parameter>, ttcore.local_shape = #ttcore<local_shape local_shape = tensor<4096x1024xf32>>, ttcore.shard_status = #ttcore.shard_status<unsharded>, ttir.name = "L__self___bracket_core_paligemma_with_expert_gemma_expert_model_layers_5_mlp_up_proj.weight"} loc("p81.701"), %arg82: tensor<1024xf32> {ttcore.argument_type = #ttcore.argument_type<parameter>, ttcore.local_shape = #ttcore<local_shape local_shape = tensor<1024xf32>>, ttcore.shard_status = #ttcore.shard_status<unsharded>, ttir.name = "L__self___bracket_core_paligemma_with_expert_gemma_expert_model_layers_5_post_attention_layernorm_weight"} loc("p82.708"), %arg83: tensor<1024x2048xf32> {ttcore.argument_type = #ttcore.argument_type<parameter>, ttcore.local_shape = #ttcore<local_shape local_shape = tensor<1024x2048xf32>>, ttcore.shard_status = #ttcore.shard_status<unsharded>, ttir.name = "L__self___bracket_core_paligemma_with_expert_gemma_expert_model_layers_5_self_attn_o_proj.weight"} loc("p83.719"), %arg84: tensor<256x1024xf32> {ttcore.argument_type = #ttcore.argument_type<parameter>, ttcore.local_shape = #ttcore<local_shape local_shape = tensor<256x1024xf32>>, ttcore.shard_status = #ttcore.shard_status<unsharded>, ttir.name = "L__self___bracket_core_paligemma_with_expert_gemma_expert_model_layers_5_self_attn_v_proj.weight"} loc("p84.724"), %arg85: tensor<1024xf32> {ttcore.argument_type = #ttcore.argument_type<parameter>, ttcore.local_shape = #ttcore<local_shape local_shape = tensor<1024xf32>>, ttcore.shard_status = #ttcore.shard_status<unsharded>, ttir.name = "L__self___bracket_core_paligemma_with_expert_gemma_expert_model_layers_5_input_layernorm_weight"} loc("p85.731"), %arg86: tensor<1024x4096xf32> {ttcore.argument_type = #ttcore.argument_type<parameter>, ttcore.local_shape = #ttcore<local_shape local_shape = tensor<1024x4096xf32>>, ttcore.shard_status = #ttcore.shard_status<unsharded>, ttir.name = "L__self___bracket_core_paligemma_with_expert_gemma_expert_model_layers_4_mlp_down_proj.weight"} loc("p86.742"), %arg87: tensor<4096x1024xf32> {ttcore.argument_type = #ttcore.argument_type<parameter>, ttcore.local_shape = #ttcore<local_shape local_shape = tensor<4096x1024xf32>>, ttcore.shard_status = #ttcore.shard_status<unsharded>, ttir.name = "L__self___bracket_core_paligemma_with_expert_gemma_expert_model_layers_4_mlp_up_proj.weight"} loc("p87.747"), %arg88: tensor<1024xf32> {ttcore.argument_type = #ttcore.argument_type<parameter>, ttcore.local_shape = #ttcore<local_shape local_shape = tensor<1024xf32>>, ttcore.shard_status = #ttcore.shard_status<unsharded>, ttir.name = "L__self___bracket_core_paligemma_with_expert_gemma_expert_model_layers_4_post_attention_layernorm_weight"} loc("p88.754"), %arg89: tensor<1024x2048xf32> {ttcore.argument_type = #ttcore.argument_type<parameter>, ttcore.local_shape = #ttcore<local_shape local_shape = tensor<1024x2048xf32>>, ttcore.shard_status = #ttcore.shard_status<unsharded>, ttir.name = "L__self___bracket_core_paligemma_with_expert_gemma_expert_model_layers_4_self_attn_o_proj.weight"} loc("p89.765"), %arg90: tensor<256x1024xf32> {ttcore.argument_type = #ttcore.argument_type<parameter>, ttcore.local_shape = #ttcore<local_shape local_shape = tensor<256x1024xf32>>, ttcore.shard_status = #ttcore.shard_status<unsharded>, ttir.name = "L__self___bracket_core_paligemma_with_expert_gemma_expert_model_layers_4_self_attn_v_proj.weight"} loc("p90.770"), %arg91: tensor<1024xf32> {ttcore.argument_type = #ttcore.argument_type<parameter>, ttcore.local_shape = #ttcore<local_shape local_shape = tensor<1024xf32>>, ttcore.shard_status = #ttcore.shard_status<unsharded>, ttir.name = "L__self___bracket_core_paligemma_with_expert_gemma_expert_model_layers_4_input_layernorm_weight"} loc("p91.777"), %arg92: tensor<1024x4096xf32> {ttcore.argument_type = #ttcore.argument_type<parameter>, ttcore.local_shape = #ttcore<local_shape local_shape = tensor<1024x4096xf32>>, ttcore.shard_status = #ttcore.shard_status<unsharded>, ttir.name = "L__self___bracket_core_paligemma_with_expert_gemma_expert_model_layers_3_mlp_down_proj.weight"} loc("p92.788"), %arg93: tensor<4096x1024xf32> {ttcore.argument_type = #ttcore.argument_type<parameter>, ttcore.local_shape = #ttcore<local_shape local_shape = tensor<4096x1024xf32>>, ttcore.shard_status = #ttcore.shard_status<unsharded>, ttir.name = "L__self___bracket_core_paligemma_with_expert_gemma_expert_model_layers_3_mlp_up_proj.weight"} loc("p93.793"), %arg94: tensor<1024xf32> {ttcore.argument_type = #ttcore.argument_type<parameter>, ttcore.local_shape = #ttcore<local_shape local_shape = tensor<1024xf32>>, ttcore.shard_status = #ttcore.shard_status<unsharded>, ttir.name = "L__self___bracket_core_paligemma_with_expert_gemma_expert_model_layers_3_post_attention_layernorm_weight"} loc("p94.800"), %arg95: tensor<1024x2048xf32> {ttcore.argument_type = #ttcore.argument_type<parameter>, ttcore.local_shape = #ttcore<local_shape local_shape = tensor<1024x2048xf32>>, ttcore.shard_status = #ttcore.shard_status<unsharded>, ttir.name = "L__self___bracket_core_paligemma_with_expert_gemma_expert_model_layers_3_self_attn_o_proj.weight"} loc("p95.811"), %arg96: tensor<256x1024xf32> {ttcore.argument_type = #ttcore.argument_type<parameter>, ttcore.local_shape = #ttcore<local_shape local_shape = tensor<256x1024xf32>>, ttcore.shard_status = #ttcore.shard_status<unsharded>, ttir.name = "L__self___bracket_core_paligemma_with_expert_gemma_expert_model_layers_3_self_attn_v_proj.weight"} loc("p96.816"), %arg97: tensor<1024xf32> {ttcore.argument_type = #ttcore.argument_type<parameter>, ttcore.local_shape = #ttcore<local_shape local_shape = tensor<1024xf32>>, ttcore.shard_status = #ttcore.shard_status<unsharded>, ttir.name = "L__self___bracket_core_paligemma_with_expert_gemma_expert_model_layers_3_input_layernorm_weight"} loc("p97.823"), %arg98: tensor<1024x4096xf32> {ttcore.argument_type = #ttcore.argument_type<parameter>, ttcore.local_shape = #ttcore<local_shape local_shape = tensor<1024x4096xf32>>, ttcore.shard_status = #ttcore.shard_status<unsharded>, ttir.name = "L__self___bracket_core_paligemma_with_expert_gemma_expert_model_layers_2_mlp_down_proj.weight"} loc("p98.834"), %arg99: tensor<4096x1024xf32> {ttcore.argument_type = #ttcore.argument_type<parameter>, ttcore.local_shape = #ttcore<local_shape local_shape = tensor<4096x1024xf32>>, ttcore.shard_status = #ttcore.shard_status<unsharded>, ttir.name = "L__self___bracket_core_paligemma_with_expert_gemma_expert_model_layers_2_mlp_up_proj.weight"} loc("p99.839"), %arg100: tensor<1024xf32> {ttcore.argument_type = #ttcore.argument_type<parameter>, ttcore.local_shape = #ttcore<local_shape local_shape = tensor<1024xf32>>, ttcore.shard_status = #ttcore.shard_status<unsharded>, ttir.name = "L__self___bracket_core_paligemma_with_expert_gemma_expert_model_layers_2_post_attention_layernorm_weight"} loc("p100.846"), %arg101: tensor<1024x2048xf32> {ttcore.argument_type = #ttcore.argument_type<parameter>, ttcore.local_shape = #ttcore<local_shape local_shape = tensor<1024x2048xf32>>, ttcore.shard_status = #ttcore.shard_status<unsharded>, ttir.name = "L__self___bracket_core_paligemma_with_expert_gemma_expert_model_layers_2_self_attn_o_proj.weight"} loc("p101.857"), %arg102: tensor<256x1024xf32> {ttcore.argument_type = #ttcore.argument_type<parameter>, ttcore.local_shape = #ttcore<local_shape local_shape = tensor<256x1024xf32>>, ttcore.shard_status = #ttcore.shard_status<unsharded>, ttir.name = "L__self___bracket_core_paligemma_with_expert_gemma_expert_model_layers_2_self_attn_v_proj.weight"} loc("p102.862"), %arg103: tensor<1024xf32> {ttcore.argument_type = #ttcore.argument_type<parameter>, ttcore.local_shape = #ttcore<local_shape local_shape = tensor<1024xf32>>, ttcore.shard_status = #ttcore.shard_status<unsharded>, ttir.name = "L__self___bracket_core_paligemma_with_expert_gemma_expert_model_layers_2_input_layernorm_weight"} loc("p103.869"), %arg104: tensor<1024x4096xf32> {ttcore.argument_type = #ttcore.argument_type<parameter>, ttcore.local_shape = #ttcore<local_shape local_shape = tensor<1024x4096xf32>>, ttcore.shard_status = #ttcore.shard_status<unsharded>, ttir.name = "L__self___bracket_core_paligemma_with_expert_gemma_expert_model_layers_1_mlp_down_proj.weight"} loc("p104.880"), %arg105: tensor<4096x1024xf32> {ttcore.argument_type = #ttcore.argument_type<parameter>, ttcore.local_shape = #ttcore<local_shape local_shape = tensor<4096x1024xf32>>, ttcore.shard_status = #ttcore.shard_status<unsharded>, ttir.name = "L__self___bracket_core_paligemma_with_expert_gemma_expert_model_layers_1_mlp_up_proj.weight"} loc("p105.885"), %arg106: tensor<1024xf32> {ttcore.argument_type = #ttcore.argument_type<parameter>, ttcore.local_shape = #ttcore<local_shape local_shape = tensor<1024xf32>>, ttcore.shard_status = #ttcore.shard_status<unsharded>, ttir.name = "L__self___bracket_core_paligemma_with_expert_gemma_expert_model_layers_1_post_attention_layernorm_weight"} loc("p106.892"), %arg107: tensor<1024x2048xf32> {ttcore.argument_type = #ttcore.argument_type<parameter>, ttcore.local_shape = #ttcore<local_shape local_shape = tensor<1024x2048xf32>>, ttcore.shard_status = #ttcore.shard_status<unsharded>, ttir.name = "L__self___bracket_core_paligemma_with_expert_gemma_expert_model_layers_1_self_attn_o_proj.weight"} loc("p107.903"), %arg108: tensor<256x1024xf32> {ttcore.argument_type = #ttcore.argument_type<parameter>, ttcore.local_shape = #ttcore<local_shape local_shape = tensor<256x1024xf32>>, ttcore.shard_status = #ttcore.shard_status<unsharded>, ttir.name = "L__self___bracket_core_paligemma_with_expert_gemma_expert_model_layers_1_self_attn_v_proj.weight"} loc("p108.908"), %arg109: tensor<1024xf32> {ttcore.argument_type = #ttcore.argument_type<parameter>, ttcore.local_shape = #ttcore<local_shape local_shape = tensor<1024xf32>>, ttcore.shard_status = #ttcore.shard_status<unsharded>, ttir.name = "L__self___bracket_core_paligemma_with_expert_gemma_expert_model_layers_1_input_layernorm_weight"} loc("p109.915"), %arg110: tensor<1024x4096xf32> {ttcore.argument_type = #ttcore.argument_type<parameter>, ttcore.local_shape = #ttcore<local_shape local_shape = tensor<1024x4096xf32>>, ttcore.shard_status = #ttcore.shard_status<unsharded>, ttir.name = "L__self___bracket_core_paligemma_with_expert_gemma_expert_model_layers_0_mlp_down_proj.weight"} loc("p110.926"), %arg111: tensor<4096x1024xf32> {ttcore.argument_type = #ttcore.argument_type<parameter>, ttcore.local_shape = #ttcore<local_shape local_shape = tensor<4096x1024xf32>>, ttcore.shard_status = #ttcore.shard_status<unsharded>, ttir.name = "L__self___bracket_core_paligemma_with_expert_gemma_expert_model_layers_0_mlp_up_proj.weight"} loc("p111.931"), %arg112: tensor<1024xf32> {ttcore.argument_type = #ttcore.argument_type<parameter>, ttcore.local_shape = #ttcore<local_shape local_shape = tensor<1024xf32>>, ttcore.shard_status = #ttcore.shard_status<unsharded>, ttir.name = "L__self___bracket_core_paligemma_with_expert_gemma_expert_model_layers_0_post_attention_layernorm_weight"} loc("p112.938"), %arg113: tensor<1024x2048xf32> {ttcore.argument_type = #ttcore.argument_type<parameter>, ttcore.local_shape = #ttcore<local_shape local_shape = tensor<1024x2048xf32>>, ttcore.shard_status = #ttcore.shard_status<unsharded>, ttir.name = "L__self___bracket_core_paligemma_with_expert_gemma_expert_model_layers_0_self_attn_o_proj.weight"} loc("p113.949"), %arg114: tensor<256x1024xf32> {ttcore.argument_type = #ttcore.argument_type<parameter>, ttcore.local_shape = #ttcore<local_shape local_shape = tensor<256x1024xf32>>, ttcore.shard_status = #ttcore.shard_status<unsharded>, ttir.name = "L__self___bracket_core_paligemma_with_expert_gemma_expert_model_layers_0_self_attn_v_proj.weight"} loc("p114.954"), %arg115: tensor<1024xf32> {ttcore.argument_type = #ttcore.argument_type<parameter>, ttcore.local_shape = #ttcore<local_shape local_shape = tensor<1024xf32>>, ttcore.shard_status = #ttcore.shard_status<unsharded>, ttir.name = "L__self___bracket_core_paligemma_with_expert_gemma_expert_model_layers_0_input_layernorm_weight"} loc("p115.961"), %arg116: tensor<1024xf32> {ttcore.argument_type = #ttcore.argument_type<parameter>, ttcore.local_shape = #ttcore<local_shape local_shape = tensor<1024xf32>>, ttcore.shard_status = #ttcore.shard_status<unsharded>, ttir.name = "L__self___bracket_core_action_time_mlp_out.bias"} loc("p116.972"), %arg117: tensor<1024x1024xf32> {ttcore.argument_type = #ttcore.argument_type<parameter>, ttcore.local_shape = #ttcore<local_shape local_shape = tensor<1024x1024xf32>>, ttcore.shard_status = #ttcore.shard_status<unsharded>, ttir.name = "L__self___bracket_core_action_time_mlp_out.weight"} loc("p117.976"), %arg118: tensor<1024xf32> {ttcore.argument_type = #ttcore.argument_type<parameter>, ttcore.local_shape = #ttcore<local_shape local_shape = tensor<1024xf32>>, ttcore.shard_status = #ttcore.shard_status<unsharded>, ttir.name = "L__self___bracket_core_action_time_mlp_in.bias"} loc("p118.982"), %arg119: tensor<1024x2048xf32> {ttcore.argument_type = #ttcore.argument_type<parameter>, ttcore.local_shape = #ttcore<local_shape local_shape = tensor<1024x2048xf32>>, ttcore.shard_status = #ttcore.shard_status<unsharded>, ttir.name = "L__self___bracket_core_action_time_mlp_in.weight"} loc("p119.986"), %arg120: tensor<1x50x32xf32> {ttcore.argument_type = #ttcore.argument_type<input>, ttcore.local_shape = #ttcore<local_shape local_shape = tensor<1x50x32xf32>>, ttcore.shard_status = #ttcore.shard_status<unsharded>, ttir.name = "args_9"} loc("p120.1059"), %arg121: tensor<256x2048xf32> {ttcore.argument_type = #ttcore.argument_type<parameter>, ttcore.local_shape = #ttcore<local_shape local_shape = tensor<256x2048xf32>>, ttcore.shard_status = #ttcore.shard_status<unsharded>, ttir.name = "L__self___bracket_core_paligemma_with_expert_paligemma_model_language_model_layers_0_self_attn_v_proj.weight"} loc("p121.1134"), %arg122: tensor<2048xf32> {ttcore.argument_type = #ttcore.argument_type<parameter>, ttcore.local_shape = #ttcore<local_shape local_shape = tensor<2048xf32>>, ttcore.shard_status = #ttcore.shard_status<unsharded>, ttir.name = "L__self___bracket_core_paligemma_with_expert_paligemma_model_language_model_layers_0_input_layernorm_weight"} loc("p122.1141"), %arg123: tensor<1x48xi64> {ttcore.argument_type = #ttcore.argument_type<input>, ttcore.local_shape = #ttcore<local_shape local_shape = tensor<1x48xi64>>, ttcore.shard_status = #ttcore.shard_status<unsharded>, ttir.name = "args_7"} loc("p123.1152"), %arg124: tensor<257152x2048xf32> {ttcore.argument_type = #ttcore.argument_type<parameter>, ttcore.local_shape = #ttcore<local_shape local_shape = tensor<257152x2048xf32>>, ttcore.shard_status = #ttcore.shard_status<unsharded>, ttir.name = "L__self___bracket_core_paligemma_with_expert_paligemma_model_language_model_embed_tokens.weight"} loc("p124.1157"), %arg125: tensor<2048xf32> {ttcore.argument_type = #ttcore.argument_type<parameter>, ttcore.local_shape = #ttcore<local_shape local_shape = tensor<2048xf32>>, ttcore.shard_status = #ttcore.shard_status<unsharded>, ttir.name = "L__self___bracket_core_paligemma_with_expert_paligemma_model_multi_modal_projector_linear.bias"} loc("p125.1167"), %arg126: tensor<2048x1152xf32> {ttcore.argument_type = #ttcore.argument_type<parameter>, ttcore.local_shape = #ttcore<local_shape local_shape = tensor<2048x1152xf32>>, ttcore.shard_status = #ttcore.shard_status<unsharded>, ttir.name = "L__self___bracket_core_paligemma_with_expert_paligemma_model_multi_modal_projector_linear.weight"} loc("p126.1171"), %arg127: tensor<1152xf32> {ttcore.argument_type = #ttcore.argument_type<parameter>, ttcore.local_shape = #ttcore<local_shape local_shape = tensor<1152xf32>>, ttcore.shard_status = #ttcore.shard_status<unsharded>, ttir.name = "L__self___bracket_core_paligemma_with_expert_paligemma_model_vision_tower_vision_model_post_layernorm.bias"} loc("p127.1177"), %arg128: tensor<1152xf32> {ttcore.argument_type = #ttcore.argument_type<parameter>, ttcore.local_shape = #ttcore<local_shape local_shape = tensor<1152xf32>>, ttcore.shard_status = #ttcore.shard_status<unsharded>, ttir.name = "L__self___bracket_core_paligemma_with_expert_paligemma_model_vision_tower_vision_model_post_layernorm.weight"} loc("p128.1182"), %arg129: tensor<1152xf32> {ttcore.argument_type = #ttcore.argument_type<parameter>, ttcore.local_shape = #ttcore<local_shape local_shape = tensor<1152xf32>>, ttcore.shard_status = #ttcore.shard_status<unsharded>, ttir.name = "L__self___bracket_core_paligemma_with_expert_paligemma_model_vision_tower_vision_model_encoder_layers_26_mlp_fc2.bias"} loc("p129.1191"), %arg130: tensor<1152x4304xf32> {ttcore.argument_type = #ttcore.argument_type<parameter>, ttcore.local_shape = #ttcore<local_shape local_shape = tensor<1152x4304xf32>>, ttcore.shard_status = #ttcore.shard_status<unsharded>, ttir.name = "L__self___bracket_core_paligemma_with_expert_paligemma_model_vision_tower_vision_model_encoder_layers_26_mlp_fc2.weight"} loc("p130.1195"), %arg131: tensor<4304xf32> {ttcore.argument_type = #ttcore.argument_type<parameter>, ttcore.local_shape = #ttcore<local_shape local_shape = tensor<4304xf32>>, ttcore.shard_status = #ttcore.shard_status<unsharded>, ttir.name = "L__self___bracket_core_paligemma_with_expert_paligemma_model_vision_tower_vision_model_encoder_layers_26_mlp_fc1.bias"} loc("p131.1203"), %arg132: tensor<4304x1152xf32> {ttcore.argument_type = #ttcore.argument_type<parameter>, ttcore.local_shape = #ttcore<local_shape local_shape = tensor<4304x1152xf32>>, ttcore.shard_status = #ttcore.shard_status<unsharded>, ttir.name = "L__self___bracket_core_paligemma_with_expert_paligemma_model_vision_tower_vision_model_encoder_layers_26_mlp_fc1.weight"} loc("p132.1207"), %arg133: tensor<1152xf32> {ttcore.argument_type = #ttcore.argument_type<parameter>, ttcore.local_shape = #ttcore<local_shape local_shape = tensor<1152xf32>>, ttcore.shard_status = #ttcore.shard_status<unsharded>, ttir.name = "L__self___bracket_core_paligemma_with_expert_paligemma_model_vision_tower_vision_model_encoder_layers_26_layer_norm2.bias"} loc("p133.1213"), %arg134: tensor<1152xf32> {ttcore.argument_type = #ttcore.argument_type<parameter>, ttcore.local_shape = #ttcore<local_shape local_shape = tensor<1152xf32>>, ttcore.shard_status = #ttcore.shard_status<unsharded>, ttir.name = "L__self___bracket_core_paligemma_with_expert_paligemma_model_vision_tower_vision_model_encoder_layers_26_layer_norm2.weight"} loc("p134.1218"), %arg135: tensor<1152xf32> {ttcore.argument_type = #ttcore.argument_type<parameter>, ttcore.local_shape = #ttcore<local_shape local_shape = tensor<1152xf32>>, ttcore.shard_status = #ttcore.shard_status<unsharded>, ttir.name = "L__self___bracket_core_paligemma_with_expert_paligemma_model_vision_tower_vision_model_encoder_layers_26_self_attn_out_proj.bias"} loc("p135.1227"), %arg136: tensor<1152x1152xf32> {ttcore.argument_type = #ttcore.argument_type<parameter>, ttcore.local_shape = #ttcore<local_shape local_shape = tensor<1152x1152xf32>>, ttcore.shard_status = #ttcore.shard_status<unsharded>, ttir.name = "L__self___bracket_core_paligemma_with_expert_paligemma_model_vision_tower_vision_model_encoder_layers_26_self_attn_out_proj.weight"} loc("p136.1231"), %arg137: tensor<1152xf32> {ttcore.argument_type = #ttcore.argument_type<parameter>, ttcore.local_shape = #ttcore<local_shape local_shape = tensor<1152xf32>>, ttcore.shard_status = #ttcore.shard_status<unsharded>, ttir.name = "L__self___bracket_core_paligemma_with_expert_paligemma_model_vision_tower_vision_model_encoder_layers_26_self_attn_v_proj.bias"} loc("p137.1237"), %arg138: tensor<1152x1152xf32> {ttcore.argument_type = #ttcore.argument_type<parameter>, ttcore.local_shape = #ttcore<local_shape local_shape = tensor<1152x1152xf32>>, ttcore.shard_status = #ttcore.shard_status<unsharded>, ttir.name = "L__self___bracket_core_paligemma_with_expert_paligemma_model_vision_tower_vision_model_encoder_layers_26_self_attn_v_proj.weight"} loc("p138.1241"), %arg139: tensor<1152xf32> {ttcore.argument_type = #ttcore.argument_type<parameter>, ttcore.local_shape = #ttcore<local_shape local_shape = tensor<1152xf32>>, ttcore.shard_status = #ttcore.shard_status<unsharded>, ttir.name = "L__self___bracket_core_paligemma_with_expert_paligemma_model_vision_tower_vision_model_encoder_layers_26_layer_norm1.bias"} loc("p139.1247"), %arg140: tensor<1152xf32> {ttcore.argument_type = #ttcore.argument_type<parameter>, ttcore.local_shape = #ttcore<local_shape local_shape = tensor<1152xf32>>, ttcore.shard_status = #ttcore.shard_status<unsharded>, ttir.name = "L__self___bracket_core_paligemma_with_expert_paligemma_model_vision_tower_vision_model_encoder_layers_26_layer_norm1.weight"} loc("p140.1252"), %arg141: tensor<1152xf32> {ttcore.argument_type = #ttcore.argument_type<parameter>, ttcore.local_shape = #ttcore<local_shape local_shape = tensor<1152xf32>>, ttcore.shard_status = #ttcore.shard_status<unsharded>, ttir.name = "L__self___bracket_core_paligemma_with_expert_paligemma_model_vision_tower_vision_model_encoder_layers_25_mlp_fc2.bias"} loc("p141.1261"), %arg142: tensor<1152x4304xf32> {ttcore.argument_type = #ttcore.argument_type<parameter>, ttcore.local_shape = #ttcore<local_shape local_shape = tensor<1152x4304xf32>>, ttcore.shard_status = #ttcore.shard_status<unsharded>, ttir.name = "L__self___bracket_core_paligemma_with_expert_paligemma_model_vision_tower_vision_model_encoder_layers_25_mlp_fc2.weight"} loc("p142.1265"), %arg143: tensor<4304xf32> {ttcore.argument_type = #ttcore.argument_type<parameter>, ttcore.local_shape = #ttcore<local_shape local_shape = tensor<4304xf32>>, ttcore.shard_status = #ttcore.shard_status<unsharded>, ttir.name = "L__self___bracket_core_paligemma_with_expert_paligemma_model_vision_tower_vision_model_encoder_layers_25_mlp_fc1.bias"} loc("p143.1273"), %arg144: tensor<4304x1152xf32> {ttcore.argument_type = #ttcore.argument_type<parameter>, ttcore.local_shape = #ttcore<local_shape local_shape = tensor<4304x1152xf32>>, ttcore.shard_status = #ttcore.shard_status<unsharded>, ttir.name = "L__self___bracket_core_paligemma_with_expert_paligemma_model_vision_tower_vision_model_encoder_layers_25_mlp_fc1.weight"} loc("p144.1277"), %arg145: tensor<1152xf32> {ttcore.argument_type = #ttcore.argument_type<parameter>, ttcore.local_shape = #ttcore<local_shape local_shape = tensor<1152xf32>>, ttcore.shard_status = #ttcore.shard_status<unsharded>, ttir.name = "L__self___bracket_core_paligemma_with_expert_paligemma_model_vision_tower_vision_model_encoder_layers_25_layer_norm2.bias"} loc("p145.1283"), %arg146: tensor<1152xf32> {ttcore.argument_type = #ttcore.argument_type<parameter>, ttcore.local_shape = #ttcore<local_shape local_shape = tensor<1152xf32>>, ttcore.shard_status = #ttcore.shard_status<unsharded>, ttir.name = "L__self___bracket_core_paligemma_with_expert_paligemma_model_vision_tower_vision_model_encoder_layers_25_layer_norm2.weight"} loc("p146.1288"), %arg147: tensor<1152xf32> {ttcore.argument_type = #ttcore.argument_type<parameter>, ttcore.local_shape = #ttcore<local_shape local_shape = tensor<1152xf32>>, ttcore.shard_status = #ttcore.shard_status<unsharded>, ttir.name = "L__self___bracket_core_paligemma_with_expert_paligemma_model_vision_tower_vision_model_encoder_layers_25_self_attn_out_proj.bias"} loc("p147.1297"), %arg148: tensor<1152x1152xf32> {ttcore.argument_type = #ttcore.argument_type<parameter>, ttcore.local_shape = #ttcore<local_shape local_shape = tensor<1152x1152xf32>>, ttcore.shard_status = #ttcore.shard_status<unsharded>, ttir.name = "L__self___bracket_core_paligemma_with_expert_paligemma_model_vision_tower_vision_model_encoder_layers_25_self_attn_out_proj.weight"} loc("p148.1301"), %arg149: tensor<1152xf32> {ttcore.argument_type = #ttcore.argument_type<parameter>, ttcore.local_shape = #ttcore<local_shape local_shape = tensor<1152xf32>>, ttcore.shard_status = #ttcore.shard_status<unsharded>, ttir.name = "L__self___bracket_core_paligemma_with_expert_paligemma_model_vision_tower_vision_model_encoder_layers_25_self_attn_v_proj.bias"} loc("p149.1307"), %arg150: tensor<1152x1152xf32> {ttcore.argument_type = #ttcore.argument_type<parameter>, ttcore.local_shape = #ttcore<local_shape local_shape = tensor<1152x1152xf32>>, ttcore.shard_status = #ttcore.shard_status<unsharded>, ttir.name = "L__self___bracket_core_paligemma_with_expert_paligemma_model_vision_tower_vision_model_encoder_layers_25_self_attn_v_proj.weight"} loc("p150.1311"), %arg151: tensor<1152xf32> {ttcore.argument_type = #ttcore.argument_type<parameter>, ttcore.local_shape = #ttcore<local_shape local_shape = tensor<1152xf32>>, ttcore.shard_status = #ttcore.shard_status<unsharded>, ttir.name = "L__self___bracket_core_paligemma_with_expert_paligemma_model_vision_tower_vision_model_encoder_layers_25_layer_norm1.bias"} loc("p151.1317"), %arg152: tensor<1152xf32> {ttcore.argument_type = #ttcore.argument_type<parameter>, ttcore.local_shape = #ttcore<local_shape local_shape = tensor<1152xf32>>, ttcore.shard_status = #ttcore.shard_status<unsharded>, ttir.name = "L__self___bracket_core_paligemma_with_expert_paligemma_model_vision_tower_vision_model_encoder_layers_25_layer_norm1.weight"} loc("p152.1322"), %arg153: tensor<1152xf32> {ttcore.argument_type = #ttcore.argument_type<parameter>, ttcore.local_shape = #ttcore<local_shape local_shape = tensor<1152xf32>>, ttcore.shard_status = #ttcore.shard_status<unsharded>, ttir.name = "L__self___bracket_core_paligemma_with_expert_paligemma_model_vision_tower_vision_model_encoder_layers_24_mlp_fc2.bias"} loc("p153.1331"), %arg154: tensor<1152x4304xf32> {ttcore.argument_type = #ttcore.argument_type<parameter>, ttcore.local_shape = #ttcore<local_shape local_shape = tensor<1152x4304xf32>>, ttcore.shard_status = #ttcore.shard_status<unsharded>, ttir.name = "L__self___bracket_core_paligemma_with_expert_paligemma_model_vision_tower_vision_model_encoder_layers_24_mlp_fc2.weight"} loc("p154.1335"), %arg155: tensor<4304xf32> {ttcore.argument_type = #ttcore.argument_type<parameter>, ttcore.local_shape = #ttcore<local_shape local_shape = tensor<4304xf32>>, ttcore.shard_status = #ttcore.shard_status<unsharded>, ttir.name = "L__self___bracket_core_paligemma_with_expert_paligemma_model_vision_tower_vision_model_encoder_layers_24_mlp_fc1.bias"} loc("p155.1343"), %arg156: tensor<4304x1152xf32> {ttcore.argument_type = #ttcore.argument_type<parameter>, ttcore.local_shape = #ttcore<local_shape local_shape = tensor<4304x1152xf32>>, ttcore.shard_status = #ttcore.shard_status<unsharded>, ttir.name = "L__self___bracket_core_paligemma_with_expert_paligemma_model_vision_tower_vision_model_encoder_layers_24_mlp_fc1.weight"} loc("p156.1347"), %arg157: tensor<1152xf32> {ttcore.argument_type = #ttcore.argument_type<parameter>, ttcore.local_shape = #ttcore<local_shape local_shape = tensor<1152xf32>>, ttcore.shard_status = #ttcore.shard_status<unsharded>, ttir.name = "L__self___bracket_core_paligemma_with_expert_paligemma_model_vision_tower_vision_model_encoder_layers_24_layer_norm2.bias"} loc("p157.1353"), %arg158: tensor<1152xf32> {ttcore.argument_type = #ttcore.argument_type<parameter>, ttcore.local_shape = #ttcore<local_shape local_shape = tensor<1152xf32>>, ttcore.shard_status = #ttcore.shard_status<unsharded>, ttir.name = "L__self___bracket_core_paligemma_with_expert_paligemma_model_vision_tower_vision_model_encoder_layers_24_layer_norm2.weight"} loc("p158.1358"), %arg159: tensor<1152xf32> {ttcore.argument_type = #ttcore.argument_type<parameter>, ttcore.local_shape = #ttcore<local_shape local_shape = tensor<1152xf32>>, ttcore.shard_status = #ttcore.shard_status<unsharded>, ttir.name = "L__self___bracket_core_paligemma_with_expert_paligemma_model_vision_tower_vision_model_encoder_layers_24_self_attn_out_proj.bias"} loc("p159.1367"), %arg160: tensor<1152x1152xf32> {ttcore.argument_type = #ttcore.argument_type<parameter>, ttcore.local_shape = #ttcore<local_shape local_shape = tensor<1152x1152xf32>>, ttcore.shard_status = #ttcore.shard_status<unsharded>, ttir.name = "L__self___bracket_core_paligemma_with_expert_paligemma_model_vision_tower_vision_model_encoder_layers_24_self_attn_out_proj.weight"} loc("p160.1371"), %arg161: tensor<1152xf32> {ttcore.argument_type = #ttcore.argument_type<parameter>, ttcore.local_shape = #ttcore<local_shape local_shape = tensor<1152xf32>>, ttcore.shard_status = #ttcore.shard_status<unsharded>, ttir.name = "L__self___bracket_core_paligemma_with_expert_paligemma_model_vision_tower_vision_model_encoder_layers_24_self_attn_v_proj.bias"} loc("p161.1377"), %arg162: tensor<1152x1152xf32> {ttcore.argument_type = #ttcore.argument_type<parameter>, ttcore.local_shape = #ttcore<local_shape local_shape = tensor<1152x1152xf32>>, ttcore.shard_status = #ttcore.shard_status<unsharded>, ttir.name = "L__self___bracket_core_paligemma_with_expert_paligemma_model_vision_tower_vision_model_encoder_layers_24_self_attn_v_proj.weight"} loc("p162.1381"), %arg163: tensor<1152xf32> {ttcore.argument_type = #ttcore.argument_type<parameter>, ttcore.local_shape = #ttcore<local_shape local_shape = tensor<1152xf32>>, ttcore.shard_status = #ttcore.shard_status<unsharded>, ttir.name = "L__self___bracket_core_paligemma_with_expert_paligemma_model_vision_tower_vision_model_encoder_layers_24_layer_norm1.bias"} loc("p163.1387"), %arg164: tensor<1152xf32> {ttcore.argument_type = #ttcore.argument_type<parameter>, ttcore.local_shape = #ttcore<local_shape local_shape = tensor<1152xf32>>, ttcore.shard_status = #ttcore.shard_status<unsharded>, ttir.name = "L__self___bracket_core_paligemma_with_expert_paligemma_model_vision_tower_vision_model_encoder_layers_24_layer_norm1.weight"} loc("p164.1392"), %arg165: tensor<1152xf32> {ttcore.argument_type = #ttcore.argument_type<parameter>, ttcore.local_shape = #ttcore<local_shape local_shape = tensor<1152xf32>>, ttcore.shard_status = #ttcore.shard_status<unsharded>, ttir.name = "L__self___bracket_core_paligemma_with_expert_paligemma_model_vision_tower_vision_model_encoder_layers_23_mlp_fc2.bias"} loc("p165.1401"), %arg166: tensor<1152x4304xf32> {ttcore.argument_type = #ttcore.argument_type<parameter>, ttcore.local_shape = #ttcore<local_shape local_shape = tensor<1152x4304xf32>>, ttcore.shard_status = #ttcore.shard_status<unsharded>, ttir.name = "L__self___bracket_core_paligemma_with_expert_paligemma_model_vision_tower_vision_model_encoder_layers_23_mlp_fc2.weight"} loc("p166.1405"), %arg167: tensor<4304xf32> {ttcore.argument_type = #ttcore.argument_type<parameter>, ttcore.local_shape = #ttcore<local_shape local_shape = tensor<4304xf32>>, ttcore.shard_status = #ttcore.shard_status<unsharded>, ttir.name = "L__self___bracket_core_paligemma_with_expert_paligemma_model_vision_tower_vision_model_encoder_layers_23_mlp_fc1.bias"} loc("p167.1413"), %arg168: tensor<4304x1152xf32> {ttcore.argument_type = #ttcore.argument_type<parameter>, ttcore.local_shape = #ttcore<local_shape local_shape = tensor<4304x1152xf32>>, ttcore.shard_status = #ttcore.shard_status<unsharded>, ttir.name = "L__self___bracket_core_paligemma_with_expert_paligemma_model_vision_tower_vision_model_encoder_layers_23_mlp_fc1.weight"} loc("p168.1417"), %arg169: tensor<1152xf32> {ttcore.argument_type = #ttcore.argument_type<parameter>, ttcore.local_shape = #ttcore<local_shape local_shape = tensor<1152xf32>>, ttcore.shard_status = #ttcore.shard_status<unsharded>, ttir.name = "L__self___bracket_core_paligemma_with_expert_paligemma_model_vision_tower_vision_model_encoder_layers_23_layer_norm2.bias"} loc("p169.1423"), %arg170: tensor<1152xf32> {ttcore.argument_type = #ttcore.argument_type<parameter>, ttcore.local_shape = #ttcore<local_shape local_shape = tensor<1152xf32>>, ttcore.shard_status = #ttcore.shard_status<unsharded>, ttir.name = "L__self___bracket_core_paligemma_with_expert_paligemma_model_vision_tower_vision_model_encoder_layers_23_layer_norm2.weight"} loc("p170.1428"), %arg171: tensor<1152xf32> {ttcore.argument_type = #ttcore.argument_type<parameter>, ttcore.local_shape = #ttcore<local_shape local_shape = tensor<1152xf32>>, ttcore.shard_status = #ttcore.shard_status<unsharded>, ttir.name = "L__self___bracket_core_paligemma_with_expert_paligemma_model_vision_tower_vision_model_encoder_layers_23_self_attn_out_proj.bias"} loc("p171.1437"), %arg172: tensor<1152x1152xf32> {ttcore.argument_type = #ttcore.argument_type<parameter>, ttcore.local_shape = #ttcore<local_shape local_shape = tensor<1152x1152xf32>>, ttcore.shard_status = #ttcore.shard_status<unsharded>, ttir.name = "L__self___bracket_core_paligemma_with_expert_paligemma_model_vision_tower_vision_model_encoder_layers_23_self_attn_out_proj.weight"} loc("p172.1441"), %arg173: tensor<1152xf32> {ttcore.argument_type = #ttcore.argument_type<parameter>, ttcore.local_shape = #ttcore<local_shape local_shape = tensor<1152xf32>>, ttcore.shard_status = #ttcore.shard_status<unsharded>, ttir.name = "L__self___bracket_core_paligemma_with_expert_paligemma_model_vision_tower_vision_model_encoder_layers_23_self_attn_v_proj.bias"} loc("p173.1447"), %arg174: tensor<1152x1152xf32> {ttcore.argument_type = #ttcore.argument_type<parameter>, ttcore.local_shape = #ttcore<local_shape local_shape = tensor<1152x1152xf32>>, ttcore.shard_status = #ttcore.shard_status<unsharded>, ttir.name = "L__self___bracket_core_paligemma_with_expert_paligemma_model_vision_tower_vision_model_encoder_layers_23_self_attn_v_proj.weight"} loc("p174.1451"), %arg175: tensor<1152xf32> {ttcore.argument_type = #ttcore.argument_type<parameter>, ttcore.local_shape = #ttcore<local_shape local_shape = tensor<1152xf32>>, ttcore.shard_status = #ttcore.shard_status<unsharded>, ttir.name = "L__self___bracket_core_paligemma_with_expert_paligemma_model_vision_tower_vision_model_encoder_layers_23_layer_norm1.bias"} loc("p175.1457"), %arg176: tensor<1152xf32> {ttcore.argument_type = #ttcore.argument_type<parameter>, ttcore.local_shape = #ttcore<local_shape local_shape = tensor<1152xf32>>, ttcore.shard_status = #ttcore.shard_status<unsharded>, ttir.name = "L__self___bracket_core_paligemma_with_expert_paligemma_model_vision_tower_vision_model_encoder_layers_23_layer_norm1.weight"} loc("p176.1462"), %arg177: tensor<1152xf32> {ttcore.argument_type = #ttcore.argument_type<parameter>, ttcore.local_shape = #ttcore<local_shape local_shape = tensor<1152xf32>>, ttcore.shard_status = #ttcore.shard_status<unsharded>, ttir.name = "L__self___bracket_core_paligemma_with_expert_paligemma_model_vision_tower_vision_model_encoder_layers_22_mlp_fc2.bias"} loc("p177.1471"), %arg178: tensor<1152x4304xf32> {ttcore.argument_type = #ttcore.argument_type<parameter>, ttcore.local_shape = #ttcore<local_shape local_shape = tensor<1152x4304xf32>>, ttcore.shard_status = #ttcore.shard_status<unsharded>, ttir.name = "L__self___bracket_core_paligemma_with_expert_paligemma_model_vision_tower_vision_model_encoder_layers_22_mlp_fc2.weight"} loc("p178.1475"), %arg179: tensor<4304xf32> {ttcore.argument_type = #ttcore.argument_type<parameter>, ttcore.local_shape = #ttcore<local_shape local_shape = tensor<4304xf32>>, ttcore.shard_status = #ttcore.shard_status<unsharded>, ttir.name = "L__self___bracket_core_paligemma_with_expert_paligemma_model_vision_tower_vision_model_encoder_layers_22_mlp_fc1.bias"} loc("p179.1483"), %arg180: tensor<4304x1152xf32> {ttcore.argument_type = #ttcore.argument_type<parameter>, ttcore.local_shape = #ttcore<local_shape local_shape = tensor<4304x1152xf32>>, ttcore.shard_status = #ttcore.shard_status<unsharded>, ttir.name = "L__self___bracket_core_paligemma_with_expert_paligemma_model_vision_tower_vision_model_encoder_layers_22_mlp_fc1.weight"} loc("p180.1487"), %arg181: tensor<1152xf32> {ttcore.argument_type = #ttcore.argument_type<parameter>, ttcore.local_shape = #ttcore<local_shape local_shape = tensor<1152xf32>>, ttcore.shard_status = #ttcore.shard_status<unsharded>, ttir.name = "L__self___bracket_core_paligemma_with_expert_paligemma_model_vision_tower_vision_model_encoder_layers_22_layer_norm2.bias"} loc("p181.1493"), %arg182: tensor<1152xf32> {ttcore.argument_type = #ttcore.argument_type<parameter>, ttcore.local_shape = #ttcore<local_shape local_shape = tensor<1152xf32>>, ttcore.shard_status = #ttcore.shard_status<unsharded>, ttir.name = "L__self___bracket_core_paligemma_with_expert_paligemma_model_vision_tower_vision_model_encoder_layers_22_layer_norm2.weight"} loc("p182.1498"), %arg183: tensor<1152xf32> {ttcore.argument_type = #ttcore.argument_type<parameter>, ttcore.local_shape = #ttcore<local_shape local_shape = tensor<1152xf32>>, ttcore.shard_status = #ttcore.shard_status<unsharded>, ttir.name = "L__self___bracket_core_paligemma_with_expert_paligemma_model_vision_tower_vision_model_encoder_layers_22_self_attn_out_proj.bias"} loc("p183.1507"), %arg184: tensor<1152x1152xf32> {ttcore.argument_type = #ttcore.argument_type<parameter>, ttcore.local_shape = #ttcore<local_shape local_shape = tensor<1152x1152xf32>>, ttcore.shard_status = #ttcore.shard_status<unsharded>, ttir.name = "L__self___bracket_core_paligemma_with_expert_paligemma_model_vision_tower_vision_model_encoder_layers_22_self_attn_out_proj.weight"} loc("p184.1511"), %arg185: tensor<1152xf32> {ttcore.argument_type = #ttcore.argument_type<parameter>, ttcore.local_shape = #ttcore<local_shape local_shape = tensor<1152xf32>>, ttcore.shard_status = #ttcore.shard_status<unsharded>, ttir.name = "L__self___bracket_core_paligemma_with_expert_paligemma_model_vision_tower_vision_model_encoder_layers_22_self_attn_v_proj.bias"} loc("p185.1517"), %arg186: tensor<1152x1152xf32> {ttcore.argument_type = #ttcore.argument_type<parameter>, ttcore.local_shape = #ttcore<local_shape local_shape = tensor<1152x1152xf32>>, ttcore.shard_status = #ttcore.shard_status<unsharded>, ttir.name = "L__self___bracket_core_paligemma_with_expert_paligemma_model_vision_tower_vision_model_encoder_layers_22_self_attn_v_proj.weight"} loc("p186.1521"), %arg187: tensor<1152xf32> {ttcore.argument_type = #ttcore.argument_type<parameter>, ttcore.local_shape = #ttcore<local_shape local_shape = tensor<1152xf32>>, ttcore.shard_status = #ttcore.shard_status<unsharded>, ttir.name = "L__self___bracket_core_paligemma_with_expert_paligemma_model_vision_tower_vision_model_encoder_layers_22_layer_norm1.bias"} loc("p187.1527"), %arg188: tensor<1152xf32> {ttcore.argument_type = #ttcore.argument_type<parameter>, ttcore.local_shape = #ttcore<local_shape local_shape = tensor<1152xf32>>, ttcore.shard_status = #ttcore.shard_status<unsharded>, ttir.name = "L__self___bracket_core_paligemma_with_expert_paligemma_model_vision_tower_vision_model_encoder_layers_22_layer_norm1.weight"} loc("p188.1532"), %arg189: tensor<1152xf32> {ttcore.argument_type = #ttcore.argument_type<parameter>, ttcore.local_shape = #ttcore<local_shape local_shape = tensor<1152xf32>>, ttcore.shard_status = #ttcore.shard_status<unsharded>, ttir.name = "L__self___bracket_core_paligemma_with_expert_paligemma_model_vision_tower_vision_model_encoder_layers_21_mlp_fc2.bias"} loc("p189.1541"), %arg190: tensor<1152x4304xf32> {ttcore.argument_type = #ttcore.argument_type<parameter>, ttcore.local_shape = #ttcore<local_shape local_shape = tensor<1152x4304xf32>>, ttcore.shard_status = #ttcore.shard_status<unsharded>, ttir.name = "L__self___bracket_core_paligemma_with_expert_paligemma_model_vision_tower_vision_model_encoder_layers_21_mlp_fc2.weight"} loc("p190.1545"), %arg191: tensor<4304xf32> {ttcore.argument_type = #ttcore.argument_type<parameter>, ttcore.local_shape = #ttcore<local_shape local_shape = tensor<4304xf32>>, ttcore.shard_status = #ttcore.shard_status<unsharded>, ttir.name = "L__self___bracket_core_paligemma_with_expert_paligemma_model_vision_tower_vision_model_encoder_layers_21_mlp_fc1.bias"} loc("p191.1553"), %arg192: tensor<4304x1152xf32> {ttcore.argument_type = #ttcore.argument_type<parameter>, ttcore.local_shape = #ttcore<local_shape local_shape = tensor<4304x1152xf32>>, ttcore.shard_status = #ttcore.shard_status<unsharded>, ttir.name = "L__self___bracket_core_paligemma_with_expert_paligemma_model_vision_tower_vision_model_encoder_layers_21_mlp_fc1.weight"} loc("p192.1557"), %arg193: tensor<1152xf32> {ttcore.argument_type = #ttcore.argument_type<parameter>, ttcore.local_shape = #ttcore<local_shape local_shape = tensor<1152xf32>>, ttcore.shard_status = #ttcore.shard_status<unsharded>, ttir.name = "L__self___bracket_core_paligemma_with_expert_paligemma_model_vision_tower_vision_model_encoder_layers_21_layer_norm2.bias"} loc("p193.1563"), %arg194: tensor<1152xf32> {ttcore.argument_type = #ttcore.argument_type<parameter>, ttcore.local_shape = #ttcore<local_shape local_shape = tensor<1152xf32>>, ttcore.shard_status = #ttcore.shard_status<unsharded>, ttir.name = "L__self___bracket_core_paligemma_with_expert_paligemma_model_vision_tower_vision_model_encoder_layers_21_layer_norm2.weight"} loc("p194.1568"), %arg195: tensor<1152xf32> {ttcore.argument_type = #ttcore.argument_type<parameter>, ttcore.local_shape = #ttcore<local_shape local_shape = tensor<1152xf32>>, ttcore.shard_status = #ttcore.shard_status<unsharded>, ttir.name = "L__self___bracket_core_paligemma_with_expert_paligemma_model_vision_tower_vision_model_encoder_layers_21_self_attn_out_proj.bias"} loc("p195.1577"), %arg196: tensor<1152x1152xf32> {ttcore.argument_type = #ttcore.argument_type<parameter>, ttcore.local_shape = #ttcore<local_shape local_shape = tensor<1152x1152xf32>>, ttcore.shard_status = #ttcore.shard_status<unsharded>, ttir.name = "L__self___bracket_core_paligemma_with_expert_paligemma_model_vision_tower_vision_model_encoder_layers_21_self_attn_out_proj.weight"} loc("p196.1581"), %arg197: tensor<1152xf32> {ttcore.argument_type = #ttcore.argument_type<parameter>, ttcore.local_shape = #ttcore<local_shape local_shape = tensor<1152xf32>>, ttcore.shard_status = #ttcore.shard_status<unsharded>, ttir.name = "L__self___bracket_core_paligemma_with_expert_paligemma_model_vision_tower_vision_model_encoder_layers_21_self_attn_v_proj.bias"} loc("p197.1587"), %arg198: tensor<1152x1152xf32> {ttcore.argument_type = #ttcore.argument_type<parameter>, ttcore.local_shape = #ttcore<local_shape local_shape = tensor<1152x1152xf32>>, ttcore.shard_status = #ttcore.shard_status<unsharded>, ttir.name = "L__self___bracket_core_paligemma_with_expert_paligemma_model_vision_tower_vision_model_encoder_layers_21_self_attn_v_proj.weight"} loc("p198.1591"), %arg199: tensor<1152xf32> {ttcore.argument_type = #ttcore.argument_type<parameter>, ttcore.local_shape = #ttcore<local_shape local_shape = tensor<1152xf32>>, ttcore.shard_status = #ttcore.shard_status<unsharded>, ttir.name = "L__self___bracket_core_paligemma_with_expert_paligemma_model_vision_tower_vision_model_encoder_layers_21_layer_norm1.bias"} loc("p199.1597"), %arg200: tensor<1152xf32> {ttcore.argument_type = #ttcore.argument_type<parameter>, ttcore.local_shape = #ttcore<local_shape local_shape = tensor<1152xf32>>, ttcore.shard_status = #ttcore.shard_status<unsharded>, ttir.name = "L__self___bracket_core_paligemma_with_expert_paligemma_model_vision_tower_vision_model_encoder_layers_21_layer_norm1.weight"} loc("p200.1602"), %arg201: tensor<1152xf32> {ttcore.argument_type = #ttcore.argument_type<parameter>, ttcore.local_shape = #ttcore<local_shape local_shape = tensor<1152xf32>>, ttcore.shard_status = #ttcore.shard_status<unsharded>, ttir.name = "L__self___bracket_core_paligemma_with_expert_paligemma_model_vision_tower_vision_model_encoder_layers_20_mlp_fc2.bias"} loc("p201.1611"), %arg202: tensor<1152x4304xf32> {ttcore.argument_type = #ttcore.argument_type<parameter>, ttcore.local_shape = #ttcore<local_shape local_shape = tensor<1152x4304xf32>>, ttcore.shard_status = #ttcore.shard_status<unsharded>, ttir.name = "L__self___bracket_core_paligemma_with_expert_paligemma_model_vision_tower_vision_model_encoder_layers_20_mlp_fc2.weight"} loc("p202.1615"), %arg203: tensor<4304xf32> {ttcore.argument_type = #ttcore.argument_type<parameter>, ttcore.local_shape = #ttcore<local_shape local_shape = tensor<4304xf32>>, ttcore.shard_status = #ttcore.shard_status<unsharded>, ttir.name = "L__self___bracket_core_paligemma_with_expert_paligemma_model_vision_tower_vision_model_encoder_layers_20_mlp_fc1.bias"} loc("p203.1623"), %arg204: tensor<4304x1152xf32> {ttcore.argument_type = #ttcore.argument_type<parameter>, ttcore.local_shape = #ttcore<local_shape local_shape = tensor<4304x1152xf32>>, ttcore.shard_status = #ttcore.shard_status<unsharded>, ttir.name = "L__self___bracket_core_paligemma_with_expert_paligemma_model_vision_tower_vision_model_encoder_layers_20_mlp_fc1.weight"} loc("p204.1627"), %arg205: tensor<1152xf32> {ttcore.argument_type = #ttcore.argument_type<parameter>, ttcore.local_shape = #ttcore<local_shape local_shape = tensor<1152xf32>>, ttcore.shard_status = #ttcore.shard_status<unsharded>, ttir.name = "L__self___bracket_core_paligemma_with_expert_paligemma_model_vision_tower_vision_model_encoder_layers_20_layer_norm2.bias"} loc("p205.1633"), %arg206: tensor<1152xf32> {ttcore.argument_type = #ttcore.argument_type<parameter>, ttcore.local_shape = #ttcore<local_shape local_shape = tensor<1152xf32>>, ttcore.shard_status = #ttcore.shard_status<unsharded>, ttir.name = "L__self___bracket_core_paligemma_with_expert_paligemma_model_vision_tower_vision_model_encoder_layers_20_layer_norm2.weight"} loc("p206.1638"), %arg207: tensor<1152xf32> {ttcore.argument_type = #ttcore.argument_type<parameter>, ttcore.local_shape = #ttcore<local_shape local_shape = tensor<1152xf32>>, ttcore.shard_status = #ttcore.shard_status<unsharded>, ttir.name = "L__self___bracket_core_paligemma_with_expert_paligemma_model_vision_tower_vision_model_encoder_layers_20_self_attn_out_proj.bias"} loc("p207.1647"), %arg208: tensor<1152x1152xf32> {ttcore.argument_type = #ttcore.argument_type<parameter>, ttcore.local_shape = #ttcore<local_shape local_shape = tensor<1152x1152xf32>>, ttcore.shard_status = #ttcore.shard_status<unsharded>, ttir.name = "L__self___bracket_core_paligemma_with_expert_paligemma_model_vision_tower_vision_model_encoder_layers_20_self_attn_out_proj.weight"} loc("p208.1651"), %arg209: tensor<1152xf32> {ttcore.argument_type = #ttcore.argument_type<parameter>, ttcore.local_shape = #ttcore<local_shape local_shape = tensor<1152xf32>>, ttcore.shard_status = #ttcore.shard_status<unsharded>, ttir.name = "L__self___bracket_core_paligemma_with_expert_paligemma_model_vision_tower_vision_model_encoder_layers_20_self_attn_v_proj.bias"} loc("p209.1657"), %arg210: tensor<1152x1152xf32> {ttcore.argument_type = #ttcore.argument_type<parameter>, ttcore.local_shape = #ttcore<local_shape local_shape = tensor<1152x1152xf32>>, ttcore.shard_status = #ttcore.shard_status<unsharded>, ttir.name = "L__self___bracket_core_paligemma_with_expert_paligemma_model_vision_tower_vision_model_encoder_layers_20_self_attn_v_proj.weight"} loc("p210.1661"), %arg211: tensor<1152xf32> {ttcore.argument_type = #ttcore.argument_type<parameter>, ttcore.local_shape = #ttcore<local_shape local_shape = tensor<1152xf32>>, ttcore.shard_status = #ttcore.shard_status<unsharded>, ttir.name = "L__self___bracket_core_paligemma_with_expert_paligemma_model_vision_tower_vision_model_encoder_layers_20_layer_norm1.bias"} loc("p211.1667"), %arg212: tensor<1152xf32> {ttcore.argument_type = #ttcore.argument_type<parameter>, ttcore.local_shape = #ttcore<local_shape local_shape = tensor<1152xf32>>, ttcore.shard_status = #ttcore.shard_status<unsharded>, ttir.name = "L__self___bracket_core_paligemma_with_expert_paligemma_model_vision_tower_vision_model_encoder_layers_20_layer_norm1.weight"} loc("p212.1672"), %arg213: tensor<1152xf32> {ttcore.argument_type = #ttcore.argument_type<parameter>, ttcore.local_shape = #ttcore<local_shape local_shape = tensor<1152xf32>>, ttcore.shard_status = #ttcore.shard_status<unsharded>, ttir.name = "L__self___bracket_core_paligemma_with_expert_paligemma_model_vision_tower_vision_model_encoder_layers_19_mlp_fc2.bias"} loc("p213.1681"), %arg214: tensor<1152x4304xf32> {ttcore.argument_type = #ttcore.argument_type<parameter>, ttcore.local_shape = #ttcore<local_shape local_shape = tensor<1152x4304xf32>>, ttcore.shard_status = #ttcore.shard_status<unsharded>, ttir.name = "L__self___bracket_core_paligemma_with_expert_paligemma_model_vision_tower_vision_model_encoder_layers_19_mlp_fc2.weight"} loc("p214.1685"), %arg215: tensor<4304xf32> {ttcore.argument_type = #ttcore.argument_type<parameter>, ttcore.local_shape = #ttcore<local_shape local_shape = tensor<4304xf32>>, ttcore.shard_status = #ttcore.shard_status<unsharded>, ttir.name = "L__self___bracket_core_paligemma_with_expert_paligemma_model_vision_tower_vision_model_encoder_layers_19_mlp_fc1.bias"} loc("p215.1693"), %arg216: tensor<4304x1152xf32> {ttcore.argument_type = #ttcore.argument_type<parameter>, ttcore.local_shape = #ttcore<local_shape local_shape = tensor<4304x1152xf32>>, ttcore.shard_status = #ttcore.shard_status<unsharded>, ttir.name = "L__self___bracket_core_paligemma_with_expert_paligemma_model_vision_tower_vision_model_encoder_layers_19_mlp_fc1.weight"} loc("p216.1697"), %arg217: tensor<1152xf32> {ttcore.argument_type = #ttcore.argument_type<parameter>, ttcore.local_shape = #ttcore<local_shape local_shape = tensor<1152xf32>>, ttcore.shard_status = #ttcore.shard_status<unsharded>, ttir.name = "L__self___bracket_core_paligemma_with_expert_paligemma_model_vision_tower_vision_model_encoder_layers_19_layer_norm2.bias"} loc("p217.1703"), %arg218: tensor<1152xf32> {ttcore.argument_type = #ttcore.argument_type<parameter>, ttcore.local_shape = #ttcore<local_shape local_shape = tensor<1152xf32>>, ttcore.shard_status = #ttcore.shard_status<unsharded>, ttir.name = "L__self___bracket_core_paligemma_with_expert_paligemma_model_vision_tower_vision_model_encoder_layers_19_layer_norm2.weight"} loc("p218.1708"), %arg219: tensor<1152xf32> {ttcore.argument_type = #ttcore.argument_type<parameter>, ttcore.local_shape = #ttcore<local_shape local_shape = tensor<1152xf32>>, ttcore.shard_status = #ttcore.shard_status<unsharded>, ttir.name = "L__self___bracket_core_paligemma_with_expert_paligemma_model_vision_tower_vision_model_encoder_layers_19_self_attn_out_proj.bias"} loc("p219.1717"), %arg220: tensor<1152x1152xf32> {ttcore.argument_type = #ttcore.argument_type<parameter>, ttcore.local_shape = #ttcore<local_shape local_shape = tensor<1152x1152xf32>>, ttcore.shard_status = #ttcore.shard_status<unsharded>, ttir.name = "L__self___bracket_core_paligemma_with_expert_paligemma_model_vision_tower_vision_model_encoder_layers_19_self_attn_out_proj.weight"} loc("p220.1721"), %arg221: tensor<1152xf32> {ttcore.argument_type = #ttcore.argument_type<parameter>, ttcore.local_shape = #ttcore<local_shape local_shape = tensor<1152xf32>>, ttcore.shard_status = #ttcore.shard_status<unsharded>, ttir.name = "L__self___bracket_core_paligemma_with_expert_paligemma_model_vision_tower_vision_model_encoder_layers_19_self_attn_v_proj.bias"} loc("p221.1727"), %arg222: tensor<1152x1152xf32> {ttcore.argument_type = #ttcore.argument_type<parameter>, ttcore.local_shape = #ttcore<local_shape local_shape = tensor<1152x1152xf32>>, ttcore.shard_status = #ttcore.shard_status<unsharded>, ttir.name = "L__self___bracket_core_paligemma_with_expert_paligemma_model_vision_tower_vision_model_encoder_layers_19_self_attn_v_proj.weight"} loc("p222.1731"), %arg223: tensor<1152xf32> {ttcore.argument_type = #ttcore.argument_type<parameter>, ttcore.local_shape = #ttcore<local_shape local_shape = tensor<1152xf32>>, ttcore.shard_status = #ttcore.shard_status<unsharded>, ttir.name = "L__self___bracket_core_paligemma_with_expert_paligemma_model_vision_tower_vision_model_encoder_layers_19_layer_norm1.bias"} loc("p223.1737"), %arg224: tensor<1152xf32> {ttcore.argument_type = #ttcore.argument_type<parameter>, ttcore.local_shape = #ttcore<local_shape local_shape = tensor<1152xf32>>, ttcore.shard_status = #ttcore.shard_status<unsharded>, ttir.name = "L__self___bracket_core_paligemma_with_expert_paligemma_model_vision_tower_vision_model_encoder_layers_19_layer_norm1.weight"} loc("p224.1742"), %arg225: tensor<1152xf32> {ttcore.argument_type = #ttcore.argument_type<parameter>, ttcore.local_shape = #ttcore<local_shape local_shape = tensor<1152xf32>>, ttcore.shard_status = #ttcore.shard_status<unsharded>, ttir.name = "L__self___bracket_core_paligemma_with_expert_paligemma_model_vision_tower_vision_model_encoder_layers_18_mlp_fc2.bias"} loc("p225.1751"), %arg226: tensor<1152x4304xf32> {ttcore.argument_type = #ttcore.argument_type<parameter>, ttcore.local_shape = #ttcore<local_shape local_shape = tensor<1152x4304xf32>>, ttcore.shard_status = #ttcore.shard_status<unsharded>, ttir.name = "L__self___bracket_core_paligemma_with_expert_paligemma_model_vision_tower_vision_model_encoder_layers_18_mlp_fc2.weight"} loc("p226.1755"), %arg227: tensor<4304xf32> {ttcore.argument_type = #ttcore.argument_type<parameter>, ttcore.local_shape = #ttcore<local_shape local_shape = tensor<4304xf32>>, ttcore.shard_status = #ttcore.shard_status<unsharded>, ttir.name = "L__self___bracket_core_paligemma_with_expert_paligemma_model_vision_tower_vision_model_encoder_layers_18_mlp_fc1.bias"} loc("p227.1763"), %arg228: tensor<4304x1152xf32> {ttcore.argument_type = #ttcore.argument_type<parameter>, ttcore.local_shape = #ttcore<local_shape local_shape = tensor<4304x1152xf32>>, ttcore.shard_status = #ttcore.shard_status<unsharded>, ttir.name = "L__self___bracket_core_paligemma_with_expert_paligemma_model_vision_tower_vision_model_encoder_layers_18_mlp_fc1.weight"} loc("p228.1767"), %arg229: tensor<1152xf32> {ttcore.argument_type = #ttcore.argument_type<parameter>, ttcore.local_shape = #ttcore<local_shape local_shape = tensor<1152xf32>>, ttcore.shard_status = #ttcore.shard_status<unsharded>, ttir.name = "L__self___bracket_core_paligemma_with_expert_paligemma_model_vision_tower_vision_model_encoder_layers_18_layer_norm2.bias"} loc("p229.1773"), %arg230: tensor<1152xf32> {ttcore.argument_type = #ttcore.argument_type<parameter>, ttcore.local_shape = #ttcore<local_shape local_shape = tensor<1152xf32>>, ttcore.shard_status = #ttcore.shard_status<unsharded>, ttir.name = "L__self___bracket_core_paligemma_with_expert_paligemma_model_vision_tower_vision_model_encoder_layers_18_layer_norm2.weight"} loc("p230.1778"), %arg231: tensor<1152xf32> {ttcore.argument_type = #ttcore.argument_type<parameter>, ttcore.local_shape = #ttcore<local_shape local_shape = tensor<1152xf32>>, ttcore.shard_status = #ttcore.shard_status<unsharded>, ttir.name = "L__self___bracket_core_paligemma_with_expert_paligemma_model_vision_tower_vision_model_encoder_layers_18_self_attn_out_proj.bias"} loc("p231.1787"), %arg232: tensor<1152x1152xf32> {ttcore.argument_type = #ttcore.argument_type<parameter>, ttcore.local_shape = #ttcore<local_shape local_shape = tensor<1152x1152xf32>>, ttcore.shard_status = #ttcore.shard_status<unsharded>, ttir.name = "L__self___bracket_core_paligemma_with_expert_paligemma_model_vision_tower_vision_model_encoder_layers_18_self_attn_out_proj.weight"} loc("p232.1791"), %arg233: tensor<1152xf32> {ttcore.argument_type = #ttcore.argument_type<parameter>, ttcore.local_shape = #ttcore<local_shape local_shape = tensor<1152xf32>>, ttcore.shard_status = #ttcore.shard_status<unsharded>, ttir.name = "L__self___bracket_core_paligemma_with_expert_paligemma_model_vision_tower_vision_model_encoder_layers_18_self_attn_v_proj.bias"} loc("p233.1797"), %arg234: tensor<1152x1152xf32> {ttcore.argument_type = #ttcore.argument_type<parameter>, ttcore.local_shape = #ttcore<local_shape local_shape = tensor<1152x1152xf32>>, ttcore.shard_status = #ttcore.shard_status<unsharded>, ttir.name = "L__self___bracket_core_paligemma_with_expert_paligemma_model_vision_tower_vision_model_encoder_layers_18_self_attn_v_proj.weight"} loc("p234.1801"), %arg235: tensor<1152xf32> {ttcore.argument_type = #ttcore.argument_type<parameter>, ttcore.local_shape = #ttcore<local_shape local_shape = tensor<1152xf32>>, ttcore.shard_status = #ttcore.shard_status<unsharded>, ttir.name = "L__self___bracket_core_paligemma_with_expert_paligemma_model_vision_tower_vision_model_encoder_layers_18_layer_norm1.bias"} loc("p235.1807"), %arg236: tensor<1152xf32> {ttcore.argument_type = #ttcore.argument_type<parameter>, ttcore.local_shape = #ttcore<local_shape local_shape = tensor<1152xf32>>, ttcore.shard_status = #ttcore.shard_status<unsharded>, ttir.name = "L__self___bracket_core_paligemma_with_expert_paligemma_model_vision_tower_vision_model_encoder_layers_18_layer_norm1.weight"} loc("p236.1812"), %arg237: tensor<1152xf32> {ttcore.argument_type = #ttcore.argument_type<parameter>, ttcore.local_shape = #ttcore<local_shape local_shape = tensor<1152xf32>>, ttcore.shard_status = #ttcore.shard_status<unsharded>, ttir.name = "L__self___bracket_core_paligemma_with_expert_paligemma_model_vision_tower_vision_model_encoder_layers_17_mlp_fc2.bias"} loc("p237.1821"), %arg238: tensor<1152x4304xf32> {ttcore.argument_type = #ttcore.argument_type<parameter>, ttcore.local_shape = #ttcore<local_shape local_shape = tensor<1152x4304xf32>>, ttcore.shard_status = #ttcore.shard_status<unsharded>, ttir.name = "L__self___bracket_core_paligemma_with_expert_paligemma_model_vision_tower_vision_model_encoder_layers_17_mlp_fc2.weight"} loc("p238.1825"), %arg239: tensor<4304xf32> {ttcore.argument_type = #ttcore.argument_type<parameter>, ttcore.local_shape = #ttcore<local_shape local_shape = tensor<4304xf32>>, ttcore.shard_status = #ttcore.shard_status<unsharded>, ttir.name = "L__self___bracket_core_paligemma_with_expert_paligemma_model_vision_tower_vision_model_encoder_layers_17_mlp_fc1.bias"} loc("p239.1833"), %arg240: tensor<4304x1152xf32> {ttcore.argument_type = #ttcore.argument_type<parameter>, ttcore.local_shape = #ttcore<local_shape local_shape = tensor<4304x1152xf32>>, ttcore.shard_status = #ttcore.shard_status<unsharded>, ttir.name = "L__self___bracket_core_paligemma_with_expert_paligemma_model_vision_tower_vision_model_encoder_layers_17_mlp_fc1.weight"} loc("p240.1837"), %arg241: tensor<1152xf32> {ttcore.argument_type = #ttcore.argument_type<parameter>, ttcore.local_shape = #ttcore<local_shape local_shape = tensor<1152xf32>>, ttcore.shard_status = #ttcore.shard_status<unsharded>, ttir.name = "L__self___bracket_core_paligemma_with_expert_paligemma_model_vision_tower_vision_model_encoder_layers_17_layer_norm2.bias"} loc("p241.1843"), %arg242: tensor<1152xf32> {ttcore.argument_type = #ttcore.argument_type<parameter>, ttcore.local_shape = #ttcore<local_shape local_shape = tensor<1152xf32>>, ttcore.shard_status = #ttcore.shard_status<unsharded>, ttir.name = "L__self___bracket_core_paligemma_with_expert_paligemma_model_vision_tower_vision_model_encoder_layers_17_layer_norm2.weight"} loc("p242.1848"), %arg243: tensor<1152xf32> {ttcore.argument_type = #ttcore.argument_type<parameter>, ttcore.local_shape = #ttcore<local_shape local_shape = tensor<1152xf32>>, ttcore.shard_status = #ttcore.shard_status<unsharded>, ttir.name = "L__self___bracket_core_paligemma_with_expert_paligemma_model_vision_tower_vision_model_encoder_layers_17_self_attn_out_proj.bias"} loc("p243.1857"), %arg244: tensor<1152x1152xf32> {ttcore.argument_type = #ttcore.argument_type<parameter>, ttcore.local_shape = #ttcore<local_shape local_shape = tensor<1152x1152xf32>>, ttcore.shard_status = #ttcore.shard_status<unsharded>, ttir.name = "L__self___bracket_core_paligemma_with_expert_paligemma_model_vision_tower_vision_model_encoder_layers_17_self_attn_out_proj.weight"} loc("p244.1861"), %arg245: tensor<1152xf32> {ttcore.argument_type = #ttcore.argument_type<parameter>, ttcore.local_shape = #ttcore<local_shape local_shape = tensor<1152xf32>>, ttcore.shard_status = #ttcore.shard_status<unsharded>, ttir.name = "L__self___bracket_core_paligemma_with_expert_paligemma_model_vision_tower_vision_model_encoder_layers_17_self_attn_v_proj.bias"} loc("p245.1867"), %arg246: tensor<1152x1152xf32> {ttcore.argument_type = #ttcore.argument_type<parameter>, ttcore.local_shape = #ttcore<local_shape local_shape = tensor<1152x1152xf32>>, ttcore.shard_status = #ttcore.shard_status<unsharded>, ttir.name = "L__self___bracket_core_paligemma_with_expert_paligemma_model_vision_tower_vision_model_encoder_layers_17_self_attn_v_proj.weight"} loc("p246.1871"), %arg247: tensor<1152xf32> {ttcore.argument_type = #ttcore.argument_type<parameter>, ttcore.local_shape = #ttcore<local_shape local_shape = tensor<1152xf32>>, ttcore.shard_status = #ttcore.shard_status<unsharded>, ttir.name = "L__self___bracket_core_paligemma_with_expert_paligemma_model_vision_tower_vision_model_encoder_layers_17_layer_norm1.bias"} loc("p247.1877"), %arg248: tensor<1152xf32> {ttcore.argument_type = #ttcore.argument_type<parameter>, ttcore.local_shape = #ttcore<local_shape local_shape = tensor<1152xf32>>, ttcore.shard_status = #ttcore.shard_status<unsharded>, ttir.name = "L__self___bracket_core_paligemma_with_expert_paligemma_model_vision_tower_vision_model_encoder_layers_17_layer_norm1.weight"} loc("p248.1882"), %arg249: tensor<1152xf32> {ttcore.argument_type = #ttcore.argument_type<parameter>, ttcore.local_shape = #ttcore<local_shape local_shape = tensor<1152xf32>>, ttcore.shard_status = #ttcore.shard_status<unsharded>, ttir.name = "L__self___bracket_core_paligemma_with_expert_paligemma_model_vision_tower_vision_model_encoder_layers_16_mlp_fc2.bias"} loc("p249.1891"), %arg250: tensor<1152x4304xf32> {ttcore.argument_type = #ttcore.argument_type<parameter>, ttcore.local_shape = #ttcore<local_shape local_shape = tensor<1152x4304xf32>>, ttcore.shard_status = #ttcore.shard_status<unsharded>, ttir.name = "L__self___bracket_core_paligemma_with_expert_paligemma_model_vision_tower_vision_model_encoder_layers_16_mlp_fc2.weight"} loc("p250.1895"), %arg251: tensor<4304xf32> {ttcore.argument_type = #ttcore.argument_type<parameter>, ttcore.local_shape = #ttcore<local_shape local_shape = tensor<4304xf32>>, ttcore.shard_status = #ttcore.shard_status<unsharded>, ttir.name = "L__self___bracket_core_paligemma_with_expert_paligemma_model_vision_tower_vision_model_encoder_layers_16_mlp_fc1.bias"} loc("p251.1903"), %arg252: tensor<4304x1152xf32> {ttcore.argument_type = #ttcore.argument_type<parameter>, ttcore.local_shape = #ttcore<local_shape local_shape = tensor<4304x1152xf32>>, ttcore.shard_status = #ttcore.shard_status<unsharded>, ttir.name = "L__self___bracket_core_paligemma_with_expert_paligemma_model_vision_tower_vision_model_encoder_layers_16_mlp_fc1.weight"} loc("p252.1907"), %arg253: tensor<1152xf32> {ttcore.argument_type = #ttcore.argument_type<parameter>, ttcore.local_shape = #ttcore<local_shape local_shape = tensor<1152xf32>>, ttcore.shard_status = #ttcore.shard_status<unsharded>, ttir.name = "L__self___bracket_core_paligemma_with_expert_paligemma_model_vision_tower_vision_model_encoder_layers_16_layer_norm2.bias"} loc("p253.1913"), %arg254: tensor<1152xf32> {ttcore.argument_type = #ttcore.argument_type<parameter>, ttcore.local_shape = #ttcore<local_shape local_shape = tensor<1152xf32>>, ttcore.shard_status = #ttcore.shard_status<unsharded>, ttir.name = "L__self___bracket_core_paligemma_with_expert_paligemma_model_vision_tower_vision_model_encoder_layers_16_layer_norm2.weight"} loc("p254.1918"), %arg255: tensor<1152xf32> {ttcore.argument_type = #ttcore.argument_type<parameter>, ttcore.local_shape = #ttcore<local_shape local_shape = tensor<1152xf32>>, ttcore.shard_status = #ttcore.shard_status<unsharded>, ttir.name = "L__self___bracket_core_paligemma_with_expert_paligemma_model_vision_tower_vision_model_encoder_layers_16_self_attn_out_proj.bias"} loc("p255.1927"), %arg256: tensor<1152x1152xf32> {ttcore.argument_type = #ttcore.argument_type<parameter>, ttcore.local_shape = #ttcore<local_shape local_shape = tensor<1152x1152xf32>>, ttcore.shard_status = #ttcore.shard_status<unsharded>, ttir.name = "L__self___bracket_core_paligemma_with_expert_paligemma_model_vision_tower_vision_model_encoder_layers_16_self_attn_out_proj.weight"} loc("p256.1931"), %arg257: tensor<1152xf32> {ttcore.argument_type = #ttcore.argument_type<parameter>, ttcore.local_shape = #ttcore<local_shape local_shape = tensor<1152xf32>>, ttcore.shard_status = #ttcore.shard_status<unsharded>, ttir.name = "L__self___bracket_core_paligemma_with_expert_paligemma_model_vision_tower_vision_model_encoder_layers_16_self_attn_v_proj.bias"} loc("p257.1937"), %arg258: tensor<1152x1152xf32> {ttcore.argument_type = #ttcore.argument_type<parameter>, ttcore.local_shape = #ttcore<local_shape local_shape = tensor<1152x1152xf32>>, ttcore.shard_status = #ttcore.shard_status<unsharded>, ttir.name = "L__self___bracket_core_paligemma_with_expert_paligemma_model_vision_tower_vision_model_encoder_layers_16_self_attn_v_proj.weight"} loc("p258.1941"), %arg259: tensor<1152xf32> {ttcore.argument_type = #ttcore.argument_type<parameter>, ttcore.local_shape = #ttcore<local_shape local_shape = tensor<1152xf32>>, ttcore.shard_status = #ttcore.shard_status<unsharded>, ttir.name = "L__self___bracket_core_paligemma_with_expert_paligemma_model_vision_tower_vision_model_encoder_layers_16_layer_norm1.bias"} loc("p259.1947"), %arg260: tensor<1152xf32> {ttcore.argument_type = #ttcore.argument_type<parameter>, ttcore.local_shape = #ttcore<local_shape local_shape = tensor<1152xf32>>, ttcore.shard_status = #ttcore.shard_status<unsharded>, ttir.name = "L__self___bracket_core_paligemma_with_expert_paligemma_model_vision_tower_vision_model_encoder_layers_16_layer_norm1.weight"} loc("p260.1952"), %arg261: tensor<1152xf32> {ttcore.argument_type = #ttcore.argument_type<parameter>, ttcore.local_shape = #ttcore<local_shape local_shape = tensor<1152xf32>>, ttcore.shard_status = #ttcore.shard_status<unsharded>, ttir.name = "L__self___bracket_core_paligemma_with_expert_paligemma_model_vision_tower_vision_model_encoder_layers_15_mlp_fc2.bias"} loc("p261.1961"), %arg262: tensor<1152x4304xf32> {ttcore.argument_type = #ttcore.argument_type<parameter>, ttcore.local_shape = #ttcore<local_shape local_shape = tensor<1152x4304xf32>>, ttcore.shard_status = #ttcore.shard_status<unsharded>, ttir.name = "L__self___bracket_core_paligemma_with_expert_paligemma_model_vision_tower_vision_model_encoder_layers_15_mlp_fc2.weight"} loc("p262.1965"), %arg263: tensor<4304xf32> {ttcore.argument_type = #ttcore.argument_type<parameter>, ttcore.local_shape = #ttcore<local_shape local_shape = tensor<4304xf32>>, ttcore.shard_status = #ttcore.shard_status<unsharded>, ttir.name = "L__self___bracket_core_paligemma_with_expert_paligemma_model_vision_tower_vision_model_encoder_layers_15_mlp_fc1.bias"} loc("p263.1973"), %arg264: tensor<4304x1152xf32> {ttcore.argument_type = #ttcore.argument_type<parameter>, ttcore.local_shape = #ttcore<local_shape local_shape = tensor<4304x1152xf32>>, ttcore.shard_status = #ttcore.shard_status<unsharded>, ttir.name = "L__self___bracket_core_paligemma_with_expert_paligemma_model_vision_tower_vision_model_encoder_layers_15_mlp_fc1.weight"} loc("p264.1977"), %arg265: tensor<1152xf32> {ttcore.argument_type = #ttcore.argument_type<parameter>, ttcore.local_shape = #ttcore<local_shape local_shape = tensor<1152xf32>>, ttcore.shard_status = #ttcore.shard_status<unsharded>, ttir.name = "L__self___bracket_core_paligemma_with_expert_paligemma_model_vision_tower_vision_model_encoder_layers_15_layer_norm2.bias"} loc("p265.1983"), %arg266: tensor<1152xf32> {ttcore.argument_type = #ttcore.argument_type<parameter>, ttcore.local_shape = #ttcore<local_shape local_shape = tensor<1152xf32>>, ttcore.shard_status = #ttcore.shard_status<unsharded>, ttir.name = "L__self___bracket_core_paligemma_with_expert_paligemma_model_vision_tower_vision_model_encoder_layers_15_layer_norm2.weight"} loc("p266.1988"), %arg267: tensor<1152xf32> {ttcore.argument_type = #ttcore.argument_type<parameter>, ttcore.local_shape = #ttcore<local_shape local_shape = tensor<1152xf32>>, ttcore.shard_status = #ttcore.shard_status<unsharded>, ttir.name = "L__self___bracket_core_paligemma_with_expert_paligemma_model_vision_tower_vision_model_encoder_layers_15_self_attn_out_proj.bias"} loc("p267.1997"), %arg268: tensor<1152x1152xf32> {ttcore.argument_type = #ttcore.argument_type<parameter>, ttcore.local_shape = #ttcore<local_shape local_shape = tensor<1152x1152xf32>>, ttcore.shard_status = #ttcore.shard_status<unsharded>, ttir.name = "L__self___bracket_core_paligemma_with_expert_paligemma_model_vision_tower_vision_model_encoder_layers_15_self_attn_out_proj.weight"} loc("p268.2001"), %arg269: tensor<1152xf32> {ttcore.argument_type = #ttcore.argument_type<parameter>, ttcore.local_shape = #ttcore<local_shape local_shape = tensor<1152xf32>>, ttcore.shard_status = #ttcore.shard_status<unsharded>, ttir.name = "L__self___bracket_core_paligemma_with_expert_paligemma_model_vision_tower_vision_model_encoder_layers_15_self_attn_v_proj.bias"} loc("p269.2007"), %arg270: tensor<1152x1152xf32> {ttcore.argument_type = #ttcore.argument_type<parameter>, ttcore.local_shape = #ttcore<local_shape local_shape = tensor<1152x1152xf32>>, ttcore.shard_status = #ttcore.shard_status<unsharded>, ttir.name = "L__self___bracket_core_paligemma_with_expert_paligemma_model_vision_tower_vision_model_encoder_layers_15_self_attn_v_proj.weight"} loc("p270.2011"), %arg271: tensor<1152xf32> {ttcore.argument_type = #ttcore.argument_type<parameter>, ttcore.local_shape = #ttcore<local_shape local_shape = tensor<1152xf32>>, ttcore.shard_status = #ttcore.shard_status<unsharded>, ttir.name = "L__self___bracket_core_paligemma_with_expert_paligemma_model_vision_tower_vision_model_encoder_layers_15_layer_norm1.bias"} loc("p271.2017"), %arg272: tensor<1152xf32> {ttcore.argument_type = #ttcore.argument_type<parameter>, ttcore.local_shape = #ttcore<local_shape local_shape = tensor<1152xf32>>, ttcore.shard_status = #ttcore.shard_status<unsharded>, ttir.name = "L__self___bracket_core_paligemma_with_expert_paligemma_model_vision_tower_vision_model_encoder_layers_15_layer_norm1.weight"} loc("p272.2022"), %arg273: tensor<1152xf32> {ttcore.argument_type = #ttcore.argument_type<parameter>, ttcore.local_shape = #ttcore<local_shape local_shape = tensor<1152xf32>>, ttcore.shard_status = #ttcore.shard_status<unsharded>, ttir.name = "L__self___bracket_core_paligemma_with_expert_paligemma_model_vision_tower_vision_model_encoder_layers_14_mlp_fc2.bias"} loc("p273.2031"), %arg274: tensor<1152x4304xf32> {ttcore.argument_type = #ttcore.argument_type<parameter>, ttcore.local_shape = #ttcore<local_shape local_shape = tensor<1152x4304xf32>>, ttcore.shard_status = #ttcore.shard_status<unsharded>, ttir.name = "L__self___bracket_core_paligemma_with_expert_paligemma_model_vision_tower_vision_model_encoder_layers_14_mlp_fc2.weight"} loc("p274.2035"), %arg275: tensor<4304xf32> {ttcore.argument_type = #ttcore.argument_type<parameter>, ttcore.local_shape = #ttcore<local_shape local_shape = tensor<4304xf32>>, ttcore.shard_status = #ttcore.shard_status<unsharded>, ttir.name = "L__self___bracket_core_paligemma_with_expert_paligemma_model_vision_tower_vision_model_encoder_layers_14_mlp_fc1.bias"} loc("p275.2043"), %arg276: tensor<4304x1152xf32> {ttcore.argument_type = #ttcore.argument_type<parameter>, ttcore.local_shape = #ttcore<local_shape local_shape = tensor<4304x1152xf32>>, ttcore.shard_status = #ttcore.shard_status<unsharded>, ttir.name = "L__self___bracket_core_paligemma_with_expert_paligemma_model_vision_tower_vision_model_encoder_layers_14_mlp_fc1.weight"} loc("p276.2047"), %arg277: tensor<1152xf32> {ttcore.argument_type = #ttcore.argument_type<parameter>, ttcore.local_shape = #ttcore<local_shape local_shape = tensor<1152xf32>>, ttcore.shard_status = #ttcore.shard_status<unsharded>, ttir.name = "L__self___bracket_core_paligemma_with_expert_paligemma_model_vision_tower_vision_model_encoder_layers_14_layer_norm2.bias"} loc("p277.2053"), %arg278: tensor<1152xf32> {ttcore.argument_type = #ttcore.argument_type<parameter>, ttcore.local_shape = #ttcore<local_shape local_shape = tensor<1152xf32>>, ttcore.shard_status = #ttcore.shard_status<unsharded>, ttir.name = "L__self___bracket_core_paligemma_with_expert_paligemma_model_vision_tower_vision_model_encoder_layers_14_layer_norm2.weight"} loc("p278.2058"), %arg279: tensor<1152xf32> {ttcore.argument_type = #ttcore.argument_type<parameter>, ttcore.local_shape = #ttcore<local_shape local_shape = tensor<1152xf32>>, ttcore.shard_status = #ttcore.shard_status<unsharded>, ttir.name = "L__self___bracket_core_paligemma_with_expert_paligemma_model_vision_tower_vision_model_encoder_layers_14_self_attn_out_proj.bias"} loc("p279.2067"), %arg280: tensor<1152x1152xf32> {ttcore.argument_type = #ttcore.argument_type<parameter>, ttcore.local_shape = #ttcore<local_shape local_shape = tensor<1152x1152xf32>>, ttcore.shard_status = #ttcore.shard_status<unsharded>, ttir.name = "L__self___bracket_core_paligemma_with_expert_paligemma_model_vision_tower_vision_model_encoder_layers_14_self_attn_out_proj.weight"} loc("p280.2071"), %arg281: tensor<1152xf32> {ttcore.argument_type = #ttcore.argument_type<parameter>, ttcore.local_shape = #ttcore<local_shape local_shape = tensor<1152xf32>>, ttcore.shard_status = #ttcore.shard_status<unsharded>, ttir.name = "L__self___bracket_core_paligemma_with_expert_paligemma_model_vision_tower_vision_model_encoder_layers_14_self_attn_v_proj.bias"} loc("p281.2077"), %arg282: tensor<1152x1152xf32> {ttcore.argument_type = #ttcore.argument_type<parameter>, ttcore.local_shape = #ttcore<local_shape local_shape = tensor<1152x1152xf32>>, ttcore.shard_status = #ttcore.shard_status<unsharded>, ttir.name = "L__self___bracket_core_paligemma_with_expert_paligemma_model_vision_tower_vision_model_encoder_layers_14_self_attn_v_proj.weight"} loc("p282.2081"), %arg283: tensor<1152xf32> {ttcore.argument_type = #ttcore.argument_type<parameter>, ttcore.local_shape = #ttcore<local_shape local_shape = tensor<1152xf32>>, ttcore.shard_status = #ttcore.shard_status<unsharded>, ttir.name = "L__self___bracket_core_paligemma_with_expert_paligemma_model_vision_tower_vision_model_encoder_layers_14_layer_norm1.bias"} loc("p283.2087"), %arg284: tensor<1152xf32> {ttcore.argument_type = #ttcore.argument_type<parameter>, ttcore.local_shape = #ttcore<local_shape local_shape = tensor<1152xf32>>, ttcore.shard_status = #ttcore.shard_status<unsharded>, ttir.name = "L__self___bracket_core_paligemma_with_expert_paligemma_model_vision_tower_vision_model_encoder_layers_14_layer_norm1.weight"} loc("p284.2092"), %arg285: tensor<1152xf32> {ttcore.argument_type = #ttcore.argument_type<parameter>, ttcore.local_shape = #ttcore<local_shape local_shape = tensor<1152xf32>>, ttcore.shard_status = #ttcore.shard_status<unsharded>, ttir.name = "L__self___bracket_core_paligemma_with_expert_paligemma_model_vision_tower_vision_model_encoder_layers_13_mlp_fc2.bias"} loc("p285.2101"), %arg286: tensor<1152x4304xf32> {ttcore.argument_type = #ttcore.argument_type<parameter>, ttcore.local_shape = #ttcore<local_shape local_shape = tensor<1152x4304xf32>>, ttcore.shard_status = #ttcore.shard_status<unsharded>, ttir.name = "L__self___bracket_core_paligemma_with_expert_paligemma_model_vision_tower_vision_model_encoder_layers_13_mlp_fc2.weight"} loc("p286.2105"), %arg287: tensor<4304xf32> {ttcore.argument_type = #ttcore.argument_type<parameter>, ttcore.local_shape = #ttcore<local_shape local_shape = tensor<4304xf32>>, ttcore.shard_status = #ttcore.shard_status<unsharded>, ttir.name = "L__self___bracket_core_paligemma_with_expert_paligemma_model_vision_tower_vision_model_encoder_layers_13_mlp_fc1.bias"} loc("p287.2113"), %arg288: tensor<4304x1152xf32> {ttcore.argument_type = #ttcore.argument_type<parameter>, ttcore.local_shape = #ttcore<local_shape local_shape = tensor<4304x1152xf32>>, ttcore.shard_status = #ttcore.shard_status<unsharded>, ttir.name = "L__self___bracket_core_paligemma_with_expert_paligemma_model_vision_tower_vision_model_encoder_layers_13_mlp_fc1.weight"} loc("p288.2117"), %arg289: tensor<1152xf32> {ttcore.argument_type = #ttcore.argument_type<parameter>, ttcore.local_shape = #ttcore<local_shape local_shape = tensor<1152xf32>>, ttcore.shard_status = #ttcore.shard_status<unsharded>, ttir.name = "L__self___bracket_core_paligemma_with_expert_paligemma_model_vision_tower_vision_model_encoder_layers_13_layer_norm2.bias"} loc("p289.2123"), %arg290: tensor<1152xf32> {ttcore.argument_type = #ttcore.argument_type<parameter>, ttcore.local_shape = #ttcore<local_shape local_shape = tensor<1152xf32>>, ttcore.shard_status = #ttcore.shard_status<unsharded>, ttir.name = "L__self___bracket_core_paligemma_with_expert_paligemma_model_vision_tower_vision_model_encoder_layers_13_layer_norm2.weight"} loc("p290.2128"), %arg291: tensor<1152xf32> {ttcore.argument_type = #ttcore.argument_type<parameter>, ttcore.local_shape = #ttcore<local_shape local_shape = tensor<1152xf32>>, ttcore.shard_status = #ttcore.shard_status<unsharded>, ttir.name = "L__self___bracket_core_paligemma_with_expert_paligemma_model_vision_tower_vision_model_encoder_layers_13_self_attn_out_proj.bias"} loc("p291.2137"), %arg292: tensor<1152x1152xf32> {ttcore.argument_type = #ttcore.argument_type<parameter>, ttcore.local_shape = #ttcore<local_shape local_shape = tensor<1152x1152xf32>>, ttcore.shard_status = #ttcore.shard_status<unsharded>, ttir.name = "L__self___bracket_core_paligemma_with_expert_paligemma_model_vision_tower_vision_model_encoder_layers_13_self_attn_out_proj.weight"} loc("p292.2141"), %arg293: tensor<1152xf32> {ttcore.argument_type = #ttcore.argument_type<parameter>, ttcore.local_shape = #ttcore<local_shape local_shape = tensor<1152xf32>>, ttcore.shard_status = #ttcore.shard_status<unsharded>, ttir.name = "L__self___bracket_core_paligemma_with_expert_paligemma_model_vision_tower_vision_model_encoder_layers_13_self_attn_v_proj.bias"} loc("p293.2147"), %arg294: tensor<1152x1152xf32> {ttcore.argument_type = #ttcore.argument_type<parameter>, ttcore.local_shape = #ttcore<local_shape local_shape = tensor<1152x1152xf32>>, ttcore.shard_status = #ttcore.shard_status<unsharded>, ttir.name = "L__self___bracket_core_paligemma_with_expert_paligemma_model_vision_tower_vision_model_encoder_layers_13_self_attn_v_proj.weight"} loc("p294.2151"), %arg295: tensor<1152xf32> {ttcore.argument_type = #ttcore.argument_type<parameter>, ttcore.local_shape = #ttcore<local_shape local_shape = tensor<1152xf32>>, ttcore.shard_status = #ttcore.shard_status<unsharded>, ttir.name = "L__self___bracket_core_paligemma_with_expert_paligemma_model_vision_tower_vision_model_encoder_layers_13_layer_norm1.bias"} loc("p295.2157"), %arg296: tensor<1152xf32> {ttcore.argument_type = #ttcore.argument_type<parameter>, ttcore.local_shape = #ttcore<local_shape local_shape = tensor<1152xf32>>, ttcore.shard_status = #ttcore.shard_status<unsharded>, ttir.name = "L__self___bracket_core_paligemma_with_expert_paligemma_model_vision_tower_vision_model_encoder_layers_13_layer_norm1.weight"} loc("p296.2162"), %arg297: tensor<1152xf32> {ttcore.argument_type = #ttcore.argument_type<parameter>, ttcore.local_shape = #ttcore<local_shape local_shape = tensor<1152xf32>>, ttcore.shard_status = #ttcore.shard_status<unsharded>, ttir.name = "L__self___bracket_core_paligemma_with_expert_paligemma_model_vision_tower_vision_model_encoder_layers_12_mlp_fc2.bias"} loc("p297.2171"), %arg298: tensor<1152x4304xf32> {ttcore.argument_type = #ttcore.argument_type<parameter>, ttcore.local_shape = #ttcore<local_shape local_shape = tensor<1152x4304xf32>>, ttcore.shard_status = #ttcore.shard_status<unsharded>, ttir.name = "L__self___bracket_core_paligemma_with_expert_paligemma_model_vision_tower_vision_model_encoder_layers_12_mlp_fc2.weight"} loc("p298.2175"), %arg299: tensor<4304xf32> {ttcore.argument_type = #ttcore.argument_type<parameter>, ttcore.local_shape = #ttcore<local_shape local_shape = tensor<4304xf32>>, ttcore.shard_status = #ttcore.shard_status<unsharded>, ttir.name = "L__self___bracket_core_paligemma_with_expert_paligemma_model_vision_tower_vision_model_encoder_layers_12_mlp_fc1.bias"} loc("p299.2183"), %arg300: tensor<4304x1152xf32> {ttcore.argument_type = #ttcore.argument_type<parameter>, ttcore.local_shape = #ttcore<local_shape local_shape = tensor<4304x1152xf32>>, ttcore.shard_status = #ttcore.shard_status<unsharded>, ttir.name = "L__self___bracket_core_paligemma_with_expert_paligemma_model_vision_tower_vision_model_encoder_layers_12_mlp_fc1.weight"} loc("p300.2187"), %arg301: tensor<1152xf32> {ttcore.argument_type = #ttcore.argument_type<parameter>, ttcore.local_shape = #ttcore<local_shape local_shape = tensor<1152xf32>>, ttcore.shard_status = #ttcore.shard_status<unsharded>, ttir.name = "L__self___bracket_core_paligemma_with_expert_paligemma_model_vision_tower_vision_model_encoder_layers_12_layer_norm2.bias"} loc("p301.2193"), %arg302: tensor<1152xf32> {ttcore.argument_type = #ttcore.argument_type<parameter>, ttcore.local_shape = #ttcore<local_shape local_shape = tensor<1152xf32>>, ttcore.shard_status = #ttcore.shard_status<unsharded>, ttir.name = "L__self___bracket_core_paligemma_with_expert_paligemma_model_vision_tower_vision_model_encoder_layers_12_layer_norm2.weight"} loc("p302.2198"), %arg303: tensor<1152xf32> {ttcore.argument_type = #ttcore.argument_type<parameter>, ttcore.local_shape = #ttcore<local_shape local_shape = tensor<1152xf32>>, ttcore.shard_status = #ttcore.shard_status<unsharded>, ttir.name = "L__self___bracket_core_paligemma_with_expert_paligemma_model_vision_tower_vision_model_encoder_layers_12_self_attn_out_proj.bias"} loc("p303.2207"), %arg304: tensor<1152x1152xf32> {ttcore.argument_type = #ttcore.argument_type<parameter>, ttcore.local_shape = #ttcore<local_shape local_shape = tensor<1152x1152xf32>>, ttcore.shard_status = #ttcore.shard_status<unsharded>, ttir.name = "L__self___bracket_core_paligemma_with_expert_paligemma_model_vision_tower_vision_model_encoder_layers_12_self_attn_out_proj.weight"} loc("p304.2211"), %arg305: tensor<1152xf32> {ttcore.argument_type = #ttcore.argument_type<parameter>, ttcore.local_shape = #ttcore<local_shape local_shape = tensor<1152xf32>>, ttcore.shard_status = #ttcore.shard_status<unsharded>, ttir.name = "L__self___bracket_core_paligemma_with_expert_paligemma_model_vision_tower_vision_model_encoder_layers_12_self_attn_v_proj.bias"} loc("p305.2217"), %arg306: tensor<1152x1152xf32> {ttcore.argument_type = #ttcore.argument_type<parameter>, ttcore.local_shape = #ttcore<local_shape local_shape = tensor<1152x1152xf32>>, ttcore.shard_status = #ttcore.shard_status<unsharded>, ttir.name = "L__self___bracket_core_paligemma_with_expert_paligemma_model_vision_tower_vision_model_encoder_layers_12_self_attn_v_proj.weight"} loc("p306.2221"), %arg307: tensor<1152xf32> {ttcore.argument_type = #ttcore.argument_type<parameter>, ttcore.local_shape = #ttcore<local_shape local_shape = tensor<1152xf32>>, ttcore.shard_status = #ttcore.shard_status<unsharded>, ttir.name = "L__self___bracket_core_paligemma_with_expert_paligemma_model_vision_tower_vision_model_encoder_layers_12_layer_norm1.bias"} loc("p307.2227"), %arg308: tensor<1152xf32> {ttcore.argument_type = #ttcore.argument_type<parameter>, ttcore.local_shape = #ttcore<local_shape local_shape = tensor<1152xf32>>, ttcore.shard_status = #ttcore.shard_status<unsharded>, ttir.name = "L__self___bracket_core_paligemma_with_expert_paligemma_model_vision_tower_vision_model_encoder_layers_12_layer_norm1.weight"} loc("p308.2232"), %arg309: tensor<1152xf32> {ttcore.argument_type = #ttcore.argument_type<parameter>, ttcore.local_shape = #ttcore<local_shape local_shape = tensor<1152xf32>>, ttcore.shard_status = #ttcore.shard_status<unsharded>, ttir.name = "L__self___bracket_core_paligemma_with_expert_paligemma_model_vision_tower_vision_model_encoder_layers_11_mlp_fc2.bias"} loc("p309.2241"), %arg310: tensor<1152x4304xf32> {ttcore.argument_type = #ttcore.argument_type<parameter>, ttcore.local_shape = #ttcore<local_shape local_shape = tensor<1152x4304xf32>>, ttcore.shard_status = #ttcore.shard_status<unsharded>, ttir.name = "L__self___bracket_core_paligemma_with_expert_paligemma_model_vision_tower_vision_model_encoder_layers_11_mlp_fc2.weight"} loc("p310.2245"), %arg311: tensor<4304xf32> {ttcore.argument_type = #ttcore.argument_type<parameter>, ttcore.local_shape = #ttcore<local_shape local_shape = tensor<4304xf32>>, ttcore.shard_status = #ttcore.shard_status<unsharded>, ttir.name = "L__self___bracket_core_paligemma_with_expert_paligemma_model_vision_tower_vision_model_encoder_layers_11_mlp_fc1.bias"} loc("p311.2253"), %arg312: tensor<4304x1152xf32> {ttcore.argument_type = #ttcore.argument_type<parameter>, ttcore.local_shape = #ttcore<local_shape local_shape = tensor<4304x1152xf32>>, ttcore.shard_status = #ttcore.shard_status<unsharded>, ttir.name = "L__self___bracket_core_paligemma_with_expert_paligemma_model_vision_tower_vision_model_encoder_layers_11_mlp_fc1.weight"} loc("p312.2257"), %arg313: tensor<1152xf32> {ttcore.argument_type = #ttcore.argument_type<parameter>, ttcore.local_shape = #ttcore<local_shape local_shape = tensor<1152xf32>>, ttcore.shard_status = #ttcore.shard_status<unsharded>, ttir.name = "L__self___bracket_core_paligemma_with_expert_paligemma_model_vision_tower_vision_model_encoder_layers_11_layer_norm2.bias"} loc("p313.2263"), %arg314: tensor<1152xf32> {ttcore.argument_type = #ttcore.argument_type<parameter>, ttcore.local_shape = #ttcore<local_shape local_shape = tensor<1152xf32>>, ttcore.shard_status = #ttcore.shard_status<unsharded>, ttir.name = "L__self___bracket_core_paligemma_with_expert_paligemma_model_vision_tower_vision_model_encoder_layers_11_layer_norm2.weight"} loc("p314.2268"), %arg315: tensor<1152xf32> {ttcore.argument_type = #ttcore.argument_type<parameter>, ttcore.local_shape = #ttcore<local_shape local_shape = tensor<1152xf32>>, ttcore.shard_status = #ttcore.shard_status<unsharded>, ttir.name = "L__self___bracket_core_paligemma_with_expert_paligemma_model_vision_tower_vision_model_encoder_layers_11_self_attn_out_proj.bias"} loc("p315.2277"), %arg316: tensor<1152x1152xf32> {ttcore.argument_type = #ttcore.argument_type<parameter>, ttcore.local_shape = #ttcore<local_shape local_shape = tensor<1152x1152xf32>>, ttcore.shard_status = #ttcore.shard_status<unsharded>, ttir.name = "L__self___bracket_core_paligemma_with_expert_paligemma_model_vision_tower_vision_model_encoder_layers_11_self_attn_out_proj.weight"} loc("p316.2281"), %arg317: tensor<1152xf32> {ttcore.argument_type = #ttcore.argument_type<parameter>, ttcore.local_shape = #ttcore<local_shape local_shape = tensor<1152xf32>>, ttcore.shard_status = #ttcore.shard_status<unsharded>, ttir.name = "L__self___bracket_core_paligemma_with_expert_paligemma_model_vision_tower_vision_model_encoder_layers_11_self_attn_v_proj.bias"} loc("p317.2287"), %arg318: tensor<1152x1152xf32> {ttcore.argument_type = #ttcore.argument_type<parameter>, ttcore.local_shape = #ttcore<local_shape local_shape = tensor<1152x1152xf32>>, ttcore.shard_status = #ttcore.shard_status<unsharded>, ttir.name = "L__self___bracket_core_paligemma_with_expert_paligemma_model_vision_tower_vision_model_encoder_layers_11_self_attn_v_proj.weight"} loc("p318.2291"), %arg319: tensor<1152xf32> {ttcore.argument_type = #ttcore.argument_type<parameter>, ttcore.local_shape = #ttcore<local_shape local_shape = tensor<1152xf32>>, ttcore.shard_status = #ttcore.shard_status<unsharded>, ttir.name = "L__self___bracket_core_paligemma_with_expert_paligemma_model_vision_tower_vision_model_encoder_layers_11_layer_norm1.bias"} loc("p319.2297"), %arg320: tensor<1152xf32> {ttcore.argument_type = #ttcore.argument_type<parameter>, ttcore.local_shape = #ttcore<local_shape local_shape = tensor<1152xf32>>, ttcore.shard_status = #ttcore.shard_status<unsharded>, ttir.name = "L__self___bracket_core_paligemma_with_expert_paligemma_model_vision_tower_vision_model_encoder_layers_11_layer_norm1.weight"} loc("p320.2302"), %arg321: tensor<1152xf32> {ttcore.argument_type = #ttcore.argument_type<parameter>, ttcore.local_shape = #ttcore<local_shape local_shape = tensor<1152xf32>>, ttcore.shard_status = #ttcore.shard_status<unsharded>, ttir.name = "L__self___bracket_core_paligemma_with_expert_paligemma_model_vision_tower_vision_model_encoder_layers_10_mlp_fc2.bias"} loc("p321.2311"), %arg322: tensor<1152x4304xf32> {ttcore.argument_type = #ttcore.argument_type<parameter>, ttcore.local_shape = #ttcore<local_shape local_shape = tensor<1152x4304xf32>>, ttcore.shard_status = #ttcore.shard_status<unsharded>, ttir.name = "L__self___bracket_core_paligemma_with_expert_paligemma_model_vision_tower_vision_model_encoder_layers_10_mlp_fc2.weight"} loc("p322.2315"), %arg323: tensor<4304xf32> {ttcore.argument_type = #ttcore.argument_type<parameter>, ttcore.local_shape = #ttcore<local_shape local_shape = tensor<4304xf32>>, ttcore.shard_status = #ttcore.shard_status<unsharded>, ttir.name = "L__self___bracket_core_paligemma_with_expert_paligemma_model_vision_tower_vision_model_encoder_layers_10_mlp_fc1.bias"} loc("p323.2323"), %arg324: tensor<4304x1152xf32> {ttcore.argument_type = #ttcore.argument_type<parameter>, ttcore.local_shape = #ttcore<local_shape local_shape = tensor<4304x1152xf32>>, ttcore.shard_status = #ttcore.shard_status<unsharded>, ttir.name = "L__self___bracket_core_paligemma_with_expert_paligemma_model_vision_tower_vision_model_encoder_layers_10_mlp_fc1.weight"} loc("p324.2327"), %arg325: tensor<1152xf32> {ttcore.argument_type = #ttcore.argument_type<parameter>, ttcore.local_shape = #ttcore<local_shape local_shape = tensor<1152xf32>>, ttcore.shard_status = #ttcore.shard_status<unsharded>, ttir.name = "L__self___bracket_core_paligemma_with_expert_paligemma_model_vision_tower_vision_model_encoder_layers_10_layer_norm2.bias"} loc("p325.2333"), %arg326: tensor<1152xf32> {ttcore.argument_type = #ttcore.argument_type<parameter>, ttcore.local_shape = #ttcore<local_shape local_shape = tensor<1152xf32>>, ttcore.shard_status = #ttcore.shard_status<unsharded>, ttir.name = "L__self___bracket_core_paligemma_with_expert_paligemma_model_vision_tower_vision_model_encoder_layers_10_layer_norm2.weight"} loc("p326.2338"), %arg327: tensor<1152xf32> {ttcore.argument_type = #ttcore.argument_type<parameter>, ttcore.local_shape = #ttcore<local_shape local_shape = tensor<1152xf32>>, ttcore.shard_status = #ttcore.shard_status<unsharded>, ttir.name = "L__self___bracket_core_paligemma_with_expert_paligemma_model_vision_tower_vision_model_encoder_layers_10_self_attn_out_proj.bias"} loc("p327.2347"), %arg328: tensor<1152x1152xf32> {ttcore.argument_type = #ttcore.argument_type<parameter>, ttcore.local_shape = #ttcore<local_shape local_shape = tensor<1152x1152xf32>>, ttcore.shard_status = #ttcore.shard_status<unsharded>, ttir.name = "L__self___bracket_core_paligemma_with_expert_paligemma_model_vision_tower_vision_model_encoder_layers_10_self_attn_out_proj.weight"} loc("p328.2351"), %arg329: tensor<1152xf32> {ttcore.argument_type = #ttcore.argument_type<parameter>, ttcore.local_shape = #ttcore<local_shape local_shape = tensor<1152xf32>>, ttcore.shard_status = #ttcore.shard_status<unsharded>, ttir.name = "L__self___bracket_core_paligemma_with_expert_paligemma_model_vision_tower_vision_model_encoder_layers_10_self_attn_v_proj.bias"} loc("p329.2357"), %arg330: tensor<1152x1152xf32> {ttcore.argument_type = #ttcore.argument_type<parameter>, ttcore.local_shape = #ttcore<local_shape local_shape = tensor<1152x1152xf32>>, ttcore.shard_status = #ttcore.shard_status<unsharded>, ttir.name = "L__self___bracket_core_paligemma_with_expert_paligemma_model_vision_tower_vision_model_encoder_layers_10_self_attn_v_proj.weight"} loc("p330.2361"), %arg331: tensor<1152xf32> {ttcore.argument_type = #ttcore.argument_type<parameter>, ttcore.local_shape = #ttcore<local_shape local_shape = tensor<1152xf32>>, ttcore.shard_status = #ttcore.shard_status<unsharded>, ttir.name = "L__self___bracket_core_paligemma_with_expert_paligemma_model_vision_tower_vision_model_encoder_layers_10_layer_norm1.bias"} loc("p331.2367"), %arg332: tensor<1152xf32> {ttcore.argument_type = #ttcore.argument_type<parameter>, ttcore.local_shape = #ttcore<local_shape local_shape = tensor<1152xf32>>, ttcore.shard_status = #ttcore.shard_status<unsharded>, ttir.name = "L__self___bracket_core_paligemma_with_expert_paligemma_model_vision_tower_vision_model_encoder_layers_10_layer_norm1.weight"} loc("p332.2372"), %arg333: tensor<1152xf32> {ttcore.argument_type = #ttcore.argument_type<parameter>, ttcore.local_shape = #ttcore<local_shape local_shape = tensor<1152xf32>>, ttcore.shard_status = #ttcore.shard_status<unsharded>, ttir.name = "L__self___bracket_core_paligemma_with_expert_paligemma_model_vision_tower_vision_model_encoder_layers_9_mlp_fc2.bias"} loc("p333.2381"), %arg334: tensor<1152x4304xf32> {ttcore.argument_type = #ttcore.argument_type<parameter>, ttcore.local_shape = #ttcore<local_shape local_shape = tensor<1152x4304xf32>>, ttcore.shard_status = #ttcore.shard_status<unsharded>, ttir.name = "L__self___bracket_core_paligemma_with_expert_paligemma_model_vision_tower_vision_model_encoder_layers_9_mlp_fc2.weight"} loc("p334.2385"), %arg335: tensor<4304xf32> {ttcore.argument_type = #ttcore.argument_type<parameter>, ttcore.local_shape = #ttcore<local_shape local_shape = tensor<4304xf32>>, ttcore.shard_status = #ttcore.shard_status<unsharded>, ttir.name = "L__self___bracket_core_paligemma_with_expert_paligemma_model_vision_tower_vision_model_encoder_layers_9_mlp_fc1.bias"} loc("p335.2393"), %arg336: tensor<4304x1152xf32> {ttcore.argument_type = #ttcore.argument_type<parameter>, ttcore.local_shape = #ttcore<local_shape local_shape = tensor<4304x1152xf32>>, ttcore.shard_status = #ttcore.shard_status<unsharded>, ttir.name = "L__self___bracket_core_paligemma_with_expert_paligemma_model_vision_tower_vision_model_encoder_layers_9_mlp_fc1.weight"} loc("p336.2397"), %arg337: tensor<1152xf32> {ttcore.argument_type = #ttcore.argument_type<parameter>, ttcore.local_shape = #ttcore<local_shape local_shape = tensor<1152xf32>>, ttcore.shard_status = #ttcore.shard_status<unsharded>, ttir.name = "L__self___bracket_core_paligemma_with_expert_paligemma_model_vision_tower_vision_model_encoder_layers_9_layer_norm2.bias"} loc("p337.2403"), %arg338: tensor<1152xf32> {ttcore.argument_type = #ttcore.argument_type<parameter>, ttcore.local_shape = #ttcore<local_shape local_shape = tensor<1152xf32>>, ttcore.shard_status = #ttcore.shard_status<unsharded>, ttir.name = "L__self___bracket_core_paligemma_with_expert_paligemma_model_vision_tower_vision_model_encoder_layers_9_layer_norm2.weight"} loc("p338.2408"), %arg339: tensor<1152xf32> {ttcore.argument_type = #ttcore.argument_type<parameter>, ttcore.local_shape = #ttcore<local_shape local_shape = tensor<1152xf32>>, ttcore.shard_status = #ttcore.shard_status<unsharded>, ttir.name = "L__self___bracket_core_paligemma_with_expert_paligemma_model_vision_tower_vision_model_encoder_layers_9_self_attn_out_proj.bias"} loc("p339.2417"), %arg340: tensor<1152x1152xf32> {ttcore.argument_type = #ttcore.argument_type<parameter>, ttcore.local_shape = #ttcore<local_shape local_shape = tensor<1152x1152xf32>>, ttcore.shard_status = #ttcore.shard_status<unsharded>, ttir.name = "L__self___bracket_core_paligemma_with_expert_paligemma_model_vision_tower_vision_model_encoder_layers_9_self_attn_out_proj.weight"} loc("p340.2421"), %arg341: tensor<1152xf32> {ttcore.argument_type = #ttcore.argument_type<parameter>, ttcore.local_shape = #ttcore<local_shape local_shape = tensor<1152xf32>>, ttcore.shard_status = #ttcore.shard_status<unsharded>, ttir.name = "L__self___bracket_core_paligemma_with_expert_paligemma_model_vision_tower_vision_model_encoder_layers_9_self_attn_v_proj.bias"} loc("p341.2427"), %arg342: tensor<1152x1152xf32> {ttcore.argument_type = #ttcore.argument_type<parameter>, ttcore.local_shape = #ttcore<local_shape local_shape = tensor<1152x1152xf32>>, ttcore.shard_status = #ttcore.shard_status<unsharded>, ttir.name = "L__self___bracket_core_paligemma_with_expert_paligemma_model_vision_tower_vision_model_encoder_layers_9_self_attn_v_proj.weight"} loc("p342.2431"), %arg343: tensor<1152xf32> {ttcore.argument_type = #ttcore.argument_type<parameter>, ttcore.local_shape = #ttcore<local_shape local_shape = tensor<1152xf32>>, ttcore.shard_status = #ttcore.shard_status<unsharded>, ttir.name = "L__self___bracket_core_paligemma_with_expert_paligemma_model_vision_tower_vision_model_encoder_layers_9_layer_norm1.bias"} loc("p343.2437"), %arg344: tensor<1152xf32> {ttcore.argument_type = #ttcore.argument_type<parameter>, ttcore.local_shape = #ttcore<local_shape local_shape = tensor<1152xf32>>, ttcore.shard_status = #ttcore.shard_status<unsharded>, ttir.name = "L__self___bracket_core_paligemma_with_expert_paligemma_model_vision_tower_vision_model_encoder_layers_9_layer_norm1.weight"} loc("p344.2442"), %arg345: tensor<1152xf32> {ttcore.argument_type = #ttcore.argument_type<parameter>, ttcore.local_shape = #ttcore<local_shape local_shape = tensor<1152xf32>>, ttcore.shard_status = #ttcore.shard_status<unsharded>, ttir.name = "L__self___bracket_core_paligemma_with_expert_paligemma_model_vision_tower_vision_model_encoder_layers_8_mlp_fc2.bias"} loc("p345.2451"), %arg346: tensor<1152x4304xf32> {ttcore.argument_type = #ttcore.argument_type<parameter>, ttcore.local_shape = #ttcore<local_shape local_shape = tensor<1152x4304xf32>>, ttcore.shard_status = #ttcore.shard_status<unsharded>, ttir.name = "L__self___bracket_core_paligemma_with_expert_paligemma_model_vision_tower_vision_model_encoder_layers_8_mlp_fc2.weight"} loc("p346.2455"), %arg347: tensor<4304xf32> {ttcore.argument_type = #ttcore.argument_type<parameter>, ttcore.local_shape = #ttcore<local_shape local_shape = tensor<4304xf32>>, ttcore.shard_status = #ttcore.shard_status<unsharded>, ttir.name = "L__self___bracket_core_paligemma_with_expert_paligemma_model_vision_tower_vision_model_encoder_layers_8_mlp_fc1.bias"} loc("p347.2463"), %arg348: tensor<4304x1152xf32> {ttcore.argument_type = #ttcore.argument_type<parameter>, ttcore.local_shape = #ttcore<local_shape local_shape = tensor<4304x1152xf32>>, ttcore.shard_status = #ttcore.shard_status<unsharded>, ttir.name = "L__self___bracket_core_paligemma_with_expert_paligemma_model_vision_tower_vision_model_encoder_layers_8_mlp_fc1.weight"} loc("p348.2467"), %arg349: tensor<1152xf32> {ttcore.argument_type = #ttcore.argument_type<parameter>, ttcore.local_shape = #ttcore<local_shape local_shape = tensor<1152xf32>>, ttcore.shard_status = #ttcore.shard_status<unsharded>, ttir.name = "L__self___bracket_core_paligemma_with_expert_paligemma_model_vision_tower_vision_model_encoder_layers_8_layer_norm2.bias"} loc("p349.2473"), %arg350: tensor<1152xf32> {ttcore.argument_type = #ttcore.argument_type<parameter>, ttcore.local_shape = #ttcore<local_shape local_shape = tensor<1152xf32>>, ttcore.shard_status = #ttcore.shard_status<unsharded>, ttir.name = "L__self___bracket_core_paligemma_with_expert_paligemma_model_vision_tower_vision_model_encoder_layers_8_layer_norm2.weight"} loc("p350.2478"), %arg351: tensor<1152xf32> {ttcore.argument_type = #ttcore.argument_type<parameter>, ttcore.local_shape = #ttcore<local_shape local_shape = tensor<1152xf32>>, ttcore.shard_status = #ttcore.shard_status<unsharded>, ttir.name = "L__self___bracket_core_paligemma_with_expert_paligemma_model_vision_tower_vision_model_encoder_layers_8_self_attn_out_proj.bias"} loc("p351.2487"), %arg352: tensor<1152x1152xf32> {ttcore.argument_type = #ttcore.argument_type<parameter>, ttcore.local_shape = #ttcore<local_shape local_shape = tensor<1152x1152xf32>>, ttcore.shard_status = #ttcore.shard_status<unsharded>, ttir.name = "L__self___bracket_core_paligemma_with_expert_paligemma_model_vision_tower_vision_model_encoder_layers_8_self_attn_out_proj.weight"} loc("p352.2491"), %arg353: tensor<1152xf32> {ttcore.argument_type = #ttcore.argument_type<parameter>, ttcore.local_shape = #ttcore<local_shape local_shape = tensor<1152xf32>>, ttcore.shard_status = #ttcore.shard_status<unsharded>, ttir.name = "L__self___bracket_core_paligemma_with_expert_paligemma_model_vision_tower_vision_model_encoder_layers_8_self_attn_v_proj.bias"} loc("p353.2497"), %arg354: tensor<1152x1152xf32> {ttcore.argument_type = #ttcore.argument_type<parameter>, ttcore.local_shape = #ttcore<local_shape local_shape = tensor<1152x1152xf32>>, ttcore.shard_status = #ttcore.shard_status<unsharded>, ttir.name = "L__self___bracket_core_paligemma_with_expert_paligemma_model_vision_tower_vision_model_encoder_layers_8_self_attn_v_proj.weight"} loc("p354.2501"), %arg355: tensor<1152xf32> {ttcore.argument_type = #ttcore.argument_type<parameter>, ttcore.local_shape = #ttcore<local_shape local_shape = tensor<1152xf32>>, ttcore.shard_status = #ttcore.shard_status<unsharded>…
#loc6354 = loc("add.29909")
#loc6355 = loc("broadcast.29883")
#loc6356 = loc("reshape.29884")
#loc6357 = loc("transpose.29885")
#loc6358 = loc("dot.29910")
#loc6359 = loc("multiply.29913")
#loc6360 = loc("add.29918")
#loc6361 = loc("reduce.29924")
#loc6362 = loc("broadcast.29925")
#loc6363 = loc("subtract.29926")
#loc6364 = loc("exponential.29927")
#loc6365 = loc("reduce.29933")
#loc6366 = loc("broadcast.29934")
#loc6367 = loc("divide.29935")
#loc6368 = loc("broadcast.29876")
#loc6369 = loc("reshape.29877")
#loc6370 = loc("dot.29936")
#loc6371 = loc("transpose.29938")
#loc6372 = loc("reshape.29940")
#loc6373 = loc("transpose.29872")
#loc6374 = loc("dot.29941")
#loc6375 = loc("reshape.29942")
#loc6376 = loc("add.29945")
#loc6377 = loc("power.29947")
#loc6378 = loc("reduce.29954")
#loc6379 = loc("multiply.29963")
#loc6380 = loc("reshape.29964")
#loc6381 = loc("add.29968")
#loc6382 = loc("rsqrt.29969")
#loc6383 = loc("reshape.29970")
#loc6384 = loc("broadcast.29971")
#loc6385 = loc("multiply.29972")
#loc6386 = loc("add.29863")
#loc6387 = loc("broadcast.29973")
#loc6388 = loc("multiply.29974")
#loc6389 = loc("reshape.29985")
#loc6390 = loc("transpose.29984")
#loc6391 = loc("dot.29986")
#loc6392 = loc("reshape.29987")
#loc6393 = loc("custom-call.30005")
#loc6394 = loc("transpose.29854")
#loc6395 = loc("dot.29976")
#loc6396 = loc("reshape.29977")
#loc6397 = loc("multiply.30006")
#loc6398 = loc("reshape.30007")
#loc6399 = loc("transpose.29849")
#loc6400 = loc("dot.30008")
#loc6401 = loc("reshape.30009")
#loc6402 = loc("add.30012")
#loc6403 = loc("power.30014")
#loc6404 = loc("reduce.30021")
#loc6405 = loc("multiply.30030")
#loc6406 = loc("reshape.30031")
#loc6407 = loc("add.30035")
#loc6408 = loc("rsqrt.30036")
#loc6409 = loc("reshape.30037")
#loc6410 = loc("broadcast.30038")
#loc6411 = loc("multiply.30039")
#loc6412 = loc("add.29840")
#loc6413 = loc("broadcast.30040")
#loc6414 = loc("multiply.30041")
#loc6415 = loc("reshape.30084")
#loc6416 = loc("transpose.30083")
#loc6417 = loc("dot.30085")
#loc6418 = loc("transpose.30088")
#loc6419 = loc("multiply.30095")
#loc6420 = loc("slice.30090")
#loc6421 = loc("negate.30091")
#loc6422 = loc("slice.30089")
#loc6423 = loc("concatenate.30092")
#loc6424 = loc("multiply.30093")
#loc6425 = loc("add.30098")
#loc6426 = loc("transpose.30061")
#loc6427 = loc("dot.30063")
#loc6428 = loc("transpose.30066")
#loc6429 = loc("multiply.30073")
#loc6430 = loc("slice.30068")
#loc6431 = loc("negate.30069")
#loc6432 = loc("slice.30067")
#loc6433 = loc("concatenate.30070")
#loc6434 = loc("multiply.30071")
#loc6435 = loc("add.30076")
#loc6436 = loc("concatenate.30099")
#loc6437 = loc("broadcast.30103")
#loc6438 = loc("reshape.30104")
#loc6439 = loc("transpose.30105")
#loc6440 = loc("dot.30130")
#loc6441 = loc("multiply.30133")
#loc6442 = loc("add.30138")
#loc6443 = loc("reduce.30144")
#loc6444 = loc("broadcast.30145")
#loc6445 = loc("subtract.30146")
#loc6446 = loc("exponential.30147")
#loc6447 = loc("reduce.30153")
#loc6448 = loc("broadcast.30154")
#loc6449 = loc("divide.30155")
#loc6450 = loc("transpose.29831")
#loc6451 = loc("dot.30043")
#loc6452 = loc("transpose.30046")
#loc6453 = loc("transpose.544")
#loc6454 = loc("dot.29823")
#loc6455 = loc("transpose.29826")
#loc6456 = loc("concatenate.30047")
#loc6457 = loc("broadcast.30051")
#loc6458 = loc("reshape.30052")
#loc6459 = loc("dot.30156")
#loc6460 = loc("transpose.30158")
#loc6461 = loc("reshape.30160")
#loc6462 = loc("transpose.539")
#loc6463 = loc("dot.30161")
#loc6464 = loc("reshape.30162")
#loc6465 = loc("add.30165")
#loc6466 = loc("power.30167")
#loc6467 = loc("reduce.30174")
#loc6468 = loc("multiply.30183")
#loc6469 = loc("reshape.30184")
#loc6470 = loc("add.30188")
#loc6471 = loc("rsqrt.30189")
#loc6472 = loc("reshape.30190")
#loc6473 = loc("broadcast.30191")
#loc6474 = loc("multiply.30192")
#loc6475 = loc("add.530")
#loc6476 = loc("broadcast.30193")
#loc6477 = loc("multiply.30194")
#loc6478 = loc("reshape.30205")
#loc6479 = loc("transpose.30204")
#loc6480 = loc("dot.30206")
#loc6481 = loc("reshape.30207")
#loc6482 = loc("custom-call.30225")
#loc6483 = loc("transpose.521")
#loc6484 = loc("dot.30196")
#loc6485 = loc("reshape.30197")
#loc6486 = loc("multiply.30226")
#loc6487 = loc("reshape.30227")
#loc6488 = loc("transpose.516")
#loc6489 = loc("dot.30228")
#loc6490 = loc("reshape.30229")
#loc6491 = loc("add.30232")
#loc6492 = loc("power.30234")
#loc6493 = loc("reduce.30241")
#loc6494 = loc("multiply.30250")
#loc6495 = loc("reshape.30251")
#loc6496 = loc("add.30255")
#loc6497 = loc("rsqrt.30256")
#loc6498 = loc("reshape.30257")
#loc6499 = loc("broadcast.30258")
#loc6500 = loc("multiply.30259")
#loc6501 = loc("add.507")
#loc6502 = loc("broadcast.30260")
#loc6503 = loc("multiply.30261")
#loc6504 = loc("reshape.30552")
#loc6505 = loc("transpose.30551")
#loc6506 = loc("dot.30553")
#loc6507 = loc("reshape.30555")
#loc6508 = loc("transpose.30556")
#loc6509 = loc("multiply.30566")
#loc6510 = loc("slice.30558")
#loc6511 = loc("negate.30559")
#loc6512 = loc("slice.30557")
#loc6513 = loc("concatenate.30560")
#loc6514 = loc("multiply.30563")
#loc6515 = loc("add.30569")
#loc6516 = loc("transpose.30331")
#loc6517 = loc("dot.30333")
#loc6518 = loc("reshape.30335")
#loc6519 = loc("transpose.30336")
#loc6520 = loc("multiply.30346")
#loc6521 = loc("slice.30338")
#loc6522 = loc("negate.30339")
#loc6523 = loc("slice.30337")
#loc6524 = loc("concatenate.30340")
#loc6525 = loc("multiply.30343")
#loc6526 = loc("add.30349")
#loc6527 = loc("broadcast.30323")
#loc6528 = loc("reshape.30324")
#loc6529 = loc("transpose.30325")
#loc6530 = loc("dot.30350")
#loc6531 = loc("multiply.30353")
#loc6532 = loc("add.30358")
#loc6533 = loc("reduce.30364")
#loc6534 = loc("broadcast.30365")
#loc6535 = loc("subtract.30366")
#loc6536 = loc("exponential.30367")
#loc6537 = loc("reduce.30373")
#loc6538 = loc("broadcast.30374")
#loc6539 = loc("divide.30375")
#loc6540 = loc("broadcast.30316")
#loc6541 = loc("reshape.30317")
#loc6542 = loc("dot.30376")
#loc6543 = loc("transpose.30378")
#loc6544 = loc("reshape.30380")
#loc6545 = loc("transpose.30312")
#loc6546 = loc("dot.30381")
#loc6547 = loc("reshape.30382")
#loc6548 = loc("add.30385")
#loc6549 = loc("power.30387")
#loc6550 = loc("reduce.30394")
#loc6551 = loc("multiply.30403")
#loc6552 = loc("reshape.30404")
#loc6553 = loc("add.30408")
#loc6554 = loc("rsqrt.30409")
#loc6555 = loc("reshape.30410")
#loc6556 = loc("broadcast.30411")
#loc6557 = loc("multiply.30412")
#loc6558 = loc("add.30303")
#loc6559 = loc("broadcast.30413")
#loc6560 = loc("multiply.30414")
#loc6561 = loc("reshape.30425")
#loc6562 = loc("transpose.30424")
#loc6563 = loc("dot.30426")
#loc6564 = loc("reshape.30427")
#loc6565 = loc("custom-call.30445")
#loc6566 = loc("transpose.30294")
#loc6567 = loc("dot.30416")
#loc6568 = loc("reshape.30417")
#loc6569 = loc("multiply.30446")
#loc6570 = loc("reshape.30447")
#loc6571 = loc("transpose.30289")
#loc6572 = loc("dot.30448")
#loc6573 = loc("reshape.30449")
#loc6574 = loc("add.30452")
#loc6575 = loc("power.30454")
#loc6576 = loc("reduce.30461")
#loc6577 = loc("multiply.30470")
#loc6578 = loc("reshape.30471")
#loc6579 = loc("add.30475")
#loc6580 = loc("rsqrt.30476")
#loc6581 = loc("reshape.30477")
#loc6582 = loc("broadcast.30478")
#loc6583 = loc("multiply.30479")
#loc6584 = loc("add.30280")
#loc6585 = loc("broadcast.30480")
#loc6586 = loc("multiply.30481")
#loc6587 = loc("reshape.30524")
#loc6588 = loc("transpose.30523")
#loc6589 = loc("dot.30525")
#loc6590 = loc("transpose.30528")
#loc6591 = loc("multiply.30535")
#loc6592 = loc("slice.30530")
#loc6593 = loc("negate.30531")
#loc6594 = loc("slice.30529")
#loc6595 = loc("concatenate.30532")
#loc6596 = loc("multiply.30533")
#loc6597 = loc("add.30538")
#loc6598 = loc("transpose.30501")
#loc6599 = loc("dot.30503")
#loc6600 = loc("transpose.30506")
#loc6601 = loc("multiply.30513")
#loc6602 = loc("slice.30508")
#loc6603 = loc("negate.30509")
#loc6604 = loc("slice.30507")
#loc6605 = loc("concatenate.30510")
#loc6606 = loc("multiply.30511")
#loc6607 = loc("add.30516")
#loc6608 = loc("concatenate.30539")
#loc6609 = loc("broadcast.30543")
#loc6610 = loc("reshape.30544")
#loc6611 = loc("transpose.30545")
#loc6612 = loc("dot.30570")
#loc6613 = loc("multiply.30573")
#loc6614 = loc("add.30578")
#loc6615 = loc("reduce.30584")
#loc6616 = loc("broadcast.30585")
#loc6617 = loc("subtract.30586")
#loc6618 = loc("exponential.30587")
#loc6619 = loc("reduce.30593")
#loc6620 = loc("broadcast.30594")
#loc6621 = loc("divide.30595")
#loc6622 = loc("transpose.30271")
#loc6623 = loc("dot.30483")
#loc6624 = loc("transpose.30486")
#loc6625 = loc("transpose.498")
#loc6626 = loc("dot.30263")
#loc6627 = loc("transpose.30266")
#loc6628 = loc("concatenate.30487")
#loc6629 = loc("broadcast.30491")
#loc6630 = loc("reshape.30492")
#loc6631 = loc("dot.30596")
#loc6632 = loc("transpose.30598")
#loc6633 = loc("reshape.30600")
#loc6634 = loc("transpose.493")
#loc6635 = loc("dot.30601")
#loc6636 = loc("reshape.30602")
#loc6637 = loc("add.30605")
#loc6638 = loc("power.30607")
#loc6639 = loc("reduce.30614")
#loc6640 = loc("multiply.30623")
#loc6641 = loc("reshape.30624")
#loc6642 = loc("add.30628")
#loc6643 = loc("rsqrt.30629")
#loc6644 = loc("reshape.30630")
#loc6645 = loc("broadcast.30631")
#loc6646 = loc("multiply.30632")
#loc6647 = loc("add.484")
#loc6648 = loc("broadcast.30633")
#loc6649 = loc("multiply.30634")
#loc6650 = loc("reshape.30645")
#loc6651 = loc("transpose.30644")
#loc6652 = loc("dot.30646")
#loc6653 = loc("reshape.30647")
#loc6654 = loc("custom-call.30665")
#loc6655 = loc("transpose.475")
#loc6656 = loc("dot.30636")
#loc6657 = loc("reshape.30637")
#loc6658 = loc("multiply.30666")
#loc6659 = loc("reshape.30667")
#loc6660 = loc("transpose.470")
#loc6661 = loc("dot.30668")
#loc6662 = loc("reshape.30669")
#loc6663 = loc("add.30672")
#loc6664 = loc("power.30674")
#loc6665 = loc("reduce.30681")
#loc6666 = loc("multiply.30690")
#loc6667 = loc("reshape.30691")
#loc6668 = loc("add.30695")
#loc6669 = loc("rsqrt.30696")
#loc6670 = loc("reshape.30697")
#loc6671 = loc("broadcast.30698")
#loc6672 = loc("multiply.30699")
#loc6673 = loc("add.461")
#loc6674 = loc("broadcast.30700")
#loc6675 = loc("multiply.30701")
#loc6676 = loc("reshape.30992")
#loc6677 = loc("transpose.30991")
#loc6678 = loc("dot.30993")
#loc6679 = loc("reshape.30995")
#loc6680 = loc("transpose.30996")
#loc6681 = loc("multiply.31006")
#loc6682 = loc("slice.30998")
#loc6683 = loc("negate.30999")
#loc6684 = loc("slice.30997")
#loc6685 = loc("concatenate.31000")
#loc6686 = loc("multiply.31003")
#loc6687 = loc("add.31009")
#loc6688 = loc("transpose.30771")
#loc6689 = loc("dot.30773")
#loc6690 = loc("reshape.30775")
#loc6691 = loc("transpose.30776")
#loc6692 = loc("multiply.30786")
#loc6693 = loc("slice.30778")
#loc6694 = loc("negate.30779")
#loc6695 = loc("slice.30777")
#loc6696 = loc("concatenate.30780")
#loc6697 = loc("multiply.30783")
#loc6698 = loc("add.30789")
#loc6699 = loc("broadcast.30763")
#loc6700 = loc("reshape.30764")
#loc6701 = loc("transpose.30765")
#loc6702 = loc("dot.30790")
#loc6703 = loc("multiply.30793")
#loc6704 = loc("add.30798")
#loc6705 = loc("reduce.30804")
#loc6706 = loc("broadcast.30805")
#loc6707 = loc("subtract.30806")
#loc6708 = loc("exponential.30807")
#loc6709 = loc("reduce.30813")
#loc6710 = loc("broadcast.30814")
#loc6711 = loc("divide.30815")
#loc6712 = loc("broadcast.30756")
#loc6713 = loc("reshape.30757")
#loc6714 = loc("dot.30816")
#loc6715 = loc("transpose.30818")
#loc6716 = loc("reshape.30820")
#loc6717 = loc("transpose.30752")
#loc6718 = loc("dot.30821")
#loc6719 = loc("reshape.30822")
#loc6720 = loc("add.30825")
#loc6721 = loc("power.30827")
#loc6722 = loc("reduce.30834")
#loc6723 = loc("multiply.30843")
#loc6724 = loc("reshape.30844")
#loc6725 = loc("add.30848")
#loc6726 = loc("rsqrt.30849")
#loc6727 = loc("reshape.30850")
#loc6728 = loc("broadcast.30851")
#loc6729 = loc("multiply.30852")
#loc6730 = loc("add.30743")
#loc6731 = loc("broadcast.30853")
#loc6732 = loc("multiply.30854")
#loc6733 = loc("reshape.30865")
#loc6734 = loc("transpose.30864")
#loc6735 = loc("dot.30866")
#loc6736 = loc("reshape.30867")
#loc6737 = loc("custom-call.30885")
#loc6738 = loc("transpose.30734")
#loc6739 = loc("dot.30856")
#loc6740 = loc("reshape.30857")
#loc6741 = loc("multiply.30886")
#loc6742 = loc("reshape.30887")
#loc6743 = loc("transpose.30729")
#loc6744 = loc("dot.30888")
#loc6745 = loc("reshape.30889")
#loc6746 = loc("add.30892")
#loc6747 = loc("power.30894")
#loc6748 = loc("reduce.30901")
#loc6749 = loc("multiply.30910")
#loc6750 = loc("reshape.30911")
#loc6751 = loc("add.30915")
#loc6752 = loc("rsqrt.30916")
#loc6753 = loc("reshape.30917")
#loc6754 = loc("broadcast.30918")
#loc6755 = loc("multiply.30919")
#loc6756 = loc("add.30720")
#loc6757 = loc("broadcast.30920")
#loc6758 = loc("multiply.30921")
#loc6759 = loc("reshape.30964")
#loc6760 = loc("transpose.30963")
#loc6761 = loc("dot.30965")
#loc6762 = loc("transpose.30968")
#loc6763 = loc("multiply.30975")
#loc6764 = loc("slice.30970")
#loc6765 = loc("negate.30971")
#loc6766 = loc("slice.30969")
#loc6767 = loc("concatenate.30972")
#loc6768 = loc("multiply.30973")
#loc6769 = loc("add.30978")
#loc6770 = loc("transpose.30941")
#loc6771 = loc("dot.30943")
#loc6772 = loc("transpose.30946")
#loc6773 = loc("multiply.30953")
#loc6774 = loc("slice.30948")
#loc6775 = loc("negate.30949")
#loc6776 = loc("slice.30947")
#loc6777 = loc("concatenate.30950")
#loc6778 = loc("multiply.30951")
#loc6779 = loc("add.30956")
#loc6780 = loc("concatenate.30979")
#loc6781 = loc("broadcast.30983")
#loc6782 = loc("reshape.30984")
#loc6783 = loc("transpose.30985")
#loc6784 = loc("dot.31010")
#loc6785 = loc("multiply.31013")
#loc6786 = loc("add.31018")
#loc6787 = loc("reduce.31024")
#loc6788 = loc("broadcast.31025")
#loc6789 = loc("subtract.31026")
#loc6790 = loc("exponential.31027")
#loc6791 = loc("reduce.31033")
#loc6792 = loc("broadcast.31034")
#loc6793 = loc("divide.31035")
#loc6794 = loc("transpose.30711")
#loc6795 = loc("dot.30923")
#loc6796 = loc("transpose.30926")
#loc6797 = loc("transpose.452")
#loc6798 = loc("dot.30703")
#loc6799 = loc("transpose.30706")
#loc6800 = loc("concatenate.30927")
#loc6801 = loc("broadcast.30931")
#loc6802 = loc("reshape.30932")
#loc6803 = loc("dot.31036")
#loc6804 = loc("transpose.31038")
#loc6805 = loc("reshape.31040")
#loc6806 = loc("transpose.447")
#loc6807 = loc("dot.31041")
#loc6808 = loc("reshape.31042")
#loc6809 = loc("add.31045")
#loc6810 = loc("power.31047")
#loc6811 = loc("reduce.31054")
#loc6812 = loc("multiply.31063")
#loc6813 = loc("reshape.31064")
#loc6814 = loc("add.31068")
#loc6815 = loc("rsqrt.31069")
#loc6816 = loc("reshape.31070")
#loc6817 = loc("broadcast.31071")
#loc6818 = loc("multiply.31072")
#loc6819 = loc("add.438")
#loc6820 = loc("broadcast.31073")
#loc6821 = loc("multiply.31074")
#loc6822 = loc("reshape.31085")
#loc6823 = loc("transpose.31084")
#loc6824 = loc("dot.31086")
#loc6825 = loc("reshape.31087")
#loc6826 = loc("custom-call.31105")
#loc6827 = loc("transpose.429")
#loc6828 = loc("dot.31076")
#loc6829 = loc("reshape.31077")
#loc6830 = loc("multiply.31106")
#loc6831 = loc("reshape.31107")
#loc6832 = loc("transpose.424")
#loc6833 = loc("dot.31108")
#loc6834 = loc("reshape.31109")
#loc6835 = loc("add.31112")
#loc6836 = loc("power.31114")
#loc6837 = loc("reduce.31121")
#loc6838 = loc("multiply.31130")
#loc6839 = loc("reshape.31131")
#loc6840 = loc("add.31135")
#loc6841 = loc("rsqrt.31136")
#loc6842 = loc("reshape.31137")
#loc6843 = loc("broadcast.31138")
#loc6844 = loc("multiply.31139")
#loc6845 = loc("add.415")
#loc6846 = loc("broadcast.31140")
#loc6847 = loc("multiply.31141")
#loc6848 = loc("reshape.31432")
#loc6849 = loc("transpose.31431")
#loc6850 = loc("dot.31433")
#loc6851 = loc("reshape.31435")
#loc6852 = loc("transpose.31436")
#loc6853 = loc("multiply.31446")
#loc6854 = loc("slice.31438")
#loc6855 = loc("negate.31439")
#loc6856 = loc("slice.31437")
#loc6857 = loc("concatenate.31440")
#loc6858 = loc("multiply.31443")
#loc6859 = loc("add.31449")
#loc6860 = loc("transpose.31211")
#loc6861 = loc("dot.31213")
#loc6862 = loc("reshape.31215")
#loc6863 = loc("transpose.31216")
#loc6864 = loc("multiply.31226")
#loc6865 = loc("slice.31218")
#loc6866 = loc("negate.31219")
#loc6867 = loc("slice.31217")
#loc6868 = loc("concatenate.31220")
#loc6869 = loc("multiply.31223")
#loc6870 = loc("add.31229")
#loc6871 = loc("broadcast.31203")
#loc6872 = loc("reshape.31204")
#loc6873 = loc("transpose.31205")
#loc6874 = loc("dot.31230")
#loc6875 = loc("multiply.31233")
#loc6876 = loc("add.31238")
#loc6877 = loc("reduce.31244")
#loc6878 = loc("broadcast.31245")
#loc6879 = loc("subtract.31246")
#loc6880 = loc("exponential.31247")
#loc6881 = loc("reduce.31253")
#loc6882 = loc("broadcast.31254")
#loc6883 = loc("divide.31255")
#loc6884 = loc("broadcast.31196")
#loc6885 = loc("reshape.31197")
#loc6886 = loc("dot.31256")
#loc6887 = loc("transpose.31258")
#loc6888 = loc("reshape.31260")
#loc6889 = loc("transpose.31192")
#loc6890 = loc("dot.31261")
#loc6891 = loc("reshape.31262")
#loc6892 = loc("add.31265")
#loc6893 = loc("power.31267")
#loc6894 = loc("reduce.31274")
#loc6895 = loc("multiply.31283")
#loc6896 = loc("reshape.31284")
#loc6897 = loc("add.31288")
#loc6898 = loc("rsqrt.31289")
#loc6899 = loc("reshape.31290")
#loc6900 = loc("broadcast.31291")
#loc6901 = loc("multiply.31292")
#loc6902 = loc("add.31183")
#loc6903 = loc("broadcast.31293")
#loc6904 = loc("multiply.31294")
#loc6905 = loc("reshape.31305")
#loc6906 = loc("transpose.31304")
#loc6907 = loc("dot.31306")
#loc6908 = loc("reshape.31307")
#loc6909 = loc("custom-call.31325")
#loc6910 = loc("transpose.31174")
#loc6911 = loc("dot.31296")
#loc6912 = loc("reshape.31297")
#loc6913 = loc("multiply.31326")
#loc6914 = loc("reshape.31327")
#loc6915 = loc("transpose.31169")
#loc6916 = loc("dot.31328")
#loc6917 = loc("reshape.31329")
#loc6918 = loc("add.31332")
#loc6919 = loc("power.31334")
#loc6920 = loc("reduce.31341")
#loc6921 = loc("multiply.31350")
#loc6922 = loc("reshape.31351")
#loc6923 = loc("add.31355")
#loc6924 = loc("rsqrt.31356")
#loc6925 = loc("reshape.31357")
#loc6926 = loc("broadcast.31358")
#loc6927 = loc("multiply.31359")
#loc6928 = loc("add.31160")
#loc6929 = loc("broadcast.31360")
#loc6930 = loc("multiply.31361")
#loc6931 = loc("reshape.31404")
#loc6932 = loc("transpose.31403")
#loc6933 = loc("dot.31405")
#loc6934 = loc("transpose.31408")
#loc6935 = loc("multiply.31415")
#loc6936 = loc("slice.31410")
#loc6937 = loc("negate.31411")
#loc6938 = loc("slice.31409")
#loc6939 = loc("concatenate.31412")
#loc6940 = loc("multiply.31413")
#loc6941 = loc("add.31418")
#loc6942 = loc("transpose.31381")
#loc6943 = loc("dot.31383")
#loc6944 = loc("transpose.31386")
#loc6945 = loc("multiply.31393")
#loc6946 = loc("slice.31388")
#loc6947 = loc("negate.31389")
#loc6948 = loc("slice.31387")
#loc6949 = loc("concatenate.31390")
#loc6950 = loc("multiply.31391")
#loc6951 = loc("add.31396")
#loc6952 = loc("concatenate.31419")
#loc6953 = loc("broadcast.31423")
#loc6954 = loc("reshape.31424")
#loc6955 = loc("transpose.31425")
#loc6956 = loc("dot.31450")
#loc6957 = loc("multiply.31453")
#loc6958 = loc("add.31458")
#loc6959 = loc("reduce.31464")
#loc6960 = loc("broadcast.31465")
#loc6961 = loc("subtract.31466")
#loc6962 = loc("exponential.31467")
#loc6963 = loc("reduce.31473")
#loc6964 = loc("broadcast.31474")
#loc6965 = loc("divide.31475")
#loc6966 = loc("transpose.31151")
#loc6967 = loc("dot.31363")
#loc6968 = loc("transpose.31366")
#loc6969 = loc("transpose.406")
#loc6970 = loc("dot.31143")
#loc6971 = loc("transpose.31146")
#loc6972 = loc("concatenate.31367")
#loc6973 = loc("broadcast.31371")
#loc6974 = loc("reshape.31372")
#loc6975 = loc("dot.31476")
#loc6976 = loc("transpose.31478")
#loc6977 = loc("reshape.31480")
#loc6978 = loc("transpose.401")
#loc6979 = loc("dot.31481")
#loc6980 = loc("reshape.31482")
#loc6981 = loc("add.31485")
#loc6982 = loc("power.31487")
#loc6983 = loc("reduce.31494")
#loc6984 = loc("multiply.31503")
#loc6985 = loc("reshape.31504")
#loc6986 = loc("add.31508")
#loc6987 = loc("rsqrt.31509")
#loc6988 = loc("reshape.31510")
#loc6989 = loc("broadcast.31511")
#loc6990 = loc("multiply.31512")
#loc6991 = loc("add.392")
#loc6992 = loc("broadcast.31513")
#loc6993 = loc("multiply.31514")
#loc6994 = loc("reshape.31525")
#loc6995 = loc("transpose.31524")
#loc6996 = loc("dot.31526")
#loc6997 = loc("reshape.31527")
#loc6998 = loc("custom-call.31545")
#loc6999 = loc("transpose.383")
#loc7000 = loc("dot.31516")
#loc7001 = loc("reshape.31517")
#loc7002 = loc("multiply.31546")
#loc7003 = loc("reshape.31547")
#loc7004 = loc("transpose.378")
#loc7005 = loc("dot.31548")
#loc7006 = loc("reshape.31549")
#loc7007 = loc("add.31552")
#loc7008 = loc("power.31554")
#loc7009 = loc("reduce.31561")
#loc7010 = loc("multiply.31570")
#loc7011 = loc("reshape.31571")
#loc7012 = loc("add.31575")
#loc7013 = loc("rsqrt.31576")
#loc7014 = loc("reshape.31577")
#loc7015 = loc("broadcast.31578")
#loc7016 = loc("multiply.31579")
#loc7017 = loc("add.369")
#loc7018 = loc("broadcast.31580")
#loc7019 = loc("multiply.31581")
#loc7020 = loc("reshape.31872")
#loc7021 = loc("transpose.31871")
#loc7022 = loc("dot.31873")
#loc7023 = loc("reshape.31875")
#loc7024 = loc("transpose.31876")
#loc7025 = loc("multiply.31886")
#loc7026 = loc("slice.31878")
#loc7027 = loc("negate.31879")
#loc7028 = loc("slice.31877")
#loc7029 = loc("concatenate.31880")
#loc7030 = loc("multiply.31883")
#loc7031 = loc("add.31889")
#loc7032 = loc("transpose.31651")
#loc7033 = loc("dot.31653")
#loc7034 = loc("reshape.31655")
#loc7035 = loc("transpose.31656")
#loc7036 = loc("multiply.31666")
#loc7037 = loc("slice.31658")
#loc7038 = loc("negate.31659")
#loc7039 = loc("slice.31657")
#loc7040 = loc("concatenate.31660")
#loc7041 = loc("multiply.31663")
#loc7042 = loc("add.31669")
#loc7043 = loc("broadcast.31643")
#loc7044 = loc("reshape.31644")
#loc7045 = loc("transpose.31645")
#loc7046 = loc("dot.31670")
#loc7047 = loc("multiply.31673")
#loc7048 = loc("add.31678")
#loc7049 = loc("reduce.31684")
#loc7050 = loc("broadcast.31685")
#loc7051 = loc("subtract.31686")
#loc7052 = loc("exponential.31687")
#loc7053 = loc("reduce.31693")
#loc7054 = loc("broadcast.31694")
#loc7055 = loc("divide.31695")
#loc7056 = loc("broadcast.31636")
#loc7057 = loc("reshape.31637")
#loc7058 = loc("dot.31696")
#loc7059 = loc("transpose.31698")
#loc7060 = loc("reshape.31700")
#loc7061 = loc("transpose.31632")
#loc7062 = loc("dot.31701")
#loc7063 = loc("reshape.31702")
#loc7064 = loc("add.31705")
#loc7065 = loc("power.31707")
#loc7066 = loc("reduce.31714")
#loc7067 = loc("multiply.31723")
#loc7068 = loc("reshape.31724")
#loc7069 = loc("add.31728")
#loc7070 = loc("rsqrt.31729")
#loc7071 = loc("reshape.31730")
#loc7072 = loc("broadcast.31731")
#loc7073 = loc("multiply.31732")
#loc7074 = loc("add.31623")
#loc7075 = loc("broadcast.31733")
#loc7076 = loc("multiply.31734")
#loc7077 = loc("reshape.31745")
#loc7078 = loc("transpose.31744")
#loc7079 = loc("dot.31746")
#loc7080 = loc("reshape.31747")
#loc7081 = loc("custom-call.31765")
#loc7082 = loc("transpose.31614")
#loc7083 = loc("dot.31736")
#loc7084 = loc("reshape.31737")
#loc7085 = loc("multiply.31766")
#loc7086 = loc("reshape.31767")
#loc7087 = loc("transpose.31609")
#loc7088 = loc("dot.31768")
#loc7089 = loc("reshape.31769")
#loc7090 = loc("add.31772")
#loc7091 = loc("power.31774")
#loc7092 = loc("reduce.31781")
#loc7093 = loc("multiply.31790")
#loc7094 = loc("reshape.31791")
#loc7095 = loc("add.31795")
#loc7096 = loc("rsqrt.31796")
#loc7097 = loc("reshape.31797")
#loc7098 = loc("broadcast.31798")
#loc7099 = loc("multiply.31799")
#loc7100 = loc("add.31600")
#loc7101 = loc("broadcast.31800")
#loc7102 = loc("multiply.31801")
#loc7103 = loc("reshape.31844")
#loc7104 = loc("transpose.31843")
#loc7105 = loc("dot.31845")
#loc7106 = loc("transpose.31848")
#loc7107 = loc("multiply.31855")
#loc7108 = loc("slice.31850")
#loc7109 = loc("negate.31851")
#loc7110 = loc("slice.31849")
#loc7111 = loc("concatenate.31852")
#loc7112 = loc("multiply.31853")
#loc7113 = loc("add.31858")
#loc7114 = loc("transpose.31821")
#loc7115 = loc("dot.31823")
#loc7116 = loc("transpose.31826")
#loc7117 = loc("multiply.31833")
#loc7118 = loc("slice.31828")
#loc7119 = loc("negate.31829")
#loc7120 = loc("slice.31827")
#loc7121 = loc("concatenate.31830")
#loc7122 = loc("multiply.31831")
#loc7123 = loc("add.31836")
#loc7124 = loc("concatenate.31859")
#loc7125 = loc("broadcast.31863")
#loc7126 = loc("reshape.31864")
#loc7127 = loc("transpose.31865")
#loc7128 = loc("dot.31890")
#loc7129 = loc("multiply.31893")
#loc7130 = loc("add.31898")
#loc7131 = loc("reduce.31904")
#loc7132 = loc("broadcast.31905")
#loc7133 = loc("subtract.31906")
#loc7134 = loc("exponential.31907")
#loc7135 = loc("reduce.31913")
#loc7136 = loc("broadcast.31914")
#loc7137 = loc("divide.31915")
#loc7138 = loc("transpose.31591")
#loc7139 = loc("dot.31803")
#loc7140 = loc("transpose.31806")
#loc7141 = loc("transpose.360")
#loc7142 = loc("dot.31583")
#loc7143 = loc("transpose.31586")
#loc7144 = loc("concatenate.31807")
#loc7145 = loc("broadcast.31811")
#loc7146 = loc("reshape.31812")
#loc7147 = loc("dot.31916")
#loc7148 = loc("transpose.31918")
#loc7149 = loc("reshape.31920")
#loc7150 = loc("transpose.355")
#loc7151 = loc("dot.31921")
#loc7152 = loc("reshape.31922")
#loc7153 = loc("add.31925")
#loc7154 = loc("power.31927")
#loc7155 = loc("reduce.31934")
#loc7156 = loc("multiply.31943")
#loc7157 = loc("reshape.31944")
#loc7158 = loc("add.31948")
#loc7159 = loc("rsqrt.31949")
#loc7160 = loc("reshape.31950")
#loc7161 = loc("broadcast.31951")
#loc7162 = loc("multiply.31952")
#loc7163 = loc("add.346")
#loc7164 = loc("broadcast.31953")
#loc7165 = loc("multiply.31954")
#loc7166 = loc("reshape.31965")
#loc7167 = loc("transpose.31964")
#loc7168 = loc("dot.31966")
#loc7169 = loc("reshape.31967")
#loc7170 = loc("custom-call.31985")
#loc7171 = loc("transpose.337")
#loc7172 = loc("dot.31956")
#loc7173 = loc("reshape.31957")
#loc7174 = loc("multiply.31986")
#loc7175 = loc("reshape.31987")
#loc7176 = loc("transpose.332")
#loc7177 = loc("dot.31988")
#loc7178 = loc("reshape.31989")
#loc7179 = loc("add.31992")
#loc7180 = loc("power.31994")
#loc7181 = loc("reduce.32001")
#loc7182 = loc("multiply.32010")
#loc7183 = loc("reshape.32011")
#loc7184 = loc("add.32015")
#loc7185 = loc("rsqrt.32016")
#loc7186 = loc("reshape.32017")
#loc7187 = loc("broadcast.32018")
#loc7188 = loc("multiply.32019")
#loc7189 = loc("add.323")
#loc7190 = loc("broadcast.32020")
#loc7191 = loc("multiply.32021")
#loc7192 = loc("reshape.32312")
#loc7193 = loc("transpose.32311")
#loc7194 = loc("dot.32313")
#loc7195 = loc("reshape.32315")
#loc7196 = loc("transpose.32316")
#loc7197 = loc("multiply.32326")
#loc7198 = loc("slice.32318")
#loc7199 = loc("negate.32319")
#loc7200 = loc("slice.32317")
#loc7201 = loc("concatenate.32320")
#loc7202 = loc("multiply.32323")
#loc7203 = loc("add.32329")
#loc7204 = loc("transpose.32091")
#loc7205 = loc("dot.32093")
#loc7206 = loc("reshape.32095")
#loc7207 = loc("transpose.32096")
#loc7208 = loc("multiply.32106")
#loc7209 = loc("slice.32098")
#loc7210 = loc("negate.32099")
#loc7211 = loc("slice.32097")
#loc7212 = loc("concatenate.32100")
#loc7213 = loc("multiply.32103")
#loc7214 = loc("add.32109")
#loc7215 = loc("broadcast.32083")
#loc7216 = loc("reshape.32084")
#loc7217 = loc("transpose.32085")
#loc7218 = loc("dot.32110")
#loc7219 = loc("multiply.32113")
#loc7220 = loc("add.32118")
#loc7221 = loc("reduce.32124")
#loc7222 = loc("broadcast.32125")
#loc7223 = loc("subtract.32126")
#loc7224 = loc("exponential.32127")
#loc7225 = loc("reduce.32133")
#loc7226 = loc("broadcast.32134")
#loc7227 = loc("divide.32135")
#loc7228 = loc("broadcast.32076")
#loc7229 = loc("reshape.32077")
#loc7230 = loc("dot.32136")
#loc7231 = loc("transpose.32138")
#loc7232 = loc("reshape.32140")
#loc7233 = loc("transpose.32072")
#loc7234 = loc("dot.32141")
#loc7235 = loc("reshape.32142")
#loc7236 = loc("add.32145")
#loc7237 = loc("power.32147")
#loc7238 = loc("reduce.32154")
#loc7239 = loc("multiply.32163")
#loc7240 = loc("reshape.32164")
#loc7241 = loc("add.32168")
#loc7242 = loc("rsqrt.32169")
#loc7243 = loc("reshape.32170")
#loc7244 = loc("broadcast.32171")
#loc7245 = loc("multiply.32172")
#loc7246 = loc("add.32063")
#loc7247 = loc("broadcast.32173")
#loc7248 = loc("multiply.32174")
#loc7249 = loc("reshape.32185")
#loc7250 = loc("transpose.32184")
#loc7251 = loc("dot.32186")
#loc7252 = loc("reshape.32187")
#loc7253 = loc("custom-call.32205")
#loc7254 = loc("transpose.32054")
#loc7255 = loc("dot.32176")
#loc7256 = loc("reshape.32177")
#loc7257 = loc("multiply.32206")
#loc7258 = loc("reshape.32207")
#loc7259 = loc("transpose.32049")
#loc7260 = loc("dot.32208")
#loc7261 = loc("reshape.32209")
#loc7262 = loc("add.32212")
#loc7263 = loc("power.32214")
#loc7264 = loc("reduce.32221")
#loc7265 = loc("multiply.32230")
#loc7266 = loc("reshape.32231")
#loc7267 = loc("add.32235")
#loc7268 = loc("rsqrt.32236")
#loc7269 = loc("reshape.32237")
#loc7270 = loc("broadcast.32238")
#loc7271 = loc("multiply.32239")
#loc7272 = loc("add.32040")
#loc7273 = loc("broadcast.32240")
#loc7274 = loc("multiply.32241")
#loc7275 = loc("reshape.32284")
#loc7276 = loc("transpose.32283")
#loc7277 = loc("dot.32285")
#loc7278 = loc("transpose.32288")
#loc7279 = loc("multiply.32295")
#loc7280 = loc("slice.32290")
#loc7281 = loc("negate.32291")
#loc7282 = loc("slice.32289")
#loc7283 = loc("concatenate.32292")
#loc7284 = loc("multiply.32293")
#loc7285 = loc("add.32298")
#loc7286 = loc("transpose.32261")
#loc7287 = loc("dot.32263")
#loc7288 = loc("transpose.32266")
#loc7289 = loc("multiply.32273")
#loc7290 = loc("slice.32268")
#loc7291 = loc("negate.32269")
#loc7292 = loc("slice.32267")
#loc7293 = loc("concatenate.32270")
#loc7294 = loc("multiply.32271")
#loc7295 = loc("add.32276")
#loc7296 = loc("concatenate.32299")
#loc7297 = loc("broadcast.32303")
#loc7298 = loc("reshape.32304")
#loc7299 = loc("transpose.32305")
#loc7300 = loc("dot.32330")
#loc7301 = loc("multiply.32333")
#loc7302 = loc("add.32338")
#loc7303 = loc("reduce.32344")
#loc7304 = loc("broadcast.32345")
#loc7305 = loc("subtract.32346")
#loc7306 = loc("exponential.32347")
#loc7307 = loc("reduce.32353")
#loc7308 = loc("broadcast.32354")
#loc7309 = loc("divide.32355")
#loc7310 = loc("transpose.32031")
#loc7311 = loc("dot.32243")
#loc7312 = loc("transpose.32246")
#loc7313 = loc("transpose.314")
#loc7314 = loc("dot.32023")
#loc7315 = loc("transpose.32026")
#loc7316 = loc("concatenate.32247")
#loc7317 = loc("broadcast.32251")
#loc7318 = loc("reshape.32252")
#loc7319 = loc("dot.32356")
#loc7320 = loc("transpose.32358")
#loc7321 = loc("reshape.32360")
#loc7322 = loc("transpose.309")
#loc7323 = loc("dot.32361")
#loc7324 = loc("reshape.32362")
#loc7325 = loc("add.32365")
#loc7326 = loc("power.32367")
#loc7327 = loc("reduce.32374")
#loc7328 = loc("multiply.32383")
#loc7329 = loc("reshape.32384")
#loc7330 = loc("add.32388")
#loc7331 = loc("rsqrt.32389")
#loc7332 = loc("reshape.32390")
#loc7333 = loc("broadcast.32391")
#loc7334 = loc("multiply.32392")
#loc7335 = loc("add.300")
#loc7336 = loc("broadcast.32393")
#loc7337 = loc("multiply.32394")
#loc7338 = loc("reshape.32405")
#loc7339 = loc("transpose.32404")
#loc7340 = loc("dot.32406")
#loc7341 = loc("reshape.32407")
#loc7342 = loc("custom-call.32425")
#loc7343 = loc("transpose.291")
#loc7344 = loc("dot.32396")
#loc7345 = loc("reshape.32397")
#loc7346 = loc("multiply.32426")
#loc7347 = loc("reshape.32427")
#loc7348 = loc("transpose.286")
#loc7349 = loc("dot.32428")
#loc7350 = loc("reshape.32429")
#loc7351 = loc("add.32432")
#loc7352 = loc("power.32434")
#loc7353 = loc("reduce.32441")
#loc7354 = loc("multiply.32450")
#loc7355 = loc("reshape.32451")
#loc7356 = loc("add.32455")
#loc7357 = loc("rsqrt.32456")
#loc7358 = loc("reshape.32457")
#loc7359 = loc("broadcast.32458")
#loc7360 = loc("multiply.32459")
#loc7361 = loc("add.277")
#loc7362 = loc("broadcast.32460")
#loc7363 = loc("multiply.32461")
#loc7364 = loc("reshape.32752")
#loc7365 = loc("transpose.32751")
#loc7366 = loc("dot.32753")
#loc7367 = loc("reshape.32755")
#loc7368 = loc("transpose.32756")
#loc7369 = loc("multiply.32766")
#loc7370 = loc("slice.32758")
#loc7371 = loc("negate.32759")
#loc7372 = loc("slice.32757")
#loc7373 = loc("concatenate.32760")
#loc7374 = loc("multiply.32763")
#loc7375 = loc("add.32769")
#loc7376 = loc("transpose.32531")
#loc7377 = loc("dot.32533")
#loc7378 = loc("reshape.32535")
#loc7379 = loc("transpose.32536")
#loc7380 = loc("multiply.32546")
#loc7381 = loc("slice.32538")
#loc7382 = loc("negate.32539")
#loc7383 = loc("slice.32537")
#loc7384 = loc("concatenate.32540")
#loc7385 = loc("multiply.32543")
#loc7386 = loc("add.32549")
#loc7387 = loc("broadcast.32523")
#loc7388 = loc("reshape.32524")
#loc7389 = loc("transpose.32525")
#loc7390 = loc("dot.32550")
#loc7391 = loc("multiply.32553")
#loc7392 = loc("add.32558")
#loc7393 = loc("reduce.32564")
#loc7394 = loc("broadcast.32565")
#loc7395 = loc("subtract.32566")
#loc7396 = loc("exponential.32567")
#loc7397 = loc("reduce.32573")
#loc7398 = loc("broadcast.32574")
#loc7399 = loc("divide.32575")
#loc7400 = loc("broadcast.32516")
#loc7401 = loc("reshape.32517")
#loc7402 = loc("dot.32576")
#loc7403 = loc("transpose.32578")
#loc7404 = loc("reshape.32580")
#loc7405 = loc("transpose.32512")
#loc7406 = loc("dot.32581")
#loc7407 = loc("reshape.32582")
#loc7408 = loc("add.32585")
#loc7409 = loc("power.32587")
#loc7410 = loc("reduce.32594")
#loc7411 = loc("multiply.32603")
#loc7412 = loc("reshape.32604")
#loc7413 = loc("add.32608")
#loc7414 = loc("rsqrt.32609")
#loc7415 = loc("reshape.32610")
#loc7416 = loc("broadcast.32611")
#loc7417 = loc("multiply.32612")
#loc7418 = loc("add.32503")
#loc7419 = loc("broadcast.32613")
#loc7420 = loc("multiply.32614")
#loc7421 = loc("reshape.32625")
#loc7422 = loc("transpose.32624")
#loc7423 = loc("dot.32626")
#loc7424 = loc("reshape.32627")
#loc7425 = loc("custom-call.32645")
#loc7426 = loc("transpose.32494")
#loc7427 = loc("dot.32616")
#loc7428 = loc("reshape.32617")
#loc7429 = loc("multiply.32646")
#loc7430 = loc("reshape.32647")
#loc7431 = loc("transpose.32489")
#loc7432 = loc("dot.32648")
#loc7433 = loc("reshape.32649")
#loc7434 = loc("add.32652")
#loc7435 = loc("power.32654")
#loc7436 = loc("reduce.32661")
#loc7437 = loc("multiply.32670")
#loc7438 = loc("reshape.32671")
#loc7439 = loc("add.32675")
#loc7440 = loc("rsqrt.32676")
#loc7441 = loc("reshape.32677")
#loc7442 = loc("broadcast.32678")
#loc7443 = loc("multiply.32679")
#loc7444 = loc("add.32480")
#loc7445 = loc("broadcast.32680")
#loc7446 = loc("multiply.32681")
#loc7447 = loc("reshape.32724")
#loc7448 = loc("transpose.32723")
#loc7449 = loc("dot.32725")
#loc7450 = loc("transpose.32728")
#loc7451 = loc("multiply.32735")
#loc7452 = loc("slice.32730")
#loc7453 = loc("negate.32731")
#loc7454 = loc("slice.32729")
#loc7455 = loc("concatenate.32732")
#loc7456 = loc("multiply.32733")
#loc7457 = loc("add.32738")
#loc7458 = loc("transpose.32701")
#loc7459 = loc("dot.32703")
#loc7460 = loc("transpose.32706")
#loc7461 = loc("multiply.32713")
#loc7462 = loc("slice.32708")
#loc7463 = loc("negate.32709")
#loc7464 = loc("slice.32707")
#loc7465 = loc("concatenate.32710")
#loc7466 = loc("multiply.32711")
#loc7467 = loc("add.32716")
#loc7468 = loc("concatenate.32739")
#loc7469 = loc("broadcast.32743")
#loc7470 = loc("reshape.32744")
#loc7471 = loc("transpose.32745")
#loc7472 = loc("dot.32770")
#loc7473 = loc("multiply.32773")
#loc7474 = loc("add.32778")
#loc7475 = loc("reduce.32784")
#loc7476 = loc("broadcast.32785")
#loc7477 = loc("subtract.32786")
#loc7478 = loc("exponential.32787")
#loc7479 = loc("reduce.32793")
#loc7480 = loc("broadcast.32794")
#loc7481 = loc("divide.32795")
#loc7482 = loc("transpose.32471")
#loc7483 = loc("dot.32683")
#loc7484 = loc("transpose.32686")
#loc7485 = loc("transpose.268")
#loc7486 = loc("dot.32463")
#loc7487 = loc("transpose.32466")
#loc7488 = loc("concatenate.32687")
#loc7489 = loc("broadcast.32691")
#loc7490 = loc("reshape.32692")
#loc7491 = loc("dot.32796")
#loc7492 = loc("transpose.32798")
#loc7493 = loc("reshape.32800")
#loc7494 = loc("transpose.263")
#loc7495 = loc("dot.32801")
#loc7496 = loc("reshape.32802")
#loc7497 = loc("add.32805")
#loc7498 = loc("power.32807")
#loc7499 = loc("reduce.32814")
#loc7500 = loc("multiply.32823")
#loc7501 = loc("reshape.32824")
#loc7502 = loc("add.32828")
#loc7503 = loc("rsqrt.32829")
#loc7504 = loc("reshape.32830")
#loc7505 = loc("broadcast.32831")
#loc7506 = loc("multiply.32832")
#loc7507 = loc("add.254")
#loc7508 = loc("broadcast.32833")
#loc7509 = loc("multiply.32834")
#loc7510 = loc("reshape.32845")
#loc7511 = loc("transpose.32844")
#loc7512 = loc("dot.32846")
#loc7513 = loc("reshape.32847")
#loc7514 = loc("custom-call.32865")
#loc7515 = loc("transpose.245")
#loc7516 = loc("dot.32836")
#loc7517 = loc("reshape.32837")
#loc7518 = loc("multiply.32866")
#loc7519 = loc("reshape.32867")
#loc7520 = loc("transpose.240")
#loc7521 = loc("dot.32868")
#loc7522 = loc("reshape.32869")
#loc7523 = loc("add.32872")
#loc7524 = loc("power.32874")
#loc7525 = loc("reduce.32881")
#loc7526 = loc("multiply.32890")
#loc7527 = loc("reshape.32891")
#loc7528 = loc("add.32895")
#loc7529 = loc("rsqrt.32896")
#loc7530 = loc("reshape.32897")
#loc7531 = loc("broadcast.32898")
#loc7532 = loc("multiply.32899")
#loc7533 = loc("add.231")
#loc7534 = loc("broadcast.32900")
#loc7535 = loc("multiply.32901")
#loc7536 = loc("reshape.33192")
#loc7537 = loc("transpose.33191")
#loc7538 = loc("dot.33193")
#loc7539 = loc("reshape.33195")
#loc7540 = loc("transpose.33196")
#loc7541 = loc("multiply.33206")
#loc7542 = loc("slice.33198")
#loc7543 = loc("negate.33199")
#loc7544 = loc("slice.33197")
#loc7545 = loc("concatenate.33200")
#loc7546 = loc("multiply.33203")
#loc7547 = loc("add.33209")
#loc7548 = loc("transpose.32971")
#loc7549 = loc("dot.32973")
#loc7550 = loc("reshape.32975")
#loc7551 = loc("transpose.32976")
#loc7552 = loc("multiply.32986")
#loc7553 = loc("slice.32978")
#loc7554 = loc("negate.32979")
#loc7555 = loc("slice.32977")
#loc7556 = loc("concatenate.32980")
#loc7557 = loc("multiply.32983")
#loc7558 = loc("add.32989")
#loc7559 = loc("broadcast.32963")
#loc7560 = loc("reshape.32964")
#loc7561 = loc("transpose.32965")
#loc7562 = loc("dot.32990")
#loc7563 = loc("multiply.32993")
#loc7564 = loc("add.32998")
#loc7565 = loc("reduce.33004")
#loc7566 = loc("broadcast.33005")
#loc7567 = loc("subtract.33006")
#loc7568 = loc("exponential.33007")
#loc7569 = loc("reduce.33013")
#loc7570 = loc("broadcast.33014")
#loc7571 = loc("divide.33015")
#loc7572 = loc("broadcast.32956")
#loc7573 = loc("reshape.32957")
#loc7574 = loc("dot.33016")
#loc7575 = loc("transpose.33018")
#loc7576 = loc("reshape.33020")
#loc7577 = loc("transpose.32952")
#loc7578 = loc("dot.33021")
#loc7579 = loc("reshape.33022")
#loc7580 = loc("add.33025")
#loc7581 = loc("power.33027")
#loc7582 = loc("reduce.33034")
#loc7583 = loc("multiply.33043")
#loc7584 = loc("reshape.33044")
#loc7585 = loc("add.33048")
#loc7586 = loc("rsqrt.33049")
#loc7587 = loc("reshape.33050")
#loc7588 = loc("broadcast.33051")
#loc7589 = loc("multiply.33052")
#loc7590 = loc("add.32943")
#loc7591 = loc("broadcast.33053")
#loc7592 = loc("multiply.33054")
#loc7593 = loc("reshape.33065")
#loc7594 = loc("transpose.33064")
#loc7595 = loc("dot.33066")
#loc7596 = loc("reshape.33067")
#loc7597 = loc("custom-call.33085")
#loc7598 = loc("transpose.32934")
#loc7599 = loc("dot.33056")
#loc7600 = loc("reshape.33057")
#loc7601 = loc("multiply.33086")
#loc7602 = loc("reshape.33087")
#loc7603 = loc("transpose.32929")
#loc7604 = loc("dot.33088")
#loc7605 = loc("reshape.33089")
#loc7606 = loc("add.33092")
#loc7607 = loc("power.33094")
#loc7608 = loc("reduce.33101")
#loc7609 = loc("multiply.33110")
#loc7610 = loc("reshape.33111")
#loc7611 = loc("add.33115")
#loc7612 = loc("rsqrt.33116")
#loc7613 = loc("reshape.33117")
#loc7614 = loc("broadcast.33118")
#loc7615 = loc("multiply.33119")
#loc7616 = loc("add.32920")
#loc7617 = loc("broadcast.33120")
#loc7618 = loc("multiply.33121")
#loc7619 = loc("reshape.33164")
#loc7620 = loc("transpose.33163")
#loc7621 = loc("dot.33165")
#loc7622 = loc("transpose.33168")
#loc7623 = loc("multiply.33175")
#loc7624 = loc("slice.33170")
#loc7625 = loc("negate.33171")
#loc7626 = loc("slice.33169")
#loc7627 = loc("concatenate.33172")
#loc7628 = loc("multiply.33173")
#loc7629 = loc("add.33178")
#loc7630 = loc("transpose.33141")
#loc7631 = loc("dot.33143")
#loc7632 = loc("transpose.33146")
#loc7633 = loc("multiply.33153")
#loc7634 = loc("slice.33148")
#loc7635 = loc("negate.33149")
#loc7636 = loc("slice.33147")
#loc7637 = loc("concatenate.33150")
#loc7638 = loc("multiply.33151")
#loc7639 = loc("add.33156")
#loc7640 = loc("concatenate.33179")
#loc7641 = loc("broadcast.33183")
#loc7642 = loc("reshape.33184")
#loc7643 = loc("transpose.33185")
#loc7644 = loc("dot.33210")
#loc7645 = loc("multiply.33213")
#loc7646 = loc("add.33218")
#loc7647 = loc("reduce.33224")
#loc7648 = loc("broadcast.33225")
#loc7649 = loc("subtract.33226")
#loc7650 = loc("exponential.33227")
#loc7651 = loc("reduce.33233")
#loc7652 = loc("broadcast.33234")
#loc7653 = loc("divide.33235")
#loc7654 = loc("transpose.32911")
#loc7655 = loc("dot.33123")
#loc7656 = loc("transpose.33126")
#loc7657 = loc("transpose.222")
#loc7658 = loc("dot.32903")
#loc7659 = loc("transpose.32906")
#loc7660 = loc("concatenate.33127")
#loc7661 = loc("broadcast.33131")
#loc7662 = loc("reshape.33132")
#loc7663 = loc("dot.33236")
#loc7664 = loc("transpose.33238")
#loc7665 = loc("reshape.33240")
#loc7666 = loc("transpose.217")
#loc7667 = loc("dot.33241")
#loc7668 = loc("reshape.33242")
#loc7669 = loc("add.33245")
#loc7670 = loc("power.33247")
#loc7671 = loc("reduce.33254")
#loc7672 = loc("multiply.33263")
#loc7673 = loc("reshape.33264")
#loc7674 = loc("add.33268")
#loc7675 = loc("rsqrt.33269")
#loc7676 = loc("reshape.33270")
#loc7677 = loc("broadcast.33271")
#loc7678 = loc("multiply.33272")
#loc7679 = loc("add.208")
#loc7680 = loc("broadcast.33273")
#loc7681 = loc("multiply.33274")
#loc7682 = loc("reshape.33285")
#loc7683 = loc("transpose.33284")
#loc7684 = loc("dot.33286")
#loc7685 = loc("reshape.33287")
#loc7686 = loc("custom-call.33305")
#loc7687 = loc("transpose.199")
#loc7688 = loc("dot.33276")
#loc7689 = loc("reshape.33277")
#loc7690 = loc("multiply.33306")
#loc7691 = loc("reshape.33307")
#loc7692 = loc("transpose.194")
#loc7693 = loc("dot.33308")
#loc7694 = loc("reshape.33309")
#loc7695 = loc("add.33312")
#loc7696 = loc("power.33314")
#loc7697 = loc("reduce.33321")
#loc7698 = loc("multiply.33330")
#loc7699 = loc("reshape.33331")
#loc7700 = loc("add.33335")
#loc7701 = loc("rsqrt.33336")
#loc7702 = loc("reshape.33337")
#loc7703 = loc("broadcast.33338")
#loc7704 = loc("multiply.33339")
#loc7705 = loc("add.185")
#loc7706 = loc("broadcast.33340")
#loc7707 = loc("multiply.33341")
#loc7708 = loc("reshape.33632")
#loc7709 = loc("transpose.33631")
#loc7710 = loc("dot.33633")
#loc7711 = loc("reshape.33635")
#loc7712 = loc("transpose.33636")
#loc7713 = loc("multiply.33646")
#loc7714 = loc("slice.33638")
#loc7715 = loc("negate.33639")
#loc7716 = loc("slice.33637")
#loc7717 = loc("concatenate.33640")
#loc7718 = loc("multiply.33643")
#loc7719 = loc("add.33649")
#loc7720 = loc("transpose.33411")
#loc7721 = loc("dot.33413")
#loc7722 = loc("reshape.33415")
#loc7723 = loc("transpose.33416")
#loc7724 = loc("multiply.33426")
#loc7725 = loc("slice.33418")
#loc7726 = loc("negate.33419")
#loc7727 = loc("slice.33417")
#loc7728 = loc("concatenate.33420")
#loc7729 = loc("multiply.33423")
#loc7730 = loc("add.33429")
#loc7731 = loc("broadcast.33403")
#loc7732 = loc("reshape.33404")
#loc7733 = loc("transpose.33405")
#loc7734 = loc("dot.33430")
#loc7735 = loc("multiply.33433")
#loc7736 = loc("add.33438")
#loc7737 = loc("reduce.33444")
#loc7738 = loc("broadcast.33445")
#loc7739 = loc("subtract.33446")
#loc7740 = loc("exponential.33447")
#loc7741 = loc("reduce.33453")
#loc7742 = loc("broadcast.33454")
#loc7743 = loc("divide.33455")
#loc7744 = loc("broadcast.33396")
#loc7745 = loc("reshape.33397")
#loc7746 = loc("dot.33456")
#loc7747 = loc("transpose.33458")
#loc7748 = loc("reshape.33460")
#loc7749 = loc("transpose.33392")
#loc7750 = loc("dot.33461")
#loc7751 = loc("reshape.33462")
#loc7752 = loc("add.33465")
#loc7753 = loc("power.33467")
#loc7754 = loc("reduce.33474")
#loc7755 = loc("multiply.33483")
#loc7756 = loc("reshape.33484")
#loc7757 = loc("add.33488")
#loc7758 = loc("rsqrt.33489")
#loc7759 = loc("reshape.33490")
#loc7760 = loc("broadcast.33491")
#loc7761 = loc("multiply.33492")
#loc7762 = loc("add.33383")
#loc7763 = loc("broadcast.33493")
#loc7764 = loc("multiply.33494")
#loc7765 = loc("reshape.33505")
#loc7766 = loc("transpose.33504")
#loc7767 = loc("dot.33506")
#loc7768 = loc("reshape.33507")
#loc7769 = loc("custom-call.33525")
#loc7770 = loc("transpose.33374")
#loc7771 = loc("dot.33496")
#loc7772 = loc("reshape.33497")
#loc7773 = loc("multiply.33526")
#loc7774 = loc("reshape.33527")
#loc7775 = loc("transpose.33369")
#loc7776 = loc("dot.33528")
#loc7777 = loc("reshape.33529")
#loc7778 = loc("add.33532")
#loc7779 = loc("power.33534")
#loc7780 = loc("reduce.33541")
#loc7781 = loc("multiply.33550")
#loc7782 = loc("reshape.33551")
#loc7783 = loc("add.33555")
#loc7784 = loc("rsqrt.33556")
#loc7785 = loc("reshape.33557")
#loc7786 = loc("broadcast.33558")
#loc7787 = loc("multiply.33559")
#loc7788 = loc("add.33360")
#loc7789 = loc("broadcast.33560")
#loc7790 = loc("multiply.33561")
#loc7791 = loc("reshape.33604")
#loc7792 = loc("transpose.33603")
#loc7793 = loc("dot.33605")
#loc7794 = loc("transpose.33608")
#loc7795 = loc("multiply.33615")
#loc7796 = loc("slice.33610")
#loc7797 = loc("negate.33611")
#loc7798 = loc("slice.33609")
#loc7799 = loc("concatenate.33612")
#loc7800 = loc("multiply.33613")
#loc7801 = loc("add.33618")
#loc7802 = loc("transpose.33581")
#loc7803 = loc("dot.33583")
#loc7804 = loc("transpose.33586")
#loc7805 = loc("multiply.33593")
#loc7806 = loc("slice.33588")
#loc7807 = loc("negate.33589")
#loc7808 = loc("slice.33587")
#loc7809 = loc("concatenate.33590")
#loc7810 = loc("multiply.33591")
#loc7811 = loc("add.33596")
#loc7812 = loc("concatenate.33619")
#loc7813 = loc("broadcast.33623")
#loc7814 = loc("reshape.33624")
#loc7815 = loc("transpose.33625")
#loc7816 = loc("dot.33650")
#loc7817 = loc("multiply.33653")
#loc7818 = loc("add.33658")
#loc7819 = loc("reduce.33664")
#loc7820 = loc("broadcast.33665")
#loc7821 = loc("subtract.33666")
#loc7822 = loc("exponential.33667")
#loc7823 = loc("reduce.33673")
#loc7824 = loc("broadcast.33674")
#loc7825 = loc("divide.33675")
#loc7826 = loc("transpose.33351")
#loc7827 = loc("dot.33563")
#loc7828 = loc("transpose.33566")
#loc7829 = loc("transpose.176")
#loc7830 = loc("dot.33343")
#loc7831 = loc("transpose.33346")
#loc7832 = loc("concatenate.33567")
#loc7833 = loc("broadcast.33571")
#loc7834 = loc("reshape.33572")
#loc7835 = loc("dot.33676")
#loc7836 = loc("transpose.33678")
#loc7837 = loc("reshape.33680")
#loc7838 = loc("transpose.171")
#loc7839 = loc("dot.33681")
#loc7840 = loc("reshape.33682")
#loc7841 = loc("add.33685")
#loc7842 = loc("power.33687")
#loc7843 = loc("reduce.33694")
#loc7844 = loc("multiply.33703")
#loc7845 = loc("reshape.33704")
#loc7846 = loc("add.33708")
#loc7847 = loc("rsqrt.33709")
#loc7848 = loc("reshape.33710")
#loc7849 = loc("broadcast.33711")
#loc7850 = loc("multiply.33712")
#loc7851 = loc("add.162")
#loc7852 = loc("broadcast.33713")
#loc7853 = loc("multiply.33714")
#loc7854 = loc("reshape.33725")
#loc7855 = loc("transpose.33724")
#loc7856 = loc("dot.33726")
#loc7857 = loc("reshape.33727")
#loc7858 = loc("custom-call.33745")
#loc7859 = loc("transpose.153")
#loc7860 = loc("dot.33716")
#loc7861 = loc("reshape.33717")
#loc7862 = loc("multiply.33746")
#loc7863 = loc("reshape.33747")
#loc7864 = loc("transpose.148")
#loc7865 = loc("dot.33748")
#loc7866 = loc("reshape.33749")
#loc7867 = loc("add.33752")
#loc7868 = loc("power.33754")
#loc7869 = loc("reduce.33761")
#loc7870 = loc("multiply.33770")
#loc7871 = loc("reshape.33771")
#loc7872 = loc("add.33775")
#loc7873 = loc("rsqrt.33776")
#loc7874 = loc("reshape.33777")
#loc7875 = loc("broadcast.33778")
#loc7876 = loc("multiply.33779")
#loc7877 = loc("add.139")
#loc7878 = loc("broadcast.33780")
#loc7879 = loc("multiply.33781")
#loc7880 = loc("slice.33782")
#loc7881 = loc("reshape.33783")
#loc7882 = loc("transpose.130")
#loc7883 = loc("dot.33784")
#loc7884 = loc("reshape.33785")
#loc7885 = loc("broadcast.33788")
#loc7886 = loc("add.33789")
#loc7887 = loc("multiply.33791")
#loc7888 = loc("add.33794")
#loc7889 = loc("reshape.33795")
#loc7890 = loc("dot.33796")
#loc7891 = loc("reshape.33797")
#loc7892 = loc("add.33801")
#loc7893 = loc("reshape.100")
#loc7894 = loc("slice.101")
#loc7895 = loc("reshape.102")
#loc7896 = loc("multiply.103")
#loc7897 = loc("add.105")
#loc7898 = loc("multiply.61")
#loc7899 = loc("sine.63")
#loc7900 = loc("cosine.62")
#loc7901 = loc("concatenate.64")
#loc7902 = loc("convert.65")
#loc7903 = loc("reshape.66")
#loc7904 = loc("slice.67")
#loc7905 = loc("reshape.68")
#loc7906 = loc("add.107")
#loc7907 = loc("multiply.108")
#loc7908 = loc("broadcast.33803")
#loc7909 = loc("add.33804")
#loc7910 = loc(fused[#loc788, #loc789])
#loc7911 = loc(fused[#loc843, #loc844])
#loc7912 = loc("convolution.18812_weight"(#loc878))
#loc7913 = loc(fused[#loc883, #loc884])
#loc7914 = loc("gather.18808_permuteInput"(#loc886))
#loc7915 = loc("gather.18808_reshapeInput"(#loc886))
#loc7916 = loc("gather.18808_reshapeStartIndices"(#loc886))
#loc7917 = loc("gather.18808_reshapeOutput"(#loc886))
#loc7918 = loc("gather.18808_permuteOutput"(#loc886))
#loc7919 = loc(fused[#loc4804, #loc4805])
#loc7920 = loc("gather.1162_permuteInput"(#loc4807))
#loc7921 = loc("gather.1162_reshapeInput"(#loc4807))
#loc7922 = loc("gather.1162_reshapeStartIndices"(#loc4807))
#loc7923 = loc("gather.1162_reshapeOutput"(#loc4807))
#loc7924 = loc("gather.1162_permuteOutput"(#loc4807))
#loc7925 = loc(fused[#loc4827, #loc4828])
