#dram = #ttnn.buffer_type<dram>
#loc = loc(unknown)
#loc7 = loc("p0.72")
#loc8 = loc("p1.79")
#loc9 = loc("p2.84")
#loc10 = loc("p3.110")
#loc11 = loc("p4.114")
#loc12 = loc("p5.122")
#loc13 = loc("p6.126")
#loc14 = loc("p7.133")
#loc15 = loc("p8.144")
#loc16 = loc("p9.149")
#loc17 = loc("p10.156")
#loc18 = loc("p11.167")
#loc19 = loc("p12.172")
#loc20 = loc("p13.179")
#loc21 = loc("p14.190")
#loc22 = loc("p15.195")
#loc23 = loc("p16.202")
#loc24 = loc("p17.213")
#loc25 = loc("p18.218")
#loc26 = loc("p19.225")
#loc27 = loc("p20.236")
#loc28 = loc("p21.241")
#loc29 = loc("p22.248")
#loc30 = loc("p23.259")
#loc31 = loc("p24.264")
#loc32 = loc("p25.271")
#loc33 = loc("p26.282")
#loc34 = loc("p27.287")
#loc35 = loc("p28.294")
#loc36 = loc("p29.305")
#loc37 = loc("p30.310")
#loc38 = loc("p31.317")
#loc39 = loc("p32.328")
#loc40 = loc("p33.333")
#loc41 = loc("p34.340")
#loc42 = loc("p35.351")
#loc43 = loc("p36.356")
#loc44 = loc("p37.363")
#loc45 = loc("p38.374")
#loc46 = loc("p39.379")
#loc47 = loc("p40.386")
#loc48 = loc("p41.397")
#loc49 = loc("p42.402")
#loc50 = loc("p43.409")
#loc51 = loc("p44.420")
#loc52 = loc("p45.425")
#loc53 = loc("p46.432")
#loc54 = loc("p47.443")
#loc55 = loc("p48.448")
#loc56 = loc("p49.455")
#loc57 = loc("p50.466")
#loc58 = loc("p51.471")
#loc59 = loc("p52.478")
#loc60 = loc("p53.489")
#loc61 = loc("p54.494")
#loc62 = loc("p55.501")
#loc63 = loc("p56.512")
#loc64 = loc("p57.517")
#loc65 = loc("p58.524")
#loc66 = loc("p59.535")
#loc67 = loc("p60.540")
#loc68 = loc("p61.547")
#loc69 = loc("p62.558")
#loc70 = loc("p63.563")
#loc71 = loc("p64.570")
#loc72 = loc("p65.581")
#loc73 = loc("p66.586")
#loc74 = loc("p67.593")
#loc75 = loc("p68.604")
#loc76 = loc("p69.609")
#loc77 = loc("p70.616")
#loc78 = loc("p71.627")
#loc79 = loc("p72.632")
#loc80 = loc("p73.639")
#loc81 = loc("p74.650")
#loc82 = loc("p75.655")
#loc83 = loc("p76.662")
#loc84 = loc("p77.673")
#loc85 = loc("p78.678")
#loc86 = loc("p79.685")
#loc87 = loc("p80.696")
#loc88 = loc("p81.701")
#loc89 = loc("p82.708")
#loc90 = loc("p83.719")
#loc91 = loc("p84.724")
#loc92 = loc("p85.731")
#loc93 = loc("p86.742")
#loc94 = loc("p87.747")
#loc95 = loc("p88.754")
#loc96 = loc("p89.765")
#loc97 = loc("p90.770")
#loc98 = loc("p91.777")
#loc99 = loc("p92.788")
#loc100 = loc("p93.793")
#loc101 = loc("p94.800")
#loc102 = loc("p95.811")
#loc103 = loc("p96.816")
#loc104 = loc("p97.823")
#loc105 = loc("p98.834")
#loc106 = loc("p99.839")
#loc107 = loc("p100.846")
#loc108 = loc("p101.857")
#loc109 = loc("p102.862")
#loc110 = loc("p103.869")
#loc111 = loc("p104.880")
#loc112 = loc("p105.885")
#loc113 = loc("p106.892")
#loc114 = loc("p107.903")
#loc115 = loc("p108.908")
#loc116 = loc("p109.915")
#loc117 = loc("p110.926")
#loc118 = loc("p111.931")
#loc119 = loc("p112.938")
#loc120 = loc("p113.949")
#loc121 = loc("p114.954")
#loc122 = loc("p115.961")
#loc123 = loc("p116.972")
#loc124 = loc("p117.976")
#loc125 = loc("p118.982")
#loc126 = loc("p119.986")
#loc127 = loc("p120.1059")
#loc128 = loc("p121.1134")
#loc129 = loc("p122.1141")
#loc130 = loc("p123.1152")
#loc131 = loc("p124.1157")
#loc132 = loc("p125.1167")
#loc133 = loc("p126.1171")
#loc134 = loc("p127.1177")
#loc135 = loc("p128.1182")
#loc136 = loc("p129.1191")
#loc137 = loc("p130.1195")
#loc138 = loc("p131.1203")
#loc139 = loc("p132.1207")
#loc140 = loc("p133.1213")
#loc141 = loc("p134.1218")
#loc142 = loc("p135.1227")
#loc143 = loc("p136.1231")
#loc144 = loc("p137.1237")
#loc145 = loc("p138.1241")
#loc146 = loc("p139.1247")
#loc147 = loc("p140.1252")
#loc148 = loc("p141.1261")
#loc149 = loc("p142.1265")
#loc150 = loc("p143.1273")
#loc151 = loc("p144.1277")
#loc152 = loc("p145.1283")
#loc153 = loc("p146.1288")
#loc154 = loc("p147.1297")
#loc155 = loc("p148.1301")
#loc156 = loc("p149.1307")
#loc157 = loc("p150.1311")
#loc158 = loc("p151.1317")
#loc159 = loc("p152.1322")
#loc160 = loc("p153.1331")
#loc161 = loc("p154.1335")
#loc162 = loc("p155.1343")
#loc163 = loc("p156.1347")
#loc164 = loc("p157.1353")
#loc165 = loc("p158.1358")
#loc166 = loc("p159.1367")
#loc167 = loc("p160.1371")
#loc168 = loc("p161.1377")
#loc169 = loc("p162.1381")
#loc170 = loc("p163.1387")
#loc171 = loc("p164.1392")
#loc172 = loc("p165.1401")
#loc173 = loc("p166.1405")
#loc174 = loc("p167.1413")
#loc175 = loc("p168.1417")
#loc176 = loc("p169.1423")
#loc177 = loc("p170.1428")
#loc178 = loc("p171.1437")
#loc179 = loc("p172.1441")
#loc180 = loc("p173.1447")
#loc181 = loc("p174.1451")
#loc182 = loc("p175.1457")
#loc183 = loc("p176.1462")
#loc184 = loc("p177.1471")
#loc185 = loc("p178.1475")
#loc186 = loc("p179.1483")
#loc187 = loc("p180.1487")
#loc188 = loc("p181.1493")
#loc189 = loc("p182.1498")
#loc190 = loc("p183.1507")
#loc191 = loc("p184.1511")
#loc192 = loc("p185.1517")
#loc193 = loc("p186.1521")
#loc194 = loc("p187.1527")
#loc195 = loc("p188.1532")
#loc196 = loc("p189.1541")
#loc197 = loc("p190.1545")
#loc198 = loc("p191.1553")
#loc199 = loc("p192.1557")
#loc200 = loc("p193.1563")
#loc201 = loc("p194.1568")
#loc202 = loc("p195.1577")
#loc203 = loc("p196.1581")
#loc204 = loc("p197.1587")
#loc205 = loc("p198.1591")
#loc206 = loc("p199.1597")
#loc207 = loc("p200.1602")
#loc208 = loc("p201.1611")
#loc209 = loc("p202.1615")
#loc210 = loc("p203.1623")
#loc211 = loc("p204.1627")
#loc212 = loc("p205.1633")
#loc213 = loc("p206.1638")
#loc214 = loc("p207.1647")
#loc215 = loc("p208.1651")
#loc216 = loc("p209.1657")
#loc217 = loc("p210.1661")
#loc218 = loc("p211.1667")
#loc219 = loc("p212.1672")
#loc220 = loc("p213.1681")
#loc221 = loc("p214.1685")
#loc222 = loc("p215.1693")
#loc223 = loc("p216.1697")
#loc224 = loc("p217.1703")
#loc225 = loc("p218.1708")
#loc226 = loc("p219.1717")
#loc227 = loc("p220.1721")
#loc228 = loc("p221.1727")
#loc229 = loc("p222.1731")
#loc230 = loc("p223.1737")
#loc231 = loc("p224.1742")
#loc232 = loc("p225.1751")
#loc233 = loc("p226.1755")
#loc234 = loc("p227.1763")
#loc235 = loc("p228.1767")
#loc236 = loc("p229.1773")
#loc237 = loc("p230.1778")
#loc238 = loc("p231.1787")
#loc239 = loc("p232.1791")
#loc240 = loc("p233.1797")
#loc241 = loc("p234.1801")
#loc242 = loc("p235.1807")
#loc243 = loc("p236.1812")
#loc244 = loc("p237.1821")
#loc245 = loc("p238.1825")
#loc246 = loc("p239.1833")
#loc247 = loc("p240.1837")
#loc248 = loc("p241.1843")
#loc249 = loc("p242.1848")
#loc250 = loc("p243.1857")
#loc251 = loc("p244.1861")
#loc252 = loc("p245.1867")
#loc253 = loc("p246.1871")
#loc254 = loc("p247.1877")
#loc255 = loc("p248.1882")
#loc256 = loc("p249.1891")
#loc257 = loc("p250.1895")
#loc258 = loc("p251.1903")
#loc259 = loc("p252.1907")
#loc260 = loc("p253.1913")
#loc261 = loc("p254.1918")
#loc262 = loc("p255.1927")
#loc263 = loc("p256.1931")
#loc264 = loc("p257.1937")
#loc265 = loc("p258.1941")
#loc266 = loc("p259.1947")
#loc267 = loc("p260.1952")
#loc268 = loc("p261.1961")
#loc269 = loc("p262.1965")
#loc270 = loc("p263.1973")
#loc271 = loc("p264.1977")
#loc272 = loc("p265.1983")
#loc273 = loc("p266.1988")
#loc274 = loc("p267.1997")
#loc275 = loc("p268.2001")
#loc276 = loc("p269.2007")
#loc277 = loc("p270.2011")
#loc278 = loc("p271.2017")
#loc279 = loc("p272.2022")
#loc280 = loc("p273.2031")
#loc281 = loc("p274.2035")
#loc282 = loc("p275.2043")
#loc283 = loc("p276.2047")
#loc284 = loc("p277.2053")
#loc285 = loc("p278.2058")
#loc286 = loc("p279.2067")
#loc287 = loc("p280.2071")
#loc288 = loc("p281.2077")
#loc289 = loc("p282.2081")
#loc290 = loc("p283.2087")
#loc291 = loc("p284.2092")
#loc292 = loc("p285.2101")
#loc293 = loc("p286.2105")
#loc294 = loc("p287.2113")
#loc295 = loc("p288.2117")
#loc296 = loc("p289.2123")
#loc297 = loc("p290.2128")
#loc298 = loc("p291.2137")
#loc299 = loc("p292.2141")
#loc300 = loc("p293.2147")
#loc301 = loc("p294.2151")
#loc302 = loc("p295.2157")
#loc303 = loc("p296.2162")
#loc304 = loc("p297.2171")
#loc305 = loc("p298.2175")
#loc306 = loc("p299.2183")
#loc307 = loc("p300.2187")
#loc308 = loc("p301.2193")
#loc309 = loc("p302.2198")
#loc310 = loc("p303.2207")
#loc311 = loc("p304.2211")
#loc312 = loc("p305.2217")
#loc313 = loc("p306.2221")
#loc314 = loc("p307.2227")
#loc315 = loc("p308.2232")
#loc316 = loc("p309.2241")
#loc317 = loc("p310.2245")
#loc318 = loc("p311.2253")
#loc319 = loc("p312.2257")
#loc320 = loc("p313.2263")
#loc321 = loc("p314.2268")
#loc322 = loc("p315.2277")
#loc323 = loc("p316.2281")
#loc324 = loc("p317.2287")
#loc325 = loc("p318.2291")
#loc326 = loc("p319.2297")
#loc327 = loc("p320.2302")
#loc328 = loc("p321.2311")
#loc329 = loc("p322.2315")
#loc330 = loc("p323.2323")
#loc331 = loc("p324.2327")
#loc332 = loc("p325.2333")
#loc333 = loc("p326.2338")
#loc334 = loc("p327.2347")
#loc335 = loc("p328.2351")
#loc336 = loc("p329.2357")
#loc337 = loc("p330.2361")
#loc338 = loc("p331.2367")
#loc339 = loc("p332.2372")
#loc340 = loc("p333.2381")
#loc341 = loc("p334.2385")
#loc342 = loc("p335.2393")
#loc343 = loc("p336.2397")
#loc344 = loc("p337.2403")
#loc345 = loc("p338.2408")
#loc346 = loc("p339.2417")
#loc347 = loc("p340.2421")
#loc348 = loc("p341.2427")
#loc349 = loc("p342.2431")
#loc350 = loc("p343.2437")
#loc351 = loc("p344.2442")
#loc352 = loc("p345.2451")
#loc353 = loc("p346.2455")
#loc354 = loc("p347.2463")
#loc355 = loc("p348.2467")
#loc356 = loc("p349.2473")
#loc357 = loc("p350.2478")
#loc358 = loc("p351.2487")
#loc359 = loc("p352.2491")
#loc360 = loc("p353.2497")
#loc361 = loc("p354.2501")
#loc362 = loc("p355.2507")
#loc363 = loc("p356.2512")
#loc364 = loc("p357.2521")
#loc365 = loc("p358.2525")
#loc366 = loc("p359.2533")
#loc367 = loc("p360.2537")
#loc368 = loc("p361.2543")
#loc369 = loc("p362.2548")
#loc370 = loc("p363.2557")
#loc371 = loc("p364.2561")
#loc372 = loc("p365.2567")
#loc373 = loc("p366.2571")
#loc374 = loc("p367.2577")
#loc375 = loc("p368.2582")
#loc376 = loc("p369.2591")
#loc377 = loc("p370.2595")
#loc378 = loc("p371.2603")
#loc379 = loc("p372.2607")
#loc380 = loc("p373.2613")
#loc381 = loc("p374.2618")
#loc382 = loc("p375.2627")
#loc383 = loc("p376.2631")
#loc384 = loc("p377.2637")
#loc385 = loc("p378.2641")
#loc386 = loc("p379.2647")
#loc387 = loc("p380.2652")
#loc388 = loc("p381.2661")
#loc389 = loc("p382.2665")
#loc390 = loc("p383.2673")
#loc391 = loc("p384.2677")
#loc392 = loc("p385.2683")
#loc393 = loc("p386.2688")
#loc394 = loc("p387.2697")
#loc395 = loc("p388.2701")
#loc396 = loc("p389.2707")
#loc397 = loc("p390.2711")
#loc398 = loc("p391.2717")
#loc399 = loc("p392.2722")
#loc400 = loc("p393.2731")
#loc401 = loc("p394.2735")
#loc402 = loc("p395.2743")
#loc403 = loc("p396.2747")
#loc404 = loc("p397.2753")
#loc405 = loc("p398.2758")
#loc406 = loc("p399.2767")
#loc407 = loc("p400.2771")
#loc408 = loc("p401.2777")
#loc409 = loc("p402.2781")
#loc410 = loc("p403.2787")
#loc411 = loc("p404.2792")
#loc412 = loc("p405.2801")
#loc413 = loc("p406.2805")
#loc414 = loc("p407.2813")
#loc415 = loc("p408.2817")
#loc416 = loc("p409.2823")
#loc417 = loc("p410.2828")
#loc418 = loc("p411.2837")
#loc419 = loc("p412.2841")
#loc420 = loc("p413.2847")
#loc421 = loc("p414.2851")
#loc422 = loc("p415.2857")
#loc423 = loc("p416.2862")
#loc424 = loc("p417.2871")
#loc425 = loc("p418.2875")
#loc426 = loc("p419.2883")
#loc427 = loc("p420.2887")
#loc428 = loc("p421.2893")
#loc429 = loc("p422.2898")
#loc430 = loc("p423.2907")
#loc431 = loc("p424.2911")
#loc432 = loc("p425.2917")
#loc433 = loc("p426.2921")
#loc434 = loc("p427.2927")
#loc435 = loc("p428.2932")
#loc436 = loc("p429.2941")
#loc437 = loc("p430.2945")
#loc438 = loc("p431.2953")
#loc439 = loc("p432.2957")
#loc440 = loc("p433.2963")
#loc441 = loc("p434.2968")
#loc442 = loc("p435.2977")
#loc443 = loc("p436.2981")
#loc444 = loc("p437.2987")
#loc445 = loc("p438.2991")
#loc446 = loc("p439.2997")
#loc447 = loc("p440.3002")
#loc448 = loc("p441.3011")
#loc449 = loc("p442.3015")
#loc450 = loc("p443.3023")
#loc451 = loc("p444.3027")
#loc452 = loc("p445.3033")
#loc453 = loc("p446.3038")
#loc454 = loc("p447.3047")
#loc455 = loc("p448.3051")
#loc456 = loc("p449.3057")
#loc457 = loc("p450.3061")
#loc458 = loc("p451.3067")
#loc459 = loc("p452.3072")
#loc460 = loc("p453.3080")
#loc461 = loc("p454.3085")
#loc462 = loc("p455.3092")
#loc463 = loc("p456.3096")
#loc464 = loc("p457.3098")
#loc465 = loc("p458.3197")
#loc466 = loc("p459.3201")
#loc467 = loc("p460.3217")
#loc468 = loc("p461.3221")
#loc469 = loc("p462.3470")
#loc470 = loc("p463.3474")
#loc471 = loc("p464.3490")
#loc472 = loc("p465.3494")
#loc473 = loc("p466.3743")
#loc474 = loc("p467.3747")
#loc475 = loc("p468.3763")
#loc476 = loc("p469.3767")
#loc477 = loc("p470.4016")
#loc478 = loc("p471.4020")
#loc479 = loc("p472.4036")
#loc480 = loc("p473.4040")
#loc481 = loc("p474.4289")
#loc482 = loc("p475.4293")
#loc483 = loc("p476.4309")
#loc484 = loc("p477.4313")
#loc485 = loc("p478.4562")
#loc486 = loc("p479.4566")
#loc487 = loc("p480.4582")
#loc488 = loc("p481.4586")
#loc489 = loc("p482.4835")
#loc490 = loc("p483.4839")
#loc491 = loc("p484.4855")
#loc492 = loc("p485.4859")
#loc493 = loc("p486.5108")
#loc494 = loc("p487.5112")
#loc495 = loc("p488.5128")
#loc496 = loc("p489.5132")
#loc497 = loc("p490.5381")
#loc498 = loc("p491.5385")
#loc499 = loc("p492.5401")
#loc500 = loc("p493.5405")
#loc501 = loc("p494.5654")
#loc502 = loc("p495.5658")
#loc503 = loc("p496.5674")
#loc504 = loc("p497.5678")
#loc505 = loc("p498.5927")
#loc506 = loc("p499.5931")
#loc507 = loc("p500.5947")
#loc508 = loc("p501.5951")
#loc509 = loc("p502.6200")
#loc510 = loc("p503.6204")
#loc511 = loc("p504.6220")
#loc512 = loc("p505.6224")
#loc513 = loc("p506.6473")
#loc514 = loc("p507.6477")
#loc515 = loc("p508.6493")
#loc516 = loc("p509.6497")
#loc517 = loc("p510.6746")
#loc518 = loc("p511.6750")
#loc519 = loc("p512.6766")
#loc520 = loc("p513.6770")
#loc521 = loc("p514.7019")
#loc522 = loc("p515.7023")
#loc523 = loc("p516.7039")
#loc524 = loc("p517.7043")
#loc525 = loc("p518.7292")
#loc526 = loc("p519.7296")
#loc527 = loc("p520.7312")
#loc528 = loc("p521.7316")
#loc529 = loc("p522.7565")
#loc530 = loc("p523.7569")
#loc531 = loc("p524.7585")
#loc532 = loc("p525.7589")
#loc533 = loc("p526.7838")
#loc534 = loc("p527.7842")
#loc535 = loc("p528.7858")
#loc536 = loc("p529.7862")
#loc537 = loc("p530.8111")
#loc538 = loc("p531.8115")
#loc539 = loc("p532.8131")
#loc540 = loc("p533.8135")
#loc541 = loc("p534.8384")
#loc542 = loc("p535.8388")
#loc543 = loc("p536.8404")
#loc544 = loc("p537.8408")
#loc545 = loc("p538.8657")
#loc546 = loc("p539.8661")
#loc547 = loc("p540.8677")
#loc548 = loc("p541.8681")
#loc549 = loc("p542.8930")
#loc550 = loc("p543.8934")
#loc551 = loc("p544.8950")
#loc552 = loc("p545.8954")
#loc553 = loc("p546.9203")
#loc554 = loc("p547.9207")
#loc555 = loc("p548.9223")
#loc556 = loc("p549.9227")
#loc557 = loc("p550.9476")
#loc558 = loc("p551.9480")
#loc559 = loc("p552.9496")
#loc560 = loc("p553.9500")
#loc561 = loc("p554.9749")
#loc562 = loc("p555.9753")
#loc563 = loc("p556.9769")
#loc564 = loc("p557.9773")
#loc565 = loc("p558.10022")
#loc566 = loc("p559.10026")
#loc567 = loc("p560.10042")
#loc568 = loc("p561.10046")
#loc569 = loc("p562.10295")
#loc570 = loc("p563.10299")
#loc571 = loc("p564.10315")
#loc572 = loc("p565.10319")
#loc573 = loc("p566.11170")
#loc574 = loc("p567.18810")
#loc575 = loc("p568.25898")
#loc576 = loc("p569.25913")
#loc577 = loc("p570.25932")
#loc578 = loc("p571.25936")
#loc579 = loc("p572.25944")
#loc580 = loc("p573.25952")
#loc581 = loc("p574.26002")
#loc582 = loc("p575.26017")
#loc583 = loc("p576.26058")
#loc584 = loc("p577.26073")
#loc585 = loc("p578.26105")
#loc586 = loc("p579.26198")
#loc587 = loc("p580.26265")
#loc588 = loc("p581.26272")
#loc589 = loc("p582.26283")
#loc590 = loc("p583.26288")
#loc591 = loc("p584.26295")
#loc592 = loc("p585.26306")
#loc593 = loc("p586.26336")
#loc594 = loc("p587.26367")
#loc595 = loc("p588.26460")
#loc596 = loc("p589.26537")
#loc597 = loc("p590.26559")
#loc598 = loc("p591.26587")
#loc599 = loc("p592.26680")
#loc600 = loc("p593.26747")
#loc601 = loc("p594.26754")
#loc602 = loc("p595.26765")
#loc603 = loc("p596.26770")
#loc604 = loc("p597.26777")
#loc605 = loc("p598.26788")
#loc606 = loc("p599.26807")
#loc607 = loc("p600.26900")
#loc608 = loc("p601.26977")
#loc609 = loc("p602.26999")
#loc610 = loc("p603.27027")
#loc611 = loc("p604.27120")
#loc612 = loc("p605.27187")
#loc613 = loc("p606.27194")
#loc614 = loc("p607.27205")
#loc615 = loc("p608.27210")
#loc616 = loc("p609.27217")
#loc617 = loc("p610.27228")
#loc618 = loc("p611.27247")
#loc619 = loc("p612.27340")
#loc620 = loc("p613.27417")
#loc621 = loc("p614.27439")
#loc622 = loc("p615.27467")
#loc623 = loc("p616.27560")
#loc624 = loc("p617.27627")
#loc625 = loc("p618.27634")
#loc626 = loc("p619.27645")
#loc627 = loc("p620.27650")
#loc628 = loc("p621.27657")
#loc629 = loc("p622.27668")
#loc630 = loc("p623.27687")
#loc631 = loc("p624.27780")
#loc632 = loc("p625.27857")
#loc633 = loc("p626.27879")
#loc634 = loc("p627.27907")
#loc635 = loc("p628.28000")
#loc636 = loc("p629.28067")
#loc637 = loc("p630.28074")
#loc638 = loc("p631.28085")
#loc639 = loc("p632.28090")
#loc640 = loc("p633.28097")
#loc641 = loc("p634.28108")
#loc642 = loc("p635.28127")
#loc643 = loc("p636.28220")
#loc644 = loc("p637.28297")
#loc645 = loc("p638.28319")
#loc646 = loc("p639.28347")
#loc647 = loc("p640.28440")
#loc648 = loc("p641.28507")
#loc649 = loc("p642.28514")
#loc650 = loc("p643.28525")
#loc651 = loc("p644.28530")
#loc652 = loc("p645.28537")
#loc653 = loc("p646.28548")
#loc654 = loc("p647.28567")
#loc655 = loc("p648.28660")
#loc656 = loc("p649.28737")
#loc657 = loc("p650.28759")
#loc658 = loc("p651.28787")
#loc659 = loc("p652.28880")
#loc660 = loc("p653.28947")
#loc661 = loc("p654.28954")
#loc662 = loc("p655.28965")
#loc663 = loc("p656.28970")
#loc664 = loc("p657.28977")
#loc665 = loc("p658.28988")
#loc666 = loc("p659.29007")
#loc667 = loc("p660.29100")
#loc668 = loc("p661.29177")
#loc669 = loc("p662.29199")
#loc670 = loc("p663.29227")
#loc671 = loc("p664.29320")
#loc672 = loc("p665.29387")
#loc673 = loc("p666.29394")
#loc674 = loc("p667.29405")
#loc675 = loc("p668.29410")
#loc676 = loc("p669.29417")
#loc677 = loc("p670.29428")
#loc678 = loc("p671.29447")
#loc679 = loc("p672.29540")
#loc680 = loc("p673.29617")
#loc681 = loc("p674.29639")
#loc682 = loc("p675.29667")
#loc683 = loc("p676.29760")
#loc684 = loc("p677.29827")
#loc685 = loc("p678.29834")
#loc686 = loc("p679.29845")
#loc687 = loc("p680.29850")
#loc688 = loc("p681.29857")
#loc689 = loc("p682.29868")
#loc690 = loc("p683.29887")
#loc691 = loc("p684.29980")
#loc692 = loc("p685.30057")
#loc693 = loc("p686.30079")
#loc694 = loc("p687.30107")
#loc695 = loc("p688.30200")
#loc696 = loc("p689.30267")
#loc697 = loc("p690.30274")
#loc698 = loc("p691.30285")
#loc699 = loc("p692.30290")
#loc700 = loc("p693.30297")
#loc701 = loc("p694.30308")
#loc702 = loc("p695.30327")
#loc703 = loc("p696.30420")
#loc704 = loc("p697.30497")
#loc705 = loc("p698.30519")
#loc706 = loc("p699.30547")
#loc707 = loc("p700.30640")
#loc708 = loc("p701.30707")
#loc709 = loc("p702.30714")
#loc710 = loc("p703.30725")
#loc711 = loc("p704.30730")
#loc712 = loc("p705.30737")
#loc713 = loc("p706.30748")
#loc714 = loc("p707.30767")
#loc715 = loc("p708.30860")
#loc716 = loc("p709.30937")
#loc717 = loc("p710.30959")
#loc718 = loc("p711.30987")
#loc719 = loc("p712.31080")
#loc720 = loc("p713.31147")
#loc721 = loc("p714.31154")
#loc722 = loc("p715.31165")
#loc723 = loc("p716.31170")
#loc724 = loc("p717.31177")
#loc725 = loc("p718.31188")
#loc726 = loc("p719.31207")
#loc727 = loc("p720.31300")
#loc728 = loc("p721.31377")
#loc729 = loc("p722.31399")
#loc730 = loc("p723.31427")
#loc731 = loc("p724.31520")
#loc732 = loc("p725.31587")
#loc733 = loc("p726.31594")
#loc734 = loc("p727.31605")
#loc735 = loc("p728.31610")
#loc736 = loc("p729.31617")
#loc737 = loc("p730.31628")
#loc738 = loc("p731.31647")
#loc739 = loc("p732.31740")
#loc740 = loc("p733.31817")
#loc741 = loc("p734.31839")
#loc742 = loc("p735.31867")
#loc743 = loc("p736.31960")
#loc744 = loc("p737.32027")
#loc745 = loc("p738.32034")
#loc746 = loc("p739.32045")
#loc747 = loc("p740.32050")
#loc748 = loc("p741.32057")
#loc749 = loc("p742.32068")
#loc750 = loc("p743.32087")
#loc751 = loc("p744.32180")
#loc752 = loc("p745.32257")
#loc753 = loc("p746.32279")
#loc754 = loc("p747.32307")
#loc755 = loc("p748.32400")
#loc756 = loc("p749.32467")
#loc757 = loc("p750.32474")
#loc758 = loc("p751.32485")
#loc759 = loc("p752.32490")
#loc760 = loc("p753.32497")
#loc761 = loc("p754.32508")
#loc762 = loc("p755.32527")
#loc763 = loc("p756.32620")
#loc764 = loc("p757.32697")
#loc765 = loc("p758.32719")
#loc766 = loc("p759.32747")
#loc767 = loc("p760.32840")
#loc768 = loc("p761.32907")
#loc769 = loc("p762.32914")
#loc770 = loc("p763.32925")
#loc771 = loc("p764.32930")
#loc772 = loc("p765.32937")
#loc773 = loc("p766.32948")
#loc774 = loc("p767.32967")
#loc775 = loc("p768.33060")
#loc776 = loc("p769.33137")
#loc777 = loc("p770.33159")
#loc778 = loc("p771.33187")
#loc779 = loc("p772.33280")
#loc780 = loc("p773.33347")
#loc781 = loc("p774.33354")
#loc782 = loc("p775.33365")
#loc783 = loc("p776.33370")
#loc784 = loc("p777.33377")
#loc785 = loc("p778.33388")
#loc786 = loc("p779.33407")
#loc787 = loc("p780.33500")
#loc788 = loc("p781.33577")
#loc789 = loc("p782.33599")
#loc790 = loc("p783.33627")
#loc791 = loc("p784.33720")
#system_desc = #ttcore.system_desc<[{role = host, target_triple = "x86_64-pc-linux"}], [{arch = <wormhole_b0>, grid = 8x8, coord_translation_offsets = 18x18, l1_size = 1499136, num_dram_channels = 12, dram_channel_size = 1073741824, noc_l1_address_align_bytes = 16, pcie_address_align_bytes = 32, noc_dram_address_align_bytes = 32, l1_unreserved_base = 103712, erisc_l1_unreserved_base = 98304, dram_unreserved_base = 1920032, dram_unreserved_end = 1073119552, supported_data_types = [<f32>, <f16>, <bf16>, <bfp_f8>, <bfp_bf8>, <bfp_f4>, <bfp_bf4>, <bfp_f2>, <bfp_bf2>, <u32>, <u16>, <u8>, <si32>], supported_tile_sizes = [ 4x16,  16x16,  32x16,  4x32,  16x32,  32x32], dst_physical_size_tiles = 16, num_cbs = 64, num_compute_threads = 1, num_datamovement_threads = 2, dram_grid = 1x12, dram_bank_to_logical_worker_noc0 = [(7, 3), (0, 0), (4, 0), (1, 2), (0, 4), (7, 7), (1, 4), (6, 4), (5, 4), (2, 4), (4, 4), (3, 6)], dram_bank_to_logical_worker_noc1 = [(7, 3), (0, 0), (4, 0), (1, 2), (0, 4), (7, 7), (1, 4), (6, 4), (5, 4), (2, 4), (4, 4), (3, 6)]}], [0], [1 : i32], [ 0x0x0x0]>
#system_memory = #ttnn.buffer_type<system_memory>
#ttnn_layout = #ttnn.ttnn_layout<(d0) -> (0, d0), <1x1>, memref<1x1024xf32, #system_memory>>
#ttnn_layout1 = #ttnn.ttnn_layout<(d0, d1, d2) -> (d0 * 32 + d1, d2), <1x1>, memref<1x32x!ttcore.tile<32x32, f32>, #dram>, <interleaved>>
#ttnn_layout2 = #ttnn.ttnn_layout<(d0, d1, d2) -> (d0 + d1, d2), <1x1>, memref<1x1024xf32, #system_memory>>
#ttnn_layout3 = #ttnn.ttnn_layout<(d0, d1, d2) -> (d0 * 32 + d1, d2), <1x1>, memref<1x32x!ttcore.tile<32x32, f32>, #system_memory>>
#ttnn_layout4 = #ttnn.ttnn_layout<(d0) -> (0, d0), <1x1>, memref<1x4304xf32, #system_memory>>
#ttnn_layout5 = #ttnn.ttnn_layout<(d0, d1, d2) -> (d0 * 32 + d1, d2), <1x1>, memref<1x135x!ttcore.tile<32x32, f32>, #dram>, <interleaved>>
#ttnn_layout6 = #ttnn.ttnn_layout<(d0, d1, d2) -> (d0 + d1, d2), <1x1>, memref<1x4304xf32, #system_memory>>
#ttnn_layout7 = #ttnn.ttnn_layout<(d0, d1, d2) -> (d0 * 32 + d1, d2), <1x1>, memref<1x135x!ttcore.tile<32x32, f32>, #system_memory>>
#ttnn_layout8 = #ttnn.ttnn_layout<(d0, d1) -> (d0, d1), <1x1>, memref<1x1x!ttcore.tile<32x32, f32>, #dram>, <interleaved>>
#ttnn_layout9 = #ttnn.ttnn_layout<(d0, d1) -> (d0, d1), <1x1>, memref<1152x1152xf32, #system_memory>>
#ttnn_layout10 = #ttnn.ttnn_layout<(d0, d1) -> (d0, d1), <1x1>, memref<36x108x!ttcore.tile<32x32, f32>, #dram>, <interleaved>>
#ttnn_layout11 = #ttnn.ttnn_layout<(d0, d1) -> (d0, d1), <1x1>, memref<1152x3456xf32, #system_memory>>
#ttnn_layout12 = #ttnn.ttnn_layout<(d0, d1) -> (d0, d1), <1x1>, memref<36x108x!ttcore.tile<32x32, f32>, #system_memory>>
#ttnn_layout13 = #ttnn.ttnn_layout<(d0) -> (0, d0), <1x1>, memref<1x1152xf32, #system_memory>>
#ttnn_layout14 = #ttnn.ttnn_layout<(d0, d1, d2) -> (d0 * 32 + d1, d2), <1x1>, memref<1x36x!ttcore.tile<32x32, f32>, #dram>, <interleaved>>
#ttnn_layout15 = #ttnn.ttnn_layout<(d0, d1, d2) -> (d0 + d1, d2), <1x1>, memref<1x1152xf32, #system_memory>>
#ttnn_layout16 = #ttnn.ttnn_layout<(d0, d1, d2) -> (d0 * 32 + d1, d2), <1x1>, memref<1x36x!ttcore.tile<32x32, f32>, #system_memory>>
#ttnn_layout17 = #ttnn.ttnn_layout<(d0, d1) -> (d0, d1), <1x1>, memref<256x2048xf32, #system_memory>>
#ttnn_layout18 = #ttnn.ttnn_layout<(d0, d1) -> (d0, d1), <1x1>, memref<2048x2048xf32, #system_memory>>
#ttnn_layout19 = #ttnn.ttnn_layout<(d0, d1) -> (d0, d1), <1x1>, memref<64x80x!ttcore.tile<32x32, f32>, #dram>, <interleaved>>
#ttnn_layout20 = #ttnn.ttnn_layout<(d0, d1) -> (d0, d1), <1x1>, memref<2048x2560xf32, #system_memory>>
#ttnn_layout21 = #ttnn.ttnn_layout<(d0, d1) -> (d0, d1), <1x1>, memref<64x80x!ttcore.tile<32x32, f32>, #system_memory>>
#ttnn_layout22 = #ttnn.ttnn_layout<(d0, d1) -> (d0, d1), <1x1>, memref<256x1024xf32, #system_memory>>
#ttnn_layout23 = #ttnn.ttnn_layout<(d0, d1) -> (d0, d1), <1x1>, memref<2048x1024xf32, #system_memory>>
#ttnn_layout24 = #ttnn.ttnn_layout<(d0, d1) -> (d0, d1), <1x1>, memref<32x80x!ttcore.tile<32x32, f32>, #dram>, <interleaved>>
#ttnn_layout25 = #ttnn.ttnn_layout<(d0, d1) -> (d0, d1), <1x1>, memref<1024x2560xf32, #system_memory>>
#ttnn_layout26 = #ttnn.ttnn_layout<(d0, d1) -> (d0, d1), <1x1>, memref<32x80x!ttcore.tile<32x32, f32>, #system_memory>>
#ttnn_layout27 = #ttnn.ttnn_layout<(d0, d1, d2) -> (d0 * 32 + d1, d2), <1x1>, memref<1x108x!ttcore.tile<32x32, f32>, #dram>, <interleaved>>
#ttnn_layout28 = #ttnn.ttnn_layout<(d0, d1, d2) -> (d0 + d1, d2), <1x1>, memref<1x3456xf32, #system_memory>>
#ttnn_layout29 = #ttnn.ttnn_layout<(d0, d1, d2) -> (d0 * 32 + d1, d2), <1x1>, memref<1x108x!ttcore.tile<32x32, f32>, #system_memory>>
#ttnn_layout30 = #ttnn.ttnn_layout<(d0, d1, d2, d3) -> (d0 * 32 + d1 * 32 + d2, d3), <1x1>, memref<1x1x!ttcore.tile<32x32, f32>, #dram>, <interleaved>>
#ttnn_layout31 = #ttnn.ttnn_layout<(d0, d1) -> (d0, d1), <1x1>, memref<1x256xsi32, #system_memory>>
#ttnn_layout32 = #ttnn.ttnn_layout<(d0, d1) -> (d0, d1), <1x1>, memref<256x1152xf32, #system_memory>>
#ttnn_layout33 = #ttnn.ttnn_layout<(d0, d1, d2, d3) -> (d0 * 256 + d1 * 256 + d2, d3), <1x1>, memref<8x36x!ttcore.tile<32x32, f32>, #dram>, <interleaved>>
#ttnn_layout34 = #ttnn.ttnn_layout<(d0, d1, d2, d3) -> (d0 * 256 + d1 * 256 + d2, d3), <1x1>, memref<256x1152xf32, #system_memory>>
#ttnn_layout35 = #ttnn.ttnn_layout<(d0, d1, d2, d3) -> (d0 * 256 + d1 * 256 + d2, d3), <1x1>, memref<8x36x!ttcore.tile<32x32, f32>, #system_memory>>
#ttnn_layout36 = #ttnn.ttnn_layout<(d0, d1, d2) -> (d0 * 32 + d1, d2), <1x1>, memref<1x1x!ttcore.tile<32x32, f32>, #dram>, <interleaved>>
#ttnn_layout37 = #ttnn.ttnn_layout<(d0) -> (0, d0), <1x1>, memref<1x2048xf32, #system_memory>>
#ttnn_layout38 = #ttnn.ttnn_layout<(d0, d1) -> (d0, d1), <1x1>, memref<2x32x!ttcore.tile<32x32, f32>, #dram>, <interleaved>>
#ttnn_layout39 = #ttnn.ttnn_layout<(d0) -> (0, d0), <1x1>, memref<1x32x!ttcore.tile<32x32, f32>, #dram>, <interleaved>>
#ttnn_layout40 = #ttnn.ttnn_layout<(d0) -> (0, d0), <1x1>, memref<1x64x!ttcore.tile<32x32, f32>, #dram>, <interleaved>>
#ttnn_layout41 = #ttnn.ttnn_layout<(d0, d1) -> (d0, d1), <1x1>, memref<50x1024xf32, #system_memory>>
#ttnn_layout42 = #ttnn.ttnn_layout<(d0, d1, d2) -> (d0 + d1, d2), <1x1>, memref<1x1xf32, #system_memory>>
#ttnn_layout43 = #ttnn.ttnn_layout<(d0, d1) -> (d0, d1), <1x1>, memref<2x32x!ttcore.tile<32x32, f32>, #system_memory>>
#ttnn_layout44 = #ttnn.ttnn_layout<(d0) -> (0, d0), <1x1>, memref<1x32x!ttcore.tile<32x32, f32>, #system_memory>>
#ttnn_layout45 = #ttnn.ttnn_layout<(d0) -> (0, d0), <1x1>, memref<1x64x!ttcore.tile<32x32, f32>, #system_memory>>
#ttnn_layout46 = #ttnn.ttnn_layout<(d0, d1, d2) -> (d0 * 32 + d1, d2), <1x1>, memref<1x1x!ttcore.tile<32x32, f32>, #system_memory>>
#ttnn_layout47 = #ttnn.ttnn_layout<(d0, d1) -> (d0, d1), <1x1>, memref<1x1x!ttcore.tile<32x32, si32>, #dram>, <interleaved>>
#ttnn_layout48 = #ttnn.ttnn_layout<(d0) -> (0, d0), <1x1>, memref<1x128xf32, #system_memory>>
#ttnn_layout49 = #ttnn.ttnn_layout<(d0, d1, d2) -> (d0 * 128 + d1, d2), <1x1>, memref<4x1x!ttcore.tile<32x32, f32>, #dram>, <interleaved>>
#ttnn_layout50 = #ttnn.ttnn_layout<(d0, d1, d2) -> (d0 * 128 + d1, d2), <1x1>, memref<128x1xf32, #system_memory>>
#ttnn_layout51 = #ttnn.ttnn_layout<(d0, d1, d2) -> (d0 * 128 + d1, d2), <1x1>, memref<4x1x!ttcore.tile<32x32, f32>, #system_memory>>
#ttnn_layout52 = #ttnn.ttnn_layout<(d0, d1, d2) -> (d0 * 32 + d1, d2), <1x1>, memref<1x1x!ttcore.tile<32x32, si32>, #dram>, <interleaved>>
#ttnn_layout53 = #ttnn.ttnn_layout<(d0, d1, d2) -> (d0 * 32 + d1, d2), <1x1>, memref<1x64x!ttcore.tile<32x32, f32>, #dram>, <interleaved>>
#ttnn_layout54 = #ttnn.ttnn_layout<(d0, d1, d2) -> (d0 + d1, d2), <1x1>, memref<1x2048xf32, #system_memory>>
#ttnn_layout55 = #ttnn.ttnn_layout<(d0, d1, d2) -> (d0 * 32 + d1, d2), <1x1>, memref<1x64x!ttcore.tile<32x32, f32>, #system_memory>>
#ttnn_layout56 = #ttnn.ttnn_layout<(d0, d1) -> (d0, d1), <1x1>, memref<257152x2048xf32, #system_memory>>
#ttnn_layout57 = #ttnn.ttnn_layout<(d0, d1) -> (d0, d1), <1x1>, memref<257152x2048xbf16, #dram>, <interleaved>>
#ttnn_layout58 = #ttnn.ttnn_layout<(d0, d1) -> (d0, d1), <1x1>, memref<257152x2048xbf16, #system_memory>>
#ttnn_layout59 = #ttnn.ttnn_layout<(d0, d1, d2, d3) -> (d0 + d1 + d2, d3), <1x1>, memref<1x1152xf32, #system_memory>>
#ttnn_layout60 = #ttnn.ttnn_layout<(d0, d1) -> (d0, d1), <1x1>, memref<32x1x!ttcore.tile<32x32, f32>, #dram>, <interleaved>>
#ttnn_layout61 = #ttnn.ttnn_layout<(d0, d1) -> (d0, d1), <1x1>, memref<1x32xf32, #dram>, <interleaved>>
#ttnn_layout62 = #ttnn.ttnn_layout<(d0) -> (0, d0), <1x1>, memref<1x1x!ttcore.tile<32x32, f32>, #dram>, <interleaved>>
#ttnn_layout63 = #ttnn.ttnn_layout<(d0, d1) -> (d0, d1), <1x1>, memref<1x32x!ttcore.tile<32x32, f32>, #dram>, <interleaved>>
#ttnn_layout64 = #ttnn.ttnn_layout<(d0, d1) -> (d0, d1), <1x1>, memref<32x128x!ttcore.tile<32x32, f32>, #dram>, <interleaved>>
#ttnn_layout65 = #ttnn.ttnn_layout<(d0, d1) -> (d0, d1), <1x1>, memref<128x32x!ttcore.tile<32x32, f32>, #dram>, <interleaved>>
#ttnn_layout66 = #ttnn.ttnn_layout<(d0, d1) -> (d0, d1), <1x1>, memref<32x64x!ttcore.tile<32x32, f32>, #dram>, <interleaved>>
#ttnn_layout67 = #ttnn.ttnn_layout<(d0, d1) -> (d0, d1), <1x1>, memref<32x32x!ttcore.tile<32x32, f32>, #dram>, <interleaved>>
#ttnn_layout68 = #ttnn.ttnn_layout<(d0, d1, d2) -> (d0 * 50 + d1, d2), <1x1>, memref<50x32xf32, #dram>, <interleaved>>
#ttnn_layout69 = #ttnn.ttnn_layout<(d0, d1) -> (d0, d1), <1x1>, memref<1x48xsi32, #dram>, <interleaved>>
#ttnn_layout70 = #ttnn.ttnn_layout<(d0, d1) -> (d0, d1), <1x1>, memref<64x36x!ttcore.tile<32x32, f32>, #dram>, <interleaved>>
#ttnn_layout71 = #ttnn.ttnn_layout<(d0) -> (0, d0), <1x1>, memref<1x36x!ttcore.tile<32x32, f32>, #dram>, <interleaved>>
#ttnn_layout72 = #ttnn.ttnn_layout<(d0, d1) -> (d0, d1), <1x1>, memref<36x135x!ttcore.tile<32x32, f32>, #dram>, <interleaved>>
#ttnn_layout73 = #ttnn.ttnn_layout<(d0, d1) -> (d0, d1), <1x1>, memref<135x36x!ttcore.tile<32x32, f32>, #dram>, <interleaved>>
#ttnn_layout74 = #ttnn.ttnn_layout<(d0, d1) -> (d0, d1), <1x1>, memref<36x36x!ttcore.tile<32x32, f32>, #dram>, <interleaved>>
#ttnn_layout75 = #ttnn.ttnn_layout<(d0, d1, d2, d3) -> (d0 * 42 + d1 * 14 + d2, d3), <1x1>, memref<48384x14xf32, #system_memory>>
#ttnn_layout76 = #ttnn.ttnn_layout<(d0, d1, d2, d3) -> (d0 * 672 + d1 * 224 + d2, d3), <1x1>, memref<672x224xf32, #dram>, <interleaved>>
#ttnn_layout77 = #ttnn.ttnn_layout<() -> (0, 0), <1x1>, memref<1x1xbf16, #dram>, <interleaved>>
#ttnn_layout78 = #ttnn.ttnn_layout<(d0) -> (0, d0), <1x1>, memref<1x51xf32, #dram>, <interleaved>>
#ttnn_layout79 = #ttnn.ttnn_layout<(d0, d1) -> (d0, d1), <1x1>, memref<1x48xbf16, #dram>, <interleaved>>
#ttnn_layout80 = #ttnn.ttnn_layout<(d0) -> (0, d0), <1x1>, memref<1x1xbf16, #dram>, <interleaved>>
#ttnn_layout81 = #ttnn.ttnn_layout<(d0, d1) -> (d0, d1), <1x1>, memref<64x512x!ttcore.tile<32x32, f32>, #dram>, <interleaved>>
#ttnn_layout82 = #ttnn.ttnn_layout<(d0, d1) -> (d0, d1), <1x1>, memref<512x64x!ttcore.tile<32x32, f32>, #dram>, <interleaved>>
#ttnn_layout83 = #ttnn.ttnn_layout<(d0, d1) -> (d0, d1), <1x1>, memref<64x64x!ttcore.tile<32x32, f32>, #dram>, <interleaved>>
#ttnn_layout84 = #ttnn.ttnn_layout<(d0) -> (0, d0), <1x1>, memref<1x816xbf16, #dram>, <interleaved>>
#ttnn_layout85 = #ttnn.ttnn_layout<(d0, d1) -> (d0, d1), <1x1>, memref<8x64x!ttcore.tile<32x32, f32>, #dram>, <interleaved>>
#ttnn_layout86 = #ttnn.ttnn_layout<(d0, d1, d2) -> (d0 * 64 + d1, d2), <1x1>, memref<2x32x!ttcore.tile<32x32, f32>, #dram>, <interleaved>>
#ttnn_layout87 = #ttnn.ttnn_layout<(d0, d1, d2) -> (d0 * 64 + d1, d2), <1x1>, memref<2x1x!ttcore.tile<32x32, f32>, #dram>, <interleaved>>
#ttnn_layout88 = #ttnn.ttnn_layout<(d0, d1) -> (d0, d1), <1x1>, memref<2x1x!ttcore.tile<32x32, f32>, #dram>, <interleaved>>
#ttnn_layout89 = #ttnn.ttnn_layout<(d0, d1) -> (d0, d1), <1x1>, memref<2x64x!ttcore.tile<32x32, f32>, #dram>, <interleaved>>
#ttnn_layout90 = #ttnn.ttnn_layout<(d0, d1) -> (d0, d1), <1x1>, memref<2x80x!ttcore.tile<32x32, f32>, #dram>, <interleaved>>
#ttnn_layout91 = #ttnn.ttnn_layout<(d0, d1) -> (d0, d1), <1x1>, memref<2x8x!ttcore.tile<32x32, f32>, #dram>, <interleaved>>
#ttnn_layout92 = #ttnn.ttnn_layout<(d0, d1, d2, d3) -> (d0 * 64 + d1 * 64 + d2, d3), <1x1>, memref<2x8x!ttcore.tile<32x32, f32>, #dram>, <interleaved>>
#ttnn_layout93 = #ttnn.ttnn_layout<(d0, d1, d2, d3) -> (d0 * 1632 + d1 * 32 + d2, d3), <1x1>, memref<51x8x!ttcore.tile<32x32, f32>, #dram>, <interleaved>>
#ttnn_layout94 = #ttnn.ttnn_layout<(d0, d1, d2, d3) -> (d0 * 512 + d1 * 64 + d2, d3), <1x1>, memref<16x8x!ttcore.tile<32x32, f32>, #dram>, <interleaved>>
#ttnn_layout95 = #ttnn.ttnn_layout<(d0) -> (0, d0), <1x1>, memref<1x1x!ttcore.tile<32x32, bf16>, #dram>, <interleaved>>
#ttnn_layout96 = #ttnn.ttnn_layout<(d0, d1) -> (d0, d1), <1x1>, memref<1x1x!ttcore.tile<32x32, bf16>, #dram>, <interleaved>>
#ttnn_layout97 = #ttnn.ttnn_layout<(d0, d1) -> (d0, d1), <1x1>, memref<1x8x!ttcore.tile<32x32, bf16>, #dram>, <interleaved>>
#ttnn_layout98 = #ttnn.ttnn_layout<(d0, d1) -> (d0, d1), <1x1>, memref<1x2x!ttcore.tile<32x32, bf16>, #dram>, <interleaved>>
#ttnn_layout99 = #ttnn.ttnn_layout<(d0, d1) -> (d0, d1), <1x1>, memref<1x26x!ttcore.tile<32x32, bf16>, #dram>, <interleaved>>
#ttnn_layout100 = #ttnn.ttnn_layout<(d0, d1) -> (d0, d1), <1x1>, memref<1x26x!ttcore.tile<32x32, si32>, #dram>, <interleaved>>
#ttnn_layout101 = #ttnn.ttnn_layout<() -> (0, 0), <1x1>, memref<1x1x!ttcore.tile<32x32, bf16>, #dram>, <interleaved>>
#ttnn_layout102 = #ttnn.ttnn_layout<(d0, d1) -> (d0, d1), <1x1>, memref<1x2x!ttcore.tile<32x32, si32>, #dram>, <interleaved>>
#ttnn_layout103 = #ttnn.ttnn_layout<(d0, d1, d2) -> (d0 * 32 + d1, d2), <1x1>, memref<1x2x!ttcore.tile<32x32, si32>, #dram>, <interleaved>>
#ttnn_layout104 = #ttnn.ttnn_layout<(d0, d1, d2) -> (d0 * 32 + d1, d2), <1x1>, memref<1x2x!ttcore.tile<32x32, f32>, #dram>, <interleaved>>
#ttnn_layout105 = #ttnn.ttnn_layout<(d0, d1, d2) -> (d0 * 128 + d1, d2), <1x1>, memref<4x2x!ttcore.tile<32x32, f32>, #dram>, <interleaved>>
#ttnn_layout106 = #ttnn.ttnn_layout<(d0, d1, d2) -> (d0 * 64 + d1, d2), <1x1>, memref<2x4x!ttcore.tile<32x32, f32>, #dram>, <interleaved>>
#ttnn_layout107 = #ttnn.ttnn_layout<(d0, d1, d2, d3) -> (d0 * 64 + d1 * 64 + d2, d3), <1x1>, memref<2x4x!ttcore.tile<32x32, f32>, #dram>, <interleaved>>
#ttnn_layout108 = #ttnn.ttnn_layout<(d0, d1, d2, d3) -> (d0 * 512 + d1 * 64 + d2, d3), <1x1>, memref<16x4x!ttcore.tile<32x32, f32>, #dram>, <interleaved>>
#ttnn_layout109 = #ttnn.ttnn_layout<(d0, d1, d2, d3) -> (d0 * 672 + d1 * 224 + d2, d3), <1x1>, memref<21x7x!ttcore.tile<32x32, f32>, #dram>, <interleaved>>
#ttnn_layout110 = #ttnn.ttnn_layout<(d0, d1, d2, d3) -> (d0 * 50176 + d1 * 224 + d2, d3), <1x1>, memref<1568x1x!ttcore.tile<32x32, f32>, #dram>, <interleaved>>
#ttnn_layout111 = #ttnn.ttnn_layout<(d0, d1, d2, d3) -> (d0 * 50176 + d1 * 50176 + d2, d3), <1x1>, memref<1568x1x!ttcore.tile<32x32, f32>, #dram>, <interleaved>>
#ttnn_layout112 = #ttnn.ttnn_layout<(d0, d1, d2, d3) -> (d0 * 50176 + d1 * 50176 + d2, d3), <1x1>, memref<50176x3xf32, #dram>, <interleaved>>
#ttnn_layout113 = #ttnn.ttnn_layout<(d0, d1, d2, d3) -> (d0 * 512 + d1 * 32 + d2, d3), <1x1>, memref<16x36x!ttcore.tile<32x32, f32>, #dram>, <interleaved>>
#ttnn_layout114 = #ttnn.ttnn_layout<(d0, d1, d2, d3) -> (d0 * 36864 + d1 * 32 + d2, d3), <1x1>, memref<1152x1x!ttcore.tile<32x32, f32>, #dram>, <interleaved>>
#ttnn_layout115 = #ttnn.ttnn_layout<(d0, d1, d2) -> (d0 * 1152 + d1, d2), <1x1>, memref<36x8x!ttcore.tile<32x32, f32>, #dram>, <interleaved>>
#ttnn_layout116 = #ttnn.ttnn_layout<(d0, d1, d2) -> (d0 * 256 + d1, d2), <1x1>, memref<8x36x!ttcore.tile<32x32, f32>, #dram>, <interleaved>>
#ttnn_layout117 = #ttnn.ttnn_layout<(d0, d1) -> (d0, d1), <1x1>, memref<8x36x!ttcore.tile<32x32, f32>, #dram>, <interleaved>>
#ttnn_layout118 = #ttnn.ttnn_layout<(d0, d1) -> (d0, d1), <1x1>, memref<8x108x!ttcore.tile<32x32, f32>, #dram>, <interleaved>>
#ttnn_layout119 = #ttnn.ttnn_layout<(d0, d1, d2) -> (d0 * 256 + d1, d2), <1x1>, memref<8x108x!ttcore.tile<32x32, f32>, #dram>, <interleaved>>
#ttnn_layout120 = #ttnn.ttnn_layout<(d0, d1, d2, d3) -> (d0 * 8192 + d1 * 32 + d2, d3), <1x1>, memref<256x3x!ttcore.tile<32x32, f32>, #dram>, <interleaved>>
#ttnn_layout121 = #ttnn.ttnn_layout<(d0, d1, d2, d3) -> (d0 * 4096 + d1 * 256 + d2, d3), <1x1>, memref<128x3x!ttcore.tile<32x32, f32>, #dram>, <interleaved>>
#ttnn_layout122 = #ttnn.ttnn_layout<(d0, d1, d2, d3) -> (d0 * 1536 + d1 * 96 + d2, d3), <1x1>, memref<48x8x!ttcore.tile<32x32, f32>, #dram>, <interleaved>>
#ttnn_layout123 = #ttnn.ttnn_layout<(d0, d1, d2, d3) -> (d0 * 4096 + d1 * 256 + d2, d3), <1x1>, memref<128x8x!ttcore.tile<32x32, f32>, #dram>, <interleaved>>
#ttnn_layout124 = #ttnn.ttnn_layout<(d0, d1) -> (d0, d1), <1x1>, memref<8x135x!ttcore.tile<32x32, f32>, #dram>, <interleaved>>
#ttnn_layout125 = #ttnn.ttnn_layout<(d0, d1, d2) -> (d0 * 256 + d1, d2), <1x1>, memref<8x64x!ttcore.tile<32x32, f32>, #dram>, <interleaved>>
#ttnn_layout126 = #ttnn.ttnn_layout<(d0, d1) -> (d0, d1), <1x1>, memref<1x2x!ttcore.tile<32x32, u32>, #dram>, <interleaved>>
#ttnn_layout127 = #ttnn.ttnn_layout<(d0, d1) -> (d0, d1), <1x1>, memref<1x48xui32, #dram>, <interleaved>>
#ttnn_layout128 = #ttnn.ttnn_layout<(d0, d1, d2) -> (d0 * 64 + d1, d2), <1x1>, memref<2x64x!ttcore.tile<32x32, bf16>, #dram>, <interleaved>>
#ttnn_layout129 = #ttnn.ttnn_layout<(d0, d1, d2) -> (d0 * 64 + d1, d2), <1x1>, memref<2x64x!ttcore.tile<32x32, f32>, #dram>, <interleaved>>
#ttnn_layout130 = #ttnn.ttnn_layout<(d0, d1, d2) -> (d0 * 832 + d1, d2), <1x1>, memref<26x64x!ttcore.tile<32x32, f32>, #dram>, <interleaved>>
#ttnn_layout131 = #ttnn.ttnn_layout<(d0, d1) -> (d0, d1), <1x1>, memref<26x64x!ttcore.tile<32x32, f32>, #dram>, <interleaved>>
#ttnn_layout132 = #ttnn.ttnn_layout<(d0, d1) -> (d0, d1), <1x1>, memref<26x80x!ttcore.tile<32x32, f32>, #dram>, <interleaved>>
#ttnn_layout133 = #ttnn.ttnn_layout<(d0, d1) -> (d0, d1), <1x1>, memref<26x8x!ttcore.tile<32x32, f32>, #dram>, <interleaved>>
#ttnn_layout134 = #ttnn.ttnn_layout<(d0, d1, d2, d3) -> (d0 * 832 + d1 * 832 + d2, d3), <1x1>, memref<26x8x!ttcore.tile<32x32, f32>, #dram>, <interleaved>>
#ttnn_layout135 = #ttnn.ttnn_layout<(d0, d1) -> (d0, d1), <1x1>, memref<1x26x!ttcore.tile<32x32, f32>, #dram>, <interleaved>>
#ttnn_layout136 = #ttnn.ttnn_layout<(d0, d1, d2) -> (d0 * 32 + d1, d2), <1x1>, memref<1x26x!ttcore.tile<32x32, f32>, #dram>, <interleaved>>
#ttnn_layout137 = #ttnn.ttnn_layout<(d0, d1, d2) -> (d0 * 128 + d1, d2), <1x1>, memref<4x26x!ttcore.tile<32x32, f32>, #dram>, <interleaved>>
#ttnn_layout138 = #ttnn.ttnn_layout<(d0, d1, d2) -> (d0 * 832 + d1, d2), <1x1>, memref<26x4x!ttcore.tile<32x32, f32>, #dram>, <interleaved>>
#ttnn_layout139 = #ttnn.ttnn_layout<(d0, d1, d2, d3) -> (d0 * 832 + d1 * 832 + d2, d3), <1x1>, memref<26x4x!ttcore.tile<32x32, f32>, #dram>, <interleaved>>
#ttnn_layout140 = #ttnn.ttnn_layout<(d0, d1, d2, d3) -> (d0 * 896 + d1 * 896 + d2, d3), <1x1>, memref<28x8x!ttcore.tile<32x32, f32>, #dram>, <interleaved>>
#ttnn_layout141 = #ttnn.ttnn_layout<(d0, d1, d2, d3) -> (d0 * 7168 + d1 * 896 + d2, d3), <1x1>, memref<224x8x!ttcore.tile<32x32, f32>, #dram>, <interleaved>>
#ttnn_layout142 = #ttnn.ttnn_layout<(d0, d1, d2, d3) -> (d0 * 512 + d1 * 64 + d2, d3), <1x1>, memref<16x28x!ttcore.tile<32x32, f32>, #dram>, <interleaved>>
#ttnn_layout143 = #ttnn.ttnn_layout<(d0, d1, d2, d3) -> (d0 * 32 + d1 * 32 + d2, d3), <1x1>, memref<1x26x!ttcore.tile<32x32, bf16>, #dram>, <interleaved>>
#ttnn_layout144 = #ttnn.ttnn_layout<(d0, d1, d2, d3) -> (d0 * 64 + d1 * 64 + d2, d3), <1x1>, memref<2x26x!ttcore.tile<32x32, bf16>, #dram>, <interleaved>>
#ttnn_layout145 = #ttnn.ttnn_layout<(d0) -> (0, d0), <1x1>, memref<1x2x!ttcore.tile<32x32, f32>, #dram>, <interleaved>>
#ttnn_layout146 = #ttnn.ttnn_layout<(d0, d1) -> (d0, d1), <1x1>, memref<1x2x!ttcore.tile<32x32, f32>, #dram>, <interleaved>>
#ttnn_layout147 = #ttnn.ttnn_layout<(d0, d1, d2, d3) -> (d0 * 64 + d1 * 64 + d2, d3), <1x1>, memref<2x1x!ttcore.tile<32x32, f32>, #dram>, <interleaved>>
#ttnn_layout148 = #ttnn.ttnn_layout<(d0, d1, d2, d3) -> (d0 * 32 + d1 * 32 + d2, d3), <1x1>, memref<1x2x!ttcore.tile<32x32, f32>, #dram>, <interleaved>>
#ttnn_layout149 = #ttnn.ttnn_layout<(d0, d1, d2, d3) -> (d0 * 64 + d1 * 64 + d2, d3), <1x1>, memref<2x2x!ttcore.tile<32x32, bf16>, #dram>, <interleaved>>
#ttnn_layout150 = #ttnn.ttnn_layout<(d0, d1, d2, d3) -> (d0 * 32 + d1 * 32 + d2, d3), <1x1>, memref<1x2x!ttcore.tile<32x32, bf16>, #dram>, <interleaved>>
#ttnn_layout151 = #ttnn.ttnn_layout<(d0, d1, d2, d3) -> (d0 * 64 + d1 * 64 + d2, d3), <1x1>, memref<2x1x!ttcore.tile<32x32, bf16>, #dram>, <interleaved>>
#ttnn_layout152 = #ttnn.ttnn_layout<(d0, d1, d2, d3) -> (d0 * 64 + d1 * 64 + d2, d3), <1x1>, memref<2x28x!ttcore.tile<32x32, bf16>, #dram>, <interleaved>>
#ttnn_layout153 = #ttnn.ttnn_layout<(d0, d1, d2, d3) -> (d0 * 64 + d1 * 64 + d2, d3), <1x1>, memref<2x28x!ttcore.tile<32x32, f32>, #dram>, <interleaved>>
#ttnn_layout154 = #ttnn.ttnn_layout<(d0, d1) -> (d0, d1), <1x1>, memref<2x128x!ttcore.tile<32x32, f32>, #dram>, <interleaved>>
#ttnn_layout155 = #ttnn.ttnn_layout<(d0, d1, d2, d3) -> (d0 * 26112 + d1 * 32 + d2, d3), <1x1>, memref<816x8x!ttcore.tile<32x32, f32>, #dram>, <interleaved>>
#ttnn_layout156 = #ttnn.ttnn_layout<(d0, d1, d2, d3) -> (d0 * 6656 + d1 * 832 + d2, d3), <1x1>, memref<208x8x!ttcore.tile<32x32, f32>, #dram>, <interleaved>>
#ttnn_layout157 = #ttnn.ttnn_layout<(d0, d1, d2, d3) -> (d0 * 6656 + d1 * 832 + d2, d3), <1x1>, memref<208x4x!ttcore.tile<32x32, f32>, #dram>, <interleaved>>
#ttnn_layout158 = #ttnn.ttnn_layout<(d0, d1, d2, d3) -> (d0 * 6656 + d1 * 832 + d2, d3), <1x1>, memref<208x26x!ttcore.tile<32x32, f32>, #dram>, <interleaved>>
#ttnn_layout159 = #ttnn.ttnn_layout<(d0) -> (0, d0), <1x1>, memref<1x26x!ttcore.tile<32x32, bf16>, #dram>, <interleaved>>
#ttnn_layout160 = #ttnn.ttnn_layout<(d0) -> (0, d0), <1x1>, memref<1x26x!ttcore.tile<32x32, si32>, #dram>, <interleaved>>
#ttnn_layout161 = #ttnn.ttnn_layout<(d0, d1, d2, d3) -> (d0 * 832 + d1 * 832 + d2, d3), <1x1>, memref<26x1x!ttcore.tile<32x32, si32>, #dram>, <interleaved>>
#ttnn_layout162 = #ttnn.ttnn_layout<(d0, d1, d2, d3) -> (d0 * 32 + d1 * 32 + d2, d3), <1x1>, memref<1x26x!ttcore.tile<32x32, si32>, #dram>, <interleaved>>
#ttnn_layout163 = #ttnn.ttnn_layout<(d0, d1, d2, d3) -> (d0 * 832 + d1 * 832 + d2, d3), <1x1>, memref<26x26x!ttcore.tile<32x32, bf16>, #dram>, <interleaved>>
#ttnn_layout164 = #ttnn.ttnn_layout<(d0, d1, d2, d3) -> (d0 * 832 + d1 * 832 + d2, d3), <1x1>, memref<26x1x!ttcore.tile<32x32, bf16>, #dram>, <interleaved>>
#ttnn_layout165 = #ttnn.ttnn_layout<(d0, d1, d2, d3) -> (d0 * 832 + d1 * 832 + d2, d3), <1x1>, memref<26x26x!ttcore.tile<32x32, f32>, #dram>, <interleaved>>
#ttnn_layout166 = #ttnn.ttnn_layout<(d0, d1) -> (d0, d1), <1x1>, memref<26x512x!ttcore.tile<32x32, f32>, #dram>, <interleaved>>
module @SyncTensorsGraph.33806 attributes {mhlo.cross_program_prefetches = [], mhlo.input_output_alias = [], mhlo.is_dynamic = false, mhlo.use_auto_spmd_partitioning = false, ttcore.meshes = #ttcore.meshes<[<"mesh" = 1x1>]>} {
  ttcore.device_module {
    builtin.module @SyncTensorsGraph.33806 attributes {mhlo.cross_program_prefetches = [], mhlo.input_output_alias = [], mhlo.is_dynamic = false, mhlo.use_auto_spmd_partitioning = false, ttcore.meshes = #ttcore.meshes<[<"mesh" = 1x1>]>, ttcore.system_desc = #system_desc} {
      ttcore.device @default_device = <workerGrid = #ttcore.grid<8x8, virt_to_physical_map = (d0, d1) -> (0, d0, d1), physical_to_virt_map = (d0, d1, d2) -> (d1, d2)>, dramGrid = #ttcore.grid<1x12>, l1Map = (d0, d1, d2)[s0] -> (0, d0, d1, d2 + s0), dramMap = (d0, d1, d2)[s0, s1, s2, s3, s4, s5, s6] -> (0, 0, (((d0 * s1) * (s2 * (s3 * s6)) + d1 * (s2 * (s3 * s6)) + d2) floordiv s4) mod 12, ((((d0 * s1) * (s2 * (s3 * s6)) + d1 * (s2 * (s3 * s6)) + d2) floordiv s4) floordiv 12) * s4 + ((d0 * s1) * (s2 * (s3 * s6)) + d1 * (s2 * (s3 * s6)) + d2) mod s4 + s5), meshShape = 1x1, chipIds = [0]> loc(#loc)
      func.func private @main_const_eval_0(%arg0: tensor<1024xf32, #ttnn_layout> loc(unknown)) -> tensor<1x1x1024xf32, #ttnn_layout1> attributes {tt.function_type = "const_eval"} {
        %0 = "ttnn.get_device"() <{mesh_offset = #ttnn<mesh_offset 0x0>, mesh_shape = #ttnn<mesh_shape 1x1>}> : () -> !ttnn.device loc(#loc)
        %1 = call @cpu_hoisted_const_eval_47935827(%arg0) {ttir.cpu_hoist_call} : (tensor<1024xf32, #ttnn_layout>) -> tensor<1x1x1024xf32, #ttnn_layout2> loc(#loc)
        %2 = "ttnn.to_layout"(%1) <{layout = #ttnn.layout<tile>}> : (tensor<1x1x1024xf32, #ttnn_layout2>) -> tensor<1x1x1024xf32, #ttnn_layout3> loc(#loc)
        "ttnn.deallocate"(%1) <{force = false}> : (tensor<1x1x1024xf32, #ttnn_layout2>) -> () loc(#loc)
        %3 = "ttnn.to_device"(%2, %0) <{memory_config = #ttnn.memory_config<#dram, <interleaved>>}> : (tensor<1x1x1024xf32, #ttnn_layout3>, !ttnn.device) -> tensor<1x1x1024xf32, #ttnn_layout1> loc(#loc)
        "ttnn.deallocate"(%2) <{force = false}> : (tensor<1x1x1024xf32, #ttnn_layout3>) -> () loc(#loc)
        return %3 : tensor<1x1x1024xf32, #ttnn_layout1> loc(#loc)
      } loc(#loc)
      func.func private @main_const_eval_1(%arg0: tensor<4304xf32, #ttnn_layout4> loc(unknown)) -> tensor<1x1x4304xf32, #ttnn_layout5> attributes {tt.function_type = "const_eval"} {
        %0 = "ttnn.get_device"() <{mesh_offset = #ttnn<mesh_offset 0x0>, mesh_shape = #ttnn<mesh_shape 1x1>}> : () -> !ttnn.device loc(#loc)
        %1 = call @cpu_hoisted_const_eval_9c930e84(%arg0) {ttir.cpu_hoist_call} : (tensor<4304xf32, #ttnn_layout4>) -> tensor<1x1x4304xf32, #ttnn_layout6> loc(#loc)
        %2 = "ttnn.to_layout"(%1) <{layout = #ttnn.layout<tile>}> : (tensor<1x1x4304xf32, #ttnn_layout6>) -> tensor<1x1x4304xf32, #ttnn_layout7> loc(#loc)
        "ttnn.deallocate"(%1) <{force = false}> : (tensor<1x1x4304xf32, #ttnn_layout6>) -> () loc(#loc)
        %3 = "ttnn.to_device"(%2, %0) <{memory_config = #ttnn.memory_config<#dram, <interleaved>>}> : (tensor<1x1x4304xf32, #ttnn_layout7>, !ttnn.device) -> tensor<1x1x4304xf32, #ttnn_layout5> loc(#loc)
        "ttnn.deallocate"(%2) <{force = false}> : (tensor<1x1x4304xf32, #ttnn_layout7>) -> () loc(#loc)
        return %3 : tensor<1x1x4304xf32, #ttnn_layout5> loc(#loc)
      } loc(#loc)
      func.func private @main_const_eval_2() -> tensor<1x1xf32, #ttnn_layout8> attributes {tt.function_type = "const_eval"} {
        %0 = "ttnn.get_device"() <{mesh_offset = #ttnn<mesh_offset 0x0>, mesh_shape = #ttnn<mesh_shape 1x1>}> : () -> !ttnn.device loc(#loc1)
        %1 = "ttnn.full"(%0) <{dtype = #ttcore.supportedDataTypes<f32>, fill_value = -5.000000e-01 : f32, layout = #ttnn.layout<tile>, shape = #ttnn.shape<1x1>}> : (!ttnn.device) -> tensor<1x1xf32, #ttnn_layout8> loc(#loc4651)
        return %1 : tensor<1x1xf32, #ttnn_layout8> loc(#loc)
      } loc(#loc)
      func.func private @main_const_eval_3(%arg0: tensor<1152x1152xf32, #ttnn_layout9> loc(unknown), %arg1: tensor<1152x1152xf32, #ttnn_layout9> loc(unknown), %arg2: tensor<1152x1152xf32, #ttnn_layout9> loc(unknown)) -> tensor<1152x3456xf32, #ttnn_layout10> attributes {tt.function_type = "const_eval"} {
        %0 = "ttnn.get_device"() <{mesh_offset = #ttnn<mesh_offset 0x0>, mesh_shape = #ttnn<mesh_shape 1x1>}> : () -> !ttnn.device loc(#loc)
        %1 = call @cpu_hoisted_const_eval_59f6b97d(%arg1, %arg0, %arg2) {ttir.cpu_hoist_call} : (tensor<1152x1152xf32, #ttnn_layout9>, tensor<1152x1152xf32, #ttnn_layout9>, tensor<1152x1152xf32, #ttnn_layout9>) -> tensor<1152x3456xf32, #ttnn_layout11> loc(#loc)
        %2 = "ttnn.to_layout"(%1) <{layout = #ttnn.layout<tile>}> : (tensor<1152x3456xf32, #ttnn_layout11>) -> tensor<1152x3456xf32, #ttnn_layout12> loc(#loc)
        "ttnn.deallocate"(%1) <{force = false}> : (tensor<1152x3456xf32, #ttnn_layout11>) -> () loc(#loc)
        %3 = "ttnn.to_device"(%2, %0) <{memory_config = #ttnn.memory_config<#dram, <interleaved>>}> : (tensor<1152x3456xf32, #ttnn_layout12>, !ttnn.device) -> tensor<1152x3456xf32, #ttnn_layout10> loc(#loc)
        "ttnn.deallocate"(%2) <{force = false}> : (tensor<1152x3456xf32, #ttnn_layout12>) -> () loc(#loc)
        return %3 : tensor<1152x3456xf32, #ttnn_layout10> loc(#loc)
      } loc(#loc)
      func.func private @main_const_eval_4(%arg0: tensor<1152xf32, #ttnn_layout13> loc(unknown)) -> tensor<1x1x1152xf32, #ttnn_layout14> attributes {tt.function_type = "const_eval"} {
        %0 = "ttnn.get_device"() <{mesh_offset = #ttnn<mesh_offset 0x0>, mesh_shape = #ttnn<mesh_shape 1x1>}> : () -> !ttnn.device loc(#loc)
        %1 = call @cpu_hoisted_const_eval_9f0fd1a7(%arg0) {ttir.cpu_hoist_call} : (tensor<1152xf32, #ttnn_layout13>) -> tensor<1x1x1152xf32, #ttnn_layout15> loc(#loc)
        %2 = "ttnn.to_layout"(%1) <{layout = #ttnn.layout<tile>}> : (tensor<1x1x1152xf32, #ttnn_layout15>) -> tensor<1x1x1152xf32, #ttnn_layout16> loc(#loc)
        "ttnn.deallocate"(%1) <{force = false}> : (tensor<1x1x1152xf32, #ttnn_layout15>) -> () loc(#loc)
        %3 = "ttnn.to_device"(%2, %0) <{memory_config = #ttnn.memory_config<#dram, <interleaved>>}> : (tensor<1x1x1152xf32, #ttnn_layout16>, !ttnn.device) -> tensor<1x1x1152xf32, #ttnn_layout14> loc(#loc)
        "ttnn.deallocate"(%2) <{force = false}> : (tensor<1x1x1152xf32, #ttnn_layout16>) -> () loc(#loc)
        return %3 : tensor<1x1x1152xf32, #ttnn_layout14> loc(#loc)
      } loc(#loc)
      func.func private @main_const_eval_5(%arg0: tensor<4304xf32, #ttnn_layout4> loc(unknown)) -> tensor<1x1x4304xf32, #ttnn_layout5> attributes {tt.function_type = "const_eval"} {
        %0 = "ttnn.get_device"() <{mesh_offset = #ttnn<mesh_offset 0x0>, mesh_shape = #ttnn<mesh_shape 1x1>}> : () -> !ttnn.device loc(#loc)
        %1 = call @cpu_hoisted_const_eval_9c930e84(%arg0) {ttir.cpu_hoist_call} : (tensor<4304xf32, #ttnn_layout4>) -> tensor<1x1x4304xf32, #ttnn_layout6> loc(#loc)
        %2 = "ttnn.to_layout"(%1) <{layout = #ttnn.layout<tile>}> : (tensor<1x1x4304xf32, #ttnn_layout6>) -> tensor<1x1x4304xf32, #ttnn_layout7> loc(#loc)
        "ttnn.deallocate"(%1) <{force = false}> : (tensor<1x1x4304xf32, #ttnn_layout6>) -> () loc(#loc)
        %3 = "ttnn.to_device"(%2, %0) <{memory_config = #ttnn.memory_config<#dram, <interleaved>>}> : (tensor<1x1x4304xf32, #ttnn_layout7>, !ttnn.device) -> tensor<1x1x4304xf32, #ttnn_layout5> loc(#loc)
        "ttnn.deallocate"(%2) <{force = false}> : (tensor<1x1x4304xf32, #ttnn_layout7>) -> () loc(#loc)
        return %3 : tensor<1x1x4304xf32, #ttnn_layout5> loc(#loc)
      } loc(#loc)
      func.func private @main_const_eval_6(%arg0: tensor<256x2048xf32, #ttnn_layout17> loc(unknown), %arg1: tensor<256x2048xf32, #ttnn_layout17> loc(unknown), %arg2: tensor<2048x2048xf32, #ttnn_layout18> loc(unknown)) -> tensor<2048x2560xf32, #ttnn_layout19> attributes {tt.function_type = "const_eval"} {
        %0 = "ttnn.get_device"() <{mesh_offset = #ttnn<mesh_offset 0x0>, mesh_shape = #ttnn<mesh_shape 1x1>}> : () -> !ttnn.device loc(#loc)
        %1 = call @cpu_hoisted_const_eval_32502db6(%arg2, %arg0, %arg1) {ttir.cpu_hoist_call} : (tensor<2048x2048xf32, #ttnn_layout18>, tensor<256x2048xf32, #ttnn_layout17>, tensor<256x2048xf32, #ttnn_layout17>) -> tensor<2048x2560xf32, #ttnn_layout20> loc(#loc)
        %2 = "ttnn.to_layout"(%1) <{layout = #ttnn.layout<tile>}> : (tensor<2048x2560xf32, #ttnn_layout20>) -> tensor<2048x2560xf32, #ttnn_layout21> loc(#loc)
        "ttnn.deallocate"(%1) <{force = false}> : (tensor<2048x2560xf32, #ttnn_layout20>) -> () loc(#loc)
        %3 = "ttnn.to_device"(%2, %0) <{memory_config = #ttnn.memory_config<#dram, <interleaved>>}> : (tensor<2048x2560xf32, #ttnn_layout21>, !ttnn.device) -> tensor<2048x2560xf32, #ttnn_layout19> loc(#loc)
        "ttnn.deallocate"(%2) <{force = false}> : (tensor<2048x2560xf32, #ttnn_layout21>) -> () loc(#loc)
        return %3 : tensor<2048x2560xf32, #ttnn_layout19> loc(#loc)
      } loc(#loc)
      func.func private @main_const_eval_7(%arg0: tensor<256x1024xf32, #ttnn_layout22> loc(unknown), %arg1: tensor<256x1024xf32, #ttnn_layout22> loc(unknown), %arg2: tensor<2048x1024xf32, #ttnn_layout23> loc(unknown)) -> tensor<1024x2560xf32, #ttnn_layout24> attributes {tt.function_type = "const_eval"} {
        %0 = "ttnn.get_device"() <{mesh_offset = #ttnn<mesh_offset 0x0>, mesh_shape = #ttnn<mesh_shape 1x1>}> : () -> !ttnn.device loc(#loc)
        %1 = call @cpu_hoisted_const_eval_99b667bd(%arg0, %arg1, %arg2) {ttir.cpu_hoist_call} : (tensor<256x1024xf32, #ttnn_layout22>, tensor<256x1024xf32, #ttnn_layout22>, tensor<2048x1024xf32, #ttnn_layout23>) -> tensor<1024x2560xf32, #ttnn_layout25> loc(#loc)
        %2 = "ttnn.to_layout"(%1) <{layout = #ttnn.layout<tile>}> : (tensor<1024x2560xf32, #ttnn_layout25>) -> tensor<1024x2560xf32, #ttnn_layout26> loc(#loc)
        "ttnn.deallocate"(%1) <{force = false}> : (tensor<1024x2560xf32, #ttnn_layout25>) -> () loc(#loc)
        %3 = "ttnn.to_device"(%2, %0) <{memory_config = #ttnn.memory_config<#dram, <interleaved>>}> : (tensor<1024x2560xf32, #ttnn_layout26>, !ttnn.device) -> tensor<1024x2560xf32, #ttnn_layout24> loc(#loc)
        "ttnn.deallocate"(%2) <{force = false}> : (tensor<1024x2560xf32, #ttnn_layout26>) -> () loc(#loc)
        return %3 : tensor<1024x2560xf32, #ttnn_layout24> loc(#loc)
      } loc(#loc)
      func.func private @main_const_eval_8(%arg0: tensor<4304xf32, #ttnn_layout4> loc(unknown)) -> tensor<1x1x4304xf32, #ttnn_layout5> attributes {tt.function_type = "const_eval"} {
        %0 = "ttnn.get_device"() <{mesh_offset = #ttnn<mesh_offset 0x0>, mesh_shape = #ttnn<mesh_shape 1x1>}> : () -> !ttnn.device loc(#loc)
        %1 = call @cpu_hoisted_const_eval_9c930e84(%arg0) {ttir.cpu_hoist_call} : (tensor<4304xf32, #ttnn_layout4>) -> tensor<1x1x4304xf32, #ttnn_layout6> loc(#loc)
        %2 = "ttnn.to_layout"(%1) <{layout = #ttnn.layout<tile>}> : (tensor<1x1x4304xf32, #ttnn_layout6>) -> tensor<1x1x4304xf32, #ttnn_layout7> loc(#loc)
        "ttnn.deallocate"(%1) <{force = false}> : (tensor<1x1x4304xf32, #ttnn_layout6>) -> () loc(#loc)
        %3 = "ttnn.to_device"(%2, %0) <{memory_config = #ttnn.memory_config<#dram, <interleaved>>}> : (tensor<1x1x4304xf32, #ttnn_layout7>, !ttnn.device) -> tensor<1x1x4304xf32, #ttnn_layout5> loc(#loc)
        "ttnn.deallocate"(%2) <{force = false}> : (tensor<1x1x4304xf32, #ttnn_layout7>) -> () loc(#loc)
        return %3 : tensor<1x1x4304xf32, #ttnn_layout5> loc(#loc)
      } loc(#loc)
      func.func private @main_const_eval_9(%arg0: tensor<1152xf32, #ttnn_layout13> loc(unknown), %arg1: tensor<1152xf32, #ttnn_layout13> loc(unknown), %arg2: tensor<1152xf32, #ttnn_layout13> loc(unknown)) -> tensor<1x1x3456xf32, #ttnn_layout27> attributes {tt.function_type = "const_eval"} {
        %0 = "ttnn.get_device"() <{mesh_offset = #ttnn<mesh_offset 0x0>, mesh_shape = #ttnn<mesh_shape 1x1>}> : () -> !ttnn.device loc(#loc)
        %1 = call @cpu_hoisted_const_eval_b9a4c459(%arg2, %arg1, %arg0) {ttir.cpu_hoist_call} : (tensor<1152xf32, #ttnn_layout13>, tensor<1152xf32, #ttnn_layout13>, tensor<1152xf32, #ttnn_layout13>) -> tensor<1x1x3456xf32, #ttnn_layout28> loc(#loc)
        %2 = "ttnn.to_layout"(%1) <{layout = #ttnn.layout<tile>}> : (tensor<1x1x3456xf32, #ttnn_layout28>) -> tensor<1x1x3456xf32, #ttnn_layout29> loc(#loc)
        "ttnn.deallocate"(%1) <{force = false}> : (tensor<1x1x3456xf32, #ttnn_layout28>) -> () loc(#loc)
        %3 = "ttnn.to_device"(%2, %0) <{memory_config = #ttnn.memory_config<#dram, <interleaved>>}> : (tensor<1x1x3456xf32, #ttnn_layout29>, !ttnn.device) -> tensor<1x1x3456xf32, #ttnn_layout27> loc(#loc)
        "ttnn.deallocate"(%2) <{force = false}> : (tensor<1x1x3456xf32, #ttnn_layout29>) -> () loc(#loc)
        return %3 : tensor<1x1x3456xf32, #ttnn_layout27> loc(#loc)
      } loc(#loc)
      func.func private @main_const_eval_10(%arg0: tensor<256x1024xf32, #ttnn_layout22> loc(unknown), %arg1: tensor<256x1024xf32, #ttnn_layout22> loc(unknown), %arg2: tensor<2048x1024xf32, #ttnn_layout23> loc(unknown)) -> tensor<1024x2560xf32, #ttnn_layout24> attributes {tt.function_type = "const_eval"} {
        %0 = "ttnn.get_device"() <{mesh_offset = #ttnn<mesh_offset 0x0>, mesh_shape = #ttnn<mesh_shape 1x1>}> : () -> !ttnn.device loc(#loc)
        %1 = call @cpu_hoisted_const_eval_99b667bd(%arg0, %arg1, %arg2) {ttir.cpu_hoist_call} : (tensor<256x1024xf32, #ttnn_layout22>, tensor<256x1024xf32, #ttnn_layout22>, tensor<2048x1024xf32, #ttnn_layout23>) -> tensor<1024x2560xf32, #ttnn_layout25> loc(#loc)
        %2 = "ttnn.to_layout"(%1) <{layout = #ttnn.layout<tile>}> : (tensor<1024x2560xf32, #ttnn_layout25>) -> tensor<1024x2560xf32, #ttnn_layout26> loc(#loc)
        "ttnn.deallocate"(%1) <{force = false}> : (tensor<1024x2560xf32, #ttnn_layout25>) -> () loc(#loc)
        %3 = "ttnn.to_device"(%2, %0) <{memory_config = #ttnn.memory_config<#dram, <interleaved>>}> : (tensor<1024x2560xf32, #ttnn_layout26>, !ttnn.device) -> tensor<1024x2560xf32, #ttnn_layout24> loc(#loc)
        "ttnn.deallocate"(%2) <{force = false}> : (tensor<1024x2560xf32, #ttnn_layout26>) -> () loc(#loc)
        return %3 : tensor<1024x2560xf32, #ttnn_layout24> loc(#loc)
      } loc(#loc)
      func.func private @main_const_eval_11(%arg0: tensor<1152xf32, #ttnn_layout13> loc(unknown), %arg1: tensor<1152xf32, #ttnn_layout13> loc(unknown), %arg2: tensor<1152xf32, #ttnn_layout13> loc(unknown)) -> tensor<1x1x3456xf32, #ttnn_layout27> attributes {tt.function_type = "const_eval"} {
        %0 = "ttnn.get_device"() <{mesh_offset = #ttnn<mesh_offset 0x0>, mesh_shape = #ttnn<mesh_shape 1x1>}> : () -> !ttnn.device loc(#loc)
        %1 = call @cpu_hoisted_const_eval_b9a4c459(%arg2, %arg1, %arg0) {ttir.cpu_hoist_call} : (tensor<1152xf32, #ttnn_layout13>, tensor<1152xf32, #ttnn_layout13>, tensor<1152xf32, #ttnn_layout13>) -> tensor<1x1x3456xf32, #ttnn_layout28> loc(#loc)
        %2 = "ttnn.to_layout"(%1) <{layout = #ttnn.layout<tile>}> : (tensor<1x1x3456xf32, #ttnn_layout28>) -> tensor<1x1x3456xf32, #ttnn_layout29> loc(#loc)
        "ttnn.deallocate"(%1) <{force = false}> : (tensor<1x1x3456xf32, #ttnn_layout28>) -> () loc(#loc)
        %3 = "ttnn.to_device"(%2, %0) <{memory_config = #ttnn.memory_config<#dram, <interleaved>>}> : (tensor<1x1x3456xf32, #ttnn_layout29>, !ttnn.device) -> tensor<1x1x3456xf32, #ttnn_layout27> loc(#loc)
        "ttnn.deallocate"(%2) <{force = false}> : (tensor<1x1x3456xf32, #ttnn_layout29>) -> () loc(#loc)
        return %3 : tensor<1x1x3456xf32, #ttnn_layout27> loc(#loc)
      } loc(#loc)
      func.func private @main_const_eval_12(%arg0: tensor<1152xf32, #ttnn_layout13> loc(unknown), %arg1: tensor<1152xf32, #ttnn_layout13> loc(unknown), %arg2: tensor<1152xf32, #ttnn_layout13> loc(unknown)) -> tensor<1x1x3456xf32, #ttnn_layout27> attributes {tt.function_type = "const_eval"} {
        %0 = "ttnn.get_device"() <{mesh_offset = #ttnn<mesh_offset 0x0>, mesh_shape = #ttnn<mesh_shape 1x1>}> : () -> !ttnn.device loc(#loc)
        %1 = call @cpu_hoisted_const_eval_b9a4c459(%arg2, %arg1, %arg0) {ttir.cpu_hoist_call} : (tensor<1152xf32, #ttnn_layout13>, tensor<1152xf32, #ttnn_layout13>, tensor<1152xf32, #ttnn_layout13>) -> tensor<1x1x3456xf32, #ttnn_layout28> loc(#loc)
        %2 = "ttnn.to_layout"(%1) <{layout = #ttnn.layout<tile>}> : (tensor<1x1x3456xf32, #ttnn_layout28>) -> tensor<1x1x3456xf32, #ttnn_layout29> loc(#loc)
        "ttnn.deallocate"(%1) <{force = false}> : (tensor<1x1x3456xf32, #ttnn_layout28>) -> () loc(#loc)
        %3 = "ttnn.to_device"(%2, %0) <{memory_config = #ttnn.memory_config<#dram, <interleaved>>}> : (tensor<1x1x3456xf32, #ttnn_layout29>, !ttnn.device) -> tensor<1x1x3456xf32, #ttnn_layout27> loc(#loc)
        "ttnn.deallocate"(%2) <{force = false}> : (tensor<1x1x3456xf32, #ttnn_layout29>) -> () loc(#loc)
        return %3 : tensor<1x1x3456xf32, #ttnn_layout27> loc(#loc)
      } loc(#loc)
      func.func private @main_const_eval_13(%arg0: tensor<1152xf32, #ttnn_layout13> loc(unknown)) -> tensor<1x1x1152xf32, #ttnn_layout14> attributes {tt.function_type = "const_eval"} {
        %0 = "ttnn.get_device"() <{mesh_offset = #ttnn<mesh_offset 0x0>, mesh_shape = #ttnn<mesh_shape 1x1>}> : () -> !ttnn.device loc(#loc)
        %1 = call @cpu_hoisted_const_eval_9f0fd1a7(%arg0) {ttir.cpu_hoist_call} : (tensor<1152xf32, #ttnn_layout13>) -> tensor<1x1x1152xf32, #ttnn_layout15> loc(#loc)
        %2 = "ttnn.to_layout"(%1) <{layout = #ttnn.layout<tile>}> : (tensor<1x1x1152xf32, #ttnn_layout15>) -> tensor<1x1x1152xf32, #ttnn_layout16> loc(#loc)
        "ttnn.deallocate"(%1) <{force = false}> : (tensor<1x1x1152xf32, #ttnn_layout15>) -> () loc(#loc)
        %3 = "ttnn.to_device"(%2, %0) <{memory_config = #ttnn.memory_config<#dram, <interleaved>>}> : (tensor<1x1x1152xf32, #ttnn_layout16>, !ttnn.device) -> tensor<1x1x1152xf32, #ttnn_layout14> loc(#loc)
        "ttnn.deallocate"(%2) <{force = false}> : (tensor<1x1x1152xf32, #ttnn_layout16>) -> () loc(#loc)
        return %3 : tensor<1x1x1152xf32, #ttnn_layout14> loc(#loc)
      } loc(#loc)
      func.func private @main_const_eval_14(%arg0: tensor<1152x1152xf32, #ttnn_layout9> loc(unknown), %arg1: tensor<1152x1152xf32, #ttnn_layout9> loc(unknown), %arg2: tensor<1152x1152xf32, #ttnn_layout9> loc(unknown)) -> tensor<1152x3456xf32, #ttnn_layout10> attributes {tt.function_type = "const_eval"} {
        %0 = "ttnn.get_device"() <{mesh_offset = #ttnn<mesh_offset 0x0>, mesh_shape = #ttnn<mesh_shape 1x1>}> : () -> !ttnn.device loc(#loc)
        %1 = call @cpu_hoisted_const_eval_59f6b97d(%arg1, %arg0, %arg2) {ttir.cpu_hoist_call} : (tensor<1152x1152xf32, #ttnn_layout9>, tensor<1152x1152xf32, #ttnn_layout9>, tensor<1152x1152xf32, #ttnn_layout9>) -> tensor<1152x3456xf32, #ttnn_layout11> loc(#loc)
        %2 = "ttnn.to_layout"(%1) <{layout = #ttnn.layout<tile>}> : (tensor<1152x3456xf32, #ttnn_layout11>) -> tensor<1152x3456xf32, #ttnn_layout12> loc(#loc)
        "ttnn.deallocate"(%1) <{force = false}> : (tensor<1152x3456xf32, #ttnn_layout11>) -> () loc(#loc)
        %3 = "ttnn.to_device"(%2, %0) <{memory_config = #ttnn.memory_config<#dram, <interleaved>>}> : (tensor<1152x3456xf32, #ttnn_layout12>, !ttnn.device) -> tensor<1152x3456xf32, #ttnn_layout10> loc(#loc)
        "ttnn.deallocate"(%2) <{force = false}> : (tensor<1152x3456xf32, #ttnn_layout12>) -> () loc(#loc)
        return %3 : tensor<1152x3456xf32, #ttnn_layout10> loc(#loc)
      } loc(#loc)
      func.func private @main_const_eval_15(%arg0: tensor<1152xf32, #ttnn_layout13> loc(unknown), %arg1: tensor<1152xf32, #ttnn_layout13> loc(unknown), %arg2: tensor<1152xf32, #ttnn_layout13> loc(unknown)) -> tensor<1x1x3456xf32, #ttnn_layout27> attributes {tt.function_type = "const_eval"} {
        %0 = "ttnn.get_device"() <{mesh_offset = #ttnn<mesh_offset 0x0>, mesh_shape = #ttnn<mesh_shape 1x1>}> : () -> !ttnn.device loc(#loc)
        %1 = call @cpu_hoisted_const_eval_b9a4c459(%arg2, %arg1, %arg0) {ttir.cpu_hoist_call} : (tensor<1152xf32, #ttnn_layout13>, tensor<1152xf32, #ttnn_layout13>, tensor<1152xf32, #ttnn_layout13>) -> tensor<1x1x3456xf32, #ttnn_layout28> loc(#loc)
        %2 = "ttnn.to_layout"(%1) <{layout = #ttnn.layout<tile>}> : (tensor<1x1x3456xf32, #ttnn_layout28>) -> tensor<1x1x3456xf32, #ttnn_layout29> loc(#loc)
        "ttnn.deallocate"(%1) <{force = false}> : (tensor<1x1x3456xf32, #ttnn_layout28>) -> () loc(#loc)
        %3 = "ttnn.to_device"(%2, %0) <{memory_config = #ttnn.memory_config<#dram, <interleaved>>}> : (tensor<1x1x3456xf32, #ttnn_layout29>, !ttnn.device) -> tensor<1x1x3456xf32, #ttnn_layout27> loc(#loc)
        "ttnn.deallocate"(%2) <{force = false}> : (tensor<1x1x3456xf32, #ttnn_layout29>) -> () loc(#loc)
        return %3 : tensor<1x1x3456xf32, #ttnn_layout27> loc(#loc)
      } loc(#loc)
      func.func private @main_const_eval_16(%arg0: tensor<1152xf32, #ttnn_layout13> loc(unknown)) -> tensor<1x1x1152xf32, #ttnn_layout14> attributes {tt.function_type = "const_eval"} {
        %0 = "ttnn.get_device"() <{mesh_offset = #ttnn<mesh_offset 0x0>, mesh_shape = #ttnn<mesh_shape 1x1>}> : () -> !ttnn.device loc(#loc)
        %1 = call @cpu_hoisted_const_eval_9f0fd1a7(%arg0) {ttir.cpu_hoist_call} : (tensor<1152xf32, #ttnn_layout13>) -> tensor<1x1x1152xf32, #ttnn_layout15> loc(#loc)
        %2 = "ttnn.to_layout"(%1) <{layout = #ttnn.layout<tile>}> : (tensor<1x1x1152xf32, #ttnn_layout15>) -> tensor<1x1x1152xf32, #ttnn_layout16> loc(#loc)
        "ttnn.deallocate"(%1) <{force = false}> : (tensor<1x1x1152xf32, #ttnn_layout15>) -> () loc(#loc)
        %3 = "ttnn.to_device"(%2, %0) <{memory_config = #ttnn.memory_config<#dram, <interleaved>>}> : (tensor<1x1x1152xf32, #ttnn_layout16>, !ttnn.device) -> tensor<1x1x1152xf32, #ttnn_layout14> loc(#loc)
        "ttnn.deallocate"(%2) <{force = false}> : (tensor<1x1x1152xf32, #ttnn_layout16>) -> () loc(#loc)
        return %3 : tensor<1x1x1152xf32, #ttnn_layout14> loc(#loc)
      } loc(#loc)
      func.func private @main_const_eval_17(%arg0: tensor<1152xf32, #ttnn_layout13> loc(unknown)) -> tensor<1x1x1152xf32, #ttnn_layout14> attributes {tt.function_type = "const_eval"} {
        %0 = "ttnn.get_device"() <{mesh_offset = #ttnn<mesh_offset 0x0>, mesh_shape = #ttnn<mesh_shape 1x1>}> : () -> !ttnn.device loc(#loc)
        %1 = call @cpu_hoisted_const_eval_9f0fd1a7(%arg0) {ttir.cpu_hoist_call} : (tensor<1152xf32, #ttnn_layout13>) -> tensor<1x1x1152xf32, #ttnn_layout15> loc(#loc)
        %2 = "ttnn.to_layout"(%1) <{layout = #ttnn.layout<tile>}> : (tensor<1x1x1152xf32, #ttnn_layout15>) -> tensor<1x1x1152xf32, #ttnn_layout16> loc(#loc)
        "ttnn.deallocate"(%1) <{force = false}> : (tensor<1x1x1152xf32, #ttnn_layout15>) -> () loc(#loc)
        %3 = "ttnn.to_device"(%2, %0) <{memory_config = #ttnn.memory_config<#dram, <interleaved>>}> : (tensor<1x1x1152xf32, #ttnn_layout16>, !ttnn.device) -> tensor<1x1x1152xf32, #ttnn_layout14> loc(#loc)
        "ttnn.deallocate"(%2) <{force = false}> : (tensor<1x1x1152xf32, #ttnn_layout16>) -> () loc(#loc)
        return %3 : tensor<1x1x1152xf32, #ttnn_layout14> loc(#loc)
      } loc(#loc)
      func.func private @main_const_eval_18(%arg0: tensor<1152x1152xf32, #ttnn_layout9> loc(unknown), %arg1: tensor<1152x1152xf32, #ttnn_layout9> loc(unknown), %arg2: tensor<1152x1152xf32, #ttnn_layout9> loc(unknown)) -> tensor<1152x3456xf32, #ttnn_layout10> attributes {tt.function_type = "const_eval"} {
        %0 = "ttnn.get_device"() <{mesh_offset = #ttnn<mesh_offset 0x0>, mesh_shape = #ttnn<mesh_shape 1x1>}> : () -> !ttnn.device loc(#loc)
        %1 = call @cpu_hoisted_const_eval_59f6b97d(%arg1, %arg0, %arg2) {ttir.cpu_hoist_call} : (tensor<1152x1152xf32, #ttnn_layout9>, tensor<1152x1152xf32, #ttnn_layout9>, tensor<1152x1152xf32, #ttnn_layout9>) -> tensor<1152x3456xf32, #ttnn_layout11> loc(#loc)
        %2 = "ttnn.to_layout"(%1) <{layout = #ttnn.layout<tile>}> : (tensor<1152x3456xf32, #ttnn_layout11>) -> tensor<1152x3456xf32, #ttnn_layout12> loc(#loc)
        "ttnn.deallocate"(%1) <{force = false}> : (tensor<1152x3456xf32, #ttnn_layout11>) -> () loc(#loc)
        %3 = "ttnn.to_device"(%2, %0) <{memory_config = #ttnn.memory_config<#dram, <interleaved>>}> : (tensor<1152x3456xf32, #ttnn_layout12>, !ttnn.device) -> tensor<1152x3456xf32, #ttnn_layout10> loc(#loc)
        "ttnn.deallocate"(%2) <{force = false}> : (tensor<1152x3456xf32, #ttnn_layout12>) -> () loc(#loc)
        return %3 : tensor<1152x3456xf32, #ttnn_layout10> loc(#loc)
      } loc(#loc)
      func.func private @main_const_eval_19(%arg0: tensor<1152x1152xf32, #ttnn_layout9> loc(unknown), %arg1: tensor<1152x1152xf32, #ttnn_layout9> loc(unknown), %arg2: tensor<1152x1152xf32, #ttnn_layout9> loc(unknown)) -> tensor<1152x3456xf32, #ttnn_layout10> attributes {tt.function_type = "const_eval"} {
        %0 = "ttnn.get_device"() <{mesh_offset = #ttnn<mesh_offset 0x0>, mesh_shape = #ttnn<mesh_shape 1x1>}> : () -> !ttnn.device loc(#loc)
        %1 = call @cpu_hoisted_const_eval_59f6b97d(%arg1, %arg0, %arg2) {ttir.cpu_hoist_call} : (tensor<1152x1152xf32, #ttnn_layout9>, tensor<1152x1152xf32, #ttnn_layout9>, tensor<1152x1152xf32, #ttnn_layout9>) -> tensor<1152x3456xf32, #ttnn_layout11> loc(#loc)
        %2 = "ttnn.to_layout"(%1) <{layout = #ttnn.layout<tile>}> : (tensor<1152x3456xf32, #ttnn_layout11>) -> tensor<1152x3456xf32, #ttnn_layout12> loc(#loc)
        "ttnn.deallocate"(%1) <{force = false}> : (tensor<1152x3456xf32, #ttnn_layout11>) -> () loc(#loc)
        %3 = "ttnn.to_device"(%2, %0) <{memory_config = #ttnn.memory_config<#dram, <interleaved>>}> : (tensor<1152x3456xf32, #ttnn_layout12>, !ttnn.device) -> tensor<1152x3456xf32, #ttnn_layout10> loc(#loc)
        "ttnn.deallocate"(%2) <{force = false}> : (tensor<1152x3456xf32, #ttnn_layout12>) -> () loc(#loc)
        return %3 : tensor<1152x3456xf32, #ttnn_layout10> loc(#loc)
      } loc(#loc)
      func.func private @main_const_eval_20(%arg0: tensor<1152xf32, #ttnn_layout13> loc(unknown), %arg1: tensor<1152xf32, #ttnn_layout13> loc(unknown), %arg2: tensor<1152xf32, #ttnn_layout13> loc(unknown)) -> tensor<1x1x3456xf32, #ttnn_layout27> attributes {tt.function_type = "const_eval"} {
        %0 = "ttnn.get_device"() <{mesh_offset = #ttnn<mesh_offset 0x0>, mesh_shape = #ttnn<mesh_shape 1x1>}> : () -> !ttnn.device loc(#loc)
        %1 = call @cpu_hoisted_const_eval_b9a4c459(%arg2, %arg1, %arg0) {ttir.cpu_hoist_call} : (tensor<1152xf32, #ttnn_layout13>, tensor<1152xf32, #ttnn_layout13>, tensor<1152xf32, #ttnn_layout13>) -> tensor<1x1x3456xf32, #ttnn_layout28> loc(#loc)
        %2 = "ttnn.to_layout"(%1) <{layout = #ttnn.layout<tile>}> : (tensor<1x1x3456xf32, #ttnn_layout28>) -> tensor<1x1x3456xf32, #ttnn_layout29> loc(#loc)
        "ttnn.deallocate"(%1) <{force = false}> : (tensor<1x1x3456xf32, #ttnn_layout28>) -> () loc(#loc)
        %3 = "ttnn.to_device"(%2, %0) <{memory_config = #ttnn.memory_config<#dram, <interleaved>>}> : (tensor<1x1x3456xf32, #ttnn_layout29>, !ttnn.device) -> tensor<1x1x3456xf32, #ttnn_layout27> loc(#loc)
        "ttnn.deallocate"(%2) <{force = false}> : (tensor<1x1x3456xf32, #ttnn_layout29>) -> () loc(#loc)
        return %3 : tensor<1x1x3456xf32, #ttnn_layout27> loc(#loc)
      } loc(#loc)
      func.func private @main_const_eval_21(%arg0: tensor<1152xf32, #ttnn_layout13> loc(unknown)) -> tensor<1x1x1152xf32, #ttnn_layout14> attributes {tt.function_type = "const_eval"} {
        %0 = "ttnn.get_device"() <{mesh_offset = #ttnn<mesh_offset 0x0>, mesh_shape = #ttnn<mesh_shape 1x1>}> : () -> !ttnn.device loc(#loc)
        %1 = call @cpu_hoisted_const_eval_9f0fd1a7(%arg0) {ttir.cpu_hoist_call} : (tensor<1152xf32, #ttnn_layout13>) -> tensor<1x1x1152xf32, #ttnn_layout15> loc(#loc)
        %2 = "ttnn.to_layout"(%1) <{layout = #ttnn.layout<tile>}> : (tensor<1x1x1152xf32, #ttnn_layout15>) -> tensor<1x1x1152xf32, #ttnn_layout16> loc(#loc)
        "ttnn.deallocate"(%1) <{force = false}> : (tensor<1x1x1152xf32, #ttnn_layout15>) -> () loc(#loc)
        %3 = "ttnn.to_device"(%2, %0) <{memory_config = #ttnn.memory_config<#dram, <interleaved>>}> : (tensor<1x1x1152xf32, #ttnn_layout16>, !ttnn.device) -> tensor<1x1x1152xf32, #ttnn_layout14> loc(#loc)
        "ttnn.deallocate"(%2) <{force = false}> : (tensor<1x1x1152xf32, #ttnn_layout16>) -> () loc(#loc)
        return %3 : tensor<1x1x1152xf32, #ttnn_layout14> loc(#loc)
      } loc(#loc)
      func.func private @main_const_eval_22(%arg0: tensor<1152xf32, #ttnn_layout13> loc(unknown)) -> tensor<1x1x1152xf32, #ttnn_layout14> attributes {tt.function_type = "const_eval"} {
        %0 = "ttnn.get_device"() <{mesh_offset = #ttnn<mesh_offset 0x0>, mesh_shape = #ttnn<mesh_shape 1x1>}> : () -> !ttnn.device loc(#loc)
        %1 = call @cpu_hoisted_const_eval_9f0fd1a7(%arg0) {ttir.cpu_hoist_call} : (tensor<1152xf32, #ttnn_layout13>) -> tensor<1x1x1152xf32, #ttnn_layout15> loc(#loc)
        %2 = "ttnn.to_layout"(%1) <{layout = #ttnn.layout<tile>}> : (tensor<1x1x1152xf32, #ttnn_layout15>) -> tensor<1x1x1152xf32, #ttnn_layout16> loc(#loc)
        "ttnn.deallocate"(%1) <{force = false}> : (tensor<1x1x1152xf32, #ttnn_layout15>) -> () loc(#loc)
        %3 = "ttnn.to_device"(%2, %0) <{memory_config = #ttnn.memory_config<#dram, <interleaved>>}> : (tensor<1x1x1152xf32, #ttnn_layout16>, !ttnn.device) -> tensor<1x1x1152xf32, #ttnn_layout14> loc(#loc)
        "ttnn.deallocate"(%2) <{force = false}> : (tensor<1x1x1152xf32, #ttnn_layout16>) -> () loc(#loc)
        return %3 : tensor<1x1x1152xf32, #ttnn_layout14> loc(#loc)
      } loc(#loc)
      func.func private @main_const_eval_23(%arg0: tensor<256x1024xf32, #ttnn_layout22> loc(unknown), %arg1: tensor<256x1024xf32, #ttnn_layout22> loc(unknown), %arg2: tensor<2048x1024xf32, #ttnn_layout23> loc(unknown)) -> tensor<1024x2560xf32, #ttnn_layout24> attributes {tt.function_type = "const_eval"} {
        %0 = "ttnn.get_device"() <{mesh_offset = #ttnn<mesh_offset 0x0>, mesh_shape = #ttnn<mesh_shape 1x1>}> : () -> !ttnn.device loc(#loc)
        %1 = call @cpu_hoisted_const_eval_99b667bd(%arg0, %arg1, %arg2) {ttir.cpu_hoist_call} : (tensor<256x1024xf32, #ttnn_layout22>, tensor<256x1024xf32, #ttnn_layout22>, tensor<2048x1024xf32, #ttnn_layout23>) -> tensor<1024x2560xf32, #ttnn_layout25> loc(#loc)
        %2 = "ttnn.to_layout"(%1) <{layout = #ttnn.layout<tile>}> : (tensor<1024x2560xf32, #ttnn_layout25>) -> tensor<1024x2560xf32, #ttnn_layout26> loc(#loc)
        "ttnn.deallocate"(%1) <{force = false}> : (tensor<1024x2560xf32, #ttnn_layout25>) -> () loc(#loc)
        %3 = "ttnn.to_device"(%2, %0) <{memory_config = #ttnn.memory_config<#dram, <interleaved>>}> : (tensor<1024x2560xf32, #ttnn_layout26>, !ttnn.device) -> tensor<1024x2560xf32, #ttnn_layout24> loc(#loc)
        "ttnn.deallocate"(%2) <{force = false}> : (tensor<1024x2560xf32, #ttnn_layout26>) -> () loc(#loc)
        return %3 : tensor<1024x2560xf32, #ttnn_layout24> loc(#loc)
      } loc(#loc)
      func.func private @main_const_eval_24(%arg0: tensor<256x1024xf32, #ttnn_layout22> loc(unknown), %arg1: tensor<256x1024xf32, #ttnn_layout22> loc(unknown), %arg2: tensor<2048x1024xf32, #ttnn_layout23> loc(unknown)) -> tensor<1024x2560xf32, #ttnn_layout24> attributes {tt.function_type = "const_eval"} {
        %0 = "ttnn.get_device"() <{mesh_offset = #ttnn<mesh_offset 0x0>, mesh_shape = #ttnn<mesh_shape 1x1>}> : () -> !ttnn.device loc(#loc)
        %1 = call @cpu_hoisted_const_eval_99b667bd(%arg0, %arg1, %arg2) {ttir.cpu_hoist_call} : (tensor<256x1024xf32, #ttnn_layout22>, tensor<256x1024xf32, #ttnn_layout22>, tensor<2048x1024xf32, #ttnn_layout23>) -> tensor<1024x2560xf32, #ttnn_layout25> loc(#loc)
        %2 = "ttnn.to_layout"(%1) <{layout = #ttnn.layout<tile>}> : (tensor<1024x2560xf32, #ttnn_layout25>) -> tensor<1024x2560xf32, #ttnn_layout26> loc(#loc)
        "ttnn.deallocate"(%1) <{force = false}> : (tensor<1024x2560xf32, #ttnn_layout25>) -> () loc(#loc)
        %3 = "ttnn.to_device"(%2, %0) <{memory_config = #ttnn.memory_config<#dram, <interleaved>>}> : (tensor<1024x2560xf32, #ttnn_layout26>, !ttnn.device) -> tensor<1024x2560xf32, #ttnn_layout24> loc(#loc)
        "ttnn.deallocate"(%2) <{force = false}> : (tensor<1024x2560xf32, #ttnn_layout26>) -> () loc(#loc)
        return %3 : tensor<1024x2560xf32, #ttnn_layout24> loc(#loc)
      } loc(#loc)
      func.func private @main_const_eval_25(%arg0: tensor<1152x1152xf32, #ttnn_layout9> loc(unknown), %arg1: tensor<1152x1152xf32, #ttnn_layout9> loc(unknown), %arg2: tensor<1152x1152xf32, #ttnn_layout9> loc(unknown)) -> tensor<1152x3456xf32, #ttnn_layout10> attributes {tt.function_type = "const_eval"} {
        %0 = "ttnn.get_device"() <{mesh_offset = #ttnn<mesh_offset 0x0>, mesh_shape = #ttnn<mesh_shape 1x1>}> : () -> !ttnn.device loc(#loc)
        %1 = call @cpu_hoisted_const_eval_59f6b97d(%arg1, %arg0, %arg2) {ttir.cpu_hoist_call} : (tensor<1152x1152xf32, #ttnn_layout9>, tensor<1152x1152xf32, #ttnn_layout9>, tensor<1152x1152xf32, #ttnn_layout9>) -> tensor<1152x3456xf32, #ttnn_layout11> loc(#loc)
        %2 = "ttnn.to_layout"(%1) <{layout = #ttnn.layout<tile>}> : (tensor<1152x3456xf32, #ttnn_layout11>) -> tensor<1152x3456xf32, #ttnn_layout12> loc(#loc)
        "ttnn.deallocate"(%1) <{force = false}> : (tensor<1152x3456xf32, #ttnn_layout11>) -> () loc(#loc)
        %3 = "ttnn.to_device"(%2, %0) <{memory_config = #ttnn.memory_config<#dram, <interleaved>>}> : (tensor<1152x3456xf32, #ttnn_layout12>, !ttnn.device) -> tensor<1152x3456xf32, #ttnn_layout10> loc(#loc)
        "ttnn.deallocate"(%2) <{force = false}> : (tensor<1152x3456xf32, #ttnn_layout12>) -> () loc(#loc)
        return %3 : tensor<1152x3456xf32, #ttnn_layout10> loc(#loc)
      } loc(#loc)
      func.func private @main_const_eval_26(%arg0: tensor<1152xf32, #ttnn_layout13> loc(unknown)) -> tensor<1x1x1152xf32, #ttnn_layout14> attributes {tt.function_type = "const_eval"} {
        %0 = "ttnn.get_device"() <{mesh_offset = #ttnn<mesh_offset 0x0>, mesh_shape = #ttnn<mesh_shape 1x1>}> : () -> !ttnn.device loc(#loc)
        %1 = call @cpu_hoisted_const_eval_9f0fd1a7(%arg0) {ttir.cpu_hoist_call} : (tensor<1152xf32, #ttnn_layout13>) -> tensor<1x1x1152xf32, #ttnn_layout15> loc(#loc)
        %2 = "ttnn.to_layout"(%1) <{layout = #ttnn.layout<tile>}> : (tensor<1x1x1152xf32, #ttnn_layout15>) -> tensor<1x1x1152xf32, #ttnn_layout16> loc(#loc)
        "ttnn.deallocate"(%1) <{force = false}> : (tensor<1x1x1152xf32, #ttnn_layout15>) -> () loc(#loc)
        %3 = "ttnn.to_device"(%2, %0) <{memory_config = #ttnn.memory_config<#dram, <interleaved>>}> : (tensor<1x1x1152xf32, #ttnn_layout16>, !ttnn.device) -> tensor<1x1x1152xf32, #ttnn_layout14> loc(#loc)
        "ttnn.deallocate"(%2) <{force = false}> : (tensor<1x1x1152xf32, #ttnn_layout16>) -> () loc(#loc)
        return %3 : tensor<1x1x1152xf32, #ttnn_layout14> loc(#loc)
      } loc(#loc)
      func.func private @main_const_eval_27(%arg0: tensor<4304xf32, #ttnn_layout4> loc(unknown)) -> tensor<1x1x4304xf32, #ttnn_layout5> attributes {tt.function_type = "const_eval"} {
        %0 = "ttnn.get_device"() <{mesh_offset = #ttnn<mesh_offset 0x0>, mesh_shape = #ttnn<mesh_shape 1x1>}> : () -> !ttnn.device loc(#loc)
        %1 = call @cpu_hoisted_const_eval_9c930e84(%arg0) {ttir.cpu_hoist_call} : (tensor<4304xf32, #ttnn_layout4>) -> tensor<1x1x4304xf32, #ttnn_layout6> loc(#loc)
        %2 = "ttnn.to_layout"(%1) <{layout = #ttnn.layout<tile>}> : (tensor<1x1x4304xf32, #ttnn_layout6>) -> tensor<1x1x4304xf32, #ttnn_layout7> loc(#loc)
        "ttnn.deallocate"(%1) <{force = false}> : (tensor<1x1x4304xf32, #ttnn_layout6>) -> () loc(#loc)
        %3 = "ttnn.to_device"(%2, %0) <{memory_config = #ttnn.memory_config<#dram, <interleaved>>}> : (tensor<1x1x4304xf32, #ttnn_layout7>, !ttnn.device) -> tensor<1x1x4304xf32, #ttnn_layout5> loc(#loc)
        "ttnn.deallocate"(%2) <{force = false}> : (tensor<1x1x4304xf32, #ttnn_layout7>) -> () loc(#loc)
        return %3 : tensor<1x1x4304xf32, #ttnn_layout5> loc(#loc)
      } loc(#loc)
      func.func private @main_const_eval_28(%arg0: tensor<1152xf32, #ttnn_layout13> loc(unknown)) -> tensor<1x1x1152xf32, #ttnn_layout14> attributes {tt.function_type = "const_eval"} {
        %0 = "ttnn.get_device"() <{mesh_offset = #ttnn<mesh_offset 0x0>, mesh_shape = #ttnn<mesh_shape 1x1>}> : () -> !ttnn.device loc(#loc)
        %1 = call @cpu_hoisted_const_eval_9f0fd1a7(%arg0) {ttir.cpu_hoist_call} : (tensor<1152xf32, #ttnn_layout13>) -> tensor<1x1x1152xf32, #ttnn_layout15> loc(#loc)
        %2 = "ttnn.to_layout"(%1) <{layout = #ttnn.layout<tile>}> : (tensor<1x1x1152xf32, #ttnn_layout15>) -> tensor<1x1x1152xf32, #ttnn_layout16> loc(#loc)
        "ttnn.deallocate"(%1) <{force = false}> : (tensor<1x1x1152xf32, #ttnn_layout15>) -> () loc(#loc)
        %3 = "ttnn.to_device"(%2, %0) <{memory_config = #ttnn.memory_config<#dram, <interleaved>>}> : (tensor<1x1x1152xf32, #ttnn_layout16>, !ttnn.device) -> tensor<1x1x1152xf32, #ttnn_layout14> loc(#loc)
        "ttnn.deallocate"(%2) <{force = false}> : (tensor<1x1x1152xf32, #ttnn_layout16>) -> () loc(#loc)
        return %3 : tensor<1x1x1152xf32, #ttnn_layout14> loc(#loc)
      } loc(#loc)
      func.func private @main_const_eval_29(%arg0: tensor<256x2048xf32, #ttnn_layout17> loc(unknown), %arg1: tensor<256x2048xf32, #ttnn_layout17> loc(unknown), %arg2: tensor<2048x2048xf32, #ttnn_layout18> loc(unknown)) -> tensor<2048x2560xf32, #ttnn_layout19> attributes {tt.function_type = "const_eval"} {
        %0 = "ttnn.get_device"() <{mesh_offset = #ttnn<mesh_offset 0x0>, mesh_shape = #ttnn<mesh_shape 1x1>}> : () -> !ttnn.device loc(#loc)
        %1 = call @cpu_hoisted_const_eval_32502db6(%arg2, %arg0, %arg1) {ttir.cpu_hoist_call} : (tensor<2048x2048xf32, #ttnn_layout18>, tensor<256x2048xf32, #ttnn_layout17>, tensor<256x2048xf32, #ttnn_layout17>) -> tensor<2048x2560xf32, #ttnn_layout20> loc(#loc)
        %2 = "ttnn.to_layout"(%1) <{layout = #ttnn.layout<tile>}> : (tensor<2048x2560xf32, #ttnn_layout20>) -> tensor<2048x2560xf32, #ttnn_layout21> loc(#loc)
        "ttnn.deallocate"(%1) <{force = false}> : (tensor<2048x2560xf32, #ttnn_layout20>) -> () loc(#loc)
        %3 = "ttnn.to_device"(%2, %0) <{memory_config = #ttnn.memory_config<#dram, <interleaved>>}> : (tensor<2048x2560xf32, #ttnn_layout21>, !ttnn.device) -> tensor<2048x2560xf32, #ttnn_layout19> loc(#loc)
        "ttnn.deallocate"(%2) <{force = false}> : (tensor<2048x2560xf32, #ttnn_layout21>) -> () loc(#loc)
        return %3 : tensor<2048x2560xf32, #ttnn_layout19> loc(#loc)
      } loc(#loc)
      func.func private @main_const_eval_30() -> tensor<1x1x1x1xf32, #ttnn_layout30> attributes {tt.function_type = "const_eval"} {
        %0 = "ttnn.get_device"() <{mesh_offset = #ttnn<mesh_offset 0x0>, mesh_shape = #ttnn<mesh_shape 1x1>}> : () -> !ttnn.device loc(#loc1)
        %1 = "ttnn.full"(%0) <{dtype = #ttcore.supportedDataTypes<f32>, fill_value = 0.117851131 : f32, layout = #ttnn.layout<tile>, shape = #ttnn.shape<1x1x1x1>}> : (!ttnn.device) -> tensor<1x1x1x1xf32, #ttnn_layout30> loc(#loc)
        return %1 : tensor<1x1x1x1xf32, #ttnn_layout30> loc(#loc)
      } loc(#loc)
      func.func private @main_const_eval_31(%arg0: tensor<1152xf32, #ttnn_layout13> loc(unknown), %arg1: tensor<1152xf32, #ttnn_layout13> loc(unknown), %arg2: tensor<1152xf32, #ttnn_layout13> loc(unknown)) -> tensor<1x1x3456xf32, #ttnn_layout27> attributes {tt.function_type = "const_eval"} {
        %0 = "ttnn.get_device"() <{mesh_offset = #ttnn<mesh_offset 0x0>, mesh_shape = #ttnn<mesh_shape 1x1>}> : () -> !ttnn.device loc(#loc)
        %1 = call @cpu_hoisted_const_eval_b9a4c459(%arg2, %arg1, %arg0) {ttir.cpu_hoist_call} : (tensor<1152xf32, #ttnn_layout13>, tensor<1152xf32, #ttnn_layout13>, tensor<1152xf32, #ttnn_layout13>) -> tensor<1x1x3456xf32, #ttnn_layout28> loc(#loc)
        %2 = "ttnn.to_layout"(%1) <{layout = #ttnn.layout<tile>}> : (tensor<1x1x3456xf32, #ttnn_layout28>) -> tensor<1x1x3456xf32, #ttnn_layout29> loc(#loc)
        "ttnn.deallocate"(%1) <{force = false}> : (tensor<1x1x3456xf32, #ttnn_layout28>) -> () loc(#loc)
        %3 = "ttnn.to_device"(%2, %0) <{memory_config = #ttnn.memory_config<#dram, <interleaved>>}> : (tensor<1x1x3456xf32, #ttnn_layout29>, !ttnn.device) -> tensor<1x1x3456xf32, #ttnn_layout27> loc(#loc)
        "ttnn.deallocate"(%2) <{force = false}> : (tensor<1x1x3456xf32, #ttnn_layout29>) -> () loc(#loc)
        return %3 : tensor<1x1x3456xf32, #ttnn_layout27> loc(#loc)
      } loc(#loc)
      func.func private @main_const_eval_32(%arg0: tensor<1152xf32, #ttnn_layout13> loc(unknown), %arg1: tensor<1152xf32, #ttnn_layout13> loc(unknown), %arg2: tensor<1152xf32, #ttnn_layout13> loc(unknown)) -> tensor<1x1x3456xf32, #ttnn_layout27> attributes {tt.function_type = "const_eval"} {
        %0 = "ttnn.get_device"() <{mesh_offset = #ttnn<mesh_offset 0x0>, mesh_shape = #ttnn<mesh_shape 1x1>}> : () -> !ttnn.device loc(#loc)
        %1 = call @cpu_hoisted_const_eval_b9a4c459(%arg2, %arg1, %arg0) {ttir.cpu_hoist_call} : (tensor<1152xf32, #ttnn_layout13>, tensor<1152xf32, #ttnn_layout13>, tensor<1152xf32, #ttnn_layout13>) -> tensor<1x1x3456xf32, #ttnn_layout28> loc(#loc)
        %2 = "ttnn.to_layout"(%1) <{layout = #ttnn.layout<tile>}> : (tensor<1x1x3456xf32, #ttnn_layout28>) -> tensor<1x1x3456xf32, #ttnn_layout29> loc(#loc)
        "ttnn.deallocate"(%1) <{force = false}> : (tensor<1x1x3456xf32, #ttnn_layout28>) -> () loc(#loc)
        %3 = "ttnn.to_device"(%2, %0) <{memory_config = #ttnn.memory_config<#dram, <interleaved>>}> : (tensor<1x1x3456xf32, #ttnn_layout29>, !ttnn.device) -> tensor<1x1x3456xf32, #ttnn_layout27> loc(#loc)
        "ttnn.deallocate"(%2) <{force = false}> : (tensor<1x1x3456xf32, #ttnn_layout29>) -> () loc(#loc)
        return %3 : tensor<1x1x3456xf32, #ttnn_layout27> loc(#loc)
      } loc(#loc)
      func.func private @main_const_eval_33(%arg0: tensor<1152x1152xf32, #ttnn_layout9> loc(unknown), %arg1: tensor<1152x1152xf32, #ttnn_layout9> loc(unknown), %arg2: tensor<1152x1152xf32, #ttnn_layout9> loc(unknown)) -> tensor<1152x3456xf32, #ttnn_layout10> attributes {tt.function_type = "const_eval"} {
        %0 = "ttnn.get_device"() <{mesh_offset = #ttnn<mesh_offset 0x0>, mesh_shape = #ttnn<mesh_shape 1x1>}> : () -> !ttnn.device loc(#loc)
        %1 = call @cpu_hoisted_const_eval_59f6b97d(%arg1, %arg0, %arg2) {ttir.cpu_hoist_call} : (tensor<1152x1152xf32, #ttnn_layout9>, tensor<1152x1152xf32, #ttnn_layout9>, tensor<1152x1152xf32, #ttnn_layout9>) -> tensor<1152x3456xf32, #ttnn_layout11> loc(#loc)
        %2 = "ttnn.to_layout"(%1) <{layout = #ttnn.layout<tile>}> : (tensor<1152x3456xf32, #ttnn_layout11>) -> tensor<1152x3456xf32, #ttnn_layout12> loc(#loc)
        "ttnn.deallocate"(%1) <{force = false}> : (tensor<1152x3456xf32, #ttnn_layout11>) -> () loc(#loc)
        %3 = "ttnn.to_device"(%2, %0) <{memory_config = #ttnn.memory_config<#dram, <interleaved>>}> : (tensor<1152x3456xf32, #ttnn_layout12>, !ttnn.device) -> tensor<1152x3456xf32, #ttnn_layout10> loc(#loc)
        "ttnn.deallocate"(%2) <{force = false}> : (tensor<1152x3456xf32, #ttnn_layout12>) -> () loc(#loc)
        return %3 : tensor<1152x3456xf32, #ttnn_layout10> loc(#loc)
      } loc(#loc)
      func.func private @main_const_eval_34(%arg0: tensor<1152xf32, #ttnn_layout13> loc(unknown)) -> tensor<1x1x1152xf32, #ttnn_layout14> attributes {tt.function_type = "const_eval"} {
        %0 = "ttnn.get_device"() <{mesh_offset = #ttnn<mesh_offset 0x0>, mesh_shape = #ttnn<mesh_shape 1x1>}> : () -> !ttnn.device loc(#loc)
        %1 = call @cpu_hoisted_const_eval_9f0fd1a7(%arg0) {ttir.cpu_hoist_call} : (tensor<1152xf32, #ttnn_layout13>) -> tensor<1x1x1152xf32, #ttnn_layout15> loc(#loc)
        %2 = "ttnn.to_layout"(%1) <{layout = #ttnn.layout<tile>}> : (tensor<1x1x1152xf32, #ttnn_layout15>) -> tensor<1x1x1152xf32, #ttnn_layout16> loc(#loc)
        "ttnn.deallocate"(%1) <{force = false}> : (tensor<1x1x1152xf32, #ttnn_layout15>) -> () loc(#loc)
        %3 = "ttnn.to_device"(%2, %0) <{memory_config = #ttnn.memory_config<#dram, <interleaved>>}> : (tensor<1x1x1152xf32, #ttnn_layout16>, !ttnn.device) -> tensor<1x1x1152xf32, #ttnn_layout14> loc(#loc)
        "ttnn.deallocate"(%2) <{force = false}> : (tensor<1x1x1152xf32, #ttnn_layout16>) -> () loc(#loc)
        return %3 : tensor<1x1x1152xf32, #ttnn_layout14> loc(#loc)
      } loc(#loc)
      func.func private @main_const_eval_35(%arg0: tensor<1152x1152xf32, #ttnn_layout9> loc(unknown), %arg1: tensor<1152x1152xf32, #ttnn_layout9> loc(unknown), %arg2: tensor<1152x1152xf32, #ttnn_layout9> loc(unknown)) -> tensor<1152x3456xf32, #ttnn_layout10> attributes {tt.function_type = "const_eval"} {
        %0 = "ttnn.get_device"() <{mesh_offset = #ttnn<mesh_offset 0x0>, mesh_shape = #ttnn<mesh_shape 1x1>}> : () -> !ttnn.device loc(#loc)
        %1 = call @cpu_hoisted_const_eval_59f6b97d(%arg1, %arg0, %arg2) {ttir.cpu_hoist_call} : (tensor<1152x1152xf32, #ttnn_layout9>, tensor<1152x1152xf32, #ttnn_layout9>, tensor<1152x1152xf32, #ttnn_layout9>) -> tensor<1152x3456xf32, #ttnn_layout11> loc(#loc)
        %2 = "ttnn.to_layout"(%1) <{layout = #ttnn.layout<tile>}> : (tensor<1152x3456xf32, #ttnn_layout11>) -> tensor<1152x3456xf32, #ttnn_layout12> loc(#loc)
        "ttnn.deallocate"(%1) <{force = false}> : (tensor<1152x3456xf32, #ttnn_layout11>) -> () loc(#loc)
        %3 = "ttnn.to_device"(%2, %0) <{memory_config = #ttnn.memory_config<#dram, <interleaved>>}> : (tensor<1152x3456xf32, #ttnn_layout12>, !ttnn.device) -> tensor<1152x3456xf32, #ttnn_layout10> loc(#loc)
        "ttnn.deallocate"(%2) <{force = false}> : (tensor<1152x3456xf32, #ttnn_layout12>) -> () loc(#loc)
        return %3 : tensor<1152x3456xf32, #ttnn_layout10> loc(#loc)
      } loc(#loc)
      func.func private @main_const_eval_36(%arg0: tensor<4304xf32, #ttnn_layout4> loc(unknown)) -> tensor<1x1x4304xf32, #ttnn_layout5> attributes {tt.function_type = "const_eval"} {
        %0 = "ttnn.get_device"() <{mesh_offset = #ttnn<mesh_offset 0x0>, mesh_shape = #ttnn<mesh_shape 1x1>}> : () -> !ttnn.device loc(#loc)
        %1 = call @cpu_hoisted_const_eval_9c930e84(%arg0) {ttir.cpu_hoist_call} : (tensor<4304xf32, #ttnn_layout4>) -> tensor<1x1x4304xf32, #ttnn_layout6> loc(#loc)
        %2 = "ttnn.to_layout"(%1) <{layout = #ttnn.layout<tile>}> : (tensor<1x1x4304xf32, #ttnn_layout6>) -> tensor<1x1x4304xf32, #ttnn_layout7> loc(#loc)
        "ttnn.deallocate"(%1) <{force = false}> : (tensor<1x1x4304xf32, #ttnn_layout6>) -> () loc(#loc)
        %3 = "ttnn.to_device"(%2, %0) <{memory_config = #ttnn.memory_config<#dram, <interleaved>>}> : (tensor<1x1x4304xf32, #ttnn_layout7>, !ttnn.device) -> tensor<1x1x4304xf32, #ttnn_layout5> loc(#loc)
        "ttnn.deallocate"(%2) <{force = false}> : (tensor<1x1x4304xf32, #ttnn_layout7>) -> () loc(#loc)
        return %3 : tensor<1x1x4304xf32, #ttnn_layout5> loc(#loc)
      } loc(#loc)
      func.func private @main_const_eval_37(%arg0: tensor<1152xf32, #ttnn_layout13> loc(unknown)) -> tensor<1x1x1152xf32, #ttnn_layout14> attributes {tt.function_type = "const_eval"} {
        %0 = "ttnn.get_device"() <{mesh_offset = #ttnn<mesh_offset 0x0>, mesh_shape = #ttnn<mesh_shape 1x1>}> : () -> !ttnn.device loc(#loc)
        %1 = call @cpu_hoisted_const_eval_9f0fd1a7(%arg0) {ttir.cpu_hoist_call} : (tensor<1152xf32, #ttnn_layout13>) -> tensor<1x1x1152xf32, #ttnn_layout15> loc(#loc)
        %2 = "ttnn.to_layout"(%1) <{layout = #ttnn.layout<tile>}> : (tensor<1x1x1152xf32, #ttnn_layout15>) -> tensor<1x1x1152xf32, #ttnn_layout16> loc(#loc)
        "ttnn.deallocate"(%1) <{force = false}> : (tensor<1x1x1152xf32, #ttnn_layout15>) -> () loc(#loc)
        %3 = "ttnn.to_device"(%2, %0) <{memory_config = #ttnn.memory_config<#dram, <interleaved>>}> : (tensor<1x1x1152xf32, #ttnn_layout16>, !ttnn.device) -> tensor<1x1x1152xf32, #ttnn_layout14> loc(#loc)
        "ttnn.deallocate"(%2) <{force = false}> : (tensor<1x1x1152xf32, #ttnn_layout16>) -> () loc(#loc)
        return %3 : tensor<1x1x1152xf32, #ttnn_layout14> loc(#loc)
      } loc(#loc)
      func.func private @main_const_eval_38(%arg0: tensor<1152xf32, #ttnn_layout13> loc(unknown), %arg1: tensor<1152xf32, #ttnn_layout13> loc(unknown), %arg2: tensor<1152xf32, #ttnn_layout13> loc(unknown)) -> tensor<1x1x3456xf32, #ttnn_layout27> attributes {tt.function_type = "const_eval"} {
        %0 = "ttnn.get_device"() <{mesh_offset = #ttnn<mesh_offset 0x0>, mesh_shape = #ttnn<mesh_shape 1x1>}> : () -> !ttnn.device loc(#loc)
        %1 = call @cpu_hoisted_const_eval_b9a4c459(%arg2, %arg1, %arg0) {ttir.cpu_hoist_call} : (tensor<1152xf32, #ttnn_layout13>, tensor<1152xf32, #ttnn_layout13>, tensor<1152xf32, #ttnn_layout13>) -> tensor<1x1x3456xf32, #ttnn_layout28> loc(#loc)
        %2 = "ttnn.to_layout"(%1) <{layout = #ttnn.layout<tile>}> : (tensor<1x1x3456xf32, #ttnn_layout28>) -> tensor<1x1x3456xf32, #ttnn_layout29> loc(#loc)
        "ttnn.deallocate"(%1) <{force = false}> : (tensor<1x1x3456xf32, #ttnn_layout28>) -> () loc(#loc)
        %3 = "ttnn.to_device"(%2, %0) <{memory_config = #ttnn.memory_config<#dram, <interleaved>>}> : (tensor<1x1x3456xf32, #ttnn_layout29>, !ttnn.device) -> tensor<1x1x3456xf32, #ttnn_layout27> loc(#loc)
        "ttnn.deallocate"(%2) <{force = false}> : (tensor<1x1x3456xf32, #ttnn_layout29>) -> () loc(#loc)
        return %3 : tensor<1x1x3456xf32, #ttnn_layout27> loc(#loc)
      } loc(#loc)
      func.func private @main_const_eval_39(%arg0: tensor<1152xf32, #ttnn_layout13> loc(unknown)) -> tensor<1x1x1152xf32, #ttnn_layout14> attributes {tt.function_type = "const_eval"} {
        %0 = "ttnn.get_device"() <{mesh_offset = #ttnn<mesh_offset 0x0>, mesh_shape = #ttnn<mesh_shape 1x1>}> : () -> !ttnn.device loc(#loc)
        %1 = call @cpu_hoisted_const_eval_9f0fd1a7(%arg0) {ttir.cpu_hoist_call} : (tensor<1152xf32, #ttnn_layout13>) -> tensor<1x1x1152xf32, #ttnn_layout15> loc(#loc)
        %2 = "ttnn.to_layout"(%1) <{layout = #ttnn.layout<tile>}> : (tensor<1x1x1152xf32, #ttnn_layout15>) -> tensor<1x1x1152xf32, #ttnn_layout16> loc(#loc)
        "ttnn.deallocate"(%1) <{force = false}> : (tensor<1x1x1152xf32, #ttnn_layout15>) -> () loc(#loc)
        %3 = "ttnn.to_device"(%2, %0) <{memory_config = #ttnn.memory_config<#dram, <interleaved>>}> : (tensor<1x1x1152xf32, #ttnn_layout16>, !ttnn.device) -> tensor<1x1x1152xf32, #ttnn_layout14> loc(#loc)
        "ttnn.deallocate"(%2) <{force = false}> : (tensor<1x1x1152xf32, #ttnn_layout16>) -> () loc(#loc)
        return %3 : tensor<1x1x1152xf32, #ttnn_layout14> loc(#loc)
      } loc(#loc)
      func.func private @main_const_eval_40(%arg0: tensor<256x1024xf32, #ttnn_layout22> loc(unknown), %arg1: tensor<256x1024xf32, #ttnn_layout22> loc(unknown), %arg2: tensor<2048x1024xf32, #ttnn_layout23> loc(unknown)) -> tensor<1024x2560xf32, #ttnn_layout24> attributes {tt.function_type = "const_eval"} {
        %0 = "ttnn.get_device"() <{mesh_offset = #ttnn<mesh_offset 0x0>, mesh_shape = #ttnn<mesh_shape 1x1>}> : () -> !ttnn.device loc(#loc)
        %1 = call @cpu_hoisted_const_eval_99b667bd(%arg0, %arg1, %arg2) {ttir.cpu_hoist_call} : (tensor<256x1024xf32, #ttnn_layout22>, tensor<256x1024xf32, #ttnn_layout22>, tensor<2048x1024xf32, #ttnn_layout23>) -> tensor<1024x2560xf32, #ttnn_layout25> loc(#loc)
        %2 = "ttnn.to_layout"(%1) <{layout = #ttnn.layout<tile>}> : (tensor<1024x2560xf32, #ttnn_layout25>) -> tensor<1024x2560xf32, #ttnn_layout26> loc(#loc)
        "ttnn.deallocate"(%1) <{force = false}> : (tensor<1024x2560xf32, #ttnn_layout25>) -> () loc(#loc)
        %3 = "ttnn.to_device"(%2, %0) <{memory_config = #ttnn.memory_config<#dram, <interleaved>>}> : (tensor<1024x2560xf32, #ttnn_layout26>, !ttnn.device) -> tensor<1024x2560xf32, #ttnn_layout24> loc(#loc)
        "ttnn.deallocate"(%2) <{force = false}> : (tensor<1024x2560xf32, #ttnn_layout26>) -> () loc(#loc)
        return %3 : tensor<1024x2560xf32, #ttnn_layout24> loc(#loc)
      } loc(#loc)
      func.func private @main_const_eval_41(%arg0: tensor<4304xf32, #ttnn_layout4> loc(unknown)) -> tensor<1x1x4304xf32, #ttnn_layout5> attributes {tt.function_type = "const_eval"} {
        %0 = "ttnn.get_device"() <{mesh_offset = #ttnn<mesh_offset 0x0>, mesh_shape = #ttnn<mesh_shape 1x1>}> : () -> !ttnn.device loc(#loc)
        %1 = call @cpu_hoisted_const_eval_9c930e84(%arg0) {ttir.cpu_hoist_call} : (tensor<4304xf32, #ttnn_layout4>) -> tensor<1x1x4304xf32, #ttnn_layout6> loc(#loc)
        %2 = "ttnn.to_layout"(%1) <{layout = #ttnn.layout<tile>}> : (tensor<1x1x4304xf32, #ttnn_layout6>) -> tensor<1x1x4304xf32, #ttnn_layout7> loc(#loc)
        "ttnn.deallocate"(%1) <{force = false}> : (tensor<1x1x4304xf32, #ttnn_layout6>) -> () loc(#loc)
        %3 = "ttnn.to_device"(%2, %0) <{memory_config = #ttnn.memory_config<#dram, <interleaved>>}> : (tensor<1x1x4304xf32, #ttnn_layout7>, !ttnn.device) -> tensor<1x1x4304xf32, #ttnn_layout5> loc(#loc)
        "ttnn.deallocate"(%2) <{force = false}> : (tensor<1x1x4304xf32, #ttnn_layout7>) -> () loc(#loc)
        return %3 : tensor<1x1x4304xf32, #ttnn_layout5> loc(#loc)
      } loc(#loc)
      func.func private @main_const_eval_42(%arg0: tensor<1152xf32, #ttnn_layout13> loc(unknown), %arg1: tensor<1152xf32, #ttnn_layout13> loc(unknown), %arg2: tensor<1152xf32, #ttnn_layout13> loc(unknown)) -> tensor<1x1x3456xf32, #ttnn_layout27> attributes {tt.function_type = "const_eval"} {
        %0 = "ttnn.get_device"() <{mesh_offset = #ttnn<mesh_offset 0x0>, mesh_shape = #ttnn<mesh_shape 1x1>}> : () -> !ttnn.device loc(#loc)
        %1 = call @cpu_hoisted_const_eval_b9a4c459(%arg2, %arg1, %arg0) {ttir.cpu_hoist_call} : (tensor<1152xf32, #ttnn_layout13>, tensor<1152xf32, #ttnn_layout13>, tensor<1152xf32, #ttnn_layout13>) -> tensor<1x1x3456xf32, #ttnn_layout28> loc(#loc)
        %2 = "ttnn.to_layout"(%1) <{layout = #ttnn.layout<tile>}> : (tensor<1x1x3456xf32, #ttnn_layout28>) -> tensor<1x1x3456xf32, #ttnn_layout29> loc(#loc)
        "ttnn.deallocate"(%1) <{force = false}> : (tensor<1x1x3456xf32, #ttnn_layout28>) -> () loc(#loc)
        %3 = "ttnn.to_device"(%2, %0) <{memory_config = #ttnn.memory_config<#dram, <interleaved>>}> : (tensor<1x1x3456xf32, #ttnn_layout29>, !ttnn.device) -> tensor<1x1x3456xf32, #ttnn_layout27> loc(#loc)
        "ttnn.deallocate"(%2) <{force = false}> : (tensor<1x1x3456xf32, #ttnn_layout29>) -> () loc(#loc)
        return %3 : tensor<1x1x3456xf32, #ttnn_layout27> loc(#loc)
      } loc(#loc)
      func.func private @main_const_eval_43(%arg0: tensor<1152x1152xf32, #ttnn_layout9> loc(unknown), %arg1: tensor<1152x1152xf32, #ttnn_layout9> loc(unknown), %arg2: tensor<1152x1152xf32, #ttnn_layout9> loc(unknown)) -> tensor<1152x3456xf32, #ttnn_layout10> attributes {tt.function_type = "const_eval"} {
        %0 = "ttnn.get_device"() <{mesh_offset = #ttnn<mesh_offset 0x0>, mesh_shape = #ttnn<mesh_shape 1x1>}> : () -> !ttnn.device loc(#loc)
        %1 = call @cpu_hoisted_const_eval_59f6b97d(%arg1, %arg0, %arg2) {ttir.cpu_hoist_call} : (tensor<1152x1152xf32, #ttnn_layout9>, tensor<1152x1152xf32, #ttnn_layout9>, tensor<1152x1152xf32, #ttnn_layout9>) -> tensor<1152x3456xf32, #ttnn_layout11> loc(#loc)
        %2 = "ttnn.to_layout"(%1) <{layout = #ttnn.layout<tile>}> : (tensor<1152x3456xf32, #ttnn_layout11>) -> tensor<1152x3456xf32, #ttnn_layout12> loc(#loc)
        "ttnn.deallocate"(%1) <{force = false}> : (tensor<1152x3456xf32, #ttnn_layout11>) -> () loc(#loc)
        %3 = "ttnn.to_device"(%2, %0) <{memory_config = #ttnn.memory_config<#dram, <interleaved>>}> : (tensor<1152x3456xf32, #ttnn_layout12>, !ttnn.device) -> tensor<1152x3456xf32, #ttnn_layout10> loc(#loc)
        "ttnn.deallocate"(%2) <{force = false}> : (tensor<1152x3456xf32, #ttnn_layout12>) -> () loc(#loc)
        return %3 : tensor<1152x3456xf32, #ttnn_layout10> loc(#loc)
      } loc(#loc)
      func.func private @main_const_eval_44(%arg0: tensor<1152xf32, #ttnn_layout13> loc(unknown)) -> tensor<1x1x1152xf32, #ttnn_layout14> attributes {tt.function_type = "const_eval"} {
        %0 = "ttnn.get_device"() <{mesh_offset = #ttnn<mesh_offset 0x0>, mesh_shape = #ttnn<mesh_shape 1x1>}> : () -> !ttnn.device loc(#loc)
        %1 = call @cpu_hoisted_const_eval_9f0fd1a7(%arg0) {ttir.cpu_hoist_call} : (tensor<1152xf32, #ttnn_layout13>) -> tensor<1x1x1152xf32, #ttnn_layout15> loc(#loc)
        %2 = "ttnn.to_layout"(%1) <{layout = #ttnn.layout<tile>}> : (tensor<1x1x1152xf32, #ttnn_layout15>) -> tensor<1x1x1152xf32, #ttnn_layout16> loc(#loc)
        "ttnn.deallocate"(%1) <{force = false}> : (tensor<1x1x1152xf32, #ttnn_layout15>) -> () loc(#loc)
        %3 = "ttnn.to_device"(%2, %0) <{memory_config = #ttnn.memory_config<#dram, <interleaved>>}> : (tensor<1x1x1152xf32, #ttnn_layout16>, !ttnn.device) -> tensor<1x1x1152xf32, #ttnn_layout14> loc(#loc)
        "ttnn.deallocate"(%2) <{force = false}> : (tensor<1x1x1152xf32, #ttnn_layout16>) -> () loc(#loc)
        return %3 : tensor<1x1x1152xf32, #ttnn_layout14> loc(#loc)
      } loc(#loc)
      func.func private @main_const_eval_45(%arg0: tensor<1152xf32, #ttnn_layout13> loc(unknown)) -> tensor<1x1x1152xf32, #ttnn_layout14> attributes {tt.function_type = "const_eval"} {
        %0 = "ttnn.get_device"() <{mesh_offset = #ttnn<mesh_offset 0x0>, mesh_shape = #ttnn<mesh_shape 1x1>}> : () -> !ttnn.device loc(#loc)
        %1 = call @cpu_hoisted_const_eval_9f0fd1a7(%arg0) {ttir.cpu_hoist_call} : (tensor<1152xf32, #ttnn_layout13>) -> tensor<1x1x1152xf32, #ttnn_layout15> loc(#loc)
        %2 = "ttnn.to_layout"(%1) <{layout = #ttnn.layout<tile>}> : (tensor<1x1x1152xf32, #ttnn_layout15>) -> tensor<1x1x1152xf32, #ttnn_layout16> loc(#loc)
        "ttnn.deallocate"(%1) <{force = false}> : (tensor<1x1x1152xf32, #ttnn_layout15>) -> () loc(#loc)
        %3 = "ttnn.to_device"(%2, %0) <{memory_config = #ttnn.memory_config<#dram, <interleaved>>}> : (tensor<1x1x1152xf32, #ttnn_layout16>, !ttnn.device) -> tensor<1x1x1152xf32, #ttnn_layout14> loc(#loc)
        "ttnn.deallocate"(%2) <{force = false}> : (tensor<1x1x1152xf32, #ttnn_layout16>) -> () loc(#loc)
        return %3 : tensor<1x1x1152xf32, #ttnn_layout14> loc(#loc)
      } loc(#loc)
      func.func private @main_const_eval_46(%arg0: tensor<256x2048xf32, #ttnn_layout17> loc(unknown), %arg1: tensor<256x2048xf32, #ttnn_layout17> loc(unknown), %arg2: tensor<2048x2048xf32, #ttnn_layout18> loc(unknown)) -> tensor<2048x2560xf32, #ttnn_layout19> attributes {tt.function_type = "const_eval"} {
        %0 = "ttnn.get_device"() <{mesh_offset = #ttnn<mesh_offset 0x0>, mesh_shape = #ttnn<mesh_shape 1x1>}> : () -> !ttnn.device loc(#loc)
        %1 = call @cpu_hoisted_const_eval_32502db6(%arg2, %arg0, %arg1) {ttir.cpu_hoist_call} : (tensor<2048x2048xf32, #ttnn_layout18>, tensor<256x2048xf32, #ttnn_layout17>, tensor<256x2048xf32, #ttnn_layout17>) -> tensor<2048x2560xf32, #ttnn_layout20> loc(#loc)
        %2 = "ttnn.to_layout"(%1) <{layout = #ttnn.layout<tile>}> : (tensor<2048x2560xf32, #ttnn_layout20>) -> tensor<2048x2560xf32, #ttnn_layout21> loc(#loc)
        "ttnn.deallocate"(%1) <{force = false}> : (tensor<2048x2560xf32, #ttnn_layout20>) -> () loc(#loc)
        %3 = "ttnn.to_device"(%2, %0) <{memory_config = #ttnn.memory_config<#dram, <interleaved>>}> : (tensor<2048x2560xf32, #ttnn_layout21>, !ttnn.device) -> tensor<2048x2560xf32, #ttnn_layout19> loc(#loc)
        "ttnn.deallocate"(%2) <{force = false}> : (tensor<2048x2560xf32, #ttnn_layout21>) -> () loc(#loc)
        return %3 : tensor<2048x2560xf32, #ttnn_layout19> loc(#loc)
      } loc(#loc)
      func.func private @main_const_eval_47(%arg0: tensor<1152xf32, #ttnn_layout13> loc(unknown), %arg1: tensor<1152xf32, #ttnn_layout13> loc(unknown), %arg2: tensor<1152xf32, #ttnn_layout13> loc(unknown)) -> tensor<1x1x3456xf32, #ttnn_layout27> attributes {tt.function_type = "const_eval"} {
        %0 = "ttnn.get_device"() <{mesh_offset = #ttnn<mesh_offset 0x0>, mesh_shape = #ttnn<mesh_shape 1x1>}> : () -> !ttnn.device loc(#loc)
        %1 = call @cpu_hoisted_const_eval_b9a4c459(%arg2, %arg1, %arg0) {ttir.cpu_hoist_call} : (tensor<1152xf32, #ttnn_layout13>, tensor<1152xf32, #ttnn_layout13>, tensor<1152xf32, #ttnn_layout13>) -> tensor<1x1x3456xf32, #ttnn_layout28> loc(#loc)
        %2 = "ttnn.to_layout"(%1) <{layout = #ttnn.layout<tile>}> : (tensor<1x1x3456xf32, #ttnn_layout28>) -> tensor<1x1x3456xf32, #ttnn_layout29> loc(#loc)
        "ttnn.deallocate"(%1) <{force = false}> : (tensor<1x1x3456xf32, #ttnn_layout28>) -> () loc(#loc)
        %3 = "ttnn.to_device"(%2, %0) <{memory_config = #ttnn.memory_config<#dram, <interleaved>>}> : (tensor<1x1x3456xf32, #ttnn_layout29>, !ttnn.device) -> tensor<1x1x3456xf32, #ttnn_layout27> loc(#loc)
        "ttnn.deallocate"(%2) <{force = false}> : (tensor<1x1x3456xf32, #ttnn_layout29>) -> () loc(#loc)
        return %3 : tensor<1x1x3456xf32, #ttnn_layout27> loc(#loc)
      } loc(#loc)
      func.func private @main_const_eval_48(%arg0: tensor<1152xf32, #ttnn_layout13> loc(unknown)) -> tensor<1x1x1152xf32, #ttnn_layout14> attributes {tt.function_type = "const_eval"} {
        %0 = "ttnn.get_device"() <{mesh_offset = #ttnn<mesh_offset 0x0>, mesh_shape = #ttnn<mesh_shape 1x1>}> : () -> !ttnn.device loc(#loc)
        %1 = call @cpu_hoisted_const_eval_9f0fd1a7(%arg0) {ttir.cpu_hoist_call} : (tensor<1152xf32, #ttnn_layout13>) -> tensor<1x1x1152xf32, #ttnn_layout15> loc(#loc)
        %2 = "ttnn.to_layout"(%1) <{layout = #ttnn.layout<tile>}> : (tensor<1x1x1152xf32, #ttnn_layout15>) -> tensor<1x1x1152xf32, #ttnn_layout16> loc(#loc)
        "ttnn.deallocate"(%1) <{force = false}> : (tensor<1x1x1152xf32, #ttnn_layout15>) -> () loc(#loc)
        %3 = "ttnn.to_device"(%2, %0) <{memory_config = #ttnn.memory_config<#dram, <interleaved>>}> : (tensor<1x1x1152xf32, #ttnn_layout16>, !ttnn.device) -> tensor<1x1x1152xf32, #ttnn_layout14> loc(#loc)
        "ttnn.deallocate"(%2) <{force = false}> : (tensor<1x1x1152xf32, #ttnn_layout16>) -> () loc(#loc)
        return %3 : tensor<1x1x1152xf32, #ttnn_layout14> loc(#loc)
      } loc(#loc)
      func.func private @main_const_eval_49(%arg0: tensor<256x2048xf32, #ttnn_layout17> loc(unknown), %arg1: tensor<256x2048xf32, #ttnn_layout17> loc(unknown), %arg2: tensor<2048x2048xf32, #ttnn_layout18> loc(unknown)) -> tensor<2048x2560xf32, #ttnn_layout19> attributes {tt.function_type = "const_eval"} {
        %0 = "ttnn.get_device"() <{mesh_offset = #ttnn<mesh_offset 0x0>, mesh_shape = #ttnn<mesh_shape 1x1>}> : () -> !ttnn.device loc(#loc)
        %1 = call @cpu_hoisted_const_eval_32502db6(%arg2, %arg0, %arg1) {ttir.cpu_hoist_call} : (tensor<2048x2048xf32, #ttnn_layout18>, tensor<256x2048xf32, #ttnn_layout17>, tensor<256x2048xf32, #ttnn_layout17>) -> tensor<2048x2560xf32, #ttnn_layout20> loc(#loc)
        %2 = "ttnn.to_layout"(%1) <{layout = #ttnn.layout<tile>}> : (tensor<2048x2560xf32, #ttnn_layout20>) -> tensor<2048x2560xf32, #ttnn_layout21> loc(#loc)
        "ttnn.deallocate"(%1) <{force = false}> : (tensor<2048x2560xf32, #ttnn_layout20>) -> () loc(#loc)
        %3 = "ttnn.to_device"(%2, %0) <{memory_config = #ttnn.memory_config<#dram, <interleaved>>}> : (tensor<2048x2560xf32, #ttnn_layout21>, !ttnn.device) -> tensor<2048x2560xf32, #ttnn_layout19> loc(#loc)
        "ttnn.deallocate"(%2) <{force = false}> : (tensor<2048x2560xf32, #ttnn_layout21>) -> () loc(#loc)
        return %3 : tensor<2048x2560xf32, #ttnn_layout19> loc(#loc)
      } loc(#loc)
      func.func private @main_const_eval_50(%arg0: tensor<256x1024xf32, #ttnn_layout22> loc(unknown), %arg1: tensor<256x1024xf32, #ttnn_layout22> loc(unknown), %arg2: tensor<2048x1024xf32, #ttnn_layout23> loc(unknown)) -> tensor<1024x2560xf32, #ttnn_layout24> attributes {tt.function_type = "const_eval"} {
        %0 = "ttnn.get_device"() <{mesh_offset = #ttnn<mesh_offset 0x0>, mesh_shape = #ttnn<mesh_shape 1x1>}> : () -> !ttnn.device loc(#loc)
        %1 = call @cpu_hoisted_const_eval_99b667bd(%arg0, %arg1, %arg2) {ttir.cpu_hoist_call} : (tensor<256x1024xf32, #ttnn_layout22>, tensor<256x1024xf32, #ttnn_layout22>, tensor<2048x1024xf32, #ttnn_layout23>) -> tensor<1024x2560xf32, #ttnn_layout25> loc(#loc)
        %2 = "ttnn.to_layout"(%1) <{layout = #ttnn.layout<tile>}> : (tensor<1024x2560xf32, #ttnn_layout25>) -> tensor<1024x2560xf32, #ttnn_layout26> loc(#loc)
        "ttnn.deallocate"(%1) <{force = false}> : (tensor<1024x2560xf32, #ttnn_layout25>) -> () loc(#loc)
        %3 = "ttnn.to_device"(%2, %0) <{memory_config = #ttnn.memory_config<#dram, <interleaved>>}> : (tensor<1024x2560xf32, #ttnn_layout26>, !ttnn.device) -> tensor<1024x2560xf32, #ttnn_layout24> loc(#loc)
        "ttnn.deallocate"(%2) <{force = false}> : (tensor<1024x2560xf32, #ttnn_layout26>) -> () loc(#loc)
        return %3 : tensor<1024x2560xf32, #ttnn_layout24> loc(#loc)
      } loc(#loc)
      func.func private @main_const_eval_51(%arg0: tensor<256x1024xf32, #ttnn_layout22> loc(unknown), %arg1: tensor<256x1024xf32, #ttnn_layout22> loc(unknown), %arg2: tensor<2048x1024xf32, #ttnn_layout23> loc(unknown)) -> tensor<1024x2560xf32, #ttnn_layout24> attributes {tt.function_type = "const_eval"} {
        %0 = "ttnn.get_device"() <{mesh_offset = #ttnn<mesh_offset 0x0>, mesh_shape = #ttnn<mesh_shape 1x1>}> : () -> !ttnn.device loc(#loc)
        %1 = call @cpu_hoisted_const_eval_99b667bd(%arg0, %arg1, %arg2) {ttir.cpu_hoist_call} : (tensor<256x1024xf32, #ttnn_layout22>, tensor<256x1024xf32, #ttnn_layout22>, tensor<2048x1024xf32, #ttnn_layout23>) -> tensor<1024x2560xf32, #ttnn_layout25> loc(#loc)
        %2 = "ttnn.to_layout"(%1) <{layout = #ttnn.layout<tile>}> : (tensor<1024x2560xf32, #ttnn_layout25>) -> tensor<1024x2560xf32, #ttnn_layout26> loc(#loc)
        "ttnn.deallocate"(%1) <{force = false}> : (tensor<1024x2560xf32, #ttnn_layout25>) -> () loc(#loc)
        %3 = "ttnn.to_device"(%2, %0) <{memory_config = #ttnn.memory_config<#dram, <interleaved>>}> : (tensor<1024x2560xf32, #ttnn_layout26>, !ttnn.device) -> tensor<1024x2560xf32, #ttnn_layout24> loc(#loc)
        "ttnn.deallocate"(%2) <{force = false}> : (tensor<1024x2560xf32, #ttnn_layout26>) -> () loc(#loc)
        return %3 : tensor<1024x2560xf32, #ttnn_layout24> loc(#loc)
      } loc(#loc)
      func.func private @main_const_eval_52(%arg0: tensor<256x1024xf32, #ttnn_layout22> loc(unknown), %arg1: tensor<256x1024xf32, #ttnn_layout22> loc(unknown), %arg2: tensor<2048x1024xf32, #ttnn_layout23> loc(unknown)) -> tensor<1024x2560xf32, #ttnn_layout24> attributes {tt.function_type = "const_eval"} {
        %0 = "ttnn.get_device"() <{mesh_offset = #ttnn<mesh_offset 0x0>, mesh_shape = #ttnn<mesh_shape 1x1>}> : () -> !ttnn.device loc(#loc)
        %1 = call @cpu_hoisted_const_eval_99b667bd(%arg0, %arg1, %arg2) {ttir.cpu_hoist_call} : (tensor<256x1024xf32, #ttnn_layout22>, tensor<256x1024xf32, #ttnn_layout22>, tensor<2048x1024xf32, #ttnn_layout23>) -> tensor<1024x2560xf32, #ttnn_layout25> loc(#loc)
        %2 = "ttnn.to_layout"(%1) <{layout = #ttnn.layout<tile>}> : (tensor<1024x2560xf32, #ttnn_layout25>) -> tensor<1024x2560xf32, #ttnn_layout26> loc(#loc)
        "ttnn.deallocate"(%1) <{force = false}> : (tensor<1024x2560xf32, #ttnn_layout25>) -> () loc(#loc)
        %3 = "ttnn.to_device"(%2, %0) <{memory_config = #ttnn.memory_config<#dram, <interleaved>>}> : (tensor<1024x2560xf32, #ttnn_layout26>, !ttnn.device) -> tensor<1024x2560xf32, #ttnn_layout24> loc(#loc)
        "ttnn.deallocate"(%2) <{force = false}> : (tensor<1024x2560xf32, #ttnn_layout26>) -> () loc(#loc)
        return %3 : tensor<1024x2560xf32, #ttnn_layout24> loc(#loc)
      } loc(#loc)
      func.func private @main_const_eval_53(%arg0: tensor<1x256xsi32, #ttnn_layout31> loc(unknown), %arg1: tensor<256x1152xf32, #ttnn_layout32> loc(unknown)) -> tensor<1x1x256x1152xf32, #ttnn_layout33> attributes {tt.function_type = "const_eval"} {
        %0 = "ttnn.get_device"() <{mesh_offset = #ttnn<mesh_offset 0x0>, mesh_shape = #ttnn<mesh_shape 1x1>}> : () -> !ttnn.device loc(#loc)
        %1 = call @cpu_hoisted_const_eval_73cdad28(%arg0, %arg1) {ttir.cpu_hoist_call} : (tensor<1x256xsi32, #ttnn_layout31>, tensor<256x1152xf32, #ttnn_layout32>) -> tensor<1x1x256x1152xf32, #ttnn_layout34> loc(#loc)
        %2 = "ttnn.to_layout"(%1) <{layout = #ttnn.layout<tile>}> : (tensor<1x1x256x1152xf32, #ttnn_layout34>) -> tensor<1x1x256x1152xf32, #ttnn_layout35> loc(#loc)
        "ttnn.deallocate"(%1) <{force = false}> : (tensor<1x1x256x1152xf32, #ttnn_layout34>) -> () loc(#loc)
        %3 = "ttnn.to_device"(%2, %0) <{memory_config = #ttnn.memory_config<#dram, <interleaved>>}> : (tensor<1x1x256x1152xf32, #ttnn_layout35>, !ttnn.device) -> tensor<1x1x256x1152xf32, #ttnn_layout33> loc(#loc)
        "ttnn.deallocate"(%2) <{force = false}> : (tensor<1x1x256x1152xf32, #ttnn_layout35>) -> () loc(#loc)
        return %3 : tensor<1x1x256x1152xf32, #ttnn_layout33> loc(#loc)
      } loc(#loc)
      func.func private @main_const_eval_54(%arg0: tensor<256x1024xf32, #ttnn_layout22> loc(unknown), %arg1: tensor<256x1024xf32, #ttnn_layout22> loc(unknown), %arg2: tensor<2048x1024xf32, #ttnn_layout23> loc(unknown)) -> tensor<1024x2560xf32, #ttnn_layout24> attributes {tt.function_type = "const_eval"} {
        %0 = "ttnn.get_device"() <{mesh_offset = #ttnn<mesh_offset 0x0>, mesh_shape = #ttnn<mesh_shape 1x1>}> : () -> !ttnn.device loc(#loc)
        %1 = call @cpu_hoisted_const_eval_99b667bd(%arg0, %arg1, %arg2) {ttir.cpu_hoist_call} : (tensor<256x1024xf32, #ttnn_layout22>, tensor<256x1024xf32, #ttnn_layout22>, tensor<2048x1024xf32, #ttnn_layout23>) -> tensor<1024x2560xf32, #ttnn_layout25> loc(#loc)
        %2 = "ttnn.to_layout"(%1) <{layout = #ttnn.layout<tile>}> : (tensor<1024x2560xf32, #ttnn_layout25>) -> tensor<1024x2560xf32, #ttnn_layout26> loc(#loc)
        "ttnn.deallocate"(%1) <{force = false}> : (tensor<1024x2560xf32, #ttnn_layout25>) -> () loc(#loc)
        %3 = "ttnn.to_device"(%2, %0) <{memory_config = #ttnn.memory_config<#dram, <interleaved>>}> : (tensor<1024x2560xf32, #ttnn_layout26>, !ttnn.device) -> tensor<1024x2560xf32, #ttnn_layout24> loc(#loc)
        "ttnn.deallocate"(%2) <{force = false}> : (tensor<1024x2560xf32, #ttnn_layout26>) -> () loc(#loc)
        return %3 : tensor<1024x2560xf32, #ttnn_layout24> loc(#loc)
      } loc(#loc)
      func.func private @main_const_eval_55(%arg0: tensor<1152xf32, #ttnn_layout13> loc(unknown), %arg1: tensor<1152xf32, #ttnn_layout13> loc(unknown), %arg2: tensor<1152xf32, #ttnn_layout13> loc(unknown)) -> tensor<1x1x3456xf32, #ttnn_layout27> attributes {tt.function_type = "const_eval"} {
        %0 = "ttnn.get_device"() <{mesh_offset = #ttnn<mesh_offset 0x0>, mesh_shape = #ttnn<mesh_shape 1x1>}> : () -> !ttnn.device loc(#loc)
        %1 = call @cpu_hoisted_const_eval_b9a4c459(%arg2, %arg1, %arg0) {ttir.cpu_hoist_call} : (tensor<1152xf32, #ttnn_layout13>, tensor<1152xf32, #ttnn_layout13>, tensor<1152xf32, #ttnn_layout13>) -> tensor<1x1x3456xf32, #ttnn_layout28> loc(#loc)
        %2 = "ttnn.to_layout"(%1) <{layout = #ttnn.layout<tile>}> : (tensor<1x1x3456xf32, #ttnn_layout28>) -> tensor<1x1x3456xf32, #ttnn_layout29> loc(#loc)
        "ttnn.deallocate"(%1) <{force = false}> : (tensor<1x1x3456xf32, #ttnn_layout28>) -> () loc(#loc)
        %3 = "ttnn.to_device"(%2, %0) <{memory_config = #ttnn.memory_config<#dram, <interleaved>>}> : (tensor<1x1x3456xf32, #ttnn_layout29>, !ttnn.device) -> tensor<1x1x3456xf32, #ttnn_layout27> loc(#loc)
        "ttnn.deallocate"(%2) <{force = false}> : (tensor<1x1x3456xf32, #ttnn_layout29>) -> () loc(#loc)
        return %3 : tensor<1x1x3456xf32, #ttnn_layout27> loc(#loc)
      } loc(#loc)
      func.func private @main_const_eval_56(%arg0: tensor<1152x1152xf32, #ttnn_layout9> loc(unknown), %arg1: tensor<1152x1152xf32, #ttnn_layout9> loc(unknown), %arg2: tensor<1152x1152xf32, #ttnn_layout9> loc(unknown)) -> tensor<1152x3456xf32, #ttnn_layout10> attributes {tt.function_type = "const_eval"} {
        %0 = "ttnn.get_device"() <{mesh_offset = #ttnn<mesh_offset 0x0>, mesh_shape = #ttnn<mesh_shape 1x1>}> : () -> !ttnn.device loc(#loc)
        %1 = call @cpu_hoisted_const_eval_59f6b97d(%arg1, %arg0, %arg2) {ttir.cpu_hoist_call} : (tensor<1152x1152xf32, #ttnn_layout9>, tensor<1152x1152xf32, #ttnn_layout9>, tensor<1152x1152xf32, #ttnn_layout9>) -> tensor<1152x3456xf32, #ttnn_layout11> loc(#loc)
        %2 = "ttnn.to_layout"(%1) <{layout = #ttnn.layout<tile>}> : (tensor<1152x3456xf32, #ttnn_layout11>) -> tensor<1152x3456xf32, #ttnn_layout12> loc(#loc)
        "ttnn.deallocate"(%1) <{force = false}> : (tensor<1152x3456xf32, #ttnn_layout11>) -> () loc(#loc)
        %3 = "ttnn.to_device"(%2, %0) <{memory_config = #ttnn.memory_config<#dram, <interleaved>>}> : (tensor<1152x3456xf32, #ttnn_layout12>, !ttnn.device) -> tensor<1152x3456xf32, #ttnn_layout10> loc(#loc)
        "ttnn.deallocate"(%2) <{force = false}> : (tensor<1152x3456xf32, #ttnn_layout12>) -> () loc(#loc)
        return %3 : tensor<1152x3456xf32, #ttnn_layout10> loc(#loc)
      } loc(#loc)
      func.func private @main_const_eval_57(%arg0: tensor<1152x1152xf32, #ttnn_layout9> loc(unknown), %arg1: tensor<1152x1152xf32, #ttnn_layout9> loc(unknown), %arg2: tensor<1152x1152xf32, #ttnn_layout9> loc(unknown)) -> tensor<1152x3456xf32, #ttnn_layout10> attributes {tt.function_type = "const_eval"} {
        %0 = "ttnn.get_device"() <{mesh_offset = #ttnn<mesh_offset 0x0>, mesh_shape = #ttnn<mesh_shape 1x1>}> : () -> !ttnn.device loc(#loc)
        %1 = call @cpu_hoisted_const_eval_59f6b97d(%arg1, %arg0, %arg2) {ttir.cpu_hoist_call} : (tensor<1152x1152xf32, #ttnn_layout9>, tensor<1152x1152xf32, #ttnn_layout9>, tensor<1152x1152xf32, #ttnn_layout9>) -> tensor<1152x3456xf32, #ttnn_layout11> loc(#loc)
        %2 = "ttnn.to_layout"(%1) <{layout = #ttnn.layout<tile>}> : (tensor<1152x3456xf32, #ttnn_layout11>) -> tensor<1152x3456xf32, #ttnn_layout12> loc(#loc)
        "ttnn.deallocate"(%1) <{force = false}> : (tensor<1152x3456xf32, #ttnn_layout11>) -> () loc(#loc)
        %3 = "ttnn.to_device"(%2, %0) <{memory_config = #ttnn.memory_config<#dram, <interleaved>>}> : (tensor<1152x3456xf32, #ttnn_layout12>, !ttnn.device) -> tensor<1152x3456xf32, #ttnn_layout10> loc(#loc)
        "ttnn.deallocate"(%2) <{force = false}> : (tensor<1152x3456xf32, #ttnn_layout12>) -> () loc(#loc)
        return %3 : tensor<1152x3456xf32, #ttnn_layout10> loc(#loc)
      } loc(#loc)
      func.func private @main_const_eval_58(%arg0: tensor<4304xf32, #ttnn_layout4> loc(unknown)) -> tensor<1x1x4304xf32, #ttnn_layout5> attributes {tt.function_type = "const_eval"} {
        %0 = "ttnn.get_device"() <{mesh_offset = #ttnn<mesh_offset 0x0>, mesh_shape = #ttnn<mesh_shape 1x1>}> : () -> !ttnn.device loc(#loc)
        %1 = call @cpu_hoisted_const_eval_9c930e84(%arg0) {ttir.cpu_hoist_call} : (tensor<4304xf32, #ttnn_layout4>) -> tensor<1x1x4304xf32, #ttnn_layout6> loc(#loc)
        %2 = "ttnn.to_layout"(%1) <{layout = #ttnn.layout<tile>}> : (tensor<1x1x4304xf32, #ttnn_layout6>) -> tensor<1x1x4304xf32, #ttnn_layout7> loc(#loc)
        "ttnn.deallocate"(%1) <{force = false}> : (tensor<1x1x4304xf32, #ttnn_layout6>) -> () loc(#loc)
        %3 = "ttnn.to_device"(%2, %0) <{memory_config = #ttnn.memory_config<#dram, <interleaved>>}> : (tensor<1x1x4304xf32, #ttnn_layout7>, !ttnn.device) -> tensor<1x1x4304xf32, #ttnn_layout5> loc(#loc)
        "ttnn.deallocate"(%2) <{force = false}> : (tensor<1x1x4304xf32, #ttnn_layout7>) -> () loc(#loc)
        return %3 : tensor<1x1x4304xf32, #ttnn_layout5> loc(#loc)
      } loc(#loc)
      func.func private @main_const_eval_59(%arg0: tensor<4304xf32, #ttnn_layout4> loc(unknown)) -> tensor<1x1x4304xf32, #ttnn_layout5> attributes {tt.function_type = "const_eval"} {
        %0 = "ttnn.get_device"() <{mesh_offset = #ttnn<mesh_offset 0x0>, mesh_shape = #ttnn<mesh_shape 1x1>}> : () -> !ttnn.device loc(#loc)
        %1 = call @cpu_hoisted_const_eval_9c930e84(%arg0) {ttir.cpu_hoist_call} : (tensor<4304xf32, #ttnn_layout4>) -> tensor<1x1x4304xf32, #ttnn_layout6> loc(#loc)
        %2 = "ttnn.to_layout"(%1) <{layout = #ttnn.layout<tile>}> : (tensor<1x1x4304xf32, #ttnn_layout6>) -> tensor<1x1x4304xf32, #ttnn_layout7> loc(#loc)
        "ttnn.deallocate"(%1) <{force = false}> : (tensor<1x1x4304xf32, #ttnn_layout6>) -> () loc(#loc)
        %3 = "ttnn.to_device"(%2, %0) <{memory_config = #ttnn.memory_config<#dram, <interleaved>>}> : (tensor<1x1x4304xf32, #ttnn_layout7>, !ttnn.device) -> tensor<1x1x4304xf32, #ttnn_layout5> loc(#loc)
        "ttnn.deallocate"(%2) <{force = false}> : (tensor<1x1x4304xf32, #ttnn_layout7>) -> () loc(#loc)
        return %3 : tensor<1x1x4304xf32, #ttnn_layout5> loc(#loc)
      } loc(#loc)
      func.func private @main_const_eval_60() -> tensor<1x1x1xf32, #ttnn_layout36> attributes {tt.function_type = "const_eval"} {
        %0 = "ttnn.get_device"() <{mesh_offset = #ttnn<mesh_offset 0x0>, mesh_shape = #ttnn<mesh_shape 1x1>}> : () -> !ttnn.device loc(#loc1)
        %1 = "ttnn.full"(%0) <{dtype = #ttcore.supportedDataTypes<f32>, fill_value = 45.2548332 : f32, layout = #ttnn.layout<tile>, shape = #ttnn.shape<1x1x1>}> : (!ttnn.device) -> tensor<1x1x1xf32, #ttnn_layout36> loc(#loc)
        return %1 : tensor<1x1x1xf32, #ttnn_layout36> loc(#loc)
      } loc(#loc)
      func.func private @main_const_eval_61(%arg0: tensor<4304xf32, #ttnn_layout4> loc(unknown)) -> tensor<1x1x4304xf32, #ttnn_layout5> attributes {tt.function_type = "const_eval"} {
        %0 = "ttnn.get_device"() <{mesh_offset = #ttnn<mesh_offset 0x0>, mesh_shape = #ttnn<mesh_shape 1x1>}> : () -> !ttnn.device loc(#loc)
        %1 = call @cpu_hoisted_const_eval_9c930e84(%arg0) {ttir.cpu_hoist_call} : (tensor<4304xf32, #ttnn_layout4>) -> tensor<1x1x4304xf32, #ttnn_layout6> loc(#loc)
        %2 = "ttnn.to_layout"(%1) <{layout = #ttnn.layout<tile>}> : (tensor<1x1x4304xf32, #ttnn_layout6>) -> tensor<1x1x4304xf32, #ttnn_layout7> loc(#loc)
        "ttnn.deallocate"(%1) <{force = false}> : (tensor<1x1x4304xf32, #ttnn_layout6>) -> () loc(#loc)
        %3 = "ttnn.to_device"(%2, %0) <{memory_config = #ttnn.memory_config<#dram, <interleaved>>}> : (tensor<1x1x4304xf32, #ttnn_layout7>, !ttnn.device) -> tensor<1x1x4304xf32, #ttnn_layout5> loc(#loc)
        "ttnn.deallocate"(%2) <{force = false}> : (tensor<1x1x4304xf32, #ttnn_layout7>) -> () loc(#loc)
        return %3 : tensor<1x1x4304xf32, #ttnn_layout5> loc(#loc)
      } loc(#loc)
      func.func private @main_const_eval_62() -> tensor<1x1x1xf32, #ttnn_layout36> attributes {tt.function_type = "const_eval"} {
        %0 = "ttnn.get_device"() <{mesh_offset = #ttnn<mesh_offset 0x0>, mesh_shape = #ttnn<mesh_shape 1x1>}> : () -> !ttnn.device loc(#loc1)
        %1 = "ttnn.full"(%0) <{dtype = #ttcore.supportedDataTypes<f32>, fill_value = 9.99999971E-10 : f32, layout = #ttnn.layout<tile>, shape = #ttnn.shape<1x1x1>}> : (!ttnn.device) -> tensor<1x1x1xf32, #ttnn_layout36> loc(#loc4161)
        return %1 : tensor<1x1x1xf32, #ttnn_layout36> loc(#loc)
      } loc(#loc)
      func.func private @main_const_eval_63(%arg0: tensor<256x2048xf32, #ttnn_layout17> loc(unknown), %arg1: tensor<256x2048xf32, #ttnn_layout17> loc(unknown), %arg2: tensor<2048x2048xf32, #ttnn_layout18> loc(unknown)) -> tensor<2048x2560xf32, #ttnn_layout19> attributes {tt.function_type = "const_eval"} {
        %0 = "ttnn.get_device"() <{mesh_offset = #ttnn<mesh_offset 0x0>, mesh_shape = #ttnn<mesh_shape 1x1>}> : () -> !ttnn.device loc(#loc)
        %1 = call @cpu_hoisted_const_eval_32502db6(%arg2, %arg0, %arg1) {ttir.cpu_hoist_call} : (tensor<2048x2048xf32, #ttnn_layout18>, tensor<256x2048xf32, #ttnn_layout17>, tensor<256x2048xf32, #ttnn_layout17>) -> tensor<2048x2560xf32, #ttnn_layout20> loc(#loc)
        %2 = "ttnn.to_layout"(%1) <{layout = #ttnn.layout<tile>}> : (tensor<2048x2560xf32, #ttnn_layout20>) -> tensor<2048x2560xf32, #ttnn_layout21> loc(#loc)
        "ttnn.deallocate"(%1) <{force = false}> : (tensor<2048x2560xf32, #ttnn_layout20>) -> () loc(#loc)
        %3 = "ttnn.to_device"(%2, %0) <{memory_config = #ttnn.memory_config<#dram, <interleaved>>}> : (tensor<2048x2560xf32, #ttnn_layout21>, !ttnn.device) -> tensor<2048x2560xf32, #ttnn_layout19> loc(#loc)
        "ttnn.deallocate"(%2) <{force = false}> : (tensor<2048x2560xf32, #ttnn_layout21>) -> () loc(#loc)
        return %3 : tensor<2048x2560xf32, #ttnn_layout19> loc(#loc)
      } loc(#loc)
      func.func private @main_const_eval_64(%arg0: tensor<1152xf32, #ttnn_layout13> loc(unknown), %arg1: tensor<1152xf32, #ttnn_layout13> loc(unknown), %arg2: tensor<1152xf32, #ttnn_layout13> loc(unknown)) -> tensor<1x1x3456xf32, #ttnn_layout27> attributes {tt.function_type = "const_eval"} {
        %0 = "ttnn.get_device"() <{mesh_offset = #ttnn<mesh_offset 0x0>, mesh_shape = #ttnn<mesh_shape 1x1>}> : () -> !ttnn.device loc(#loc)
        %1 = call @cpu_hoisted_const_eval_b9a4c459(%arg2, %arg1, %arg0) {ttir.cpu_hoist_call} : (tensor<1152xf32, #ttnn_layout13>, tensor<1152xf32, #ttnn_layout13>, tensor<1152xf32, #ttnn_layout13>) -> tensor<1x1x3456xf32, #ttnn_layout28> loc(#loc)
        %2 = "ttnn.to_layout"(%1) <{layout = #ttnn.layout<tile>}> : (tensor<1x1x3456xf32, #ttnn_layout28>) -> tensor<1x1x3456xf32, #ttnn_layout29> loc(#loc)
        "ttnn.deallocate"(%1) <{force = false}> : (tensor<1x1x3456xf32, #ttnn_layout28>) -> () loc(#loc)
        %3 = "ttnn.to_device"(%2, %0) <{memory_config = #ttnn.memory_config<#dram, <interleaved>>}> : (tensor<1x1x3456xf32, #ttnn_layout29>, !ttnn.device) -> tensor<1x1x3456xf32, #ttnn_layout27> loc(#loc)
        "ttnn.deallocate"(%2) <{force = false}> : (tensor<1x1x3456xf32, #ttnn_layout29>) -> () loc(#loc)
        return %3 : tensor<1x1x3456xf32, #ttnn_layout27> loc(#loc)
      } loc(#loc)
      func.func private @main_const_eval_65(%arg0: tensor<1152xf32, #ttnn_layout13> loc(unknown), %arg1: tensor<1152xf32, #ttnn_layout13> loc(unknown), %arg2: tensor<1152xf32, #ttnn_layout13> loc(unknown)) -> tensor<1x1x3456xf32, #ttnn_layout27> attributes {tt.function_type = "const_eval"} {
        %0 = "ttnn.get_device"() <{mesh_offset = #ttnn<mesh_offset 0x0>, mesh_shape = #ttnn<mesh_shape 1x1>}> : () -> !ttnn.device loc(#loc)
        %1 = call @cpu_hoisted_const_eval_b9a4c459(%arg2, %arg1, %arg0) {ttir.cpu_hoist_call} : (tensor<1152xf32, #ttnn_layout13>, tensor<1152xf32, #ttnn_layout13>, tensor<1152xf32, #ttnn_layout13>) -> tensor<1x1x3456xf32, #ttnn_layout28> loc(#loc)
        %2 = "ttnn.to_layout"(%1) <{layout = #ttnn.layout<tile>}> : (tensor<1x1x3456xf32, #ttnn_layout28>) -> tensor<1x1x3456xf32, #ttnn_layout29> loc(#loc)
        "ttnn.deallocate"(%1) <{force = false}> : (tensor<1x1x3456xf32, #ttnn_layout28>) -> () loc(#loc)
        %3 = "ttnn.to_device"(%2, %0) <{memory_config = #ttnn.memory_config<#dram, <interleaved>>}> : (tensor<1x1x3456xf32, #ttnn_layout29>, !ttnn.device) -> tensor<1x1x3456xf32, #ttnn_layout27> loc(#loc)
        "ttnn.deallocate"(%2) <{force = false}> : (tensor<1x1x3456xf32, #ttnn_layout29>) -> () loc(#loc)
        return %3 : tensor<1x1x3456xf32, #ttnn_layout27> loc(#loc)
      } loc(#loc)
      func.func private @main_const_eval_66(%arg0: tensor<1152xf32, #ttnn_layout13> loc(unknown), %arg1: tensor<1152xf32, #ttnn_layout13> loc(unknown), %arg2: tensor<1152xf32, #ttnn_layout13> loc(unknown)) -> tensor<1x1x3456xf32, #ttnn_layout27> attributes {tt.function_type = "const_eval"} {
        %0 = "ttnn.get_device"() <{mesh_offset = #ttnn<mesh_offset 0x0>, mesh_shape = #ttnn<mesh_shape 1x1>}> : () -> !ttnn.device loc(#loc)
        %1 = call @cpu_hoisted_const_eval_b9a4c459(%arg2, %arg1, %arg0) {ttir.cpu_hoist_call} : (tensor<1152xf32, #ttnn_layout13>, tensor<1152xf32, #ttnn_layout13>, tensor<1152xf32, #ttnn_layout13>) -> tensor<1x1x3456xf32, #ttnn_layout28> loc(#loc)
        %2 = "ttnn.to_layout"(%1) <{layout = #ttnn.layout<tile>}> : (tensor<1x1x3456xf32, #ttnn_layout28>) -> tensor<1x1x3456xf32, #ttnn_layout29> loc(#loc)
        "ttnn.deallocate"(%1) <{force = false}> : (tensor<1x1x3456xf32, #ttnn_layout28>) -> () loc(#loc)
        %3 = "ttnn.to_device"(%2, %0) <{memory_config = #ttnn.memory_config<#dram, <interleaved>>}> : (tensor<1x1x3456xf32, #ttnn_layout29>, !ttnn.device) -> tensor<1x1x3456xf32, #ttnn_layout27> loc(#loc)
        "ttnn.deallocate"(%2) <{force = false}> : (tensor<1x1x3456xf32, #ttnn_layout29>) -> () loc(#loc)
        return %3 : tensor<1x1x3456xf32, #ttnn_layout27> loc(#loc)
      } loc(#loc)
      func.func private @main_const_eval_67(%arg0: tensor<1152xf32, #ttnn_layout13> loc(unknown)) -> tensor<1x1x1152xf32, #ttnn_layout14> attributes {tt.function_type = "const_eval"} {
        %0 = "ttnn.get_device"() <{mesh_offset = #ttnn<mesh_offset 0x0>, mesh_shape = #ttnn<mesh_shape 1x1>}> : () -> !ttnn.device loc(#loc)
        %1 = call @cpu_hoisted_const_eval_9f0fd1a7(%arg0) {ttir.cpu_hoist_call} : (tensor<1152xf32, #ttnn_layout13>) -> tensor<1x1x1152xf32, #ttnn_layout15> loc(#loc)
        %2 = "ttnn.to_layout"(%1) <{layout = #ttnn.layout<tile>}> : (tensor<1x1x1152xf32, #ttnn_layout15>) -> tensor<1x1x1152xf32, #ttnn_layout16> loc(#loc)
        "ttnn.deallocate"(%1) <{force = false}> : (tensor<1x1x1152xf32, #ttnn_layout15>) -> () loc(#loc)
        %3 = "ttnn.to_device"(%2, %0) <{memory_config = #ttnn.memory_config<#dram, <interleaved>>}> : (tensor<1x1x1152xf32, #ttnn_layout16>, !ttnn.device) -> tensor<1x1x1152xf32, #ttnn_layout14> loc(#loc)
        "ttnn.deallocate"(%2) <{force = false}> : (tensor<1x1x1152xf32, #ttnn_layout16>) -> () loc(#loc)
        return %3 : tensor<1x1x1152xf32, #ttnn_layout14> loc(#loc)
      } loc(#loc)
      func.func private @main_const_eval_68(%arg0: tensor<1152xf32, #ttnn_layout13> loc(unknown)) -> tensor<1x1x1152xf32, #ttnn_layout14> attributes {tt.function_type = "const_eval"} {
        %0 = "ttnn.get_device"() <{mesh_offset = #ttnn<mesh_offset 0x0>, mesh_shape = #ttnn<mesh_shape 1x1>}> : () -> !ttnn.device loc(#loc)
        %1 = call @cpu_hoisted_const_eval_9f0fd1a7(%arg0) {ttir.cpu_hoist_call} : (tensor<1152xf32, #ttnn_layout13>) -> tensor<1x1x1152xf32, #ttnn_layout15> loc(#loc)
        %2 = "ttnn.to_layout"(%1) <{layout = #ttnn.layout<tile>}> : (tensor<1x1x1152xf32, #ttnn_layout15>) -> tensor<1x1x1152xf32, #ttnn_layout16> loc(#loc)
        "ttnn.deallocate"(%1) <{force = false}> : (tensor<1x1x1152xf32, #ttnn_layout15>) -> () loc(#loc)
        %3 = "ttnn.to_device"(%2, %0) <{memory_config = #ttnn.memory_config<#dram, <interleaved>>}> : (tensor<1x1x1152xf32, #ttnn_layout16>, !ttnn.device) -> tensor<1x1x1152xf32, #ttnn_layout14> loc(#loc)
        "ttnn.deallocate"(%2) <{force = false}> : (tensor<1x1x1152xf32, #ttnn_layout16>) -> () loc(#loc)
        return %3 : tensor<1x1x1152xf32, #ttnn_layout14> loc(#loc)
      } loc(#loc)
      func.func private @main_const_eval_69(%arg0: tensor<1152xf32, #ttnn_layout13> loc(unknown)) -> tensor<1x1x1152xf32, #ttnn_layout14> attributes {tt.function_type = "const_eval"} {
        %0 = "ttnn.get_device"() <{mesh_offset = #ttnn<mesh_offset 0x0>, mesh_shape = #ttnn<mesh_shape 1x1>}> : () -> !ttnn.device loc(#loc)
        %1 = call @cpu_hoisted_const_eval_9f0fd1a7(%arg0) {ttir.cpu_hoist_call} : (tensor<1152xf32, #ttnn_layout13>) -> tensor<1x1x1152xf32, #ttnn_layout15> loc(#loc)
        %2 = "ttnn.to_layout"(%1) <{layout = #ttnn.layout<tile>}> : (tensor<1x1x1152xf32, #ttnn_layout15>) -> tensor<1x1x1152xf32, #ttnn_layout16> loc(#loc)
        "ttnn.deallocate"(%1) <{force = false}> : (tensor<1x1x1152xf32, #ttnn_layout15>) -> () loc(#loc)
        %3 = "ttnn.to_device"(%2, %0) <{memory_config = #ttnn.memory_config<#dram, <interleaved>>}> : (tensor<1x1x1152xf32, #ttnn_layout16>, !ttnn.device) -> tensor<1x1x1152xf32, #ttnn_layout14> loc(#loc)
        "ttnn.deallocate"(%2) <{force = false}> : (tensor<1x1x1152xf32, #ttnn_layout16>) -> () loc(#loc)
        return %3 : tensor<1x1x1152xf32, #ttnn_layout14> loc(#loc)
      } loc(#loc)
      func.func private @main_const_eval_70(%arg0: tensor<1152x1152xf32, #ttnn_layout9> loc(unknown), %arg1: tensor<1152x1152xf32, #ttnn_layout9> loc(unknown), %arg2: tensor<1152x1152xf32, #ttnn_layout9> loc(unknown)) -> tensor<1152x3456xf32, #ttnn_layout10> attributes {tt.function_type = "const_eval"} {
        %0 = "ttnn.get_device"() <{mesh_offset = #ttnn<mesh_offset 0x0>, mesh_shape = #ttnn<mesh_shape 1x1>}> : () -> !ttnn.device loc(#loc)
        %1 = call @cpu_hoisted_const_eval_59f6b97d(%arg1, %arg0, %arg2) {ttir.cpu_hoist_call} : (tensor<1152x1152xf32, #ttnn_layout9>, tensor<1152x1152xf32, #ttnn_layout9>, tensor<1152x1152xf32, #ttnn_layout9>) -> tensor<1152x3456xf32, #ttnn_layout11> loc(#loc)
        %2 = "ttnn.to_layout"(%1) <{layout = #ttnn.layout<tile>}> : (tensor<1152x3456xf32, #ttnn_layout11>) -> tensor<1152x3456xf32, #ttnn_layout12> loc(#loc)
        "ttnn.deallocate"(%1) <{force = false}> : (tensor<1152x3456xf32, #ttnn_layout11>) -> () loc(#loc)
        %3 = "ttnn.to_device"(%2, %0) <{memory_config = #ttnn.memory_config<#dram, <interleaved>>}> : (tensor<1152x3456xf32, #ttnn_layout12>, !ttnn.device) -> tensor<1152x3456xf32, #ttnn_layout10> loc(#loc)
        "ttnn.deallocate"(%2) <{force = false}> : (tensor<1152x3456xf32, #ttnn_layout12>) -> () loc(#loc)
        return %3 : tensor<1152x3456xf32, #ttnn_layout10> loc(#loc)
      } loc(#loc)
      func.func private @main_const_eval_71(%arg0: tensor<1152xf32, #ttnn_layout13> loc(unknown)) -> tensor<1x1x1152xf32, #ttnn_layout14> attributes {tt.function_type = "const_eval"} {
        %0 = "ttnn.get_device"() <{mesh_offset = #ttnn<mesh_offset 0x0>, mesh_shape = #ttnn<mesh_shape 1x1>}> : () -> !ttnn.device loc(#loc)
        %1 = call @cpu_hoisted_const_eval_9f0fd1a7(%arg0) {ttir.cpu_hoist_call} : (tensor<1152xf32, #ttnn_layout13>) -> tensor<1x1x1152xf32, #ttnn_layout15> loc(#loc)
        %2 = "ttnn.to_layout"(%1) <{layout = #ttnn.layout<tile>}> : (tensor<1x1x1152xf32, #ttnn_layout15>) -> tensor<1x1x1152xf32, #ttnn_layout16> loc(#loc)
        "ttnn.deallocate"(%1) <{force = false}> : (tensor<1x1x1152xf32, #ttnn_layout15>) -> () loc(#loc)
        %3 = "ttnn.to_device"(%2, %0) <{memory_config = #ttnn.memory_config<#dram, <interleaved>>}> : (tensor<1x1x1152xf32, #ttnn_layout16>, !ttnn.device) -> tensor<1x1x1152xf32, #ttnn_layout14> loc(#loc)
        "ttnn.deallocate"(%2) <{force = false}> : (tensor<1x1x1152xf32, #ttnn_layout16>) -> () loc(#loc)
        return %3 : tensor<1x1x1152xf32, #ttnn_layout14> loc(#loc)
      } loc(#loc)
      func.func private @main_const_eval_72(%arg0: tensor<1024xf32, #ttnn_layout> loc(unknown), %arg1: tensor<1024xf32, #ttnn_layout> loc(unknown), %arg2: tensor<1024xf32, #ttnn_layout> loc(unknown), %arg3: tensor<1024xf32, #ttnn_layout> loc(unknown), %arg4: tensor<1024xf32, #ttnn_layout> loc(unknown), %arg5: tensor<1024xf32, #ttnn_layout> loc(unknown), %arg6: tensor<1024xf32, #ttnn_layout> loc(unknown), %arg7: tensor<1024xf32, #ttnn_layout> loc(unknown), %arg8: tensor<1024xf32, #ttnn_layout> loc(unknown), %arg9: tensor<1024xf32, #ttnn_layout> loc(unknown), %arg10: tensor<1024xf32, #ttnn_layout> loc(unknown), %arg11: tensor<1024xf32, #ttnn_layout> loc(unknown), %arg12: tensor<1024xf32, #ttnn_layout> loc(unknown), %arg13: tensor<1024xf32, #ttnn_layout> loc(unknown), %arg14: tensor<1024xf32, #ttnn_layout> loc(unknown), %arg15: tensor<1024xf32, #ttnn_layout> loc(unknown), %arg16: tensor<1024xf32, #ttnn_layout> loc(unknown), %arg17: tensor<1024xf32, #ttnn_layout> loc(unknown), %arg18: tensor<1024xf32, #ttnn_layout> loc(unknown), %arg19: tensor<1024xf32, #ttnn_layout> loc(unknown), %arg20: tensor<1024xf32, #ttnn_layout> loc(unknown), %arg21: tensor<1024xf32, #ttnn_layout> loc(unknown), %arg22: tensor<1024xf32, #ttnn_layout> loc(unknown), %arg23: tensor<1024xf32, #ttnn_layout> loc(unknown), %arg24: tensor<1024xf32, #ttnn_layout> loc(unknown), %arg25: tensor<1024xf32, #ttnn_layout> loc(unknown), %arg26: tensor<1024xf32, #ttnn_layout> loc(unknown), %arg27: tensor<1024xf32, #ttnn_layout> loc(unknown), %arg28: tensor<1024xf32, #ttnn_layout> loc(unknown), %arg29: tensor<1024xf32, #ttnn_layout> loc(unknown), %arg30: tensor<1024xf32, #ttnn_layout> loc(unknown), %arg31: tensor<1024xf32, #ttnn_layout> loc(unknown), %arg32: tensor<1024xf32, #ttnn_layout> loc(unknown), %arg33: tensor<1024xf32, #ttnn_layout> loc(unknown), %arg34: tensor<1024xf32, #ttnn_layout> loc(unknown), %arg35: tensor<1024xf32, #ttnn_layout> loc(unknown), %arg36: tensor<1024xf32, #ttnn_layout> loc(unknown), %arg37: tensor<2048xf32, #ttnn_layout37> loc(unknown), %arg38: tensor<2048xf32, #ttnn_layout37> loc(unknown), %arg39: tensor<2048xf32, #ttnn_layout37> loc(unknown), %arg40: tensor<2048xf32, #ttnn_layout37> loc(unknown), %arg41: tensor<2048xf32, #ttnn_layout37> loc(unknown), %arg42: tensor<2048xf32, #ttnn_layout37> loc(unknown), %arg43: tensor<2048xf32, #ttnn_layout37> loc(unknown), %arg44: tensor<2048xf32, #ttnn_layout37> loc(unknown), %arg45: tensor<2048xf32, #ttnn_layout37> loc(unknown), %arg46: tensor<2048xf32, #ttnn_layout37> loc(unknown), %arg47: tensor<2048xf32, #ttnn_layout37> loc(unknown), %arg48: tensor<2048xf32, #ttnn_layout37> loc(unknown), %arg49: tensor<2048xf32, #ttnn_layout37> loc(unknown), %arg50: tensor<2048xf32, #ttnn_layout37> loc(unknown), %arg51: tensor<2048xf32, #ttnn_layout37> loc(unknown), %arg52: tensor<2048xf32, #ttnn_layout37> loc(unknown), %arg53: tensor<2048xf32, #ttnn_layout37> loc(unknown), %arg54: tensor<2048xf32, #ttnn_layout37> loc(unknown), %arg55: tensor<2048xf32, #ttnn_layout37> loc(unknown), %arg56: tensor<2048xf32, #ttnn_layout37> loc(unknown), %arg57: tensor<2048xf32, #ttnn_layout37> loc(unknown), %arg58: tensor<2048xf32, #ttnn_layout37> loc(unknown), %arg59: tensor<2048xf32, #ttnn_layout37> loc(unknown), %arg60: tensor<2048xf32, #ttnn_layout37> loc(unknown), %arg61: tensor<2048xf32, #ttnn_layout37> loc(unknown), %arg62: tensor<2048xf32, #ttnn_layout37> loc(unknown), %arg63: tensor<2048xf32, #ttnn_layout37> loc(unknown), %arg64: tensor<2048xf32, #ttnn_layout37> loc(unknown), %arg65: tensor<2048xf32, #ttnn_layout37> loc(unknown), %arg66: tensor<2048xf32, #ttnn_layout37> loc(unknown), %arg67: tensor<2048xf32, #ttnn_layout37> loc(unknown), %arg68: tensor<2048xf32, #ttnn_layout37> loc(unknown), %arg69: tensor<2048xf32, #ttnn_layout37> loc(unknown), %arg70: tensor<2048xf32, #ttnn_layout37> loc(unknown), %arg71: tensor<2048xf32, #ttnn_layout37> loc(unknown)) -> (tensor<50x1024xf32, #ttnn_layout38>, tensor<1024xf32, #ttnn_layout39>, tensor<2048xf32, #ttnn_layout40>, tensor<1024xf32, #ttnn_layout39>, tensor<1024xf32, #ttnn_layout39>, tensor<2048xf32, #ttnn_layout40>, tensor<2048xf32, #ttnn_layout40>, tensor<1024xf32, #ttnn_layout39>, tensor<1024xf32, #ttnn_layout39>, tensor<2048xf32, #ttnn_layout40>, tensor<2048xf32, #ttnn_layout40>, tensor<1024xf32, #ttnn_layout39>, tensor<1024xf32, #ttnn_layout39>, tensor<2048xf32, #ttnn_layout40>, tensor<2048xf32, #ttnn_layout40>, tensor<1024xf32, #ttnn_layout39>, tensor<1024xf32, #ttnn_layout39>, tensor<2048xf32, #ttnn_layout40>, tensor<2048xf32, #ttnn_layout40>, tensor<1024xf32, #ttnn_layout39>, tensor<1024xf32, #ttnn_layout39>, tensor<2048xf32, #ttnn_layout40>, tensor<2048xf32, #ttnn_layout40>, tensor<1024xf32, #ttnn_layout39>, tensor<1024xf32, #ttnn_layout39>, tensor<2048xf32, #ttnn_layout40>, tensor<2048xf32, #ttnn_layout40>, tensor<1024xf32, #ttnn_layout39>, tensor<1024xf32, #ttnn_layout39>, tensor<2048xf32, #ttnn_layout40>, tensor<2048xf32, #ttnn_layout40>, tensor<1024xf32, #ttnn_layout39>, tensor<1024xf32, #ttnn_layout39>, tensor<2048xf32, #ttnn_layout40>, tensor<2048xf32, #ttnn_layout40>, tensor<1024xf32, #ttnn_layout39>, tensor<1024xf32, #ttnn_layout39>, tensor<2048xf32, #ttnn_layout40>, tensor<2048xf32, #ttnn_layout40>, tensor<1024xf32, #ttnn_layout39>, tensor<1024xf32, #ttnn_layout39>, tensor<2048xf32, #ttnn_layout40>, tensor<2048xf32, #ttnn_layout40>, tensor<1024xf32, #ttnn_layout39>, tensor<1024xf32, #ttnn_layout39>, tensor<2048xf32, #ttnn_layout40>, tensor<2048xf32, #ttnn_layout40>, tensor<1024xf32, #ttnn_layout39>, tensor<1024xf32, #ttnn_layout39>, tensor<2048xf32, #ttnn_layout40>, tensor<2048xf32, #ttnn_layout40>, tensor<1024xf32, #ttnn_layout39>, tensor<1024xf32, #ttnn_layout39>, tensor<2048xf32, #ttnn_layout40>, tensor<2048xf32, #ttnn_layout40>, tensor<1024xf32, #ttnn_layout39>, tensor<1024xf32, #ttnn_layout39>, tensor<2048xf32, #ttnn_layout40>, tensor<2048xf32, #ttnn_layout40>, tensor<1024xf32, #ttnn_layout39>, tensor<1024xf32, #ttnn_layout39>, tensor<2048xf32, #ttnn_layout40>, tensor<2048xf32, #ttnn_layout40>, tensor<1024xf32, #ttnn_layout39>, tensor<1024xf32, #ttnn_layout39>, tensor<2048xf32, #ttnn_layout40>, tensor<2048xf32, #ttnn_layout40>, tensor<1024xf32, #ttnn_layout39>, tensor<1024xf32, #ttnn_layout39>, tensor<2048xf32, #ttnn_layout40>, tensor<2048xf32, #ttnn_layout40>, tensor<1024xf32, #ttnn_layout39>, tensor<1024xf32, #ttnn_layout39>, tensor<1x1x1xf32, #ttnn_layout36>) attributes {tt.function_type = "const_eval"} {
        %0 = "ttnn.get_device"() <{mesh_offset = #ttnn<mesh_offset 0x0>, mesh_shape = #ttnn<mesh_shape 1x1>}> : () -> !ttnn.device loc(#loc)
        %1:74 = call @cpu_hoisted_const_eval_67be0b91(%arg36, %arg37, %arg35, %arg34, %arg39, %arg38, %arg33, %arg32, %arg41, %arg40, %arg31, %arg30, %arg43, %arg42, %arg29, %arg28, %arg45, %arg44, %arg27, %arg26, %arg47, %arg46, %arg25, %arg24, %arg49, %arg48, %arg23, %arg22, %arg51, %arg50, %arg21, %arg20, %arg53, %arg52, %arg19, %arg18, %arg55, %arg54, %arg17, %arg16, %arg57, %arg56, %arg15, %arg14, %arg59, %arg58, %arg13, %arg12, %arg61, %arg60, %arg11, %arg10, %arg63, %arg62, %arg9, %arg8, %arg65, %arg64, %arg7, %arg6, %arg67, %arg66, %arg5, %arg4, %arg69, %arg68, %arg3, %arg2, %arg71, %arg70, %arg1, %arg0) {ttir.cpu_hoist_call} : (tensor<1024xf32, #ttnn_layout>, tensor<2048xf32, #ttnn_layout37>, tensor<1024xf32, #ttnn_layout>, tensor<1024xf32, #ttnn_layout>, tensor<2048xf32, #ttnn_layout37>, tensor<2048xf32, #ttnn_layout37>, tensor<1024xf32, #ttnn_layout>, tensor<1024xf32, #ttnn_layout>, tensor<2048xf32, #ttnn_layout37>, tensor<2048xf32, #ttnn_layout37>, tensor<1024xf32, #ttnn_layout>, tensor<1024xf32, #ttnn_layout>, tensor<2048xf32, #ttnn_layout37>, tensor<2048xf32, #ttnn_layout37>, tensor<1024xf32, #ttnn_layout>, tensor<1024xf32, #ttnn_layout>, tensor<2048xf32, #ttnn_layout37>, tensor<2048xf32, #ttnn_layout37>, tensor<1024xf32, #ttnn_layout>, tensor<1024xf32, #ttnn_layout>, tensor<2048xf32, #ttnn_layout37>, tensor<2048xf32, #ttnn_layout37>, tensor<1024xf32, #ttnn_layout>, tensor<1024xf32, #ttnn_layout>, tensor<2048xf32, #ttnn_layout37>, tensor<2048xf32, #ttnn_layout37>, tensor<1024xf32, #ttnn_layout>, tensor<1024xf32, #ttnn_layout>, tensor<2048xf32, #ttnn_layout37>, tensor<2048xf32, #ttnn_layout37>, tensor<1024xf32, #ttnn_layout>, tensor<1024xf32, #ttnn_layout>, tensor<2048xf32, #ttnn_layout37>, tensor<2048xf32, #ttnn_layout37>, tensor<1024xf32, #ttnn_layout>, tensor<1024xf32, #ttnn_layout>, tensor<2048xf32, #ttnn_layout37>, tensor<2048xf32, #ttnn_layout37>, tensor<1024xf32, #ttnn_layout>, tensor<1024xf32, #ttnn_layout>, tensor<2048xf32, #ttnn_layout37>, tensor<2048xf32, #ttnn_layout37>, tensor<1024xf32, #ttnn_layout>, tensor<1024xf32, #ttnn_layout>, tensor<2048xf32, #ttnn_layout37>, tensor<2048xf32, #ttnn_layout37>, tensor<1024xf32, #ttnn_layout>, tensor<1024xf32, #ttnn_layout>, tensor<2048xf32, #ttnn_layout37>, tensor<2048xf32, #ttnn_layout37>, tensor<1024xf32, #ttnn_layout>, tensor<1024xf32, #ttnn_layout>, tensor<2048xf32, #ttnn_layout37>, tensor<2048xf32, #ttnn_layout37>, tensor<1024xf32, #ttnn_layout>, tensor<1024xf32, #ttnn_layout>, tensor<2048xf32, #ttnn_layout37>, tensor<2048xf32, #ttnn_layout37>, tensor<1024xf32, #ttnn_layout>, tensor<1024xf32, #ttnn_layout>, tensor<2048xf32, #ttnn_layout37>, tensor<2048xf32, #ttnn_layout37>, tensor<1024xf32, #ttnn_layout>, tensor<1024xf32, #ttnn_layout>, tensor<2048xf32, #ttnn_layout37>, tensor<2048xf32, #ttnn_layout37>, tensor<1024xf32, #ttnn_layout>, tensor<1024xf32, #ttnn_layout>, tensor<2048xf32, #ttnn_layout37>, tensor<2048xf32, #ttnn_layout37>, tensor<1024xf32, #ttnn_layout>, tensor<1024xf32, #ttnn_layout>) -> (tensor<50x1024xf32, #ttnn_layout41>, tensor<1024xf32, #ttnn_layout>, tensor<2048xf32, #ttnn_layout37>, tensor<1024xf32, #ttnn_layout>, tensor<1024xf32, #ttnn_layout>, tensor<2048xf32, #ttnn_layout37>, tensor<2048xf32, #ttnn_layout37>, tensor<1024xf32, #ttnn_layout>, tensor<1024xf32, #ttnn_layout>, tensor<2048xf32, #ttnn_layout37>, tensor<2048xf32, #ttnn_layout37>, tensor<1024xf32, #ttnn_layout>, tensor<1024xf32, #ttnn_layout>, tensor<2048xf32, #ttnn_layout37>, tensor<2048xf32, #ttnn_layout37>, tensor<1024xf32, #ttnn_layout>, tensor<1024xf32, #ttnn_layout>, tensor<2048xf32, #ttnn_layout37>, tensor<2048xf32, #ttnn_layout37>, tensor<1024xf32, #ttnn_layout>, tensor<1024xf32, #ttnn_layout>, tensor<2048xf32, #ttnn_layout37>, tensor<2048xf32, #ttnn_layout37>, tensor<1024xf32, #ttnn_layout>, tensor<1024xf32, #ttnn_layout>, tensor<2048xf32, #ttnn_layout37>, tensor<2048xf32, #ttnn_layout37>, tensor<1024xf32, #ttnn_layout>, tensor<1024xf32, #ttnn_layout>, tensor<2048xf32, #ttnn_layout37>, tensor<2048xf32, #ttnn_layout37>, tensor<1024xf32, #ttnn_layout>, tensor<1024xf32, #ttnn_layout>, tensor<2048xf32, #ttnn_layout37>, tensor<2048xf32, #ttnn_layout37>, tensor<1024xf32, #ttnn_layout>, tensor<1024xf32, #ttnn_layout>, tensor<2048xf32, #ttnn_layout37>, tensor<2048xf32, #ttnn_layout37>, tensor<1024xf32, #ttnn_layout>, tensor<1024xf32, #ttnn_layout>, tensor<2048xf32, #ttnn_layout37>, tensor<2048xf32, #ttnn_layout37>, tensor<1024xf32, #ttnn_layout>, tensor<1024xf32, #ttnn_layout>, tensor<2048xf32, #ttnn_layout37>, tensor<2048xf32, #ttnn_layout37>, tensor<1024xf32, #ttnn_layout>, tensor<1024xf32, #ttnn_layout>, tensor<2048xf32, #ttnn_layout37>, tensor<2048xf32, #ttnn_layout37>, tensor<1024xf32, #ttnn_layout>, tensor<1024xf32, #ttnn_layout>, tensor<2048xf32, #ttnn_layout37>, tensor<2048xf32, #ttnn_layout37>, tensor<1024xf32, #ttnn_layout>, tensor<1024xf32, #ttnn_layout>, tensor<2048xf32, #ttnn_layout37>, tensor<2048xf32, #ttnn_layout37>, tensor<1024xf32, #ttnn_layout>, tensor<1024xf32, #ttnn_layout>, tensor<2048xf32, #ttnn_layout37>, tensor<2048xf32, #ttnn_layout37>, tensor<1024xf32, #ttnn_layout>, tensor<1024xf32, #ttnn_layout>, tensor<2048xf32, #ttnn_layout37>, tensor<2048xf32, #ttnn_layout37>, tensor<1024xf32, #ttnn_layout>, tensor<1024xf32, #ttnn_layout>, tensor<2048xf32, #ttnn_layout37>, tensor<2048xf32, #ttnn_layout37>, tensor<1024xf32, #ttnn_layout>, tensor<1024xf32, #ttnn_layout>, tensor<1x1x1xf32, #ttnn_layout42>) loc(#loc)
        %2 = "ttnn.to_layout"(%1#0) <{layout = #ttnn.layout<tile>}> : (tensor<50x1024xf32, #ttnn_layout41>) -> tensor<50x1024xf32, #ttnn_layout43> loc(#loc)
        "ttnn.deallocate"(%1#0) <{force = false}> : (tensor<50x1024xf32, #ttnn_layout41>) -> () loc(#loc)
        %3 = "ttnn.to_device"(%2, %0) <{memory_config = #ttnn.memory_config<#dram, <interleaved>>}> : (tensor<50x1024xf32, #ttnn_layout43>, !ttnn.device) -> tensor<50x1024xf32, #ttnn_layout38> loc(#loc)
        "ttnn.deallocate"(%2) <{force = false}> : (tensor<50x1024xf32, #ttnn_layout43>) -> () loc(#loc)
        %4 = "ttnn.to_layout"(%1#1) <{layout = #ttnn.layout<tile>}> : (tensor<1024xf32, #ttnn_layout>) -> tensor<1024xf32, #ttnn_layout44> loc(#loc)
        "ttnn.deallocate"(%1#1) <{force = false}> : (tensor<1024xf32, #ttnn_layout>) -> () loc(#loc)
        %5 = "ttnn.to_device"(%4, %0) <{memory_config = #ttnn.memory_config<#dram, <interleaved>>}> : (tensor<1024xf32, #ttnn_layout44>, !ttnn.device) -> tensor<1024xf32, #ttnn_layout39> loc(#loc)
        "ttnn.deallocate"(%4) <{force = false}> : (tensor<1024xf32, #ttnn_layout44>) -> () loc(#loc)
        %6 = "ttnn.to_layout"(%1#2) <{layout = #ttnn.layout<tile>}> : (tensor<2048xf32, #ttnn_layout37>) -> tensor<2048xf32, #ttnn_layout45> loc(#loc)
        "ttnn.deallocate"(%1#2) <{force = false}> : (tensor<2048xf32, #ttnn_layout37>) -> () loc(#loc)
        %7 = "ttnn.to_device"(%6, %0) <{memory_config = #ttnn.memory_config<#dram, <interleaved>>}> : (tensor<2048xf32, #ttnn_layout45>, !ttnn.device) -> tensor<2048xf32, #ttnn_layout40> loc(#loc)
        "ttnn.deallocate"(%6) <{force = false}> : (tensor<2048xf32, #ttnn_layout45>) -> () loc(#loc)
        %8 = "ttnn.to_layout"(%1#3) <{layout = #ttnn.layout<tile>}> : (tensor<1024xf32, #ttnn_layout>) -> tensor<1024xf32, #ttnn_layout44> loc(#loc)
        "ttnn.deallocate"(%1#3) <{force = false}> : (tensor<1024xf32, #ttnn_layout>) -> () loc(#loc)
        %9 = "ttnn.to_device"(%8, %0) <{memory_config = #ttnn.memory_config<#dram, <interleaved>>}> : (tensor<1024xf32, #ttnn_layout44>, !ttnn.device) -> tensor<1024xf32, #ttnn_layout39> loc(#loc)
        "ttnn.deallocate"(%8) <{force = false}> : (tensor<1024xf32, #ttnn_layout44>) -> () loc(#loc)
        %10 = "ttnn.to_layout"(%1#4) <{layout = #ttnn.layout<tile>}> : (tensor<1024xf32, #ttnn_layout>) -> tensor<1024xf32, #ttnn_layout44> loc(#loc)
        "ttnn.deallocate"(%1#4) <{force = false}> : (tensor<1024xf32, #ttnn_layout>) -> () loc(#loc)
        %11 = "ttnn.to_device"(%10, %0) <{memory_config = #ttnn.memory_config<#dram, <interleaved>>}> : (tensor<1024xf32, #ttnn_layout44>, !ttnn.device) -> tensor<1024xf32, #ttnn_layout39> loc(#loc)
        "ttnn.deallocate"(%10) <{force = false}> : (tensor<1024xf32, #ttnn_layout44>) -> () loc(#loc)
        %12 = "ttnn.to_layout"(%1#5) <{layout = #ttnn.layout<tile>}> : (tensor<2048xf32, #ttnn_layout37>) -> tensor<2048xf32, #ttnn_layout45> loc(#loc)
        "ttnn.deallocate"(%1#5) <{force = false}> : (tensor<2048xf32, #ttnn_layout37>) -> () loc(#loc)
        %13 = "ttnn.to_device"(%12, %0) <{memory_config = #ttnn.memory_config<#dram, <interleaved>>}> : (tensor<2048xf32, #ttnn_layout45>, !ttnn.device) -> tensor<2048xf32, #ttnn_layout40> loc(#loc)
        "ttnn.deallocate"(%12) <{force = false}> : (tensor<2048xf32, #ttnn_layout45>) -> () loc(#loc)
        %14 = "ttnn.to_layout"(%1#6) <{layout = #ttnn.layout<tile>}> : (tensor<2048xf32, #ttnn_layout37>) -> tensor<2048xf32, #ttnn_layout45> loc(#loc)
        "ttnn.deallocate"(%1#6) <{force = false}> : (tensor<2048xf32, #ttnn_layout37>) -> () loc(#loc)
        %15 = "ttnn.to_device"(%14, %0) <{memory_config = #ttnn.memory_config<#dram, <interleaved>>}> : (tensor<2048xf32, #ttnn_layout45>, !ttnn.device) -> tensor<2048xf32, #ttnn_layout40> loc(#loc)
        "ttnn.deallocate"(%14) <{force = false}> : (tensor<2048xf32, #ttnn_layout45>) -> () loc(#loc)
…
#loc3463 = loc("concatenate.30560")
#loc3464 = loc("multiply.30563")
#loc3465 = loc("add.30569")
#loc3466 = loc("reshape.30335")
#loc3467 = loc("transpose.30336")
#loc3468 = loc("multiply.30346")
#loc3469 = loc("slice.30338")
#loc3470 = loc("negate.30339")
#loc3471 = loc("slice.30337")
#loc3472 = loc("concatenate.30340")
#loc3473 = loc("multiply.30343")
#loc3474 = loc("add.30349")
#loc3475 = loc("reshape.30324")
#loc3476 = loc("dot.30350")
#loc3477 = loc("multiply.30353")
#loc3478 = loc("add.30358")
#loc3479 = loc("divide.30375")
#loc3480 = loc("broadcast.30316")
#loc3481 = loc("dot.30376")
#loc3482 = loc("reshape.30380")
#loc3483 = loc("add.30385")
#loc3484 = loc("multiply.30414")
#loc3485 = loc("dot.30426")
#loc3486 = loc("dot.30416")
#loc3487 = loc("multiply.30446")
#loc3488 = loc("add.30452")
#loc3489 = loc("multiply.30481")
#loc3490 = loc("dot.30525")
#loc3491 = loc("transpose.30528")
#loc3492 = loc("dot.30773")
#loc3493 = loc("dot.30483")
#loc3494 = loc("reshape.30757")
#loc3495 = loc("multiply.30535")
#loc3496 = loc("slice.30530")
#loc3497 = loc("negate.30531")
#loc3498 = loc("slice.30529")
#loc3499 = loc("concatenate.30532")
#loc3500 = loc("multiply.30533")
#loc3501 = loc("add.30538")
#loc3502 = loc("multiply.30513")
#loc3503 = loc("slice.30508")
#loc3504 = loc("negate.30509")
#loc3505 = loc("slice.30507")
#loc3506 = loc("concatenate.30510")
#loc3507 = loc("multiply.30511")
#loc3508 = loc("add.30516")
#loc3509 = loc("concatenate.30539")
#loc3510 = loc("reshape.30544")
#loc3511 = loc("dot.30570")
#loc3512 = loc("multiply.30573")
#loc3513 = loc("add.30578")
#loc3514 = loc("divide.30595")
#loc3515 = loc("concatenate.30487")
#loc3516 = loc("reshape.30492")
#loc3517 = loc("dot.30596")
#loc3518 = loc("reshape.30600")
#loc3519 = loc("add.30605")
#loc3520 = loc("multiply.30634")
#loc3521 = loc("dot.30646")
#loc3522 = loc("dot.30636")
#loc3523 = loc("multiply.30666")
#loc3524 = loc("add.30672")
#loc3525 = loc("multiply.30701")
#loc3526 = loc("dot.30993")
#loc3527 = loc("dot.30703")
#loc3528 = loc("transpose.30706")
#loc3529 = loc("dot.30943")
#loc3530 = loc("transpose.30946")
#loc3531 = loc("reshape.30995")
#loc3532 = loc("transpose.30996")
#loc3533 = loc("multiply.31006")
#loc3534 = loc("slice.30998")
#loc3535 = loc("negate.30999")
#loc3536 = loc("slice.30997")
#loc3537 = loc("concatenate.31000")
#loc3538 = loc("multiply.31003")
#loc3539 = loc("add.31009")
#loc3540 = loc("reshape.30775")
#loc3541 = loc("transpose.30776")
#loc3542 = loc("multiply.30786")
#loc3543 = loc("slice.30778")
#loc3544 = loc("negate.30779")
#loc3545 = loc("slice.30777")
#loc3546 = loc("concatenate.30780")
#loc3547 = loc("multiply.30783")
#loc3548 = loc("add.30789")
#loc3549 = loc("reshape.30764")
#loc3550 = loc("dot.30790")
#loc3551 = loc("multiply.30793")
#loc3552 = loc("add.30798")
#loc3553 = loc("divide.30815")
#loc3554 = loc("broadcast.30756")
#loc3555 = loc("dot.30816")
#loc3556 = loc("reshape.30820")
#loc3557 = loc("add.30825")
#loc3558 = loc("multiply.30854")
#loc3559 = loc("dot.30866")
#loc3560 = loc("dot.30856")
#loc3561 = loc("multiply.30886")
#loc3562 = loc("add.30892")
#loc3563 = loc("multiply.30921")
#loc3564 = loc("dot.30965")
#loc3565 = loc("transpose.30968")
#loc3566 = loc("dot.31213")
#loc3567 = loc("dot.30923")
#loc3568 = loc("reshape.31197")
#loc3569 = loc("multiply.30975")
#loc3570 = loc("slice.30970")
#loc3571 = loc("negate.30971")
#loc3572 = loc("slice.30969")
#loc3573 = loc("concatenate.30972")
#loc3574 = loc("multiply.30973")
#loc3575 = loc("add.30978")
#loc3576 = loc("multiply.30953")
#loc3577 = loc("slice.30948")
#loc3578 = loc("negate.30949")
#loc3579 = loc("slice.30947")
#loc3580 = loc("concatenate.30950")
#loc3581 = loc("multiply.30951")
#loc3582 = loc("add.30956")
#loc3583 = loc("concatenate.30979")
#loc3584 = loc("reshape.30984")
#loc3585 = loc("dot.31010")
#loc3586 = loc("multiply.31013")
#loc3587 = loc("add.31018")
#loc3588 = loc("divide.31035")
#loc3589 = loc("concatenate.30927")
#loc3590 = loc("reshape.30932")
#loc3591 = loc("dot.31036")
#loc3592 = loc("reshape.31040")
#loc3593 = loc("add.31045")
#loc3594 = loc("multiply.31074")
#loc3595 = loc("dot.31086")
#loc3596 = loc("dot.31076")
#loc3597 = loc("multiply.31106")
#loc3598 = loc("add.31112")
#loc3599 = loc("multiply.31141")
#loc3600 = loc("dot.31433")
#loc3601 = loc("dot.31143")
#loc3602 = loc("transpose.31146")
#loc3603 = loc("dot.31383")
#loc3604 = loc("transpose.31386")
#loc3605 = loc("reshape.31435")
#loc3606 = loc("transpose.31436")
#loc3607 = loc("multiply.31446")
#loc3608 = loc("slice.31438")
#loc3609 = loc("negate.31439")
#loc3610 = loc("slice.31437")
#loc3611 = loc("concatenate.31440")
#loc3612 = loc("multiply.31443")
#loc3613 = loc("add.31449")
#loc3614 = loc("reshape.31215")
#loc3615 = loc("transpose.31216")
#loc3616 = loc("multiply.31226")
#loc3617 = loc("slice.31218")
#loc3618 = loc("negate.31219")
#loc3619 = loc("slice.31217")
#loc3620 = loc("concatenate.31220")
#loc3621 = loc("multiply.31223")
#loc3622 = loc("add.31229")
#loc3623 = loc("reshape.31204")
#loc3624 = loc("dot.31230")
#loc3625 = loc("multiply.31233")
#loc3626 = loc("add.31238")
#loc3627 = loc("divide.31255")
#loc3628 = loc("broadcast.31196")
#loc3629 = loc("dot.31256")
#loc3630 = loc("reshape.31260")
#loc3631 = loc("add.31265")
#loc3632 = loc("multiply.31294")
#loc3633 = loc("dot.31306")
#loc3634 = loc("dot.31296")
#loc3635 = loc("multiply.31326")
#loc3636 = loc("add.31332")
#loc3637 = loc("multiply.31361")
#loc3638 = loc("dot.31405")
#loc3639 = loc("transpose.31408")
#loc3640 = loc("dot.31653")
#loc3641 = loc("dot.31363")
#loc3642 = loc("reshape.31637")
#loc3643 = loc("multiply.31415")
#loc3644 = loc("slice.31410")
#loc3645 = loc("negate.31411")
#loc3646 = loc("slice.31409")
#loc3647 = loc("concatenate.31412")
#loc3648 = loc("multiply.31413")
#loc3649 = loc("add.31418")
#loc3650 = loc("multiply.31393")
#loc3651 = loc("slice.31388")
#loc3652 = loc("negate.31389")
#loc3653 = loc("slice.31387")
#loc3654 = loc("concatenate.31390")
#loc3655 = loc("multiply.31391")
#loc3656 = loc("add.31396")
#loc3657 = loc("concatenate.31419")
#loc3658 = loc("reshape.31424")
#loc3659 = loc("dot.31450")
#loc3660 = loc("multiply.31453")
#loc3661 = loc("add.31458")
#loc3662 = loc("divide.31475")
#loc3663 = loc("concatenate.31367")
#loc3664 = loc("reshape.31372")
#loc3665 = loc("dot.31476")
#loc3666 = loc("reshape.31480")
#loc3667 = loc("add.31485")
#loc3668 = loc("multiply.31514")
#loc3669 = loc("dot.31526")
#loc3670 = loc("dot.31516")
#loc3671 = loc("multiply.31546")
#loc3672 = loc("add.31552")
#loc3673 = loc("multiply.31581")
#loc3674 = loc("dot.31873")
#loc3675 = loc("dot.31583")
#loc3676 = loc("transpose.31586")
#loc3677 = loc("dot.31823")
#loc3678 = loc("transpose.31826")
#loc3679 = loc("reshape.31875")
#loc3680 = loc("transpose.31876")
#loc3681 = loc("multiply.31886")
#loc3682 = loc("slice.31878")
#loc3683 = loc("negate.31879")
#loc3684 = loc("slice.31877")
#loc3685 = loc("concatenate.31880")
#loc3686 = loc("multiply.31883")
#loc3687 = loc("add.31889")
#loc3688 = loc("reshape.31655")
#loc3689 = loc("transpose.31656")
#loc3690 = loc("multiply.31666")
#loc3691 = loc("slice.31658")
#loc3692 = loc("negate.31659")
#loc3693 = loc("slice.31657")
#loc3694 = loc("concatenate.31660")
#loc3695 = loc("multiply.31663")
#loc3696 = loc("add.31669")
#loc3697 = loc("reshape.31644")
#loc3698 = loc("dot.31670")
#loc3699 = loc("multiply.31673")
#loc3700 = loc("add.31678")
#loc3701 = loc("divide.31695")
#loc3702 = loc("broadcast.31636")
#loc3703 = loc("dot.31696")
#loc3704 = loc("reshape.31700")
#loc3705 = loc("add.31705")
#loc3706 = loc("multiply.31734")
#loc3707 = loc("dot.31746")
#loc3708 = loc("dot.31736")
#loc3709 = loc("multiply.31766")
#loc3710 = loc("add.31772")
#loc3711 = loc("multiply.31801")
#loc3712 = loc("dot.31845")
#loc3713 = loc("transpose.31848")
#loc3714 = loc("dot.32093")
#loc3715 = loc("dot.31803")
#loc3716 = loc("reshape.32077")
#loc3717 = loc("multiply.31855")
#loc3718 = loc("slice.31850")
#loc3719 = loc("negate.31851")
#loc3720 = loc("slice.31849")
#loc3721 = loc("concatenate.31852")
#loc3722 = loc("multiply.31853")
#loc3723 = loc("add.31858")
#loc3724 = loc("multiply.31833")
#loc3725 = loc("slice.31828")
#loc3726 = loc("negate.31829")
#loc3727 = loc("slice.31827")
#loc3728 = loc("concatenate.31830")
#loc3729 = loc("multiply.31831")
#loc3730 = loc("add.31836")
#loc3731 = loc("concatenate.31859")
#loc3732 = loc("reshape.31864")
#loc3733 = loc("dot.31890")
#loc3734 = loc("multiply.31893")
#loc3735 = loc("add.31898")
#loc3736 = loc("divide.31915")
#loc3737 = loc("concatenate.31807")
#loc3738 = loc("reshape.31812")
#loc3739 = loc("dot.31916")
#loc3740 = loc("reshape.31920")
#loc3741 = loc("add.31925")
#loc3742 = loc("multiply.31954")
#loc3743 = loc("dot.31966")
#loc3744 = loc("dot.31956")
#loc3745 = loc("multiply.31986")
#loc3746 = loc("add.31992")
#loc3747 = loc("multiply.32021")
#loc3748 = loc("dot.32313")
#loc3749 = loc("dot.32023")
#loc3750 = loc("transpose.32026")
#loc3751 = loc("dot.32263")
#loc3752 = loc("transpose.32266")
#loc3753 = loc("reshape.32315")
#loc3754 = loc("transpose.32316")
#loc3755 = loc("multiply.32326")
#loc3756 = loc("slice.32318")
#loc3757 = loc("negate.32319")
#loc3758 = loc("slice.32317")
#loc3759 = loc("concatenate.32320")
#loc3760 = loc("multiply.32323")
#loc3761 = loc("add.32329")
#loc3762 = loc("reshape.32095")
#loc3763 = loc("transpose.32096")
#loc3764 = loc("multiply.32106")
#loc3765 = loc("slice.32098")
#loc3766 = loc("negate.32099")
#loc3767 = loc("slice.32097")
#loc3768 = loc("concatenate.32100")
#loc3769 = loc("multiply.32103")
#loc3770 = loc("add.32109")
#loc3771 = loc("reshape.32084")
#loc3772 = loc("dot.32110")
#loc3773 = loc("multiply.32113")
#loc3774 = loc("add.32118")
#loc3775 = loc("divide.32135")
#loc3776 = loc("broadcast.32076")
#loc3777 = loc("dot.32136")
#loc3778 = loc("reshape.32140")
#loc3779 = loc("add.32145")
#loc3780 = loc("multiply.32174")
#loc3781 = loc("dot.32186")
#loc3782 = loc("dot.32176")
#loc3783 = loc("multiply.32206")
#loc3784 = loc("add.32212")
#loc3785 = loc("multiply.32241")
#loc3786 = loc("dot.32285")
#loc3787 = loc("transpose.32288")
#loc3788 = loc("dot.32533")
#loc3789 = loc("dot.32243")
#loc3790 = loc("reshape.32517")
#loc3791 = loc("multiply.32295")
#loc3792 = loc("slice.32290")
#loc3793 = loc("negate.32291")
#loc3794 = loc("slice.32289")
#loc3795 = loc("concatenate.32292")
#loc3796 = loc("multiply.32293")
#loc3797 = loc("add.32298")
#loc3798 = loc("multiply.32273")
#loc3799 = loc("slice.32268")
#loc3800 = loc("negate.32269")
#loc3801 = loc("slice.32267")
#loc3802 = loc("concatenate.32270")
#loc3803 = loc("multiply.32271")
#loc3804 = loc("add.32276")
#loc3805 = loc("concatenate.32299")
#loc3806 = loc("reshape.32304")
#loc3807 = loc("dot.32330")
#loc3808 = loc("multiply.32333")
#loc3809 = loc("add.32338")
#loc3810 = loc("divide.32355")
#loc3811 = loc("concatenate.32247")
#loc3812 = loc("reshape.32252")
#loc3813 = loc("dot.32356")
#loc3814 = loc("reshape.32360")
#loc3815 = loc("add.32365")
#loc3816 = loc("multiply.32394")
#loc3817 = loc("dot.32406")
#loc3818 = loc("dot.32396")
#loc3819 = loc("multiply.32426")
#loc3820 = loc("add.32432")
#loc3821 = loc("multiply.32461")
#loc3822 = loc("dot.32753")
#loc3823 = loc("dot.32463")
#loc3824 = loc("transpose.32466")
#loc3825 = loc("dot.32703")
#loc3826 = loc("transpose.32706")
#loc3827 = loc("reshape.32755")
#loc3828 = loc("transpose.32756")
#loc3829 = loc("multiply.32766")
#loc3830 = loc("slice.32758")
#loc3831 = loc("negate.32759")
#loc3832 = loc("slice.32757")
#loc3833 = loc("concatenate.32760")
#loc3834 = loc("multiply.32763")
#loc3835 = loc("add.32769")
#loc3836 = loc("reshape.32535")
#loc3837 = loc("transpose.32536")
#loc3838 = loc("multiply.32546")
#loc3839 = loc("slice.32538")
#loc3840 = loc("negate.32539")
#loc3841 = loc("slice.32537")
#loc3842 = loc("concatenate.32540")
#loc3843 = loc("multiply.32543")
#loc3844 = loc("add.32549")
#loc3845 = loc("reshape.32524")
#loc3846 = loc("dot.32550")
#loc3847 = loc("multiply.32553")
#loc3848 = loc("add.32558")
#loc3849 = loc("divide.32575")
#loc3850 = loc("broadcast.32516")
#loc3851 = loc("dot.32576")
#loc3852 = loc("reshape.32580")
#loc3853 = loc("add.32585")
#loc3854 = loc("multiply.32614")
#loc3855 = loc("dot.32626")
#loc3856 = loc("dot.32616")
#loc3857 = loc("multiply.32646")
#loc3858 = loc("add.32652")
#loc3859 = loc("multiply.32681")
#loc3860 = loc("dot.32725")
#loc3861 = loc("transpose.32728")
#loc3862 = loc("dot.32973")
#loc3863 = loc("dot.32683")
#loc3864 = loc("reshape.32957")
#loc3865 = loc("multiply.32735")
#loc3866 = loc("slice.32730")
#loc3867 = loc("negate.32731")
#loc3868 = loc("slice.32729")
#loc3869 = loc("concatenate.32732")
#loc3870 = loc("multiply.32733")
#loc3871 = loc("add.32738")
#loc3872 = loc("multiply.32713")
#loc3873 = loc("slice.32708")
#loc3874 = loc("negate.32709")
#loc3875 = loc("slice.32707")
#loc3876 = loc("concatenate.32710")
#loc3877 = loc("multiply.32711")
#loc3878 = loc("add.32716")
#loc3879 = loc("concatenate.32739")
#loc3880 = loc("reshape.32744")
#loc3881 = loc("dot.32770")
#loc3882 = loc("multiply.32773")
#loc3883 = loc("add.32778")
#loc3884 = loc("divide.32795")
#loc3885 = loc("concatenate.32687")
#loc3886 = loc("reshape.32692")
#loc3887 = loc("dot.32796")
#loc3888 = loc("reshape.32800")
#loc3889 = loc("add.32805")
#loc3890 = loc("multiply.32834")
#loc3891 = loc("dot.32846")
#loc3892 = loc("dot.32836")
#loc3893 = loc("multiply.32866")
#loc3894 = loc("add.32872")
#loc3895 = loc("multiply.32901")
#loc3896 = loc("dot.33193")
#loc3897 = loc("dot.32903")
#loc3898 = loc("transpose.32906")
#loc3899 = loc("dot.33143")
#loc3900 = loc("transpose.33146")
#loc3901 = loc("reshape.33195")
#loc3902 = loc("transpose.33196")
#loc3903 = loc("multiply.33206")
#loc3904 = loc("slice.33198")
#loc3905 = loc("negate.33199")
#loc3906 = loc("slice.33197")
#loc3907 = loc("concatenate.33200")
#loc3908 = loc("multiply.33203")
#loc3909 = loc("add.33209")
#loc3910 = loc("reshape.32975")
#loc3911 = loc("transpose.32976")
#loc3912 = loc("multiply.32986")
#loc3913 = loc("slice.32978")
#loc3914 = loc("negate.32979")
#loc3915 = loc("slice.32977")
#loc3916 = loc("concatenate.32980")
#loc3917 = loc("multiply.32983")
#loc3918 = loc("add.32989")
#loc3919 = loc("reshape.32964")
#loc3920 = loc("dot.32990")
#loc3921 = loc("multiply.32993")
#loc3922 = loc("add.32998")
#loc3923 = loc("divide.33015")
#loc3924 = loc("broadcast.32956")
#loc3925 = loc("dot.33016")
#loc3926 = loc("reshape.33020")
#loc3927 = loc("add.33025")
#loc3928 = loc("multiply.33054")
#loc3929 = loc("dot.33066")
#loc3930 = loc("dot.33056")
#loc3931 = loc("multiply.33086")
#loc3932 = loc("add.33092")
#loc3933 = loc("multiply.33121")
#loc3934 = loc("dot.33165")
#loc3935 = loc("transpose.33168")
#loc3936 = loc("dot.33413")
#loc3937 = loc("dot.33123")
#loc3938 = loc("reshape.33397")
#loc3939 = loc("multiply.33175")
#loc3940 = loc("slice.33170")
#loc3941 = loc("negate.33171")
#loc3942 = loc("slice.33169")
#loc3943 = loc("concatenate.33172")
#loc3944 = loc("multiply.33173")
#loc3945 = loc("add.33178")
#loc3946 = loc("multiply.33153")
#loc3947 = loc("slice.33148")
#loc3948 = loc("negate.33149")
#loc3949 = loc("slice.33147")
#loc3950 = loc("concatenate.33150")
#loc3951 = loc("multiply.33151")
#loc3952 = loc("add.33156")
#loc3953 = loc("concatenate.33179")
#loc3954 = loc("reshape.33184")
#loc3955 = loc("dot.33210")
#loc3956 = loc("multiply.33213")
#loc3957 = loc("add.33218")
#loc3958 = loc("divide.33235")
#loc3959 = loc("concatenate.33127")
#loc3960 = loc("reshape.33132")
#loc3961 = loc("dot.33236")
#loc3962 = loc("reshape.33240")
#loc3963 = loc("add.33245")
#loc3964 = loc("multiply.33274")
#loc3965 = loc("dot.33286")
#loc3966 = loc("dot.33276")
#loc3967 = loc("multiply.33306")
#loc3968 = loc("add.33312")
#loc3969 = loc("multiply.33341")
#loc3970 = loc("dot.33633")
#loc3971 = loc("dot.33343")
#loc3972 = loc("transpose.33346")
#loc3973 = loc("dot.33583")
#loc3974 = loc("transpose.33586")
#loc3975 = loc("reshape.33635")
#loc3976 = loc("transpose.33636")
#loc3977 = loc("multiply.33646")
#loc3978 = loc("slice.33638")
#loc3979 = loc("negate.33639")
#loc3980 = loc("slice.33637")
#loc3981 = loc("concatenate.33640")
#loc3982 = loc("multiply.33643")
#loc3983 = loc("add.33649")
#loc3984 = loc("reshape.33415")
#loc3985 = loc("transpose.33416")
#loc3986 = loc("multiply.33426")
#loc3987 = loc("slice.33418")
#loc3988 = loc("negate.33419")
#loc3989 = loc("slice.33417")
#loc3990 = loc("concatenate.33420")
#loc3991 = loc("multiply.33423")
#loc3992 = loc("add.33429")
#loc3993 = loc("reshape.33404")
#loc3994 = loc("dot.33430")
#loc3995 = loc("multiply.33433")
#loc3996 = loc("add.33438")
#loc3997 = loc("divide.33455")
#loc3998 = loc("broadcast.33396")
#loc3999 = loc("dot.33456")
#loc4000 = loc("reshape.33460")
#loc4001 = loc("add.33465")
#loc4002 = loc("multiply.33494")
#loc4003 = loc("dot.33506")
#loc4004 = loc("dot.33496")
#loc4005 = loc("multiply.33526")
#loc4006 = loc("add.33532")
#loc4007 = loc("multiply.33561")
#loc4008 = loc("dot.33605")
#loc4009 = loc("transpose.33608")
#loc4010 = loc("multiply.33615")
#loc4011 = loc("slice.33610")
#loc4012 = loc("negate.33611")
#loc4013 = loc("slice.33609")
#loc4014 = loc("concatenate.33612")
#loc4015 = loc("multiply.33613")
#loc4016 = loc("add.33618")
#loc4017 = loc("multiply.33593")
#loc4018 = loc("slice.33588")
#loc4019 = loc("negate.33589")
#loc4020 = loc("slice.33587")
#loc4021 = loc("concatenate.33590")
#loc4022 = loc("multiply.33591")
#loc4023 = loc("add.33596")
#loc4024 = loc("concatenate.33619")
#loc4025 = loc("reshape.33624")
#loc4026 = loc("dot.33650")
#loc4027 = loc("multiply.33653")
#loc4028 = loc("add.33658")
#loc4029 = loc("divide.33675")
#loc4030 = loc("dot.33563")
#loc4031 = loc("transpose.33566")
#loc4032 = loc("concatenate.33567")
#loc4033 = loc("reshape.33572")
#loc4034 = loc("dot.33676")
#loc4035 = loc("reshape.33680")
#loc4036 = loc("add.33685")
#loc4037 = loc("multiply.33714")
#loc4038 = loc("dot.33726")
#loc4039 = loc("dot.33716")
#loc4040 = loc("multiply.33746")
#loc4041 = loc("add.33752")
#loc4042 = loc("multiply.33781")
#loc4043 = loc("slice.33782")
#loc4044 = loc("add.33789")
#loc4045 = loc("multiply.33791")
#loc4046 = loc("add.33794")
#loc4047 = loc("add.33801")
#loc4048 = loc("slice.101")
#loc4049 = loc("multiply.103")
#loc4050 = loc("add.105")
#loc4051 = loc("add.107")
#loc4052 = loc("multiply.108")
#loc4053 = loc("add.33804")
#loc4054 = loc("multiply.61")
#loc4055 = loc("select.1030")
#loc4056 = loc("power.1033")
#loc4057 = loc("multiply.1035")
#loc4058 = loc("divide.1038")
#loc4059 = loc("multiply.1042")
#loc4060 = loc("multiply.1044")
#loc4061 = loc("reshape.1045")
#loc4062 = loc("sine.1050")
#loc4063 = loc("cosine.1049")
#loc4064 = loc("concatenate.1051")
#loc4065 = loc("broadcast.1056")
#loc4066 = loc("add.967")
#loc4067 = loc("add.1147")
#loc4068 = loc("add.944")
#loc4069 = loc("add.921")
#loc4070 = loc("add.26301")
#loc4071 = loc("add.26278")
#loc4072 = loc("add.898")
#loc4073 = loc("add.875")
#loc4074 = loc("add.26783")
#loc4075 = loc("add.26760")
#loc4076 = loc("add.852")
#loc4077 = loc("add.829")
#loc4078 = loc("add.27223")
#loc4079 = loc("add.27200")
#loc4080 = loc("add.806")
#loc4081 = loc("add.783")
#loc4082 = loc("add.27663")
#loc4083 = loc("add.27640")
#loc4084 = loc("add.760")
#loc4085 = loc("add.737")
#loc4086 = loc("add.28103")
#loc4087 = loc("add.28080")
#loc4088 = loc("add.714")
#loc4089 = loc("add.691")
#loc4090 = loc("add.28543")
#loc4091 = loc("add.28520")
#loc4092 = loc("add.668")
#loc4093 = loc("add.645")
#loc4094 = loc("add.28983")
#loc4095 = loc("add.28960")
#loc4096 = loc("add.622")
#loc4097 = loc("add.599")
#loc4098 = loc("add.29423")
#loc4099 = loc("add.29400")
#loc4100 = loc("add.576")
#loc4101 = loc("add.553")
#loc4102 = loc("add.29863")
#loc4103 = loc("add.29840")
#loc4104 = loc("add.530")
#loc4105 = loc("add.507")
#loc4106 = loc("add.30303")
#loc4107 = loc("add.30280")
#loc4108 = loc("add.484")
#loc4109 = loc("add.461")
#loc4110 = loc("add.30743")
#loc4111 = loc("add.30720")
#loc4112 = loc("add.438")
#loc4113 = loc("add.415")
#loc4114 = loc("add.31183")
#loc4115 = loc("add.31160")
#loc4116 = loc("add.392")
#loc4117 = loc("add.369")
#loc4118 = loc("add.31623")
#loc4119 = loc("add.31600")
#loc4120 = loc("add.346")
#loc4121 = loc("add.323")
#loc4122 = loc("add.32063")
#loc4123 = loc("add.32040")
#loc4124 = loc("add.300")
#loc4125 = loc("add.277")
#loc4126 = loc("add.32503")
#loc4127 = loc("add.32480")
#loc4128 = loc("add.254")
#loc4129 = loc("add.231")
#loc4130 = loc("add.32943")
#loc4131 = loc("add.32920")
#loc4132 = loc("add.208")
#loc4133 = loc("add.185")
#loc4134 = loc("add.33383")
#loc4135 = loc("add.33360")
#loc4136 = loc("add.162")
#loc4137 = loc("add.139")
#loc4138 = loc("sine.63")
#loc4139 = loc("cosine.62")
#loc4140 = loc("concatenate.64")
#loc4141 = loc("slice.67")
#loc4142 = loc("transpose.24820")
#loc4143 = loc("transpose.18293")
#loc4144 = loc("transpose.33411")
#loc4145 = loc("transpose.32911")
#loc4146 = loc("broadcast.19218")
#loc4147 = loc("broadcast.22011")
#loc4148 = loc("broadcast.21999")
#loc4149 = loc("broadcast.21987")
#loc4150 = loc("transpose.728")
#loc4151 = loc("transpose.28301")
#loc4152 = loc("broadcast.21618")
#loc4153 = loc("convert.18807")
#loc4154 = loc("gather.18808")
#loc4155 = loc("reshape.26007")
#loc4156 = loc("reshape.26003")
#loc4157 = loc("broadcast.1066")
#loc4158 = loc("broadcast.25842")
#loc4159 = loc("transpose.18814")
#loc4160 = loc("reshape.33795_tm1"(#loc2))
#loc4161 = loc("broadcast.33803_tm1"(#loc3))
#loc4162 = loc("convert.26056_tm0"(#loc4))
#loc4163 = loc("reshape.25999_tm1"(#loc5))
#loc4164 = loc("gather.1162_workaround"(#loc6))
#loc4165 = loc("broadcast.33803_tm0"(#loc3))
#loc4166 = loc("reduce.25989_workaround"(#loc818))
#loc4167 = loc("reshape.25999_tm0"(#loc5))
#loc4168 = loc("convolution.18812_reshape"(#loc841))
#loc4169 = loc("convolution.18812_workaround"(#loc841))
#loc4170 = loc("add.18928_output_shape_workaround"(#loc845))
#loc4171 = loc("reshape.18956_concat_heads"(#loc858))
#loc4172 = loc("add.18962_output_shape_workaround"(#loc859))
#loc4173 = loc("add.19074_output_shape_workaround"(#loc864))
#loc4174 = loc("add.19185_output_shape_workaround"(#loc868))
#loc4175 = loc("reshape.19213_concat_heads"(#loc881))
#loc4176 = loc("add.19219_output_shape_workaround"(#loc882))
#loc4177 = loc("add.19331_output_shape_workaround"(#loc887))
#loc4178 = loc("add.19442_output_shape_workaround"(#loc891))
#loc4179 = loc("reshape.19470_concat_heads"(#loc904))
#loc4180 = loc("add.19476_output_shape_workaround"(#loc905))
#loc4181 = loc("add.19588_output_shape_workaround"(#loc910))
#loc4182 = loc("add.19699_output_shape_workaround"(#loc914))
#loc4183 = loc("reshape.19727_concat_heads"(#loc927))
#loc4184 = loc("add.19733_output_shape_workaround"(#loc928))
#loc4185 = loc("add.19845_output_shape_workaround"(#loc933))
#loc4186 = loc("add.19956_output_shape_workaround"(#loc937))
#loc4187 = loc("reshape.19984_concat_heads"(#loc950))
#loc4188 = loc("add.19990_output_shape_workaround"(#loc951))
#loc4189 = loc("add.20102_output_shape_workaround"(#loc956))
#loc4190 = loc("add.20213_output_shape_workaround"(#loc960))
#loc4191 = loc("reshape.20241_concat_heads"(#loc973))
#loc4192 = loc("add.20247_output_shape_workaround"(#loc974))
#loc4193 = loc("add.20359_output_shape_workaround"(#loc979))
#loc4194 = loc("add.20470_output_shape_workaround"(#loc983))
#loc4195 = loc("reshape.20498_concat_heads"(#loc996))
#loc4196 = loc("add.20504_output_shape_workaround"(#loc997))
#loc4197 = loc("add.20616_output_shape_workaround"(#loc1002))
#loc4198 = loc("add.20727_output_shape_workaround"(#loc1006))
#loc4199 = loc("reshape.20755_concat_heads"(#loc1019))
#loc4200 = loc("add.20761_output_shape_workaround"(#loc1020))
#loc4201 = loc("add.20873_output_shape_workaround"(#loc1025))
#loc4202 = loc("add.20984_output_shape_workaround"(#loc1029))
#loc4203 = loc("reshape.21012_concat_heads"(#loc1042))
#loc4204 = loc("add.21018_output_shape_workaround"(#loc1043))
#loc4205 = loc("add.21130_output_shape_workaround"(#loc1048))
#loc4206 = loc("add.21241_output_shape_workaround"(#loc1052))
#loc4207 = loc("reshape.21269_concat_heads"(#loc1065))
#loc4208 = loc("add.21275_output_shape_workaround"(#loc1066))
#loc4209 = loc("add.21387_output_shape_workaround"(#loc1071))
#loc4210 = loc("add.21498_output_shape_workaround"(#loc1075))
#loc4211 = loc("reshape.21526_concat_heads"(#loc1088))
#loc4212 = loc("add.21532_output_shape_workaround"(#loc1089))
#loc4213 = loc("add.21644_output_shape_workaround"(#loc1094))
#loc4214 = loc("add.21755_output_shape_workaround"(#loc1098))
#loc4215 = loc("reshape.21783_concat_heads"(#loc1111))
#loc4216 = loc("add.21789_output_shape_workaround"(#loc1112))
#loc4217 = loc("add.21901_output_shape_workaround"(#loc1117))
#loc4218 = loc("add.22012_output_shape_workaround"(#loc1121))
#loc4219 = loc("reshape.22040_concat_heads"(#loc1134))
#loc4220 = loc("add.22046_output_shape_workaround"(#loc1135))
#loc4221 = loc("add.22158_output_shape_workaround"(#loc1140))
#loc4222 = loc("add.22269_output_shape_workaround"(#loc1144))
#loc4223 = loc("reshape.22297_concat_heads"(#loc1157))
#loc4224 = loc("add.22303_output_shape_workaround"(#loc1158))
#loc4225 = loc("add.22415_output_shape_workaround"(#loc1163))
#loc4226 = loc("add.22526_output_shape_workaround"(#loc1167))
#loc4227 = loc("reshape.22554_concat_heads"(#loc1180))
#loc4228 = loc("add.22560_output_shape_workaround"(#loc1181))
#loc4229 = loc("add.22672_output_shape_workaround"(#loc1186))
#loc4230 = loc("add.22783_output_shape_workaround"(#loc1190))
#loc4231 = loc("reshape.22811_concat_heads"(#loc1203))
#loc4232 = loc("add.22817_output_shape_workaround"(#loc1204))
#loc4233 = loc("add.22929_output_shape_workaround"(#loc1209))
#loc4234 = loc("add.23040_output_shape_workaround"(#loc1213))
#loc4235 = loc("reshape.23068_concat_heads"(#loc1226))
#loc4236 = loc("add.23074_output_shape_workaround"(#loc1227))
#loc4237 = loc("add.23186_output_shape_workaround"(#loc1232))
#loc4238 = loc("add.23297_output_shape_workaround"(#loc1236))
#loc4239 = loc("reshape.23325_concat_heads"(#loc1249))
#loc4240 = loc("add.23331_output_shape_workaround"(#loc1250))
#loc4241 = loc("add.23443_output_shape_workaround"(#loc1255))
#loc4242 = loc("add.23554_output_shape_workaround"(#loc1259))
#loc4243 = loc("reshape.23582_concat_heads"(#loc1272))
#loc4244 = loc("add.23588_output_shape_workaround"(#loc1273))
#loc4245 = loc("add.23700_output_shape_workaround"(#loc1278))
#loc4246 = loc("add.23811_output_shape_workaround"(#loc1282))
#loc4247 = loc("reshape.23839_concat_heads"(#loc1295))
#loc4248 = loc("add.23845_output_shape_workaround"(#loc1296))
#loc4249 = loc("add.23957_output_shape_workaround"(#loc1301))
#loc4250 = loc("add.24068_output_shape_workaround"(#loc1305))
#loc4251 = loc("reshape.24096_concat_heads"(#loc1318))
#loc4252 = loc("add.24102_output_shape_workaround"(#loc1319))
#loc4253 = loc("add.24214_output_shape_workaround"(#loc1324))
#loc4254 = loc("add.24325_output_shape_workaround"(#loc1328))
#loc4255 = loc("reshape.24353_concat_heads"(#loc1341))
#loc4256 = loc("add.24359_output_shape_workaround"(#loc1342))
#loc4257 = loc("add.24471_output_shape_workaround"(#loc1347))
#loc4258 = loc("add.24582_output_shape_workaround"(#loc1351))
#loc4259 = loc("reshape.24610_concat_heads"(#loc1364))
#loc4260 = loc("add.24616_output_shape_workaround"(#loc1365))
#loc4261 = loc("add.24728_output_shape_workaround"(#loc1370))
#loc4262 = loc("add.24839_output_shape_workaround"(#loc1374))
#loc4263 = loc("reshape.24867_concat_heads"(#loc1387))
#loc4264 = loc("add.24873_output_shape_workaround"(#loc1388))
#loc4265 = loc("add.24985_output_shape_workaround"(#loc1393))
#loc4266 = loc("add.25096_output_shape_workaround"(#loc1397))
#loc4267 = loc("reshape.25124_concat_heads"(#loc1410))
#loc4268 = loc("add.25130_output_shape_workaround"(#loc1411))
#loc4269 = loc("add.25242_output_shape_workaround"(#loc1416))
#loc4270 = loc("add.25353_output_shape_workaround"(#loc1420))
#loc4271 = loc("reshape.25381_concat_heads"(#loc1433))
#loc4272 = loc("add.25387_output_shape_workaround"(#loc1434))
#loc4273 = loc("add.25499_output_shape_workaround"(#loc1439))
#loc4274 = loc("add.25610_output_shape_workaround"(#loc1443))
#loc4275 = loc("reshape.25638_concat_heads"(#loc1456))
#loc4276 = loc("add.25644_output_shape_workaround"(#loc1457))
#loc4277 = loc("add.25756_output_shape_workaround"(#loc1462))
#loc4278 = loc("add.25843_output_shape_workaround"(#loc1466))
#loc4279 = loc("convolution.11172_reshape"(#loc1468))
#loc4280 = loc("convolution.11172_workaround"(#loc1468))
#loc4281 = loc("add.11288_output_shape_workaround"(#loc1472))
#loc4282 = loc("reshape.11316_concat_heads"(#loc1485))
#loc4283 = loc("add.11322_output_shape_workaround"(#loc1486))
#loc4284 = loc("add.11434_output_shape_workaround"(#loc1491))
#loc4285 = loc("add.11545_output_shape_workaround"(#loc1495))
#loc4286 = loc("reshape.11573_concat_heads"(#loc1508))
#loc4287 = loc("add.11579_output_shape_workaround"(#loc1509))
#loc4288 = loc("add.11691_output_shape_workaround"(#loc1514))
#loc4289 = loc("add.11802_output_shape_workaround"(#loc1518))
#loc4290 = loc("reshape.11830_concat_heads"(#loc1531))
#loc4291 = loc("add.11836_output_shape_workaround"(#loc1532))
#loc4292 = loc("add.11948_output_shape_workaround"(#loc1537))
#loc4293 = loc("add.12059_output_shape_workaround"(#loc1541))
#loc4294 = loc("reshape.12087_concat_heads"(#loc1554))
#loc4295 = loc("add.12093_output_shape_workaround"(#loc1555))
#loc4296 = loc("add.12205_output_shape_workaround"(#loc1560))
#loc4297 = loc("add.12316_output_shape_workaround"(#loc1564))
#loc4298 = loc("reshape.12344_concat_heads"(#loc1577))
#loc4299 = loc("add.12350_output_shape_workaround"(#loc1578))
#loc4300 = loc("add.12462_output_shape_workaround"(#loc1583))
#loc4301 = loc("add.12573_output_shape_workaround"(#loc1587))
#loc4302 = loc("reshape.12601_concat_heads"(#loc1600))
#loc4303 = loc("add.12607_output_shape_workaround"(#loc1601))
#loc4304 = loc("add.12719_output_shape_workaround"(#loc1606))
#loc4305 = loc("add.12830_output_shape_workaround"(#loc1610))
#loc4306 = loc("reshape.12858_concat_heads"(#loc1623))
#loc4307 = loc("add.12864_output_shape_workaround"(#loc1624))
#loc4308 = loc("add.12976_output_shape_workaround"(#loc1629))
#loc4309 = loc("add.13087_output_shape_workaround"(#loc1633))
#loc4310 = loc("reshape.13115_concat_heads"(#loc1646))
#loc4311 = loc("add.13121_output_shape_workaround"(#loc1647))
#loc4312 = loc("add.13233_output_shape_workaround"(#loc1652))
#loc4313 = loc("add.13344_output_shape_workaround"(#loc1656))
#loc4314 = loc("reshape.13372_concat_heads"(#loc1669))
#loc4315 = loc("add.13378_output_shape_workaround"(#loc1670))
#loc4316 = loc("add.13490_output_shape_workaround"(#loc1675))
#loc4317 = loc("add.13601_output_shape_workaround"(#loc1679))
#loc4318 = loc("reshape.13629_concat_heads"(#loc1692))
#loc4319 = loc("add.13635_output_shape_workaround"(#loc1693))
#loc4320 = loc("add.13747_output_shape_workaround"(#loc1698))
#loc4321 = loc("add.13858_output_shape_workaround"(#loc1702))
#loc4322 = loc("reshape.13886_concat_heads"(#loc1715))
#loc4323 = loc("add.13892_output_shape_workaround"(#loc1716))
#loc4324 = loc("add.14004_output_shape_workaround"(#loc1721))
#loc4325 = loc("add.14115_output_shape_workaround"(#loc1725))
#loc4326 = loc("reshape.14143_concat_heads"(#loc1738))
#loc4327 = loc("add.14149_output_shape_workaround"(#loc1739))
#loc4328 = loc("add.14261_output_shape_workaround"(#loc1744))
#loc4329 = loc("add.14372_output_shape_workaround"(#loc1748))
#loc4330 = loc("reshape.14400_concat_heads"(#loc1761))
#loc4331 = loc("add.14406_output_shape_workaround"(#loc1762))
#loc4332 = loc("add.14518_output_shape_workaround"(#loc1767))
#loc4333 = loc("add.14629_output_shape_workaround"(#loc1771))
#loc4334 = loc("reshape.14657_concat_heads"(#loc1784))
#loc4335 = loc("add.14663_output_shape_workaround"(#loc1785))
#loc4336 = loc("add.14775_output_shape_workaround"(#loc1790))
#loc4337 = loc("add.14886_output_shape_workaround"(#loc1794))
#loc4338 = loc("reshape.14914_concat_heads"(#loc1807))
#loc4339 = loc("add.14920_output_shape_workaround"(#loc1808))
#loc4340 = loc("add.15032_output_shape_workaround"(#loc1813))
#loc4341 = loc("add.15143_output_shape_workaround"(#loc1817))
#loc4342 = loc("reshape.15171_concat_heads"(#loc1830))
#loc4343 = loc("add.15177_output_shape_workaround"(#loc1831))
#loc4344 = loc("add.15289_output_shape_workaround"(#loc1836))
#loc4345 = loc("add.15400_output_shape_workaround"(#loc1840))
#loc4346 = loc("reshape.15428_concat_heads"(#loc1853))
#loc4347 = loc("add.15434_output_shape_workaround"(#loc1854))
#loc4348 = loc("add.15546_output_shape_workaround"(#loc1859))
#loc4349 = loc("add.15657_output_shape_workaround"(#loc1863))
#loc4350 = loc("reshape.15685_concat_heads"(#loc1876))
#loc4351 = loc("add.15691_output_shape_workaround"(#loc1877))
#loc4352 = loc("add.15803_output_shape_workaround"(#loc1882))
#loc4353 = loc("add.15914_output_shape_workaround"(#loc1886))
#loc4354 = loc("reshape.15942_concat_heads"(#loc1899))
#loc4355 = loc("add.15948_output_shape_workaround"(#loc1900))
#loc4356 = loc("add.16060_output_shape_workaround"(#loc1905))
#loc4357 = loc("add.16171_output_shape_workaround"(#loc1909))
#loc4358 = loc("reshape.16199_concat_heads"(#loc1922))
#loc4359 = loc("add.16205_output_shape_workaround"(#loc1923))
#loc4360 = loc("add.16317_output_shape_workaround"(#loc1928))
#loc4361 = loc("add.16428_output_shape_workaround"(#loc1932))
#loc4362 = loc("reshape.16456_concat_heads"(#loc1945))
#loc4363 = loc("add.16462_output_shape_workaround"(#loc1946))
#loc4364 = loc("add.16574_output_shape_workaround"(#loc1951))
#loc4365 = loc("add.16685_output_shape_workaround"(#loc1955))
#loc4366 = loc("reshape.16713_concat_heads"(#loc1968))
#loc4367 = loc("add.16719_output_shape_workaround"(#loc1969))
#loc4368 = loc("add.16831_output_shape_workaround"(#loc1974))
#loc4369 = loc("add.16942_output_shape_workaround"(#loc1978))
#loc4370 = loc("reshape.16970_concat_heads"(#loc1991))
#loc4371 = loc("add.16976_output_shape_workaround"(#loc1992))
#loc4372 = loc("add.17088_output_shape_workaround"(#loc1997))
#loc4373 = loc("add.17199_output_shape_workaround"(#loc2001))
#loc4374 = loc("reshape.17227_concat_heads"(#loc2014))
#loc4375 = loc("add.17233_output_shape_workaround"(#loc2015))
#loc4376 = loc("add.17345_output_shape_workaround"(#loc2020))
#loc4377 = loc("add.17456_output_shape_workaround"(#loc2024))
#loc4378 = loc("reshape.17484_concat_heads"(#loc2037))
#loc4379 = loc("add.17490_output_shape_workaround"(#loc2038))
#loc4380 = loc("add.17602_output_shape_workaround"(#loc2043))
#loc4381 = loc("add.17713_output_shape_workaround"(#loc2047))
#loc4382 = loc("reshape.17741_concat_heads"(#loc2060))
#loc4383 = loc("add.17747_output_shape_workaround"(#loc2061))
#loc4384 = loc("add.17859_output_shape_workaround"(#loc2066))
#loc4385 = loc("add.17970_output_shape_workaround"(#loc2070))
#loc4386 = loc("reshape.17998_concat_heads"(#loc2083))
#loc4387 = loc("add.18004_output_shape_workaround"(#loc2084))
#loc4388 = loc("add.18116_output_shape_workaround"(#loc2089))
#loc4389 = loc("add.18203_output_shape_workaround"(#loc2093))
#loc4390 = loc("convolution.3100_reshape"(#loc2095))
#loc4391 = loc("convolution.3100_workaround"(#loc2095))
#loc4392 = loc("add.3232_output_shape_workaround"(#loc2099))
#loc4393 = loc("reshape.3260_concat_heads"(#loc2112))
#loc4394 = loc("add.3266_output_shape_workaround"(#loc2113))
#loc4395 = loc("add.3378_output_shape_workaround"(#loc2118))
#loc4396 = loc("add.3505_output_shape_workaround"(#loc2122))
#loc4397 = loc("reshape.3533_concat_heads"(#loc2135))
#loc4398 = loc("add.3539_output_shape_workaround"(#loc2136))
#loc4399 = loc("add.3651_output_shape_workaround"(#loc2141))
#loc4400 = loc("add.3778_output_shape_workaround"(#loc2145))
#loc4401 = loc("reshape.3806_concat_heads"(#loc2158))
#loc4402 = loc("add.3812_output_shape_workaround"(#loc2159))
#loc4403 = loc("add.3924_output_shape_workaround"(#loc2164))
#loc4404 = loc("add.4051_output_shape_workaround"(#loc2168))
#loc4405 = loc("reshape.4079_concat_heads"(#loc2181))
#loc4406 = loc("add.4085_output_shape_workaround"(#loc2182))
#loc4407 = loc("add.4197_output_shape_workaround"(#loc2187))
#loc4408 = loc("add.4324_output_shape_workaround"(#loc2191))
#loc4409 = loc("reshape.4352_concat_heads"(#loc2204))
#loc4410 = loc("add.4358_output_shape_workaround"(#loc2205))
#loc4411 = loc("add.4470_output_shape_workaround"(#loc2210))
#loc4412 = loc("add.4597_output_shape_workaround"(#loc2214))
#loc4413 = loc("reshape.4625_concat_heads"(#loc2227))
#loc4414 = loc("add.4631_output_shape_workaround"(#loc2228))
#loc4415 = loc("add.4743_output_shape_workaround"(#loc2233))
#loc4416 = loc("add.4870_output_shape_workaround"(#loc2237))
#loc4417 = loc("reshape.4898_concat_heads"(#loc2250))
#loc4418 = loc("add.4904_output_shape_workaround"(#loc2251))
#loc4419 = loc("add.5016_output_shape_workaround"(#loc2256))
#loc4420 = loc("add.5143_output_shape_workaround"(#loc2260))
#loc4421 = loc("reshape.5171_concat_heads"(#loc2273))
#loc4422 = loc("add.5177_output_shape_workaround"(#loc2274))
#loc4423 = loc("add.5289_output_shape_workaround"(#loc2279))
#loc4424 = loc("add.5416_output_shape_workaround"(#loc2283))
#loc4425 = loc("reshape.5444_concat_heads"(#loc2296))
#loc4426 = loc("add.5450_output_shape_workaround"(#loc2297))
#loc4427 = loc("add.5562_output_shape_workaround"(#loc2302))
#loc4428 = loc("add.5689_output_shape_workaround"(#loc2306))
#loc4429 = loc("reshape.5717_concat_heads"(#loc2319))
#loc4430 = loc("add.5723_output_shape_workaround"(#loc2320))
#loc4431 = loc("add.5835_output_shape_workaround"(#loc2325))
#loc4432 = loc("add.5962_output_shape_workaround"(#loc2329))
#loc4433 = loc("reshape.5990_concat_heads"(#loc2342))
#loc4434 = loc("add.5996_output_shape_workaround"(#loc2343))
#loc4435 = loc("add.6108_output_shape_workaround"(#loc2348))
#loc4436 = loc("add.6235_output_shape_workaround"(#loc2352))
#loc4437 = loc("reshape.6263_concat_heads"(#loc2365))
#loc4438 = loc("add.6269_output_shape_workaround"(#loc2366))
#loc4439 = loc("add.6381_output_shape_workaround"(#loc2371))
#loc4440 = loc("add.6508_output_shape_workaround"(#loc2375))
#loc4441 = loc("reshape.6536_concat_heads"(#loc2388))
#loc4442 = loc("add.6542_output_shape_workaround"(#loc2389))
#loc4443 = loc("add.6654_output_shape_workaround"(#loc2394))
#loc4444 = loc("add.6781_output_shape_workaround"(#loc2398))
#loc4445 = loc("reshape.6809_concat_heads"(#loc2411))
#loc4446 = loc("add.6815_output_shape_workaround"(#loc2412))
#loc4447 = loc("add.6927_output_shape_workaround"(#loc2417))
#loc4448 = loc("add.7054_output_shape_workaround"(#loc2421))
#loc4449 = loc("reshape.7082_concat_heads"(#loc2434))
#loc4450 = loc("add.7088_output_shape_workaround"(#loc2435))
#loc4451 = loc("add.7200_output_shape_workaround"(#loc2440))
#loc4452 = loc("add.7327_output_shape_workaround"(#loc2444))
#loc4453 = loc("reshape.7355_concat_heads"(#loc2457))
#loc4454 = loc("add.7361_output_shape_workaround"(#loc2458))
#loc4455 = loc("add.7473_output_shape_workaround"(#loc2463))
#loc4456 = loc("add.7600_output_shape_workaround"(#loc2467))
#loc4457 = loc("reshape.7628_concat_heads"(#loc2480))
#loc4458 = loc("add.7634_output_shape_workaround"(#loc2481))
#loc4459 = loc("add.7746_output_shape_workaround"(#loc2486))
#loc4460 = loc("add.7873_output_shape_workaround"(#loc2490))
#loc4461 = loc("reshape.7901_concat_heads"(#loc2503))
#loc4462 = loc("add.7907_output_shape_workaround"(#loc2504))
#loc4463 = loc("add.8019_output_shape_workaround"(#loc2509))
#loc4464 = loc("add.8146_output_shape_workaround"(#loc2513))
#loc4465 = loc("reshape.8174_concat_heads"(#loc2526))
#loc4466 = loc("add.8180_output_shape_workaround"(#loc2527))
#loc4467 = loc("add.8292_output_shape_workaround"(#loc2532))
#loc4468 = loc("add.8419_output_shape_workaround"(#loc2536))
#loc4469 = loc("reshape.8447_concat_heads"(#loc2549))
#loc4470 = loc("add.8453_output_shape_workaround"(#loc2550))
#loc4471 = loc("add.8565_output_shape_workaround"(#loc2555))
#loc4472 = loc("add.8692_output_shape_workaround"(#loc2559))
#loc4473 = loc("reshape.8720_concat_heads"(#loc2572))
#loc4474 = loc("add.8726_output_shape_workaround"(#loc2573))
#loc4475 = loc("add.8838_output_shape_workaround"(#loc2578))
#loc4476 = loc("add.8965_output_shape_workaround"(#loc2582))
#loc4477 = loc("reshape.8993_concat_heads"(#loc2595))
#loc4478 = loc("add.8999_output_shape_workaround"(#loc2596))
#loc4479 = loc("add.9111_output_shape_workaround"(#loc2601))
#loc4480 = loc("add.9238_output_shape_workaround"(#loc2605))
#loc4481 = loc("reshape.9266_concat_heads"(#loc2618))
#loc4482 = loc("add.9272_output_shape_workaround"(#loc2619))
#loc4483 = loc("add.9384_output_shape_workaround"(#loc2624))
#loc4484 = loc("add.9511_output_shape_workaround"(#loc2628))
#loc4485 = loc("reshape.9539_concat_heads"(#loc2641))
#loc4486 = loc("add.9545_output_shape_workaround"(#loc2642))
#loc4487 = loc("add.9657_output_shape_workaround"(#loc2647))
#loc4488 = loc("add.9784_output_shape_workaround"(#loc2651))
#loc4489 = loc("reshape.9812_concat_heads"(#loc2664))
#loc4490 = loc("add.9818_output_shape_workaround"(#loc2665))
#loc4491 = loc("add.9930_output_shape_workaround"(#loc2670))
#loc4492 = loc("add.10057_output_shape_workaround"(#loc2674))
#loc4493 = loc("reshape.10085_concat_heads"(#loc2687))
#loc4494 = loc("add.10091_output_shape_workaround"(#loc2688))
#loc4495 = loc("add.10203_output_shape_workaround"(#loc2693))
#loc4496 = loc("add.10330_output_shape_workaround"(#loc2697))
#loc4497 = loc("reshape.10358_concat_heads"(#loc2710))
#loc4498 = loc("add.10364_output_shape_workaround"(#loc2711))
#loc4499 = loc("add.10476_output_shape_workaround"(#loc2716))
#loc4500 = loc("add.10563_output_shape_workaround"(#loc2720))
#loc4501 = loc("concatenate.25965_tm0"(#loc2756))
#loc4502 = loc("concatenate.25965_tm1"(#loc2756))
#loc4503 = loc("select.25968_workaround"(#loc2764))
#loc4504 = loc("add.26163_decomp_matmul"(#loc2771))
#loc4505 = loc("add.26163_decomp_add"(#loc2771))
#loc4506 = loc("add.26230_decomp_matmul"(#loc2776))
#loc4507 = loc("add.26230_decomp_add"(#loc2776))
#loc4508 = loc("reshape.26356_tm0"(#loc2807))
#loc4509 = loc("reshape.26356_tm1"(#loc2807))
#loc4510 = loc("select.26358_workaround"(#loc2811))
#loc4511 = loc("add.26425_decomp_matmul"(#loc2817))
#loc4512 = loc("add.26425_decomp_add"(#loc2817))
#loc4513 = loc("add.26492_decomp_matmul"(#loc2822))
#loc4514 = loc("add.26492_decomp_add"(#loc2822))
#loc4515 = loc("add.26645_decomp_matmul"(#loc2853))
#loc4516 = loc("add.26645_decomp_add"(#loc2853))
#loc4517 = loc("add.26712_decomp_matmul"(#loc2858))
#loc4518 = loc("add.26712_decomp_add"(#loc2858))
#loc4519 = loc("add.26865_decomp_matmul"(#loc2891))
#loc4520 = loc("add.26865_decomp_add"(#loc2891))
#loc4521 = loc("add.26932_decomp_matmul"(#loc2896))
#loc4522 = loc("add.26932_decomp_add"(#loc2896))
#loc4523 = loc("add.27085_decomp_matmul"(#loc2927))
#loc4524 = loc("add.27085_decomp_add"(#loc2927))
#loc4525 = loc("add.27152_decomp_matmul"(#loc2932))
#loc4526 = loc("add.27152_decomp_add"(#loc2932))
#loc4527 = loc("add.27305_decomp_matmul"(#loc2965))
#loc4528 = loc("add.27305_decomp_add"(#loc2965))
#loc4529 = loc("add.27372_decomp_matmul"(#loc2970))
#loc4530 = loc("add.27372_decomp_add"(#loc2970))
#loc4531 = loc("add.27525_decomp_matmul"(#loc3001))
#loc4532 = loc("add.27525_decomp_add"(#loc3001))
#loc4533 = loc("add.27592_decomp_matmul"(#loc3006))
#loc4534 = loc("add.27592_decomp_add"(#loc3006))
#loc4535 = loc("add.27745_decomp_matmul"(#loc3039))
#loc4536 = loc("add.27745_decomp_add"(#loc3039))
#loc4537 = loc("add.27812_decomp_matmul"(#loc3044))
#loc4538 = loc("add.27812_decomp_add"(#loc3044))
#loc4539 = loc("add.27965_decomp_matmul"(#loc3075))
#loc4540 = loc("add.27965_decomp_add"(#loc3075))
#loc4541 = loc("add.28032_decomp_matmul"(#loc3080))
#loc4542 = loc("add.28032_decomp_add"(#loc3080))
#loc4543 = loc("add.28185_decomp_matmul"(#loc3113))
#loc4544 = loc("add.28185_decomp_add"(#loc3113))
#loc4545 = loc("add.28252_decomp_matmul"(#loc3118))
#loc4546 = loc("add.28252_decomp_add"(#loc3118))
#loc4547 = loc("add.28405_decomp_matmul"(#loc3149))
#loc4548 = loc("add.28405_decomp_add"(#loc3149))
#loc4549 = loc("add.28472_decomp_matmul"(#loc3154))
#loc4550 = loc("add.28472_decomp_add"(#loc3154))
#loc4551 = loc("add.28625_decomp_matmul"(#loc3187))
#loc4552 = loc("add.28625_decomp_add"(#loc3187))
#loc4553 = loc("add.28692_decomp_matmul"(#loc3192))
#loc4554 = loc("add.28692_decomp_add"(#loc3192))
#loc4555 = loc("add.28845_decomp_matmul"(#loc3223))
#loc4556 = loc("add.28845_decomp_add"(#loc3223))
#loc4557 = loc("add.28912_decomp_matmul"(#loc3228))
#loc4558 = loc("add.28912_decomp_add"(#loc3228))
#loc4559 = loc("add.29065_decomp_matmul"(#loc3261))
#loc4560 = loc("add.29065_decomp_add"(#loc3261))
#loc4561 = loc("add.29132_decomp_matmul"(#loc3266))
#loc4562 = loc("add.29132_decomp_add"(#loc3266))
#loc4563 = loc("add.29285_decomp_matmul"(#loc3297))
#loc4564 = loc("add.29285_decomp_add"(#loc3297))
#loc4565 = loc("add.29352_decomp_matmul"(#loc3302))
#loc4566 = loc("add.29352_decomp_add"(#loc3302))
#loc4567 = loc("add.29505_decomp_matmul"(#loc3335))
#loc4568 = loc("add.29505_decomp_add"(#loc3335))
#loc4569 = loc("add.29572_decomp_matmul"(#loc3340))
#loc4570 = loc("add.29572_decomp_add"(#loc3340))
#loc4571 = loc("add.29725_decomp_matmul"(#loc3371))
#loc4572 = loc("add.29725_decomp_add"(#loc3371))
#loc4573 = loc("add.29792_decomp_matmul"(#loc3376))
#loc4574 = loc("add.29792_decomp_add"(#loc3376))
#loc4575 = loc("add.29945_decomp_matmul"(#loc3409))
#loc4576 = loc("add.29945_decomp_add"(#loc3409))
#loc4577 = loc("add.30012_decomp_matmul"(#loc3414))
#loc4578 = loc("add.30012_decomp_add"(#loc3414))
#loc4579 = loc("add.30165_decomp_matmul"(#loc3445))
#loc4580 = loc("add.30165_decomp_add"(#loc3445))
#loc4581 = loc("add.30232_decomp_matmul"(#loc3450))
#loc4582 = loc("add.30232_decomp_add"(#loc3450))
#loc4583 = loc("add.30385_decomp_matmul"(#loc3483))
#loc4584 = loc("add.30385_decomp_add"(#loc3483))
#loc4585 = loc("add.30452_decomp_matmul"(#loc3488))
#loc4586 = loc("add.30452_decomp_add"(#loc3488))
#loc4587 = loc("add.30605_decomp_matmul"(#loc3519))
#loc4588 = loc("add.30605_decomp_add"(#loc3519))
#loc4589 = loc("add.30672_decomp_matmul"(#loc3524))
#loc4590 = loc("add.30672_decomp_add"(#loc3524))
#loc4591 = loc("add.30825_decomp_matmul"(#loc3557))
#loc4592 = loc("add.30825_decomp_add"(#loc3557))
#loc4593 = loc("add.30892_decomp_matmul"(#loc3562))
#loc4594 = loc("add.30892_decomp_add"(#loc3562))
#loc4595 = loc("add.31045_decomp_matmul"(#loc3593))
#loc4596 = loc("add.31045_decomp_add"(#loc3593))
#loc4597 = loc("add.31112_decomp_matmul"(#loc3598))
#loc4598 = loc("add.31112_decomp_add"(#loc3598))
#loc4599 = loc("add.31265_decomp_matmul"(#loc3631))
#loc4600 = loc("add.31265_decomp_add"(#loc3631))
#loc4601 = loc("add.31332_decomp_matmul"(#loc3636))
#loc4602 = loc("add.31332_decomp_add"(#loc3636))
#loc4603 = loc("add.31485_decomp_matmul"(#loc3667))
#loc4604 = loc("add.31485_decomp_add"(#loc3667))
#loc4605 = loc("add.31552_decomp_matmul"(#loc3672))
#loc4606 = loc("add.31552_decomp_add"(#loc3672))
#loc4607 = loc("add.31705_decomp_matmul"(#loc3705))
#loc4608 = loc("add.31705_decomp_add"(#loc3705))
#loc4609 = loc("add.31772_decomp_matmul"(#loc3710))
#loc4610 = loc("add.31772_decomp_add"(#loc3710))
#loc4611 = loc("add.31925_decomp_matmul"(#loc3741))
#loc4612 = loc("add.31925_decomp_add"(#loc3741))
#loc4613 = loc("add.31992_decomp_matmul"(#loc3746))
#loc4614 = loc("add.31992_decomp_add"(#loc3746))
#loc4615 = loc("add.32145_decomp_matmul"(#loc3779))
#loc4616 = loc("add.32145_decomp_add"(#loc3779))
#loc4617 = loc("add.32212_decomp_matmul"(#loc3784))
#loc4618 = loc("add.32212_decomp_add"(#loc3784))
#loc4619 = loc("add.32365_decomp_matmul"(#loc3815))
#loc4620 = loc("add.32365_decomp_add"(#loc3815))
#loc4621 = loc("add.32432_decomp_matmul"(#loc3820))
#loc4622 = loc("add.32432_decomp_add"(#loc3820))
#loc4623 = loc("add.32585_decomp_matmul"(#loc3853))
#loc4624 = loc("add.32585_decomp_add"(#loc3853))
#loc4625 = loc("add.32652_decomp_matmul"(#loc3858))
#loc4626 = loc("add.32652_decomp_add"(#loc3858))
#loc4627 = loc("add.32805_decomp_matmul"(#loc3889))
#loc4628 = loc("add.32805_decomp_add"(#loc3889))
#loc4629 = loc("add.32872_decomp_matmul"(#loc3894))
#loc4630 = loc("add.32872_decomp_add"(#loc3894))
#loc4631 = loc("add.33025_decomp_matmul"(#loc3927))
#loc4632 = loc("add.33025_decomp_add"(#loc3927))
#loc4633 = loc("add.33092_decomp_matmul"(#loc3932))
#loc4634 = loc("add.33092_decomp_add"(#loc3932))
#loc4635 = loc("add.33245_decomp_matmul"(#loc3963))
#loc4636 = loc("add.33245_decomp_add"(#loc3963))
#loc4637 = loc("add.33312_decomp_matmul"(#loc3968))
#loc4638 = loc("add.33312_decomp_add"(#loc3968))
#loc4639 = loc("add.33465_decomp_matmul"(#loc4001))
#loc4640 = loc("add.33465_decomp_add"(#loc4001))
#loc4641 = loc("add.33532_decomp_matmul"(#loc4006))
#loc4642 = loc("add.33532_decomp_add"(#loc4006))
#loc4643 = loc("add.33685_decomp_matmul"(#loc4036))
#loc4644 = loc("add.33685_decomp_add"(#loc4036))
#loc4645 = loc("add.33752_decomp_matmul"(#loc4041))
#loc4646 = loc("add.33752_decomp_add"(#loc4041))
#loc4647 = loc("add.33801_output_shape_workaround"(#loc4047))
#loc4648 = loc("multiply.61_tm0"(#loc4054))
#loc4649 = loc("add.18820_tm0"(#loc842))
#loc4650 = loc(fused[#loc4155, #loc4156])
#loc4651 = loc("reshape.33795_tm1_tm1"(#loc4160))
#loc4652 = loc("convert.26056_tm0_tm0"(#loc4162))
#loc4653 = loc("broadcast.33803_tm0_tm0"(#loc4165))
#loc4654 = loc("reshape.25999_tm0_tm0"(#loc4167))
#loc4655 = loc("reshape.25999_tm0_tm1"(#loc4167))
#loc4656 = loc("concatenate.25965_tm0_tm0"(#loc4501))
#loc4657 = loc("concatenate.25965_tm0_tm1"(#loc4501))
#loc4658 = loc("concatenate.25965_tm1_tm0"(#loc4502))
#loc4659 = loc("concatenate.25965_tm1_tm1"(#loc4502))
#loc4660 = loc("reshape.26356_tm0_tm0"(#loc4508))
#loc4661 = loc("reshape.26356_tm0_tm1"(#loc4508))
#loc4662 = loc("reshape.26356_tm1_tm1"(#loc4509))
#loc4663 = loc("broadcast.33803_tm0_tm0_tm0"(#loc4653))
#loc4664 = loc("broadcast.33803_tm0_tm0_tm0_tm1"(#loc4663))
#loc4665 = loc("broadcast.33803_tm0_tm0_tm0_tm0"(#loc4663))
