#loc = loc(unknown)
module @SyncTensorsGraph.33801 attributes {mhlo.cross_program_prefetches = [], mhlo.input_output_alias = [], mhlo.is_dynamic = false, mhlo.use_auto_spmd_partitioning = false} {
  func.func @main(%arg0: tensor<1024xf32> loc(unknown), %arg1: tensor<1024x32xf32> loc(unknown), %arg2: tensor<1x32xf32> loc(unknown), %arg3: tensor<1024x32xf32> loc(unknown), %arg4: tensor<32xf32> loc(unknown), %arg5: tensor<32x1024xf32> loc(unknown), %arg6: tensor<1024xf32> loc(unknown), %arg7: tensor<1024x4096xf32> loc(unknown), %arg8: tensor<4096x1024xf32> loc(unknown), %arg9: tensor<1024xf32> loc(unknown), %arg10: tensor<1024x2048xf32> loc(unknown), %arg11: tensor<256x1024xf32> loc(unknown), %arg12: tensor<1024xf32> loc(unknown), %arg13: tensor<1024x4096xf32> loc(unknown), %arg14: tensor<4096x1024xf32> loc(unknown), %arg15: tensor<1024xf32> loc(unknown), %arg16: tensor<1024x2048xf32> loc(unknown), %arg17: tensor<256x1024xf32> loc(unknown), %arg18: tensor<1024xf32> loc(unknown), %arg19: tensor<1024x4096xf32> loc(unknown), %arg20: tensor<4096x1024xf32> loc(unknown), %arg21: tensor<1024xf32> loc(unknown), %arg22: tensor<1024x2048xf32> loc(unknown), %arg23: tensor<256x1024xf32> loc(unknown), %arg24: tensor<1024xf32> loc(unknown), %arg25: tensor<1024x4096xf32> loc(unknown), %arg26: tensor<4096x1024xf32> loc(unknown), %arg27: tensor<1024xf32> loc(unknown), %arg28: tensor<1024x2048xf32> loc(unknown), %arg29: tensor<256x1024xf32> loc(unknown), %arg30: tensor<1024xf32> loc(unknown), %arg31: tensor<1024x4096xf32> loc(unknown), %arg32: tensor<4096x1024xf32> loc(unknown), %arg33: tensor<1024xf32> loc(unknown), %arg34: tensor<1024x2048xf32> loc(unknown), %arg35: tensor<256x1024xf32> loc(unknown), %arg36: tensor<1024xf32> loc(unknown), %arg37: tensor<1024x4096xf32> loc(unknown), %arg38: tensor<4096x1024xf32> loc(unknown), %arg39: tensor<1024xf32> loc(unknown), %arg40: tensor<1024x2048xf32> loc(unknown), %arg41: tensor<256x1024xf32> loc(unknown), %arg42: tensor<1024xf32> loc(unknown), %arg43: tensor<1024x4096xf32> loc(unknown), %arg44: tensor<4096x1024xf32> loc(unknown), %arg45: tensor<1024xf32> loc(unknown), %arg46: tensor<1024x2048xf32> loc(unknown), %arg47: tensor<256x1024xf32> loc(unknown), %arg48: tensor<1024xf32> loc(unknown), %arg49: tensor<1024x4096xf32> loc(unknown), %arg50: tensor<4096x1024xf32> loc(unknown), %arg51: tensor<1024xf32> loc(unknown), %arg52: tensor<1024x2048xf32> loc(unknown), %arg53: tensor<256x1024xf32> loc(unknown), %arg54: tensor<1024xf32> loc(unknown), %arg55: tensor<1024x4096xf32> loc(unknown), %arg56: tensor<4096x1024xf32> loc(unknown), %arg57: tensor<1024xf32> loc(unknown), %arg58: tensor<1024x2048xf32> loc(unknown), %arg59: tensor<256x1024xf32> loc(unknown), %arg60: tensor<1024xf32> loc(unknown), %arg61: tensor<1024x4096xf32> loc(unknown), %arg62: tensor<4096x1024xf32> loc(unknown), %arg63: tensor<1024xf32> loc(unknown), %arg64: tensor<1024x2048xf32> loc(unknown), %arg65: tensor<256x1024xf32> loc(unknown), %arg66: tensor<1024xf32> loc(unknown), %arg67: tensor<1024x4096xf32> loc(unknown), %arg68: tensor<4096x1024xf32> loc(unknown), %arg69: tensor<1024xf32> loc(unknown), %arg70: tensor<1024x2048xf32> loc(unknown), %arg71: tensor<256x1024xf32> loc(unknown), %arg72: tensor<1024xf32> loc(unknown), %arg73: tensor<1024x4096xf32> loc(unknown), %arg74: tensor<4096x1024xf32> loc(unknown), %arg75: tensor<1024xf32> loc(unknown), %arg76: tensor<1024x2048xf32> loc(unknown), %arg77: tensor<256x1024xf32> loc(unknown), %arg78: tensor<1024xf32> loc(unknown), %arg79: tensor<1024x4096xf32> loc(unknown), %arg80: tensor<4096x1024xf32> loc(unknown), %arg81: tensor<1024xf32> loc(unknown), %arg82: tensor<1024x2048xf32> loc(unknown), %arg83: tensor<256x1024xf32> loc(unknown), %arg84: tensor<1024xf32> loc(unknown), %arg85: tensor<1024x4096xf32> loc(unknown), %arg86: tensor<4096x1024xf32> loc(unknown), %arg87: tensor<1024xf32> loc(unknown), %arg88: tensor<1024x2048xf32> loc(unknown), %arg89: tensor<256x1024xf32> loc(unknown), %arg90: tensor<1024xf32> loc(unknown), %arg91: tensor<1024x4096xf32> loc(unknown), %arg92: tensor<4096x1024xf32> loc(unknown), %arg93: tensor<1024xf32> loc(unknown), %arg94: tensor<1024x2048xf32> loc(unknown), %arg95: tensor<256x1024xf32> loc(unknown), %arg96: tensor<1024xf32> loc(unknown), %arg97: tensor<1024x4096xf32> loc(unknown), %arg98: tensor<4096x1024xf32> loc(unknown), %arg99: tensor<1024xf32> loc(unknown), %arg100: tensor<1024x2048xf32> loc(unknown), %arg101: tensor<256x1024xf32> loc(unknown), %arg102: tensor<1024xf32> loc(unknown), %arg103: tensor<1024x4096xf32> loc(unknown), %arg104: tensor<4096x1024xf32> loc(unknown), %arg105: tensor<1024xf32> loc(unknown), %arg106: tensor<1024x2048xf32> loc(unknown), %arg107: tensor<256x1024xf32> loc(unknown), %arg108: tensor<1024xf32> loc(unknown), %arg109: tensor<1024x4096xf32> loc(unknown), %arg110: tensor<4096x1024xf32> loc(unknown), %arg111: tensor<1024xf32> loc(unknown), %arg112: tensor<1024x2048xf32> loc(unknown), %arg113: tensor<256x1024xf32> loc(unknown), %arg114: tensor<1024xf32> loc(unknown), %arg115: tensor<1024xf32> loc(unknown), %arg116: tensor<1024x1024xf32> loc(unknown), %arg117: tensor<1024xf32> loc(unknown), %arg118: tensor<1024x2048xf32> loc(unknown), %arg119: tensor<1024xf32> loc(unknown), %arg120: tensor<1x50x32xf32> loc(unknown), %arg121: tensor<256x2048xf32> loc(unknown), %arg122: tensor<2048xf32> loc(unknown), %arg123: tensor<1x48xi64> loc(unknown), %arg124: tensor<257152x2048xf32> loc(unknown), %arg125: tensor<2048xf32> loc(unknown), %arg126: tensor<2048x1152xf32> loc(unknown), %arg127: tensor<1152xf32> loc(unknown), %arg128: tensor<1152xf32> loc(unknown), %arg129: tensor<1152xf32> loc(unknown), %arg130: tensor<1152x4304xf32> loc(unknown), %arg131: tensor<4304xf32> loc(unknown), %arg132: tensor<4304x1152xf32> loc(unknown), %arg133: tensor<1152xf32> loc(unknown), %arg134: tensor<1152xf32> loc(unknown), %arg135: tensor<1152xf32> loc(unknown), %arg136: tensor<1152x1152xf32> loc(unknown), %arg137: tensor<1152xf32> loc(unknown), %arg138: tensor<1152x1152xf32> loc(unknown), %arg139: tensor<1152xf32> loc(unknown), %arg140: tensor<1152xf32> loc(unknown), %arg141: tensor<1152xf32> loc(unknown), %arg142: tensor<1152x4304xf32> loc(unknown), %arg143: tensor<4304xf32> loc(unknown), %arg144: tensor<4304x1152xf32> loc(unknown), %arg145: tensor<1152xf32> loc(unknown), %arg146: tensor<1152xf32> loc(unknown), %arg147: tensor<1152xf32> loc(unknown), %arg148: tensor<1152x1152xf32> loc(unknown), %arg149: tensor<1152xf32> loc(unknown), %arg150: tensor<1152x1152xf32> loc(unknown), %arg151: tensor<1152xf32> loc(unknown), %arg152: tensor<1152xf32> loc(unknown), %arg153: tensor<1152xf32> loc(unknown), %arg154: tensor<1152x4304xf32> loc(unknown), %arg155: tensor<4304xf32> loc(unknown), %arg156: tensor<4304x1152xf32> loc(unknown), %arg157: tensor<1152xf32> loc(unknown), %arg158: tensor<1152xf32> loc(unknown), %arg159: tensor<1152xf32> loc(unknown), %arg160: tensor<1152x1152xf32> loc(unknown), %arg161: tensor<1152xf32> loc(unknown), %arg162: tensor<1152x1152xf32> loc(unknown), %arg163: tensor<1152xf32> loc(unknown), %arg164: tensor<1152xf32> loc(unknown), %arg165: tensor<1152xf32> loc(unknown), %arg166: tensor<1152x4304xf32> loc(unknown), %arg167: tensor<4304xf32> loc(unknown), %arg168: tensor<4304x1152xf32> loc(unknown), %arg169: tensor<1152xf32> loc(unknown), %arg170: tensor<1152xf32> loc(unknown), %arg171: tensor<1152xf32> loc(unknown), %arg172: tensor<1152x1152xf32> loc(unknown), %arg173: tensor<1152xf32> loc(unknown), %arg174: tensor<1152x1152xf32> loc(unknown), %arg175: tensor<1152xf32> loc(unknown), %arg176: tensor<1152xf32> loc(unknown), %arg177: tensor<1152xf32> loc(unknown), %arg178: tensor<1152x4304xf32> loc(unknown), %arg179: tensor<4304xf32> loc(unknown), %arg180: tensor<4304x1152xf32> loc(unknown), %arg181: tensor<1152xf32> loc(unknown), %arg182: tensor<1152xf32> loc(unknown), %arg183: tensor<1152xf32> loc(unknown), %arg184: tensor<1152x1152xf32> loc(unknown), %arg185: tensor<1152xf32> loc(unknown), %arg186: tensor<1152x1152xf32> loc(unknown), %arg187: tensor<1152xf32> loc(unknown), %arg188: tensor<1152xf32> loc(unknown), %arg189: tensor<1152xf32> loc(unknown), %arg190: tensor<1152x4304xf32> loc(unknown), %arg191: tensor<4304xf32> loc(unknown), %arg192: tensor<4304x1152xf32> loc(unknown), %arg193: tensor<1152xf32> loc(unknown), %arg194: tensor<1152xf32> loc(unknown), %arg195: tensor<1152xf32> loc(unknown), %arg196: tensor<1152x1152xf32> loc(unknown), %arg197: tensor<1152xf32> loc(unknown), %arg198: tensor<1152x1152xf32> loc(unknown), %arg199: tensor<1152xf32> loc(unknown), %arg200: tensor<1152xf32> loc(unknown), %arg201: tensor<1152xf32> loc(unknown), %arg202: tensor<1152x4304xf32> loc(unknown), %arg203: tensor<4304xf32> loc(unknown), %arg204: tensor<4304x1152xf32> loc(unknown), %arg205: tensor<1152xf32> loc(unknown), %arg206: tensor<1152xf32> loc(unknown), %arg207: tensor<1152xf32> loc(unknown), %arg208: tensor<1152x1152xf32> loc(unknown), %arg209: tensor<1152xf32> loc(unknown), %arg210: tensor<1152x1152xf32> loc(unknown), %arg211: tensor<1152xf32> loc(unknown), %arg212: tensor<1152xf32> loc(unknown), %arg213: tensor<1152xf32> loc(unknown), %arg214: tensor<1152x4304xf32> loc(unknown), %arg215: tensor<4304xf32> loc(unknown), %arg216: tensor<4304x1152xf32> loc(unknown), %arg217: tensor<1152xf32> loc(unknown), %arg218: tensor<1152xf32> loc(unknown), %arg219: tensor<1152xf32> loc(unknown), %arg220: tensor<1152x1152xf32> loc(unknown), %arg221: tensor<1152xf32> loc(unknown), %arg222: tensor<1152x1152xf32> loc(unknown), %arg223: tensor<1152xf32> loc(unknown), %arg224: tensor<1152xf32> loc(unknown), %arg225: tensor<1152xf32> loc(unknown), %arg226: tensor<1152x4304xf32> loc(unknown), %arg227: tensor<4304xf32> loc(unknown), %arg228: tensor<4304x1152xf32> loc(unknown), %arg229: tensor<1152xf32> loc(unknown), %arg230: tensor<1152xf32> loc(unknown), %arg231: tensor<1152xf32> loc(unknown), %arg232: tensor<1152x1152xf32> loc(unknown), %arg233: tensor<1152xf32> loc(unknown), %arg234: tensor<1152x1152xf32> loc(unknown), %arg235: tensor<1152xf32> loc(unknown), %arg236: tensor<1152xf32> loc(unknown), %arg237: tensor<1152xf32> loc(unknown), %arg238: tensor<1152x4304xf32> loc(unknown), %arg239: tensor<4304xf32> loc(unknown), %arg240: tensor<4304x1152xf32> loc(unknown), %arg241: tensor<1152xf32> loc(unknown), %arg242: tensor<1152xf32> loc(unknown), %arg243: tensor<1152xf32> loc(unknown), %arg244: tensor<1152x1152xf32> loc(unknown), %arg245: tensor<1152xf32> loc(unknown), %arg246: tensor<1152x1152xf32> loc(unknown), %arg247: tensor<1152xf32> loc(unknown), %arg248: tensor<1152xf32> loc(unknown), %arg249: tensor<1152xf32> loc(unknown), %arg250: tensor<1152x4304xf32> loc(unknown), %arg251: tensor<4304xf32> loc(unknown), %arg252: tensor<4304x1152xf32> loc(unknown), %arg253: tensor<1152xf32> loc(unknown), %arg254: tensor<1152xf32> loc(unknown), %arg255: tensor<1152xf32> loc(unknown), %arg256: tensor<1152x1152xf32> loc(unknown), %arg257: tensor<1152xf32> loc(unknown), %arg258: tensor<1152x1152xf32> loc(unknown), %arg259: tensor<1152xf32> loc(unknown), %arg260: tensor<1152xf32> loc(unknown), %arg261: tensor<1152xf32> loc(unknown), %arg262: tensor<1152x4304xf32> loc(unknown), %arg263: tensor<4304xf32> loc(unknown), %arg264: tensor<4304x1152xf32> loc(unknown), %arg265: tensor<1152xf32> loc(unknown), %arg266: tensor<1152xf32> loc(unknown), %arg267: tensor<1152xf32> loc(unknown), %arg268: tensor<1152x1152xf32> loc(unknown), %arg269: tensor<1152xf32> loc(unknown), %arg270: tensor<1152x1152xf32> loc(unknown), %arg271: tensor<1152xf32> loc(unknown), %arg272: tensor<1152xf32> loc(unknown), %arg273: tensor<1152xf32> loc(unknown), %arg274: tensor<1152x4304xf32> loc(unknown), %arg275: tensor<4304xf32> loc(unknown), %arg276: tensor<4304x1152xf32> loc(unknown), %arg277: tensor<1152xf32> loc(unknown), %arg278: tensor<1152xf32> loc(unknown), %arg279: tensor<1152xf32> loc(unknown), %arg280: tensor<1152x1152xf32> loc(unknown), %arg281: tensor<1152xf32> loc(unknown), %arg282: tensor<1152x1152xf32> loc(unknown), %arg283: tensor<1152xf32> loc(unknown), %arg284: tensor<1152xf32> loc(unknown), %arg285: tensor<1152xf32> loc(unknown), %arg286: tensor<1152x4304xf32> loc(unknown), %arg287: tensor<4304xf32> loc(unknown), %arg288: tensor<4304x1152xf32> loc(unknown), %arg289: tensor<1152xf32> loc(unknown), %arg290: tensor<1152xf32> loc(unknown), %arg291: tensor<1152xf32> loc(unknown), %arg292: tensor<1152x1152xf32> loc(unknown), %arg293: tensor<1152xf32> loc(unknown), %arg294: tensor<1152x1152xf32> loc(unknown), %arg295: tensor<1152xf32> loc(unknown), %arg296: tensor<1152xf32> loc(unknown), %arg297: tensor<1152xf32> loc(unknown), %arg298: tensor<1152x4304xf32> loc(unknown), %arg299: tensor<4304xf32> loc(unknown), %arg300: tensor<4304x1152xf32> loc(unknown), %arg301: tensor<1152xf32> loc(unknown), %arg302: tensor<1152xf32> loc(unknown), %arg303: tensor<1152xf32> loc(unknown), %arg304: tensor<1152x1152xf32> loc(unknown), %arg305: tensor<1152xf32> loc(unknown), %arg306: tensor<1152x1152xf32> loc(unknown), %arg307: tensor<1152xf32> loc(unknown), %arg308: tensor<1152xf32> loc(unknown), %arg309: tensor<1152xf32> loc(unknown), %arg310: tensor<1152x4304xf32> loc(unknown), %arg311: tensor<4304xf32> loc(unknown), %arg312: tensor<4304x1152xf32> loc(unknown), %arg313: tensor<1152xf32> loc(unknown), %arg314: tensor<1152xf32> loc(unknown), %arg315: tensor<1152xf32> loc(unknown), %arg316: tensor<1152x1152xf32> loc(unknown), %arg317: tensor<1152xf32> loc(unknown), %arg318: tensor<1152x1152xf32> loc(unknown), %arg319: tensor<1152xf32> loc(unknown), %arg320: tensor<1152xf32> loc(unknown), %arg321: tensor<1152xf32> loc(unknown), %arg322: tensor<1152x4304xf32> loc(unknown), %arg323: tensor<4304xf32> loc(unknown), %arg324: tensor<4304x1152xf32> loc(unknown), %arg325: tensor<1152xf32> loc(unknown), %arg326: tensor<1152xf32> loc(unknown), %arg327: tensor<1152xf32> loc(unknown), %arg328: tensor<1152x1152xf32> loc(unknown), %arg329: tensor<1152xf32> loc(unknown), %arg330: tensor<1152x1152xf32> loc(unknown), %arg331: tensor<1152xf32> loc(unknown), %arg332: tensor<1152xf32> loc(unknown), %arg333: tensor<1152xf32> loc(unknown), %arg334: tensor<1152x4304xf32> loc(unknown), %arg335: tensor<4304xf32> loc(unknown), %arg336: tensor<4304x1152xf32> loc(unknown), %arg337: tensor<1152xf32> loc(unknown), %arg338: tensor<1152xf32> loc(unknown), %arg339: tensor<1152xf32> loc(unknown), %arg340: tensor<1152x1152xf32> loc(unknown), %arg341: tensor<1152xf32> loc(unknown), %arg342: tensor<1152x1152xf32> loc(unknown), %arg343: tensor<1152xf32> loc(unknown), %arg344: tensor<1152xf32> loc(unknown), %arg345: tensor<1152xf32> loc(unknown), %arg346: tensor<1152x4304xf32> loc(unknown), %arg347: tensor<4304xf32> loc(unknown), %arg348: tensor<4304x1152xf32> loc(unknown), %arg349: tensor<1152xf32> loc(unknown), %arg350: tensor<1152xf32> loc(unknown), %arg351: tensor<1152xf32> loc(unknown), %arg352: tensor<1152x1152xf32> loc(unknown), %arg353: tensor<1152xf32> loc(unknown), %arg354: tensor<1152x1152xf32> loc(unknown), %arg355: tensor<1152xf32> loc(unknown), %arg356: tensor<1152xf32> loc(unknown), %arg357: tensor<1152xf32> loc(unknown), %arg358: tensor<1152x4304xf32> loc(unknown), %arg359: tensor<4304xf32> loc(unknown), %arg360: tensor<4304x1152xf32> loc(unknown), %arg361: tensor<1152xf32> loc(unknown), %arg362: tensor<1152xf32> loc(unknown), %arg363: tensor<1152xf32> loc(unknown), %arg364: tensor<1152x1152xf32> loc(unknown), %arg365: tensor<1152xf32> loc(unknown), %arg366: tensor<1152x1152xf32> loc(unknown), %arg367: tensor<1152xf32> loc(unknown), %arg368: tensor<1152xf32> loc(unknown), %arg369: tensor<1152xf32> loc(unknown), %arg370: tensor<1152x4304xf32> loc(unknown), %arg371: tensor<4304xf32> loc(unknown), %arg372: tensor<4304x1152xf32> loc(unknown), %arg373: tensor<1152xf32> loc(unknown), %arg374: tensor<1152xf32> loc(unknown), %arg375: tensor<1152xf32> loc(unknown), %arg376: tensor<1152x1152xf32> loc(unknown), %arg377: tensor<1152xf32> loc(unknown), %arg378: tensor<1152x1152xf32> loc(unknown), %arg379: tensor<1152xf32> loc(unknown), %arg380: tensor<1152xf32> loc(unknown), %arg381: tensor<1152xf32> loc(unknown), %arg382: tensor<1152x4304xf32> loc(unknown), %arg383: tensor<4304xf32> loc(unknown), %arg384: tensor<4304x1152xf32> loc(unknown), %arg385: tensor<1152xf32> loc(unknown), %arg386: tensor<1152xf32> loc(unknown), %arg387: tensor<1152xf32> loc(unknown), %arg388: tensor<1152x1152xf32> loc(unknown), %arg389: tensor<1152xf32> loc(unknown), %arg390: tensor<1152x1152xf32> loc(unknown), %arg391: tensor<1152xf32> loc(unknown), %arg392: tensor<1152xf32> loc(unknown), %arg393: tensor<1152xf32> loc(unknown), %arg394: tensor<1152x4304xf32> loc(unknown), %arg395: tensor<4304xf32> loc(unknown), %arg396: tensor<4304x1152xf32> loc(unknown), %arg397: tensor<1152xf32> loc(unknown), %arg398: tensor<1152xf32> loc(unknown), %arg399: tensor<1152xf32> loc(unknown), %arg400: tensor<1152x1152xf32> loc(unknown), %arg401: tensor<1152xf32> loc(unknown), %arg402: tensor<1152x1152xf32> loc(unknown), %arg403: tensor<1152xf32> loc(unknown), %arg404: tensor<1152xf32> loc(unknown), %arg405: tensor<1152xf32> loc(unknown), %arg406: tensor<1152x4304xf32> loc(unknown), %arg407: tensor<4304xf32> loc(unknown), %arg408: tensor<4304x1152xf32> loc(unknown), %arg409: tensor<1152xf32> loc(unknown), %arg410: tensor<1152xf32> loc(unknown), %arg411: tensor<1152xf32> loc(unknown), %arg412: tensor<1152x1152xf32> loc(unknown), %arg413: tensor<1152xf32> loc(unknown), %arg414: tensor<1152x1152xf32> loc(unknown), %arg415: tensor<1152xf32> loc(unknown), %arg416: tensor<1152xf32> loc(unknown), %arg417: tensor<1152xf32> loc(unknown), %arg418: tensor<1152x4304xf32> loc(unknown), %arg419: tensor<4304xf32> loc(unknown), %arg420: tensor<4304x1152xf32> loc(unknown), %arg421: tensor<1152xf32> loc(unknown), %arg422: tensor<1152xf32> loc(unknown), %arg423: tensor<1152xf32> loc(unknown), %arg424: tensor<1152x1152xf32> loc(unknown), %arg425: tensor<1152xf32> loc(unknown), %arg426: tensor<1152x1152xf32> loc(unknown), %arg427: tensor<1152xf32> loc(unknown), %arg428: tensor<1152xf32> loc(unknown), %arg429: tensor<1152xf32> loc(unknown), %arg430: tensor<1152x4304xf32> loc(unknown), %arg431: tensor<4304xf32> loc(unknown), %arg432: tensor<4304x1152xf32> loc(unknown), %arg433: tensor<1152xf32> loc(unknown), %arg434: tensor<1152xf32> loc(unknown), %arg435: tensor<1152xf32> loc(unknown), %arg436: tensor<1152x1152xf32> loc(unknown), %arg437: tensor<1152xf32> loc(unknown), %arg438: tensor<1152x1152xf32> loc(unknown), %arg439: tensor<1152xf32> loc(unknown), %arg440: tensor<1152xf32> loc(unknown), %arg441: tensor<1152xf32> loc(unknown), %arg442: tensor<1152x4304xf32> loc(unknown), %arg443: tensor<4304xf32> loc(unknown), %arg444: tensor<4304x1152xf32> loc(unknown), %arg445: tensor<1152xf32> loc(unknown), %arg446: tensor<1152xf32> loc(unknown), %arg447: tensor<1152xf32> loc(unknown), %arg448: tensor<1152x1152xf32> loc(unknown), %arg449: tensor<1152xf32> loc(unknown), %arg450: tensor<1152x1152xf32> loc(unknown), %arg451: tensor<1152xf32> loc(unknown), %arg452: tensor<1152xf32> loc(unknown), %arg453: tensor<1x256xi64> loc(unknown), %arg454: tensor<256x1152xf32> loc(unknown), %arg455: tensor<1152xf32> loc(unknown), %arg456: tensor<1152x3x14x14xf32> loc(unknown), %arg457: tensor<1x3x224x224xf32> loc(unknown), %arg458: tensor<1152xf32> loc(unknown), %arg459: tensor<1152x1152xf32> loc(unknown), %arg460: tensor<1152xf32> loc(unknown), %arg461: tensor<1152x1152xf32> loc(unknown), %arg462: tensor<1152xf32> loc(unknown), %arg463: tensor<1152x1152xf32> loc(unknown), %arg464: tensor<1152xf32> loc(unknown), %arg465: tensor<1152x1152xf32> loc(unknown), %arg466: tensor<1152xf32> loc(unknown), %arg467: tensor<1152x1152xf32> loc(unknown), %arg468: tensor<1152xf32> loc(unknown), %arg469: tensor<1152x1152xf32> loc(unknown), %arg470: tensor<1152xf32> loc(unknown), %arg471: tensor<1152x1152xf32> loc(unknown), %arg472: tensor<1152xf32> loc(unknown), %arg473: tensor<1152x1152xf32> loc(unknown), %arg474: tensor<1152xf32> loc(unknown), %arg475: tensor<1152x1152xf32> loc(unknown), %arg476: tensor<1152xf32> loc(unknown), %arg477: tensor<1152x1152xf32> loc(unknown), %arg478: tensor<1152xf32> loc(unknown), %arg479: tensor<1152x1152xf32> loc(unknown), %arg480: tensor<1152xf32> loc(unknown), %arg481: tensor<1152x1152xf32> loc(unknown), %arg482: tensor<1152xf32> loc(unknown), %arg483: tensor<1152x1152xf32> loc(unknown), %arg484: tensor<1152xf32> loc(unknown), %arg485: tensor<1152x1152xf32> loc(unknown), %arg486: tensor<1152xf32> loc(unknown), %arg487: tensor<1152x1152xf32> loc(unknown), %arg488: tensor<1152xf32> loc(unknown), %arg489: tensor<1152x1152xf32> loc(unknown), %arg490: tensor<1152xf32> loc(unknown), %arg491: tensor<1152x1152xf32> loc(unknown), %arg492: tensor<1152xf32> loc(unknown), %arg493: tensor<1152x1152xf32> loc(unknown), %arg494: tensor<1152xf32> loc(unknown), %arg495: tensor<1152x1152xf32> loc(unknown), %arg496: tensor<1152xf32> loc(unknown), %arg497: tensor<1152x1152xf32> loc(unknown), %arg498: tensor<1152xf32> loc(unknown), %arg499: tensor<1152x1152xf32> loc(unknown), %arg500: tensor<1152xf32> loc(unknown), %arg501: tensor<1152x1152xf32> loc(unknown), %arg502: tensor<1152xf32> loc(unknown), %arg503: tensor<1152x1152xf32> loc(unknown), %arg504: tensor<1152xf32> loc(unknown), %arg505: tensor<1152x1152xf32> loc(unknown), %arg506: tensor<1152xf32> loc(unknown), %arg507: tensor<1152x1152xf32> loc(unknown), %arg508: tensor<1152xf32> loc(unknown), %arg509: tensor<1152x1152xf32> loc(unknown), %arg510: tensor<1152xf32> loc(unknown), %arg511: tensor<1152x1152xf32> loc(unknown), %arg512: tensor<1152xf32> loc(unknown), %arg513: tensor<1152x1152xf32> loc(unknown), %arg514: tensor<1152xf32> loc(unknown), %arg515: tensor<1152x1152xf32> loc(unknown), %arg516: tensor<1152xf32> loc(unknown), %arg517: tensor<1152x1152xf32> loc(unknown), %arg518: tensor<1152xf32> loc(unknown), %arg519: tensor<1152x1152xf32> loc(unknown), %arg520: tensor<1152xf32> loc(unknown), %arg521: tensor<1152x1152xf32> loc(unknown), %arg522: tensor<1152xf32> loc(unknown), %arg523: tensor<1152x1152xf32> loc(unknown), %arg524: tensor<1152xf32> loc(unknown), %arg525: tensor<1152x1152xf32> loc(unknown), %arg526: tensor<1152xf32> loc(unknown), %arg527: tensor<1152x1152xf32> loc(unknown), %arg528: tensor<1152xf32> loc(unknown), %arg529: tensor<1152x1152xf32> loc(unknown), %arg530: tensor<1152xf32> loc(unknown), %arg531: tensor<1152x1152xf32> loc(unknown), %arg532: tensor<1152xf32> loc(unknown), %arg533: tensor<1152x1152xf32> loc(unknown), %arg534: tensor<1152xf32> loc(unknown), %arg535: tensor<1152x1152xf32> loc(unknown), %arg536: tensor<1152xf32> loc(unknown), %arg537: tensor<1152x1152xf32> loc(unknown), %arg538: tensor<1152xf32> loc(unknown), %arg539: tensor<1152x1152xf32> loc(unknown), %arg540: tensor<1152xf32> loc(unknown), %arg541: tensor<1152x1152xf32> loc(unknown), %arg542: tensor<1152xf32> loc(unknown), %arg543: tensor<1152x1152xf32> loc(unknown), %arg544: tensor<1152xf32> loc(unknown), %arg545: tensor<1152x1152xf32> loc(unknown), %arg546: tensor<1152xf32> loc(unknown), %arg547: tensor<1152x1152xf32> loc(unknown), %arg548: tensor<1152xf32> loc(unknown), %arg549: tensor<1152x1152xf32> loc(unknown), %arg550: tensor<1152xf32> loc(unknown), %arg551: tensor<1152x1152xf32> loc(unknown), %arg552: tensor<1152xf32> loc(unknown), %arg553: tensor<1152x1152xf32> loc(unknown), %arg554: tensor<1152xf32> loc(unknown), %arg555: tensor<1152x1152xf32> loc(unknown), %arg556: tensor<1152xf32> loc(unknown), %arg557: tensor<1152x1152xf32> loc(unknown), %arg558: tensor<1152xf32> loc(unknown), %arg559: tensor<1152x1152xf32> loc(unknown), %arg560: tensor<1152xf32> loc(unknown), %arg561: tensor<1152x1152xf32> loc(unknown), %arg562: tensor<1152xf32> loc(unknown), %arg563: tensor<1152x1152xf32> loc(unknown), %arg564: tensor<1152xf32> loc(unknown), %arg565: tensor<1152x1152xf32> loc(unknown), %arg566: tensor<1x3x224x224xf32> loc(unknown), %arg567: tensor<1x3x224x224xf32> loc(unknown), %arg568: tensor<i1> loc(unknown), %arg569: tensor<51xf32> loc(unknown), %arg570: tensor<1x48xi1> loc(unknown), %arg571: tensor<1xi1> loc(unknown), %arg572: tensor<1xi1> loc(unknown), %arg573: tensor<1xi1> loc(unknown), %arg574: tensor<128xf32> loc(unknown), %arg575: tensor<256x1024xf32> loc(unknown), %arg576: tensor<128xf32> loc(unknown), %arg577: tensor<256x2048xf32> loc(unknown), %arg578: tensor<2048x1024xf32> loc(unknown), %arg579: tensor<4096x1024xf32> loc(unknown), %arg580: tensor<256x2048xf32> loc(unknown), %arg581: tensor<2048xf32> loc(unknown), %arg582: tensor<2048x16384xf32> loc(unknown), %arg583: tensor<16384x2048xf32> loc(unknown), %arg584: tensor<2048xf32> loc(unknown), %arg585: tensor<2048x2048xf32> loc(unknown), %arg586: tensor<816xi1> loc(unknown), %arg587: tensor<2048x2048xf32> loc(unknown), %arg588: tensor<16384x2048xf32> loc(unknown), %arg589: tensor<256x1024xf32> loc(unknown), %arg590: tensor<256x2048xf32> loc(unknown), %arg591: tensor<2048x1024xf32> loc(unknown), %arg592: tensor<4096x1024xf32> loc(unknown), %arg593: tensor<256x2048xf32> loc(unknown), %arg594: tensor<2048xf32> loc(unknown), %arg595: tensor<2048x16384xf32> loc(unknown), %arg596: tensor<16384x2048xf32> loc(unknown), %arg597: tensor<2048xf32> loc(unknown), %arg598: tensor<2048x2048xf32> loc(unknown), %arg599: tensor<2048x2048xf32> loc(unknown), %arg600: tensor<16384x2048xf32> loc(unknown), %arg601: tensor<256x1024xf32> loc(unknown), %arg602: tensor<256x2048xf32> loc(unknown), %arg603: tensor<2048x1024xf32> loc(unknown), %arg604: tensor<4096x1024xf32> loc(unknown), %arg605: tensor<256x2048xf32> loc(unknown), %arg606: tensor<2048xf32> loc(unknown), %arg607: tensor<2048x16384xf32> loc(unknown), %arg608: tensor<16384x2048xf32> loc(unknown), %arg609: tensor<2048xf32> loc(unknown), %arg610: tensor<2048x2048xf32> loc(unknown), %arg611: tensor<2048x2048xf32> loc(unknown), %arg612: tensor<16384x2048xf32> loc(unknown), %arg613: tensor<256x1024xf32> loc(unknown), %arg614: tensor<256x2048xf32> loc(unknown), %arg615: tensor<2048x1024xf32> loc(unknown), %arg616: tensor<4096x1024xf32> loc(unknown), %arg617: tensor<256x2048xf32> loc(unknown), %arg618: tensor<2048xf32> loc(unknown), %arg619: tensor<2048x16384xf32> loc(unknown), %arg620: tensor<16384x2048xf32> loc(unknown), %arg621: tensor<2048xf32> loc(unknown), %arg622: tensor<2048x2048xf32> loc(unknown), %arg623: tensor<2048x2048xf32> loc(unknown), %arg624: tensor<16384x2048xf32> loc(unknown), %arg625: tensor<256x1024xf32> loc(unknown), %arg626: tensor<256x2048xf32> loc(unknown), %arg627: tensor<2048x1024xf32> loc(unknown), %arg628: tensor<4096x1024xf32> loc(unknown), %arg629: tensor<256x2048xf32> loc(unknown), %arg630: tensor<2048xf32> loc(unknown), %arg631: tensor<2048x16384xf32> loc(unknown), %arg632: tensor<16384x2048xf32> loc(unknown), %arg633: tensor<2048xf32> loc(unknown), %arg634: tensor<2048x2048xf32> loc(unknown), %arg635: tensor<2048x2048xf32> loc(unknown), %arg636: tensor<16384x2048xf32> loc(unknown), %arg637: tensor<256x1024xf32> loc(unknown), %arg638: tensor<256x2048xf32> loc(unknown), %arg639: tensor<2048x1024xf32> loc(unknown), %arg640: tensor<4096x1024xf32> loc(unknown), %arg641: tensor<256x2048xf32> loc(unknown), %arg642: tensor<2048xf32> loc(unknown), %arg643: tensor<2048x16384xf32> loc(unknown), %arg644: tensor<16384x2048xf32> loc(unknown), %arg645: tensor<2048xf32> loc(unknown), %arg646: tensor<2048x2048xf32> loc(unknown), %arg647: tensor<2048x2048xf32> loc(unknown), %arg648: tensor<16384x2048xf32> loc(unknown), %arg649: tensor<256x1024xf32> loc(unknown), %arg650: tensor<256x2048xf32> loc(unknown), %arg651: tensor<2048x1024xf32> loc(unknown), %arg652: tensor<4096x1024xf32> loc(unknown), %arg653: tensor<256x2048xf32> loc(unknown), %arg654: tensor<2048xf32> loc(unknown), %arg655: tensor<2048x16384xf32> loc(unknown), %arg656: tensor<16384x2048xf32> loc(unknown), %arg657: tensor<2048xf32> loc(unknown), %arg658: tensor<2048x2048xf32> loc(unknown), %arg659: tensor<2048x2048xf32> loc(unknown), %arg660: tensor<16384x2048xf32> loc(unknown), %arg661: tensor<256x1024xf32> loc(unknown), %arg662: tensor<256x2048xf32> loc(unknown), %arg663: tensor<2048x1024xf32> loc(unknown), %arg664: tensor<4096x1024xf32> loc(unknown), %arg665: tensor<256x2048xf32> loc(unknown), %arg666: tensor<2048xf32> loc(unknown), %arg667: tensor<2048x16384xf32> loc(unknown), %arg668: tensor<16384x2048xf32> loc(unknown), %arg669: tensor<2048xf32> loc(unknown), %arg670: tensor<2048x2048xf32> loc(unknown), %arg671: tensor<2048x2048xf32> loc(unknown), %arg672: tensor<16384x2048xf32> loc(unknown), %arg673: tensor<256x1024xf32> loc(unknown), %arg674: tensor<256x2048xf32> loc(unknown), %arg675: tensor<2048x1024xf32> loc(unknown), %arg676: tensor<4096x1024xf32> loc(unknown), %arg677: tensor<256x2048xf32> loc(unknown), %arg678: tensor<2048xf32> loc(unknown), %arg679: tensor<2048x16384xf32> loc(unknown), %arg680: tensor<16384x2048xf32> loc(unknown), %arg681: tensor<2048xf32> loc(unknown), %arg682: tensor<2048x2048xf32> loc(unknown), %arg683: tensor<2048x2048xf32> loc(unknown), %arg684: tensor<16384x2048xf32> loc(unknown), %arg685: tensor<256x1024xf32> loc(unknown), %arg686: tensor<256x2048xf32> loc(unknown), %arg687: tensor<2048x1024xf32> loc(unknown), %arg688: tensor<4096x1024xf32> loc(unknown), %arg689: tensor<256x2048xf32> loc(unknown), %arg690: tensor<2048xf32> loc(unknown), %arg691: tensor<2048x16384xf32> loc(unknown), %arg692: tensor<16384x2048xf32> loc(unknown), %arg693: tensor<2048xf32> loc(unknown), %arg694: tensor<2048x2048xf32> loc(unknown), %arg695: tensor<2048x2048xf32> loc(unknown), %arg696: tensor<16384x2048xf32> loc(unknown), %arg697: tensor<256x1024xf32> loc(unknown), %arg698: tensor<256x2048xf32> loc(unknown), %arg699: tensor<2048x1024xf32> loc(unknown), %arg700: tensor<4096x1024xf32> loc(unknown), %arg701: tensor<256x2048xf32> loc(unknown), %arg702: tensor<2048xf32> loc(unknown), %arg703: tensor<2048x16384xf32> loc(unknown), %arg704: tensor<16384x2048xf32> loc(unknown), %arg705: tensor<2048xf32> loc(unknown), %arg706: tensor<2048x2048xf32> loc(unknown), %arg707: tensor<2048x2048xf32> loc(unknown), %arg708: tensor<16384x2048xf32> loc(unknown), %arg709: tensor<256x1024xf32> loc(unknown), %arg710: tensor<256x2048xf32> loc(unknown), %arg711: tensor<2048x1024xf32> loc(unknown), %arg712: tensor<4096x1024xf32> loc(unknown), %arg713: tensor<256x2048xf32> loc(unknown), %arg714: tensor<2048xf32> loc(unknown), %arg715: tensor<2048x16384xf32> loc(unknown), %arg716: tensor<16384x2048xf32> loc(unknown), %arg717: tensor<2048xf32> loc(unknown), %arg718: tensor<2048x2048xf32> loc(unknown), %arg719: tensor<2048x2048xf32> loc(unknown), %arg720: tensor<16384x2048xf32> loc(unknown), %arg721: tensor<256x1024xf32> loc(unknown), %arg722: tensor<256x2048xf32> loc(unknown), %arg723: tensor<2048x1024xf32> loc(unknown), %arg724: tensor<4096x1024xf32> loc(unknown), %arg725: tensor<256x2048xf32> loc(unknown), %arg726: tensor<2048xf32> loc(unknown), %arg727: tensor<2048x16384xf32> loc(unknown), %arg728: tensor<16384x2048xf32> loc(unknown), %arg729: tensor<2048xf32> loc(unknown), %arg730: tensor<2048x2048xf32> loc(unknown), %arg731: tensor<2048x2048xf32> loc(unknown), %arg732: tensor<16384x2048xf32> loc(unknown), %arg733: tensor<256x1024xf32> loc(unknown), %arg734: tensor<256x2048xf32> loc(unknown), %arg735: tensor<2048x1024xf32> loc(unknown), %arg736: tensor<4096x1024xf32> loc(unknown), %arg737: tensor<256x2048xf32> loc(unknown), %arg738: tensor<2048xf32> loc(unknown), %arg739: tensor<2048x16384xf32> loc(unknown), %arg740: tensor<16384x2048xf32> loc(unknown), %arg741: tensor<2048xf32> loc(unknown), %arg742: tensor<2048x2048xf32> loc(unknown), %arg743: tensor<2048x2048xf32> loc(unknown), %arg744: tensor<16384x2048xf32> loc(unknown), %arg745: tensor<256x1024xf32> loc(unknown), %arg746: tensor<256x2048xf32> loc(unknown), %arg747: tensor<2048x1024xf32> loc(unknown), %arg748: tensor<4096x1024xf32> loc(unknown), %arg749: tensor<256x2048xf32> loc(unknown), %arg750: tensor<2048xf32> loc(unknown), %arg751: tensor<2048x16384xf32> loc(unknown), %arg752: tensor<16384x2048xf32> loc(unknown), %arg753: tensor<2048xf32> loc(unknown), %arg754: tensor<2048x2048xf32> loc(unknown), %arg755: tensor<2048x2048xf32> loc(unknown), %arg756: tensor<16384x2048xf32> loc(unknown), %arg757: tensor<256x1024xf32> loc(unknown), %arg758: tensor<256x2048xf32> loc(unknown), %arg759: tensor<2048x1024xf32> loc(unknown), %arg760: tensor<4096x1024xf32> loc(unknown), %arg761: tensor<256x2048xf32> loc(unknown), %arg762: tensor<2048xf32> loc(unknown), %arg763: tensor<2048x16384xf32> loc(unknown), %arg764: tensor<16384x2048xf32> loc(unknown), %arg765: tensor<2048xf32> loc(unknown), %arg766: tensor<2048x2048xf32> loc(unknown), %arg767: tensor<2048x2048xf32> loc(unknown), %arg768: tensor<16384x2048xf32> loc(unknown), %arg769: tensor<256x1024xf32> loc(unknown), %arg770: tensor<256x2048xf32> loc(unknown), %arg771: tensor<2048x1024xf32> loc(unknown), %arg772: tensor<4096x1024xf32> loc(unknown), %arg773: tensor<256x2048xf32> loc(unknown), %arg774: tensor<2048xf32> loc(unknown), %arg775: tensor<2048x16384xf32> loc(unknown), %arg776: tensor<16384x2048xf32> loc(unknown), %arg777: tensor<2048xf32> loc(unknown), %arg778: tensor<2048x2048xf32> loc(unknown), %arg779: tensor<2048x2048xf32> loc(unknown), %arg780: tensor<16384x2048xf32> loc(unknown), %arg781: tensor<256x1024xf32> loc(unknown), %arg782: tensor<256x2048xf32> loc(unknown), %arg783: tensor<2048x1024xf32> loc(unknown), %arg784: tensor<4096x1024xf32> loc(unknown)) -> tensor<1x50x1024xf32> {
    %cst = stablehlo.constant dense<5.000000e-01> : tensor<1x512xf64> loc(#loc)
    %cst_0 = stablehlo.constant dense<-5.000000e-01> : tensor<1x50x32xf32> loc(#loc)
    %cst_1 = stablehlo.constant dense<-2.38197633E+38> : tensor<1x1x816x816xf32> loc(#loc)
    %cst_2 = stablehlo.constant dense<0.000000e+00> : tensor<1x1x816x816xf32> loc(#loc)
    %cst_3 = stablehlo.constant dense<6.250000e-02> : tensor<1x8x816x816xf32> loc(#loc)
    %cst_4 = stablehlo.constant dense<-2.38197633E+38> : tensor<1x1x51x867xf32> loc(#loc)
    %cst_5 = stablehlo.constant dense<0.000000e+00> : tensor<1x1x51x867xf32> loc(#loc)
    %cst_6 = stablehlo.constant dense<6.250000e-02> : tensor<1x8x51x867xf32> loc(#loc)
    %c = stablehlo.constant dense<1> : tensor<1x816xi64> loc(#loc)
    %cst_7 = stablehlo.constant dense<1.000000e+00> : tensor<2048xf32> loc(#loc)
    %cst_8 = stablehlo.constant dense<9.99999997E-7> : tensor<1x816x1xf32> loc(#loc)
    %cst_9 = stablehlo.constant dense<4.8828125E-4> : tensor<1x816xf32> loc(#loc)
    %cst_10 = stablehlo.constant dense<2.000000e+00> : tensor<1x816x2048xf32> loc(#loc)
    %cst_11 = stablehlo.constant dense<45.2548332> : tensor<1x48x2048xf32> loc(#loc)
    %cst_12 = stablehlo.constant dense<0.117851131> : tensor<1x16x256x256xf32> loc(#loc)
    %c_13 = stablehlo.constant dense<1> : tensor<1x51xi64> loc(#loc)
    %cst_14 = stablehlo.constant dense<1.000000e+00> : tensor<1024xf32> loc(#loc)
    %cst_15 = stablehlo.constant dense<9.99999997E-7> : tensor<1x51x1xf32> loc(#loc)
    %cst_16 = stablehlo.constant dense<9.765625E-4> : tensor<1x51xf32> loc(#loc)
    %cst_17 = stablehlo.constant dense<2.000000e+00> : tensor<1x51x1024xf32> loc(#loc)
    %cst_18 = stablehlo.constant dense<3.1415926535897931> : tensor<512xf64> loc(#loc)
    %cst_19 = stablehlo.constant dense<2.000000e+00> : tensor<512xf64> loc(#loc)
    %cst_20 = stablehlo.constant dense<4.000000e-03> : tensor<512xf64> loc(#loc)
    %cst_21 = stablehlo.constant dense<"…"> : tensor<512xf64> loc(#loc)
    %cst_22 = stablehlo.constant dense<"…"> : tensor<512xf64> loc(#loc)
    %c_23 = stablehlo.constant dense<"…"> : tensor<512xi1> loc(#loc)
    %cst_24 = stablehlo.constant dense<1.000000e+03> : tensor<512xf64> loc(#loc)
    %cst_25 = stablehlo.constant dense<1.000000e+00> : tensor<512xf64> loc(#loc)
    %cst_26 = stablehlo.constant dense<9.99999971E-10> : tensor<f32> loc(#loc)
    %cst_27 = stablehlo.constant dense<0xFF800000> : tensor<f32> loc(#loc)
    %c_28 = stablehlo.constant dense<0> : tensor<i64> loc(#loc)
    %cst_29 = stablehlo.constant dense<0.000000e+00> : tensor<f32> loc(#loc)
    %0 = stablehlo.reshape %arg2 : (tensor<1x32xf32>) -> tensor<1x1x32xf32> loc(#loc)
    %1 = stablehlo.reshape %0 : (tensor<1x1x32xf32>) -> tensor<1x32xf32> loc(#loc)
    %2 = stablehlo.reshape %arg1 : (tensor<1024x32xf32>) -> tensor<1x1024x32xf32> loc(#loc)
    %3 = stablehlo.reshape %2 : (tensor<1x1024x32xf32>) -> tensor<1024x32xf32> loc(#loc)
    %4 = stablehlo.transpose %3, dims = [1, 0] {result_layout = dense<[0, 1]> : tensor<2xindex>, xla_shape = "f32[32,1024]{0,1}"} : (tensor<1024x32xf32>) -> tensor<32x1024xf32> loc(#loc)
    %5 = stablehlo.dot_general %1, %4, contracting_dims = [1] x [0] : (tensor<1x32xf32>, tensor<32x1024xf32>) -> tensor<1x1024xf32> loc(#loc)
    %6 = stablehlo.reshape %arg0 : (tensor<1024xf32>) -> tensor<1x1x1024xf32> loc(#loc)
    %7 = stablehlo.reshape %6 : (tensor<1x1x1024xf32>) -> tensor<1x1024xf32> loc(#loc)
    %8 = stablehlo.add %5, %7 : tensor<1x1024xf32> loc(#loc)
    %9 = stablehlo.reshape %8 : (tensor<1x1024xf32>) -> tensor<1x1x1024xf32> loc(#loc)
    %10 = stablehlo.reshape %arg120 : (tensor<1x50x32xf32>) -> tensor<50x32xf32> loc(#loc)
    %11 = stablehlo.reshape %arg3 : (tensor<1024x32xf32>) -> tensor<1x1024x32xf32> loc(#loc)
    %12 = stablehlo.reshape %11 : (tensor<1x1024x32xf32>) -> tensor<1024x32xf32> loc(#loc)
    %13 = stablehlo.transpose %12, dims = [1, 0] {result_layout = dense<[0, 1]> : tensor<2xindex>, xla_shape = "f32[32,1024]{0,1}"} : (tensor<1024x32xf32>) -> tensor<32x1024xf32> loc(#loc)
    %14 = stablehlo.dot_general %10, %13, contracting_dims = [1] x [0] : (tensor<50x32xf32>, tensor<32x1024xf32>) -> tensor<50x1024xf32> loc(#loc)
    %15 = stablehlo.reshape %14 : (tensor<50x1024xf32>) -> tensor<1x50x1024xf32> loc(#loc)
    %16 = stablehlo.reshape %arg119 : (tensor<1024xf32>) -> tensor<1x1x1024xf32> loc(#loc)
    %17 = stablehlo.reshape %16 : (tensor<1x1x1024xf32>) -> tensor<1024xf32> loc(#loc)
    %18 = stablehlo.broadcast_in_dim %17, dims = [2] : (tensor<1024xf32>) -> tensor<1x50x1024xf32> loc(#loc)
    %19 = stablehlo.add %15, %18 : tensor<1x50x1024xf32> loc(#loc)
    %20 = stablehlo.select %c_23, %cst_22, %cst_21 : tensor<512xi1>, tensor<512xf64> loc(#loc)
    %21 = stablehlo.power %cst_24, %20 : tensor<512xf64> loc(#loc)
    %22 = stablehlo.multiply %21, %cst_20 : tensor<512xf64> loc(#loc)
    %23 = stablehlo.divide %cst_25, %22 : tensor<512xf64> loc(#loc)
    %24 = stablehlo.multiply %23, %cst_19 : tensor<512xf64> loc(#loc)
    %25 = stablehlo.multiply %24, %cst_18 : tensor<512xf64> loc(#loc)
    %26 = stablehlo.reshape %25 : (tensor<512xf64>) -> tensor<1x512xf64> loc(#loc)
    %27 = stablehlo.sine %26 : tensor<1x512xf64> loc(#loc)
    %28 = stablehlo.cosine %26 : tensor<1x512xf64> loc(#loc)
    %29 = stablehlo.concatenate %27, %28, dim = 1 : (tensor<1x512xf64>, tensor<1x512xf64>) -> tensor<1x1024xf64> loc(#loc)
    %30 = stablehlo.convert %29 : (tensor<1x1024xf64>) -> tensor<1x1024xf32> loc(#loc)
    %31 = stablehlo.broadcast_in_dim %30, dims = [0, 2] : (tensor<1x1024xf32>) -> tensor<1x50x1024xf32> loc(#loc)
    %32 = stablehlo.concatenate %19, %31, dim = 2 : (tensor<1x50x1024xf32>, tensor<1x50x1024xf32>) -> tensor<1x50x2048xf32> loc(#loc)
    %33 = stablehlo.reshape %32 : (tensor<1x50x2048xf32>) -> tensor<50x2048xf32> loc(#loc)
    %34 = stablehlo.reshape %arg118 : (tensor<1024x2048xf32>) -> tensor<1x1024x2048xf32> loc(#loc)
    %35 = stablehlo.reshape %34 : (tensor<1x1024x2048xf32>) -> tensor<1024x2048xf32> loc(#loc)
    %36 = stablehlo.transpose %35, dims = [1, 0] {result_layout = dense<[0, 1]> : tensor<2xindex>, xla_shape = "f32[2048,1024]{0,1}"} : (tensor<1024x2048xf32>) -> tensor<2048x1024xf32> loc(#loc)
    %37 = stablehlo.dot_general %33, %36, contracting_dims = [1] x [0] : (tensor<50x2048xf32>, tensor<2048x1024xf32>) -> tensor<50x1024xf32> loc(#loc)
    %38 = stablehlo.reshape %37 : (tensor<50x1024xf32>) -> tensor<1x50x1024xf32> loc(#loc)
    %39 = stablehlo.reshape %arg117 : (tensor<1024xf32>) -> tensor<1x1x1024xf32> loc(#loc)
    %40 = stablehlo.reshape %39 : (tensor<1x1x1024xf32>) -> tensor<1024xf32> loc(#loc)
    %41 = stablehlo.broadcast_in_dim %40, dims = [2] : (tensor<1024xf32>) -> tensor<1x50x1024xf32> loc(#loc)
    %42 = stablehlo.add %38, %41 : tensor<1x50x1024xf32> loc(#loc)
    %43 = stablehlo.logistic %42 : tensor<1x50x1024xf32> loc(#loc)
    %44 = stablehlo.multiply %42, %43 : tensor<1x50x1024xf32> loc(#loc)
    %45 = stablehlo.reshape %44 : (tensor<1x50x1024xf32>) -> tensor<50x1024xf32> loc(#loc)
    %46 = stablehlo.reshape %arg116 : (tensor<1024x1024xf32>) -> tensor<1x1024x1024xf32> loc(#loc)
    %47 = stablehlo.reshape %46 : (tensor<1x1024x1024xf32>) -> tensor<1024x1024xf32> loc(#loc)
    %48 = stablehlo.transpose %47, dims = [1, 0] {result_layout = dense<[0, 1]> : tensor<2xindex>, xla_shape = "f32[1024,1024]{0,1}"} : (tensor<1024x1024xf32>) -> tensor<1024x1024xf32> loc(#loc)
    %49 = stablehlo.dot_general %45, %48, contracting_dims = [1] x [0] : (tensor<50x1024xf32>, tensor<1024x1024xf32>) -> tensor<50x1024xf32> loc(#loc)
    %50 = stablehlo.reshape %49 : (tensor<50x1024xf32>) -> tensor<1x50x1024xf32> loc(#loc)
    %51 = stablehlo.reshape %arg115 : (tensor<1024xf32>) -> tensor<1x1x1024xf32> loc(#loc)
    %52 = stablehlo.reshape %51 : (tensor<1x1x1024xf32>) -> tensor<1024xf32> loc(#loc)
    %53 = stablehlo.broadcast_in_dim %52, dims = [2] : (tensor<1024xf32>) -> tensor<1x50x1024xf32> loc(#loc)
    %54 = stablehlo.add %50, %53 : tensor<1x50x1024xf32> loc(#loc)
    %55 = stablehlo.concatenate %9, %54, dim = 1 : (tensor<1x1x1024xf32>, tensor<1x50x1024xf32>) -> tensor<1x51x1024xf32> loc(#loc)
    %56 = stablehlo.power %55, %cst_17 : tensor<1x51x1024xf32> loc(#loc)
    %57 = stablehlo.reduce(%56 init: %cst_29) applies stablehlo.add across dimensions = [2] : (tensor<1x51x1024xf32>, tensor<f32>) -> tensor<1x51xf32> loc(#loc)
    %58 = stablehlo.multiply %57, %cst_16 : tensor<1x51xf32> loc(#loc)
    %59 = stablehlo.reshape %58 : (tensor<1x51xf32>) -> tensor<1x51x1xf32> loc(#loc)
    %60 = stablehlo.add %59, %cst_15 : tensor<1x51x1xf32> loc(#loc)
    %61 = stablehlo.rsqrt %60 : tensor<1x51x1xf32> loc(#loc)
    %62 = stablehlo.reshape %61 : (tensor<1x51x1xf32>) -> tensor<1x51xf32> loc(#loc)
    %63 = stablehlo.broadcast_in_dim %62, dims = [0, 1] : (tensor<1x51xf32>) -> tensor<1x51x1024xf32> loc(#loc)
    %64 = stablehlo.multiply %55, %63 : tensor<1x51x1024xf32> loc(#loc)
    %65 = stablehlo.reshape %arg114 : (tensor<1024xf32>) -> tensor<1x1x1024xf32> loc(#loc)
    %66 = stablehlo.reshape %65 : (tensor<1x1x1024xf32>) -> tensor<1024xf32> loc(#loc)
    %67 = stablehlo.add %66, %cst_14 : tensor<1024xf32> loc(#loc)
    %68 = stablehlo.broadcast_in_dim %67, dims = [2] : (tensor<1024xf32>) -> tensor<1x51x1024xf32> loc(#loc)
    %69 = stablehlo.multiply %64, %68 : tensor<1x51x1024xf32> loc(#loc)
    %70 = stablehlo.reshape %69 : (tensor<1x51x1024xf32>) -> tensor<51x1024xf32> loc(#loc)
    %71 = stablehlo.reshape %arg578 : (tensor<2048x1024xf32>) -> tensor<1x2048x1024xf32> loc(#loc)
    %72 = stablehlo.reshape %71 : (tensor<1x2048x1024xf32>) -> tensor<2048x1024xf32> loc(#loc)
    %73 = stablehlo.transpose %72, dims = [1, 0] {result_layout = dense<[0, 1]> : tensor<2xindex>, xla_shape = "f32[1024,2048]{0,1}"} : (tensor<2048x1024xf32>) -> tensor<1024x2048xf32> loc(#loc)
    %74 = stablehlo.dot_general %70, %73, contracting_dims = [1] x [0] : (tensor<51x1024xf32>, tensor<1024x2048xf32>) -> tensor<51x2048xf32> loc(#loc)
    %75 = stablehlo.reshape %74 : (tensor<51x2048xf32>) -> tensor<1x51x8x256xf32> loc(#loc)
    %76 = stablehlo.transpose %75, dims = [0, 2, 1, 3] {result_layout = dense<[3, 1, 2, 0]> : tensor<4xindex>, xla_shape = "f32[1,8,51,256]{3,1,2,0}"} : (tensor<1x51x8x256xf32>) -> tensor<1x8x51x256xf32> loc(#loc)
    %77 = stablehlo.reshape %arg574 : (tensor<128xf32>) -> tensor<1x1x128xf32> loc(#loc)
    %78 = stablehlo.reshape %77 : (tensor<1x1x128xf32>) -> tensor<1x128x1xf32> loc(#loc)
    %79 = stablehlo.reshape %arg573 : (tensor<1xi1>) -> tensor<1x1x1xi1> loc(#loc)
    %80 = stablehlo.reshape %79 : (tensor<1x1x1xi1>) -> tensor<1xi1> loc(#loc)
    %81 = stablehlo.broadcast_in_dim %80, dims = [0] : (tensor<1xi1>) -> tensor<1x256xi1> loc(#loc)
    %82 = stablehlo.reshape %arg572 : (tensor<1xi1>) -> tensor<1x1x1xi1> loc(#loc)
    %83 = stablehlo.reshape %82 : (tensor<1x1x1xi1>) -> tensor<1xi1> loc(#loc)
    %84 = stablehlo.broadcast_in_dim %83, dims = [0] : (tensor<1xi1>) -> tensor<1x256xi1> loc(#loc)
    %85 = stablehlo.reshape %arg571 : (tensor<1xi1>) -> tensor<1x1x1xi1> loc(#loc)
    %86 = stablehlo.reshape %85 : (tensor<1x1x1xi1>) -> tensor<1xi1> loc(#loc)
    %87 = stablehlo.broadcast_in_dim %86, dims = [0] : (tensor<1xi1>) -> tensor<1x256xi1> loc(#loc)
    %88 = stablehlo.reshape %arg570 : (tensor<1x48xi1>) -> tensor<1x1x48xi1> loc(#loc)
    %89 = stablehlo.reshape %88 : (tensor<1x1x48xi1>) -> tensor<1x48xi1> loc(#loc)
    %90 = stablehlo.concatenate %81, %84, %87, %89, dim = 1 : (tensor<1x256xi1>, tensor<1x256xi1>, tensor<1x256xi1>, tensor<1x48xi1>) -> tensor<1x816xi1> loc(#loc)
    %91 = stablehlo.convert %90 : (tensor<1x816xi1>) -> tensor<1x816xi64> loc(#loc)
    %92 = stablehlo.reduce(%91 init: %c_28) applies stablehlo.add across dimensions = [1] : (tensor<1x816xi64>, tensor<i64>) -> tensor<1xi64> loc(#loc)
    %93 = stablehlo.broadcast_in_dim %92, dims = [0] : (tensor<1xi64>) -> tensor<1x51xi64> loc(#loc)
    %94 = stablehlo.reshape %arg568 : (tensor<i1>) -> tensor<1x1xi1> loc(#loc)
    %95 = stablehlo.reshape %arg568 : (tensor<i1>) -> tensor<1xi1> loc(#loc)
    %96 = stablehlo.broadcast_in_dim %95, dims = [0] : (tensor<1xi1>) -> tensor<1x50xi1> loc(#loc)
    %97 = stablehlo.concatenate %94, %96, dim = 1 : (tensor<1x1xi1>, tensor<1x50xi1>) -> tensor<1x51xi1> loc(#loc)
    %98 = stablehlo.convert %97 : (tensor<1x51xi1>) -> tensor<1x51xi64> loc(#loc)
    %99 = "stablehlo.reduce_window"(%98, %c_28) <{padding = dense<[[0, 0], [50, 0]]> : tensor<2x2xi64>, window_dimensions = array<i64: 1, 51>}> ({
    ^bb0(%arg785: tensor<i64> loc(unknown), %arg786: tensor<i64> loc(unknown)):
      %8667 = stablehlo.add %arg785, %arg786 : tensor<i64> loc(#loc)
      stablehlo.return %8667 : tensor<i64> loc(#loc)
    }) : (tensor<1x51xi64>, tensor<i64>) -> tensor<1x51xi64> loc(#loc)
    %100 = stablehlo.add %93, %99 : tensor<1x51xi64> loc(#loc)
    %101 = stablehlo.subtract %100, %c_13 : tensor<1x51xi64> loc(#loc)
    %102 = stablehlo.reshape %101 : (tensor<1x51xi64>) -> tensor<1x1x51xi64> loc(#loc)
    %103 = stablehlo.convert %102 : (tensor<1x1x51xi64>) -> tensor<1x1x51xf32> loc(#loc)
    %104 = stablehlo.dot_general %78, %103, batching_dims = [0] x [0], contracting_dims = [2] x [1] : (tensor<1x128x1xf32>, tensor<1x1x51xf32>) -> tensor<1x128x51xf32> loc(#loc)
    %105 = stablehlo.transpose %104, dims = [0, 2, 1] {result_layout = dense<[1, 2, 0]> : tensor<3xindex>, xla_shape = "f32[1,51,128]{1,2,0}"} : (tensor<1x128x51xf32>) -> tensor<1x51x128xf32> loc(#loc)
    %106 = stablehlo.concatenate %105, %105, dim = 2 : (tensor<1x51x128xf32>, tensor<1x51x128xf32>) -> tensor<1x51x256xf32> loc(#loc)
    %107 = stablehlo.cosine %106 : tensor<1x51x256xf32> loc(#loc)
    %108 = stablehlo.reshape %107 : (tensor<1x51x256xf32>) -> tensor<1x1x51x256xf32> loc(#loc)
    %109 = stablehlo.broadcast_in_dim %107, dims = [0, 2, 3] : (tensor<1x51x256xf32>) -> tensor<1x8x51x256xf32> loc(#loc)
    %110 = stablehlo.multiply %76, %109 : tensor<1x8x51x256xf32> loc(#loc)
    %111 = stablehlo.slice %76 [0:1, 0:8, 0:51, 128:256] : (tensor<1x8x51x256xf32>) -> tensor<1x8x51x128xf32> loc(#loc)
    %112 = stablehlo.negate %111 : tensor<1x8x51x128xf32> loc(#loc)
    %113 = stablehlo.slice %76 [0:1, 0:8, 0:51, 0:128] : (tensor<1x8x51x256xf32>) -> tensor<1x8x51x128xf32> loc(#loc)
    %114 = stablehlo.concatenate %112, %113, dim = 3 : (tensor<1x8x51x128xf32>, tensor<1x8x51x128xf32>) -> tensor<1x8x51x256xf32> loc(#loc)
    %115 = stablehlo.sine %106 : tensor<1x51x256xf32> loc(#loc)
    %116 = stablehlo.reshape %115 : (tensor<1x51x256xf32>) -> tensor<1x1x51x256xf32> loc(#loc)
    %117 = stablehlo.broadcast_in_dim %115, dims = [0, 2, 3] : (tensor<1x51x256xf32>) -> tensor<1x8x51x256xf32> loc(#loc)
    %118 = stablehlo.multiply %114, %117 : tensor<1x8x51x256xf32> loc(#loc)
    %119 = stablehlo.add %110, %118 : tensor<1x8x51x256xf32> loc(#loc)
    %120 = stablehlo.convolution(%arg567, %arg456) dim_numbers = [b, f, 0, 1]x[o, i, 0, 1]->[b, f, 0, 1], window = {stride = [14, 14]} {batch_group_count = 1 : i64, feature_group_count = 1 : i64} : (tensor<1x3x224x224xf32>, tensor<1152x3x14x14xf32>) -> tensor<1x1152x16x16xf32> loc(#loc)
    %121 = stablehlo.reshape %arg455 : (tensor<1152xf32>) -> tensor<1x1x1152xf32> loc(#loc)
    %122 = stablehlo.reshape %121 : (tensor<1x1x1152xf32>) -> tensor<1152xf32> loc(#loc)
    %123 = stablehlo.broadcast_in_dim %122, dims = [1] : (tensor<1152xf32>) -> tensor<1x1152x16x16xf32> loc(#loc)
    %124 = stablehlo.add %120, %123 : tensor<1x1152x16x16xf32> loc(#loc)
    %125 = stablehlo.reshape %124 : (tensor<1x1152x16x16xf32>) -> tensor<1x1152x256xf32> loc(#loc)
    %126 = stablehlo.transpose %125, dims = [0, 2, 1] {result_layout = dense<[1, 2, 0]> : tensor<3xindex>, xla_shape = "f32[1,256,1152]{1,2,0}"} : (tensor<1x1152x256xf32>) -> tensor<1x256x1152xf32> loc(#loc)
    %127 = stablehlo.reshape %arg454 : (tensor<256x1152xf32>) -> tensor<1x256x1152xf32> loc(#loc)
    %128 = stablehlo.reshape %127 : (tensor<1x256x1152xf32>) -> tensor<256x1152xf32> loc(#loc)
    %129 = stablehlo.reshape %arg453 : (tensor<1x256xi64>) -> tensor<1x1x256xi64> loc(#loc)
    %130 = stablehlo.reshape %129 : (tensor<1x1x256xi64>) -> tensor<256xi64> loc(#loc)
    %131 = stablehlo.convert %130 : (tensor<256xi64>) -> tensor<256xui32> loc(#loc)
    %132 = "stablehlo.gather"(%128, %131) <{dimension_numbers = #stablehlo.gather<offset_dims = [1], collapsed_slice_dims = [0], start_index_map = [0], index_vector_dim = 1>, slice_sizes = array<i64: 1, 1152>}> : (tensor<256x1152xf32>, tensor<256xui32>) -> tensor<256x1152xf32> loc(#loc)
    %133 = stablehlo.reshape %132 : (tensor<256x1152xf32>) -> tensor<1x256x1152xf32> loc(#loc)
    %134 = stablehlo.add %126, %133 {result_layout = dense<[1, 2, 0]> : tensor<3xindex>, xla_shape = "f32[1,256,1152]{1,2,0}"} : tensor<1x256x1152xf32> loc(#loc)
    %135 = stablehlo.reshape %arg452 : (tensor<1152xf32>) -> tensor<1x1x1152xf32> loc(#loc)
    %136 = stablehlo.reshape %135 : (tensor<1x1x1152xf32>) -> tensor<1152xf32> loc(#loc)
    %137 = stablehlo.reshape %arg451 : (tensor<1152xf32>) -> tensor<1x1x1152xf32> loc(#loc)
    %138 = stablehlo.reshape %137 : (tensor<1x1x1152xf32>) -> tensor<1152xf32> loc(#loc)
    %139 = stablehlo.composite "tenstorrent.layer_norm" %134, %136, %138 {composite_attributes = {epsilon = 9.99999997E-7 : f32, normalized_shape = dense<1152> : tensor<1xi64>}, decomposition = @tenstorrent.layer_norm.impl_52} : (tensor<1x256x1152xf32>, tensor<1152xf32>, tensor<1152xf32>) -> tensor<1x256x1152xf32> loc(#loc)
    %140 = stablehlo.reshape %139 : (tensor<1x256x1152xf32>) -> tensor<256x1152xf32> loc(#loc)
    %141 = stablehlo.reshape %arg461 : (tensor<1152x1152xf32>) -> tensor<1x1152x1152xf32> loc(#loc)
    %142 = stablehlo.reshape %141 : (tensor<1x1152x1152xf32>) -> tensor<1152x1152xf32> loc(#loc)
    %143 = stablehlo.transpose %142, dims = [1, 0] {result_layout = dense<[0, 1]> : tensor<2xindex>, xla_shape = "f32[1152,1152]{0,1}"} : (tensor<1152x1152xf32>) -> tensor<1152x1152xf32> loc(#loc)
    %144 = stablehlo.dot_general %140, %143, contracting_dims = [1] x [0] : (tensor<256x1152xf32>, tensor<1152x1152xf32>) -> tensor<256x1152xf32> loc(#loc)
    %145 = stablehlo.reshape %144 : (tensor<256x1152xf32>) -> tensor<1x256x1152xf32> loc(#loc)
    %146 = stablehlo.reshape %arg460 : (tensor<1152xf32>) -> tensor<1x1x1152xf32> loc(#loc)
    %147 = stablehlo.reshape %146 : (tensor<1x1x1152xf32>) -> tensor<1152xf32> loc(#loc)
    %148 = stablehlo.broadcast_in_dim %147, dims = [2] : (tensor<1152xf32>) -> tensor<1x256x1152xf32> loc(#loc)
    %149 = stablehlo.add %145, %148 : tensor<1x256x1152xf32> loc(#loc)
    %150 = stablehlo.reshape %149 : (tensor<1x256x1152xf32>) -> tensor<1x256x16x72xf32> loc(#loc)
    %151 = stablehlo.transpose %150, dims = [0, 2, 1, 3] {result_layout = dense<[3, 1, 2, 0]> : tensor<4xindex>, xla_shape = "f32[1,16,256,72]{3,1,2,0}"} : (tensor<1x256x16x72xf32>) -> tensor<1x16x256x72xf32> loc(#loc)
    %152 = stablehlo.reshape %arg459 : (tensor<1152x1152xf32>) -> tensor<1x1152x1152xf32> loc(#loc)
    %153 = stablehlo.reshape %152 : (tensor<1x1152x1152xf32>) -> tensor<1152x1152xf32> loc(#loc)
    %154 = stablehlo.transpose %153, dims = [1, 0] {result_layout = dense<[0, 1]> : tensor<2xindex>, xla_shape = "f32[1152,1152]{0,1}"} : (tensor<1152x1152xf32>) -> tensor<1152x1152xf32> loc(#loc)
    %155 = stablehlo.dot_general %140, %154, contracting_dims = [1] x [0] : (tensor<256x1152xf32>, tensor<1152x1152xf32>) -> tensor<256x1152xf32> loc(#loc)
    %156 = stablehlo.reshape %155 : (tensor<256x1152xf32>) -> tensor<1x256x1152xf32> loc(#loc)
    %157 = stablehlo.reshape %arg458 : (tensor<1152xf32>) -> tensor<1x1x1152xf32> loc(#loc)
    %158 = stablehlo.reshape %157 : (tensor<1x1x1152xf32>) -> tensor<1152xf32> loc(#loc)
    %159 = stablehlo.broadcast_in_dim %158, dims = [2] : (tensor<1152xf32>) -> tensor<1x256x1152xf32> loc(#loc)
    %160 = stablehlo.add %156, %159 : tensor<1x256x1152xf32> loc(#loc)
    %161 = stablehlo.reshape %160 : (tensor<1x256x1152xf32>) -> tensor<1x256x16x72xf32> loc(#loc)
    %162 = stablehlo.transpose %161, dims = [0, 2, 3, 1] : (tensor<1x256x16x72xf32>) -> tensor<1x16x72x256xf32> loc(#loc)
    %163 = stablehlo.dot_general %151, %162, batching_dims = [0, 1] x [0, 1], contracting_dims = [3] x [2] {mhlo.frontend_attributes = {grad_x = "false", grad_y = "false"}} : (tensor<1x16x256x72xf32>, tensor<1x16x72x256xf32>) -> tensor<1x16x256x256xf32> loc(#loc)
    %164 = stablehlo.multiply %163, %cst_12 : tensor<1x16x256x256xf32> loc(#loc)
    %165 = stablehlo.reduce(%164 init: %cst_27) applies stablehlo.maximum across dimensions = [3] : (tensor<1x16x256x256xf32>, tensor<f32>) -> tensor<1x16x256xf32> loc(#loc)
    %166 = stablehlo.broadcast_in_dim %165, dims = [0, 1, 2] : (tensor<1x16x256xf32>) -> tensor<1x16x256x256xf32> loc(#loc)
    %167 = stablehlo.subtract %164, %166 : tensor<1x16x256x256xf32> loc(#loc)
    %168 = stablehlo.exponential %167 : tensor<1x16x256x256xf32> loc(#loc)
    %169 = stablehlo.reduce(%168 init: %cst_29) applies stablehlo.add across dimensions = [3] : (tensor<1x16x256x256xf32>, tensor<f32>) -> tensor<1x16x256xf32> loc(#loc)
    %170 = stablehlo.broadcast_in_dim %169, dims = [0, 1, 2] : (tensor<1x16x256xf32>) -> tensor<1x16x256x256xf32> loc(#loc)
    %171 = stablehlo.divide %168, %170 : tensor<1x16x256x256xf32> loc(#loc)
    %172 = stablehlo.reshape %arg450 : (tensor<1152x1152xf32>) -> tensor<1x1152x1152xf32> loc(#loc)
    %173 = stablehlo.reshape %172 : (tensor<1x1152x1152xf32>) -> tensor<1152x1152xf32> loc(#loc)
    %174 = stablehlo.transpose %173, dims = [1, 0] {result_layout = dense<[0, 1]> : tensor<2xindex>, xla_shape = "f32[1152,1152]{0,1}"} : (tensor<1152x1152xf32>) -> tensor<1152x1152xf32> loc(#loc)
    %175 = stablehlo.dot_general %140, %174, contracting_dims = [1] x [0] : (tensor<256x1152xf32>, tensor<1152x1152xf32>) -> tensor<256x1152xf32> loc(#loc)
    %176 = stablehlo.reshape %175 : (tensor<256x1152xf32>) -> tensor<1x256x1152xf32> loc(#loc)
    %177 = stablehlo.reshape %arg449 : (tensor<1152xf32>) -> tensor<1x1x1152xf32> loc(#loc)
    %178 = stablehlo.reshape %177 : (tensor<1x1x1152xf32>) -> tensor<1152xf32> loc(#loc)
    %179 = stablehlo.broadcast_in_dim %178, dims = [2] : (tensor<1152xf32>) -> tensor<1x256x1152xf32> loc(#loc)
    %180 = stablehlo.add %176, %179 : tensor<1x256x1152xf32> loc(#loc)
    %181 = stablehlo.reshape %180 : (tensor<1x256x1152xf32>) -> tensor<1x256x16x72xf32> loc(#loc)
    %182 = stablehlo.transpose %181, dims = [0, 2, 1, 3] {result_layout = dense<[3, 1, 2, 0]> : tensor<4xindex>, xla_shape = "f32[1,16,256,72]{3,1,2,0}"} : (tensor<1x256x16x72xf32>) -> tensor<1x16x256x72xf32> loc(#loc)
    %183 = stablehlo.dot_general %171, %182, batching_dims = [0, 1] x [0, 1], contracting_dims = [3] x [2] {mhlo.frontend_attributes = {grad_x = "false", grad_y = "false"}} : (tensor<1x16x256x256xf32>, tensor<1x16x256x72xf32>) -> tensor<1x16x256x72xf32> loc(#loc)
    %184 = stablehlo.transpose %183, dims = [0, 2, 1, 3] {result_layout = dense<[3, 1, 2, 0]> : tensor<4xindex>, xla_shape = "f32[1,256,16,72]{3,1,2,0}"} : (tensor<1x16x256x72xf32>) -> tensor<1x256x16x72xf32> loc(#loc)
    %185 = stablehlo.reshape %184 : (tensor<1x256x16x72xf32>) -> tensor<256x1152xf32> loc(#loc)
    %186 = stablehlo.reshape %arg448 : (tensor<1152x1152xf32>) -> tensor<1x1152x1152xf32> loc(#loc)
    %187 = stablehlo.reshape %186 : (tensor<1x1152x1152xf32>) -> tensor<1152x1152xf32> loc(#loc)
    %188 = stablehlo.transpose %187, dims = [1, 0] {result_layout = dense<[0, 1]> : tensor<2xindex>, xla_shape = "f32[1152,1152]{0,1}"} : (tensor<1152x1152xf32>) -> tensor<1152x1152xf32> loc(#loc)
    %189 = stablehlo.dot_general %185, %188, contracting_dims = [1] x [0] : (tensor<256x1152xf32>, tensor<1152x1152xf32>) -> tensor<256x1152xf32> loc(#loc)
    %190 = stablehlo.reshape %189 : (tensor<256x1152xf32>) -> tensor<1x256x1152xf32> loc(#loc)
    %191 = stablehlo.reshape %arg447 : (tensor<1152xf32>) -> tensor<1x1x1152xf32> loc(#loc)
    %192 = stablehlo.reshape %191 : (tensor<1x1x1152xf32>) -> tensor<1152xf32> loc(#loc)
    %193 = stablehlo.broadcast_in_dim %192, dims = [2] : (tensor<1152xf32>) -> tensor<1x256x1152xf32> loc(#loc)
    %194 = stablehlo.add %190, %193 : tensor<1x256x1152xf32> loc(#loc)
    %195 = stablehlo.add %134, %194 {result_layout = dense<[1, 2, 0]> : tensor<3xindex>, xla_shape = "f32[1,256,1152]{1,2,0}"} : tensor<1x256x1152xf32> loc(#loc)
    %196 = stablehlo.reshape %arg446 : (tensor<1152xf32>) -> tensor<1x1x1152xf32> loc(#loc)
    %197 = stablehlo.reshape %196 : (tensor<1x1x1152xf32>) -> tensor<1152xf32> loc(#loc)
    %198 = stablehlo.reshape %arg445 : (tensor<1152xf32>) -> tensor<1x1x1152xf32> loc(#loc)
    %199 = stablehlo.reshape %198 : (tensor<1x1x1152xf32>) -> tensor<1152xf32> loc(#loc)
    %200 = stablehlo.composite "tenstorrent.layer_norm" %195, %197, %199 {composite_attributes = {epsilon = 9.99999997E-7 : f32, normalized_shape = dense<1152> : tensor<1xi64>}, decomposition = @tenstorrent.layer_norm.impl_56} : (tensor<1x256x1152xf32>, tensor<1152xf32>, tensor<1152xf32>) -> tensor<1x256x1152xf32> loc(#loc)
    %201 = stablehlo.reshape %200 : (tensor<1x256x1152xf32>) -> tensor<256x1152xf32> loc(#loc)
    %202 = stablehlo.reshape %arg444 : (tensor<4304x1152xf32>) -> tensor<1x4304x1152xf32> loc(#loc)
    %203 = stablehlo.reshape %202 : (tensor<1x4304x1152xf32>) -> tensor<4304x1152xf32> loc(#loc)
    %204 = stablehlo.transpose %203, dims = [1, 0] {result_layout = dense<[0, 1]> : tensor<2xindex>, xla_shape = "f32[1152,4304]{0,1}"} : (tensor<4304x1152xf32>) -> tensor<1152x4304xf32> loc(#loc)
    %205 = stablehlo.dot_general %201, %204, contracting_dims = [1] x [0] : (tensor<256x1152xf32>, tensor<1152x4304xf32>) -> tensor<256x4304xf32> loc(#loc)
    %206 = stablehlo.reshape %205 : (tensor<256x4304xf32>) -> tensor<1x256x4304xf32> loc(#loc)
    %207 = stablehlo.reshape %arg443 : (tensor<4304xf32>) -> tensor<1x1x4304xf32> loc(#loc)
    %208 = stablehlo.reshape %207 : (tensor<1x1x4304xf32>) -> tensor<4304xf32> loc(#loc)
    %209 = stablehlo.broadcast_in_dim %208, dims = [2] : (tensor<4304xf32>) -> tensor<1x256x4304xf32> loc(#loc)
    %210 = stablehlo.add %206, %209 : tensor<1x256x4304xf32> loc(#loc)
    %211 = stablehlo.composite "tenstorrent.gelu_tanh" %210 {composite_attributes = {approximate = "tanh"}, decomposition = @tenstorrent.gelu_tanh.impl_72} : (tensor<1x256x4304xf32>) -> tensor<1x256x4304xf32> loc(#loc)
    %212 = stablehlo.reshape %211 : (tensor<1x256x4304xf32>) -> tensor<256x4304xf32> loc(#loc)
    %213 = stablehlo.reshape %arg442 : (tensor<1152x4304xf32>) -> tensor<1x1152x4304xf32> loc(#loc)
    %214 = stablehlo.reshape %213 : (tensor<1x1152x4304xf32>) -> tensor<1152x4304xf32> loc(#loc)
    %215 = stablehlo.transpose %214, dims = [1, 0] {result_layout = dense<[0, 1]> : tensor<2xindex>, xla_shape = "f32[4304,1152]{0,1}"} : (tensor<1152x4304xf32>) -> tensor<4304x1152xf32> loc(#loc)
    %216 = stablehlo.dot_general %212, %215, contracting_dims = [1] x [0] : (tensor<256x4304xf32>, tensor<4304x1152xf32>) -> tensor<256x1152xf32> loc(#loc)
    %217 = stablehlo.reshape %216 : (tensor<256x1152xf32>) -> tensor<1x256x1152xf32> loc(#loc)
    %218 = stablehlo.reshape %arg441 : (tensor<1152xf32>) -> tensor<1x1x1152xf32> loc(#loc)
    %219 = stablehlo.reshape %218 : (tensor<1x1x1152xf32>) -> tensor<1152xf32> loc(#loc)
    %220 = stablehlo.broadcast_in_dim %219, dims = [2] : (tensor<1152xf32>) -> tensor<1x256x1152xf32> loc(#loc)
    %221 = stablehlo.add %217, %220 : tensor<1x256x1152xf32> loc(#loc)
    %222 = stablehlo.add %195, %221 {result_layout = dense<[1, 2, 0]> : tensor<3xindex>, xla_shape = "f32[1,256,1152]{1,2,0}"} : tensor<1x256x1152xf32> loc(#loc)
    %223 = stablehlo.reshape %arg440 : (tensor<1152xf32>) -> tensor<1x1x1152xf32> loc(#loc)
    %224 = stablehlo.reshape %223 : (tensor<1x1x1152xf32>) -> tensor<1152xf32> loc(#loc)
    %225 = stablehlo.reshape %arg439 : (tensor<1152xf32>) -> tensor<1x1x1152xf32> loc(#loc)
    %226 = stablehlo.reshape %225 : (tensor<1x1x1152xf32>) -> tensor<1152xf32> loc(#loc)
    %227 = stablehlo.composite "tenstorrent.layer_norm" %222, %224, %226 {composite_attributes = {epsilon = 9.99999997E-7 : f32, normalized_shape = dense<1152> : tensor<1xi64>}, decomposition = @tenstorrent.layer_norm.impl_95} : (tensor<1x256x1152xf32>, tensor<1152xf32>, tensor<1152xf32>) -> tensor<1x256x1152xf32> loc(#loc)
    %228 = stablehlo.reshape %227 : (tensor<1x256x1152xf32>) -> tensor<256x1152xf32> loc(#loc)
    %229 = stablehlo.reshape %arg465 : (tensor<1152x1152xf32>) -> tensor<1x1152x1152xf32> loc(#loc)
    %230 = stablehlo.reshape %229 : (tensor<1x1152x1152xf32>) -> tensor<1152x1152xf32> loc(#loc)
    %231 = stablehlo.transpose %230, dims = [1, 0] {result_layout = dense<[0, 1]> : tensor<2xindex>, xla_shape = "f32[1152,1152]{0,1}"} : (tensor<1152x1152xf32>) -> tensor<1152x1152xf32> loc(#loc)
    %232 = stablehlo.dot_general %228, %231, contracting_dims = [1] x [0] : (tensor<256x1152xf32>, tensor<1152x1152xf32>) -> tensor<256x1152xf32> loc(#loc)
    %233 = stablehlo.reshape %232 : (tensor<256x1152xf32>) -> tensor<1x256x1152xf32> loc(#loc)
    %234 = stablehlo.reshape %arg464 : (tensor<1152xf32>) -> tensor<1x1x1152xf32> loc(#loc)
    %235 = stablehlo.reshape %234 : (tensor<1x1x1152xf32>) -> tensor<1152xf32> loc(#loc)
    %236 = stablehlo.broadcast_in_dim %235, dims = [2] : (tensor<1152xf32>) -> tensor<1x256x1152xf32> loc(#loc)
    %237 = stablehlo.add %233, %236 : tensor<1x256x1152xf32> loc(#loc)
    %238 = stablehlo.reshape %237 : (tensor<1x256x1152xf32>) -> tensor<1x256x16x72xf32> loc(#loc)
    %239 = stablehlo.transpose %238, dims = [0, 2, 1, 3] {result_layout = dense<[3, 1, 2, 0]> : tensor<4xindex>, xla_shape = "f32[1,16,256,72]{3,1,2,0}"} : (tensor<1x256x16x72xf32>) -> tensor<1x16x256x72xf32> loc(#loc)
    %240 = stablehlo.reshape %arg463 : (tensor<1152x1152xf32>) -> tensor<1x1152x1152xf32> loc(#loc)
    %241 = stablehlo.reshape %240 : (tensor<1x1152x1152xf32>) -> tensor<1152x1152xf32> loc(#loc)
    %242 = stablehlo.transpose %241, dims = [1, 0] {result_layout = dense<[0, 1]> : tensor<2xindex>, xla_shape = "f32[1152,1152]{0,1}"} : (tensor<1152x1152xf32>) -> tensor<1152x1152xf32> loc(#loc)
    %243 = stablehlo.dot_general %228, %242, contracting_dims = [1] x [0] : (tensor<256x1152xf32>, tensor<1152x1152xf32>) -> tensor<256x1152xf32> loc(#loc)
    %244 = stablehlo.reshape %243 : (tensor<256x1152xf32>) -> tensor<1x256x1152xf32> loc(#loc)
    %245 = stablehlo.reshape %arg462 : (tensor<1152xf32>) -> tensor<1x1x1152xf32> loc(#loc)
    %246 = stablehlo.reshape %245 : (tensor<1x1x1152xf32>) -> tensor<1152xf32> loc(#loc)
    %247 = stablehlo.broadcast_in_dim %246, dims = [2] : (tensor<1152xf32>) -> tensor<1x256x1152xf32> loc(#loc)
    %248 = stablehlo.add %244, %247 : tensor<1x256x1152xf32> loc(#loc)
    %249 = stablehlo.reshape %248 : (tensor<1x256x1152xf32>) -> tensor<1x256x16x72xf32> loc(#loc)
    %250 = stablehlo.transpose %249, dims = [0, 2, 3, 1] : (tensor<1x256x16x72xf32>) -> tensor<1x16x72x256xf32> loc(#loc)
    %251 = stablehlo.dot_general %239, %250, batching_dims = [0, 1] x [0, 1], contracting_dims = [3] x [2] {mhlo.frontend_attributes = {grad_x = "false", grad_y = "false"}} : (tensor<1x16x256x72xf32>, tensor<1x16x72x256xf32>) -> tensor<1x16x256x256xf32> loc(#loc)
    %252 = stablehlo.multiply %251, %cst_12 : tensor<1x16x256x256xf32> loc(#loc)
    %253 = stablehlo.reduce(%252 init: %cst_27) applies stablehlo.maximum across dimensions = [3] : (tensor<1x16x256x256xf32>, tensor<f32>) -> tensor<1x16x256xf32> loc(#loc)
    %254 = stablehlo.broadcast_in_dim %253, dims = [0, 1, 2] : (tensor<1x16x256xf32>) -> tensor<1x16x256x256xf32> loc(#loc)
    %255 = stablehlo.subtract %252, %254 : tensor<1x16x256x256xf32> loc(#loc)
    %256 = stablehlo.exponential %255 : tensor<1x16x256x256xf32> loc(#loc)
    %257 = stablehlo.reduce(%256 init: %cst_29) applies stablehlo.add across dimensions = [3] : (tensor<1x16x256x256xf32>, tensor<f32>) -> tensor<1x16x256xf32> loc(#loc)
    %258 = stablehlo.broadcast_in_dim %257, dims = [0, 1, 2] : (tensor<1x16x256xf32>) -> tensor<1x16x256x256xf32> loc(#loc)
    %259 = stablehlo.divide %256, %258 : tensor<1x16x256x256xf32> loc(#loc)
    %260 = stablehlo.reshape %arg438 : (tensor<1152x1152xf32>) -> tensor<1x1152x1152xf32> loc(#loc)
    %261 = stablehlo.reshape %260 : (tensor<1x1152x1152xf32>) -> tensor<1152x1152xf32> loc(#loc)
    %262 = stablehlo.transpose %261, dims = [1, 0] {result_layout = dense<[0, 1]> : tensor<2xindex>, xla_shape = "f32[1152,1152]{0,1}"} : (tensor<1152x1152xf32>) -> tensor<1152x1152xf32> loc(#loc)
    %263 = stablehlo.dot_general %228, %262, contracting_dims = [1] x [0] : (tensor<256x1152xf32>, tensor<1152x1152xf32>) -> tensor<256x1152xf32> loc(#loc)
    %264 = stablehlo.reshape %263 : (tensor<256x1152xf32>) -> tensor<1x256x1152xf32> loc(#loc)
    %265 = stablehlo.reshape %arg437 : (tensor<1152xf32>) -> tensor<1x1x1152xf32> loc(#loc)
    %266 = stablehlo.reshape %265 : (tensor<1x1x1152xf32>) -> tensor<1152xf32> loc(#loc)
    %267 = stablehlo.broadcast_in_dim %266, dims = [2] : (tensor<1152xf32>) -> tensor<1x256x1152xf32> loc(#loc)
    %268 = stablehlo.add %264, %267 : tensor<1x256x1152xf32> loc(#loc)
    %269 = stablehlo.reshape %268 : (tensor<1x256x1152xf32>) -> tensor<1x256x16x72xf32> loc(#loc)
    %270 = stablehlo.transpose %269, dims = [0, 2, 1, 3] {result_layout = dense<[3, 1, 2, 0]> : tensor<4xindex>, xla_shape = "f32[1,16,256,72]{3,1,2,0}"} : (tensor<1x256x16x72xf32>) -> tensor<1x16x256x72xf32> loc(#loc)
    %271 = stablehlo.dot_general %259, %270, batching_dims = [0, 1] x [0, 1], contracting_dims = [3] x [2] {mhlo.frontend_attributes = {grad_x = "false", grad_y = "false"}} : (tensor<1x16x256x256xf32>, tensor<1x16x256x72xf32>) -> tensor<1x16x256x72xf32> loc(#loc)
    %272 = stablehlo.transpose %271, dims = [0, 2, 1, 3] {result_layout = dense<[3, 1, 2, 0]> : tensor<4xindex>, xla_shape = "f32[1,256,16,72]{3,1,2,0}"} : (tensor<1x16x256x72xf32>) -> tensor<1x256x16x72xf32> loc(#loc)
    %273 = stablehlo.reshape %272 : (tensor<1x256x16x72xf32>) -> tensor<256x1152xf32> loc(#loc)
    %274 = stablehlo.reshape %arg436 : (tensor<1152x1152xf32>) -> tensor<1x1152x1152xf32> loc(#loc)
    %275 = stablehlo.reshape %274 : (tensor<1x1152x1152xf32>) -> tensor<1152x1152xf32> loc(#loc)
    %276 = stablehlo.transpose %275, dims = [1, 0] {result_layout = dense<[0, 1]> : tensor<2xindex>, xla_shape = "f32[1152,1152]{0,1}"} : (tensor<1152x1152xf32>) -> tensor<1152x1152xf32> loc(#loc)
    %277 = stablehlo.dot_general %273, %276, contracting_dims = [1] x [0] : (tensor<256x1152xf32>, tensor<1152x1152xf32>) -> tensor<256x1152xf32> loc(#loc)
    %278 = stablehlo.reshape %277 : (tensor<256x1152xf32>) -> tensor<1x256x1152xf32> loc(#loc)
    %279 = stablehlo.reshape %arg435 : (tensor<1152xf32>) -> tensor<1x1x1152xf32> loc(#loc)
    %280 = stablehlo.reshape %279 : (tensor<1x1x1152xf32>) -> tensor<1152xf32> loc(#loc)
    %281 = stablehlo.broadcast_in_dim %280, dims = [2] : (tensor<1152xf32>) -> tensor<1x256x1152xf32> loc(#loc)
    %282 = stablehlo.add %278, %281 : tensor<1x256x1152xf32> loc(#loc)
    %283 = stablehlo.add %222, %282 {result_layout = dense<[1, 2, 0]> : tensor<3xindex>, xla_shape = "f32[1,256,1152]{1,2,0}"} : tensor<1x256x1152xf32> loc(#loc)
    %284 = stablehlo.reshape %arg434 : (tensor<1152xf32>) -> tensor<1x1x1152xf32> loc(#loc)
    %285 = stablehlo.reshape %284 : (tensor<1x1x1152xf32>) -> tensor<1152xf32> loc(#loc)
    %286 = stablehlo.reshape %arg433 : (tensor<1152xf32>) -> tensor<1x1x1152xf32> loc(#loc)
    %287 = stablehlo.reshape %286 : (tensor<1x1x1152xf32>) -> tensor<1152xf32> loc(#loc)
    %288 = stablehlo.composite "tenstorrent.layer_norm" %283, %285, %287 {composite_attributes = {epsilon = 9.99999997E-7 : f32, normalized_shape = dense<1152> : tensor<1xi64>}, decomposition = @tenstorrent.layer_norm.impl_27} : (tensor<1x256x1152xf32>, tensor<1152xf32>, tensor<1152xf32>) -> tensor<1x256x1152xf32> loc(#loc)
    %289 = stablehlo.reshape %288 : (tensor<1x256x1152xf32>) -> tensor<256x1152xf32> loc(#loc)
    %290 = stablehlo.reshape %arg432 : (tensor<4304x1152xf32>) -> tensor<1x4304x1152xf32> loc(#loc)
    %291 = stablehlo.reshape %290 : (tensor<1x4304x1152xf32>) -> tensor<4304x1152xf32> loc(#loc)
    %292 = stablehlo.transpose %291, dims = [1, 0] {result_layout = dense<[0, 1]> : tensor<2xindex>, xla_shape = "f32[1152,4304]{0,1}"} : (tensor<4304x1152xf32>) -> tensor<1152x4304xf32> loc(#loc)
    %293 = stablehlo.dot_general %289, %292, contracting_dims = [1] x [0] : (tensor<256x1152xf32>, tensor<1152x4304xf32>) -> tensor<256x4304xf32> loc(#loc)
    %294 = stablehlo.reshape %293 : (tensor<256x4304xf32>) -> tensor<1x256x4304xf32> loc(#loc)
    %295 = stablehlo.reshape %arg431 : (tensor<4304xf32>) -> tensor<1x1x4304xf32> loc(#loc)
    %296 = stablehlo.reshape %295 : (tensor<1x1x4304xf32>) -> tensor<4304xf32> loc(#loc)
    %297 = stablehlo.broadcast_in_dim %296, dims = [2] : (tensor<4304xf32>) -> tensor<1x256x4304xf32> loc(#loc)
    %298 = stablehlo.add %294, %297 : tensor<1x256x4304xf32> loc(#loc)
    %299 = stablehlo.composite "tenstorrent.gelu_tanh" %298 {composite_attributes = {approximate = "tanh"}, decomposition = @tenstorrent.gelu_tanh.impl_50} : (tensor<1x256x4304xf32>) -> tensor<1x256x4304xf32> loc(#loc)
    %300 = stablehlo.reshape %299 : (tensor<1x256x4304xf32>) -> tensor<256x4304xf32> loc(#loc)
    %301 = stablehlo.reshape %arg430 : (tensor<1152x4304xf32>) -> tensor<1x1152x4304xf32> loc(#loc)
    %302 = stablehlo.reshape %301 : (tensor<1x1152x4304xf32>) -> tensor<1152x4304xf32> loc(#loc)
    %303 = stablehlo.transpose %302, dims = [1, 0] {result_layout = dense<[0, 1]> : tensor<2xindex>, xla_shape = "f32[4304,1152]{0,1}"} : (tensor<1152x4304xf32>) -> tensor<4304x1152xf32> loc(#loc)
    %304 = stablehlo.dot_general %300, %303, contracting_dims = [1] x [0] : (tensor<256x4304xf32>, tensor<4304x1152xf32>) -> tensor<256x1152xf32> loc(#loc)
    %305 = stablehlo.reshape %304 : (tensor<256x1152xf32>) -> tensor<1x256x1152xf32> loc(#loc)
    %306 = stablehlo.reshape %arg429 : (tensor<1152xf32>) -> tensor<1x1x1152xf32> loc(#loc)
    %307 = stablehlo.reshape %306 : (tensor<1x1x1152xf32>) -> tensor<1152xf32> loc(#loc)
    %308 = stablehlo.broadcast_in_dim %307, dims = [2] : (tensor<1152xf32>) -> tensor<1x256x1152xf32> loc(#loc)
    %309 = stablehlo.add %305, %308 : tensor<1x256x1152xf32> loc(#loc)
    %310 = stablehlo.add %283, %309 {result_layout = dense<[1, 2, 0]> : tensor<3xindex>, xla_shape = "f32[1,256,1152]{1,2,0}"} : tensor<1x256x1152xf32> loc(#loc)
    %311 = stablehlo.reshape %arg428 : (tensor<1152xf32>) -> tensor<1x1x1152xf32> loc(#loc)
    %312 = stablehlo.reshape %311 : (tensor<1x1x1152xf32>) -> tensor<1152xf32> loc(#loc)
    %313 = stablehlo.reshape %arg427 : (tensor<1152xf32>) -> tensor<1x1x1152xf32> loc(#loc)
    %314 = stablehlo.reshape %313 : (tensor<1x1x1152xf32>) -> tensor<1152xf32> loc(#loc)
    %315 = stablehlo.composite "tenstorrent.layer_norm" %310, %312, %314 {composite_attributes = {epsilon = 9.99999997E-7 : f32, normalized_shape = dense<1152> : tensor<1xi64>}, decomposition = @tenstorrent.layer_norm.impl_141} : (tensor<1x256x1152xf32>, tensor<1152xf32>, tensor<1152xf32>) -> tensor<1x256x1152xf32> loc(#loc)
    %316 = stablehlo.reshape %315 : (tensor<1x256x1152xf32>) -> tensor<256x1152xf32> loc(#loc)
    %317 = stablehlo.reshape %arg469 : (tensor<1152x1152xf32>) -> tensor<1x1152x1152xf32> loc(#loc)
    %318 = stablehlo.reshape %317 : (tensor<1x1152x1152xf32>) -> tensor<1152x1152xf32> loc(#loc)
    %319 = stablehlo.transpose %318, dims = [1, 0] {result_layout = dense<[0, 1]> : tensor<2xindex>, xla_shape = "f32[1152,1152]{0,1}"} : (tensor<1152x1152xf32>) -> tensor<1152x1152xf32> loc(#loc)
    %320 = stablehlo.dot_general %316, %319, contracting_dims = [1] x [0] : (tensor<256x1152xf32>, tensor<1152x1152xf32>) -> tensor<256x1152xf32> loc(#loc)
    %321 = stablehlo.reshape %320 : (tensor<256x1152xf32>) -> tensor<1x256x1152xf32> loc(#loc)
    %322 = stablehlo.reshape %arg468 : (tensor<1152xf32>) -> tensor<1x1x1152xf32> loc(#loc)
    %323 = stablehlo.reshape %322 : (tensor<1x1x1152xf32>) -> tensor<1152xf32> loc(#loc)
    %324 = stablehlo.broadcast_in_dim %323, dims = [2] : (tensor<1152xf32>) -> tensor<1x256x1152xf32> loc(#loc)
    %325 = stablehlo.add %321, %324 : tensor<1x256x1152xf32> loc(#loc)
    %326 = stablehlo.reshape %325 : (tensor<1x256x1152xf32>) -> tensor<1x256x16x72xf32> loc(#loc)
    %327 = stablehlo.transpose %326, dims = [0, 2, 1, 3] {result_layout = dense<[3, 1, 2, 0]> : tensor<4xindex>, xla_shape = "f32[1,16,256,72]{3,1,2,0}"} : (tensor<1x256x16x72xf32>) -> tensor<1x16x256x72xf32> loc(#loc)
    %328 = stablehlo.reshape %arg467 : (tensor<1152x1152xf32>) -> tensor<1x1152x1152xf32> loc(#loc)
    %329 = stablehlo.reshape %328 : (tensor<1x1152x1152xf32>) -> tensor<1152x1152xf32> loc(#loc)
    %330 = stablehlo.transpose %329, dims = [1, 0] {result_layout = dense<[0, 1]> : tensor<2xindex>, xla_shape = "f32[1152,1152]{0,1}"} : (tensor<1152x1152xf32>) -> tensor<1152x1152xf32> loc(#loc)
    %331 = stablehlo.dot_general %316, %330, contracting_dims = [1] x [0] : (tensor<256x1152xf32>, tensor<1152x1152xf32>) -> tensor<256x1152xf32> loc(#loc)
    %332 = stablehlo.reshape %331 : (tensor<256x1152xf32>) -> tensor<1x256x1152xf32> loc(#loc)
    %333 = stablehlo.reshape %arg466 : (tensor<1152xf32>) -> tensor<1x1x1152xf32> loc(#loc)
    %334 = stablehlo.reshape %333 : (tensor<1x1x1152xf32>) -> tensor<1152xf32> loc(#loc)
    %335 = stablehlo.broadcast_in_dim %334, dims = [2] : (tensor<1152xf32>) -> tensor<1x256x1152xf32> loc(#loc)
    %336 = stablehlo.add %332, %335 : tensor<1x256x1152xf32> loc(#loc)
    %337 = stablehlo.reshape %336 : (tensor<1x256x1152xf32>) -> tensor<1x256x16x72xf32> loc(#loc)
    %338 = stablehlo.transpose %337, dims = [0, 2, 3, 1] : (tensor<1x256x16x72xf32>) -> tensor<1x16x72x256xf32> loc(#loc)
    %339 = stablehlo.dot_general %327, %338, batching_dims = [0, 1] x [0, 1], contracting_dims = [3] x [2] {mhlo.frontend_attributes = {grad_x = "false", grad_y = "false"}} : (tensor<1x16x256x72xf32>, tensor<1x16x72x256xf32>) -> tensor<1x16x256x256xf32> loc(#loc)
    %340 = stablehlo.multiply %339, %cst_12 : tensor<1x16x256x256xf32> loc(#loc)
    %341 = stablehlo.reduce(%340 init: %cst_27) applies stablehlo.maximum across dimensions = [3] : (tensor<1x16x256x256xf32>, tensor<f32>) -> tensor<1x16x256xf32> loc(#loc)
    %342 = stablehlo.broadcast_in_dim %341, dims = [0, 1, 2] : (tensor<1x16x256xf32>) -> tensor<1x16x256x256xf32> loc(#loc)
    %343 = stablehlo.subtract %340, %342 : tensor<1x16x256x256xf32> loc(#loc)
    %344 = stablehlo.exponential %343 : tensor<1x16x256x256xf32> loc(#loc)
    %345 = stablehlo.reduce(%344 init: %cst_29) applies stablehlo.add across dimensions = [3] : (tensor<1x16x256x256xf32>, tensor<f32>) -> tensor<1x16x256xf32> loc(#loc)
    %346 = stablehlo.broadcast_in_dim %345, dims = [0, 1, 2] : (tensor<1x16x256xf32>) -> tensor<1x16x256x256xf32> loc(#loc)
    %347 = stablehlo.divide %344, %346 : tensor<1x16x256x256xf32> loc(#loc)
    %348 = stablehlo.reshape %arg426 : (tensor<1152x1152xf32>) -> tensor<1x1152x1152xf32> loc(#loc)
    %349 = stablehlo.reshape %348 : (tensor<1x1152x1152xf32>) -> tensor<1152x1152xf32> loc(#loc)
    %350 = stablehlo.transpose %349, dims = [1, 0] {result_layout = dense<[0, 1]> : tensor<2xindex>, xla_shape = "f32[1152,1152]{0,1}"} : (tensor<1152x1152xf32>) -> tensor<1152x1152xf32> loc(#loc)
    %351 = stablehlo.dot_general %316, %350, contracting_dims = [1] x [0] : (tensor<256x1152xf32>, tensor<1152x1152xf32>) -> tensor<256x1152xf32> loc(#loc)
    %352 = stablehlo.reshape %351 : (tensor<256x1152xf32>) -> tensor<1x256x1152xf32> loc(#loc)
    %353 = stablehlo.reshape %arg425 : (tensor<1152xf32>) -> tensor<1x1x1152xf32> loc(#loc)
    %354 = stablehlo.reshape %353 : (tensor<1x1x1152xf32>) -> tensor<1152xf32> loc(#loc)
    %355 = stablehlo.broadcast_in_dim %354, dims = [2] : (tensor<1152xf32>) -> tensor<1x256x1152xf32> loc(#loc)
    %356 = stablehlo.add %352, %355 : tensor<1x256x1152xf32> loc(#loc)
    %357 = stablehlo.reshape %356 : (tensor<1x256x1152xf32>) -> tensor<1x256x16x72xf32> loc(#loc)
    %358 = stablehlo.transpose %357, dims = [0, 2, 1, 3] {result_layout = dense<[3, 1, 2, 0]> : tensor<4xindex>, xla_shape = "f32[1,16,256,72]{3,1,2,0}"} : (tensor<1x256x16x72xf32>) -> tensor<1x16x256x72xf32> loc(#loc)
    %359 = stablehlo.dot_general %347, %358, batching_dims = [0, 1] x [0, 1], contracting_dims = [3] x [2] {mhlo.frontend_attributes = {grad_x = "false", grad_y = "false"}} : (tensor<1x16x256x256xf32>, tensor<1x16x256x72xf32>) -> tensor<1x16x256x72xf32> loc(#loc)
    %360 = stablehlo.transpose %359, dims = [0, 2, 1, 3] {result_layout = dense<[3, 1, 2, 0]> : tensor<4xindex>, xla_shape = "f32[1,256,16,72]{3,1,2,0}"} : (tensor<1x16x256x72xf32>) -> tensor<1x256x16x72xf32> loc(#loc)
    %361 = stablehlo.reshape %360 : (tensor<1x256x16x72xf32>) -> tensor<256x1152xf32> loc(#loc)
    %362 = stablehlo.reshape %arg424 : (tensor<1152x1152xf32>) -> tensor<1x1152x1152xf32> loc(#loc)
    %363 = stablehlo.reshape %362 : (tensor<1x1152x1152xf32>) -> tensor<1152x1152xf32> loc(#loc)
    %364 = stablehlo.transpose %363, dims = [1, 0] {result_layout = dense<[0, 1]> : tensor<2xindex>, xla_shape = "f32[1152,1152]{0,1}"} : (tensor<1152x1152xf32>) -> tensor<1152x1152xf32> loc(#loc)
    %365 = stablehlo.dot_general %361, %364, contracting_dims = [1] x [0] : (tensor<256x1152xf32>, tensor<1152x1152xf32>) -> tensor<256x1152xf32> loc(#loc)
    %366 = stablehlo.reshape %365 : (tensor<256x1152xf32>) -> tensor<1x256x1152xf32> loc(#loc)
    %367 = stablehlo.reshape %arg423 : (tensor<1152xf32>) -> tensor<1x1x1152xf32> loc(#loc)
    %368 = stablehlo.reshape %367 : (tensor<1x1x1152xf32>) -> tensor<1152xf32> loc(#loc)
    %369 = stablehlo.broadcast_in_dim %368, dims = [2] : (tensor<1152xf32>) -> tensor<1x256x1152xf32> loc(#loc)
    %370 = stablehlo.add %366, %369 : tensor<1x256x1152xf32> loc(#loc)
    %371 = stablehlo.add %310, %370 {result_layout = dense<[1, 2, 0]> : tensor<3xindex>, xla_shape = "f32[1,256,1152]{1,2,0}"} : tensor<1x256x1152xf32> loc(#loc)
    %372 = stablehlo.reshape %arg422 : (tensor<1152xf32>) -> tensor<1x1x1152xf32> loc(#loc)
    %373 = stablehlo.reshape %372 : (tensor<1x1x1152xf32>) -> tensor<1152xf32> loc(#loc)
    %374 = stablehlo.reshape %arg421 : (tensor<1152xf32>) -> tensor<1x1x1152xf32> loc(#loc)
    %375 = stablehlo.reshape %374 : (tensor<1x1x1152xf32>) -> tensor<1152xf32> loc(#loc)
    %376 = stablehlo.composite "tenstorrent.layer_norm" %371, %373, %375 {composite_attributes = {epsilon = 9.99999997E-7 : f32, normalized_shape = dense<1152> : tensor<1xi64>}, decomposition = @tenstorrent.layer_norm.impl_106} : (tensor<1x256x1152xf32>, tensor<1152xf32>, tensor<1152xf32>) -> tensor<1x256x1152xf32> loc(#loc)
    %377 = stablehlo.reshape %376 : (tensor<1x256x1152xf32>) -> tensor<256x1152xf32> loc(#loc)
    %378 = stablehlo.reshape %arg420 : (tensor<4304x1152xf32>) -> tensor<1x4304x1152xf32> loc(#loc)
    %379 = stablehlo.reshape %378 : (tensor<1x4304x1152xf32>) -> tensor<4304x1152xf32> loc(#loc)
    %380 = stablehlo.transpose %379, dims = [1, 0] {result_layout = dense<[0, 1]> : tensor<2xindex>, xla_shape = "f32[1152,4304]{0,1}"} : (tensor<4304x1152xf32>) -> tensor<1152x4304xf32> loc(#loc)
    %381 = stablehlo.dot_general %377, %380, contracting_dims = [1] x [0] : (tensor<256x1152xf32>, tensor<1152x4304xf32>) -> tensor<256x4304xf32> loc(#loc)
    %382 = stablehlo.reshape %381 : (tensor<256x4304xf32>) -> tensor<1x256x4304xf32> loc(#loc)
    %383 = stablehlo.reshape %arg419 : (tensor<4304xf32>) -> tensor<1x1x4304xf32> loc(#loc)
    %384 = stablehlo.reshape %383 : (tensor<1x1x4304xf32>) -> tensor<4304xf32> loc(#loc)
    %385 = stablehlo.broadcast_in_dim %384, dims = [2] : (tensor<4304xf32>) -> tensor<1x256x4304xf32> loc(#loc)
    %386 = stablehlo.add %382, %385 : tensor<1x256x4304xf32> loc(#loc)
    %387 = stablehlo.composite "tenstorrent.gelu_tanh" %386 {composite_attributes = {approximate = "tanh"}, decomposition = @tenstorrent.gelu_tanh.impl_100} : (tensor<1x256x4304xf32>) -> tensor<1x256x4304xf32> loc(#loc)
    %388 = stablehlo.reshape %387 : (tensor<1x256x4304xf32>) -> tensor<256x4304xf32> loc(#loc)
    %389 = stablehlo.reshape %arg418 : (tensor<1152x4304xf32>) -> tensor<1x1152x4304xf32> loc(#loc)
    %390 = stablehlo.reshape %389 : (tensor<1x1152x4304xf32>) -> tensor<1152x4304xf32> loc(#loc)
    %391 = stablehlo.transpose %390, dims = [1, 0] {result_layout = dense<[0, 1]> : tensor<2xindex>, xla_shape = "f32[4304,1152]{0,1}"} : (tensor<1152x4304xf32>) -> tensor<4304x1152xf32> loc(#loc)
    %392 = stablehlo.dot_general %388, %391, contracting_dims = [1] x [0] : (tensor<256x4304xf32>, tensor<4304x1152xf32>) -> tensor<256x1152xf32> loc(#loc)
    %393 = stablehlo.reshape %392 : (tensor<256x1152xf32>) -> tensor<1x256x1152xf32> loc(#loc)
    %394 = stablehlo.reshape %arg417 : (tensor<1152xf32>) -> tensor<1x1x1152xf32> loc(#loc)
    %395 = stablehlo.reshape %394 : (tensor<1x1x1152xf32>) -> tensor<1152xf32> loc(#loc)
    %396 = stablehlo.broadcast_in_dim %395, dims = [2] : (tensor<1152xf32>) -> tensor<1x256x1152xf32> loc(#loc)
    %397 = stablehlo.add %393, %396 : tensor<1x256x1152xf32> loc(#loc)
    %398 = stablehlo.add %371, %397 {result_layout = dense<[1, 2, 0]> : tensor<3xindex>, xla_shape = "f32[1,256,1152]{1,2,0}"} : tensor<1x256x1152xf32> loc(#loc)
    %399 = stablehlo.reshape %arg416 : (tensor<1152xf32>) -> tensor<1x1x1152xf32> loc(#loc)
    %400 = stablehlo.reshape %399 : (tensor<1x1x1152xf32>) -> tensor<1152xf32> loc(#loc)
    %401 = stablehlo.reshape %arg415 : (tensor<1152xf32>) -> tensor<1x1x1152xf32> loc(#loc)
    %402 = stablehlo.reshape %401 : (tensor<1x1x1152xf32>) -> tensor<1152xf32> loc(#loc)
    %403 = stablehlo.composite "tenstorrent.layer_norm" %398, %400, %402 {composite_attributes = {epsilon = 9.99999997E-7 : f32, normalized_shape = dense<1152> : tensor<1xi64>}, decomposition = @tenstorrent.layer_norm.impl_85} : (tensor<1x256x1152xf32>, tensor<1152xf32>, tensor<1152xf32>) -> tensor<1x256x1152xf32> loc(#loc)
    %404 = stablehlo.reshape %403 : (tensor<1x256x1152xf32>) -> tensor<256x1152xf32> loc(#loc)
    %405 = stablehlo.reshape %arg473 : (tensor<1152x1152xf32>) -> tensor<1x1152x1152xf32> loc(#loc)
    %406 = stablehlo.reshape %405 : (tensor<1x1152x1152xf32>) -> tensor<1152x1152xf32> loc(#loc)
    %407 = stablehlo.transpose %406, dims = [1, 0] {result_layout = dense<[0, 1]> : tensor<2xindex>, xla_shape = "f32[1152,1152]{0,1}"} : (tensor<1152x1152xf32>) -> tensor<1152x1152xf32> loc(#loc)
    %408 = stablehlo.dot_general %404, %407, contracting_dims = [1] x [0] : (tensor<256x1152xf32>, tensor<1152x1152xf32>) -> tensor<256x1152xf32> loc(#loc)
    %409 = stablehlo.reshape %408 : (tensor<256x1152xf32>) -> tensor<1x256x1152xf32> loc(#loc)
    %410 = stablehlo.reshape %arg472 : (tensor<1152xf32>) -> tensor<1x1x1152xf32> loc(#loc)
    %411 = stablehlo.reshape %410 : (tensor<1x1x1152xf32>) -> tensor<1152xf32> loc(#loc)
    %412 = stablehlo.broadcast_in_dim %411, dims = [2] : (tensor<1152xf32>) -> tensor<1x256x1152xf32> loc(#loc)
    %413 = stablehlo.add %409, %412 : tensor<1x256x1152xf32> loc(#loc)
    %414 = stablehlo.reshape %413 : (tensor<1x256x1152xf32>) -> tensor<1x256x16x72xf32> loc(#loc)
    %415 = stablehlo.transpose %414, dims = [0, 2, 1, 3] {result_layout = dense<[3, 1, 2, 0]> : tensor<4xindex>, xla_shape = "f32[1,16,256,72]{3,1,2,0}"} : (tensor<1x256x16x72xf32>) -> tensor<1x16x256x72xf32> loc(#loc)
    %416 = stablehlo.reshape %arg471 : (tensor<1152x1152xf32>) -> tensor<1x1152x1152xf32> loc(#loc)
    %417 = stablehlo.reshape %416 : (tensor<1x1152x1152xf32>) -> tensor<1152x1152xf32> loc(#loc)
    %418 = stablehlo.transpose %417, dims = [1, 0] {result_layout = dense<[0, 1]> : tensor<2xindex>, xla_shape = "f32[1152,1152]{0,1}"} : (tensor<1152x1152xf32>) -> tensor<1152x1152xf32> loc(#loc)
    %419 = stablehlo.dot_general %404, %418, contracting_dims = [1] x [0] : (tensor<256x1152xf32>, tensor<1152x1152xf32>) -> tensor<256x1152xf32> loc(#loc)
    %420 = stablehlo.reshape %419 : (tensor<256x1152xf32>) -> tensor<1x256x1152xf32> loc(#loc)
    %421 = stablehlo.reshape %arg470 : (tensor<1152xf32>) -> tensor<1x1x1152xf32> loc(#loc)
    %422 = stablehlo.reshape %421 : (tensor<1x1x1152xf32>) -> tensor<1152xf32> loc(#loc)
    %423 = stablehlo.broadcast_in_dim %422, dims = [2] : (tensor<1152xf32>) -> tensor<1x256x1152xf32> loc(#loc)
    %424 = stablehlo.add %420, %423 : tensor<1x256x1152xf32> loc(#loc)
    %425 = stablehlo.reshape %424 : (tensor<1x256x1152xf32>) -> tensor<1x256x16x72xf32> loc(#loc)
    %426 = stablehlo.transpose %425, dims = [0, 2, 3, 1] : (tensor<1x256x16x72xf32>) -> tensor<1x16x72x256xf32> loc(#loc)
    %427 = stablehlo.dot_general %415, %426, batching_dims = [0, 1] x [0, 1], contracting_dims = [3] x [2] {mhlo.frontend_attributes = {grad_x = "false", grad_y = "false"}} : (tensor<1x16x256x72xf32>, tensor<1x16x72x256xf32>) -> tensor<1x16x256x256xf32> loc(#loc)
    %428 = stablehlo.multiply %427, %cst_12 : tensor<1x16x256x256xf32> loc(#loc)
    %429 = stablehlo.reduce(%428 init: %cst_27) applies stablehlo.maximum across dimensions = [3] : (tensor<1x16x256x256xf32>, tensor<f32>) -> tensor<1x16x256xf32> loc(#loc)
    %430 = stablehlo.broadcast_in_dim %429, dims = [0, 1, 2] : (tensor<1x16x256xf32>) -> tensor<1x16x256x256xf32> loc(#loc)
    %431 = stablehlo.subtract %428, %430 : tensor<1x16x256x256xf32> loc(#loc)
    %432 = stablehlo.exponential %431 : tensor<1x16x256x256xf32> loc(#loc)
    %433 = stablehlo.reduce(%432 init: %cst_29) applies stablehlo.add across dimensions = [3] : (tensor<1x16x256x256xf32>, tensor<f32>) -> tensor<1x16x256xf32> loc(#loc)
    %434 = stablehlo.broadcast_in_dim %433, dims = [0, 1, 2] : (tensor<1x16x256xf32>) -> tensor<1x16x256x256xf32> loc(#loc)
    %435 = stablehlo.divide %432, %434 : tensor<1x16x256x256xf32> loc(#loc)
    %436 = stablehlo.reshape %arg414 : (tensor<1152x1152xf32>) -> tensor<1x1152x1152xf32> loc(#loc)
    %437 = stablehlo.reshape %436 : (tensor<1x1152x1152xf32>) -> tensor<1152x1152xf32> loc(#loc)
    %438 = stablehlo.transpose %437, dims = [1, 0] {result_layout = dense<[0, 1]> : tensor<2xindex>, xla_shape = "f32[1152,1152]{0,1}"} : (tensor<1152x1152xf32>) -> tensor<1152x1152xf32> loc(#loc)
    %439 = stablehlo.dot_general %404, %438, contracting_dims = [1] x [0] : (tensor<256x1152xf32>, tensor<1152x1152xf32>) -> tensor<256x1152xf32> loc(#loc)
    %440 = stablehlo.reshape %439 : (tensor<256x1152xf32>) -> tensor<1x256x1152xf32> loc(#loc)
    %441 = stablehlo.reshape %arg413 : (tensor<1152xf32>) -> tensor<1x1x1152xf32> loc(#loc)
    %442 = stablehlo.reshape %441 : (tensor<1x1x1152xf32>) -> tensor<1152xf32> loc(#loc)
    %443 = stablehlo.broadcast_in_dim %442, dims = [2] : (tensor<1152xf32>) -> tensor<1x256x1152xf32> loc(#loc)
    %444 = stablehlo.add %440, %443 : tensor<1x256x1152xf32> loc(#loc)
    %445 = stablehlo.reshape %444 : (tensor<1x256x1152xf32>) -> tensor<1x256x16x72xf32> loc(#loc)
    %446 = stablehlo.transpose %445, dims = [0, 2, 1, 3] {result_layout = dense<[3, 1, 2, 0]> : tensor<4xindex>, xla_shape = "f32[1,16,256,72]{3,1,2,0}"} : (tensor<1x256x16x72xf32>) -> tensor<1x16x256x72xf32> loc(#loc)
    %447 = stablehlo.dot_general %435, %446, batching_dims = [0, 1] x [0, 1], contracting_dims = [3] x [2] {mhlo.frontend_attributes = {grad_x = "false", grad_y = "false"}} : (tensor<1x16x256x256xf32>, tensor<1x16x256x72xf32>) -> tensor<1x16x256x72xf32> loc(#loc)
    %448 = stablehlo.transpose %447, dims = [0, 2, 1, 3] {result_layout = dense<[3, 1, 2, 0]> : tensor<4xindex>, xla_shape = "f32[1,256,16,72]{3,1,2,0}"} : (tensor<1x16x256x72xf32>) -> tensor<1x256x16x72xf32> loc(#loc)
    %449 = stablehlo.reshape %448 : (tensor<1x256x16x72xf32>) -> tensor<256x1152xf32> loc(#loc)
    %450 = stablehlo.reshape %arg412 : (tensor<1152x1152xf32>) -> tensor<1x1152x1152xf32> loc(#loc)
    %451 = stablehlo.reshape %450 : (tensor<1x1152x1152xf32>) -> tensor<1152x1152xf32> loc(#loc)
    %452 = stablehlo.transpose %451, dims = [1, 0] {result_layout = dense<[0, 1]> : tensor<2xindex>, xla_shape = "f32[1152,1152]{0,1}"} : (tensor<1152x1152xf32>) -> tensor<1152x1152xf32> loc(#loc)
    %453 = stablehlo.dot_general %449, %452, contracting_dims = [1] x [0] : (tensor<256x1152xf32>, tensor<1152x1152xf32>) -> tensor<256x1152xf32> loc(#loc)
    %454 = stablehlo.reshape %453 : (tensor<256x1152xf32>) -> tensor<1x256x1152xf32> loc(#loc)
    %455 = stablehlo.reshape %arg411 : (tensor<1152xf32>) -> tensor<1x1x1152xf32> loc(#loc)
    %456 = stablehlo.reshape %455 : (tensor<1x1x1152xf32>) -> tensor<1152xf32> loc(#loc)
    %457 = stablehlo.broadcast_in_dim %456, dims = [2] : (tensor<1152xf32>) -> tensor<1x256x1152xf32> loc(#loc)
    %458 = stablehlo.add %454, %457 : tensor<1x256x1152xf32> loc(#loc)
    %459 = stablehlo.add %398, %458 {result_layout = dense<[1, 2, 0]> : tensor<3xindex>, xla_shape = "f32[1,256,1152]{1,2,0}"} : tensor<1x256x1152xf32> loc(#loc)
    %460 = stablehlo.reshape %arg410 : (tensor<1152xf32>) -> tensor<1x1x1152xf32> loc(#loc)
    %461 = stablehlo.reshape %460 : (tensor<1x1x1152xf32>) -> tensor<1152xf32> loc(#loc)
    %462 = stablehlo.reshape %arg409 : (tensor<1152xf32>) -> tensor<1x1x1152xf32> loc(#loc)
    %463 = stablehlo.reshape %462 : (tensor<1x1x1152xf32>) -> tensor<1152xf32> loc(#loc)
    %464 = stablehlo.composite "tenstorrent.layer_norm" %459, %461, %463 {composite_attributes = {epsilon = 9.99999997E-7 : f32, normalized_shape = dense<1152> : tensor<1xi64>}, decomposition = @tenstorrent.layer_norm.impl_53} : (tensor<1x256x1152xf32>, tensor<1152xf32>, tensor<1152xf32>) -> tensor<1x256x1152xf32> loc(#loc)
    %465 = stablehlo.reshape %464 : (tensor<1x256x1152xf32>) -> tensor<256x1152xf32> loc(#loc)
    %466 = stablehlo.reshape %arg408 : (tensor<4304x1152xf32>) -> tensor<1x4304x1152xf32> loc(#loc)
    %467 = stablehlo.reshape %466 : (tensor<1x4304x1152xf32>) -> tensor<4304x1152xf32> loc(#loc)
    %468 = stablehlo.transpose %467, dims = [1, 0] {result_layout = dense<[0, 1]> : tensor<2xindex>, xla_shape = "f32[1152,4304]{0,1}"} : (tensor<4304x1152xf32>) -> tensor<1152x4304xf32> loc(#loc)
    %469 = stablehlo.dot_general %465, %468, contracting_dims = [1] x [0] : (tensor<256x1152xf32>, tensor<1152x4304xf32>) -> tensor<256x4304xf32> loc(#loc)
    %470 = stablehlo.reshape %469 : (tensor<256x4304xf32>) -> tensor<1x256x4304xf32> loc(#loc)
    %471 = stablehlo.reshape %arg407 : (tensor<4304xf32>) -> tensor<1x1x4304xf32> loc(#loc)
    %472 = stablehlo.reshape %471 : (tensor<1x1x4304xf32>) -> tensor<4304xf32> loc(#loc)
    %473 = stablehlo.broadcast_in_dim %472, dims = [2] : (tensor<4304xf32>) -> tensor<1x256x4304xf32> loc(#loc)
    %474 = stablehlo.add %470, %473 : tensor<1x256x4304xf32> loc(#loc)
    %475 = stablehlo.composite "tenstorrent.gelu_tanh" %474 {composite_attributes = {approximate = "tanh"}, decomposition = @tenstorrent.gelu_tanh.impl_51} : (tensor<1x256x4304xf32>) -> tensor<1x256x4304xf32> loc(#loc)
    %476 = stablehlo.reshape %475 : (tensor<1x256x4304xf32>) -> tensor<256x4304xf32> loc(#loc)
    %477 = stablehlo.reshape %arg406 : (tensor<1152x4304xf32>) -> tensor<1x1152x4304xf32> loc(#loc)
    %478 = stablehlo.reshape %477 : (tensor<1x1152x4304xf32>) -> tensor<1152x4304xf32> loc(#loc)
    %479 = stablehlo.transpose %478, dims = [1, 0] {result_layout = dense<[0, 1]> : tensor<2xindex>, xla_shape = "f32[4304,1152]{0,1}"} : (tensor<1152x4304xf32>) -> tensor<4304x1152xf32> loc(#loc)
    %480 = stablehlo.dot_general %476, %479, contracting_dims = [1] x [0] : (tensor<256x4304xf32>, tensor<4304x1152xf32>) -> tensor<256x1152xf32> loc(#loc)
    %481 = stablehlo.reshape %480 : (tensor<256x1152xf32>) -> tensor<1x256x1152xf32> loc(#loc)
    %482 = stablehlo.reshape %arg405 : (tensor<1152xf32>) -> tensor<1x1x1152xf32> loc(#loc)
    %483 = stablehlo.reshape %482 : (tensor<1x1x1152xf32>) -> tensor<1152xf32> loc(#loc)
    %484 = stablehlo.broadcast_in_dim %483, dims = [2] : (tensor<1152xf32>) -> tensor<1x256x1152xf32> loc(#loc)
    %485 = stablehlo.add %481, %484 : tensor<1x256x1152xf32> loc(#loc)
    %486 = stablehlo.add %459, %485 {result_layout = dense<[1, 2, 0]> : tensor<3xindex>, xla_shape = "f32[1,256,1152]{1,2,0}"} : tensor<1x256x1152xf32> loc(#loc)
    %487 = stablehlo.reshape %arg404 : (tensor<1152xf32>) -> tensor<1x1x1152xf32> loc(#loc)
    %488 = stablehlo.reshape %487 : (tensor<1x1x1152xf32>) -> tensor<1152xf32> loc(#loc)
    %489 = stablehlo.reshape %arg403 : (tensor<1152xf32>) -> tensor<1x1x1152xf32> loc(#loc)
    %490 = stablehlo.reshape %489 : (tensor<1x1x1152xf32>) -> tensor<1152xf32> loc(#loc)
    %491 = stablehlo.composite "tenstorrent.layer_norm" %486, %488, %490 {composite_attributes = {epsilon = 9.99999997E-7 : f32, normalized_shape = dense<1152> : tensor<1xi64>}, decomposition = @tenstorrent.layer_norm.impl_66} : (tensor<1x256x1152xf32>, tensor<1152xf32>, tensor<1152xf32>) -> tensor<1x256x1152xf32> loc(#loc)
    %492 = stablehlo.reshape %491 : (tensor<1x256x1152xf32>) -> tensor<256x1152xf32> loc(#loc)
    %493 = stablehlo.reshape %arg477 : (tensor<1152x1152xf32>) -> tensor<1x1152x1152xf32> loc(#loc)
    %494 = stablehlo.reshape %493 : (tensor<1x1152x1152xf32>) -> tensor<1152x1152xf32> loc(#loc)
    %495 = stablehlo.transpose %494, dims = [1, 0] {result_layout = dense<[0, 1]> : tensor<2xindex>, xla_shape = "f32[1152,1152]{0,1}"} : (tensor<1152x1152xf32>) -> tensor<1152x1152xf32> loc(#loc)
    %496 = stablehlo.dot_general %492, %495, contracting_dims = [1] x [0] : (tensor<256x1152xf32>, tensor<1152x1152xf32>) -> tensor<256x1152xf32> loc(#loc)
    %497 = stablehlo.reshape %496 : (tensor<256x1152xf32>) -> tensor<1x256x1152xf32> loc(#loc)
    %498 = stablehlo.reshape %arg476 : (tensor<1152xf32>) -> tensor<1x1x1152xf32> loc(#loc)
    %499 = stablehlo.reshape %498 : (tensor<1x1x1152xf32>) -> tensor<1152xf32> loc(#loc)
    %500 = stablehlo.broadcast_in_dim %499, dims = [2] : (tensor<1152xf32>) -> tensor<1x256x1152xf32> loc(#loc)
    %501 = stablehlo.add %497, %500 : tensor<1x256x1152xf32> loc(#loc)
    %502 = stablehlo.reshape %501 : (tensor<1x256x1152xf32>) -> tensor<1x256x16x72xf32> loc(#loc)
    %503 = stablehlo.transpose %502, dims = [0, 2, 1, 3] {result_layout = dense<[3, 1, 2, 0]> : tensor<4xindex>, xla_shape = "f32[1,16,256,72]{3,1,2,0}"} : (tensor<1x256x16x72xf32>) -> tensor<1x16x256x72xf32> loc(#loc)
    %504 = stablehlo.reshape %arg475 : (tensor<1152x1152xf32>) -> tensor<1x1152x1152xf32> loc(#loc)
    %505 = stablehlo.reshape %504 : (tensor<1x1152x1152xf32>) -> tensor<1152x1152xf32> loc(#loc)
    %506 = stablehlo.transpose %505, dims = [1, 0] {result_layout = dense<[0, 1]> : tensor<2xindex>, xla_shape = "f32[1152,1152]{0,1}"} : (tensor<1152x1152xf32>) -> tensor<1152x1152xf32> loc(#loc)
    %507 = stablehlo.dot_general %492, %506, contracting_dims = [1] x [0] : (tensor<256x1152xf32>, tensor<1152x1152xf32>) -> tensor<256x1152xf32> loc(#loc)
    %508 = stablehlo.reshape %507 : (tensor<256x1152xf32>) -> tensor<1x256x1152xf32> loc(#loc)
    %509 = stablehlo.reshape %arg474 : (tensor<1152xf32>) -> tensor<1x1x1152xf32> loc(#loc)
    %510 = stablehlo.reshape %509 : (tensor<1x1x1152xf32>) -> tensor<1152xf32> loc(#loc)
    %511 = stablehlo.broadcast_in_dim %510, dims = [2] : (tensor<1152xf32>) -> tensor<1x256x1152xf32> loc(#loc)
    %512 = stablehlo.add %508, %511 : tensor<1x256x1152xf32> loc(#loc)
    %513 = stablehlo.reshape %512 : (tensor<1x256x1152xf32>) -> tensor<1x256x16x72xf32> loc(#loc)
    %514 = stablehlo.transpose %513, dims = [0, 2, 3, 1] : (tensor<1x256x16x72xf32>) -> tensor<1x16x72x256xf32> loc(#loc)
    %515 = stablehlo.dot_general %503, %514, batching_dims = [0, 1] x [0, 1], contracting_dims = [3] x [2] {mhlo.frontend_attributes = {grad_x = "false", grad_y = "false"}} : (tensor<1x16x256x72xf32>, tensor<1x16x72x256xf32>) -> tensor<1x16x256x256xf32> loc(#loc)
    %516 = stablehlo.multiply %515, %cst_12 : tensor<1x16x256x256xf32> loc(#loc)
    %517 = stablehlo.reduce(%516 init: %cst_27) applies stablehlo.maximum across dimensions = [3] : (tensor<1x16x256x256xf32>, tensor<f32>) -> tensor<1x16x256xf32> loc(#loc)
    %518 = stablehlo.broadcast_in_dim %517, dims = [0, 1, 2] : (tensor<1x16x256xf32>) -> tensor<1x16x256x256xf32> loc(#loc)
    %519 = stablehlo.subtract %516, %518 : tensor<1x16x256x256xf32> loc(#loc)
    %520 = stablehlo.exponential %519 : tensor<1x16x256x256xf32> loc(#loc)
    %521 = stablehlo.reduce(%520 init: %cst_29) applies stablehlo.add across dimensions = [3] : (tensor<1x16x256x256xf32>, tensor<f32>) -> tensor<1x16x256xf32> loc(#loc)
    %522 = stablehlo.broadcast_in_dim %521, dims = [0, 1, 2] : (tensor<1x16x256xf32>) -> tensor<1x16x256x256xf32> loc(#loc)
    %523 = stablehlo.divide %520, %522 : tensor<1x16x256x256xf32> loc(#loc)
    %524 = stablehlo.reshape %arg402 : (tensor<1152x1152xf32>) -> tensor<1x1152x1152xf32> loc(#loc)
    %525 = stablehlo.reshape %524 : (tensor<1x1152x1152xf32>) -> tensor<1152x1152xf32> loc(#loc)
    %526 = stablehlo.transpose %525, dims = [1, 0] {result_layout = dense<[0, 1]> : tensor<2xindex>, xla_shape = "f32[1152,1152]{0,1}"} : (tensor<1152x1152xf32>) -> tensor<1152x1152xf32> loc(#loc)
    %527 = stablehlo.dot_general %492, %526, contracting_dims = [1] x [0] : (tensor<256x1152xf32>, tensor<1152x1152xf32>) -> tensor<256x1152xf32> loc(#loc)
    %528 = stablehlo.reshape %527 : (tensor<256x1152xf32>) -> tensor<1x256x1152xf32> loc(#loc)
    %529 = stablehlo.reshape %arg401 : (tensor<1152xf32>) -> tensor<1x1x1152xf32> loc(#loc)
    %530 = stablehlo.reshape %529 : (tensor<1x1x1152xf32>) -> tensor<1152xf32> loc(#loc)
    %531 = stablehlo.broadcast_in_dim %530, dims = [2] : (tensor<1152xf32>) -> tensor<1x256x1152xf32> loc(#loc)
    %532 = stablehlo.add %528, %531 : tensor<1x256x1152xf32> loc(#loc)
    %533 = stablehlo.reshape %532 : (tensor<1x256x1152xf32>) -> tensor<1x256x16x72xf32> loc(#loc)
    %534 = stablehlo.transpose %533, dims = [0, 2, 1, 3] {result_layout = dense<[3, 1, 2, 0]> : tensor<4xindex>, xla_shape = "f32[1,16,256,72]{3,1,2,0}"} : (tensor<1x256x16x72xf32>) -> tensor<1x16x256x72xf32> loc(#loc)
    %535 = stablehlo.dot_general %523, %534, batching_dims = [0, 1] x [0, 1], contracting_dims = [3] x [2] {mhlo.frontend_attributes = {grad_x = "false", grad_y = "false"}} : (tensor<1x16x256x256xf32>, tensor<1x16x256x72xf32>) -> tensor<1x16x256x72xf32> loc(#loc)
    %536 = stablehlo.transpose %535, dims = [0, 2, 1, 3] {result_layout = dense<[3, 1, 2, 0]> : tensor<4xindex>, xla_shape = "f32[1,256,16,72]{3,1,2,0}"} : (tensor<1x16x256x72xf32>) -> tensor<1x256x16x72xf32> loc(#loc)
    %537 = stablehlo.reshape %536 : (tensor<1x256x16x72xf32>) -> tensor<256x1152xf32> loc(#loc)
    %538 = stablehlo.reshape %arg400 : (tensor<1152x1152xf32>) -> tensor<1x1152x1152xf32> loc(#loc)
    %539 = stablehlo.reshape %538 : (tensor<1x1152x1152xf32>) -> tensor<1152x1152xf32> loc(#loc)
    %540 = stablehlo.transpose %539, dims = [1, 0] {result_layout = dense<[0, 1]> : tensor<2xindex>, xla_shape = "f32[1152,1152]{0,1}"} : (tensor<1152x1152xf32>) -> tensor<1152x1152xf32> loc(#loc)
    %541 = stablehlo.dot_general %537, %540, contracting_dims = [1] x [0] : (tensor<256x1152xf32>, tensor<1152x1152xf32>) -> tensor<256x1152xf32> loc(#loc)
    %542 = stablehlo.reshape %541 : (tensor<256x1152xf32>) -> tensor<1x256x1152xf32> loc(#loc)
    %543 = stablehlo.reshape %arg399 : (tensor<1152xf32>) -> tensor<1x1x1152xf32> loc(#loc)
    %544 = stablehlo.reshape %543 : (tensor<1x1x1152xf32>) -> tensor<1152xf32> loc(#loc)
    %545 = stablehlo.broadcast_in_dim %544, dims = [2] : (tensor<1152xf32>) -> tensor<1x256x1152xf32> loc(#loc)
    %546 = stablehlo.add %542, %545 : tensor<1x256x1152xf32> loc(#loc)
    %547 = stablehlo.add %486, %546 {result_layout = dense<[1, 2, 0]> : tensor<3xindex>, xla_shape = "f32[1,256,1152]{1,2,0}"} : tensor<1x256x1152xf32> loc(#loc)
    %548 = stablehlo.reshape %arg398 : (tensor<1152xf32>) -> tensor<1x1x1152xf32> loc(#loc)
    %549 = stablehlo.reshape %548 : (tensor<1x1x1152xf32>) -> tensor<1152xf32> loc(#loc)
    %550 = stablehlo.reshape %arg397 : (tensor<1152xf32>) -> tensor<1x1x1152xf32> loc(#loc)
    %551 = stablehlo.reshape %550 : (tensor<1x1x1152xf32>) -> tensor<1152xf32> loc(#loc)
    %552 = stablehlo.composite "tenstorrent.layer_norm" %547, %549, %551 {composite_attributes = {epsilon = 9.99999997E-7 : f32, normalized_shape = dense<1152> : tensor<1xi64>}, decomposition = @tenstorrent.layer_norm.impl_69} : (tensor<1x256x1152xf32>, tensor<1152xf32>, tensor<1152xf32>) -> tensor<1x256x1152xf32> loc(#loc)
    %553 = stablehlo.reshape %552 : (tensor<1x256x1152xf32>) -> tensor<256x1152xf32> loc(#loc)
    %554 = stablehlo.reshape %arg396 : (tensor<4304x1152xf32>) -> tensor<1x4304x1152xf32> loc(#loc)
    %555 = stablehlo.reshape %554 : (tensor<1x4304x1152xf32>) -> tensor<4304x1152xf32> loc(#loc)
    %556 = stablehlo.transpose %555, dims = [1, 0] {result_layout = dense<[0, 1]> : tensor<2xindex>, xla_shape = "f32[1152,4304]{0,1}"} : (tensor<4304x1152xf32>) -> tensor<1152x4304xf32> loc(#loc)
    %557 = stablehlo.dot_general %553, %556, contracting_dims = [1] x [0] : (tensor<256x1152xf32>, tensor<1152x4304xf32>) -> tensor<256x4304xf32> loc(#loc)
    %558 = stablehlo.reshape %557 : (tensor<256x4304xf32>) -> tensor<1x256x4304xf32> loc(#loc)
    %559 = stablehlo.reshape %arg395 : (tensor<4304xf32>) -> tensor<1x1x4304xf32> loc(#loc)
    %560 = stablehlo.reshape %559 : (tensor<1x1x4304xf32>) -> tensor<4304xf32> loc(#loc)
    %561 = stablehlo.broadcast_in_dim %560, dims = [2] : (tensor<4304xf32>) -> tensor<1x256x4304xf32> loc(#loc)
    %562 = stablehlo.add %558, %561 : tensor<1x256x4304xf32> loc(#loc)
    %563 = stablehlo.composite "tenstorrent.gelu_tanh" %562 {composite_attributes = {approximate = "tanh"}, decomposition = @tenstorrent.gelu_tanh.impl_42} : (tensor<1x256x4304xf32>) -> tensor<1x256x4304xf32> loc(#loc)
    %564 = stablehlo.reshape %563 : (tensor<1x256x4304xf32>) -> tensor<256x4304xf32> loc(#loc)
    %565 = stablehlo.reshape %arg394 : (tensor<1152x4304xf32>) -> tensor<1x1152x4304xf32> loc(#loc)
    %566 = stablehlo.reshape %565 : (tensor<1x1152x4304xf32>) -> tensor<1152x4304xf32> loc(#loc)
    %567 = stablehlo.transpose %566, dims = [1, 0] {result_layout = dense<[0, 1]> : tensor<2xindex>, xla_shape = "f32[4304,1152]{0,1}"} : (tensor<1152x4304xf32>) -> tensor<4304x1152xf32> loc(#loc)
    %568 = stablehlo.dot_general %564, %567, contracting_dims = [1] x [0] : (tensor<256x4304xf32>, tensor<4304x1152xf32>) -> tensor<256x1152xf32> loc(#loc)
    %569 = stablehlo.reshape %568 : (tensor<256x1152xf32>) -> tensor<1x256x1152xf32> loc(#loc)
    %570 = stablehlo.reshape %arg393 : (tensor<1152xf32>) -> tensor<1x1x1152xf32> loc(#loc)
    %571 = stablehlo.reshape %570 : (tensor<1x1x1152xf32>) -> tensor<1152xf32> loc(#loc)
    %572 = stablehlo.broadcast_in_dim %571, dims = [2] : (tensor<1152xf32>) -> tensor<1x256x1152xf32> loc(#loc)
    %573 = stablehlo.add %569, %572 : tensor<1x256x1152xf32> loc(#loc)
    %574 = stablehlo.add %547, %573 {result_layout = dense<[1, 2, 0]> : tensor<3xindex>, xla_shape = "f32[1,256,1152]{1,2,0}"} : tensor<1x256x1152xf32> loc(#loc)
    %575 = stablehlo.reshape %arg392 : (tensor<1152xf32>) -> tensor<1x1x1152xf32> loc(#loc)
    %576 = stablehlo.reshape %575 : (tensor<1x1x1152xf32>) -> tensor<1152xf32> loc(#loc)
    %577 = stablehlo.reshape %arg391 : (tensor<1152xf32>) -> tensor<1x1x1152xf32> loc(#loc)
    %578 = stablehlo.reshape %577 : (tensor<1x1x1152xf32>) -> tensor<1152xf32> loc(#loc)
    %579 = stablehlo.composite "tenstorrent.layer_norm" %574, %576, %578 {composite_attributes = {epsilon = 9.99999997E-7 : f32, normalized_shape = dense<1152> : tensor<1xi64>}, decomposition = @tenstorrent.layer_norm.impl_50} : (tensor<1x256x1152xf32>, tensor<1152xf32>, tensor<1152xf32>) -> tensor<1x256x1152xf32> loc(#loc)
    %580 = stablehlo.reshape %579 : (tensor<1x256x1152xf32>) -> tensor<256x1152xf32> loc(#loc)
    %581 = stablehlo.reshape %arg481 : (tensor<1152x1152xf32>) -> tensor<1x1152x1152xf32> loc(#loc)
    %582 = stablehlo.reshape %581 : (tensor<1x1152x1152xf32>) -> tensor<1152x1152xf32> loc(#loc)
    %583 = stablehlo.transpose %582, dims = [1, 0] {result_layout = dense<[0, 1]> : tensor<2xindex>, xla_shape = "f32[1152,1152]{0,1}"} : (tensor<1152x1152xf32>) -> tensor<1152x1152xf32> loc(#loc)
    %584 = stablehlo.dot_general %580, %583, contracting_dims = [1] x [0] : (tensor<256x1152xf32>, tensor<1152x1152xf32>) -> tensor<256x1152xf32> loc(#loc)
    %585 = stablehlo.reshape %584 : (tensor<256x1152xf32>) -> tensor<1x256x1152xf32> loc(#loc)
    %586 = stablehlo.reshape %arg480 : (tensor<1152xf32>) -> tensor<1x1x1152xf32> loc(#loc)
    %587 = stablehlo.reshape %586 : (tensor<1x1x1152xf32>) -> tensor<1152xf32> loc(#loc)
    %588 = stablehlo.broadcast_in_dim %587, dims = [2] : (tensor<1152xf32>) -> tensor<1x256x1152xf32> loc(#loc)
    %589 = stablehlo.add %585, %588 : tensor<1x256x1152xf32> loc(#loc)
    %590 = stablehlo.reshape %589 : (tensor<1x256x1152xf32>) -> tensor<1x256x16x72xf32> loc(#loc)
    %591 = stablehlo.transpose %590, dims = [0, 2, 1, 3] {result_layout = dense<[3, 1, 2, 0]> : tensor<4xindex>, xla_shape = "f32[1,16,256,72]{3,1,2,0}"} : (tensor<1x256x16x72xf32>) -> tensor<1x16x256x72xf32> loc(#loc)
    %592 = stablehlo.reshape %arg479 : (tensor<1152x1152xf32>) -> tensor<1x1152x1152xf32> loc(#loc)
    %593 = stablehlo.reshape %592 : (tensor<1x1152x1152xf32>) -> tensor<1152x1152xf32> loc(#loc)
    %594 = stablehlo.transpose %593, dims = [1, 0] {result_layout = dense<[0, 1]> : tensor<2xindex>, xla_shape = "f32[1152,1152]{0,1}"} : (tensor<1152x1152xf32>) -> tensor<1152x1152xf32> loc(#loc)
    %595 = stablehlo.dot_general %580, %594, contracting_dims = [1] x [0] : (tensor<256x1152xf32>, tensor<1152x1152xf32>) -> tensor<256x1152xf32> loc(#loc)
    %596 = stablehlo.reshape %595 : (tensor<256x1152xf32>) -> tensor<1x256x1152xf32> loc(#loc)
    %597 = stablehlo.reshape %arg478 : (tensor<1152xf32>) -> tensor<1x1x1152xf32> loc(#loc)
    %598 = stablehlo.reshape %597 : (tensor<1x1x1152xf32>) -> tensor<1152xf32> loc(#loc)
    %599 = stablehlo.broadcast_in_dim %598, dims = [2] : (tensor<1152xf32>) -> tensor<1x256x1152xf32> loc(#loc)
    %600 = stablehlo.add %596, %599 : tensor<1x256x1152xf32> loc(#loc)
    %601 = stablehlo.reshape %600 : (tensor<1x256x1152xf32>) -> tensor<1x256x16x72xf32> loc(#loc)
    %602 = stablehlo.transpose %601, dims = [0, 2, 3, 1] : (tensor<1x256x16x72xf32>) -> tensor<1x16x72x256xf32> loc(#loc)
    %603 = stablehlo.dot_general %591, %602, batching_dims = [0, 1] x [0, 1], contracting_dims = [3] x [2] {mhlo.frontend_attributes = {grad_x = "false", grad_y = "false"}} : (tensor<1x16x256x72xf32>, tensor<1x16x72x256xf32>) -> tensor<1x16x256x256xf32> loc(#loc)
    %604 = stablehlo.multiply %603, %cst_12 : tensor<1x16x256x256xf32> loc(#loc)
    %605 = stablehlo.reduce(%604 init: %cst_27) applies stablehlo.maximum across dimensions = [3] : (tensor<1x16x256x256xf32>, tensor<f32>) -> tensor<1x16x256xf32> loc(#loc)
    %606 = stablehlo.broadcast_in_dim %605, dims = [0, 1, 2] : (tensor<1x16x256xf32>) -> tensor<1x16x256x256xf32> loc(#loc)
    %607 = stablehlo.subtract %604, %606 : tensor<1x16x256x256xf32> loc(#loc)
    %608 = stablehlo.exponential %607 : tensor<1x16x256x256xf32> loc(#loc)
    %609 = stablehlo.reduce(%608 init: %cst_29) applies stablehlo.add across dimensions = [3] : (tensor<1x16x256x256xf32>, tensor<f32>) -> tensor<1x16x256xf32> loc(#loc)
    %610 = stablehlo.broadcast_in_dim %609, dims = [0, 1, 2] : (tensor<1x16x256xf32>) -> tensor<1x16x256x256xf32> loc(#loc)
    %611 = stablehlo.divide %608, %610 : tensor<1x16x256x256xf32> loc(#loc)
    %612 = stablehlo.reshape %arg390 : (tensor<1152x1152xf32>) -> tensor<1x1152x1152xf32> loc(#loc)
    %613 = stablehlo.reshape %612 : (tensor<1x1152x1152xf32>) -> tensor<1152x1152xf32> loc(#loc)
    %614 = stablehlo.transpose %613, dims = [1, 0] {result_layout = dense<[0, 1]> : tensor<2xindex>, xla_shape = "f32[1152,1152]{0,1}"} : (tensor<1152x1152xf32>) -> tensor<1152x1152xf32> loc(#loc)
    %615 = stablehlo.dot_general %580, %614, contracting_dims = [1] x [0] : (tensor<256x1152xf32>, tensor<1152x1152xf32>) -> tensor<256x1152xf32> loc(#loc)
    %616 = stablehlo.reshape %615 : (tensor<256x1152xf32>) -> tensor<1x256x1152xf32> loc(#loc)
    %617 = stablehlo.reshape %arg389 : (tensor<1152xf32>) -> tensor<1x1x1152xf32> loc(#loc)
    %618 = stablehlo.reshape %617 : (tensor<1x1x1152xf32>) -> tensor<1152xf32> loc(#loc)
    %619 = stablehlo.broadcast_in_dim %618, dims = [2] : (tensor<1152xf32>) -> tensor<1x256x1152xf32> loc(#loc)
    %620 = stablehlo.add %616, %619 : tensor<1x256x1152xf32> loc(#loc)
    %621 = stablehlo.reshape %620 : (tensor<1x256x1152xf32>) -> tensor<1x256x16x72xf32> loc(#loc)
    %622 = stablehlo.transpose %621, dims = [0, 2, 1, 3] {result_layout = dense<[3, 1, 2, 0]> : tensor<4xindex>, xla_shape = "f32[1,16,256,72]{3,1,2,0}"} : (tensor<1x256x16x72xf32>) -> tensor<1x16x256x72xf32> loc(#loc)
    %623 = stablehlo.dot_general %611, %622, batching_dims = [0, 1] x [0, 1], contracting_dims = [3] x [2] {mhlo.frontend_attributes = {grad_x = "false", grad_y = "false"}} : (tensor<1x16x256x256xf32>, tensor<1x16x256x72xf32>) -> tensor<1x16x256x72xf32> loc(#loc)
    %624 = stablehlo.transpose %623, dims = [0, 2, 1, 3] {result_layout = dense<[3, 1, 2, 0]> : tensor<4xindex>, xla_shape = "f32[1,256,16,72]{3,1,2,0}"} : (tensor<1x16x256x72xf32>) -> tensor<1x256x16x72xf32> loc(#loc)
    %625 = stablehlo.reshape %624 : (tensor<1x256x16x72xf32>) -> tensor<256x1152xf32> loc(#loc)
    %626 = stablehlo.reshape %arg388 : (tensor<1152x1152xf32>) -> tensor<1x1152x1152xf32> loc(#loc)
    %627 = stablehlo.reshape %626 : (tensor<1x1152x1152xf32>) -> tensor<1152x1152xf32> loc(#loc)
    %628 = stablehlo.transpose %627, dims = [1, 0] {result_layout = dense<[0, 1]> : tensor<2xindex>, xla_shape = "f32[1152,1152]{0,1}"} : (tensor<1152x1152xf32>) -> tensor<1152x1152xf32> loc(#loc)
    %629 = stablehlo.dot_general %625, %628, contracting_dims = [1] x [0] : (tensor<256x1152xf32>, tensor<1152x1152xf32>) -> tensor<256x1152xf32> loc(#loc)
    %630 = stablehlo.reshape %629 : (tensor<256x1152xf32>) -> tensor<1x256x1152xf32> loc(#loc)
    %631 = stablehlo.reshape %arg387 : (tensor<1152xf32>) -> tensor<1x1x1152xf32> loc(#loc)
    %632 = stablehlo.reshape %631 : (tensor<1x1x1152xf32>) -> tensor<1152xf32> loc(#loc)
    %633 = stablehlo.broadcast_in_dim %632, dims = [2] : (tensor<1152xf32>) -> tensor<1x256x1152xf32> loc(#loc)
    %634 = stablehlo.add %630, %633 : tensor<1x256x1152xf32> loc(#loc)
    %635 = stablehlo.add %574, %634 {result_layout = dense<[1, 2, 0]> : tensor<3xindex>, xla_shape = "f32[1,256,1152]{1,2,0}"} : tensor<1x256x1152xf32> loc(#loc)
    %636 = stablehlo.reshape %arg386 : (tensor<1152xf32>) -> tensor<1x1x1152xf32> loc(#loc)
    %637 = stablehlo.reshape %636 : (tensor<1x1x1152xf32>) -> tensor<1152xf32> loc(#loc)
    %638 = stablehlo.reshape %arg385 : (tensor<1152xf32>) -> tensor<1x1x1152xf32> loc(#loc)
    %639 = stablehlo.reshape %638 : (tensor<1x1x1152xf32>) -> tensor<1152xf32> loc(#loc)
    %640 = stablehlo.composite "tenstorrent.layer_norm" %635, %637, %639 {composite_attributes = {epsilon = 9.99999997E-7 : f32, normalized_shape = dense<1152> : tensor<1xi64>}, decomposition = @tenstorrent.layer_norm.impl_3} : (tensor<1x256x1152xf32>, tensor<1152xf32>, tensor<1152xf32>) -> tensor<1x256x1152xf32> loc(#loc)
    %641 = stablehlo.reshape %640 : (tensor<1x256x1152xf32>) -> tensor<256x1152xf32> loc(#loc)
    %642 = stablehlo.reshape %arg384 : (tensor<4304x1152xf32>) -> tensor<1x4304x1152xf32> loc(#loc)
    %643 = stablehlo.reshape %642 : (tensor<1x4304x1152xf32>) -> tensor<4304x1152xf32> loc(#loc)
    %644 = stablehlo.transpose %643, dims = [1, 0] {result_layout = dense<[0, 1]> : tensor<2xindex>, xla_shape = "f32[1152,4304]{0,1}"} : (tensor<4304x1152xf32>) -> tensor<1152x4304xf32> loc(#loc)
    %645 = stablehlo.dot_general %641, %644, contracting_dims = [1] x [0] : (tensor<256x1152xf32>, tensor<1152x4304xf32>) -> tensor<256x4304xf32> loc(#loc)
    %646 = stablehlo.reshape %645 : (tensor<256x4304xf32>) -> tensor<1x256x4304xf32> loc(#loc)
    %647 = stablehlo.reshape %arg383 : (tensor<4304xf32>) -> tensor<1x1x4304xf32> loc(#loc)
    %648 = stablehlo.reshape %647 : (tensor<1x1x4304xf32>) -> tensor<4304xf32> loc(#loc)
    %649 = stablehlo.broadcast_in_dim %648, dims = [2] : (tensor<4304xf32>) -> tensor<1x256x4304xf32> loc(#loc)
    %650 = stablehlo.add %646, %649 : tensor<1x256x4304xf32> loc(#loc)
    %651 = stablehlo.composite "tenstorrent.gelu_tanh" %650 {composite_attributes = {approximate = "tanh"}, decomposition = @tenstorrent.gelu_tanh.impl_21} : (tensor<1x256x4304xf32>) -> tensor<1x256x4304xf32> loc(#loc)
    %652 = stablehlo.reshape %651 : (tensor<1x256x4304xf32>) -> tensor<256x4304xf32> loc(#loc)
    %653 = stablehlo.reshape %arg382 : (tensor<1152x4304xf32>) -> tensor<1x1152x4304xf32> loc(#loc)
    %654 = stablehlo.reshape %653 : (tensor<1x1152x4304xf32>) -> tensor<1152x4304xf32> loc(#loc)
    %655 = stablehlo.transpose %654, dims = [1, 0] {result_layout = dense<[0, 1]> : tensor<2xindex>, xla_shape = "f32[4304,1152]{0,1}"} : (tensor<1152x4304xf32>) -> tensor<4304x1152xf32> loc(#loc)
    %656 = stablehlo.dot_general %652, %655, contracting_dims = [1] x [0] : (tensor<256x4304xf32>, tensor<4304x1152xf32>) -> tensor<256x1152xf32> loc(#loc)
    %657 = stablehlo.reshape %656 : (tensor<256x1152xf32>) -> tensor<1x256x1152xf32> loc(#loc)
    %658 = stablehlo.reshape %arg381 : (tensor<1152xf32>) -> tensor<1x1x1152xf32> loc(#loc)
    %659 = stablehlo.reshape %658 : (tensor<1x1x1152xf32>) -> tensor<1152xf32> loc(#loc)
    %660 = stablehlo.broadcast_in_dim %659, dims = [2] : (tensor<1152xf32>) -> tensor<1x256x1152xf32> loc(#loc)
    %661 = stablehlo.add %657, %660 : tensor<1x256x1152xf32> loc(#loc)
    %662 = stablehlo.add %635, %661 {result_layout = dense<[1, 2, 0]> : tensor<3xindex>, xla_shape = "f32[1,256,1152]{1,2,0}"} : tensor<1x256x1152xf32> loc(#loc)
    %663 = stablehlo.reshape %arg380 : (tensor<1152xf32>) -> tensor<1x1x1152xf32> loc(#loc)
    %664 = stablehlo.reshape %663 : (tensor<1x1x1152xf32>) -> tensor<1152xf32> loc(#loc)
    %665 = stablehlo.reshape %arg379 : (tensor<1152xf32>) -> tensor<1x1x1152xf32> loc(#loc)
    %666 = stablehlo.reshape %665 : (tensor<1x1x1152xf32>) -> tensor<1152xf32> loc(#loc)
    %667 = stablehlo.composite "tenstorrent.layer_norm" %662, %664, %666 {composite_attributes = {epsilon = 9.99999997E-7 : f32, normalized_shape = dense<1152> : tensor<1xi64>}, decomposition = @tenstorrent.layer_norm.impl_58} : (tensor<1x256x1152xf32>, tensor<1152xf32>, tensor<1152xf32>) -> tensor<1x256x1152xf32> loc(#loc)
    %668 = stablehlo.reshape %667 : (tensor<1x256x1152xf32>) -> tensor<256x1152xf32> loc(#loc)
    %669 = stablehlo.reshape %arg485 : (tensor<1152x1152xf32>) -> tensor<1x1152x1152xf32> loc(#loc)
    %670 = stablehlo.reshape %669 : (tensor<1x1152x1152xf32>) -> tensor<1152x1152xf32> loc(#loc)
    %671 = stablehlo.transpose %670, dims = [1, 0] {result_layout = dense<[0, 1]> : tensor<2xindex>, xla_shape = "f32[1152,1152]{0,1}"} : (tensor<1152x1152xf32>) -> tensor<1152x1152xf32> loc(#loc)
    %672 = stablehlo.dot_general %668, %671, contracting_dims = [1] x [0] : (tensor<256x1152xf32>, tensor<1152x1152xf32>) -> tensor<256x1152xf32> loc(#loc)
    %673 = stablehlo.reshape %672 : (tensor<256x1152xf32>) -> tensor<1x256x1152xf32> loc(#loc)
    %674 = stablehlo.reshape %arg484 : (tensor<1152xf32>) -> tensor<1x1x1152xf32> loc(#loc)
    %675 = stablehlo.reshape %674 : (tensor<1x1x1152xf32>) -> tensor<1152xf32> loc(#loc)
    %676 = stablehlo.broadcast_in_dim %675, dims = [2] : (tensor<1152xf32>) -> tensor<1x256x1152xf32> loc(#loc)
    %677 = stablehlo.add %673, %676 : tensor<1x256x1152xf32> loc(#loc)
    %678 = stablehlo.reshape %677 : (tensor<1x256x1152xf32>) -> tensor<1x256x16x72xf32> loc(#loc)
    %679 = stablehlo.transpose %678, dims = [0, 2, 1, 3] {result_layout = dense<[3, 1, 2, 0]> : tensor<4xindex>, xla_shape = "f32[1,16,256,72]{3,1,2,0}"} : (tensor<1x256x16x72xf32>) -> tensor<1x16x256x72xf32> loc(#loc)
    %680 = stablehlo.reshape %arg483 : (tensor<1152x1152xf32>) -> tensor<1x1152x1152xf32> loc(#loc)
    %681 = stablehlo.reshape %680 : (tensor<1x1152x1152xf32>) -> tensor<1152x1152xf32> loc(#loc)
    %682 = stablehlo.transpose %681, dims = [1, 0] {result_layout = dense<[0, 1]> : tensor<2xindex>, xla_shape = "f32[1152,1152]{0,1}"} : (tensor<1152x1152xf32>) -> tensor<1152x1152xf32> loc(#loc)
    %683 = stablehlo.dot_general %668, %682, contracting_dims = [1] x [0] : (tensor<256x1152xf32>, tensor<1152x1152xf32>) -> tensor<256x1152xf32> loc(#loc)
    %684 = stablehlo.reshape %683 : (tensor<256x1152xf32>) -> tensor<1x256x1152xf32> loc(#loc)
    %685 = stablehlo.reshape %arg482 : (tensor<1152xf32>) -> tensor<1x1x1152xf32> loc(#loc)
    %686 = stablehlo.reshape %685 : (tensor<1x1x1152xf32>) -> tensor<1152xf32> loc(#loc)
    %687 = stablehlo.broadcast_in_dim %686, dims = [2] : (tensor<1152xf32>) -> tensor<1x256x1152xf32> loc(#loc)
    %688 = stablehlo.add %684, %687 : tensor<1x256x1152xf32> loc(#loc)
    %689 = stablehlo.reshape %688 : (tensor<1x256x1152xf32>) -> tensor<1x256x16x72xf32> loc(#loc)
    %690 = stablehlo.transpose %689, dims = [0, 2, 3, 1] : (tensor<1x256x16x72xf32>) -> tensor<1x16x72x256xf32> loc(#loc)
    %691 = stablehlo.dot_general %679, %690, batching_dims = [0, 1] x [0, 1], contracting_dims = [3] x [2] {mhlo.frontend_attributes = {grad_x = "false", grad_y = "false"}} : (tensor<1x16x256x72xf32>, tensor<1x16x72x256xf32>) -> tensor<1x16x256x256xf32> loc(#loc)
    %692 = stablehlo.multiply %691, %cst_12 : tensor<1x16x256x256xf32> loc(#loc)
    %693 = stablehlo.reduce(%692 init: %cst_27) applies stablehlo.maximum across dimensions = [3] : (tensor<1x16x256x256xf32>, tensor<f32>) -> tensor<1x16x256xf32> loc(#loc)
    %694 = stablehlo.broadcast_in_dim %693, dims = [0, 1, 2] : (tensor<1x16x256xf32>) -> tensor<1x16x256x256xf32> loc(#loc)
    %695 = stablehlo.subtract %692, %694 : tensor<1x16x256x256xf32> loc(#loc)
    %696 = stablehlo.exponential %695 : tensor<1x16x256x256xf32> loc(#loc)
    %697 = stablehlo.reduce(%696 init: %cst_29) applies stablehlo.add across dimensions = [3] : (tensor<1x16x256x256xf32>, tensor<f32>) -> tensor<1x16x256xf32> loc(#loc)
    %698 = stablehlo.broadcast_in_dim %697, dims = [0, 1, 2] : (tensor<1x16x256xf32>) -> tensor<1x16x256x256xf32> loc(#loc)
    %699 = stablehlo.divide %696, %698 : tensor<1x16x256x256xf32> loc(#loc)
    %700 = stablehlo.reshape %arg378 : (tensor<1152x1152xf32>) -> tensor<1x1152x1152xf32> loc(#loc)
    %701 = stablehlo.reshape %700 : (tensor<1x1152x1152xf32>) -> tensor<1152x1152xf32> loc(#loc)
    %702 = stablehlo.transpose %701, dims = [1, 0] {result_layout = dense<[0, 1]> : tensor<2xindex>, xla_shape = "f32[1152,1152]{0,1}"} : (tensor<1152x1152xf32>) -> tensor<1152x1152xf32> loc(#loc)
    %703 = stablehlo.dot_general %668, %702, contracting_dims = [1] x [0] : (tensor<256x1152xf32>, tensor<1152x1152xf32>) -> tensor<256x1152xf32> loc(#loc)
    %704 = stablehlo.reshape %703 : (tensor<256x1152xf32>) -> tensor<1x256x1152xf32> loc(#loc)
    %705 = stablehlo.reshape %arg377 : (tensor<1152xf32>) -> tensor<1x1x1152xf32> loc(#loc)
    %706 = stablehlo.reshape %705 : (tensor<1x1x1152xf32>) -> tensor<1152xf32> loc(#loc)
    %707 = stablehlo.broadcast_in_dim %706, dims = [2] : (tensor<1152xf32>) -> tensor<1x256x1152xf32> loc(#loc)
    %708 = stablehlo.add %704, %707 : tensor<1x256x1152xf32> loc(#loc)
    %709 = stablehlo.reshape %708 : (tensor<1x256x1152xf32>) -> tensor<1x256x16x72xf32> loc(#loc)
    %710 = stablehlo.transpose %709, dims = [0, 2, 1, 3] {result_layout = dense<[3, 1, 2, 0]> : tensor<4xindex>, xla_shape = "f32[1,16,256,72]{3,1,2,0}"} : (tensor<1x256x16x72xf32>) -> tensor<1x16x256x72xf32> loc(#loc)
    %711 = stablehlo.dot_general %699, %710, batching_dims = [0, 1] x [0, 1], contracting_dims = [3] x [2] {mhlo.frontend_attributes = {grad_x = "false", grad_y = "false"}} : (tensor<1x16x256x256xf32>, tensor<1x16x256x72xf32>) -> tensor<1x16x256x72xf32> loc(#loc)
    %712 = stablehlo.transpose %711, dims = [0, 2, 1, 3] {result_layout = dense<[3, 1, 2, 0]> : tensor<4xindex>, xla_shape = "f32[1,256,16,72]{3,1,2,0}"} : (tensor<1x16x256x72xf32>) -> tensor<1x256x16x72xf32> loc(#loc)
    %713 = stablehlo.reshape %712 : (tensor<1x256x16x72xf32>) -> tensor<256x1152xf32> loc(#loc)
    %714 = stablehlo.reshape %arg376 : (tensor<1152x1152xf32>) -> tensor<1x1152x1152xf32> loc(#loc)
    %715 = stablehlo.reshape %714 : (tensor<1x1152x1152xf32>) -> tensor<1152x1152xf32> loc(#loc)
    %716 = stablehlo.transpose %715, dims = [1, 0] {result_layout = dense<[0, 1]> : tensor<2xindex>, xla_shape = "f32[1152,1152]{0,1}"} : (tensor<1152x1152xf32>) -> tensor<1152x1152xf32> loc(#loc)
    %717 = stablehlo.dot_general %713, %716, contracting_dims = [1] x [0] : (tensor<256x1152xf32>, tensor<1152x1152xf32>) -> tensor<256x1152xf32> loc(#loc)
    %718 = stablehlo.reshape %717 : (tensor<256x1152xf32>) -> tensor<1x256x1152xf32> loc(#loc)
    %719 = stablehlo.reshape %arg375 : (tensor<1152xf32>) -> tensor<1x1x1152xf32> loc(#loc)
    %720 = stablehlo.reshape %719 : (tensor<1x1x1152xf32>) -> tensor<1152xf32> loc(#loc)
    %721 = stablehlo.broadcast_in_dim %720, dims = [2] : (tensor<1152xf32>) -> tensor<1x256x1152xf32> loc(#loc)
    %722 = stablehlo.add %718, %721 : tensor<1x256x1152xf32> loc(#loc)
    %723 = stablehlo.add %662, %722 {result_layout = dense<[1, 2, 0]> : tensor<3xindex>, xla_shape = "f32[1,256,1152]{1,2,0}"} : tensor<1x256x1152xf32> loc(#loc)
    %724 = stablehlo.reshape %arg374 : (tensor<1152xf32>) -> tensor<1x1x1152xf32> loc(#loc)
    %725 = stablehlo.reshape %724 : (tensor<1x1x1152xf32>) -> tensor<1152xf32> loc(#loc)
    %726 = stablehlo.reshape %arg373 : (tensor<1152xf32>) -> tensor<1x1x1152xf32> loc(#loc)
    %727 = stablehlo.reshape %726 : (tensor<1x1x1152xf32>) -> tensor<1152xf32> loc(#loc)
    %728 = stablehlo.composite "tenstorrent.layer_norm" %723, %725, %727 {composite_attributes = {epsilon = 9.99999997E-7 : f32, normalized_shape = dense<1152> : tensor<1xi64>}, decomposition = @tenstorrent.layer_norm.impl_75} : (tensor<1x256x1152xf32>, tensor<1152xf32>, tensor<1152xf32>) -> tensor<1x256x1152xf32> loc(#loc)
    %729 = stablehlo.reshape %728 : (tensor<1x256x1152xf32>) -> tensor<256x1152xf32> loc(#loc)
    %730 = stablehlo.reshape %arg372 : (tensor<4304x1152xf32>) -> tensor<1x4304x1152xf32> loc(#loc)
    %731 = stablehlo.reshape %730 : (tensor<1x4304x1152xf32>) -> tensor<4304x1152xf32> loc(#loc)
    %732 = stablehlo.transpose %731, dims = [1, 0] {result_layout = dense<[0, 1]> : tensor<2xindex>, xla_shape = "f32[1152,4304]{0,1}"} : (tensor<4304x1152xf32>) -> tensor<1152x4304xf32> loc(#loc)
    %733 = stablehlo.dot_general %729, %732, contracting_dims = [1] x [0] : (tensor<256x1152xf32>, tensor<1152x4304xf32>) -> tensor<256x4304xf32> loc(#loc)
    %734 = stablehlo.reshape %733 : (tensor<256x4304xf32>) -> tensor<1x256x4304xf32> loc(#loc)
    %735 = stablehlo.reshape %arg371 : (tensor<4304xf32>) -> tensor<1x1x4304xf32> loc(#loc)
    %736 = stablehlo.reshape %735 : (tensor<1x1x4304xf32>) -> tensor<4304xf32> loc(#loc)
    %737 = stablehlo.broadcast_in_dim %736, dims = [2] : (tensor<4304xf32>) -> tensor<1x256x4304xf32> loc(#loc)
    %738 = stablehlo.add %734, %737 : tensor<1x256x4304xf32> loc(#loc)
    %739 = stablehlo.composite "tenstorrent.gelu_tanh" %738 {composite_attributes = {approximate = "tanh"}, decomposition = @tenstorrent.gelu_tanh.impl_77} : (tensor<1x256x4304xf32>) -> tensor<1x256x4304xf32> loc(#loc)
    %740 = stablehlo.reshape %739 : (tensor<1x256x4304xf32>) -> tensor<256x4304xf32> loc(#loc)
    %741 = stablehlo.reshape %arg370 : (tensor<1152x4304xf32>) -> tensor<1x1152x4304xf32> loc(#loc)
    %742 = stablehlo.reshape %741 : (tensor<1x1152x4304xf32>) -> tensor<1152x4304xf32> loc(#loc)
    %743 = stablehlo.transpose %742, dims = [1, 0] {result_layout = dense<[0, 1]> : tensor<2xindex>, xla_shape = "f32[4304,1152]{0,1}"} : (tensor<1152x4304xf32>) -> tensor<4304x1152xf32> loc(#loc)
    %744 = stablehlo.dot_general %740, %743, contracting_dims = [1] x [0] : (tensor<256x4304xf32>, tensor<4304x1152xf32>) -> tensor<256x1152xf32> loc(#loc)
    %745 = stablehlo.reshape %744 : (tensor<256x1152xf32>) -> tensor<1x256x1152xf32> loc(#loc)
    %746 = stablehlo.reshape %arg369 : (tensor<1152xf32>) -> tensor<1x1x1152xf32> loc(#loc)
    %747 = stablehlo.reshape %746 : (tensor<1x1x1152xf32>) -> tensor<1152xf32> loc(#loc)
    %748 = stablehlo.broadcast_in_dim %747, dims = [2] : (tensor<1152xf32>) -> tensor<1x256x1152xf32> loc(#loc)
    %749 = stablehlo.add %745, %748 : tensor<1x256x1152xf32> loc(#loc)
    %750 = stablehlo.add %723, %749 {result_layout = dense<[1, 2, 0]> : tensor<3xindex>, xla_shape = "f32[1,256,1152]{1,2,0}"} : tensor<1x256x1152xf32> loc(#loc)
    %751 = stablehlo.reshape %arg368 : (tensor<1152xf32>) -> tensor<1x1x1152xf32> loc(#loc)
    %752 = stablehlo.reshape %751 : (tensor<1x1x1152xf32>) -> tensor<1152xf32> loc(#loc)
    %753 = stablehlo.reshape %arg367 : (tensor<1152xf32>) -> tensor<1x1x1152xf32> loc(#loc)
    %754 = stablehlo.reshape %753 : (tensor<1x1x1152xf32>) -> tensor<1152xf32> loc(#loc)
    %755 = stablehlo.composite "tenstorrent.layer_norm" %750, %752, %754 {composite_attributes = {epsilon = 9.99999997E-7 : f32, normalized_shape = dense<1152> : tensor<1xi64>}, decomposition = @tenstorrent.layer_norm.impl_48} : (tensor<1x256x1152xf32>, tensor<1152xf32>, tensor<1152xf32>) -> tensor<1x256x1152xf32> loc(#loc)
    %756 = stablehlo.reshape %755 : (tensor<1x256x1152xf32>) -> tensor<256x1152xf32> loc(#loc)
    %757 = stablehlo.reshape %arg489 : (tensor<1152x1152xf32>) -> tensor<1x1152x1152xf32> loc(#loc)
    %758 = stablehlo.reshape %757 : (tensor<1x1152x1152xf32>) -> tensor<1152x1152xf32> loc(#loc)
    %759 = stablehlo.transpose %758, dims = [1, 0] {result_layout = dense<[0, 1]> : tensor<2xindex>, xla_shape = "f32[1152,1152]{0,1}"} : (tensor<1152x1152xf32>) -> tensor<1152x1152xf32> loc(#loc)
    %760 = stablehlo.dot_general %756, %759, contracting_dims = [1] x [0] : (tensor<256x1152xf32>, tensor<1152x1152xf32>) -> tensor<256x1152xf32> loc(#loc)
    %761 = stablehlo.reshape %760 : (tensor<256x1152xf32>) -> tensor<1x256x1152xf32> loc(#loc)
    %762 = stablehlo.reshape %arg488 : (tensor<1152xf32>) -> tensor<1x1x1152xf32> loc(#loc)
    %763 = stablehlo.reshape %762 : (tensor<1x1x1152xf32>) -> tensor<1152xf32> loc(#loc)
    %764 = stablehlo.broadcast_in_dim %763, dims = [2] : (tensor<1152xf32>) -> tensor<1x256x1152xf32> loc(#loc)
    %765 = stablehlo.add %761, %764 : tensor<1x256x1152xf32> loc(#loc)
    %766 = stablehlo.reshape %765 : (tensor<1x256x1152xf32>) -> tensor<1x256x16x72xf32> loc(#loc)
    %767 = stablehlo.transpose %766, dims = [0, 2, 1, 3] {result_layout = dense<[3, 1, 2, 0]> : tensor<4xindex>, xla_shape = "f32[1,16,256,72]{3,1,2,0}"} : (tensor<1x256x16x72xf32>) -> tensor<1x16x256x72xf32> loc(#loc)
    %768 = stablehlo.reshape %arg487 : (tensor<1152x1152xf32>) -> tensor<1x1152x1152xf32> loc(#loc)
    %769 = stablehlo.reshape %768 : (tensor<1x1152x1152xf32>) -> tensor<1152x1152xf32> loc(#loc)
    %770 = stablehlo.transpose %769, dims = [1, 0] {result_layout = dense<[0, 1]> : tensor<2xindex>, xla_shape = "f32[1152,1152]{0,1}"} : (tensor<1152x1152xf32>) -> tensor<1152x1152xf32> loc(#loc)
    %771 = stablehlo.dot_general %756, %770, contracting_dims = [1] x [0] : (tensor<256x1152xf32>, tensor<1152x1152xf32>) -> tensor<256x1152xf32> loc(#loc)
    %772 = stablehlo.reshape %771 : (tensor<256x1152xf32>) -> tensor<1x256x1152xf32> loc(#loc)
    %773 = stablehlo.reshape %arg486 : (tensor<1152xf32>) -> tensor<1x1x1152xf32> loc(#loc)
    %774 = stablehlo.reshape %773 : (tensor<1x1x1152xf32>) -> tensor<1152xf32> loc(#loc)
    %775 = stablehlo.broadcast_in_dim %774, dims = [2] : (tensor<1152xf32>) -> tensor<1x256x1152xf32> loc(#loc)
    %776 = stablehlo.add %772, %775 : tensor<1x256x1152xf32> loc(#loc)
    %777 = stablehlo.reshape %776 : (tensor<1x256x1152xf32>) -> tensor<1x256x16x72xf32> loc(#loc)
    %778 = stablehlo.transpose %777, dims = [0, 2, 3, 1] : (tensor<1x256x16x72xf32>) -> tensor<1x16x72x256xf32> loc(#loc)
    %779 = stablehlo.dot_general %767, %778, batching_dims = [0, 1] x [0, 1], contracting_dims = [3] x [2] {mhlo.frontend_attributes = {grad_x = "false", grad_y = "false"}} : (tensor<1x16x256x72xf32>, tensor<1x16x72x256xf32>) -> tensor<1x16x256x256xf32> loc(#loc)
    %780 = stablehlo.multiply %779, %cst_12 : tensor<1x16x256x256xf32> loc(#loc)
    %781 = stablehlo.reduce(%780 init: %cst_27) applies stablehlo.maximum across dimensions = [3] : (tensor<1x16x256x256xf32>, tensor<f32>) -> tensor<1x16x256xf32> loc(#loc)
    %782 = stablehlo.broadcast_in_dim %781, dims = [0, 1, 2] : (tensor<1x16x256xf32>) -> tensor<1x16x256x256xf32> loc(#loc)
    %783 = stablehlo.subtract %780, %782 : tensor<1x16x256x256xf32> loc(#loc)
    %784 = stablehlo.exponential %783 : tensor<1x16x256x256xf32> loc(#loc)
    %785 = stablehlo.reduce(%784 init: %cst_29) applies stablehlo.add across dimensions = [3] : (tensor<1x16x256x256xf32>, tensor<f32>) -> tensor<1x16x256xf32> loc(#loc)
    %786 = stablehlo.broadcast_in_dim %785, dims = [0, 1, 2] : (tensor<1x16x256xf32>) -> tensor<1x16x256x256xf32> loc(#loc)
    %787 = stablehlo.divide %784, %786 : tensor<1x16x256x256xf32> loc(#loc)
    %788 = stablehlo.reshape %arg366 : (tensor<1152x1152xf32>) -> tensor<1x1152x1152xf32> loc(#loc)
    %789 = stablehlo.reshape %788 : (tensor<1x1152x1152xf32>) -> tensor<1152x1152xf32> loc(#loc)
    %790 = stablehlo.transpose %789, dims = [1, 0] {result_layout = dense<[0, 1]> : tensor<2xindex>, xla_shape = "f32[1152,1152]{0,1}"} : (tensor<1152x1152xf32>) -> tensor<1152x1152xf32> loc(#loc)
    %791 = stablehlo.dot_general %756, %790, contracting_dims = [1] x [0] : (tensor<256x1152xf32>, tensor<1152x1152xf32>) -> tensor<256x1152xf32> loc(#loc)
    %792 = stablehlo.reshape %791 : (tensor<256x1152xf32>) -> tensor<1x256x1152xf32> loc(#loc)
    %793 = stablehlo.reshape %arg365 : (tensor<1152xf32>) -> tensor<1x1x1152xf32> loc(#loc)
    %794 = stablehlo.reshape %793 : (tensor<1x1x1152xf32>) -> tensor<1152xf32> loc(#loc)
    %795 = stablehlo.broadcast_in_dim %794, dims = [2] : (tensor<1152xf32>) -> tensor<1x256x1152xf32> loc(#loc)
    %796 = stablehlo.add %792, %795 : tensor<1x256x1152xf32> loc(#loc)
    %797 = stablehlo.reshape %796 : (tensor<1x256x1152xf32>) -> tensor<1x256x16x72xf32> loc(#loc)
    %798 = stablehlo.transpose %797, dims = [0, 2, 1, 3] {result_layout = dense<[3, 1, 2, 0]> : tensor<4xindex>, xla_shape = "f32[1,16,256,72]{3,1,2,0}"} : (tensor<1x256x16x72xf32>) -> tensor<1x16x256x72xf32> loc(#loc)
    %799 = stablehlo.dot_general %787, %798, batching_dims = [0, 1] x [0, 1], contracting_dims = [3] x [2] {mhlo.frontend_attributes = {grad_x = "false", grad_y = "false"}} : (tensor<1x16x256x256xf32>, tensor<1x16x256x72xf32>) -> tensor<1x16x256x72xf32> loc(#loc)
    %800 = stablehlo.transpose %799, dims = [0, 2, 1, 3] {result_layout = dense<[3, 1, 2, 0]> : tensor<4xindex>, xla_shape = "f32[1,256,16,72]{3,1,2,0}"} : (tensor<1x16x256x72xf32>) -> tensor<1x256x16x72xf32> loc(#loc)
    %801 = stablehlo.reshape %800 : (tensor<1x256x16x72xf32>) -> tensor<256x1152xf32> loc(#loc)
    %802 = stablehlo.reshape %arg364 : (tensor<1152x1152xf32>) -> tensor<1x1152x1152xf32> loc(#loc)
    %803 = stablehlo.reshape %802 : (tensor<1x1152x1152xf32>) -> tensor<1152x1152xf32> loc(#loc)
    %804 = stablehlo.transpose %803, dims = [1, 0] {result_layout = dense<[0, 1]> : tensor<2xindex>, xla_shape = "f32[1152,1152]{0,1}"} : (tensor<1152x1152xf32>) -> tensor<1152x1152xf32> loc(#loc)
    %805 = stablehlo.dot_general %801, %804, contracting_dims = [1] x [0] : (tensor<256x1152xf32>, tensor<1152x1152xf32>) -> tensor<256x1152xf32> loc(#loc)
    %806 = stablehlo.reshape %805 : (tensor<256x1152xf32>) -> tensor<1x256x1152xf32> loc(#loc)
    %807 = stablehlo.reshape %arg363 : (tensor<1152xf32>) -> tensor<1x1x1152xf32> loc(#loc)
    %808 = stablehlo.reshape %807 : (tensor<1x1x1152xf32>) -> tensor<1152xf32> loc(#loc)
    %809 = stablehlo.broadcast_in_dim %808, dims = [2] : (tensor<1152xf32>) -> tensor<1x256x1152xf32> loc(#loc)
    %810 = stablehlo.add %806, %809 : tensor<1x256x1152xf32> loc(#loc)
    %811 = stablehlo.add %750, %810 {result_layout = dense<[1, 2, 0]> : tensor<3xindex>, xla_shape = "f32[1,256,1152]{1,2,0}"} : tensor<1x256x1152xf32> loc(#loc)
    %812 = stablehlo.reshape %arg362 : (tensor<1152xf32>) -> tensor<1x1x1152xf32> loc(#loc)
    %813 = stablehlo.reshape %812 : (tensor<1x1x1152xf32>) -> tensor<1152xf32> loc(#loc)
    %814 = stablehlo.reshape %arg361 : (tensor<1152xf32>) -> tensor<1x1x1152xf32> loc(#loc)
    %815 = stablehlo.reshape %814 : (tensor<1x1x1152xf32>) -> tensor<1152xf32> loc(#loc)
    %816 = stablehlo.composite "tenstorrent.layer_norm" %811, %813, %815 {composite_attributes = {epsilon = 9.99999997E-7 : f32, normalized_shape = dense<1152> : tensor<1xi64>}, decomposition = @tenstorrent.layer_norm.impl_46} : (tensor<1x256x1152xf32>, tensor<1152xf32>, tensor<1152xf32>) -> tensor<1x256x1152xf32> loc(#loc)
    %817 = stablehlo.reshape %816 : (tensor<1x256x1152xf32>) -> tensor<256x1152xf32> loc(#loc)
    %818 = stablehlo.reshape %arg360 : (tensor<4304x1152xf32>) -> tensor<1x4304x1152xf32> loc(#loc)
    %819 = stablehlo.reshape %818 : (tensor<1x4304x1152xf32>) -> tensor<4304x1152xf32> loc(#loc)
    %820 = stablehlo.transpose %819, dims = [1, 0] {result_layout = dense<[0, 1]> : tensor<2xindex>, xla_shape = "f32[1152,4304]{0,1}"} : (tensor<4304x1152xf32>) -> tensor<1152x4304xf32> loc(#loc)
    %821 = stablehlo.dot_general %817, %820, contracting_dims = [1] x [0] : (tensor<256x1152xf32>, tensor<1152x4304xf32>) -> tensor<256x4304xf32> loc(#loc)
    %822 = stablehlo.reshape %821 : (tensor<256x4304xf32>) -> tensor<1x256x4304xf32> loc(#loc)
    %823 = stablehlo.reshape %arg359 : (tensor<4304xf32>) -> tensor<1x1x4304xf32> loc(#loc)
    %824 = stablehlo.reshape %823 : (tensor<1x1x4304xf32>) -> tensor<4304xf32> loc(#loc)
    %825 = stablehlo.broadcast_in_dim %824, dims = [2] : (tensor<4304xf32>) -> tensor<1x256x4304xf32> loc(#loc)
    %826 = stablehlo.add %822, %825 : tensor<1x256x4304xf32> loc(#loc)
    %827 = stablehlo.composite "tenstorrent.gelu_tanh" %826 {composite_attributes = {approximate = "tanh"}, decomposition = @tenstorrent.gelu_tanh.impl_39} : (tensor<1x256x4304xf32>) -> tensor<1x256x4304xf32> loc(#loc)
    %828 = stablehlo.reshape %827 : (tensor<1x256x4304xf32>) -> tensor<256x4304xf32> loc(#loc)
    %829 = stablehlo.reshape %arg358 : (tensor<1152x4304xf32>) -> tensor<1x1152x4304xf32> loc(#loc)
    %830 = stablehlo.reshape %829 : (tensor<1x1152x4304xf32>) -> tensor<1152x4304xf32> loc(#loc)
    %831 = stablehlo.transpose %830, dims = [1, 0] {result_layout = dense<[0, 1]> : tensor<2xindex>, xla_shape = "f32[4304,1152]{0,1}"} : (tensor<1152x4304xf32>) -> tensor<4304x1152xf32> loc(#loc)
    %832 = stablehlo.dot_general %828, %831, contracting_dims = [1] x [0] : (tensor<256x4304xf32>, tensor<4304x1152xf32>) -> tensor<256x1152xf32> loc(#loc)
    %833 = stablehlo.reshape %832 : (tensor<256x1152xf32>) -> tensor<1x256x1152xf32> loc(#loc)
    %834 = stablehlo.reshape %arg357 : (tensor<1152xf32>) -> tensor<1x1x1152xf32> loc(#loc)
    %835 = stablehlo.reshape %834 : (tensor<1x1x1152xf32>) -> tensor<1152xf32> loc(#loc)
    %836 = stablehlo.broadcast_in_dim %835, dims = [2] : (tensor<1152xf32>) -> tensor<1x256x1152xf32> loc(#loc)
    %837 = stablehlo.add %833, %836 : tensor<1x256x1152xf32> loc(#loc)
    %838 = stablehlo.add %811, %837 {result_layout = dense<[1, 2, 0]> : tensor<3xindex>, xla_shape = "f32[1,256,1152]{1,2,0}"} : tensor<1x256x1152xf32> loc(#loc)
    %839 = stablehlo.reshape %arg356 : (tensor<1152xf32>) -> tensor<1x1x1152xf32> loc(#loc)
    %840 = stablehlo.reshape %839 : (tensor<1x1x1152xf32>) -> tensor<1152xf32> loc(#loc)
    %841 = stablehlo.reshape %arg355 : (tensor<1152xf32>) -> tensor<1x1x1152xf32> loc(#loc)
    %842 = stablehlo.reshape %841 : (tensor<1x1x1152xf32>) -> tensor<1152xf32> loc(#loc)
    %843 = stablehlo.composite "tenstorrent.layer_norm" %838, %840, %842 {composite_attributes = {epsilon = 9.99999997E-7 : f32, normalized_shape = dense<1152> : tensor<1xi64>}, decomposition = @tenstorrent.layer_norm.impl_42} : (tensor<1x256x1152xf32>, tensor<1152xf32>, tensor<1152xf32>) -> tensor<1x256x1152xf32> loc(#loc)
    %844 = stablehlo.reshape %843 : (tensor<1x256x1152xf32>) -> tensor<256x1152xf32> loc(#loc)
    %845 = stablehlo.reshape %arg493 : (tensor<1152x1152xf32>) -> tensor<1x1152x1152xf32> loc(#loc)
    %846 = stablehlo.reshape %845 : (tensor<1x1152x1152xf32>) -> tensor<1152x1152xf32> loc(#loc)
    %847 = stablehlo.transpose %846, dims = [1, 0] {result_layout = dense<[0, 1]> : tensor<2xindex>, xla_shape = "f32[1152,1152]{0,1}"} : (tensor<1152x1152xf32>) -> tensor<1152x1152xf32> loc(#loc)
    %848 = stablehlo.dot_general %844, %847, contracting_dims = [1] x [0] : (tensor<256x1152xf32>, tensor<1152x1152xf32>) -> tensor<256x1152xf32> loc(#loc)
    %849 = stablehlo.reshape %848 : (tensor<256x1152xf32>) -> tensor<1x256x1152xf32> loc(#loc)
    %850 = stablehlo.reshape %arg492 : (tensor<1152xf32>) -> tensor<1x1x1152xf32> loc(#loc)
    %851 = stablehlo.reshape %850 : (tensor<1x1x1152xf32>) -> tensor<1152xf32> loc(#loc)
    %852 = stablehlo.broadcast_in_dim %851, dims = [2] : (tensor<1152xf32>) -> tensor<1x256x1152xf32> loc(#loc)
    %853 = stablehlo.add %849, %852 : tensor<1x256x1152xf32> loc(#loc)
    %854 = stablehlo.reshape %853 : (tensor<1x256x1152xf32>) -> tensor<1x256x16x72xf32> loc(#loc)
    %855 = stablehlo.transpose %854, dims = [0, 2, 1, 3] {result_layout = dense<[3, 1, 2, 0]> : tensor<4xindex>, xla_shape = "f32[1,16,256,72]{3,1,2,0}"} : (tensor<1x256x16x72xf32>) -> tensor<1x16x256x72xf32> loc(#loc)
    %856 = stablehlo.reshape %arg491 : (tensor<1152x1152xf32>) -> tensor<1x1152x1152xf32> loc(#loc)
    %857 = stablehlo.reshape %856 : (tensor<1x1152x1152xf32>) -> tensor<1152x1152xf32> loc(#loc)
    %858 = stablehlo.transpose %857, dims = [1, 0] {result_layout = dense<[0, 1]> : tensor<2xindex>, xla_shape = "f32[1152,1152]{0,1}"} : (tensor<1152x1152xf32>) -> tensor<1152x1152xf32> loc(#loc)
    %859 = stablehlo.dot_general %844, %858, contracting_dims = [1] x [0] : (tensor<256x1152xf32>, tensor<1152x1152xf32>) -> tensor<256x1152xf32> loc(#loc)
    %860 = stablehlo.reshape %859 : (tensor<256x1152xf32>) -> tensor<1x256x1152xf32> loc(#loc)
    %861 = stablehlo.reshape %arg490 : (tensor<1152xf32>) -> tensor<1x1x1152xf32> loc(#loc)
    %862 = stablehlo.reshape %861 : (tensor<1x1x1152xf32>) -> tensor<1152xf32> loc(#loc)
    %863 = stablehlo.broadcast_in_dim %862, dims = [2] : (tensor<1152xf32>) -> tensor<1x256x1152xf32> loc(#loc)
    %864 = stablehlo.add %860, %863 : tensor<1x256x1152xf32> loc(#loc)
    %865 = stablehlo.reshape %864 : (tensor<1x256x1152xf32>) -> tensor<1x256x16x72xf32> loc(#loc)
    %866 = stablehlo.transpose %865, dims = [0, 2, 3, 1] : (tensor<1x256x16x72xf32>) -> tensor<1x16x72x256xf32> loc(#loc)
    %867 = stablehlo.dot_general %855, %866, batching_dims = [0, 1] x [0, 1], contracting_dims = [3] x [2] {mhlo.frontend_attributes = {grad_x = "false", grad_y = "false"}} : (tensor<1x16x256x72xf32>, tensor<1x16x72x256xf32>) -> tensor<1x16x256x256xf32> loc(#loc)
    %868 = stablehlo.multiply %867, %cst_12 : tensor<1x16x256x256xf32> loc(#loc)
    %869 = stablehlo.reduce(%868 init: %cst_27) applies stablehlo.maximum across dimensions = [3] : (tensor<1x16x256x256xf32>, tensor<f32>) -> tensor<1x16x256xf32> loc(#loc)
    %870 = stablehlo.broadcast_in_dim %869, dims = [0, 1, 2] : (tensor<1x16x256xf32>) -> tensor<1x16x256x256xf32> loc(#loc)
    %871 = stablehlo.subtract %868, %870 : tensor<1x16x256x256xf32> loc(#loc)
    %872 = stablehlo.exponential %871 : tensor<1x16x256x256xf32> loc(#loc)
    %873 = stablehlo.reduce(%872 init: %cst_29) applies stablehlo.add across dimensions = [3] : (tensor<1x16x256x256xf32>, tensor<f32>) -> tensor<1x16x256xf32> loc(#loc)
    %874 = stablehlo.broadcast_in_dim %873, dims = [0, 1, 2] : (tensor<1x16x256xf32>) -> tensor<1x16x256x256xf32> loc(#loc)
    %875 = stablehlo.divide %872, %874 : tensor<1x16x256x256xf32> loc(#loc)
    %876 = stablehlo.reshape %arg354 : (tensor<1152x1152xf32>) -> tensor<1x1152x1152xf32> loc(#loc)
    %877 = stablehlo.reshape %876 : (tensor<1x1152x1152xf32>) -> tensor<1152x1152xf32> loc(#loc)
    %878 = stablehlo.transpose %877, dims = [1, 0] {result_layout = dense<[0, 1]> : tensor<2xindex>, xla_shape = "f32[1152,1152]{0,1}"} : (tensor<1152x1152xf32>) -> tensor<1152x1152xf32> loc(#loc)
    %879 = stablehlo.dot_general %844, %878, contracting_dims = [1] x [0] : (tensor<256x1152xf32>, tensor<1152x1152xf32>) -> tensor<256x1152xf32> loc(#loc)
    %880 = stablehlo.reshape %879 : (tensor<256x1152xf32>) -> tensor<1x256x1152xf32> loc(#loc)
    %881 = stablehlo.reshape %arg353 : (tensor<1152xf32>) -> tensor<1x1x1152xf32> loc(#loc)
    %882 = stablehlo.reshape %881 : (tensor<1x1x1152xf32>) -> tensor<1152xf32> loc(#loc)
    %883 = stablehlo.broadcast_in_dim %882, dims = [2] : (tensor<1152xf32>) -> tensor<1x256x1152xf32> loc(#loc)
    %884 = stablehlo.add %880, %883 : tensor<1x256x1152xf32> loc(#loc)
    %885 = stablehlo.reshape %884 : (tensor<1x256x1152xf32>) -> tensor<1x256x16x72xf32> loc(#loc)
    %886 = stablehlo.transpose %885, dims = [0, 2, 1, 3] {result_layout = dense<[3, 1, 2, 0]> : tensor<4xindex>, xla_shape = "f32[1,16,256,72]{3,1,2,0}"} : (tensor<1x256x16x72xf32>) -> tensor<1x16x256x72xf32> loc(#loc)
    %887 = stablehlo.dot_general %875, %886, batching_dims = [0, 1] x [0, 1], contracting_dims = [3] x [2] {mhlo.frontend_attributes = {grad_x = "false", grad_y = "false"}} : (tensor<1x16x256x256xf32>, tensor<1x16x256x72xf32>) -> tensor<1x16x256x72xf32> loc(#loc)
    %888 = stablehlo.transpose %887, dims = [0, 2, 1, 3] {result_layout = dense<[3, 1, 2, 0]> : tensor<4xindex>, xla_shape = "f32[1,256,16,72]{3,1,2,0}"} : (tensor<1x16x256x72xf32>) -> tensor<1x256x16x72xf32> loc(#loc)
    %889 = stablehlo.reshape %888 : (tensor<1x256x16x72xf32>) -> tensor<256x1152xf32> loc(#loc)
    %890 = stablehlo.reshape %arg352 : (tensor<1152x1152xf32>) -> tensor<1x1152x1152xf32> loc(#loc)
    %891 = stablehlo.reshape %890 : (tensor<1x1152x1152xf32>) -> tensor<1152x1152xf32> loc(#loc)
    %892 = stablehlo.transpose %891, dims = [1, 0] {result_layout = dense<[0, 1]> : tensor<2xindex>, xla_shape = "f32[1152,1152]{0,1}"} : (tensor<1152x1152xf32>) -> tensor<1152x1152xf32> loc(#loc)
    %893 = stablehlo.dot_general %889, %892, contracting_dims = [1] x [0] : (tensor<256x1152xf32>, tensor<1152x1152xf32>) -> tensor<256x1152xf32> loc(#loc)
    %894 = stablehlo.reshape %893 : (tensor<256x1152xf32>) -> tensor<1x256x1152xf32> loc(#loc)
    %895 = stablehlo.reshape %arg351 : (tensor<1152xf32>) -> tensor<1x1x1152xf32> loc(#loc)
    %896 = stablehlo.reshape %895 : (tensor<1x1x1152xf32>) -> tensor<1152xf32> loc(#loc)
    %897 = stablehlo.broadcast_in_dim %896, dims = [2] : (tensor<1152xf32>) -> tensor<1x256x1152xf32> loc(#loc)
    %898 = stablehlo.add %894, %897 : tensor<1x256x1152xf32> loc(#loc)
    %899 = stablehlo.add %838, %898 {result_layout = dense<[1, 2, 0]> : tensor<3xindex>, xla_shape = "f32[1,256,1152]{1,2,0}"} : tensor<1x256x1152xf32> loc(#loc)
    %900 = stablehlo.reshape %arg350 : (tensor<1152xf32>) -> tensor<1x1x1152xf32> loc(#loc)
    %901 = stablehlo.reshape %900 : (tensor<1x1x1152xf32>) -> tensor<1152xf32> loc(#loc)
    %902 = stablehlo.reshape %arg349 : (tensor<1152xf32>) -> tensor<1x1x1152xf32> loc(#loc)
    %903 = stablehlo.reshape %902 : (tensor<1x1x1152xf32>) -> tensor<1152xf32> loc(#loc)
    %904 = stablehlo.composite "tenstorrent.layer_norm" %899, %901, %903 {composite_attributes = {epsilon = 9.99999997E-7 : f32, normalized_shape = dense<1152> : tensor<1xi64>}, decomposition = @tenstorrent.layer_norm.impl_157} : (tensor<1x256x1152xf32>, tensor<1152xf32>, tensor<1152xf32>) -> tensor<1x256x1152xf32> loc(#loc)
    %905 = stablehlo.reshape %904 : (tensor<1x256x1152xf32>) -> tensor<256x1152xf32> loc(#loc)
    %906 = stablehlo.reshape %arg348 : (tensor<4304x1152xf32>) -> tensor<1x4304x1152xf32> loc(#loc)
    %907 = stablehlo.reshape %906 : (tensor<1x4304x1152xf32>) -> tensor<4304x1152xf32> loc(#loc)
    %908 = stablehlo.transpose %907, dims = [1, 0] {result_layout = dense<[0, 1]> : tensor<2xindex>, xla_shape = "f32[1152,4304]{0,1}"} : (tensor<4304x1152xf32>) -> tensor<1152x4304xf32> loc(#loc)
    %909 = stablehlo.dot_general %905, %908, contracting_dims = [1] x [0] : (tensor<256x1152xf32>, tensor<1152x4304xf32>) -> tensor<256x4304xf32> loc(#loc)
    %910 = stablehlo.reshape %909 : (tensor<256x4304xf32>) -> tensor<1x256x4304xf32> loc(#loc)
    %911 = stablehlo.reshape %arg347 : (tensor<4304xf32>) -> tensor<1x1x4304xf32> loc(#loc)
    %912 = stablehlo.reshape %911 : (tensor<1x1x4304xf32>) -> tensor<4304xf32> loc(#loc)
    %913 = stablehlo.broadcast_in_dim %912, dims = [2] : (tensor<4304xf32>) -> tensor<1x256x4304xf32> loc(#loc)
    %914 = stablehlo.add %910, %913 : tensor<1x256x4304xf32> loc(#loc)
    %915 = stablehlo.composite "tenstorrent.gelu_tanh" %914 {composite_attributes = {approximate = "tanh"}, decomposition = @tenstorrent.gelu_tanh.impl_38} : (tensor<1x256x4304xf32>) -> tensor<1x256x4304xf32> loc(#loc)
    %916 = stablehlo.reshape %915 : (tensor<1x256x4304xf32>) -> tensor<256x4304xf32> loc(#loc)
    %917 = stablehlo.reshape %arg346 : (tensor<1152x4304xf32>) -> tensor<1x1152x4304xf32> loc(#loc)
    %918 = stablehlo.reshape %917 : (tensor<1x1152x4304xf32>) -> tensor<1152x4304xf32> loc(#loc)
    %919 = stablehlo.transpose %918, dims = [1, 0] {result_layout = dense<[0, 1]> : tensor<2xindex>, xla_shape = "f32[4304,1152]{0,1}"} : (tensor<1152x4304xf32>) -> tensor<4304x1152xf32> loc(#loc)
    %920 = stablehlo.dot_general %916, %919, contracting_dims = [1] x [0] : (tensor<256x4304xf32>, tensor<4304x1152xf32>) -> tensor<256x1152xf32> loc(#loc)
    %921 = stablehlo.reshape %920 : (tensor<256x1152xf32>) -> tensor<1x256x1152xf32> loc(#loc)
    %922 = stablehlo.reshape %arg345 : (tensor<1152xf32>) -> tensor<1x1x1152xf32> loc(#loc)
    %923 = stablehlo.reshape %922 : (tensor<1x1x1152xf32>) -> tensor<1152xf32> loc(#loc)
    %924 = stablehlo.broadcast_in_dim %923, dims = [2] : (tensor<1152xf32>) -> tensor<1x256x1152xf32> loc(#loc)
    %925 = stablehlo.add %921, %924 : tensor<1x256x1152xf32> loc(#loc)
    %926 = stablehlo.add %899, %925 {result_layout = dense<[1, 2, 0]> : tensor<3xindex>, xla_shape = "f32[1,256,1152]{1,2,0}"} : tensor<1x256x1152xf32> loc(#loc)
    %927 = stablehlo.reshape %arg344 : (tensor<1152xf32>) -> tensor<1x1x1152xf32> loc(#loc)
    %928 = stablehlo.reshape %927 : (tensor<1x1x1152xf32>) -> tensor<1152xf32> loc(#loc)
    %929 = stablehlo.reshape %arg343 : (tensor<1152xf32>) -> tensor<1x1x1152xf32> loc(#loc)
    %930 = stablehlo.reshape %929 : (tensor<1x1x1152xf32>) -> tensor<1152xf32> loc(#loc)
    %931 = stablehlo.composite "tenstorrent.layer_norm" %926, %928, %930 {composite_attributes = {epsilon = 9.99999997E-7 : f32, normalized_shape = dense<1152> : tensor<1xi64>}, decomposition = @tenstorrent.layer_norm.impl_22} : (tensor<1x256x1152xf32>, tensor<1152xf32>, tensor<1152xf32>) -> tensor<1x256x1152xf32> loc(#loc)
    %932 = stablehlo.reshape %931 : (tensor<1x256x1152xf32>) -> tensor<256x1152xf32> loc(#loc)
    %933 = stablehlo.reshape %arg497 : (tensor<1152x1152xf32>) -> tensor<1x1152x1152xf32> loc(#loc)
    %934 = stablehlo.reshape %933 : (tensor<1x1152x1152xf32>) -> tensor<1152x1152xf32> loc(#loc)
    %935 = stablehlo.transpose %934, dims = [1, 0] {result_layout = dense<[0, 1]> : tensor<2xindex>, xla_shape = "f32[1152,1152]{0,1}"} : (tensor<1152x1152xf32>) -> tensor<1152x1152xf32> loc(#loc)
    %936 = stablehlo.dot_general %932, %935, contracting_dims = [1] x [0] : (tensor<256x1152xf32>, tensor<1152x1152xf32>) -> tensor<256x1152xf32> loc(#loc)
    %937 = stablehlo.reshape %936 : (tensor<256x1152xf32>) -> tensor<1x256x1152xf32> loc(#loc)
    %938 = stablehlo.reshape %arg496 : (tensor<1152xf32>) -> tensor<1x1x1152xf32> loc(#loc)
    %939 = stablehlo.reshape %938 : (tensor<1x1x1152xf32>) -> tensor<1152xf32> loc(#loc)
    %940 = stablehlo.broadcast_in_dim %939, dims = [2] : (tensor<1152xf32>) -> tensor<1x256x1152xf32> loc(#loc)
    %941 = stablehlo.add %937, %940 : tensor<1x256x1152xf32> loc(#loc)
…
    %cst_0 = stablehlo.constant dense<8.68055562E-4> : tensor<1x256xf32> loc(#loc)
    %cst_1 = stablehlo.constant dense<0.000000e+00> : tensor<f32> loc(#loc)
    %0 = stablehlo.reduce(%arg0 init: %cst_1) applies stablehlo.add across dimensions = [2] : (tensor<1x256x1152xf32>, tensor<f32>) -> tensor<1x256xf32> loc(#loc)
    %1 = stablehlo.multiply %0, %cst_0 : tensor<1x256xf32> loc(#loc)
    %2 = stablehlo.broadcast_in_dim %1, dims = [0, 1] : (tensor<1x256xf32>) -> tensor<1x256x1152xf32> loc(#loc)
    %3 = stablehlo.subtract %arg0, %2 : tensor<1x256x1152xf32> loc(#loc)
    %4 = stablehlo.subtract %arg0, %2 {result_layout = dense<[1, 2, 0]> : tensor<3xindex>, xla_shape = "f32[1,256,1152]{1,2,0}"} : tensor<1x256x1152xf32> loc(#loc)
    %5 = stablehlo.multiply %4, %4 {result_layout = dense<[1, 2, 0]> : tensor<3xindex>, xla_shape = "f32[1,256,1152]{1,2,0}"} : tensor<1x256x1152xf32> loc(#loc)
    %6 = stablehlo.reduce(%5 init: %cst_1) applies stablehlo.add across dimensions = [2] : (tensor<1x256x1152xf32>, tensor<f32>) -> tensor<1x256xf32> loc(#loc)
    %7 = stablehlo.multiply %6, %cst_0 : tensor<1x256xf32> loc(#loc)
    %8 = stablehlo.reshape %7 : (tensor<1x256xf32>) -> tensor<1x256x1xf32> loc(#loc)
    %9 = stablehlo.add %8, %cst : tensor<1x256x1xf32> loc(#loc)
    %10 = stablehlo.rsqrt %9 : tensor<1x256x1xf32> loc(#loc)
    %11 = stablehlo.reshape %10 : (tensor<1x256x1xf32>) -> tensor<1x256xf32> loc(#loc)
    %12 = stablehlo.broadcast_in_dim %11, dims = [0, 1] : (tensor<1x256xf32>) -> tensor<1x256x1152xf32> loc(#loc)
    %13 = stablehlo.multiply %3, %12 : tensor<1x256x1152xf32> loc(#loc)
    %14 = stablehlo.broadcast_in_dim %arg1, dims = [2] : (tensor<1152xf32>) -> tensor<1x256x1152xf32> loc(#loc)
    %15 = stablehlo.multiply %13, %14 : tensor<1x256x1152xf32> loc(#loc)
    %16 = stablehlo.broadcast_in_dim %arg2, dims = [2] : (tensor<1152xf32>) -> tensor<1x256x1152xf32> loc(#loc)
    %17 = stablehlo.add %15, %16 : tensor<1x256x1152xf32> loc(#loc)
    return %17 : tensor<1x256x1152xf32> loc(#loc)
  } loc(#loc)
  func.func private @tenstorrent.layer_norm.impl_151(%arg0: tensor<1x256x1152xf32> loc(unknown), %arg1: tensor<1152xf32> loc(unknown), %arg2: tensor<1152xf32> loc(unknown)) -> tensor<1x256x1152xf32> {
    %cst = stablehlo.constant dense<9.99999997E-7> : tensor<1x256x1xf32> loc(#loc)
    %cst_0 = stablehlo.constant dense<8.68055562E-4> : tensor<1x256xf32> loc(#loc)
    %cst_1 = stablehlo.constant dense<0.000000e+00> : tensor<f32> loc(#loc)
    %0 = stablehlo.reduce(%arg0 init: %cst_1) applies stablehlo.add across dimensions = [2] : (tensor<1x256x1152xf32>, tensor<f32>) -> tensor<1x256xf32> loc(#loc)
    %1 = stablehlo.multiply %0, %cst_0 : tensor<1x256xf32> loc(#loc)
    %2 = stablehlo.broadcast_in_dim %1, dims = [0, 1] : (tensor<1x256xf32>) -> tensor<1x256x1152xf32> loc(#loc)
    %3 = stablehlo.subtract %arg0, %2 : tensor<1x256x1152xf32> loc(#loc)
    %4 = stablehlo.subtract %arg0, %2 {result_layout = dense<[1, 2, 0]> : tensor<3xindex>, xla_shape = "f32[1,256,1152]{1,2,0}"} : tensor<1x256x1152xf32> loc(#loc)
    %5 = stablehlo.multiply %4, %4 {result_layout = dense<[1, 2, 0]> : tensor<3xindex>, xla_shape = "f32[1,256,1152]{1,2,0}"} : tensor<1x256x1152xf32> loc(#loc)
    %6 = stablehlo.reduce(%5 init: %cst_1) applies stablehlo.add across dimensions = [2] : (tensor<1x256x1152xf32>, tensor<f32>) -> tensor<1x256xf32> loc(#loc)
    %7 = stablehlo.multiply %6, %cst_0 : tensor<1x256xf32> loc(#loc)
    %8 = stablehlo.reshape %7 : (tensor<1x256xf32>) -> tensor<1x256x1xf32> loc(#loc)
    %9 = stablehlo.add %8, %cst : tensor<1x256x1xf32> loc(#loc)
    %10 = stablehlo.rsqrt %9 : tensor<1x256x1xf32> loc(#loc)
    %11 = stablehlo.reshape %10 : (tensor<1x256x1xf32>) -> tensor<1x256xf32> loc(#loc)
    %12 = stablehlo.broadcast_in_dim %11, dims = [0, 1] : (tensor<1x256xf32>) -> tensor<1x256x1152xf32> loc(#loc)
    %13 = stablehlo.multiply %3, %12 : tensor<1x256x1152xf32> loc(#loc)
    %14 = stablehlo.broadcast_in_dim %arg1, dims = [2] : (tensor<1152xf32>) -> tensor<1x256x1152xf32> loc(#loc)
    %15 = stablehlo.multiply %13, %14 : tensor<1x256x1152xf32> loc(#loc)
    %16 = stablehlo.broadcast_in_dim %arg2, dims = [2] : (tensor<1152xf32>) -> tensor<1x256x1152xf32> loc(#loc)
    %17 = stablehlo.add %15, %16 : tensor<1x256x1152xf32> loc(#loc)
    return %17 : tensor<1x256x1152xf32> loc(#loc)
  } loc(#loc)
  func.func private @tenstorrent.layer_norm.impl_152(%arg0: tensor<1x256x1152xf32> loc(unknown), %arg1: tensor<1152xf32> loc(unknown), %arg2: tensor<1152xf32> loc(unknown)) -> tensor<1x256x1152xf32> {
    %cst = stablehlo.constant dense<9.99999997E-7> : tensor<1x256x1xf32> loc(#loc)
    %cst_0 = stablehlo.constant dense<8.68055562E-4> : tensor<1x256xf32> loc(#loc)
    %cst_1 = stablehlo.constant dense<0.000000e+00> : tensor<f32> loc(#loc)
    %0 = stablehlo.reduce(%arg0 init: %cst_1) applies stablehlo.add across dimensions = [2] : (tensor<1x256x1152xf32>, tensor<f32>) -> tensor<1x256xf32> loc(#loc)
    %1 = stablehlo.multiply %0, %cst_0 : tensor<1x256xf32> loc(#loc)
    %2 = stablehlo.broadcast_in_dim %1, dims = [0, 1] : (tensor<1x256xf32>) -> tensor<1x256x1152xf32> loc(#loc)
    %3 = stablehlo.subtract %arg0, %2 : tensor<1x256x1152xf32> loc(#loc)
    %4 = stablehlo.subtract %arg0, %2 {result_layout = dense<[1, 2, 0]> : tensor<3xindex>, xla_shape = "f32[1,256,1152]{1,2,0}"} : tensor<1x256x1152xf32> loc(#loc)
    %5 = stablehlo.multiply %4, %4 {result_layout = dense<[1, 2, 0]> : tensor<3xindex>, xla_shape = "f32[1,256,1152]{1,2,0}"} : tensor<1x256x1152xf32> loc(#loc)
    %6 = stablehlo.reduce(%5 init: %cst_1) applies stablehlo.add across dimensions = [2] : (tensor<1x256x1152xf32>, tensor<f32>) -> tensor<1x256xf32> loc(#loc)
    %7 = stablehlo.multiply %6, %cst_0 : tensor<1x256xf32> loc(#loc)
    %8 = stablehlo.reshape %7 : (tensor<1x256xf32>) -> tensor<1x256x1xf32> loc(#loc)
    %9 = stablehlo.add %8, %cst : tensor<1x256x1xf32> loc(#loc)
    %10 = stablehlo.rsqrt %9 : tensor<1x256x1xf32> loc(#loc)
    %11 = stablehlo.reshape %10 : (tensor<1x256x1xf32>) -> tensor<1x256xf32> loc(#loc)
    %12 = stablehlo.broadcast_in_dim %11, dims = [0, 1] : (tensor<1x256xf32>) -> tensor<1x256x1152xf32> loc(#loc)
    %13 = stablehlo.multiply %3, %12 : tensor<1x256x1152xf32> loc(#loc)
    %14 = stablehlo.broadcast_in_dim %arg1, dims = [2] : (tensor<1152xf32>) -> tensor<1x256x1152xf32> loc(#loc)
    %15 = stablehlo.multiply %13, %14 : tensor<1x256x1152xf32> loc(#loc)
    %16 = stablehlo.broadcast_in_dim %arg2, dims = [2] : (tensor<1152xf32>) -> tensor<1x256x1152xf32> loc(#loc)
    %17 = stablehlo.add %15, %16 : tensor<1x256x1152xf32> loc(#loc)
    return %17 : tensor<1x256x1152xf32> loc(#loc)
  } loc(#loc)
  func.func private @tenstorrent.gelu_tanh.impl_100(%arg0: tensor<1x256x4304xf32> loc(unknown)) -> tensor<1x256x4304xf32> {
    %cst = stablehlo.constant dense<3.000000e+00> : tensor<1x256x4304xf32> loc(#loc)
    %cst_0 = stablehlo.constant dense<4.471500e-02> : tensor<1x256x4304xf32> loc(#loc)
    %cst_1 = stablehlo.constant dense<0.797884583> : tensor<1x256x4304xf32> loc(#loc)
    %cst_2 = stablehlo.constant dense<1.000000e+00> : tensor<1x256x4304xf32> loc(#loc)
    %cst_3 = stablehlo.constant dense<5.000000e-01> : tensor<1x256x4304xf32> loc(#loc)
    %0 = stablehlo.multiply %arg0, %cst_3 : tensor<1x256x4304xf32> loc(#loc)
    %1 = stablehlo.power %arg0, %cst : tensor<1x256x4304xf32> loc(#loc)
    %2 = stablehlo.multiply %1, %cst_0 : tensor<1x256x4304xf32> loc(#loc)
    %3 = stablehlo.add %arg0, %2 : tensor<1x256x4304xf32> loc(#loc)
    %4 = stablehlo.multiply %3, %cst_1 : tensor<1x256x4304xf32> loc(#loc)
    %5 = stablehlo.tanh %4 : tensor<1x256x4304xf32> loc(#loc)
    %6 = stablehlo.add %5, %cst_2 : tensor<1x256x4304xf32> loc(#loc)
    %7 = stablehlo.multiply %0, %6 : tensor<1x256x4304xf32> loc(#loc)
    return %7 : tensor<1x256x4304xf32> loc(#loc)
  } loc(#loc)
  func.func private @tenstorrent.layer_norm.impl_153(%arg0: tensor<1x256x1152xf32> loc(unknown), %arg1: tensor<1152xf32> loc(unknown), %arg2: tensor<1152xf32> loc(unknown)) -> tensor<1x256x1152xf32> {
    %cst = stablehlo.constant dense<9.99999997E-7> : tensor<1x256x1xf32> loc(#loc)
    %cst_0 = stablehlo.constant dense<8.68055562E-4> : tensor<1x256xf32> loc(#loc)
    %cst_1 = stablehlo.constant dense<0.000000e+00> : tensor<f32> loc(#loc)
    %0 = stablehlo.reduce(%arg0 init: %cst_1) applies stablehlo.add across dimensions = [2] : (tensor<1x256x1152xf32>, tensor<f32>) -> tensor<1x256xf32> loc(#loc)
    %1 = stablehlo.multiply %0, %cst_0 : tensor<1x256xf32> loc(#loc)
    %2 = stablehlo.broadcast_in_dim %1, dims = [0, 1] : (tensor<1x256xf32>) -> tensor<1x256x1152xf32> loc(#loc)
    %3 = stablehlo.subtract %arg0, %2 : tensor<1x256x1152xf32> loc(#loc)
    %4 = stablehlo.subtract %arg0, %2 {result_layout = dense<[1, 2, 0]> : tensor<3xindex>, xla_shape = "f32[1,256,1152]{1,2,0}"} : tensor<1x256x1152xf32> loc(#loc)
    %5 = stablehlo.multiply %4, %4 {result_layout = dense<[1, 2, 0]> : tensor<3xindex>, xla_shape = "f32[1,256,1152]{1,2,0}"} : tensor<1x256x1152xf32> loc(#loc)
    %6 = stablehlo.reduce(%5 init: %cst_1) applies stablehlo.add across dimensions = [2] : (tensor<1x256x1152xf32>, tensor<f32>) -> tensor<1x256xf32> loc(#loc)
    %7 = stablehlo.multiply %6, %cst_0 : tensor<1x256xf32> loc(#loc)
    %8 = stablehlo.reshape %7 : (tensor<1x256xf32>) -> tensor<1x256x1xf32> loc(#loc)
    %9 = stablehlo.add %8, %cst : tensor<1x256x1xf32> loc(#loc)
    %10 = stablehlo.rsqrt %9 : tensor<1x256x1xf32> loc(#loc)
    %11 = stablehlo.reshape %10 : (tensor<1x256x1xf32>) -> tensor<1x256xf32> loc(#loc)
    %12 = stablehlo.broadcast_in_dim %11, dims = [0, 1] : (tensor<1x256xf32>) -> tensor<1x256x1152xf32> loc(#loc)
    %13 = stablehlo.multiply %3, %12 : tensor<1x256x1152xf32> loc(#loc)
    %14 = stablehlo.broadcast_in_dim %arg1, dims = [2] : (tensor<1152xf32>) -> tensor<1x256x1152xf32> loc(#loc)
    %15 = stablehlo.multiply %13, %14 : tensor<1x256x1152xf32> loc(#loc)
    %16 = stablehlo.broadcast_in_dim %arg2, dims = [2] : (tensor<1152xf32>) -> tensor<1x256x1152xf32> loc(#loc)
    %17 = stablehlo.add %15, %16 : tensor<1x256x1152xf32> loc(#loc)
    return %17 : tensor<1x256x1152xf32> loc(#loc)
  } loc(#loc)
  func.func private @tenstorrent.layer_norm.impl_154(%arg0: tensor<1x256x1152xf32> loc(unknown), %arg1: tensor<1152xf32> loc(unknown), %arg2: tensor<1152xf32> loc(unknown)) -> tensor<1x256x1152xf32> {
    %cst = stablehlo.constant dense<9.99999997E-7> : tensor<1x256x1xf32> loc(#loc)
    %cst_0 = stablehlo.constant dense<8.68055562E-4> : tensor<1x256xf32> loc(#loc)
    %cst_1 = stablehlo.constant dense<0.000000e+00> : tensor<f32> loc(#loc)
    %0 = stablehlo.reduce(%arg0 init: %cst_1) applies stablehlo.add across dimensions = [2] : (tensor<1x256x1152xf32>, tensor<f32>) -> tensor<1x256xf32> loc(#loc)
    %1 = stablehlo.multiply %0, %cst_0 : tensor<1x256xf32> loc(#loc)
    %2 = stablehlo.broadcast_in_dim %1, dims = [0, 1] : (tensor<1x256xf32>) -> tensor<1x256x1152xf32> loc(#loc)
    %3 = stablehlo.subtract %arg0, %2 : tensor<1x256x1152xf32> loc(#loc)
    %4 = stablehlo.subtract %arg0, %2 {result_layout = dense<[1, 2, 0]> : tensor<3xindex>, xla_shape = "f32[1,256,1152]{1,2,0}"} : tensor<1x256x1152xf32> loc(#loc)
    %5 = stablehlo.multiply %4, %4 {result_layout = dense<[1, 2, 0]> : tensor<3xindex>, xla_shape = "f32[1,256,1152]{1,2,0}"} : tensor<1x256x1152xf32> loc(#loc)
    %6 = stablehlo.reduce(%5 init: %cst_1) applies stablehlo.add across dimensions = [2] : (tensor<1x256x1152xf32>, tensor<f32>) -> tensor<1x256xf32> loc(#loc)
    %7 = stablehlo.multiply %6, %cst_0 : tensor<1x256xf32> loc(#loc)
    %8 = stablehlo.reshape %7 : (tensor<1x256xf32>) -> tensor<1x256x1xf32> loc(#loc)
    %9 = stablehlo.add %8, %cst : tensor<1x256x1xf32> loc(#loc)
    %10 = stablehlo.rsqrt %9 : tensor<1x256x1xf32> loc(#loc)
    %11 = stablehlo.reshape %10 : (tensor<1x256x1xf32>) -> tensor<1x256xf32> loc(#loc)
    %12 = stablehlo.broadcast_in_dim %11, dims = [0, 1] : (tensor<1x256xf32>) -> tensor<1x256x1152xf32> loc(#loc)
    %13 = stablehlo.multiply %3, %12 : tensor<1x256x1152xf32> loc(#loc)
    %14 = stablehlo.broadcast_in_dim %arg1, dims = [2] : (tensor<1152xf32>) -> tensor<1x256x1152xf32> loc(#loc)
    %15 = stablehlo.multiply %13, %14 : tensor<1x256x1152xf32> loc(#loc)
    %16 = stablehlo.broadcast_in_dim %arg2, dims = [2] : (tensor<1152xf32>) -> tensor<1x256x1152xf32> loc(#loc)
    %17 = stablehlo.add %15, %16 : tensor<1x256x1152xf32> loc(#loc)
    return %17 : tensor<1x256x1152xf32> loc(#loc)
  } loc(#loc)
  func.func private @tenstorrent.layer_norm.impl_155(%arg0: tensor<1x256x1152xf32> loc(unknown), %arg1: tensor<1152xf32> loc(unknown), %arg2: tensor<1152xf32> loc(unknown)) -> tensor<1x256x1152xf32> {
    %cst = stablehlo.constant dense<9.99999997E-7> : tensor<1x256x1xf32> loc(#loc)
    %cst_0 = stablehlo.constant dense<8.68055562E-4> : tensor<1x256xf32> loc(#loc)
    %cst_1 = stablehlo.constant dense<0.000000e+00> : tensor<f32> loc(#loc)
    %0 = stablehlo.reduce(%arg0 init: %cst_1) applies stablehlo.add across dimensions = [2] : (tensor<1x256x1152xf32>, tensor<f32>) -> tensor<1x256xf32> loc(#loc)
    %1 = stablehlo.multiply %0, %cst_0 : tensor<1x256xf32> loc(#loc)
    %2 = stablehlo.broadcast_in_dim %1, dims = [0, 1] : (tensor<1x256xf32>) -> tensor<1x256x1152xf32> loc(#loc)
    %3 = stablehlo.subtract %arg0, %2 : tensor<1x256x1152xf32> loc(#loc)
    %4 = stablehlo.subtract %arg0, %2 {result_layout = dense<[1, 2, 0]> : tensor<3xindex>, xla_shape = "f32[1,256,1152]{1,2,0}"} : tensor<1x256x1152xf32> loc(#loc)
    %5 = stablehlo.multiply %4, %4 {result_layout = dense<[1, 2, 0]> : tensor<3xindex>, xla_shape = "f32[1,256,1152]{1,2,0}"} : tensor<1x256x1152xf32> loc(#loc)
    %6 = stablehlo.reduce(%5 init: %cst_1) applies stablehlo.add across dimensions = [2] : (tensor<1x256x1152xf32>, tensor<f32>) -> tensor<1x256xf32> loc(#loc)
    %7 = stablehlo.multiply %6, %cst_0 : tensor<1x256xf32> loc(#loc)
    %8 = stablehlo.reshape %7 : (tensor<1x256xf32>) -> tensor<1x256x1xf32> loc(#loc)
    %9 = stablehlo.add %8, %cst : tensor<1x256x1xf32> loc(#loc)
    %10 = stablehlo.rsqrt %9 : tensor<1x256x1xf32> loc(#loc)
    %11 = stablehlo.reshape %10 : (tensor<1x256x1xf32>) -> tensor<1x256xf32> loc(#loc)
    %12 = stablehlo.broadcast_in_dim %11, dims = [0, 1] : (tensor<1x256xf32>) -> tensor<1x256x1152xf32> loc(#loc)
    %13 = stablehlo.multiply %3, %12 : tensor<1x256x1152xf32> loc(#loc)
    %14 = stablehlo.broadcast_in_dim %arg1, dims = [2] : (tensor<1152xf32>) -> tensor<1x256x1152xf32> loc(#loc)
    %15 = stablehlo.multiply %13, %14 : tensor<1x256x1152xf32> loc(#loc)
    %16 = stablehlo.broadcast_in_dim %arg2, dims = [2] : (tensor<1152xf32>) -> tensor<1x256x1152xf32> loc(#loc)
    %17 = stablehlo.add %15, %16 : tensor<1x256x1152xf32> loc(#loc)
    return %17 : tensor<1x256x1152xf32> loc(#loc)
  } loc(#loc)
  func.func private @tenstorrent.gelu_tanh.impl_101(%arg0: tensor<1x256x4304xf32> loc(unknown)) -> tensor<1x256x4304xf32> {
    %cst = stablehlo.constant dense<3.000000e+00> : tensor<1x256x4304xf32> loc(#loc)
    %cst_0 = stablehlo.constant dense<4.471500e-02> : tensor<1x256x4304xf32> loc(#loc)
    %cst_1 = stablehlo.constant dense<0.797884583> : tensor<1x256x4304xf32> loc(#loc)
    %cst_2 = stablehlo.constant dense<1.000000e+00> : tensor<1x256x4304xf32> loc(#loc)
    %cst_3 = stablehlo.constant dense<5.000000e-01> : tensor<1x256x4304xf32> loc(#loc)
    %0 = stablehlo.multiply %arg0, %cst_3 : tensor<1x256x4304xf32> loc(#loc)
    %1 = stablehlo.power %arg0, %cst : tensor<1x256x4304xf32> loc(#loc)
    %2 = stablehlo.multiply %1, %cst_0 : tensor<1x256x4304xf32> loc(#loc)
    %3 = stablehlo.add %arg0, %2 : tensor<1x256x4304xf32> loc(#loc)
    %4 = stablehlo.multiply %3, %cst_1 : tensor<1x256x4304xf32> loc(#loc)
    %5 = stablehlo.tanh %4 : tensor<1x256x4304xf32> loc(#loc)
    %6 = stablehlo.add %5, %cst_2 : tensor<1x256x4304xf32> loc(#loc)
    %7 = stablehlo.multiply %0, %6 : tensor<1x256x4304xf32> loc(#loc)
    return %7 : tensor<1x256x4304xf32> loc(#loc)
  } loc(#loc)
  func.func private @tenstorrent.layer_norm.impl_156(%arg0: tensor<1x256x1152xf32> loc(unknown), %arg1: tensor<1152xf32> loc(unknown), %arg2: tensor<1152xf32> loc(unknown)) -> tensor<1x256x1152xf32> {
    %cst = stablehlo.constant dense<9.99999997E-7> : tensor<1x256x1xf32> loc(#loc)
    %cst_0 = stablehlo.constant dense<8.68055562E-4> : tensor<1x256xf32> loc(#loc)
    %cst_1 = stablehlo.constant dense<0.000000e+00> : tensor<f32> loc(#loc)
    %0 = stablehlo.reduce(%arg0 init: %cst_1) applies stablehlo.add across dimensions = [2] : (tensor<1x256x1152xf32>, tensor<f32>) -> tensor<1x256xf32> loc(#loc)
    %1 = stablehlo.multiply %0, %cst_0 : tensor<1x256xf32> loc(#loc)
    %2 = stablehlo.broadcast_in_dim %1, dims = [0, 1] : (tensor<1x256xf32>) -> tensor<1x256x1152xf32> loc(#loc)
    %3 = stablehlo.subtract %arg0, %2 : tensor<1x256x1152xf32> loc(#loc)
    %4 = stablehlo.subtract %arg0, %2 {result_layout = dense<[1, 2, 0]> : tensor<3xindex>, xla_shape = "f32[1,256,1152]{1,2,0}"} : tensor<1x256x1152xf32> loc(#loc)
    %5 = stablehlo.multiply %4, %4 {result_layout = dense<[1, 2, 0]> : tensor<3xindex>, xla_shape = "f32[1,256,1152]{1,2,0}"} : tensor<1x256x1152xf32> loc(#loc)
    %6 = stablehlo.reduce(%5 init: %cst_1) applies stablehlo.add across dimensions = [2] : (tensor<1x256x1152xf32>, tensor<f32>) -> tensor<1x256xf32> loc(#loc)
    %7 = stablehlo.multiply %6, %cst_0 : tensor<1x256xf32> loc(#loc)
    %8 = stablehlo.reshape %7 : (tensor<1x256xf32>) -> tensor<1x256x1xf32> loc(#loc)
    %9 = stablehlo.add %8, %cst : tensor<1x256x1xf32> loc(#loc)
    %10 = stablehlo.rsqrt %9 : tensor<1x256x1xf32> loc(#loc)
    %11 = stablehlo.reshape %10 : (tensor<1x256x1xf32>) -> tensor<1x256xf32> loc(#loc)
    %12 = stablehlo.broadcast_in_dim %11, dims = [0, 1] : (tensor<1x256xf32>) -> tensor<1x256x1152xf32> loc(#loc)
    %13 = stablehlo.multiply %3, %12 : tensor<1x256x1152xf32> loc(#loc)
    %14 = stablehlo.broadcast_in_dim %arg1, dims = [2] : (tensor<1152xf32>) -> tensor<1x256x1152xf32> loc(#loc)
    %15 = stablehlo.multiply %13, %14 : tensor<1x256x1152xf32> loc(#loc)
    %16 = stablehlo.broadcast_in_dim %arg2, dims = [2] : (tensor<1152xf32>) -> tensor<1x256x1152xf32> loc(#loc)
    %17 = stablehlo.add %15, %16 : tensor<1x256x1152xf32> loc(#loc)
    return %17 : tensor<1x256x1152xf32> loc(#loc)
  } loc(#loc)
  func.func private @tenstorrent.gelu_tanh.impl_102(%arg0: tensor<1x51x4096xf32> loc(unknown)) -> tensor<1x51x4096xf32> {
    %cst = stablehlo.constant dense<3.000000e+00> : tensor<1x51x4096xf32> loc(#loc)
    %cst_0 = stablehlo.constant dense<4.471500e-02> : tensor<1x51x4096xf32> loc(#loc)
    %cst_1 = stablehlo.constant dense<0.797884583> : tensor<1x51x4096xf32> loc(#loc)
    %cst_2 = stablehlo.constant dense<1.000000e+00> : tensor<1x51x4096xf32> loc(#loc)
    %cst_3 = stablehlo.constant dense<5.000000e-01> : tensor<1x51x4096xf32> loc(#loc)
    %0 = stablehlo.multiply %arg0, %cst_3 : tensor<1x51x4096xf32> loc(#loc)
    %1 = stablehlo.power %arg0, %cst : tensor<1x51x4096xf32> loc(#loc)
    %2 = stablehlo.multiply %1, %cst_0 : tensor<1x51x4096xf32> loc(#loc)
    %3 = stablehlo.add %arg0, %2 : tensor<1x51x4096xf32> loc(#loc)
    %4 = stablehlo.multiply %3, %cst_1 : tensor<1x51x4096xf32> loc(#loc)
    %5 = stablehlo.tanh %4 : tensor<1x51x4096xf32> loc(#loc)
    %6 = stablehlo.add %5, %cst_2 : tensor<1x51x4096xf32> loc(#loc)
    %7 = stablehlo.multiply %0, %6 : tensor<1x51x4096xf32> loc(#loc)
    return %7 : tensor<1x51x4096xf32> loc(#loc)
  } loc(#loc)
  func.func private @tenstorrent.gelu_tanh.impl_103(%arg0: tensor<1x256x4304xf32> loc(unknown)) -> tensor<1x256x4304xf32> {
    %cst = stablehlo.constant dense<3.000000e+00> : tensor<1x256x4304xf32> loc(#loc)
    %cst_0 = stablehlo.constant dense<4.471500e-02> : tensor<1x256x4304xf32> loc(#loc)
    %cst_1 = stablehlo.constant dense<0.797884583> : tensor<1x256x4304xf32> loc(#loc)
    %cst_2 = stablehlo.constant dense<1.000000e+00> : tensor<1x256x4304xf32> loc(#loc)
    %cst_3 = stablehlo.constant dense<5.000000e-01> : tensor<1x256x4304xf32> loc(#loc)
    %0 = stablehlo.multiply %arg0, %cst_3 : tensor<1x256x4304xf32> loc(#loc)
    %1 = stablehlo.power %arg0, %cst : tensor<1x256x4304xf32> loc(#loc)
    %2 = stablehlo.multiply %1, %cst_0 : tensor<1x256x4304xf32> loc(#loc)
    %3 = stablehlo.add %arg0, %2 : tensor<1x256x4304xf32> loc(#loc)
    %4 = stablehlo.multiply %3, %cst_1 : tensor<1x256x4304xf32> loc(#loc)
    %5 = stablehlo.tanh %4 : tensor<1x256x4304xf32> loc(#loc)
    %6 = stablehlo.add %5, %cst_2 : tensor<1x256x4304xf32> loc(#loc)
    %7 = stablehlo.multiply %0, %6 : tensor<1x256x4304xf32> loc(#loc)
    return %7 : tensor<1x256x4304xf32> loc(#loc)
  } loc(#loc)
  func.func private @tenstorrent.layer_norm.impl_157(%arg0: tensor<1x256x1152xf32> loc(unknown), %arg1: tensor<1152xf32> loc(unknown), %arg2: tensor<1152xf32> loc(unknown)) -> tensor<1x256x1152xf32> {
    %cst = stablehlo.constant dense<9.99999997E-7> : tensor<1x256x1xf32> loc(#loc)
    %cst_0 = stablehlo.constant dense<8.68055562E-4> : tensor<1x256xf32> loc(#loc)
    %cst_1 = stablehlo.constant dense<0.000000e+00> : tensor<f32> loc(#loc)
    %0 = stablehlo.reduce(%arg0 init: %cst_1) applies stablehlo.add across dimensions = [2] : (tensor<1x256x1152xf32>, tensor<f32>) -> tensor<1x256xf32> loc(#loc)
    %1 = stablehlo.multiply %0, %cst_0 : tensor<1x256xf32> loc(#loc)
    %2 = stablehlo.broadcast_in_dim %1, dims = [0, 1] : (tensor<1x256xf32>) -> tensor<1x256x1152xf32> loc(#loc)
    %3 = stablehlo.subtract %arg0, %2 : tensor<1x256x1152xf32> loc(#loc)
    %4 = stablehlo.subtract %arg0, %2 {result_layout = dense<[1, 2, 0]> : tensor<3xindex>, xla_shape = "f32[1,256,1152]{1,2,0}"} : tensor<1x256x1152xf32> loc(#loc)
    %5 = stablehlo.multiply %4, %4 {result_layout = dense<[1, 2, 0]> : tensor<3xindex>, xla_shape = "f32[1,256,1152]{1,2,0}"} : tensor<1x256x1152xf32> loc(#loc)
    %6 = stablehlo.reduce(%5 init: %cst_1) applies stablehlo.add across dimensions = [2] : (tensor<1x256x1152xf32>, tensor<f32>) -> tensor<1x256xf32> loc(#loc)
    %7 = stablehlo.multiply %6, %cst_0 : tensor<1x256xf32> loc(#loc)
    %8 = stablehlo.reshape %7 : (tensor<1x256xf32>) -> tensor<1x256x1xf32> loc(#loc)
    %9 = stablehlo.add %8, %cst : tensor<1x256x1xf32> loc(#loc)
    %10 = stablehlo.rsqrt %9 : tensor<1x256x1xf32> loc(#loc)
    %11 = stablehlo.reshape %10 : (tensor<1x256x1xf32>) -> tensor<1x256xf32> loc(#loc)
    %12 = stablehlo.broadcast_in_dim %11, dims = [0, 1] : (tensor<1x256xf32>) -> tensor<1x256x1152xf32> loc(#loc)
    %13 = stablehlo.multiply %3, %12 : tensor<1x256x1152xf32> loc(#loc)
    %14 = stablehlo.broadcast_in_dim %arg1, dims = [2] : (tensor<1152xf32>) -> tensor<1x256x1152xf32> loc(#loc)
    %15 = stablehlo.multiply %13, %14 : tensor<1x256x1152xf32> loc(#loc)
    %16 = stablehlo.broadcast_in_dim %arg2, dims = [2] : (tensor<1152xf32>) -> tensor<1x256x1152xf32> loc(#loc)
    %17 = stablehlo.add %15, %16 : tensor<1x256x1152xf32> loc(#loc)
    return %17 : tensor<1x256x1152xf32> loc(#loc)
  } loc(#loc)
  func.func private @tenstorrent.layer_norm.impl_158(%arg0: tensor<1x256x1152xf32> loc(unknown), %arg1: tensor<1152xf32> loc(unknown), %arg2: tensor<1152xf32> loc(unknown)) -> tensor<1x256x1152xf32> {
    %cst = stablehlo.constant dense<9.99999997E-7> : tensor<1x256x1xf32> loc(#loc)
    %cst_0 = stablehlo.constant dense<8.68055562E-4> : tensor<1x256xf32> loc(#loc)
    %cst_1 = stablehlo.constant dense<0.000000e+00> : tensor<f32> loc(#loc)
    %0 = stablehlo.reduce(%arg0 init: %cst_1) applies stablehlo.add across dimensions = [2] : (tensor<1x256x1152xf32>, tensor<f32>) -> tensor<1x256xf32> loc(#loc)
    %1 = stablehlo.multiply %0, %cst_0 : tensor<1x256xf32> loc(#loc)
    %2 = stablehlo.broadcast_in_dim %1, dims = [0, 1] : (tensor<1x256xf32>) -> tensor<1x256x1152xf32> loc(#loc)
    %3 = stablehlo.subtract %arg0, %2 : tensor<1x256x1152xf32> loc(#loc)
    %4 = stablehlo.subtract %arg0, %2 {result_layout = dense<[1, 2, 0]> : tensor<3xindex>, xla_shape = "f32[1,256,1152]{1,2,0}"} : tensor<1x256x1152xf32> loc(#loc)
    %5 = stablehlo.multiply %4, %4 {result_layout = dense<[1, 2, 0]> : tensor<3xindex>, xla_shape = "f32[1,256,1152]{1,2,0}"} : tensor<1x256x1152xf32> loc(#loc)
    %6 = stablehlo.reduce(%5 init: %cst_1) applies stablehlo.add across dimensions = [2] : (tensor<1x256x1152xf32>, tensor<f32>) -> tensor<1x256xf32> loc(#loc)
    %7 = stablehlo.multiply %6, %cst_0 : tensor<1x256xf32> loc(#loc)
    %8 = stablehlo.reshape %7 : (tensor<1x256xf32>) -> tensor<1x256x1xf32> loc(#loc)
    %9 = stablehlo.add %8, %cst : tensor<1x256x1xf32> loc(#loc)
    %10 = stablehlo.rsqrt %9 : tensor<1x256x1xf32> loc(#loc)
    %11 = stablehlo.reshape %10 : (tensor<1x256x1xf32>) -> tensor<1x256xf32> loc(#loc)
    %12 = stablehlo.broadcast_in_dim %11, dims = [0, 1] : (tensor<1x256xf32>) -> tensor<1x256x1152xf32> loc(#loc)
    %13 = stablehlo.multiply %3, %12 : tensor<1x256x1152xf32> loc(#loc)
    %14 = stablehlo.broadcast_in_dim %arg1, dims = [2] : (tensor<1152xf32>) -> tensor<1x256x1152xf32> loc(#loc)
    %15 = stablehlo.multiply %13, %14 : tensor<1x256x1152xf32> loc(#loc)
    %16 = stablehlo.broadcast_in_dim %arg2, dims = [2] : (tensor<1152xf32>) -> tensor<1x256x1152xf32> loc(#loc)
    %17 = stablehlo.add %15, %16 : tensor<1x256x1152xf32> loc(#loc)
    return %17 : tensor<1x256x1152xf32> loc(#loc)
  } loc(#loc)
  func.func private @tenstorrent.layer_norm.impl_159(%arg0: tensor<1x256x1152xf32> loc(unknown), %arg1: tensor<1152xf32> loc(unknown), %arg2: tensor<1152xf32> loc(unknown)) -> tensor<1x256x1152xf32> {
    %cst = stablehlo.constant dense<9.99999997E-7> : tensor<1x256x1xf32> loc(#loc)
    %cst_0 = stablehlo.constant dense<8.68055562E-4> : tensor<1x256xf32> loc(#loc)
    %cst_1 = stablehlo.constant dense<0.000000e+00> : tensor<f32> loc(#loc)
    %0 = stablehlo.reduce(%arg0 init: %cst_1) applies stablehlo.add across dimensions = [2] : (tensor<1x256x1152xf32>, tensor<f32>) -> tensor<1x256xf32> loc(#loc)
    %1 = stablehlo.multiply %0, %cst_0 : tensor<1x256xf32> loc(#loc)
    %2 = stablehlo.broadcast_in_dim %1, dims = [0, 1] : (tensor<1x256xf32>) -> tensor<1x256x1152xf32> loc(#loc)
    %3 = stablehlo.subtract %arg0, %2 : tensor<1x256x1152xf32> loc(#loc)
    %4 = stablehlo.subtract %arg0, %2 {result_layout = dense<[1, 2, 0]> : tensor<3xindex>, xla_shape = "f32[1,256,1152]{1,2,0}"} : tensor<1x256x1152xf32> loc(#loc)
    %5 = stablehlo.multiply %4, %4 {result_layout = dense<[1, 2, 0]> : tensor<3xindex>, xla_shape = "f32[1,256,1152]{1,2,0}"} : tensor<1x256x1152xf32> loc(#loc)
    %6 = stablehlo.reduce(%5 init: %cst_1) applies stablehlo.add across dimensions = [2] : (tensor<1x256x1152xf32>, tensor<f32>) -> tensor<1x256xf32> loc(#loc)
    %7 = stablehlo.multiply %6, %cst_0 : tensor<1x256xf32> loc(#loc)
    %8 = stablehlo.reshape %7 : (tensor<1x256xf32>) -> tensor<1x256x1xf32> loc(#loc)
    %9 = stablehlo.add %8, %cst : tensor<1x256x1xf32> loc(#loc)
    %10 = stablehlo.rsqrt %9 : tensor<1x256x1xf32> loc(#loc)
    %11 = stablehlo.reshape %10 : (tensor<1x256x1xf32>) -> tensor<1x256xf32> loc(#loc)
    %12 = stablehlo.broadcast_in_dim %11, dims = [0, 1] : (tensor<1x256xf32>) -> tensor<1x256x1152xf32> loc(#loc)
    %13 = stablehlo.multiply %3, %12 : tensor<1x256x1152xf32> loc(#loc)
    %14 = stablehlo.broadcast_in_dim %arg1, dims = [2] : (tensor<1152xf32>) -> tensor<1x256x1152xf32> loc(#loc)
    %15 = stablehlo.multiply %13, %14 : tensor<1x256x1152xf32> loc(#loc)
    %16 = stablehlo.broadcast_in_dim %arg2, dims = [2] : (tensor<1152xf32>) -> tensor<1x256x1152xf32> loc(#loc)
    %17 = stablehlo.add %15, %16 : tensor<1x256x1152xf32> loc(#loc)
    return %17 : tensor<1x256x1152xf32> loc(#loc)
  } loc(#loc)
  func.func private @tenstorrent.layer_norm.impl_160(%arg0: tensor<1x256x1152xf32> loc(unknown), %arg1: tensor<1152xf32> loc(unknown), %arg2: tensor<1152xf32> loc(unknown)) -> tensor<1x256x1152xf32> {
    %cst = stablehlo.constant dense<9.99999997E-7> : tensor<1x256x1xf32> loc(#loc)
    %cst_0 = stablehlo.constant dense<8.68055562E-4> : tensor<1x256xf32> loc(#loc)
    %cst_1 = stablehlo.constant dense<0.000000e+00> : tensor<f32> loc(#loc)
    %0 = stablehlo.reduce(%arg0 init: %cst_1) applies stablehlo.add across dimensions = [2] : (tensor<1x256x1152xf32>, tensor<f32>) -> tensor<1x256xf32> loc(#loc)
    %1 = stablehlo.multiply %0, %cst_0 : tensor<1x256xf32> loc(#loc)
    %2 = stablehlo.broadcast_in_dim %1, dims = [0, 1] : (tensor<1x256xf32>) -> tensor<1x256x1152xf32> loc(#loc)
    %3 = stablehlo.subtract %arg0, %2 : tensor<1x256x1152xf32> loc(#loc)
    %4 = stablehlo.subtract %arg0, %2 {result_layout = dense<[1, 2, 0]> : tensor<3xindex>, xla_shape = "f32[1,256,1152]{1,2,0}"} : tensor<1x256x1152xf32> loc(#loc)
    %5 = stablehlo.multiply %4, %4 {result_layout = dense<[1, 2, 0]> : tensor<3xindex>, xla_shape = "f32[1,256,1152]{1,2,0}"} : tensor<1x256x1152xf32> loc(#loc)
    %6 = stablehlo.reduce(%5 init: %cst_1) applies stablehlo.add across dimensions = [2] : (tensor<1x256x1152xf32>, tensor<f32>) -> tensor<1x256xf32> loc(#loc)
    %7 = stablehlo.multiply %6, %cst_0 : tensor<1x256xf32> loc(#loc)
    %8 = stablehlo.reshape %7 : (tensor<1x256xf32>) -> tensor<1x256x1xf32> loc(#loc)
    %9 = stablehlo.add %8, %cst : tensor<1x256x1xf32> loc(#loc)
    %10 = stablehlo.rsqrt %9 : tensor<1x256x1xf32> loc(#loc)
    %11 = stablehlo.reshape %10 : (tensor<1x256x1xf32>) -> tensor<1x256xf32> loc(#loc)
    %12 = stablehlo.broadcast_in_dim %11, dims = [0, 1] : (tensor<1x256xf32>) -> tensor<1x256x1152xf32> loc(#loc)
    %13 = stablehlo.multiply %3, %12 : tensor<1x256x1152xf32> loc(#loc)
    %14 = stablehlo.broadcast_in_dim %arg1, dims = [2] : (tensor<1152xf32>) -> tensor<1x256x1152xf32> loc(#loc)
    %15 = stablehlo.multiply %13, %14 : tensor<1x256x1152xf32> loc(#loc)
    %16 = stablehlo.broadcast_in_dim %arg2, dims = [2] : (tensor<1152xf32>) -> tensor<1x256x1152xf32> loc(#loc)
    %17 = stablehlo.add %15, %16 : tensor<1x256x1152xf32> loc(#loc)
    return %17 : tensor<1x256x1152xf32> loc(#loc)
  } loc(#loc)
  func.func private @tenstorrent.gelu_tanh.impl_104(%arg0: tensor<1x256x4304xf32> loc(unknown)) -> tensor<1x256x4304xf32> {
    %cst = stablehlo.constant dense<3.000000e+00> : tensor<1x256x4304xf32> loc(#loc)
    %cst_0 = stablehlo.constant dense<4.471500e-02> : tensor<1x256x4304xf32> loc(#loc)
    %cst_1 = stablehlo.constant dense<0.797884583> : tensor<1x256x4304xf32> loc(#loc)
    %cst_2 = stablehlo.constant dense<1.000000e+00> : tensor<1x256x4304xf32> loc(#loc)
    %cst_3 = stablehlo.constant dense<5.000000e-01> : tensor<1x256x4304xf32> loc(#loc)
    %0 = stablehlo.multiply %arg0, %cst_3 : tensor<1x256x4304xf32> loc(#loc)
    %1 = stablehlo.power %arg0, %cst : tensor<1x256x4304xf32> loc(#loc)
    %2 = stablehlo.multiply %1, %cst_0 : tensor<1x256x4304xf32> loc(#loc)
    %3 = stablehlo.add %arg0, %2 : tensor<1x256x4304xf32> loc(#loc)
    %4 = stablehlo.multiply %3, %cst_1 : tensor<1x256x4304xf32> loc(#loc)
    %5 = stablehlo.tanh %4 : tensor<1x256x4304xf32> loc(#loc)
    %6 = stablehlo.add %5, %cst_2 : tensor<1x256x4304xf32> loc(#loc)
    %7 = stablehlo.multiply %0, %6 : tensor<1x256x4304xf32> loc(#loc)
    return %7 : tensor<1x256x4304xf32> loc(#loc)
  } loc(#loc)
  func.func private @tenstorrent.gelu_tanh.impl_105(%arg0: tensor<1x51x4096xf32> loc(unknown)) -> tensor<1x51x4096xf32> {
    %cst = stablehlo.constant dense<3.000000e+00> : tensor<1x51x4096xf32> loc(#loc)
    %cst_0 = stablehlo.constant dense<4.471500e-02> : tensor<1x51x4096xf32> loc(#loc)
    %cst_1 = stablehlo.constant dense<0.797884583> : tensor<1x51x4096xf32> loc(#loc)
    %cst_2 = stablehlo.constant dense<1.000000e+00> : tensor<1x51x4096xf32> loc(#loc)
    %cst_3 = stablehlo.constant dense<5.000000e-01> : tensor<1x51x4096xf32> loc(#loc)
    %0 = stablehlo.multiply %arg0, %cst_3 : tensor<1x51x4096xf32> loc(#loc)
    %1 = stablehlo.power %arg0, %cst : tensor<1x51x4096xf32> loc(#loc)
    %2 = stablehlo.multiply %1, %cst_0 : tensor<1x51x4096xf32> loc(#loc)
    %3 = stablehlo.add %arg0, %2 : tensor<1x51x4096xf32> loc(#loc)
    %4 = stablehlo.multiply %3, %cst_1 : tensor<1x51x4096xf32> loc(#loc)
    %5 = stablehlo.tanh %4 : tensor<1x51x4096xf32> loc(#loc)
    %6 = stablehlo.add %5, %cst_2 : tensor<1x51x4096xf32> loc(#loc)
    %7 = stablehlo.multiply %0, %6 : tensor<1x51x4096xf32> loc(#loc)
    return %7 : tensor<1x51x4096xf32> loc(#loc)
  } loc(#loc)
  func.func private @tenstorrent.gelu_tanh.impl_106(%arg0: tensor<1x816x16384xf32> loc(unknown)) -> tensor<1x816x16384xf32> {
    %cst = stablehlo.constant dense<3.000000e+00> : tensor<1x816x16384xf32> loc(#loc)
    %cst_0 = stablehlo.constant dense<4.471500e-02> : tensor<1x816x16384xf32> loc(#loc)
    %cst_1 = stablehlo.constant dense<0.797884583> : tensor<1x816x16384xf32> loc(#loc)
    %cst_2 = stablehlo.constant dense<1.000000e+00> : tensor<1x816x16384xf32> loc(#loc)
    %cst_3 = stablehlo.constant dense<5.000000e-01> : tensor<1x816x16384xf32> loc(#loc)
    %0 = stablehlo.multiply %arg0, %cst_3 : tensor<1x816x16384xf32> loc(#loc)
    %1 = stablehlo.power %arg0, %cst : tensor<1x816x16384xf32> loc(#loc)
    %2 = stablehlo.multiply %1, %cst_0 : tensor<1x816x16384xf32> loc(#loc)
    %3 = stablehlo.add %arg0, %2 : tensor<1x816x16384xf32> loc(#loc)
    %4 = stablehlo.multiply %3, %cst_1 : tensor<1x816x16384xf32> loc(#loc)
    %5 = stablehlo.tanh %4 : tensor<1x816x16384xf32> loc(#loc)
    %6 = stablehlo.add %5, %cst_2 : tensor<1x816x16384xf32> loc(#loc)
    %7 = stablehlo.multiply %0, %6 : tensor<1x816x16384xf32> loc(#loc)
    return %7 : tensor<1x816x16384xf32> loc(#loc)
  } loc(#loc)
  func.func private @tenstorrent.layer_norm.impl_161(%arg0: tensor<1x256x1152xf32> loc(unknown), %arg1: tensor<1152xf32> loc(unknown), %arg2: tensor<1152xf32> loc(unknown)) -> tensor<1x256x1152xf32> {
    %cst = stablehlo.constant dense<9.99999997E-7> : tensor<1x256x1xf32> loc(#loc)
    %cst_0 = stablehlo.constant dense<8.68055562E-4> : tensor<1x256xf32> loc(#loc)
    %cst_1 = stablehlo.constant dense<0.000000e+00> : tensor<f32> loc(#loc)
    %0 = stablehlo.reduce(%arg0 init: %cst_1) applies stablehlo.add across dimensions = [2] : (tensor<1x256x1152xf32>, tensor<f32>) -> tensor<1x256xf32> loc(#loc)
    %1 = stablehlo.multiply %0, %cst_0 : tensor<1x256xf32> loc(#loc)
    %2 = stablehlo.broadcast_in_dim %1, dims = [0, 1] : (tensor<1x256xf32>) -> tensor<1x256x1152xf32> loc(#loc)
    %3 = stablehlo.subtract %arg0, %2 : tensor<1x256x1152xf32> loc(#loc)
    %4 = stablehlo.subtract %arg0, %2 {result_layout = dense<[1, 2, 0]> : tensor<3xindex>, xla_shape = "f32[1,256,1152]{1,2,0}"} : tensor<1x256x1152xf32> loc(#loc)
    %5 = stablehlo.multiply %4, %4 {result_layout = dense<[1, 2, 0]> : tensor<3xindex>, xla_shape = "f32[1,256,1152]{1,2,0}"} : tensor<1x256x1152xf32> loc(#loc)
    %6 = stablehlo.reduce(%5 init: %cst_1) applies stablehlo.add across dimensions = [2] : (tensor<1x256x1152xf32>, tensor<f32>) -> tensor<1x256xf32> loc(#loc)
    %7 = stablehlo.multiply %6, %cst_0 : tensor<1x256xf32> loc(#loc)
    %8 = stablehlo.reshape %7 : (tensor<1x256xf32>) -> tensor<1x256x1xf32> loc(#loc)
    %9 = stablehlo.add %8, %cst : tensor<1x256x1xf32> loc(#loc)
    %10 = stablehlo.rsqrt %9 : tensor<1x256x1xf32> loc(#loc)
    %11 = stablehlo.reshape %10 : (tensor<1x256x1xf32>) -> tensor<1x256xf32> loc(#loc)
    %12 = stablehlo.broadcast_in_dim %11, dims = [0, 1] : (tensor<1x256xf32>) -> tensor<1x256x1152xf32> loc(#loc)
    %13 = stablehlo.multiply %3, %12 : tensor<1x256x1152xf32> loc(#loc)
    %14 = stablehlo.broadcast_in_dim %arg1, dims = [2] : (tensor<1152xf32>) -> tensor<1x256x1152xf32> loc(#loc)
    %15 = stablehlo.multiply %13, %14 : tensor<1x256x1152xf32> loc(#loc)
    %16 = stablehlo.broadcast_in_dim %arg2, dims = [2] : (tensor<1152xf32>) -> tensor<1x256x1152xf32> loc(#loc)
    %17 = stablehlo.add %15, %16 : tensor<1x256x1152xf32> loc(#loc)
    return %17 : tensor<1x256x1152xf32> loc(#loc)
  } loc(#loc)
  func.func private @tenstorrent.gelu_tanh.impl_107(%arg0: tensor<1x256x4304xf32> loc(unknown)) -> tensor<1x256x4304xf32> {
    %cst = stablehlo.constant dense<3.000000e+00> : tensor<1x256x4304xf32> loc(#loc)
    %cst_0 = stablehlo.constant dense<4.471500e-02> : tensor<1x256x4304xf32> loc(#loc)
    %cst_1 = stablehlo.constant dense<0.797884583> : tensor<1x256x4304xf32> loc(#loc)
    %cst_2 = stablehlo.constant dense<1.000000e+00> : tensor<1x256x4304xf32> loc(#loc)
    %cst_3 = stablehlo.constant dense<5.000000e-01> : tensor<1x256x4304xf32> loc(#loc)
    %0 = stablehlo.multiply %arg0, %cst_3 : tensor<1x256x4304xf32> loc(#loc)
    %1 = stablehlo.power %arg0, %cst : tensor<1x256x4304xf32> loc(#loc)
    %2 = stablehlo.multiply %1, %cst_0 : tensor<1x256x4304xf32> loc(#loc)
    %3 = stablehlo.add %arg0, %2 : tensor<1x256x4304xf32> loc(#loc)
    %4 = stablehlo.multiply %3, %cst_1 : tensor<1x256x4304xf32> loc(#loc)
    %5 = stablehlo.tanh %4 : tensor<1x256x4304xf32> loc(#loc)
    %6 = stablehlo.add %5, %cst_2 : tensor<1x256x4304xf32> loc(#loc)
    %7 = stablehlo.multiply %0, %6 : tensor<1x256x4304xf32> loc(#loc)
    return %7 : tensor<1x256x4304xf32> loc(#loc)
  } loc(#loc)
  func.func private @tenstorrent.layer_norm.impl_162(%arg0: tensor<1x256x1152xf32> loc(unknown), %arg1: tensor<1152xf32> loc(unknown), %arg2: tensor<1152xf32> loc(unknown)) -> tensor<1x256x1152xf32> {
    %cst = stablehlo.constant dense<9.99999997E-7> : tensor<1x256x1xf32> loc(#loc)
    %cst_0 = stablehlo.constant dense<8.68055562E-4> : tensor<1x256xf32> loc(#loc)
    %cst_1 = stablehlo.constant dense<0.000000e+00> : tensor<f32> loc(#loc)
    %0 = stablehlo.reduce(%arg0 init: %cst_1) applies stablehlo.add across dimensions = [2] : (tensor<1x256x1152xf32>, tensor<f32>) -> tensor<1x256xf32> loc(#loc)
    %1 = stablehlo.multiply %0, %cst_0 : tensor<1x256xf32> loc(#loc)
    %2 = stablehlo.broadcast_in_dim %1, dims = [0, 1] : (tensor<1x256xf32>) -> tensor<1x256x1152xf32> loc(#loc)
    %3 = stablehlo.subtract %arg0, %2 : tensor<1x256x1152xf32> loc(#loc)
    %4 = stablehlo.subtract %arg0, %2 {result_layout = dense<[1, 2, 0]> : tensor<3xindex>, xla_shape = "f32[1,256,1152]{1,2,0}"} : tensor<1x256x1152xf32> loc(#loc)
    %5 = stablehlo.multiply %4, %4 {result_layout = dense<[1, 2, 0]> : tensor<3xindex>, xla_shape = "f32[1,256,1152]{1,2,0}"} : tensor<1x256x1152xf32> loc(#loc)
    %6 = stablehlo.reduce(%5 init: %cst_1) applies stablehlo.add across dimensions = [2] : (tensor<1x256x1152xf32>, tensor<f32>) -> tensor<1x256xf32> loc(#loc)
    %7 = stablehlo.multiply %6, %cst_0 : tensor<1x256xf32> loc(#loc)
    %8 = stablehlo.reshape %7 : (tensor<1x256xf32>) -> tensor<1x256x1xf32> loc(#loc)
    %9 = stablehlo.add %8, %cst : tensor<1x256x1xf32> loc(#loc)
    %10 = stablehlo.rsqrt %9 : tensor<1x256x1xf32> loc(#loc)
    %11 = stablehlo.reshape %10 : (tensor<1x256x1xf32>) -> tensor<1x256xf32> loc(#loc)
    %12 = stablehlo.broadcast_in_dim %11, dims = [0, 1] : (tensor<1x256xf32>) -> tensor<1x256x1152xf32> loc(#loc)
    %13 = stablehlo.multiply %3, %12 : tensor<1x256x1152xf32> loc(#loc)
    %14 = stablehlo.broadcast_in_dim %arg1, dims = [2] : (tensor<1152xf32>) -> tensor<1x256x1152xf32> loc(#loc)
    %15 = stablehlo.multiply %13, %14 : tensor<1x256x1152xf32> loc(#loc)
    %16 = stablehlo.broadcast_in_dim %arg2, dims = [2] : (tensor<1152xf32>) -> tensor<1x256x1152xf32> loc(#loc)
    %17 = stablehlo.add %15, %16 : tensor<1x256x1152xf32> loc(#loc)
    return %17 : tensor<1x256x1152xf32> loc(#loc)
  } loc(#loc)
  func.func private @tenstorrent.gelu_tanh.impl_108(%arg0: tensor<1x256x4304xf32> loc(unknown)) -> tensor<1x256x4304xf32> {
    %cst = stablehlo.constant dense<3.000000e+00> : tensor<1x256x4304xf32> loc(#loc)
    %cst_0 = stablehlo.constant dense<4.471500e-02> : tensor<1x256x4304xf32> loc(#loc)
    %cst_1 = stablehlo.constant dense<0.797884583> : tensor<1x256x4304xf32> loc(#loc)
    %cst_2 = stablehlo.constant dense<1.000000e+00> : tensor<1x256x4304xf32> loc(#loc)
    %cst_3 = stablehlo.constant dense<5.000000e-01> : tensor<1x256x4304xf32> loc(#loc)
    %0 = stablehlo.multiply %arg0, %cst_3 : tensor<1x256x4304xf32> loc(#loc)
    %1 = stablehlo.power %arg0, %cst : tensor<1x256x4304xf32> loc(#loc)
    %2 = stablehlo.multiply %1, %cst_0 : tensor<1x256x4304xf32> loc(#loc)
    %3 = stablehlo.add %arg0, %2 : tensor<1x256x4304xf32> loc(#loc)
    %4 = stablehlo.multiply %3, %cst_1 : tensor<1x256x4304xf32> loc(#loc)
    %5 = stablehlo.tanh %4 : tensor<1x256x4304xf32> loc(#loc)
    %6 = stablehlo.add %5, %cst_2 : tensor<1x256x4304xf32> loc(#loc)
    %7 = stablehlo.multiply %0, %6 : tensor<1x256x4304xf32> loc(#loc)
    return %7 : tensor<1x256x4304xf32> loc(#loc)
  } loc(#loc)
  func.func private @tenstorrent.layer_norm.impl_163(%arg0: tensor<1x256x1152xf32> loc(unknown), %arg1: tensor<1152xf32> loc(unknown), %arg2: tensor<1152xf32> loc(unknown)) -> tensor<1x256x1152xf32> {
    %cst = stablehlo.constant dense<9.99999997E-7> : tensor<1x256x1xf32> loc(#loc)
    %cst_0 = stablehlo.constant dense<8.68055562E-4> : tensor<1x256xf32> loc(#loc)
    %cst_1 = stablehlo.constant dense<0.000000e+00> : tensor<f32> loc(#loc)
    %0 = stablehlo.reduce(%arg0 init: %cst_1) applies stablehlo.add across dimensions = [2] : (tensor<1x256x1152xf32>, tensor<f32>) -> tensor<1x256xf32> loc(#loc)
    %1 = stablehlo.multiply %0, %cst_0 : tensor<1x256xf32> loc(#loc)
    %2 = stablehlo.broadcast_in_dim %1, dims = [0, 1] : (tensor<1x256xf32>) -> tensor<1x256x1152xf32> loc(#loc)
    %3 = stablehlo.subtract %arg0, %2 : tensor<1x256x1152xf32> loc(#loc)
    %4 = stablehlo.subtract %arg0, %2 {result_layout = dense<[1, 2, 0]> : tensor<3xindex>, xla_shape = "f32[1,256,1152]{1,2,0}"} : tensor<1x256x1152xf32> loc(#loc)
    %5 = stablehlo.multiply %4, %4 {result_layout = dense<[1, 2, 0]> : tensor<3xindex>, xla_shape = "f32[1,256,1152]{1,2,0}"} : tensor<1x256x1152xf32> loc(#loc)
    %6 = stablehlo.reduce(%5 init: %cst_1) applies stablehlo.add across dimensions = [2] : (tensor<1x256x1152xf32>, tensor<f32>) -> tensor<1x256xf32> loc(#loc)
    %7 = stablehlo.multiply %6, %cst_0 : tensor<1x256xf32> loc(#loc)
    %8 = stablehlo.reshape %7 : (tensor<1x256xf32>) -> tensor<1x256x1xf32> loc(#loc)
    %9 = stablehlo.add %8, %cst : tensor<1x256x1xf32> loc(#loc)
    %10 = stablehlo.rsqrt %9 : tensor<1x256x1xf32> loc(#loc)
    %11 = stablehlo.reshape %10 : (tensor<1x256x1xf32>) -> tensor<1x256xf32> loc(#loc)
    %12 = stablehlo.broadcast_in_dim %11, dims = [0, 1] : (tensor<1x256xf32>) -> tensor<1x256x1152xf32> loc(#loc)
    %13 = stablehlo.multiply %3, %12 : tensor<1x256x1152xf32> loc(#loc)
    %14 = stablehlo.broadcast_in_dim %arg1, dims = [2] : (tensor<1152xf32>) -> tensor<1x256x1152xf32> loc(#loc)
    %15 = stablehlo.multiply %13, %14 : tensor<1x256x1152xf32> loc(#loc)
    %16 = stablehlo.broadcast_in_dim %arg2, dims = [2] : (tensor<1152xf32>) -> tensor<1x256x1152xf32> loc(#loc)
    %17 = stablehlo.add %15, %16 : tensor<1x256x1152xf32> loc(#loc)
    return %17 : tensor<1x256x1152xf32> loc(#loc)
  } loc(#loc)
  func.func private @tenstorrent.gelu_tanh.impl_109(%arg0: tensor<1x816x16384xf32> loc(unknown)) -> tensor<1x816x16384xf32> {
    %cst = stablehlo.constant dense<3.000000e+00> : tensor<1x816x16384xf32> loc(#loc)
    %cst_0 = stablehlo.constant dense<4.471500e-02> : tensor<1x816x16384xf32> loc(#loc)
    %cst_1 = stablehlo.constant dense<0.797884583> : tensor<1x816x16384xf32> loc(#loc)
    %cst_2 = stablehlo.constant dense<1.000000e+00> : tensor<1x816x16384xf32> loc(#loc)
    %cst_3 = stablehlo.constant dense<5.000000e-01> : tensor<1x816x16384xf32> loc(#loc)
    %0 = stablehlo.multiply %arg0, %cst_3 : tensor<1x816x16384xf32> loc(#loc)
    %1 = stablehlo.power %arg0, %cst : tensor<1x816x16384xf32> loc(#loc)
    %2 = stablehlo.multiply %1, %cst_0 : tensor<1x816x16384xf32> loc(#loc)
    %3 = stablehlo.add %arg0, %2 : tensor<1x816x16384xf32> loc(#loc)
    %4 = stablehlo.multiply %3, %cst_1 : tensor<1x816x16384xf32> loc(#loc)
    %5 = stablehlo.tanh %4 : tensor<1x816x16384xf32> loc(#loc)
    %6 = stablehlo.add %5, %cst_2 : tensor<1x816x16384xf32> loc(#loc)
    %7 = stablehlo.multiply %0, %6 : tensor<1x816x16384xf32> loc(#loc)
    return %7 : tensor<1x816x16384xf32> loc(#loc)
  } loc(#loc)
  func.func private @tenstorrent.gelu_tanh.impl_110(%arg0: tensor<1x816x16384xf32> loc(unknown)) -> tensor<1x816x16384xf32> {
    %cst = stablehlo.constant dense<3.000000e+00> : tensor<1x816x16384xf32> loc(#loc)
    %cst_0 = stablehlo.constant dense<4.471500e-02> : tensor<1x816x16384xf32> loc(#loc)
    %cst_1 = stablehlo.constant dense<0.797884583> : tensor<1x816x16384xf32> loc(#loc)
    %cst_2 = stablehlo.constant dense<1.000000e+00> : tensor<1x816x16384xf32> loc(#loc)
    %cst_3 = stablehlo.constant dense<5.000000e-01> : tensor<1x816x16384xf32> loc(#loc)
    %0 = stablehlo.multiply %arg0, %cst_3 : tensor<1x816x16384xf32> loc(#loc)
    %1 = stablehlo.power %arg0, %cst : tensor<1x816x16384xf32> loc(#loc)
    %2 = stablehlo.multiply %1, %cst_0 : tensor<1x816x16384xf32> loc(#loc)
    %3 = stablehlo.add %arg0, %2 : tensor<1x816x16384xf32> loc(#loc)
    %4 = stablehlo.multiply %3, %cst_1 : tensor<1x816x16384xf32> loc(#loc)
    %5 = stablehlo.tanh %4 : tensor<1x816x16384xf32> loc(#loc)
    %6 = stablehlo.add %5, %cst_2 : tensor<1x816x16384xf32> loc(#loc)
    %7 = stablehlo.multiply %0, %6 : tensor<1x816x16384xf32> loc(#loc)
    return %7 : tensor<1x816x16384xf32> loc(#loc)
  } loc(#loc)
  func.func private @tenstorrent.gelu_tanh.impl_111(%arg0: tensor<1x51x4096xf32> loc(unknown)) -> tensor<1x51x4096xf32> {
    %cst = stablehlo.constant dense<3.000000e+00> : tensor<1x51x4096xf32> loc(#loc)
    %cst_0 = stablehlo.constant dense<4.471500e-02> : tensor<1x51x4096xf32> loc(#loc)
    %cst_1 = stablehlo.constant dense<0.797884583> : tensor<1x51x4096xf32> loc(#loc)
    %cst_2 = stablehlo.constant dense<1.000000e+00> : tensor<1x51x4096xf32> loc(#loc)
    %cst_3 = stablehlo.constant dense<5.000000e-01> : tensor<1x51x4096xf32> loc(#loc)
    %0 = stablehlo.multiply %arg0, %cst_3 : tensor<1x51x4096xf32> loc(#loc)
    %1 = stablehlo.power %arg0, %cst : tensor<1x51x4096xf32> loc(#loc)
    %2 = stablehlo.multiply %1, %cst_0 : tensor<1x51x4096xf32> loc(#loc)
    %3 = stablehlo.add %arg0, %2 : tensor<1x51x4096xf32> loc(#loc)
    %4 = stablehlo.multiply %3, %cst_1 : tensor<1x51x4096xf32> loc(#loc)
    %5 = stablehlo.tanh %4 : tensor<1x51x4096xf32> loc(#loc)
    %6 = stablehlo.add %5, %cst_2 : tensor<1x51x4096xf32> loc(#loc)
    %7 = stablehlo.multiply %0, %6 : tensor<1x51x4096xf32> loc(#loc)
    return %7 : tensor<1x51x4096xf32> loc(#loc)
  } loc(#loc)
  func.func private @tenstorrent.gelu_tanh.impl_112(%arg0: tensor<1x51x4096xf32> loc(unknown)) -> tensor<1x51x4096xf32> {
    %cst = stablehlo.constant dense<3.000000e+00> : tensor<1x51x4096xf32> loc(#loc)
    %cst_0 = stablehlo.constant dense<4.471500e-02> : tensor<1x51x4096xf32> loc(#loc)
    %cst_1 = stablehlo.constant dense<0.797884583> : tensor<1x51x4096xf32> loc(#loc)
    %cst_2 = stablehlo.constant dense<1.000000e+00> : tensor<1x51x4096xf32> loc(#loc)
    %cst_3 = stablehlo.constant dense<5.000000e-01> : tensor<1x51x4096xf32> loc(#loc)
    %0 = stablehlo.multiply %arg0, %cst_3 : tensor<1x51x4096xf32> loc(#loc)
    %1 = stablehlo.power %arg0, %cst : tensor<1x51x4096xf32> loc(#loc)
    %2 = stablehlo.multiply %1, %cst_0 : tensor<1x51x4096xf32> loc(#loc)
    %3 = stablehlo.add %arg0, %2 : tensor<1x51x4096xf32> loc(#loc)
    %4 = stablehlo.multiply %3, %cst_1 : tensor<1x51x4096xf32> loc(#loc)
    %5 = stablehlo.tanh %4 : tensor<1x51x4096xf32> loc(#loc)
    %6 = stablehlo.add %5, %cst_2 : tensor<1x51x4096xf32> loc(#loc)
    %7 = stablehlo.multiply %0, %6 : tensor<1x51x4096xf32> loc(#loc)
    return %7 : tensor<1x51x4096xf32> loc(#loc)
  } loc(#loc)
  func.func private @tenstorrent.gelu_tanh.impl_113(%arg0: tensor<1x256x4304xf32> loc(unknown)) -> tensor<1x256x4304xf32> {
    %cst = stablehlo.constant dense<3.000000e+00> : tensor<1x256x4304xf32> loc(#loc)
    %cst_0 = stablehlo.constant dense<4.471500e-02> : tensor<1x256x4304xf32> loc(#loc)
    %cst_1 = stablehlo.constant dense<0.797884583> : tensor<1x256x4304xf32> loc(#loc)
    %cst_2 = stablehlo.constant dense<1.000000e+00> : tensor<1x256x4304xf32> loc(#loc)
    %cst_3 = stablehlo.constant dense<5.000000e-01> : tensor<1x256x4304xf32> loc(#loc)
    %0 = stablehlo.multiply %arg0, %cst_3 : tensor<1x256x4304xf32> loc(#loc)
    %1 = stablehlo.power %arg0, %cst : tensor<1x256x4304xf32> loc(#loc)
    %2 = stablehlo.multiply %1, %cst_0 : tensor<1x256x4304xf32> loc(#loc)
    %3 = stablehlo.add %arg0, %2 : tensor<1x256x4304xf32> loc(#loc)
    %4 = stablehlo.multiply %3, %cst_1 : tensor<1x256x4304xf32> loc(#loc)
    %5 = stablehlo.tanh %4 : tensor<1x256x4304xf32> loc(#loc)
    %6 = stablehlo.add %5, %cst_2 : tensor<1x256x4304xf32> loc(#loc)
    %7 = stablehlo.multiply %0, %6 : tensor<1x256x4304xf32> loc(#loc)
    return %7 : tensor<1x256x4304xf32> loc(#loc)
  } loc(#loc)
  func.func private @tenstorrent.gelu_tanh.impl_114(%arg0: tensor<1x51x4096xf32> loc(unknown)) -> tensor<1x51x4096xf32> {
    %cst = stablehlo.constant dense<3.000000e+00> : tensor<1x51x4096xf32> loc(#loc)
    %cst_0 = stablehlo.constant dense<4.471500e-02> : tensor<1x51x4096xf32> loc(#loc)
    %cst_1 = stablehlo.constant dense<0.797884583> : tensor<1x51x4096xf32> loc(#loc)
    %cst_2 = stablehlo.constant dense<1.000000e+00> : tensor<1x51x4096xf32> loc(#loc)
    %cst_3 = stablehlo.constant dense<5.000000e-01> : tensor<1x51x4096xf32> loc(#loc)
    %0 = stablehlo.multiply %arg0, %cst_3 : tensor<1x51x4096xf32> loc(#loc)
    %1 = stablehlo.power %arg0, %cst : tensor<1x51x4096xf32> loc(#loc)
    %2 = stablehlo.multiply %1, %cst_0 : tensor<1x51x4096xf32> loc(#loc)
    %3 = stablehlo.add %arg0, %2 : tensor<1x51x4096xf32> loc(#loc)
    %4 = stablehlo.multiply %3, %cst_1 : tensor<1x51x4096xf32> loc(#loc)
    %5 = stablehlo.tanh %4 : tensor<1x51x4096xf32> loc(#loc)
    %6 = stablehlo.add %5, %cst_2 : tensor<1x51x4096xf32> loc(#loc)
    %7 = stablehlo.multiply %0, %6 : tensor<1x51x4096xf32> loc(#loc)
    return %7 : tensor<1x51x4096xf32> loc(#loc)
  } loc(#loc)
} loc(#loc)
