#loc1 = loc("p0.72")
#loc2 = loc("p1.79")
#loc3 = loc("p2.84")
#loc4 = loc("p3.109")
#loc5 = loc("p4.117")
#loc6 = loc("p5.121")
#loc7 = loc("p6.128")
#loc8 = loc("p7.139")
#loc9 = loc("p8.144")
#loc10 = loc("p9.151")
#loc11 = loc("p10.162")
#loc12 = loc("p11.167")
#loc13 = loc("p12.174")
#loc14 = loc("p13.185")
#loc15 = loc("p14.190")
#loc16 = loc("p15.197")
#loc17 = loc("p16.208")
#loc18 = loc("p17.213")
#loc19 = loc("p18.220")
#loc20 = loc("p19.231")
#loc21 = loc("p20.236")
#loc22 = loc("p21.243")
#loc23 = loc("p22.254")
#loc24 = loc("p23.259")
#loc25 = loc("p24.266")
#loc26 = loc("p25.277")
#loc27 = loc("p26.282")
#loc28 = loc("p27.289")
#loc29 = loc("p28.300")
#loc30 = loc("p29.305")
#loc31 = loc("p30.312")
#loc32 = loc("p31.323")
#loc33 = loc("p32.328")
#loc34 = loc("p33.335")
#loc35 = loc("p34.346")
#loc36 = loc("p35.351")
#loc37 = loc("p36.358")
#loc38 = loc("p37.369")
#loc39 = loc("p38.374")
#loc40 = loc("p39.381")
#loc41 = loc("p40.392")
#loc42 = loc("p41.397")
#loc43 = loc("p42.404")
#loc44 = loc("p43.415")
#loc45 = loc("p44.420")
#loc46 = loc("p45.427")
#loc47 = loc("p46.438")
#loc48 = loc("p47.443")
#loc49 = loc("p48.450")
#loc50 = loc("p49.461")
#loc51 = loc("p50.466")
#loc52 = loc("p51.473")
#loc53 = loc("p52.484")
#loc54 = loc("p53.489")
#loc55 = loc("p54.496")
#loc56 = loc("p55.507")
#loc57 = loc("p56.512")
#loc58 = loc("p57.519")
#loc59 = loc("p58.530")
#loc60 = loc("p59.535")
#loc61 = loc("p60.542")
#loc62 = loc("p61.553")
#loc63 = loc("p62.558")
#loc64 = loc("p63.565")
#loc65 = loc("p64.576")
#loc66 = loc("p65.581")
#loc67 = loc("p66.588")
#loc68 = loc("p67.599")
#loc69 = loc("p68.604")
#loc70 = loc("p69.611")
#loc71 = loc("p70.622")
#loc72 = loc("p71.627")
#loc73 = loc("p72.634")
#loc74 = loc("p73.645")
#loc75 = loc("p74.650")
#loc76 = loc("p75.657")
#loc77 = loc("p76.668")
#loc78 = loc("p77.673")
#loc79 = loc("p78.680")
#loc80 = loc("p79.691")
#loc81 = loc("p80.696")
#loc82 = loc("p81.703")
#loc83 = loc("p82.714")
#loc84 = loc("p83.719")
#loc85 = loc("p84.726")
#loc86 = loc("p85.737")
#loc87 = loc("p86.742")
#loc88 = loc("p87.749")
#loc89 = loc("p88.760")
#loc90 = loc("p89.765")
#loc91 = loc("p90.772")
#loc92 = loc("p91.783")
#loc93 = loc("p92.788")
#loc94 = loc("p93.795")
#loc95 = loc("p94.806")
#loc96 = loc("p95.811")
#loc97 = loc("p96.818")
#loc98 = loc("p97.829")
#loc99 = loc("p98.834")
#loc100 = loc("p99.841")
#loc101 = loc("p100.852")
#loc102 = loc("p101.857")
#loc103 = loc("p102.864")
#loc104 = loc("p103.875")
#loc105 = loc("p104.880")
#loc106 = loc("p105.887")
#loc107 = loc("p106.898")
#loc108 = loc("p107.903")
#loc109 = loc("p108.910")
#loc110 = loc("p109.921")
#loc111 = loc("p110.926")
#loc112 = loc("p111.933")
#loc113 = loc("p112.944")
#loc114 = loc("p113.949")
#loc115 = loc("p114.956")
#loc116 = loc("p115.967")
#loc117 = loc("p116.971")
#loc118 = loc("p117.977")
#loc119 = loc("p118.981")
#loc120 = loc("p119.1053")
#loc121 = loc("p120.1058")
#loc122 = loc("p121.1133")
#loc123 = loc("p122.1140")
#loc124 = loc("p123.1151")
#loc125 = loc("p124.1156")
#loc126 = loc("p125.1166")
#loc127 = loc("p126.1170")
#loc128 = loc("p127.1176")
#loc129 = loc("p128.1181")
#loc130 = loc("p129.1190")
#loc131 = loc("p130.1194")
#loc132 = loc("p131.1202")
#loc133 = loc("p132.1206")
#loc134 = loc("p133.1212")
#loc135 = loc("p134.1217")
#loc136 = loc("p135.1226")
#loc137 = loc("p136.1230")
#loc138 = loc("p137.1236")
#loc139 = loc("p138.1240")
#loc140 = loc("p139.1246")
#loc141 = loc("p140.1251")
#loc142 = loc("p141.1260")
#loc143 = loc("p142.1264")
#loc144 = loc("p143.1272")
#loc145 = loc("p144.1276")
#loc146 = loc("p145.1282")
#loc147 = loc("p146.1287")
#loc148 = loc("p147.1296")
#loc149 = loc("p148.1300")
#loc150 = loc("p149.1306")
#loc151 = loc("p150.1310")
#loc152 = loc("p151.1316")
#loc153 = loc("p152.1321")
#loc154 = loc("p153.1330")
#loc155 = loc("p154.1334")
#loc156 = loc("p155.1342")
#loc157 = loc("p156.1346")
#loc158 = loc("p157.1352")
#loc159 = loc("p158.1357")
#loc160 = loc("p159.1366")
#loc161 = loc("p160.1370")
#loc162 = loc("p161.1376")
#loc163 = loc("p162.1380")
#loc164 = loc("p163.1386")
#loc165 = loc("p164.1391")
#loc166 = loc("p165.1400")
#loc167 = loc("p166.1404")
#loc168 = loc("p167.1412")
#loc169 = loc("p168.1416")
#loc170 = loc("p169.1422")
#loc171 = loc("p170.1427")
#loc172 = loc("p171.1436")
#loc173 = loc("p172.1440")
#loc174 = loc("p173.1446")
#loc175 = loc("p174.1450")
#loc176 = loc("p175.1456")
#loc177 = loc("p176.1461")
#loc178 = loc("p177.1470")
#loc179 = loc("p178.1474")
#loc180 = loc("p179.1482")
#loc181 = loc("p180.1486")
#loc182 = loc("p181.1492")
#loc183 = loc("p182.1497")
#loc184 = loc("p183.1506")
#loc185 = loc("p184.1510")
#loc186 = loc("p185.1516")
#loc187 = loc("p186.1520")
#loc188 = loc("p187.1526")
#loc189 = loc("p188.1531")
#loc190 = loc("p189.1540")
#loc191 = loc("p190.1544")
#loc192 = loc("p191.1552")
#loc193 = loc("p192.1556")
#loc194 = loc("p193.1562")
#loc195 = loc("p194.1567")
#loc196 = loc("p195.1576")
#loc197 = loc("p196.1580")
#loc198 = loc("p197.1586")
#loc199 = loc("p198.1590")
#loc200 = loc("p199.1596")
#loc201 = loc("p200.1601")
#loc202 = loc("p201.1610")
#loc203 = loc("p202.1614")
#loc204 = loc("p203.1622")
#loc205 = loc("p204.1626")
#loc206 = loc("p205.1632")
#loc207 = loc("p206.1637")
#loc208 = loc("p207.1646")
#loc209 = loc("p208.1650")
#loc210 = loc("p209.1656")
#loc211 = loc("p210.1660")
#loc212 = loc("p211.1666")
#loc213 = loc("p212.1671")
#loc214 = loc("p213.1680")
#loc215 = loc("p214.1684")
#loc216 = loc("p215.1692")
#loc217 = loc("p216.1696")
#loc218 = loc("p217.1702")
#loc219 = loc("p218.1707")
#loc220 = loc("p219.1716")
#loc221 = loc("p220.1720")
#loc222 = loc("p221.1726")
#loc223 = loc("p222.1730")
#loc224 = loc("p223.1736")
#loc225 = loc("p224.1741")
#loc226 = loc("p225.1750")
#loc227 = loc("p226.1754")
#loc228 = loc("p227.1762")
#loc229 = loc("p228.1766")
#loc230 = loc("p229.1772")
#loc231 = loc("p230.1777")
#loc232 = loc("p231.1786")
#loc233 = loc("p232.1790")
#loc234 = loc("p233.1796")
#loc235 = loc("p234.1800")
#loc236 = loc("p235.1806")
#loc237 = loc("p236.1811")
#loc238 = loc("p237.1820")
#loc239 = loc("p238.1824")
#loc240 = loc("p239.1832")
#loc241 = loc("p240.1836")
#loc242 = loc("p241.1842")
#loc243 = loc("p242.1847")
#loc244 = loc("p243.1856")
#loc245 = loc("p244.1860")
#loc246 = loc("p245.1866")
#loc247 = loc("p246.1870")
#loc248 = loc("p247.1876")
#loc249 = loc("p248.1881")
#loc250 = loc("p249.1890")
#loc251 = loc("p250.1894")
#loc252 = loc("p251.1902")
#loc253 = loc("p252.1906")
#loc254 = loc("p253.1912")
#loc255 = loc("p254.1917")
#loc256 = loc("p255.1926")
#loc257 = loc("p256.1930")
#loc258 = loc("p257.1936")
#loc259 = loc("p258.1940")
#loc260 = loc("p259.1946")
#loc261 = loc("p260.1951")
#loc262 = loc("p261.1960")
#loc263 = loc("p262.1964")
#loc264 = loc("p263.1972")
#loc265 = loc("p264.1976")
#loc266 = loc("p265.1982")
#loc267 = loc("p266.1987")
#loc268 = loc("p267.1996")
#loc269 = loc("p268.2000")
#loc270 = loc("p269.2006")
#loc271 = loc("p270.2010")
#loc272 = loc("p271.2016")
#loc273 = loc("p272.2021")
#loc274 = loc("p273.2030")
#loc275 = loc("p274.2034")
#loc276 = loc("p275.2042")
#loc277 = loc("p276.2046")
#loc278 = loc("p277.2052")
#loc279 = loc("p278.2057")
#loc280 = loc("p279.2066")
#loc281 = loc("p280.2070")
#loc282 = loc("p281.2076")
#loc283 = loc("p282.2080")
#loc284 = loc("p283.2086")
#loc285 = loc("p284.2091")
#loc286 = loc("p285.2100")
#loc287 = loc("p286.2104")
#loc288 = loc("p287.2112")
#loc289 = loc("p288.2116")
#loc290 = loc("p289.2122")
#loc291 = loc("p290.2127")
#loc292 = loc("p291.2136")
#loc293 = loc("p292.2140")
#loc294 = loc("p293.2146")
#loc295 = loc("p294.2150")
#loc296 = loc("p295.2156")
#loc297 = loc("p296.2161")
#loc298 = loc("p297.2170")
#loc299 = loc("p298.2174")
#loc300 = loc("p299.2182")
#loc301 = loc("p300.2186")
#loc302 = loc("p301.2192")
#loc303 = loc("p302.2197")
#loc304 = loc("p303.2206")
#loc305 = loc("p304.2210")
#loc306 = loc("p305.2216")
#loc307 = loc("p306.2220")
#loc308 = loc("p307.2226")
#loc309 = loc("p308.2231")
#loc310 = loc("p309.2240")
#loc311 = loc("p310.2244")
#loc312 = loc("p311.2252")
#loc313 = loc("p312.2256")
#loc314 = loc("p313.2262")
#loc315 = loc("p314.2267")
#loc316 = loc("p315.2276")
#loc317 = loc("p316.2280")
#loc318 = loc("p317.2286")
#loc319 = loc("p318.2290")
#loc320 = loc("p319.2296")
#loc321 = loc("p320.2301")
#loc322 = loc("p321.2310")
#loc323 = loc("p322.2314")
#loc324 = loc("p323.2322")
#loc325 = loc("p324.2326")
#loc326 = loc("p325.2332")
#loc327 = loc("p326.2337")
#loc328 = loc("p327.2346")
#loc329 = loc("p328.2350")
#loc330 = loc("p329.2356")
#loc331 = loc("p330.2360")
#loc332 = loc("p331.2366")
#loc333 = loc("p332.2371")
#loc334 = loc("p333.2380")
#loc335 = loc("p334.2384")
#loc336 = loc("p335.2392")
#loc337 = loc("p336.2396")
#loc338 = loc("p337.2402")
#loc339 = loc("p338.2407")
#loc340 = loc("p339.2416")
#loc341 = loc("p340.2420")
#loc342 = loc("p341.2426")
#loc343 = loc("p342.2430")
#loc344 = loc("p343.2436")
#loc345 = loc("p344.2441")
#loc346 = loc("p345.2450")
#loc347 = loc("p346.2454")
#loc348 = loc("p347.2462")
#loc349 = loc("p348.2466")
#loc350 = loc("p349.2472")
#loc351 = loc("p350.2477")
#loc352 = loc("p351.2486")
#loc353 = loc("p352.2490")
#loc354 = loc("p353.2496")
#loc355 = loc("p354.2500")
#loc356 = loc("p355.2506")
#loc357 = loc("p356.2511")
#loc358 = loc("p357.2520")
#loc359 = loc("p358.2524")
#loc360 = loc("p359.2532")
#loc361 = loc("p360.2536")
#loc362 = loc("p361.2542")
#loc363 = loc("p362.2547")
#loc364 = loc("p363.2556")
#loc365 = loc("p364.2560")
#loc366 = loc("p365.2566")
#loc367 = loc("p366.2570")
#loc368 = loc("p367.2576")
#loc369 = loc("p368.2581")
#loc370 = loc("p369.2590")
#loc371 = loc("p370.2594")
#loc372 = loc("p371.2602")
#loc373 = loc("p372.2606")
#loc374 = loc("p373.2612")
#loc375 = loc("p374.2617")
#loc376 = loc("p375.2626")
#loc377 = loc("p376.2630")
#loc378 = loc("p377.2636")
#loc379 = loc("p378.2640")
#loc380 = loc("p379.2646")
#loc381 = loc("p380.2651")
#loc382 = loc("p381.2660")
#loc383 = loc("p382.2664")
#loc384 = loc("p383.2672")
#loc385 = loc("p384.2676")
#loc386 = loc("p385.2682")
#loc387 = loc("p386.2687")
#loc388 = loc("p387.2696")
#loc389 = loc("p388.2700")
#loc390 = loc("p389.2706")
#loc391 = loc("p390.2710")
#loc392 = loc("p391.2716")
#loc393 = loc("p392.2721")
#loc394 = loc("p393.2730")
#loc395 = loc("p394.2734")
#loc396 = loc("p395.2742")
#loc397 = loc("p396.2746")
#loc398 = loc("p397.2752")
#loc399 = loc("p398.2757")
#loc400 = loc("p399.2766")
#loc401 = loc("p400.2770")
#loc402 = loc("p401.2776")
#loc403 = loc("p402.2780")
#loc404 = loc("p403.2786")
#loc405 = loc("p404.2791")
#loc406 = loc("p405.2800")
#loc407 = loc("p406.2804")
#loc408 = loc("p407.2812")
#loc409 = loc("p408.2816")
#loc410 = loc("p409.2822")
#loc411 = loc("p410.2827")
#loc412 = loc("p411.2836")
#loc413 = loc("p412.2840")
#loc414 = loc("p413.2846")
#loc415 = loc("p414.2850")
#loc416 = loc("p415.2856")
#loc417 = loc("p416.2861")
#loc418 = loc("p417.2870")
#loc419 = loc("p418.2874")
#loc420 = loc("p419.2882")
#loc421 = loc("p420.2886")
#loc422 = loc("p421.2892")
#loc423 = loc("p422.2897")
#loc424 = loc("p423.2906")
#loc425 = loc("p424.2910")
#loc426 = loc("p425.2916")
#loc427 = loc("p426.2920")
#loc428 = loc("p427.2926")
#loc429 = loc("p428.2931")
#loc430 = loc("p429.2940")
#loc431 = loc("p430.2944")
#loc432 = loc("p431.2952")
#loc433 = loc("p432.2956")
#loc434 = loc("p433.2962")
#loc435 = loc("p434.2967")
#loc436 = loc("p435.2976")
#loc437 = loc("p436.2980")
#loc438 = loc("p437.2986")
#loc439 = loc("p438.2990")
#loc440 = loc("p439.2996")
#loc441 = loc("p440.3001")
#loc442 = loc("p441.3010")
#loc443 = loc("p442.3014")
#loc444 = loc("p443.3022")
#loc445 = loc("p444.3026")
#loc446 = loc("p445.3032")
#loc447 = loc("p446.3037")
#loc448 = loc("p447.3046")
#loc449 = loc("p448.3050")
#loc450 = loc("p449.3056")
#loc451 = loc("p450.3060")
#loc452 = loc("p451.3066")
#loc453 = loc("p452.3071")
#loc454 = loc("p453.3079")
#loc455 = loc("p454.3084")
#loc456 = loc("p455.3091")
#loc457 = loc("p456.3095")
#loc458 = loc("p457.3097")
#loc459 = loc("p458.3196")
#loc460 = loc("p459.3200")
#loc461 = loc("p460.3216")
#loc462 = loc("p461.3220")
#loc463 = loc("p462.3469")
#loc464 = loc("p463.3473")
#loc465 = loc("p464.3489")
#loc466 = loc("p465.3493")
#loc467 = loc("p466.3742")
#loc468 = loc("p467.3746")
#loc469 = loc("p468.3762")
#loc470 = loc("p469.3766")
#loc471 = loc("p470.4015")
#loc472 = loc("p471.4019")
#loc473 = loc("p472.4035")
#loc474 = loc("p473.4039")
#loc475 = loc("p474.4288")
#loc476 = loc("p475.4292")
#loc477 = loc("p476.4308")
#loc478 = loc("p477.4312")
#loc479 = loc("p478.4561")
#loc480 = loc("p479.4565")
#loc481 = loc("p480.4581")
#loc482 = loc("p481.4585")
#loc483 = loc("p482.4834")
#loc484 = loc("p483.4838")
#loc485 = loc("p484.4854")
#loc486 = loc("p485.4858")
#loc487 = loc("p486.5107")
#loc488 = loc("p487.5111")
#loc489 = loc("p488.5127")
#loc490 = loc("p489.5131")
#loc491 = loc("p490.5380")
#loc492 = loc("p491.5384")
#loc493 = loc("p492.5400")
#loc494 = loc("p493.5404")
#loc495 = loc("p494.5653")
#loc496 = loc("p495.5657")
#loc497 = loc("p496.5673")
#loc498 = loc("p497.5677")
#loc499 = loc("p498.5926")
#loc500 = loc("p499.5930")
#loc501 = loc("p500.5946")
#loc502 = loc("p501.5950")
#loc503 = loc("p502.6199")
#loc504 = loc("p503.6203")
#loc505 = loc("p504.6219")
#loc506 = loc("p505.6223")
#loc507 = loc("p506.6472")
#loc508 = loc("p507.6476")
#loc509 = loc("p508.6492")
#loc510 = loc("p509.6496")
#loc511 = loc("p510.6745")
#loc512 = loc("p511.6749")
#loc513 = loc("p512.6765")
#loc514 = loc("p513.6769")
#loc515 = loc("p514.7018")
#loc516 = loc("p515.7022")
#loc517 = loc("p516.7038")
#loc518 = loc("p517.7042")
#loc519 = loc("p518.7291")
#loc520 = loc("p519.7295")
#loc521 = loc("p520.7311")
#loc522 = loc("p521.7315")
#loc523 = loc("p522.7564")
#loc524 = loc("p523.7568")
#loc525 = loc("p524.7584")
#loc526 = loc("p525.7588")
#loc527 = loc("p526.7837")
#loc528 = loc("p527.7841")
#loc529 = loc("p528.7857")
#loc530 = loc("p529.7861")
#loc531 = loc("p530.8110")
#loc532 = loc("p531.8114")
#loc533 = loc("p532.8130")
#loc534 = loc("p533.8134")
#loc535 = loc("p534.8383")
#loc536 = loc("p535.8387")
#loc537 = loc("p536.8403")
#loc538 = loc("p537.8407")
#loc539 = loc("p538.8656")
#loc540 = loc("p539.8660")
#loc541 = loc("p540.8676")
#loc542 = loc("p541.8680")
#loc543 = loc("p542.8929")
#loc544 = loc("p543.8933")
#loc545 = loc("p544.8949")
#loc546 = loc("p545.8953")
#loc547 = loc("p546.9202")
#loc548 = loc("p547.9206")
#loc549 = loc("p548.9222")
#loc550 = loc("p549.9226")
#loc551 = loc("p550.9475")
#loc552 = loc("p551.9479")
#loc553 = loc("p552.9495")
#loc554 = loc("p553.9499")
#loc555 = loc("p554.9748")
#loc556 = loc("p555.9752")
#loc557 = loc("p556.9768")
#loc558 = loc("p557.9772")
#loc559 = loc("p558.10021")
#loc560 = loc("p559.10025")
#loc561 = loc("p560.10041")
#loc562 = loc("p561.10045")
#loc563 = loc("p562.10294")
#loc564 = loc("p563.10298")
#loc565 = loc("p564.10314")
#loc566 = loc("p565.10318")
#loc567 = loc("p566.11169")
#loc568 = loc("p567.18809")
#loc569 = loc("p568.25897")
#loc570 = loc("p569.25912")
#loc571 = loc("p570.25931")
#loc572 = loc("p571.25935")
#loc573 = loc("p572.25943")
#loc574 = loc("p573.25951")
#loc575 = loc("p574.26001")
#loc576 = loc("p575.26016")
#loc577 = loc("p576.26057")
#loc578 = loc("p577.26072")
#loc579 = loc("p578.26104")
#loc580 = loc("p579.26197")
#loc581 = loc("p580.26264")
#loc582 = loc("p581.26271")
#loc583 = loc("p582.26282")
#loc584 = loc("p583.26287")
#loc585 = loc("p584.26294")
#loc586 = loc("p585.26305")
#loc587 = loc("p586.26335")
#loc588 = loc("p587.26366")
#loc589 = loc("p588.26459")
#loc590 = loc("p589.26536")
#loc591 = loc("p590.26558")
#loc592 = loc("p591.26586")
#loc593 = loc("p592.26679")
#loc594 = loc("p593.26746")
#loc595 = loc("p594.26753")
#loc596 = loc("p595.26764")
#loc597 = loc("p596.26769")
#loc598 = loc("p597.26776")
#loc599 = loc("p598.26787")
#loc600 = loc("p599.26806")
#loc601 = loc("p600.26899")
#loc602 = loc("p601.26976")
#loc603 = loc("p602.26998")
#loc604 = loc("p603.27026")
#loc605 = loc("p604.27119")
#loc606 = loc("p605.27186")
#loc607 = loc("p606.27193")
#loc608 = loc("p607.27204")
#loc609 = loc("p608.27209")
#loc610 = loc("p609.27216")
#loc611 = loc("p610.27227")
#loc612 = loc("p611.27246")
#loc613 = loc("p612.27339")
#loc614 = loc("p613.27416")
#loc615 = loc("p614.27438")
#loc616 = loc("p615.27466")
#loc617 = loc("p616.27559")
#loc618 = loc("p617.27626")
#loc619 = loc("p618.27633")
#loc620 = loc("p619.27644")
#loc621 = loc("p620.27649")
#loc622 = loc("p621.27656")
#loc623 = loc("p622.27667")
#loc624 = loc("p623.27686")
#loc625 = loc("p624.27779")
#loc626 = loc("p625.27856")
#loc627 = loc("p626.27878")
#loc628 = loc("p627.27906")
#loc629 = loc("p628.27999")
#loc630 = loc("p629.28066")
#loc631 = loc("p630.28073")
#loc632 = loc("p631.28084")
#loc633 = loc("p632.28089")
#loc634 = loc("p633.28096")
#loc635 = loc("p634.28107")
#loc636 = loc("p635.28126")
#loc637 = loc("p636.28219")
#loc638 = loc("p637.28296")
#loc639 = loc("p638.28318")
#loc640 = loc("p639.28346")
#loc641 = loc("p640.28439")
#loc642 = loc("p641.28506")
#loc643 = loc("p642.28513")
#loc644 = loc("p643.28524")
#loc645 = loc("p644.28529")
#loc646 = loc("p645.28536")
#loc647 = loc("p646.28547")
#loc648 = loc("p647.28566")
#loc649 = loc("p648.28659")
#loc650 = loc("p649.28736")
#loc651 = loc("p650.28758")
#loc652 = loc("p651.28786")
#loc653 = loc("p652.28879")
#loc654 = loc("p653.28946")
#loc655 = loc("p654.28953")
#loc656 = loc("p655.28964")
#loc657 = loc("p656.28969")
#loc658 = loc("p657.28976")
#loc659 = loc("p658.28987")
#loc660 = loc("p659.29006")
#loc661 = loc("p660.29099")
#loc662 = loc("p661.29176")
#loc663 = loc("p662.29198")
#loc664 = loc("p663.29226")
#loc665 = loc("p664.29319")
#loc666 = loc("p665.29386")
#loc667 = loc("p666.29393")
#loc668 = loc("p667.29404")
#loc669 = loc("p668.29409")
#loc670 = loc("p669.29416")
#loc671 = loc("p670.29427")
#loc672 = loc("p671.29446")
#loc673 = loc("p672.29539")
#loc674 = loc("p673.29616")
#loc675 = loc("p674.29638")
#loc676 = loc("p675.29666")
#loc677 = loc("p676.29759")
#loc678 = loc("p677.29826")
#loc679 = loc("p678.29833")
#loc680 = loc("p679.29844")
#loc681 = loc("p680.29849")
#loc682 = loc("p681.29856")
#loc683 = loc("p682.29867")
#loc684 = loc("p683.29886")
#loc685 = loc("p684.29979")
#loc686 = loc("p685.30056")
#loc687 = loc("p686.30078")
#loc688 = loc("p687.30106")
#loc689 = loc("p688.30199")
#loc690 = loc("p689.30266")
#loc691 = loc("p690.30273")
#loc692 = loc("p691.30284")
#loc693 = loc("p692.30289")
#loc694 = loc("p693.30296")
#loc695 = loc("p694.30307")
#loc696 = loc("p695.30326")
#loc697 = loc("p696.30419")
#loc698 = loc("p697.30496")
#loc699 = loc("p698.30518")
#loc700 = loc("p699.30546")
#loc701 = loc("p700.30639")
#loc702 = loc("p701.30706")
#loc703 = loc("p702.30713")
#loc704 = loc("p703.30724")
#loc705 = loc("p704.30729")
#loc706 = loc("p705.30736")
#loc707 = loc("p706.30747")
#loc708 = loc("p707.30766")
#loc709 = loc("p708.30859")
#loc710 = loc("p709.30936")
#loc711 = loc("p710.30958")
#loc712 = loc("p711.30986")
#loc713 = loc("p712.31079")
#loc714 = loc("p713.31146")
#loc715 = loc("p714.31153")
#loc716 = loc("p715.31164")
#loc717 = loc("p716.31169")
#loc718 = loc("p717.31176")
#loc719 = loc("p718.31187")
#loc720 = loc("p719.31206")
#loc721 = loc("p720.31299")
#loc722 = loc("p721.31376")
#loc723 = loc("p722.31398")
#loc724 = loc("p723.31426")
#loc725 = loc("p724.31519")
#loc726 = loc("p725.31586")
#loc727 = loc("p726.31593")
#loc728 = loc("p727.31604")
#loc729 = loc("p728.31609")
#loc730 = loc("p729.31616")
#loc731 = loc("p730.31627")
#loc732 = loc("p731.31646")
#loc733 = loc("p732.31739")
#loc734 = loc("p733.31816")
#loc735 = loc("p734.31838")
#loc736 = loc("p735.31866")
#loc737 = loc("p736.31959")
#loc738 = loc("p737.32026")
#loc739 = loc("p738.32033")
#loc740 = loc("p739.32044")
#loc741 = loc("p740.32049")
#loc742 = loc("p741.32056")
#loc743 = loc("p742.32067")
#loc744 = loc("p743.32086")
#loc745 = loc("p744.32179")
#loc746 = loc("p745.32256")
#loc747 = loc("p746.32278")
#loc748 = loc("p747.32306")
#loc749 = loc("p748.32399")
#loc750 = loc("p749.32466")
#loc751 = loc("p750.32473")
#loc752 = loc("p751.32484")
#loc753 = loc("p752.32489")
#loc754 = loc("p753.32496")
#loc755 = loc("p754.32507")
#loc756 = loc("p755.32526")
#loc757 = loc("p756.32619")
#loc758 = loc("p757.32696")
#loc759 = loc("p758.32718")
#loc760 = loc("p759.32746")
#loc761 = loc("p760.32839")
#loc762 = loc("p761.32906")
#loc763 = loc("p762.32913")
#loc764 = loc("p763.32924")
#loc765 = loc("p764.32929")
#loc766 = loc("p765.32936")
#loc767 = loc("p766.32947")
#loc768 = loc("p767.32966")
#loc769 = loc("p768.33059")
#loc770 = loc("p769.33136")
#loc771 = loc("p770.33158")
#loc772 = loc("p771.33186")
#loc773 = loc("p772.33279")
#loc774 = loc("p773.33346")
#loc775 = loc("p774.33353")
#loc776 = loc("p775.33364")
#loc777 = loc("p776.33369")
#loc778 = loc("p777.33376")
#loc779 = loc("p778.33387")
#loc780 = loc("p779.33406")
#loc781 = loc("p780.33499")
#loc782 = loc("p781.33576")
#loc783 = loc("p782.33598")
#loc784 = loc("p783.33626")
#loc785 = loc("p784.33719")
#loc902 = loc("reduce-window.25980")
#loc6205 = loc("reduce-window.26050")
#loc6245 = loc("reduce-window.25920")
#loc6383 = loc("reduce-window.26344")
#loc10239 = loc("custom-call.33507")
#loc10248 = loc("custom-call.33067")
#loc10257 = loc("custom-call.32627")
#loc10266 = loc("custom-call.32407")
#loc10275 = loc("custom-call.32187")
#loc10284 = loc("custom-call.31747")
#loc10293 = loc("custom-call.31527")
#loc10302 = loc("custom-call.31307")
#loc10311 = loc("custom-call.31087")
#loc10320 = loc("custom-call.30427")
#loc10329 = loc("custom-call.30207")
#loc10338 = loc("custom-call.29767")
#loc10347 = loc("custom-call.29547")
#loc10356 = loc("custom-call.29327")
#loc10365 = loc("custom-call.28887")
#loc10374 = loc("custom-call.15007")
#loc10383 = loc("custom-call.14778")
#loc10384 = loc("custom-call.10853")
#loc10385 = loc("custom-call.10852")
#loc10404 = loc("custom-call.14264")
#loc10405 = loc("custom-call.10897")
#loc10406 = loc("custom-call.10896")
#loc10425 = loc("custom-call.25217")
#loc10434 = loc("custom-call.7203")
#loc10435 = loc("custom-call.2025")
#loc10436 = loc("custom-call.2020")
#loc10455 = loc("custom-call.14007")
#loc10456 = loc("custom-call.10919")
#loc10457 = loc("custom-call.10918")
#loc10476 = loc("custom-call.20250")
#loc10477 = loc("custom-call.18681")
#loc10478 = loc("custom-call.18680")
#loc10497 = loc("custom-call.7910")
#loc10498 = loc("custom-call.1851")
#loc10499 = loc("custom-call.1846")
#loc10518 = loc("custom-call.13895")
#loc10519 = loc("custom-call.10931")
#loc10520 = loc("custom-call.10930")
#loc10539 = loc("custom-call.13638")
#loc10540 = loc("custom-call.10953")
#loc10541 = loc("custom-call.10952")
#loc10560 = loc("custom-call.5292")
#loc10561 = loc("custom-call.2515")
#loc10562 = loc("custom-call.2510")
#loc10581 = loc("custom-call.13493")
#loc10582 = loc("custom-call.10963")
#loc10583 = loc("custom-call.10962")
#loc10602 = loc("custom-call.13381")
#loc10603 = loc("custom-call.10975")
#loc10604 = loc("custom-call.10974")
#loc10623 = loc("custom-call.6384")
#loc10624 = loc("custom-call.2235")
#loc10625 = loc("custom-call.2230")
#loc10644 = loc("custom-call.10206")
#loc10645 = loc("custom-call.1255")
#loc10646 = loc("custom-call.1250")
#loc10665 = loc("custom-call.13208")
#loc10674 = loc("custom-call.30647")
#loc10683 = loc("custom-call.13124")
#loc10684 = loc("custom-call.10997")
#loc10685 = loc("custom-call.10996")
#loc10704 = loc("custom-call.15694")
#loc10705 = loc("custom-call.10777")
#loc10706 = loc("custom-call.10776")
#loc10725 = loc("custom-call.6629")
#loc10734 = loc("custom-call.12867")
#loc10735 = loc("custom-call.11019")
#loc10736 = loc("custom-call.11018")
#loc10755 = loc("custom-call.21904")
#loc10756 = loc("custom-call.18537")
#loc10757 = loc("custom-call.18536")
#loc10776 = loc("custom-call.9905")
#loc10785 = loc("custom-call.12096")
#loc10786 = loc("custom-call.11085")
#loc10787 = loc("custom-call.11084")
#loc10806 = loc("custom-call.14409")
#loc10807 = loc("custom-call.10887")
#loc10808 = loc("custom-call.10886")
#loc10827 = loc("custom-call.6272")
#loc10828 = loc("custom-call.2271")
#loc10829 = loc("custom-call.2266")
#loc10848 = loc("custom-call.11839")
#loc10849 = loc("custom-call.11107")
#loc10850 = loc("custom-call.11106")
#loc10869 = loc("custom-call.12180")
#loc10878 = loc("custom-call.20334")
#loc10887 = loc("custom-call.22647")
#loc10896 = loc("custom-call.18007")
#loc10897 = loc("custom-call.10579")
#loc10898 = loc("custom-call.10578")
#loc10917 = loc("custom-call.11694")
#loc10918 = loc("custom-call.11117")
#loc10919 = loc("custom-call.11116")
#loc10938 = loc("custom-call.7721")
#loc10947 = loc("custom-call.21133")
#loc10948 = loc("custom-call.18603")
#loc10949 = loc("custom-call.18602")
#loc10968 = loc("custom-call.11666")
#loc10977 = loc("custom-call.11582")
#loc10978 = loc("custom-call.11129")
#loc10979 = loc("custom-call.11128")
#loc10998 = loc("custom-call.16035")
#loc11007 = loc("custom-call.5838")
#loc11008 = loc("custom-call.2375")
#loc11009 = loc("custom-call.2370")
#loc11028 = loc("custom-call.11409")
#loc11037 = loc("custom-call.17063")
#loc11046 = loc("custom-call.17862")
#loc11047 = loc("custom-call.10589")
#loc11048 = loc("custom-call.10588")
#loc11067 = loc("custom-call.6083")
#loc11076 = loc("custom-call.33727")
#loc11085 = loc("custom-call.11951")
#loc11086 = loc("custom-call.11095")
#loc11087 = loc("custom-call.11094")
#loc11106 = loc("custom-call.12694")
#loc11115 = loc("custom-call.19222")
#loc11116 = loc("custom-call.18769")
#loc11117 = loc("custom-call.18768")
#loc11136 = loc("custom-call.14236")
#loc11145 = loc("custom-call.25759")
#loc11146 = loc("custom-call.18207")
#loc11147 = loc("custom-call.18206")
#loc11166 = loc("custom-call.24189")
#loc11175 = loc("custom-call.25647")
#loc11176 = loc("custom-call.18219")
#loc11177 = loc("custom-call.18218")
#loc11196 = loc("custom-call.25390")
#loc11197 = loc("custom-call.18241")
#loc11198 = loc("custom-call.18240")
#loc11217 = loc("custom-call.25133")
#loc11218 = loc("custom-call.18263")
#loc11219 = loc("custom-call.18262")
#loc11238 = loc("custom-call.25502")
#loc11239 = loc("custom-call.18229")
#loc11240 = loc("custom-call.18228")
#loc11259 = loc("custom-call.24619")
#loc11260 = loc("custom-call.18307")
#loc11261 = loc("custom-call.18306")
#loc11280 = loc("custom-call.28227")
#loc11289 = loc("custom-call.24474")
#loc11290 = loc("custom-call.18317")
#loc11291 = loc("custom-call.18316")
#loc11310 = loc("custom-call.17320")
#loc11319 = loc("custom-call.7749")
#loc11320 = loc("custom-call.1885")
#loc11321 = loc("custom-call.1880")
#loc11340 = loc("custom-call.14666")
#loc11341 = loc("custom-call.10865")
#loc11342 = loc("custom-call.10864")
#loc11361 = loc("custom-call.24105")
#loc11362 = loc("custom-call.18351")
#loc11363 = loc("custom-call.18350")
#loc11382 = loc("custom-call.24362")
#loc11383 = loc("custom-call.18329")
#loc11384 = loc("custom-call.18328")
#loc11403 = loc("custom-call.33287")
#loc11412 = loc("custom-call.23932")
#loc11421 = loc("custom-call.17750")
#loc11422 = loc("custom-call.10601")
#loc11423 = loc("custom-call.10600")
#loc11442 = loc("custom-call.6902")
#loc11451 = loc("custom-call.5453")
#loc11452 = loc("custom-call.2481")
#loc11453 = loc("custom-call.2476")
#loc11472 = loc("custom-call.21105")
#loc11481 = loc("custom-call.21278")
#loc11482 = loc("custom-call.18593")
#loc11483 = loc("custom-call.18592")
#loc11502 = loc("custom-call.20876")
#loc11503 = loc("custom-call.18625")
#loc11504 = loc("custom-call.18624")
#loc11523 = loc("custom-call.8841")
#loc11524 = loc("custom-call.1605")
#loc11525 = loc("custom-call.1600")
#loc11544 = loc("custom-call.12353")
#loc11545 = loc("custom-call.11063")
#loc11546 = loc("custom-call.11062")
#loc11565 = loc("custom-call.25245")
#loc11566 = loc("custom-call.18251")
#loc11567 = loc("custom-call.18250")
#loc11586 = loc("custom-call.20848")
#loc11595 = loc("custom-call.20764")
#loc11596 = loc("custom-call.18637")
#loc11597 = loc("custom-call.18636")
#loc11616 = loc("custom-call.15951")
#loc11617 = loc("custom-call.10755")
#loc11618 = loc("custom-call.10754")
#loc11637 = loc("custom-call.20619")
#loc11638 = loc("custom-call.18647")
#loc11639 = loc("custom-call.18646")
#loc11658 = loc("custom-call.5180")
#loc11659 = loc("custom-call.2551")
#loc11660 = loc("custom-call.2546")
#loc11679 = loc("custom-call.20105")
#loc11680 = loc("custom-call.18691")
#loc11681 = loc("custom-call.18690")
#loc11700 = loc("custom-call.15035")
#loc11701 = loc("custom-call.10831")
#loc11702 = loc("custom-call.10830")
#loc11721 = loc("custom-call.5810")
#loc11730 = loc("custom-call.18820")
#loc11731 = loc("custom-call.18801")
#loc11732 = loc("custom-call.18800")
#loc11751 = loc("custom-call.13465")
#loc11760 = loc("custom-call.19736")
#loc11761 = loc("custom-call.18725")
#loc11762 = loc("custom-call.18724")
#loc11781 = loc("custom-call.17493")
#loc11782 = loc("custom-call.10623")
#loc11783 = loc("custom-call.10622")
#loc11802 = loc("custom-call.24876")
#loc11803 = loc("custom-call.18285")
#loc11804 = loc("custom-call.18284")
#loc11823 = loc("custom-call.18965")
#loc11824 = loc("custom-call.18791")
#loc11825 = loc("custom-call.18790")
#loc11844 = loc("custom-call.4634")
#loc11845 = loc("custom-call.2691")
#loc11846 = loc("custom-call.2686")
#loc11865 = loc("custom-call.20362")
#loc11866 = loc("custom-call.18669")
#loc11867 = loc("custom-call.18668")
#loc11886 = loc("custom-call.20077")
#loc11895 = loc("custom-call.6818")
#loc11896 = loc("custom-call.2131")
#loc11897 = loc("custom-call.2126")
#loc11916 = loc("custom-call.12208")
#loc11917 = loc("custom-call.11073")
#loc11918 = loc("custom-call.11072")
#loc11937 = loc("custom-call.22675")
#loc11938 = loc("custom-call.18471")
#loc11939 = loc("custom-call.18470")
#loc11958 = loc("custom-call.4746")
#loc11959 = loc("custom-call.2655")
#loc11960 = loc("custom-call.2650")
#loc11979 = loc("custom-call.8813")
#loc11988 = loc("custom-call.9632")
#loc11997 = loc("custom-call.12610")
#loc11998 = loc("custom-call.11041")
#loc11999 = loc("custom-call.11040")
#loc12018 = loc("custom-call.9660")
#loc12019 = loc("custom-call.1395")
#loc12020 = loc("custom-call.1390")
#loc12039 = loc("custom-call.21362")
#loc12048 = loc("custom-call.3626")
#loc12057 = loc("custom-call.24703")
#loc12066 = loc("custom-call.4907")
#loc12067 = loc("custom-call.2621")
#loc12068 = loc("custom-call.2616")
#loc12087 = loc("custom-call.19848")
#loc12088 = loc("custom-call.18713")
#loc12089 = loc("custom-call.18712")
#loc12108 = loc("custom-call.5999")
#loc12109 = loc("custom-call.2341")
#loc12110 = loc("custom-call.2336")
#loc12129 = loc("custom-call.13979")
#loc12138 = loc("custom-call.13236")
#loc12139 = loc("custom-call.10985")
#loc12140 = loc("custom-call.10984")
#loc12159 = loc("custom-call.19993")
#loc12160 = loc("custom-call.18703")
#loc12161 = loc("custom-call.18702")
#loc12180 = loc("custom-call.13750")
#loc12181 = loc("custom-call.10941")
#loc12182 = loc("custom-call.10940")
#loc12201 = loc("custom-call.8729")
#loc12202 = loc("custom-call.1641")
#loc12203 = loc("custom-call.1636")
#loc12222 = loc("custom-call.23077")
#loc12223 = loc("custom-call.18439")
#loc12224 = loc("custom-call.18438")
#loc12243 = loc("custom-call.23591")
#loc12244 = loc("custom-call.18395")
#loc12245 = loc("custom-call.18394")
#loc12264 = loc("custom-call.16722")
#loc12265 = loc("custom-call.10689")
#loc12266 = loc("custom-call.10688")
#loc12285 = loc("custom-call.20507")
#loc12286 = loc("custom-call.18659")
#loc12287 = loc("custom-call.18658")
#loc12306 = loc("custom-call.23848")
#loc12307 = loc("custom-call.18373")
#loc12308 = loc("custom-call.18372")
#loc12327 = loc("custom-call.24960")
#loc12336 = loc("custom-call.6930")
#loc12337 = loc("custom-call.2095")
#loc12338 = loc("custom-call.2090")
#loc12357 = loc("custom-call.19306")
#loc12366 = loc("custom-call.14152")
#loc12367 = loc("custom-call.10909")
#loc12368 = loc("custom-call.10908")
#loc12387 = loc("custom-call.6657")
#loc12388 = loc("custom-call.2165")
#loc12389 = loc("custom-call.2160")
#loc12408 = loc("custom-call.21647")
#loc12409 = loc("custom-call.18559")
#loc12410 = loc("custom-call.18558")
#loc12429 = loc("custom-call.11180")
#loc12430 = loc("custom-call.11161")
#loc12431 = loc("custom-call.11160")
#loc12450 = loc("custom-call.23189")
#loc12451 = loc("custom-call.18427")
#loc12452 = loc("custom-call.18426")
#loc12471 = loc("custom-call.19820")
#loc12480 = loc("custom-call.9821")
#loc12481 = loc("custom-call.1361")
#loc12482 = loc("custom-call.1356")
#loc12501 = loc("custom-call.14521")
#loc12502 = loc("custom-call.10875")
#loc12503 = loc("custom-call.10874")
#loc12522 = loc("custom-call.12951")
#loc12531 = loc("custom-call.19591")
#loc12532 = loc("custom-call.18735")
#loc12533 = loc("custom-call.18734")
#loc12552 = loc("custom-call.25474")
#loc12561 = loc("custom-call.22418")
#loc12562 = loc("custom-call.18493")
#loc12563 = loc("custom-call.18492")
#loc12582 = loc("custom-call.22049")
#loc12583 = loc("custom-call.18527")
#loc12584 = loc("custom-call.18526")
#loc12603 = loc("custom-call.12979")
#loc12604 = loc("custom-call.11007")
#loc12605 = loc("custom-call.11006")
#loc12624 = loc("custom-call.16320")
#loc12625 = loc("custom-call.10721")
#loc12626 = loc("custom-call.10720")
#loc12645 = loc("custom-call.31967")
#loc12654 = loc("custom-call.18119")
#loc12655 = loc("custom-call.10567")
#loc12656 = loc("custom-call.10566")
#loc12675 = loc("custom-call.21535")
#loc12676 = loc("custom-call.18571")
#loc12677 = loc("custom-call.18570")
#loc12696 = loc("custom-call.22390")
#loc12705 = loc("custom-call.7994")
#loc12714 = loc("custom-call.22820")
#loc12715 = loc("custom-call.18461")
#loc12716 = loc("custom-call.18460")
#loc12735 = loc("custom-call.22161")
#loc12736 = loc("custom-call.18515")
#loc12737 = loc("custom-call.18514")
#loc12756 = loc("custom-call.30867")
#loc12765 = loc("custom-call.23334")
#loc12766 = loc("custom-call.18417")
#loc12767 = loc("custom-call.18416")
#loc12786 = loc("custom-call.21619")
#loc12795 = loc("custom-call.19077")
#loc12796 = loc("custom-call.18779")
#loc12797 = loc("custom-call.18778")
#loc12816 = loc("custom-call.14923")
#loc12817 = loc("custom-call.10843")
#loc12818 = loc("custom-call.10842")
#loc12837 = loc("custom-call.6111")
#loc12838 = loc("custom-call.2305")
#loc12839 = loc("custom-call.2300")
#loc12858 = loc("custom-call.23446")
#loc12859 = loc("custom-call.18405")
#loc12860 = loc("custom-call.18404")
#loc12879 = loc("custom-call.25731")
#loc12888 = loc("custom-call.21876")
#loc12897 = loc("custom-call.9387")
#loc12898 = loc("custom-call.1465")
#loc12899 = loc("custom-call.1460")
#loc12918 = loc("custom-call.22133")
#loc12927 = loc("custom-call.22563")
#loc12928 = loc("custom-call.18483")
#loc12929 = loc("custom-call.18482")
#loc12948 = loc("custom-call.16063")
#loc12949 = loc("custom-call.10743")
#loc12950 = loc("custom-call.10742")
#loc12969 = loc("custom-call.13722")
#loc12978 = loc("custom-call.23960")
#loc12979 = loc("custom-call.18361")
#loc12980 = loc("custom-call.18360")
#loc12999 = loc("custom-call.27347")
#loc13008 = loc("custom-call.29107")
#loc13017 = loc("custom-call.24988")
#loc13018 = loc("custom-call.18273")
#loc13019 = loc("custom-call.18272")
#loc13038 = loc("custom-call.28007")
#loc13047 = loc("custom-call.22306")
#loc13048 = loc("custom-call.18505")
#loc13049 = loc("custom-call.18504")
#loc13068 = loc("custom-call.22932")
#loc13069 = loc("custom-call.18449")
#loc13070 = loc("custom-call.18448")
#loc13089 = loc("custom-call.19479")
#loc13090 = loc("custom-call.18747")
#loc13091 = loc("custom-call.18746")
#loc13110 = loc("custom-call.3353")
#loc13119 = loc("custom-call.23675")
#loc13128 = loc("custom-call.5726")
#loc13129 = loc("custom-call.2411")
#loc13130 = loc("custom-call.2406")
#loc13149 = loc("custom-call.14750")
#loc13158 = loc("custom-call.21390")
#loc13159 = loc("custom-call.18581")
#loc13160 = loc("custom-call.18580")
#loc13179 = loc("custom-call.22904")
#loc13188 = loc("custom-call.24731")
#loc13189 = loc("custom-call.18295")
#loc13190 = loc("custom-call.18294")
#loc13209 = loc("custom-call.23161")
#loc13218 = loc("custom-call.11923")
#loc13227 = loc("custom-call.3108")
#loc13228 = loc("custom-call.3075")
#loc13229 = loc("custom-call.3070")
#loc13248 = loc("custom-call.19049")
#loc13257 = loc("custom-call.23418")
#loc13266 = loc("custom-call.23703")
#loc13267 = loc("custom-call.18383")
#loc13268 = loc("custom-call.18382")
#loc13287 = loc("custom-call.15180")
#loc13288 = loc("custom-call.10821")
#loc13289 = loc("custom-call.10820")
#loc13308 = loc("custom-call.3899")
#loc13317 = loc("custom-call.15264")
#loc13326 = loc("custom-call.26205")
#loc13335 = loc("custom-call.15292")
#loc13336 = loc("custom-call.10809")
#loc13337 = loc("custom-call.10808")
#loc13356 = loc("custom-call.15437")
#loc13357 = loc("custom-call.10799")
#loc13358 = loc("custom-call.10798")
#loc13377 = loc("custom-call.20591")
#loc13386 = loc("custom-call.4473")
#loc13387 = loc("custom-call.2725")
#loc13388 = loc("custom-call.2720")
#loc13407 = loc("custom-call.15521")
#loc13416 = loc("custom-call.15549")
#loc13417 = loc("custom-call.10787")
#loc13418 = loc("custom-call.10786")
#loc13437 = loc("custom-call.11325")
#loc13438 = loc("custom-call.11151")
#loc13439 = loc("custom-call.11150")
#loc13458 = loc("custom-call.7175")
#loc13467 = loc("custom-call.15778")
#loc13476 = loc("custom-call.15806")
#loc13477 = loc("custom-call.10765")
#loc13478 = loc("custom-call.10764")
#loc13497 = loc("custom-call.16208")
#loc13498 = loc("custom-call.10733")
#loc13499 = loc("custom-call.10732")
#loc13518 = loc("custom-call.16292")
#loc13527 = loc("custom-call.16465")
#loc13528 = loc("custom-call.10711")
#loc13529 = loc("custom-call.10710")
#loc13548 = loc("custom-call.5264")
#loc13557 = loc("custom-call.16549")
#loc13566 = loc("custom-call.16577")
#loc13567 = loc("custom-call.10699")
#loc13568 = loc("custom-call.10698")
#loc13587 = loc("custom-call.4991")
#loc13596 = loc("custom-call.7637")
#loc13597 = loc("custom-call.1921")
#loc13598 = loc("custom-call.1916")
#loc13617 = loc("custom-call.16806")
#loc13626 = loc("custom-call.16834")
#loc13627 = loc("custom-call.10677")
#loc13628 = loc("custom-call.10676")
#loc13647 = loc("custom-call.21792")
#loc13648 = loc("custom-call.18549")
#loc13649 = loc("custom-call.18548")
#loc13668 = loc("custom-call.16979")
#loc13669 = loc("custom-call.10667")
#loc13670 = loc("custom-call.10666")
#loc13689 = loc("custom-call.9933")
#loc13690 = loc("custom-call.1325")
#loc13691 = loc("custom-call.1320")
#loc13710 = loc("custom-call.9359")
#loc13719 = loc("custom-call.17091")
#loc13720 = loc("custom-call.10655")
#loc13721 = loc("custom-call.10654")
#loc13740 = loc("custom-call.8456")
#loc13741 = loc("custom-call.1711")
#loc13742 = loc("custom-call.1706")
#loc13761 = loc("custom-call.28667")
#loc13770 = loc("custom-call.17577")
#loc13779 = loc("custom-call.12465")
#loc13780 = loc("custom-call.11051")
#loc13781 = loc("custom-call.11050")
#loc13800 = loc("custom-call.17605")
#loc13801 = loc("custom-call.10611")
#loc13802 = loc("custom-call.10610")
#loc13821 = loc("custom-call.10451")
#loc13830 = loc("custom-call.3269")
#loc13831 = loc("custom-call.3041")
#loc13832 = loc("custom-call.3036")
#loc13851 = loc("custom-call.12437")
#loc13860 = loc("custom-call.3381")
#loc13861 = loc("custom-call.3005")
#loc13862 = loc("custom-call.3000")
#loc13881 = loc("custom-call.3654")
#loc13882 = loc("custom-call.2935")
#loc13883 = loc("custom-call.2930")
#loc13902 = loc("custom-call.9114")
#loc13903 = loc("custom-call.1535")
#loc13904 = loc("custom-call.1530")
#loc13923 = loc("custom-call.3815")
#loc13924 = loc("custom-call.2901")
#loc13925 = loc("custom-call.2896")
#loc13944 = loc("custom-call.3927")
#loc13945 = loc("custom-call.2865")
#loc13946 = loc("custom-call.2860")
#loc13965 = loc("custom-call.4088")
#loc13966 = loc("custom-call.2831")
#loc13967 = loc("custom-call.2826")
#loc13986 = loc("custom-call.4172")
#loc13995 = loc("custom-call.4200")
#loc13996 = loc("custom-call.2795")
#loc13997 = loc("custom-call.2790")
#loc14016 = loc("custom-call.4361")
#loc14017 = loc("custom-call.2761")
#loc14018 = loc("custom-call.2756")
#loc14037 = loc("custom-call.4445")
#loc14046 = loc("custom-call.3542")
#loc14047 = loc("custom-call.2971")
#loc14048 = loc("custom-call.2966")
#loc14067 = loc("custom-call.4718")
#loc14076 = loc("custom-call.5537")
#loc14085 = loc("custom-call.29987")
#loc14094 = loc("custom-call.19334")
#loc14095 = loc("custom-call.18757")
#loc14096 = loc("custom-call.18756")
#loc14115 = loc("custom-call.5565")
#loc14116 = loc("custom-call.2445")
#loc14117 = loc("custom-call.2440")
#loc14136 = loc("custom-call.6545")
#loc14137 = loc("custom-call.2201")
#loc14138 = loc("custom-call.2196")
#loc14157 = loc("custom-call.24217")
#loc14158 = loc("custom-call.18339")
#loc14159 = loc("custom-call.18338")
#loc14178 = loc("custom-call.7091")
#loc14179 = loc("custom-call.2061")
#loc14180 = loc("custom-call.2056")
#loc14199 = loc("custom-call.6356")
#loc14208 = loc("custom-call.7364")
#loc14209 = loc("custom-call.1991")
#loc14210 = loc("custom-call.1986")
#loc14229 = loc("custom-call.14493")
#loc14238 = loc("custom-call.17236")
#loc14239 = loc("custom-call.10645")
#loc14240 = loc("custom-call.10644")
#loc14259 = loc("custom-call.7448")
#loc14268 = loc("custom-call.24446")
#loc14277 = loc("custom-call.11437")
#loc14278 = loc("custom-call.11139")
#loc14279 = loc("custom-call.11138")
#loc14298 = loc("custom-call.10367")
#loc14299 = loc("custom-call.1221")
#loc14300 = loc("custom-call.1216")
#loc14319 = loc("custom-call.17348")
#loc14320 = loc("custom-call.10633")
#loc14321 = loc("custom-call.10632")
#loc14340 = loc("custom-call.7476")
#loc14341 = loc("custom-call.1955")
#loc14342 = loc("custom-call.1950")
#loc14361 = loc("custom-call.8022")
#loc14362 = loc("custom-call.1815")
#loc14363 = loc("custom-call.1810")
#loc14382 = loc("custom-call.19563")
#loc14391 = loc("custom-call.9275")
#loc14392 = loc("custom-call.1501")
#loc14393 = loc("custom-call.1496")
#loc14412 = loc("custom-call.8183")
#loc14413 = loc("custom-call.1781")
#loc14414 = loc("custom-call.1776")
#loc14433 = loc("custom-call.12722")
#loc14434 = loc("custom-call.11029")
#loc14435 = loc("custom-call.11028")
#loc14454 = loc("custom-call.8267")
#loc14463 = loc("custom-call.8295")
#loc14464 = loc("custom-call.1745")
#loc14465 = loc("custom-call.1740")
#loc14484 = loc("custom-call.32847")
#loc14493 = loc("custom-call.8540")
#loc14502 = loc("custom-call.21021")
#loc14503 = loc("custom-call.18615")
#loc14504 = loc("custom-call.18614")
#loc14523 = loc("custom-call.8568")
#loc14524 = loc("custom-call.1675")
#loc14525 = loc("custom-call.1670")
#loc14544 = loc("custom-call.5019")
#loc14545 = loc("custom-call.2585")
#loc14546 = loc("custom-call.2580")
#loc14565 = loc("custom-call.10094")
#loc14566 = loc("custom-call.1291")
#loc14567 = loc("custom-call.1286")
#loc14586 = loc("custom-call.18091")
#loc14595 = loc("custom-call.26687")
#loc14604 = loc("custom-call.27787")
#loc14613 = loc("custom-call.9002")
#loc14614 = loc("custom-call.1571")
#loc14615 = loc("custom-call.1566")
#loc14634 = loc("custom-call.9086")
#loc14643 = loc("custom-call.9548")
#loc14644 = loc("custom-call.1431")
#loc14645 = loc("custom-call.1426")
#loc14664 = loc("custom-call.10178")
#loc14673 = loc("custom-call.10479")
#loc14674 = loc("custom-call.1185")
#loc14675 = loc("custom-call.1180")
#loc14694 = loc("custom-call.26467")
#loc14703 = loc("custom-call.26907")
#loc14712 = loc("custom-call.27127")
#loc14721 = loc("custom-call.28447")
#loc14730 = loc("custom-call.17834")
#loc14739 = loc("custom-call.27567")
module @SyncTensorsGraph.33801 attributes {mhlo.cross_program_prefetches = [], mhlo.input_output_alias = [], mhlo.is_dynamic = false, mhlo.use_auto_spmd_partitioning = false} {
  func.func @main(%arg0: tensor<1024xf32> loc("p0.72"), %arg1: tensor<1024x32xf32> loc("p1.79"), %arg2: tensor<1x32xf32> loc("p2.84"), %arg3: tensor<1024x32xf32> loc("p3.109"), %arg4: tensor<32xf32> loc("p4.117"), %arg5: tensor<32x1024xf32> loc("p5.121"), %arg6: tensor<1024xf32> loc("p6.128"), %arg7: tensor<1024x4096xf32> loc("p7.139"), %arg8: tensor<4096x1024xf32> loc("p8.144"), %arg9: tensor<1024xf32> loc("p9.151"), %arg10: tensor<1024x2048xf32> loc("p10.162"), %arg11: tensor<256x1024xf32> loc("p11.167"), %arg12: tensor<1024xf32> loc("p12.174"), %arg13: tensor<1024x4096xf32> loc("p13.185"), %arg14: tensor<4096x1024xf32> loc("p14.190"), %arg15: tensor<1024xf32> loc("p15.197"), %arg16: tensor<1024x2048xf32> loc("p16.208"), %arg17: tensor<256x1024xf32> loc("p17.213"), %arg18: tensor<1024xf32> loc("p18.220"), %arg19: tensor<1024x4096xf32> loc("p19.231"), %arg20: tensor<4096x1024xf32> loc("p20.236"), %arg21: tensor<1024xf32> loc("p21.243"), %arg22: tensor<1024x2048xf32> loc("p22.254"), %arg23: tensor<256x1024xf32> loc("p23.259"), %arg24: tensor<1024xf32> loc("p24.266"), %arg25: tensor<1024x4096xf32> loc("p25.277"), %arg26: tensor<4096x1024xf32> loc("p26.282"), %arg27: tensor<1024xf32> loc("p27.289"), %arg28: tensor<1024x2048xf32> loc("p28.300"), %arg29: tensor<256x1024xf32> loc("p29.305"), %arg30: tensor<1024xf32> loc("p30.312"), %arg31: tensor<1024x4096xf32> loc("p31.323"), %arg32: tensor<4096x1024xf32> loc("p32.328"), %arg33: tensor<1024xf32> loc("p33.335"), %arg34: tensor<1024x2048xf32> loc("p34.346"), %arg35: tensor<256x1024xf32> loc("p35.351"), %arg36: tensor<1024xf32> loc("p36.358"), %arg37: tensor<1024x4096xf32> loc("p37.369"), %arg38: tensor<4096x1024xf32> loc("p38.374"), %arg39: tensor<1024xf32> loc("p39.381"), %arg40: tensor<1024x2048xf32> loc("p40.392"), %arg41: tensor<256x1024xf32> loc("p41.397"), %arg42: tensor<1024xf32> loc("p42.404"), %arg43: tensor<1024x4096xf32> loc("p43.415"), %arg44: tensor<4096x1024xf32> loc("p44.420"), %arg45: tensor<1024xf32> loc("p45.427"), %arg46: tensor<1024x2048xf32> loc("p46.438"), %arg47: tensor<256x1024xf32> loc("p47.443"), %arg48: tensor<1024xf32> loc("p48.450"), %arg49: tensor<1024x4096xf32> loc("p49.461"), %arg50: tensor<4096x1024xf32> loc("p50.466"), %arg51: tensor<1024xf32> loc("p51.473"), %arg52: tensor<1024x2048xf32> loc("p52.484"), %arg53: tensor<256x1024xf32> loc("p53.489"), %arg54: tensor<1024xf32> loc("p54.496"), %arg55: tensor<1024x4096xf32> loc("p55.507"), %arg56: tensor<4096x1024xf32> loc("p56.512"), %arg57: tensor<1024xf32> loc("p57.519"), %arg58: tensor<1024x2048xf32> loc("p58.530"), %arg59: tensor<256x1024xf32> loc("p59.535"), %arg60: tensor<1024xf32> loc("p60.542"), %arg61: tensor<1024x4096xf32> loc("p61.553"), %arg62: tensor<4096x1024xf32> loc("p62.558"), %arg63: tensor<1024xf32> loc("p63.565"), %arg64: tensor<1024x2048xf32> loc("p64.576"), %arg65: tensor<256x1024xf32> loc("p65.581"), %arg66: tensor<1024xf32> loc("p66.588"), %arg67: tensor<1024x4096xf32> loc("p67.599"), %arg68: tensor<4096x1024xf32> loc("p68.604"), %arg69: tensor<1024xf32> loc("p69.611"), %arg70: tensor<1024x2048xf32> loc("p70.622"), %arg71: tensor<256x1024xf32> loc("p71.627"), %arg72: tensor<1024xf32> loc("p72.634"), %arg73: tensor<1024x4096xf32> loc("p73.645"), %arg74: tensor<4096x1024xf32> loc("p74.650"), %arg75: tensor<1024xf32> loc("p75.657"), %arg76: tensor<1024x2048xf32> loc("p76.668"), %arg77: tensor<256x1024xf32> loc("p77.673"), %arg78: tensor<1024xf32> loc("p78.680"), %arg79: tensor<1024x4096xf32> loc("p79.691"), %arg80: tensor<4096x1024xf32> loc("p80.696"), %arg81: tensor<1024xf32> loc("p81.703"), %arg82: tensor<1024x2048xf32> loc("p82.714"), %arg83: tensor<256x1024xf32> loc("p83.719"), %arg84: tensor<1024xf32> loc("p84.726"), %arg85: tensor<1024x4096xf32> loc("p85.737"), %arg86: tensor<4096x1024xf32> loc("p86.742"), %arg87: tensor<1024xf32> loc("p87.749"), %arg88: tensor<1024x2048xf32> loc("p88.760"), %arg89: tensor<256x1024xf32> loc("p89.765"), %arg90: tensor<1024xf32> loc("p90.772"), %arg91: tensor<1024x4096xf32> loc("p91.783"), %arg92: tensor<4096x1024xf32> loc("p92.788"), %arg93: tensor<1024xf32> loc("p93.795"), %arg94: tensor<1024x2048xf32> loc("p94.806"), %arg95: tensor<256x1024xf32> loc("p95.811"), %arg96: tensor<1024xf32> loc("p96.818"), %arg97: tensor<1024x4096xf32> loc("p97.829"), %arg98: tensor<4096x1024xf32> loc("p98.834"), %arg99: tensor<1024xf32> loc("p99.841"), %arg100: tensor<1024x2048xf32> loc("p100.852"), %arg101: tensor<256x1024xf32> loc("p101.857"), %arg102: tensor<1024xf32> loc("p102.864"), %arg103: tensor<1024x4096xf32> loc("p103.875"), %arg104: tensor<4096x1024xf32> loc("p104.880"), %arg105: tensor<1024xf32> loc("p105.887"), %arg106: tensor<1024x2048xf32> loc("p106.898"), %arg107: tensor<256x1024xf32> loc("p107.903"), %arg108: tensor<1024xf32> loc("p108.910"), %arg109: tensor<1024x4096xf32> loc("p109.921"), %arg110: tensor<4096x1024xf32> loc("p110.926"), %arg111: tensor<1024xf32> loc("p111.933"), %arg112: tensor<1024x2048xf32> loc("p112.944"), %arg113: tensor<256x1024xf32> loc("p113.949"), %arg114: tensor<1024xf32> loc("p114.956"), %arg115: tensor<1024xf32> loc("p115.967"), %arg116: tensor<1024x1024xf32> loc("p116.971"), %arg117: tensor<1024xf32> loc("p117.977"), %arg118: tensor<1024x2048xf32> loc("p118.981"), %arg119: tensor<1024xf32> loc("p119.1053"), %arg120: tensor<1x50x32xf32> loc("p120.1058"), %arg121: tensor<256x2048xf32> loc("p121.1133"), %arg122: tensor<2048xf32> loc("p122.1140"), %arg123: tensor<1x48xi64> loc("p123.1151"), %arg124: tensor<257152x2048xf32> loc("p124.1156"), %arg125: tensor<2048xf32> loc("p125.1166"), %arg126: tensor<2048x1152xf32> loc("p126.1170"), %arg127: tensor<1152xf32> loc("p127.1176"), %arg128: tensor<1152xf32> loc("p128.1181"), %arg129: tensor<1152xf32> loc("p129.1190"), %arg130: tensor<1152x4304xf32> loc("p130.1194"), %arg131: tensor<4304xf32> loc("p131.1202"), %arg132: tensor<4304x1152xf32> loc("p132.1206"), %arg133: tensor<1152xf32> loc("p133.1212"), %arg134: tensor<1152xf32> loc("p134.1217"), %arg135: tensor<1152xf32> loc("p135.1226"), %arg136: tensor<1152x1152xf32> loc("p136.1230"), %arg137: tensor<1152xf32> loc("p137.1236"), %arg138: tensor<1152x1152xf32> loc("p138.1240"), %arg139: tensor<1152xf32> loc("p139.1246"), %arg140: tensor<1152xf32> loc("p140.1251"), %arg141: tensor<1152xf32> loc("p141.1260"), %arg142: tensor<1152x4304xf32> loc("p142.1264"), %arg143: tensor<4304xf32> loc("p143.1272"), %arg144: tensor<4304x1152xf32> loc("p144.1276"), %arg145: tensor<1152xf32> loc("p145.1282"), %arg146: tensor<1152xf32> loc("p146.1287"), %arg147: tensor<1152xf32> loc("p147.1296"), %arg148: tensor<1152x1152xf32> loc("p148.1300"), %arg149: tensor<1152xf32> loc("p149.1306"), %arg150: tensor<1152x1152xf32> loc("p150.1310"), %arg151: tensor<1152xf32> loc("p151.1316"), %arg152: tensor<1152xf32> loc("p152.1321"), %arg153: tensor<1152xf32> loc("p153.1330"), %arg154: tensor<1152x4304xf32> loc("p154.1334"), %arg155: tensor<4304xf32> loc("p155.1342"), %arg156: tensor<4304x1152xf32> loc("p156.1346"), %arg157: tensor<1152xf32> loc("p157.1352"), %arg158: tensor<1152xf32> loc("p158.1357"), %arg159: tensor<1152xf32> loc("p159.1366"), %arg160: tensor<1152x1152xf32> loc("p160.1370"), %arg161: tensor<1152xf32> loc("p161.1376"), %arg162: tensor<1152x1152xf32> loc("p162.1380"), %arg163: tensor<1152xf32> loc("p163.1386"), %arg164: tensor<1152xf32> loc("p164.1391"), %arg165: tensor<1152xf32> loc("p165.1400"), %arg166: tensor<1152x4304xf32> loc("p166.1404"), %arg167: tensor<4304xf32> loc("p167.1412"), %arg168: tensor<4304x1152xf32> loc("p168.1416"), %arg169: tensor<1152xf32> loc("p169.1422"), %arg170: tensor<1152xf32> loc("p170.1427"), %arg171: tensor<1152xf32> loc("p171.1436"), %arg172: tensor<1152x1152xf32> loc("p172.1440"), %arg173: tensor<1152xf32> loc("p173.1446"), %arg174: tensor<1152x1152xf32> loc("p174.1450"), %arg175: tensor<1152xf32> loc("p175.1456"), %arg176: tensor<1152xf32> loc("p176.1461"), %arg177: tensor<1152xf32> loc("p177.1470"), %arg178: tensor<1152x4304xf32> loc("p178.1474"), %arg179: tensor<4304xf32> loc("p179.1482"), %arg180: tensor<4304x1152xf32> loc("p180.1486"), %arg181: tensor<1152xf32> loc("p181.1492"), %arg182: tensor<1152xf32> loc("p182.1497"), %arg183: tensor<1152xf32> loc("p183.1506"), %arg184: tensor<1152x1152xf32> loc("p184.1510"), %arg185: tensor<1152xf32> loc("p185.1516"), %arg186: tensor<1152x1152xf32> loc("p186.1520"), %arg187: tensor<1152xf32> loc("p187.1526"), %arg188: tensor<1152xf32> loc("p188.1531"), %arg189: tensor<1152xf32> loc("p189.1540"), %arg190: tensor<1152x4304xf32> loc("p190.1544"), %arg191: tensor<4304xf32> loc("p191.1552"), %arg192: tensor<4304x1152xf32> loc("p192.1556"), %arg193: tensor<1152xf32> loc("p193.1562"), %arg194: tensor<1152xf32> loc("p194.1567"), %arg195: tensor<1152xf32> loc("p195.1576"), %arg196: tensor<1152x1152xf32> loc("p196.1580"), %arg197: tensor<1152xf32> loc("p197.1586"), %arg198: tensor<1152x1152xf32> loc("p198.1590"), %arg199: tensor<1152xf32> loc("p199.1596"), %arg200: tensor<1152xf32> loc("p200.1601"), %arg201: tensor<1152xf32> loc("p201.1610"), %arg202: tensor<1152x4304xf32> loc("p202.1614"), %arg203: tensor<4304xf32> loc("p203.1622"), %arg204: tensor<4304x1152xf32> loc("p204.1626"), %arg205: tensor<1152xf32> loc("p205.1632"), %arg206: tensor<1152xf32> loc("p206.1637"), %arg207: tensor<1152xf32> loc("p207.1646"), %arg208: tensor<1152x1152xf32> loc("p208.1650"), %arg209: tensor<1152xf32> loc("p209.1656"), %arg210: tensor<1152x1152xf32> loc("p210.1660"), %arg211: tensor<1152xf32> loc("p211.1666"), %arg212: tensor<1152xf32> loc("p212.1671"), %arg213: tensor<1152xf32> loc("p213.1680"), %arg214: tensor<1152x4304xf32> loc("p214.1684"), %arg215: tensor<4304xf32> loc("p215.1692"), %arg216: tensor<4304x1152xf32> loc("p216.1696"), %arg217: tensor<1152xf32> loc("p217.1702"), %arg218: tensor<1152xf32> loc("p218.1707"), %arg219: tensor<1152xf32> loc("p219.1716"), %arg220: tensor<1152x1152xf32> loc("p220.1720"), %arg221: tensor<1152xf32> loc("p221.1726"), %arg222: tensor<1152x1152xf32> loc("p222.1730"), %arg223: tensor<1152xf32> loc("p223.1736"), %arg224: tensor<1152xf32> loc("p224.1741"), %arg225: tensor<1152xf32> loc("p225.1750"), %arg226: tensor<1152x4304xf32> loc("p226.1754"), %arg227: tensor<4304xf32> loc("p227.1762"), %arg228: tensor<4304x1152xf32> loc("p228.1766"), %arg229: tensor<1152xf32> loc("p229.1772"), %arg230: tensor<1152xf32> loc("p230.1777"), %arg231: tensor<1152xf32> loc("p231.1786"), %arg232: tensor<1152x1152xf32> loc("p232.1790"), %arg233: tensor<1152xf32> loc("p233.1796"), %arg234: tensor<1152x1152xf32> loc("p234.1800"), %arg235: tensor<1152xf32> loc("p235.1806"), %arg236: tensor<1152xf32> loc("p236.1811"), %arg237: tensor<1152xf32> loc("p237.1820"), %arg238: tensor<1152x4304xf32> loc("p238.1824"), %arg239: tensor<4304xf32> loc("p239.1832"), %arg240: tensor<4304x1152xf32> loc("p240.1836"), %arg241: tensor<1152xf32> loc("p241.1842"), %arg242: tensor<1152xf32> loc("p242.1847"), %arg243: tensor<1152xf32> loc("p243.1856"), %arg244: tensor<1152x1152xf32> loc("p244.1860"), %arg245: tensor<1152xf32> loc("p245.1866"), %arg246: tensor<1152x1152xf32> loc("p246.1870"), %arg247: tensor<1152xf32> loc("p247.1876"), %arg248: tensor<1152xf32> loc("p248.1881"), %arg249: tensor<1152xf32> loc("p249.1890"), %arg250: tensor<1152x4304xf32> loc("p250.1894"), %arg251: tensor<4304xf32> loc("p251.1902"), %arg252: tensor<4304x1152xf32> loc("p252.1906"), %arg253: tensor<1152xf32> loc("p253.1912"), %arg254: tensor<1152xf32> loc("p254.1917"), %arg255: tensor<1152xf32> loc("p255.1926"), %arg256: tensor<1152x1152xf32> loc("p256.1930"), %arg257: tensor<1152xf32> loc("p257.1936"), %arg258: tensor<1152x1152xf32> loc("p258.1940"), %arg259: tensor<1152xf32> loc("p259.1946"), %arg260: tensor<1152xf32> loc("p260.1951"), %arg261: tensor<1152xf32> loc("p261.1960"), %arg262: tensor<1152x4304xf32> loc("p262.1964"), %arg263: tensor<4304xf32> loc("p263.1972"), %arg264: tensor<4304x1152xf32> loc("p264.1976"), %arg265: tensor<1152xf32> loc("p265.1982"), %arg266: tensor<1152xf32> loc("p266.1987"), %arg267: tensor<1152xf32> loc("p267.1996"), %arg268: tensor<1152x1152xf32> loc("p268.2000"), %arg269: tensor<1152xf32> loc("p269.2006"), %arg270: tensor<1152x1152xf32> loc("p270.2010"), %arg271: tensor<1152xf32> loc("p271.2016"), %arg272: tensor<1152xf32> loc("p272.2021"), %arg273: tensor<1152xf32> loc("p273.2030"), %arg274: tensor<1152x4304xf32> loc("p274.2034"), %arg275: tensor<4304xf32> loc("p275.2042"), %arg276: tensor<4304x1152xf32> loc("p276.2046"), %arg277: tensor<1152xf32> loc("p277.2052"), %arg278: tensor<1152xf32> loc("p278.2057"), %arg279: tensor<1152xf32> loc("p279.2066"), %arg280: tensor<1152x1152xf32> loc("p280.2070"), %arg281: tensor<1152xf32> loc("p281.2076"), %arg282: tensor<1152x1152xf32> loc("p282.2080"), %arg283: tensor<1152xf32> loc("p283.2086"), %arg284: tensor<1152xf32> loc("p284.2091"), %arg285: tensor<1152xf32> loc("p285.2100"), %arg286: tensor<1152x4304xf32> loc("p286.2104"), %arg287: tensor<4304xf32> loc("p287.2112"), %arg288: tensor<4304x1152xf32> loc("p288.2116"), %arg289: tensor<1152xf32> loc("p289.2122"), %arg290: tensor<1152xf32> loc("p290.2127"), %arg291: tensor<1152xf32> loc("p291.2136"), %arg292: tensor<1152x1152xf32> loc("p292.2140"), %arg293: tensor<1152xf32> loc("p293.2146"), %arg294: tensor<1152x1152xf32> loc("p294.2150"), %arg295: tensor<1152xf32> loc("p295.2156"), %arg296: tensor<1152xf32> loc("p296.2161"), %arg297: tensor<1152xf32> loc("p297.2170"), %arg298: tensor<1152x4304xf32> loc("p298.2174"), %arg299: tensor<4304xf32> loc("p299.2182"), %arg300: tensor<4304x1152xf32> loc("p300.2186"), %arg301: tensor<1152xf32> loc("p301.2192"), %arg302: tensor<1152xf32> loc("p302.2197"), %arg303: tensor<1152xf32> loc("p303.2206"), %arg304: tensor<1152x1152xf32> loc("p304.2210"), %arg305: tensor<1152xf32> loc("p305.2216"), %arg306: tensor<1152x1152xf32> loc("p306.2220"), %arg307: tensor<1152xf32> loc("p307.2226"), %arg308: tensor<1152xf32> loc("p308.2231"), %arg309: tensor<1152xf32> loc("p309.2240"), %arg310: tensor<1152x4304xf32> loc("p310.2244"), %arg311: tensor<4304xf32> loc("p311.2252"), %arg312: tensor<4304x1152xf32> loc("p312.2256"), %arg313: tensor<1152xf32> loc("p313.2262"), %arg314: tensor<1152xf32> loc("p314.2267"), %arg315: tensor<1152xf32> loc("p315.2276"), %arg316: tensor<1152x1152xf32> loc("p316.2280"), %arg317: tensor<1152xf32> loc("p317.2286"), %arg318: tensor<1152x1152xf32> loc("p318.2290"), %arg319: tensor<1152xf32> loc("p319.2296"), %arg320: tensor<1152xf32> loc("p320.2301"), %arg321: tensor<1152xf32> loc("p321.2310"), %arg322: tensor<1152x4304xf32> loc("p322.2314"), %arg323: tensor<4304xf32> loc("p323.2322"), %arg324: tensor<4304x1152xf32> loc("p324.2326"), %arg325: tensor<1152xf32> loc("p325.2332"), %arg326: tensor<1152xf32> loc("p326.2337"), %arg327: tensor<1152xf32> loc("p327.2346"), %arg328: tensor<1152x1152xf32> loc("p328.2350"), %arg329: tensor<1152xf32> loc("p329.2356"), %arg330: tensor<1152x1152xf32> loc("p330.2360"), %arg331: tensor<1152xf32> loc("p331.2366"), %arg332: tensor<1152xf32> loc("p332.2371"), %arg333: tensor<1152xf32> loc("p333.2380"), %arg334: tensor<1152x4304xf32> loc("p334.2384"), %arg335: tensor<4304xf32> loc("p335.2392"), %arg336: tensor<4304x1152xf32> loc("p336.2396"), %arg337: tensor<1152xf32> loc("p337.2402"), %arg338: tensor<1152xf32> loc("p338.2407"), %arg339: tensor<1152xf32> loc("p339.2416"), %arg340: tensor<1152x1152xf32> loc("p340.2420"), %arg341: tensor<1152xf32> loc("p341.2426"), %arg342: tensor<1152x1152xf32> loc("p342.2430"), %arg343: tensor<1152xf32> loc("p343.2436"), %arg344: tensor<1152xf32> loc("p344.2441"), %arg345: tensor<1152xf32> loc("p345.2450"), %arg346: tensor<1152x4304xf32> loc("p346.2454"), %arg347: tensor<4304xf32> loc("p347.2462"), %arg348: tensor<4304x1152xf32> loc("p348.2466"), %arg349: tensor<1152xf32> loc("p349.2472"), %arg350: tensor<1152xf32> loc("p350.2477"), %arg351: tensor<1152xf32> loc("p351.2486"), %arg352: tensor<1152x1152xf32> loc("p352.2490"), %arg353: tensor<1152xf32> loc("p353.2496"), %arg354: tensor<1152x1152xf32> loc("p354.2500"), %arg355: tensor<1152xf32> loc("p355.2506"), %arg356: tensor<1152xf32> loc("p356.2511"), %arg357: tensor<1152xf32> loc("p357.2520"), %arg358: tensor<1152x4304xf32> loc("p358.2524"), %arg359: tensor<4304xf32> loc("p359.2532"), %arg360: tensor<4304x1152xf32> loc("p360.2536"), %arg361: tensor<1152xf32> loc("p361.2542"), %arg362: tensor<1152xf32> loc("p362.2547"), %arg363: tensor<1152xf32> loc("p363.2556"), %arg364: tensor<1152x1152xf32> loc("p364.2560"), %arg365: tensor<1152xf32> loc("p365.2566"), %arg366: tensor<1152x1152xf32> loc("p366.2570"), %arg367: tensor<1152xf32> loc("p367.2576"), %arg368: tensor<1152xf32> loc("p368.2581"), %arg369: tensor<1152xf32> loc("p369.2590"), %arg370: tensor<1152x4304xf32> loc("p370.2594"), %arg371: tensor<4304xf32> loc("p371.2602"), %arg372: tensor<4304x1152xf32> loc("p372.2606"), %arg373: tensor<1152xf32> loc("p373.2612"), %arg374: tensor<1152xf32> loc("p374.2617"), %arg375: tensor<1152xf32> loc("p375.2626"), %arg376: tensor<1152x1152xf32> loc("p376.2630"), %arg377: tensor<1152xf32> loc("p377.2636"), %arg378: tensor<1152x1152xf32> loc("p378.2640"), %arg379: tensor<1152xf32> loc("p379.2646"), %arg380: tensor<1152xf32> loc("p380.2651"), %arg381: tensor<1152xf32> loc("p381.2660"), %arg382: tensor<1152x4304xf32> loc("p382.2664"), %arg383: tensor<4304xf32> loc("p383.2672"), %arg384: tensor<4304x1152xf32> loc("p384.2676"), %arg385: tensor<1152xf32> loc("p385.2682"), %arg386: tensor<1152xf32> loc("p386.2687"), %arg387: tensor<1152xf32> loc("p387.2696"), %arg388: tensor<1152x1152xf32> loc("p388.2700"), %arg389: tensor<1152xf32> loc("p389.2706"), %arg390: tensor<1152x1152xf32> loc("p390.2710"), %arg391: tensor<1152xf32> loc("p391.2716"), %arg392: tensor<1152xf32> loc("p392.2721"), %arg393: tensor<1152xf32> loc("p393.2730"), %arg394: tensor<1152x4304xf32> loc("p394.2734"), %arg395: tensor<4304xf32> loc("p395.2742"), %arg396: tensor<4304x1152xf32> loc("p396.2746"), %arg397: tensor<1152xf32> loc("p397.2752"), %arg398: tensor<1152xf32> loc("p398.2757"), %arg399: tensor<1152xf32> loc("p399.2766"), %arg400: tensor<1152x1152xf32> loc("p400.2770"), %arg401: tensor<1152xf32> loc("p401.2776"), %arg402: tensor<1152x1152xf32> loc("p402.2780"), %arg403: tensor<1152xf32> loc("p403.2786"), %arg404: tensor<1152xf32> loc("p404.2791"), %arg405: tensor<1152xf32> loc("p405.2800"), %arg406: tensor<1152x4304xf32> loc("p406.2804"), %arg407: tensor<4304xf32> loc("p407.2812"), %arg408: tensor<4304x1152xf32> loc("p408.2816"), %arg409: tensor<1152xf32> loc("p409.2822"), %arg410: tensor<1152xf32> loc("p410.2827"), %arg411: tensor<1152xf32> loc("p411.2836"), %arg412: tensor<1152x1152xf32> loc("p412.2840"), %arg413: tensor<1152xf32> loc("p413.2846"), %arg414: tensor<1152x1152xf32> loc("p414.2850"), %arg415: tensor<1152xf32> loc("p415.2856"), %arg416: tensor<1152xf32> loc("p416.2861"), %arg417: tensor<1152xf32> loc("p417.2870"), %arg418: tensor<1152x4304xf32> loc("p418.2874"), %arg419: tensor<4304xf32> loc("p419.2882"), %arg420: tensor<4304x1152xf32> loc("p420.2886"), %arg421: tensor<1152xf32> loc("p421.2892"), %arg422: tensor<1152xf32> loc("p422.2897"), %arg423: tensor<1152xf32> loc("p423.2906"), %arg424: tensor<1152x1152xf32> loc("p424.2910"), %arg425: tensor<1152xf32> loc("p425.2916"), %arg426: tensor<1152x1152xf32> loc("p426.2920"), %arg427: tensor<1152xf32> loc("p427.2926"), %arg428: tensor<1152xf32> loc("p428.2931"), %arg429: tensor<1152xf32> loc("p429.2940"), %arg430: tensor<1152x4304xf32> loc("p430.2944"), %arg431: tensor<4304xf32> loc("p431.2952"), %arg432: tensor<4304x1152xf32> loc("p432.2956"), %arg433: tensor<1152xf32> loc("p433.2962"), %arg434: tensor<1152xf32> loc("p434.2967"), %arg435: tensor<1152xf32> loc("p435.2976"), %arg436: tensor<1152x1152xf32> loc("p436.2980"), %arg437: tensor<1152xf32> loc("p437.2986"), %arg438: tensor<1152x1152xf32> loc("p438.2990"), %arg439: tensor<1152xf32> loc("p439.2996"), %arg440: tensor<1152xf32> loc("p440.3001"), %arg441: tensor<1152xf32> loc("p441.3010"), %arg442: tensor<1152x4304xf32> loc("p442.3014"), %arg443: tensor<4304xf32> loc("p443.3022"), %arg444: tensor<4304x1152xf32> loc("p444.3026"), %arg445: tensor<1152xf32> loc("p445.3032"), %arg446: tensor<1152xf32> loc("p446.3037"), %arg447: tensor<1152xf32> loc("p447.3046"), %arg448: tensor<1152x1152xf32> loc("p448.3050"), %arg449: tensor<1152xf32> loc("p449.3056"), %arg450: tensor<1152x1152xf32> loc("p450.3060"), %arg451: tensor<1152xf32> loc("p451.3066"), %arg452: tensor<1152xf32> loc("p452.3071"), %arg453: tensor<1x256xi64> loc("p453.3079"), %arg454: tensor<256x1152xf32> loc("p454.3084"), %arg455: tensor<1152xf32> loc("p455.3091"), %arg456: tensor<1152x3x14x14xf32> loc("p456.3095"), %arg457: tensor<1x3x224x224xf32> loc("p457.3097"), %arg458: tensor<1152xf32> loc("p458.3196"), %arg459: tensor<1152x1152xf32> loc("p459.3200"), %arg460: tensor<1152xf32> loc("p460.3216"), %arg461: tensor<1152x1152xf32> loc("p461.3220"), %arg462: tensor<1152xf32> loc("p462.3469"), %arg463: tensor<1152x1152xf32> loc("p463.3473"), %arg464: tensor<1152xf32> loc("p464.3489"), %arg465: tensor<1152x1152xf32> loc("p465.3493"), %arg466: tensor<1152xf32> loc("p466.3742"), %arg467: tensor<1152x1152xf32> loc("p467.3746"), %arg468: tensor<1152xf32> loc("p468.3762"), %arg469: tensor<1152x1152xf32> loc("p469.3766"), %arg470: tensor<1152xf32> loc("p470.4015"), %arg471: tensor<1152x1152xf32> loc("p471.4019"), %arg472: tensor<1152xf32> loc("p472.4035"), %arg473: tensor<1152x1152xf32> loc("p473.4039"), %arg474: tensor<1152xf32> loc("p474.4288"), %arg475: tensor<1152x1152xf32> loc("p475.4292"), %arg476: tensor<1152xf32> loc("p476.4308"), %arg477: tensor<1152x1152xf32> loc("p477.4312"), %arg478: tensor<1152xf32> loc("p478.4561"), %arg479: tensor<1152x1152xf32> loc("p479.4565"), %arg480: tensor<1152xf32> loc("p480.4581"), %arg481: tensor<1152x1152xf32> loc("p481.4585"), %arg482: tensor<1152xf32> loc("p482.4834"), %arg483: tensor<1152x1152xf32> loc("p483.4838"), %arg484: tensor<1152xf32> loc("p484.4854"), %arg485: tensor<1152x1152xf32> loc("p485.4858"), %arg486: tensor<1152xf32> loc("p486.5107"), %arg487: tensor<1152x1152xf32> loc("p487.5111"), %arg488: tensor<1152xf32> loc("p488.5127"), %arg489: tensor<1152x1152xf32> loc("p489.5131"), %arg490: tensor<1152xf32> loc("p490.5380"), %arg491: tensor<1152x1152xf32> loc("p491.5384"), %arg492: tensor<1152xf32> loc("p492.5400"), %arg493: tensor<1152x1152xf32> loc("p493.5404"), %arg494: tensor<1152xf32> loc("p494.5653"), %arg495: tensor<1152x1152xf32> loc("p495.5657"), %arg496: tensor<1152xf32> loc("p496.5673"), %arg497: tensor<1152x1152xf32> loc("p497.5677"), %arg498: tensor<1152xf32> loc("p498.5926"), %arg499: tensor<1152x1152xf32> loc("p499.5930"), %arg500: tensor<1152xf32> loc("p500.5946"), %arg501: tensor<1152x1152xf32> loc("p501.5950"), %arg502: tensor<1152xf32> loc("p502.6199"), %arg503: tensor<1152x1152xf32> loc("p503.6203"), %arg504: tensor<1152xf32> loc("p504.6219"), %arg505: tensor<1152x1152xf32> loc("p505.6223"), %arg506: tensor<1152xf32> loc("p506.6472"), %arg507: tensor<1152x1152xf32> loc("p507.6476"), %arg508: tensor<1152xf32> loc("p508.6492"), %arg509: tensor<1152x1152xf32> loc("p509.6496"), %arg510: tensor<1152xf32> loc("p510.6745"), %arg511: tensor<1152x1152xf32> loc("p511.6749"), %arg512: tensor<1152xf32> loc("p512.6765"), %arg513: tensor<1152x1152xf32> loc("p513.6769"), %arg514: tensor<1152xf32> loc("p514.7018"), %arg515: tensor<1152x1152xf32> loc("p515.7022"), %arg516: tensor<1152xf32> loc("p516.7038"), %arg517: tensor<1152x1152xf32> loc("p517.7042"), %arg518: tensor<1152xf32> loc("p518.7291"), %arg519: tensor<1152x1152xf32> loc("p519.7295"), %arg520: tensor<1152xf32> loc("p520.7311"), %arg521: tensor<1152x1152xf32> loc("p521.7315"), %arg522: tensor<1152xf32> loc("p522.7564"), %arg523: tensor<1152x1152xf32> loc("p523.7568"), %arg524: tensor<1152xf32> loc("p524.7584"), %arg525: tensor<1152x1152xf32> loc("p525.7588"), %arg526: tensor<1152xf32> loc("p526.7837"), %arg527: tensor<1152x1152xf32> loc("p527.7841"), %arg528: tensor<1152xf32> loc("p528.7857"), %arg529: tensor<1152x1152xf32> loc("p529.7861"), %arg530: tensor<1152xf32> loc("p530.8110"), %arg531: tensor<1152x1152xf32> loc("p531.8114"), %arg532: tensor<1152xf32> loc("p532.8130"), %arg533: tensor<1152x1152xf32> loc("p533.8134"), %arg534: tensor<1152xf32> loc("p534.8383"), %arg535: tensor<1152x1152xf32> loc("p535.8387"), %arg536: tensor<1152xf32> loc("p536.8403"), %arg537: tensor<1152x1152xf32> loc("p537.8407"), %arg538: tensor<1152xf32> loc("p538.8656"), %arg539: tensor<1152x1152xf32> loc("p539.8660"), %arg540: tensor<1152xf32> loc("p540.8676"), %arg541: tensor<1152x1152xf32> loc("p541.8680"), %arg542: tensor<1152xf32> loc("p542.8929"), %arg543: tensor<1152x1152xf32> loc("p543.8933"), %arg544: tensor<1152xf32> loc("p544.8949"), %arg545: tensor<1152x1152xf32> loc("p545.8953"), %arg546: tensor<1152xf32> loc("p546.9202"), %arg547: tensor<1152x1152xf32> loc("p547.9206"), %arg548: tensor<1152xf32> loc("p548.9222"), %arg549: tensor<1152x1152xf32> loc("p549.9226"), %arg550: tensor<1152xf32> loc("p550.9475"), %arg551: tensor<1152x1152xf32> loc("p551.9479"), %arg552: tensor<1152xf32> loc("p552.9495"), %arg553: tensor<1152x1152xf32> loc("p553.9499"), %arg554: tensor<1152xf32> loc("p554.9748"), %arg555: tensor<1152x1152xf32> loc("p555.9752"), %arg556: tensor<1152xf32> loc("p556.9768"), %arg557: tensor<1152x1152xf32> loc("p557.9772"), %arg558: tensor<1152xf32> loc("p558.10021"), %arg559: tensor<1152x1152xf32> loc("p559.10025"), %arg560: tensor<1152xf32> loc("p560.10041"), %arg561: tensor<1152x1152xf32> loc("p561.10045"), %arg562: tensor<1152xf32> loc("p562.10294"), %arg563: tensor<1152x1152xf32> loc("p563.10298"), %arg564: tensor<1152xf32> loc("p564.10314"), %arg565: tensor<1152x1152xf32> loc("p565.10318"), %arg566: tensor<1x3x224x224xf32> loc("p566.11169"), %arg567: tensor<1x3x224x224xf32> loc("p567.18809"), %arg568: tensor<i1> loc("p568.25897"), %arg569: tensor<51xf32> loc("p569.25912"), %arg570: tensor<1x48xi1> loc("p570.25931"), %arg571: tensor<1xi1> loc("p571.25935"), %arg572: tensor<1xi1> loc("p572.25943"), %arg573: tensor<1xi1> loc("p573.25951"), %arg574: tensor<128xf32> loc("p574.26001"), %arg575: tensor<256x1024xf32> loc("p575.26016"), %arg576: tensor<128xf32> loc("p576.26057"), %arg577: tensor<256x2048xf32> loc("p577.26072"), %arg578: tensor<2048x1024xf32> loc("p578.26104"), %arg579: tensor<4096x1024xf32> loc("p579.26197"), %arg580: tensor<256x2048xf32> loc("p580.26264"), %arg581: tensor<2048xf32> loc("p581.26271"), %arg582: tensor<2048x16384xf32> loc("p582.26282"), %arg583: tensor<16384x2048xf32> loc("p583.26287"), %arg584: tensor<2048xf32> loc("p584.26294"), %arg585: tensor<2048x2048xf32> loc("p585.26305"), %arg586: tensor<816xi1> loc("p586.26335"), %arg587: tensor<2048x2048xf32> loc("p587.26366"), %arg588: tensor<16384x2048xf32> loc("p588.26459"), %arg589: tensor<256x1024xf32> loc("p589.26536"), %arg590: tensor<256x2048xf32> loc("p590.26558"), %arg591: tensor<2048x1024xf32> loc("p591.26586"), %arg592: tensor<4096x1024xf32> loc("p592.26679"), %arg593: tensor<256x2048xf32> loc("p593.26746"), %arg594: tensor<2048xf32> loc("p594.26753"), %arg595: tensor<2048x16384xf32> loc("p595.26764"), %arg596: tensor<16384x2048xf32> loc("p596.26769"), %arg597: tensor<2048xf32> loc("p597.26776"), %arg598: tensor<2048x2048xf32> loc("p598.26787"), %arg599: tensor<2048x2048xf32> loc("p599.26806"), %arg600: tensor<16384x2048xf32> loc("p600.26899"), %arg601: tensor<256x1024xf32> loc("p601.26976"), %arg602: tensor<256x2048xf32> loc("p602.26998"), %arg603: tensor<2048x1024xf32> loc("p603.27026"), %arg604: tensor<4096x1024xf32> loc("p604.27119"), %arg605: tensor<256x2048xf32> loc("p605.27186"), %arg606: tensor<2048xf32> loc("p606.27193"), %arg607: tensor<2048x16384xf32> loc("p607.27204"), %arg608: tensor<16384x2048xf32> loc("p608.27209"), %arg609: tensor<2048xf32> loc("p609.27216"), %arg610: tensor<2048x2048xf32> loc("p610.27227"), %arg611: tensor<2048x2048xf32> loc("p611.27246"), %arg612: tensor<16384x2048xf32> loc("p612.27339"), %arg613: tensor<256x1024xf32> loc("p613.27416"), %arg614: tensor<256x2048xf32> loc("p614.27438"), %arg615: tensor<2048x1024xf32> loc("p615.27466"), %arg616: tensor<4096x1024xf32> loc("p616.27559"), %arg617: tensor<256x2048xf32> loc("p617.27626"), %arg618: tensor<2048xf32> loc("p618.27633"), %arg619: tensor<2048x16384xf32> loc("p619.27644"), %arg620: tensor<16384x2048xf32> loc("p620.27649"), %arg621: tensor<2048xf32> loc("p621.27656"), %arg622: tensor<2048x2048xf32> loc("p622.27667"), %arg623: tensor<2048x2048xf32> loc("p623.27686"), %arg624: tensor<16384x2048xf32> loc("p624.27779"), %arg625: tensor<256x1024xf32> loc("p625.27856"), %arg626: tensor<256x2048xf32> loc("p626.27878"), %arg627: tensor<2048x1024xf32> loc("p627.27906"), %arg628: tensor<4096x1024xf32> loc("p628.27999"), %arg629: tensor<256x2048xf32> loc("p629.28066"), %arg630: tensor<2048xf32> loc("p630.28073"), %arg631: tensor<2048x16384xf32> loc("p631.28084"), %arg632: tensor<16384x2048xf32> loc("p632.28089"), %arg633: tensor<2048xf32> loc("p633.28096"), %arg634: tensor<2048x2048xf32> loc("p634.28107"), %arg635: tensor<2048x2048xf32> loc("p635.28126"), %arg636: tensor<16384x2048xf32> loc("p636.28219"), %arg637: tensor<256x1024xf32> loc("p637.28296"), %arg638: tensor<256x2048xf32> loc("p638.28318"), %arg639: tensor<2048x1024xf32> loc("p639.28346"), %arg640: tensor<4096x1024xf32> loc("p640.28439"), %arg641: tensor<256x2048xf32> loc("p641.28506"), %arg642: tensor<2048xf32> loc("p642.28513"), %arg643: tensor<2048x16384xf32> loc("p643.28524"), %arg644: tensor<16384x2048xf32> loc("p644.28529"), %arg645: tensor<2048xf32> loc("p645.28536"), %arg646: tensor<2048x2048xf32> loc("p646.28547"), %arg647: tensor<2048x2048xf32> loc("p647.28566"), %arg648: tensor<16384x2048xf32> loc("p648.28659"), %arg649: tensor<256x1024xf32> loc("p649.28736"), %arg650: tensor<256x2048xf32> loc("p650.28758"), %arg651: tensor<2048x1024xf32> loc("p651.28786"), %arg652: tensor<4096x1024xf32> loc("p652.28879"), %arg653: tensor<256x2048xf32> loc("p653.28946"), %arg654: tensor<2048xf32> loc("p654.28953"), %arg655: tensor<2048x16384xf32> loc("p655.28964"), %arg656: tensor<16384x2048xf32> loc("p656.28969"), %arg657: tensor<2048xf32> loc("p657.28976"), %arg658: tensor<2048x2048xf32> loc("p658.28987"), %arg659: tensor<2048x2048xf32> loc("p659.29006"), %arg660: tensor<16384x2048xf32> loc("p660.29099"), %arg661: tensor<256x1024xf32> loc("p661.29176"), %arg662: tensor<256x2048xf32> loc("p662.29198"), %arg663: tensor<2048x1024xf32> loc("p663.29226"), %arg664: tensor<4096x1024xf32> loc("p664.29319"), %arg665: tensor<256x2048xf32> loc("p665.29386"), %arg666: tensor<2048xf32> loc("p666.29393"), %arg667: tensor<2048x16384xf32> loc("p667.29404"), %arg668: tensor<16384x2048xf32> loc("p668.29409"), %arg669: tensor<2048xf32> loc("p669.29416"), %arg670: tensor<2048x2048xf32> loc("p670.29427"), %arg671: tensor<2048x2048xf32> loc("p671.29446"), %arg672: tensor<16384x2048xf32> loc("p672.29539"), %arg673: tensor<256x1024xf32> loc("p673.29616"), %arg674: tensor<256x2048xf32> loc("p674.29638"), %arg675: tensor<2048x1024xf32> loc("p675.29666"), %arg676: tensor<4096x1024xf32> loc("p676.29759"), %arg677: tensor<256x2048xf32> loc("p677.29826"), %arg678: tensor<2048xf32> loc("p678.29833"), %arg679: tensor<2048x16384xf32> loc("p679.29844"), %arg680: tensor<16384x2048xf32> loc("p680.29849"), %arg681: tensor<2048xf32> loc("p681.29856"), %arg682: tensor<2048x2048xf32> loc("p682.29867"), %arg683: tensor<2048x2048xf32> loc("p683.29886"), %arg684: tensor<16384x2048xf32> loc("p684.29979"), %arg685: tensor<256x1024xf32> loc("p685.30056"), %arg686: tensor<256x2048xf32> loc("p686.30078"), %arg687: tensor<2048x1024xf32> loc("p687.30106"), %arg688: tensor<4096x1024xf32> loc("p688.30199"), %arg689: tensor<256x2048xf32> loc("p689.30266"), %arg690: tensor<2048xf32> loc("p690.30273"), %arg691: tensor<2048x16384xf32> loc("p691.30284"), %arg692: tensor<16384x2048xf32> loc("p692.30289"), %arg693: tensor<2048xf32> loc("p693.30296"), %arg694: tensor<2048x2048xf32> loc("p694.30307"), %arg695: tensor<2048x2048xf32> loc("p695.30326"), %arg696: tensor<16384x2048xf32> loc("p696.30419"), %arg697: tensor<256x1024xf32> loc("p697.30496"), %arg698: tensor<256x2048xf32> loc("p698.30518"), %arg699: tensor<2048x1024xf32> loc("p699.30546"), %arg700: tensor<4096x1024xf32> loc("p700.30639"), %arg701: tensor<256x2048xf32> loc("p701.30706"), %arg702: tensor<2048xf32> loc("p702.30713"), %arg703: tensor<2048x16384xf32> loc("p703.30724"), %arg704: tensor<16384x2048xf32> loc("p704.30729"), %arg705: tensor<2048xf32> loc("p705.30736"), %arg706: tensor<2048x2048xf32> loc("p706.30747"), %arg707: tensor<2048x2048xf32> loc("p707.30766"), %arg708: tensor<16384x2048xf32> loc("p708.30859"), %arg709: tensor<256x1024xf32> loc("p709.30936"), %arg710: tensor<256x2048xf32> loc("p710.30958"), %arg711: tensor<2048x1024xf32> loc("p711.30986"), %arg712: tensor<4096x1024xf32> loc("p712.31079"), %arg713: tensor<256x2048xf32> loc("p713.31146"), %arg714: tensor<2048xf32> loc("p714.31153"), %arg715: tensor<2048x16384xf32> loc("p715.31164"), %arg716: tensor<16384x2048xf32> loc("p716.31169"), %arg717: tensor<2048xf32> loc("p717.31176"), %arg718: tensor<2048x2048xf32> loc("p718.31187"), %arg719: tensor<2048x2048xf32> loc("p719.31206"), %arg720: tensor<16384x2048xf32> loc("p720.31299"), %arg721: tensor<256x1024xf32> loc("p721.31376"), %arg722: tensor<256x2048xf32> loc("p722.31398"), %arg723: tensor<2048x1024xf32> loc("p723.31426"), %arg724: tensor<4096x1024xf32> loc("p724.31519"), %arg725: tensor<256x2048xf32> loc("p725.31586"), %arg726: tensor<2048xf32> loc("p726.31593"), %arg727: tensor<2048x16384xf32> loc("p727.31604"), %arg728: tensor<16384x2048xf32> loc("p728.31609"), %arg729: tensor<2048xf32> loc("p729.31616"), %arg730: tensor<2048x2048xf32> loc("p730.31627"), %arg731: tensor<2048x2048xf32> loc("p731.31646"), %arg732: tensor<16384x2048xf32> loc("p732.31739"), %arg733: tensor<256x1024xf32> loc("p733.31816"), %arg734: tensor<256x2048xf32> loc("p734.31838"), %arg735: tensor<2048x1024xf32> loc("p735.31866"), %arg736: tensor<4096x1024xf32> loc("p736.31959"), %arg737: tensor<256x2048xf32> loc("p737.32026"), %arg738: tensor<2048xf32> loc("p738.32033"), %arg739: tensor<2048x16384xf32> loc("p739.32044"), %arg740: tensor<16384x2048xf32> loc("p740.32049"), %arg741: tensor<2048xf32> loc("p741.32056"), %arg742: tensor<2048x2048xf32> loc("p742.32067"), %arg743: tensor<2048x2048xf32> loc("p743.32086"), %arg744: tensor<16384x2048xf32> loc("p744.32179"), %arg745: tensor<256x1024xf32> loc("p745.32256"), %arg746: tensor<256x2048xf32> loc("p746.32278"), %arg747: tensor<2048x1024xf32> loc("p747.32306"), %arg748: tensor<4096x1024xf32> loc("p748.32399"), %arg749: tensor<256x2048xf32> loc("p749.32466"), %arg750: tensor<2048xf32> loc("p750.32473"), %arg751: tensor<2048x16384xf32> loc("p751.32484"), %arg752: tensor<16384x2048xf32> loc("p752.32489"), %arg753: tensor<2048xf32> loc("p753.32496"), %arg754: tensor<2048x2048xf32> loc("p754.32507"), %arg755: tensor<2048x2048xf32> loc("p755.32526"), %arg756: tensor<16384x2048xf32> loc("p756.32619"), %arg757: tensor<256x1024xf32> loc("p757.32696"), %arg758: tensor<256x2048xf32> loc("p758.32718"), %arg759: tensor<2048x1024xf32> loc("p759.32746"), %arg760: tensor<4096x1024xf32> loc("p760.32839"), %arg761: tensor<256x2048xf32> loc("p761.32906"), %arg762: tensor<2048xf32> loc("p762.32913"), %arg763: tensor<2048x16384xf32> loc("p763.32924"), %arg764: tensor<16384x2048xf32> loc("p764.32929"), %arg765: tensor<2048xf32> loc("p765.32936"), %arg766: tensor<2048x2048xf32> loc("p766.32947"), %arg767: tensor<2048x2048xf32> loc("p767.32966"), %arg768: tensor<16384x2048xf32> loc("p768.33059"), %arg769: tensor<256x1024xf32> loc("p769.33136"), %arg770: tensor<256x2048xf32> loc("p770.33158"), %arg771: tensor<2048x1024xf32> loc("p771.33186"), %arg772: tensor<4096x1024xf32> loc("p772.33279"), %arg773: tensor<256x2048xf32> loc("p773.33346"), %arg774: tensor<2048xf32> loc("p774.33353"), %arg775: tensor<2048x16384xf32> loc("p775.33364"), %arg776: tensor<16384x2048xf32> loc("p776.33369"), %arg777: tensor<2048xf32> loc("p777.33376"), %arg778: tensor<2048x2048xf32> loc("p778.33387"), %arg779: tensor<2048x2048xf32> loc("p779.33406"), %arg780: tensor<16384x2048xf32> loc("p780.33499"), %arg781: tensor<256x1024xf32> loc("p781.33576"), %arg782: tensor<256x2048xf32> loc("p782.33598"), %arg783: tensor<2048x1024xf32> loc("p783.33626"), %arg784: tensor<4096x1024xf32> loc("p784.33719")) -> tensor<1x50x1024xf32> {
    %cst = stablehlo.constant dense<5.000000e-01> : tensor<1x512xf64> loc(#loc)
    %cst_0 = stablehlo.constant dense<-5.000000e-01> : tensor<1x50x32xf32> loc(#loc)
    %cst_1 = stablehlo.constant dense<-2.38197633E+38> : tensor<1x1x816x816xf32> loc(#loc)
    %cst_2 = stablehlo.constant dense<0.000000e+00> : tensor<1x1x816x816xf32> loc(#loc)
    %cst_3 = stablehlo.constant dense<6.250000e-02> : tensor<1x8x816x816xf32> loc(#loc)
    %cst_4 = stablehlo.constant dense<-2.38197633E+38> : tensor<1x1x51x867xf32> loc(#loc)
    %cst_5 = stablehlo.constant dense<0.000000e+00> : tensor<1x1x51x867xf32> loc(#loc)
    %cst_6 = stablehlo.constant dense<6.250000e-02> : tensor<1x8x51x867xf32> loc(#loc)
    %c = stablehlo.constant dense<1> : tensor<1x816xi64> loc(#loc)
    %cst_7 = stablehlo.constant dense<1.000000e+00> : tensor<2048xf32> loc(#loc)
    %cst_8 = stablehlo.constant dense<9.99999997E-7> : tensor<1x816x1xf32> loc(#loc)
    %cst_9 = stablehlo.constant dense<4.8828125E-4> : tensor<1x816xf32> loc(#loc)
    %cst_10 = stablehlo.constant dense<2.000000e+00> : tensor<1x816x2048xf32> loc(#loc)
    %cst_11 = stablehlo.constant dense<45.2548332> : tensor<1x48x2048xf32> loc(#loc)
    %cst_12 = stablehlo.constant dense<0.117851131> : tensor<1x16x256x256xf32> loc(#loc)
    %c_13 = stablehlo.constant dense<1> : tensor<1x51xi64> loc(#loc)
    %cst_14 = stablehlo.constant dense<1.000000e+00> : tensor<1024xf32> loc(#loc)
    %cst_15 = stablehlo.constant dense<9.99999997E-7> : tensor<1x51x1xf32> loc(#loc)
    %cst_16 = stablehlo.constant dense<9.765625E-4> : tensor<1x51xf32> loc(#loc)
    %cst_17 = stablehlo.constant dense<2.000000e+00> : tensor<1x51x1024xf32> loc(#loc)
    %cst_18 = stablehlo.constant dense<3.1415926535897931> : tensor<512xf64> loc(#loc)
    %cst_19 = stablehlo.constant dense<2.000000e+00> : tensor<512xf64> loc(#loc)
    %cst_20 = stablehlo.constant dense<4.000000e-03> : tensor<512xf64> loc(#loc)
    %cst_21 = stablehlo.constant dense<"…"> : tensor<512xf64> loc(#loc)
    %cst_22 = stablehlo.constant dense<"…"> : tensor<512xf64> loc(#loc)
    %c_23 = stablehlo.constant dense<"…"> : tensor<512xi1> loc(#loc)
    %cst_24 = stablehlo.constant dense<1.000000e+03> : tensor<512xf64> loc(#loc)
    %cst_25 = stablehlo.constant dense<1.000000e+00> : tensor<512xf64> loc(#loc)
    %cst_26 = stablehlo.constant dense<9.99999971E-10> : tensor<f32> loc(#loc)
    %cst_27 = stablehlo.constant dense<0xFF800000> : tensor<f32> loc(#loc)
    %c_28 = stablehlo.constant dense<0> : tensor<i64> loc(#loc)
    %cst_29 = stablehlo.constant dense<0.000000e+00> : tensor<f32> loc(#loc)
    %0 = stablehlo.custom_call @tt.mark_argument(%arg120) {api_version = 0 : i32, mhlo.frontend_attributes = {ttcore.argument_type = "input", ttir.name = "args_9"}} : (tensor<1x50x32xf32>) -> tensor<1x50x32xf32> loc(#loc786)
    %1 = stablehlo.reshape %arg2 : (tensor<1x32xf32>) -> tensor<1x1x32xf32> loc(#loc787)
    %2 = stablehlo.custom_call @tt.mark_argument(%1) {api_version = 0 : i32, mhlo.frontend_attributes = {ttcore.argument_type = "input", ttir.name = "args_0"}} : (tensor<1x1x32xf32>) -> tensor<1x1x32xf32> loc(#loc788)
    %3 = stablehlo.reshape %2 : (tensor<1x1x32xf32>) -> tensor<1x32xf32> loc(#loc789)
    %4 = stablehlo.reshape %arg1 : (tensor<1024x32xf32>) -> tensor<1x1024x32xf32> loc(#loc790)
    %5 = stablehlo.custom_call @tt.mark_argument(%4) {api_version = 0 : i32, mhlo.frontend_attributes = {ttcore.argument_type = "parameter", ttir.name = "L__self___bracket_core_state_proj.weight"}} : (tensor<1x1024x32xf32>) -> tensor<1x1024x32xf32> loc(#loc791)
    %6 = stablehlo.reshape %5 : (tensor<1x1024x32xf32>) -> tensor<1024x32xf32> loc(#loc792)
    %7 = stablehlo.transpose %6, dims = [1, 0] {result_layout = dense<[0, 1]> : tensor<2xindex>, xla_shape = "f32[32,1024]{0,1}"} : (tensor<1024x32xf32>) -> tensor<32x1024xf32> loc(#loc793)
    %8 = stablehlo.dot_general %3, %7, contracting_dims = [1] x [0] : (tensor<1x32xf32>, tensor<32x1024xf32>) -> tensor<1x1024xf32> loc(#loc794)
    %9 = stablehlo.reshape %arg0 : (tensor<1024xf32>) -> tensor<1x1x1024xf32> loc(#loc795)
    %10 = stablehlo.custom_call @tt.mark_argument(%9) {api_version = 0 : i32, mhlo.frontend_attributes = {ttcore.argument_type = "parameter", ttir.name = "L__self___bracket_core_state_proj.bias"}} : (tensor<1x1x1024xf32>) -> tensor<1x1x1024xf32> loc(#loc796)
    %11 = stablehlo.reshape %10 : (tensor<1x1x1024xf32>) -> tensor<1x1024xf32> loc(#loc797)
    %12 = stablehlo.add %8, %11 : tensor<1x1024xf32> loc(#loc798)
    %13 = stablehlo.reshape %12 : (tensor<1x1024xf32>) -> tensor<1x1x1024xf32> loc(#loc799)
    %14 = stablehlo.reshape %0 : (tensor<1x50x32xf32>) -> tensor<50x32xf32> loc(#loc800)
    %15 = stablehlo.reshape %arg3 : (tensor<1024x32xf32>) -> tensor<1x1024x32xf32> loc(#loc801)
    %16 = stablehlo.custom_call @tt.mark_argument(%15) {api_version = 0 : i32, mhlo.frontend_attributes = {ttcore.argument_type = "parameter", ttir.name = "L__self___bracket_core_action_in_proj.weight"}} : (tensor<1x1024x32xf32>) -> tensor<1x1024x32xf32> loc(#loc802)
    %17 = stablehlo.reshape %16 : (tensor<1x1024x32xf32>) -> tensor<1024x32xf32> loc(#loc803)
    %18 = stablehlo.transpose %17, dims = [1, 0] {result_layout = dense<[0, 1]> : tensor<2xindex>, xla_shape = "f32[32,1024]{0,1}"} : (tensor<1024x32xf32>) -> tensor<32x1024xf32> loc(#loc804)
    %19 = stablehlo.dot_general %14, %18, contracting_dims = [1] x [0] : (tensor<50x32xf32>, tensor<32x1024xf32>) -> tensor<50x1024xf32> loc(#loc805)
    %20 = stablehlo.reshape %19 : (tensor<50x1024xf32>) -> tensor<1x50x1024xf32> loc(#loc806)
    %21 = stablehlo.reshape %arg119 : (tensor<1024xf32>) -> tensor<1x1x1024xf32> loc(#loc807)
    %22 = stablehlo.custom_call @tt.mark_argument(%21) {api_version = 0 : i32, mhlo.frontend_attributes = {ttcore.argument_type = "parameter", ttir.name = "L__self___bracket_core_action_in_proj.bias"}} : (tensor<1x1x1024xf32>) -> tensor<1x1x1024xf32> loc(#loc808)
    %23 = stablehlo.reshape %22 : (tensor<1x1x1024xf32>) -> tensor<1024xf32> loc(#loc809)
    %24 = stablehlo.broadcast_in_dim %23, dims = [2] : (tensor<1024xf32>) -> tensor<1x50x1024xf32> loc(#loc810)
    %25 = stablehlo.add %20, %24 : tensor<1x50x1024xf32> loc(#loc811)
    %26 = stablehlo.select %c_23, %cst_22, %cst_21 : tensor<512xi1>, tensor<512xf64> loc(#loc812)
    %27 = stablehlo.power %cst_24, %26 : tensor<512xf64> loc(#loc813)
    %28 = stablehlo.multiply %27, %cst_20 : tensor<512xf64> loc(#loc814)
    %29 = stablehlo.divide %cst_25, %28 : tensor<512xf64> loc(#loc815)
    %30 = stablehlo.multiply %29, %cst_19 : tensor<512xf64> loc(#loc816)
    %31 = stablehlo.multiply %30, %cst_18 : tensor<512xf64> loc(#loc817)
    %32 = stablehlo.reshape %31 : (tensor<512xf64>) -> tensor<1x512xf64> loc(#loc818)
    %33 = stablehlo.sine %32 : tensor<1x512xf64> loc(#loc819)
    %34 = stablehlo.cosine %32 : tensor<1x512xf64> loc(#loc820)
    %35 = stablehlo.concatenate %33, %34, dim = 1 : (tensor<1x512xf64>, tensor<1x512xf64>) -> tensor<1x1024xf64> loc(#loc821)
    %36 = stablehlo.convert %35 : (tensor<1x1024xf64>) -> tensor<1x1024xf32> loc(#loc822)
    %37 = stablehlo.broadcast_in_dim %36, dims = [0, 2] : (tensor<1x1024xf32>) -> tensor<1x50x1024xf32> loc(#loc823)
    %38 = stablehlo.concatenate %25, %37, dim = 2 : (tensor<1x50x1024xf32>, tensor<1x50x1024xf32>) -> tensor<1x50x2048xf32> loc(#loc824)
    %39 = stablehlo.reshape %38 : (tensor<1x50x2048xf32>) -> tensor<50x2048xf32> loc(#loc825)
    %40 = stablehlo.reshape %arg118 : (tensor<1024x2048xf32>) -> tensor<1x1024x2048xf32> loc(#loc826)
    %41 = stablehlo.custom_call @tt.mark_argument(%40) {api_version = 0 : i32, mhlo.frontend_attributes = {ttcore.argument_type = "parameter", ttir.name = "L__self___bracket_core_action_time_mlp_in.weight"}} : (tensor<1x1024x2048xf32>) -> tensor<1x1024x2048xf32> loc(#loc827)
    %42 = stablehlo.reshape %41 : (tensor<1x1024x2048xf32>) -> tensor<1024x2048xf32> loc(#loc828)
    %43 = stablehlo.transpose %42, dims = [1, 0] {result_layout = dense<[0, 1]> : tensor<2xindex>, xla_shape = "f32[2048,1024]{0,1}"} : (tensor<1024x2048xf32>) -> tensor<2048x1024xf32> loc(#loc829)
    %44 = stablehlo.dot_general %39, %43, contracting_dims = [1] x [0] : (tensor<50x2048xf32>, tensor<2048x1024xf32>) -> tensor<50x1024xf32> loc(#loc830)
    %45 = stablehlo.reshape %44 : (tensor<50x1024xf32>) -> tensor<1x50x1024xf32> loc(#loc831)
    %46 = stablehlo.reshape %arg117 : (tensor<1024xf32>) -> tensor<1x1x1024xf32> loc(#loc832)
    %47 = stablehlo.custom_call @tt.mark_argument(%46) {api_version = 0 : i32, mhlo.frontend_attributes = {ttcore.argument_type = "parameter", ttir.name = "L__self___bracket_core_action_time_mlp_in.bias"}} : (tensor<1x1x1024xf32>) -> tensor<1x1x1024xf32> loc(#loc833)
    %48 = stablehlo.reshape %47 : (tensor<1x1x1024xf32>) -> tensor<1024xf32> loc(#loc834)
    %49 = stablehlo.broadcast_in_dim %48, dims = [2] : (tensor<1024xf32>) -> tensor<1x50x1024xf32> loc(#loc835)
    %50 = stablehlo.add %45, %49 : tensor<1x50x1024xf32> loc(#loc836)
    %51 = stablehlo.logistic %50 : tensor<1x50x1024xf32> loc(#loc837)
    %52 = stablehlo.multiply %50, %51 : tensor<1x50x1024xf32> loc(#loc838)
    %53 = stablehlo.reshape %52 : (tensor<1x50x1024xf32>) -> tensor<50x1024xf32> loc(#loc839)
    %54 = stablehlo.reshape %arg116 : (tensor<1024x1024xf32>) -> tensor<1x1024x1024xf32> loc(#loc840)
    %55 = stablehlo.custom_call @tt.mark_argument(%54) {api_version = 0 : i32, mhlo.frontend_attributes = {ttcore.argument_type = "parameter", ttir.name = "L__self___bracket_core_action_time_mlp_out.weight"}} : (tensor<1x1024x1024xf32>) -> tensor<1x1024x1024xf32> loc(#loc841)
    %56 = stablehlo.reshape %55 : (tensor<1x1024x1024xf32>) -> tensor<1024x1024xf32> loc(#loc842)
    %57 = stablehlo.transpose %56, dims = [1, 0] {result_layout = dense<[0, 1]> : tensor<2xindex>, xla_shape = "f32[1024,1024]{0,1}"} : (tensor<1024x1024xf32>) -> tensor<1024x1024xf32> loc(#loc843)
    %58 = stablehlo.dot_general %53, %57, contracting_dims = [1] x [0] : (tensor<50x1024xf32>, tensor<1024x1024xf32>) -> tensor<50x1024xf32> loc(#loc844)
    %59 = stablehlo.reshape %58 : (tensor<50x1024xf32>) -> tensor<1x50x1024xf32> loc(#loc845)
    %60 = stablehlo.reshape %arg115 : (tensor<1024xf32>) -> tensor<1x1x1024xf32> loc(#loc846)
    %61 = stablehlo.custom_call @tt.mark_argument(%60) {api_version = 0 : i32, mhlo.frontend_attributes = {ttcore.argument_type = "parameter", ttir.name = "L__self___bracket_core_action_time_mlp_out.bias"}} : (tensor<1x1x1024xf32>) -> tensor<1x1x1024xf32> loc(#loc847)
    %62 = stablehlo.reshape %61 : (tensor<1x1x1024xf32>) -> tensor<1024xf32> loc(#loc848)
    %63 = stablehlo.broadcast_in_dim %62, dims = [2] : (tensor<1024xf32>) -> tensor<1x50x1024xf32> loc(#loc849)
    %64 = stablehlo.add %59, %63 : tensor<1x50x1024xf32> loc(#loc850)
    %65 = stablehlo.concatenate %13, %64, dim = 1 : (tensor<1x1x1024xf32>, tensor<1x50x1024xf32>) -> tensor<1x51x1024xf32> loc(#loc851)
    %66 = stablehlo.power %65, %cst_17 : tensor<1x51x1024xf32> loc(#loc852)
    %67 = stablehlo.reduce(%66 init: %cst_29) applies stablehlo.add across dimensions = [2] : (tensor<1x51x1024xf32>, tensor<f32>) -> tensor<1x51xf32> loc(#loc853)
    %68 = stablehlo.multiply %67, %cst_16 : tensor<1x51xf32> loc(#loc854)
    %69 = stablehlo.reshape %68 : (tensor<1x51xf32>) -> tensor<1x51x1xf32> loc(#loc855)
    %70 = stablehlo.add %69, %cst_15 : tensor<1x51x1xf32> loc(#loc856)
    %71 = stablehlo.rsqrt %70 : tensor<1x51x1xf32> loc(#loc857)
    %72 = stablehlo.reshape %71 : (tensor<1x51x1xf32>) -> tensor<1x51xf32> loc(#loc858)
    %73 = stablehlo.broadcast_in_dim %72, dims = [0, 1] : (tensor<1x51xf32>) -> tensor<1x51x1024xf32> loc(#loc859)
    %74 = stablehlo.multiply %65, %73 : tensor<1x51x1024xf32> loc(#loc860)
    %75 = stablehlo.reshape %arg114 : (tensor<1024xf32>) -> tensor<1x1x1024xf32> loc(#loc861)
    %76 = stablehlo.custom_call @tt.mark_argument(%75) {api_version = 0 : i32, mhlo.frontend_attributes = {ttcore.argument_type = "parameter", ttir.name = "L__self___bracket_core_paligemma_with_expert_gemma_expert_model_layers_0_input_layernorm_weight"}} : (tensor<1x1x1024xf32>) -> tensor<1x1x1024xf32> loc(#loc862)
    %77 = stablehlo.reshape %76 : (tensor<1x1x1024xf32>) -> tensor<1024xf32> loc(#loc863)
    %78 = stablehlo.add %77, %cst_14 : tensor<1024xf32> loc(#loc864)
    %79 = stablehlo.broadcast_in_dim %78, dims = [2] : (tensor<1024xf32>) -> tensor<1x51x1024xf32> loc(#loc865)
    %80 = stablehlo.multiply %74, %79 : tensor<1x51x1024xf32> loc(#loc866)
    %81 = stablehlo.reshape %80 : (tensor<1x51x1024xf32>) -> tensor<51x1024xf32> loc(#loc867)
    %82 = stablehlo.reshape %arg578 : (tensor<2048x1024xf32>) -> tensor<1x2048x1024xf32> loc(#loc868)
    %83 = stablehlo.custom_call @tt.mark_argument(%82) {api_version = 0 : i32, mhlo.frontend_attributes = {ttcore.argument_type = "parameter", ttir.name = "L__self___bracket_core_paligemma_with_expert_gemma_expert_model_layers_0_self_attn_q_proj.weight"}} : (tensor<1x2048x1024xf32>) -> tensor<1x2048x1024xf32> loc(#loc869)
    %84 = stablehlo.reshape %83 : (tensor<1x2048x1024xf32>) -> tensor<2048x1024xf32> loc(#loc870)
    %85 = stablehlo.transpose %84, dims = [1, 0] {result_layout = dense<[0, 1]> : tensor<2xindex>, xla_shape = "f32[1024,2048]{0,1}"} : (tensor<2048x1024xf32>) -> tensor<1024x2048xf32> loc(#loc871)
    %86 = stablehlo.dot_general %81, %85, contracting_dims = [1] x [0] : (tensor<51x1024xf32>, tensor<1024x2048xf32>) -> tensor<51x2048xf32> loc(#loc872)
    %87 = stablehlo.reshape %86 : (tensor<51x2048xf32>) -> tensor<1x51x8x256xf32> loc(#loc873)
    %88 = stablehlo.transpose %87, dims = [0, 2, 1, 3] {result_layout = dense<[3, 1, 2, 0]> : tensor<4xindex>, xla_shape = "f32[1,8,51,256]{3,1,2,0}"} : (tensor<1x51x8x256xf32>) -> tensor<1x8x51x256xf32> loc(#loc874)
    %89 = stablehlo.reshape %arg574 : (tensor<128xf32>) -> tensor<1x1x128xf32> loc(#loc875)
    %90 = stablehlo.custom_call @tt.mark_argument(%89) {api_version = 0 : i32, mhlo.frontend_attributes = {ttcore.argument_type = "constant", ttir.name = "L__self___bracket_core_paligemma_with_expert_gemma_expert_model_rotary_emb_inv_freq"}} : (tensor<1x1x128xf32>) -> tensor<1x1x128xf32> loc(#loc876)
    %91 = stablehlo.reshape %90 : (tensor<1x1x128xf32>) -> tensor<1x128x1xf32> loc(#loc877)
    %92 = stablehlo.reshape %arg573 : (tensor<1xi1>) -> tensor<1x1x1xi1> loc(#loc878)
    %93 = stablehlo.custom_call @tt.mark_argument(%92) {api_version = 0 : i32, mhlo.frontend_attributes = {ttcore.argument_type = "input", ttir.name = "args_2"}} : (tensor<1x1x1xi1>) -> tensor<1x1x1xi1> loc(#loc879)
    %94 = stablehlo.reshape %93 : (tensor<1x1x1xi1>) -> tensor<1xi1> loc(#loc880)
    %95 = stablehlo.broadcast_in_dim %94, dims = [0] : (tensor<1xi1>) -> tensor<1x256xi1> loc(#loc881)
    %96 = stablehlo.reshape %arg572 : (tensor<1xi1>) -> tensor<1x1x1xi1> loc(#loc882)
    %97 = stablehlo.custom_call @tt.mark_argument(%96) {api_version = 0 : i32, mhlo.frontend_attributes = {ttcore.argument_type = "input", ttir.name = "args_4"}} : (tensor<1x1x1xi1>) -> tensor<1x1x1xi1> loc(#loc883)
    %98 = stablehlo.reshape %97 : (tensor<1x1x1xi1>) -> tensor<1xi1> loc(#loc884)
    %99 = stablehlo.broadcast_in_dim %98, dims = [0] : (tensor<1xi1>) -> tensor<1x256xi1> loc(#loc885)
    %100 = stablehlo.reshape %arg571 : (tensor<1xi1>) -> tensor<1x1x1xi1> loc(#loc886)
    %101 = stablehlo.custom_call @tt.mark_argument(%100) {api_version = 0 : i32, mhlo.frontend_attributes = {ttcore.argument_type = "input", ttir.name = "args_6"}} : (tensor<1x1x1xi1>) -> tensor<1x1x1xi1> loc(#loc887)
    %102 = stablehlo.reshape %101 : (tensor<1x1x1xi1>) -> tensor<1xi1> loc(#loc888)
    %103 = stablehlo.broadcast_in_dim %102, dims = [0] : (tensor<1xi1>) -> tensor<1x256xi1> loc(#loc889)
    %104 = stablehlo.reshape %arg570 : (tensor<1x48xi1>) -> tensor<1x1x48xi1> loc(#loc890)
    %105 = stablehlo.custom_call @tt.mark_argument(%104) {api_version = 0 : i32, mhlo.frontend_attributes = {ttcore.argument_type = "input", ttir.name = "args_8"}} : (tensor<1x1x48xi1>) -> tensor<1x1x48xi1> loc(#loc891)
    %106 = stablehlo.reshape %105 : (tensor<1x1x48xi1>) -> tensor<1x48xi1> loc(#loc892)
    %107 = stablehlo.concatenate %95, %99, %103, %106, dim = 1 : (tensor<1x256xi1>, tensor<1x256xi1>, tensor<1x256xi1>, tensor<1x48xi1>) -> tensor<1x816xi1> loc(#loc893)
    %108 = stablehlo.convert %107 : (tensor<1x816xi1>) -> tensor<1x816xi64> loc(#loc894)
    %109 = stablehlo.reduce(%108 init: %c_28) applies stablehlo.add across dimensions = [1] : (tensor<1x816xi64>, tensor<i64>) -> tensor<1xi64> loc(#loc895)
    %110 = stablehlo.broadcast_in_dim %109, dims = [0] : (tensor<1xi64>) -> tensor<1x51xi64> loc(#loc896)
    %111 = stablehlo.reshape %arg568 : (tensor<i1>) -> tensor<1x1xi1> loc(#loc897)
    %112 = stablehlo.reshape %arg568 : (tensor<i1>) -> tensor<1xi1> loc(#loc898)
    %113 = stablehlo.broadcast_in_dim %112, dims = [0] : (tensor<1xi1>) -> tensor<1x50xi1> loc(#loc899)
    %114 = stablehlo.concatenate %111, %113, dim = 1 : (tensor<1x1xi1>, tensor<1x50xi1>) -> tensor<1x51xi1> loc(#loc900)
    %115 = stablehlo.convert %114 : (tensor<1x51xi1>) -> tensor<1x51xi64> loc(#loc901)
    %116 = "stablehlo.reduce_window"(%115, %c_28) <{padding = dense<[[0, 0], [50, 0]]> : tensor<2x2xi64>, window_dimensions = array<i64: 1, 51>}> ({
    ^bb0(%arg785: tensor<i64> loc("reduce-window.25980"), %arg786: tensor<i64> loc("reduce-window.25980")):
      %9449 = stablehlo.add %arg785, %arg786 : tensor<i64> loc(#loc903)
      stablehlo.return %9449 : tensor<i64> loc(#loc)
    }) : (tensor<1x51xi64>, tensor<i64>) -> tensor<1x51xi64> loc(#loc902)
    %117 = stablehlo.add %110, %116 : tensor<1x51xi64> loc(#loc904)
    %118 = stablehlo.subtract %117, %c_13 : tensor<1x51xi64> loc(#loc905)
    %119 = stablehlo.reshape %118 : (tensor<1x51xi64>) -> tensor<1x1x51xi64> loc(#loc906)
    %120 = stablehlo.convert %119 : (tensor<1x1x51xi64>) -> tensor<1x1x51xf32> loc(#loc907)
    %121 = stablehlo.dot_general %91, %120, batching_dims = [0] x [0], contracting_dims = [2] x [1] : (tensor<1x128x1xf32>, tensor<1x1x51xf32>) -> tensor<1x128x51xf32> loc(#loc908)
    %122 = stablehlo.transpose %121, dims = [0, 2, 1] {result_layout = dense<[1, 2, 0]> : tensor<3xindex>, xla_shape = "f32[1,51,128]{1,2,0}"} : (tensor<1x128x51xf32>) -> tensor<1x51x128xf32> loc(#loc909)
    %123 = stablehlo.concatenate %122, %122, dim = 2 : (tensor<1x51x128xf32>, tensor<1x51x128xf32>) -> tensor<1x51x256xf32> loc(#loc910)
    %124 = stablehlo.cosine %123 : tensor<1x51x256xf32> loc(#loc911)
    %125 = stablehlo.reshape %124 : (tensor<1x51x256xf32>) -> tensor<1x1x51x256xf32> loc(#loc912)
    %126 = stablehlo.broadcast_in_dim %124, dims = [0, 2, 3] : (tensor<1x51x256xf32>) -> tensor<1x8x51x256xf32> loc(#loc913)
    %127 = stablehlo.multiply %88, %126 : tensor<1x8x51x256xf32> loc(#loc914)
    %128 = stablehlo.slice %88 [0:1, 0:8, 0:51, 128:256] : (tensor<1x8x51x256xf32>) -> tensor<1x8x51x128xf32> loc(#loc915)
    %129 = stablehlo.negate %128 : tensor<1x8x51x128xf32> loc(#loc916)
    %130 = stablehlo.slice %88 [0:1, 0:8, 0:51, 0:128] : (tensor<1x8x51x256xf32>) -> tensor<1x8x51x128xf32> loc(#loc917)
    %131 = stablehlo.concatenate %129, %130, dim = 3 : (tensor<1x8x51x128xf32>, tensor<1x8x51x128xf32>) -> tensor<1x8x51x256xf32> loc(#loc918)
    %132 = stablehlo.sine %123 : tensor<1x51x256xf32> loc(#loc919)
    %133 = stablehlo.reshape %132 : (tensor<1x51x256xf32>) -> tensor<1x1x51x256xf32> loc(#loc920)
    %134 = stablehlo.broadcast_in_dim %132, dims = [0, 2, 3] : (tensor<1x51x256xf32>) -> tensor<1x8x51x256xf32> loc(#loc921)
    %135 = stablehlo.multiply %131, %134 : tensor<1x8x51x256xf32> loc(#loc922)
    %136 = stablehlo.add %127, %135 : tensor<1x8x51x256xf32> loc(#loc923)
    %137 = stablehlo.custom_call @tt.mark_argument(%arg567) {api_version = 0 : i32, mhlo.frontend_attributes = {ttcore.argument_type = "input", ttir.name = "args_1"}} : (tensor<1x3x224x224xf32>) -> tensor<1x3x224x224xf32> loc(#loc924)
    %138 = stablehlo.custom_call @tt.mark_argument(%arg456) {api_version = 0 : i32, mhlo.frontend_attributes = {ttcore.argument_type = "parameter", ttir.name = "L__self___bracket_core_paligemma_with_expert_paligemma_model_vision_tower_vision_model_embeddings_patch_embedding.weight"}} : (tensor<1152x3x14x14xf32>) -> tensor<1152x3x14x14xf32> loc(#loc925)
    %139 = stablehlo.convolution(%137, %138) dim_numbers = [b, f, 0, 1]x[o, i, 0, 1]->[b, f, 0, 1], window = {stride = [14, 14]} {batch_group_count = 1 : i64, feature_group_count = 1 : i64} : (tensor<1x3x224x224xf32>, tensor<1152x3x14x14xf32>) -> tensor<1x1152x16x16xf32> loc(#loc926)
    %140 = stablehlo.reshape %arg455 : (tensor<1152xf32>) -> tensor<1x1x1152xf32> loc(#loc927)
    %141 = stablehlo.custom_call @tt.mark_argument(%140) {api_version = 0 : i32, mhlo.frontend_attributes = {ttcore.argument_type = "parameter", ttir.name = "L__self___bracket_core_paligemma_with_expert_paligemma_model_vision_tower_vision_model_embeddings_patch_embedding.bias"}} : (tensor<1x1x1152xf32>) -> tensor<1x1x1152xf32> loc(#loc928)
    %142 = stablehlo.reshape %141 : (tensor<1x1x1152xf32>) -> tensor<1152xf32> loc(#loc929)
    %143 = stablehlo.broadcast_in_dim %142, dims = [1] : (tensor<1152xf32>) -> tensor<1x1152x16x16xf32> loc(#loc930)
    %144 = stablehlo.add %139, %143 : tensor<1x1152x16x16xf32> loc(#loc931)
    %145 = stablehlo.reshape %144 : (tensor<1x1152x16x16xf32>) -> tensor<1x1152x256xf32> loc(#loc932)
    %146 = stablehlo.transpose %145, dims = [0, 2, 1] {result_layout = dense<[1, 2, 0]> : tensor<3xindex>, xla_shape = "f32[1,256,1152]{1,2,0}"} : (tensor<1x1152x256xf32>) -> tensor<1x256x1152xf32> loc(#loc933)
    %147 = stablehlo.reshape %arg454 : (tensor<256x1152xf32>) -> tensor<1x256x1152xf32> loc(#loc934)
    %148 = stablehlo.custom_call @tt.mark_argument(%147) {api_version = 0 : i32, mhlo.frontend_attributes = {ttcore.argument_type = "parameter", ttir.name = "L__self___bracket_core_paligemma_with_expert_paligemma_model_vision_tower_vision_model_embeddings_position_embedding.weight"}} : (tensor<1x256x1152xf32>) -> tensor<1x256x1152xf32> loc(#loc935)
    %149 = stablehlo.reshape %148 : (tensor<1x256x1152xf32>) -> tensor<256x1152xf32> loc(#loc936)
    %150 = stablehlo.reshape %arg453 : (tensor<1x256xi64>) -> tensor<1x1x256xi64> loc(#loc937)
    %151 = stablehlo.custom_call @tt.mark_argument(%150) {api_version = 0 : i32, mhlo.frontend_attributes = {ttcore.argument_type = "constant", ttir.name = "L__self___bracket_core_paligemma_with_expert_paligemma_model_vision_tower_vision_model_embeddings_position_ids"}} : (tensor<1x1x256xi64>) -> tensor<1x1x256xi64> loc(#loc938)
    %152 = stablehlo.reshape %151 : (tensor<1x1x256xi64>) -> tensor<256xi64> loc(#loc939)
    %153 = stablehlo.convert %152 : (tensor<256xi64>) -> tensor<256xui32> loc(#loc940)
    %154 = "stablehlo.gather"(%149, %153) <{dimension_numbers = #stablehlo.gather<offset_dims = [1], collapsed_slice_dims = [0], start_index_map = [0], index_vector_dim = 1>, slice_sizes = array<i64: 1, 1152>}> : (tensor<256x1152xf32>, tensor<256xui32>) -> tensor<256x1152xf32> loc(#loc941)
    %155 = stablehlo.reshape %154 : (tensor<256x1152xf32>) -> tensor<1x256x1152xf32> loc(#loc942)
    %156 = stablehlo.add %146, %155 {result_layout = dense<[1, 2, 0]> : tensor<3xindex>, xla_shape = "f32[1,256,1152]{1,2,0}"} : tensor<1x256x1152xf32> loc(#loc943)
    %157 = stablehlo.reshape %arg452 : (tensor<1152xf32>) -> tensor<1x1x1152xf32> loc(#loc944)
    %158 = stablehlo.custom_call @tt.mark_argument(%157) {api_version = 0 : i32, mhlo.frontend_attributes = {ttcore.argument_type = "parameter", ttir.name = "L__self___bracket_core_paligemma_with_expert_paligemma_model_vision_tower_vision_model_encoder_layers_0_layer_norm1.weight"}} : (tensor<1x1x1152xf32>) -> tensor<1x1x1152xf32> loc(#loc945)
    %159 = stablehlo.reshape %158 : (tensor<1x1x1152xf32>) -> tensor<1152xf32> loc(#loc946)
    %160 = stablehlo.reshape %arg451 : (tensor<1152xf32>) -> tensor<1x1x1152xf32> loc(#loc947)
    %161 = stablehlo.custom_call @tt.mark_argument(%160) {api_version = 0 : i32, mhlo.frontend_attributes = {ttcore.argument_type = "parameter", ttir.name = "L__self___bracket_core_paligemma_with_expert_paligemma_model_vision_tower_vision_model_encoder_layers_0_layer_norm1.bias"}} : (tensor<1x1x1152xf32>) -> tensor<1x1x1152xf32> loc(#loc948)
    %162 = stablehlo.reshape %161 : (tensor<1x1x1152xf32>) -> tensor<1152xf32> loc(#loc949)
    %163 = stablehlo.composite "tenstorrent.layer_norm" %156, %159, %162 {composite_attributes = {epsilon = 9.99999997E-7 : f32, normalized_shape = dense<1152> : tensor<1xi64>}, decomposition = @tenstorrent.layer_norm.impl_52} : (tensor<1x256x1152xf32>, tensor<1152xf32>, tensor<1152xf32>) -> tensor<1x256x1152xf32> loc(#loc950)
    %164 = stablehlo.reshape %163 : (tensor<1x256x1152xf32>) -> tensor<256x1152xf32> loc(#loc951)
    %165 = stablehlo.reshape %arg461 : (tensor<1152x1152xf32>) -> tensor<1x1152x1152xf32> loc(#loc952)
    %166 = stablehlo.custom_call @tt.mark_argument(%165) {api_version = 0 : i32, mhlo.frontend_attributes = {ttcore.argument_type = "parameter", ttir.name = "L__self___bracket_core_paligemma_with_expert_paligemma_model_vision_tower_vision_model_encoder_layers_0_self_attn_q_proj.weight"}} : (tensor<1x1152x1152xf32>) -> tensor<1x1152x1152xf32> loc(#loc953)
    %167 = stablehlo.reshape %166 : (tensor<1x1152x1152xf32>) -> tensor<1152x1152xf32> loc(#loc954)
    %168 = stablehlo.transpose %167, dims = [1, 0] {result_layout = dense<[0, 1]> : tensor<2xindex>, xla_shape = "f32[1152,1152]{0,1}"} : (tensor<1152x1152xf32>) -> tensor<1152x1152xf32> loc(#loc955)
    %169 = stablehlo.dot_general %164, %168, contracting_dims = [1] x [0] : (tensor<256x1152xf32>, tensor<1152x1152xf32>) -> tensor<256x1152xf32> loc(#loc956)
    %170 = stablehlo.reshape %169 : (tensor<256x1152xf32>) -> tensor<1x256x1152xf32> loc(#loc957)
    %171 = stablehlo.reshape %arg460 : (tensor<1152xf32>) -> tensor<1x1x1152xf32> loc(#loc958)
    %172 = stablehlo.custom_call @tt.mark_argument(%171) {api_version = 0 : i32, mhlo.frontend_attributes = {ttcore.argument_type = "parameter", ttir.name = "L__self___bracket_core_paligemma_with_expert_paligemma_model_vision_tower_vision_model_encoder_layers_0_self_attn_q_proj.bias"}} : (tensor<1x1x1152xf32>) -> tensor<1x1x1152xf32> loc(#loc959)
    %173 = stablehlo.reshape %172 : (tensor<1x1x1152xf32>) -> tensor<1152xf32> loc(#loc960)
    %174 = stablehlo.broadcast_in_dim %173, dims = [2] : (tensor<1152xf32>) -> tensor<1x256x1152xf32> loc(#loc961)
    %175 = stablehlo.add %170, %174 : tensor<1x256x1152xf32> loc(#loc962)
    %176 = stablehlo.reshape %175 : (tensor<1x256x1152xf32>) -> tensor<1x256x16x72xf32> loc(#loc963)
    %177 = stablehlo.transpose %176, dims = [0, 2, 1, 3] {result_layout = dense<[3, 1, 2, 0]> : tensor<4xindex>, xla_shape = "f32[1,16,256,72]{3,1,2,0}"} : (tensor<1x256x16x72xf32>) -> tensor<1x16x256x72xf32> loc(#loc964)
    %178 = stablehlo.reshape %arg459 : (tensor<1152x1152xf32>) -> tensor<1x1152x1152xf32> loc(#loc965)
    %179 = stablehlo.custom_call @tt.mark_argument(%178) {api_version = 0 : i32, mhlo.frontend_attributes = {ttcore.argument_type = "parameter", ttir.name = "L__self___bracket_core_paligemma_with_expert_paligemma_model_vision_tower_vision_model_encoder_layers_0_self_attn_k_proj.weight"}} : (tensor<1x1152x1152xf32>) -> tensor<1x1152x1152xf32> loc(#loc966)
    %180 = stablehlo.reshape %179 : (tensor<1x1152x1152xf32>) -> tensor<1152x1152xf32> loc(#loc967)
    %181 = stablehlo.transpose %180, dims = [1, 0] {result_layout = dense<[0, 1]> : tensor<2xindex>, xla_shape = "f32[1152,1152]{0,1}"} : (tensor<1152x1152xf32>) -> tensor<1152x1152xf32> loc(#loc968)
    %182 = stablehlo.dot_general %164, %181, contracting_dims = [1] x [0] : (tensor<256x1152xf32>, tensor<1152x1152xf32>) -> tensor<256x1152xf32> loc(#loc969)
    %183 = stablehlo.reshape %182 : (tensor<256x1152xf32>) -> tensor<1x256x1152xf32> loc(#loc970)
    %184 = stablehlo.reshape %arg458 : (tensor<1152xf32>) -> tensor<1x1x1152xf32> loc(#loc971)
    %185 = stablehlo.custom_call @tt.mark_argument(%184) {api_version = 0 : i32, mhlo.frontend_attributes = {ttcore.argument_type = "parameter", ttir.name = "L__self___bracket_core_paligemma_with_expert_paligemma_model_vision_tower_vision_model_encoder_layers_0_self_attn_k_proj.bias"}} : (tensor<1x1x1152xf32>) -> tensor<1x1x1152xf32> loc(#loc972)
    %186 = stablehlo.reshape %185 : (tensor<1x1x1152xf32>) -> tensor<1152xf32> loc(#loc973)
    %187 = stablehlo.broadcast_in_dim %186, dims = [2] : (tensor<1152xf32>) -> tensor<1x256x1152xf32> loc(#loc974)
    %188 = stablehlo.add %183, %187 : tensor<1x256x1152xf32> loc(#loc975)
    %189 = stablehlo.reshape %188 : (tensor<1x256x1152xf32>) -> tensor<1x256x16x72xf32> loc(#loc976)
    %190 = stablehlo.transpose %189, dims = [0, 2, 3, 1] : (tensor<1x256x16x72xf32>) -> tensor<1x16x72x256xf32> loc(#loc977)
    %191 = stablehlo.dot_general %177, %190, batching_dims = [0, 1] x [0, 1], contracting_dims = [3] x [2] {mhlo.frontend_attributes = {grad_x = "false", grad_y = "false"}} : (tensor<1x16x256x72xf32>, tensor<1x16x72x256xf32>) -> tensor<1x16x256x256xf32> loc(#loc978)
    %192 = stablehlo.multiply %191, %cst_12 : tensor<1x16x256x256xf32> loc(#loc979)
    %193 = stablehlo.reduce(%192 init: %cst_27) applies stablehlo.maximum across dimensions = [3] : (tensor<1x16x256x256xf32>, tensor<f32>) -> tensor<1x16x256xf32> loc(#loc980)
    %194 = stablehlo.broadcast_in_dim %193, dims = [0, 1, 2] : (tensor<1x16x256xf32>) -> tensor<1x16x256x256xf32> loc(#loc981)
    %195 = stablehlo.subtract %192, %194 : tensor<1x16x256x256xf32> loc(#loc982)
    %196 = stablehlo.exponential %195 : tensor<1x16x256x256xf32> loc(#loc983)
    %197 = stablehlo.reduce(%196 init: %cst_29) applies stablehlo.add across dimensions = [3] : (tensor<1x16x256x256xf32>, tensor<f32>) -> tensor<1x16x256xf32> loc(#loc984)
    %198 = stablehlo.broadcast_in_dim %197, dims = [0, 1, 2] : (tensor<1x16x256xf32>) -> tensor<1x16x256x256xf32> loc(#loc985)
    %199 = stablehlo.divide %196, %198 : tensor<1x16x256x256xf32> loc(#loc986)
    %200 = stablehlo.reshape %arg450 : (tensor<1152x1152xf32>) -> tensor<1x1152x1152xf32> loc(#loc987)
    %201 = stablehlo.custom_call @tt.mark_argument(%200) {api_version = 0 : i32, mhlo.frontend_attributes = {ttcore.argument_type = "parameter", ttir.name = "L__self___bracket_core_paligemma_with_expert_paligemma_model_vision_tower_vision_model_encoder_layers_0_self_attn_v_proj.weight"}} : (tensor<1x1152x1152xf32>) -> tensor<1x1152x1152xf32> loc(#loc988)
    %202 = stablehlo.reshape %201 : (tensor<1x1152x1152xf32>) -> tensor<1152x1152xf32> loc(#loc989)
    %203 = stablehlo.transpose %202, dims = [1, 0] {result_layout = dense<[0, 1]> : tensor<2xindex>, xla_shape = "f32[1152,1152]{0,1}"} : (tensor<1152x1152xf32>) -> tensor<1152x1152xf32> loc(#loc990)
    %204 = stablehlo.dot_general %164, %203, contracting_dims = [1] x [0] : (tensor<256x1152xf32>, tensor<1152x1152xf32>) -> tensor<256x1152xf32> loc(#loc991)
    %205 = stablehlo.reshape %204 : (tensor<256x1152xf32>) -> tensor<1x256x1152xf32> loc(#loc992)
    %206 = stablehlo.reshape %arg449 : (tensor<1152xf32>) -> tensor<1x1x1152xf32> loc(#loc993)
    %207 = stablehlo.custom_call @tt.mark_argument(%206) {api_version = 0 : i32, mhlo.frontend_attributes = {ttcore.argument_type = "parameter", ttir.name = "L__self___bracket_core_paligemma_with_expert_paligemma_model_vision_tower_vision_model_encoder_layers_0_self_attn_v_proj.bias"}} : (tensor<1x1x1152xf32>) -> tensor<1x1x1152xf32> loc(#loc994)
    %208 = stablehlo.reshape %207 : (tensor<1x1x1152xf32>) -> tensor<1152xf32> loc(#loc995)
    %209 = stablehlo.broadcast_in_dim %208, dims = [2] : (tensor<1152xf32>) -> tensor<1x256x1152xf32> loc(#loc996)
    %210 = stablehlo.add %205, %209 : tensor<1x256x1152xf32> loc(#loc997)
    %211 = stablehlo.reshape %210 : (tensor<1x256x1152xf32>) -> tensor<1x256x16x72xf32> loc(#loc998)
    %212 = stablehlo.transpose %211, dims = [0, 2, 1, 3] {result_layout = dense<[3, 1, 2, 0]> : tensor<4xindex>, xla_shape = "f32[1,16,256,72]{3,1,2,0}"} : (tensor<1x256x16x72xf32>) -> tensor<1x16x256x72xf32> loc(#loc999)
    %213 = stablehlo.dot_general %199, %212, batching_dims = [0, 1] x [0, 1], contracting_dims = [3] x [2] {mhlo.frontend_attributes = {grad_x = "false", grad_y = "false"}} : (tensor<1x16x256x256xf32>, tensor<1x16x256x72xf32>) -> tensor<1x16x256x72xf32> loc(#loc1000)
    %214 = stablehlo.transpose %213, dims = [0, 2, 1, 3] {result_layout = dense<[3, 1, 2, 0]> : tensor<4xindex>, xla_shape = "f32[1,256,16,72]{3,1,2,0}"} : (tensor<1x16x256x72xf32>) -> tensor<1x256x16x72xf32> loc(#loc1001)
    %215 = stablehlo.reshape %214 : (tensor<1x256x16x72xf32>) -> tensor<256x1152xf32> loc(#loc1002)
    %216 = stablehlo.reshape %arg448 : (tensor<1152x1152xf32>) -> tensor<1x1152x1152xf32> loc(#loc1003)
    %217 = stablehlo.custom_call @tt.mark_argument(%216) {api_version = 0 : i32, mhlo.frontend_attributes = {ttcore.argument_type = "parameter", ttir.name = "L__self___bracket_core_paligemma_with_expert_paligemma_model_vision_tower_vision_model_encoder_layers_0_self_attn_out_proj.weight"}} : (tensor<1x1152x1152xf32>) -> tensor<1x1152x1152xf32> loc(#loc1004)
    %218 = stablehlo.reshape %217 : (tensor<1x1152x1152xf32>) -> tensor<1152x1152xf32> loc(#loc1005)
    %219 = stablehlo.transpose %218, dims = [1, 0] {result_layout = dense<[0, 1]> : tensor<2xindex>, xla_shape = "f32[1152,1152]{0,1}"} : (tensor<1152x1152xf32>) -> tensor<1152x1152xf32> loc(#loc1006)
    %220 = stablehlo.dot_general %215, %219, contracting_dims = [1] x [0] : (tensor<256x1152xf32>, tensor<1152x1152xf32>) -> tensor<256x1152xf32> loc(#loc1007)
    %221 = stablehlo.reshape %220 : (tensor<256x1152xf32>) -> tensor<1x256x1152xf32> loc(#loc1008)
    %222 = stablehlo.reshape %arg447 : (tensor<1152xf32>) -> tensor<1x1x1152xf32> loc(#loc1009)
    %223 = stablehlo.custom_call @tt.mark_argument(%222) {api_version = 0 : i32, mhlo.frontend_attributes = {ttcore.argument_type = "parameter", ttir.name = "L__self___bracket_core_paligemma_with_expert_paligemma_model_vision_tower_vision_model_encoder_layers_0_self_attn_out_proj.bias"}} : (tensor<1x1x1152xf32>) -> tensor<1x1x1152xf32> loc(#loc1010)
    %224 = stablehlo.reshape %223 : (tensor<1x1x1152xf32>) -> tensor<1152xf32> loc(#loc1011)
    %225 = stablehlo.broadcast_in_dim %224, dims = [2] : (tensor<1152xf32>) -> tensor<1x256x1152xf32> loc(#loc1012)
    %226 = stablehlo.add %221, %225 : tensor<1x256x1152xf32> loc(#loc1013)
    %227 = stablehlo.add %156, %226 {result_layout = dense<[1, 2, 0]> : tensor<3xindex>, xla_shape = "f32[1,256,1152]{1,2,0}"} : tensor<1x256x1152xf32> loc(#loc1014)
    %228 = stablehlo.reshape %arg446 : (tensor<1152xf32>) -> tensor<1x1x1152xf32> loc(#loc1015)
    %229 = stablehlo.custom_call @tt.mark_argument(%228) {api_version = 0 : i32, mhlo.frontend_attributes = {ttcore.argument_type = "parameter", ttir.name = "L__self___bracket_core_paligemma_with_expert_paligemma_model_vision_tower_vision_model_encoder_layers_0_layer_norm2.weight"}} : (tensor<1x1x1152xf32>) -> tensor<1x1x1152xf32> loc(#loc1016)
    %230 = stablehlo.reshape %229 : (tensor<1x1x1152xf32>) -> tensor<1152xf32> loc(#loc1017)
    %231 = stablehlo.reshape %arg445 : (tensor<1152xf32>) -> tensor<1x1x1152xf32> loc(#loc1018)
    %232 = stablehlo.custom_call @tt.mark_argument(%231) {api_version = 0 : i32, mhlo.frontend_attributes = {ttcore.argument_type = "parameter", ttir.name = "L__self___bracket_core_paligemma_with_expert_paligemma_model_vision_tower_vision_model_encoder_layers_0_layer_norm2.bias"}} : (tensor<1x1x1152xf32>) -> tensor<1x1x1152xf32> loc(#loc1019)
    %233 = stablehlo.reshape %232 : (tensor<1x1x1152xf32>) -> tensor<1152xf32> loc(#loc1020)
    %234 = stablehlo.composite "tenstorrent.layer_norm" %227, %230, %233 {composite_attributes = {epsilon = 9.99999997E-7 : f32, normalized_shape = dense<1152> : tensor<1xi64>}, decomposition = @tenstorrent.layer_norm.impl_56} : (tensor<1x256x1152xf32>, tensor<1152xf32>, tensor<1152xf32>) -> tensor<1x256x1152xf32> loc(#loc1021)
    %235 = stablehlo.reshape %234 : (tensor<1x256x1152xf32>) -> tensor<256x1152xf32> loc(#loc1022)
    %236 = stablehlo.reshape %arg444 : (tensor<4304x1152xf32>) -> tensor<1x4304x1152xf32> loc(#loc1023)
    %237 = stablehlo.custom_call @tt.mark_argument(%236) {api_version = 0 : i32, mhlo.frontend_attributes = {ttcore.argument_type = "parameter", ttir.name = "L__self___bracket_core_paligemma_with_expert_paligemma_model_vision_tower_vision_model_encoder_layers_0_mlp_fc1.weight"}} : (tensor<1x4304x1152xf32>) -> tensor<1x4304x1152xf32> loc(#loc1024)
    %238 = stablehlo.reshape %237 : (tensor<1x4304x1152xf32>) -> tensor<4304x1152xf32> loc(#loc1025)
    %239 = stablehlo.transpose %238, dims = [1, 0] {result_layout = dense<[0, 1]> : tensor<2xindex>, xla_shape = "f32[1152,4304]{0,1}"} : (tensor<4304x1152xf32>) -> tensor<1152x4304xf32> loc(#loc1026)
    %240 = stablehlo.dot_general %235, %239, contracting_dims = [1] x [0] : (tensor<256x1152xf32>, tensor<1152x4304xf32>) -> tensor<256x4304xf32> loc(#loc1027)
    %241 = stablehlo.reshape %240 : (tensor<256x4304xf32>) -> tensor<1x256x4304xf32> loc(#loc1028)
    %242 = stablehlo.reshape %arg443 : (tensor<4304xf32>) -> tensor<1x1x4304xf32> loc(#loc1029)
    %243 = stablehlo.custom_call @tt.mark_argument(%242) {api_version = 0 : i32, mhlo.frontend_attributes = {ttcore.argument_type = "parameter", ttir.name = "L__self___bracket_core_paligemma_with_expert_paligemma_model_vision_tower_vision_model_encoder_layers_0_mlp_fc1.bias"}} : (tensor<1x1x4304xf32>) -> tensor<1x1x4304xf32> loc(#loc1030)
    %244 = stablehlo.reshape %243 : (tensor<1x1x4304xf32>) -> tensor<4304xf32> loc(#loc1031)
    %245 = stablehlo.broadcast_in_dim %244, dims = [2] : (tensor<4304xf32>) -> tensor<1x256x4304xf32> loc(#loc1032)
    %246 = stablehlo.add %241, %245 : tensor<1x256x4304xf32> loc(#loc1033)
    %247 = stablehlo.composite "tenstorrent.gelu_tanh" %246 {composite_attributes = {approximate = "tanh"}, decomposition = @tenstorrent.gelu_tanh.impl_72} : (tensor<1x256x4304xf32>) -> tensor<1x256x4304xf32> loc(#loc1034)
    %248 = stablehlo.reshape %247 : (tensor<1x256x4304xf32>) -> tensor<256x4304xf32> loc(#loc1035)
    %249 = stablehlo.reshape %arg442 : (tensor<1152x4304xf32>) -> tensor<1x1152x4304xf32> loc(#loc1036)
    %250 = stablehlo.custom_call @tt.mark_argument(%249) {api_version = 0 : i32, mhlo.frontend_attributes = {ttcore.argument_type = "parameter", ttir.name = "L__self___bracket_core_paligemma_with_expert_paligemma_model_vision_tower_vision_model_encoder_layers_0_mlp_fc2.weight"}} : (tensor<1x1152x4304xf32>) -> tensor<1x1152x4304xf32> loc(#loc1037)
    %251 = stablehlo.reshape %250 : (tensor<1x1152x4304xf32>) -> tensor<1152x4304xf32> loc(#loc1038)
    %252 = stablehlo.transpose %251, dims = [1, 0] {result_layout = dense<[0, 1]> : tensor<2xindex>, xla_shape = "f32[4304,1152]{0,1}"} : (tensor<1152x4304xf32>) -> tensor<4304x1152xf32> loc(#loc1039)
    %253 = stablehlo.dot_general %248, %252, contracting_dims = [1] x [0] : (tensor<256x4304xf32>, tensor<4304x1152xf32>) -> tensor<256x1152xf32> loc(#loc1040)
    %254 = stablehlo.reshape %253 : (tensor<256x1152xf32>) -> tensor<1x256x1152xf32> loc(#loc1041)
    %255 = stablehlo.reshape %arg441 : (tensor<1152xf32>) -> tensor<1x1x1152xf32> loc(#loc1042)
    %256 = stablehlo.custom_call @tt.mark_argument(%255) {api_version = 0 : i32, mhlo.frontend_attributes = {ttcore.argument_type = "parameter", ttir.name = "L__self___bracket_core_paligemma_with_expert_paligemma_model_vision_tower_vision_model_encoder_layers_0_mlp_fc2.bias"}} : (tensor<1x1x1152xf32>) -> tensor<1x1x1152xf32> loc(#loc1043)
    %257 = stablehlo.reshape %256 : (tensor<1x1x1152xf32>) -> tensor<1152xf32> loc(#loc1044)
    %258 = stablehlo.broadcast_in_dim %257, dims = [2] : (tensor<1152xf32>) -> tensor<1x256x1152xf32> loc(#loc1045)
    %259 = stablehlo.add %254, %258 : tensor<1x256x1152xf32> loc(#loc1046)
    %260 = stablehlo.add %227, %259 {result_layout = dense<[1, 2, 0]> : tensor<3xindex>, xla_shape = "f32[1,256,1152]{1,2,0}"} : tensor<1x256x1152xf32> loc(#loc1047)
    %261 = stablehlo.reshape %arg440 : (tensor<1152xf32>) -> tensor<1x1x1152xf32> loc(#loc1048)
    %262 = stablehlo.custom_call @tt.mark_argument(%261) {api_version = 0 : i32, mhlo.frontend_attributes = {ttcore.argument_type = "parameter", ttir.name = "L__self___bracket_core_paligemma_with_expert_paligemma_model_vision_tower_vision_model_encoder_layers_1_layer_norm1.weight"}} : (tensor<1x1x1152xf32>) -> tensor<1x1x1152xf32> loc(#loc1049)
    %263 = stablehlo.reshape %262 : (tensor<1x1x1152xf32>) -> tensor<1152xf32> loc(#loc1050)
    %264 = stablehlo.reshape %arg439 : (tensor<1152xf32>) -> tensor<1x1x1152xf32> loc(#loc1051)
    %265 = stablehlo.custom_call @tt.mark_argument(%264) {api_version = 0 : i32, mhlo.frontend_attributes = {ttcore.argument_type = "parameter", ttir.name = "L__self___bracket_core_paligemma_with_expert_paligemma_model_vision_tower_vision_model_encoder_layers_1_layer_norm1.bias"}} : (tensor<1x1x1152xf32>) -> tensor<1x1x1152xf32> loc(#loc1052)
    %266 = stablehlo.reshape %265 : (tensor<1x1x1152xf32>) -> tensor<1152xf32> loc(#loc1053)
    %267 = stablehlo.composite "tenstorrent.layer_norm" %260, %263, %266 {composite_attributes = {epsilon = 9.99999997E-7 : f32, normalized_shape = dense<1152> : tensor<1xi64>}, decomposition = @tenstorrent.layer_norm.impl_95} : (tensor<1x256x1152xf32>, tensor<1152xf32>, tensor<1152xf32>) -> tensor<1x256x1152xf32> loc(#loc1054)
    %268 = stablehlo.reshape %267 : (tensor<1x256x1152xf32>) -> tensor<256x1152xf32> loc(#loc1055)
    %269 = stablehlo.reshape %arg465 : (tensor<1152x1152xf32>) -> tensor<1x1152x1152xf32> loc(#loc1056)
    %270 = stablehlo.custom_call @tt.mark_argument(%269) {api_version = 0 : i32, mhlo.frontend_attributes = {ttcore.argument_type = "parameter", ttir.name = "L__self___bracket_core_paligemma_with_expert_paligemma_model_vision_tower_vision_model_encoder_layers_1_self_attn_q_proj.weight"}} : (tensor<1x1152x1152xf32>) -> tensor<1x1152x1152xf32> loc(#loc1057)
    %271 = stablehlo.reshape %270 : (tensor<1x1152x1152xf32>) -> tensor<1152x1152xf32> loc(#loc1058)
    %272 = stablehlo.transpose %271, dims = [1, 0] {result_layout = dense<[0, 1]> : tensor<2xindex>, xla_shape = "f32[1152,1152]{0,1}"} : (tensor<1152x1152xf32>) -> tensor<1152x1152xf32> loc(#loc1059)
    %273 = stablehlo.dot_general %268, %272, contracting_dims = [1] x [0] : (tensor<256x1152xf32>, tensor<1152x1152xf32>) -> tensor<256x1152xf32> loc(#loc1060)
    %274 = stablehlo.reshape %273 : (tensor<256x1152xf32>) -> tensor<1x256x1152xf32> loc(#loc1061)
    %275 = stablehlo.reshape %arg464 : (tensor<1152xf32>) -> tensor<1x1x1152xf32> loc(#loc1062)
    %276 = stablehlo.custom_call @tt.mark_argument(%275) {api_version = 0 : i32, mhlo.frontend_attributes = {ttcore.argument_type = "parameter", ttir.name = "L__self___bracket_core_paligemma_with_expert_paligemma_model_vision_tower_vision_model_encoder_layers_1_self_attn_q_proj.bias"}} : (tensor<1x1x1152xf32>) -> tensor<1x1x1152xf32> loc(#loc1063)
    %277 = stablehlo.reshape %276 : (tensor<1x1x1152xf32>) -> tensor<1152xf32> loc(#loc1064)
    %278 = stablehlo.broadcast_in_dim %277, dims = [2] : (tensor<1152xf32>) -> tensor<1x256x1152xf32> loc(#loc1065)
    %279 = stablehlo.add %274, %278 : tensor<1x256x1152xf32> loc(#loc1066)
    %280 = stablehlo.reshape %279 : (tensor<1x256x1152xf32>) -> tensor<1x256x16x72xf32> loc(#loc1067)
    %281 = stablehlo.transpose %280, dims = [0, 2, 1, 3] {result_layout = dense<[3, 1, 2, 0]> : tensor<4xindex>, xla_shape = "f32[1,16,256,72]{3,1,2,0}"} : (tensor<1x256x16x72xf32>) -> tensor<1x16x256x72xf32> loc(#loc1068)
    %282 = stablehlo.reshape %arg463 : (tensor<1152x1152xf32>) -> tensor<1x1152x1152xf32> loc(#loc1069)
    %283 = stablehlo.custom_call @tt.mark_argument(%282) {api_version = 0 : i32, mhlo.frontend_attributes = {ttcore.argument_type = "parameter", ttir.name = "L__self___bracket_core_paligemma_with_expert_paligemma_model_vision_tower_vision_model_encoder_layers_1_self_attn_k_proj.weight"}} : (tensor<1x1152x1152xf32>) -> tensor<1x1152x1152xf32> loc(#loc1070)
    %284 = stablehlo.reshape %283 : (tensor<1x1152x1152xf32>) -> tensor<1152x1152xf32> loc(#loc1071)
    %285 = stablehlo.transpose %284, dims = [1, 0] {result_layout = dense<[0, 1]> : tensor<2xindex>, xla_shape = "f32[1152,1152]{0,1}"} : (tensor<1152x1152xf32>) -> tensor<1152x1152xf32> loc(#loc1072)
    %286 = stablehlo.dot_general %268, %285, contracting_dims = [1] x [0] : (tensor<256x1152xf32>, tensor<1152x1152xf32>) -> tensor<256x1152xf32> loc(#loc1073)
    %287 = stablehlo.reshape %286 : (tensor<256x1152xf32>) -> tensor<1x256x1152xf32> loc(#loc1074)
    %288 = stablehlo.reshape %arg462 : (tensor<1152xf32>) -> tensor<1x1x1152xf32> loc(#loc1075)
    %289 = stablehlo.custom_call @tt.mark_argument(%288) {api_version = 0 : i32, mhlo.frontend_attributes = {ttcore.argument_type = "parameter", ttir.name = "L__self___bracket_core_paligemma_with_expert_paligemma_model_vision_tower_vision_model_encoder_layers_1_self_attn_k_proj.bias"}} : (tensor<1x1x1152xf32>) -> tensor<1x1x1152xf32> loc(#loc1076)
    %290 = stablehlo.reshape %289 : (tensor<1x1x1152xf32>) -> tensor<1152xf32> loc(#loc1077)
    %291 = stablehlo.broadcast_in_dim %290, dims = [2] : (tensor<1152xf32>) -> tensor<1x256x1152xf32> loc(#loc1078)
    %292 = stablehlo.add %287, %291 : tensor<1x256x1152xf32> loc(#loc1079)
    %293 = stablehlo.reshape %292 : (tensor<1x256x1152xf32>) -> tensor<1x256x16x72xf32> loc(#loc1080)
    %294 = stablehlo.transpose %293, dims = [0, 2, 3, 1] : (tensor<1x256x16x72xf32>) -> tensor<1x16x72x256xf32> loc(#loc1081)
    %295 = stablehlo.dot_general %281, %294, batching_dims = [0, 1] x [0, 1], contracting_dims = [3] x [2] {mhlo.frontend_attributes = {grad_x = "false", grad_y = "false"}} : (tensor<1x16x256x72xf32>, tensor<1x16x72x256xf32>) -> tensor<1x16x256x256xf32> loc(#loc1082)
    %296 = stablehlo.multiply %295, %cst_12 : tensor<1x16x256x256xf32> loc(#loc1083)
    %297 = stablehlo.reduce(%296 init: %cst_27) applies stablehlo.maximum across dimensions = [3] : (tensor<1x16x256x256xf32>, tensor<f32>) -> tensor<1x16x256xf32> loc(#loc1084)
    %298 = stablehlo.broadcast_in_dim %297, dims = [0, 1, 2] : (tensor<1x16x256xf32>) -> tensor<1x16x256x256xf32> loc(#loc1085)
    %299 = stablehlo.subtract %296, %298 : tensor<1x16x256x256xf32> loc(#loc1086)
    %300 = stablehlo.exponential %299 : tensor<1x16x256x256xf32> loc(#loc1087)
    %301 = stablehlo.reduce(%300 init: %cst_29) applies stablehlo.add across dimensions = [3] : (tensor<1x16x256x256xf32>, tensor<f32>) -> tensor<1x16x256xf32> loc(#loc1088)
    %302 = stablehlo.broadcast_in_dim %301, dims = [0, 1, 2] : (tensor<1x16x256xf32>) -> tensor<1x16x256x256xf32> loc(#loc1089)
    %303 = stablehlo.divide %300, %302 : tensor<1x16x256x256xf32> loc(#loc1090)
    %304 = stablehlo.reshape %arg438 : (tensor<1152x1152xf32>) -> tensor<1x1152x1152xf32> loc(#loc1091)
    %305 = stablehlo.custom_call @tt.mark_argument(%304) {api_version = 0 : i32, mhlo.frontend_attributes = {ttcore.argument_type = "parameter", ttir.name = "L__self___bracket_core_paligemma_with_expert_paligemma_model_vision_tower_vision_model_encoder_layers_1_self_attn_v_proj.weight"}} : (tensor<1x1152x1152xf32>) -> tensor<1x1152x1152xf32> loc(#loc1092)
    %306 = stablehlo.reshape %305 : (tensor<1x1152x1152xf32>) -> tensor<1152x1152xf32> loc(#loc1093)
    %307 = stablehlo.transpose %306, dims = [1, 0] {result_layout = dense<[0, 1]> : tensor<2xindex>, xla_shape = "f32[1152,1152]{0,1}"} : (tensor<1152x1152xf32>) -> tensor<1152x1152xf32> loc(#loc1094)
    %308 = stablehlo.dot_general %268, %307, contracting_dims = [1] x [0] : (tensor<256x1152xf32>, tensor<1152x1152xf32>) -> tensor<256x1152xf32> loc(#loc1095)
    %309 = stablehlo.reshape %308 : (tensor<256x1152xf32>) -> tensor<1x256x1152xf32> loc(#loc1096)
    %310 = stablehlo.reshape %arg437 : (tensor<1152xf32>) -> tensor<1x1x1152xf32> loc(#loc1097)
    %311 = stablehlo.custom_call @tt.mark_argument(%310) {api_version = 0 : i32, mhlo.frontend_attributes = {ttcore.argument_type = "parameter", ttir.name = "L__self___bracket_core_paligemma_with_expert_paligemma_model_vision_tower_vision_model_encoder_layers_1_self_attn_v_proj.bias"}} : (tensor<1x1x1152xf32>) -> tensor<1x1x1152xf32> loc(#loc1098)
    %312 = stablehlo.reshape %311 : (tensor<1x1x1152xf32>) -> tensor<1152xf32> loc(#loc1099)
    %313 = stablehlo.broadcast_in_dim %312, dims = [2] : (tensor<1152xf32>) -> tensor<1x256x1152xf32> loc(#loc1100)
    %314 = stablehlo.add %309, %313 : tensor<1x256x1152xf32> loc(#loc1101)
    %315 = stablehlo.reshape %314 : (tensor<1x256x1152xf32>) -> tensor<1x256x16x72xf32> loc(#loc1102)
    %316 = stablehlo.transpose %315, dims = [0, 2, 1, 3] {result_layout = dense<[3, 1, 2, 0]> : tensor<4xindex>, xla_shape = "f32[1,16,256,72]{3,1,2,0}"} : (tensor<1x256x16x72xf32>) -> tensor<1x16x256x72xf32> loc(#loc1103)
    %317 = stablehlo.dot_general %303, %316, batching_dims = [0, 1] x [0, 1], contracting_dims = [3] x [2] {mhlo.frontend_attributes = {grad_x = "false", grad_y = "false"}} : (tensor<1x16x256x256xf32>, tensor<1x16x256x72xf32>) -> tensor<1x16x256x72xf32> loc(#loc1104)
    %318 = stablehlo.transpose %317, dims = [0, 2, 1, 3] {result_layout = dense<[3, 1, 2, 0]> : tensor<4xindex>, xla_shape = "f32[1,256,16,72]{3,1,2,0}"} : (tensor<1x16x256x72xf32>) -> tensor<1x256x16x72xf32> loc(#loc1105)
    %319 = stablehlo.reshape %318 : (tensor<1x256x16x72xf32>) -> tensor<256x1152xf32> loc(#loc1106)
    %320 = stablehlo.reshape %arg436 : (tensor<1152x1152xf32>) -> tensor<1x1152x1152xf32> loc(#loc1107)
    %321 = stablehlo.custom_call @tt.mark_argument(%320) {api_version = 0 : i32, mhlo.frontend_attributes = {ttcore.argument_type = "parameter", ttir.name = "L__self___bracket_core_paligemma_with_expert_paligemma_model_vision_tower_vision_model_encoder_layers_1_self_attn_out_proj.weight"}} : (tensor<1x1152x1152xf32>) -> tensor<1x1152x1152xf32> loc(#loc1108)
    %322 = stablehlo.reshape %321 : (tensor<1x1152x1152xf32>) -> tensor<1152x1152xf32> loc(#loc1109)
    %323 = stablehlo.transpose %322, dims = [1, 0] {result_layout = dense<[0, 1]> : tensor<2xindex>, xla_shape = "f32[1152,1152]{0,1}"} : (tensor<1152x1152xf32>) -> tensor<1152x1152xf32> loc(#loc1110)
    %324 = stablehlo.dot_general %319, %323, contracting_dims = [1] x [0] : (tensor<256x1152xf32>, tensor<1152x1152xf32>) -> tensor<256x1152xf32> loc(#loc1111)
    %325 = stablehlo.reshape %324 : (tensor<256x1152xf32>) -> tensor<1x256x1152xf32> loc(#loc1112)
    %326 = stablehlo.reshape %arg435 : (tensor<1152xf32>) -> tensor<1x1x1152xf32> loc(#loc1113)
    %327 = stablehlo.custom_call @tt.mark_argument(%326) {api_version = 0 : i32, mhlo.frontend_attributes = {ttcore.argument_type = "parameter", ttir.name = "L__self___bracket_core_paligemma_with_expert_paligemma_model_vision_tower_vision_model_encoder_layers_1_self_attn_out_proj.bias"}} : (tensor<1x1x1152xf32>) -> tensor<1x1x1152xf32> loc(#loc1114)
    %328 = stablehlo.reshape %327 : (tensor<1x1x1152xf32>) -> tensor<1152xf32> loc(#loc1115)
    %329 = stablehlo.broadcast_in_dim %328, dims = [2] : (tensor<1152xf32>) -> tensor<1x256x1152xf32> loc(#loc1116)
    %330 = stablehlo.add %325, %329 : tensor<1x256x1152xf32> loc(#loc1117)
    %331 = stablehlo.add %260, %330 {result_layout = dense<[1, 2, 0]> : tensor<3xindex>, xla_shape = "f32[1,256,1152]{1,2,0}"} : tensor<1x256x1152xf32> loc(#loc1118)
    %332 = stablehlo.reshape %arg434 : (tensor<1152xf32>) -> tensor<1x1x1152xf32> loc(#loc1119)
    %333 = stablehlo.custom_call @tt.mark_argument(%332) {api_version = 0 : i32, mhlo.frontend_attributes = {ttcore.argument_type = "parameter", ttir.name = "L__self___bracket_core_paligemma_with_expert_paligemma_model_vision_tower_vision_model_encoder_layers_1_layer_norm2.weight"}} : (tensor<1x1x1152xf32>) -> tensor<1x1x1152xf32> loc(#loc1120)
    %334 = stablehlo.reshape %333 : (tensor<1x1x1152xf32>) -> tensor<1152xf32> loc(#loc1121)
    %335 = stablehlo.reshape %arg433 : (tensor<1152xf32>) -> tensor<1x1x1152xf32> loc(#loc1122)
    %336 = stablehlo.custom_call @tt.mark_argument(%335) {api_version = 0 : i32, mhlo.frontend_attributes = {ttcore.argument_type = "parameter", ttir.name = "L__self___bracket_core_paligemma_with_expert_paligemma_model_vision_tower_vision_model_encoder_layers_1_layer_norm2.bias"}} : (tensor<1x1x1152xf32>) -> tensor<1x1x1152xf32> loc(#loc1123)
    %337 = stablehlo.reshape %336 : (tensor<1x1x1152xf32>) -> tensor<1152xf32> loc(#loc1124)
    %338 = stablehlo.composite "tenstorrent.layer_norm" %331, %334, %337 {composite_attributes = {epsilon = 9.99999997E-7 : f32, normalized_shape = dense<1152> : tensor<1xi64>}, decomposition = @tenstorrent.layer_norm.impl_27} : (tensor<1x256x1152xf32>, tensor<1152xf32>, tensor<1152xf32>) -> tensor<1x256x1152xf32> loc(#loc1125)
    %339 = stablehlo.reshape %338 : (tensor<1x256x1152xf32>) -> tensor<256x1152xf32> loc(#loc1126)
    %340 = stablehlo.reshape %arg432 : (tensor<4304x1152xf32>) -> tensor<1x4304x1152xf32> loc(#loc1127)
    %341 = stablehlo.custom_call @tt.mark_argument(%340) {api_version = 0 : i32, mhlo.frontend_attributes = {ttcore.argument_type = "parameter", ttir.name = "L__self___bracket_core_paligemma_with_expert_paligemma_model_vision_tower_vision_model_encoder_layers_1_mlp_fc1.weight"}} : (tensor<1x4304x1152xf32>) -> tensor<1x4304x1152xf32> loc(#loc1128)
    %342 = stablehlo.reshape %341 : (tensor<1x4304x1152xf32>) -> tensor<4304x1152xf32> loc(#loc1129)
    %343 = stablehlo.transpose %342, dims = [1, 0] {result_layout = dense<[0, 1]> : tensor<2xindex>, xla_shape = "f32[1152,4304]{0,1}"} : (tensor<4304x1152xf32>) -> tensor<1152x4304xf32> loc(#loc1130)
    %344 = stablehlo.dot_general %339, %343, contracting_dims = [1] x [0] : (tensor<256x1152xf32>, tensor<1152x4304xf32>) -> tensor<256x4304xf32> loc(#loc1131)
    %345 = stablehlo.reshape %344 : (tensor<256x4304xf32>) -> tensor<1x256x4304xf32> loc(#loc1132)
    %346 = stablehlo.reshape %arg431 : (tensor<4304xf32>) -> tensor<1x1x4304xf32> loc(#loc1133)
    %347 = stablehlo.custom_call @tt.mark_argument(%346) {api_version = 0 : i32, mhlo.frontend_attributes = {ttcore.argument_type = "parameter", ttir.name = "L__self___bracket_core_paligemma_with_expert_paligemma_model_vision_tower_vision_model_encoder_layers_1_mlp_fc1.bias"}} : (tensor<1x1x4304xf32>) -> tensor<1x1x4304xf32> loc(#loc1134)
    %348 = stablehlo.reshape %347 : (tensor<1x1x4304xf32>) -> tensor<4304xf32> loc(#loc1135)
    %349 = stablehlo.broadcast_in_dim %348, dims = [2] : (tensor<4304xf32>) -> tensor<1x256x4304xf32> loc(#loc1136)
    %350 = stablehlo.add %345, %349 : tensor<1x256x4304xf32> loc(#loc1137)
    %351 = stablehlo.composite "tenstorrent.gelu_tanh" %350 {composite_attributes = {approximate = "tanh"}, decomposition = @tenstorrent.gelu_tanh.impl_50} : (tensor<1x256x4304xf32>) -> tensor<1x256x4304xf32> loc(#loc1138)
    %352 = stablehlo.reshape %351 : (tensor<1x256x4304xf32>) -> tensor<256x4304xf32> loc(#loc1139)
    %353 = stablehlo.reshape %arg430 : (tensor<1152x4304xf32>) -> tensor<1x1152x4304xf32> loc(#loc1140)
    %354 = stablehlo.custom_call @tt.mark_argument(%353) {api_version = 0 : i32, mhlo.frontend_attributes = {ttcore.argument_type = "parameter", ttir.name = "L__self___bracket_core_paligemma_with_expert_paligemma_model_vision_tower_vision_model_encoder_layers_1_mlp_fc2.weight"}} : (tensor<1x1152x4304xf32>) -> tensor<1x1152x4304xf32> loc(#loc1141)
    %355 = stablehlo.reshape %354 : (tensor<1x1152x4304xf32>) -> tensor<1152x4304xf32> loc(#loc1142)
    %356 = stablehlo.transpose %355, dims = [1, 0] {result_layout = dense<[0, 1]> : tensor<2xindex>, xla_shape = "f32[4304,1152]{0,1}"} : (tensor<1152x4304xf32>) -> tensor<4304x1152xf32> loc(#loc1143)
    %357 = stablehlo.dot_general %352, %356, contracting_dims = [1] x [0] : (tensor<256x4304xf32>, tensor<4304x1152xf32>) -> tensor<256x1152xf32> loc(#loc1144)
    %358 = stablehlo.reshape %357 : (tensor<256x1152xf32>) -> tensor<1x256x1152xf32> loc(#loc1145)
    %359 = stablehlo.reshape %arg429 : (tensor<1152xf32>) -> tensor<1x1x1152xf32> loc(#loc1146)
    %360 = stablehlo.custom_call @tt.mark_argument(%359) {api_version = 0 : i32, mhlo.frontend_attributes = {ttcore.argument_type = "parameter", ttir.name = "L__self___bracket_core_paligemma_with_expert_paligemma_model_vision_tower_vision_model_encoder_layers_1_mlp_fc2.bias"}} : (tensor<1x1x1152xf32>) -> tensor<1x1x1152xf32> loc(#loc1147)
    %361 = stablehlo.reshape %360 : (tensor<1x1x1152xf32>) -> tensor<1152xf32> loc(#loc1148)
    %362 = stablehlo.broadcast_in_dim %361, dims = [2] : (tensor<1152xf32>) -> tensor<1x256x1152xf32> loc(#loc1149)
    %363 = stablehlo.add %358, %362 : tensor<1x256x1152xf32> loc(#loc1150)
    %364 = stablehlo.add %331, %363 {result_layout = dense<[1, 2, 0]> : tensor<3xindex>, xla_shape = "f32[1,256,1152]{1,2,0}"} : tensor<1x256x1152xf32> loc(#loc1151)
    %365 = stablehlo.reshape %arg428 : (tensor<1152xf32>) -> tensor<1x1x1152xf32> loc(#loc1152)
    %366 = stablehlo.custom_call @tt.mark_argument(%365) {api_version = 0 : i32, mhlo.frontend_attributes = {ttcore.argument_type = "parameter", ttir.name = "L__self___bracket_core_paligemma_with_expert_paligemma_model_vision_tower_vision_model_encoder_layers_2_layer_norm1.weight"}} : (tensor<1x1x1152xf32>) -> tensor<1x1x1152xf32> loc(#loc1153)
    %367 = stablehlo.reshape %366 : (tensor<1x1x1152xf32>) -> tensor<1152xf32> loc(#loc1154)
    %368 = stablehlo.reshape %arg427 : (tensor<1152xf32>) -> tensor<1x1x1152xf32> loc(#loc1155)
    %369 = stablehlo.custom_call @tt.mark_argument(%368) {api_version = 0 : i32, mhlo.frontend_attributes = {ttcore.argument_type = "parameter", ttir.name = "L__self___bracket_core_paligemma_with_expert_paligemma_model_vision_tower_vision_model_encoder_layers_2_layer_norm1.bias"}} : (tensor<1x1x1152xf32>) -> tensor<1x1x1152xf32> loc(#loc1156)
    %370 = stablehlo.reshape %369 : (tensor<1x1x1152xf32>) -> tensor<1152xf32> loc(#loc1157)
    %371 = stablehlo.composite "tenstorrent.layer_norm" %364, %367, %370 {composite_attributes = {epsilon = 9.99999997E-7 : f32, normalized_shape = dense<1152> : tensor<1xi64>}, decomposition = @tenstorrent.layer_norm.impl_141} : (tensor<1x256x1152xf32>, tensor<1152xf32>, tensor<1152xf32>) -> tensor<1x256x1152xf32> loc(#loc1158)
    %372 = stablehlo.reshape %371 : (tensor<1x256x1152xf32>) -> tensor<256x1152xf32> loc(#loc1159)
    %373 = stablehlo.reshape %arg469 : (tensor<1152x1152xf32>) -> tensor<1x1152x1152xf32> loc(#loc1160)
    %374 = stablehlo.custom_call @tt.mark_argument(%373) {api_version = 0 : i32, mhlo.frontend_attributes = {ttcore.argument_type = "parameter", ttir.name = "L__self___bracket_core_paligemma_with_expert_paligemma_model_vision_tower_vision_model_encoder_layers_2_self_attn_q_proj.weight"}} : (tensor<1x1152x1152xf32>) -> tensor<1x1152x1152xf32> loc(#loc1161)
    %375 = stablehlo.reshape %374 : (tensor<1x1152x1152xf32>) -> tensor<1152x1152xf32> loc(#loc1162)
    %376 = stablehlo.transpose %375, dims = [1, 0] {result_layout = dense<[0, 1]> : tensor<2xindex>, xla_shape = "f32[1152,1152]{0,1}"} : (tensor<1152x1152xf32>) -> tensor<1152x1152xf32> loc(#loc1163)
    %377 = stablehlo.dot_general %372, %376, contracting_dims = [1] x [0] : (tensor<256x1152xf32>, tensor<1152x1152xf32>) -> tensor<256x1152xf32> loc(#loc1164)
    %378 = stablehlo.reshape %377 : (tensor<256x1152xf32>) -> tensor<1x256x1152xf32> loc(#loc1165)
    %379 = stablehlo.reshape %arg468 : (tensor<1152xf32>) -> tensor<1x1x1152xf32> loc(#loc1166)
    %380 = stablehlo.custom_call @tt.mark_argument(%379) {api_version = 0 : i32, mhlo.frontend_attributes = {ttcore.argument_type = "parameter", ttir.name = "L__self___bracket_core_paligemma_with_expert_paligemma_model_vision_tower_vision_model_encoder_layers_2_self_attn_q_proj.bias"}} : (tensor<1x1x1152xf32>) -> tensor<1x1x1152xf32> loc(#loc1167)
    %381 = stablehlo.reshape %380 : (tensor<1x1x1152xf32>) -> tensor<1152xf32> loc(#loc1168)
    %382 = stablehlo.broadcast_in_dim %381, dims = [2] : (tensor<1152xf32>) -> tensor<1x256x1152xf32> loc(#loc1169)
    %383 = stablehlo.add %378, %382 : tensor<1x256x1152xf32> loc(#loc1170)
    %384 = stablehlo.reshape %383 : (tensor<1x256x1152xf32>) -> tensor<1x256x16x72xf32> loc(#loc1171)
    %385 = stablehlo.transpose %384, dims = [0, 2, 1, 3] {result_layout = dense<[3, 1, 2, 0]> : tensor<4xindex>, xla_shape = "f32[1,16,256,72]{3,1,2,0}"} : (tensor<1x256x16x72xf32>) -> tensor<1x16x256x72xf32> loc(#loc1172)
    %386 = stablehlo.reshape %arg467 : (tensor<1152x1152xf32>) -> tensor<1x1152x1152xf32> loc(#loc1173)
    %387 = stablehlo.custom_call @tt.mark_argument(%386) {api_version = 0 : i32, mhlo.frontend_attributes = {ttcore.argument_type = "parameter", ttir.name = "L__self___bracket_core_paligemma_with_expert_paligemma_model_vision_tower_vision_model_encoder_layers_2_self_attn_k_proj.weight"}} : (tensor<1x1152x1152xf32>) -> tensor<1x1152x1152xf32> loc(#loc1174)
    %388 = stablehlo.reshape %387 : (tensor<1x1152x1152xf32>) -> tensor<1152x1152xf32> loc(#loc1175)
    %389 = stablehlo.transpose %388, dims = [1, 0] {result_layout = dense<[0, 1]> : tensor<2xindex>, xla_shape = "f32[1152,1152]{0,1}"} : (tensor<1152x1152xf32>) -> tensor<1152x1152xf32> loc(#loc1176)
    %390 = stablehlo.dot_general %372, %389, contracting_dims = [1] x [0] : (tensor<256x1152xf32>, tensor<1152x1152xf32>) -> tensor<256x1152xf32> loc(#loc1177)
    %391 = stablehlo.reshape %390 : (tensor<256x1152xf32>) -> tensor<1x256x1152xf32> loc(#loc1178)
    %392 = stablehlo.reshape %arg466 : (tensor<1152xf32>) -> tensor<1x1x1152xf32> loc(#loc1179)
    %393 = stablehlo.custom_call @tt.mark_argument(%392) {api_version = 0 : i32, mhlo.frontend_attributes = {ttcore.argument_type = "parameter", ttir.name = "L__self___bracket_core_paligemma_with_expert_paligemma_model_vision_tower_vision_model_encoder_layers_2_self_attn_k_proj.bias"}} : (tensor<1x1x1152xf32>) -> tensor<1x1x1152xf32> loc(#loc1180)
    %394 = stablehlo.reshape %393 : (tensor<1x1x1152xf32>) -> tensor<1152xf32> loc(#loc1181)
    %395 = stablehlo.broadcast_in_dim %394, dims = [2] : (tensor<1152xf32>) -> tensor<1x256x1152xf32> loc(#loc1182)
    %396 = stablehlo.add %391, %395 : tensor<1x256x1152xf32> loc(#loc1183)
    %397 = stablehlo.reshape %396 : (tensor<1x256x1152xf32>) -> tensor<1x256x16x72xf32> loc(#loc1184)
    %398 = stablehlo.transpose %397, dims = [0, 2, 3, 1] : (tensor<1x256x16x72xf32>) -> tensor<1x16x72x256xf32> loc(#loc1185)
    %399 = stablehlo.dot_general %385, %398, batching_dims = [0, 1] x [0, 1], contracting_dims = [3] x [2] {mhlo.frontend_attributes = {grad_x = "false", grad_y = "false"}} : (tensor<1x16x256x72xf32>, tensor<1x16x72x256xf32>) -> tensor<1x16x256x256xf32> loc(#loc1186)
    %400 = stablehlo.multiply %399, %cst_12 : tensor<1x16x256x256xf32> loc(#loc1187)
    %401 = stablehlo.reduce(%400 init: %cst_27) applies stablehlo.maximum across dimensions = [3] : (tensor<1x16x256x256xf32>, tensor<f32>) -> tensor<1x16x256xf32> loc(#loc1188)
    %402 = stablehlo.broadcast_in_dim %401, dims = [0, 1, 2] : (tensor<1x16x256xf32>) -> tensor<1x16x256x256xf32> loc(#loc1189)
    %403 = stablehlo.subtract %400, %402 : tensor<1x16x256x256xf32> loc(#loc1190)
    %404 = stablehlo.exponential %403 : tensor<1x16x256x256xf32> loc(#loc1191)
    %405 = stablehlo.reduce(%404 init: %cst_29) applies stablehlo.add across dimensions = [3] : (tensor<1x16x256x256xf32>, tensor<f32>) -> tensor<1x16x256xf32> loc(#loc1192)
    %406 = stablehlo.broadcast_in_dim %405, dims = [0, 1, 2] : (tensor<1x16x256xf32>) -> tensor<1x16x256x256xf32> loc(#loc1193)
    %407 = stablehlo.divide %404, %406 : tensor<1x16x256x256xf32> loc(#loc1194)
    %408 = stablehlo.reshape %arg426 : (tensor<1152x1152xf32>) -> tensor<1x1152x1152xf32> loc(#loc1195)
    %409 = stablehlo.custom_call @tt.mark_argument(%408) {api_version = 0 : i32, mhlo.frontend_attributes = {ttcore.argument_type = "parameter", ttir.name = "L__self___bracket_core_paligemma_with_expert_paligemma_model_vision_tower_vision_model_encoder_layers_2_self_attn_v_proj.weight"}} : (tensor<1x1152x1152xf32>) -> tensor<1x1152x1152xf32> loc(#loc1196)
    %410 = stablehlo.reshape %409 : (tensor<1x1152x1152xf32>) -> tensor<1152x1152xf32> loc(#loc1197)
    %411 = stablehlo.transpose %410, dims = [1, 0] {result_layout = dense<[0, 1]> : tensor<2xindex>, xla_shape = "f32[1152,1152]{0,1}"} : (tensor<1152x1152xf32>) -> tensor<1152x1152xf32> loc(#loc1198)
    %412 = stablehlo.dot_general %372, %411, contracting_dims = [1] x [0] : (tensor<256x1152xf32>, tensor<1152x1152xf32>) -> tensor<256x1152xf32> loc(#loc1199)
    %413 = stablehlo.reshape %412 : (tensor<256x1152xf32>) -> tensor<1x256x1152xf32> loc(#loc1200)
    %414 = stablehlo.reshape %arg425 : (tensor<1152xf32>) -> tensor<1x1x1152xf32> loc(#loc1201)
    %415 = stablehlo.custom_call @tt.mark_argument(%414) {api_version = 0 : i32, mhlo.frontend_attributes = {ttcore.argument_type = "parameter", ttir.name = "L__self___bracket_core_paligemma_with_expert_paligemma_model_vision_tower_vision_model_encoder_layers_2_self_attn_v_proj.bias"}} : (tensor<1x1x1152xf32>) -> tensor<1x1x1152xf32> loc(#loc1202)
    %416 = stablehlo.reshape %415 : (tensor<1x1x1152xf32>) -> tensor<1152xf32> loc(#loc1203)
    %417 = stablehlo.broadcast_in_dim %416, dims = [2] : (tensor<1152xf32>) -> tensor<1x256x1152xf32> loc(#loc1204)
    %418 = stablehlo.add %413, %417 : tensor<1x256x1152xf32> loc(#loc1205)
    %419 = stablehlo.reshape %418 : (tensor<1x256x1152xf32>) -> tensor<1x256x16x72xf32> loc(#loc1206)
    %420 = stablehlo.transpose %419, dims = [0, 2, 1, 3] {result_layout = dense<[3, 1, 2, 0]> : tensor<4xindex>, xla_shape = "f32[1,16,256,72]{3,1,2,0}"} : (tensor<1x256x16x72xf32>) -> tensor<1x16x256x72xf32> loc(#loc1207)
    %421 = stablehlo.dot_general %407, %420, batching_dims = [0, 1] x [0, 1], contracting_dims = [3] x [2] {mhlo.frontend_attributes = {grad_x = "false", grad_y = "false"}} : (tensor<1x16x256x256xf32>, tensor<1x16x256x72xf32>) -> tensor<1x16x256x72xf32> loc(#loc1208)
    %422 = stablehlo.transpose %421, dims = [0, 2, 1, 3] {result_layout = dense<[3, 1, 2, 0]> : tensor<4xindex>, xla_shape = "f32[1,256,16,72]{3,1,2,0}"} : (tensor<1x16x256x72xf32>) -> tensor<1x256x16x72xf32> loc(#loc1209)
    %423 = stablehlo.reshape %422 : (tensor<1x256x16x72xf32>) -> tensor<256x1152xf32> loc(#loc1210)
    %424 = stablehlo.reshape %arg424 : (tensor<1152x1152xf32>) -> tensor<1x1152x1152xf32> loc(#loc1211)
    %425 = stablehlo.custom_call @tt.mark_argument(%424) {api_version = 0 : i32, mhlo.frontend_attributes = {ttcore.argument_type = "parameter", ttir.name = "L__self___bracket_core_paligemma_with_expert_paligemma_model_vision_tower_vision_model_encoder_layers_2_self_attn_out_proj.weight"}} : (tensor<1x1152x1152xf32>) -> tensor<1x1152x1152xf32> loc(#loc1212)
    %426 = stablehlo.reshape %425 : (tensor<1x1152x1152xf32>) -> tensor<1152x1152xf32> loc(#loc1213)
    %427 = stablehlo.transpose %426, dims = [1, 0] {result_layout = dense<[0, 1]> : tensor<2xindex>, xla_shape = "f32[1152,1152]{0,1}"} : (tensor<1152x1152xf32>) -> tensor<1152x1152xf32> loc(#loc1214)
    %428 = stablehlo.dot_general %423, %427, contracting_dims = [1] x [0] : (tensor<256x1152xf32>, tensor<1152x1152xf32>) -> tensor<256x1152xf32> loc(#loc1215)
    %429 = stablehlo.reshape %428 : (tensor<256x1152xf32>) -> tensor<1x256x1152xf32> loc(#loc1216)
    %430 = stablehlo.reshape %arg423 : (tensor<1152xf32>) -> tensor<1x1x1152xf32> loc(#loc1217)
    %431 = stablehlo.custom_call @tt.mark_argument(%430) {api_version = 0 : i32, mhlo.frontend_attributes = {ttcore.argument_type = "parameter", ttir.name = "L__self___bracket_core_paligemma_with_expert_paligemma_model_vision_tower_vision_model_encoder_layers_2_self_attn_out_proj.bias"}} : (tensor<1x1x1152xf32>) -> tensor<1x1x1152xf32> loc(#loc1218)
    %432 = stablehlo.reshape %431 : (tensor<1x1x1152xf32>) -> tensor<1152xf32> loc(#loc1219)
    %433 = stablehlo.broadcast_in_dim %432, dims = [2] : (tensor<1152xf32>) -> tensor<1x256x1152xf32> loc(#loc1220)
    %434 = stablehlo.add %429, %433 : tensor<1x256x1152xf32> loc(#loc1221)
    %435 = stablehlo.add %364, %434 {result_layout = dense<[1, 2, 0]> : tensor<3xindex>, xla_shape = "f32[1,256,1152]{1,2,0}"} : tensor<1x256x1152xf32> loc(#loc1222)
    %436 = stablehlo.reshape %arg422 : (tensor<1152xf32>) -> tensor<1x1x1152xf32> loc(#loc1223)
    %437 = stablehlo.custom_call @tt.mark_argument(%436) {api_version = 0 : i32, mhlo.frontend_attributes = {ttcore.argument_type = "parameter", ttir.name = "L__self___bracket_core_paligemma_with_expert_paligemma_model_vision_tower_vision_model_encoder_layers_2_layer_norm2.weight"}} : (tensor<1x1x1152xf32>) -> tensor<1x1x1152xf32> loc(#loc1224)
    %438 = stablehlo.reshape %437 : (tensor<1x1x1152xf32>) -> tensor<1152xf32> loc(#loc1225)
    %439 = stablehlo.reshape %arg421 : (tensor<1152xf32>) -> tensor<1x1x1152xf32> loc(#loc1226)
    %440 = stablehlo.custom_call @tt.mark_argument(%439) {api_version = 0 : i32, mhlo.frontend_attributes = {ttcore.argument_type = "parameter", ttir.name = "L__self___bracket_core_paligemma_with_expert_paligemma_model_vision_tower_vision_model_encoder_layers_2_layer_norm2.bias"}} : (tensor<1x1x1152xf32>) -> tensor<1x1x1152xf32> loc(#loc1227)
    %441 = stablehlo.reshape %440 : (tensor<1x1x1152xf32>) -> tensor<1152xf32> loc(#loc1228)
    %442 = stablehlo.composite "tenstorrent.layer_norm" %435, %438, %441 {composite_attributes = {epsilon = 9.99999997E-7 : f32, normalized_shape = dense<1152> : tensor<1xi64>}, decomposition = @tenstorrent.layer_norm.impl_106} : (tensor<1x256x1152xf32>, tensor<1152xf32>, tensor<1152xf32>) -> tensor<1x256x1152xf32> lo…
#loc12965 = loc("broadcast.16133")
#loc12966 = loc("multiply.16134")
#loc12967 = loc("broadcast.16137")
#loc12968 = loc("add.16138")
#loc12970 = loc("multiply.13737")
#loc12971 = loc("power.13723")
#loc12972 = loc("multiply.13726")
#loc12973 = loc("add.13727")
#loc12974 = loc("multiply.13730")
#loc12975 = loc("tanh.13731")
#loc12976 = loc("add.13734")
#loc12977 = loc("multiply.13738")
#loc12981 = loc("reduce.24006")
#loc12982 = loc("multiply.24015")
#loc12983 = loc("broadcast.24025")
#loc12984 = loc("subtract.24026")
#loc12985 = loc("subtract.23981")
#loc12986 = loc("multiply.23982")
#loc12987 = loc("reduce.23989")
#loc12988 = loc("multiply.23998")
#loc12989 = loc("reshape.23999")
#loc12990 = loc("add.24019")
#loc12991 = loc("rsqrt.24020")
#loc12992 = loc("reshape.24027")
#loc12993 = loc("broadcast.24028")
#loc12994 = loc("multiply.24029")
#loc12995 = loc("broadcast.24030")
#loc12996 = loc("multiply.24031")
#loc12997 = loc("broadcast.24034")
#loc12998 = loc("add.24035")
#loc13000 = loc("multiply.27362")
#loc13001 = loc("power.27348")
#loc13002 = loc("multiply.27351")
#loc13003 = loc("add.27352")
#loc13004 = loc("multiply.27355")
#loc13005 = loc("tanh.27356")
#loc13006 = loc("add.27359")
#loc13007 = loc("multiply.27363")
#loc13009 = loc("multiply.29122")
#loc13010 = loc("power.29108")
#loc13011 = loc("multiply.29111")
#loc13012 = loc("add.29112")
#loc13013 = loc("multiply.29115")
#loc13014 = loc("tanh.29116")
#loc13015 = loc("add.29119")
#loc13016 = loc("multiply.29123")
#loc13020 = loc("reduce.25034")
#loc13021 = loc("multiply.25043")
#loc13022 = loc("broadcast.25053")
#loc13023 = loc("subtract.25054")
#loc13024 = loc("subtract.25009")
#loc13025 = loc("multiply.25010")
#loc13026 = loc("reduce.25017")
#loc13027 = loc("multiply.25026")
#loc13028 = loc("reshape.25027")
#loc13029 = loc("add.25047")
#loc13030 = loc("rsqrt.25048")
#loc13031 = loc("reshape.25055")
#loc13032 = loc("broadcast.25056")
#loc13033 = loc("multiply.25057")
#loc13034 = loc("broadcast.25058")
#loc13035 = loc("multiply.25059")
#loc13036 = loc("broadcast.25062")
#loc13037 = loc("add.25063")
#loc13039 = loc("multiply.28022")
#loc13040 = loc("power.28008")
#loc13041 = loc("multiply.28011")
#loc13042 = loc("add.28012")
#loc13043 = loc("multiply.28015")
#loc13044 = loc("tanh.28016")
#loc13045 = loc("add.28019")
#loc13046 = loc("multiply.28023")
#loc13050 = loc("reduce.22352")
#loc13051 = loc("multiply.22361")
#loc13052 = loc("broadcast.22371")
#loc13053 = loc("subtract.22372")
#loc13054 = loc("subtract.22327")
#loc13055 = loc("multiply.22328")
#loc13056 = loc("reduce.22335")
#loc13057 = loc("multiply.22344")
#loc13058 = loc("reshape.22345")
#loc13059 = loc("add.22365")
#loc13060 = loc("rsqrt.22366")
#loc13061 = loc("reshape.22373")
#loc13062 = loc("broadcast.22374")
#loc13063 = loc("multiply.22375")
#loc13064 = loc("broadcast.22376")
#loc13065 = loc("multiply.22377")
#loc13066 = loc("broadcast.22380")
#loc13067 = loc("add.22381")
#loc13071 = loc("reduce.22978")
#loc13072 = loc("multiply.22987")
#loc13073 = loc("broadcast.22997")
#loc13074 = loc("subtract.22998")
#loc13075 = loc("subtract.22953")
#loc13076 = loc("multiply.22954")
#loc13077 = loc("reduce.22961")
#loc13078 = loc("multiply.22970")
#loc13079 = loc("reshape.22971")
#loc13080 = loc("add.22991")
#loc13081 = loc("rsqrt.22992")
#loc13082 = loc("reshape.22999")
#loc13083 = loc("broadcast.23000")
#loc13084 = loc("multiply.23001")
#loc13085 = loc("broadcast.23002")
#loc13086 = loc("multiply.23003")
#loc13087 = loc("broadcast.23006")
#loc13088 = loc("add.23007")
#loc13092 = loc("reduce.19525")
#loc13093 = loc("multiply.19534")
#loc13094 = loc("broadcast.19544")
#loc13095 = loc("subtract.19545")
#loc13096 = loc("subtract.19500")
#loc13097 = loc("multiply.19501")
#loc13098 = loc("reduce.19508")
#loc13099 = loc("multiply.19517")
#loc13100 = loc("reshape.19518")
#loc13101 = loc("add.19538")
#loc13102 = loc("rsqrt.19539")
#loc13103 = loc("reshape.19546")
#loc13104 = loc("broadcast.19547")
#loc13105 = loc("multiply.19548")
#loc13106 = loc("broadcast.19549")
#loc13107 = loc("multiply.19550")
#loc13108 = loc("broadcast.19553")
#loc13109 = loc("add.19554")
#loc13111 = loc("multiply.3368")
#loc13112 = loc("power.3354")
#loc13113 = loc("multiply.3357")
#loc13114 = loc("add.3358")
#loc13115 = loc("multiply.3361")
#loc13116 = loc("tanh.3362")
#loc13117 = loc("add.3365")
#loc13118 = loc("multiply.3369")
#loc13120 = loc("multiply.23690")
#loc13121 = loc("power.23676")
#loc13122 = loc("multiply.23679")
#loc13123 = loc("add.23680")
#loc13124 = loc("multiply.23683")
#loc13125 = loc("tanh.23684")
#loc13126 = loc("add.23687")
#loc13127 = loc("multiply.23691")
#loc13131 = loc("reduce.5772")
#loc13132 = loc("multiply.5781")
#loc13133 = loc("broadcast.5791")
#loc13134 = loc("subtract.5792")
#loc13135 = loc("subtract.5747")
#loc13136 = loc("multiply.5748")
#loc13137 = loc("reduce.5755")
#loc13138 = loc("multiply.5764")
#loc13139 = loc("reshape.5765")
#loc13140 = loc("add.5785")
#loc13141 = loc("rsqrt.5786")
#loc13142 = loc("reshape.5793")
#loc13143 = loc("broadcast.5794")
#loc13144 = loc("multiply.5795")
#loc13145 = loc("broadcast.5796")
#loc13146 = loc("multiply.5797")
#loc13147 = loc("broadcast.5800")
#loc13148 = loc("add.5801")
#loc13150 = loc("multiply.14765")
#loc13151 = loc("power.14751")
#loc13152 = loc("multiply.14754")
#loc13153 = loc("add.14755")
#loc13154 = loc("multiply.14758")
#loc13155 = loc("tanh.14759")
#loc13156 = loc("add.14762")
#loc13157 = loc("multiply.14766")
#loc13161 = loc("reduce.21436")
#loc13162 = loc("multiply.21445")
#loc13163 = loc("broadcast.21455")
#loc13164 = loc("subtract.21456")
#loc13165 = loc("subtract.21411")
#loc13166 = loc("multiply.21412")
#loc13167 = loc("reduce.21419")
#loc13168 = loc("multiply.21428")
#loc13169 = loc("reshape.21429")
#loc13170 = loc("add.21449")
#loc13171 = loc("rsqrt.21450")
#loc13172 = loc("reshape.21457")
#loc13173 = loc("broadcast.21458")
#loc13174 = loc("multiply.21459")
#loc13175 = loc("broadcast.21460")
#loc13176 = loc("multiply.21461")
#loc13177 = loc("broadcast.21464")
#loc13178 = loc("add.21465")
#loc13180 = loc("multiply.22919")
#loc13181 = loc("power.22905")
#loc13182 = loc("multiply.22908")
#loc13183 = loc("add.22909")
#loc13184 = loc("multiply.22912")
#loc13185 = loc("tanh.22913")
#loc13186 = loc("add.22916")
#loc13187 = loc("multiply.22920")
#loc13191 = loc("reduce.24777")
#loc13192 = loc("multiply.24786")
#loc13193 = loc("broadcast.24796")
#loc13194 = loc("subtract.24797")
#loc13195 = loc("subtract.24752")
#loc13196 = loc("multiply.24753")
#loc13197 = loc("reduce.24760")
#loc13198 = loc("multiply.24769")
#loc13199 = loc("reshape.24770")
#loc13200 = loc("add.24790")
#loc13201 = loc("rsqrt.24791")
#loc13202 = loc("reshape.24798")
#loc13203 = loc("broadcast.24799")
#loc13204 = loc("multiply.24800")
#loc13205 = loc("broadcast.24801")
#loc13206 = loc("multiply.24802")
#loc13207 = loc("broadcast.24805")
#loc13208 = loc("add.24806")
#loc13210 = loc("multiply.23176")
#loc13211 = loc("power.23162")
#loc13212 = loc("multiply.23165")
#loc13213 = loc("add.23166")
#loc13214 = loc("multiply.23169")
#loc13215 = loc("tanh.23170")
#loc13216 = loc("add.23173")
#loc13217 = loc("multiply.23177")
#loc13219 = loc("multiply.11938")
#loc13220 = loc("power.11924")
#loc13221 = loc("multiply.11927")
#loc13222 = loc("add.11928")
#loc13223 = loc("multiply.11931")
#loc13224 = loc("tanh.11932")
#loc13225 = loc("add.11935")
#loc13226 = loc("multiply.11939")
#loc13230 = loc("reduce.3154")
#loc13231 = loc("multiply.3163")
#loc13232 = loc("broadcast.3173")
#loc13233 = loc("subtract.3174")
#loc13234 = loc("subtract.3129")
#loc13235 = loc("multiply.3130")
#loc13236 = loc("reduce.3137")
#loc13237 = loc("multiply.3146")
#loc13238 = loc("reshape.3147")
#loc13239 = loc("add.3167")
#loc13240 = loc("rsqrt.3168")
#loc13241 = loc("reshape.3175")
#loc13242 = loc("broadcast.3176")
#loc13243 = loc("multiply.3177")
#loc13244 = loc("broadcast.3178")
#loc13245 = loc("multiply.3179")
#loc13246 = loc("broadcast.3182")
#loc13247 = loc("add.3183")
#loc13249 = loc("multiply.19064")
#loc13250 = loc("power.19050")
#loc13251 = loc("multiply.19053")
#loc13252 = loc("add.19054")
#loc13253 = loc("multiply.19057")
#loc13254 = loc("tanh.19058")
#loc13255 = loc("add.19061")
#loc13256 = loc("multiply.19065")
#loc13258 = loc("multiply.23433")
#loc13259 = loc("power.23419")
#loc13260 = loc("multiply.23422")
#loc13261 = loc("add.23423")
#loc13262 = loc("multiply.23426")
#loc13263 = loc("tanh.23427")
#loc13264 = loc("add.23430")
#loc13265 = loc("multiply.23434")
#loc13269 = loc("reduce.23749")
#loc13270 = loc("multiply.23758")
#loc13271 = loc("broadcast.23768")
#loc13272 = loc("subtract.23769")
#loc13273 = loc("subtract.23724")
#loc13274 = loc("multiply.23725")
#loc13275 = loc("reduce.23732")
#loc13276 = loc("multiply.23741")
#loc13277 = loc("reshape.23742")
#loc13278 = loc("add.23762")
#loc13279 = loc("rsqrt.23763")
#loc13280 = loc("reshape.23770")
#loc13281 = loc("broadcast.23771")
#loc13282 = loc("multiply.23772")
#loc13283 = loc("broadcast.23773")
#loc13284 = loc("multiply.23774")
#loc13285 = loc("broadcast.23777")
#loc13286 = loc("add.23778")
#loc13290 = loc("reduce.15226")
#loc13291 = loc("multiply.15235")
#loc13292 = loc("broadcast.15245")
#loc13293 = loc("subtract.15246")
#loc13294 = loc("subtract.15201")
#loc13295 = loc("multiply.15202")
#loc13296 = loc("reduce.15209")
#loc13297 = loc("multiply.15218")
#loc13298 = loc("reshape.15219")
#loc13299 = loc("add.15239")
#loc13300 = loc("rsqrt.15240")
#loc13301 = loc("reshape.15247")
#loc13302 = loc("broadcast.15248")
#loc13303 = loc("multiply.15249")
#loc13304 = loc("broadcast.15250")
#loc13305 = loc("multiply.15251")
#loc13306 = loc("broadcast.15254")
#loc13307 = loc("add.15255")
#loc13309 = loc("multiply.3914")
#loc13310 = loc("power.3900")
#loc13311 = loc("multiply.3903")
#loc13312 = loc("add.3904")
#loc13313 = loc("multiply.3907")
#loc13314 = loc("tanh.3908")
#loc13315 = loc("add.3911")
#loc13316 = loc("multiply.3915")
#loc13318 = loc("multiply.15279")
#loc13319 = loc("power.15265")
#loc13320 = loc("multiply.15268")
#loc13321 = loc("add.15269")
#loc13322 = loc("multiply.15272")
#loc13323 = loc("tanh.15273")
#loc13324 = loc("add.15276")
#loc13325 = loc("multiply.15280")
#loc13327 = loc("multiply.26220")
#loc13328 = loc("power.26206")
#loc13329 = loc("multiply.26209")
#loc13330 = loc("add.26210")
#loc13331 = loc("multiply.26213")
#loc13332 = loc("tanh.26214")
#loc13333 = loc("add.26217")
#loc13334 = loc("multiply.26221")
#loc13338 = loc("reduce.15338")
#loc13339 = loc("multiply.15347")
#loc13340 = loc("broadcast.15357")
#loc13341 = loc("subtract.15358")
#loc13342 = loc("subtract.15313")
#loc13343 = loc("multiply.15314")
#loc13344 = loc("reduce.15321")
#loc13345 = loc("multiply.15330")
#loc13346 = loc("reshape.15331")
#loc13347 = loc("add.15351")
#loc13348 = loc("rsqrt.15352")
#loc13349 = loc("reshape.15359")
#loc13350 = loc("broadcast.15360")
#loc13351 = loc("multiply.15361")
#loc13352 = loc("broadcast.15362")
#loc13353 = loc("multiply.15363")
#loc13354 = loc("broadcast.15366")
#loc13355 = loc("add.15367")
#loc13359 = loc("reduce.15483")
#loc13360 = loc("multiply.15492")
#loc13361 = loc("broadcast.15502")
#loc13362 = loc("subtract.15503")
#loc13363 = loc("subtract.15458")
#loc13364 = loc("multiply.15459")
#loc13365 = loc("reduce.15466")
#loc13366 = loc("multiply.15475")
#loc13367 = loc("reshape.15476")
#loc13368 = loc("add.15496")
#loc13369 = loc("rsqrt.15497")
#loc13370 = loc("reshape.15504")
#loc13371 = loc("broadcast.15505")
#loc13372 = loc("multiply.15506")
#loc13373 = loc("broadcast.15507")
#loc13374 = loc("multiply.15508")
#loc13375 = loc("broadcast.15511")
#loc13376 = loc("add.15512")
#loc13378 = loc("multiply.20606")
#loc13379 = loc("power.20592")
#loc13380 = loc("multiply.20595")
#loc13381 = loc("add.20596")
#loc13382 = loc("multiply.20599")
#loc13383 = loc("tanh.20600")
#loc13384 = loc("add.20603")
#loc13385 = loc("multiply.20607")
#loc13389 = loc("reduce.4519")
#loc13390 = loc("multiply.4528")
#loc13391 = loc("broadcast.4538")
#loc13392 = loc("subtract.4539")
#loc13393 = loc("subtract.4494")
#loc13394 = loc("multiply.4495")
#loc13395 = loc("reduce.4502")
#loc13396 = loc("multiply.4511")
#loc13397 = loc("reshape.4512")
#loc13398 = loc("add.4532")
#loc13399 = loc("rsqrt.4533")
#loc13400 = loc("reshape.4540")
#loc13401 = loc("broadcast.4541")
#loc13402 = loc("multiply.4542")
#loc13403 = loc("broadcast.4543")
#loc13404 = loc("multiply.4544")
#loc13405 = loc("broadcast.4547")
#loc13406 = loc("add.4548")
#loc13408 = loc("multiply.15536")
#loc13409 = loc("power.15522")
#loc13410 = loc("multiply.15525")
#loc13411 = loc("add.15526")
#loc13412 = loc("multiply.15529")
#loc13413 = loc("tanh.15530")
#loc13414 = loc("add.15533")
#loc13415 = loc("multiply.15537")
#loc13419 = loc("reduce.15595")
#loc13420 = loc("multiply.15604")
#loc13421 = loc("broadcast.15614")
#loc13422 = loc("subtract.15615")
#loc13423 = loc("subtract.15570")
#loc13424 = loc("multiply.15571")
#loc13425 = loc("reduce.15578")
#loc13426 = loc("multiply.15587")
#loc13427 = loc("reshape.15588")
#loc13428 = loc("add.15608")
#loc13429 = loc("rsqrt.15609")
#loc13430 = loc("reshape.15616")
#loc13431 = loc("broadcast.15617")
#loc13432 = loc("multiply.15618")
#loc13433 = loc("broadcast.15619")
#loc13434 = loc("multiply.15620")
#loc13435 = loc("broadcast.15623")
#loc13436 = loc("add.15624")
#loc13440 = loc("reduce.11371")
#loc13441 = loc("multiply.11380")
#loc13442 = loc("broadcast.11390")
#loc13443 = loc("subtract.11391")
#loc13444 = loc("subtract.11346")
#loc13445 = loc("multiply.11347")
#loc13446 = loc("reduce.11354")
#loc13447 = loc("multiply.11363")
#loc13448 = loc("reshape.11364")
#loc13449 = loc("add.11384")
#loc13450 = loc("rsqrt.11385")
#loc13451 = loc("reshape.11392")
#loc13452 = loc("broadcast.11393")
#loc13453 = loc("multiply.11394")
#loc13454 = loc("broadcast.11395")
#loc13455 = loc("multiply.11396")
#loc13456 = loc("broadcast.11399")
#loc13457 = loc("add.11400")
#loc13459 = loc("multiply.7190")
#loc13460 = loc("power.7176")
#loc13461 = loc("multiply.7179")
#loc13462 = loc("add.7180")
#loc13463 = loc("multiply.7183")
#loc13464 = loc("tanh.7184")
#loc13465 = loc("add.7187")
#loc13466 = loc("multiply.7191")
#loc13468 = loc("multiply.15793")
#loc13469 = loc("power.15779")
#loc13470 = loc("multiply.15782")
#loc13471 = loc("add.15783")
#loc13472 = loc("multiply.15786")
#loc13473 = loc("tanh.15787")
#loc13474 = loc("add.15790")
#loc13475 = loc("multiply.15794")
#loc13479 = loc("reduce.15852")
#loc13480 = loc("multiply.15861")
#loc13481 = loc("broadcast.15871")
#loc13482 = loc("subtract.15872")
#loc13483 = loc("subtract.15827")
#loc13484 = loc("multiply.15828")
#loc13485 = loc("reduce.15835")
#loc13486 = loc("multiply.15844")
#loc13487 = loc("reshape.15845")
#loc13488 = loc("add.15865")
#loc13489 = loc("rsqrt.15866")
#loc13490 = loc("reshape.15873")
#loc13491 = loc("broadcast.15874")
#loc13492 = loc("multiply.15875")
#loc13493 = loc("broadcast.15876")
#loc13494 = loc("multiply.15877")
#loc13495 = loc("broadcast.15880")
#loc13496 = loc("add.15881")
#loc13500 = loc("reduce.16254")
#loc13501 = loc("multiply.16263")
#loc13502 = loc("broadcast.16273")
#loc13503 = loc("subtract.16274")
#loc13504 = loc("subtract.16229")
#loc13505 = loc("multiply.16230")
#loc13506 = loc("reduce.16237")
#loc13507 = loc("multiply.16246")
#loc13508 = loc("reshape.16247")
#loc13509 = loc("add.16267")
#loc13510 = loc("rsqrt.16268")
#loc13511 = loc("reshape.16275")
#loc13512 = loc("broadcast.16276")
#loc13513 = loc("multiply.16277")
#loc13514 = loc("broadcast.16278")
#loc13515 = loc("multiply.16279")
#loc13516 = loc("broadcast.16282")
#loc13517 = loc("add.16283")
#loc13519 = loc("multiply.16307")
#loc13520 = loc("power.16293")
#loc13521 = loc("multiply.16296")
#loc13522 = loc("add.16297")
#loc13523 = loc("multiply.16300")
#loc13524 = loc("tanh.16301")
#loc13525 = loc("add.16304")
#loc13526 = loc("multiply.16308")
#loc13530 = loc("reduce.16511")
#loc13531 = loc("multiply.16520")
#loc13532 = loc("broadcast.16530")
#loc13533 = loc("subtract.16531")
#loc13534 = loc("subtract.16486")
#loc13535 = loc("multiply.16487")
#loc13536 = loc("reduce.16494")
#loc13537 = loc("multiply.16503")
#loc13538 = loc("reshape.16504")
#loc13539 = loc("add.16524")
#loc13540 = loc("rsqrt.16525")
#loc13541 = loc("reshape.16532")
#loc13542 = loc("broadcast.16533")
#loc13543 = loc("multiply.16534")
#loc13544 = loc("broadcast.16535")
#loc13545 = loc("multiply.16536")
#loc13546 = loc("broadcast.16539")
#loc13547 = loc("add.16540")
#loc13549 = loc("multiply.5279")
#loc13550 = loc("power.5265")
#loc13551 = loc("multiply.5268")
#loc13552 = loc("add.5269")
#loc13553 = loc("multiply.5272")
#loc13554 = loc("tanh.5273")
#loc13555 = loc("add.5276")
#loc13556 = loc("multiply.5280")
#loc13558 = loc("multiply.16564")
#loc13559 = loc("power.16550")
#loc13560 = loc("multiply.16553")
#loc13561 = loc("add.16554")
#loc13562 = loc("multiply.16557")
#loc13563 = loc("tanh.16558")
#loc13564 = loc("add.16561")
#loc13565 = loc("multiply.16565")
#loc13569 = loc("reduce.16623")
#loc13570 = loc("multiply.16632")
#loc13571 = loc("broadcast.16642")
#loc13572 = loc("subtract.16643")
#loc13573 = loc("subtract.16598")
#loc13574 = loc("multiply.16599")
#loc13575 = loc("reduce.16606")
#loc13576 = loc("multiply.16615")
#loc13577 = loc("reshape.16616")
#loc13578 = loc("add.16636")
#loc13579 = loc("rsqrt.16637")
#loc13580 = loc("reshape.16644")
#loc13581 = loc("broadcast.16645")
#loc13582 = loc("multiply.16646")
#loc13583 = loc("broadcast.16647")
#loc13584 = loc("multiply.16648")
#loc13585 = loc("broadcast.16651")
#loc13586 = loc("add.16652")
#loc13588 = loc("multiply.5006")
#loc13589 = loc("power.4992")
#loc13590 = loc("multiply.4995")
#loc13591 = loc("add.4996")
#loc13592 = loc("multiply.4999")
#loc13593 = loc("tanh.5000")
#loc13594 = loc("add.5003")
#loc13595 = loc("multiply.5007")
#loc13599 = loc("reduce.7683")
#loc13600 = loc("multiply.7692")
#loc13601 = loc("broadcast.7702")
#loc13602 = loc("subtract.7703")
#loc13603 = loc("subtract.7658")
#loc13604 = loc("multiply.7659")
#loc13605 = loc("reduce.7666")
#loc13606 = loc("multiply.7675")
#loc13607 = loc("reshape.7676")
#loc13608 = loc("add.7696")
#loc13609 = loc("rsqrt.7697")
#loc13610 = loc("reshape.7704")
#loc13611 = loc("broadcast.7705")
#loc13612 = loc("multiply.7706")
#loc13613 = loc("broadcast.7707")
#loc13614 = loc("multiply.7708")
#loc13615 = loc("broadcast.7711")
#loc13616 = loc("add.7712")
#loc13618 = loc("multiply.16821")
#loc13619 = loc("power.16807")
#loc13620 = loc("multiply.16810")
#loc13621 = loc("add.16811")
#loc13622 = loc("multiply.16814")
#loc13623 = loc("tanh.16815")
#loc13624 = loc("add.16818")
#loc13625 = loc("multiply.16822")
#loc13629 = loc("reduce.16880")
#loc13630 = loc("multiply.16889")
#loc13631 = loc("broadcast.16899")
#loc13632 = loc("subtract.16900")
#loc13633 = loc("subtract.16855")
#loc13634 = loc("multiply.16856")
#loc13635 = loc("reduce.16863")
#loc13636 = loc("multiply.16872")
#loc13637 = loc("reshape.16873")
#loc13638 = loc("add.16893")
#loc13639 = loc("rsqrt.16894")
#loc13640 = loc("reshape.16901")
#loc13641 = loc("broadcast.16902")
#loc13642 = loc("multiply.16903")
#loc13643 = loc("broadcast.16904")
#loc13644 = loc("multiply.16905")
#loc13645 = loc("broadcast.16908")
#loc13646 = loc("add.16909")
#loc13650 = loc("reduce.21838")
#loc13651 = loc("multiply.21847")
#loc13652 = loc("broadcast.21857")
#loc13653 = loc("subtract.21858")
#loc13654 = loc("subtract.21813")
#loc13655 = loc("multiply.21814")
#loc13656 = loc("reduce.21821")
#loc13657 = loc("multiply.21830")
#loc13658 = loc("reshape.21831")
#loc13659 = loc("add.21851")
#loc13660 = loc("rsqrt.21852")
#loc13661 = loc("reshape.21859")
#loc13662 = loc("broadcast.21860")
#loc13663 = loc("multiply.21861")
#loc13664 = loc("broadcast.21862")
#loc13665 = loc("multiply.21863")
#loc13666 = loc("broadcast.21866")
#loc13667 = loc("add.21867")
#loc13671 = loc("reduce.17025")
#loc13672 = loc("multiply.17034")
#loc13673 = loc("broadcast.17044")
#loc13674 = loc("subtract.17045")
#loc13675 = loc("subtract.17000")
#loc13676 = loc("multiply.17001")
#loc13677 = loc("reduce.17008")
#loc13678 = loc("multiply.17017")
#loc13679 = loc("reshape.17018")
#loc13680 = loc("add.17038")
#loc13681 = loc("rsqrt.17039")
#loc13682 = loc("reshape.17046")
#loc13683 = loc("broadcast.17047")
#loc13684 = loc("multiply.17048")
#loc13685 = loc("broadcast.17049")
#loc13686 = loc("multiply.17050")
#loc13687 = loc("broadcast.17053")
#loc13688 = loc("add.17054")
#loc13692 = loc("reduce.9979")
#loc13693 = loc("multiply.9988")
#loc13694 = loc("broadcast.9998")
#loc13695 = loc("subtract.9999")
#loc13696 = loc("subtract.9954")
#loc13697 = loc("multiply.9955")
#loc13698 = loc("reduce.9962")
#loc13699 = loc("multiply.9971")
#loc13700 = loc("reshape.9972")
#loc13701 = loc("add.9992")
#loc13702 = loc("rsqrt.9993")
#loc13703 = loc("reshape.10000")
#loc13704 = loc("broadcast.10001")
#loc13705 = loc("multiply.10002")
#loc13706 = loc("broadcast.10003")
#loc13707 = loc("multiply.10004")
#loc13708 = loc("broadcast.10007")
#loc13709 = loc("add.10008")
#loc13711 = loc("multiply.9374")
#loc13712 = loc("power.9360")
#loc13713 = loc("multiply.9363")
#loc13714 = loc("add.9364")
#loc13715 = loc("multiply.9367")
#loc13716 = loc("tanh.9368")
#loc13717 = loc("add.9371")
#loc13718 = loc("multiply.9375")
#loc13722 = loc("reduce.17137")
#loc13723 = loc("multiply.17146")
#loc13724 = loc("broadcast.17156")
#loc13725 = loc("subtract.17157")
#loc13726 = loc("subtract.17112")
#loc13727 = loc("multiply.17113")
#loc13728 = loc("reduce.17120")
#loc13729 = loc("multiply.17129")
#loc13730 = loc("reshape.17130")
#loc13731 = loc("add.17150")
#loc13732 = loc("rsqrt.17151")
#loc13733 = loc("reshape.17158")
#loc13734 = loc("broadcast.17159")
#loc13735 = loc("multiply.17160")
#loc13736 = loc("broadcast.17161")
#loc13737 = loc("multiply.17162")
#loc13738 = loc("broadcast.17165")
#loc13739 = loc("add.17166")
#loc13743 = loc("reduce.8502")
#loc13744 = loc("multiply.8511")
#loc13745 = loc("broadcast.8521")
#loc13746 = loc("subtract.8522")
#loc13747 = loc("subtract.8477")
#loc13748 = loc("multiply.8478")
#loc13749 = loc("reduce.8485")
#loc13750 = loc("multiply.8494")
#loc13751 = loc("reshape.8495")
#loc13752 = loc("add.8515")
#loc13753 = loc("rsqrt.8516")
#loc13754 = loc("reshape.8523")
#loc13755 = loc("broadcast.8524")
#loc13756 = loc("multiply.8525")
#loc13757 = loc("broadcast.8526")
#loc13758 = loc("multiply.8527")
#loc13759 = loc("broadcast.8530")
#loc13760 = loc("add.8531")
#loc13762 = loc("multiply.28682")
#loc13763 = loc("power.28668")
#loc13764 = loc("multiply.28671")
#loc13765 = loc("add.28672")
#loc13766 = loc("multiply.28675")
#loc13767 = loc("tanh.28676")
#loc13768 = loc("add.28679")
#loc13769 = loc("multiply.28683")
#loc13771 = loc("multiply.17592")
#loc13772 = loc("power.17578")
#loc13773 = loc("multiply.17581")
#loc13774 = loc("add.17582")
#loc13775 = loc("multiply.17585")
#loc13776 = loc("tanh.17586")
#loc13777 = loc("add.17589")
#loc13778 = loc("multiply.17593")
#loc13782 = loc("reduce.12511")
#loc13783 = loc("multiply.12520")
#loc13784 = loc("broadcast.12530")
#loc13785 = loc("subtract.12531")
#loc13786 = loc("subtract.12486")
#loc13787 = loc("multiply.12487")
#loc13788 = loc("reduce.12494")
#loc13789 = loc("multiply.12503")
#loc13790 = loc("reshape.12504")
#loc13791 = loc("add.12524")
#loc13792 = loc("rsqrt.12525")
#loc13793 = loc("reshape.12532")
#loc13794 = loc("broadcast.12533")
#loc13795 = loc("multiply.12534")
#loc13796 = loc("broadcast.12535")
#loc13797 = loc("multiply.12536")
#loc13798 = loc("broadcast.12539")
#loc13799 = loc("add.12540")
#loc13803 = loc("reduce.17651")
#loc13804 = loc("multiply.17660")
#loc13805 = loc("broadcast.17670")
#loc13806 = loc("subtract.17671")
#loc13807 = loc("subtract.17626")
#loc13808 = loc("multiply.17627")
#loc13809 = loc("reduce.17634")
#loc13810 = loc("multiply.17643")
#loc13811 = loc("reshape.17644")
#loc13812 = loc("add.17664")
#loc13813 = loc("rsqrt.17665")
#loc13814 = loc("reshape.17672")
#loc13815 = loc("broadcast.17673")
#loc13816 = loc("multiply.17674")
#loc13817 = loc("broadcast.17675")
#loc13818 = loc("multiply.17676")
#loc13819 = loc("broadcast.17679")
#loc13820 = loc("add.17680")
#loc13822 = loc("multiply.10466")
#loc13823 = loc("power.10452")
#loc13824 = loc("multiply.10455")
#loc13825 = loc("add.10456")
#loc13826 = loc("multiply.10459")
#loc13827 = loc("tanh.10460")
#loc13828 = loc("add.10463")
#loc13829 = loc("multiply.10467")
#loc13833 = loc("reduce.3315")
#loc13834 = loc("multiply.3324")
#loc13835 = loc("broadcast.3334")
#loc13836 = loc("subtract.3335")
#loc13837 = loc("subtract.3290")
#loc13838 = loc("multiply.3291")
#loc13839 = loc("reduce.3298")
#loc13840 = loc("multiply.3307")
#loc13841 = loc("reshape.3308")
#loc13842 = loc("add.3328")
#loc13843 = loc("rsqrt.3329")
#loc13844 = loc("reshape.3336")
#loc13845 = loc("broadcast.3337")
#loc13846 = loc("multiply.3338")
#loc13847 = loc("broadcast.3339")
#loc13848 = loc("multiply.3340")
#loc13849 = loc("broadcast.3343")
#loc13850 = loc("add.3344")
#loc13852 = loc("multiply.12452")
#loc13853 = loc("power.12438")
#loc13854 = loc("multiply.12441")
#loc13855 = loc("add.12442")
#loc13856 = loc("multiply.12445")
#loc13857 = loc("tanh.12446")
#loc13858 = loc("add.12449")
#loc13859 = loc("multiply.12453")
#loc13863 = loc("reduce.3427")
#loc13864 = loc("multiply.3436")
#loc13865 = loc("broadcast.3446")
#loc13866 = loc("subtract.3447")
#loc13867 = loc("subtract.3402")
#loc13868 = loc("multiply.3403")
#loc13869 = loc("reduce.3410")
#loc13870 = loc("multiply.3419")
#loc13871 = loc("reshape.3420")
#loc13872 = loc("add.3440")
#loc13873 = loc("rsqrt.3441")
#loc13874 = loc("reshape.3448")
#loc13875 = loc("broadcast.3449")
#loc13876 = loc("multiply.3450")
#loc13877 = loc("broadcast.3451")
#loc13878 = loc("multiply.3452")
#loc13879 = loc("broadcast.3455")
#loc13880 = loc("add.3456")
#loc13884 = loc("reduce.3700")
#loc13885 = loc("multiply.3709")
#loc13886 = loc("broadcast.3719")
#loc13887 = loc("subtract.3720")
#loc13888 = loc("subtract.3675")
#loc13889 = loc("multiply.3676")
#loc13890 = loc("reduce.3683")
#loc13891 = loc("multiply.3692")
#loc13892 = loc("reshape.3693")
#loc13893 = loc("add.3713")
#loc13894 = loc("rsqrt.3714")
#loc13895 = loc("reshape.3721")
#loc13896 = loc("broadcast.3722")
#loc13897 = loc("multiply.3723")
#loc13898 = loc("broadcast.3724")
#loc13899 = loc("multiply.3725")
#loc13900 = loc("broadcast.3728")
#loc13901 = loc("add.3729")
#loc13905 = loc("reduce.9160")
#loc13906 = loc("multiply.9169")
#loc13907 = loc("broadcast.9179")
#loc13908 = loc("subtract.9180")
#loc13909 = loc("subtract.9135")
#loc13910 = loc("multiply.9136")
#loc13911 = loc("reduce.9143")
#loc13912 = loc("multiply.9152")
#loc13913 = loc("reshape.9153")
#loc13914 = loc("add.9173")
#loc13915 = loc("rsqrt.9174")
#loc13916 = loc("reshape.9181")
#loc13917 = loc("broadcast.9182")
#loc13918 = loc("multiply.9183")
#loc13919 = loc("broadcast.9184")
#loc13920 = loc("multiply.9185")
#loc13921 = loc("broadcast.9188")
#loc13922 = loc("add.9189")
#loc13926 = loc("reduce.3861")
#loc13927 = loc("multiply.3870")
#loc13928 = loc("broadcast.3880")
#loc13929 = loc("subtract.3881")
#loc13930 = loc("subtract.3836")
#loc13931 = loc("multiply.3837")
#loc13932 = loc("reduce.3844")
#loc13933 = loc("multiply.3853")
#loc13934 = loc("reshape.3854")
#loc13935 = loc("add.3874")
#loc13936 = loc("rsqrt.3875")
#loc13937 = loc("reshape.3882")
#loc13938 = loc("broadcast.3883")
#loc13939 = loc("multiply.3884")
#loc13940 = loc("broadcast.3885")
#loc13941 = loc("multiply.3886")
#loc13942 = loc("broadcast.3889")
#loc13943 = loc("add.3890")
#loc13947 = loc("reduce.3973")
#loc13948 = loc("multiply.3982")
#loc13949 = loc("broadcast.3992")
#loc13950 = loc("subtract.3993")
#loc13951 = loc("subtract.3948")
#loc13952 = loc("multiply.3949")
#loc13953 = loc("reduce.3956")
#loc13954 = loc("multiply.3965")
#loc13955 = loc("reshape.3966")
#loc13956 = loc("add.3986")
#loc13957 = loc("rsqrt.3987")
#loc13958 = loc("reshape.3994")
#loc13959 = loc("broadcast.3995")
#loc13960 = loc("multiply.3996")
#loc13961 = loc("broadcast.3997")
#loc13962 = loc("multiply.3998")
#loc13963 = loc("broadcast.4001")
#loc13964 = loc("add.4002")
#loc13968 = loc("reduce.4134")
#loc13969 = loc("multiply.4143")
#loc13970 = loc("broadcast.4153")
#loc13971 = loc("subtract.4154")
#loc13972 = loc("subtract.4109")
#loc13973 = loc("multiply.4110")
#loc13974 = loc("reduce.4117")
#loc13975 = loc("multiply.4126")
#loc13976 = loc("reshape.4127")
#loc13977 = loc("add.4147")
#loc13978 = loc("rsqrt.4148")
#loc13979 = loc("reshape.4155")
#loc13980 = loc("broadcast.4156")
#loc13981 = loc("multiply.4157")
#loc13982 = loc("broadcast.4158")
#loc13983 = loc("multiply.4159")
#loc13984 = loc("broadcast.4162")
#loc13985 = loc("add.4163")
#loc13987 = loc("multiply.4187")
#loc13988 = loc("power.4173")
#loc13989 = loc("multiply.4176")
#loc13990 = loc("add.4177")
#loc13991 = loc("multiply.4180")
#loc13992 = loc("tanh.4181")
#loc13993 = loc("add.4184")
#loc13994 = loc("multiply.4188")
#loc13998 = loc("reduce.4246")
#loc13999 = loc("multiply.4255")
#loc14000 = loc("broadcast.4265")
#loc14001 = loc("subtract.4266")
#loc14002 = loc("subtract.4221")
#loc14003 = loc("multiply.4222")
#loc14004 = loc("reduce.4229")
#loc14005 = loc("multiply.4238")
#loc14006 = loc("reshape.4239")
#loc14007 = loc("add.4259")
#loc14008 = loc("rsqrt.4260")
#loc14009 = loc("reshape.4267")
#loc14010 = loc("broadcast.4268")
#loc14011 = loc("multiply.4269")
#loc14012 = loc("broadcast.4270")
#loc14013 = loc("multiply.4271")
#loc14014 = loc("broadcast.4274")
#loc14015 = loc("add.4275")
#loc14019 = loc("reduce.4407")
#loc14020 = loc("multiply.4416")
#loc14021 = loc("broadcast.4426")
#loc14022 = loc("subtract.4427")
#loc14023 = loc("subtract.4382")
#loc14024 = loc("multiply.4383")
#loc14025 = loc("reduce.4390")
#loc14026 = loc("multiply.4399")
#loc14027 = loc("reshape.4400")
#loc14028 = loc("add.4420")
#loc14029 = loc("rsqrt.4421")
#loc14030 = loc("reshape.4428")
#loc14031 = loc("broadcast.4429")
#loc14032 = loc("multiply.4430")
#loc14033 = loc("broadcast.4431")
#loc14034 = loc("multiply.4432")
#loc14035 = loc("broadcast.4435")
#loc14036 = loc("add.4436")
#loc14038 = loc("multiply.4460")
#loc14039 = loc("power.4446")
#loc14040 = loc("multiply.4449")
#loc14041 = loc("add.4450")
#loc14042 = loc("multiply.4453")
#loc14043 = loc("tanh.4454")
#loc14044 = loc("add.4457")
#loc14045 = loc("multiply.4461")
#loc14049 = loc("reduce.3588")
#loc14050 = loc("multiply.3597")
#loc14051 = loc("broadcast.3607")
#loc14052 = loc("subtract.3608")
#loc14053 = loc("subtract.3563")
#loc14054 = loc("multiply.3564")
#loc14055 = loc("reduce.3571")
#loc14056 = loc("multiply.3580")
#loc14057 = loc("reshape.3581")
#loc14058 = loc("add.3601")
#loc14059 = loc("rsqrt.3602")
#loc14060 = loc("reshape.3609")
#loc14061 = loc("broadcast.3610")
#loc14062 = loc("multiply.3611")
#loc14063 = loc("broadcast.3612")
#loc14064 = loc("multiply.3613")
#loc14065 = loc("broadcast.3616")
#loc14066 = loc("add.3617")
#loc14068 = loc("multiply.4733")
#loc14069 = loc("power.4719")
#loc14070 = loc("multiply.4722")
#loc14071 = loc("add.4723")
#loc14072 = loc("multiply.4726")
#loc14073 = loc("tanh.4727")
#loc14074 = loc("add.4730")
#loc14075 = loc("multiply.4734")
#loc14077 = loc("multiply.5552")
#loc14078 = loc("power.5538")
#loc14079 = loc("multiply.5541")
#loc14080 = loc("add.5542")
#loc14081 = loc("multiply.5545")
#loc14082 = loc("tanh.5546")
#loc14083 = loc("add.5549")
#loc14084 = loc("multiply.5553")
#loc14086 = loc("multiply.30002")
#loc14087 = loc("power.29988")
#loc14088 = loc("multiply.29991")
#loc14089 = loc("add.29992")
#loc14090 = loc("multiply.29995")
#loc14091 = loc("tanh.29996")
#loc14092 = loc("add.29999")
#loc14093 = loc("multiply.30003")
#loc14097 = loc("reduce.19380")
#loc14098 = loc("multiply.19389")
#loc14099 = loc("broadcast.19399")
#loc14100 = loc("subtract.19400")
#loc14101 = loc("subtract.19355")
#loc14102 = loc("multiply.19356")
#loc14103 = loc("reduce.19363")
#loc14104 = loc("multiply.19372")
#loc14105 = loc("reshape.19373")
#loc14106 = loc("add.19393")
#loc14107 = loc("rsqrt.19394")
#loc14108 = loc("reshape.19401")
#loc14109 = loc("broadcast.19402")
#loc14110 = loc("multiply.19403")
#loc14111 = loc("broadcast.19404")
#loc14112 = loc("multiply.19405")
#loc14113 = loc("broadcast.19408")
#loc14114 = loc("add.19409")
#loc14118 = loc("reduce.5611")
#loc14119 = loc("multiply.5620")
#loc14120 = loc("broadcast.5630")
#loc14121 = loc("subtract.5631")
#loc14122 = loc("subtract.5586")
#loc14123 = loc("multiply.5587")
#loc14124 = loc("reduce.5594")
#loc14125 = loc("multiply.5603")
#loc14126 = loc("reshape.5604")
#loc14127 = loc("add.5624")
#loc14128 = loc("rsqrt.5625")
#loc14129 = loc("reshape.5632")
#loc14130 = loc("broadcast.5633")
#loc14131 = loc("multiply.5634")
#loc14132 = loc("broadcast.5635")
#loc14133 = loc("multiply.5636")
#loc14134 = loc("broadcast.5639")
#loc14135 = loc("add.5640")
#loc14139 = loc("reduce.6591")
#loc14140 = loc("multiply.6600")
#loc14141 = loc("broadcast.6610")
#loc14142 = loc("subtract.6611")
#loc14143 = loc("subtract.6566")
#loc14144 = loc("multiply.6567")
#loc14145 = loc("reduce.6574")
#loc14146 = loc("multiply.6583")
#loc14147 = loc("reshape.6584")
#loc14148 = loc("add.6604")
#loc14149 = loc("rsqrt.6605")
#loc14150 = loc("reshape.6612")
#loc14151 = loc("broadcast.6613")
#loc14152 = loc("multiply.6614")
#loc14153 = loc("broadcast.6615")
#loc14154 = loc("multiply.6616")
#loc14155 = loc("broadcast.6619")
#loc14156 = loc("add.6620")
#loc14160 = loc("reduce.24263")
#loc14161 = loc("multiply.24272")
#loc14162 = loc("broadcast.24282")
#loc14163 = loc("subtract.24283")
#loc14164 = loc("subtract.24238")
#loc14165 = loc("multiply.24239")
#loc14166 = loc("reduce.24246")
#loc14167 = loc("multiply.24255")
#loc14168 = loc("reshape.24256")
#loc14169 = loc("add.24276")
#loc14170 = loc("rsqrt.24277")
#loc14171 = loc("reshape.24284")
#loc14172 = loc("broadcast.24285")
#loc14173 = loc("multiply.24286")
#loc14174 = loc("broadcast.24287")
#loc14175 = loc("multiply.24288")
#loc14176 = loc("broadcast.24291")
#loc14177 = loc("add.24292")
#loc14181 = loc("reduce.7137")
#loc14182 = loc("multiply.7146")
#loc14183 = loc("broadcast.7156")
#loc14184 = loc("subtract.7157")
#loc14185 = loc("subtract.7112")
#loc14186 = loc("multiply.7113")
#loc14187 = loc("reduce.7120")
#loc14188 = loc("multiply.7129")
#loc14189 = loc("reshape.7130")
#loc14190 = loc("add.7150")
#loc14191 = loc("rsqrt.7151")
#loc14192 = loc("reshape.7158")
#loc14193 = loc("broadcast.7159")
#loc14194 = loc("multiply.7160")
#loc14195 = loc("broadcast.7161")
#loc14196 = loc("multiply.7162")
#loc14197 = loc("broadcast.7165")
#loc14198 = loc("add.7166")
#loc14200 = loc("multiply.6371")
#loc14201 = loc("power.6357")
#loc14202 = loc("multiply.6360")
#loc14203 = loc("add.6361")
#loc14204 = loc("multiply.6364")
#loc14205 = loc("tanh.6365")
#loc14206 = loc("add.6368")
#loc14207 = loc("multiply.6372")
#loc14211 = loc("reduce.7410")
#loc14212 = loc("multiply.7419")
#loc14213 = loc("broadcast.7429")
#loc14214 = loc("subtract.7430")
#loc14215 = loc("subtract.7385")
#loc14216 = loc("multiply.7386")
#loc14217 = loc("reduce.7393")
#loc14218 = loc("multiply.7402")
#loc14219 = loc("reshape.7403")
#loc14220 = loc("add.7423")
#loc14221 = loc("rsqrt.7424")
#loc14222 = loc("reshape.7431")
#loc14223 = loc("broadcast.7432")
#loc14224 = loc("multiply.7433")
#loc14225 = loc("broadcast.7434")
#loc14226 = loc("multiply.7435")
#loc14227 = loc("broadcast.7438")
#loc14228 = loc("add.7439")
#loc14230 = loc("multiply.14508")
#loc14231 = loc("power.14494")
#loc14232 = loc("multiply.14497")
#loc14233 = loc("add.14498")
#loc14234 = loc("multiply.14501")
#loc14235 = loc("tanh.14502")
#loc14236 = loc("add.14505")
#loc14237 = loc("multiply.14509")
#loc14241 = loc("reduce.17282")
#loc14242 = loc("multiply.17291")
#loc14243 = loc("broadcast.17301")
#loc14244 = loc("subtract.17302")
#loc14245 = loc("subtract.17257")
#loc14246 = loc("multiply.17258")
#loc14247 = loc("reduce.17265")
#loc14248 = loc("multiply.17274")
#loc14249 = loc("reshape.17275")
#loc14250 = loc("add.17295")
#loc14251 = loc("rsqrt.17296")
#loc14252 = loc("reshape.17303")
#loc14253 = loc("broadcast.17304")
#loc14254 = loc("multiply.17305")
#loc14255 = loc("broadcast.17306")
#loc14256 = loc("multiply.17307")
#loc14257 = loc("broadcast.17310")
#loc14258 = loc("add.17311")
#loc14260 = loc("multiply.7463")
#loc14261 = loc("power.7449")
#loc14262 = loc("multiply.7452")
#loc14263 = loc("add.7453")
#loc14264 = loc("multiply.7456")
#loc14265 = loc("tanh.7457")
#loc14266 = loc("add.7460")
#loc14267 = loc("multiply.7464")
#loc14269 = loc("multiply.24461")
#loc14270 = loc("power.24447")
#loc14271 = loc("multiply.24450")
#loc14272 = loc("add.24451")
#loc14273 = loc("multiply.24454")
#loc14274 = loc("tanh.24455")
#loc14275 = loc("add.24458")
#loc14276 = loc("multiply.24462")
#loc14280 = loc("reduce.11483")
#loc14281 = loc("multiply.11492")
#loc14282 = loc("broadcast.11502")
#loc14283 = loc("subtract.11503")
#loc14284 = loc("subtract.11458")
#loc14285 = loc("multiply.11459")
#loc14286 = loc("reduce.11466")
#loc14287 = loc("multiply.11475")
#loc14288 = loc("reshape.11476")
#loc14289 = loc("add.11496")
#loc14290 = loc("rsqrt.11497")
#loc14291 = loc("reshape.11504")
#loc14292 = loc("broadcast.11505")
#loc14293 = loc("multiply.11506")
#loc14294 = loc("broadcast.11507")
#loc14295 = loc("multiply.11508")
#loc14296 = loc("broadcast.11511")
#loc14297 = loc("add.11512")
#loc14301 = loc("reduce.10413")
#loc14302 = loc("multiply.10422")
#loc14303 = loc("broadcast.10432")
#loc14304 = loc("subtract.10433")
#loc14305 = loc("subtract.10388")
#loc14306 = loc("multiply.10389")
#loc14307 = loc("reduce.10396")
#loc14308 = loc("multiply.10405")
#loc14309 = loc("reshape.10406")
#loc14310 = loc("add.10426")
#loc14311 = loc("rsqrt.10427")
#loc14312 = loc("reshape.10434")
#loc14313 = loc("broadcast.10435")
#loc14314 = loc("multiply.10436")
#loc14315 = loc("broadcast.10437")
#loc14316 = loc("multiply.10438")
#loc14317 = loc("broadcast.10441")
#loc14318 = loc("add.10442")
#loc14322 = loc("reduce.17394")
#loc14323 = loc("multiply.17403")
#loc14324 = loc("broadcast.17413")
#loc14325 = loc("subtract.17414")
#loc14326 = loc("subtract.17369")
#loc14327 = loc("multiply.17370")
#loc14328 = loc("reduce.17377")
#loc14329 = loc("multiply.17386")
#loc14330 = loc("reshape.17387")
#loc14331 = loc("add.17407")
#loc14332 = loc("rsqrt.17408")
#loc14333 = loc("reshape.17415")
#loc14334 = loc("broadcast.17416")
#loc14335 = loc("multiply.17417")
#loc14336 = loc("broadcast.17418")
#loc14337 = loc("multiply.17419")
#loc14338 = loc("broadcast.17422")
#loc14339 = loc("add.17423")
#loc14343 = loc("reduce.7522")
#loc14344 = loc("multiply.7531")
#loc14345 = loc("broadcast.7541")
#loc14346 = loc("subtract.7542")
#loc14347 = loc("subtract.7497")
#loc14348 = loc("multiply.7498")
#loc14349 = loc("reduce.7505")
#loc14350 = loc("multiply.7514")
#loc14351 = loc("reshape.7515")
#loc14352 = loc("add.7535")
#loc14353 = loc("rsqrt.7536")
#loc14354 = loc("reshape.7543")
#loc14355 = loc("broadcast.7544")
#loc14356 = loc("multiply.7545")
#loc14357 = loc("broadcast.7546")
#loc14358 = loc("multiply.7547")
#loc14359 = loc("broadcast.7550")
#loc14360 = loc("add.7551")
#loc14364 = loc("reduce.8068")
#loc14365 = loc("multiply.8077")
#loc14366 = loc("broadcast.8087")
#loc14367 = loc("subtract.8088")
#loc14368 = loc("subtract.8043")
#loc14369 = loc("multiply.8044")
#loc14370 = loc("reduce.8051")
#loc14371 = loc("multiply.8060")
#loc14372 = loc("reshape.8061")
#loc14373 = loc("add.8081")
#loc14374 = loc("rsqrt.8082")
#loc14375 = loc("reshape.8089")
#loc14376 = loc("broadcast.8090")
#loc14377 = loc("multiply.8091")
#loc14378 = loc("broadcast.8092")
#loc14379 = loc("multiply.8093")
#loc14380 = loc("broadcast.8096")
#loc14381 = loc("add.8097")
#loc14383 = loc("multiply.19578")
#loc14384 = loc("power.19564")
#loc14385 = loc("multiply.19567")
#loc14386 = loc("add.19568")
#loc14387 = loc("multiply.19571")
#loc14388 = loc("tanh.19572")
#loc14389 = loc("add.19575")
#loc14390 = loc("multiply.19579")
#loc14394 = loc("reduce.9321")
#loc14395 = loc("multiply.9330")
#loc14396 = loc("broadcast.9340")
#loc14397 = loc("subtract.9341")
#loc14398 = loc("subtract.9296")
#loc14399 = loc("multiply.9297")
#loc14400 = loc("reduce.9304")
#loc14401 = loc("multiply.9313")
#loc14402 = loc("reshape.9314")
#loc14403 = loc("add.9334")
#loc14404 = loc("rsqrt.9335")
#loc14405 = loc("reshape.9342")
#loc14406 = loc("broadcast.9343")
#loc14407 = loc("multiply.9344")
#loc14408 = loc("broadcast.9345")
#loc14409 = loc("multiply.9346")
#loc14410 = loc("broadcast.9349")
#loc14411 = loc("add.9350")
#loc14415 = loc("reduce.8229")
#loc14416 = loc("multiply.8238")
#loc14417 = loc("broadcast.8248")
#loc14418 = loc("subtract.8249")
#loc14419 = loc("subtract.8204")
#loc14420 = loc("multiply.8205")
#loc14421 = loc("reduce.8212")
#loc14422 = loc("multiply.8221")
#loc14423 = loc("reshape.8222")
#loc14424 = loc("add.8242")
#loc14425 = loc("rsqrt.8243")
#loc14426 = loc("reshape.8250")
#loc14427 = loc("broadcast.8251")
#loc14428 = loc("multiply.8252")
#loc14429 = loc("broadcast.8253")
#loc14430 = loc("multiply.8254")
#loc14431 = loc("broadcast.8257")
#loc14432 = loc("add.8258")
#loc14436 = loc("reduce.12768")
#loc14437 = loc("multiply.12777")
#loc14438 = loc("broadcast.12787")
#loc14439 = loc("subtract.12788")
#loc14440 = loc("subtract.12743")
#loc14441 = loc("multiply.12744")
#loc14442 = loc("reduce.12751")
#loc14443 = loc("multiply.12760")
#loc14444 = loc("reshape.12761")
#loc14445 = loc("add.12781")
#loc14446 = loc("rsqrt.12782")
#loc14447 = loc("reshape.12789")
#loc14448 = loc("broadcast.12790")
#loc14449 = loc("multiply.12791")
#loc14450 = loc("broadcast.12792")
#loc14451 = loc("multiply.12793")
#loc14452 = loc("broadcast.12796")
#loc14453 = loc("add.12797")
#loc14455 = loc("multiply.8282")
#loc14456 = loc("power.8268")
#loc14457 = loc("multiply.8271")
#loc14458 = loc("add.8272")
#loc14459 = loc("multiply.8275")
#loc14460 = loc("tanh.8276")
#loc14461 = loc("add.8279")
#loc14462 = loc("multiply.8283")
#loc14466 = loc("reduce.8341")
#loc14467 = loc("multiply.8350")
#loc14468 = loc("broadcast.8360")
#loc14469 = loc("subtract.8361")
#loc14470 = loc("subtract.8316")
#loc14471 = loc("multiply.8317")
#loc14472 = loc("reduce.8324")
#loc14473 = loc("multiply.8333")
#loc14474 = loc("reshape.8334")
#loc14475 = loc("add.8354")
#loc14476 = loc("rsqrt.8355")
#loc14477 = loc("reshape.8362")
#loc14478 = loc("broadcast.8363")
#loc14479 = loc("multiply.8364")
#loc14480 = loc("broadcast.8365")
#loc14481 = loc("multiply.8366")
#loc14482 = loc("broadcast.8369")
#loc14483 = loc("add.8370")
#loc14485 = loc("multiply.32862")
#loc14486 = loc("power.32848")
#loc14487 = loc("multiply.32851")
#loc14488 = loc("add.32852")
#loc14489 = loc("multiply.32855")
#loc14490 = loc("tanh.32856")
#loc14491 = loc("add.32859")
#loc14492 = loc("multiply.32863")
#loc14494 = loc("multiply.8555")
#loc14495 = loc("power.8541")
#loc14496 = loc("multiply.8544")
#loc14497 = loc("add.8545")
#loc14498 = loc("multiply.8548")
#loc14499 = loc("tanh.8549")
#loc14500 = loc("add.8552")
#loc14501 = loc("multiply.8556")
#loc14505 = loc("reduce.21067")
#loc14506 = loc("multiply.21076")
#loc14507 = loc("broadcast.21086")
#loc14508 = loc("subtract.21087")
#loc14509 = loc("subtract.21042")
#loc14510 = loc("multiply.21043")
#loc14511 = loc("reduce.21050")
#loc14512 = loc("multiply.21059")
#loc14513 = loc("reshape.21060")
#loc14514 = loc("add.21080")
#loc14515 = loc("rsqrt.21081")
#loc14516 = loc("reshape.21088")
#loc14517 = loc("broadcast.21089")
#loc14518 = loc("multiply.21090")
#loc14519 = loc("broadcast.21091")
#loc14520 = loc("multiply.21092")
#loc14521 = loc("broadcast.21095")
#loc14522 = loc("add.21096")
#loc14526 = loc("reduce.8614")
#loc14527 = loc("multiply.8623")
#loc14528 = loc("broadcast.8633")
#loc14529 = loc("subtract.8634")
#loc14530 = loc("subtract.8589")
#loc14531 = loc("multiply.8590")
#loc14532 = loc("reduce.8597")
#loc14533 = loc("multiply.8606")
#loc14534 = loc("reshape.8607")
#loc14535 = loc("add.8627")
#loc14536 = loc("rsqrt.8628")
#loc14537 = loc("reshape.8635")
#loc14538 = loc("broadcast.8636")
#loc14539 = loc("multiply.8637")
#loc14540 = loc("broadcast.8638")
#loc14541 = loc("multiply.8639")
#loc14542 = loc("broadcast.8642")
#loc14543 = loc("add.8643")
#loc14547 = loc("reduce.5065")
#loc14548 = loc("multiply.5074")
#loc14549 = loc("broadcast.5084")
#loc14550 = loc("subtract.5085")
#loc14551 = loc("subtract.5040")
#loc14552 = loc("multiply.5041")
#loc14553 = loc("reduce.5048")
#loc14554 = loc("multiply.5057")
#loc14555 = loc("reshape.5058")
#loc14556 = loc("add.5078")
#loc14557 = loc("rsqrt.5079")
#loc14558 = loc("reshape.5086")
#loc14559 = loc("broadcast.5087")
#loc14560 = loc("multiply.5088")
#loc14561 = loc("broadcast.5089")
#loc14562 = loc("multiply.5090")
#loc14563 = loc("broadcast.5093")
#loc14564 = loc("add.5094")
#loc14568 = loc("reduce.10140")
#loc14569 = loc("multiply.10149")
#loc14570 = loc("broadcast.10159")
#loc14571 = loc("subtract.10160")
#loc14572 = loc("subtract.10115")
#loc14573 = loc("multiply.10116")
#loc14574 = loc("reduce.10123")
#loc14575 = loc("multiply.10132")
#loc14576 = loc("reshape.10133")
#loc14577 = loc("add.10153")
#loc14578 = loc("rsqrt.10154")
#loc14579 = loc("reshape.10161")
#loc14580 = loc("broadcast.10162")
#loc14581 = loc("multiply.10163")
#loc14582 = loc("broadcast.10164")
#loc14583 = loc("multiply.10165")
#loc14584 = loc("broadcast.10168")
#loc14585 = loc("add.10169")
#loc14587 = loc("multiply.18106")
#loc14588 = loc("power.18092")
#loc14589 = loc("multiply.18095")
#loc14590 = loc("add.18096")
#loc14591 = loc("multiply.18099")
#loc14592 = loc("tanh.18100")
#loc14593 = loc("add.18103")
#loc14594 = loc("multiply.18107")
#loc14596 = loc("multiply.26702")
#loc14597 = loc("power.26688")
#loc14598 = loc("multiply.26691")
#loc14599 = loc("add.26692")
#loc14600 = loc("multiply.26695")
#loc14601 = loc("tanh.26696")
#loc14602 = loc("add.26699")
#loc14603 = loc("multiply.26703")
#loc14605 = loc("multiply.27802")
#loc14606 = loc("power.27788")
#loc14607 = loc("multiply.27791")
#loc14608 = loc("add.27792")
#loc14609 = loc("multiply.27795")
#loc14610 = loc("tanh.27796")
#loc14611 = loc("add.27799")
#loc14612 = loc("multiply.27803")
#loc14616 = loc("reduce.9048")
#loc14617 = loc("multiply.9057")
#loc14618 = loc("broadcast.9067")
#loc14619 = loc("subtract.9068")
#loc14620 = loc("subtract.9023")
#loc14621 = loc("multiply.9024")
#loc14622 = loc("reduce.9031")
#loc14623 = loc("multiply.9040")
#loc14624 = loc("reshape.9041")
#loc14625 = loc("add.9061")
#loc14626 = loc("rsqrt.9062")
#loc14627 = loc("reshape.9069")
#loc14628 = loc("broadcast.9070")
#loc14629 = loc("multiply.9071")
#loc14630 = loc("broadcast.9072")
#loc14631 = loc("multiply.9073")
#loc14632 = loc("broadcast.9076")
#loc14633 = loc("add.9077")
#loc14635 = loc("multiply.9101")
#loc14636 = loc("power.9087")
#loc14637 = loc("multiply.9090")
#loc14638 = loc("add.9091")
#loc14639 = loc("multiply.9094")
#loc14640 = loc("tanh.9095")
#loc14641 = loc("add.9098")
#loc14642 = loc("multiply.9102")
#loc14646 = loc("reduce.9594")
#loc14647 = loc("multiply.9603")
#loc14648 = loc("broadcast.9613")
#loc14649 = loc("subtract.9614")
#loc14650 = loc("subtract.9569")
#loc14651 = loc("multiply.9570")
#loc14652 = loc("reduce.9577")
#loc14653 = loc("multiply.9586")
#loc14654 = loc("reshape.9587")
#loc14655 = loc("add.9607")
#loc14656 = loc("rsqrt.9608")
#loc14657 = loc("reshape.9615")
#loc14658 = loc("broadcast.9616")
#loc14659 = loc("multiply.9617")
#loc14660 = loc("broadcast.9618")
#loc14661 = loc("multiply.9619")
#loc14662 = loc("broadcast.9622")
#loc14663 = loc("add.9623")
#loc14665 = loc("multiply.10193")
#loc14666 = loc("power.10179")
#loc14667 = loc("multiply.10182")
#loc14668 = loc("add.10183")
#loc14669 = loc("multiply.10186")
#loc14670 = loc("tanh.10187")
#loc14671 = loc("add.10190")
#loc14672 = loc("multiply.10194")
#loc14676 = loc("reduce.10525")
#loc14677 = loc("multiply.10534")
#loc14678 = loc("broadcast.10544")
#loc14679 = loc("subtract.10545")
#loc14680 = loc("subtract.10500")
#loc14681 = loc("multiply.10501")
#loc14682 = loc("reduce.10508")
#loc14683 = loc("multiply.10517")
#loc14684 = loc("reshape.10518")
#loc14685 = loc("add.10538")
#loc14686 = loc("rsqrt.10539")
#loc14687 = loc("reshape.10546")
#loc14688 = loc("broadcast.10547")
#loc14689 = loc("multiply.10548")
#loc14690 = loc("broadcast.10549")
#loc14691 = loc("multiply.10550")
#loc14692 = loc("broadcast.10553")
#loc14693 = loc("add.10554")
#loc14695 = loc("multiply.26482")
#loc14696 = loc("power.26468")
#loc14697 = loc("multiply.26471")
#loc14698 = loc("add.26472")
#loc14699 = loc("multiply.26475")
#loc14700 = loc("tanh.26476")
#loc14701 = loc("add.26479")
#loc14702 = loc("multiply.26483")
#loc14704 = loc("multiply.26922")
#loc14705 = loc("power.26908")
#loc14706 = loc("multiply.26911")
#loc14707 = loc("add.26912")
#loc14708 = loc("multiply.26915")
#loc14709 = loc("tanh.26916")
#loc14710 = loc("add.26919")
#loc14711 = loc("multiply.26923")
#loc14713 = loc("multiply.27142")
#loc14714 = loc("power.27128")
#loc14715 = loc("multiply.27131")
#loc14716 = loc("add.27132")
#loc14717 = loc("multiply.27135")
#loc14718 = loc("tanh.27136")
#loc14719 = loc("add.27139")
#loc14720 = loc("multiply.27143")
#loc14722 = loc("multiply.28462")
#loc14723 = loc("power.28448")
#loc14724 = loc("multiply.28451")
#loc14725 = loc("add.28452")
#loc14726 = loc("multiply.28455")
#loc14727 = loc("tanh.28456")
#loc14728 = loc("add.28459")
#loc14729 = loc("multiply.28463")
#loc14731 = loc("multiply.17849")
#loc14732 = loc("power.17835")
#loc14733 = loc("multiply.17838")
#loc14734 = loc("add.17839")
#loc14735 = loc("multiply.17842")
#loc14736 = loc("tanh.17843")
#loc14737 = loc("add.17846")
#loc14738 = loc("multiply.17850")
#loc14740 = loc("multiply.27582")
#loc14741 = loc("power.27568")
#loc14742 = loc("multiply.27571")
#loc14743 = loc("add.27572")
#loc14744 = loc("multiply.27575")
#loc14745 = loc("tanh.27576")
#loc14746 = loc("add.27579")
#loc14747 = loc("multiply.27583")
