#loc1 = loc("p0.72")
#loc2 = loc("p1.79")
#loc3 = loc("p2.84")
#loc4 = loc("p3.109")
#loc5 = loc("p4.117")
#loc6 = loc("p5.121")
#loc7 = loc("p6.128")
#loc8 = loc("p7.139")
#loc9 = loc("p8.144")
#loc10 = loc("p9.151")
#loc11 = loc("p10.162")
#loc12 = loc("p11.167")
#loc13 = loc("p12.174")
#loc14 = loc("p13.185")
#loc15 = loc("p14.190")
#loc16 = loc("p15.197")
#loc17 = loc("p16.208")
#loc18 = loc("p17.213")
#loc19 = loc("p18.220")
#loc20 = loc("p19.231")
#loc21 = loc("p20.236")
#loc22 = loc("p21.243")
#loc23 = loc("p22.254")
#loc24 = loc("p23.259")
#loc25 = loc("p24.266")
#loc26 = loc("p25.277")
#loc27 = loc("p26.282")
#loc28 = loc("p27.289")
#loc29 = loc("p28.300")
#loc30 = loc("p29.305")
#loc31 = loc("p30.312")
#loc32 = loc("p31.323")
#loc33 = loc("p32.328")
#loc34 = loc("p33.335")
#loc35 = loc("p34.346")
#loc36 = loc("p35.351")
#loc37 = loc("p36.358")
#loc38 = loc("p37.369")
#loc39 = loc("p38.374")
#loc40 = loc("p39.381")
#loc41 = loc("p40.392")
#loc42 = loc("p41.397")
#loc43 = loc("p42.404")
#loc44 = loc("p43.415")
#loc45 = loc("p44.420")
#loc46 = loc("p45.427")
#loc47 = loc("p46.438")
#loc48 = loc("p47.443")
#loc49 = loc("p48.450")
#loc50 = loc("p49.461")
#loc51 = loc("p50.466")
#loc52 = loc("p51.473")
#loc53 = loc("p52.484")
#loc54 = loc("p53.489")
#loc55 = loc("p54.496")
#loc56 = loc("p55.507")
#loc57 = loc("p56.512")
#loc58 = loc("p57.519")
#loc59 = loc("p58.530")
#loc60 = loc("p59.535")
#loc61 = loc("p60.542")
#loc62 = loc("p61.553")
#loc63 = loc("p62.558")
#loc64 = loc("p63.565")
#loc65 = loc("p64.576")
#loc66 = loc("p65.581")
#loc67 = loc("p66.588")
#loc68 = loc("p67.599")
#loc69 = loc("p68.604")
#loc70 = loc("p69.611")
#loc71 = loc("p70.622")
#loc72 = loc("p71.627")
#loc73 = loc("p72.634")
#loc74 = loc("p73.645")
#loc75 = loc("p74.650")
#loc76 = loc("p75.657")
#loc77 = loc("p76.668")
#loc78 = loc("p77.673")
#loc79 = loc("p78.680")
#loc80 = loc("p79.691")
#loc81 = loc("p80.696")
#loc82 = loc("p81.703")
#loc83 = loc("p82.714")
#loc84 = loc("p83.719")
#loc85 = loc("p84.726")
#loc86 = loc("p85.737")
#loc87 = loc("p86.742")
#loc88 = loc("p87.749")
#loc89 = loc("p88.760")
#loc90 = loc("p89.765")
#loc91 = loc("p90.772")
#loc92 = loc("p91.783")
#loc93 = loc("p92.788")
#loc94 = loc("p93.795")
#loc95 = loc("p94.806")
#loc96 = loc("p95.811")
#loc97 = loc("p96.818")
#loc98 = loc("p97.829")
#loc99 = loc("p98.834")
#loc100 = loc("p99.841")
#loc101 = loc("p100.852")
#loc102 = loc("p101.857")
#loc103 = loc("p102.864")
#loc104 = loc("p103.875")
#loc105 = loc("p104.880")
#loc106 = loc("p105.887")
#loc107 = loc("p106.898")
#loc108 = loc("p107.903")
#loc109 = loc("p108.910")
#loc110 = loc("p109.921")
#loc111 = loc("p110.926")
#loc112 = loc("p111.933")
#loc113 = loc("p112.944")
#loc114 = loc("p113.949")
#loc115 = loc("p114.956")
#loc116 = loc("p115.967")
#loc117 = loc("p116.971")
#loc118 = loc("p117.977")
#loc119 = loc("p118.981")
#loc120 = loc("p119.1053")
#loc121 = loc("p120.1058")
#loc122 = loc("p121.1133")
#loc123 = loc("p122.1140")
#loc124 = loc("p123.1151")
#loc125 = loc("p124.1156")
#loc126 = loc("p125.1166")
#loc127 = loc("p126.1170")
#loc128 = loc("p127.1176")
#loc129 = loc("p128.1181")
#loc130 = loc("p129.1190")
#loc131 = loc("p130.1194")
#loc132 = loc("p131.1202")
#loc133 = loc("p132.1206")
#loc134 = loc("p133.1212")
#loc135 = loc("p134.1217")
#loc136 = loc("p135.1226")
#loc137 = loc("p136.1230")
#loc138 = loc("p137.1236")
#loc139 = loc("p138.1240")
#loc140 = loc("p139.1246")
#loc141 = loc("p140.1251")
#loc142 = loc("p141.1260")
#loc143 = loc("p142.1264")
#loc144 = loc("p143.1272")
#loc145 = loc("p144.1276")
#loc146 = loc("p145.1282")
#loc147 = loc("p146.1287")
#loc148 = loc("p147.1296")
#loc149 = loc("p148.1300")
#loc150 = loc("p149.1306")
#loc151 = loc("p150.1310")
#loc152 = loc("p151.1316")
#loc153 = loc("p152.1321")
#loc154 = loc("p153.1330")
#loc155 = loc("p154.1334")
#loc156 = loc("p155.1342")
#loc157 = loc("p156.1346")
#loc158 = loc("p157.1352")
#loc159 = loc("p158.1357")
#loc160 = loc("p159.1366")
#loc161 = loc("p160.1370")
#loc162 = loc("p161.1376")
#loc163 = loc("p162.1380")
#loc164 = loc("p163.1386")
#loc165 = loc("p164.1391")
#loc166 = loc("p165.1400")
#loc167 = loc("p166.1404")
#loc168 = loc("p167.1412")
#loc169 = loc("p168.1416")
#loc170 = loc("p169.1422")
#loc171 = loc("p170.1427")
#loc172 = loc("p171.1436")
#loc173 = loc("p172.1440")
#loc174 = loc("p173.1446")
#loc175 = loc("p174.1450")
#loc176 = loc("p175.1456")
#loc177 = loc("p176.1461")
#loc178 = loc("p177.1470")
#loc179 = loc("p178.1474")
#loc180 = loc("p179.1482")
#loc181 = loc("p180.1486")
#loc182 = loc("p181.1492")
#loc183 = loc("p182.1497")
#loc184 = loc("p183.1506")
#loc185 = loc("p184.1510")
#loc186 = loc("p185.1516")
#loc187 = loc("p186.1520")
#loc188 = loc("p187.1526")
#loc189 = loc("p188.1531")
#loc190 = loc("p189.1540")
#loc191 = loc("p190.1544")
#loc192 = loc("p191.1552")
#loc193 = loc("p192.1556")
#loc194 = loc("p193.1562")
#loc195 = loc("p194.1567")
#loc196 = loc("p195.1576")
#loc197 = loc("p196.1580")
#loc198 = loc("p197.1586")
#loc199 = loc("p198.1590")
#loc200 = loc("p199.1596")
#loc201 = loc("p200.1601")
#loc202 = loc("p201.1610")
#loc203 = loc("p202.1614")
#loc204 = loc("p203.1622")
#loc205 = loc("p204.1626")
#loc206 = loc("p205.1632")
#loc207 = loc("p206.1637")
#loc208 = loc("p207.1646")
#loc209 = loc("p208.1650")
#loc210 = loc("p209.1656")
#loc211 = loc("p210.1660")
#loc212 = loc("p211.1666")
#loc213 = loc("p212.1671")
#loc214 = loc("p213.1680")
#loc215 = loc("p214.1684")
#loc216 = loc("p215.1692")
#loc217 = loc("p216.1696")
#loc218 = loc("p217.1702")
#loc219 = loc("p218.1707")
#loc220 = loc("p219.1716")
#loc221 = loc("p220.1720")
#loc222 = loc("p221.1726")
#loc223 = loc("p222.1730")
#loc224 = loc("p223.1736")
#loc225 = loc("p224.1741")
#loc226 = loc("p225.1750")
#loc227 = loc("p226.1754")
#loc228 = loc("p227.1762")
#loc229 = loc("p228.1766")
#loc230 = loc("p229.1772")
#loc231 = loc("p230.1777")
#loc232 = loc("p231.1786")
#loc233 = loc("p232.1790")
#loc234 = loc("p233.1796")
#loc235 = loc("p234.1800")
#loc236 = loc("p235.1806")
#loc237 = loc("p236.1811")
#loc238 = loc("p237.1820")
#loc239 = loc("p238.1824")
#loc240 = loc("p239.1832")
#loc241 = loc("p240.1836")
#loc242 = loc("p241.1842")
#loc243 = loc("p242.1847")
#loc244 = loc("p243.1856")
#loc245 = loc("p244.1860")
#loc246 = loc("p245.1866")
#loc247 = loc("p246.1870")
#loc248 = loc("p247.1876")
#loc249 = loc("p248.1881")
#loc250 = loc("p249.1890")
#loc251 = loc("p250.1894")
#loc252 = loc("p251.1902")
#loc253 = loc("p252.1906")
#loc254 = loc("p253.1912")
#loc255 = loc("p254.1917")
#loc256 = loc("p255.1926")
#loc257 = loc("p256.1930")
#loc258 = loc("p257.1936")
#loc259 = loc("p258.1940")
#loc260 = loc("p259.1946")
#loc261 = loc("p260.1951")
#loc262 = loc("p261.1960")
#loc263 = loc("p262.1964")
#loc264 = loc("p263.1972")
#loc265 = loc("p264.1976")
#loc266 = loc("p265.1982")
#loc267 = loc("p266.1987")
#loc268 = loc("p267.1996")
#loc269 = loc("p268.2000")
#loc270 = loc("p269.2006")
#loc271 = loc("p270.2010")
#loc272 = loc("p271.2016")
#loc273 = loc("p272.2021")
#loc274 = loc("p273.2030")
#loc275 = loc("p274.2034")
#loc276 = loc("p275.2042")
#loc277 = loc("p276.2046")
#loc278 = loc("p277.2052")
#loc279 = loc("p278.2057")
#loc280 = loc("p279.2066")
#loc281 = loc("p280.2070")
#loc282 = loc("p281.2076")
#loc283 = loc("p282.2080")
#loc284 = loc("p283.2086")
#loc285 = loc("p284.2091")
#loc286 = loc("p285.2100")
#loc287 = loc("p286.2104")
#loc288 = loc("p287.2112")
#loc289 = loc("p288.2116")
#loc290 = loc("p289.2122")
#loc291 = loc("p290.2127")
#loc292 = loc("p291.2136")
#loc293 = loc("p292.2140")
#loc294 = loc("p293.2146")
#loc295 = loc("p294.2150")
#loc296 = loc("p295.2156")
#loc297 = loc("p296.2161")
#loc298 = loc("p297.2170")
#loc299 = loc("p298.2174")
#loc300 = loc("p299.2182")
#loc301 = loc("p300.2186")
#loc302 = loc("p301.2192")
#loc303 = loc("p302.2197")
#loc304 = loc("p303.2206")
#loc305 = loc("p304.2210")
#loc306 = loc("p305.2216")
#loc307 = loc("p306.2220")
#loc308 = loc("p307.2226")
#loc309 = loc("p308.2231")
#loc310 = loc("p309.2240")
#loc311 = loc("p310.2244")
#loc312 = loc("p311.2252")
#loc313 = loc("p312.2256")
#loc314 = loc("p313.2262")
#loc315 = loc("p314.2267")
#loc316 = loc("p315.2276")
#loc317 = loc("p316.2280")
#loc318 = loc("p317.2286")
#loc319 = loc("p318.2290")
#loc320 = loc("p319.2296")
#loc321 = loc("p320.2301")
#loc322 = loc("p321.2310")
#loc323 = loc("p322.2314")
#loc324 = loc("p323.2322")
#loc325 = loc("p324.2326")
#loc326 = loc("p325.2332")
#loc327 = loc("p326.2337")
#loc328 = loc("p327.2346")
#loc329 = loc("p328.2350")
#loc330 = loc("p329.2356")
#loc331 = loc("p330.2360")
#loc332 = loc("p331.2366")
#loc333 = loc("p332.2371")
#loc334 = loc("p333.2380")
#loc335 = loc("p334.2384")
#loc336 = loc("p335.2392")
#loc337 = loc("p336.2396")
#loc338 = loc("p337.2402")
#loc339 = loc("p338.2407")
#loc340 = loc("p339.2416")
#loc341 = loc("p340.2420")
#loc342 = loc("p341.2426")
#loc343 = loc("p342.2430")
#loc344 = loc("p343.2436")
#loc345 = loc("p344.2441")
#loc346 = loc("p345.2450")
#loc347 = loc("p346.2454")
#loc348 = loc("p347.2462")
#loc349 = loc("p348.2466")
#loc350 = loc("p349.2472")
#loc351 = loc("p350.2477")
#loc352 = loc("p351.2486")
#loc353 = loc("p352.2490")
#loc354 = loc("p353.2496")
#loc355 = loc("p354.2500")
#loc356 = loc("p355.2506")
#loc357 = loc("p356.2511")
#loc358 = loc("p357.2520")
#loc359 = loc("p358.2524")
#loc360 = loc("p359.2532")
#loc361 = loc("p360.2536")
#loc362 = loc("p361.2542")
#loc363 = loc("p362.2547")
#loc364 = loc("p363.2556")
#loc365 = loc("p364.2560")
#loc366 = loc("p365.2566")
#loc367 = loc("p366.2570")
#loc368 = loc("p367.2576")
#loc369 = loc("p368.2581")
#loc370 = loc("p369.2590")
#loc371 = loc("p370.2594")
#loc372 = loc("p371.2602")
#loc373 = loc("p372.2606")
#loc374 = loc("p373.2612")
#loc375 = loc("p374.2617")
#loc376 = loc("p375.2626")
#loc377 = loc("p376.2630")
#loc378 = loc("p377.2636")
#loc379 = loc("p378.2640")
#loc380 = loc("p379.2646")
#loc381 = loc("p380.2651")
#loc382 = loc("p381.2660")
#loc383 = loc("p382.2664")
#loc384 = loc("p383.2672")
#loc385 = loc("p384.2676")
#loc386 = loc("p385.2682")
#loc387 = loc("p386.2687")
#loc388 = loc("p387.2696")
#loc389 = loc("p388.2700")
#loc390 = loc("p389.2706")
#loc391 = loc("p390.2710")
#loc392 = loc("p391.2716")
#loc393 = loc("p392.2721")
#loc394 = loc("p393.2730")
#loc395 = loc("p394.2734")
#loc396 = loc("p395.2742")
#loc397 = loc("p396.2746")
#loc398 = loc("p397.2752")
#loc399 = loc("p398.2757")
#loc400 = loc("p399.2766")
#loc401 = loc("p400.2770")
#loc402 = loc("p401.2776")
#loc403 = loc("p402.2780")
#loc404 = loc("p403.2786")
#loc405 = loc("p404.2791")
#loc406 = loc("p405.2800")
#loc407 = loc("p406.2804")
#loc408 = loc("p407.2812")
#loc409 = loc("p408.2816")
#loc410 = loc("p409.2822")
#loc411 = loc("p410.2827")
#loc412 = loc("p411.2836")
#loc413 = loc("p412.2840")
#loc414 = loc("p413.2846")
#loc415 = loc("p414.2850")
#loc416 = loc("p415.2856")
#loc417 = loc("p416.2861")
#loc418 = loc("p417.2870")
#loc419 = loc("p418.2874")
#loc420 = loc("p419.2882")
#loc421 = loc("p420.2886")
#loc422 = loc("p421.2892")
#loc423 = loc("p422.2897")
#loc424 = loc("p423.2906")
#loc425 = loc("p424.2910")
#loc426 = loc("p425.2916")
#loc427 = loc("p426.2920")
#loc428 = loc("p427.2926")
#loc429 = loc("p428.2931")
#loc430 = loc("p429.2940")
#loc431 = loc("p430.2944")
#loc432 = loc("p431.2952")
#loc433 = loc("p432.2956")
#loc434 = loc("p433.2962")
#loc435 = loc("p434.2967")
#loc436 = loc("p435.2976")
#loc437 = loc("p436.2980")
#loc438 = loc("p437.2986")
#loc439 = loc("p438.2990")
#loc440 = loc("p439.2996")
#loc441 = loc("p440.3001")
#loc442 = loc("p441.3010")
#loc443 = loc("p442.3014")
#loc444 = loc("p443.3022")
#loc445 = loc("p444.3026")
#loc446 = loc("p445.3032")
#loc447 = loc("p446.3037")
#loc448 = loc("p447.3046")
#loc449 = loc("p448.3050")
#loc450 = loc("p449.3056")
#loc451 = loc("p450.3060")
#loc452 = loc("p451.3066")
#loc453 = loc("p452.3071")
#loc454 = loc("p453.3079")
#loc455 = loc("p454.3084")
#loc456 = loc("p455.3091")
#loc457 = loc("p456.3095")
#loc458 = loc("p457.3097")
#loc459 = loc("p458.3196")
#loc460 = loc("p459.3200")
#loc461 = loc("p460.3216")
#loc462 = loc("p461.3220")
#loc463 = loc("p462.3469")
#loc464 = loc("p463.3473")
#loc465 = loc("p464.3489")
#loc466 = loc("p465.3493")
#loc467 = loc("p466.3742")
#loc468 = loc("p467.3746")
#loc469 = loc("p468.3762")
#loc470 = loc("p469.3766")
#loc471 = loc("p470.4015")
#loc472 = loc("p471.4019")
#loc473 = loc("p472.4035")
#loc474 = loc("p473.4039")
#loc475 = loc("p474.4288")
#loc476 = loc("p475.4292")
#loc477 = loc("p476.4308")
#loc478 = loc("p477.4312")
#loc479 = loc("p478.4561")
#loc480 = loc("p479.4565")
#loc481 = loc("p480.4581")
#loc482 = loc("p481.4585")
#loc483 = loc("p482.4834")
#loc484 = loc("p483.4838")
#loc485 = loc("p484.4854")
#loc486 = loc("p485.4858")
#loc487 = loc("p486.5107")
#loc488 = loc("p487.5111")
#loc489 = loc("p488.5127")
#loc490 = loc("p489.5131")
#loc491 = loc("p490.5380")
#loc492 = loc("p491.5384")
#loc493 = loc("p492.5400")
#loc494 = loc("p493.5404")
#loc495 = loc("p494.5653")
#loc496 = loc("p495.5657")
#loc497 = loc("p496.5673")
#loc498 = loc("p497.5677")
#loc499 = loc("p498.5926")
#loc500 = loc("p499.5930")
#loc501 = loc("p500.5946")
#loc502 = loc("p501.5950")
#loc503 = loc("p502.6199")
#loc504 = loc("p503.6203")
#loc505 = loc("p504.6219")
#loc506 = loc("p505.6223")
#loc507 = loc("p506.6472")
#loc508 = loc("p507.6476")
#loc509 = loc("p508.6492")
#loc510 = loc("p509.6496")
#loc511 = loc("p510.6745")
#loc512 = loc("p511.6749")
#loc513 = loc("p512.6765")
#loc514 = loc("p513.6769")
#loc515 = loc("p514.7018")
#loc516 = loc("p515.7022")
#loc517 = loc("p516.7038")
#loc518 = loc("p517.7042")
#loc519 = loc("p518.7291")
#loc520 = loc("p519.7295")
#loc521 = loc("p520.7311")
#loc522 = loc("p521.7315")
#loc523 = loc("p522.7564")
#loc524 = loc("p523.7568")
#loc525 = loc("p524.7584")
#loc526 = loc("p525.7588")
#loc527 = loc("p526.7837")
#loc528 = loc("p527.7841")
#loc529 = loc("p528.7857")
#loc530 = loc("p529.7861")
#loc531 = loc("p530.8110")
#loc532 = loc("p531.8114")
#loc533 = loc("p532.8130")
#loc534 = loc("p533.8134")
#loc535 = loc("p534.8383")
#loc536 = loc("p535.8387")
#loc537 = loc("p536.8403")
#loc538 = loc("p537.8407")
#loc539 = loc("p538.8656")
#loc540 = loc("p539.8660")
#loc541 = loc("p540.8676")
#loc542 = loc("p541.8680")
#loc543 = loc("p542.8929")
#loc544 = loc("p543.8933")
#loc545 = loc("p544.8949")
#loc546 = loc("p545.8953")
#loc547 = loc("p546.9202")
#loc548 = loc("p547.9206")
#loc549 = loc("p548.9222")
#loc550 = loc("p549.9226")
#loc551 = loc("p550.9475")
#loc552 = loc("p551.9479")
#loc553 = loc("p552.9495")
#loc554 = loc("p553.9499")
#loc555 = loc("p554.9748")
#loc556 = loc("p555.9752")
#loc557 = loc("p556.9768")
#loc558 = loc("p557.9772")
#loc559 = loc("p558.10021")
#loc560 = loc("p559.10025")
#loc561 = loc("p560.10041")
#loc562 = loc("p561.10045")
#loc563 = loc("p562.10294")
#loc564 = loc("p563.10298")
#loc565 = loc("p564.10314")
#loc566 = loc("p565.10318")
#loc567 = loc("p566.11169")
#loc568 = loc("p567.18809")
#loc569 = loc("p568.25897")
#loc570 = loc("p569.25912")
#loc571 = loc("p570.25931")
#loc572 = loc("p571.25935")
#loc573 = loc("p572.25943")
#loc574 = loc("p573.25951")
#loc575 = loc("p574.26001")
#loc576 = loc("p575.26016")
#loc577 = loc("p576.26057")
#loc578 = loc("p577.26072")
#loc579 = loc("p578.26104")
#loc580 = loc("p579.26197")
#loc581 = loc("p580.26264")
#loc582 = loc("p581.26271")
#loc583 = loc("p582.26282")
#loc584 = loc("p583.26287")
#loc585 = loc("p584.26294")
#loc586 = loc("p585.26305")
#loc587 = loc("p586.26335")
#loc588 = loc("p587.26366")
#loc589 = loc("p588.26459")
#loc590 = loc("p589.26536")
#loc591 = loc("p590.26558")
#loc592 = loc("p591.26586")
#loc593 = loc("p592.26679")
#loc594 = loc("p593.26746")
#loc595 = loc("p594.26753")
#loc596 = loc("p595.26764")
#loc597 = loc("p596.26769")
#loc598 = loc("p597.26776")
#loc599 = loc("p598.26787")
#loc600 = loc("p599.26806")
#loc601 = loc("p600.26899")
#loc602 = loc("p601.26976")
#loc603 = loc("p602.26998")
#loc604 = loc("p603.27026")
#loc605 = loc("p604.27119")
#loc606 = loc("p605.27186")
#loc607 = loc("p606.27193")
#loc608 = loc("p607.27204")
#loc609 = loc("p608.27209")
#loc610 = loc("p609.27216")
#loc611 = loc("p610.27227")
#loc612 = loc("p611.27246")
#loc613 = loc("p612.27339")
#loc614 = loc("p613.27416")
#loc615 = loc("p614.27438")
#loc616 = loc("p615.27466")
#loc617 = loc("p616.27559")
#loc618 = loc("p617.27626")
#loc619 = loc("p618.27633")
#loc620 = loc("p619.27644")
#loc621 = loc("p620.27649")
#loc622 = loc("p621.27656")
#loc623 = loc("p622.27667")
#loc624 = loc("p623.27686")
#loc625 = loc("p624.27779")
#loc626 = loc("p625.27856")
#loc627 = loc("p626.27878")
#loc628 = loc("p627.27906")
#loc629 = loc("p628.27999")
#loc630 = loc("p629.28066")
#loc631 = loc("p630.28073")
#loc632 = loc("p631.28084")
#loc633 = loc("p632.28089")
#loc634 = loc("p633.28096")
#loc635 = loc("p634.28107")
#loc636 = loc("p635.28126")
#loc637 = loc("p636.28219")
#loc638 = loc("p637.28296")
#loc639 = loc("p638.28318")
#loc640 = loc("p639.28346")
#loc641 = loc("p640.28439")
#loc642 = loc("p641.28506")
#loc643 = loc("p642.28513")
#loc644 = loc("p643.28524")
#loc645 = loc("p644.28529")
#loc646 = loc("p645.28536")
#loc647 = loc("p646.28547")
#loc648 = loc("p647.28566")
#loc649 = loc("p648.28659")
#loc650 = loc("p649.28736")
#loc651 = loc("p650.28758")
#loc652 = loc("p651.28786")
#loc653 = loc("p652.28879")
#loc654 = loc("p653.28946")
#loc655 = loc("p654.28953")
#loc656 = loc("p655.28964")
#loc657 = loc("p656.28969")
#loc658 = loc("p657.28976")
#loc659 = loc("p658.28987")
#loc660 = loc("p659.29006")
#loc661 = loc("p660.29099")
#loc662 = loc("p661.29176")
#loc663 = loc("p662.29198")
#loc664 = loc("p663.29226")
#loc665 = loc("p664.29319")
#loc666 = loc("p665.29386")
#loc667 = loc("p666.29393")
#loc668 = loc("p667.29404")
#loc669 = loc("p668.29409")
#loc670 = loc("p669.29416")
#loc671 = loc("p670.29427")
#loc672 = loc("p671.29446")
#loc673 = loc("p672.29539")
#loc674 = loc("p673.29616")
#loc675 = loc("p674.29638")
#loc676 = loc("p675.29666")
#loc677 = loc("p676.29759")
#loc678 = loc("p677.29826")
#loc679 = loc("p678.29833")
#loc680 = loc("p679.29844")
#loc681 = loc("p680.29849")
#loc682 = loc("p681.29856")
#loc683 = loc("p682.29867")
#loc684 = loc("p683.29886")
#loc685 = loc("p684.29979")
#loc686 = loc("p685.30056")
#loc687 = loc("p686.30078")
#loc688 = loc("p687.30106")
#loc689 = loc("p688.30199")
#loc690 = loc("p689.30266")
#loc691 = loc("p690.30273")
#loc692 = loc("p691.30284")
#loc693 = loc("p692.30289")
#loc694 = loc("p693.30296")
#loc695 = loc("p694.30307")
#loc696 = loc("p695.30326")
#loc697 = loc("p696.30419")
#loc698 = loc("p697.30496")
#loc699 = loc("p698.30518")
#loc700 = loc("p699.30546")
#loc701 = loc("p700.30639")
#loc702 = loc("p701.30706")
#loc703 = loc("p702.30713")
#loc704 = loc("p703.30724")
#loc705 = loc("p704.30729")
#loc706 = loc("p705.30736")
#loc707 = loc("p706.30747")
#loc708 = loc("p707.30766")
#loc709 = loc("p708.30859")
#loc710 = loc("p709.30936")
#loc711 = loc("p710.30958")
#loc712 = loc("p711.30986")
#loc713 = loc("p712.31079")
#loc714 = loc("p713.31146")
#loc715 = loc("p714.31153")
#loc716 = loc("p715.31164")
#loc717 = loc("p716.31169")
#loc718 = loc("p717.31176")
#loc719 = loc("p718.31187")
#loc720 = loc("p719.31206")
#loc721 = loc("p720.31299")
#loc722 = loc("p721.31376")
#loc723 = loc("p722.31398")
#loc724 = loc("p723.31426")
#loc725 = loc("p724.31519")
#loc726 = loc("p725.31586")
#loc727 = loc("p726.31593")
#loc728 = loc("p727.31604")
#loc729 = loc("p728.31609")
#loc730 = loc("p729.31616")
#loc731 = loc("p730.31627")
#loc732 = loc("p731.31646")
#loc733 = loc("p732.31739")
#loc734 = loc("p733.31816")
#loc735 = loc("p734.31838")
#loc736 = loc("p735.31866")
#loc737 = loc("p736.31959")
#loc738 = loc("p737.32026")
#loc739 = loc("p738.32033")
#loc740 = loc("p739.32044")
#loc741 = loc("p740.32049")
#loc742 = loc("p741.32056")
#loc743 = loc("p742.32067")
#loc744 = loc("p743.32086")
#loc745 = loc("p744.32179")
#loc746 = loc("p745.32256")
#loc747 = loc("p746.32278")
#loc748 = loc("p747.32306")
#loc749 = loc("p748.32399")
#loc750 = loc("p749.32466")
#loc751 = loc("p750.32473")
#loc752 = loc("p751.32484")
#loc753 = loc("p752.32489")
#loc754 = loc("p753.32496")
#loc755 = loc("p754.32507")
#loc756 = loc("p755.32526")
#loc757 = loc("p756.32619")
#loc758 = loc("p757.32696")
#loc759 = loc("p758.32718")
#loc760 = loc("p759.32746")
#loc761 = loc("p760.32839")
#loc762 = loc("p761.32906")
#loc763 = loc("p762.32913")
#loc764 = loc("p763.32924")
#loc765 = loc("p764.32929")
#loc766 = loc("p765.32936")
#loc767 = loc("p766.32947")
#loc768 = loc("p767.32966")
#loc769 = loc("p768.33059")
#loc770 = loc("p769.33136")
#loc771 = loc("p770.33158")
#loc772 = loc("p771.33186")
#loc773 = loc("p772.33279")
#loc774 = loc("p773.33346")
#loc775 = loc("p774.33353")
#loc776 = loc("p775.33364")
#loc777 = loc("p776.33369")
#loc778 = loc("p777.33376")
#loc779 = loc("p778.33387")
#loc780 = loc("p779.33406")
#loc781 = loc("p780.33499")
#loc782 = loc("p781.33576")
#loc783 = loc("p782.33598")
#loc784 = loc("p783.33626")
#loc785 = loc("p784.33719")
#loc885 = loc("reduce-window.25980")
#loc5740 = loc("reduce-window.26050")
#loc5779 = loc("reduce-window.25920")
#loc5907 = loc("reduce-window.26344")
#loc9457 = loc("custom-call.33507")
#loc9466 = loc("custom-call.33067")
#loc9475 = loc("custom-call.32627")
#loc9484 = loc("custom-call.32407")
#loc9493 = loc("custom-call.32187")
#loc9502 = loc("custom-call.31747")
#loc9511 = loc("custom-call.31527")
#loc9520 = loc("custom-call.31307")
#loc9529 = loc("custom-call.31087")
#loc9538 = loc("custom-call.30427")
#loc9547 = loc("custom-call.30207")
#loc9556 = loc("custom-call.29767")
#loc9565 = loc("custom-call.29547")
#loc9574 = loc("custom-call.29327")
#loc9583 = loc("custom-call.28887")
#loc9592 = loc("custom-call.15007")
#loc9601 = loc("custom-call.14778")
#loc9602 = loc("custom-call.10853")
#loc9603 = loc("custom-call.10852")
#loc9622 = loc("custom-call.14264")
#loc9623 = loc("custom-call.10897")
#loc9624 = loc("custom-call.10896")
#loc9643 = loc("custom-call.25217")
#loc9652 = loc("custom-call.7203")
#loc9653 = loc("custom-call.2025")
#loc9654 = loc("custom-call.2020")
#loc9673 = loc("custom-call.14007")
#loc9674 = loc("custom-call.10919")
#loc9675 = loc("custom-call.10918")
#loc9694 = loc("custom-call.20250")
#loc9695 = loc("custom-call.18681")
#loc9696 = loc("custom-call.18680")
#loc9715 = loc("custom-call.7910")
#loc9716 = loc("custom-call.1851")
#loc9717 = loc("custom-call.1846")
#loc9736 = loc("custom-call.13895")
#loc9737 = loc("custom-call.10931")
#loc9738 = loc("custom-call.10930")
#loc9757 = loc("custom-call.13638")
#loc9758 = loc("custom-call.10953")
#loc9759 = loc("custom-call.10952")
#loc9778 = loc("custom-call.5292")
#loc9779 = loc("custom-call.2515")
#loc9780 = loc("custom-call.2510")
#loc9799 = loc("custom-call.13493")
#loc9800 = loc("custom-call.10963")
#loc9801 = loc("custom-call.10962")
#loc9820 = loc("custom-call.13381")
#loc9821 = loc("custom-call.10975")
#loc9822 = loc("custom-call.10974")
#loc9841 = loc("custom-call.6384")
#loc9842 = loc("custom-call.2235")
#loc9843 = loc("custom-call.2230")
#loc9862 = loc("custom-call.10206")
#loc9863 = loc("custom-call.1255")
#loc9864 = loc("custom-call.1250")
#loc9883 = loc("custom-call.13208")
#loc9892 = loc("custom-call.30647")
#loc9901 = loc("custom-call.13124")
#loc9902 = loc("custom-call.10997")
#loc9903 = loc("custom-call.10996")
#loc9922 = loc("custom-call.15694")
#loc9923 = loc("custom-call.10777")
#loc9924 = loc("custom-call.10776")
#loc9943 = loc("custom-call.6629")
#loc9952 = loc("custom-call.12867")
#loc9953 = loc("custom-call.11019")
#loc9954 = loc("custom-call.11018")
#loc9973 = loc("custom-call.21904")
#loc9974 = loc("custom-call.18537")
#loc9975 = loc("custom-call.18536")
#loc9994 = loc("custom-call.9905")
#loc10003 = loc("custom-call.12096")
#loc10004 = loc("custom-call.11085")
#loc10005 = loc("custom-call.11084")
#loc10024 = loc("custom-call.14409")
#loc10025 = loc("custom-call.10887")
#loc10026 = loc("custom-call.10886")
#loc10045 = loc("custom-call.6272")
#loc10046 = loc("custom-call.2271")
#loc10047 = loc("custom-call.2266")
#loc10066 = loc("custom-call.11839")
#loc10067 = loc("custom-call.11107")
#loc10068 = loc("custom-call.11106")
#loc10087 = loc("custom-call.12180")
#loc10096 = loc("custom-call.20334")
#loc10105 = loc("custom-call.22647")
#loc10114 = loc("custom-call.18007")
#loc10115 = loc("custom-call.10579")
#loc10116 = loc("custom-call.10578")
#loc10135 = loc("custom-call.11694")
#loc10136 = loc("custom-call.11117")
#loc10137 = loc("custom-call.11116")
#loc10156 = loc("custom-call.7721")
#loc10165 = loc("custom-call.21133")
#loc10166 = loc("custom-call.18603")
#loc10167 = loc("custom-call.18602")
#loc10186 = loc("custom-call.11666")
#loc10195 = loc("custom-call.11582")
#loc10196 = loc("custom-call.11129")
#loc10197 = loc("custom-call.11128")
#loc10216 = loc("custom-call.16035")
#loc10225 = loc("custom-call.5838")
#loc10226 = loc("custom-call.2375")
#loc10227 = loc("custom-call.2370")
#loc10246 = loc("custom-call.11409")
#loc10255 = loc("custom-call.17063")
#loc10264 = loc("custom-call.17862")
#loc10265 = loc("custom-call.10589")
#loc10266 = loc("custom-call.10588")
#loc10285 = loc("custom-call.6083")
#loc10294 = loc("custom-call.33727")
#loc10303 = loc("custom-call.11951")
#loc10304 = loc("custom-call.11095")
#loc10305 = loc("custom-call.11094")
#loc10324 = loc("custom-call.12694")
#loc10333 = loc("custom-call.19222")
#loc10334 = loc("custom-call.18769")
#loc10335 = loc("custom-call.18768")
#loc10354 = loc("custom-call.14236")
#loc10363 = loc("custom-call.25759")
#loc10364 = loc("custom-call.18207")
#loc10365 = loc("custom-call.18206")
#loc10384 = loc("custom-call.24189")
#loc10393 = loc("custom-call.25647")
#loc10394 = loc("custom-call.18219")
#loc10395 = loc("custom-call.18218")
#loc10414 = loc("custom-call.25390")
#loc10415 = loc("custom-call.18241")
#loc10416 = loc("custom-call.18240")
#loc10435 = loc("custom-call.25133")
#loc10436 = loc("custom-call.18263")
#loc10437 = loc("custom-call.18262")
#loc10456 = loc("custom-call.25502")
#loc10457 = loc("custom-call.18229")
#loc10458 = loc("custom-call.18228")
#loc10477 = loc("custom-call.24619")
#loc10478 = loc("custom-call.18307")
#loc10479 = loc("custom-call.18306")
#loc10498 = loc("custom-call.28227")
#loc10507 = loc("custom-call.24474")
#loc10508 = loc("custom-call.18317")
#loc10509 = loc("custom-call.18316")
#loc10528 = loc("custom-call.17320")
#loc10537 = loc("custom-call.7749")
#loc10538 = loc("custom-call.1885")
#loc10539 = loc("custom-call.1880")
#loc10558 = loc("custom-call.14666")
#loc10559 = loc("custom-call.10865")
#loc10560 = loc("custom-call.10864")
#loc10579 = loc("custom-call.24105")
#loc10580 = loc("custom-call.18351")
#loc10581 = loc("custom-call.18350")
#loc10600 = loc("custom-call.24362")
#loc10601 = loc("custom-call.18329")
#loc10602 = loc("custom-call.18328")
#loc10621 = loc("custom-call.33287")
#loc10630 = loc("custom-call.23932")
#loc10639 = loc("custom-call.17750")
#loc10640 = loc("custom-call.10601")
#loc10641 = loc("custom-call.10600")
#loc10660 = loc("custom-call.6902")
#loc10669 = loc("custom-call.5453")
#loc10670 = loc("custom-call.2481")
#loc10671 = loc("custom-call.2476")
#loc10690 = loc("custom-call.21105")
#loc10699 = loc("custom-call.21278")
#loc10700 = loc("custom-call.18593")
#loc10701 = loc("custom-call.18592")
#loc10720 = loc("custom-call.20876")
#loc10721 = loc("custom-call.18625")
#loc10722 = loc("custom-call.18624")
#loc10741 = loc("custom-call.8841")
#loc10742 = loc("custom-call.1605")
#loc10743 = loc("custom-call.1600")
#loc10762 = loc("custom-call.12353")
#loc10763 = loc("custom-call.11063")
#loc10764 = loc("custom-call.11062")
#loc10783 = loc("custom-call.25245")
#loc10784 = loc("custom-call.18251")
#loc10785 = loc("custom-call.18250")
#loc10804 = loc("custom-call.20848")
#loc10813 = loc("custom-call.20764")
#loc10814 = loc("custom-call.18637")
#loc10815 = loc("custom-call.18636")
#loc10834 = loc("custom-call.15951")
#loc10835 = loc("custom-call.10755")
#loc10836 = loc("custom-call.10754")
#loc10855 = loc("custom-call.20619")
#loc10856 = loc("custom-call.18647")
#loc10857 = loc("custom-call.18646")
#loc10876 = loc("custom-call.5180")
#loc10877 = loc("custom-call.2551")
#loc10878 = loc("custom-call.2546")
#loc10897 = loc("custom-call.20105")
#loc10898 = loc("custom-call.18691")
#loc10899 = loc("custom-call.18690")
#loc10918 = loc("custom-call.15035")
#loc10919 = loc("custom-call.10831")
#loc10920 = loc("custom-call.10830")
#loc10939 = loc("custom-call.5810")
#loc10948 = loc("custom-call.18820")
#loc10949 = loc("custom-call.18801")
#loc10950 = loc("custom-call.18800")
#loc10969 = loc("custom-call.13465")
#loc10978 = loc("custom-call.19736")
#loc10979 = loc("custom-call.18725")
#loc10980 = loc("custom-call.18724")
#loc10999 = loc("custom-call.17493")
#loc11000 = loc("custom-call.10623")
#loc11001 = loc("custom-call.10622")
#loc11020 = loc("custom-call.24876")
#loc11021 = loc("custom-call.18285")
#loc11022 = loc("custom-call.18284")
#loc11041 = loc("custom-call.18965")
#loc11042 = loc("custom-call.18791")
#loc11043 = loc("custom-call.18790")
#loc11062 = loc("custom-call.4634")
#loc11063 = loc("custom-call.2691")
#loc11064 = loc("custom-call.2686")
#loc11083 = loc("custom-call.20362")
#loc11084 = loc("custom-call.18669")
#loc11085 = loc("custom-call.18668")
#loc11104 = loc("custom-call.20077")
#loc11113 = loc("custom-call.6818")
#loc11114 = loc("custom-call.2131")
#loc11115 = loc("custom-call.2126")
#loc11134 = loc("custom-call.12208")
#loc11135 = loc("custom-call.11073")
#loc11136 = loc("custom-call.11072")
#loc11155 = loc("custom-call.22675")
#loc11156 = loc("custom-call.18471")
#loc11157 = loc("custom-call.18470")
#loc11176 = loc("custom-call.4746")
#loc11177 = loc("custom-call.2655")
#loc11178 = loc("custom-call.2650")
#loc11197 = loc("custom-call.8813")
#loc11206 = loc("custom-call.9632")
#loc11215 = loc("custom-call.12610")
#loc11216 = loc("custom-call.11041")
#loc11217 = loc("custom-call.11040")
#loc11236 = loc("custom-call.9660")
#loc11237 = loc("custom-call.1395")
#loc11238 = loc("custom-call.1390")
#loc11257 = loc("custom-call.21362")
#loc11266 = loc("custom-call.3626")
#loc11275 = loc("custom-call.24703")
#loc11284 = loc("custom-call.4907")
#loc11285 = loc("custom-call.2621")
#loc11286 = loc("custom-call.2616")
#loc11305 = loc("custom-call.19848")
#loc11306 = loc("custom-call.18713")
#loc11307 = loc("custom-call.18712")
#loc11326 = loc("custom-call.5999")
#loc11327 = loc("custom-call.2341")
#loc11328 = loc("custom-call.2336")
#loc11347 = loc("custom-call.13979")
#loc11356 = loc("custom-call.13236")
#loc11357 = loc("custom-call.10985")
#loc11358 = loc("custom-call.10984")
#loc11377 = loc("custom-call.19993")
#loc11378 = loc("custom-call.18703")
#loc11379 = loc("custom-call.18702")
#loc11398 = loc("custom-call.13750")
#loc11399 = loc("custom-call.10941")
#loc11400 = loc("custom-call.10940")
#loc11419 = loc("custom-call.8729")
#loc11420 = loc("custom-call.1641")
#loc11421 = loc("custom-call.1636")
#loc11440 = loc("custom-call.23077")
#loc11441 = loc("custom-call.18439")
#loc11442 = loc("custom-call.18438")
#loc11461 = loc("custom-call.23591")
#loc11462 = loc("custom-call.18395")
#loc11463 = loc("custom-call.18394")
#loc11482 = loc("custom-call.16722")
#loc11483 = loc("custom-call.10689")
#loc11484 = loc("custom-call.10688")
#loc11503 = loc("custom-call.20507")
#loc11504 = loc("custom-call.18659")
#loc11505 = loc("custom-call.18658")
#loc11524 = loc("custom-call.23848")
#loc11525 = loc("custom-call.18373")
#loc11526 = loc("custom-call.18372")
#loc11545 = loc("custom-call.24960")
#loc11554 = loc("custom-call.6930")
#loc11555 = loc("custom-call.2095")
#loc11556 = loc("custom-call.2090")
#loc11575 = loc("custom-call.19306")
#loc11584 = loc("custom-call.14152")
#loc11585 = loc("custom-call.10909")
#loc11586 = loc("custom-call.10908")
#loc11605 = loc("custom-call.6657")
#loc11606 = loc("custom-call.2165")
#loc11607 = loc("custom-call.2160")
#loc11626 = loc("custom-call.21647")
#loc11627 = loc("custom-call.18559")
#loc11628 = loc("custom-call.18558")
#loc11647 = loc("custom-call.11180")
#loc11648 = loc("custom-call.11161")
#loc11649 = loc("custom-call.11160")
#loc11668 = loc("custom-call.23189")
#loc11669 = loc("custom-call.18427")
#loc11670 = loc("custom-call.18426")
#loc11689 = loc("custom-call.19820")
#loc11698 = loc("custom-call.9821")
#loc11699 = loc("custom-call.1361")
#loc11700 = loc("custom-call.1356")
#loc11719 = loc("custom-call.14521")
#loc11720 = loc("custom-call.10875")
#loc11721 = loc("custom-call.10874")
#loc11740 = loc("custom-call.12951")
#loc11749 = loc("custom-call.19591")
#loc11750 = loc("custom-call.18735")
#loc11751 = loc("custom-call.18734")
#loc11770 = loc("custom-call.25474")
#loc11779 = loc("custom-call.22418")
#loc11780 = loc("custom-call.18493")
#loc11781 = loc("custom-call.18492")
#loc11800 = loc("custom-call.22049")
#loc11801 = loc("custom-call.18527")
#loc11802 = loc("custom-call.18526")
#loc11821 = loc("custom-call.12979")
#loc11822 = loc("custom-call.11007")
#loc11823 = loc("custom-call.11006")
#loc11842 = loc("custom-call.16320")
#loc11843 = loc("custom-call.10721")
#loc11844 = loc("custom-call.10720")
#loc11863 = loc("custom-call.31967")
#loc11872 = loc("custom-call.18119")
#loc11873 = loc("custom-call.10567")
#loc11874 = loc("custom-call.10566")
#loc11893 = loc("custom-call.21535")
#loc11894 = loc("custom-call.18571")
#loc11895 = loc("custom-call.18570")
#loc11914 = loc("custom-call.22390")
#loc11923 = loc("custom-call.7994")
#loc11932 = loc("custom-call.22820")
#loc11933 = loc("custom-call.18461")
#loc11934 = loc("custom-call.18460")
#loc11953 = loc("custom-call.22161")
#loc11954 = loc("custom-call.18515")
#loc11955 = loc("custom-call.18514")
#loc11974 = loc("custom-call.30867")
#loc11983 = loc("custom-call.23334")
#loc11984 = loc("custom-call.18417")
#loc11985 = loc("custom-call.18416")
#loc12004 = loc("custom-call.21619")
#loc12013 = loc("custom-call.19077")
#loc12014 = loc("custom-call.18779")
#loc12015 = loc("custom-call.18778")
#loc12034 = loc("custom-call.14923")
#loc12035 = loc("custom-call.10843")
#loc12036 = loc("custom-call.10842")
#loc12055 = loc("custom-call.6111")
#loc12056 = loc("custom-call.2305")
#loc12057 = loc("custom-call.2300")
#loc12076 = loc("custom-call.23446")
#loc12077 = loc("custom-call.18405")
#loc12078 = loc("custom-call.18404")
#loc12097 = loc("custom-call.25731")
#loc12106 = loc("custom-call.21876")
#loc12115 = loc("custom-call.9387")
#loc12116 = loc("custom-call.1465")
#loc12117 = loc("custom-call.1460")
#loc12136 = loc("custom-call.22133")
#loc12145 = loc("custom-call.22563")
#loc12146 = loc("custom-call.18483")
#loc12147 = loc("custom-call.18482")
#loc12166 = loc("custom-call.16063")
#loc12167 = loc("custom-call.10743")
#loc12168 = loc("custom-call.10742")
#loc12187 = loc("custom-call.13722")
#loc12196 = loc("custom-call.23960")
#loc12197 = loc("custom-call.18361")
#loc12198 = loc("custom-call.18360")
#loc12217 = loc("custom-call.27347")
#loc12226 = loc("custom-call.29107")
#loc12235 = loc("custom-call.24988")
#loc12236 = loc("custom-call.18273")
#loc12237 = loc("custom-call.18272")
#loc12256 = loc("custom-call.28007")
#loc12265 = loc("custom-call.22306")
#loc12266 = loc("custom-call.18505")
#loc12267 = loc("custom-call.18504")
#loc12286 = loc("custom-call.22932")
#loc12287 = loc("custom-call.18449")
#loc12288 = loc("custom-call.18448")
#loc12307 = loc("custom-call.19479")
#loc12308 = loc("custom-call.18747")
#loc12309 = loc("custom-call.18746")
#loc12328 = loc("custom-call.3353")
#loc12337 = loc("custom-call.23675")
#loc12346 = loc("custom-call.5726")
#loc12347 = loc("custom-call.2411")
#loc12348 = loc("custom-call.2406")
#loc12367 = loc("custom-call.14750")
#loc12376 = loc("custom-call.21390")
#loc12377 = loc("custom-call.18581")
#loc12378 = loc("custom-call.18580")
#loc12397 = loc("custom-call.22904")
#loc12406 = loc("custom-call.24731")
#loc12407 = loc("custom-call.18295")
#loc12408 = loc("custom-call.18294")
#loc12427 = loc("custom-call.23161")
#loc12436 = loc("custom-call.11923")
#loc12445 = loc("custom-call.3108")
#loc12446 = loc("custom-call.3075")
#loc12447 = loc("custom-call.3070")
#loc12466 = loc("custom-call.19049")
#loc12475 = loc("custom-call.23418")
#loc12484 = loc("custom-call.23703")
#loc12485 = loc("custom-call.18383")
#loc12486 = loc("custom-call.18382")
#loc12505 = loc("custom-call.15180")
#loc12506 = loc("custom-call.10821")
#loc12507 = loc("custom-call.10820")
#loc12526 = loc("custom-call.3899")
#loc12535 = loc("custom-call.15264")
#loc12544 = loc("custom-call.26205")
#loc12553 = loc("custom-call.15292")
#loc12554 = loc("custom-call.10809")
#loc12555 = loc("custom-call.10808")
#loc12574 = loc("custom-call.15437")
#loc12575 = loc("custom-call.10799")
#loc12576 = loc("custom-call.10798")
#loc12595 = loc("custom-call.20591")
#loc12604 = loc("custom-call.4473")
#loc12605 = loc("custom-call.2725")
#loc12606 = loc("custom-call.2720")
#loc12625 = loc("custom-call.15521")
#loc12634 = loc("custom-call.15549")
#loc12635 = loc("custom-call.10787")
#loc12636 = loc("custom-call.10786")
#loc12655 = loc("custom-call.11325")
#loc12656 = loc("custom-call.11151")
#loc12657 = loc("custom-call.11150")
#loc12676 = loc("custom-call.7175")
#loc12685 = loc("custom-call.15778")
#loc12694 = loc("custom-call.15806")
#loc12695 = loc("custom-call.10765")
#loc12696 = loc("custom-call.10764")
#loc12715 = loc("custom-call.16208")
#loc12716 = loc("custom-call.10733")
#loc12717 = loc("custom-call.10732")
#loc12736 = loc("custom-call.16292")
#loc12745 = loc("custom-call.16465")
#loc12746 = loc("custom-call.10711")
#loc12747 = loc("custom-call.10710")
#loc12766 = loc("custom-call.5264")
#loc12775 = loc("custom-call.16549")
#loc12784 = loc("custom-call.16577")
#loc12785 = loc("custom-call.10699")
#loc12786 = loc("custom-call.10698")
#loc12805 = loc("custom-call.4991")
#loc12814 = loc("custom-call.7637")
#loc12815 = loc("custom-call.1921")
#loc12816 = loc("custom-call.1916")
#loc12835 = loc("custom-call.16806")
#loc12844 = loc("custom-call.16834")
#loc12845 = loc("custom-call.10677")
#loc12846 = loc("custom-call.10676")
#loc12865 = loc("custom-call.21792")
#loc12866 = loc("custom-call.18549")
#loc12867 = loc("custom-call.18548")
#loc12886 = loc("custom-call.16979")
#loc12887 = loc("custom-call.10667")
#loc12888 = loc("custom-call.10666")
#loc12907 = loc("custom-call.9933")
#loc12908 = loc("custom-call.1325")
#loc12909 = loc("custom-call.1320")
#loc12928 = loc("custom-call.9359")
#loc12937 = loc("custom-call.17091")
#loc12938 = loc("custom-call.10655")
#loc12939 = loc("custom-call.10654")
#loc12958 = loc("custom-call.8456")
#loc12959 = loc("custom-call.1711")
#loc12960 = loc("custom-call.1706")
#loc12979 = loc("custom-call.28667")
#loc12988 = loc("custom-call.17577")
#loc12997 = loc("custom-call.12465")
#loc12998 = loc("custom-call.11051")
#loc12999 = loc("custom-call.11050")
#loc13018 = loc("custom-call.17605")
#loc13019 = loc("custom-call.10611")
#loc13020 = loc("custom-call.10610")
#loc13039 = loc("custom-call.10451")
#loc13048 = loc("custom-call.3269")
#loc13049 = loc("custom-call.3041")
#loc13050 = loc("custom-call.3036")
#loc13069 = loc("custom-call.12437")
#loc13078 = loc("custom-call.3381")
#loc13079 = loc("custom-call.3005")
#loc13080 = loc("custom-call.3000")
#loc13099 = loc("custom-call.3654")
#loc13100 = loc("custom-call.2935")
#loc13101 = loc("custom-call.2930")
#loc13120 = loc("custom-call.9114")
#loc13121 = loc("custom-call.1535")
#loc13122 = loc("custom-call.1530")
#loc13141 = loc("custom-call.3815")
#loc13142 = loc("custom-call.2901")
#loc13143 = loc("custom-call.2896")
#loc13162 = loc("custom-call.3927")
#loc13163 = loc("custom-call.2865")
#loc13164 = loc("custom-call.2860")
#loc13183 = loc("custom-call.4088")
#loc13184 = loc("custom-call.2831")
#loc13185 = loc("custom-call.2826")
#loc13204 = loc("custom-call.4172")
#loc13213 = loc("custom-call.4200")
#loc13214 = loc("custom-call.2795")
#loc13215 = loc("custom-call.2790")
#loc13234 = loc("custom-call.4361")
#loc13235 = loc("custom-call.2761")
#loc13236 = loc("custom-call.2756")
#loc13255 = loc("custom-call.4445")
#loc13264 = loc("custom-call.3542")
#loc13265 = loc("custom-call.2971")
#loc13266 = loc("custom-call.2966")
#loc13285 = loc("custom-call.4718")
#loc13294 = loc("custom-call.5537")
#loc13303 = loc("custom-call.29987")
#loc13312 = loc("custom-call.19334")
#loc13313 = loc("custom-call.18757")
#loc13314 = loc("custom-call.18756")
#loc13333 = loc("custom-call.5565")
#loc13334 = loc("custom-call.2445")
#loc13335 = loc("custom-call.2440")
#loc13354 = loc("custom-call.6545")
#loc13355 = loc("custom-call.2201")
#loc13356 = loc("custom-call.2196")
#loc13375 = loc("custom-call.24217")
#loc13376 = loc("custom-call.18339")
#loc13377 = loc("custom-call.18338")
#loc13396 = loc("custom-call.7091")
#loc13397 = loc("custom-call.2061")
#loc13398 = loc("custom-call.2056")
#loc13417 = loc("custom-call.6356")
#loc13426 = loc("custom-call.7364")
#loc13427 = loc("custom-call.1991")
#loc13428 = loc("custom-call.1986")
#loc13447 = loc("custom-call.14493")
#loc13456 = loc("custom-call.17236")
#loc13457 = loc("custom-call.10645")
#loc13458 = loc("custom-call.10644")
#loc13477 = loc("custom-call.7448")
#loc13486 = loc("custom-call.24446")
#loc13495 = loc("custom-call.11437")
#loc13496 = loc("custom-call.11139")
#loc13497 = loc("custom-call.11138")
#loc13516 = loc("custom-call.10367")
#loc13517 = loc("custom-call.1221")
#loc13518 = loc("custom-call.1216")
#loc13537 = loc("custom-call.17348")
#loc13538 = loc("custom-call.10633")
#loc13539 = loc("custom-call.10632")
#loc13558 = loc("custom-call.7476")
#loc13559 = loc("custom-call.1955")
#loc13560 = loc("custom-call.1950")
#loc13579 = loc("custom-call.8022")
#loc13580 = loc("custom-call.1815")
#loc13581 = loc("custom-call.1810")
#loc13600 = loc("custom-call.19563")
#loc13609 = loc("custom-call.9275")
#loc13610 = loc("custom-call.1501")
#loc13611 = loc("custom-call.1496")
#loc13630 = loc("custom-call.8183")
#loc13631 = loc("custom-call.1781")
#loc13632 = loc("custom-call.1776")
#loc13651 = loc("custom-call.12722")
#loc13652 = loc("custom-call.11029")
#loc13653 = loc("custom-call.11028")
#loc13672 = loc("custom-call.8267")
#loc13681 = loc("custom-call.8295")
#loc13682 = loc("custom-call.1745")
#loc13683 = loc("custom-call.1740")
#loc13702 = loc("custom-call.32847")
#loc13711 = loc("custom-call.8540")
#loc13720 = loc("custom-call.21021")
#loc13721 = loc("custom-call.18615")
#loc13722 = loc("custom-call.18614")
#loc13741 = loc("custom-call.8568")
#loc13742 = loc("custom-call.1675")
#loc13743 = loc("custom-call.1670")
#loc13762 = loc("custom-call.5019")
#loc13763 = loc("custom-call.2585")
#loc13764 = loc("custom-call.2580")
#loc13783 = loc("custom-call.10094")
#loc13784 = loc("custom-call.1291")
#loc13785 = loc("custom-call.1286")
#loc13804 = loc("custom-call.18091")
#loc13813 = loc("custom-call.26687")
#loc13822 = loc("custom-call.27787")
#loc13831 = loc("custom-call.9002")
#loc13832 = loc("custom-call.1571")
#loc13833 = loc("custom-call.1566")
#loc13852 = loc("custom-call.9086")
#loc13861 = loc("custom-call.9548")
#loc13862 = loc("custom-call.1431")
#loc13863 = loc("custom-call.1426")
#loc13882 = loc("custom-call.10178")
#loc13891 = loc("custom-call.10479")
#loc13892 = loc("custom-call.1185")
#loc13893 = loc("custom-call.1180")
#loc13912 = loc("custom-call.26467")
#loc13921 = loc("custom-call.26907")
#loc13930 = loc("custom-call.27127")
#loc13939 = loc("custom-call.28447")
#loc13948 = loc("custom-call.17834")
#loc13957 = loc("custom-call.27567")
module @SyncTensorsGraph.33801 attributes {mhlo.cross_program_prefetches = [], mhlo.input_output_alias = [], mhlo.is_dynamic = false, mhlo.use_auto_spmd_partitioning = false} {
  sdy.mesh @mesh = <["x"=1, "y"=1]> loc(#loc)
  func.func @main(%arg0: tensor<1024xf32> {ttcore.argument_type = #ttcore.argument_type<parameter>, ttcore.local_shape = #ttcore<local_shape local_shape = tensor<1024xf32>>, ttcore.shard_status = #ttcore.shard_status<unsharded>, ttir.name = "L__self___bracket_core_state_proj.bias"} loc("p0.72"), %arg1: tensor<1024x32xf32> {ttcore.argument_type = #ttcore.argument_type<parameter>, ttcore.local_shape = #ttcore<local_shape local_shape = tensor<1024x32xf32>>, ttcore.shard_status = #ttcore.shard_status<unsharded>, ttir.name = "L__self___bracket_core_state_proj.weight"} loc("p1.79"), %arg2: tensor<1x32xf32> {ttcore.argument_type = #ttcore.argument_type<input>, ttcore.local_shape = #ttcore<local_shape local_shape = tensor<1x32xf32>>, ttcore.shard_status = #ttcore.shard_status<unsharded>, ttir.name = "args_0"} loc("p2.84"), %arg3: tensor<1024x32xf32> {ttcore.argument_type = #ttcore.argument_type<parameter>, ttcore.local_shape = #ttcore<local_shape local_shape = tensor<1024x32xf32>>, ttcore.shard_status = #ttcore.shard_status<unsharded>, ttir.name = "L__self___bracket_core_action_in_proj.weight"} loc("p3.109"), %arg4: tensor<32xf32> {ttcore.argument_type = #ttcore.argument_type<parameter>, ttcore.local_shape = #ttcore<local_shape local_shape = tensor<32xf32>>, ttcore.shard_status = #ttcore.shard_status<unsharded>, ttir.name = "L__self___bracket_core_action_out_proj.bias"} loc("p4.117"), %arg5: tensor<32x1024xf32> {ttcore.argument_type = #ttcore.argument_type<parameter>, ttcore.local_shape = #ttcore<local_shape local_shape = tensor<32x1024xf32>>, ttcore.shard_status = #ttcore.shard_status<unsharded>, ttir.name = "L__self___bracket_core_action_out_proj.weight"} loc("p5.121"), %arg6: tensor<1024xf32> {ttcore.argument_type = #ttcore.argument_type<parameter>, ttcore.local_shape = #ttcore<local_shape local_shape = tensor<1024xf32>>, ttcore.shard_status = #ttcore.shard_status<unsharded>, ttir.name = "L__self___bracket_core_paligemma_with_expert_gemma_expert_model_norm_weight"} loc("p6.128"), %arg7: tensor<1024x4096xf32> {ttcore.argument_type = #ttcore.argument_type<parameter>, ttcore.local_shape = #ttcore<local_shape local_shape = tensor<1024x4096xf32>>, ttcore.shard_status = #ttcore.shard_status<unsharded>, ttir.name = "L__self___bracket_core_paligemma_with_expert_gemma_expert_model_layers_17_mlp_down_proj.weight"} loc("p7.139"), %arg8: tensor<4096x1024xf32> {ttcore.argument_type = #ttcore.argument_type<parameter>, ttcore.local_shape = #ttcore<local_shape local_shape = tensor<4096x1024xf32>>, ttcore.shard_status = #ttcore.shard_status<unsharded>, ttir.name = "L__self___bracket_core_paligemma_with_expert_gemma_expert_model_layers_17_mlp_up_proj.weight"} loc("p8.144"), %arg9: tensor<1024xf32> {ttcore.argument_type = #ttcore.argument_type<parameter>, ttcore.local_shape = #ttcore<local_shape local_shape = tensor<1024xf32>>, ttcore.shard_status = #ttcore.shard_status<unsharded>, ttir.name = "L__self___bracket_core_paligemma_with_expert_gemma_expert_model_layers_17_post_attention_layernorm_weight"} loc("p9.151"), %arg10: tensor<1024x2048xf32> {ttcore.argument_type = #ttcore.argument_type<parameter>, ttcore.local_shape = #ttcore<local_shape local_shape = tensor<1024x2048xf32>>, ttcore.shard_status = #ttcore.shard_status<unsharded>, ttir.name = "L__self___bracket_core_paligemma_with_expert_gemma_expert_model_layers_17_self_attn_o_proj.weight"} loc("p10.162"), %arg11: tensor<256x1024xf32> {ttcore.argument_type = #ttcore.argument_type<parameter>, ttcore.local_shape = #ttcore<local_shape local_shape = tensor<256x1024xf32>>, ttcore.shard_status = #ttcore.shard_status<unsharded>, ttir.name = "L__self___bracket_core_paligemma_with_expert_gemma_expert_model_layers_17_self_attn_v_proj.weight"} loc("p11.167"), %arg12: tensor<1024xf32> {ttcore.argument_type = #ttcore.argument_type<parameter>, ttcore.local_shape = #ttcore<local_shape local_shape = tensor<1024xf32>>, ttcore.shard_status = #ttcore.shard_status<unsharded>, ttir.name = "L__self___bracket_core_paligemma_with_expert_gemma_expert_model_layers_17_input_layernorm_weight"} loc("p12.174"), %arg13: tensor<1024x4096xf32> {ttcore.argument_type = #ttcore.argument_type<parameter>, ttcore.local_shape = #ttcore<local_shape local_shape = tensor<1024x4096xf32>>, ttcore.shard_status = #ttcore.shard_status<unsharded>, ttir.name = "L__self___bracket_core_paligemma_with_expert_gemma_expert_model_layers_16_mlp_down_proj.weight"} loc("p13.185"), %arg14: tensor<4096x1024xf32> {ttcore.argument_type = #ttcore.argument_type<parameter>, ttcore.local_shape = #ttcore<local_shape local_shape = tensor<4096x1024xf32>>, ttcore.shard_status = #ttcore.shard_status<unsharded>, ttir.name = "L__self___bracket_core_paligemma_with_expert_gemma_expert_model_layers_16_mlp_up_proj.weight"} loc("p14.190"), %arg15: tensor<1024xf32> {ttcore.argument_type = #ttcore.argument_type<parameter>, ttcore.local_shape = #ttcore<local_shape local_shape = tensor<1024xf32>>, ttcore.shard_status = #ttcore.shard_status<unsharded>, ttir.name = "L__self___bracket_core_paligemma_with_expert_gemma_expert_model_layers_16_post_attention_layernorm_weight"} loc("p15.197"), %arg16: tensor<1024x2048xf32> {ttcore.argument_type = #ttcore.argument_type<parameter>, ttcore.local_shape = #ttcore<local_shape local_shape = tensor<1024x2048xf32>>, ttcore.shard_status = #ttcore.shard_status<unsharded>, ttir.name = "L__self___bracket_core_paligemma_with_expert_gemma_expert_model_layers_16_self_attn_o_proj.weight"} loc("p16.208"), %arg17: tensor<256x1024xf32> {ttcore.argument_type = #ttcore.argument_type<parameter>, ttcore.local_shape = #ttcore<local_shape local_shape = tensor<256x1024xf32>>, ttcore.shard_status = #ttcore.shard_status<unsharded>, ttir.name = "L__self___bracket_core_paligemma_with_expert_gemma_expert_model_layers_16_self_attn_v_proj.weight"} loc("p17.213"), %arg18: tensor<1024xf32> {ttcore.argument_type = #ttcore.argument_type<parameter>, ttcore.local_shape = #ttcore<local_shape local_shape = tensor<1024xf32>>, ttcore.shard_status = #ttcore.shard_status<unsharded>, ttir.name = "L__self___bracket_core_paligemma_with_expert_gemma_expert_model_layers_16_input_layernorm_weight"} loc("p18.220"), %arg19: tensor<1024x4096xf32> {ttcore.argument_type = #ttcore.argument_type<parameter>, ttcore.local_shape = #ttcore<local_shape local_shape = tensor<1024x4096xf32>>, ttcore.shard_status = #ttcore.shard_status<unsharded>, ttir.name = "L__self___bracket_core_paligemma_with_expert_gemma_expert_model_layers_15_mlp_down_proj.weight"} loc("p19.231"), %arg20: tensor<4096x1024xf32> {ttcore.argument_type = #ttcore.argument_type<parameter>, ttcore.local_shape = #ttcore<local_shape local_shape = tensor<4096x1024xf32>>, ttcore.shard_status = #ttcore.shard_status<unsharded>, ttir.name = "L__self___bracket_core_paligemma_with_expert_gemma_expert_model_layers_15_mlp_up_proj.weight"} loc("p20.236"), %arg21: tensor<1024xf32> {ttcore.argument_type = #ttcore.argument_type<parameter>, ttcore.local_shape = #ttcore<local_shape local_shape = tensor<1024xf32>>, ttcore.shard_status = #ttcore.shard_status<unsharded>, ttir.name = "L__self___bracket_core_paligemma_with_expert_gemma_expert_model_layers_15_post_attention_layernorm_weight"} loc("p21.243"), %arg22: tensor<1024x2048xf32> {ttcore.argument_type = #ttcore.argument_type<parameter>, ttcore.local_shape = #ttcore<local_shape local_shape = tensor<1024x2048xf32>>, ttcore.shard_status = #ttcore.shard_status<unsharded>, ttir.name = "L__self___bracket_core_paligemma_with_expert_gemma_expert_model_layers_15_self_attn_o_proj.weight"} loc("p22.254"), %arg23: tensor<256x1024xf32> {ttcore.argument_type = #ttcore.argument_type<parameter>, ttcore.local_shape = #ttcore<local_shape local_shape = tensor<256x1024xf32>>, ttcore.shard_status = #ttcore.shard_status<unsharded>, ttir.name = "L__self___bracket_core_paligemma_with_expert_gemma_expert_model_layers_15_self_attn_v_proj.weight"} loc("p23.259"), %arg24: tensor<1024xf32> {ttcore.argument_type = #ttcore.argument_type<parameter>, ttcore.local_shape = #ttcore<local_shape local_shape = tensor<1024xf32>>, ttcore.shard_status = #ttcore.shard_status<unsharded>, ttir.name = "L__self___bracket_core_paligemma_with_expert_gemma_expert_model_layers_15_input_layernorm_weight"} loc("p24.266"), %arg25: tensor<1024x4096xf32> {ttcore.argument_type = #ttcore.argument_type<parameter>, ttcore.local_shape = #ttcore<local_shape local_shape = tensor<1024x4096xf32>>, ttcore.shard_status = #ttcore.shard_status<unsharded>, ttir.name = "L__self___bracket_core_paligemma_with_expert_gemma_expert_model_layers_14_mlp_down_proj.weight"} loc("p25.277"), %arg26: tensor<4096x1024xf32> {ttcore.argument_type = #ttcore.argument_type<parameter>, ttcore.local_shape = #ttcore<local_shape local_shape = tensor<4096x1024xf32>>, ttcore.shard_status = #ttcore.shard_status<unsharded>, ttir.name = "L__self___bracket_core_paligemma_with_expert_gemma_expert_model_layers_14_mlp_up_proj.weight"} loc("p26.282"), %arg27: tensor<1024xf32> {ttcore.argument_type = #ttcore.argument_type<parameter>, ttcore.local_shape = #ttcore<local_shape local_shape = tensor<1024xf32>>, ttcore.shard_status = #ttcore.shard_status<unsharded>, ttir.name = "L__self___bracket_core_paligemma_with_expert_gemma_expert_model_layers_14_post_attention_layernorm_weight"} loc("p27.289"), %arg28: tensor<1024x2048xf32> {ttcore.argument_type = #ttcore.argument_type<parameter>, ttcore.local_shape = #ttcore<local_shape local_shape = tensor<1024x2048xf32>>, ttcore.shard_status = #ttcore.shard_status<unsharded>, ttir.name = "L__self___bracket_core_paligemma_with_expert_gemma_expert_model_layers_14_self_attn_o_proj.weight"} loc("p28.300"), %arg29: tensor<256x1024xf32> {ttcore.argument_type = #ttcore.argument_type<parameter>, ttcore.local_shape = #ttcore<local_shape local_shape = tensor<256x1024xf32>>, ttcore.shard_status = #ttcore.shard_status<unsharded>, ttir.name = "L__self___bracket_core_paligemma_with_expert_gemma_expert_model_layers_14_self_attn_v_proj.weight"} loc("p29.305"), %arg30: tensor<1024xf32> {ttcore.argument_type = #ttcore.argument_type<parameter>, ttcore.local_shape = #ttcore<local_shape local_shape = tensor<1024xf32>>, ttcore.shard_status = #ttcore.shard_status<unsharded>, ttir.name = "L__self___bracket_core_paligemma_with_expert_gemma_expert_model_layers_14_input_layernorm_weight"} loc("p30.312"), %arg31: tensor<1024x4096xf32> {ttcore.argument_type = #ttcore.argument_type<parameter>, ttcore.local_shape = #ttcore<local_shape local_shape = tensor<1024x4096xf32>>, ttcore.shard_status = #ttcore.shard_status<unsharded>, ttir.name = "L__self___bracket_core_paligemma_with_expert_gemma_expert_model_layers_13_mlp_down_proj.weight"} loc("p31.323"), %arg32: tensor<4096x1024xf32> {ttcore.argument_type = #ttcore.argument_type<parameter>, ttcore.local_shape = #ttcore<local_shape local_shape = tensor<4096x1024xf32>>, ttcore.shard_status = #ttcore.shard_status<unsharded>, ttir.name = "L__self___bracket_core_paligemma_with_expert_gemma_expert_model_layers_13_mlp_up_proj.weight"} loc("p32.328"), %arg33: tensor<1024xf32> {ttcore.argument_type = #ttcore.argument_type<parameter>, ttcore.local_shape = #ttcore<local_shape local_shape = tensor<1024xf32>>, ttcore.shard_status = #ttcore.shard_status<unsharded>, ttir.name = "L__self___bracket_core_paligemma_with_expert_gemma_expert_model_layers_13_post_attention_layernorm_weight"} loc("p33.335"), %arg34: tensor<1024x2048xf32> {ttcore.argument_type = #ttcore.argument_type<parameter>, ttcore.local_shape = #ttcore<local_shape local_shape = tensor<1024x2048xf32>>, ttcore.shard_status = #ttcore.shard_status<unsharded>, ttir.name = "L__self___bracket_core_paligemma_with_expert_gemma_expert_model_layers_13_self_attn_o_proj.weight"} loc("p34.346"), %arg35: tensor<256x1024xf32> {ttcore.argument_type = #ttcore.argument_type<parameter>, ttcore.local_shape = #ttcore<local_shape local_shape = tensor<256x1024xf32>>, ttcore.shard_status = #ttcore.shard_status<unsharded>, ttir.name = "L__self___bracket_core_paligemma_with_expert_gemma_expert_model_layers_13_self_attn_v_proj.weight"} loc("p35.351"), %arg36: tensor<1024xf32> {ttcore.argument_type = #ttcore.argument_type<parameter>, ttcore.local_shape = #ttcore<local_shape local_shape = tensor<1024xf32>>, ttcore.shard_status = #ttcore.shard_status<unsharded>, ttir.name = "L__self___bracket_core_paligemma_with_expert_gemma_expert_model_layers_13_input_layernorm_weight"} loc("p36.358"), %arg37: tensor<1024x4096xf32> {ttcore.argument_type = #ttcore.argument_type<parameter>, ttcore.local_shape = #ttcore<local_shape local_shape = tensor<1024x4096xf32>>, ttcore.shard_status = #ttcore.shard_status<unsharded>, ttir.name = "L__self___bracket_core_paligemma_with_expert_gemma_expert_model_layers_12_mlp_down_proj.weight"} loc("p37.369"), %arg38: tensor<4096x1024xf32> {ttcore.argument_type = #ttcore.argument_type<parameter>, ttcore.local_shape = #ttcore<local_shape local_shape = tensor<4096x1024xf32>>, ttcore.shard_status = #ttcore.shard_status<unsharded>, ttir.name = "L__self___bracket_core_paligemma_with_expert_gemma_expert_model_layers_12_mlp_up_proj.weight"} loc("p38.374"), %arg39: tensor<1024xf32> {ttcore.argument_type = #ttcore.argument_type<parameter>, ttcore.local_shape = #ttcore<local_shape local_shape = tensor<1024xf32>>, ttcore.shard_status = #ttcore.shard_status<unsharded>, ttir.name = "L__self___bracket_core_paligemma_with_expert_gemma_expert_model_layers_12_post_attention_layernorm_weight"} loc("p39.381"), %arg40: tensor<1024x2048xf32> {ttcore.argument_type = #ttcore.argument_type<parameter>, ttcore.local_shape = #ttcore<local_shape local_shape = tensor<1024x2048xf32>>, ttcore.shard_status = #ttcore.shard_status<unsharded>, ttir.name = "L__self___bracket_core_paligemma_with_expert_gemma_expert_model_layers_12_self_attn_o_proj.weight"} loc("p40.392"), %arg41: tensor<256x1024xf32> {ttcore.argument_type = #ttcore.argument_type<parameter>, ttcore.local_shape = #ttcore<local_shape local_shape = tensor<256x1024xf32>>, ttcore.shard_status = #ttcore.shard_status<unsharded>, ttir.name = "L__self___bracket_core_paligemma_with_expert_gemma_expert_model_layers_12_self_attn_v_proj.weight"} loc("p41.397"), %arg42: tensor<1024xf32> {ttcore.argument_type = #ttcore.argument_type<parameter>, ttcore.local_shape = #ttcore<local_shape local_shape = tensor<1024xf32>>, ttcore.shard_status = #ttcore.shard_status<unsharded>, ttir.name = "L__self___bracket_core_paligemma_with_expert_gemma_expert_model_layers_12_input_layernorm_weight"} loc("p42.404"), %arg43: tensor<1024x4096xf32> {ttcore.argument_type = #ttcore.argument_type<parameter>, ttcore.local_shape = #ttcore<local_shape local_shape = tensor<1024x4096xf32>>, ttcore.shard_status = #ttcore.shard_status<unsharded>, ttir.name = "L__self___bracket_core_paligemma_with_expert_gemma_expert_model_layers_11_mlp_down_proj.weight"} loc("p43.415"), %arg44: tensor<4096x1024xf32> {ttcore.argument_type = #ttcore.argument_type<parameter>, ttcore.local_shape = #ttcore<local_shape local_shape = tensor<4096x1024xf32>>, ttcore.shard_status = #ttcore.shard_status<unsharded>, ttir.name = "L__self___bracket_core_paligemma_with_expert_gemma_expert_model_layers_11_mlp_up_proj.weight"} loc("p44.420"), %arg45: tensor<1024xf32> {ttcore.argument_type = #ttcore.argument_type<parameter>, ttcore.local_shape = #ttcore<local_shape local_shape = tensor<1024xf32>>, ttcore.shard_status = #ttcore.shard_status<unsharded>, ttir.name = "L__self___bracket_core_paligemma_with_expert_gemma_expert_model_layers_11_post_attention_layernorm_weight"} loc("p45.427"), %arg46: tensor<1024x2048xf32> {ttcore.argument_type = #ttcore.argument_type<parameter>, ttcore.local_shape = #ttcore<local_shape local_shape = tensor<1024x2048xf32>>, ttcore.shard_status = #ttcore.shard_status<unsharded>, ttir.name = "L__self___bracket_core_paligemma_with_expert_gemma_expert_model_layers_11_self_attn_o_proj.weight"} loc("p46.438"), %arg47: tensor<256x1024xf32> {ttcore.argument_type = #ttcore.argument_type<parameter>, ttcore.local_shape = #ttcore<local_shape local_shape = tensor<256x1024xf32>>, ttcore.shard_status = #ttcore.shard_status<unsharded>, ttir.name = "L__self___bracket_core_paligemma_with_expert_gemma_expert_model_layers_11_self_attn_v_proj.weight"} loc("p47.443"), %arg48: tensor<1024xf32> {ttcore.argument_type = #ttcore.argument_type<parameter>, ttcore.local_shape = #ttcore<local_shape local_shape = tensor<1024xf32>>, ttcore.shard_status = #ttcore.shard_status<unsharded>, ttir.name = "L__self___bracket_core_paligemma_with_expert_gemma_expert_model_layers_11_input_layernorm_weight"} loc("p48.450"), %arg49: tensor<1024x4096xf32> {ttcore.argument_type = #ttcore.argument_type<parameter>, ttcore.local_shape = #ttcore<local_shape local_shape = tensor<1024x4096xf32>>, ttcore.shard_status = #ttcore.shard_status<unsharded>, ttir.name = "L__self___bracket_core_paligemma_with_expert_gemma_expert_model_layers_10_mlp_down_proj.weight"} loc("p49.461"), %arg50: tensor<4096x1024xf32> {ttcore.argument_type = #ttcore.argument_type<parameter>, ttcore.local_shape = #ttcore<local_shape local_shape = tensor<4096x1024xf32>>, ttcore.shard_status = #ttcore.shard_status<unsharded>, ttir.name = "L__self___bracket_core_paligemma_with_expert_gemma_expert_model_layers_10_mlp_up_proj.weight"} loc("p50.466"), %arg51: tensor<1024xf32> {ttcore.argument_type = #ttcore.argument_type<parameter>, ttcore.local_shape = #ttcore<local_shape local_shape = tensor<1024xf32>>, ttcore.shard_status = #ttcore.shard_status<unsharded>, ttir.name = "L__self___bracket_core_paligemma_with_expert_gemma_expert_model_layers_10_post_attention_layernorm_weight"} loc("p51.473"), %arg52: tensor<1024x2048xf32> {ttcore.argument_type = #ttcore.argument_type<parameter>, ttcore.local_shape = #ttcore<local_shape local_shape = tensor<1024x2048xf32>>, ttcore.shard_status = #ttcore.shard_status<unsharded>, ttir.name = "L__self___bracket_core_paligemma_with_expert_gemma_expert_model_layers_10_self_attn_o_proj.weight"} loc("p52.484"), %arg53: tensor<256x1024xf32> {ttcore.argument_type = #ttcore.argument_type<parameter>, ttcore.local_shape = #ttcore<local_shape local_shape = tensor<256x1024xf32>>, ttcore.shard_status = #ttcore.shard_status<unsharded>, ttir.name = "L__self___bracket_core_paligemma_with_expert_gemma_expert_model_layers_10_self_attn_v_proj.weight"} loc("p53.489"), %arg54: tensor<1024xf32> {ttcore.argument_type = #ttcore.argument_type<parameter>, ttcore.local_shape = #ttcore<local_shape local_shape = tensor<1024xf32>>, ttcore.shard_status = #ttcore.shard_status<unsharded>, ttir.name = "L__self___bracket_core_paligemma_with_expert_gemma_expert_model_layers_10_input_layernorm_weight"} loc("p54.496"), %arg55: tensor<1024x4096xf32> {ttcore.argument_type = #ttcore.argument_type<parameter>, ttcore.local_shape = #ttcore<local_shape local_shape = tensor<1024x4096xf32>>, ttcore.shard_status = #ttcore.shard_status<unsharded>, ttir.name = "L__self___bracket_core_paligemma_with_expert_gemma_expert_model_layers_9_mlp_down_proj.weight"} loc("p55.507"), %arg56: tensor<4096x1024xf32> {ttcore.argument_type = #ttcore.argument_type<parameter>, ttcore.local_shape = #ttcore<local_shape local_shape = tensor<4096x1024xf32>>, ttcore.shard_status = #ttcore.shard_status<unsharded>, ttir.name = "L__self___bracket_core_paligemma_with_expert_gemma_expert_model_layers_9_mlp_up_proj.weight"} loc("p56.512"), %arg57: tensor<1024xf32> {ttcore.argument_type = #ttcore.argument_type<parameter>, ttcore.local_shape = #ttcore<local_shape local_shape = tensor<1024xf32>>, ttcore.shard_status = #ttcore.shard_status<unsharded>, ttir.name = "L__self___bracket_core_paligemma_with_expert_gemma_expert_model_layers_9_post_attention_layernorm_weight"} loc("p57.519"), %arg58: tensor<1024x2048xf32> {ttcore.argument_type = #ttcore.argument_type<parameter>, ttcore.local_shape = #ttcore<local_shape local_shape = tensor<1024x2048xf32>>, ttcore.shard_status = #ttcore.shard_status<unsharded>, ttir.name = "L__self___bracket_core_paligemma_with_expert_gemma_expert_model_layers_9_self_attn_o_proj.weight"} loc("p58.530"), %arg59: tensor<256x1024xf32> {ttcore.argument_type = #ttcore.argument_type<parameter>, ttcore.local_shape = #ttcore<local_shape local_shape = tensor<256x1024xf32>>, ttcore.shard_status = #ttcore.shard_status<unsharded>, ttir.name = "L__self___bracket_core_paligemma_with_expert_gemma_expert_model_layers_9_self_attn_v_proj.weight"} loc("p59.535"), %arg60: tensor<1024xf32> {ttcore.argument_type = #ttcore.argument_type<parameter>, ttcore.local_shape = #ttcore<local_shape local_shape = tensor<1024xf32>>, ttcore.shard_status = #ttcore.shard_status<unsharded>, ttir.name = "L__self___bracket_core_paligemma_with_expert_gemma_expert_model_layers_9_input_layernorm_weight"} loc("p60.542"), %arg61: tensor<1024x4096xf32> {ttcore.argument_type = #ttcore.argument_type<parameter>, ttcore.local_shape = #ttcore<local_shape local_shape = tensor<1024x4096xf32>>, ttcore.shard_status = #ttcore.shard_status<unsharded>, ttir.name = "L__self___bracket_core_paligemma_with_expert_gemma_expert_model_layers_8_mlp_down_proj.weight"} loc("p61.553"), %arg62: tensor<4096x1024xf32> {ttcore.argument_type = #ttcore.argument_type<parameter>, ttcore.local_shape = #ttcore<local_shape local_shape = tensor<4096x1024xf32>>, ttcore.shard_status = #ttcore.shard_status<unsharded>, ttir.name = "L__self___bracket_core_paligemma_with_expert_gemma_expert_model_layers_8_mlp_up_proj.weight"} loc("p62.558"), %arg63: tensor<1024xf32> {ttcore.argument_type = #ttcore.argument_type<parameter>, ttcore.local_shape = #ttcore<local_shape local_shape = tensor<1024xf32>>, ttcore.shard_status = #ttcore.shard_status<unsharded>, ttir.name = "L__self___bracket_core_paligemma_with_expert_gemma_expert_model_layers_8_post_attention_layernorm_weight"} loc("p63.565"), %arg64: tensor<1024x2048xf32> {ttcore.argument_type = #ttcore.argument_type<parameter>, ttcore.local_shape = #ttcore<local_shape local_shape = tensor<1024x2048xf32>>, ttcore.shard_status = #ttcore.shard_status<unsharded>, ttir.name = "L__self___bracket_core_paligemma_with_expert_gemma_expert_model_layers_8_self_attn_o_proj.weight"} loc("p64.576"), %arg65: tensor<256x1024xf32> {ttcore.argument_type = #ttcore.argument_type<parameter>, ttcore.local_shape = #ttcore<local_shape local_shape = tensor<256x1024xf32>>, ttcore.shard_status = #ttcore.shard_status<unsharded>, ttir.name = "L__self___bracket_core_paligemma_with_expert_gemma_expert_model_layers_8_self_attn_v_proj.weight"} loc("p65.581"), %arg66: tensor<1024xf32> {ttcore.argument_type = #ttcore.argument_type<parameter>, ttcore.local_shape = #ttcore<local_shape local_shape = tensor<1024xf32>>, ttcore.shard_status = #ttcore.shard_status<unsharded>, ttir.name = "L__self___bracket_core_paligemma_with_expert_gemma_expert_model_layers_8_input_layernorm_weight"} loc("p66.588"), %arg67: tensor<1024x4096xf32> {ttcore.argument_type = #ttcore.argument_type<parameter>, ttcore.local_shape = #ttcore<local_shape local_shape = tensor<1024x4096xf32>>, ttcore.shard_status = #ttcore.shard_status<unsharded>, ttir.name = "L__self___bracket_core_paligemma_with_expert_gemma_expert_model_layers_7_mlp_down_proj.weight"} loc("p67.599"), %arg68: tensor<4096x1024xf32> {ttcore.argument_type = #ttcore.argument_type<parameter>, ttcore.local_shape = #ttcore<local_shape local_shape = tensor<4096x1024xf32>>, ttcore.shard_status = #ttcore.shard_status<unsharded>, ttir.name = "L__self___bracket_core_paligemma_with_expert_gemma_expert_model_layers_7_mlp_up_proj.weight"} loc("p68.604"), %arg69: tensor<1024xf32> {ttcore.argument_type = #ttcore.argument_type<parameter>, ttcore.local_shape = #ttcore<local_shape local_shape = tensor<1024xf32>>, ttcore.shard_status = #ttcore.shard_status<unsharded>, ttir.name = "L__self___bracket_core_paligemma_with_expert_gemma_expert_model_layers_7_post_attention_layernorm_weight"} loc("p69.611"), %arg70: tensor<1024x2048xf32> {ttcore.argument_type = #ttcore.argument_type<parameter>, ttcore.local_shape = #ttcore<local_shape local_shape = tensor<1024x2048xf32>>, ttcore.shard_status = #ttcore.shard_status<unsharded>, ttir.name = "L__self___bracket_core_paligemma_with_expert_gemma_expert_model_layers_7_self_attn_o_proj.weight"} loc("p70.622"), %arg71: tensor<256x1024xf32> {ttcore.argument_type = #ttcore.argument_type<parameter>, ttcore.local_shape = #ttcore<local_shape local_shape = tensor<256x1024xf32>>, ttcore.shard_status = #ttcore.shard_status<unsharded>, ttir.name = "L__self___bracket_core_paligemma_with_expert_gemma_expert_model_layers_7_self_attn_v_proj.weight"} loc("p71.627"), %arg72: tensor<1024xf32> {ttcore.argument_type = #ttcore.argument_type<parameter>, ttcore.local_shape = #ttcore<local_shape local_shape = tensor<1024xf32>>, ttcore.shard_status = #ttcore.shard_status<unsharded>, ttir.name = "L__self___bracket_core_paligemma_with_expert_gemma_expert_model_layers_7_input_layernorm_weight"} loc("p72.634"), %arg73: tensor<1024x4096xf32> {ttcore.argument_type = #ttcore.argument_type<parameter>, ttcore.local_shape = #ttcore<local_shape local_shape = tensor<1024x4096xf32>>, ttcore.shard_status = #ttcore.shard_status<unsharded>, ttir.name = "L__self___bracket_core_paligemma_with_expert_gemma_expert_model_layers_6_mlp_down_proj.weight"} loc("p73.645"), %arg74: tensor<4096x1024xf32> {ttcore.argument_type = #ttcore.argument_type<parameter>, ttcore.local_shape = #ttcore<local_shape local_shape = tensor<4096x1024xf32>>, ttcore.shard_status = #ttcore.shard_status<unsharded>, ttir.name = "L__self___bracket_core_paligemma_with_expert_gemma_expert_model_layers_6_mlp_up_proj.weight"} loc("p74.650"), %arg75: tensor<1024xf32> {ttcore.argument_type = #ttcore.argument_type<parameter>, ttcore.local_shape = #ttcore<local_shape local_shape = tensor<1024xf32>>, ttcore.shard_status = #ttcore.shard_status<unsharded>, ttir.name = "L__self___bracket_core_paligemma_with_expert_gemma_expert_model_layers_6_post_attention_layernorm_weight"} loc("p75.657"), %arg76: tensor<1024x2048xf32> {ttcore.argument_type = #ttcore.argument_type<parameter>, ttcore.local_shape = #ttcore<local_shape local_shape = tensor<1024x2048xf32>>, ttcore.shard_status = #ttcore.shard_status<unsharded>, ttir.name = "L__self___bracket_core_paligemma_with_expert_gemma_expert_model_layers_6_self_attn_o_proj.weight"} loc("p76.668"), %arg77: tensor<256x1024xf32> {ttcore.argument_type = #ttcore.argument_type<parameter>, ttcore.local_shape = #ttcore<local_shape local_shape = tensor<256x1024xf32>>, ttcore.shard_status = #ttcore.shard_status<unsharded>, ttir.name = "L__self___bracket_core_paligemma_with_expert_gemma_expert_model_layers_6_self_attn_v_proj.weight"} loc("p77.673"), %arg78: tensor<1024xf32> {ttcore.argument_type = #ttcore.argument_type<parameter>, ttcore.local_shape = #ttcore<local_shape local_shape = tensor<1024xf32>>, ttcore.shard_status = #ttcore.shard_status<unsharded>, ttir.name = "L__self___bracket_core_paligemma_with_expert_gemma_expert_model_layers_6_input_layernorm_weight"} loc("p78.680"), %arg79: tensor<1024x4096xf32> {ttcore.argument_type = #ttcore.argument_type<parameter>, ttcore.local_shape = #ttcore<local_shape local_shape = tensor<1024x4096xf32>>, ttcore.shard_status = #ttcore.shard_status<unsharded>, ttir.name = "L__self___bracket_core_paligemma_with_expert_gemma_expert_model_layers_5_mlp_down_proj.weight"} loc("p79.691"), %arg80: tensor<4096x1024xf32> {ttcore.argument_type = #ttcore.argument_type<parameter>, ttcore.local_shape = #ttcore<local_shape local_shape = tensor<4096x1024xf32>>, ttcore.shard_status = #ttcore.shard_status<unsharded>, ttir.name = "L__self___bracket_core_paligemma_with_expert_gemma_expert_model_layers_5_mlp_up_proj.weight"} loc("p80.696"), %arg81: tensor<1024xf32> {ttcore.argument_type = #ttcore.argument_type<parameter>, ttcore.local_shape = #ttcore<local_shape local_shape = tensor<1024xf32>>, ttcore.shard_status = #ttcore.shard_status<unsharded>, ttir.name = "L__self___bracket_core_paligemma_with_expert_gemma_expert_model_layers_5_post_attention_layernorm_weight"} loc("p81.703"), %arg82: tensor<1024x2048xf32> {ttcore.argument_type = #ttcore.argument_type<parameter>, ttcore.local_shape = #ttcore<local_shape local_shape = tensor<1024x2048xf32>>, ttcore.shard_status = #ttcore.shard_status<unsharded>, ttir.name = "L__self___bracket_core_paligemma_with_expert_gemma_expert_model_layers_5_self_attn_o_proj.weight"} loc("p82.714"), %arg83: tensor<256x1024xf32> {ttcore.argument_type = #ttcore.argument_type<parameter>, ttcore.local_shape = #ttcore<local_shape local_shape = tensor<256x1024xf32>>, ttcore.shard_status = #ttcore.shard_status<unsharded>, ttir.name = "L__self___bracket_core_paligemma_with_expert_gemma_expert_model_layers_5_self_attn_v_proj.weight"} loc("p83.719"), %arg84: tensor<1024xf32> {ttcore.argument_type = #ttcore.argument_type<parameter>, ttcore.local_shape = #ttcore<local_shape local_shape = tensor<1024xf32>>, ttcore.shard_status = #ttcore.shard_status<unsharded>, ttir.name = "L__self___bracket_core_paligemma_with_expert_gemma_expert_model_layers_5_input_layernorm_weight"} loc("p84.726"), %arg85: tensor<1024x4096xf32> {ttcore.argument_type = #ttcore.argument_type<parameter>, ttcore.local_shape = #ttcore<local_shape local_shape = tensor<1024x4096xf32>>, ttcore.shard_status = #ttcore.shard_status<unsharded>, ttir.name = "L__self___bracket_core_paligemma_with_expert_gemma_expert_model_layers_4_mlp_down_proj.weight"} loc("p85.737"), %arg86: tensor<4096x1024xf32> {ttcore.argument_type = #ttcore.argument_type<parameter>, ttcore.local_shape = #ttcore<local_shape local_shape = tensor<4096x1024xf32>>, ttcore.shard_status = #ttcore.shard_status<unsharded>, ttir.name = "L__self___bracket_core_paligemma_with_expert_gemma_expert_model_layers_4_mlp_up_proj.weight"} loc("p86.742"), %arg87: tensor<1024xf32> {ttcore.argument_type = #ttcore.argument_type<parameter>, ttcore.local_shape = #ttcore<local_shape local_shape = tensor<1024xf32>>, ttcore.shard_status = #ttcore.shard_status<unsharded>, ttir.name = "L__self___bracket_core_paligemma_with_expert_gemma_expert_model_layers_4_post_attention_layernorm_weight"} loc("p87.749"), %arg88: tensor<1024x2048xf32> {ttcore.argument_type = #ttcore.argument_type<parameter>, ttcore.local_shape = #ttcore<local_shape local_shape = tensor<1024x2048xf32>>, ttcore.shard_status = #ttcore.shard_status<unsharded>, ttir.name = "L__self___bracket_core_paligemma_with_expert_gemma_expert_model_layers_4_self_attn_o_proj.weight"} loc("p88.760"), %arg89: tensor<256x1024xf32> {ttcore.argument_type = #ttcore.argument_type<parameter>, ttcore.local_shape = #ttcore<local_shape local_shape = tensor<256x1024xf32>>, ttcore.shard_status = #ttcore.shard_status<unsharded>, ttir.name = "L__self___bracket_core_paligemma_with_expert_gemma_expert_model_layers_4_self_attn_v_proj.weight"} loc("p89.765"), %arg90: tensor<1024xf32> {ttcore.argument_type = #ttcore.argument_type<parameter>, ttcore.local_shape = #ttcore<local_shape local_shape = tensor<1024xf32>>, ttcore.shard_status = #ttcore.shard_status<unsharded>, ttir.name = "L__self___bracket_core_paligemma_with_expert_gemma_expert_model_layers_4_input_layernorm_weight"} loc("p90.772"), %arg91: tensor<1024x4096xf32> {ttcore.argument_type = #ttcore.argument_type<parameter>, ttcore.local_shape = #ttcore<local_shape local_shape = tensor<1024x4096xf32>>, ttcore.shard_status = #ttcore.shard_status<unsharded>, ttir.name = "L__self___bracket_core_paligemma_with_expert_gemma_expert_model_layers_3_mlp_down_proj.weight"} loc("p91.783"), %arg92: tensor<4096x1024xf32> {ttcore.argument_type = #ttcore.argument_type<parameter>, ttcore.local_shape = #ttcore<local_shape local_shape = tensor<4096x1024xf32>>, ttcore.shard_status = #ttcore.shard_status<unsharded>, ttir.name = "L__self___bracket_core_paligemma_with_expert_gemma_expert_model_layers_3_mlp_up_proj.weight"} loc("p92.788"), %arg93: tensor<1024xf32> {ttcore.argument_type = #ttcore.argument_type<parameter>, ttcore.local_shape = #ttcore<local_shape local_shape = tensor<1024xf32>>, ttcore.shard_status = #ttcore.shard_status<unsharded>, ttir.name = "L__self___bracket_core_paligemma_with_expert_gemma_expert_model_layers_3_post_attention_layernorm_weight"} loc("p93.795"), %arg94: tensor<1024x2048xf32> {ttcore.argument_type = #ttcore.argument_type<parameter>, ttcore.local_shape = #ttcore<local_shape local_shape = tensor<1024x2048xf32>>, ttcore.shard_status = #ttcore.shard_status<unsharded>, ttir.name = "L__self___bracket_core_paligemma_with_expert_gemma_expert_model_layers_3_self_attn_o_proj.weight"} loc("p94.806"), %arg95: tensor<256x1024xf32> {ttcore.argument_type = #ttcore.argument_type<parameter>, ttcore.local_shape = #ttcore<local_shape local_shape = tensor<256x1024xf32>>, ttcore.shard_status = #ttcore.shard_status<unsharded>, ttir.name = "L__self___bracket_core_paligemma_with_expert_gemma_expert_model_layers_3_self_attn_v_proj.weight"} loc("p95.811"), %arg96: tensor<1024xf32> {ttcore.argument_type = #ttcore.argument_type<parameter>, ttcore.local_shape = #ttcore<local_shape local_shape = tensor<1024xf32>>, ttcore.shard_status = #ttcore.shard_status<unsharded>, ttir.name = "L__self___bracket_core_paligemma_with_expert_gemma_expert_model_layers_3_input_layernorm_weight"} loc("p96.818"), %arg97: tensor<1024x4096xf32> {ttcore.argument_type = #ttcore.argument_type<parameter>, ttcore.local_shape = #ttcore<local_shape local_shape = tensor<1024x4096xf32>>, ttcore.shard_status = #ttcore.shard_status<unsharded>, ttir.name = "L__self___bracket_core_paligemma_with_expert_gemma_expert_model_layers_2_mlp_down_proj.weight"} loc("p97.829"), %arg98: tensor<4096x1024xf32> {ttcore.argument_type = #ttcore.argument_type<parameter>, ttcore.local_shape = #ttcore<local_shape local_shape = tensor<4096x1024xf32>>, ttcore.shard_status = #ttcore.shard_status<unsharded>, ttir.name = "L__self___bracket_core_paligemma_with_expert_gemma_expert_model_layers_2_mlp_up_proj.weight"} loc("p98.834"), %arg99: tensor<1024xf32> {ttcore.argument_type = #ttcore.argument_type<parameter>, ttcore.local_shape = #ttcore<local_shape local_shape = tensor<1024xf32>>, ttcore.shard_status = #ttcore.shard_status<unsharded>, ttir.name = "L__self___bracket_core_paligemma_with_expert_gemma_expert_model_layers_2_post_attention_layernorm_weight"} loc("p99.841"), %arg100: tensor<1024x2048xf32> {ttcore.argument_type = #ttcore.argument_type<parameter>, ttcore.local_shape = #ttcore<local_shape local_shape = tensor<1024x2048xf32>>, ttcore.shard_status = #ttcore.shard_status<unsharded>, ttir.name = "L__self___bracket_core_paligemma_with_expert_gemma_expert_model_layers_2_self_attn_o_proj.weight"} loc("p100.852"), %arg101: tensor<256x1024xf32> {ttcore.argument_type = #ttcore.argument_type<parameter>, ttcore.local_shape = #ttcore<local_shape local_shape = tensor<256x1024xf32>>, ttcore.shard_status = #ttcore.shard_status<unsharded>, ttir.name = "L__self___bracket_core_paligemma_with_expert_gemma_expert_model_layers_2_self_attn_v_proj.weight"} loc("p101.857"), %arg102: tensor<1024xf32> {ttcore.argument_type = #ttcore.argument_type<parameter>, ttcore.local_shape = #ttcore<local_shape local_shape = tensor<1024xf32>>, ttcore.shard_status = #ttcore.shard_status<unsharded>, ttir.name = "L__self___bracket_core_paligemma_with_expert_gemma_expert_model_layers_2_input_layernorm_weight"} loc("p102.864"), %arg103: tensor<1024x4096xf32> {ttcore.argument_type = #ttcore.argument_type<parameter>, ttcore.local_shape = #ttcore<local_shape local_shape = tensor<1024x4096xf32>>, ttcore.shard_status = #ttcore.shard_status<unsharded>, ttir.name = "L__self___bracket_core_paligemma_with_expert_gemma_expert_model_layers_1_mlp_down_proj.weight"} loc("p103.875"), %arg104: tensor<4096x1024xf32> {ttcore.argument_type = #ttcore.argument_type<parameter>, ttcore.local_shape = #ttcore<local_shape local_shape = tensor<4096x1024xf32>>, ttcore.shard_status = #ttcore.shard_status<unsharded>, ttir.name = "L__self___bracket_core_paligemma_with_expert_gemma_expert_model_layers_1_mlp_up_proj.weight"} loc("p104.880"), %arg105: tensor<1024xf32> {ttcore.argument_type = #ttcore.argument_type<parameter>, ttcore.local_shape = #ttcore<local_shape local_shape = tensor<1024xf32>>, ttcore.shard_status = #ttcore.shard_status<unsharded>, ttir.name = "L__self___bracket_core_paligemma_with_expert_gemma_expert_model_layers_1_post_attention_layernorm_weight"} loc("p105.887"), %arg106: tensor<1024x2048xf32> {ttcore.argument_type = #ttcore.argument_type<parameter>, ttcore.local_shape = #ttcore<local_shape local_shape = tensor<1024x2048xf32>>, ttcore.shard_status = #ttcore.shard_status<unsharded>, ttir.name = "L__self___bracket_core_paligemma_with_expert_gemma_expert_model_layers_1_self_attn_o_proj.weight"} loc("p106.898"), %arg107: tensor<256x1024xf32> {ttcore.argument_type = #ttcore.argument_type<parameter>, ttcore.local_shape = #ttcore<local_shape local_shape = tensor<256x1024xf32>>, ttcore.shard_status = #ttcore.shard_status<unsharded>, ttir.name = "L__self___bracket_core_paligemma_with_expert_gemma_expert_model_layers_1_self_attn_v_proj.weight"} loc("p107.903"), %arg108: tensor<1024xf32> {ttcore.argument_type = #ttcore.argument_type<parameter>, ttcore.local_shape = #ttcore<local_shape local_shape = tensor<1024xf32>>, ttcore.shard_status = #ttcore.shard_status<unsharded>, ttir.name = "L__self___bracket_core_paligemma_with_expert_gemma_expert_model_layers_1_input_layernorm_weight"} loc("p108.910"), %arg109: tensor<1024x4096xf32> {ttcore.argument_type = #ttcore.argument_type<parameter>, ttcore.local_shape = #ttcore<local_shape local_shape = tensor<1024x4096xf32>>, ttcore.shard_status = #ttcore.shard_status<unsharded>, ttir.name = "L__self___bracket_core_paligemma_with_expert_gemma_expert_model_layers_0_mlp_down_proj.weight"} loc("p109.921"), %arg110: tensor<4096x1024xf32> {ttcore.argument_type = #ttcore.argument_type<parameter>, ttcore.local_shape = #ttcore<local_shape local_shape = tensor<4096x1024xf32>>, ttcore.shard_status = #ttcore.shard_status<unsharded>, ttir.name = "L__self___bracket_core_paligemma_with_expert_gemma_expert_model_layers_0_mlp_up_proj.weight"} loc("p110.926"), %arg111: tensor<1024xf32> {ttcore.argument_type = #ttcore.argument_type<parameter>, ttcore.local_shape = #ttcore<local_shape local_shape = tensor<1024xf32>>, ttcore.shard_status = #ttcore.shard_status<unsharded>, ttir.name = "L__self___bracket_core_paligemma_with_expert_gemma_expert_model_layers_0_post_attention_layernorm_weight"} loc("p111.933"), %arg112: tensor<1024x2048xf32> {ttcore.argument_type = #ttcore.argument_type<parameter>, ttcore.local_shape = #ttcore<local_shape local_shape = tensor<1024x2048xf32>>, ttcore.shard_status = #ttcore.shard_status<unsharded>, ttir.name = "L__self___bracket_core_paligemma_with_expert_gemma_expert_model_layers_0_self_attn_o_proj.weight"} loc("p112.944"), %arg113: tensor<256x1024xf32> {ttcore.argument_type = #ttcore.argument_type<parameter>, ttcore.local_shape = #ttcore<local_shape local_shape = tensor<256x1024xf32>>, ttcore.shard_status = #ttcore.shard_status<unsharded>, ttir.name = "L__self___bracket_core_paligemma_with_expert_gemma_expert_model_layers_0_self_attn_v_proj.weight"} loc("p113.949"), %arg114: tensor<1024xf32> {ttcore.argument_type = #ttcore.argument_type<parameter>, ttcore.local_shape = #ttcore<local_shape local_shape = tensor<1024xf32>>, ttcore.shard_status = #ttcore.shard_status<unsharded>, ttir.name = "L__self___bracket_core_paligemma_with_expert_gemma_expert_model_layers_0_input_layernorm_weight"} loc("p114.956"), %arg115: tensor<1024xf32> {ttcore.argument_type = #ttcore.argument_type<parameter>, ttcore.local_shape = #ttcore<local_shape local_shape = tensor<1024xf32>>, ttcore.shard_status = #ttcore.shard_status<unsharded>, ttir.name = "L__self___bracket_core_action_time_mlp_out.bias"} loc("p115.967"), %arg116: tensor<1024x1024xf32> {ttcore.argument_type = #ttcore.argument_type<parameter>, ttcore.local_shape = #ttcore<local_shape local_shape = tensor<1024x1024xf32>>, ttcore.shard_status = #ttcore.shard_status<unsharded>, ttir.name = "L__self___bracket_core_action_time_mlp_out.weight"} loc("p116.971"), %arg117: tensor<1024xf32> {ttcore.argument_type = #ttcore.argument_type<parameter>, ttcore.local_shape = #ttcore<local_shape local_shape = tensor<1024xf32>>, ttcore.shard_status = #ttcore.shard_status<unsharded>, ttir.name = "L__self___bracket_core_action_time_mlp_in.bias"} loc("p117.977"), %arg118: tensor<1024x2048xf32> {ttcore.argument_type = #ttcore.argument_type<parameter>, ttcore.local_shape = #ttcore<local_shape local_shape = tensor<1024x2048xf32>>, ttcore.shard_status = #ttcore.shard_status<unsharded>, ttir.name = "L__self___bracket_core_action_time_mlp_in.weight"} loc("p118.981"), %arg119: tensor<1024xf32> {ttcore.argument_type = #ttcore.argument_type<parameter>, ttcore.local_shape = #ttcore<local_shape local_shape = tensor<1024xf32>>, ttcore.shard_status = #ttcore.shard_status<unsharded>, ttir.name = "L__self___bracket_core_action_in_proj.bias"} loc("p119.1053"), %arg120: tensor<1x50x32xf32> {ttcore.argument_type = #ttcore.argument_type<input>, ttcore.local_shape = #ttcore<local_shape local_shape = tensor<1x50x32xf32>>, ttcore.shard_status = #ttcore.shard_status<unsharded>, ttir.name = "args_9"} loc("p120.1058"), %arg121: tensor<256x2048xf32> {ttcore.argument_type = #ttcore.argument_type<parameter>, ttcore.local_shape = #ttcore<local_shape local_shape = tensor<256x2048xf32>>, ttcore.shard_status = #ttcore.shard_status<unsharded>, ttir.name = "L__self___bracket_core_paligemma_with_expert_paligemma_model_language_model_layers_0_self_attn_v_proj.weight"} loc("p121.1133"), %arg122: tensor<2048xf32> {ttcore.argument_type = #ttcore.argument_type<parameter>, ttcore.local_shape = #ttcore<local_shape local_shape = tensor<2048xf32>>, ttcore.shard_status = #ttcore.shard_status<unsharded>, ttir.name = "L__self___bracket_core_paligemma_with_expert_paligemma_model_language_model_layers_0_input_layernorm_weight"} loc("p122.1140"), %arg123: tensor<1x48xi64> {ttcore.argument_type = #ttcore.argument_type<input>, ttcore.local_shape = #ttcore<local_shape local_shape = tensor<1x48xi64>>, ttcore.shard_status = #ttcore.shard_status<unsharded>, ttir.name = "args_7"} loc("p123.1151"), %arg124: tensor<257152x2048xf32> {ttcore.argument_type = #ttcore.argument_type<parameter>, ttcore.local_shape = #ttcore<local_shape local_shape = tensor<257152x2048xf32>>, ttcore.shard_status = #ttcore.shard_status<unsharded>, ttir.name = "L__self___bracket_core_paligemma_with_expert_paligemma_model_language_model_embed_tokens.weight"} loc("p124.1156"), %arg125: tensor<2048xf32> {ttcore.argument_type = #ttcore.argument_type<parameter>, ttcore.local_shape = #ttcore<local_shape local_shape = tensor<2048xf32>>, ttcore.shard_status = #ttcore.shard_status<unsharded>, ttir.name = "L__self___bracket_core_paligemma_with_expert_paligemma_model_multi_modal_projector_linear.bias"} loc("p125.1166"), %arg126: tensor<2048x1152xf32> {ttcore.argument_type = #ttcore.argument_type<parameter>, ttcore.local_shape = #ttcore<local_shape local_shape = tensor<2048x1152xf32>>, ttcore.shard_status = #ttcore.shard_status<unsharded>, ttir.name = "L__self___bracket_core_paligemma_with_expert_paligemma_model_multi_modal_projector_linear.weight"} loc("p126.1170"), %arg127: tensor<1152xf32> {ttcore.argument_type = #ttcore.argument_type<parameter>, ttcore.local_shape = #ttcore<local_shape local_shape = tensor<1152xf32>>, ttcore.shard_status = #ttcore.shard_status<unsharded>, ttir.name = "L__self___bracket_core_paligemma_with_expert_paligemma_model_vision_tower_vision_model_post_layernorm.bias"} loc("p127.1176"), %arg128: tensor<1152xf32> {ttcore.argument_type = #ttcore.argument_type<parameter>, ttcore.local_shape = #ttcore<local_shape local_shape = tensor<1152xf32>>, ttcore.shard_status = #ttcore.shard_status<unsharded>, ttir.name = "L__self___bracket_core_paligemma_with_expert_paligemma_model_vision_tower_vision_model_post_layernorm.weight"} loc("p128.1181"), %arg129: tensor<1152xf32> {ttcore.argument_type = #ttcore.argument_type<parameter>, ttcore.local_shape = #ttcore<local_shape local_shape = tensor<1152xf32>>, ttcore.shard_status = #ttcore.shard_status<unsharded>, ttir.name = "L__self___bracket_core_paligemma_with_expert_paligemma_model_vision_tower_vision_model_encoder_layers_26_mlp_fc2.bias"} loc("p129.1190"), %arg130: tensor<1152x4304xf32> {ttcore.argument_type = #ttcore.argument_type<parameter>, ttcore.local_shape = #ttcore<local_shape local_shape = tensor<1152x4304xf32>>, ttcore.shard_status = #ttcore.shard_status<unsharded>, ttir.name = "L__self___bracket_core_paligemma_with_expert_paligemma_model_vision_tower_vision_model_encoder_layers_26_mlp_fc2.weight"} loc("p130.1194"), %arg131: tensor<4304xf32> {ttcore.argument_type = #ttcore.argument_type<parameter>, ttcore.local_shape = #ttcore<local_shape local_shape = tensor<4304xf32>>, ttcore.shard_status = #ttcore.shard_status<unsharded>, ttir.name = "L__self___bracket_core_paligemma_with_expert_paligemma_model_vision_tower_vision_model_encoder_layers_26_mlp_fc1.bias"} loc("p131.1202"), %arg132: tensor<4304x1152xf32> {ttcore.argument_type = #ttcore.argument_type<parameter>, ttcore.local_shape = #ttcore<local_shape local_shape = tensor<4304x1152xf32>>, ttcore.shard_status = #ttcore.shard_status<unsharded>, ttir.name = "L__self___bracket_core_paligemma_with_expert_paligemma_model_vision_tower_vision_model_encoder_layers_26_mlp_fc1.weight"} loc("p132.1206"), %arg133: tensor<1152xf32> {ttcore.argument_type = #ttcore.argument_type<parameter>, ttcore.local_shape = #ttcore<local_shape local_shape = tensor<1152xf32>>, ttcore.shard_status = #ttcore.shard_status<unsharded>, ttir.name = "L__self___bracket_core_paligemma_with_expert_paligemma_model_vision_tower_vision_model_encoder_layers_26_layer_norm2.bias"} loc("p133.1212"), %arg134: tensor<1152xf32> {ttcore.argument_type = #ttcore.argument_type<parameter>, ttcore.local_shape = #ttcore<local_shape local_shape = tensor<1152xf32>>, ttcore.shard_status = #ttcore.shard_status<unsharded>, ttir.name = "L__self___bracket_core_paligemma_with_expert_paligemma_model_vision_tower_vision_model_encoder_layers_26_layer_norm2.weight"} loc("p134.1217"), %arg135: tensor<1152xf32> {ttcore.argument_type = #ttcore.argument_type<parameter>, ttcore.local_shape = #ttcore<local_shape local_shape = tensor<1152xf32>>, ttcore.shard_status = #ttcore.shard_status<unsharded>, ttir.name = "L__self___bracket_core_paligemma_with_expert_paligemma_model_vision_tower_vision_model_encoder_layers_26_self_attn_out_proj.bias"} loc("p135.1226"), %arg136: tensor<1152x1152xf32> {ttcore.argument_type = #ttcore.argument_type<parameter>, ttcore.local_shape = #ttcore<local_shape local_shape = tensor<1152x1152xf32>>, ttcore.shard_status = #ttcore.shard_status<unsharded>, ttir.name = "L__self___bracket_core_paligemma_with_expert_paligemma_model_vision_tower_vision_model_encoder_layers_26_self_attn_out_proj.weight"} loc("p136.1230"), %arg137: tensor<1152xf32> {ttcore.argument_type = #ttcore.argument_type<parameter>, ttcore.local_shape = #ttcore<local_shape local_shape = tensor<1152xf32>>, ttcore.shard_status = #ttcore.shard_status<unsharded>, ttir.name = "L__self___bracket_core_paligemma_with_expert_paligemma_model_vision_tower_vision_model_encoder_layers_26_self_attn_v_proj.bias"} loc("p137.1236"), %arg138: tensor<1152x1152xf32> {ttcore.argument_type = #ttcore.argument_type<parameter>, ttcore.local_shape = #ttcore<local_shape local_shape = tensor<1152x1152xf32>>, ttcore.shard_status = #ttcore.shard_status<unsharded>, ttir.name = "L__self___bracket_core_paligemma_with_expert_paligemma_model_vision_tower_vision_model_encoder_layers_26_self_attn_v_proj.weight"} loc("p138.1240"), %arg139: tensor<1152xf32> {ttcore.argument_type = #ttcore.argument_type<parameter>, ttcore.local_shape = #ttcore<local_shape local_shape = tensor<1152xf32>>, ttcore.shard_status = #ttcore.shard_status<unsharded>, ttir.name = "L__self___bracket_core_paligemma_with_expert_paligemma_model_vision_tower_vision_model_encoder_layers_26_layer_norm1.bias"} loc("p139.1246"), %arg140: tensor<1152xf32> {ttcore.argument_type = #ttcore.argument_type<parameter>, ttcore.local_shape = #ttcore<local_shape local_shape = tensor<1152xf32>>, ttcore.shard_status = #ttcore.shard_status<unsharded>, ttir.name = "L__self___bracket_core_paligemma_with_expert_paligemma_model_vision_tower_vision_model_encoder_layers_26_layer_norm1.weight"} loc("p140.1251"), %arg141: tensor<1152xf32> {ttcore.argument_type = #ttcore.argument_type<parameter>, ttcore.local_shape = #ttcore<local_shape local_shape = tensor<1152xf32>>, ttcore.shard_status = #ttcore.shard_status<unsharded>, ttir.name = "L__self___bracket_core_paligemma_with_expert_paligemma_model_vision_tower_vision_model_encoder_layers_25_mlp_fc2.bias"} loc("p141.1260"), %arg142: tensor<1152x4304xf32> {ttcore.argument_type = #ttcore.argument_type<parameter>, ttcore.local_shape = #ttcore<local_shape local_shape = tensor<1152x4304xf32>>, ttcore.shard_status = #ttcore.shard_status<unsharded>, ttir.name = "L__self___bracket_core_paligemma_with_expert_paligemma_model_vision_tower_vision_model_encoder_layers_25_mlp_fc2.weight"} loc("p142.1264"), %arg143: tensor<4304xf32> {ttcore.argument_type = #ttcore.argument_type<parameter>, ttcore.local_shape = #ttcore<local_shape local_shape = tensor<4304xf32>>, ttcore.shard_status = #ttcore.shard_status<unsharded>, ttir.name = "L__self___bracket_core_paligemma_with_expert_paligemma_model_vision_tower_vision_model_encoder_layers_25_mlp_fc1.bias"} loc("p143.1272"), %arg144: tensor<4304x1152xf32> {ttcore.argument_type = #ttcore.argument_type<parameter>, ttcore.local_shape = #ttcore<local_shape local_shape = tensor<4304x1152xf32>>, ttcore.shard_status = #ttcore.shard_status<unsharded>, ttir.name = "L__self___bracket_core_paligemma_with_expert_paligemma_model_vision_tower_vision_model_encoder_layers_25_mlp_fc1.weight"} loc("p144.1276"), %arg145: tensor<1152xf32> {ttcore.argument_type = #ttcore.argument_type<parameter>, ttcore.local_shape = #ttcore<local_shape local_shape = tensor<1152xf32>>, ttcore.shard_status = #ttcore.shard_status<unsharded>, ttir.name = "L__self___bracket_core_paligemma_with_expert_paligemma_model_vision_tower_vision_model_encoder_layers_25_layer_norm2.bias"} loc("p145.1282"), %arg146: tensor<1152xf32> {ttcore.argument_type = #ttcore.argument_type<parameter>, ttcore.local_shape = #ttcore<local_shape local_shape = tensor<1152xf32>>, ttcore.shard_status = #ttcore.shard_status<unsharded>, ttir.name = "L__self___bracket_core_paligemma_with_expert_paligemma_model_vision_tower_vision_model_encoder_layers_25_layer_norm2.weight"} loc("p146.1287"), %arg147: tensor<1152xf32> {ttcore.argument_type = #ttcore.argument_type<parameter>, ttcore.local_shape = #ttcore<local_shape local_shape = tensor<1152xf32>>, ttcore.shard_status = #ttcore.shard_status<unsharded>, ttir.name = "L__self___bracket_core_paligemma_with_expert_paligemma_model_vision_tower_vision_model_encoder_layers_25_self_attn_out_proj.bias"} loc("p147.1296"), %arg148: tensor<1152x1152xf32> {ttcore.argument_type = #ttcore.argument_type<parameter>, ttcore.local_shape = #ttcore<local_shape local_shape = tensor<1152x1152xf32>>, ttcore.shard_status = #ttcore.shard_status<unsharded>, ttir.name = "L__self___bracket_core_paligemma_with_expert_paligemma_model_vision_tower_vision_model_encoder_layers_25_self_attn_out_proj.weight"} loc("p148.1300"), %arg149: tensor<1152xf32> {ttcore.argument_type = #ttcore.argument_type<parameter>, ttcore.local_shape = #ttcore<local_shape local_shape = tensor<1152xf32>>, ttcore.shard_status = #ttcore.shard_status<unsharded>, ttir.name = "L__self___bracket_core_paligemma_with_expert_paligemma_model_vision_tower_vision_model_encoder_layers_25_self_attn_v_proj.bias"} loc("p149.1306"), %arg150: tensor<1152x1152xf32> {ttcore.argument_type = #ttcore.argument_type<parameter>, ttcore.local_shape = #ttcore<local_shape local_shape = tensor<1152x1152xf32>>, ttcore.shard_status = #ttcore.shard_status<unsharded>, ttir.name = "L__self___bracket_core_paligemma_with_expert_paligemma_model_vision_tower_vision_model_encoder_layers_25_self_attn_v_proj.weight"} loc("p150.1310"), %arg151: tensor<1152xf32> {ttcore.argument_type = #ttcore.argument_type<parameter>, ttcore.local_shape = #ttcore<local_shape local_shape = tensor<1152xf32>>, ttcore.shard_status = #ttcore.shard_status<unsharded>, ttir.name = "L__self___bracket_core_paligemma_with_expert_paligemma_model_vision_tower_vision_model_encoder_layers_25_layer_norm1.bias"} loc("p151.1316"), %arg152: tensor<1152xf32> {ttcore.argument_type = #ttcore.argument_type<parameter>, ttcore.local_shape = #ttcore<local_shape local_shape = tensor<1152xf32>>, ttcore.shard_status = #ttcore.shard_status<unsharded>, ttir.name = "L__self___bracket_core_paligemma_with_expert_paligemma_model_vision_tower_vision_model_encoder_layers_25_layer_norm1.weight"} loc("p152.1321"), %arg153: tensor<1152xf32> {ttcore.argument_type = #ttcore.argument_type<parameter>, ttcore.local_shape = #ttcore<local_shape local_shape = tensor<1152xf32>>, ttcore.shard_status = #ttcore.shard_status<unsharded>, ttir.name = "L__self___bracket_core_paligemma_with_expert_paligemma_model_vision_tower_vision_model_encoder_layers_24_mlp_fc2.bias"} loc("p153.1330"), %arg154: tensor<1152x4304xf32> {ttcore.argument_type = #ttcore.argument_type<parameter>, ttcore.local_shape = #ttcore<local_shape local_shape = tensor<1152x4304xf32>>, ttcore.shard_status = #ttcore.shard_status<unsharded>, ttir.name = "L__self___bracket_core_paligemma_with_expert_paligemma_model_vision_tower_vision_model_encoder_layers_24_mlp_fc2.weight"} loc("p154.1334"), %arg155: tensor<4304xf32> {ttcore.argument_type = #ttcore.argument_type<parameter>, ttcore.local_shape = #ttcore<local_shape local_shape = tensor<4304xf32>>, ttcore.shard_status = #ttcore.shard_status<unsharded>, ttir.name = "L__self___bracket_core_paligemma_with_expert_paligemma_model_vision_tower_vision_model_encoder_layers_24_mlp_fc1.bias"} loc("p155.1342"), %arg156: tensor<4304x1152xf32> {ttcore.argument_type = #ttcore.argument_type<parameter>, ttcore.local_shape = #ttcore<local_shape local_shape = tensor<4304x1152xf32>>, ttcore.shard_status = #ttcore.shard_status<unsharded>, ttir.name = "L__self___bracket_core_paligemma_with_expert_paligemma_model_vision_tower_vision_model_encoder_layers_24_mlp_fc1.weight"} loc("p156.1346"), %arg157: tensor<1152xf32> {ttcore.argument_type = #ttcore.argument_type<parameter>, ttcore.local_shape = #ttcore<local_shape local_shape = tensor<1152xf32>>, ttcore.shard_status = #ttcore.shard_status<unsharded>, ttir.name = "L__self___bracket_core_paligemma_with_expert_paligemma_model_vision_tower_vision_model_encoder_layers_24_layer_norm2.bias"} loc("p157.1352"), %arg158: tensor<1152xf32> {ttcore.argument_type = #ttcore.argument_type<parameter>, ttcore.local_shape = #ttcore<local_shape local_shape = tensor<1152xf32>>, ttcore.shard_status = #ttcore.shard_status<unsharded>, ttir.name = "L__self___bracket_core_paligemma_with_expert_paligemma_model_vision_tower_vision_model_encoder_layers_24_layer_norm2.weight"} loc("p158.1357"), %arg159: tensor<1152xf32> {ttcore.argument_type = #ttcore.argument_type<parameter>, ttcore.local_shape = #ttcore<local_shape local_shape = tensor<1152xf32>>, ttcore.shard_status = #ttcore.shard_status<unsharded>, ttir.name = "L__self___bracket_core_paligemma_with_expert_paligemma_model_vision_tower_vision_model_encoder_layers_24_self_attn_out_proj.bias"} loc("p159.1366"), %arg160: tensor<1152x1152xf32> {ttcore.argument_type = #ttcore.argument_type<parameter>, ttcore.local_shape = #ttcore<local_shape local_shape = tensor<1152x1152xf32>>, ttcore.shard_status = #ttcore.shard_status<unsharded>, ttir.name = "L__self___bracket_core_paligemma_with_expert_paligemma_model_vision_tower_vision_model_encoder_layers_24_self_attn_out_proj.weight"} loc("p160.1370"), %arg161: tensor<1152xf32> {ttcore.argument_type = #ttcore.argument_type<parameter>, ttcore.local_shape = #ttcore<local_shape local_shape = tensor<1152xf32>>, ttcore.shard_status = #ttcore.shard_status<unsharded>, ttir.name = "L__self___bracket_core_paligemma_with_expert_paligemma_model_vision_tower_vision_model_encoder_layers_24_self_attn_v_proj.bias"} loc("p161.1376"), %arg162: tensor<1152x1152xf32> {ttcore.argument_type = #ttcore.argument_type<parameter>, ttcore.local_shape = #ttcore<local_shape local_shape = tensor<1152x1152xf32>>, ttcore.shard_status = #ttcore.shard_status<unsharded>, ttir.name = "L__self___bracket_core_paligemma_with_expert_paligemma_model_vision_tower_vision_model_encoder_layers_24_self_attn_v_proj.weight"} loc("p162.1380"), %arg163: tensor<1152xf32> {ttcore.argument_type = #ttcore.argument_type<parameter>, ttcore.local_shape = #ttcore<local_shape local_shape = tensor<1152xf32>>, ttcore.shard_status = #ttcore.shard_status<unsharded>, ttir.name = "L__self___bracket_core_paligemma_with_expert_paligemma_model_vision_tower_vision_model_encoder_layers_24_layer_norm1.bias"} loc("p163.1386"), %arg164: tensor<1152xf32> {ttcore.argument_type = #ttcore.argument_type<parameter>, ttcore.local_shape = #ttcore<local_shape local_shape = tensor<1152xf32>>, ttcore.shard_status = #ttcore.shard_status<unsharded>, ttir.name = "L__self___bracket_core_paligemma_with_expert_paligemma_model_vision_tower_vision_model_encoder_layers_24_layer_norm1.weight"} loc("p164.1391"), %arg165: tensor<1152xf32> {ttcore.argument_type = #ttcore.argument_type<parameter>, ttcore.local_shape = #ttcore<local_shape local_shape = tensor<1152xf32>>, ttcore.shard_status = #ttcore.shard_status<unsharded>, ttir.name = "L__self___bracket_core_paligemma_with_expert_paligemma_model_vision_tower_vision_model_encoder_layers_23_mlp_fc2.bias"} loc("p165.1400"), %arg166: tensor<1152x4304xf32> {ttcore.argument_type = #ttcore.argument_type<parameter>, ttcore.local_shape = #ttcore<local_shape local_shape = tensor<1152x4304xf32>>, ttcore.shard_status = #ttcore.shard_status<unsharded>, ttir.name = "L__self___bracket_core_paligemma_with_expert_paligemma_model_vision_tower_vision_model_encoder_layers_23_mlp_fc2.weight"} loc("p166.1404"), %arg167: tensor<4304xf32> {ttcore.argument_type = #ttcore.argument_type<parameter>, ttcore.local_shape = #ttcore<local_shape local_shape = tensor<4304xf32>>, ttcore.shard_status = #ttcore.shard_status<unsharded>, ttir.name = "L__self___bracket_core_paligemma_with_expert_paligemma_model_vision_tower_vision_model_encoder_layers_23_mlp_fc1.bias"} loc("p167.1412"), %arg168: tensor<4304x1152xf32> {ttcore.argument_type = #ttcore.argument_type<parameter>, ttcore.local_shape = #ttcore<local_shape local_shape = tensor<4304x1152xf32>>, ttcore.shard_status = #ttcore.shard_status<unsharded>, ttir.name = "L__self___bracket_core_paligemma_with_expert_paligemma_model_vision_tower_vision_model_encoder_layers_23_mlp_fc1.weight"} loc("p168.1416"), %arg169: tensor<1152xf32> {ttcore.argument_type = #ttcore.argument_type<parameter>, ttcore.local_shape = #ttcore<local_shape local_shape = tensor<1152xf32>>, ttcore.shard_status = #ttcore.shard_status<unsharded>, ttir.name = "L__self___bracket_core_paligemma_with_expert_paligemma_model_vision_tower_vision_model_encoder_layers_23_layer_norm2.bias"} loc("p169.1422"), %arg170: tensor<1152xf32> {ttcore.argument_type = #ttcore.argument_type<parameter>, ttcore.local_shape = #ttcore<local_shape local_shape = tensor<1152xf32>>, ttcore.shard_status = #ttcore.shard_status<unsharded>, ttir.name = "L__self___bracket_core_paligemma_with_expert_paligemma_model_vision_tower_vision_model_encoder_layers_23_layer_norm2.weight"} loc("p170.1427"), %arg171: tensor<1152xf32> {ttcore.argument_type = #ttcore.argument_type<parameter>, ttcore.local_shape = #ttcore<local_shape local_shape = tensor<1152xf32>>, ttcore.shard_status = #ttcore.shard_status<unsharded>, ttir.name = "L__self___bracket_core_paligemma_with_expert_paligemma_model_vision_tower_vision_model_encoder_layers_23_self_attn_out_proj.bias"} loc("p171.1436"), %arg172: tensor<1152x1152xf32> {ttcore.argument_type = #ttcore.argument_type<parameter>, ttcore.local_shape = #ttcore<local_shape local_shape = tensor<1152x1152xf32>>, ttcore.shard_status = #ttcore.shard_status<unsharded>, ttir.name = "L__self___bracket_core_paligemma_with_expert_paligemma_model_vision_tower_vision_model_encoder_layers_23_self_attn_out_proj.weight"} loc("p172.1440"), %arg173: tensor<1152xf32> {ttcore.argument_type = #ttcore.argument_type<parameter>, ttcore.local_shape = #ttcore<local_shape local_shape = tensor<1152xf32>>, ttcore.shard_status = #ttcore.shard_status<unsharded>, ttir.name = "L__self___bracket_core_paligemma_with_expert_paligemma_model_vision_tower_vision_model_encoder_layers_23_self_attn_v_proj.bias"} loc("p173.1446"), %arg174: tensor<1152x1152xf32> {ttcore.argument_type = #ttcore.argument_type<parameter>, ttcore.local_shape = #ttcore<local_shape local_shape = tensor<1152x1152xf32>>, ttcore.shard_status = #ttcore.shard_status<unsharded>, ttir.name = "L__self___bracket_core_paligemma_with_expert_paligemma_model_vision_tower_vision_model_encoder_layers_23_self_attn_v_proj.weight"} loc("p174.1450"), %arg175: tensor<1152xf32> {ttcore.argument_type = #ttcore.argument_type<parameter>, ttcore.local_shape = #ttcore<local_shape local_shape = tensor<1152xf32>>, ttcore.shard_status = #ttcore.shard_status<unsharded>, ttir.name = "L__self___bracket_core_paligemma_with_expert_paligemma_model_vision_tower_vision_model_encoder_layers_23_layer_norm1.bias"} loc("p175.1456"), %arg176: tensor<1152xf32> {ttcore.argument_type = #ttcore.argument_type<parameter>, ttcore.local_shape = #ttcore<local_shape local_shape = tensor<1152xf32>>, ttcore.shard_status = #ttcore.shard_status<unsharded>, ttir.name = "L__self___bracket_core_paligemma_with_expert_paligemma_model_vision_tower_vision_model_encoder_layers_23_layer_norm1.weight"} loc("p176.1461"), %arg177: tensor<1152xf32> {ttcore.argument_type = #ttcore.argument_type<parameter>, ttcore.local_shape = #ttcore<local_shape local_shape = tensor<1152xf32>>, ttcore.shard_status = #ttcore.shard_status<unsharded>, ttir.name = "L__self___bracket_core_paligemma_with_expert_paligemma_model_vision_tower_vision_model_encoder_layers_22_mlp_fc2.bias"} loc("p177.1470"), %arg178: tensor<1152x4304xf32> {ttcore.argument_type = #ttcore.argument_type<parameter>, ttcore.local_shape = #ttcore<local_shape local_shape = tensor<1152x4304xf32>>, ttcore.shard_status = #ttcore.shard_status<unsharded>, ttir.name = "L__self___bracket_core_paligemma_with_expert_paligemma_model_vision_tower_vision_model_encoder_layers_22_mlp_fc2.weight"} loc("p178.1474"), %arg179: tensor<4304xf32> {ttcore.argument_type = #ttcore.argument_type<parameter>, ttcore.local_shape = #ttcore<local_shape local_shape = tensor<4304xf32>>, ttcore.shard_status = #ttcore.shard_status<unsharded>, ttir.name = "L__self___bracket_core_paligemma_with_expert_paligemma_model_vision_tower_vision_model_encoder_layers_22_mlp_fc1.bias"} loc("p179.1482"), %arg180: tensor<4304x1152xf32> {ttcore.argument_type = #ttcore.argument_type<parameter>, ttcore.local_shape = #ttcore<local_shape local_shape = tensor<4304x1152xf32>>, ttcore.shard_status = #ttcore.shard_status<unsharded>, ttir.name = "L__self___bracket_core_paligemma_with_expert_paligemma_model_vision_tower_vision_model_encoder_layers_22_mlp_fc1.weight"} loc("p180.1486"), %arg181: tensor<1152xf32> {ttcore.argument_type = #ttcore.argument_type<parameter>, ttcore.local_shape = #ttcore<local_shape local_shape = tensor<1152xf32>>, ttcore.shard_status = #ttcore.shard_status<unsharded>, ttir.name = "L__self___bracket_core_paligemma_with_expert_paligemma_model_vision_tower_vision_model_encoder_layers_22_layer_norm2.bias"} loc("p181.1492"), %arg182: tensor<1152xf32> {ttcore.argument_type = #ttcore.argument_type<parameter>, ttcore.local_shape = #ttcore<local_shape local_shape = tensor<1152xf32>>, ttcore.shard_status = #ttcore.shard_status<unsharded>, ttir.name = "L__self___bracket_core_paligemma_with_expert_paligemma_model_vision_tower_vision_model_encoder_layers_22_layer_norm2.weight"} loc("p182.1497"), %arg183: tensor<1152xf32> {ttcore.argument_type = #ttcore.argument_type<parameter>, ttcore.local_shape = #ttcore<local_shape local_shape = tensor<1152xf32>>, ttcore.shard_status = #ttcore.shard_status<unsharded>, ttir.name = "L__self___bracket_core_paligemma_with_expert_paligemma_model_vision_tower_vision_model_encoder_layers_22_self_attn_out_proj.bias"} loc("p183.1506"), %arg184: tensor<1152x1152xf32> {ttcore.argument_type = #ttcore.argument_type<parameter>, ttcore.local_shape = #ttcore<local_shape local_shape = tensor<1152x1152xf32>>, ttcore.shard_status = #ttcore.shard_status<unsharded>, ttir.name = "L__self___bracket_core_paligemma_with_expert_paligemma_model_vision_tower_vision_model_encoder_layers_22_self_attn_out_proj.weight"} loc("p184.1510"), %arg185: tensor<1152xf32> {ttcore.argument_type = #ttcore.argument_type<parameter>, ttcore.local_shape = #ttcore<local_shape local_shape = tensor<1152xf32>>, ttcore.shard_status = #ttcore.shard_status<unsharded>, ttir.name = "L__self___bracket_core_paligemma_with_expert_paligemma_model_vision_tower_vision_model_encoder_layers_22_self_attn_v_proj.bias"} loc("p185.1516"), %arg186: tensor<1152x1152xf32> {ttcore.argument_type = #ttcore.argument_type<parameter>, ttcore.local_shape = #ttcore<local_shape local_shape = tensor<1152x1152xf32>>, ttcore.shard_status = #ttcore.shard_status<unsharded>, ttir.name = "L__self___bracket_core_paligemma_with_expert_paligemma_model_vision_tower_vision_model_encoder_layers_22_self_attn_v_proj.weight"} loc("p186.1520"), %arg187: tensor<1152xf32> {ttcore.argument_type = #ttcore.argument_type<parameter>, ttcore.local_shape = #ttcore<local_shape local_shape = tensor<1152xf32>>, ttcore.shard_status = #ttcore.shard_status<unsharded>, ttir.name = "L__self___bracket_core_paligemma_with_expert_paligemma_model_vision_tower_vision_model_encoder_layers_22_layer_norm1.bias"} loc("p187.1526"), %arg188: tensor<1152xf32> {ttcore.argument_type = #ttcore.argument_type<parameter>, ttcore.local_shape = #ttcore<local_shape local_shape = tensor<1152xf32>>, ttcore.shard_status = #ttcore.shard_status<unsharded>, ttir.name = "L__self___bracket_core_paligemma_with_expert_paligemma_model_vision_tower_vision_model_encoder_layers_22_layer_norm1.weight"} loc("p188.1531"), %arg189: tensor<1152xf32> {ttcore.argument_type = #ttcore.argument_type<parameter>, ttcore.local_shape = #ttcore<local_shape local_shape = tensor<1152xf32>>, ttcore.shard_status = #ttcore.shard_status<unsharded>, ttir.name = "L__self___bracket_core_paligemma_with_expert_paligemma_model_vision_tower_vision_model_encoder_layers_21_mlp_fc2.bias"} loc("p189.1540"), %arg190: tensor<1152x4304xf32> {ttcore.argument_type = #ttcore.argument_type<parameter>, ttcore.local_shape = #ttcore<local_shape local_shape = tensor<1152x4304xf32>>, ttcore.shard_status = #ttcore.shard_status<unsharded>, ttir.name = "L__self___bracket_core_paligemma_with_expert_paligemma_model_vision_tower_vision_model_encoder_layers_21_mlp_fc2.weight"} loc("p190.1544"), %arg191: tensor<4304xf32> {ttcore.argument_type = #ttcore.argument_type<parameter>, ttcore.local_shape = #ttcore<local_shape local_shape = tensor<4304xf32>>, ttcore.shard_status = #ttcore.shard_status<unsharded>, ttir.name = "L__self___bracket_core_paligemma_with_expert_paligemma_model_vision_tower_vision_model_encoder_layers_21_mlp_fc1.bias"} loc("p191.1552"), %arg192: tensor<4304x1152xf32> {ttcore.argument_type = #ttcore.argument_type<parameter>, ttcore.local_shape = #ttcore<local_shape local_shape = tensor<4304x1152xf32>>, ttcore.shard_status = #ttcore.shard_status<unsharded>, ttir.name = "L__self___bracket_core_paligemma_with_expert_paligemma_model_vision_tower_vision_model_encoder_layers_21_mlp_fc1.weight"} loc("p192.1556"), %arg193: tensor<1152xf32> {ttcore.argument_type = #ttcore.argument_type<parameter>, ttcore.local_shape = #ttcore<local_shape local_shape = tensor<1152xf32>>, ttcore.shard_status = #ttcore.shard_status<unsharded>, ttir.name = "L__self___bracket_core_paligemma_with_expert_paligemma_model_vision_tower_vision_model_encoder_layers_21_layer_norm2.bias"} loc("p193.1562"), %arg194: tensor<1152xf32> {ttcore.argument_type = #ttcore.argument_type<parameter>, ttcore.local_shape = #ttcore<local_shape local_shape = tensor<1152xf32>>, ttcore.shard_status = #ttcore.shard_status<unsharded>, ttir.name = "L__self___bracket_core_paligemma_with_expert_paligemma_model_vision_tower_vision_model_encoder_layers_21_layer_norm2.weight"} loc("p194.1567"), %arg195: tensor<1152xf32> {ttcore.argument_type = #ttcore.argument_type<parameter>, ttcore.local_shape = #ttcore<local_shape local_shape = tensor<1152xf32>>, ttcore.shard_status = #ttcore.shard_status<unsharded>, ttir.name = "L__self___bracket_core_paligemma_with_expert_paligemma_model_vision_tower_vision_model_encoder_layers_21_self_attn_out_proj.bias"} loc("p195.1576"), %arg196: tensor<1152x1152xf32> {ttcore.argument_type = #ttcore.argument_type<parameter>, ttcore.local_shape = #ttcore<local_shape local_shape = tensor<1152x1152xf32>>, ttcore.shard_status = #ttcore.shard_status<unsharded>, ttir.name = "L__self___bracket_core_paligemma_with_expert_paligemma_model_vision_tower_vision_model_encoder_layers_21_self_attn_out_proj.weight"} loc("p196.1580"), %arg197: tensor<1152xf32> {ttcore.argument_type = #ttcore.argument_type<parameter>, ttcore.local_shape = #ttcore<local_shape local_shape = tensor<1152xf32>>, ttcore.shard_status = #ttcore.shard_status<unsharded>, ttir.name = "L__self___bracket_core_paligemma_with_expert_paligemma_model_vision_tower_vision_model_encoder_layers_21_self_attn_v_proj.bias"} loc("p197.1586"), %arg198: tensor<1152x1152xf32> {ttcore.argument_type = #ttcore.argument_type<parameter>, ttcore.local_shape = #ttcore<local_shape local_shape = tensor<1152x1152xf32>>, ttcore.shard_status = #ttcore.shard_status<unsharded>, ttir.name = "L__self___bracket_core_paligemma_with_expert_paligemma_model_vision_tower_vision_model_encoder_layers_21_self_attn_v_proj.weight"} loc("p198.1590"), %arg199: tensor<1152xf32> {ttcore.argument_type = #ttcore.argument_type<parameter>, ttcore.local_shape = #ttcore<local_shape local_shape = tensor<1152xf32>>, ttcore.shard_status = #ttcore.shard_status<unsharded>, ttir.name = "L__self___bracket_core_paligemma_with_expert_paligemma_model_vision_tower_vision_model_encoder_layers_21_layer_norm1.bias"} loc("p199.1596"), %arg200: tensor<1152xf32> {ttcore.argument_type = #ttcore.argument_type<parameter>, ttcore.local_shape = #ttcore<local_shape local_shape = tensor<1152xf32>>, ttcore.shard_status = #ttcore.shard_status<unsharded>, ttir.name = "L__self___bracket_core_paligemma_with_expert_paligemma_model_vision_tower_vision_model_encoder_layers_21_layer_norm1.weight"} loc("p200.1601"), %arg201: tensor<1152xf32> {ttcore.argument_type = #ttcore.argument_type<parameter>, ttcore.local_shape = #ttcore<local_shape local_shape = tensor<1152xf32>>, ttcore.shard_status = #ttcore.shard_status<unsharded>, ttir.name = "L__self___bracket_core_paligemma_with_expert_paligemma_model_vision_tower_vision_model_encoder_layers_20_mlp_fc2.bias"} loc("p201.1610"), %arg202: tensor<1152x4304xf32> {ttcore.argument_type = #ttcore.argument_type<parameter>, ttcore.local_shape = #ttcore<local_shape local_shape = tensor<1152x4304xf32>>, ttcore.shard_status = #ttcore.shard_status<unsharded>, ttir.name = "L__self___bracket_core_paligemma_with_expert_paligemma_model_vision_tower_vision_model_encoder_layers_20_mlp_fc2.weight"} loc("p202.1614"), %arg203: tensor<4304xf32> {ttcore.argument_type = #ttcore.argument_type<parameter>, ttcore.local_shape = #ttcore<local_shape local_shape = tensor<4304xf32>>, ttcore.shard_status = #ttcore.shard_status<unsharded>, ttir.name = "L__self___bracket_core_paligemma_with_expert_paligemma_model_vision_tower_vision_model_encoder_layers_20_mlp_fc1.bias"} loc("p203.1622"), %arg204: tensor<4304x1152xf32> {ttcore.argument_type = #ttcore.argument_type<parameter>, ttcore.local_shape = #ttcore<local_shape local_shape = tensor<4304x1152xf32>>, ttcore.shard_status = #ttcore.shard_status<unsharded>, ttir.name = "L__self___bracket_core_paligemma_with_expert_paligemma_model_vision_tower_vision_model_encoder_layers_20_mlp_fc1.weight"} loc("p204.1626"), %arg205: tensor<1152xf32> {ttcore.argument_type = #ttcore.argument_type<parameter>, ttcore.local_shape = #ttcore<local_shape local_shape = tensor<1152xf32>>, ttcore.shard_status = #ttcore.shard_status<unsharded>, ttir.name = "L__self___bracket_core_paligemma_with_expert_paligemma_model_vision_tower_vision_model_encoder_layers_20_layer_norm2.bias"} loc("p205.1632"), %arg206: tensor<1152xf32> {ttcore.argument_type = #ttcore.argument_type<parameter>, ttcore.local_shape = #ttcore<local_shape local_shape = tensor<1152xf32>>, ttcore.shard_status = #ttcore.shard_status<unsharded>, ttir.name = "L__self___bracket_core_paligemma_with_expert_paligemma_model_vision_tower_vision_model_encoder_layers_20_layer_norm2.weight"} loc("p206.1637"), %arg207: tensor<1152xf32> {ttcore.argument_type = #ttcore.argument_type<parameter>, ttcore.local_shape = #ttcore<local_shape local_shape = tensor<1152xf32>>, ttcore.shard_status = #ttcore.shard_status<unsharded>, ttir.name = "L__self___bracket_core_paligemma_with_expert_paligemma_model_vision_tower_vision_model_encoder_layers_20_self_attn_out_proj.bias"} loc("p207.1646"), %arg208: tensor<1152x1152xf32> {ttcore.argument_type = #ttcore.argument_type<parameter>, ttcore.local_shape = #ttcore<local_shape local_shape = tensor<1152x1152xf32>>, ttcore.shard_status = #ttcore.shard_status<unsharded>, ttir.name = "L__self___bracket_core_paligemma_with_expert_paligemma_model_vision_tower_vision_model_encoder_layers_20_self_attn_out_proj.weight"} loc("p208.1650"), %arg209: tensor<1152xf32> {ttcore.argument_type = #ttcore.argument_type<parameter>, ttcore.local_shape = #ttcore<local_shape local_shape = tensor<1152xf32>>, ttcore.shard_status = #ttcore.shard_status<unsharded>, ttir.name = "L__self___bracket_core_paligemma_with_expert_paligemma_model_vision_tower_vision_model_encoder_layers_20_self_attn_v_proj.bias"} loc("p209.1656"), %arg210: tensor<1152x1152xf32> {ttcore.argument_type = #ttcore.argument_type<parameter>, ttcore.local_shape = #ttcore<local_shape local_shape = tensor<1152x1152xf32>>, ttcore.shard_status = #ttcore.shard_status<unsharded>, ttir.name = "L__self___bracket_core_paligemma_with_expert_paligemma_model_vision_tower_vision_model_encoder_layers_20_self_attn_v_proj.weight"} loc("p210.1660"), %arg211: tensor<1152xf32> {ttcore.argument_type = #ttcore.argument_type<parameter>, ttcore.local_shape = #ttcore<local_shape local_shape = tensor<1152xf32>>, ttcore.shard_status = #ttcore.shard_status<unsharded>, ttir.name = "L__self___bracket_core_paligemma_with_expert_paligemma_model_vision_tower_vision_model_encoder_layers_20_layer_norm1.bias"} loc("p211.1666"), %arg212: tensor<1152xf32> {ttcore.argument_type = #ttcore.argument_type<parameter>, ttcore.local_shape = #ttcore<local_shape local_shape = tensor<1152xf32>>, ttcore.shard_status = #ttcore.shard_status<unsharded>, ttir.name = "L__self___bracket_core_paligemma_with_expert_paligemma_model_vision_tower_vision_model_encoder_layers_20_layer_norm1.weight"} loc("p212.1671"), %arg213: tensor<1152xf32> {ttcore.argument_type = #ttcore.argument_type<parameter>, ttcore.local_shape = #ttcore<local_shape local_shape = tensor<1152xf32>>, ttcore.shard_status = #ttcore.shard_status<unsharded>, ttir.name = "L__self___bracket_core_paligemma_with_expert_paligemma_model_vision_tower_vision_model_encoder_layers_19_mlp_fc2.bias"} loc("p213.1680"), %arg214: tensor<1152x4304xf32> {ttcore.argument_type = #ttcore.argument_type<parameter>, ttcore.local_shape = #ttcore<local_shape local_shape = tensor<1152x4304xf32>>, ttcore.shard_status = #ttcore.shard_status<unsharded>, ttir.name = "L__self___bracket_core_paligemma_with_expert_paligemma_model_vision_tower_vision_model_encoder_layers_19_mlp_fc2.weight"} loc("p214.1684"), %arg215: tensor<4304xf32> {ttcore.argument_type = #ttcore.argument_type<parameter>, ttcore.local_shape = #ttcore<local_shape local_shape = tensor<4304xf32>>, ttcore.shard_status = #ttcore.shard_status<unsharded>, ttir.name = "L__self___bracket_core_paligemma_with_expert_paligemma_model_vision_tower_vision_model_encoder_layers_19_mlp_fc1.bias"} loc("p215.1692"), %arg216: tensor<4304x1152xf32> {ttcore.argument_type = #ttcore.argument_type<parameter>, ttcore.local_shape = #ttcore<local_shape local_shape = tensor<4304x1152xf32>>, ttcore.shard_status = #ttcore.shard_status<unsharded>, ttir.name = "L__self___bracket_core_paligemma_with_expert_paligemma_model_vision_tower_vision_model_encoder_layers_19_mlp_fc1.weight"} loc("p216.1696"), %arg217: tensor<1152xf32> {ttcore.argument_type = #ttcore.argument_type<parameter>, ttcore.local_shape = #ttcore<local_shape local_shape = tensor<1152xf32>>, ttcore.shard_status = #ttcore.shard_status<unsharded>, ttir.name = "L__self___bracket_core_paligemma_with_expert_paligemma_model_vision_tower_vision_model_encoder_layers_19_layer_norm2.bias"} loc("p217.1702"), %arg218: tensor<1152xf32> {ttcore.argument_type = #ttcore.argument_type<parameter>, ttcore.local_shape = #ttcore<local_shape local_shape = tensor<1152xf32>>, ttcore.shard_status = #ttcore.shard_status<unsharded>, ttir.name = "L__self___bracket_core_paligemma_with_expert_paligemma_model_vision_tower_vision_model_encoder_layers_19_layer_norm2.weight"} loc("p218.1707"), %arg219: tensor<1152xf32> {ttcore.argument_type = #ttcore.argument_type<parameter>, ttcore.local_shape = #ttcore<local_shape local_shape = tensor<1152xf32>>, ttcore.shard_status = #ttcore.shard_status<unsharded>, ttir.name = "L__self___bracket_core_paligemma_with_expert_paligemma_model_vision_tower_vision_model_encoder_layers_19_self_attn_out_proj.bias"} loc("p219.1716"), %arg220: tensor<1152x1152xf32> {ttcore.argument_type = #ttcore.argument_type<parameter>, ttcore.local_shape = #ttcore<local_shape local_shape = tensor<1152x1152xf32>>, ttcore.shard_status = #ttcore.shard_status<unsharded>, ttir.name = "L__self___bracket_core_paligemma_with_expert_paligemma_model_vision_tower_vision_model_encoder_layers_19_self_attn_out_proj.weight"} loc("p220.1720"), %arg221: tensor<1152xf32> {ttcore.argument_type = #ttcore.argument_type<parameter>, ttcore.local_shape = #ttcore<local_shape local_shape = tensor<1152xf32>>, ttcore.shard_status = #ttcore.shard_status<unsharded>, ttir.name = "L__self___bracket_core_paligemma_with_expert_paligemma_model_vision_tower_vision_model_encoder_layers_19_self_attn_v_proj.bias"} loc("p221.1726"), %arg222: tensor<1152x1152xf32> {ttcore.argument_type = #ttcore.argument_type<parameter>, ttcore.local_shape = #ttcore<local_shape local_shape = tensor<1152x1152xf32>>, ttcore.shard_status = #ttcore.shard_status<unsharded>, ttir.name = "L__self___bracket_core_paligemma_with_expert_paligemma_model_vision_tower_vision_model_encoder_layers_19_self_attn_v_proj.weight"} loc("p222.1730"), %arg223: tensor<1152xf32> {ttcore.argument_type = #ttcore.argument_type<parameter>, ttcore.local_shape = #ttcore<local_shape local_shape = tensor<1152xf32>>, ttcore.shard_status = #ttcore.shard_status<unsharded>, ttir.name = "L__self___bracket_core_paligemma_with_expert_paligemma_model_vision_tower_vision_model_encoder_layers_19_layer_norm1.bias"} loc("p223.1736"), %arg224: tensor<1152xf32> {ttcore.argument_type = #ttcore.argument_type<parameter>, ttcore.local_shape = #ttcore<local_shape local_shape = tensor<1152xf32>>, ttcore.shard_status = #ttcore.shard_status<unsharded>, ttir.name = "L__self___bracket_core_paligemma_with_expert_paligemma_model_vision_tower_vision_model_encoder_layers_19_layer_norm1.weight"} loc("p224.1741"), %arg225: tensor<1152xf32> {ttcore.argument_type = #ttcore.argument_type<parameter>, ttcore.local_shape = #ttcore<local_shape local_shape = tensor<1152xf32>>, ttcore.shard_status = #ttcore.shard_status<unsharded>, ttir.name = "L__self___bracket_core_paligemma_with_expert_paligemma_model_vision_tower_vision_model_encoder_layers_18_mlp_fc2.bias"} loc("p225.1750"), %arg226: tensor<1152x4304xf32> {ttcore.argument_type = #ttcore.argument_type<parameter>, ttcore.local_shape = #ttcore<local_shape local_shape = tensor<1152x4304xf32>>, ttcore.shard_status = #ttcore.shard_status<unsharded>, ttir.name = "L__self___bracket_core_paligemma_with_expert_paligemma_model_vision_tower_vision_model_encoder_layers_18_mlp_fc2.weight"} loc("p226.1754"), %arg227: tensor<4304xf32> {ttcore.argument_type = #ttcore.argument_type<parameter>, ttcore.local_shape = #ttcore<local_shape local_shape = tensor<4304xf32>>, ttcore.shard_status = #ttcore.shard_status<unsharded>, ttir.name = "L__self___bracket_core_paligemma_with_expert_paligemma_model_vision_tower_vision_model_encoder_layers_18_mlp_fc1.bias"} loc("p227.1762"), %arg228: tensor<4304x1152xf32> {ttcore.argument_type = #ttcore.argument_type<parameter>, ttcore.local_shape = #ttcore<local_shape local_shape = tensor<4304x1152xf32>>, ttcore.shard_status = #ttcore.shard_status<unsharded>, ttir.name = "L__self___bracket_core_paligemma_with_expert_paligemma_model_vision_tower_vision_model_encoder_layers_18_mlp_fc1.weight"} loc("p228.1766"), %arg229: tensor<1152xf32> {ttcore.argument_type = #ttcore.argument_type<parameter>, ttcore.local_shape = #ttcore<local_shape local_shape = tensor<1152xf32>>, ttcore.shard_status = #ttcore.shard_status<unsharded>, ttir.name = "L__self___bracket_core_paligemma_with_expert_paligemma_model_vision_tower_vision_model_encoder_layers_18_layer_norm2.bias"} loc("p229.1772"), %arg230: tensor<1152xf32> {ttcore.argument_type = #ttcore.argument_type<parameter>, ttcore.local_shape = #ttcore<local_shape local_shape = tensor<1152xf32>>, ttcore.shard_status = #ttcore.shard_status<unsharded>, ttir.name = "L__self___bracket_core_paligemma_with_expert_paligemma_model_vision_tower_vision_model_encoder_layers_18_layer_norm2.weight"} loc("p230.1777"), %arg231: tensor<1152xf32> {ttcore.argument_type = #ttcore.argument_type<parameter>, ttcore.local_shape = #ttcore<local_shape local_shape = tensor<1152xf32>>, ttcore.shard_status = #ttcore.shard_status<unsharded>, ttir.name = "L__self___bracket_core_paligemma_with_expert_paligemma_model_vision_tower_vision_model_encoder_layers_18_self_attn_out_proj.bias"} loc("p231.1786"), %arg232: tensor<1152x1152xf32> {ttcore.argument_type = #ttcore.argument_type<parameter>, ttcore.local_shape = #ttcore<local_shape local_shape = tensor<1152x1152xf32>>, ttcore.shard_status = #ttcore.shard_status<unsharded>, ttir.name = "L__self___bracket_core_paligemma_with_expert_paligemma_model_vision_tower_vision_model_encoder_layers_18_self_attn_out_proj.weight"} loc("p232.1790"), %arg233: tensor<1152xf32> {ttcore.argument_type = #ttcore.argument_type<parameter>, ttcore.local_shape = #ttcore<local_shape local_shape = tensor<1152xf32>>, ttcore.shard_status = #ttcore.shard_status<unsharded>, ttir.name = "L__self___bracket_core_paligemma_with_expert_paligemma_model_vision_tower_vision_model_encoder_layers_18_self_attn_v_proj.bias"} loc("p233.1796"), %arg234: tensor<1152x1152xf32> {ttcore.argument_type = #ttcore.argument_type<parameter>, ttcore.local_shape = #ttcore<local_shape local_shape = tensor<1152x1152xf32>>, ttcore.shard_status = #ttcore.shard_status<unsharded>, ttir.name = "L__self___bracket_core_paligemma_with_expert_paligemma_model_vision_tower_vision_model_encoder_layers_18_self_attn_v_proj.weight"} loc("p234.1800"), %arg235: tensor<1152xf32> {ttcore.argument_type = #ttcore.argument_type<parameter>, ttcore.local_shape = #ttcore<local_shape local_shape = tensor<1152xf32>>, ttcore.shard_status = #ttcore.shard_status<unsharded>, ttir.name = "L__self___bracket_core_paligemma_with_expert_paligemma_model_vision_tower_vision_model_encoder_layers_18_layer_norm1.bias"} loc("p235.1806"), %arg236: tensor<1152xf32> {ttcore.argument_type = #ttcore.argument_type<parameter>, ttcore.local_shape = #ttcore<local_shape local_shape = tensor<1152xf32>>, ttcore.shard_status = #ttcore.shard_status<unsharded>, ttir.name = "L__self___bracket_core_paligemma_with_expert_paligemma_model_vision_tower_vision_model_encoder_layers_18_layer_norm1.weight"} loc("p236.1811"), %arg237: tensor<1152xf32> {ttcore.argument_type = #ttcore.argument_type<parameter>, ttcore.local_shape = #ttcore<local_shape local_shape = tensor<1152xf32>>, ttcore.shard_status = #ttcore.shard_status<unsharded>, ttir.name = "L__self___bracket_core_paligemma_with_expert_paligemma_model_vision_tower_vision_model_encoder_layers_17_mlp_fc2.bias"} loc("p237.1820"), %arg238: tensor<1152x4304xf32> {ttcore.argument_type = #ttcore.argument_type<parameter>, ttcore.local_shape = #ttcore<local_shape local_shape = tensor<1152x4304xf32>>, ttcore.shard_status = #ttcore.shard_status<unsharded>, ttir.name = "L__self___bracket_core_paligemma_with_expert_paligemma_model_vision_tower_vision_model_encoder_layers_17_mlp_fc2.weight"} loc("p238.1824"), %arg239: tensor<4304xf32> {ttcore.argument_type = #ttcore.argument_type<parameter>, ttcore.local_shape = #ttcore<local_shape local_shape = tensor<4304xf32>>, ttcore.shard_status = #ttcore.shard_status<unsharded>, ttir.name = "L__self___bracket_core_paligemma_with_expert_paligemma_model_vision_tower_vision_model_encoder_layers_17_mlp_fc1.bias"} loc("p239.1832"), %arg240: tensor<4304x1152xf32> {ttcore.argument_type = #ttcore.argument_type<parameter>, ttcore.local_shape = #ttcore<local_shape local_shape = tensor<4304x1152xf32>>, ttcore.shard_status = #ttcore.shard_status<unsharded>, ttir.name = "L__self___bracket_core_paligemma_with_expert_paligemma_model_vision_tower_vision_model_encoder_layers_17_mlp_fc1.weight"} loc("p240.1836"), %arg241: tensor<1152xf32> {ttcore.argument_type = #ttcore.argument_type<parameter>, ttcore.local_shape = #ttcore<local_shape local_shape = tensor<1152xf32>>, ttcore.shard_status = #ttcore.shard_status<unsharded>, ttir.name = "L__self___bracket_core_paligemma_with_expert_paligemma_model_vision_tower_vision_model_encoder_layers_17_layer_norm2.bias"} loc("p241.1842"), %arg242: tensor<1152xf32> {ttcore.argument_type = #ttcore.argument_type<parameter>, ttcore.local_shape = #ttcore<local_shape local_shape = tensor<1152xf32>>, ttcore.shard_status = #ttcore.shard_status<unsharded>, ttir.name = "L__self___bracket_core_paligemma_with_expert_paligemma_model_vision_tower_vision_model_encoder_layers_17_layer_norm2.weight"} loc("p242.1847"), %arg243: tensor<1152xf32> {ttcore.argument_type = #ttcore.argument_type<parameter>, ttcore.local_shape = #ttcore<local_shape local_shape = tensor<1152xf32>>, ttcore.shard_status = #ttcore.shard_status<unsharded>, ttir.name = "L__self___bracket_core_paligemma_with_expert_paligemma_model_vision_tower_vision_model_encoder_layers_17_self_attn_out_proj.bias"} loc("p243.1856"), %arg244: tensor<1152x1152xf32> {ttcore.argument_type = #ttcore.argument_type<parameter>, ttcore.local_shape = #ttcore<local_shape local_shape = tensor<1152x1152xf32>>, ttcore.shard_status = #ttcore.shard_status<unsharded>, ttir.name = "L__self___bracket_core_paligemma_with_expert_paligemma_model_vision_tower_vision_model_encoder_layers_17_self_attn_out_proj.weight"} loc("p244.1860"), %arg245: tensor<1152xf32> {ttcore.argument_type = #ttcore.argument_type<parameter>, ttcore.local_shape = #ttcore<local_shape local_shape = tensor<1152xf32>>, ttcore.shard_status = #ttcore.shard_status<unsharded>, ttir.name = "L__self___bracket_core_paligemma_with_expert_paligemma_model_vision_tower_vision_model_encoder_layers_17_self_attn_v_proj.bias"} loc("p245.1866"), %arg246: tensor<1152x1152xf32> {ttcore.argument_type = #ttcore.argument_type<parameter>, ttcore.local_shape = #ttcore<local_shape local_shape = tensor<1152x1152xf32>>, ttcore.shard_status = #ttcore.shard_status<unsharded>, ttir.name = "L__self___bracket_core_paligemma_with_expert_paligemma_model_vision_tower_vision_model_encoder_layers_17_self_attn_v_proj.weight"} loc("p246.1870"), %arg247: tensor<1152xf32> {ttcore.argument_type = #ttcore.argument_type<parameter>, ttcore.local_shape = #ttcore<local_shape local_shape = tensor<1152xf32>>, ttcore.shard_status = #ttcore.shard_status<unsharded>, ttir.name = "L__self___bracket_core_paligemma_with_expert_paligemma_model_vision_tower_vision_model_encoder_layers_17_layer_norm1.bias"} loc("p247.1876"), %arg248: tensor<1152xf32> {ttcore.argument_type = #ttcore.argument_type<parameter>, ttcore.local_shape = #ttcore<local_shape local_shape = tensor<1152xf32>>, ttcore.shard_status = #ttcore.shard_status<unsharded>, ttir.name = "L__self___bracket_core_paligemma_with_expert_paligemma_model_vision_tower_vision_model_encoder_layers_17_layer_norm1.weight"} loc("p248.1881"), %arg249: tensor<1152xf32> {ttcore.argument_type = #ttcore.argument_type<parameter>, ttcore.local_shape = #ttcore<local_shape local_shape = tensor<1152xf32>>, ttcore.shard_status = #ttcore.shard_status<unsharded>, ttir.name = "L__self___bracket_core_paligemma_with_expert_paligemma_model_vision_tower_vision_model_encoder_layers_16_mlp_fc2.bias"} loc("p249.1890"), %arg250: tensor<1152x4304xf32> {ttcore.argument_type = #ttcore.argument_type<parameter>, ttcore.local_shape = #ttcore<local_shape local_shape = tensor<1152x4304xf32>>, ttcore.shard_status = #ttcore.shard_status<unsharded>, ttir.name = "L__self___bracket_core_paligemma_with_expert_paligemma_model_vision_tower_vision_model_encoder_layers_16_mlp_fc2.weight"} loc("p250.1894"), %arg251: tensor<4304xf32> {ttcore.argument_type = #ttcore.argument_type<parameter>, ttcore.local_shape = #ttcore<local_shape local_shape = tensor<4304xf32>>, ttcore.shard_status = #ttcore.shard_status<unsharded>, ttir.name = "L__self___bracket_core_paligemma_with_expert_paligemma_model_vision_tower_vision_model_encoder_layers_16_mlp_fc1.bias"} loc("p251.1902"), %arg252: tensor<4304x1152xf32> {ttcore.argument_type = #ttcore.argument_type<parameter>, ttcore.local_shape = #ttcore<local_shape local_shape = tensor<4304x1152xf32>>, ttcore.shard_status = #ttcore.shard_status<unsharded>, ttir.name = "L__self___bracket_core_paligemma_with_expert_paligemma_model_vision_tower_vision_model_encoder_layers_16_mlp_fc1.weight"} loc("p252.1906"), %arg253: tensor<1152xf32> {ttcore.argument_type = #ttcore.argument_type<parameter>, ttcore.local_shape = #ttcore<local_shape local_shape = tensor<1152xf32>>, ttcore.shard_status = #ttcore.shard_status<unsharded>, ttir.name = "L__self___bracket_core_paligemma_with_expert_paligemma_model_vision_tower_vision_model_encoder_layers_16_layer_norm2.bias"} loc("p253.1912"), %arg254: tensor<1152xf32> {ttcore.argument_type = #ttcore.argument_type<parameter>, ttcore.local_shape = #ttcore<local_shape local_shape = tensor<1152xf32>>, ttcore.shard_status = #ttcore.shard_status<unsharded>, ttir.name = "L__self___bracket_core_paligemma_with_expert_paligemma_model_vision_tower_vision_model_encoder_layers_16_layer_norm2.weight"} loc("p254.1917"), %arg255: tensor<1152xf32> {ttcore.argument_type = #ttcore.argument_type<parameter>, ttcore.local_shape = #ttcore<local_shape local_shape = tensor<1152xf32>>, ttcore.shard_status = #ttcore.shard_status<unsharded>, ttir.name = "L__self___bracket_core_paligemma_with_expert_paligemma_model_vision_tower_vision_model_encoder_layers_16_self_attn_out_proj.bias"} loc("p255.1926"), %arg256: tensor<1152x1152xf32> {ttcore.argument_type = #ttcore.argument_type<parameter>, ttcore.local_shape = #ttcore<local_shape local_shape = tensor<1152x1152xf32>>, ttcore.shard_status = #ttcore.shard_status<unsharded>, ttir.name = "L__self___bracket_core_paligemma_with_expert_paligemma_model_vision_tower_vision_model_encoder_layers_16_self_attn_out_proj.weight"} loc("p256.1930"), %arg257: tensor<1152xf32> {ttcore.argument_type = #ttcore.argument_type<parameter>, ttcore.local_shape = #ttcore<local_shape local_shape = tensor<1152xf32>>, ttcore.shard_status = #ttcore.shard_status<unsharded>, ttir.name = "L__self___bracket_core_paligemma_with_expert_paligemma_model_vision_tower_vision_model_encoder_layers_16_self_attn_v_proj.bias"} loc("p257.1936"), %arg258: tensor<1152x1152xf32> {ttcore.argument_type = #ttcore.argument_type<parameter>, ttcore.local_shape = #ttcore<local_shape local_shape = tensor<1152x1152xf32>>, ttcore.shard_status = #ttcore.shard_status<unsharded>, ttir.name = "L__self___bracket_core_paligemma_with_expert_paligemma_model_vision_tower_vision_model_encoder_layers_16_self_attn_v_proj.weight"} loc("p258.1940"), %arg259: tensor<1152xf32> {ttcore.argument_type = #ttcore.argument_type<parameter>, ttcore.local_shape = #ttcore<local_shape local_shape = tensor<1152xf32>>, ttcore.shard_status = #ttcore.shard_status<unsharded>, ttir.name = "L__self___bracket_core_paligemma_with_expert_paligemma_model_vision_tower_vision_model_encoder_layers_16_layer_norm1.bias"} loc("p259.1946"), %arg260: tensor<1152xf32> {ttcore.argument_type = #ttcore.argument_type<parameter>, ttcore.local_shape = #ttcore<local_shape local_shape = tensor<1152xf32>>, ttcore.shard_status = #ttcore.shard_status<unsharded>, ttir.name = "L__self___bracket_core_paligemma_with_expert_paligemma_model_vision_tower_vision_model_encoder_layers_16_layer_norm1.weight"} loc("p260.1951"), %arg261: tensor<1152xf32> {ttcore.argument_type = #ttcore.argument_type<parameter>, ttcore.local_shape = #ttcore<local_shape local_shape = tensor<1152xf32>>, ttcore.shard_status = #ttcore.shard_status<unsharded>, ttir.name = "L__self___bracket_core_paligemma_with_expert_paligemma_model_vision_tower_vision_model_encoder_layers_15_mlp_fc2.bias"} loc("p261.1960"), %arg262: tensor<1152x4304xf32> {ttcore.argument_type = #ttcore.argument_type<parameter>, ttcore.local_shape = #ttcore<local_shape local_shape = tensor<1152x4304xf32>>, ttcore.shard_status = #ttcore.shard_status<unsharded>, ttir.name = "L__self___bracket_core_paligemma_with_expert_paligemma_model_vision_tower_vision_model_encoder_layers_15_mlp_fc2.weight"} loc("p262.1964"), %arg263: tensor<4304xf32> {ttcore.argument_type = #ttcore.argument_type<parameter>, ttcore.local_shape = #ttcore<local_shape local_shape = tensor<4304xf32>>, ttcore.shard_status = #ttcore.shard_status<unsharded>, ttir.name = "L__self___bracket_core_paligemma_with_expert_paligemma_model_vision_tower_vision_model_encoder_layers_15_mlp_fc1.bias"} loc("p263.1972"), %arg264: tensor<4304x1152xf32> {ttcore.argument_type = #ttcore.argument_type<parameter>, ttcore.local_shape = #ttcore<local_shape local_shape = tensor<4304x1152xf32>>, ttcore.shard_status = #ttcore.shard_status<unsharded>, ttir.name = "L__self___bracket_core_paligemma_with_expert_paligemma_model_vision_tower_vision_model_encoder_layers_15_mlp_fc1.weight"} loc("p264.1976"), %arg265: tensor<1152xf32> {ttcore.argument_type = #ttcore.argument_type<parameter>, ttcore.local_shape = #ttcore<local_shape local_shape = tensor<1152xf32>>, ttcore.shard_status = #ttcore.shard_status<unsharded>, ttir.name = "L__self___bracket_core_paligemma_with_expert_paligemma_model_vision_tower_vision_model_encoder_layers_15_layer_norm2.bias"} loc("p265.1982"), %arg266: tensor<1152xf32> {ttcore.argument_type = #ttcore.argument_type<parameter>, ttcore.local_shape = #ttcore<local_shape local_shape = tensor<1152xf32>>, ttcore.shard_status = #ttcore.shard_status<unsharded>, ttir.name = "L__self___bracket_core_paligemma_with_expert_paligemma_model_vision_tower_vision_model_encoder_layers_15_layer_norm2.weight"} loc("p266.1987"), %arg267: tensor<1152xf32> {ttcore.argument_type = #ttcore.argument_type<parameter>, ttcore.local_shape = #ttcore<local_shape local_shape = tensor<1152xf32>>, ttcore.shard_status = #ttcore.shard_status<unsharded>, ttir.name = "L__self___bracket_core_paligemma_with_expert_paligemma_model_vision_tower_vision_model_encoder_layers_15_self_attn_out_proj.bias"} loc("p267.1996"), %arg268: tensor<1152x1152xf32> {ttcore.argument_type = #ttcore.argument_type<parameter>, ttcore.local_shape = #ttcore<local_shape local_shape = tensor<1152x1152xf32>>, ttcore.shard_status = #ttcore.shard_status<unsharded>, ttir.name = "L__self___bracket_core_paligemma_with_expert_paligemma_model_vision_tower_vision_model_encoder_layers_15_self_attn_out_proj.weight"} loc("p268.2000"), %arg269: tensor<1152xf32> {ttcore.argument_type = #ttcore.argument_type<parameter>, ttcore.local_shape = #ttcore<local_shape local_shape = tensor<1152xf32>>, ttcore.shard_status = #ttcore.shard_status<unsharded>, ttir.name = "L__self___bracket_core_paligemma_with_expert_paligemma_model_vision_tower_vision_model_encoder_layers_15_self_attn_v_proj.bias"} loc("p269.2006"), %arg270: tensor<1152x1152xf32> {ttcore.argument_type = #ttcore.argument_type<parameter>, ttcore.local_shape = #ttcore<local_shape local_shape = tensor<1152x1152xf32>>, ttcore.shard_status = #ttcore.shard_status<unsharded>, ttir.name = "L__self___bracket_core_paligemma_with_expert_paligemma_model_vision_tower_vision_model_encoder_layers_15_self_attn_v_proj.weight"} loc("p270.2010"), %arg271: tensor<1152xf32> {ttcore.argument_type = #ttcore.argument_type<parameter>, ttcore.local_shape = #ttcore<local_shape local_shape = tensor<1152xf32>>, ttcore.shard_status = #ttcore.shard_status<unsharded>, ttir.name = "L__self___bracket_core_paligemma_with_expert_paligemma_model_vision_tower_vision_model_encoder_layers_15_layer_norm1.bias"} loc("p271.2016"), %arg272: tensor<1152xf32> {ttcore.argument_type = #ttcore.argument_type<parameter>, ttcore.local_shape = #ttcore<local_shape local_shape = tensor<1152xf32>>, ttcore.shard_status = #ttcore.shard_status<unsharded>, ttir.name = "L__self___bracket_core_paligemma_with_expert_paligemma_model_vision_tower_vision_model_encoder_layers_15_layer_norm1.weight"} loc("p272.2021"), %arg273: tensor<1152xf32> {ttcore.argument_type = #ttcore.argument_type<parameter>, ttcore.local_shape = #ttcore<local_shape local_shape = tensor<1152xf32>>, ttcore.shard_status = #ttcore.shard_status<unsharded>, ttir.name = "L__self___bracket_core_paligemma_with_expert_paligemma_model_vision_tower_vision_model_encoder_layers_14_mlp_fc2.bias"} loc("p273.2030"), %arg274: tensor<1152x4304xf32> {ttcore.argument_type = #ttcore.argument_type<parameter>, ttcore.local_shape = #ttcore<local_shape local_shape = tensor<1152x4304xf32>>, ttcore.shard_status = #ttcore.shard_status<unsharded>, ttir.name = "L__self___bracket_core_paligemma_with_expert_paligemma_model_vision_tower_vision_model_encoder_layers_14_mlp_fc2.weight"} loc("p274.2034"), %arg275: tensor<4304xf32> {ttcore.argument_type = #ttcore.argument_type<parameter>, ttcore.local_shape = #ttcore<local_shape local_shape = tensor<4304xf32>>, ttcore.shard_status = #ttcore.shard_status<unsharded>, ttir.name = "L__self___bracket_core_paligemma_with_expert_paligemma_model_vision_tower_vision_model_encoder_layers_14_mlp_fc1.bias"} loc("p275.2042"), %arg276: tensor<4304x1152xf32> {ttcore.argument_type = #ttcore.argument_type<parameter>, ttcore.local_shape = #ttcore<local_shape local_shape = tensor<4304x1152xf32>>, ttcore.shard_status = #ttcore.shard_status<unsharded>, ttir.name = "L__self___bracket_core_paligemma_with_expert_paligemma_model_vision_tower_vision_model_encoder_layers_14_mlp_fc1.weight"} loc("p276.2046"), %arg277: tensor<1152xf32> {ttcore.argument_type = #ttcore.argument_type<parameter>, ttcore.local_shape = #ttcore<local_shape local_shape = tensor<1152xf32>>, ttcore.shard_status = #ttcore.shard_status<unsharded>, ttir.name = "L__self___bracket_core_paligemma_with_expert_paligemma_model_vision_tower_vision_model_encoder_layers_14_layer_norm2.bias"} loc("p277.2052"), %arg278: tensor<1152xf32> {ttcore.argument_type = #ttcore.argument_type<parameter>, ttcore.local_shape = #ttcore<local_shape local_shape = tensor<1152xf32>>, ttcore.shard_status = #ttcore.shard_status<unsharded>, ttir.name = "L__self___bracket_core_paligemma_with_expert_paligemma_model_vision_tower_vision_model_encoder_layers_14_layer_norm2.weight"} loc("p278.2057"), %arg279: tensor<1152xf32> {ttcore.argument_type = #ttcore.argument_type<parameter>, ttcore.local_shape = #ttcore<local_shape local_shape = tensor<1152xf32>>, ttcore.shard_status = #ttcore.shard_status<unsharded>, ttir.name = "L__self___bracket_core_paligemma_with_expert_paligemma_model_vision_tower_vision_model_encoder_layers_14_self_attn_out_proj.bias"} loc("p279.2066"), %arg280: tensor<1152x1152xf32> {ttcore.argument_type = #ttcore.argument_type<parameter>, ttcore.local_shape = #ttcore<local_shape local_shape = tensor<1152x1152xf32>>, ttcore.shard_status = #ttcore.shard_status<unsharded>, ttir.name = "L__self___bracket_core_paligemma_with_expert_paligemma_model_vision_tower_vision_model_encoder_layers_14_self_attn_out_proj.weight"} loc("p280.2070"), %arg281: tensor<1152xf32> {ttcore.argument_type = #ttcore.argument_type<parameter>, ttcore.local_shape = #ttcore<local_shape local_shape = tensor<1152xf32>>, ttcore.shard_status = #ttcore.shard_status<unsharded>, ttir.name = "L__self___bracket_core_paligemma_with_expert_paligemma_model_vision_tower_vision_model_encoder_layers_14_self_attn_v_proj.bias"} loc("p281.2076"), %arg282: tensor<1152x1152xf32> {ttcore.argument_type = #ttcore.argument_type<parameter>, ttcore.local_shape = #ttcore<local_shape local_shape = tensor<1152x1152xf32>>, ttcore.shard_status = #ttcore.shard_status<unsharded>, ttir.name = "L__self___bracket_core_paligemma_with_expert_paligemma_model_vision_tower_vision_model_encoder_layers_14_self_attn_v_proj.weight"} loc("p282.2080"), %arg283: tensor<1152xf32> {ttcore.argument_type = #ttcore.argument_type<parameter>, ttcore.local_shape = #ttcore<local_shape local_shape = tensor<1152xf32>>, ttcore.shard_status = #ttcore.shard_status<unsharded>, ttir.name = "L__self___bracket_core_paligemma_with_expert_paligemma_model_vision_tower_vision_model_encoder_layers_14_layer_norm1.bias"} loc("p283.2086"), %arg284: tensor<1152xf32> {ttcore.argument_type = #ttcore.argument_type<parameter>, ttcore.local_shape = #ttcore<local_shape local_shape = tensor<1152xf32>>, ttcore.shard_status = #ttcore.shard_status<unsharded>, ttir.name = "L__self___bracket_core_paligemma_with_expert_paligemma_model_vision_tower_vision_model_encoder_layers_14_layer_norm1.weight"} loc("p284.2091"), %arg285: tensor<1152xf32> {ttcore.argument_type = #ttcore.argument_type<parameter>, ttcore.local_shape = #ttcore<local_shape local_shape = tensor<1152xf32>>, ttcore.shard_status = #ttcore.shard_status<unsharded>, ttir.name = "L__self___bracket_core_paligemma_with_expert_paligemma_model_vision_tower_vision_model_encoder_layers_13_mlp_fc2.bias"} loc("p285.2100"), %arg286: tensor<1152x4304xf32> {ttcore.argument_type = #ttcore.argument_type<parameter>, ttcore.local_shape = #ttcore<local_shape local_shape = tensor<1152x4304xf32>>, ttcore.shard_status = #ttcore.shard_status<unsharded>, ttir.name = "L__self___bracket_core_paligemma_with_expert_paligemma_model_vision_tower_vision_model_encoder_layers_13_mlp_fc2.weight"} loc("p286.2104"), %arg287: tensor<4304xf32> {ttcore.argument_type = #ttcore.argument_type<parameter>, ttcore.local_shape = #ttcore<local_shape local_shape = tensor<4304xf32>>, ttcore.shard_status = #ttcore.shard_status<unsharded>, ttir.name = "L__self___bracket_core_paligemma_with_expert_paligemma_model_vision_tower_vision_model_encoder_layers_13_mlp_fc1.bias"} loc("p287.2112"), %arg288: tensor<4304x1152xf32> {ttcore.argument_type = #ttcore.argument_type<parameter>, ttcore.local_shape = #ttcore<local_shape local_shape = tensor<4304x1152xf32>>, ttcore.shard_status = #ttcore.shard_status<unsharded>, ttir.name = "L__self___bracket_core_paligemma_with_expert_paligemma_model_vision_tower_vision_model_encoder_layers_13_mlp_fc1.weight"} loc("p288.2116"), %arg289: tensor<1152xf32> {ttcore.argument_type = #ttcore.argument_type<parameter>, ttcore.local_shape = #ttcore<local_shape local_shape = tensor<1152xf32>>, ttcore.shard_status = #ttcore.shard_status<unsharded>, ttir.name = "L__self___bracket_core_paligemma_with_expert_paligemma_model_vision_tower_vision_model_encoder_layers_13_layer_norm2.bias"} loc("p289.2122"), %arg290: tensor<1152xf32> {ttcore.argument_type = #ttcore.argument_type<parameter>, ttcore.local_shape = #ttcore<local_shape local_shape = tensor<1152xf32>>, ttcore.shard_status = #ttcore.shard_status<unsharded>, ttir.name = "L__self___bracket_core_paligemma_with_expert_paligemma_model_vision_tower_vision_model_encoder_layers_13_layer_norm2.weight"} loc("p290.2127"), %arg291: tensor<1152xf32> {ttcore.argument_type = #ttcore.argument_type<parameter>, ttcore.local_shape = #ttcore<local_shape local_shape = tensor<1152xf32>>, ttcore.shard_status = #ttcore.shard_status<unsharded>, ttir.name = "L__self___bracket_core_paligemma_with_expert_paligemma_model_vision_tower_vision_model_encoder_layers_13_self_attn_out_proj.bias"} loc("p291.2136"), %arg292: tensor<1152x1152xf32> {ttcore.argument_type = #ttcore.argument_type<parameter>, ttcore.local_shape = #ttcore<local_shape local_shape = tensor<1152x1152xf32>>, ttcore.shard_status = #ttcore.shard_status<unsharded>, ttir.name = "L__self___bracket_core_paligemma_with_expert_paligemma_model_vision_tower_vision_model_encoder_layers_13_self_attn_out_proj.weight"} loc("p292.2140"), %arg293: tensor<1152xf32> {ttcore.argument_type = #ttcore.argument_type<parameter>, ttcore.local_shape = #ttcore<local_shape local_shape = tensor<1152xf32>>, ttcore.shard_status = #ttcore.shard_status<unsharded>, ttir.name = "L__self___bracket_core_paligemma_with_expert_paligemma_model_vision_tower_vision_model_encoder_layers_13_self_attn_v_proj.bias"} loc("p293.2146"), %arg294: tensor<1152x1152xf32> {ttcore.argument_type = #ttcore.argument_type<parameter>, ttcore.local_shape = #ttcore<local_shape local_shape = tensor<1152x1152xf32>>, ttcore.shard_status = #ttcore.shard_status<unsharded>, ttir.name = "L__self___bracket_core_paligemma_with_expert_paligemma_model_vision_tower_vision_model_encoder_layers_13_self_attn_v_proj.weight"} loc("p294.2150"), %arg295: tensor<1152xf32> {ttcore.argument_type = #ttcore.argument_type<parameter>, ttcore.local_shape = #ttcore<local_shape local_shape = tensor<1152xf32>>, ttcore.shard_status = #ttcore.shard_status<unsharded>, ttir.name = "L__self___bracket_core_paligemma_with_expert_paligemma_model_vision_tower_vision_model_encoder_layers_13_layer_no…
#loc12183 = loc("broadcast.16133")
#loc12184 = loc("multiply.16134")
#loc12185 = loc("broadcast.16137")
#loc12186 = loc("add.16138")
#loc12188 = loc("multiply.13737")
#loc12189 = loc("power.13723")
#loc12190 = loc("multiply.13726")
#loc12191 = loc("add.13727")
#loc12192 = loc("multiply.13730")
#loc12193 = loc("tanh.13731")
#loc12194 = loc("add.13734")
#loc12195 = loc("multiply.13738")
#loc12199 = loc("reduce.24006")
#loc12200 = loc("multiply.24015")
#loc12201 = loc("broadcast.24025")
#loc12202 = loc("subtract.24026")
#loc12203 = loc("subtract.23981")
#loc12204 = loc("multiply.23982")
#loc12205 = loc("reduce.23989")
#loc12206 = loc("multiply.23998")
#loc12207 = loc("reshape.23999")
#loc12208 = loc("add.24019")
#loc12209 = loc("rsqrt.24020")
#loc12210 = loc("reshape.24027")
#loc12211 = loc("broadcast.24028")
#loc12212 = loc("multiply.24029")
#loc12213 = loc("broadcast.24030")
#loc12214 = loc("multiply.24031")
#loc12215 = loc("broadcast.24034")
#loc12216 = loc("add.24035")
#loc12218 = loc("multiply.27362")
#loc12219 = loc("power.27348")
#loc12220 = loc("multiply.27351")
#loc12221 = loc("add.27352")
#loc12222 = loc("multiply.27355")
#loc12223 = loc("tanh.27356")
#loc12224 = loc("add.27359")
#loc12225 = loc("multiply.27363")
#loc12227 = loc("multiply.29122")
#loc12228 = loc("power.29108")
#loc12229 = loc("multiply.29111")
#loc12230 = loc("add.29112")
#loc12231 = loc("multiply.29115")
#loc12232 = loc("tanh.29116")
#loc12233 = loc("add.29119")
#loc12234 = loc("multiply.29123")
#loc12238 = loc("reduce.25034")
#loc12239 = loc("multiply.25043")
#loc12240 = loc("broadcast.25053")
#loc12241 = loc("subtract.25054")
#loc12242 = loc("subtract.25009")
#loc12243 = loc("multiply.25010")
#loc12244 = loc("reduce.25017")
#loc12245 = loc("multiply.25026")
#loc12246 = loc("reshape.25027")
#loc12247 = loc("add.25047")
#loc12248 = loc("rsqrt.25048")
#loc12249 = loc("reshape.25055")
#loc12250 = loc("broadcast.25056")
#loc12251 = loc("multiply.25057")
#loc12252 = loc("broadcast.25058")
#loc12253 = loc("multiply.25059")
#loc12254 = loc("broadcast.25062")
#loc12255 = loc("add.25063")
#loc12257 = loc("multiply.28022")
#loc12258 = loc("power.28008")
#loc12259 = loc("multiply.28011")
#loc12260 = loc("add.28012")
#loc12261 = loc("multiply.28015")
#loc12262 = loc("tanh.28016")
#loc12263 = loc("add.28019")
#loc12264 = loc("multiply.28023")
#loc12268 = loc("reduce.22352")
#loc12269 = loc("multiply.22361")
#loc12270 = loc("broadcast.22371")
#loc12271 = loc("subtract.22372")
#loc12272 = loc("subtract.22327")
#loc12273 = loc("multiply.22328")
#loc12274 = loc("reduce.22335")
#loc12275 = loc("multiply.22344")
#loc12276 = loc("reshape.22345")
#loc12277 = loc("add.22365")
#loc12278 = loc("rsqrt.22366")
#loc12279 = loc("reshape.22373")
#loc12280 = loc("broadcast.22374")
#loc12281 = loc("multiply.22375")
#loc12282 = loc("broadcast.22376")
#loc12283 = loc("multiply.22377")
#loc12284 = loc("broadcast.22380")
#loc12285 = loc("add.22381")
#loc12289 = loc("reduce.22978")
#loc12290 = loc("multiply.22987")
#loc12291 = loc("broadcast.22997")
#loc12292 = loc("subtract.22998")
#loc12293 = loc("subtract.22953")
#loc12294 = loc("multiply.22954")
#loc12295 = loc("reduce.22961")
#loc12296 = loc("multiply.22970")
#loc12297 = loc("reshape.22971")
#loc12298 = loc("add.22991")
#loc12299 = loc("rsqrt.22992")
#loc12300 = loc("reshape.22999")
#loc12301 = loc("broadcast.23000")
#loc12302 = loc("multiply.23001")
#loc12303 = loc("broadcast.23002")
#loc12304 = loc("multiply.23003")
#loc12305 = loc("broadcast.23006")
#loc12306 = loc("add.23007")
#loc12310 = loc("reduce.19525")
#loc12311 = loc("multiply.19534")
#loc12312 = loc("broadcast.19544")
#loc12313 = loc("subtract.19545")
#loc12314 = loc("subtract.19500")
#loc12315 = loc("multiply.19501")
#loc12316 = loc("reduce.19508")
#loc12317 = loc("multiply.19517")
#loc12318 = loc("reshape.19518")
#loc12319 = loc("add.19538")
#loc12320 = loc("rsqrt.19539")
#loc12321 = loc("reshape.19546")
#loc12322 = loc("broadcast.19547")
#loc12323 = loc("multiply.19548")
#loc12324 = loc("broadcast.19549")
#loc12325 = loc("multiply.19550")
#loc12326 = loc("broadcast.19553")
#loc12327 = loc("add.19554")
#loc12329 = loc("multiply.3368")
#loc12330 = loc("power.3354")
#loc12331 = loc("multiply.3357")
#loc12332 = loc("add.3358")
#loc12333 = loc("multiply.3361")
#loc12334 = loc("tanh.3362")
#loc12335 = loc("add.3365")
#loc12336 = loc("multiply.3369")
#loc12338 = loc("multiply.23690")
#loc12339 = loc("power.23676")
#loc12340 = loc("multiply.23679")
#loc12341 = loc("add.23680")
#loc12342 = loc("multiply.23683")
#loc12343 = loc("tanh.23684")
#loc12344 = loc("add.23687")
#loc12345 = loc("multiply.23691")
#loc12349 = loc("reduce.5772")
#loc12350 = loc("multiply.5781")
#loc12351 = loc("broadcast.5791")
#loc12352 = loc("subtract.5792")
#loc12353 = loc("subtract.5747")
#loc12354 = loc("multiply.5748")
#loc12355 = loc("reduce.5755")
#loc12356 = loc("multiply.5764")
#loc12357 = loc("reshape.5765")
#loc12358 = loc("add.5785")
#loc12359 = loc("rsqrt.5786")
#loc12360 = loc("reshape.5793")
#loc12361 = loc("broadcast.5794")
#loc12362 = loc("multiply.5795")
#loc12363 = loc("broadcast.5796")
#loc12364 = loc("multiply.5797")
#loc12365 = loc("broadcast.5800")
#loc12366 = loc("add.5801")
#loc12368 = loc("multiply.14765")
#loc12369 = loc("power.14751")
#loc12370 = loc("multiply.14754")
#loc12371 = loc("add.14755")
#loc12372 = loc("multiply.14758")
#loc12373 = loc("tanh.14759")
#loc12374 = loc("add.14762")
#loc12375 = loc("multiply.14766")
#loc12379 = loc("reduce.21436")
#loc12380 = loc("multiply.21445")
#loc12381 = loc("broadcast.21455")
#loc12382 = loc("subtract.21456")
#loc12383 = loc("subtract.21411")
#loc12384 = loc("multiply.21412")
#loc12385 = loc("reduce.21419")
#loc12386 = loc("multiply.21428")
#loc12387 = loc("reshape.21429")
#loc12388 = loc("add.21449")
#loc12389 = loc("rsqrt.21450")
#loc12390 = loc("reshape.21457")
#loc12391 = loc("broadcast.21458")
#loc12392 = loc("multiply.21459")
#loc12393 = loc("broadcast.21460")
#loc12394 = loc("multiply.21461")
#loc12395 = loc("broadcast.21464")
#loc12396 = loc("add.21465")
#loc12398 = loc("multiply.22919")
#loc12399 = loc("power.22905")
#loc12400 = loc("multiply.22908")
#loc12401 = loc("add.22909")
#loc12402 = loc("multiply.22912")
#loc12403 = loc("tanh.22913")
#loc12404 = loc("add.22916")
#loc12405 = loc("multiply.22920")
#loc12409 = loc("reduce.24777")
#loc12410 = loc("multiply.24786")
#loc12411 = loc("broadcast.24796")
#loc12412 = loc("subtract.24797")
#loc12413 = loc("subtract.24752")
#loc12414 = loc("multiply.24753")
#loc12415 = loc("reduce.24760")
#loc12416 = loc("multiply.24769")
#loc12417 = loc("reshape.24770")
#loc12418 = loc("add.24790")
#loc12419 = loc("rsqrt.24791")
#loc12420 = loc("reshape.24798")
#loc12421 = loc("broadcast.24799")
#loc12422 = loc("multiply.24800")
#loc12423 = loc("broadcast.24801")
#loc12424 = loc("multiply.24802")
#loc12425 = loc("broadcast.24805")
#loc12426 = loc("add.24806")
#loc12428 = loc("multiply.23176")
#loc12429 = loc("power.23162")
#loc12430 = loc("multiply.23165")
#loc12431 = loc("add.23166")
#loc12432 = loc("multiply.23169")
#loc12433 = loc("tanh.23170")
#loc12434 = loc("add.23173")
#loc12435 = loc("multiply.23177")
#loc12437 = loc("multiply.11938")
#loc12438 = loc("power.11924")
#loc12439 = loc("multiply.11927")
#loc12440 = loc("add.11928")
#loc12441 = loc("multiply.11931")
#loc12442 = loc("tanh.11932")
#loc12443 = loc("add.11935")
#loc12444 = loc("multiply.11939")
#loc12448 = loc("reduce.3154")
#loc12449 = loc("multiply.3163")
#loc12450 = loc("broadcast.3173")
#loc12451 = loc("subtract.3174")
#loc12452 = loc("subtract.3129")
#loc12453 = loc("multiply.3130")
#loc12454 = loc("reduce.3137")
#loc12455 = loc("multiply.3146")
#loc12456 = loc("reshape.3147")
#loc12457 = loc("add.3167")
#loc12458 = loc("rsqrt.3168")
#loc12459 = loc("reshape.3175")
#loc12460 = loc("broadcast.3176")
#loc12461 = loc("multiply.3177")
#loc12462 = loc("broadcast.3178")
#loc12463 = loc("multiply.3179")
#loc12464 = loc("broadcast.3182")
#loc12465 = loc("add.3183")
#loc12467 = loc("multiply.19064")
#loc12468 = loc("power.19050")
#loc12469 = loc("multiply.19053")
#loc12470 = loc("add.19054")
#loc12471 = loc("multiply.19057")
#loc12472 = loc("tanh.19058")
#loc12473 = loc("add.19061")
#loc12474 = loc("multiply.19065")
#loc12476 = loc("multiply.23433")
#loc12477 = loc("power.23419")
#loc12478 = loc("multiply.23422")
#loc12479 = loc("add.23423")
#loc12480 = loc("multiply.23426")
#loc12481 = loc("tanh.23427")
#loc12482 = loc("add.23430")
#loc12483 = loc("multiply.23434")
#loc12487 = loc("reduce.23749")
#loc12488 = loc("multiply.23758")
#loc12489 = loc("broadcast.23768")
#loc12490 = loc("subtract.23769")
#loc12491 = loc("subtract.23724")
#loc12492 = loc("multiply.23725")
#loc12493 = loc("reduce.23732")
#loc12494 = loc("multiply.23741")
#loc12495 = loc("reshape.23742")
#loc12496 = loc("add.23762")
#loc12497 = loc("rsqrt.23763")
#loc12498 = loc("reshape.23770")
#loc12499 = loc("broadcast.23771")
#loc12500 = loc("multiply.23772")
#loc12501 = loc("broadcast.23773")
#loc12502 = loc("multiply.23774")
#loc12503 = loc("broadcast.23777")
#loc12504 = loc("add.23778")
#loc12508 = loc("reduce.15226")
#loc12509 = loc("multiply.15235")
#loc12510 = loc("broadcast.15245")
#loc12511 = loc("subtract.15246")
#loc12512 = loc("subtract.15201")
#loc12513 = loc("multiply.15202")
#loc12514 = loc("reduce.15209")
#loc12515 = loc("multiply.15218")
#loc12516 = loc("reshape.15219")
#loc12517 = loc("add.15239")
#loc12518 = loc("rsqrt.15240")
#loc12519 = loc("reshape.15247")
#loc12520 = loc("broadcast.15248")
#loc12521 = loc("multiply.15249")
#loc12522 = loc("broadcast.15250")
#loc12523 = loc("multiply.15251")
#loc12524 = loc("broadcast.15254")
#loc12525 = loc("add.15255")
#loc12527 = loc("multiply.3914")
#loc12528 = loc("power.3900")
#loc12529 = loc("multiply.3903")
#loc12530 = loc("add.3904")
#loc12531 = loc("multiply.3907")
#loc12532 = loc("tanh.3908")
#loc12533 = loc("add.3911")
#loc12534 = loc("multiply.3915")
#loc12536 = loc("multiply.15279")
#loc12537 = loc("power.15265")
#loc12538 = loc("multiply.15268")
#loc12539 = loc("add.15269")
#loc12540 = loc("multiply.15272")
#loc12541 = loc("tanh.15273")
#loc12542 = loc("add.15276")
#loc12543 = loc("multiply.15280")
#loc12545 = loc("multiply.26220")
#loc12546 = loc("power.26206")
#loc12547 = loc("multiply.26209")
#loc12548 = loc("add.26210")
#loc12549 = loc("multiply.26213")
#loc12550 = loc("tanh.26214")
#loc12551 = loc("add.26217")
#loc12552 = loc("multiply.26221")
#loc12556 = loc("reduce.15338")
#loc12557 = loc("multiply.15347")
#loc12558 = loc("broadcast.15357")
#loc12559 = loc("subtract.15358")
#loc12560 = loc("subtract.15313")
#loc12561 = loc("multiply.15314")
#loc12562 = loc("reduce.15321")
#loc12563 = loc("multiply.15330")
#loc12564 = loc("reshape.15331")
#loc12565 = loc("add.15351")
#loc12566 = loc("rsqrt.15352")
#loc12567 = loc("reshape.15359")
#loc12568 = loc("broadcast.15360")
#loc12569 = loc("multiply.15361")
#loc12570 = loc("broadcast.15362")
#loc12571 = loc("multiply.15363")
#loc12572 = loc("broadcast.15366")
#loc12573 = loc("add.15367")
#loc12577 = loc("reduce.15483")
#loc12578 = loc("multiply.15492")
#loc12579 = loc("broadcast.15502")
#loc12580 = loc("subtract.15503")
#loc12581 = loc("subtract.15458")
#loc12582 = loc("multiply.15459")
#loc12583 = loc("reduce.15466")
#loc12584 = loc("multiply.15475")
#loc12585 = loc("reshape.15476")
#loc12586 = loc("add.15496")
#loc12587 = loc("rsqrt.15497")
#loc12588 = loc("reshape.15504")
#loc12589 = loc("broadcast.15505")
#loc12590 = loc("multiply.15506")
#loc12591 = loc("broadcast.15507")
#loc12592 = loc("multiply.15508")
#loc12593 = loc("broadcast.15511")
#loc12594 = loc("add.15512")
#loc12596 = loc("multiply.20606")
#loc12597 = loc("power.20592")
#loc12598 = loc("multiply.20595")
#loc12599 = loc("add.20596")
#loc12600 = loc("multiply.20599")
#loc12601 = loc("tanh.20600")
#loc12602 = loc("add.20603")
#loc12603 = loc("multiply.20607")
#loc12607 = loc("reduce.4519")
#loc12608 = loc("multiply.4528")
#loc12609 = loc("broadcast.4538")
#loc12610 = loc("subtract.4539")
#loc12611 = loc("subtract.4494")
#loc12612 = loc("multiply.4495")
#loc12613 = loc("reduce.4502")
#loc12614 = loc("multiply.4511")
#loc12615 = loc("reshape.4512")
#loc12616 = loc("add.4532")
#loc12617 = loc("rsqrt.4533")
#loc12618 = loc("reshape.4540")
#loc12619 = loc("broadcast.4541")
#loc12620 = loc("multiply.4542")
#loc12621 = loc("broadcast.4543")
#loc12622 = loc("multiply.4544")
#loc12623 = loc("broadcast.4547")
#loc12624 = loc("add.4548")
#loc12626 = loc("multiply.15536")
#loc12627 = loc("power.15522")
#loc12628 = loc("multiply.15525")
#loc12629 = loc("add.15526")
#loc12630 = loc("multiply.15529")
#loc12631 = loc("tanh.15530")
#loc12632 = loc("add.15533")
#loc12633 = loc("multiply.15537")
#loc12637 = loc("reduce.15595")
#loc12638 = loc("multiply.15604")
#loc12639 = loc("broadcast.15614")
#loc12640 = loc("subtract.15615")
#loc12641 = loc("subtract.15570")
#loc12642 = loc("multiply.15571")
#loc12643 = loc("reduce.15578")
#loc12644 = loc("multiply.15587")
#loc12645 = loc("reshape.15588")
#loc12646 = loc("add.15608")
#loc12647 = loc("rsqrt.15609")
#loc12648 = loc("reshape.15616")
#loc12649 = loc("broadcast.15617")
#loc12650 = loc("multiply.15618")
#loc12651 = loc("broadcast.15619")
#loc12652 = loc("multiply.15620")
#loc12653 = loc("broadcast.15623")
#loc12654 = loc("add.15624")
#loc12658 = loc("reduce.11371")
#loc12659 = loc("multiply.11380")
#loc12660 = loc("broadcast.11390")
#loc12661 = loc("subtract.11391")
#loc12662 = loc("subtract.11346")
#loc12663 = loc("multiply.11347")
#loc12664 = loc("reduce.11354")
#loc12665 = loc("multiply.11363")
#loc12666 = loc("reshape.11364")
#loc12667 = loc("add.11384")
#loc12668 = loc("rsqrt.11385")
#loc12669 = loc("reshape.11392")
#loc12670 = loc("broadcast.11393")
#loc12671 = loc("multiply.11394")
#loc12672 = loc("broadcast.11395")
#loc12673 = loc("multiply.11396")
#loc12674 = loc("broadcast.11399")
#loc12675 = loc("add.11400")
#loc12677 = loc("multiply.7190")
#loc12678 = loc("power.7176")
#loc12679 = loc("multiply.7179")
#loc12680 = loc("add.7180")
#loc12681 = loc("multiply.7183")
#loc12682 = loc("tanh.7184")
#loc12683 = loc("add.7187")
#loc12684 = loc("multiply.7191")
#loc12686 = loc("multiply.15793")
#loc12687 = loc("power.15779")
#loc12688 = loc("multiply.15782")
#loc12689 = loc("add.15783")
#loc12690 = loc("multiply.15786")
#loc12691 = loc("tanh.15787")
#loc12692 = loc("add.15790")
#loc12693 = loc("multiply.15794")
#loc12697 = loc("reduce.15852")
#loc12698 = loc("multiply.15861")
#loc12699 = loc("broadcast.15871")
#loc12700 = loc("subtract.15872")
#loc12701 = loc("subtract.15827")
#loc12702 = loc("multiply.15828")
#loc12703 = loc("reduce.15835")
#loc12704 = loc("multiply.15844")
#loc12705 = loc("reshape.15845")
#loc12706 = loc("add.15865")
#loc12707 = loc("rsqrt.15866")
#loc12708 = loc("reshape.15873")
#loc12709 = loc("broadcast.15874")
#loc12710 = loc("multiply.15875")
#loc12711 = loc("broadcast.15876")
#loc12712 = loc("multiply.15877")
#loc12713 = loc("broadcast.15880")
#loc12714 = loc("add.15881")
#loc12718 = loc("reduce.16254")
#loc12719 = loc("multiply.16263")
#loc12720 = loc("broadcast.16273")
#loc12721 = loc("subtract.16274")
#loc12722 = loc("subtract.16229")
#loc12723 = loc("multiply.16230")
#loc12724 = loc("reduce.16237")
#loc12725 = loc("multiply.16246")
#loc12726 = loc("reshape.16247")
#loc12727 = loc("add.16267")
#loc12728 = loc("rsqrt.16268")
#loc12729 = loc("reshape.16275")
#loc12730 = loc("broadcast.16276")
#loc12731 = loc("multiply.16277")
#loc12732 = loc("broadcast.16278")
#loc12733 = loc("multiply.16279")
#loc12734 = loc("broadcast.16282")
#loc12735 = loc("add.16283")
#loc12737 = loc("multiply.16307")
#loc12738 = loc("power.16293")
#loc12739 = loc("multiply.16296")
#loc12740 = loc("add.16297")
#loc12741 = loc("multiply.16300")
#loc12742 = loc("tanh.16301")
#loc12743 = loc("add.16304")
#loc12744 = loc("multiply.16308")
#loc12748 = loc("reduce.16511")
#loc12749 = loc("multiply.16520")
#loc12750 = loc("broadcast.16530")
#loc12751 = loc("subtract.16531")
#loc12752 = loc("subtract.16486")
#loc12753 = loc("multiply.16487")
#loc12754 = loc("reduce.16494")
#loc12755 = loc("multiply.16503")
#loc12756 = loc("reshape.16504")
#loc12757 = loc("add.16524")
#loc12758 = loc("rsqrt.16525")
#loc12759 = loc("reshape.16532")
#loc12760 = loc("broadcast.16533")
#loc12761 = loc("multiply.16534")
#loc12762 = loc("broadcast.16535")
#loc12763 = loc("multiply.16536")
#loc12764 = loc("broadcast.16539")
#loc12765 = loc("add.16540")
#loc12767 = loc("multiply.5279")
#loc12768 = loc("power.5265")
#loc12769 = loc("multiply.5268")
#loc12770 = loc("add.5269")
#loc12771 = loc("multiply.5272")
#loc12772 = loc("tanh.5273")
#loc12773 = loc("add.5276")
#loc12774 = loc("multiply.5280")
#loc12776 = loc("multiply.16564")
#loc12777 = loc("power.16550")
#loc12778 = loc("multiply.16553")
#loc12779 = loc("add.16554")
#loc12780 = loc("multiply.16557")
#loc12781 = loc("tanh.16558")
#loc12782 = loc("add.16561")
#loc12783 = loc("multiply.16565")
#loc12787 = loc("reduce.16623")
#loc12788 = loc("multiply.16632")
#loc12789 = loc("broadcast.16642")
#loc12790 = loc("subtract.16643")
#loc12791 = loc("subtract.16598")
#loc12792 = loc("multiply.16599")
#loc12793 = loc("reduce.16606")
#loc12794 = loc("multiply.16615")
#loc12795 = loc("reshape.16616")
#loc12796 = loc("add.16636")
#loc12797 = loc("rsqrt.16637")
#loc12798 = loc("reshape.16644")
#loc12799 = loc("broadcast.16645")
#loc12800 = loc("multiply.16646")
#loc12801 = loc("broadcast.16647")
#loc12802 = loc("multiply.16648")
#loc12803 = loc("broadcast.16651")
#loc12804 = loc("add.16652")
#loc12806 = loc("multiply.5006")
#loc12807 = loc("power.4992")
#loc12808 = loc("multiply.4995")
#loc12809 = loc("add.4996")
#loc12810 = loc("multiply.4999")
#loc12811 = loc("tanh.5000")
#loc12812 = loc("add.5003")
#loc12813 = loc("multiply.5007")
#loc12817 = loc("reduce.7683")
#loc12818 = loc("multiply.7692")
#loc12819 = loc("broadcast.7702")
#loc12820 = loc("subtract.7703")
#loc12821 = loc("subtract.7658")
#loc12822 = loc("multiply.7659")
#loc12823 = loc("reduce.7666")
#loc12824 = loc("multiply.7675")
#loc12825 = loc("reshape.7676")
#loc12826 = loc("add.7696")
#loc12827 = loc("rsqrt.7697")
#loc12828 = loc("reshape.7704")
#loc12829 = loc("broadcast.7705")
#loc12830 = loc("multiply.7706")
#loc12831 = loc("broadcast.7707")
#loc12832 = loc("multiply.7708")
#loc12833 = loc("broadcast.7711")
#loc12834 = loc("add.7712")
#loc12836 = loc("multiply.16821")
#loc12837 = loc("power.16807")
#loc12838 = loc("multiply.16810")
#loc12839 = loc("add.16811")
#loc12840 = loc("multiply.16814")
#loc12841 = loc("tanh.16815")
#loc12842 = loc("add.16818")
#loc12843 = loc("multiply.16822")
#loc12847 = loc("reduce.16880")
#loc12848 = loc("multiply.16889")
#loc12849 = loc("broadcast.16899")
#loc12850 = loc("subtract.16900")
#loc12851 = loc("subtract.16855")
#loc12852 = loc("multiply.16856")
#loc12853 = loc("reduce.16863")
#loc12854 = loc("multiply.16872")
#loc12855 = loc("reshape.16873")
#loc12856 = loc("add.16893")
#loc12857 = loc("rsqrt.16894")
#loc12858 = loc("reshape.16901")
#loc12859 = loc("broadcast.16902")
#loc12860 = loc("multiply.16903")
#loc12861 = loc("broadcast.16904")
#loc12862 = loc("multiply.16905")
#loc12863 = loc("broadcast.16908")
#loc12864 = loc("add.16909")
#loc12868 = loc("reduce.21838")
#loc12869 = loc("multiply.21847")
#loc12870 = loc("broadcast.21857")
#loc12871 = loc("subtract.21858")
#loc12872 = loc("subtract.21813")
#loc12873 = loc("multiply.21814")
#loc12874 = loc("reduce.21821")
#loc12875 = loc("multiply.21830")
#loc12876 = loc("reshape.21831")
#loc12877 = loc("add.21851")
#loc12878 = loc("rsqrt.21852")
#loc12879 = loc("reshape.21859")
#loc12880 = loc("broadcast.21860")
#loc12881 = loc("multiply.21861")
#loc12882 = loc("broadcast.21862")
#loc12883 = loc("multiply.21863")
#loc12884 = loc("broadcast.21866")
#loc12885 = loc("add.21867")
#loc12889 = loc("reduce.17025")
#loc12890 = loc("multiply.17034")
#loc12891 = loc("broadcast.17044")
#loc12892 = loc("subtract.17045")
#loc12893 = loc("subtract.17000")
#loc12894 = loc("multiply.17001")
#loc12895 = loc("reduce.17008")
#loc12896 = loc("multiply.17017")
#loc12897 = loc("reshape.17018")
#loc12898 = loc("add.17038")
#loc12899 = loc("rsqrt.17039")
#loc12900 = loc("reshape.17046")
#loc12901 = loc("broadcast.17047")
#loc12902 = loc("multiply.17048")
#loc12903 = loc("broadcast.17049")
#loc12904 = loc("multiply.17050")
#loc12905 = loc("broadcast.17053")
#loc12906 = loc("add.17054")
#loc12910 = loc("reduce.9979")
#loc12911 = loc("multiply.9988")
#loc12912 = loc("broadcast.9998")
#loc12913 = loc("subtract.9999")
#loc12914 = loc("subtract.9954")
#loc12915 = loc("multiply.9955")
#loc12916 = loc("reduce.9962")
#loc12917 = loc("multiply.9971")
#loc12918 = loc("reshape.9972")
#loc12919 = loc("add.9992")
#loc12920 = loc("rsqrt.9993")
#loc12921 = loc("reshape.10000")
#loc12922 = loc("broadcast.10001")
#loc12923 = loc("multiply.10002")
#loc12924 = loc("broadcast.10003")
#loc12925 = loc("multiply.10004")
#loc12926 = loc("broadcast.10007")
#loc12927 = loc("add.10008")
#loc12929 = loc("multiply.9374")
#loc12930 = loc("power.9360")
#loc12931 = loc("multiply.9363")
#loc12932 = loc("add.9364")
#loc12933 = loc("multiply.9367")
#loc12934 = loc("tanh.9368")
#loc12935 = loc("add.9371")
#loc12936 = loc("multiply.9375")
#loc12940 = loc("reduce.17137")
#loc12941 = loc("multiply.17146")
#loc12942 = loc("broadcast.17156")
#loc12943 = loc("subtract.17157")
#loc12944 = loc("subtract.17112")
#loc12945 = loc("multiply.17113")
#loc12946 = loc("reduce.17120")
#loc12947 = loc("multiply.17129")
#loc12948 = loc("reshape.17130")
#loc12949 = loc("add.17150")
#loc12950 = loc("rsqrt.17151")
#loc12951 = loc("reshape.17158")
#loc12952 = loc("broadcast.17159")
#loc12953 = loc("multiply.17160")
#loc12954 = loc("broadcast.17161")
#loc12955 = loc("multiply.17162")
#loc12956 = loc("broadcast.17165")
#loc12957 = loc("add.17166")
#loc12961 = loc("reduce.8502")
#loc12962 = loc("multiply.8511")
#loc12963 = loc("broadcast.8521")
#loc12964 = loc("subtract.8522")
#loc12965 = loc("subtract.8477")
#loc12966 = loc("multiply.8478")
#loc12967 = loc("reduce.8485")
#loc12968 = loc("multiply.8494")
#loc12969 = loc("reshape.8495")
#loc12970 = loc("add.8515")
#loc12971 = loc("rsqrt.8516")
#loc12972 = loc("reshape.8523")
#loc12973 = loc("broadcast.8524")
#loc12974 = loc("multiply.8525")
#loc12975 = loc("broadcast.8526")
#loc12976 = loc("multiply.8527")
#loc12977 = loc("broadcast.8530")
#loc12978 = loc("add.8531")
#loc12980 = loc("multiply.28682")
#loc12981 = loc("power.28668")
#loc12982 = loc("multiply.28671")
#loc12983 = loc("add.28672")
#loc12984 = loc("multiply.28675")
#loc12985 = loc("tanh.28676")
#loc12986 = loc("add.28679")
#loc12987 = loc("multiply.28683")
#loc12989 = loc("multiply.17592")
#loc12990 = loc("power.17578")
#loc12991 = loc("multiply.17581")
#loc12992 = loc("add.17582")
#loc12993 = loc("multiply.17585")
#loc12994 = loc("tanh.17586")
#loc12995 = loc("add.17589")
#loc12996 = loc("multiply.17593")
#loc13000 = loc("reduce.12511")
#loc13001 = loc("multiply.12520")
#loc13002 = loc("broadcast.12530")
#loc13003 = loc("subtract.12531")
#loc13004 = loc("subtract.12486")
#loc13005 = loc("multiply.12487")
#loc13006 = loc("reduce.12494")
#loc13007 = loc("multiply.12503")
#loc13008 = loc("reshape.12504")
#loc13009 = loc("add.12524")
#loc13010 = loc("rsqrt.12525")
#loc13011 = loc("reshape.12532")
#loc13012 = loc("broadcast.12533")
#loc13013 = loc("multiply.12534")
#loc13014 = loc("broadcast.12535")
#loc13015 = loc("multiply.12536")
#loc13016 = loc("broadcast.12539")
#loc13017 = loc("add.12540")
#loc13021 = loc("reduce.17651")
#loc13022 = loc("multiply.17660")
#loc13023 = loc("broadcast.17670")
#loc13024 = loc("subtract.17671")
#loc13025 = loc("subtract.17626")
#loc13026 = loc("multiply.17627")
#loc13027 = loc("reduce.17634")
#loc13028 = loc("multiply.17643")
#loc13029 = loc("reshape.17644")
#loc13030 = loc("add.17664")
#loc13031 = loc("rsqrt.17665")
#loc13032 = loc("reshape.17672")
#loc13033 = loc("broadcast.17673")
#loc13034 = loc("multiply.17674")
#loc13035 = loc("broadcast.17675")
#loc13036 = loc("multiply.17676")
#loc13037 = loc("broadcast.17679")
#loc13038 = loc("add.17680")
#loc13040 = loc("multiply.10466")
#loc13041 = loc("power.10452")
#loc13042 = loc("multiply.10455")
#loc13043 = loc("add.10456")
#loc13044 = loc("multiply.10459")
#loc13045 = loc("tanh.10460")
#loc13046 = loc("add.10463")
#loc13047 = loc("multiply.10467")
#loc13051 = loc("reduce.3315")
#loc13052 = loc("multiply.3324")
#loc13053 = loc("broadcast.3334")
#loc13054 = loc("subtract.3335")
#loc13055 = loc("subtract.3290")
#loc13056 = loc("multiply.3291")
#loc13057 = loc("reduce.3298")
#loc13058 = loc("multiply.3307")
#loc13059 = loc("reshape.3308")
#loc13060 = loc("add.3328")
#loc13061 = loc("rsqrt.3329")
#loc13062 = loc("reshape.3336")
#loc13063 = loc("broadcast.3337")
#loc13064 = loc("multiply.3338")
#loc13065 = loc("broadcast.3339")
#loc13066 = loc("multiply.3340")
#loc13067 = loc("broadcast.3343")
#loc13068 = loc("add.3344")
#loc13070 = loc("multiply.12452")
#loc13071 = loc("power.12438")
#loc13072 = loc("multiply.12441")
#loc13073 = loc("add.12442")
#loc13074 = loc("multiply.12445")
#loc13075 = loc("tanh.12446")
#loc13076 = loc("add.12449")
#loc13077 = loc("multiply.12453")
#loc13081 = loc("reduce.3427")
#loc13082 = loc("multiply.3436")
#loc13083 = loc("broadcast.3446")
#loc13084 = loc("subtract.3447")
#loc13085 = loc("subtract.3402")
#loc13086 = loc("multiply.3403")
#loc13087 = loc("reduce.3410")
#loc13088 = loc("multiply.3419")
#loc13089 = loc("reshape.3420")
#loc13090 = loc("add.3440")
#loc13091 = loc("rsqrt.3441")
#loc13092 = loc("reshape.3448")
#loc13093 = loc("broadcast.3449")
#loc13094 = loc("multiply.3450")
#loc13095 = loc("broadcast.3451")
#loc13096 = loc("multiply.3452")
#loc13097 = loc("broadcast.3455")
#loc13098 = loc("add.3456")
#loc13102 = loc("reduce.3700")
#loc13103 = loc("multiply.3709")
#loc13104 = loc("broadcast.3719")
#loc13105 = loc("subtract.3720")
#loc13106 = loc("subtract.3675")
#loc13107 = loc("multiply.3676")
#loc13108 = loc("reduce.3683")
#loc13109 = loc("multiply.3692")
#loc13110 = loc("reshape.3693")
#loc13111 = loc("add.3713")
#loc13112 = loc("rsqrt.3714")
#loc13113 = loc("reshape.3721")
#loc13114 = loc("broadcast.3722")
#loc13115 = loc("multiply.3723")
#loc13116 = loc("broadcast.3724")
#loc13117 = loc("multiply.3725")
#loc13118 = loc("broadcast.3728")
#loc13119 = loc("add.3729")
#loc13123 = loc("reduce.9160")
#loc13124 = loc("multiply.9169")
#loc13125 = loc("broadcast.9179")
#loc13126 = loc("subtract.9180")
#loc13127 = loc("subtract.9135")
#loc13128 = loc("multiply.9136")
#loc13129 = loc("reduce.9143")
#loc13130 = loc("multiply.9152")
#loc13131 = loc("reshape.9153")
#loc13132 = loc("add.9173")
#loc13133 = loc("rsqrt.9174")
#loc13134 = loc("reshape.9181")
#loc13135 = loc("broadcast.9182")
#loc13136 = loc("multiply.9183")
#loc13137 = loc("broadcast.9184")
#loc13138 = loc("multiply.9185")
#loc13139 = loc("broadcast.9188")
#loc13140 = loc("add.9189")
#loc13144 = loc("reduce.3861")
#loc13145 = loc("multiply.3870")
#loc13146 = loc("broadcast.3880")
#loc13147 = loc("subtract.3881")
#loc13148 = loc("subtract.3836")
#loc13149 = loc("multiply.3837")
#loc13150 = loc("reduce.3844")
#loc13151 = loc("multiply.3853")
#loc13152 = loc("reshape.3854")
#loc13153 = loc("add.3874")
#loc13154 = loc("rsqrt.3875")
#loc13155 = loc("reshape.3882")
#loc13156 = loc("broadcast.3883")
#loc13157 = loc("multiply.3884")
#loc13158 = loc("broadcast.3885")
#loc13159 = loc("multiply.3886")
#loc13160 = loc("broadcast.3889")
#loc13161 = loc("add.3890")
#loc13165 = loc("reduce.3973")
#loc13166 = loc("multiply.3982")
#loc13167 = loc("broadcast.3992")
#loc13168 = loc("subtract.3993")
#loc13169 = loc("subtract.3948")
#loc13170 = loc("multiply.3949")
#loc13171 = loc("reduce.3956")
#loc13172 = loc("multiply.3965")
#loc13173 = loc("reshape.3966")
#loc13174 = loc("add.3986")
#loc13175 = loc("rsqrt.3987")
#loc13176 = loc("reshape.3994")
#loc13177 = loc("broadcast.3995")
#loc13178 = loc("multiply.3996")
#loc13179 = loc("broadcast.3997")
#loc13180 = loc("multiply.3998")
#loc13181 = loc("broadcast.4001")
#loc13182 = loc("add.4002")
#loc13186 = loc("reduce.4134")
#loc13187 = loc("multiply.4143")
#loc13188 = loc("broadcast.4153")
#loc13189 = loc("subtract.4154")
#loc13190 = loc("subtract.4109")
#loc13191 = loc("multiply.4110")
#loc13192 = loc("reduce.4117")
#loc13193 = loc("multiply.4126")
#loc13194 = loc("reshape.4127")
#loc13195 = loc("add.4147")
#loc13196 = loc("rsqrt.4148")
#loc13197 = loc("reshape.4155")
#loc13198 = loc("broadcast.4156")
#loc13199 = loc("multiply.4157")
#loc13200 = loc("broadcast.4158")
#loc13201 = loc("multiply.4159")
#loc13202 = loc("broadcast.4162")
#loc13203 = loc("add.4163")
#loc13205 = loc("multiply.4187")
#loc13206 = loc("power.4173")
#loc13207 = loc("multiply.4176")
#loc13208 = loc("add.4177")
#loc13209 = loc("multiply.4180")
#loc13210 = loc("tanh.4181")
#loc13211 = loc("add.4184")
#loc13212 = loc("multiply.4188")
#loc13216 = loc("reduce.4246")
#loc13217 = loc("multiply.4255")
#loc13218 = loc("broadcast.4265")
#loc13219 = loc("subtract.4266")
#loc13220 = loc("subtract.4221")
#loc13221 = loc("multiply.4222")
#loc13222 = loc("reduce.4229")
#loc13223 = loc("multiply.4238")
#loc13224 = loc("reshape.4239")
#loc13225 = loc("add.4259")
#loc13226 = loc("rsqrt.4260")
#loc13227 = loc("reshape.4267")
#loc13228 = loc("broadcast.4268")
#loc13229 = loc("multiply.4269")
#loc13230 = loc("broadcast.4270")
#loc13231 = loc("multiply.4271")
#loc13232 = loc("broadcast.4274")
#loc13233 = loc("add.4275")
#loc13237 = loc("reduce.4407")
#loc13238 = loc("multiply.4416")
#loc13239 = loc("broadcast.4426")
#loc13240 = loc("subtract.4427")
#loc13241 = loc("subtract.4382")
#loc13242 = loc("multiply.4383")
#loc13243 = loc("reduce.4390")
#loc13244 = loc("multiply.4399")
#loc13245 = loc("reshape.4400")
#loc13246 = loc("add.4420")
#loc13247 = loc("rsqrt.4421")
#loc13248 = loc("reshape.4428")
#loc13249 = loc("broadcast.4429")
#loc13250 = loc("multiply.4430")
#loc13251 = loc("broadcast.4431")
#loc13252 = loc("multiply.4432")
#loc13253 = loc("broadcast.4435")
#loc13254 = loc("add.4436")
#loc13256 = loc("multiply.4460")
#loc13257 = loc("power.4446")
#loc13258 = loc("multiply.4449")
#loc13259 = loc("add.4450")
#loc13260 = loc("multiply.4453")
#loc13261 = loc("tanh.4454")
#loc13262 = loc("add.4457")
#loc13263 = loc("multiply.4461")
#loc13267 = loc("reduce.3588")
#loc13268 = loc("multiply.3597")
#loc13269 = loc("broadcast.3607")
#loc13270 = loc("subtract.3608")
#loc13271 = loc("subtract.3563")
#loc13272 = loc("multiply.3564")
#loc13273 = loc("reduce.3571")
#loc13274 = loc("multiply.3580")
#loc13275 = loc("reshape.3581")
#loc13276 = loc("add.3601")
#loc13277 = loc("rsqrt.3602")
#loc13278 = loc("reshape.3609")
#loc13279 = loc("broadcast.3610")
#loc13280 = loc("multiply.3611")
#loc13281 = loc("broadcast.3612")
#loc13282 = loc("multiply.3613")
#loc13283 = loc("broadcast.3616")
#loc13284 = loc("add.3617")
#loc13286 = loc("multiply.4733")
#loc13287 = loc("power.4719")
#loc13288 = loc("multiply.4722")
#loc13289 = loc("add.4723")
#loc13290 = loc("multiply.4726")
#loc13291 = loc("tanh.4727")
#loc13292 = loc("add.4730")
#loc13293 = loc("multiply.4734")
#loc13295 = loc("multiply.5552")
#loc13296 = loc("power.5538")
#loc13297 = loc("multiply.5541")
#loc13298 = loc("add.5542")
#loc13299 = loc("multiply.5545")
#loc13300 = loc("tanh.5546")
#loc13301 = loc("add.5549")
#loc13302 = loc("multiply.5553")
#loc13304 = loc("multiply.30002")
#loc13305 = loc("power.29988")
#loc13306 = loc("multiply.29991")
#loc13307 = loc("add.29992")
#loc13308 = loc("multiply.29995")
#loc13309 = loc("tanh.29996")
#loc13310 = loc("add.29999")
#loc13311 = loc("multiply.30003")
#loc13315 = loc("reduce.19380")
#loc13316 = loc("multiply.19389")
#loc13317 = loc("broadcast.19399")
#loc13318 = loc("subtract.19400")
#loc13319 = loc("subtract.19355")
#loc13320 = loc("multiply.19356")
#loc13321 = loc("reduce.19363")
#loc13322 = loc("multiply.19372")
#loc13323 = loc("reshape.19373")
#loc13324 = loc("add.19393")
#loc13325 = loc("rsqrt.19394")
#loc13326 = loc("reshape.19401")
#loc13327 = loc("broadcast.19402")
#loc13328 = loc("multiply.19403")
#loc13329 = loc("broadcast.19404")
#loc13330 = loc("multiply.19405")
#loc13331 = loc("broadcast.19408")
#loc13332 = loc("add.19409")
#loc13336 = loc("reduce.5611")
#loc13337 = loc("multiply.5620")
#loc13338 = loc("broadcast.5630")
#loc13339 = loc("subtract.5631")
#loc13340 = loc("subtract.5586")
#loc13341 = loc("multiply.5587")
#loc13342 = loc("reduce.5594")
#loc13343 = loc("multiply.5603")
#loc13344 = loc("reshape.5604")
#loc13345 = loc("add.5624")
#loc13346 = loc("rsqrt.5625")
#loc13347 = loc("reshape.5632")
#loc13348 = loc("broadcast.5633")
#loc13349 = loc("multiply.5634")
#loc13350 = loc("broadcast.5635")
#loc13351 = loc("multiply.5636")
#loc13352 = loc("broadcast.5639")
#loc13353 = loc("add.5640")
#loc13357 = loc("reduce.6591")
#loc13358 = loc("multiply.6600")
#loc13359 = loc("broadcast.6610")
#loc13360 = loc("subtract.6611")
#loc13361 = loc("subtract.6566")
#loc13362 = loc("multiply.6567")
#loc13363 = loc("reduce.6574")
#loc13364 = loc("multiply.6583")
#loc13365 = loc("reshape.6584")
#loc13366 = loc("add.6604")
#loc13367 = loc("rsqrt.6605")
#loc13368 = loc("reshape.6612")
#loc13369 = loc("broadcast.6613")
#loc13370 = loc("multiply.6614")
#loc13371 = loc("broadcast.6615")
#loc13372 = loc("multiply.6616")
#loc13373 = loc("broadcast.6619")
#loc13374 = loc("add.6620")
#loc13378 = loc("reduce.24263")
#loc13379 = loc("multiply.24272")
#loc13380 = loc("broadcast.24282")
#loc13381 = loc("subtract.24283")
#loc13382 = loc("subtract.24238")
#loc13383 = loc("multiply.24239")
#loc13384 = loc("reduce.24246")
#loc13385 = loc("multiply.24255")
#loc13386 = loc("reshape.24256")
#loc13387 = loc("add.24276")
#loc13388 = loc("rsqrt.24277")
#loc13389 = loc("reshape.24284")
#loc13390 = loc("broadcast.24285")
#loc13391 = loc("multiply.24286")
#loc13392 = loc("broadcast.24287")
#loc13393 = loc("multiply.24288")
#loc13394 = loc("broadcast.24291")
#loc13395 = loc("add.24292")
#loc13399 = loc("reduce.7137")
#loc13400 = loc("multiply.7146")
#loc13401 = loc("broadcast.7156")
#loc13402 = loc("subtract.7157")
#loc13403 = loc("subtract.7112")
#loc13404 = loc("multiply.7113")
#loc13405 = loc("reduce.7120")
#loc13406 = loc("multiply.7129")
#loc13407 = loc("reshape.7130")
#loc13408 = loc("add.7150")
#loc13409 = loc("rsqrt.7151")
#loc13410 = loc("reshape.7158")
#loc13411 = loc("broadcast.7159")
#loc13412 = loc("multiply.7160")
#loc13413 = loc("broadcast.7161")
#loc13414 = loc("multiply.7162")
#loc13415 = loc("broadcast.7165")
#loc13416 = loc("add.7166")
#loc13418 = loc("multiply.6371")
#loc13419 = loc("power.6357")
#loc13420 = loc("multiply.6360")
#loc13421 = loc("add.6361")
#loc13422 = loc("multiply.6364")
#loc13423 = loc("tanh.6365")
#loc13424 = loc("add.6368")
#loc13425 = loc("multiply.6372")
#loc13429 = loc("reduce.7410")
#loc13430 = loc("multiply.7419")
#loc13431 = loc("broadcast.7429")
#loc13432 = loc("subtract.7430")
#loc13433 = loc("subtract.7385")
#loc13434 = loc("multiply.7386")
#loc13435 = loc("reduce.7393")
#loc13436 = loc("multiply.7402")
#loc13437 = loc("reshape.7403")
#loc13438 = loc("add.7423")
#loc13439 = loc("rsqrt.7424")
#loc13440 = loc("reshape.7431")
#loc13441 = loc("broadcast.7432")
#loc13442 = loc("multiply.7433")
#loc13443 = loc("broadcast.7434")
#loc13444 = loc("multiply.7435")
#loc13445 = loc("broadcast.7438")
#loc13446 = loc("add.7439")
#loc13448 = loc("multiply.14508")
#loc13449 = loc("power.14494")
#loc13450 = loc("multiply.14497")
#loc13451 = loc("add.14498")
#loc13452 = loc("multiply.14501")
#loc13453 = loc("tanh.14502")
#loc13454 = loc("add.14505")
#loc13455 = loc("multiply.14509")
#loc13459 = loc("reduce.17282")
#loc13460 = loc("multiply.17291")
#loc13461 = loc("broadcast.17301")
#loc13462 = loc("subtract.17302")
#loc13463 = loc("subtract.17257")
#loc13464 = loc("multiply.17258")
#loc13465 = loc("reduce.17265")
#loc13466 = loc("multiply.17274")
#loc13467 = loc("reshape.17275")
#loc13468 = loc("add.17295")
#loc13469 = loc("rsqrt.17296")
#loc13470 = loc("reshape.17303")
#loc13471 = loc("broadcast.17304")
#loc13472 = loc("multiply.17305")
#loc13473 = loc("broadcast.17306")
#loc13474 = loc("multiply.17307")
#loc13475 = loc("broadcast.17310")
#loc13476 = loc("add.17311")
#loc13478 = loc("multiply.7463")
#loc13479 = loc("power.7449")
#loc13480 = loc("multiply.7452")
#loc13481 = loc("add.7453")
#loc13482 = loc("multiply.7456")
#loc13483 = loc("tanh.7457")
#loc13484 = loc("add.7460")
#loc13485 = loc("multiply.7464")
#loc13487 = loc("multiply.24461")
#loc13488 = loc("power.24447")
#loc13489 = loc("multiply.24450")
#loc13490 = loc("add.24451")
#loc13491 = loc("multiply.24454")
#loc13492 = loc("tanh.24455")
#loc13493 = loc("add.24458")
#loc13494 = loc("multiply.24462")
#loc13498 = loc("reduce.11483")
#loc13499 = loc("multiply.11492")
#loc13500 = loc("broadcast.11502")
#loc13501 = loc("subtract.11503")
#loc13502 = loc("subtract.11458")
#loc13503 = loc("multiply.11459")
#loc13504 = loc("reduce.11466")
#loc13505 = loc("multiply.11475")
#loc13506 = loc("reshape.11476")
#loc13507 = loc("add.11496")
#loc13508 = loc("rsqrt.11497")
#loc13509 = loc("reshape.11504")
#loc13510 = loc("broadcast.11505")
#loc13511 = loc("multiply.11506")
#loc13512 = loc("broadcast.11507")
#loc13513 = loc("multiply.11508")
#loc13514 = loc("broadcast.11511")
#loc13515 = loc("add.11512")
#loc13519 = loc("reduce.10413")
#loc13520 = loc("multiply.10422")
#loc13521 = loc("broadcast.10432")
#loc13522 = loc("subtract.10433")
#loc13523 = loc("subtract.10388")
#loc13524 = loc("multiply.10389")
#loc13525 = loc("reduce.10396")
#loc13526 = loc("multiply.10405")
#loc13527 = loc("reshape.10406")
#loc13528 = loc("add.10426")
#loc13529 = loc("rsqrt.10427")
#loc13530 = loc("reshape.10434")
#loc13531 = loc("broadcast.10435")
#loc13532 = loc("multiply.10436")
#loc13533 = loc("broadcast.10437")
#loc13534 = loc("multiply.10438")
#loc13535 = loc("broadcast.10441")
#loc13536 = loc("add.10442")
#loc13540 = loc("reduce.17394")
#loc13541 = loc("multiply.17403")
#loc13542 = loc("broadcast.17413")
#loc13543 = loc("subtract.17414")
#loc13544 = loc("subtract.17369")
#loc13545 = loc("multiply.17370")
#loc13546 = loc("reduce.17377")
#loc13547 = loc("multiply.17386")
#loc13548 = loc("reshape.17387")
#loc13549 = loc("add.17407")
#loc13550 = loc("rsqrt.17408")
#loc13551 = loc("reshape.17415")
#loc13552 = loc("broadcast.17416")
#loc13553 = loc("multiply.17417")
#loc13554 = loc("broadcast.17418")
#loc13555 = loc("multiply.17419")
#loc13556 = loc("broadcast.17422")
#loc13557 = loc("add.17423")
#loc13561 = loc("reduce.7522")
#loc13562 = loc("multiply.7531")
#loc13563 = loc("broadcast.7541")
#loc13564 = loc("subtract.7542")
#loc13565 = loc("subtract.7497")
#loc13566 = loc("multiply.7498")
#loc13567 = loc("reduce.7505")
#loc13568 = loc("multiply.7514")
#loc13569 = loc("reshape.7515")
#loc13570 = loc("add.7535")
#loc13571 = loc("rsqrt.7536")
#loc13572 = loc("reshape.7543")
#loc13573 = loc("broadcast.7544")
#loc13574 = loc("multiply.7545")
#loc13575 = loc("broadcast.7546")
#loc13576 = loc("multiply.7547")
#loc13577 = loc("broadcast.7550")
#loc13578 = loc("add.7551")
#loc13582 = loc("reduce.8068")
#loc13583 = loc("multiply.8077")
#loc13584 = loc("broadcast.8087")
#loc13585 = loc("subtract.8088")
#loc13586 = loc("subtract.8043")
#loc13587 = loc("multiply.8044")
#loc13588 = loc("reduce.8051")
#loc13589 = loc("multiply.8060")
#loc13590 = loc("reshape.8061")
#loc13591 = loc("add.8081")
#loc13592 = loc("rsqrt.8082")
#loc13593 = loc("reshape.8089")
#loc13594 = loc("broadcast.8090")
#loc13595 = loc("multiply.8091")
#loc13596 = loc("broadcast.8092")
#loc13597 = loc("multiply.8093")
#loc13598 = loc("broadcast.8096")
#loc13599 = loc("add.8097")
#loc13601 = loc("multiply.19578")
#loc13602 = loc("power.19564")
#loc13603 = loc("multiply.19567")
#loc13604 = loc("add.19568")
#loc13605 = loc("multiply.19571")
#loc13606 = loc("tanh.19572")
#loc13607 = loc("add.19575")
#loc13608 = loc("multiply.19579")
#loc13612 = loc("reduce.9321")
#loc13613 = loc("multiply.9330")
#loc13614 = loc("broadcast.9340")
#loc13615 = loc("subtract.9341")
#loc13616 = loc("subtract.9296")
#loc13617 = loc("multiply.9297")
#loc13618 = loc("reduce.9304")
#loc13619 = loc("multiply.9313")
#loc13620 = loc("reshape.9314")
#loc13621 = loc("add.9334")
#loc13622 = loc("rsqrt.9335")
#loc13623 = loc("reshape.9342")
#loc13624 = loc("broadcast.9343")
#loc13625 = loc("multiply.9344")
#loc13626 = loc("broadcast.9345")
#loc13627 = loc("multiply.9346")
#loc13628 = loc("broadcast.9349")
#loc13629 = loc("add.9350")
#loc13633 = loc("reduce.8229")
#loc13634 = loc("multiply.8238")
#loc13635 = loc("broadcast.8248")
#loc13636 = loc("subtract.8249")
#loc13637 = loc("subtract.8204")
#loc13638 = loc("multiply.8205")
#loc13639 = loc("reduce.8212")
#loc13640 = loc("multiply.8221")
#loc13641 = loc("reshape.8222")
#loc13642 = loc("add.8242")
#loc13643 = loc("rsqrt.8243")
#loc13644 = loc("reshape.8250")
#loc13645 = loc("broadcast.8251")
#loc13646 = loc("multiply.8252")
#loc13647 = loc("broadcast.8253")
#loc13648 = loc("multiply.8254")
#loc13649 = loc("broadcast.8257")
#loc13650 = loc("add.8258")
#loc13654 = loc("reduce.12768")
#loc13655 = loc("multiply.12777")
#loc13656 = loc("broadcast.12787")
#loc13657 = loc("subtract.12788")
#loc13658 = loc("subtract.12743")
#loc13659 = loc("multiply.12744")
#loc13660 = loc("reduce.12751")
#loc13661 = loc("multiply.12760")
#loc13662 = loc("reshape.12761")
#loc13663 = loc("add.12781")
#loc13664 = loc("rsqrt.12782")
#loc13665 = loc("reshape.12789")
#loc13666 = loc("broadcast.12790")
#loc13667 = loc("multiply.12791")
#loc13668 = loc("broadcast.12792")
#loc13669 = loc("multiply.12793")
#loc13670 = loc("broadcast.12796")
#loc13671 = loc("add.12797")
#loc13673 = loc("multiply.8282")
#loc13674 = loc("power.8268")
#loc13675 = loc("multiply.8271")
#loc13676 = loc("add.8272")
#loc13677 = loc("multiply.8275")
#loc13678 = loc("tanh.8276")
#loc13679 = loc("add.8279")
#loc13680 = loc("multiply.8283")
#loc13684 = loc("reduce.8341")
#loc13685 = loc("multiply.8350")
#loc13686 = loc("broadcast.8360")
#loc13687 = loc("subtract.8361")
#loc13688 = loc("subtract.8316")
#loc13689 = loc("multiply.8317")
#loc13690 = loc("reduce.8324")
#loc13691 = loc("multiply.8333")
#loc13692 = loc("reshape.8334")
#loc13693 = loc("add.8354")
#loc13694 = loc("rsqrt.8355")
#loc13695 = loc("reshape.8362")
#loc13696 = loc("broadcast.8363")
#loc13697 = loc("multiply.8364")
#loc13698 = loc("broadcast.8365")
#loc13699 = loc("multiply.8366")
#loc13700 = loc("broadcast.8369")
#loc13701 = loc("add.8370")
#loc13703 = loc("multiply.32862")
#loc13704 = loc("power.32848")
#loc13705 = loc("multiply.32851")
#loc13706 = loc("add.32852")
#loc13707 = loc("multiply.32855")
#loc13708 = loc("tanh.32856")
#loc13709 = loc("add.32859")
#loc13710 = loc("multiply.32863")
#loc13712 = loc("multiply.8555")
#loc13713 = loc("power.8541")
#loc13714 = loc("multiply.8544")
#loc13715 = loc("add.8545")
#loc13716 = loc("multiply.8548")
#loc13717 = loc("tanh.8549")
#loc13718 = loc("add.8552")
#loc13719 = loc("multiply.8556")
#loc13723 = loc("reduce.21067")
#loc13724 = loc("multiply.21076")
#loc13725 = loc("broadcast.21086")
#loc13726 = loc("subtract.21087")
#loc13727 = loc("subtract.21042")
#loc13728 = loc("multiply.21043")
#loc13729 = loc("reduce.21050")
#loc13730 = loc("multiply.21059")
#loc13731 = loc("reshape.21060")
#loc13732 = loc("add.21080")
#loc13733 = loc("rsqrt.21081")
#loc13734 = loc("reshape.21088")
#loc13735 = loc("broadcast.21089")
#loc13736 = loc("multiply.21090")
#loc13737 = loc("broadcast.21091")
#loc13738 = loc("multiply.21092")
#loc13739 = loc("broadcast.21095")
#loc13740 = loc("add.21096")
#loc13744 = loc("reduce.8614")
#loc13745 = loc("multiply.8623")
#loc13746 = loc("broadcast.8633")
#loc13747 = loc("subtract.8634")
#loc13748 = loc("subtract.8589")
#loc13749 = loc("multiply.8590")
#loc13750 = loc("reduce.8597")
#loc13751 = loc("multiply.8606")
#loc13752 = loc("reshape.8607")
#loc13753 = loc("add.8627")
#loc13754 = loc("rsqrt.8628")
#loc13755 = loc("reshape.8635")
#loc13756 = loc("broadcast.8636")
#loc13757 = loc("multiply.8637")
#loc13758 = loc("broadcast.8638")
#loc13759 = loc("multiply.8639")
#loc13760 = loc("broadcast.8642")
#loc13761 = loc("add.8643")
#loc13765 = loc("reduce.5065")
#loc13766 = loc("multiply.5074")
#loc13767 = loc("broadcast.5084")
#loc13768 = loc("subtract.5085")
#loc13769 = loc("subtract.5040")
#loc13770 = loc("multiply.5041")
#loc13771 = loc("reduce.5048")
#loc13772 = loc("multiply.5057")
#loc13773 = loc("reshape.5058")
#loc13774 = loc("add.5078")
#loc13775 = loc("rsqrt.5079")
#loc13776 = loc("reshape.5086")
#loc13777 = loc("broadcast.5087")
#loc13778 = loc("multiply.5088")
#loc13779 = loc("broadcast.5089")
#loc13780 = loc("multiply.5090")
#loc13781 = loc("broadcast.5093")
#loc13782 = loc("add.5094")
#loc13786 = loc("reduce.10140")
#loc13787 = loc("multiply.10149")
#loc13788 = loc("broadcast.10159")
#loc13789 = loc("subtract.10160")
#loc13790 = loc("subtract.10115")
#loc13791 = loc("multiply.10116")
#loc13792 = loc("reduce.10123")
#loc13793 = loc("multiply.10132")
#loc13794 = loc("reshape.10133")
#loc13795 = loc("add.10153")
#loc13796 = loc("rsqrt.10154")
#loc13797 = loc("reshape.10161")
#loc13798 = loc("broadcast.10162")
#loc13799 = loc("multiply.10163")
#loc13800 = loc("broadcast.10164")
#loc13801 = loc("multiply.10165")
#loc13802 = loc("broadcast.10168")
#loc13803 = loc("add.10169")
#loc13805 = loc("multiply.18106")
#loc13806 = loc("power.18092")
#loc13807 = loc("multiply.18095")
#loc13808 = loc("add.18096")
#loc13809 = loc("multiply.18099")
#loc13810 = loc("tanh.18100")
#loc13811 = loc("add.18103")
#loc13812 = loc("multiply.18107")
#loc13814 = loc("multiply.26702")
#loc13815 = loc("power.26688")
#loc13816 = loc("multiply.26691")
#loc13817 = loc("add.26692")
#loc13818 = loc("multiply.26695")
#loc13819 = loc("tanh.26696")
#loc13820 = loc("add.26699")
#loc13821 = loc("multiply.26703")
#loc13823 = loc("multiply.27802")
#loc13824 = loc("power.27788")
#loc13825 = loc("multiply.27791")
#loc13826 = loc("add.27792")
#loc13827 = loc("multiply.27795")
#loc13828 = loc("tanh.27796")
#loc13829 = loc("add.27799")
#loc13830 = loc("multiply.27803")
#loc13834 = loc("reduce.9048")
#loc13835 = loc("multiply.9057")
#loc13836 = loc("broadcast.9067")
#loc13837 = loc("subtract.9068")
#loc13838 = loc("subtract.9023")
#loc13839 = loc("multiply.9024")
#loc13840 = loc("reduce.9031")
#loc13841 = loc("multiply.9040")
#loc13842 = loc("reshape.9041")
#loc13843 = loc("add.9061")
#loc13844 = loc("rsqrt.9062")
#loc13845 = loc("reshape.9069")
#loc13846 = loc("broadcast.9070")
#loc13847 = loc("multiply.9071")
#loc13848 = loc("broadcast.9072")
#loc13849 = loc("multiply.9073")
#loc13850 = loc("broadcast.9076")
#loc13851 = loc("add.9077")
#loc13853 = loc("multiply.9101")
#loc13854 = loc("power.9087")
#loc13855 = loc("multiply.9090")
#loc13856 = loc("add.9091")
#loc13857 = loc("multiply.9094")
#loc13858 = loc("tanh.9095")
#loc13859 = loc("add.9098")
#loc13860 = loc("multiply.9102")
#loc13864 = loc("reduce.9594")
#loc13865 = loc("multiply.9603")
#loc13866 = loc("broadcast.9613")
#loc13867 = loc("subtract.9614")
#loc13868 = loc("subtract.9569")
#loc13869 = loc("multiply.9570")
#loc13870 = loc("reduce.9577")
#loc13871 = loc("multiply.9586")
#loc13872 = loc("reshape.9587")
#loc13873 = loc("add.9607")
#loc13874 = loc("rsqrt.9608")
#loc13875 = loc("reshape.9615")
#loc13876 = loc("broadcast.9616")
#loc13877 = loc("multiply.9617")
#loc13878 = loc("broadcast.9618")
#loc13879 = loc("multiply.9619")
#loc13880 = loc("broadcast.9622")
#loc13881 = loc("add.9623")
#loc13883 = loc("multiply.10193")
#loc13884 = loc("power.10179")
#loc13885 = loc("multiply.10182")
#loc13886 = loc("add.10183")
#loc13887 = loc("multiply.10186")
#loc13888 = loc("tanh.10187")
#loc13889 = loc("add.10190")
#loc13890 = loc("multiply.10194")
#loc13894 = loc("reduce.10525")
#loc13895 = loc("multiply.10534")
#loc13896 = loc("broadcast.10544")
#loc13897 = loc("subtract.10545")
#loc13898 = loc("subtract.10500")
#loc13899 = loc("multiply.10501")
#loc13900 = loc("reduce.10508")
#loc13901 = loc("multiply.10517")
#loc13902 = loc("reshape.10518")
#loc13903 = loc("add.10538")
#loc13904 = loc("rsqrt.10539")
#loc13905 = loc("reshape.10546")
#loc13906 = loc("broadcast.10547")
#loc13907 = loc("multiply.10548")
#loc13908 = loc("broadcast.10549")
#loc13909 = loc("multiply.10550")
#loc13910 = loc("broadcast.10553")
#loc13911 = loc("add.10554")
#loc13913 = loc("multiply.26482")
#loc13914 = loc("power.26468")
#loc13915 = loc("multiply.26471")
#loc13916 = loc("add.26472")
#loc13917 = loc("multiply.26475")
#loc13918 = loc("tanh.26476")
#loc13919 = loc("add.26479")
#loc13920 = loc("multiply.26483")
#loc13922 = loc("multiply.26922")
#loc13923 = loc("power.26908")
#loc13924 = loc("multiply.26911")
#loc13925 = loc("add.26912")
#loc13926 = loc("multiply.26915")
#loc13927 = loc("tanh.26916")
#loc13928 = loc("add.26919")
#loc13929 = loc("multiply.26923")
#loc13931 = loc("multiply.27142")
#loc13932 = loc("power.27128")
#loc13933 = loc("multiply.27131")
#loc13934 = loc("add.27132")
#loc13935 = loc("multiply.27135")
#loc13936 = loc("tanh.27136")
#loc13937 = loc("add.27139")
#loc13938 = loc("multiply.27143")
#loc13940 = loc("multiply.28462")
#loc13941 = loc("power.28448")
#loc13942 = loc("multiply.28451")
#loc13943 = loc("add.28452")
#loc13944 = loc("multiply.28455")
#loc13945 = loc("tanh.28456")
#loc13946 = loc("add.28459")
#loc13947 = loc("multiply.28463")
#loc13949 = loc("multiply.17849")
#loc13950 = loc("power.17835")
#loc13951 = loc("multiply.17838")
#loc13952 = loc("add.17839")
#loc13953 = loc("multiply.17842")
#loc13954 = loc("tanh.17843")
#loc13955 = loc("add.17846")
#loc13956 = loc("multiply.17850")
#loc13958 = loc("multiply.27582")
#loc13959 = loc("power.27568")
#loc13960 = loc("multiply.27571")
#loc13961 = loc("add.27572")
#loc13962 = loc("multiply.27575")
#loc13963 = loc("tanh.27576")
#loc13964 = loc("add.27579")
#loc13965 = loc("multiply.27583")
