#loc1 = loc("p0.72")
#loc2 = loc("p1.79")
#loc3 = loc("p2.84")
#loc4 = loc("p3.109")
#loc5 = loc("p4.117")
#loc6 = loc("p5.121")
#loc7 = loc("p6.128")
#loc8 = loc("p7.139")
#loc9 = loc("p8.144")
#loc10 = loc("p9.151")
#loc11 = loc("p10.162")
#loc12 = loc("p11.167")
#loc13 = loc("p12.174")
#loc14 = loc("p13.185")
#loc15 = loc("p14.190")
#loc16 = loc("p15.197")
#loc17 = loc("p16.208")
#loc18 = loc("p17.213")
#loc19 = loc("p18.220")
#loc20 = loc("p19.231")
#loc21 = loc("p20.236")
#loc22 = loc("p21.243")
#loc23 = loc("p22.254")
#loc24 = loc("p23.259")
#loc25 = loc("p24.266")
#loc26 = loc("p25.277")
#loc27 = loc("p26.282")
#loc28 = loc("p27.289")
#loc29 = loc("p28.300")
#loc30 = loc("p29.305")
#loc31 = loc("p30.312")
#loc32 = loc("p31.323")
#loc33 = loc("p32.328")
#loc34 = loc("p33.335")
#loc35 = loc("p34.346")
#loc36 = loc("p35.351")
#loc37 = loc("p36.358")
#loc38 = loc("p37.369")
#loc39 = loc("p38.374")
#loc40 = loc("p39.381")
#loc41 = loc("p40.392")
#loc42 = loc("p41.397")
#loc43 = loc("p42.404")
#loc44 = loc("p43.415")
#loc45 = loc("p44.420")
#loc46 = loc("p45.427")
#loc47 = loc("p46.438")
#loc48 = loc("p47.443")
#loc49 = loc("p48.450")
#loc50 = loc("p49.461")
#loc51 = loc("p50.466")
#loc52 = loc("p51.473")
#loc53 = loc("p52.484")
#loc54 = loc("p53.489")
#loc55 = loc("p54.496")
#loc56 = loc("p55.507")
#loc57 = loc("p56.512")
#loc58 = loc("p57.519")
#loc59 = loc("p58.530")
#loc60 = loc("p59.535")
#loc61 = loc("p60.542")
#loc62 = loc("p61.553")
#loc63 = loc("p62.558")
#loc64 = loc("p63.565")
#loc65 = loc("p64.576")
#loc66 = loc("p65.581")
#loc67 = loc("p66.588")
#loc68 = loc("p67.599")
#loc69 = loc("p68.604")
#loc70 = loc("p69.611")
#loc71 = loc("p70.622")
#loc72 = loc("p71.627")
#loc73 = loc("p72.634")
#loc74 = loc("p73.645")
#loc75 = loc("p74.650")
#loc76 = loc("p75.657")
#loc77 = loc("p76.668")
#loc78 = loc("p77.673")
#loc79 = loc("p78.680")
#loc80 = loc("p79.691")
#loc81 = loc("p80.696")
#loc82 = loc("p81.703")
#loc83 = loc("p82.714")
#loc84 = loc("p83.719")
#loc85 = loc("p84.726")
#loc86 = loc("p85.737")
#loc87 = loc("p86.742")
#loc88 = loc("p87.749")
#loc89 = loc("p88.760")
#loc90 = loc("p89.765")
#loc91 = loc("p90.772")
#loc92 = loc("p91.783")
#loc93 = loc("p92.788")
#loc94 = loc("p93.795")
#loc95 = loc("p94.806")
#loc96 = loc("p95.811")
#loc97 = loc("p96.818")
#loc98 = loc("p97.829")
#loc99 = loc("p98.834")
#loc100 = loc("p99.841")
#loc101 = loc("p100.852")
#loc102 = loc("p101.857")
#loc103 = loc("p102.864")
#loc104 = loc("p103.875")
#loc105 = loc("p104.880")
#loc106 = loc("p105.887")
#loc107 = loc("p106.898")
#loc108 = loc("p107.903")
#loc109 = loc("p108.910")
#loc110 = loc("p109.921")
#loc111 = loc("p110.926")
#loc112 = loc("p111.933")
#loc113 = loc("p112.944")
#loc114 = loc("p113.949")
#loc115 = loc("p114.956")
#loc116 = loc("p115.967")
#loc117 = loc("p116.971")
#loc118 = loc("p117.977")
#loc119 = loc("p118.981")
#loc120 = loc("p119.1053")
#loc121 = loc("p120.1058")
#loc122 = loc("p121.1133")
#loc123 = loc("p122.1140")
#loc124 = loc("p123.1151")
#loc125 = loc("p124.1156")
#loc126 = loc("p125.1166")
#loc127 = loc("p126.1170")
#loc128 = loc("p127.1176")
#loc129 = loc("p128.1181")
#loc130 = loc("p129.1190")
#loc131 = loc("p130.1194")
#loc132 = loc("p131.1202")
#loc133 = loc("p132.1206")
#loc134 = loc("p133.1212")
#loc135 = loc("p134.1217")
#loc136 = loc("p135.1226")
#loc137 = loc("p136.1230")
#loc138 = loc("p137.1236")
#loc139 = loc("p138.1240")
#loc140 = loc("p139.1246")
#loc141 = loc("p140.1251")
#loc142 = loc("p141.1260")
#loc143 = loc("p142.1264")
#loc144 = loc("p143.1272")
#loc145 = loc("p144.1276")
#loc146 = loc("p145.1282")
#loc147 = loc("p146.1287")
#loc148 = loc("p147.1296")
#loc149 = loc("p148.1300")
#loc150 = loc("p149.1306")
#loc151 = loc("p150.1310")
#loc152 = loc("p151.1316")
#loc153 = loc("p152.1321")
#loc154 = loc("p153.1330")
#loc155 = loc("p154.1334")
#loc156 = loc("p155.1342")
#loc157 = loc("p156.1346")
#loc158 = loc("p157.1352")
#loc159 = loc("p158.1357")
#loc160 = loc("p159.1366")
#loc161 = loc("p160.1370")
#loc162 = loc("p161.1376")
#loc163 = loc("p162.1380")
#loc164 = loc("p163.1386")
#loc165 = loc("p164.1391")
#loc166 = loc("p165.1400")
#loc167 = loc("p166.1404")
#loc168 = loc("p167.1412")
#loc169 = loc("p168.1416")
#loc170 = loc("p169.1422")
#loc171 = loc("p170.1427")
#loc172 = loc("p171.1436")
#loc173 = loc("p172.1440")
#loc174 = loc("p173.1446")
#loc175 = loc("p174.1450")
#loc176 = loc("p175.1456")
#loc177 = loc("p176.1461")
#loc178 = loc("p177.1470")
#loc179 = loc("p178.1474")
#loc180 = loc("p179.1482")
#loc181 = loc("p180.1486")
#loc182 = loc("p181.1492")
#loc183 = loc("p182.1497")
#loc184 = loc("p183.1506")
#loc185 = loc("p184.1510")
#loc186 = loc("p185.1516")
#loc187 = loc("p186.1520")
#loc188 = loc("p187.1526")
#loc189 = loc("p188.1531")
#loc190 = loc("p189.1540")
#loc191 = loc("p190.1544")
#loc192 = loc("p191.1552")
#loc193 = loc("p192.1556")
#loc194 = loc("p193.1562")
#loc195 = loc("p194.1567")
#loc196 = loc("p195.1576")
#loc197 = loc("p196.1580")
#loc198 = loc("p197.1586")
#loc199 = loc("p198.1590")
#loc200 = loc("p199.1596")
#loc201 = loc("p200.1601")
#loc202 = loc("p201.1610")
#loc203 = loc("p202.1614")
#loc204 = loc("p203.1622")
#loc205 = loc("p204.1626")
#loc206 = loc("p205.1632")
#loc207 = loc("p206.1637")
#loc208 = loc("p207.1646")
#loc209 = loc("p208.1650")
#loc210 = loc("p209.1656")
#loc211 = loc("p210.1660")
#loc212 = loc("p211.1666")
#loc213 = loc("p212.1671")
#loc214 = loc("p213.1680")
#loc215 = loc("p214.1684")
#loc216 = loc("p215.1692")
#loc217 = loc("p216.1696")
#loc218 = loc("p217.1702")
#loc219 = loc("p218.1707")
#loc220 = loc("p219.1716")
#loc221 = loc("p220.1720")
#loc222 = loc("p221.1726")
#loc223 = loc("p222.1730")
#loc224 = loc("p223.1736")
#loc225 = loc("p224.1741")
#loc226 = loc("p225.1750")
#loc227 = loc("p226.1754")
#loc228 = loc("p227.1762")
#loc229 = loc("p228.1766")
#loc230 = loc("p229.1772")
#loc231 = loc("p230.1777")
#loc232 = loc("p231.1786")
#loc233 = loc("p232.1790")
#loc234 = loc("p233.1796")
#loc235 = loc("p234.1800")
#loc236 = loc("p235.1806")
#loc237 = loc("p236.1811")
#loc238 = loc("p237.1820")
#loc239 = loc("p238.1824")
#loc240 = loc("p239.1832")
#loc241 = loc("p240.1836")
#loc242 = loc("p241.1842")
#loc243 = loc("p242.1847")
#loc244 = loc("p243.1856")
#loc245 = loc("p244.1860")
#loc246 = loc("p245.1866")
#loc247 = loc("p246.1870")
#loc248 = loc("p247.1876")
#loc249 = loc("p248.1881")
#loc250 = loc("p249.1890")
#loc251 = loc("p250.1894")
#loc252 = loc("p251.1902")
#loc253 = loc("p252.1906")
#loc254 = loc("p253.1912")
#loc255 = loc("p254.1917")
#loc256 = loc("p255.1926")
#loc257 = loc("p256.1930")
#loc258 = loc("p257.1936")
#loc259 = loc("p258.1940")
#loc260 = loc("p259.1946")
#loc261 = loc("p260.1951")
#loc262 = loc("p261.1960")
#loc263 = loc("p262.1964")
#loc264 = loc("p263.1972")
#loc265 = loc("p264.1976")
#loc266 = loc("p265.1982")
#loc267 = loc("p266.1987")
#loc268 = loc("p267.1996")
#loc269 = loc("p268.2000")
#loc270 = loc("p269.2006")
#loc271 = loc("p270.2010")
#loc272 = loc("p271.2016")
#loc273 = loc("p272.2021")
#loc274 = loc("p273.2030")
#loc275 = loc("p274.2034")
#loc276 = loc("p275.2042")
#loc277 = loc("p276.2046")
#loc278 = loc("p277.2052")
#loc279 = loc("p278.2057")
#loc280 = loc("p279.2066")
#loc281 = loc("p280.2070")
#loc282 = loc("p281.2076")
#loc283 = loc("p282.2080")
#loc284 = loc("p283.2086")
#loc285 = loc("p284.2091")
#loc286 = loc("p285.2100")
#loc287 = loc("p286.2104")
#loc288 = loc("p287.2112")
#loc289 = loc("p288.2116")
#loc290 = loc("p289.2122")
#loc291 = loc("p290.2127")
#loc292 = loc("p291.2136")
#loc293 = loc("p292.2140")
#loc294 = loc("p293.2146")
#loc295 = loc("p294.2150")
#loc296 = loc("p295.2156")
#loc297 = loc("p296.2161")
#loc298 = loc("p297.2170")
#loc299 = loc("p298.2174")
#loc300 = loc("p299.2182")
#loc301 = loc("p300.2186")
#loc302 = loc("p301.2192")
#loc303 = loc("p302.2197")
#loc304 = loc("p303.2206")
#loc305 = loc("p304.2210")
#loc306 = loc("p305.2216")
#loc307 = loc("p306.2220")
#loc308 = loc("p307.2226")
#loc309 = loc("p308.2231")
#loc310 = loc("p309.2240")
#loc311 = loc("p310.2244")
#loc312 = loc("p311.2252")
#loc313 = loc("p312.2256")
#loc314 = loc("p313.2262")
#loc315 = loc("p314.2267")
#loc316 = loc("p315.2276")
#loc317 = loc("p316.2280")
#loc318 = loc("p317.2286")
#loc319 = loc("p318.2290")
#loc320 = loc("p319.2296")
#loc321 = loc("p320.2301")
#loc322 = loc("p321.2310")
#loc323 = loc("p322.2314")
#loc324 = loc("p323.2322")
#loc325 = loc("p324.2326")
#loc326 = loc("p325.2332")
#loc327 = loc("p326.2337")
#loc328 = loc("p327.2346")
#loc329 = loc("p328.2350")
#loc330 = loc("p329.2356")
#loc331 = loc("p330.2360")
#loc332 = loc("p331.2366")
#loc333 = loc("p332.2371")
#loc334 = loc("p333.2380")
#loc335 = loc("p334.2384")
#loc336 = loc("p335.2392")
#loc337 = loc("p336.2396")
#loc338 = loc("p337.2402")
#loc339 = loc("p338.2407")
#loc340 = loc("p339.2416")
#loc341 = loc("p340.2420")
#loc342 = loc("p341.2426")
#loc343 = loc("p342.2430")
#loc344 = loc("p343.2436")
#loc345 = loc("p344.2441")
#loc346 = loc("p345.2450")
#loc347 = loc("p346.2454")
#loc348 = loc("p347.2462")
#loc349 = loc("p348.2466")
#loc350 = loc("p349.2472")
#loc351 = loc("p350.2477")
#loc352 = loc("p351.2486")
#loc353 = loc("p352.2490")
#loc354 = loc("p353.2496")
#loc355 = loc("p354.2500")
#loc356 = loc("p355.2506")
#loc357 = loc("p356.2511")
#loc358 = loc("p357.2520")
#loc359 = loc("p358.2524")
#loc360 = loc("p359.2532")
#loc361 = loc("p360.2536")
#loc362 = loc("p361.2542")
#loc363 = loc("p362.2547")
#loc364 = loc("p363.2556")
#loc365 = loc("p364.2560")
#loc366 = loc("p365.2566")
#loc367 = loc("p366.2570")
#loc368 = loc("p367.2576")
#loc369 = loc("p368.2581")
#loc370 = loc("p369.2590")
#loc371 = loc("p370.2594")
#loc372 = loc("p371.2602")
#loc373 = loc("p372.2606")
#loc374 = loc("p373.2612")
#loc375 = loc("p374.2617")
#loc376 = loc("p375.2626")
#loc377 = loc("p376.2630")
#loc378 = loc("p377.2636")
#loc379 = loc("p378.2640")
#loc380 = loc("p379.2646")
#loc381 = loc("p380.2651")
#loc382 = loc("p381.2660")
#loc383 = loc("p382.2664")
#loc384 = loc("p383.2672")
#loc385 = loc("p384.2676")
#loc386 = loc("p385.2682")
#loc387 = loc("p386.2687")
#loc388 = loc("p387.2696")
#loc389 = loc("p388.2700")
#loc390 = loc("p389.2706")
#loc391 = loc("p390.2710")
#loc392 = loc("p391.2716")
#loc393 = loc("p392.2721")
#loc394 = loc("p393.2730")
#loc395 = loc("p394.2734")
#loc396 = loc("p395.2742")
#loc397 = loc("p396.2746")
#loc398 = loc("p397.2752")
#loc399 = loc("p398.2757")
#loc400 = loc("p399.2766")
#loc401 = loc("p400.2770")
#loc402 = loc("p401.2776")
#loc403 = loc("p402.2780")
#loc404 = loc("p403.2786")
#loc405 = loc("p404.2791")
#loc406 = loc("p405.2800")
#loc407 = loc("p406.2804")
#loc408 = loc("p407.2812")
#loc409 = loc("p408.2816")
#loc410 = loc("p409.2822")
#loc411 = loc("p410.2827")
#loc412 = loc("p411.2836")
#loc413 = loc("p412.2840")
#loc414 = loc("p413.2846")
#loc415 = loc("p414.2850")
#loc416 = loc("p415.2856")
#loc417 = loc("p416.2861")
#loc418 = loc("p417.2870")
#loc419 = loc("p418.2874")
#loc420 = loc("p419.2882")
#loc421 = loc("p420.2886")
#loc422 = loc("p421.2892")
#loc423 = loc("p422.2897")
#loc424 = loc("p423.2906")
#loc425 = loc("p424.2910")
#loc426 = loc("p425.2916")
#loc427 = loc("p426.2920")
#loc428 = loc("p427.2926")
#loc429 = loc("p428.2931")
#loc430 = loc("p429.2940")
#loc431 = loc("p430.2944")
#loc432 = loc("p431.2952")
#loc433 = loc("p432.2956")
#loc434 = loc("p433.2962")
#loc435 = loc("p434.2967")
#loc436 = loc("p435.2976")
#loc437 = loc("p436.2980")
#loc438 = loc("p437.2986")
#loc439 = loc("p438.2990")
#loc440 = loc("p439.2996")
#loc441 = loc("p440.3001")
#loc442 = loc("p441.3010")
#loc443 = loc("p442.3014")
#loc444 = loc("p443.3022")
#loc445 = loc("p444.3026")
#loc446 = loc("p445.3032")
#loc447 = loc("p446.3037")
#loc448 = loc("p447.3046")
#loc449 = loc("p448.3050")
#loc450 = loc("p449.3056")
#loc451 = loc("p450.3060")
#loc452 = loc("p451.3066")
#loc453 = loc("p452.3071")
#loc454 = loc("p453.3079")
#loc455 = loc("p454.3084")
#loc456 = loc("p455.3091")
#loc457 = loc("p456.3095")
#loc458 = loc("p457.3097")
#loc459 = loc("p458.3196")
#loc460 = loc("p459.3200")
#loc461 = loc("p460.3216")
#loc462 = loc("p461.3220")
#loc463 = loc("p462.3469")
#loc464 = loc("p463.3473")
#loc465 = loc("p464.3489")
#loc466 = loc("p465.3493")
#loc467 = loc("p466.3742")
#loc468 = loc("p467.3746")
#loc469 = loc("p468.3762")
#loc470 = loc("p469.3766")
#loc471 = loc("p470.4015")
#loc472 = loc("p471.4019")
#loc473 = loc("p472.4035")
#loc474 = loc("p473.4039")
#loc475 = loc("p474.4288")
#loc476 = loc("p475.4292")
#loc477 = loc("p476.4308")
#loc478 = loc("p477.4312")
#loc479 = loc("p478.4561")
#loc480 = loc("p479.4565")
#loc481 = loc("p480.4581")
#loc482 = loc("p481.4585")
#loc483 = loc("p482.4834")
#loc484 = loc("p483.4838")
#loc485 = loc("p484.4854")
#loc486 = loc("p485.4858")
#loc487 = loc("p486.5107")
#loc488 = loc("p487.5111")
#loc489 = loc("p488.5127")
#loc490 = loc("p489.5131")
#loc491 = loc("p490.5380")
#loc492 = loc("p491.5384")
#loc493 = loc("p492.5400")
#loc494 = loc("p493.5404")
#loc495 = loc("p494.5653")
#loc496 = loc("p495.5657")
#loc497 = loc("p496.5673")
#loc498 = loc("p497.5677")
#loc499 = loc("p498.5926")
#loc500 = loc("p499.5930")
#loc501 = loc("p500.5946")
#loc502 = loc("p501.5950")
#loc503 = loc("p502.6199")
#loc504 = loc("p503.6203")
#loc505 = loc("p504.6219")
#loc506 = loc("p505.6223")
#loc507 = loc("p506.6472")
#loc508 = loc("p507.6476")
#loc509 = loc("p508.6492")
#loc510 = loc("p509.6496")
#loc511 = loc("p510.6745")
#loc512 = loc("p511.6749")
#loc513 = loc("p512.6765")
#loc514 = loc("p513.6769")
#loc515 = loc("p514.7018")
#loc516 = loc("p515.7022")
#loc517 = loc("p516.7038")
#loc518 = loc("p517.7042")
#loc519 = loc("p518.7291")
#loc520 = loc("p519.7295")
#loc521 = loc("p520.7311")
#loc522 = loc("p521.7315")
#loc523 = loc("p522.7564")
#loc524 = loc("p523.7568")
#loc525 = loc("p524.7584")
#loc526 = loc("p525.7588")
#loc527 = loc("p526.7837")
#loc528 = loc("p527.7841")
#loc529 = loc("p528.7857")
#loc530 = loc("p529.7861")
#loc531 = loc("p530.8110")
#loc532 = loc("p531.8114")
#loc533 = loc("p532.8130")
#loc534 = loc("p533.8134")
#loc535 = loc("p534.8383")
#loc536 = loc("p535.8387")
#loc537 = loc("p536.8403")
#loc538 = loc("p537.8407")
#loc539 = loc("p538.8656")
#loc540 = loc("p539.8660")
#loc541 = loc("p540.8676")
#loc542 = loc("p541.8680")
#loc543 = loc("p542.8929")
#loc544 = loc("p543.8933")
#loc545 = loc("p544.8949")
#loc546 = loc("p545.8953")
#loc547 = loc("p546.9202")
#loc548 = loc("p547.9206")
#loc549 = loc("p548.9222")
#loc550 = loc("p549.9226")
#loc551 = loc("p550.9475")
#loc552 = loc("p551.9479")
#loc553 = loc("p552.9495")
#loc554 = loc("p553.9499")
#loc555 = loc("p554.9748")
#loc556 = loc("p555.9752")
#loc557 = loc("p556.9768")
#loc558 = loc("p557.9772")
#loc559 = loc("p558.10021")
#loc560 = loc("p559.10025")
#loc561 = loc("p560.10041")
#loc562 = loc("p561.10045")
#loc563 = loc("p562.10294")
#loc564 = loc("p563.10298")
#loc565 = loc("p564.10314")
#loc566 = loc("p565.10318")
#loc567 = loc("p566.11169")
#loc568 = loc("p567.18809")
#loc569 = loc("p568.25897")
#loc570 = loc("p569.25912")
#loc571 = loc("p570.25931")
#loc572 = loc("p571.25935")
#loc573 = loc("p572.25943")
#loc574 = loc("p573.25951")
#loc575 = loc("p574.26001")
#loc576 = loc("p575.26016")
#loc577 = loc("p576.26057")
#loc578 = loc("p577.26072")
#loc579 = loc("p578.26104")
#loc580 = loc("p579.26197")
#loc581 = loc("p580.26264")
#loc582 = loc("p581.26271")
#loc583 = loc("p582.26282")
#loc584 = loc("p583.26287")
#loc585 = loc("p584.26294")
#loc586 = loc("p585.26305")
#loc587 = loc("p586.26335")
#loc588 = loc("p587.26366")
#loc589 = loc("p588.26459")
#loc590 = loc("p589.26536")
#loc591 = loc("p590.26558")
#loc592 = loc("p591.26586")
#loc593 = loc("p592.26679")
#loc594 = loc("p593.26746")
#loc595 = loc("p594.26753")
#loc596 = loc("p595.26764")
#loc597 = loc("p596.26769")
#loc598 = loc("p597.26776")
#loc599 = loc("p598.26787")
#loc600 = loc("p599.26806")
#loc601 = loc("p600.26899")
#loc602 = loc("p601.26976")
#loc603 = loc("p602.26998")
#loc604 = loc("p603.27026")
#loc605 = loc("p604.27119")
#loc606 = loc("p605.27186")
#loc607 = loc("p606.27193")
#loc608 = loc("p607.27204")
#loc609 = loc("p608.27209")
#loc610 = loc("p609.27216")
#loc611 = loc("p610.27227")
#loc612 = loc("p611.27246")
#loc613 = loc("p612.27339")
#loc614 = loc("p613.27416")
#loc615 = loc("p614.27438")
#loc616 = loc("p615.27466")
#loc617 = loc("p616.27559")
#loc618 = loc("p617.27626")
#loc619 = loc("p618.27633")
#loc620 = loc("p619.27644")
#loc621 = loc("p620.27649")
#loc622 = loc("p621.27656")
#loc623 = loc("p622.27667")
#loc624 = loc("p623.27686")
#loc625 = loc("p624.27779")
#loc626 = loc("p625.27856")
#loc627 = loc("p626.27878")
#loc628 = loc("p627.27906")
#loc629 = loc("p628.27999")
#loc630 = loc("p629.28066")
#loc631 = loc("p630.28073")
#loc632 = loc("p631.28084")
#loc633 = loc("p632.28089")
#loc634 = loc("p633.28096")
#loc635 = loc("p634.28107")
#loc636 = loc("p635.28126")
#loc637 = loc("p636.28219")
#loc638 = loc("p637.28296")
#loc639 = loc("p638.28318")
#loc640 = loc("p639.28346")
#loc641 = loc("p640.28439")
#loc642 = loc("p641.28506")
#loc643 = loc("p642.28513")
#loc644 = loc("p643.28524")
#loc645 = loc("p644.28529")
#loc646 = loc("p645.28536")
#loc647 = loc("p646.28547")
#loc648 = loc("p647.28566")
#loc649 = loc("p648.28659")
#loc650 = loc("p649.28736")
#loc651 = loc("p650.28758")
#loc652 = loc("p651.28786")
#loc653 = loc("p652.28879")
#loc654 = loc("p653.28946")
#loc655 = loc("p654.28953")
#loc656 = loc("p655.28964")
#loc657 = loc("p656.28969")
#loc658 = loc("p657.28976")
#loc659 = loc("p658.28987")
#loc660 = loc("p659.29006")
#loc661 = loc("p660.29099")
#loc662 = loc("p661.29176")
#loc663 = loc("p662.29198")
#loc664 = loc("p663.29226")
#loc665 = loc("p664.29319")
#loc666 = loc("p665.29386")
#loc667 = loc("p666.29393")
#loc668 = loc("p667.29404")
#loc669 = loc("p668.29409")
#loc670 = loc("p669.29416")
#loc671 = loc("p670.29427")
#loc672 = loc("p671.29446")
#loc673 = loc("p672.29539")
#loc674 = loc("p673.29616")
#loc675 = loc("p674.29638")
#loc676 = loc("p675.29666")
#loc677 = loc("p676.29759")
#loc678 = loc("p677.29826")
#loc679 = loc("p678.29833")
#loc680 = loc("p679.29844")
#loc681 = loc("p680.29849")
#loc682 = loc("p681.29856")
#loc683 = loc("p682.29867")
#loc684 = loc("p683.29886")
#loc685 = loc("p684.29979")
#loc686 = loc("p685.30056")
#loc687 = loc("p686.30078")
#loc688 = loc("p687.30106")
#loc689 = loc("p688.30199")
#loc690 = loc("p689.30266")
#loc691 = loc("p690.30273")
#loc692 = loc("p691.30284")
#loc693 = loc("p692.30289")
#loc694 = loc("p693.30296")
#loc695 = loc("p694.30307")
#loc696 = loc("p695.30326")
#loc697 = loc("p696.30419")
#loc698 = loc("p697.30496")
#loc699 = loc("p698.30518")
#loc700 = loc("p699.30546")
#loc701 = loc("p700.30639")
#loc702 = loc("p701.30706")
#loc703 = loc("p702.30713")
#loc704 = loc("p703.30724")
#loc705 = loc("p704.30729")
#loc706 = loc("p705.30736")
#loc707 = loc("p706.30747")
#loc708 = loc("p707.30766")
#loc709 = loc("p708.30859")
#loc710 = loc("p709.30936")
#loc711 = loc("p710.30958")
#loc712 = loc("p711.30986")
#loc713 = loc("p712.31079")
#loc714 = loc("p713.31146")
#loc715 = loc("p714.31153")
#loc716 = loc("p715.31164")
#loc717 = loc("p716.31169")
#loc718 = loc("p717.31176")
#loc719 = loc("p718.31187")
#loc720 = loc("p719.31206")
#loc721 = loc("p720.31299")
#loc722 = loc("p721.31376")
#loc723 = loc("p722.31398")
#loc724 = loc("p723.31426")
#loc725 = loc("p724.31519")
#loc726 = loc("p725.31586")
#loc727 = loc("p726.31593")
#loc728 = loc("p727.31604")
#loc729 = loc("p728.31609")
#loc730 = loc("p729.31616")
#loc731 = loc("p730.31627")
#loc732 = loc("p731.31646")
#loc733 = loc("p732.31739")
#loc734 = loc("p733.31816")
#loc735 = loc("p734.31838")
#loc736 = loc("p735.31866")
#loc737 = loc("p736.31959")
#loc738 = loc("p737.32026")
#loc739 = loc("p738.32033")
#loc740 = loc("p739.32044")
#loc741 = loc("p740.32049")
#loc742 = loc("p741.32056")
#loc743 = loc("p742.32067")
#loc744 = loc("p743.32086")
#loc745 = loc("p744.32179")
#loc746 = loc("p745.32256")
#loc747 = loc("p746.32278")
#loc748 = loc("p747.32306")
#loc749 = loc("p748.32399")
#loc750 = loc("p749.32466")
#loc751 = loc("p750.32473")
#loc752 = loc("p751.32484")
#loc753 = loc("p752.32489")
#loc754 = loc("p753.32496")
#loc755 = loc("p754.32507")
#loc756 = loc("p755.32526")
#loc757 = loc("p756.32619")
#loc758 = loc("p757.32696")
#loc759 = loc("p758.32718")
#loc760 = loc("p759.32746")
#loc761 = loc("p760.32839")
#loc762 = loc("p761.32906")
#loc763 = loc("p762.32913")
#loc764 = loc("p763.32924")
#loc765 = loc("p764.32929")
#loc766 = loc("p765.32936")
#loc767 = loc("p766.32947")
#loc768 = loc("p767.32966")
#loc769 = loc("p768.33059")
#loc770 = loc("p769.33136")
#loc771 = loc("p770.33158")
#loc772 = loc("p771.33186")
#loc773 = loc("p772.33279")
#loc774 = loc("p773.33346")
#loc775 = loc("p774.33353")
#loc776 = loc("p775.33364")
#loc777 = loc("p776.33369")
#loc778 = loc("p777.33376")
#loc779 = loc("p778.33387")
#loc780 = loc("p779.33406")
#loc781 = loc("p780.33499")
#loc782 = loc("p781.33576")
#loc783 = loc("p782.33598")
#loc784 = loc("p783.33626")
#loc785 = loc("p784.33719")
module @SyncTensorsGraph.33801 attributes {mhlo.cross_program_prefetches = [], mhlo.input_output_alias = [], mhlo.is_dynamic = false, mhlo.use_auto_spmd_partitioning = false, ttcore.meshes = #ttcore.meshes<[<"mesh" = 1x1>]>} {
  ttcore.device_module {
    builtin.module @SyncTensorsGraph.33801 attributes {mhlo.cross_program_prefetches = [], mhlo.input_output_alias = [], mhlo.is_dynamic = false, mhlo.use_auto_spmd_partitioning = false, ttcore.meshes = #ttcore.meshes<[<"mesh" = 1x1>]>} {
      func.func @main(%arg0: tensor<1024xf32> {ttcore.argument_type = #ttcore.argument_type<parameter>, ttcore.local_shape = #ttcore<local_shape local_shape = tensor<1024xf32>>, ttcore.shard_status = #ttcore.shard_status<unsharded>, ttir.name = "L__self___bracket_core_state_proj.bias"} loc("p0.72"), %arg1: tensor<1024x32xf32> {ttcore.argument_type = #ttcore.argument_type<parameter>, ttcore.local_shape = #ttcore<local_shape local_shape = tensor<1024x32xf32>>, ttcore.shard_status = #ttcore.shard_status<unsharded>, ttir.name = "L__self___bracket_core_state_proj.weight"} loc("p1.79"), %arg2: tensor<1x32xf32> {ttcore.argument_type = #ttcore.argument_type<input>, ttcore.local_shape = #ttcore<local_shape local_shape = tensor<1x32xf32>>, ttcore.shard_status = #ttcore.shard_status<unsharded>, ttir.name = "args_0"} loc("p2.84"), %arg3: tensor<1024x32xf32> {ttcore.argument_type = #ttcore.argument_type<parameter>, ttcore.local_shape = #ttcore<local_shape local_shape = tensor<1024x32xf32>>, ttcore.shard_status = #ttcore.shard_status<unsharded>, ttir.name = "L__self___bracket_core_action_in_proj.weight"} loc("p3.109"), %arg4: tensor<32xf32> {ttcore.argument_type = #ttcore.argument_type<parameter>, ttcore.local_shape = #ttcore<local_shape local_shape = tensor<32xf32>>, ttcore.shard_status = #ttcore.shard_status<unsharded>, ttir.name = "L__self___bracket_core_action_out_proj.bias"} loc("p4.117"), %arg5: tensor<32x1024xf32> {ttcore.argument_type = #ttcore.argument_type<parameter>, ttcore.local_shape = #ttcore<local_shape local_shape = tensor<32x1024xf32>>, ttcore.shard_status = #ttcore.shard_status<unsharded>, ttir.name = "L__self___bracket_core_action_out_proj.weight"} loc("p5.121"), %arg6: tensor<1024xf32> {ttcore.argument_type = #ttcore.argument_type<parameter>, ttcore.local_shape = #ttcore<local_shape local_shape = tensor<1024xf32>>, ttcore.shard_status = #ttcore.shard_status<unsharded>, ttir.name = "L__self___bracket_core_paligemma_with_expert_gemma_expert_model_norm_weight"} loc("p6.128"), %arg7: tensor<1024x4096xf32> {ttcore.argument_type = #ttcore.argument_type<parameter>, ttcore.local_shape = #ttcore<local_shape local_shape = tensor<1024x4096xf32>>, ttcore.shard_status = #ttcore.shard_status<unsharded>, ttir.name = "L__self___bracket_core_paligemma_with_expert_gemma_expert_model_layers_17_mlp_down_proj.weight"} loc("p7.139"), %arg8: tensor<4096x1024xf32> {ttcore.argument_type = #ttcore.argument_type<parameter>, ttcore.local_shape = #ttcore<local_shape local_shape = tensor<4096x1024xf32>>, ttcore.shard_status = #ttcore.shard_status<unsharded>, ttir.name = "L__self___bracket_core_paligemma_with_expert_gemma_expert_model_layers_17_mlp_up_proj.weight"} loc("p8.144"), %arg9: tensor<1024xf32> {ttcore.argument_type = #ttcore.argument_type<parameter>, ttcore.local_shape = #ttcore<local_shape local_shape = tensor<1024xf32>>, ttcore.shard_status = #ttcore.shard_status<unsharded>, ttir.name = "L__self___bracket_core_paligemma_with_expert_gemma_expert_model_layers_17_post_attention_layernorm_weight"} loc("p9.151"), %arg10: tensor<1024x2048xf32> {ttcore.argument_type = #ttcore.argument_type<parameter>, ttcore.local_shape = #ttcore<local_shape local_shape = tensor<1024x2048xf32>>, ttcore.shard_status = #ttcore.shard_status<unsharded>, ttir.name = "L__self___bracket_core_paligemma_with_expert_gemma_expert_model_layers_17_self_attn_o_proj.weight"} loc("p10.162"), %arg11: tensor<256x1024xf32> {ttcore.argument_type = #ttcore.argument_type<parameter>, ttcore.local_shape = #ttcore<local_shape local_shape = tensor<256x1024xf32>>, ttcore.shard_status = #ttcore.shard_status<unsharded>, ttir.name = "L__self___bracket_core_paligemma_with_expert_gemma_expert_model_layers_17_self_attn_v_proj.weight"} loc("p11.167"), %arg12: tensor<1024xf32> {ttcore.argument_type = #ttcore.argument_type<parameter>, ttcore.local_shape = #ttcore<local_shape local_shape = tensor<1024xf32>>, ttcore.shard_status = #ttcore.shard_status<unsharded>, ttir.name = "L__self___bracket_core_paligemma_with_expert_gemma_expert_model_layers_17_input_layernorm_weight"} loc("p12.174"), %arg13: tensor<1024x4096xf32> {ttcore.argument_type = #ttcore.argument_type<parameter>, ttcore.local_shape = #ttcore<local_shape local_shape = tensor<1024x4096xf32>>, ttcore.shard_status = #ttcore.shard_status<unsharded>, ttir.name = "L__self___bracket_core_paligemma_with_expert_gemma_expert_model_layers_16_mlp_down_proj.weight"} loc("p13.185"), %arg14: tensor<4096x1024xf32> {ttcore.argument_type = #ttcore.argument_type<parameter>, ttcore.local_shape = #ttcore<local_shape local_shape = tensor<4096x1024xf32>>, ttcore.shard_status = #ttcore.shard_status<unsharded>, ttir.name = "L__self___bracket_core_paligemma_with_expert_gemma_expert_model_layers_16_mlp_up_proj.weight"} loc("p14.190"), %arg15: tensor<1024xf32> {ttcore.argument_type = #ttcore.argument_type<parameter>, ttcore.local_shape = #ttcore<local_shape local_shape = tensor<1024xf32>>, ttcore.shard_status = #ttcore.shard_status<unsharded>, ttir.name = "L__self___bracket_core_paligemma_with_expert_gemma_expert_model_layers_16_post_attention_layernorm_weight"} loc("p15.197"), %arg16: tensor<1024x2048xf32> {ttcore.argument_type = #ttcore.argument_type<parameter>, ttcore.local_shape = #ttcore<local_shape local_shape = tensor<1024x2048xf32>>, ttcore.shard_status = #ttcore.shard_status<unsharded>, ttir.name = "L__self___bracket_core_paligemma_with_expert_gemma_expert_model_layers_16_self_attn_o_proj.weight"} loc("p16.208"), %arg17: tensor<256x1024xf32> {ttcore.argument_type = #ttcore.argument_type<parameter>, ttcore.local_shape = #ttcore<local_shape local_shape = tensor<256x1024xf32>>, ttcore.shard_status = #ttcore.shard_status<unsharded>, ttir.name = "L__self___bracket_core_paligemma_with_expert_gemma_expert_model_layers_16_self_attn_v_proj.weight"} loc("p17.213"), %arg18: tensor<1024xf32> {ttcore.argument_type = #ttcore.argument_type<parameter>, ttcore.local_shape = #ttcore<local_shape local_shape = tensor<1024xf32>>, ttcore.shard_status = #ttcore.shard_status<unsharded>, ttir.name = "L__self___bracket_core_paligemma_with_expert_gemma_expert_model_layers_16_input_layernorm_weight"} loc("p18.220"), %arg19: tensor<1024x4096xf32> {ttcore.argument_type = #ttcore.argument_type<parameter>, ttcore.local_shape = #ttcore<local_shape local_shape = tensor<1024x4096xf32>>, ttcore.shard_status = #ttcore.shard_status<unsharded>, ttir.name = "L__self___bracket_core_paligemma_with_expert_gemma_expert_model_layers_15_mlp_down_proj.weight"} loc("p19.231"), %arg20: tensor<4096x1024xf32> {ttcore.argument_type = #ttcore.argument_type<parameter>, ttcore.local_shape = #ttcore<local_shape local_shape = tensor<4096x1024xf32>>, ttcore.shard_status = #ttcore.shard_status<unsharded>, ttir.name = "L__self___bracket_core_paligemma_with_expert_gemma_expert_model_layers_15_mlp_up_proj.weight"} loc("p20.236"), %arg21: tensor<1024xf32> {ttcore.argument_type = #ttcore.argument_type<parameter>, ttcore.local_shape = #ttcore<local_shape local_shape = tensor<1024xf32>>, ttcore.shard_status = #ttcore.shard_status<unsharded>, ttir.name = "L__self___bracket_core_paligemma_with_expert_gemma_expert_model_layers_15_post_attention_layernorm_weight"} loc("p21.243"), %arg22: tensor<1024x2048xf32> {ttcore.argument_type = #ttcore.argument_type<parameter>, ttcore.local_shape = #ttcore<local_shape local_shape = tensor<1024x2048xf32>>, ttcore.shard_status = #ttcore.shard_status<unsharded>, ttir.name = "L__self___bracket_core_paligemma_with_expert_gemma_expert_model_layers_15_self_attn_o_proj.weight"} loc("p22.254"), %arg23: tensor<256x1024xf32> {ttcore.argument_type = #ttcore.argument_type<parameter>, ttcore.local_shape = #ttcore<local_shape local_shape = tensor<256x1024xf32>>, ttcore.shard_status = #ttcore.shard_status<unsharded>, ttir.name = "L__self___bracket_core_paligemma_with_expert_gemma_expert_model_layers_15_self_attn_v_proj.weight"} loc("p23.259"), %arg24: tensor<1024xf32> {ttcore.argument_type = #ttcore.argument_type<parameter>, ttcore.local_shape = #ttcore<local_shape local_shape = tensor<1024xf32>>, ttcore.shard_status = #ttcore.shard_status<unsharded>, ttir.name = "L__self___bracket_core_paligemma_with_expert_gemma_expert_model_layers_15_input_layernorm_weight"} loc("p24.266"), %arg25: tensor<1024x4096xf32> {ttcore.argument_type = #ttcore.argument_type<parameter>, ttcore.local_shape = #ttcore<local_shape local_shape = tensor<1024x4096xf32>>, ttcore.shard_status = #ttcore.shard_status<unsharded>, ttir.name = "L__self___bracket_core_paligemma_with_expert_gemma_expert_model_layers_14_mlp_down_proj.weight"} loc("p25.277"), %arg26: tensor<4096x1024xf32> {ttcore.argument_type = #ttcore.argument_type<parameter>, ttcore.local_shape = #ttcore<local_shape local_shape = tensor<4096x1024xf32>>, ttcore.shard_status = #ttcore.shard_status<unsharded>, ttir.name = "L__self___bracket_core_paligemma_with_expert_gemma_expert_model_layers_14_mlp_up_proj.weight"} loc("p26.282"), %arg27: tensor<1024xf32> {ttcore.argument_type = #ttcore.argument_type<parameter>, ttcore.local_shape = #ttcore<local_shape local_shape = tensor<1024xf32>>, ttcore.shard_status = #ttcore.shard_status<unsharded>, ttir.name = "L__self___bracket_core_paligemma_with_expert_gemma_expert_model_layers_14_post_attention_layernorm_weight"} loc("p27.289"), %arg28: tensor<1024x2048xf32> {ttcore.argument_type = #ttcore.argument_type<parameter>, ttcore.local_shape = #ttcore<local_shape local_shape = tensor<1024x2048xf32>>, ttcore.shard_status = #ttcore.shard_status<unsharded>, ttir.name = "L__self___bracket_core_paligemma_with_expert_gemma_expert_model_layers_14_self_attn_o_proj.weight"} loc("p28.300"), %arg29: tensor<256x1024xf32> {ttcore.argument_type = #ttcore.argument_type<parameter>, ttcore.local_shape = #ttcore<local_shape local_shape = tensor<256x1024xf32>>, ttcore.shard_status = #ttcore.shard_status<unsharded>, ttir.name = "L__self___bracket_core_paligemma_with_expert_gemma_expert_model_layers_14_self_attn_v_proj.weight"} loc("p29.305"), %arg30: tensor<1024xf32> {ttcore.argument_type = #ttcore.argument_type<parameter>, ttcore.local_shape = #ttcore<local_shape local_shape = tensor<1024xf32>>, ttcore.shard_status = #ttcore.shard_status<unsharded>, ttir.name = "L__self___bracket_core_paligemma_with_expert_gemma_expert_model_layers_14_input_layernorm_weight"} loc("p30.312"), %arg31: tensor<1024x4096xf32> {ttcore.argument_type = #ttcore.argument_type<parameter>, ttcore.local_shape = #ttcore<local_shape local_shape = tensor<1024x4096xf32>>, ttcore.shard_status = #ttcore.shard_status<unsharded>, ttir.name = "L__self___bracket_core_paligemma_with_expert_gemma_expert_model_layers_13_mlp_down_proj.weight"} loc("p31.323"), %arg32: tensor<4096x1024xf32> {ttcore.argument_type = #ttcore.argument_type<parameter>, ttcore.local_shape = #ttcore<local_shape local_shape = tensor<4096x1024xf32>>, ttcore.shard_status = #ttcore.shard_status<unsharded>, ttir.name = "L__self___bracket_core_paligemma_with_expert_gemma_expert_model_layers_13_mlp_up_proj.weight"} loc("p32.328"), %arg33: tensor<1024xf32> {ttcore.argument_type = #ttcore.argument_type<parameter>, ttcore.local_shape = #ttcore<local_shape local_shape = tensor<1024xf32>>, ttcore.shard_status = #ttcore.shard_status<unsharded>, ttir.name = "L__self___bracket_core_paligemma_with_expert_gemma_expert_model_layers_13_post_attention_layernorm_weight"} loc("p33.335"), %arg34: tensor<1024x2048xf32> {ttcore.argument_type = #ttcore.argument_type<parameter>, ttcore.local_shape = #ttcore<local_shape local_shape = tensor<1024x2048xf32>>, ttcore.shard_status = #ttcore.shard_status<unsharded>, ttir.name = "L__self___bracket_core_paligemma_with_expert_gemma_expert_model_layers_13_self_attn_o_proj.weight"} loc("p34.346"), %arg35: tensor<256x1024xf32> {ttcore.argument_type = #ttcore.argument_type<parameter>, ttcore.local_shape = #ttcore<local_shape local_shape = tensor<256x1024xf32>>, ttcore.shard_status = #ttcore.shard_status<unsharded>, ttir.name = "L__self___bracket_core_paligemma_with_expert_gemma_expert_model_layers_13_self_attn_v_proj.weight"} loc("p35.351"), %arg36: tensor<1024xf32> {ttcore.argument_type = #ttcore.argument_type<parameter>, ttcore.local_shape = #ttcore<local_shape local_shape = tensor<1024xf32>>, ttcore.shard_status = #ttcore.shard_status<unsharded>, ttir.name = "L__self___bracket_core_paligemma_with_expert_gemma_expert_model_layers_13_input_layernorm_weight"} loc("p36.358"), %arg37: tensor<1024x4096xf32> {ttcore.argument_type = #ttcore.argument_type<parameter>, ttcore.local_shape = #ttcore<local_shape local_shape = tensor<1024x4096xf32>>, ttcore.shard_status = #ttcore.shard_status<unsharded>, ttir.name = "L__self___bracket_core_paligemma_with_expert_gemma_expert_model_layers_12_mlp_down_proj.weight"} loc("p37.369"), %arg38: tensor<4096x1024xf32> {ttcore.argument_type = #ttcore.argument_type<parameter>, ttcore.local_shape = #ttcore<local_shape local_shape = tensor<4096x1024xf32>>, ttcore.shard_status = #ttcore.shard_status<unsharded>, ttir.name = "L__self___bracket_core_paligemma_with_expert_gemma_expert_model_layers_12_mlp_up_proj.weight"} loc("p38.374"), %arg39: tensor<1024xf32> {ttcore.argument_type = #ttcore.argument_type<parameter>, ttcore.local_shape = #ttcore<local_shape local_shape = tensor<1024xf32>>, ttcore.shard_status = #ttcore.shard_status<unsharded>, ttir.name = "L__self___bracket_core_paligemma_with_expert_gemma_expert_model_layers_12_post_attention_layernorm_weight"} loc("p39.381"), %arg40: tensor<1024x2048xf32> {ttcore.argument_type = #ttcore.argument_type<parameter>, ttcore.local_shape = #ttcore<local_shape local_shape = tensor<1024x2048xf32>>, ttcore.shard_status = #ttcore.shard_status<unsharded>, ttir.name = "L__self___bracket_core_paligemma_with_expert_gemma_expert_model_layers_12_self_attn_o_proj.weight"} loc("p40.392"), %arg41: tensor<256x1024xf32> {ttcore.argument_type = #ttcore.argument_type<parameter>, ttcore.local_shape = #ttcore<local_shape local_shape = tensor<256x1024xf32>>, ttcore.shard_status = #ttcore.shard_status<unsharded>, ttir.name = "L__self___bracket_core_paligemma_with_expert_gemma_expert_model_layers_12_self_attn_v_proj.weight"} loc("p41.397"), %arg42: tensor<1024xf32> {ttcore.argument_type = #ttcore.argument_type<parameter>, ttcore.local_shape = #ttcore<local_shape local_shape = tensor<1024xf32>>, ttcore.shard_status = #ttcore.shard_status<unsharded>, ttir.name = "L__self___bracket_core_paligemma_with_expert_gemma_expert_model_layers_12_input_layernorm_weight"} loc("p42.404"), %arg43: tensor<1024x4096xf32> {ttcore.argument_type = #ttcore.argument_type<parameter>, ttcore.local_shape = #ttcore<local_shape local_shape = tensor<1024x4096xf32>>, ttcore.shard_status = #ttcore.shard_status<unsharded>, ttir.name = "L__self___bracket_core_paligemma_with_expert_gemma_expert_model_layers_11_mlp_down_proj.weight"} loc("p43.415"), %arg44: tensor<4096x1024xf32> {ttcore.argument_type = #ttcore.argument_type<parameter>, ttcore.local_shape = #ttcore<local_shape local_shape = tensor<4096x1024xf32>>, ttcore.shard_status = #ttcore.shard_status<unsharded>, ttir.name = "L__self___bracket_core_paligemma_with_expert_gemma_expert_model_layers_11_mlp_up_proj.weight"} loc("p44.420"), %arg45: tensor<1024xf32> {ttcore.argument_type = #ttcore.argument_type<parameter>, ttcore.local_shape = #ttcore<local_shape local_shape = tensor<1024xf32>>, ttcore.shard_status = #ttcore.shard_status<unsharded>, ttir.name = "L__self___bracket_core_paligemma_with_expert_gemma_expert_model_layers_11_post_attention_layernorm_weight"} loc("p45.427"), %arg46: tensor<1024x2048xf32> {ttcore.argument_type = #ttcore.argument_type<parameter>, ttcore.local_shape = #ttcore<local_shape local_shape = tensor<1024x2048xf32>>, ttcore.shard_status = #ttcore.shard_status<unsharded>, ttir.name = "L__self___bracket_core_paligemma_with_expert_gemma_expert_model_layers_11_self_attn_o_proj.weight"} loc("p46.438"), %arg47: tensor<256x1024xf32> {ttcore.argument_type = #ttcore.argument_type<parameter>, ttcore.local_shape = #ttcore<local_shape local_shape = tensor<256x1024xf32>>, ttcore.shard_status = #ttcore.shard_status<unsharded>, ttir.name = "L__self___bracket_core_paligemma_with_expert_gemma_expert_model_layers_11_self_attn_v_proj.weight"} loc("p47.443"), %arg48: tensor<1024xf32> {ttcore.argument_type = #ttcore.argument_type<parameter>, ttcore.local_shape = #ttcore<local_shape local_shape = tensor<1024xf32>>, ttcore.shard_status = #ttcore.shard_status<unsharded>, ttir.name = "L__self___bracket_core_paligemma_with_expert_gemma_expert_model_layers_11_input_layernorm_weight"} loc("p48.450"), %arg49: tensor<1024x4096xf32> {ttcore.argument_type = #ttcore.argument_type<parameter>, ttcore.local_shape = #ttcore<local_shape local_shape = tensor<1024x4096xf32>>, ttcore.shard_status = #ttcore.shard_status<unsharded>, ttir.name = "L__self___bracket_core_paligemma_with_expert_gemma_expert_model_layers_10_mlp_down_proj.weight"} loc("p49.461"), %arg50: tensor<4096x1024xf32> {ttcore.argument_type = #ttcore.argument_type<parameter>, ttcore.local_shape = #ttcore<local_shape local_shape = tensor<4096x1024xf32>>, ttcore.shard_status = #ttcore.shard_status<unsharded>, ttir.name = "L__self___bracket_core_paligemma_with_expert_gemma_expert_model_layers_10_mlp_up_proj.weight"} loc("p50.466"), %arg51: tensor<1024xf32> {ttcore.argument_type = #ttcore.argument_type<parameter>, ttcore.local_shape = #ttcore<local_shape local_shape = tensor<1024xf32>>, ttcore.shard_status = #ttcore.shard_status<unsharded>, ttir.name = "L__self___bracket_core_paligemma_with_expert_gemma_expert_model_layers_10_post_attention_layernorm_weight"} loc("p51.473"), %arg52: tensor<1024x2048xf32> {ttcore.argument_type = #ttcore.argument_type<parameter>, ttcore.local_shape = #ttcore<local_shape local_shape = tensor<1024x2048xf32>>, ttcore.shard_status = #ttcore.shard_status<unsharded>, ttir.name = "L__self___bracket_core_paligemma_with_expert_gemma_expert_model_layers_10_self_attn_o_proj.weight"} loc("p52.484"), %arg53: tensor<256x1024xf32> {ttcore.argument_type = #ttcore.argument_type<parameter>, ttcore.local_shape = #ttcore<local_shape local_shape = tensor<256x1024xf32>>, ttcore.shard_status = #ttcore.shard_status<unsharded>, ttir.name = "L__self___bracket_core_paligemma_with_expert_gemma_expert_model_layers_10_self_attn_v_proj.weight"} loc("p53.489"), %arg54: tensor<1024xf32> {ttcore.argument_type = #ttcore.argument_type<parameter>, ttcore.local_shape = #ttcore<local_shape local_shape = tensor<1024xf32>>, ttcore.shard_status = #ttcore.shard_status<unsharded>, ttir.name = "L__self___bracket_core_paligemma_with_expert_gemma_expert_model_layers_10_input_layernorm_weight"} loc("p54.496"), %arg55: tensor<1024x4096xf32> {ttcore.argument_type = #ttcore.argument_type<parameter>, ttcore.local_shape = #ttcore<local_shape local_shape = tensor<1024x4096xf32>>, ttcore.shard_status = #ttcore.shard_status<unsharded>, ttir.name = "L__self___bracket_core_paligemma_with_expert_gemma_expert_model_layers_9_mlp_down_proj.weight"} loc("p55.507"), %arg56: tensor<4096x1024xf32> {ttcore.argument_type = #ttcore.argument_type<parameter>, ttcore.local_shape = #ttcore<local_shape local_shape = tensor<4096x1024xf32>>, ttcore.shard_status = #ttcore.shard_status<unsharded>, ttir.name = "L__self___bracket_core_paligemma_with_expert_gemma_expert_model_layers_9_mlp_up_proj.weight"} loc("p56.512"), %arg57: tensor<1024xf32> {ttcore.argument_type = #ttcore.argument_type<parameter>, ttcore.local_shape = #ttcore<local_shape local_shape = tensor<1024xf32>>, ttcore.shard_status = #ttcore.shard_status<unsharded>, ttir.name = "L__self___bracket_core_paligemma_with_expert_gemma_expert_model_layers_9_post_attention_layernorm_weight"} loc("p57.519"), %arg58: tensor<1024x2048xf32> {ttcore.argument_type = #ttcore.argument_type<parameter>, ttcore.local_shape = #ttcore<local_shape local_shape = tensor<1024x2048xf32>>, ttcore.shard_status = #ttcore.shard_status<unsharded>, ttir.name = "L__self___bracket_core_paligemma_with_expert_gemma_expert_model_layers_9_self_attn_o_proj.weight"} loc("p58.530"), %arg59: tensor<256x1024xf32> {ttcore.argument_type = #ttcore.argument_type<parameter>, ttcore.local_shape = #ttcore<local_shape local_shape = tensor<256x1024xf32>>, ttcore.shard_status = #ttcore.shard_status<unsharded>, ttir.name = "L__self___bracket_core_paligemma_with_expert_gemma_expert_model_layers_9_self_attn_v_proj.weight"} loc("p59.535"), %arg60: tensor<1024xf32> {ttcore.argument_type = #ttcore.argument_type<parameter>, ttcore.local_shape = #ttcore<local_shape local_shape = tensor<1024xf32>>, ttcore.shard_status = #ttcore.shard_status<unsharded>, ttir.name = "L__self___bracket_core_paligemma_with_expert_gemma_expert_model_layers_9_input_layernorm_weight"} loc("p60.542"), %arg61: tensor<1024x4096xf32> {ttcore.argument_type = #ttcore.argument_type<parameter>, ttcore.local_shape = #ttcore<local_shape local_shape = tensor<1024x4096xf32>>, ttcore.shard_status = #ttcore.shard_status<unsharded>, ttir.name = "L__self___bracket_core_paligemma_with_expert_gemma_expert_model_layers_8_mlp_down_proj.weight"} loc("p61.553"), %arg62: tensor<4096x1024xf32> {ttcore.argument_type = #ttcore.argument_type<parameter>, ttcore.local_shape = #ttcore<local_shape local_shape = tensor<4096x1024xf32>>, ttcore.shard_status = #ttcore.shard_status<unsharded>, ttir.name = "L__self___bracket_core_paligemma_with_expert_gemma_expert_model_layers_8_mlp_up_proj.weight"} loc("p62.558"), %arg63: tensor<1024xf32> {ttcore.argument_type = #ttcore.argument_type<parameter>, ttcore.local_shape = #ttcore<local_shape local_shape = tensor<1024xf32>>, ttcore.shard_status = #ttcore.shard_status<unsharded>, ttir.name = "L__self___bracket_core_paligemma_with_expert_gemma_expert_model_layers_8_post_attention_layernorm_weight"} loc("p63.565"), %arg64: tensor<1024x2048xf32> {ttcore.argument_type = #ttcore.argument_type<parameter>, ttcore.local_shape = #ttcore<local_shape local_shape = tensor<1024x2048xf32>>, ttcore.shard_status = #ttcore.shard_status<unsharded>, ttir.name = "L__self___bracket_core_paligemma_with_expert_gemma_expert_model_layers_8_self_attn_o_proj.weight"} loc("p64.576"), %arg65: tensor<256x1024xf32> {ttcore.argument_type = #ttcore.argument_type<parameter>, ttcore.local_shape = #ttcore<local_shape local_shape = tensor<256x1024xf32>>, ttcore.shard_status = #ttcore.shard_status<unsharded>, ttir.name = "L__self___bracket_core_paligemma_with_expert_gemma_expert_model_layers_8_self_attn_v_proj.weight"} loc("p65.581"), %arg66: tensor<1024xf32> {ttcore.argument_type = #ttcore.argument_type<parameter>, ttcore.local_shape = #ttcore<local_shape local_shape = tensor<1024xf32>>, ttcore.shard_status = #ttcore.shard_status<unsharded>, ttir.name = "L__self___bracket_core_paligemma_with_expert_gemma_expert_model_layers_8_input_layernorm_weight"} loc("p66.588"), %arg67: tensor<1024x4096xf32> {ttcore.argument_type = #ttcore.argument_type<parameter>, ttcore.local_shape = #ttcore<local_shape local_shape = tensor<1024x4096xf32>>, ttcore.shard_status = #ttcore.shard_status<unsharded>, ttir.name = "L__self___bracket_core_paligemma_with_expert_gemma_expert_model_layers_7_mlp_down_proj.weight"} loc("p67.599"), %arg68: tensor<4096x1024xf32> {ttcore.argument_type = #ttcore.argument_type<parameter>, ttcore.local_shape = #ttcore<local_shape local_shape = tensor<4096x1024xf32>>, ttcore.shard_status = #ttcore.shard_status<unsharded>, ttir.name = "L__self___bracket_core_paligemma_with_expert_gemma_expert_model_layers_7_mlp_up_proj.weight"} loc("p68.604"), %arg69: tensor<1024xf32> {ttcore.argument_type = #ttcore.argument_type<parameter>, ttcore.local_shape = #ttcore<local_shape local_shape = tensor<1024xf32>>, ttcore.shard_status = #ttcore.shard_status<unsharded>, ttir.name = "L__self___bracket_core_paligemma_with_expert_gemma_expert_model_layers_7_post_attention_layernorm_weight"} loc("p69.611"), %arg70: tensor<1024x2048xf32> {ttcore.argument_type = #ttcore.argument_type<parameter>, ttcore.local_shape = #ttcore<local_shape local_shape = tensor<1024x2048xf32>>, ttcore.shard_status = #ttcore.shard_status<unsharded>, ttir.name = "L__self___bracket_core_paligemma_with_expert_gemma_expert_model_layers_7_self_attn_o_proj.weight"} loc("p70.622"), %arg71: tensor<256x1024xf32> {ttcore.argument_type = #ttcore.argument_type<parameter>, ttcore.local_shape = #ttcore<local_shape local_shape = tensor<256x1024xf32>>, ttcore.shard_status = #ttcore.shard_status<unsharded>, ttir.name = "L__self___bracket_core_paligemma_with_expert_gemma_expert_model_layers_7_self_attn_v_proj.weight"} loc("p71.627"), %arg72: tensor<1024xf32> {ttcore.argument_type = #ttcore.argument_type<parameter>, ttcore.local_shape = #ttcore<local_shape local_shape = tensor<1024xf32>>, ttcore.shard_status = #ttcore.shard_status<unsharded>, ttir.name = "L__self___bracket_core_paligemma_with_expert_gemma_expert_model_layers_7_input_layernorm_weight"} loc("p72.634"), %arg73: tensor<1024x4096xf32> {ttcore.argument_type = #ttcore.argument_type<parameter>, ttcore.local_shape = #ttcore<local_shape local_shape = tensor<1024x4096xf32>>, ttcore.shard_status = #ttcore.shard_status<unsharded>, ttir.name = "L__self___bracket_core_paligemma_with_expert_gemma_expert_model_layers_6_mlp_down_proj.weight"} loc("p73.645"), %arg74: tensor<4096x1024xf32> {ttcore.argument_type = #ttcore.argument_type<parameter>, ttcore.local_shape = #ttcore<local_shape local_shape = tensor<4096x1024xf32>>, ttcore.shard_status = #ttcore.shard_status<unsharded>, ttir.name = "L__self___bracket_core_paligemma_with_expert_gemma_expert_model_layers_6_mlp_up_proj.weight"} loc("p74.650"), %arg75: tensor<1024xf32> {ttcore.argument_type = #ttcore.argument_type<parameter>, ttcore.local_shape = #ttcore<local_shape local_shape = tensor<1024xf32>>, ttcore.shard_status = #ttcore.shard_status<unsharded>, ttir.name = "L__self___bracket_core_paligemma_with_expert_gemma_expert_model_layers_6_post_attention_layernorm_weight"} loc("p75.657"), %arg76: tensor<1024x2048xf32> {ttcore.argument_type = #ttcore.argument_type<parameter>, ttcore.local_shape = #ttcore<local_shape local_shape = tensor<1024x2048xf32>>, ttcore.shard_status = #ttcore.shard_status<unsharded>, ttir.name = "L__self___bracket_core_paligemma_with_expert_gemma_expert_model_layers_6_self_attn_o_proj.weight"} loc("p76.668"), %arg77: tensor<256x1024xf32> {ttcore.argument_type = #ttcore.argument_type<parameter>, ttcore.local_shape = #ttcore<local_shape local_shape = tensor<256x1024xf32>>, ttcore.shard_status = #ttcore.shard_status<unsharded>, ttir.name = "L__self___bracket_core_paligemma_with_expert_gemma_expert_model_layers_6_self_attn_v_proj.weight"} loc("p77.673"), %arg78: tensor<1024xf32> {ttcore.argument_type = #ttcore.argument_type<parameter>, ttcore.local_shape = #ttcore<local_shape local_shape = tensor<1024xf32>>, ttcore.shard_status = #ttcore.shard_status<unsharded>, ttir.name = "L__self___bracket_core_paligemma_with_expert_gemma_expert_model_layers_6_input_layernorm_weight"} loc("p78.680"), %arg79: tensor<1024x4096xf32> {ttcore.argument_type = #ttcore.argument_type<parameter>, ttcore.local_shape = #ttcore<local_shape local_shape = tensor<1024x4096xf32>>, ttcore.shard_status = #ttcore.shard_status<unsharded>, ttir.name = "L__self___bracket_core_paligemma_with_expert_gemma_expert_model_layers_5_mlp_down_proj.weight"} loc("p79.691"), %arg80: tensor<4096x1024xf32> {ttcore.argument_type = #ttcore.argument_type<parameter>, ttcore.local_shape = #ttcore<local_shape local_shape = tensor<4096x1024xf32>>, ttcore.shard_status = #ttcore.shard_status<unsharded>, ttir.name = "L__self___bracket_core_paligemma_with_expert_gemma_expert_model_layers_5_mlp_up_proj.weight"} loc("p80.696"), %arg81: tensor<1024xf32> {ttcore.argument_type = #ttcore.argument_type<parameter>, ttcore.local_shape = #ttcore<local_shape local_shape = tensor<1024xf32>>, ttcore.shard_status = #ttcore.shard_status<unsharded>, ttir.name = "L__self___bracket_core_paligemma_with_expert_gemma_expert_model_layers_5_post_attention_layernorm_weight"} loc("p81.703"), %arg82: tensor<1024x2048xf32> {ttcore.argument_type = #ttcore.argument_type<parameter>, ttcore.local_shape = #ttcore<local_shape local_shape = tensor<1024x2048xf32>>, ttcore.shard_status = #ttcore.shard_status<unsharded>, ttir.name = "L__self___bracket_core_paligemma_with_expert_gemma_expert_model_layers_5_self_attn_o_proj.weight"} loc("p82.714"), %arg83: tensor<256x1024xf32> {ttcore.argument_type = #ttcore.argument_type<parameter>, ttcore.local_shape = #ttcore<local_shape local_shape = tensor<256x1024xf32>>, ttcore.shard_status = #ttcore.shard_status<unsharded>, ttir.name = "L__self___bracket_core_paligemma_with_expert_gemma_expert_model_layers_5_self_attn_v_proj.weight"} loc("p83.719"), %arg84: tensor<1024xf32> {ttcore.argument_type = #ttcore.argument_type<parameter>, ttcore.local_shape = #ttcore<local_shape local_shape = tensor<1024xf32>>, ttcore.shard_status = #ttcore.shard_status<unsharded>, ttir.name = "L__self___bracket_core_paligemma_with_expert_gemma_expert_model_layers_5_input_layernorm_weight"} loc("p84.726"), %arg85: tensor<1024x4096xf32> {ttcore.argument_type = #ttcore.argument_type<parameter>, ttcore.local_shape = #ttcore<local_shape local_shape = tensor<1024x4096xf32>>, ttcore.shard_status = #ttcore.shard_status<unsharded>, ttir.name = "L__self___bracket_core_paligemma_with_expert_gemma_expert_model_layers_4_mlp_down_proj.weight"} loc("p85.737"), %arg86: tensor<4096x1024xf32> {ttcore.argument_type = #ttcore.argument_type<parameter>, ttcore.local_shape = #ttcore<local_shape local_shape = tensor<4096x1024xf32>>, ttcore.shard_status = #ttcore.shard_status<unsharded>, ttir.name = "L__self___bracket_core_paligemma_with_expert_gemma_expert_model_layers_4_mlp_up_proj.weight"} loc("p86.742"), %arg87: tensor<1024xf32> {ttcore.argument_type = #ttcore.argument_type<parameter>, ttcore.local_shape = #ttcore<local_shape local_shape = tensor<1024xf32>>, ttcore.shard_status = #ttcore.shard_status<unsharded>, ttir.name = "L__self___bracket_core_paligemma_with_expert_gemma_expert_model_layers_4_post_attention_layernorm_weight"} loc("p87.749"), %arg88: tensor<1024x2048xf32> {ttcore.argument_type = #ttcore.argument_type<parameter>, ttcore.local_shape = #ttcore<local_shape local_shape = tensor<1024x2048xf32>>, ttcore.shard_status = #ttcore.shard_status<unsharded>, ttir.name = "L__self___bracket_core_paligemma_with_expert_gemma_expert_model_layers_4_self_attn_o_proj.weight"} loc("p88.760"), %arg89: tensor<256x1024xf32> {ttcore.argument_type = #ttcore.argument_type<parameter>, ttcore.local_shape = #ttcore<local_shape local_shape = tensor<256x1024xf32>>, ttcore.shard_status = #ttcore.shard_status<unsharded>, ttir.name = "L__self___bracket_core_paligemma_with_expert_gemma_expert_model_layers_4_self_attn_v_proj.weight"} loc("p89.765"), %arg90: tensor<1024xf32> {ttcore.argument_type = #ttcore.argument_type<parameter>, ttcore.local_shape = #ttcore<local_shape local_shape = tensor<1024xf32>>, ttcore.shard_status = #ttcore.shard_status<unsharded>, ttir.name = "L__self___bracket_core_paligemma_with_expert_gemma_expert_model_layers_4_input_layernorm_weight"} loc("p90.772"), %arg91: tensor<1024x4096xf32> {ttcore.argument_type = #ttcore.argument_type<parameter>, ttcore.local_shape = #ttcore<local_shape local_shape = tensor<1024x4096xf32>>, ttcore.shard_status = #ttcore.shard_status<unsharded>, ttir.name = "L__self___bracket_core_paligemma_with_expert_gemma_expert_model_layers_3_mlp_down_proj.weight"} loc("p91.783"), %arg92: tensor<4096x1024xf32> {ttcore.argument_type = #ttcore.argument_type<parameter>, ttcore.local_shape = #ttcore<local_shape local_shape = tensor<4096x1024xf32>>, ttcore.shard_status = #ttcore.shard_status<unsharded>, ttir.name = "L__self___bracket_core_paligemma_with_expert_gemma_expert_model_layers_3_mlp_up_proj.weight"} loc("p92.788"), %arg93: tensor<1024xf32> {ttcore.argument_type = #ttcore.argument_type<parameter>, ttcore.local_shape = #ttcore<local_shape local_shape = tensor<1024xf32>>, ttcore.shard_status = #ttcore.shard_status<unsharded>, ttir.name = "L__self___bracket_core_paligemma_with_expert_gemma_expert_model_layers_3_post_attention_layernorm_weight"} loc("p93.795"), %arg94: tensor<1024x2048xf32> {ttcore.argument_type = #ttcore.argument_type<parameter>, ttcore.local_shape = #ttcore<local_shape local_shape = tensor<1024x2048xf32>>, ttcore.shard_status = #ttcore.shard_status<unsharded>, ttir.name = "L__self___bracket_core_paligemma_with_expert_gemma_expert_model_layers_3_self_attn_o_proj.weight"} loc("p94.806"), %arg95: tensor<256x1024xf32> {ttcore.argument_type = #ttcore.argument_type<parameter>, ttcore.local_shape = #ttcore<local_shape local_shape = tensor<256x1024xf32>>, ttcore.shard_status = #ttcore.shard_status<unsharded>, ttir.name = "L__self___bracket_core_paligemma_with_expert_gemma_expert_model_layers_3_self_attn_v_proj.weight"} loc("p95.811"), %arg96: tensor<1024xf32> {ttcore.argument_type = #ttcore.argument_type<parameter>, ttcore.local_shape = #ttcore<local_shape local_shape = tensor<1024xf32>>, ttcore.shard_status = #ttcore.shard_status<unsharded>, ttir.name = "L__self___bracket_core_paligemma_with_expert_gemma_expert_model_layers_3_input_layernorm_weight"} loc("p96.818"), %arg97: tensor<1024x4096xf32> {ttcore.argument_type = #ttcore.argument_type<parameter>, ttcore.local_shape = #ttcore<local_shape local_shape = tensor<1024x4096xf32>>, ttcore.shard_status = #ttcore.shard_status<unsharded>, ttir.name = "L__self___bracket_core_paligemma_with_expert_gemma_expert_model_layers_2_mlp_down_proj.weight"} loc("p97.829"), %arg98: tensor<4096x1024xf32> {ttcore.argument_type = #ttcore.argument_type<parameter>, ttcore.local_shape = #ttcore<local_shape local_shape = tensor<4096x1024xf32>>, ttcore.shard_status = #ttcore.shard_status<unsharded>, ttir.name = "L__self___bracket_core_paligemma_with_expert_gemma_expert_model_layers_2_mlp_up_proj.weight"} loc("p98.834"), %arg99: tensor<1024xf32> {ttcore.argument_type = #ttcore.argument_type<parameter>, ttcore.local_shape = #ttcore<local_shape local_shape = tensor<1024xf32>>, ttcore.shard_status = #ttcore.shard_status<unsharded>, ttir.name = "L__self___bracket_core_paligemma_with_expert_gemma_expert_model_layers_2_post_attention_layernorm_weight"} loc("p99.841"), %arg100: tensor<1024x2048xf32> {ttcore.argument_type = #ttcore.argument_type<parameter>, ttcore.local_shape = #ttcore<local_shape local_shape = tensor<1024x2048xf32>>, ttcore.shard_status = #ttcore.shard_status<unsharded>, ttir.name = "L__self___bracket_core_paligemma_with_expert_gemma_expert_model_layers_2_self_attn_o_proj.weight"} loc("p100.852"), %arg101: tensor<256x1024xf32> {ttcore.argument_type = #ttcore.argument_type<parameter>, ttcore.local_shape = #ttcore<local_shape local_shape = tensor<256x1024xf32>>, ttcore.shard_status = #ttcore.shard_status<unsharded>, ttir.name = "L__self___bracket_core_paligemma_with_expert_gemma_expert_model_layers_2_self_attn_v_proj.weight"} loc("p101.857"), %arg102: tensor<1024xf32> {ttcore.argument_type = #ttcore.argument_type<parameter>, ttcore.local_shape = #ttcore<local_shape local_shape = tensor<1024xf32>>, ttcore.shard_status = #ttcore.shard_status<unsharded>, ttir.name = "L__self___bracket_core_paligemma_with_expert_gemma_expert_model_layers_2_input_layernorm_weight"} loc("p102.864"), %arg103: tensor<1024x4096xf32> {ttcore.argument_type = #ttcore.argument_type<parameter>, ttcore.local_shape = #ttcore<local_shape local_shape = tensor<1024x4096xf32>>, ttcore.shard_status = #ttcore.shard_status<unsharded>, ttir.name = "L__self___bracket_core_paligemma_with_expert_gemma_expert_model_layers_1_mlp_down_proj.weight"} loc("p103.875"), %arg104: tensor<4096x1024xf32> {ttcore.argument_type = #ttcore.argument_type<parameter>, ttcore.local_shape = #ttcore<local_shape local_shape = tensor<4096x1024xf32>>, ttcore.shard_status = #ttcore.shard_status<unsharded>, ttir.name = "L__self___bracket_core_paligemma_with_expert_gemma_expert_model_layers_1_mlp_up_proj.weight"} loc("p104.880"), %arg105: tensor<1024xf32> {ttcore.argument_type = #ttcore.argument_type<parameter>, ttcore.local_shape = #ttcore<local_shape local_shape = tensor<1024xf32>>, ttcore.shard_status = #ttcore.shard_status<unsharded>, ttir.name = "L__self___bracket_core_paligemma_with_expert_gemma_expert_model_layers_1_post_attention_layernorm_weight"} loc("p105.887"), %arg106: tensor<1024x2048xf32> {ttcore.argument_type = #ttcore.argument_type<parameter>, ttcore.local_shape = #ttcore<local_shape local_shape = tensor<1024x2048xf32>>, ttcore.shard_status = #ttcore.shard_status<unsharded>, ttir.name = "L__self___bracket_core_paligemma_with_expert_gemma_expert_model_layers_1_self_attn_o_proj.weight"} loc("p106.898"), %arg107: tensor<256x1024xf32> {ttcore.argument_type = #ttcore.argument_type<parameter>, ttcore.local_shape = #ttcore<local_shape local_shape = tensor<256x1024xf32>>, ttcore.shard_status = #ttcore.shard_status<unsharded>, ttir.name = "L__self___bracket_core_paligemma_with_expert_gemma_expert_model_layers_1_self_attn_v_proj.weight"} loc("p107.903"), %arg108: tensor<1024xf32> {ttcore.argument_type = #ttcore.argument_type<parameter>, ttcore.local_shape = #ttcore<local_shape local_shape = tensor<1024xf32>>, ttcore.shard_status = #ttcore.shard_status<unsharded>, ttir.name = "L__self___bracket_core_paligemma_with_expert_gemma_expert_model_layers_1_input_layernorm_weight"} loc("p108.910"), %arg109: tensor<1024x4096xf32> {ttcore.argument_type = #ttcore.argument_type<parameter>, ttcore.local_shape = #ttcore<local_shape local_shape = tensor<1024x4096xf32>>, ttcore.shard_status = #ttcore.shard_status<unsharded>, ttir.name = "L__self___bracket_core_paligemma_with_expert_gemma_expert_model_layers_0_mlp_down_proj.weight"} loc("p109.921"), %arg110: tensor<4096x1024xf32> {ttcore.argument_type = #ttcore.argument_type<parameter>, ttcore.local_shape = #ttcore<local_shape local_shape = tensor<4096x1024xf32>>, ttcore.shard_status = #ttcore.shard_status<unsharded>, ttir.name = "L__self___bracket_core_paligemma_with_expert_gemma_expert_model_layers_0_mlp_up_proj.weight"} loc("p110.926"), %arg111: tensor<1024xf32> {ttcore.argument_type = #ttcore.argument_type<parameter>, ttcore.local_shape = #ttcore<local_shape local_shape = tensor<1024xf32>>, ttcore.shard_status = #ttcore.shard_status<unsharded>, ttir.name = "L__self___bracket_core_paligemma_with_expert_gemma_expert_model_layers_0_post_attention_layernorm_weight"} loc("p111.933"), %arg112: tensor<1024x2048xf32> {ttcore.argument_type = #ttcore.argument_type<parameter>, ttcore.local_shape = #ttcore<local_shape local_shape = tensor<1024x2048xf32>>, ttcore.shard_status = #ttcore.shard_status<unsharded>, ttir.name = "L__self___bracket_core_paligemma_with_expert_gemma_expert_model_layers_0_self_attn_o_proj.weight"} loc("p112.944"), %arg113: tensor<256x1024xf32> {ttcore.argument_type = #ttcore.argument_type<parameter>, ttcore.local_shape = #ttcore<local_shape local_shape = tensor<256x1024xf32>>, ttcore.shard_status = #ttcore.shard_status<unsharded>, ttir.name = "L__self___bracket_core_paligemma_with_expert_gemma_expert_model_layers_0_self_attn_v_proj.weight"} loc("p113.949"), %arg114: tensor<1024xf32> {ttcore.argument_type = #ttcore.argument_type<parameter>, ttcore.local_shape = #ttcore<local_shape local_shape = tensor<1024xf32>>, ttcore.shard_status = #ttcore.shard_status<unsharded>, ttir.name = "L__self___bracket_core_paligemma_with_expert_gemma_expert_model_layers_0_input_layernorm_weight"} loc("p114.956"), %arg115: tensor<1024xf32> {ttcore.argument_type = #ttcore.argument_type<parameter>, ttcore.local_shape = #ttcore<local_shape local_shape = tensor<1024xf32>>, ttcore.shard_status = #ttcore.shard_status<unsharded>, ttir.name = "L__self___bracket_core_action_time_mlp_out.bias"} loc("p115.967"), %arg116: tensor<1024x1024xf32> {ttcore.argument_type = #ttcore.argument_type<parameter>, ttcore.local_shape = #ttcore<local_shape local_shape = tensor<1024x1024xf32>>, ttcore.shard_status = #ttcore.shard_status<unsharded>, ttir.name = "L__self___bracket_core_action_time_mlp_out.weight"} loc("p116.971"), %arg117: tensor<1024xf32> {ttcore.argument_type = #ttcore.argument_type<parameter>, ttcore.local_shape = #ttcore<local_shape local_shape = tensor<1024xf32>>, ttcore.shard_status = #ttcore.shard_status<unsharded>, ttir.name = "L__self___bracket_core_action_time_mlp_in.bias"} loc("p117.977"), %arg118: tensor<1024x2048xf32> {ttcore.argument_type = #ttcore.argument_type<parameter>, ttcore.local_shape = #ttcore<local_shape local_shape = tensor<1024x2048xf32>>, ttcore.shard_status = #ttcore.shard_status<unsharded>, ttir.name = "L__self___bracket_core_action_time_mlp_in.weight"} loc("p118.981"), %arg119: tensor<1024xf32> {ttcore.argument_type = #ttcore.argument_type<parameter>, ttcore.local_shape = #ttcore<local_shape local_shape = tensor<1024xf32>>, ttcore.shard_status = #ttcore.shard_status<unsharded>, ttir.name = "L__self___bracket_core_action_in_proj.bias"} loc("p119.1053"), %arg120: tensor<1x50x32xf32> {ttcore.argument_type = #ttcore.argument_type<input>, ttcore.local_shape = #ttcore<local_shape local_shape = tensor<1x50x32xf32>>, ttcore.shard_status = #ttcore.shard_status<unsharded>, ttir.name = "args_9"} loc("p120.1058"), %arg121: tensor<256x2048xf32> {ttcore.argument_type = #ttcore.argument_type<parameter>, ttcore.local_shape = #ttcore<local_shape local_shape = tensor<256x2048xf32>>, ttcore.shard_status = #ttcore.shard_status<unsharded>, ttir.name = "L__self___bracket_core_paligemma_with_expert_paligemma_model_language_model_layers_0_self_attn_v_proj.weight"} loc("p121.1133"), %arg122: tensor<2048xf32> {ttcore.argument_type = #ttcore.argument_type<parameter>, ttcore.local_shape = #ttcore<local_shape local_shape = tensor<2048xf32>>, ttcore.shard_status = #ttcore.shard_status<unsharded>, ttir.name = "L__self___bracket_core_paligemma_with_expert_paligemma_model_language_model_layers_0_input_layernorm_weight"} loc("p122.1140"), %arg123: tensor<1x48xi64> {ttcore.argument_type = #ttcore.argument_type<input>, ttcore.local_shape = #ttcore<local_shape local_shape = tensor<1x48xi64>>, ttcore.shard_status = #ttcore.shard_status<unsharded>, ttir.name = "args_7"} loc("p123.1151"), %arg124: tensor<257152x2048xf32> {ttcore.argument_type = #ttcore.argument_type<parameter>, ttcore.local_shape = #ttcore<local_shape local_shape = tensor<257152x2048xf32>>, ttcore.shard_status = #ttcore.shard_status<unsharded>, ttir.name = "L__self___bracket_core_paligemma_with_expert_paligemma_model_language_model_embed_tokens.weight"} loc("p124.1156"), %arg125: tensor<2048xf32> {ttcore.argument_type = #ttcore.argument_type<parameter>, ttcore.local_shape = #ttcore<local_shape local_shape = tensor<2048xf32>>, ttcore.shard_status = #ttcore.shard_status<unsharded>, ttir.name = "L__self___bracket_core_paligemma_with_expert_paligemma_model_multi_modal_projector_linear.bias"} loc("p125.1166"), %arg126: tensor<2048x1152xf32> {ttcore.argument_type = #ttcore.argument_type<parameter>, ttcore.local_shape = #ttcore<local_shape local_shape = tensor<2048x1152xf32>>, ttcore.shard_status = #ttcore.shard_status<unsharded>, ttir.name = "L__self___bracket_core_paligemma_with_expert_paligemma_model_multi_modal_projector_linear.weight"} loc("p126.1170"), %arg127: tensor<1152xf32> {ttcore.argument_type = #ttcore.argument_type<parameter>, ttcore.local_shape = #ttcore<local_shape local_shape = tensor<1152xf32>>, ttcore.shard_status = #ttcore.shard_status<unsharded>, ttir.name = "L__self___bracket_core_paligemma_with_expert_paligemma_model_vision_tower_vision_model_post_layernorm.bias"} loc("p127.1176"), %arg128: tensor<1152xf32> {ttcore.argument_type = #ttcore.argument_type<parameter>, ttcore.local_shape = #ttcore<local_shape local_shape = tensor<1152xf32>>, ttcore.shard_status = #ttcore.shard_status<unsharded>, ttir.name = "L__self___bracket_core_paligemma_with_expert_paligemma_model_vision_tower_vision_model_post_layernorm.weight"} loc("p128.1181"), %arg129: tensor<1152xf32> {ttcore.argument_type = #ttcore.argument_type<parameter>, ttcore.local_shape = #ttcore<local_shape local_shape = tensor<1152xf32>>, ttcore.shard_status = #ttcore.shard_status<unsharded>, ttir.name = "L__self___bracket_core_paligemma_with_expert_paligemma_model_vision_tower_vision_model_encoder_layers_26_mlp_fc2.bias"} loc("p129.1190"), %arg130: tensor<1152x4304xf32> {ttcore.argument_type = #ttcore.argument_type<parameter>, ttcore.local_shape = #ttcore<local_shape local_shape = tensor<1152x4304xf32>>, ttcore.shard_status = #ttcore.shard_status<unsharded>, ttir.name = "L__self___bracket_core_paligemma_with_expert_paligemma_model_vision_tower_vision_model_encoder_layers_26_mlp_fc2.weight"} loc("p130.1194"), %arg131: tensor<4304xf32> {ttcore.argument_type = #ttcore.argument_type<parameter>, ttcore.local_shape = #ttcore<local_shape local_shape = tensor<4304xf32>>, ttcore.shard_status = #ttcore.shard_status<unsharded>, ttir.name = "L__self___bracket_core_paligemma_with_expert_paligemma_model_vision_tower_vision_model_encoder_layers_26_mlp_fc1.bias"} loc("p131.1202"), %arg132: tensor<4304x1152xf32> {ttcore.argument_type = #ttcore.argument_type<parameter>, ttcore.local_shape = #ttcore<local_shape local_shape = tensor<4304x1152xf32>>, ttcore.shard_status = #ttcore.shard_status<unsharded>, ttir.name = "L__self___bracket_core_paligemma_with_expert_paligemma_model_vision_tower_vision_model_encoder_layers_26_mlp_fc1.weight"} loc("p132.1206"), %arg133: tensor<1152xf32> {ttcore.argument_type = #ttcore.argument_type<parameter>, ttcore.local_shape = #ttcore<local_shape local_shape = tensor<1152xf32>>, ttcore.shard_status = #ttcore.shard_status<unsharded>, ttir.name = "L__self___bracket_core_paligemma_with_expert_paligemma_model_vision_tower_vision_model_encoder_layers_26_layer_norm2.bias"} loc("p133.1212"), %arg134: tensor<1152xf32> {ttcore.argument_type = #ttcore.argument_type<parameter>, ttcore.local_shape = #ttcore<local_shape local_shape = tensor<1152xf32>>, ttcore.shard_status = #ttcore.shard_status<unsharded>, ttir.name = "L__self___bracket_core_paligemma_with_expert_paligemma_model_vision_tower_vision_model_encoder_layers_26_layer_norm2.weight"} loc("p134.1217"), %arg135: tensor<1152xf32> {ttcore.argument_type = #ttcore.argument_type<parameter>, ttcore.local_shape = #ttcore<local_shape local_shape = tensor<1152xf32>>, ttcore.shard_status = #ttcore.shard_status<unsharded>, ttir.name = "L__self___bracket_core_paligemma_with_expert_paligemma_model_vision_tower_vision_model_encoder_layers_26_self_attn_out_proj.bias"} loc("p135.1226"), %arg136: tensor<1152x1152xf32> {ttcore.argument_type = #ttcore.argument_type<parameter>, ttcore.local_shape = #ttcore<local_shape local_shape = tensor<1152x1152xf32>>, ttcore.shard_status = #ttcore.shard_status<unsharded>, ttir.name = "L__self___bracket_core_paligemma_with_expert_paligemma_model_vision_tower_vision_model_encoder_layers_26_self_attn_out_proj.weight"} loc("p136.1230"), %arg137: tensor<1152xf32> {ttcore.argument_type = #ttcore.argument_type<parameter>, ttcore.local_shape = #ttcore<local_shape local_shape = tensor<1152xf32>>, ttcore.shard_status = #ttcore.shard_status<unsharded>, ttir.name = "L__self___bracket_core_paligemma_with_expert_paligemma_model_vision_tower_vision_model_encoder_layers_26_self_attn_v_proj.bias"} loc("p137.1236"), %arg138: tensor<1152x1152xf32> {ttcore.argument_type = #ttcore.argument_type<parameter>, ttcore.local_shape = #ttcore<local_shape local_shape = tensor<1152x1152xf32>>, ttcore.shard_status = #ttcore.shard_status<unsharded>, ttir.name = "L__self___bracket_core_paligemma_with_expert_paligemma_model_vision_tower_vision_model_encoder_layers_26_self_attn_v_proj.weight"} loc("p138.1240"), %arg139: tensor<1152xf32> {ttcore.argument_type = #ttcore.argument_type<parameter>, ttcore.local_shape = #ttcore<local_shape local_shape = tensor<1152xf32>>, ttcore.shard_status = #ttcore.shard_status<unsharded>, ttir.name = "L__self___bracket_core_paligemma_with_expert_paligemma_model_vision_tower_vision_model_encoder_layers_26_layer_norm1.bias"} loc("p139.1246"), %arg140: tensor<1152xf32> {ttcore.argument_type = #ttcore.argument_type<parameter>, ttcore.local_shape = #ttcore<local_shape local_shape = tensor<1152xf32>>, ttcore.shard_status = #ttcore.shard_status<unsharded>, ttir.name = "L__self___bracket_core_paligemma_with_expert_paligemma_model_vision_tower_vision_model_encoder_layers_26_layer_norm1.weight"} loc("p140.1251"), %arg141: tensor<1152xf32> {ttcore.argument_type = #ttcore.argument_type<parameter>, ttcore.local_shape = #ttcore<local_shape local_shape = tensor<1152xf32>>, ttcore.shard_status = #ttcore.shard_status<unsharded>, ttir.name = "L__self___bracket_core_paligemma_with_expert_paligemma_model_vision_tower_vision_model_encoder_layers_25_mlp_fc2.bias"} loc("p141.1260"), %arg142: tensor<1152x4304xf32> {ttcore.argument_type = #ttcore.argument_type<parameter>, ttcore.local_shape = #ttcore<local_shape local_shape = tensor<1152x4304xf32>>, ttcore.shard_status = #ttcore.shard_status<unsharded>, ttir.name = "L__self___bracket_core_paligemma_with_expert_paligemma_model_vision_tower_vision_model_encoder_layers_25_mlp_fc2.weight"} loc("p142.1264"), %arg143: tensor<4304xf32> {ttcore.argument_type = #ttcore.argument_type<parameter>, ttcore.local_shape = #ttcore<local_shape local_shape = tensor<4304xf32>>, ttcore.shard_status = #ttcore.shard_status<unsharded>, ttir.name = "L__self___bracket_core_paligemma_with_expert_paligemma_model_vision_tower_vision_model_encoder_layers_25_mlp_fc1.bias"} loc("p143.1272"), %arg144: tensor<4304x1152xf32> {ttcore.argument_type = #ttcore.argument_type<parameter>, ttcore.local_shape = #ttcore<local_shape local_shape = tensor<4304x1152xf32>>, ttcore.shard_status = #ttcore.shard_status<unsharded>, ttir.name = "L__self___bracket_core_paligemma_with_expert_paligemma_model_vision_tower_vision_model_encoder_layers_25_mlp_fc1.weight"} loc("p144.1276"), %arg145: tensor<1152xf32> {ttcore.argument_type = #ttcore.argument_type<parameter>, ttcore.local_shape = #ttcore<local_shape local_shape = tensor<1152xf32>>, ttcore.shard_status = #ttcore.shard_status<unsharded>, ttir.name = "L__self___bracket_core_paligemma_with_expert_paligemma_model_vision_tower_vision_model_encoder_layers_25_layer_norm2.bias"} loc("p145.1282"), %arg146: tensor<1152xf32> {ttcore.argument_type = #ttcore.argument_type<parameter>, ttcore.local_shape = #ttcore<local_shape local_shape = tensor<1152xf32>>, ttcore.shard_status = #ttcore.shard_status<unsharded>, ttir.name = "L__self___bracket_core_paligemma_with_expert_paligemma_model_vision_tower_vision_model_encoder_layers_25_layer_norm2.weight"} loc("p146.1287"), %arg147: tensor<1152xf32> {ttcore.argument_type = #ttcore.argument_type<parameter>, ttcore.local_shape = #ttcore<local_shape local_shape = tensor<1152xf32>>, ttcore.shard_status = #ttcore.shard_status<unsharded>, ttir.name = "L__self___bracket_core_paligemma_with_expert_paligemma_model_vision_tower_vision_model_encoder_layers_25_self_attn_out_proj.bias"} loc("p147.1296"), %arg148: tensor<1152x1152xf32> {ttcore.argument_type = #ttcore.argument_type<parameter>, ttcore.local_shape = #ttcore<local_shape local_shape = tensor<1152x1152xf32>>, ttcore.shard_status = #ttcore.shard_status<unsharded>, ttir.name = "L__self___bracket_core_paligemma_with_expert_paligemma_model_vision_tower_vision_model_encoder_layers_25_self_attn_out_proj.weight"} loc("p148.1300"), %arg149: tensor<1152xf32> {ttcore.argument_type = #ttcore.argument_type<parameter>, ttcore.local_shape = #ttcore<local_shape local_shape = tensor<1152xf32>>, ttcore.shard_status = #ttcore.shard_status<unsharded>, ttir.name = "L__self___bracket_core_paligemma_with_expert_paligemma_model_vision_tower_vision_model_encoder_layers_25_self_attn_v_proj.bias"} loc("p149.1306"), %arg150: tensor<1152x1152xf32> {ttcore.argument_type = #ttcore.argument_type<parameter>, ttcore.local_shape = #ttcore<local_shape local_shape = tensor<1152x1152xf32>>, ttcore.shard_status = #ttcore.shard_status<unsharded>, ttir.name = "L__self___bracket_core_paligemma_with_expert_paligemma_model_vision_tower_vision_model_encoder_layers_25_self_attn_v_proj.weight"} loc("p150.1310"), %arg151: tensor<1152xf32> {ttcore.argument_type = #ttcore.argument_type<parameter>, ttcore.local_shape = #ttcore<local_shape local_shape = tensor<1152xf32>>, ttcore.shard_status = #ttcore.shard_status<unsharded>, ttir.name = "L__self___bracket_core_paligemma_with_expert_paligemma_model_vision_tower_vision_model_encoder_layers_25_layer_norm1.bias"} loc("p151.1316"), %arg152: tensor<1152xf32> {ttcore.argument_type = #ttcore.argument_type<parameter>, ttcore.local_shape = #ttcore<local_shape local_shape = tensor<1152xf32>>, ttcore.shard_status = #ttcore.shard_status<unsharded>, ttir.name = "L__self___bracket_core_paligemma_with_expert_paligemma_model_vision_tower_vision_model_encoder_layers_25_layer_norm1.weight"} loc("p152.1321"), %arg153: tensor<1152xf32> {ttcore.argument_type = #ttcore.argument_type<parameter>, ttcore.local_shape = #ttcore<local_shape local_shape = tensor<1152xf32>>, ttcore.shard_status = #ttcore.shard_status<unsharded>, ttir.name = "L__self___bracket_core_paligemma_with_expert_paligemma_model_vision_tower_vision_model_encoder_layers_24_mlp_fc2.bias"} loc("p153.1330"), %arg154: tensor<1152x4304xf32> {ttcore.argument_type = #ttcore.argument_type<parameter>, ttcore.local_shape = #ttcore<local_shape local_shape = tensor<1152x4304xf32>>, ttcore.shard_status = #ttcore.shard_status<unsharded>, ttir.name = "L__self___bracket_core_paligemma_with_expert_paligemma_model_vision_tower_vision_model_encoder_layers_24_mlp_fc2.weight"} loc("p154.1334"), %arg155: tensor<4304xf32> {ttcore.argument_type = #ttcore.argument_type<parameter>, ttcore.local_shape = #ttcore<local_shape local_shape = tensor<4304xf32>>, ttcore.shard_status = #ttcore.shard_status<unsharded>, ttir.name = "L__self___bracket_core_paligemma_with_expert_paligemma_model_vision_tower_vision_model_encoder_layers_24_mlp_fc1.bias"} loc("p155.1342"), %arg156: tensor<4304x1152xf32> {ttcore.argument_type = #ttcore.argument_type<parameter>, ttcore.local_shape = #ttcore<local_shape local_shape = tensor<4304x1152xf32>>, ttcore.shard_status = #ttcore.shard_status<unsharded>, ttir.name = "L__self___bracket_core_paligemma_with_expert_paligemma_model_vision_tower_vision_model_encoder_layers_24_mlp_fc1.weight"} loc("p156.1346"), %arg157: tensor<1152xf32> {ttcore.argument_type = #ttcore.argument_type<parameter>, ttcore.local_shape = #ttcore<local_shape local_shape = tensor<1152xf32>>, ttcore.shard_status = #ttcore.shard_status<unsharded>, ttir.name = "L__self___bracket_core_paligemma_with_expert_paligemma_model_vision_tower_vision_model_encoder_layers_24_layer_norm2.bias"} loc("p157.1352"), %arg158: tensor<1152xf32> {ttcore.argument_type = #ttcore.argument_type<parameter>, ttcore.local_shape = #ttcore<local_shape local_shape = tensor<1152xf32>>, ttcore.shard_status = #ttcore.shard_status<unsharded>, ttir.name = "L__self___bracket_core_paligemma_with_expert_paligemma_model_vision_tower_vision_model_encoder_layers_24_layer_norm2.weight"} loc("p158.1357"), %arg159: tensor<1152xf32> {ttcore.argument_type = #ttcore.argument_type<parameter>, ttcore.local_shape = #ttcore<local_shape local_shape = tensor<1152xf32>>, ttcore.shard_status = #ttcore.shard_status<unsharded>, ttir.name = "L__self___bracket_core_paligemma_with_expert_paligemma_model_vision_tower_vision_model_encoder_layers_24_self_attn_out_proj.bias"} loc("p159.1366"), %arg160: tensor<1152x1152xf32> {ttcore.argument_type = #ttcore.argument_type<parameter>, ttcore.local_shape = #ttcore<local_shape local_shape = tensor<1152x1152xf32>>, ttcore.shard_status = #ttcore.shard_status<unsharded>, ttir.name = "L__self___bracket_core_paligemma_with_expert_paligemma_model_vision_tower_vision_model_encoder_layers_24_self_attn_out_proj.weight"} loc("p160.1370"), %arg161: tensor<1152xf32> {ttcore.argument_type = #ttcore.argument_type<parameter>, ttcore.local_shape = #ttcore<local_shape local_shape = tensor<1152xf32>>, ttcore.shard_status = #ttcore.shard_status<unsharded>, ttir.name = "L__self___bracket_core_paligemma_with_expert_paligemma_model_vision_tower_vision_model_encoder_layers_24_self_attn_v_proj.bias"} loc("p161.1376"), %arg162: tensor<1152x1152xf32> {ttcore.argument_type = #ttcore.argument_type<parameter>, ttcore.local_shape = #ttcore<local_shape local_shape = tensor<1152x1152xf32>>, ttcore.shard_status = #ttcore.shard_status<unsharded>, ttir.name = "L__self___bracket_core_paligemma_with_expert_paligemma_model_vision_tower_vision_model_encoder_layers_24_self_attn_v_proj.weight"} loc("p162.1380"), %arg163: tensor<1152xf32> {ttcore.argument_type = #ttcore.argument_type<parameter>, ttcore.local_shape = #ttcore<local_shape local_shape = tensor<1152xf32>>, ttcore.shard_status = #ttcore.shard_status<unsharded>, ttir.name = "L__self___bracket_core_paligemma_with_expert_paligemma_model_vision_tower_vision_model_encoder_layers_24_layer_norm1.bias"} loc("p163.1386"), %arg164: tensor<1152xf32> {ttcore.argument_type = #ttcore.argument_type<parameter>, ttcore.local_shape = #ttcore<local_shape local_shape = tensor<1152xf32>>, ttcore.shard_status = #ttcore.shard_status<unsharded>, ttir.name = "L__self___bracket_core_paligemma_with_expert_paligemma_model_vision_tower_vision_model_encoder_layers_24_layer_norm1.weight"} loc("p164.1391"), %arg165: tensor<1152xf32> {ttcore.argument_type = #ttcore.argument_type<parameter>, ttcore.local_shape = #ttcore<local_shape local_shape = tensor<1152xf32>>, ttcore.shard_status = #ttcore.shard_status<unsharded>, ttir.name = "L__self___bracket_core_paligemma_with_expert_paligemma_model_vision_tower_vision_model_encoder_layers_23_mlp_fc2.bias"} loc("p165.1400"), %arg166: tensor<1152x4304xf32> {ttcore.argument_type = #ttcore.argument_type<parameter>, ttcore.local_shape = #ttcore<local_shape local_shape = tensor<1152x4304xf32>>, ttcore.shard_status = #ttcore.shard_status<unsharded>, ttir.name = "L__self___bracket_core_paligemma_with_expert_paligemma_model_vision_tower_vision_model_encoder_layers_23_mlp_fc2.weight"} loc("p166.1404"), %arg167: tensor<4304xf32> {ttcore.argument_type = #ttcore.argument_type<parameter>, ttcore.local_shape = #ttcore<local_shape local_shape = tensor<4304xf32>>, ttcore.shard_status = #ttcore.shard_status<unsharded>, ttir.name = "L__self___bracket_core_paligemma_with_expert_paligemma_model_vision_tower_vision_model_encoder_layers_23_mlp_fc1.bias"} loc("p167.1412"), %arg168: tensor<4304x1152xf32> {ttcore.argument_type = #ttcore.argument_type<parameter>, ttcore.local_shape = #ttcore<local_shape local_shape = tensor<4304x1152xf32>>, ttcore.shard_status = #ttcore.shard_status<unsharded>, ttir.name = "L__self___bracket_core_paligemma_with_expert_paligemma_model_vision_tower_vision_model_encoder_layers_23_mlp_fc1.weight"} loc("p168.1416"), %arg169: tensor<1152xf32> {ttcore.argument_type = #ttcore.argument_type<parameter>, ttcore.local_shape = #ttcore<local_shape local_shape = tensor<1152xf32>>, ttcore.shard_status = #ttcore.shard_status<unsharded>, ttir.name = "L__self___bracket_core_paligemma_with_expert_paligemma_model_vision_tower_vision_model_encoder_layers_23_layer_norm2.bias"} loc("p169.1422"), %arg170: tensor<1152xf32> {ttcore.argument_type = #ttcore.argument_type<parameter>, ttcore.local_shape = #ttcore<local_shape local_shape = tensor<1152xf32>>, ttcore.shard_status = #ttcore.shard_status<unsharded>, ttir.name = "L__self___bracket_core_paligemma_with_expert_paligemma_model_vision_tower_vision_model_encoder_layers_23_layer_norm2.weight"} loc("p170.1427"), %arg171: tensor<1152xf32> {ttcore.argument_type = #ttcore.argument_type<parameter>, ttcore.local_shape = #ttcore<local_shape local_shape = tensor<1152xf32>>, ttcore.shard_status = #ttcore.shard_status<unsharded>, ttir.name = "L__self___bracket_core_paligemma_with_expert_paligemma_model_vision_tower_vision_model_encoder_layers_23_self_attn_out_proj.bias"} loc("p171.1436"), %arg172: tensor<1152x1152xf32> {ttcore.argument_type = #ttcore.argument_type<parameter>, ttcore.local_shape = #ttcore<local_shape local_shape = tensor<1152x1152xf32>>, ttcore.shard_status = #ttcore.shard_status<unsharded>, ttir.name = "L__self___bracket_core_paligemma_with_expert_paligemma_model_vision_tower_vision_model_encoder_layers_23_self_attn_out_proj.weight"} loc("p172.1440"), %arg173: tensor<1152xf32> {ttcore.argument_type = #ttcore.argument_type<parameter>, ttcore.local_shape = #ttcore<local_shape local_shape = tensor<1152xf32>>, ttcore.shard_status = #ttcore.shard_status<unsharded>, ttir.name = "L__self___bracket_core_paligemma_with_expert_paligemma_model_vision_tower_vision_model_encoder_layers_23_self_attn_v_proj.bias"} loc("p173.1446"), %arg174: tensor<1152x1152xf32> {ttcore.argument_type = #ttcore.argument_type<parameter>, ttcore.local_shape = #ttcore<local_shape local_shape = tensor<1152x1152xf32>>, ttcore.shard_status = #ttcore.shard_status<unsharded>, ttir.name = "L__self___bracket_core_paligemma_with_expert_paligemma_model_vision_tower_vision_model_encoder_layers_23_self_attn_v_proj.weight"} loc("p174.1450"), %arg175: tensor<1152xf32> {ttcore.argument_type = #ttcore.argument_type<parameter>, ttcore.local_shape = #ttcore<local_shape local_shape = tensor<1152xf32>>, ttcore.shard_status = #ttcore.shard_status<unsharded>, ttir.name = "L__self___bracket_core_paligemma_with_expert_paligemma_model_vision_tower_vision_model_encoder_layers_23_layer_norm1.bias"} loc("p175.1456"), %arg176: tensor<1152xf32> {ttcore.argument_type = #ttcore.argument_type<parameter>, ttcore.local_shape = #ttcore<local_shape local_shape = tensor<1152xf32>>, ttcore.shard_status = #ttcore.shard_status<unsharded>, ttir.name = "L__self___bracket_core_paligemma_with_expert_paligemma_model_vision_tower_vision_model_encoder_layers_23_layer_norm1.weight"} loc("p176.1461"), %arg177: tensor<1152xf32> {ttcore.argument_type = #ttcore.argument_type<parameter>, ttcore.local_shape = #ttcore<local_shape local_shape = tensor<1152xf32>>, ttcore.shard_status = #ttcore.shard_status<unsharded>, ttir.name = "L__self___bracket_core_paligemma_with_expert_paligemma_model_vision_tower_vision_model_encoder_layers_22_mlp_fc2.bias"} loc("p177.1470"), %arg178: tensor<1152x4304xf32> {ttcore.argument_type = #ttcore.argument_type<parameter>, ttcore.local_shape = #ttcore<local_shape local_shape = tensor<1152x4304xf32>>, ttcore.shard_status = #ttcore.shard_status<unsharded>, ttir.name = "L__self___bracket_core_paligemma_with_expert_paligemma_model_vision_tower_vision_model_encoder_layers_22_mlp_fc2.weight"} loc("p178.1474"), %arg179: tensor<4304xf32> {ttcore.argument_type = #ttcore.argument_type<parameter>, ttcore.local_shape = #ttcore<local_shape local_shape = tensor<4304xf32>>, ttcore.shard_status = #ttcore.shard_status<unsharded>, ttir.name = "L__self___bracket_core_paligemma_with_expert_paligemma_model_vision_tower_vision_model_encoder_layers_22_mlp_fc1.bias"} loc("p179.1482"), %arg180: tensor<4304x1152xf32> {ttcore.argument_type = #ttcore.argument_type<parameter>, ttcore.local_shape = #ttcore<local_shape local_shape = tensor<4304x1152xf32>>, ttcore.shard_status = #ttcore.shard_status<unsharded>, ttir.name = "L__self___bracket_core_paligemma_with_expert_paligemma_model_vision_tower_vision_model_encoder_layers_22_mlp_fc1.weight"} loc("p180.1486"), %arg181: tensor<1152xf32> {ttcore.argument_type = #ttcore.argument_type<parameter>, ttcore.local_shape = #ttcore<local_shape local_shape = tensor<1152xf32>>, ttcore.shard_status = #ttcore.shard_status<unsharded>, ttir.name = "L__self___bracket_core_paligemma_with_expert_paligemma_model_vision_tower_vision_model_encoder_layers_22_layer_norm2.bias"} loc("p181.1492"), %arg182: tensor<1152xf32> {ttcore.argument_type = #ttcore.argument_type<parameter>, ttcore.local_shape = #ttcore<local_shape local_shape = tensor<1152xf32>>, ttcore.shard_status = #ttcore.shard_status<unsharded>, ttir.name = "L__self___bracket_core_paligemma_with_expert_paligemma_model_vision_tower_vision_model_encoder_layers_22_layer_norm2.weight"} loc("p182.1497"), %arg183: tensor<1152xf32> {ttcore.argument_type = #ttcore.argument_type<parameter>, ttcore.local_shape = #ttcore<local_shape local_shape = tensor<1152xf32>>, ttcore.shard_status = #ttcore.shard_status<unsharded>, ttir.name = "L__self___bracket_core_paligemma_with_expert_paligemma_model_vision_tower_vision_model_encoder_layers_22_self_attn_out_proj.bias"} loc("p183.1506"), %arg184: tensor<1152x1152xf32> {ttcore.argument_type = #ttcore.argument_type<parameter>, ttcore.local_shape = #ttcore<local_shape local_shape = tensor<1152x1152xf32>>, ttcore.shard_status = #ttcore.shard_status<unsharded>, ttir.name = "L__self___bracket_core_paligemma_with_expert_paligemma_model_vision_tower_vision_model_encoder_layers_22_self_attn_out_proj.weight"} loc("p184.1510"), %arg185: tensor<1152xf32> {ttcore.argument_type = #ttcore.argument_type<parameter>, ttcore.local_shape = #ttcore<local_shape local_shape = tensor<1152xf32>>, ttcore.shard_status = #ttcore.shard_status<unsharded>, ttir.name = "L__self___bracket_core_paligemma_with_expert_paligemma_model_vision_tower_vision_model_encoder_layers_22_self_attn_v_proj.bias"} loc("p185.1516"), %arg186: tensor<1152x1152xf32> {ttcore.argument_type = #ttcore.argument_type<parameter>, ttcore.local_shape = #ttcore<local_shape local_shape = tensor<1152x1152xf32>>, ttcore.shard_status = #ttcore.shard_status<unsharded>, ttir.name = "L__self___bracket_core_paligemma_with_expert_paligemma_model_vision_tower_vision_model_encoder_layers_22_self_attn_v_proj.weight"} loc("p186.1520"), %arg187: tensor<1152xf32> {ttcore.argument_type = #ttcore.argument_type<parameter>, ttcore.local_shape = #ttcore<local_shape local_shape = tensor<1152xf32>>, ttcore.shard_status = #ttcore.shard_status<unsharded>, ttir.name = "L__self___bracket_core_paligemma_with_expert_paligemma_model_vision_tower_vision_model_encoder_layers_22_layer_norm1.bias"} loc("p187.1526"), %arg188: tensor<1152xf32> {ttcore.argument_type = #ttcore.argument_type<parameter>, ttcore.local_shape = #ttcore<local_shape local_shape = tensor<1152xf32>>, ttcore.shard_status = #ttcore.shard_status<unsharded>, ttir.name = "L__self___bracket_core_paligemma_with_expert_paligemma_model_vision_tower_vision_model_encoder_layers_22_layer_norm1.weight"} loc("p188.1531"), %arg189: tensor<1152xf32> {ttcore.argument_type = #ttcore.argument_type<parameter>, ttcore.local_shape = #ttcore<local_shape local_shape = tensor<1152xf32>>, ttcore.shard_status = #ttcore.shard_status<unsharded>, ttir.name = "L__self___bracket_core_paligemma_with_expert_paligemma_model_vision_tower_vision_model_encoder_layers_21_mlp_fc2.bias"} loc("p189.1540"), %arg190: tensor<1152x4304xf32> {ttcore.argument_type = #ttcore.argument_type<parameter>, ttcore.local_shape = #ttcore<local_shape local_shape = tensor<1152x4304xf32>>, ttcore.shard_status = #ttcore.shard_status<unsharded>, ttir.name = "L__self___bracket_core_paligemma_with_expert_paligemma_model_vision_tower_vision_model_encoder_layers_21_mlp_fc2.weight"} loc("p190.1544"), %arg191: tensor<4304xf32> {ttcore.argument_type = #ttcore.argument_type<parameter>, ttcore.local_shape = #ttcore<local_shape local_shape = tensor<4304xf32>>, ttcore.shard_status = #ttcore.shard_status<unsharded>, ttir.name = "L__self___bracket_core_paligemma_with_expert_paligemma_model_vision_tower_vision_model_encoder_layers_21_mlp_fc1.bias"} loc("p191.1552"), %arg192: tensor<4304x1152xf32> {ttcore.argument_type = #ttcore.argument_type<parameter>, ttcore.local_shape = #ttcore<local_shape local_shape = tensor<4304x1152xf32>>, ttcore.shard_status = #ttcore.shard_status<unsharded>, ttir.name = "L__self___bracket_core_paligemma_with_expert_paligemma_model_vision_tower_vision_model_encoder_layers_21_mlp_fc1.weight"} loc("p192.1556"), %arg193: tensor<1152xf32> {ttcore.argument_type = #ttcore.argument_type<parameter>, ttcore.local_shape = #ttcore<local_shape local_shape = tensor<1152xf32>>, ttcore.shard_status = #ttcore.shard_status<unsharded>, ttir.name = "L__self___bracket_core_paligemma_with_expert_paligemma_model_vision_tower_vision_model_encoder_layers_21_layer_norm2.bias"} loc("p193.1562"), %arg194: tensor<1152xf32> {ttcore.argument_type = #ttcore.argument_type<parameter>, ttcore.local_shape = #ttcore<local_shape local_shape = tensor<1152xf32>>, ttcore.shard_status = #ttcore.shard_status<unsharded>, ttir.name = "L__self___bracket_core_paligemma_with_expert_paligemma_model_vision_tower_vision_model_encoder_layers_21_layer_norm2.weight"} loc("p194.1567"), %arg195: tensor<1152xf32> {ttcore.argument_type = #ttcore.argument_type<parameter>, ttcore.local_shape = #ttcore<local_shape local_shape = tensor<1152xf32>>, ttcore.shard_status = #ttcore.shard_status<unsharded>, ttir.name = "L__self___bracket_core_paligemma_with_expert_paligemma_model_vision_tower_vision_model_encoder_layers_21_self_attn_out_proj.bias"} loc("p195.1576"), %arg196: tensor<1152x1152xf32> {ttcore.argument_type = #ttcore.argument_type<parameter>, ttcore.local_shape = #ttcore<local_shape local_shape = tensor<1152x1152xf32>>, ttcore.shard_status = #ttcore.shard_status<unsharded>, ttir.name = "L__self___bracket_core_paligemma_with_expert_paligemma_model_vision_tower_vision_model_encoder_layers_21_self_attn_out_proj.weight"} loc("p196.1580"), %arg197: tensor<1152xf32> {ttcore.argument_type = #ttcore.argument_type<parameter>, ttcore.local_shape = #ttcore<local_shape local_shape = tensor<1152xf32>>, ttcore.shard_status = #ttcore.shard_status<unsharded>, ttir.name = "L__self___bracket_core_paligemma_with_expert_paligemma_model_vision_tower_vision_model_encoder_layers_21_self_attn_v_proj.bias"} loc("p197.1586"), %arg198: tensor<1152x1152xf32> {ttcore.argument_type = #ttcore.argument_type<parameter>, ttcore.local_shape = #ttcore<local_shape local_shape = tensor<1152x1152xf32>>, ttcore.shard_status = #ttcore.shard_status<unsharded>, ttir.name = "L__self___bracket_core_paligemma_with_expert_paligemma_model_vision_tower_vision_model_encoder_layers_21_self_attn_v_proj.weight"} loc("p198.1590"), %arg199: tensor<1152xf32> {ttcore.argument_type = #ttcore.argument_type<parameter>, ttcore.local_shape = #ttcore<local_shape local_shape = tensor<1152xf32>>, ttcore.shard_status = #ttcore.shard_status<unsharded>, ttir.name = "L__self___bracket_core_paligemma_with_expert_paligemma_model_vision_tower_vision_model_encoder_layers_21_layer_norm1.bias"} loc("p199.1596"), %arg200: tensor<1152xf32> {ttcore.argument_type = #ttcore.argument_type<parameter>, ttcore.local_shape = #ttcore<local_shape local_shape = tensor<1152xf32>>, ttcore.shard_status = #ttcore.shard_status<unsharded>, ttir.name = "L__self___bracket_core_paligemma_with_expert_paligemma_model_vision_tower_vision_model_encoder_layers_21_layer_norm1.weight"} loc("p200.1601"), %arg201: tensor<1152xf32> {ttcore.argument_type = #ttcore.argument_type<parameter>, ttcore.local_shape = #ttcore<local_shape local_shape = tensor<1152xf32>>, ttcore.shard_status = #ttcore.shard_status<unsharded>, ttir.name = "L__self___bracket_core_paligemma_with_expert_paligemma_model_vision_tower_vision_model_encoder_layers_20_mlp_fc2.bias"} loc("p201.1610"), %arg202: tensor<1152x4304xf32> {ttcore.argument_type = #ttcore.argument_type<parameter>, ttcore.local_shape = #ttcore<local_shape local_shape = tensor<1152x4304xf32>>, ttcore.shard_status = #ttcore.shard_status<unsharded>, ttir.name = "L__self___bracket_core_paligemma_with_expert_paligemma_model_vision_tower_vision_model_encoder_layers_20_mlp_fc2.weight"} loc("p202.1614"), %arg203: tensor<4304xf32> {ttcore.argument_type = #ttcore.argument_type<parameter>, ttcore.local_shape = #ttcore<local_shape local_shape = tensor<4304xf32>>, ttcore.shard_status = #ttcore.shard_status<unsharded>, ttir.name = "L__self___bracket_core_paligemma_with_expert_paligemma_model_vision_tower_vision_model_encoder_layers_20_mlp_fc1.bias"} loc("p203.1622"), %arg204: tensor<4304x1152xf32> {ttcore.argument_type = #ttcore.argument_type<parameter>, ttcore.local_shape = #ttcore<local_shape local_shape = tensor<4304x1152xf32>>, ttcore.shard_status = #ttcore.shard_status<unsharded>, ttir.name = "L__self___bracket_core_paligemma_with_expert_paligemma_model_vision_tower_vision_model_encoder_layers_20_mlp_fc1.weight"} loc("p204.1626"), %arg205: tensor<1152xf32> {ttcore.argument_type = #ttcore.argument_type<parameter>, ttcore.local_shape = #ttcore<local_shape local_shape = tensor<1152xf32>>, ttcore.shard_status = #ttcore.shard_status<unsharded>, ttir.name = "L__self___bracket_core_paligemma_with_expert_paligemma_model_vision_tower_vision_model_encoder_layers_20_layer_norm2.bias"} loc("p205.1632"), %arg206: tensor<1152xf32> {ttcore.argument_type = #ttcore.argument_type<parameter>, ttcore.local_shape = #ttcore<local_shape local_shape = tensor<1152xf32>>, ttcore.shard_status = #ttcore.shard_status<unsharded>, ttir.name = "L__self___bracket_core_paligemma_with_expert_paligemma_model_vision_tower_vision_model_encoder_layers_20_layer_norm2.weight"} loc("p206.1637"), %arg207: tensor<1152xf32> {ttcore.argument_type = #ttcore.argument_type<parameter>, ttcore.local_shape = #ttcore<local_shape local_shape = tensor<1152xf32>>, ttcore.shard_status = #ttcore.shard_status<unsharded>, ttir.name = "L__self___bracket_core_paligemma_with_expert_paligemma_model_vision_tower_vision_model_encoder_layers_20_self_attn_out_proj.bias"} loc("p207.1646"), %arg208: tensor<1152x1152xf32> {ttcore.argument_type = #ttcore.argument_type<parameter>, ttcore.local_shape = #ttcore<local_shape local_shape = tensor<1152x1152xf32>>, ttcore.shard_status = #ttcore.shard_status<unsharded>, ttir.name = "L__self___bracket_core_paligemma_with_expert_paligemma_model_vision_tower_vision_model_encoder_layers_20_self_attn_out_proj.weight"} loc("p208.1650"), %arg209: tensor<1152xf32> {ttcore.argument_type = #ttcore.argument_type<parameter>, ttcore.local_shape = #ttcore<local_shape local_shape = tensor<1152xf32>>, ttcore.shard_status = #ttcore.shard_status<unsharded>, ttir.name = "L__self___bracket_core_paligemma_with_expert_paligemma_model_vision_tower_vision_model_encoder_layers_20_self_attn_v_proj.bias"} loc("p209.1656"), %arg210: tensor<1152x1152xf32> {ttcore.argument_type = #ttcore.argument_type<parameter>, ttcore.local_shape = #ttcore<local_shape local_shape = tensor<1152x1152xf32>>, ttcore.shard_status = #ttcore.shard_status<unsharded>, ttir.name = "L__self___bracket_core_paligemma_with_expert_paligemma_model_vision_tower_vision_model_encoder_layers_20_self_attn_v_proj.weight"} loc("p210.1660"), %arg211: tensor<1152xf32> {ttcore.argument_type = #ttcore.argument_type<parameter>, ttcore.local_shape = #ttcore<local_shape local_shape = tensor<1152xf32>>, ttcore.shard_status = #ttcore.shard_status<unsharded>, ttir.name = "L__self___bracket_core_paligemma_with_expert_paligemma_model_vision_tower_vision_model_encoder_layers_20_layer_norm1.bias"} loc("p211.1666"), %arg212: tensor<1152xf32> {ttcore.argument_type = #ttcore.argument_type<parameter>, ttcore.local_shape = #ttcore<local_shape local_shape = tensor<1152xf32>>, ttcore.shard_status = #ttcore.shard_status<unsharded>, ttir.name = "L__self___bracket_core_paligemma_with_expert_paligemma_model_vision_tower_vision_model_encoder_layers_20_layer_norm1.weight"} loc("p212.1671"), %arg213: tensor<1152xf32> {ttcore.argument_type = #ttcore.argument_type<parameter>, ttcore.local_shape = #ttcore<local_shape local_shape = tensor<1152xf32>>, ttcore.shard_status = #ttcore.shard_status<unsharded>, ttir.name = "L__self___bracket_core_paligemma_with_expert_paligemma_model_vision_tower_vision_model_encoder_layers_19_mlp_fc2.bias"} loc("p213.1680"), %arg214: tensor<1152x4304xf32> {ttcore.argument_type = #ttcore.argument_type<parameter>, ttcore.local_shape = #ttcore<local_shape local_shape = tensor<1152x4304xf32>>, ttcore.shard_status = #ttcore.shard_status<unsharded>, ttir.name = "L__self___bracket_core_paligemma_with_expert_paligemma_model_vision_tower_vision_model_encoder_layers_19_mlp_fc2.weight"} loc("p214.1684"), %arg215: tensor<4304xf32> {ttcore.argument_type = #ttcore.argument_type<parameter>, ttcore.local_shape = #ttcore<local_shape local_shape = tensor<4304xf32>>, ttcore.shard_status = #ttcore.shard_status<unsharded>, ttir.name = "L__self___bracket_core_paligemma_with_expert_paligemma_model_vision_tower_vision_model_encoder_layers_19_mlp_fc1.bias"} loc("p215.1692"), %arg216: tensor<4304x1152xf32> {ttcore.argument_type = #ttcore.argument_type<parameter>, ttcore.local_shape = #ttcore<local_shape local_shape = tensor<4304x1152xf32>>, ttcore.shard_status = #ttcore.shard_status<unsharded>, ttir.name = "L__self___bracket_core_paligemma_with_expert_paligemma_model_vision_tower_vision_model_encoder_layers_19_mlp_fc1.weight"} loc("p216.1696"), %arg217: tensor<1152xf32> {ttcore.argument_type = #ttcore.argument_type<parameter>, ttcore.local_shape = #ttcore<local_shape local_shape = tensor<1152xf32>>, ttcore.shard_status = #ttcore.shard_status<unsharded>, ttir.name = "L__self___bracket_core_paligemma_with_expert_paligemma_model_vision_tower_vision_model_encoder_layers_19_layer_norm2.bias"} loc("p217.1702"), %arg218: tensor<1152xf32> {ttcore.argument_type = #ttcore.argument_type<parameter>, ttcore.local_shape = #ttcore<local_shape local_shape = tensor<1152xf32>>, ttcore.shard_status = #ttcore.shard_status<unsharded>, ttir.name = "L__self___bracket_core_paligemma_with_expert_paligemma_model_vision_tower_vision_model_encoder_layers_19_layer_norm2.weight"} loc("p218.1707"), %arg219: tensor<1152xf32> {ttcore.argument_type = #ttcore.argument_type<parameter>, ttcore.local_shape = #ttcore<local_shape local_shape = tensor<1152xf32>>, ttcore.shard_status = #ttcore.shard_status<unsharded>, ttir.name = "L__self___bracket_core_paligemma_with_expert_paligemma_model_vision_tower_vision_model_encoder_layers_19_self_attn_out_proj.bias"} loc("p219.1716"), %arg220: tensor<1152x1152xf32> {ttcore.argument_type = #ttcore.argument_type<parameter>, ttcore.local_shape = #ttcore<local_shape local_shape = tensor<1152x1152xf32>>, ttcore.shard_status = #ttcore.shard_status<unsharded>, ttir.name = "L__self___bracket_core_paligemma_with_expert_paligemma_model_vision_tower_vision_model_encoder_layers_19_self_attn_out_proj.weight"} loc("p220.1720"), %arg221: tensor<1152xf32> {ttcore.argument_type = #ttcore.argument_type<parameter>, ttcore.local_shape = #ttcore<local_shape local_shape = tensor<1152xf32>>, ttcore.shard_status = #ttcore.shard_status<unsharded>, ttir.name = "L__self___bracket_core_paligemma_with_expert_paligemma_model_vision_tower_vision_model_encoder_layers_19_self_attn_v_proj.bias"} loc("p221.1726"), %arg222: tensor<1152x1152xf32> {ttcore.argument_type = #ttcore.argument_type<parameter>, ttcore.local_shape = #ttcore<local_shape local_shape = tensor<1152x1152xf32>>, ttcore.shard_status = #ttcore.shard_status<unsharded>, ttir.name = "L__self___bracket_core_paligemma_with_expert_paligemma_model_vision_tower_vision_model_encoder_layers_19_self_attn_v_proj.weight"} loc("p222.1730"), %arg223: tensor<1152xf32> {ttcore.argument_type = #ttcore.argument_type<parameter>, ttcore.local_shape = #ttcore<local_shape local_shape = tensor<1152xf32>>, ttcore.shard_status = #ttcore.shard_status<unsharded>, ttir.name = "L__self___bracket_core_paligemma_with_expert_paligemma_model_vision_tower_vision_model_encoder_layers_19_layer_norm1.bias"} loc("p223.1736"), %arg224: tensor<1152xf32> {ttcore.argument_type = #ttcore.argument_type<parameter>, ttcore.local_shape = #ttcore<local_shape local_shape = tensor<1152xf32>>, ttcore.shard_status = #ttcore.shard_status<unsharded>, ttir.name = "L__self___bracket_core_paligemma_with_expert_paligemma_model_vision_tower_vision_model_encoder_layers_19_layer_norm1.weight"} loc("p224.1741"), %arg225: tensor<1152xf32> {ttcore.argument_type = #ttcore.argument_type<parameter>, ttcore.local_shape = #ttcore<local_shape local_shape = tensor<1152xf32>>, ttcore.shard_status = #ttcore.shard_status<unsharded>, ttir.name = "L__self___bracket_core_paligemma_with_expert_paligemma_model_vision_tower_vision_model_encoder_layers_18_mlp_fc2.bias"} loc("p225.1750"), %arg226: tensor<1152x4304xf32> {ttcore.argument_type = #ttcore.argument_type<parameter>, ttcore.local_shape = #ttcore<local_shape local_shape = tensor<1152x4304xf32>>, ttcore.shard_status = #ttcore.shard_status<unsharded>, ttir.name = "L__self___bracket_core_paligemma_with_expert_paligemma_model_vision_tower_vision_model_encoder_layers_18_mlp_fc2.weight"} loc("p226.1754"), %arg227: tensor<4304xf32> {ttcore.argument_type = #ttcore.argument_type<parameter>, ttcore.local_shape = #ttcore<local_shape local_shape = tensor<4304xf32>>, ttcore.shard_status = #ttcore.shard_status<unsharded>, ttir.name = "L__self___bracket_core_paligemma_with_expert_paligemma_model_vision_tower_vision_model_encoder_layers_18_mlp_fc1.bias"} loc("p227.1762"), %arg228: tensor<4304x1152xf32> {ttcore.argument_type = #ttcore.argument_type<parameter>, ttcore.local_shape = #ttcore<local_shape local_shape = tensor<4304x1152xf32>>, ttcore.shard_status = #ttcore.shard_status<unsharded>, ttir.name = "L__self___bracket_core_paligemma_with_expert_paligemma_model_vision_tower_vision_model_encoder_layers_18_mlp_fc1.weight"} loc("p228.1766"), %arg229: tensor<1152xf32> {ttcore.argument_type = #ttcore.argument_type<parameter>, ttcore.local_shape = #ttcore<local_shape local_shape = tensor<1152xf32>>, ttcore.shard_status = #ttcore.shard_status<unsharded>, ttir.name = "L__self___bracket_core_paligemma_with_expert_paligemma_model_vision_tower_vision_model_encoder_layers_18_layer_norm2.bias"} loc("p229.1772"), %arg230: tensor<1152xf32> {ttcore.argument_type = #ttcore.argument_type<parameter>, ttcore.local_shape = #ttcore<local_shape local_shape = tensor<1152xf32>>, ttcore.shard_status = #ttcore.shard_status<unsharded>, ttir.name = "L__self___bracket_core_paligemma_with_expert_paligemma_model_vision_tower_vision_model_encoder_layers_18_layer_norm2.weight"} loc("p230.1777"), %arg231: tensor<1152xf32> {ttcore.argument_type = #ttcore.argument_type<parameter>, ttcore.local_shape = #ttcore<local_shape local_shape = tensor<1152xf32>>, ttcore.shard_status = #ttcore.shard_status<unsharded>, ttir.name = "L__self___bracket_core_paligemma_with_expert_paligemma_model_vision_tower_vision_model_encoder_layers_18_self_attn_out_proj.bias"} loc("p231.1786"), %arg232: tensor<1152x1152xf32> {ttcore.argument_type = #ttcore.argument_type<parameter>, ttcore.local_shape = #ttcore<local_shape local_shape = tensor<1152x1152xf32>>, ttcore.shard_status = #ttcore.shard_status<unsharded>, ttir.name = "L__self___bracket_core_paligemma_with_expert_paligemma_model_vision_tower_vision_model_encoder_layers_18_self_attn_out_proj.weight"} loc("p232.1790"), %arg233: tensor<1152xf32> {ttcore.argument_type = #ttcore.argument_type<parameter>, ttcore.local_shape = #ttcore<local_shape local_shape = tensor<1152xf32>>, ttcore.shard_status = #ttcore.shard_status<unsharded>, ttir.name = "L__self___bracket_core_paligemma_with_expert_paligemma_model_vision_tower_vision_model_encoder_layers_18_self_attn_v_proj.bias"} loc("p233.1796"), %arg234: tensor<1152x1152xf32> {ttcore.argument_type = #ttcore.argument_type<parameter>, ttcore.local_shape = #ttcore<local_shape local_shape = tensor<1152x1152xf32>>, ttcore.shard_status = #ttcore.shard_status<unsharded>, ttir.name = "L__self___bracket_core_paligemma_with_expert_paligemma_model_vision_tower_vision_model_encoder_layers_18_self_attn_v_proj.weight"} loc("p234.1800"), %arg235: tensor<1152xf32> {ttcore.argument_type = #ttcore.argument_type<parameter>, ttcore.local_shape = #ttcore<local_shape local_shape = tensor<1152xf32>>, ttcore.shard_status = #ttcore.shard_status<unsharded>, ttir.name = "L__self___bracket_core_paligemma_with_expert_paligemma_model_vision_tower_vision_model_encoder_layers_18_layer_norm1.bias"} loc("p235.1806"), %arg236: tensor<1152xf32> {ttcore.argument_type = #ttcore.argument_type<parameter>, ttcore.local_shape = #ttcore<local_shape local_shape = tensor<1152xf32>>, ttcore.shard_status = #ttcore.shard_status<unsharded>, ttir.name = "L__self___bracket_core_paligemma_with_expert_paligemma_model_vision_tower_vision_model_encoder_layers_18_layer_norm1.weight"} loc("p236.1811"), %arg237: tensor<1152xf32> {ttcore.argument_type = #ttcore.argument_type<parameter>, ttcore.local_shape = #ttcore<local_shape local_shape = tensor<1152xf32>>, ttcore.shard_status = #ttcore.shard_status<unsharded>, ttir.name = "L__self___bracket_core_paligemma_with_expert_paligemma_model_vision_tower_vision_model_encoder_layers_17_mlp_fc2.bias"} loc("p237.1820"), %arg238: tensor<1152x4304xf32> {ttcore.argument_type = #ttcore.argument_type<parameter>, ttcore.local_shape = #ttcore<local_shape local_shape = tensor<1152x4304xf32>>, ttcore.shard_status = #ttcore.shard_status<unsharded>, ttir.name = "L__self___bracket_core_paligemma_with_expert_paligemma_model_vision_tower_vision_model_encoder_layers_17_mlp_fc2.weight"} loc("p238.1824"), %arg239: tensor<4304xf32> {ttcore.argument_type = #ttcore.argument_type<parameter>, ttcore.local_shape = #ttcore<local_shape local_shape = tensor<4304xf32>>, ttcore.shard_status = #ttcore.shard_status<unsharded>, ttir.name = "L__self___bracket_core_paligemma_with_expert_paligemma_model_vision_tower_vision_model_encoder_layers_17_mlp_fc1.bias"} loc("p239.1832"), %arg240: tensor<4304x1152xf32> {ttcore.argument_type = #ttcore.argument_type<parameter>, ttcore.local_shape = #ttcore<local_shape local_shape = tensor<4304x1152xf32>>, ttcore.shard_status = #ttcore.shard_status<unsharded>, ttir.name = "L__self___bracket_core_paligemma_with_expert_paligemma_model_vision_tower_vision_model_encoder_layers_17_mlp_fc1.weight"} loc("p240.1836"), %arg241: tensor<1152xf32> {ttcore.argument_type = #ttcore.argument_type<parameter>, ttcore.local_shape = #ttcore<local_shape local_shape = tensor<1152xf32>>, ttcore.shard_status = #ttcore.shard_status<unsharded>, ttir.name = "L__self___bracket_core_paligemma_with_expert_paligemma_model_vision_tower_vision_model_encoder_layers_17_layer_norm2.bias"} loc("p241.1842"), %arg242: tensor<1152xf32> {ttcore.argument_type = #ttcore.argument_type<parameter>, ttcore.local_shape = #ttcore<local_shape local_shape = tensor<1152xf32>>, ttcore.shard_status = #ttcore.shard_status<unsharded>, ttir.name = "L__self___bracket_core_paligemma_with_expert_paligemma_model_vision_tower_vision_model_encoder_layers_17_layer_norm2.weight"} loc("p242.1847"), %arg243: tensor<1152xf32> {ttcore.argument_type = #ttcore.argument_type<parameter>, ttcore.local_shape = #ttcore<local_shape local_shape = tensor<1152xf32>>, ttcore.shard_status = #ttcore.shard_status<unsharded>, ttir.name = "L__self___bracket_core_paligemma_with_expert_paligemma_model_vision_tower_vision_model_encoder_layers_17_self_attn_out_proj.bias"} loc("p243.1856"), %arg244: tensor<1152x1152xf32> {ttcore.argument_type = #ttcore.argument_type<parameter>, ttcore.local_shape = #ttcore<local_shape local_shape = tensor<1152x1152xf32>>, ttcore.shard_status = #ttcore.shard_status<unsharded>, ttir.name = "L__self___bracket_core_paligemma_with_expert_paligemma_model_vision_tower_vision_model_encoder_layers_17_self_attn_out_proj.weight"} loc("p244.1860"), %arg245: tensor<1152xf32> {ttcore.argument_type = #ttcore.argument_type<parameter>, ttcore.local_shape = #ttcore<local_shape local_shape = tensor<1152xf32>>, ttcore.shard_status = #ttcore.shard_status<unsharded>, ttir.name = "L__self___bracket_core_paligemma_with_expert_paligemma_model_vision_tower_vision_model_encoder_layers_17_self_attn_v_proj.bias"} loc("p245.1866"), %arg246: tensor<1152x1152xf32> {ttcore.argument_type = #ttcore.argument_type<parameter>, ttcore.local_shape = #ttcore<local_shape local_shape = tensor<1152x1152xf32>>, ttcore.shard_status = #ttcore.shard_status<unsharded>, ttir.name = "L__self___bracket_core_paligemma_with_expert_paligemma_model_vision_tower_vision_model_encoder_layers_17_self_attn_v_proj.weight"} loc("p246.1870"), %arg247: tensor<1152xf32> {ttcore.argument_type = #ttcore.argument_type<parameter>, ttcore.local_shape = #ttcore<local_shape local_shape = tensor<1152xf32>>, ttcore.shard_status = #ttcore.shard_status<unsharded>, ttir.name = "L__self___bracket_core_paligemma_with_expert_paligemma_model_vision_tower_vision_model_encoder_layers_17_layer_norm1.bias"} loc("p247.1876"), %arg248: tensor<1152xf32> {ttcore.argument_type = #ttcore.argument_type<parameter>, ttcore.local_shape = #ttcore<local_shape local_shape = tensor<1152xf32>>, ttcore.shard_status = #ttcore.shard_status<unsharded>, ttir.name = "L__self___bracket_core_paligemma_with_expert_paligemma_model_vision_tower_vision_model_encoder_layers_17_layer_norm1.weight"} loc("p248.1881"), %arg249: tensor<1152xf32> {ttcore.argument_type = #ttcore.argument_type<parameter>, ttcore.local_shape = #ttcore<local_shape local_shape = tensor<1152xf32>>, ttcore.shard_status = #ttcore.shard_status<unsharded>, ttir.name = "L__self___bracket_core_paligemma_with_expert_paligemma_model_vision_tower_vision_model_encoder_layers_16_mlp_fc2.bias"} loc("p249.1890"), %arg250: tensor<1152x4304xf32> {ttcore.argument_type = #ttcore.argument_type<parameter>, ttcore.local_shape = #ttcore<local_shape local_shape = tensor<1152x4304xf32>>, ttcore.shard_status = #ttcore.shard_status<unsharded>, ttir.name = "L__self___bracket_core_paligemma_with_expert_paligemma_model_vision_tower_vision_model_encoder_layers_16_mlp_fc2.weight"} loc("p250.1894"), %arg251: tensor<4304xf32> {ttcore.argument_type = #ttcore.argument_type<parameter>, ttcore.local_shape = #ttcore<local_shape local_shape = tensor<4304xf32>>, ttcore.shard_status = #ttcore.shard_status<unsharded>, ttir.name = "L__self___bracket_core_paligemma_with_expert_paligemma_model_vision_tower_vision_model_encoder_layers_16_mlp_fc1.bias"} loc("p251.1902"), %arg252: tensor<4304x1152xf32> {ttcore.argument_type = #ttcore.argument_type<parameter>, ttcore.local_shape = #ttcore<local_shape local_shape = tensor<4304x1152xf32>>, ttcore.shard_status = #ttcore.shard_status<unsharded>, ttir.name = "L__self___bracket_core_paligemma_with_expert_paligemma_model_vision_tower_vision_model_encoder_layers_16_mlp_fc1.weight"} loc("p252.1906"), %arg253: tensor<1152xf32> {ttcore.argument_type = #ttcore.argument_type<parameter>, ttcore.local_shape = #ttcore<local_shape local_shape = tensor<1152xf32>>, ttcore.shard_status = #ttcore.shard_status<unsharded>, ttir.name = "L__self___bracket_core_paligemma_with_expert_paligemma_model_vision_tower_vision_model_encoder_layers_16_layer_norm2.bias"} loc("p253.1912"), %arg254: tensor<1152xf32> {ttcore.argument_type = #ttcore.argument_type<parameter>, ttcore.local_shape = #ttcore<local_shape local_shape = tensor<1152xf32>>, ttcore.shard_status = #ttcore.shard_status<unsharded>, ttir.name = "L__self___bracket_core_paligemma_with_expert_paligemma_model_vision_tower_vision_model_encoder_layers_16_layer_norm2.weight"} loc("p254.1917"), %arg255: tensor<1152xf32> {ttcore.argument_type = #ttcore.argument_type<parameter>, ttcore.local_shape = #ttcore<local_shape local_shape = tensor<1152xf32>>, ttcore.shard_status = #ttcore.shard_status<unsharded>, ttir.name = "L__self___bracket_core_paligemma_with_expert_paligemma_model_vision_tower_vision_model_encoder_layers_16_self_attn_out_proj.bias"} loc("p255.1926"), %arg256: tensor<1152x1152xf32> {ttcore.argument_type = #ttcore.argument_type<parameter>, ttcore.local_shape = #ttcore<local_shape local_shape = tensor<1152x1152xf32>>, ttcore.shard_status = #ttcore.shard_status<unsharded>, ttir.name = "L__self___bracket_core_paligemma_with_expert_paligemma_model_vision_tower_vision_model_encoder_layers_16_self_attn_out_proj.weight"} loc("p256.1930"), %arg257: tensor<1152xf32> {ttcore.argument_type = #ttcore.argument_type<parameter>, ttcore.local_shape = #ttcore<local_shape local_shape = tensor<1152xf32>>, ttcore.shard_status = #ttcore.shard_status<unsharded>, ttir.name = "L__self___bracket_core_paligemma_with_expert_paligemma_model_vision_tower_vision_model_encoder_layers_16_self_attn_v_proj.bias"} loc("p257.1936"), %arg258: tensor<1152x1152xf32> {ttcore.argument_type = #ttcore.argument_type<parameter>, ttcore.local_shape = #ttcore<local_shape local_shape = tensor<1152x1152xf32>>, ttcore.shard_status = #ttcore.shard_status<unsharded>, ttir.name = "L__self___bracket_core_paligemma_with_expert_paligemma_model_vision_tower_vision_model_encoder_layers_16_self_attn_v_proj.weight"} loc("p258.1940"), %arg259: tensor<1152xf32> {ttcore.argument_type = #ttcore.argument_type<parameter>, ttcore.local_shape = #ttcore<local_shape local_shape = tensor<1152xf32>>, ttcore.shard_status = #ttcore.shard_status<unsharded>, ttir.name = "L__self___bracket_core_paligemma_with_expert_paligemma_model_vision_tower_vision_model_encoder_layers_16_layer_norm1.bias"} loc("p259.1946"), %arg260: tensor<1152xf32> {ttcore.argument_type = #ttcore.argument_type<parameter>, ttcore.local_shape = #ttcore<local_shape local_shape = tensor<1152xf32>>, ttcore.shard_status = #ttcore.shard_status<unsharded>, ttir.name = "L__self___bracket_core_paligemma_with_expert_paligemma_model_vision_tower_vision_model_encoder_layers_16_layer_norm1.weight"} loc("p260.1951"), %arg261: tensor<1152xf32> {ttcore.argument_type = #ttcore.argument_type<parameter>, ttcore.local_shape = #ttcore<local_shape local_shape = tensor<1152xf32>>, ttcore.shard_status = #ttcore.shard_status<unsharded>, ttir.name = "L__self___bracket_core_paligemma_with_expert_paligemma_model_vision_tower_vision_model_encoder_layers_15_mlp_fc2.bias"} loc("p261.1960"), %arg262: tensor<1152x4304xf32> {ttcore.argument_type = #ttcore.argument_type<parameter>, ttcore.local_shape = #ttcore<local_shape local_shape = tensor<1152x4304xf32>>, ttcore.shard_status = #ttcore.shard_status<unsharded>, ttir.name = "L__self___bracket_core_paligemma_with_expert_paligemma_model_vision_tower_vision_model_encoder_layers_15_mlp_fc2.weight"} loc("p262.1964"), %arg263: tensor<4304xf32> {ttcore.argument_type = #ttcore.argument_type<parameter>, ttcore.local_shape = #ttcore<local_shape local_shape = tensor<4304xf32>>, ttcore.shard_status = #ttcore.shard_status<unsharded>, ttir.name = "L__self___bracket_core_paligemma_with_expert_paligemma_model_vision_tower_vision_model_encoder_layers_15_mlp_fc1.bias"} loc("p263.1972"), %arg264: tensor<4304x1152xf32> {ttcore.argument_type = #ttcore.argument_type<parameter>, ttcore.local_shape = #ttcore<local_shape local_shape = tensor<4304x1152xf32>>, ttcore.shard_status = #ttcore.shard_status<unsharded>, ttir.name = "L__self___bracket_core_paligemma_with_expert_paligemma_model_vision_tower_vision_model_encoder_layers_15_mlp_fc1.weight"} loc("p264.1976"), %arg265: tensor<1152xf32> {ttcore.argument_type = #ttcore.argument_type<parameter>, ttcore.local_shape = #ttcore<local_shape local_shape = tensor<1152xf32>>, ttcore.shard_status = #ttcore.shard_status<unsharded>, ttir.name = "L__self___bracket_core_paligemma_with_expert_paligemma_model_vision_tower_vision_model_encoder_layers_15_layer_norm2.bias"} loc("p265.1982"), %arg266: tensor<1152xf32> {ttcore.argument_type = #ttcore.argument_type<parameter>, ttcore.local_shape = #ttcore<local_shape local_shape = tensor<1152xf32>>, ttcore.shard_status = #ttcore.shard_status<unsharded>, ttir.name = "L__self___bracket_core_paligemma_with_expert_paligemma_model_vision_tower_vision_model_encoder_layers_15_layer_norm2.weight"} loc("p266.1987"), %arg267: tensor<1152xf32> {ttcore.argument_type = #ttcore.argument_type<parameter>, ttcore.local_shape = #ttcore<local_shape local_shape = tensor<1152xf32>>, ttcore.shard_status = #ttcore.shard_status<unsharded>, ttir.name = "L__self___bracket_core_paligemma_with_expert_paligemma_model_vision_tower_vision_model_encoder_layers_15_self_attn_out_proj.bias"} loc("p267.1996"), %arg268: tensor<1152x1152xf32> {ttcore.argument_type = #ttcore.argument_type<parameter>, ttcore.local_shape = #ttcore<local_shape local_shape = tensor<1152x1152xf32>>, ttcore.shard_status = #ttcore.shard_status<unsharded>, ttir.name = "L__self___bracket_core_paligemma_with_expert_paligemma_model_vision_tower_vision_model_encoder_layers_15_self_attn_out_proj.weight"} loc("p268.2000"), %arg269: tensor<1152xf32> {ttcore.argument_type = #ttcore.argument_type<parameter>, ttcore.local_shape = #ttcore<local_shape local_shape = tensor<1152xf32>>, ttcore.shard_status = #ttcore.shard_status<unsharded>, ttir.name = "L__self___bracket_core_paligemma_with_expert_paligemma_model_vision_tower_vision_model_encoder_layers_15_self_attn_v_proj.bias"} loc("p269.2006"), %arg270: tensor<1152x1152xf32> {ttcore.argument_type = #ttcore.argument_type<parameter>, ttcore.local_shape = #ttcore<local_shape local_shape = tensor<1152x1152xf32>>, ttcore.shard_status = #ttcore.shard_status<unsharded>, ttir.name = "L__self___bracket_core_paligemma_with_expert_paligemma_model_vision_tower_vision_model_encoder_layers_15_self_attn_v_proj.weight"} loc("p270.2010"), %arg271: tensor<1152xf32> {ttcore.argument_type = #ttcore.argument_type<parameter>, ttcore.local_shape = #ttcore<local_shape local_shape = tensor<1152xf32>>, ttcore.shard_status = #ttcore.shard_status<unsharded>, ttir.name = "L__self___bracket_core_paligemma_with_expert_paligemma_model_vision_tower_vision_model_encoder_layers_15_layer_norm1.bias"} loc("p271.2016"), %arg272: tensor<1152xf32> {ttcore.argument_type = #ttcore.argument_type<parameter>, ttcore.local_shape = #ttcore<local_shape local_shape = tensor<1152xf32>>, ttcore.shard_status = #ttcore.shard_status<unsharded>, ttir.name = "L__self___bracket_core_paligemma_with_expert_paligemma_model_vision_tower_vision_model_encoder_layers_15_layer_norm1.weight"} loc("p272.2021"), %arg273: tensor<1152xf32> {ttcore.argument_type = #ttcore.argument_type<parameter>, ttcore.local_shape = #ttcore<local_shape local_shape = tensor<1152xf32>>, ttcore.shard_status = #ttcore.shard_status<unsharded>, ttir.name = "L__self___bracket_core_paligemma_with_expert_paligemma_model_vision_tower_vision_model_encoder_layers_14_mlp_fc2.bias"} loc("p273.2030"), %arg274: tensor<1152x4304xf32> {ttcore.argument_type = #ttcore.argument_type<parameter>, ttcore.local_shape = #ttcore<local_shape local_shape = tensor<1152x4304xf32>>, ttcore.shard_status = #ttcore.shard_status<unsharded>, ttir.name = "L__self___bracket_core_paligemma_with_expert_paligemma_model_vision_tower_vision_model_encoder_layers_14_mlp_fc2.weight"} loc("p274.2034"), %arg275: tensor<4304xf32> {ttcore.argument_type = #ttcore.argument_type<parameter>, ttcore.local_shape = #ttcore<local_shape local_shape = tensor<4304xf32>>, ttcore.shard_status = #ttcore.shard_status<unsharded>, ttir.name = "L__self___bracket_core_paligemma_with_expert_paligemma_model_vision_tower_vision_model_encoder_layers_14_mlp_fc1.bias"} loc("p275.2042"), %arg276: tensor<4304x1152xf32> {ttcore.argument_type = #ttcore.argument_type<parameter>, ttcore.local_shape = #ttcore<local_shape local_shape = tensor<4304x1152xf32>>, ttcore.shard_status = #ttcore.shard_status<unsharded>, ttir.name = "L__self___bracket_core_paligemma_with_expert_paligemma_model_vision_tower_vision_model_encoder_layers_14_mlp_fc1.weight"} loc("p276.2046"), %arg277: tensor<1152xf32> {ttcore.argument_type = #ttcore.argument_type<parameter>, ttcore.local_shape = #ttcore<local_shape local_shape = tensor<1152xf32>>, ttcore.shard_status = #ttcore.shard_status<unsharded>, ttir.name = "L__self___bracket_core_paligemma_with_expert_paligemma_model_vision_tower_vision_model_encoder_layers_14_layer_norm2.bias"} loc("p277.2052"), %arg278: tensor<1152xf32> {ttcore.argument_type = #ttcore.argument_type<parameter>, ttcore.local_shape = #ttcore<local_shape local_shape = tensor<1152xf32>>, ttcore.shard_status = #ttcore.shard_status<unsharded>, ttir.name = "L__self___bracket_core_paligemma_with_expert_paligemma_model_vision_tower_vision_model_encoder_layers_14_layer_norm2.weight"} loc("p278.2057"), %arg279: tensor<1152xf32> {ttcore.argument_type = #ttcore.argument_type<parameter>, ttcore.local_shape = #ttcore<local_shape local_shape = tensor<1152xf32>>, ttcore.shard_status = #ttcore.shard_status<unsharded>, ttir.name = "L__self___bracket_core_paligemma_with_expert_paligemma_model_vision_tower_vision_model_encoder_layers_14_self_attn_out_proj.bias"} loc("p279.2066"), %arg280: tensor<1152x1152xf32> {ttcore.argument_type = #ttcore.argument_type<parameter>, ttcore.local_shape = #ttcore<local_shape local_shape = tensor<1152x1152xf32>>, ttcore.shard_status = #ttcore.shard_status<unsharded>, ttir.name = "L__self___bracket_core_paligemma_with_expert_paligemma_model_vision_tower_vision_model_encoder_layers_14_self_attn_out_proj.weight"} loc("p280.2070"), %arg281: tensor<1152xf32> {ttcore.argument_type = #ttcore.argument_type<parameter>, ttcore.local_shape = #ttcore<local_shape local_shape = tensor<1152xf32>>, ttcore.shard_status = #ttcore.shard_status<unsharded>, ttir.name = "L__self___bracket_core_paligemma_with_expert_paligemma_model_vision_tower_vision_model_encoder_layers_14_self_attn_v_proj.bias"} loc("p281.2076"), %arg282: tensor<1152x1152xf32> {ttcore.argument_type = #ttcore.argument_type<parameter>, ttcore.local_shape = #ttcore<local_shape local_shape = tensor<1152x1152xf32>>, ttcore.shard_status = #ttcore.shard_status<unsharded>, ttir.name = "L__self___bracket_core_paligemma_with_expert_paligemma_model_vision_tower_vision_model_encoder_layers_14_self_attn_v_proj.weight"} loc("p282.2080"), %arg283: tensor<1152xf32> {ttcore.argument_type = #ttcore.argument_type<parameter>, ttcore.local_shape = #ttcore<local_shape local_shape = tensor<1152xf32>>, ttcore.shard_status = #ttcore.shard_status<unsharded>, ttir.name = "L__self___bracket_core_paligemma_with_expert_paligemma_model_vision_tower_vision_model_encoder_layers_14_layer_norm1.bias"} loc("p283.2086"), %arg284: tensor<1152xf32> {ttcore.argument_type = #ttcore.argument_type<parameter>, ttcore.local_shape = #ttcore<local_shape local_shape = tensor<1152xf32>>, ttcore.shard_status = #ttcore.shard_status<unsharded>, ttir.name = "L__self___bracket_core_paligemma_with_expert_paligemma_model_vision_tower_vision_model_encoder_layers_14_layer_norm1.weight"} loc("p284.2091"), %arg285: tensor<1152xf32> {ttcore.argument_type = #ttcore.argument_type<parameter>, ttcore.local_shape = #ttcore<local_shape local_shape = tensor<1152xf32>>, ttcore.shard_status = #ttcore.shard_status<unsharded>, ttir.name = "L__self___bracket_core_paligemma_with_expert_paligemma_model_vision_tower_vision_model_encoder_layers_13_mlp_fc2.bias"} loc("p285.2100"), %arg286: tensor<1152x4304xf32> {ttcore.argument_type = #ttcore.argument_type<parameter>, ttcore.local_shape = #ttcore<local_shape local_shape = tensor<1152x4304xf32>>, ttcore.shard_status = #ttcore.shard_status<unsharded>, ttir.name = "L__self___bracket_core_paligemma_with_expert_paligemma_model_vision_tower_vision_model_encoder_layers_13_mlp_fc2.weight"} loc("p286.2104"), %arg287: tensor<4304xf32> {ttcore.argument_type = #ttcore.argument_type<parameter>, ttcore.local_shape = #ttcore<local_shape local_shape = tensor<4304xf32>>, ttcore.shard_status = #ttcore.shard_status<unsharded>, ttir.name = "L__self___bracket_core_paligemma_with_expert_paligemma_model_vision_tower_vision_model_encoder_layers_13_mlp_fc1.bias"} loc("p287.2112"), %arg288: tensor<4304x1152xf32> {ttcore.argument_type = #ttcore.argument_type<parameter>, ttcore.local_shape = #ttcore<local_shape local_shape = tensor<4304x1152xf32>>, ttcore.shard_status = #ttcore.shard_status<unsharded>, ttir.name = "L__self___bracket_core_paligemma_with_expert_paligemma_model_vision_tower_vision_model_encoder_layers_13_mlp_fc1.weight"} loc("p288.2116"), %arg289: tensor<1152xf32> {ttcore.argument_type = #ttcore.argument_type<parameter>, ttcore.local_shape = #ttcore<local_shape local_shape = tensor<1152xf32>>, ttcore.shard_status = #ttcore.shard_status<unsharded>, ttir.name = "L__self___bracket_core_paligemma_with_expert_paligemma_model_vision_tower_vision_model_encoder_layers_13_layer_norm2.bias"} loc("p289.2122"), %arg290: tensor<1152xf32> {ttcore.argument_type = #ttcore.argument_type<parameter>, ttcore.local_shape = #ttcore<local_shape local_shape = tensor<1152xf32>>, ttcore.shard_status = #ttcore.shard_status<unsharded>, ttir.name = "L__self___bracket_core_paligemma_with_expert_paligemma_model_vision_tower_vision_model_encoder_layers_13_layer_norm2.weight"} loc("p290.2127"), %arg291: tensor<1152xf32> {ttcore.argument_type = #ttcore.argument_type<parameter>, ttcore.local_shape = #ttcore<local_shape local_shape = tensor<1152xf32>>, ttcore.shard_status = #ttcore.shard_status<unsharded>, ttir.name = "L__self___bracket_core_paligemma_with_expert_paligemma_model_vision_tower_vision_model_encoder_layers_13_self_attn_out_proj.bias"} loc("p291.2136"), %arg292: tensor<1152x1152xf32> {ttcore.argument_type = #ttcore.argument_type<parameter>, ttcore.local_shape = #ttcore<local_shape local_shape = tensor<1152x1152xf32>>, ttcore.shard_status = #ttcore.shard_status<unsharded>, ttir.name = "L__self___bracket_core_paligemma_with_expert_paligemma_model_vision_tower_vision_model_encoder_layers_13_self_attn_out_proj.weight"} loc("p292.2140"), %arg293: tensor<1152xf32> {ttcore.argument_type = #ttcore.argument_type<parameter>, ttcore.local_shape = #ttcore<local_shape local_shape = tensor<1152xf32>>, ttcore.shard_status = #ttcore.shard_status<unsharded>, ttir.name = "L__self___bracket_core_paligemma_with_expert_paligemma_model_vision_tower_vision_model_encoder_layers_13_self_attn_v_proj.bias"} loc("p293.2146"), %arg294: tensor<1152x1152xf32> {ttcore.argument_type = #ttcore.argument_type<parameter>, ttcore.local_shape = #ttcore<local_shape local_shape = tensor<1152x1152xf32>>, ttcore.shard_status = #ttcore.shard_status<unsharded>, ttir.name = "L__self___bracket_core_paligemma_with_expert_paligemma_model_vision_tower_vision_model_encoder_layers_13_self_attn_v_proj.weight"} loc("p294.2150"), %arg295: tensor<1152xf32> {ttcore.argument_type = #ttcore.argument_type<parameter>, ttcore.local_shape = #ttcore<local_shape local_shape = tensor<1152xf32>>, ttcore.shard_status = #ttcore.shard_status<unsharded>, ttir.name = "L__self___bracket_core_paligemma_with_expert_paligemma_model_vision_tower_vision_model_encoder_layers_13_layer_norm1.bias"} loc("p295.2156"), %arg296: tensor<1152xf32> {ttcore.argument_type = #ttcore.argument_type<parameter>, ttcore.local_shape = #ttcore<local_shape local_shape = tensor<1152xf32>>, ttcore.shard_status = #ttcore.shard_status<unsharded>, ttir.name = "L__self___bracket_core_paligemma_with_expert_paligemma_model_vision_tower_vision_model_encoder_layers_13_layer_norm1.weight"} loc("p296.2161"), %arg297: tensor<1152xf32> {ttcore.argument_type = #ttcore.argument_type<parameter>, ttcore.local_shape = #ttcore<local_shape local_shape = tensor<1152xf32>>, ttcore.shard_status = #ttcore.shard_status<unsharded>, ttir.name = "L__self___bracket_core_paligemma_with_expert_paligemma_model_vision_tower_vision_model_encoder_layers_12_mlp_fc2.bias"} loc("p297.2170"), %arg298: tensor<1152x4304xf32> {ttcore.argument_type = #ttcore.argument_type<parameter>, ttcore.local_shape = #ttcore<local_shape local_shape = tensor<1152x4304xf32>>, ttcore.shard_status = #ttcore.shard_status<unsharded>, ttir.name = "L__self___bracket_core_paligemma_with_expert_paligemma_model_vision_tower_vision_model_encoder_layers_12_mlp_fc2.weight"} loc("p298.2174"), %arg299: tensor<4304xf32> {ttcore.argument_type = #ttcore.argument_type<parameter>, ttcore.local_shape = #ttcore<local_shape local_shape = tensor<4304xf32>>, ttcore.shard_status = #ttcore.shard_status<unsharded>, ttir.name = "L__self___bracket_core_paligemma_with_expert_paligemma_model_vision_tower_vision_model_encoder_layers_12_mlp_fc1.bias"} loc("p299.2182"), %arg300: tensor<4304x1152xf32> {ttcore.argument_type = #ttcore.argument_type<parameter>, ttcore.local_shape = #ttcore<local_shape local_shape = tensor<4304x1152xf32>>, ttcore.shard_status = #ttcore.shard_status<unsharded>, ttir.name = "L__self___bracket_core_paligemma_with_expert_paligemma_model_vision_tower_vision_model_encoder_layers_12_mlp_fc1.weight"} loc("p300.2186"), %arg301: tensor<1152xf32> {ttcore.argument_type = #ttcore.argument_type<parameter>, ttcore.local_shape = #ttcore<local_shape local_shape = tensor<1152xf32>>, ttcore.shard_status = #ttcore.shard_status<unsharded>, ttir.name = "L__self___bracket_core_paligemma_with_expert_paligemma_model_vision_tower_vision_model_encoder_layers_12_layer_norm2.bias"} loc("p301.2192"), %arg302: tensor<1152xf32> {ttcore.argument_type = #ttcore.argument_type<parameter>, ttcore.local_shape = #ttcore<local_shape local_shape = tensor<1152xf32>>, ttcore.shard_status = #ttcore.shard_status<unsharded>, ttir.name = "L__self___bracket_core_paligemma_with_expert_paligemma_model_vision_tower_vision_model_encoder_layers_12_layer_norm2.weight"} loc("p302.2197"), %arg303: tensor<1152xf32> {ttcore.argument_type = #ttcore.argument_type<parameter>, ttcore.local_shape = #ttcore<local_shape local_shape = tensor<1152xf32>>, ttcore.shard_status = #ttcore.shard_status<unsharded>, ttir.name = "L__self___bracket_core_paligemma_with_expert_paligemma_model_vision_tower_vision_model_encoder_layers_12_self_attn_out_proj.bias"} loc("p303.2206"), %arg304: tensor<1152x1152xf32> {ttcore.argument_type = #ttcore.argument_type<parameter>, ttcore.local_shape = #ttcore<local_shape local_shape = tensor<1152x1152xf32>>, ttcore.shard_status = #ttcore.shard_status<unsharded>, ttir.name = "L__self___bracket_core_paligemma_with_expert_paligemma_model_vision_tower_vision_model_encoder_layers_12_self_attn_out_proj.weight"} loc("p304.2210"), %arg305: tensor<1152xf32> {ttcore.argument_type = #ttcore.argument_type<parameter>, ttcore.local_shape = #ttcore<local_shape local_shape = tensor<1152xf32>>, ttcore.shard_status = #ttcore.shard_status<unsharded>, ttir.name = "L__self___bracket_core_paligemma_with_expert_paligemma_model_vision_tower_vision_model_encoder_layers_12_self_attn_v_proj.bias"} loc("p305.2216"), %arg306: tensor<1152x1152xf32> {ttcore.argument_type = #ttcore.argument_type<parameter>, ttcore.local_shape = #ttcore<local_shape local_shape = tensor<1152x1152xf32>>, ttcore.shard_status = #ttcore.shard_status<unsharded>, ttir.name = "L__self___bracket_core_paligemma_with_expert_paligemma_model_vision_tower_vision_model_encoder_layers_12_self_attn_v_proj.weight"} loc("p306.2220"), %arg307: tensor<1152xf32> {ttcore.argument_type = #ttcore.argument_type<parameter>, ttcore.local_shape = #ttcore<local_shape local_shape = tensor<1152xf32>>, ttcore.shard_status = #ttcore.shard_status<unsharded>, ttir.name = "L__self___bracket_core_paligemma_with_expert_paligemma_model_vision_tower_vision_model_encoder_layers_12_layer_norm1.bias"} loc("p307.2226"), %arg308: tensor<1152xf32> {ttcore.argument_type = #ttcore.argument_type<parameter>, ttcore.local_shape = #ttcore<local_shape local_shape = tensor<1152xf32>>, ttcore.shard_status = #ttcore.shard_status<unsharded>, ttir.name = "L__self___bracket_core_paligemma_with_expert_paligemma_model_vision_tower_vision_model_encoder_layers_12_layer_norm1.weight"} loc("p308.2231"), %arg309: tensor<1152xf32> {ttcore.argument_type = #ttcore.argument_type<parameter>, ttcore.local_shape = #ttcore<local_shape local_shape = tensor<1152xf32>>, ttcore.shard_status = #ttcore.shard_status<unsharded>, ttir.name = "L__self___bracket_core_paligemma_with_expert_paligemma_model_vision_tower_vision_model_encoder_layers_11_mlp_fc2.bias"} loc("p309.2240"), %arg310: tensor<1152x4304xf32> {ttcore.argument_type = #ttcore.argument_type<parameter>, ttcore.local_shape = #ttcore<local_shape local_shape = tensor<1152x4304xf32>>, ttcore.shard_status = #ttcore.shard_status<unsharded>, ttir.name = "L__self___bracket_core_paligemma_with_expert_paligemma_model_vision_tower_vision_model_encoder_layers_11_mlp_fc2.weight"} loc("p310.2244"), %arg311: tensor<4304xf32> {ttcore.argument_type = #ttcore.argument_type<parameter>, ttcore.local_shape = #ttcore<local_shape local_shape = tensor<4304xf32>>, ttcore.shard_status = #ttcore.shard_status<unsharded>, ttir.name = "L__self___bracket_core_paligemma_with_expert_paligemma_model_vision_tower_vision_model_encoder_layers_11_mlp_fc1.bias"} loc("p311.2252"), %arg312: tensor<4304x1152xf32> {ttcore.argument_type = #ttcore.argument_type<parameter>, ttcore.local_shape = #ttcore<local_shape local_shape = tensor<4304x1152xf32>>, ttcore.shard_status = #ttcore.shard_status<unsharded>, ttir.name = "L__self___bracket_core_paligemma_with_expert_paligemma_model_vision_tower_vision_model_encoder_layers_11_mlp_fc1.weight"} loc("p312.2256"), %arg313: tensor<1152xf32> {ttcore.argument_type = #ttcore.argument_type<parameter>, ttcore.local_shape = #ttcore<local_shape local_shape = tensor<1152xf32>>, ttcore.shard_status = #ttcore.shard_status<unsharded>, ttir.name = "L__self___bracket_core_paligemma_with_expert_paligemma_model_vision_tower_vision_model_encoder_layers_11_layer_norm2.bias"} loc("p313.2262"), %arg314: tensor<1152xf32> {ttcore.argument_type = #ttcore.argument_type<parameter>, ttcore.local_shape = #ttcore<local_shape local_shape = tensor<1152xf32>>, ttcore.shard_status = #ttcore.shard_status<unsharded>, ttir.name = "L__self___bracket_core_paligemma_with_expert_paligemma_model_vision_tower_vision_model_encoder_layers_11_layer_norm2.weight"} loc("p314.2267"), %arg315: tensor<1152xf32> {ttcore.argument_type = #ttcore.argument_type<parameter>, ttcore.local_shape = #ttcore<local_shape local_shape = tensor<1152xf32>>, ttcore.shard_status = #ttcore.shard_status<unsharded>, ttir.name = "L__self___bracket_core_paligemma_with_expert_paligemma_model_vision_tower_vision_model_encoder_layers_11_self_attn_out_proj.bias"} loc("p315.2276"), %arg316: tensor<1152x1152xf32> {ttcore.argument_type = #ttcore.argument_type<parameter>, ttcore.local_shape = #ttcore<local_shape local_shape = tensor<1152x1152xf32>>, ttcore.shard_status = #ttcore.shard_status<unsharded>, ttir.name = "L__self___bracket_core_paligemma_with_expert_paligemma_model_vision_tower_vision_model_encoder_layers_11_self_attn_out_proj.weight"} loc("p316.2280"), %arg317: tensor<1152xf32> {ttcore.argument_type = #ttcore.argument_type<parameter>, ttcore.local_shape = #ttcore<local_shape local_shape = tensor<1152xf32>>, ttcore.shard_status = #ttcore.shard_status<unsharded>, ttir.name = "L__self___bracket_core_paligemma_with_expert_paligemma_model_vision_tower_vision_model_encoder_layers_11_self_attn_v_proj.bias"} loc("p317.2286"), %arg318: tensor<1152x1152xf32> {ttcore.argument_type = #ttcore.argument_type<parameter>, ttcore.local_shape = #ttcore<local_shape local_shape = tensor<1152x1152xf32>>, ttcore.shard_status = #ttcore.shard_status<unsharded>, ttir.name = "L__self___bracket_core_paligemma_with_expert_paligemma_model_vision_tower_vision_model_encoder_layers_11_self_attn_v_proj.weight"} loc("p318.2290"), %arg319: tensor<1152xf32> {ttcore.argument_type = #ttcore.argument_type<parameter>, ttcore.local_shape = #ttcore<local_shape local_shape = tensor<1152xf32>>, ttcore.shard_status = #ttcore.shard_status<unsharded>, ttir.name = "L__self___bracket_core_paligemma_with_expert_paligemma_model_vision_tower_vision_model_encoder_layers_11_layer_norm1.bias"} loc("p319.2296"), %arg320: tensor<1152xf32> {ttcore.argument_type = #ttcore.argument_type<parameter>, ttcore.local_shape = #ttcore<local_shape local_shape = tensor<1152xf32>>, ttcore.shard_status = #ttcore.shard_status<unsharded>, ttir.name = "L__self___bracket_core_paligemma_with_expert_paligemma_model_vision_tower_vision_model_encoder_layers_11_layer_norm1.weight"} loc("p320.2301"), %arg321: tensor<1152xf32> {ttcore.argument_type = #ttcore.argument_type<parameter>, ttcore.local_shape = #ttcore<local_shape local_shape = tensor<1152xf32>>, ttcore.shard_status = #ttcore.shard_status<unsharded>, ttir.name = "L__self___bracket_core_paligemma_with_expert_paligemma_model_vision_tower_vision_model_encoder_layers_10_mlp_fc2.bias"} loc("p321.2310"), %arg322: tensor<1152x4304xf32> {ttcore.argument_type = #ttcore.argument_type<parameter>, ttcore.local_shape = #ttcore<local_shape local_shape = tensor<1152x4304xf32>>, ttcore.shard_status = #ttcore.shard_status<unsharded>, ttir.name = "L__self___bracket_core_paligemma_with_expert_paligemma_model_vision_tower_vision_model_encoder_layers_10_mlp_fc2.weight"} loc("p322.2314"), %arg323: tensor<4304xf32> {ttcore.argument_type = #ttcore.argument_type<parameter>, ttcore.local_shape = #ttcore<local_shape local_shape = tensor<4304xf32>>, ttcore.shard_status = #ttcore.shard_status<unsharded>, ttir.name = "L__self___bracket_core_paligemma_with_expert_paligemma_model_vision_tower_vision_model_encoder_layers_10_mlp_fc1.bias"} loc("p323.2322"), %arg324: tensor<4304x1152xf32> {ttcore.argument_type = #ttcore.argument_type<parameter>, ttcore.local_shape = #ttcore<local_shape local_shape = tensor<4304x1152xf32>>, ttcore.shard_status = #ttcore.shard_status<unsharded>, ttir.name = "L__self___bracket_core_paligemma_with_expert_paligemma_model_vision_tower_vision_model_encoder_layers_10_mlp_fc1.weight"} loc("p324.2326"), %arg325: tensor<1152xf32> {ttcore.argument_type = #ttcore.argument_type<parameter>, ttcore.local_shape = #ttcore<local_shape local_shape = tensor<1152xf32>>, ttcore.shard_status = #ttcore.shard_status<unsharded>, ttir.name = "L__self___bracket_core_paligemma_with_expert_paligemma_model_vision_tower_vision_model_encoder_layers_10_layer_norm2.bias"} loc("p325.2332"), %arg326: tensor<1152xf32> {ttcore.argument_type = #ttcore.argument_type<parameter>, ttcore.local_shape = #ttcore<local_shape local_shape = tensor<1152xf32>>, ttcore.shard_status = #ttcore.shard_status<unsharded>, ttir.name = "L__self___bracket_core_paligemma_with_expert_paligemma_model_vision_tower_vision_model_encoder_layers_10_layer_norm2.weight"} loc("p326.2337"), %arg327: tensor<1152xf32> {ttcore.argument_type = #ttcore.argument_type<parameter>, ttcore.local_shape = #ttcore<local_shape local_shape = tensor<1152xf32>>, ttcore.shard_status = #ttcore.shard_status<unsharded>, ttir.name = "L__self___bracket_core_paligemma_with_expert_paligemma_model_vision_tower_vision_model_encoder_layers_10_self_attn_out_proj.bias"} loc("p327.2346"), %arg328: tensor<1152x1152xf32> {ttcore.argument_type = #ttcore.argument_type<parameter>, ttcore.local_shape = #ttcore<local_shape local_shape = tensor<1152x1152xf32>>, ttcore.shard_status = #ttcore.shard_status<unsharded>, ttir.name = "L__self___bracket_core_paligemma_with_expert_paligemma_model_vision_tower_vision_model_encoder_layers_10_self_attn_out_proj.weight"} loc("p328.2350"), %arg329: tensor<1152xf32> {ttcore.argument_type = #ttcore.argument_type<parameter>, ttcore.local_shape = #ttcore<local_shape local_shape = tensor<1152xf32>>, ttcore.shard_status = #ttcore.shard_status<unsharded>, ttir.name = "L__self___bracket_core_paligemma_with_expert_paligemma_model_vision_tower_vision_model_encoder_layers_10_self_attn_v_proj.bias"} loc("p329.2356"), %arg330: tensor<1152x1152xf32> {ttcore.argument_type = #ttcore.argument_type<parameter>, ttcore.local_shape = #ttcore<local_shape local_shape = tensor<1152x1152xf32>>, ttcore.shard_status = #ttcore.shard_status<unsharded>, ttir.name = "L__self___bracket_core_paligemma_with_expert_paligemma_model_vision_tower_vision_model_encoder_layers_10_self_attn_v_proj.weight"} loc("p330.2360"), %arg331: tensor<1152xf32> {ttcore.argument_type = #ttcore.argument_type<parameter>, ttcore.local_shape = #ttcore<local_shape local_shape = tensor<1152xf32>>, ttcore.shard_status = #ttcore.shard_status<unsharded>, ttir.name = "L__self___bracket_core_paligemma_with_expert_paligemma_model_vision_tower_vision_model_encoder_layers_10_layer_norm1.bias"} loc("p331.2366"), %arg332: tensor<1152xf32> {ttcore.argument_type = #ttcore.argument_type<parameter>, ttcore.local_shape = #ttcore<local_shape local_shape = tensor<1152xf32>>, ttcore.shard_status = #ttcore.shard_status<unsharded>, ttir.name = "L__self___bracket_core_paligemma_with_expert_paligemma_model_vision_tower_vision_model_encoder_layers_10_layer_norm1.weight"} loc("p332.2371"), %arg333: tensor<1152xf32> {ttcore.argument_type = #ttcore.argument_type<parameter>, ttcore.local_shape = #ttcore<local_shape local_shape = tensor<1152xf32>>, ttcore.shard_status = #ttcore.shard_status<unsharded>, ttir.name = "L__self___bracket_core_paligemma_with_expert_paligemma_model_vision_tower_vision_model_encoder_layers_9_mlp_fc2.bias"} loc("p333.2380"), %arg334: tensor<1152x4304xf32> {ttcore.argument_type = #ttcore.argument_type<parameter>, ttcore.local_shape = #ttcore<local_shape local_shape = tensor<1152x4304xf32>>, ttcore.shard_status = #ttcore.shard_status<unsharded>, ttir.name = "L__self___bracket_core_paligemma_with_expert_paligemma_model_vision_tower_vision_model_encoder_layers_9_mlp_fc2.weight"} loc("p334.2384"), %arg335: tensor<4304xf32> {ttcore.argument_type = #ttcore.argument_type<parameter>, ttcore.local_shape = #ttcore<local_shape local_shape = tensor<4304xf32>>, ttcore.shard_status = #ttcore.shard_status<unsharded>, ttir.name = "L__self___bracket_core_paligemma_with_expert_paligemma_model_vision_tower_vision_model_encoder_layers_9_mlp_fc1.bias"} loc("p335.2392"), %arg336: tensor<4304x1152xf32> {ttcore.argument_type = #ttcore.argument_type<parameter>, ttcore.local_shape = #ttcore<local_shape local_shape = tensor<4304x1152xf32>>, ttcore.shard_status = #ttcore.shard_status<unsharded>, ttir.name = "L__self___bracket_core_paligemma_with_expert_paligemma_model_vision_tower_vision_model_encoder_layers_9_mlp_fc1.weight"} loc("p336.2396"), %arg337: tensor<1152xf32> {ttcore.argument_type = #ttcore.argument_type<parameter>, ttcore.local_shape = #ttcore<local_shape local_shape = tensor<1152xf32>>, ttcore.shard_status = #ttcore.shard_status<unsharded>, ttir.name = "L__self___bracket_core_paligemma_with_expert_paligemma_model_vision_tower_vision_model_encoder_layers_9_layer_norm2.bias"} loc("p337.2402"), %arg338: tensor<1152xf32> {ttcore.argument_type = #ttcore.argument_type<parameter>, ttcore.local_shape = #ttcore<local_shape local_shape = tensor<1152xf32>>, ttcore.shard_status = #ttcore.shard_status<unsharded>, ttir.name = "L__self___bracket_core_paligemma_with_expert_paligemma_model_vision_tower_vision_model_encoder_layers_9_layer_norm2.weight"} loc("p338.2407"), %arg339: tensor<1152xf32> {ttcore.argument_type = #ttcore.argument_type<parameter>, ttcore.local_shape = #ttcore<local_shape local_shape = tensor<1152xf32>>, ttcore.shard_status = #ttcore.shard_status<unsharded>, ttir.name = "L__self___bracket_core_paligemma_with_expert_paligemma_model_vision_tower_vision_model_encoder_layers_9_self_attn_out_proj.bias"} loc("p339.2416"), %arg340: tensor<1152x1152xf32> {ttcore.argument_type = #ttcore.argument_type<parameter>, ttcore.local_shape = #ttcore<local_shape local_shape = tensor<1152x1152xf32>>, ttcore.shard_status = #ttcore.shard_status<unsharded>, ttir.name = "L__self___bracket_core_paligemma_with_expert_paligemma_model_vision_tower_vision_model_encoder_layers_9_self_attn_out_proj.weight"} loc("p340.2420"), %arg341: tensor<1152xf32> {ttcore.argument_type = #ttcore.argument_type<parameter>, ttcore.local_shape = #ttcore<local_shape local_shape = tensor<1152xf32>>, ttcore.shard_status = #ttcore.shard_status<unsharded>, ttir.name = "L__self___bracket_core_paligemma_with_expert_paligemma_model_vision_tower_vision_model_encoder_layers_9_self_attn_v_proj.bias"} loc("p341.2426"), %arg342: tensor<1152x1152xf32> {ttcore.argument_type = #ttcore.argument_type<parameter>, ttcore.local_shape = #ttcore<local_shape local_shape = tensor<1152x1152xf32>>, ttcore.shard_status = #ttcore.shard_status<unsharded>, ttir.name = "L__self___bracket_core_paligemma_with_expert_paligemma_model_vision_tower_vision_model_encoder_layers_9_self_attn_v_proj.weight"} loc("p342.2430"), %arg343: tensor<1152xf32> {ttcore.argument_type = #ttcore.argument_type<parameter>, ttcore.local_shape = #ttcore<local_shape local_shape = tensor<1152xf32>>, ttcore.shard_status = #ttcore.shard_status<unsharded>, ttir.name = "L__self___bracket_core_paligemma_with_expert_paligemma_model_vision_tower_vision_model_encoder_layers_9_layer_norm1.bias"} loc("p343.2436"), %arg344: tensor<1152xf32> {ttcore.argument_type = #ttcore.argument_type<parameter>, ttcore.local_shape = #ttcore<local_shape local_shape = tensor<1152xf32>>, ttcore.shard_status = #ttcore.shard_status<unsharded>, ttir.name = "L__self___bracket_core_paligemma_with_expert_paligemma_model_vision_tower_vision_model_encoder_layers_9_layer_norm1.weight"} loc("p344.2441"), %arg345: tensor<1152xf32> {ttcore.argument_type = #ttcore.argument_type<parameter>, ttcore.local_shape = #ttcore<local_shape local_shape = tensor<1152xf32>>, ttcore.shard_status = #ttcore.shard_status<unsharded>, ttir.name = "L__self___bracket_core_paligemma_with_expert_paligemma_model_vision_tower_vision_model_encoder_layers_8_mlp_fc2.bias"} loc("p345.2450"), %arg346: tensor<1152x4304xf32> {ttcore.argument_type = #ttcore.argument_type<parameter>, ttcore.local_shape = #ttcore<local_shape local_shape = tensor<1152x4304xf32>>, ttcore.shard_status = #ttcore.shard_status<unsharded>, ttir.name = "L__self___bracket_core_paligemma_with_expert_paligemma_model_vision_tower_vision_model_encoder_layers_8_mlp_fc2.weight"} loc("p346.2454"), %arg347: tensor<4304xf32> {ttcore.argument_type = #ttcore.argument_type<parameter>, ttcore.local_shape = #ttcore<local_shape local_shape = tensor<4304xf32>>, ttcore.shard_status = #ttcore.shard_status<unsharded>, ttir.name = "L__self___bracket_core_paligemma_with_expert_paligemma_model_vision_tower_vision_model_encoder_layers_8_mlp_fc1.bias"} loc("p347.2462"), %arg348: tensor<4304x1152xf32> {ttcore.argument_type = #ttcore.argument_type<parameter>, ttcore.local_shape = #ttcore<local_shape local_shape = tensor<4304x1152xf32>>, ttcore.shard_status = #ttcore.shard_status<unsharded>, ttir.name = "L__self___bracket_core_paligemma_with_expert_paligemma_model_vision_tower_vision_model_encoder_layers_8_mlp_fc1.weight"} loc("p348.2466"), %arg349: tensor<1152xf32> {ttcore.argument_type = #ttcore.argument_type<parameter>, ttcore.local_shape = #ttcore<local_shape local_shape = tensor<1152xf32>>, ttcore.shard_status = #ttcore.shard_status<unsharded>, ttir.name = "L__self___bracket_core_paligemma_with_expert_paligemma_model_vision_tower_vision_model_encoder_layers_8_layer_norm2.bias"} loc("p349.2472"), %arg350: tensor<1152xf32> {ttcore.argument_type = #ttcore.argument_type<parameter>, ttcore.local_shape = #ttcore<local_shape local_shape = tensor<1152xf32>>, ttcore.shard_status = #ttcore.shard_status<unsharded>, ttir.name = "L__self___bracket_core_paligemma_with_expert_paligemma_model_vision_tower_vision_model_encoder_layers_8_layer_norm2.weight"} loc("p350.2477"), %arg351: tensor<1152xf32> {ttcore.argument_type = #ttcore.argument_type<parameter>, ttcore.local_shape = #ttcore<local_shape local_shape = tensor<1152xf32>>, ttcore.shard_status = #ttcore.shard_status<unsharded>, ttir.name = "L__self___bracket_core_paligemma_with_expert_paligemma_model_vision_tower_vision_model_encoder_layers_8_self_attn_out_proj.bias"} loc("p351.2486"), %arg352: tensor<1152x1152xf32> {ttcore.argument_type = #ttcore.argument_type<parameter>, ttcore.local_shape = #ttcore<local_shape local_shape = tensor<1152x1152xf32>>, ttcore.shard_status = #ttcore.shard_status<unsharded>, ttir.name = "L__self___bracket_core_paligemma_with_expert_paligemma_model_vision_tower_vision_model_encoder_layers_8_self_attn_out_proj.weight"} loc("p352.2490"), %arg353: tensor<1152xf32> {ttcore.argument_type = #ttcore.argument_type<parameter>, ttcore.local_shape = #ttcore<local_shape local_shape = tensor<1152xf32>>, ttcore.shard_status = #ttcore.shard_status<unsharded>, ttir.name = "L__self___bracket_core_paligemma_with_expert_paligemma_model_vision_tower_vision_model_encoder_layers_8_self_attn_v_proj.bias"} loc("p353.2496"), %arg354: tensor<1152x1152xf32> {ttcore.argument_type = #ttcore.argument_type<parameter>, ttcore.local_shape = #ttcore<local_shape local_shape = tensor<1152x1152xf32>>, ttcore.shard_status = #ttcore.shard_status<unsharded>, ttir.name = "L__self___bracket_core_paligemma_with_expert_paligemma_model_vision_tower_vision_model_encoder_layers_8_self_attn_v_proj.weight"} loc("p354.2500"), %arg355: tensor<1152xf32> {ttcore.argument_type = #ttcore.argument_type<parameter>, ttcore.local_shape = #ttcore<local_shape local_shape = tensor<1152xf32>>, ttcore.shard_status = #ttcore.shard_status<unsharde…
#loc6353 = loc("multiply.29902")
#loc6354 = loc("add.29908")
#loc6355 = loc("broadcast.29882")
#loc6356 = loc("reshape.29883")
#loc6357 = loc("transpose.29884")
#loc6358 = loc("dot.29909")
#loc6359 = loc("multiply.29912")
#loc6360 = loc("add.29917")
#loc6361 = loc("reduce.29923")
#loc6362 = loc("broadcast.29924")
#loc6363 = loc("subtract.29925")
#loc6364 = loc("exponential.29926")
#loc6365 = loc("reduce.29932")
#loc6366 = loc("broadcast.29933")
#loc6367 = loc("divide.29934")
#loc6368 = loc("broadcast.29875")
#loc6369 = loc("reshape.29876")
#loc6370 = loc("dot.29935")
#loc6371 = loc("transpose.29937")
#loc6372 = loc("reshape.29939")
#loc6373 = loc("transpose.29871")
#loc6374 = loc("dot.29940")
#loc6375 = loc("reshape.29941")
#loc6376 = loc("add.29944")
#loc6377 = loc("power.29946")
#loc6378 = loc("reduce.29953")
#loc6379 = loc("multiply.29962")
#loc6380 = loc("reshape.29963")
#loc6381 = loc("add.29967")
#loc6382 = loc("rsqrt.29968")
#loc6383 = loc("reshape.29969")
#loc6384 = loc("broadcast.29970")
#loc6385 = loc("multiply.29971")
#loc6386 = loc("add.29862")
#loc6387 = loc("broadcast.29972")
#loc6388 = loc("multiply.29973")
#loc6389 = loc("reshape.29984")
#loc6390 = loc("transpose.29983")
#loc6391 = loc("dot.29985")
#loc6392 = loc("reshape.29986")
#loc6393 = loc("custom-call.30004")
#loc6394 = loc("transpose.29853")
#loc6395 = loc("dot.29975")
#loc6396 = loc("reshape.29976")
#loc6397 = loc("multiply.30005")
#loc6398 = loc("reshape.30006")
#loc6399 = loc("transpose.29848")
#loc6400 = loc("dot.30007")
#loc6401 = loc("reshape.30008")
#loc6402 = loc("add.30011")
#loc6403 = loc("power.30013")
#loc6404 = loc("reduce.30020")
#loc6405 = loc("multiply.30029")
#loc6406 = loc("reshape.30030")
#loc6407 = loc("add.30034")
#loc6408 = loc("rsqrt.30035")
#loc6409 = loc("reshape.30036")
#loc6410 = loc("broadcast.30037")
#loc6411 = loc("multiply.30038")
#loc6412 = loc("add.29839")
#loc6413 = loc("broadcast.30039")
#loc6414 = loc("multiply.30040")
#loc6415 = loc("reshape.30083")
#loc6416 = loc("transpose.30082")
#loc6417 = loc("dot.30084")
#loc6418 = loc("transpose.30087")
#loc6419 = loc("multiply.30094")
#loc6420 = loc("slice.30089")
#loc6421 = loc("negate.30090")
#loc6422 = loc("slice.30088")
#loc6423 = loc("concatenate.30091")
#loc6424 = loc("multiply.30092")
#loc6425 = loc("add.30097")
#loc6426 = loc("transpose.30060")
#loc6427 = loc("dot.30062")
#loc6428 = loc("transpose.30065")
#loc6429 = loc("multiply.30072")
#loc6430 = loc("slice.30067")
#loc6431 = loc("negate.30068")
#loc6432 = loc("slice.30066")
#loc6433 = loc("concatenate.30069")
#loc6434 = loc("multiply.30070")
#loc6435 = loc("add.30075")
#loc6436 = loc("concatenate.30098")
#loc6437 = loc("broadcast.30102")
#loc6438 = loc("reshape.30103")
#loc6439 = loc("transpose.30104")
#loc6440 = loc("dot.30129")
#loc6441 = loc("multiply.30132")
#loc6442 = loc("add.30137")
#loc6443 = loc("reduce.30143")
#loc6444 = loc("broadcast.30144")
#loc6445 = loc("subtract.30145")
#loc6446 = loc("exponential.30146")
#loc6447 = loc("reduce.30152")
#loc6448 = loc("broadcast.30153")
#loc6449 = loc("divide.30154")
#loc6450 = loc("transpose.29830")
#loc6451 = loc("dot.30042")
#loc6452 = loc("transpose.30045")
#loc6453 = loc("transpose.539")
#loc6454 = loc("dot.29822")
#loc6455 = loc("transpose.29825")
#loc6456 = loc("concatenate.30046")
#loc6457 = loc("broadcast.30050")
#loc6458 = loc("reshape.30051")
#loc6459 = loc("dot.30155")
#loc6460 = loc("transpose.30157")
#loc6461 = loc("reshape.30159")
#loc6462 = loc("transpose.534")
#loc6463 = loc("dot.30160")
#loc6464 = loc("reshape.30161")
#loc6465 = loc("add.30164")
#loc6466 = loc("power.30166")
#loc6467 = loc("reduce.30173")
#loc6468 = loc("multiply.30182")
#loc6469 = loc("reshape.30183")
#loc6470 = loc("add.30187")
#loc6471 = loc("rsqrt.30188")
#loc6472 = loc("reshape.30189")
#loc6473 = loc("broadcast.30190")
#loc6474 = loc("multiply.30191")
#loc6475 = loc("add.525")
#loc6476 = loc("broadcast.30192")
#loc6477 = loc("multiply.30193")
#loc6478 = loc("reshape.30204")
#loc6479 = loc("transpose.30203")
#loc6480 = loc("dot.30205")
#loc6481 = loc("reshape.30206")
#loc6482 = loc("custom-call.30224")
#loc6483 = loc("transpose.516")
#loc6484 = loc("dot.30195")
#loc6485 = loc("reshape.30196")
#loc6486 = loc("multiply.30225")
#loc6487 = loc("reshape.30226")
#loc6488 = loc("transpose.511")
#loc6489 = loc("dot.30227")
#loc6490 = loc("reshape.30228")
#loc6491 = loc("add.30231")
#loc6492 = loc("power.30233")
#loc6493 = loc("reduce.30240")
#loc6494 = loc("multiply.30249")
#loc6495 = loc("reshape.30250")
#loc6496 = loc("add.30254")
#loc6497 = loc("rsqrt.30255")
#loc6498 = loc("reshape.30256")
#loc6499 = loc("broadcast.30257")
#loc6500 = loc("multiply.30258")
#loc6501 = loc("add.502")
#loc6502 = loc("broadcast.30259")
#loc6503 = loc("multiply.30260")
#loc6504 = loc("reshape.30551")
#loc6505 = loc("transpose.30550")
#loc6506 = loc("dot.30552")
#loc6507 = loc("reshape.30554")
#loc6508 = loc("transpose.30555")
#loc6509 = loc("multiply.30565")
#loc6510 = loc("slice.30557")
#loc6511 = loc("negate.30558")
#loc6512 = loc("slice.30556")
#loc6513 = loc("concatenate.30559")
#loc6514 = loc("multiply.30562")
#loc6515 = loc("add.30568")
#loc6516 = loc("transpose.30330")
#loc6517 = loc("dot.30332")
#loc6518 = loc("reshape.30334")
#loc6519 = loc("transpose.30335")
#loc6520 = loc("multiply.30345")
#loc6521 = loc("slice.30337")
#loc6522 = loc("negate.30338")
#loc6523 = loc("slice.30336")
#loc6524 = loc("concatenate.30339")
#loc6525 = loc("multiply.30342")
#loc6526 = loc("add.30348")
#loc6527 = loc("broadcast.30322")
#loc6528 = loc("reshape.30323")
#loc6529 = loc("transpose.30324")
#loc6530 = loc("dot.30349")
#loc6531 = loc("multiply.30352")
#loc6532 = loc("add.30357")
#loc6533 = loc("reduce.30363")
#loc6534 = loc("broadcast.30364")
#loc6535 = loc("subtract.30365")
#loc6536 = loc("exponential.30366")
#loc6537 = loc("reduce.30372")
#loc6538 = loc("broadcast.30373")
#loc6539 = loc("divide.30374")
#loc6540 = loc("broadcast.30315")
#loc6541 = loc("reshape.30316")
#loc6542 = loc("dot.30375")
#loc6543 = loc("transpose.30377")
#loc6544 = loc("reshape.30379")
#loc6545 = loc("transpose.30311")
#loc6546 = loc("dot.30380")
#loc6547 = loc("reshape.30381")
#loc6548 = loc("add.30384")
#loc6549 = loc("power.30386")
#loc6550 = loc("reduce.30393")
#loc6551 = loc("multiply.30402")
#loc6552 = loc("reshape.30403")
#loc6553 = loc("add.30407")
#loc6554 = loc("rsqrt.30408")
#loc6555 = loc("reshape.30409")
#loc6556 = loc("broadcast.30410")
#loc6557 = loc("multiply.30411")
#loc6558 = loc("add.30302")
#loc6559 = loc("broadcast.30412")
#loc6560 = loc("multiply.30413")
#loc6561 = loc("reshape.30424")
#loc6562 = loc("transpose.30423")
#loc6563 = loc("dot.30425")
#loc6564 = loc("reshape.30426")
#loc6565 = loc("custom-call.30444")
#loc6566 = loc("transpose.30293")
#loc6567 = loc("dot.30415")
#loc6568 = loc("reshape.30416")
#loc6569 = loc("multiply.30445")
#loc6570 = loc("reshape.30446")
#loc6571 = loc("transpose.30288")
#loc6572 = loc("dot.30447")
#loc6573 = loc("reshape.30448")
#loc6574 = loc("add.30451")
#loc6575 = loc("power.30453")
#loc6576 = loc("reduce.30460")
#loc6577 = loc("multiply.30469")
#loc6578 = loc("reshape.30470")
#loc6579 = loc("add.30474")
#loc6580 = loc("rsqrt.30475")
#loc6581 = loc("reshape.30476")
#loc6582 = loc("broadcast.30477")
#loc6583 = loc("multiply.30478")
#loc6584 = loc("add.30279")
#loc6585 = loc("broadcast.30479")
#loc6586 = loc("multiply.30480")
#loc6587 = loc("reshape.30523")
#loc6588 = loc("transpose.30522")
#loc6589 = loc("dot.30524")
#loc6590 = loc("transpose.30527")
#loc6591 = loc("multiply.30534")
#loc6592 = loc("slice.30529")
#loc6593 = loc("negate.30530")
#loc6594 = loc("slice.30528")
#loc6595 = loc("concatenate.30531")
#loc6596 = loc("multiply.30532")
#loc6597 = loc("add.30537")
#loc6598 = loc("transpose.30500")
#loc6599 = loc("dot.30502")
#loc6600 = loc("transpose.30505")
#loc6601 = loc("multiply.30512")
#loc6602 = loc("slice.30507")
#loc6603 = loc("negate.30508")
#loc6604 = loc("slice.30506")
#loc6605 = loc("concatenate.30509")
#loc6606 = loc("multiply.30510")
#loc6607 = loc("add.30515")
#loc6608 = loc("concatenate.30538")
#loc6609 = loc("broadcast.30542")
#loc6610 = loc("reshape.30543")
#loc6611 = loc("transpose.30544")
#loc6612 = loc("dot.30569")
#loc6613 = loc("multiply.30572")
#loc6614 = loc("add.30577")
#loc6615 = loc("reduce.30583")
#loc6616 = loc("broadcast.30584")
#loc6617 = loc("subtract.30585")
#loc6618 = loc("exponential.30586")
#loc6619 = loc("reduce.30592")
#loc6620 = loc("broadcast.30593")
#loc6621 = loc("divide.30594")
#loc6622 = loc("transpose.30270")
#loc6623 = loc("dot.30482")
#loc6624 = loc("transpose.30485")
#loc6625 = loc("transpose.493")
#loc6626 = loc("dot.30262")
#loc6627 = loc("transpose.30265")
#loc6628 = loc("concatenate.30486")
#loc6629 = loc("broadcast.30490")
#loc6630 = loc("reshape.30491")
#loc6631 = loc("dot.30595")
#loc6632 = loc("transpose.30597")
#loc6633 = loc("reshape.30599")
#loc6634 = loc("transpose.488")
#loc6635 = loc("dot.30600")
#loc6636 = loc("reshape.30601")
#loc6637 = loc("add.30604")
#loc6638 = loc("power.30606")
#loc6639 = loc("reduce.30613")
#loc6640 = loc("multiply.30622")
#loc6641 = loc("reshape.30623")
#loc6642 = loc("add.30627")
#loc6643 = loc("rsqrt.30628")
#loc6644 = loc("reshape.30629")
#loc6645 = loc("broadcast.30630")
#loc6646 = loc("multiply.30631")
#loc6647 = loc("add.479")
#loc6648 = loc("broadcast.30632")
#loc6649 = loc("multiply.30633")
#loc6650 = loc("reshape.30644")
#loc6651 = loc("transpose.30643")
#loc6652 = loc("dot.30645")
#loc6653 = loc("reshape.30646")
#loc6654 = loc("custom-call.30664")
#loc6655 = loc("transpose.470")
#loc6656 = loc("dot.30635")
#loc6657 = loc("reshape.30636")
#loc6658 = loc("multiply.30665")
#loc6659 = loc("reshape.30666")
#loc6660 = loc("transpose.465")
#loc6661 = loc("dot.30667")
#loc6662 = loc("reshape.30668")
#loc6663 = loc("add.30671")
#loc6664 = loc("power.30673")
#loc6665 = loc("reduce.30680")
#loc6666 = loc("multiply.30689")
#loc6667 = loc("reshape.30690")
#loc6668 = loc("add.30694")
#loc6669 = loc("rsqrt.30695")
#loc6670 = loc("reshape.30696")
#loc6671 = loc("broadcast.30697")
#loc6672 = loc("multiply.30698")
#loc6673 = loc("add.456")
#loc6674 = loc("broadcast.30699")
#loc6675 = loc("multiply.30700")
#loc6676 = loc("reshape.30991")
#loc6677 = loc("transpose.30990")
#loc6678 = loc("dot.30992")
#loc6679 = loc("reshape.30994")
#loc6680 = loc("transpose.30995")
#loc6681 = loc("multiply.31005")
#loc6682 = loc("slice.30997")
#loc6683 = loc("negate.30998")
#loc6684 = loc("slice.30996")
#loc6685 = loc("concatenate.30999")
#loc6686 = loc("multiply.31002")
#loc6687 = loc("add.31008")
#loc6688 = loc("transpose.30770")
#loc6689 = loc("dot.30772")
#loc6690 = loc("reshape.30774")
#loc6691 = loc("transpose.30775")
#loc6692 = loc("multiply.30785")
#loc6693 = loc("slice.30777")
#loc6694 = loc("negate.30778")
#loc6695 = loc("slice.30776")
#loc6696 = loc("concatenate.30779")
#loc6697 = loc("multiply.30782")
#loc6698 = loc("add.30788")
#loc6699 = loc("broadcast.30762")
#loc6700 = loc("reshape.30763")
#loc6701 = loc("transpose.30764")
#loc6702 = loc("dot.30789")
#loc6703 = loc("multiply.30792")
#loc6704 = loc("add.30797")
#loc6705 = loc("reduce.30803")
#loc6706 = loc("broadcast.30804")
#loc6707 = loc("subtract.30805")
#loc6708 = loc("exponential.30806")
#loc6709 = loc("reduce.30812")
#loc6710 = loc("broadcast.30813")
#loc6711 = loc("divide.30814")
#loc6712 = loc("broadcast.30755")
#loc6713 = loc("reshape.30756")
#loc6714 = loc("dot.30815")
#loc6715 = loc("transpose.30817")
#loc6716 = loc("reshape.30819")
#loc6717 = loc("transpose.30751")
#loc6718 = loc("dot.30820")
#loc6719 = loc("reshape.30821")
#loc6720 = loc("add.30824")
#loc6721 = loc("power.30826")
#loc6722 = loc("reduce.30833")
#loc6723 = loc("multiply.30842")
#loc6724 = loc("reshape.30843")
#loc6725 = loc("add.30847")
#loc6726 = loc("rsqrt.30848")
#loc6727 = loc("reshape.30849")
#loc6728 = loc("broadcast.30850")
#loc6729 = loc("multiply.30851")
#loc6730 = loc("add.30742")
#loc6731 = loc("broadcast.30852")
#loc6732 = loc("multiply.30853")
#loc6733 = loc("reshape.30864")
#loc6734 = loc("transpose.30863")
#loc6735 = loc("dot.30865")
#loc6736 = loc("reshape.30866")
#loc6737 = loc("custom-call.30884")
#loc6738 = loc("transpose.30733")
#loc6739 = loc("dot.30855")
#loc6740 = loc("reshape.30856")
#loc6741 = loc("multiply.30885")
#loc6742 = loc("reshape.30886")
#loc6743 = loc("transpose.30728")
#loc6744 = loc("dot.30887")
#loc6745 = loc("reshape.30888")
#loc6746 = loc("add.30891")
#loc6747 = loc("power.30893")
#loc6748 = loc("reduce.30900")
#loc6749 = loc("multiply.30909")
#loc6750 = loc("reshape.30910")
#loc6751 = loc("add.30914")
#loc6752 = loc("rsqrt.30915")
#loc6753 = loc("reshape.30916")
#loc6754 = loc("broadcast.30917")
#loc6755 = loc("multiply.30918")
#loc6756 = loc("add.30719")
#loc6757 = loc("broadcast.30919")
#loc6758 = loc("multiply.30920")
#loc6759 = loc("reshape.30963")
#loc6760 = loc("transpose.30962")
#loc6761 = loc("dot.30964")
#loc6762 = loc("transpose.30967")
#loc6763 = loc("multiply.30974")
#loc6764 = loc("slice.30969")
#loc6765 = loc("negate.30970")
#loc6766 = loc("slice.30968")
#loc6767 = loc("concatenate.30971")
#loc6768 = loc("multiply.30972")
#loc6769 = loc("add.30977")
#loc6770 = loc("transpose.30940")
#loc6771 = loc("dot.30942")
#loc6772 = loc("transpose.30945")
#loc6773 = loc("multiply.30952")
#loc6774 = loc("slice.30947")
#loc6775 = loc("negate.30948")
#loc6776 = loc("slice.30946")
#loc6777 = loc("concatenate.30949")
#loc6778 = loc("multiply.30950")
#loc6779 = loc("add.30955")
#loc6780 = loc("concatenate.30978")
#loc6781 = loc("broadcast.30982")
#loc6782 = loc("reshape.30983")
#loc6783 = loc("transpose.30984")
#loc6784 = loc("dot.31009")
#loc6785 = loc("multiply.31012")
#loc6786 = loc("add.31017")
#loc6787 = loc("reduce.31023")
#loc6788 = loc("broadcast.31024")
#loc6789 = loc("subtract.31025")
#loc6790 = loc("exponential.31026")
#loc6791 = loc("reduce.31032")
#loc6792 = loc("broadcast.31033")
#loc6793 = loc("divide.31034")
#loc6794 = loc("transpose.30710")
#loc6795 = loc("dot.30922")
#loc6796 = loc("transpose.30925")
#loc6797 = loc("transpose.447")
#loc6798 = loc("dot.30702")
#loc6799 = loc("transpose.30705")
#loc6800 = loc("concatenate.30926")
#loc6801 = loc("broadcast.30930")
#loc6802 = loc("reshape.30931")
#loc6803 = loc("dot.31035")
#loc6804 = loc("transpose.31037")
#loc6805 = loc("reshape.31039")
#loc6806 = loc("transpose.442")
#loc6807 = loc("dot.31040")
#loc6808 = loc("reshape.31041")
#loc6809 = loc("add.31044")
#loc6810 = loc("power.31046")
#loc6811 = loc("reduce.31053")
#loc6812 = loc("multiply.31062")
#loc6813 = loc("reshape.31063")
#loc6814 = loc("add.31067")
#loc6815 = loc("rsqrt.31068")
#loc6816 = loc("reshape.31069")
#loc6817 = loc("broadcast.31070")
#loc6818 = loc("multiply.31071")
#loc6819 = loc("add.433")
#loc6820 = loc("broadcast.31072")
#loc6821 = loc("multiply.31073")
#loc6822 = loc("reshape.31084")
#loc6823 = loc("transpose.31083")
#loc6824 = loc("dot.31085")
#loc6825 = loc("reshape.31086")
#loc6826 = loc("custom-call.31104")
#loc6827 = loc("transpose.424")
#loc6828 = loc("dot.31075")
#loc6829 = loc("reshape.31076")
#loc6830 = loc("multiply.31105")
#loc6831 = loc("reshape.31106")
#loc6832 = loc("transpose.419")
#loc6833 = loc("dot.31107")
#loc6834 = loc("reshape.31108")
#loc6835 = loc("add.31111")
#loc6836 = loc("power.31113")
#loc6837 = loc("reduce.31120")
#loc6838 = loc("multiply.31129")
#loc6839 = loc("reshape.31130")
#loc6840 = loc("add.31134")
#loc6841 = loc("rsqrt.31135")
#loc6842 = loc("reshape.31136")
#loc6843 = loc("broadcast.31137")
#loc6844 = loc("multiply.31138")
#loc6845 = loc("add.410")
#loc6846 = loc("broadcast.31139")
#loc6847 = loc("multiply.31140")
#loc6848 = loc("reshape.31431")
#loc6849 = loc("transpose.31430")
#loc6850 = loc("dot.31432")
#loc6851 = loc("reshape.31434")
#loc6852 = loc("transpose.31435")
#loc6853 = loc("multiply.31445")
#loc6854 = loc("slice.31437")
#loc6855 = loc("negate.31438")
#loc6856 = loc("slice.31436")
#loc6857 = loc("concatenate.31439")
#loc6858 = loc("multiply.31442")
#loc6859 = loc("add.31448")
#loc6860 = loc("transpose.31210")
#loc6861 = loc("dot.31212")
#loc6862 = loc("reshape.31214")
#loc6863 = loc("transpose.31215")
#loc6864 = loc("multiply.31225")
#loc6865 = loc("slice.31217")
#loc6866 = loc("negate.31218")
#loc6867 = loc("slice.31216")
#loc6868 = loc("concatenate.31219")
#loc6869 = loc("multiply.31222")
#loc6870 = loc("add.31228")
#loc6871 = loc("broadcast.31202")
#loc6872 = loc("reshape.31203")
#loc6873 = loc("transpose.31204")
#loc6874 = loc("dot.31229")
#loc6875 = loc("multiply.31232")
#loc6876 = loc("add.31237")
#loc6877 = loc("reduce.31243")
#loc6878 = loc("broadcast.31244")
#loc6879 = loc("subtract.31245")
#loc6880 = loc("exponential.31246")
#loc6881 = loc("reduce.31252")
#loc6882 = loc("broadcast.31253")
#loc6883 = loc("divide.31254")
#loc6884 = loc("broadcast.31195")
#loc6885 = loc("reshape.31196")
#loc6886 = loc("dot.31255")
#loc6887 = loc("transpose.31257")
#loc6888 = loc("reshape.31259")
#loc6889 = loc("transpose.31191")
#loc6890 = loc("dot.31260")
#loc6891 = loc("reshape.31261")
#loc6892 = loc("add.31264")
#loc6893 = loc("power.31266")
#loc6894 = loc("reduce.31273")
#loc6895 = loc("multiply.31282")
#loc6896 = loc("reshape.31283")
#loc6897 = loc("add.31287")
#loc6898 = loc("rsqrt.31288")
#loc6899 = loc("reshape.31289")
#loc6900 = loc("broadcast.31290")
#loc6901 = loc("multiply.31291")
#loc6902 = loc("add.31182")
#loc6903 = loc("broadcast.31292")
#loc6904 = loc("multiply.31293")
#loc6905 = loc("reshape.31304")
#loc6906 = loc("transpose.31303")
#loc6907 = loc("dot.31305")
#loc6908 = loc("reshape.31306")
#loc6909 = loc("custom-call.31324")
#loc6910 = loc("transpose.31173")
#loc6911 = loc("dot.31295")
#loc6912 = loc("reshape.31296")
#loc6913 = loc("multiply.31325")
#loc6914 = loc("reshape.31326")
#loc6915 = loc("transpose.31168")
#loc6916 = loc("dot.31327")
#loc6917 = loc("reshape.31328")
#loc6918 = loc("add.31331")
#loc6919 = loc("power.31333")
#loc6920 = loc("reduce.31340")
#loc6921 = loc("multiply.31349")
#loc6922 = loc("reshape.31350")
#loc6923 = loc("add.31354")
#loc6924 = loc("rsqrt.31355")
#loc6925 = loc("reshape.31356")
#loc6926 = loc("broadcast.31357")
#loc6927 = loc("multiply.31358")
#loc6928 = loc("add.31159")
#loc6929 = loc("broadcast.31359")
#loc6930 = loc("multiply.31360")
#loc6931 = loc("reshape.31403")
#loc6932 = loc("transpose.31402")
#loc6933 = loc("dot.31404")
#loc6934 = loc("transpose.31407")
#loc6935 = loc("multiply.31414")
#loc6936 = loc("slice.31409")
#loc6937 = loc("negate.31410")
#loc6938 = loc("slice.31408")
#loc6939 = loc("concatenate.31411")
#loc6940 = loc("multiply.31412")
#loc6941 = loc("add.31417")
#loc6942 = loc("transpose.31380")
#loc6943 = loc("dot.31382")
#loc6944 = loc("transpose.31385")
#loc6945 = loc("multiply.31392")
#loc6946 = loc("slice.31387")
#loc6947 = loc("negate.31388")
#loc6948 = loc("slice.31386")
#loc6949 = loc("concatenate.31389")
#loc6950 = loc("multiply.31390")
#loc6951 = loc("add.31395")
#loc6952 = loc("concatenate.31418")
#loc6953 = loc("broadcast.31422")
#loc6954 = loc("reshape.31423")
#loc6955 = loc("transpose.31424")
#loc6956 = loc("dot.31449")
#loc6957 = loc("multiply.31452")
#loc6958 = loc("add.31457")
#loc6959 = loc("reduce.31463")
#loc6960 = loc("broadcast.31464")
#loc6961 = loc("subtract.31465")
#loc6962 = loc("exponential.31466")
#loc6963 = loc("reduce.31472")
#loc6964 = loc("broadcast.31473")
#loc6965 = loc("divide.31474")
#loc6966 = loc("transpose.31150")
#loc6967 = loc("dot.31362")
#loc6968 = loc("transpose.31365")
#loc6969 = loc("transpose.401")
#loc6970 = loc("dot.31142")
#loc6971 = loc("transpose.31145")
#loc6972 = loc("concatenate.31366")
#loc6973 = loc("broadcast.31370")
#loc6974 = loc("reshape.31371")
#loc6975 = loc("dot.31475")
#loc6976 = loc("transpose.31477")
#loc6977 = loc("reshape.31479")
#loc6978 = loc("transpose.396")
#loc6979 = loc("dot.31480")
#loc6980 = loc("reshape.31481")
#loc6981 = loc("add.31484")
#loc6982 = loc("power.31486")
#loc6983 = loc("reduce.31493")
#loc6984 = loc("multiply.31502")
#loc6985 = loc("reshape.31503")
#loc6986 = loc("add.31507")
#loc6987 = loc("rsqrt.31508")
#loc6988 = loc("reshape.31509")
#loc6989 = loc("broadcast.31510")
#loc6990 = loc("multiply.31511")
#loc6991 = loc("add.387")
#loc6992 = loc("broadcast.31512")
#loc6993 = loc("multiply.31513")
#loc6994 = loc("reshape.31524")
#loc6995 = loc("transpose.31523")
#loc6996 = loc("dot.31525")
#loc6997 = loc("reshape.31526")
#loc6998 = loc("custom-call.31544")
#loc6999 = loc("transpose.378")
#loc7000 = loc("dot.31515")
#loc7001 = loc("reshape.31516")
#loc7002 = loc("multiply.31545")
#loc7003 = loc("reshape.31546")
#loc7004 = loc("transpose.373")
#loc7005 = loc("dot.31547")
#loc7006 = loc("reshape.31548")
#loc7007 = loc("add.31551")
#loc7008 = loc("power.31553")
#loc7009 = loc("reduce.31560")
#loc7010 = loc("multiply.31569")
#loc7011 = loc("reshape.31570")
#loc7012 = loc("add.31574")
#loc7013 = loc("rsqrt.31575")
#loc7014 = loc("reshape.31576")
#loc7015 = loc("broadcast.31577")
#loc7016 = loc("multiply.31578")
#loc7017 = loc("add.364")
#loc7018 = loc("broadcast.31579")
#loc7019 = loc("multiply.31580")
#loc7020 = loc("reshape.31871")
#loc7021 = loc("transpose.31870")
#loc7022 = loc("dot.31872")
#loc7023 = loc("reshape.31874")
#loc7024 = loc("transpose.31875")
#loc7025 = loc("multiply.31885")
#loc7026 = loc("slice.31877")
#loc7027 = loc("negate.31878")
#loc7028 = loc("slice.31876")
#loc7029 = loc("concatenate.31879")
#loc7030 = loc("multiply.31882")
#loc7031 = loc("add.31888")
#loc7032 = loc("transpose.31650")
#loc7033 = loc("dot.31652")
#loc7034 = loc("reshape.31654")
#loc7035 = loc("transpose.31655")
#loc7036 = loc("multiply.31665")
#loc7037 = loc("slice.31657")
#loc7038 = loc("negate.31658")
#loc7039 = loc("slice.31656")
#loc7040 = loc("concatenate.31659")
#loc7041 = loc("multiply.31662")
#loc7042 = loc("add.31668")
#loc7043 = loc("broadcast.31642")
#loc7044 = loc("reshape.31643")
#loc7045 = loc("transpose.31644")
#loc7046 = loc("dot.31669")
#loc7047 = loc("multiply.31672")
#loc7048 = loc("add.31677")
#loc7049 = loc("reduce.31683")
#loc7050 = loc("broadcast.31684")
#loc7051 = loc("subtract.31685")
#loc7052 = loc("exponential.31686")
#loc7053 = loc("reduce.31692")
#loc7054 = loc("broadcast.31693")
#loc7055 = loc("divide.31694")
#loc7056 = loc("broadcast.31635")
#loc7057 = loc("reshape.31636")
#loc7058 = loc("dot.31695")
#loc7059 = loc("transpose.31697")
#loc7060 = loc("reshape.31699")
#loc7061 = loc("transpose.31631")
#loc7062 = loc("dot.31700")
#loc7063 = loc("reshape.31701")
#loc7064 = loc("add.31704")
#loc7065 = loc("power.31706")
#loc7066 = loc("reduce.31713")
#loc7067 = loc("multiply.31722")
#loc7068 = loc("reshape.31723")
#loc7069 = loc("add.31727")
#loc7070 = loc("rsqrt.31728")
#loc7071 = loc("reshape.31729")
#loc7072 = loc("broadcast.31730")
#loc7073 = loc("multiply.31731")
#loc7074 = loc("add.31622")
#loc7075 = loc("broadcast.31732")
#loc7076 = loc("multiply.31733")
#loc7077 = loc("reshape.31744")
#loc7078 = loc("transpose.31743")
#loc7079 = loc("dot.31745")
#loc7080 = loc("reshape.31746")
#loc7081 = loc("custom-call.31764")
#loc7082 = loc("transpose.31613")
#loc7083 = loc("dot.31735")
#loc7084 = loc("reshape.31736")
#loc7085 = loc("multiply.31765")
#loc7086 = loc("reshape.31766")
#loc7087 = loc("transpose.31608")
#loc7088 = loc("dot.31767")
#loc7089 = loc("reshape.31768")
#loc7090 = loc("add.31771")
#loc7091 = loc("power.31773")
#loc7092 = loc("reduce.31780")
#loc7093 = loc("multiply.31789")
#loc7094 = loc("reshape.31790")
#loc7095 = loc("add.31794")
#loc7096 = loc("rsqrt.31795")
#loc7097 = loc("reshape.31796")
#loc7098 = loc("broadcast.31797")
#loc7099 = loc("multiply.31798")
#loc7100 = loc("add.31599")
#loc7101 = loc("broadcast.31799")
#loc7102 = loc("multiply.31800")
#loc7103 = loc("reshape.31843")
#loc7104 = loc("transpose.31842")
#loc7105 = loc("dot.31844")
#loc7106 = loc("transpose.31847")
#loc7107 = loc("multiply.31854")
#loc7108 = loc("slice.31849")
#loc7109 = loc("negate.31850")
#loc7110 = loc("slice.31848")
#loc7111 = loc("concatenate.31851")
#loc7112 = loc("multiply.31852")
#loc7113 = loc("add.31857")
#loc7114 = loc("transpose.31820")
#loc7115 = loc("dot.31822")
#loc7116 = loc("transpose.31825")
#loc7117 = loc("multiply.31832")
#loc7118 = loc("slice.31827")
#loc7119 = loc("negate.31828")
#loc7120 = loc("slice.31826")
#loc7121 = loc("concatenate.31829")
#loc7122 = loc("multiply.31830")
#loc7123 = loc("add.31835")
#loc7124 = loc("concatenate.31858")
#loc7125 = loc("broadcast.31862")
#loc7126 = loc("reshape.31863")
#loc7127 = loc("transpose.31864")
#loc7128 = loc("dot.31889")
#loc7129 = loc("multiply.31892")
#loc7130 = loc("add.31897")
#loc7131 = loc("reduce.31903")
#loc7132 = loc("broadcast.31904")
#loc7133 = loc("subtract.31905")
#loc7134 = loc("exponential.31906")
#loc7135 = loc("reduce.31912")
#loc7136 = loc("broadcast.31913")
#loc7137 = loc("divide.31914")
#loc7138 = loc("transpose.31590")
#loc7139 = loc("dot.31802")
#loc7140 = loc("transpose.31805")
#loc7141 = loc("transpose.355")
#loc7142 = loc("dot.31582")
#loc7143 = loc("transpose.31585")
#loc7144 = loc("concatenate.31806")
#loc7145 = loc("broadcast.31810")
#loc7146 = loc("reshape.31811")
#loc7147 = loc("dot.31915")
#loc7148 = loc("transpose.31917")
#loc7149 = loc("reshape.31919")
#loc7150 = loc("transpose.350")
#loc7151 = loc("dot.31920")
#loc7152 = loc("reshape.31921")
#loc7153 = loc("add.31924")
#loc7154 = loc("power.31926")
#loc7155 = loc("reduce.31933")
#loc7156 = loc("multiply.31942")
#loc7157 = loc("reshape.31943")
#loc7158 = loc("add.31947")
#loc7159 = loc("rsqrt.31948")
#loc7160 = loc("reshape.31949")
#loc7161 = loc("broadcast.31950")
#loc7162 = loc("multiply.31951")
#loc7163 = loc("add.341")
#loc7164 = loc("broadcast.31952")
#loc7165 = loc("multiply.31953")
#loc7166 = loc("reshape.31964")
#loc7167 = loc("transpose.31963")
#loc7168 = loc("dot.31965")
#loc7169 = loc("reshape.31966")
#loc7170 = loc("custom-call.31984")
#loc7171 = loc("transpose.332")
#loc7172 = loc("dot.31955")
#loc7173 = loc("reshape.31956")
#loc7174 = loc("multiply.31985")
#loc7175 = loc("reshape.31986")
#loc7176 = loc("transpose.327")
#loc7177 = loc("dot.31987")
#loc7178 = loc("reshape.31988")
#loc7179 = loc("add.31991")
#loc7180 = loc("power.31993")
#loc7181 = loc("reduce.32000")
#loc7182 = loc("multiply.32009")
#loc7183 = loc("reshape.32010")
#loc7184 = loc("add.32014")
#loc7185 = loc("rsqrt.32015")
#loc7186 = loc("reshape.32016")
#loc7187 = loc("broadcast.32017")
#loc7188 = loc("multiply.32018")
#loc7189 = loc("add.318")
#loc7190 = loc("broadcast.32019")
#loc7191 = loc("multiply.32020")
#loc7192 = loc("reshape.32311")
#loc7193 = loc("transpose.32310")
#loc7194 = loc("dot.32312")
#loc7195 = loc("reshape.32314")
#loc7196 = loc("transpose.32315")
#loc7197 = loc("multiply.32325")
#loc7198 = loc("slice.32317")
#loc7199 = loc("negate.32318")
#loc7200 = loc("slice.32316")
#loc7201 = loc("concatenate.32319")
#loc7202 = loc("multiply.32322")
#loc7203 = loc("add.32328")
#loc7204 = loc("transpose.32090")
#loc7205 = loc("dot.32092")
#loc7206 = loc("reshape.32094")
#loc7207 = loc("transpose.32095")
#loc7208 = loc("multiply.32105")
#loc7209 = loc("slice.32097")
#loc7210 = loc("negate.32098")
#loc7211 = loc("slice.32096")
#loc7212 = loc("concatenate.32099")
#loc7213 = loc("multiply.32102")
#loc7214 = loc("add.32108")
#loc7215 = loc("broadcast.32082")
#loc7216 = loc("reshape.32083")
#loc7217 = loc("transpose.32084")
#loc7218 = loc("dot.32109")
#loc7219 = loc("multiply.32112")
#loc7220 = loc("add.32117")
#loc7221 = loc("reduce.32123")
#loc7222 = loc("broadcast.32124")
#loc7223 = loc("subtract.32125")
#loc7224 = loc("exponential.32126")
#loc7225 = loc("reduce.32132")
#loc7226 = loc("broadcast.32133")
#loc7227 = loc("divide.32134")
#loc7228 = loc("broadcast.32075")
#loc7229 = loc("reshape.32076")
#loc7230 = loc("dot.32135")
#loc7231 = loc("transpose.32137")
#loc7232 = loc("reshape.32139")
#loc7233 = loc("transpose.32071")
#loc7234 = loc("dot.32140")
#loc7235 = loc("reshape.32141")
#loc7236 = loc("add.32144")
#loc7237 = loc("power.32146")
#loc7238 = loc("reduce.32153")
#loc7239 = loc("multiply.32162")
#loc7240 = loc("reshape.32163")
#loc7241 = loc("add.32167")
#loc7242 = loc("rsqrt.32168")
#loc7243 = loc("reshape.32169")
#loc7244 = loc("broadcast.32170")
#loc7245 = loc("multiply.32171")
#loc7246 = loc("add.32062")
#loc7247 = loc("broadcast.32172")
#loc7248 = loc("multiply.32173")
#loc7249 = loc("reshape.32184")
#loc7250 = loc("transpose.32183")
#loc7251 = loc("dot.32185")
#loc7252 = loc("reshape.32186")
#loc7253 = loc("custom-call.32204")
#loc7254 = loc("transpose.32053")
#loc7255 = loc("dot.32175")
#loc7256 = loc("reshape.32176")
#loc7257 = loc("multiply.32205")
#loc7258 = loc("reshape.32206")
#loc7259 = loc("transpose.32048")
#loc7260 = loc("dot.32207")
#loc7261 = loc("reshape.32208")
#loc7262 = loc("add.32211")
#loc7263 = loc("power.32213")
#loc7264 = loc("reduce.32220")
#loc7265 = loc("multiply.32229")
#loc7266 = loc("reshape.32230")
#loc7267 = loc("add.32234")
#loc7268 = loc("rsqrt.32235")
#loc7269 = loc("reshape.32236")
#loc7270 = loc("broadcast.32237")
#loc7271 = loc("multiply.32238")
#loc7272 = loc("add.32039")
#loc7273 = loc("broadcast.32239")
#loc7274 = loc("multiply.32240")
#loc7275 = loc("reshape.32283")
#loc7276 = loc("transpose.32282")
#loc7277 = loc("dot.32284")
#loc7278 = loc("transpose.32287")
#loc7279 = loc("multiply.32294")
#loc7280 = loc("slice.32289")
#loc7281 = loc("negate.32290")
#loc7282 = loc("slice.32288")
#loc7283 = loc("concatenate.32291")
#loc7284 = loc("multiply.32292")
#loc7285 = loc("add.32297")
#loc7286 = loc("transpose.32260")
#loc7287 = loc("dot.32262")
#loc7288 = loc("transpose.32265")
#loc7289 = loc("multiply.32272")
#loc7290 = loc("slice.32267")
#loc7291 = loc("negate.32268")
#loc7292 = loc("slice.32266")
#loc7293 = loc("concatenate.32269")
#loc7294 = loc("multiply.32270")
#loc7295 = loc("add.32275")
#loc7296 = loc("concatenate.32298")
#loc7297 = loc("broadcast.32302")
#loc7298 = loc("reshape.32303")
#loc7299 = loc("transpose.32304")
#loc7300 = loc("dot.32329")
#loc7301 = loc("multiply.32332")
#loc7302 = loc("add.32337")
#loc7303 = loc("reduce.32343")
#loc7304 = loc("broadcast.32344")
#loc7305 = loc("subtract.32345")
#loc7306 = loc("exponential.32346")
#loc7307 = loc("reduce.32352")
#loc7308 = loc("broadcast.32353")
#loc7309 = loc("divide.32354")
#loc7310 = loc("transpose.32030")
#loc7311 = loc("dot.32242")
#loc7312 = loc("transpose.32245")
#loc7313 = loc("transpose.309")
#loc7314 = loc("dot.32022")
#loc7315 = loc("transpose.32025")
#loc7316 = loc("concatenate.32246")
#loc7317 = loc("broadcast.32250")
#loc7318 = loc("reshape.32251")
#loc7319 = loc("dot.32355")
#loc7320 = loc("transpose.32357")
#loc7321 = loc("reshape.32359")
#loc7322 = loc("transpose.304")
#loc7323 = loc("dot.32360")
#loc7324 = loc("reshape.32361")
#loc7325 = loc("add.32364")
#loc7326 = loc("power.32366")
#loc7327 = loc("reduce.32373")
#loc7328 = loc("multiply.32382")
#loc7329 = loc("reshape.32383")
#loc7330 = loc("add.32387")
#loc7331 = loc("rsqrt.32388")
#loc7332 = loc("reshape.32389")
#loc7333 = loc("broadcast.32390")
#loc7334 = loc("multiply.32391")
#loc7335 = loc("add.295")
#loc7336 = loc("broadcast.32392")
#loc7337 = loc("multiply.32393")
#loc7338 = loc("reshape.32404")
#loc7339 = loc("transpose.32403")
#loc7340 = loc("dot.32405")
#loc7341 = loc("reshape.32406")
#loc7342 = loc("custom-call.32424")
#loc7343 = loc("transpose.286")
#loc7344 = loc("dot.32395")
#loc7345 = loc("reshape.32396")
#loc7346 = loc("multiply.32425")
#loc7347 = loc("reshape.32426")
#loc7348 = loc("transpose.281")
#loc7349 = loc("dot.32427")
#loc7350 = loc("reshape.32428")
#loc7351 = loc("add.32431")
#loc7352 = loc("power.32433")
#loc7353 = loc("reduce.32440")
#loc7354 = loc("multiply.32449")
#loc7355 = loc("reshape.32450")
#loc7356 = loc("add.32454")
#loc7357 = loc("rsqrt.32455")
#loc7358 = loc("reshape.32456")
#loc7359 = loc("broadcast.32457")
#loc7360 = loc("multiply.32458")
#loc7361 = loc("add.272")
#loc7362 = loc("broadcast.32459")
#loc7363 = loc("multiply.32460")
#loc7364 = loc("reshape.32751")
#loc7365 = loc("transpose.32750")
#loc7366 = loc("dot.32752")
#loc7367 = loc("reshape.32754")
#loc7368 = loc("transpose.32755")
#loc7369 = loc("multiply.32765")
#loc7370 = loc("slice.32757")
#loc7371 = loc("negate.32758")
#loc7372 = loc("slice.32756")
#loc7373 = loc("concatenate.32759")
#loc7374 = loc("multiply.32762")
#loc7375 = loc("add.32768")
#loc7376 = loc("transpose.32530")
#loc7377 = loc("dot.32532")
#loc7378 = loc("reshape.32534")
#loc7379 = loc("transpose.32535")
#loc7380 = loc("multiply.32545")
#loc7381 = loc("slice.32537")
#loc7382 = loc("negate.32538")
#loc7383 = loc("slice.32536")
#loc7384 = loc("concatenate.32539")
#loc7385 = loc("multiply.32542")
#loc7386 = loc("add.32548")
#loc7387 = loc("broadcast.32522")
#loc7388 = loc("reshape.32523")
#loc7389 = loc("transpose.32524")
#loc7390 = loc("dot.32549")
#loc7391 = loc("multiply.32552")
#loc7392 = loc("add.32557")
#loc7393 = loc("reduce.32563")
#loc7394 = loc("broadcast.32564")
#loc7395 = loc("subtract.32565")
#loc7396 = loc("exponential.32566")
#loc7397 = loc("reduce.32572")
#loc7398 = loc("broadcast.32573")
#loc7399 = loc("divide.32574")
#loc7400 = loc("broadcast.32515")
#loc7401 = loc("reshape.32516")
#loc7402 = loc("dot.32575")
#loc7403 = loc("transpose.32577")
#loc7404 = loc("reshape.32579")
#loc7405 = loc("transpose.32511")
#loc7406 = loc("dot.32580")
#loc7407 = loc("reshape.32581")
#loc7408 = loc("add.32584")
#loc7409 = loc("power.32586")
#loc7410 = loc("reduce.32593")
#loc7411 = loc("multiply.32602")
#loc7412 = loc("reshape.32603")
#loc7413 = loc("add.32607")
#loc7414 = loc("rsqrt.32608")
#loc7415 = loc("reshape.32609")
#loc7416 = loc("broadcast.32610")
#loc7417 = loc("multiply.32611")
#loc7418 = loc("add.32502")
#loc7419 = loc("broadcast.32612")
#loc7420 = loc("multiply.32613")
#loc7421 = loc("reshape.32624")
#loc7422 = loc("transpose.32623")
#loc7423 = loc("dot.32625")
#loc7424 = loc("reshape.32626")
#loc7425 = loc("custom-call.32644")
#loc7426 = loc("transpose.32493")
#loc7427 = loc("dot.32615")
#loc7428 = loc("reshape.32616")
#loc7429 = loc("multiply.32645")
#loc7430 = loc("reshape.32646")
#loc7431 = loc("transpose.32488")
#loc7432 = loc("dot.32647")
#loc7433 = loc("reshape.32648")
#loc7434 = loc("add.32651")
#loc7435 = loc("power.32653")
#loc7436 = loc("reduce.32660")
#loc7437 = loc("multiply.32669")
#loc7438 = loc("reshape.32670")
#loc7439 = loc("add.32674")
#loc7440 = loc("rsqrt.32675")
#loc7441 = loc("reshape.32676")
#loc7442 = loc("broadcast.32677")
#loc7443 = loc("multiply.32678")
#loc7444 = loc("add.32479")
#loc7445 = loc("broadcast.32679")
#loc7446 = loc("multiply.32680")
#loc7447 = loc("reshape.32723")
#loc7448 = loc("transpose.32722")
#loc7449 = loc("dot.32724")
#loc7450 = loc("transpose.32727")
#loc7451 = loc("multiply.32734")
#loc7452 = loc("slice.32729")
#loc7453 = loc("negate.32730")
#loc7454 = loc("slice.32728")
#loc7455 = loc("concatenate.32731")
#loc7456 = loc("multiply.32732")
#loc7457 = loc("add.32737")
#loc7458 = loc("transpose.32700")
#loc7459 = loc("dot.32702")
#loc7460 = loc("transpose.32705")
#loc7461 = loc("multiply.32712")
#loc7462 = loc("slice.32707")
#loc7463 = loc("negate.32708")
#loc7464 = loc("slice.32706")
#loc7465 = loc("concatenate.32709")
#loc7466 = loc("multiply.32710")
#loc7467 = loc("add.32715")
#loc7468 = loc("concatenate.32738")
#loc7469 = loc("broadcast.32742")
#loc7470 = loc("reshape.32743")
#loc7471 = loc("transpose.32744")
#loc7472 = loc("dot.32769")
#loc7473 = loc("multiply.32772")
#loc7474 = loc("add.32777")
#loc7475 = loc("reduce.32783")
#loc7476 = loc("broadcast.32784")
#loc7477 = loc("subtract.32785")
#loc7478 = loc("exponential.32786")
#loc7479 = loc("reduce.32792")
#loc7480 = loc("broadcast.32793")
#loc7481 = loc("divide.32794")
#loc7482 = loc("transpose.32470")
#loc7483 = loc("dot.32682")
#loc7484 = loc("transpose.32685")
#loc7485 = loc("transpose.263")
#loc7486 = loc("dot.32462")
#loc7487 = loc("transpose.32465")
#loc7488 = loc("concatenate.32686")
#loc7489 = loc("broadcast.32690")
#loc7490 = loc("reshape.32691")
#loc7491 = loc("dot.32795")
#loc7492 = loc("transpose.32797")
#loc7493 = loc("reshape.32799")
#loc7494 = loc("transpose.258")
#loc7495 = loc("dot.32800")
#loc7496 = loc("reshape.32801")
#loc7497 = loc("add.32804")
#loc7498 = loc("power.32806")
#loc7499 = loc("reduce.32813")
#loc7500 = loc("multiply.32822")
#loc7501 = loc("reshape.32823")
#loc7502 = loc("add.32827")
#loc7503 = loc("rsqrt.32828")
#loc7504 = loc("reshape.32829")
#loc7505 = loc("broadcast.32830")
#loc7506 = loc("multiply.32831")
#loc7507 = loc("add.249")
#loc7508 = loc("broadcast.32832")
#loc7509 = loc("multiply.32833")
#loc7510 = loc("reshape.32844")
#loc7511 = loc("transpose.32843")
#loc7512 = loc("dot.32845")
#loc7513 = loc("reshape.32846")
#loc7514 = loc("custom-call.32864")
#loc7515 = loc("transpose.240")
#loc7516 = loc("dot.32835")
#loc7517 = loc("reshape.32836")
#loc7518 = loc("multiply.32865")
#loc7519 = loc("reshape.32866")
#loc7520 = loc("transpose.235")
#loc7521 = loc("dot.32867")
#loc7522 = loc("reshape.32868")
#loc7523 = loc("add.32871")
#loc7524 = loc("power.32873")
#loc7525 = loc("reduce.32880")
#loc7526 = loc("multiply.32889")
#loc7527 = loc("reshape.32890")
#loc7528 = loc("add.32894")
#loc7529 = loc("rsqrt.32895")
#loc7530 = loc("reshape.32896")
#loc7531 = loc("broadcast.32897")
#loc7532 = loc("multiply.32898")
#loc7533 = loc("add.226")
#loc7534 = loc("broadcast.32899")
#loc7535 = loc("multiply.32900")
#loc7536 = loc("reshape.33191")
#loc7537 = loc("transpose.33190")
#loc7538 = loc("dot.33192")
#loc7539 = loc("reshape.33194")
#loc7540 = loc("transpose.33195")
#loc7541 = loc("multiply.33205")
#loc7542 = loc("slice.33197")
#loc7543 = loc("negate.33198")
#loc7544 = loc("slice.33196")
#loc7545 = loc("concatenate.33199")
#loc7546 = loc("multiply.33202")
#loc7547 = loc("add.33208")
#loc7548 = loc("transpose.32970")
#loc7549 = loc("dot.32972")
#loc7550 = loc("reshape.32974")
#loc7551 = loc("transpose.32975")
#loc7552 = loc("multiply.32985")
#loc7553 = loc("slice.32977")
#loc7554 = loc("negate.32978")
#loc7555 = loc("slice.32976")
#loc7556 = loc("concatenate.32979")
#loc7557 = loc("multiply.32982")
#loc7558 = loc("add.32988")
#loc7559 = loc("broadcast.32962")
#loc7560 = loc("reshape.32963")
#loc7561 = loc("transpose.32964")
#loc7562 = loc("dot.32989")
#loc7563 = loc("multiply.32992")
#loc7564 = loc("add.32997")
#loc7565 = loc("reduce.33003")
#loc7566 = loc("broadcast.33004")
#loc7567 = loc("subtract.33005")
#loc7568 = loc("exponential.33006")
#loc7569 = loc("reduce.33012")
#loc7570 = loc("broadcast.33013")
#loc7571 = loc("divide.33014")
#loc7572 = loc("broadcast.32955")
#loc7573 = loc("reshape.32956")
#loc7574 = loc("dot.33015")
#loc7575 = loc("transpose.33017")
#loc7576 = loc("reshape.33019")
#loc7577 = loc("transpose.32951")
#loc7578 = loc("dot.33020")
#loc7579 = loc("reshape.33021")
#loc7580 = loc("add.33024")
#loc7581 = loc("power.33026")
#loc7582 = loc("reduce.33033")
#loc7583 = loc("multiply.33042")
#loc7584 = loc("reshape.33043")
#loc7585 = loc("add.33047")
#loc7586 = loc("rsqrt.33048")
#loc7587 = loc("reshape.33049")
#loc7588 = loc("broadcast.33050")
#loc7589 = loc("multiply.33051")
#loc7590 = loc("add.32942")
#loc7591 = loc("broadcast.33052")
#loc7592 = loc("multiply.33053")
#loc7593 = loc("reshape.33064")
#loc7594 = loc("transpose.33063")
#loc7595 = loc("dot.33065")
#loc7596 = loc("reshape.33066")
#loc7597 = loc("custom-call.33084")
#loc7598 = loc("transpose.32933")
#loc7599 = loc("dot.33055")
#loc7600 = loc("reshape.33056")
#loc7601 = loc("multiply.33085")
#loc7602 = loc("reshape.33086")
#loc7603 = loc("transpose.32928")
#loc7604 = loc("dot.33087")
#loc7605 = loc("reshape.33088")
#loc7606 = loc("add.33091")
#loc7607 = loc("power.33093")
#loc7608 = loc("reduce.33100")
#loc7609 = loc("multiply.33109")
#loc7610 = loc("reshape.33110")
#loc7611 = loc("add.33114")
#loc7612 = loc("rsqrt.33115")
#loc7613 = loc("reshape.33116")
#loc7614 = loc("broadcast.33117")
#loc7615 = loc("multiply.33118")
#loc7616 = loc("add.32919")
#loc7617 = loc("broadcast.33119")
#loc7618 = loc("multiply.33120")
#loc7619 = loc("reshape.33163")
#loc7620 = loc("transpose.33162")
#loc7621 = loc("dot.33164")
#loc7622 = loc("transpose.33167")
#loc7623 = loc("multiply.33174")
#loc7624 = loc("slice.33169")
#loc7625 = loc("negate.33170")
#loc7626 = loc("slice.33168")
#loc7627 = loc("concatenate.33171")
#loc7628 = loc("multiply.33172")
#loc7629 = loc("add.33177")
#loc7630 = loc("transpose.33140")
#loc7631 = loc("dot.33142")
#loc7632 = loc("transpose.33145")
#loc7633 = loc("multiply.33152")
#loc7634 = loc("slice.33147")
#loc7635 = loc("negate.33148")
#loc7636 = loc("slice.33146")
#loc7637 = loc("concatenate.33149")
#loc7638 = loc("multiply.33150")
#loc7639 = loc("add.33155")
#loc7640 = loc("concatenate.33178")
#loc7641 = loc("broadcast.33182")
#loc7642 = loc("reshape.33183")
#loc7643 = loc("transpose.33184")
#loc7644 = loc("dot.33209")
#loc7645 = loc("multiply.33212")
#loc7646 = loc("add.33217")
#loc7647 = loc("reduce.33223")
#loc7648 = loc("broadcast.33224")
#loc7649 = loc("subtract.33225")
#loc7650 = loc("exponential.33226")
#loc7651 = loc("reduce.33232")
#loc7652 = loc("broadcast.33233")
#loc7653 = loc("divide.33234")
#loc7654 = loc("transpose.32910")
#loc7655 = loc("dot.33122")
#loc7656 = loc("transpose.33125")
#loc7657 = loc("transpose.217")
#loc7658 = loc("dot.32902")
#loc7659 = loc("transpose.32905")
#loc7660 = loc("concatenate.33126")
#loc7661 = loc("broadcast.33130")
#loc7662 = loc("reshape.33131")
#loc7663 = loc("dot.33235")
#loc7664 = loc("transpose.33237")
#loc7665 = loc("reshape.33239")
#loc7666 = loc("transpose.212")
#loc7667 = loc("dot.33240")
#loc7668 = loc("reshape.33241")
#loc7669 = loc("add.33244")
#loc7670 = loc("power.33246")
#loc7671 = loc("reduce.33253")
#loc7672 = loc("multiply.33262")
#loc7673 = loc("reshape.33263")
#loc7674 = loc("add.33267")
#loc7675 = loc("rsqrt.33268")
#loc7676 = loc("reshape.33269")
#loc7677 = loc("broadcast.33270")
#loc7678 = loc("multiply.33271")
#loc7679 = loc("add.203")
#loc7680 = loc("broadcast.33272")
#loc7681 = loc("multiply.33273")
#loc7682 = loc("reshape.33284")
#loc7683 = loc("transpose.33283")
#loc7684 = loc("dot.33285")
#loc7685 = loc("reshape.33286")
#loc7686 = loc("custom-call.33304")
#loc7687 = loc("transpose.194")
#loc7688 = loc("dot.33275")
#loc7689 = loc("reshape.33276")
#loc7690 = loc("multiply.33305")
#loc7691 = loc("reshape.33306")
#loc7692 = loc("transpose.189")
#loc7693 = loc("dot.33307")
#loc7694 = loc("reshape.33308")
#loc7695 = loc("add.33311")
#loc7696 = loc("power.33313")
#loc7697 = loc("reduce.33320")
#loc7698 = loc("multiply.33329")
#loc7699 = loc("reshape.33330")
#loc7700 = loc("add.33334")
#loc7701 = loc("rsqrt.33335")
#loc7702 = loc("reshape.33336")
#loc7703 = loc("broadcast.33337")
#loc7704 = loc("multiply.33338")
#loc7705 = loc("add.180")
#loc7706 = loc("broadcast.33339")
#loc7707 = loc("multiply.33340")
#loc7708 = loc("reshape.33631")
#loc7709 = loc("transpose.33630")
#loc7710 = loc("dot.33632")
#loc7711 = loc("reshape.33634")
#loc7712 = loc("transpose.33635")
#loc7713 = loc("multiply.33645")
#loc7714 = loc("slice.33637")
#loc7715 = loc("negate.33638")
#loc7716 = loc("slice.33636")
#loc7717 = loc("concatenate.33639")
#loc7718 = loc("multiply.33642")
#loc7719 = loc("add.33648")
#loc7720 = loc("transpose.33410")
#loc7721 = loc("dot.33412")
#loc7722 = loc("reshape.33414")
#loc7723 = loc("transpose.33415")
#loc7724 = loc("multiply.33425")
#loc7725 = loc("slice.33417")
#loc7726 = loc("negate.33418")
#loc7727 = loc("slice.33416")
#loc7728 = loc("concatenate.33419")
#loc7729 = loc("multiply.33422")
#loc7730 = loc("add.33428")
#loc7731 = loc("broadcast.33402")
#loc7732 = loc("reshape.33403")
#loc7733 = loc("transpose.33404")
#loc7734 = loc("dot.33429")
#loc7735 = loc("multiply.33432")
#loc7736 = loc("add.33437")
#loc7737 = loc("reduce.33443")
#loc7738 = loc("broadcast.33444")
#loc7739 = loc("subtract.33445")
#loc7740 = loc("exponential.33446")
#loc7741 = loc("reduce.33452")
#loc7742 = loc("broadcast.33453")
#loc7743 = loc("divide.33454")
#loc7744 = loc("broadcast.33395")
#loc7745 = loc("reshape.33396")
#loc7746 = loc("dot.33455")
#loc7747 = loc("transpose.33457")
#loc7748 = loc("reshape.33459")
#loc7749 = loc("transpose.33391")
#loc7750 = loc("dot.33460")
#loc7751 = loc("reshape.33461")
#loc7752 = loc("add.33464")
#loc7753 = loc("power.33466")
#loc7754 = loc("reduce.33473")
#loc7755 = loc("multiply.33482")
#loc7756 = loc("reshape.33483")
#loc7757 = loc("add.33487")
#loc7758 = loc("rsqrt.33488")
#loc7759 = loc("reshape.33489")
#loc7760 = loc("broadcast.33490")
#loc7761 = loc("multiply.33491")
#loc7762 = loc("add.33382")
#loc7763 = loc("broadcast.33492")
#loc7764 = loc("multiply.33493")
#loc7765 = loc("reshape.33504")
#loc7766 = loc("transpose.33503")
#loc7767 = loc("dot.33505")
#loc7768 = loc("reshape.33506")
#loc7769 = loc("custom-call.33524")
#loc7770 = loc("transpose.33373")
#loc7771 = loc("dot.33495")
#loc7772 = loc("reshape.33496")
#loc7773 = loc("multiply.33525")
#loc7774 = loc("reshape.33526")
#loc7775 = loc("transpose.33368")
#loc7776 = loc("dot.33527")
#loc7777 = loc("reshape.33528")
#loc7778 = loc("add.33531")
#loc7779 = loc("power.33533")
#loc7780 = loc("reduce.33540")
#loc7781 = loc("multiply.33549")
#loc7782 = loc("reshape.33550")
#loc7783 = loc("add.33554")
#loc7784 = loc("rsqrt.33555")
#loc7785 = loc("reshape.33556")
#loc7786 = loc("broadcast.33557")
#loc7787 = loc("multiply.33558")
#loc7788 = loc("add.33359")
#loc7789 = loc("broadcast.33559")
#loc7790 = loc("multiply.33560")
#loc7791 = loc("reshape.33603")
#loc7792 = loc("transpose.33602")
#loc7793 = loc("dot.33604")
#loc7794 = loc("transpose.33607")
#loc7795 = loc("multiply.33614")
#loc7796 = loc("slice.33609")
#loc7797 = loc("negate.33610")
#loc7798 = loc("slice.33608")
#loc7799 = loc("concatenate.33611")
#loc7800 = loc("multiply.33612")
#loc7801 = loc("add.33617")
#loc7802 = loc("transpose.33580")
#loc7803 = loc("dot.33582")
#loc7804 = loc("transpose.33585")
#loc7805 = loc("multiply.33592")
#loc7806 = loc("slice.33587")
#loc7807 = loc("negate.33588")
#loc7808 = loc("slice.33586")
#loc7809 = loc("concatenate.33589")
#loc7810 = loc("multiply.33590")
#loc7811 = loc("add.33595")
#loc7812 = loc("concatenate.33618")
#loc7813 = loc("broadcast.33622")
#loc7814 = loc("reshape.33623")
#loc7815 = loc("transpose.33624")
#loc7816 = loc("dot.33649")
#loc7817 = loc("multiply.33652")
#loc7818 = loc("add.33657")
#loc7819 = loc("reduce.33663")
#loc7820 = loc("broadcast.33664")
#loc7821 = loc("subtract.33665")
#loc7822 = loc("exponential.33666")
#loc7823 = loc("reduce.33672")
#loc7824 = loc("broadcast.33673")
#loc7825 = loc("divide.33674")
#loc7826 = loc("transpose.33350")
#loc7827 = loc("dot.33562")
#loc7828 = loc("transpose.33565")
#loc7829 = loc("transpose.171")
#loc7830 = loc("dot.33342")
#loc7831 = loc("transpose.33345")
#loc7832 = loc("concatenate.33566")
#loc7833 = loc("broadcast.33570")
#loc7834 = loc("reshape.33571")
#loc7835 = loc("dot.33675")
#loc7836 = loc("transpose.33677")
#loc7837 = loc("reshape.33679")
#loc7838 = loc("transpose.166")
#loc7839 = loc("dot.33680")
#loc7840 = loc("reshape.33681")
#loc7841 = loc("add.33684")
#loc7842 = loc("power.33686")
#loc7843 = loc("reduce.33693")
#loc7844 = loc("multiply.33702")
#loc7845 = loc("reshape.33703")
#loc7846 = loc("add.33707")
#loc7847 = loc("rsqrt.33708")
#loc7848 = loc("reshape.33709")
#loc7849 = loc("broadcast.33710")
#loc7850 = loc("multiply.33711")
#loc7851 = loc("add.157")
#loc7852 = loc("broadcast.33712")
#loc7853 = loc("multiply.33713")
#loc7854 = loc("reshape.33724")
#loc7855 = loc("transpose.33723")
#loc7856 = loc("dot.33725")
#loc7857 = loc("reshape.33726")
#loc7858 = loc("custom-call.33744")
#loc7859 = loc("transpose.148")
#loc7860 = loc("dot.33715")
#loc7861 = loc("reshape.33716")
#loc7862 = loc("multiply.33745")
#loc7863 = loc("reshape.33746")
#loc7864 = loc("transpose.143")
#loc7865 = loc("dot.33747")
#loc7866 = loc("reshape.33748")
#loc7867 = loc("add.33751")
#loc7868 = loc("power.33753")
#loc7869 = loc("reduce.33760")
#loc7870 = loc("multiply.33769")
#loc7871 = loc("reshape.33770")
#loc7872 = loc("add.33774")
#loc7873 = loc("rsqrt.33775")
#loc7874 = loc("reshape.33776")
#loc7875 = loc("broadcast.33777")
#loc7876 = loc("multiply.33778")
#loc7877 = loc("add.134")
#loc7878 = loc("broadcast.33779")
#loc7879 = loc("multiply.33780")
#loc7880 = loc("slice.33781")
#loc7881 = loc("reshape.33782")
#loc7882 = loc("transpose.125")
#loc7883 = loc("dot.33783")
#loc7884 = loc("reshape.33784")
#loc7885 = loc("broadcast.33787")
#loc7886 = loc("add.33788")
#loc7887 = loc("multiply.33790")
#loc7888 = loc("add.33793")
#loc7889 = loc("reshape.33794")
#loc7890 = loc("dot.33795")
#loc7891 = loc("reshape.33796")
#loc7892 = loc("reshape.100")
#loc7893 = loc("slice.101")
#loc7894 = loc("reshape.102")
#loc7895 = loc("multiply.103")
#loc7896 = loc("add.105")
#loc7897 = loc("multiply.61")
#loc7898 = loc("sine.63")
#loc7899 = loc("cosine.62")
#loc7900 = loc("concatenate.64")
#loc7901 = loc("convert.65")
#loc7902 = loc("reshape.66")
#loc7903 = loc("slice.67")
#loc7904 = loc("reshape.68")
#loc7905 = loc("add.107")
#loc7906 = loc("multiply.108")
#loc7907 = loc("broadcast.33798")
#loc7908 = loc("add.33799")
#loc7909 = loc(fused[#loc788, #loc789])
#loc7910 = loc(fused[#loc843, #loc844])
#loc7911 = loc("convolution.18811_weight"(#loc878))
#loc7912 = loc(fused[#loc883, #loc884])
#loc7913 = loc("gather.18807_permuteInput"(#loc886))
#loc7914 = loc("gather.18807_reshapeInput"(#loc886))
#loc7915 = loc("gather.18807_reshapeStartIndices"(#loc886))
#loc7916 = loc("gather.18807_reshapeOutput"(#loc886))
#loc7917 = loc("gather.18807_permuteOutput"(#loc886))
#loc7918 = loc(fused[#loc4804, #loc4805])
#loc7919 = loc("gather.1161_permuteInput"(#loc4807))
#loc7920 = loc("gather.1161_reshapeInput"(#loc4807))
#loc7921 = loc("gather.1161_reshapeStartIndices"(#loc4807))
#loc7922 = loc("gather.1161_reshapeOutput"(#loc4807))
#loc7923 = loc("gather.1161_permuteOutput"(#loc4807))
#loc7924 = loc(fused[#loc4827, #loc4828])
