#dram = #ttnn.buffer_type<dram>
#loc = loc(unknown)
#loc7 = loc("p0.72")
#loc8 = loc("p1.79")
#loc9 = loc("p2.84")
#loc10 = loc("p3.109")
#loc11 = loc("p4.117")
#loc12 = loc("p5.121")
#loc13 = loc("p6.128")
#loc14 = loc("p7.139")
#loc15 = loc("p8.144")
#loc16 = loc("p9.151")
#loc17 = loc("p10.162")
#loc18 = loc("p11.167")
#loc19 = loc("p12.174")
#loc20 = loc("p13.185")
#loc21 = loc("p14.190")
#loc22 = loc("p15.197")
#loc23 = loc("p16.208")
#loc24 = loc("p17.213")
#loc25 = loc("p18.220")
#loc26 = loc("p19.231")
#loc27 = loc("p20.236")
#loc28 = loc("p21.243")
#loc29 = loc("p22.254")
#loc30 = loc("p23.259")
#loc31 = loc("p24.266")
#loc32 = loc("p25.277")
#loc33 = loc("p26.282")
#loc34 = loc("p27.289")
#loc35 = loc("p28.300")
#loc36 = loc("p29.305")
#loc37 = loc("p30.312")
#loc38 = loc("p31.323")
#loc39 = loc("p32.328")
#loc40 = loc("p33.335")
#loc41 = loc("p34.346")
#loc42 = loc("p35.351")
#loc43 = loc("p36.358")
#loc44 = loc("p37.369")
#loc45 = loc("p38.374")
#loc46 = loc("p39.381")
#loc47 = loc("p40.392")
#loc48 = loc("p41.397")
#loc49 = loc("p42.404")
#loc50 = loc("p43.415")
#loc51 = loc("p44.420")
#loc52 = loc("p45.427")
#loc53 = loc("p46.438")
#loc54 = loc("p47.443")
#loc55 = loc("p48.450")
#loc56 = loc("p49.461")
#loc57 = loc("p50.466")
#loc58 = loc("p51.473")
#loc59 = loc("p52.484")
#loc60 = loc("p53.489")
#loc61 = loc("p54.496")
#loc62 = loc("p55.507")
#loc63 = loc("p56.512")
#loc64 = loc("p57.519")
#loc65 = loc("p58.530")
#loc66 = loc("p59.535")
#loc67 = loc("p60.542")
#loc68 = loc("p61.553")
#loc69 = loc("p62.558")
#loc70 = loc("p63.565")
#loc71 = loc("p64.576")
#loc72 = loc("p65.581")
#loc73 = loc("p66.588")
#loc74 = loc("p67.599")
#loc75 = loc("p68.604")
#loc76 = loc("p69.611")
#loc77 = loc("p70.622")
#loc78 = loc("p71.627")
#loc79 = loc("p72.634")
#loc80 = loc("p73.645")
#loc81 = loc("p74.650")
#loc82 = loc("p75.657")
#loc83 = loc("p76.668")
#loc84 = loc("p77.673")
#loc85 = loc("p78.680")
#loc86 = loc("p79.691")
#loc87 = loc("p80.696")
#loc88 = loc("p81.703")
#loc89 = loc("p82.714")
#loc90 = loc("p83.719")
#loc91 = loc("p84.726")
#loc92 = loc("p85.737")
#loc93 = loc("p86.742")
#loc94 = loc("p87.749")
#loc95 = loc("p88.760")
#loc96 = loc("p89.765")
#loc97 = loc("p90.772")
#loc98 = loc("p91.783")
#loc99 = loc("p92.788")
#loc100 = loc("p93.795")
#loc101 = loc("p94.806")
#loc102 = loc("p95.811")
#loc103 = loc("p96.818")
#loc104 = loc("p97.829")
#loc105 = loc("p98.834")
#loc106 = loc("p99.841")
#loc107 = loc("p100.852")
#loc108 = loc("p101.857")
#loc109 = loc("p102.864")
#loc110 = loc("p103.875")
#loc111 = loc("p104.880")
#loc112 = loc("p105.887")
#loc113 = loc("p106.898")
#loc114 = loc("p107.903")
#loc115 = loc("p108.910")
#loc116 = loc("p109.921")
#loc117 = loc("p110.926")
#loc118 = loc("p111.933")
#loc119 = loc("p112.944")
#loc120 = loc("p113.949")
#loc121 = loc("p114.956")
#loc122 = loc("p115.967")
#loc123 = loc("p116.971")
#loc124 = loc("p117.977")
#loc125 = loc("p118.981")
#loc126 = loc("p119.1053")
#loc127 = loc("p120.1058")
#loc128 = loc("p121.1133")
#loc129 = loc("p122.1140")
#loc130 = loc("p123.1151")
#loc131 = loc("p124.1156")
#loc132 = loc("p125.1166")
#loc133 = loc("p126.1170")
#loc134 = loc("p127.1176")
#loc135 = loc("p128.1181")
#loc136 = loc("p129.1190")
#loc137 = loc("p130.1194")
#loc138 = loc("p131.1202")
#loc139 = loc("p132.1206")
#loc140 = loc("p133.1212")
#loc141 = loc("p134.1217")
#loc142 = loc("p135.1226")
#loc143 = loc("p136.1230")
#loc144 = loc("p137.1236")
#loc145 = loc("p138.1240")
#loc146 = loc("p139.1246")
#loc147 = loc("p140.1251")
#loc148 = loc("p141.1260")
#loc149 = loc("p142.1264")
#loc150 = loc("p143.1272")
#loc151 = loc("p144.1276")
#loc152 = loc("p145.1282")
#loc153 = loc("p146.1287")
#loc154 = loc("p147.1296")
#loc155 = loc("p148.1300")
#loc156 = loc("p149.1306")
#loc157 = loc("p150.1310")
#loc158 = loc("p151.1316")
#loc159 = loc("p152.1321")
#loc160 = loc("p153.1330")
#loc161 = loc("p154.1334")
#loc162 = loc("p155.1342")
#loc163 = loc("p156.1346")
#loc164 = loc("p157.1352")
#loc165 = loc("p158.1357")
#loc166 = loc("p159.1366")
#loc167 = loc("p160.1370")
#loc168 = loc("p161.1376")
#loc169 = loc("p162.1380")
#loc170 = loc("p163.1386")
#loc171 = loc("p164.1391")
#loc172 = loc("p165.1400")
#loc173 = loc("p166.1404")
#loc174 = loc("p167.1412")
#loc175 = loc("p168.1416")
#loc176 = loc("p169.1422")
#loc177 = loc("p170.1427")
#loc178 = loc("p171.1436")
#loc179 = loc("p172.1440")
#loc180 = loc("p173.1446")
#loc181 = loc("p174.1450")
#loc182 = loc("p175.1456")
#loc183 = loc("p176.1461")
#loc184 = loc("p177.1470")
#loc185 = loc("p178.1474")
#loc186 = loc("p179.1482")
#loc187 = loc("p180.1486")
#loc188 = loc("p181.1492")
#loc189 = loc("p182.1497")
#loc190 = loc("p183.1506")
#loc191 = loc("p184.1510")
#loc192 = loc("p185.1516")
#loc193 = loc("p186.1520")
#loc194 = loc("p187.1526")
#loc195 = loc("p188.1531")
#loc196 = loc("p189.1540")
#loc197 = loc("p190.1544")
#loc198 = loc("p191.1552")
#loc199 = loc("p192.1556")
#loc200 = loc("p193.1562")
#loc201 = loc("p194.1567")
#loc202 = loc("p195.1576")
#loc203 = loc("p196.1580")
#loc204 = loc("p197.1586")
#loc205 = loc("p198.1590")
#loc206 = loc("p199.1596")
#loc207 = loc("p200.1601")
#loc208 = loc("p201.1610")
#loc209 = loc("p202.1614")
#loc210 = loc("p203.1622")
#loc211 = loc("p204.1626")
#loc212 = loc("p205.1632")
#loc213 = loc("p206.1637")
#loc214 = loc("p207.1646")
#loc215 = loc("p208.1650")
#loc216 = loc("p209.1656")
#loc217 = loc("p210.1660")
#loc218 = loc("p211.1666")
#loc219 = loc("p212.1671")
#loc220 = loc("p213.1680")
#loc221 = loc("p214.1684")
#loc222 = loc("p215.1692")
#loc223 = loc("p216.1696")
#loc224 = loc("p217.1702")
#loc225 = loc("p218.1707")
#loc226 = loc("p219.1716")
#loc227 = loc("p220.1720")
#loc228 = loc("p221.1726")
#loc229 = loc("p222.1730")
#loc230 = loc("p223.1736")
#loc231 = loc("p224.1741")
#loc232 = loc("p225.1750")
#loc233 = loc("p226.1754")
#loc234 = loc("p227.1762")
#loc235 = loc("p228.1766")
#loc236 = loc("p229.1772")
#loc237 = loc("p230.1777")
#loc238 = loc("p231.1786")
#loc239 = loc("p232.1790")
#loc240 = loc("p233.1796")
#loc241 = loc("p234.1800")
#loc242 = loc("p235.1806")
#loc243 = loc("p236.1811")
#loc244 = loc("p237.1820")
#loc245 = loc("p238.1824")
#loc246 = loc("p239.1832")
#loc247 = loc("p240.1836")
#loc248 = loc("p241.1842")
#loc249 = loc("p242.1847")
#loc250 = loc("p243.1856")
#loc251 = loc("p244.1860")
#loc252 = loc("p245.1866")
#loc253 = loc("p246.1870")
#loc254 = loc("p247.1876")
#loc255 = loc("p248.1881")
#loc256 = loc("p249.1890")
#loc257 = loc("p250.1894")
#loc258 = loc("p251.1902")
#loc259 = loc("p252.1906")
#loc260 = loc("p253.1912")
#loc261 = loc("p254.1917")
#loc262 = loc("p255.1926")
#loc263 = loc("p256.1930")
#loc264 = loc("p257.1936")
#loc265 = loc("p258.1940")
#loc266 = loc("p259.1946")
#loc267 = loc("p260.1951")
#loc268 = loc("p261.1960")
#loc269 = loc("p262.1964")
#loc270 = loc("p263.1972")
#loc271 = loc("p264.1976")
#loc272 = loc("p265.1982")
#loc273 = loc("p266.1987")
#loc274 = loc("p267.1996")
#loc275 = loc("p268.2000")
#loc276 = loc("p269.2006")
#loc277 = loc("p270.2010")
#loc278 = loc("p271.2016")
#loc279 = loc("p272.2021")
#loc280 = loc("p273.2030")
#loc281 = loc("p274.2034")
#loc282 = loc("p275.2042")
#loc283 = loc("p276.2046")
#loc284 = loc("p277.2052")
#loc285 = loc("p278.2057")
#loc286 = loc("p279.2066")
#loc287 = loc("p280.2070")
#loc288 = loc("p281.2076")
#loc289 = loc("p282.2080")
#loc290 = loc("p283.2086")
#loc291 = loc("p284.2091")
#loc292 = loc("p285.2100")
#loc293 = loc("p286.2104")
#loc294 = loc("p287.2112")
#loc295 = loc("p288.2116")
#loc296 = loc("p289.2122")
#loc297 = loc("p290.2127")
#loc298 = loc("p291.2136")
#loc299 = loc("p292.2140")
#loc300 = loc("p293.2146")
#loc301 = loc("p294.2150")
#loc302 = loc("p295.2156")
#loc303 = loc("p296.2161")
#loc304 = loc("p297.2170")
#loc305 = loc("p298.2174")
#loc306 = loc("p299.2182")
#loc307 = loc("p300.2186")
#loc308 = loc("p301.2192")
#loc309 = loc("p302.2197")
#loc310 = loc("p303.2206")
#loc311 = loc("p304.2210")
#loc312 = loc("p305.2216")
#loc313 = loc("p306.2220")
#loc314 = loc("p307.2226")
#loc315 = loc("p308.2231")
#loc316 = loc("p309.2240")
#loc317 = loc("p310.2244")
#loc318 = loc("p311.2252")
#loc319 = loc("p312.2256")
#loc320 = loc("p313.2262")
#loc321 = loc("p314.2267")
#loc322 = loc("p315.2276")
#loc323 = loc("p316.2280")
#loc324 = loc("p317.2286")
#loc325 = loc("p318.2290")
#loc326 = loc("p319.2296")
#loc327 = loc("p320.2301")
#loc328 = loc("p321.2310")
#loc329 = loc("p322.2314")
#loc330 = loc("p323.2322")
#loc331 = loc("p324.2326")
#loc332 = loc("p325.2332")
#loc333 = loc("p326.2337")
#loc334 = loc("p327.2346")
#loc335 = loc("p328.2350")
#loc336 = loc("p329.2356")
#loc337 = loc("p330.2360")
#loc338 = loc("p331.2366")
#loc339 = loc("p332.2371")
#loc340 = loc("p333.2380")
#loc341 = loc("p334.2384")
#loc342 = loc("p335.2392")
#loc343 = loc("p336.2396")
#loc344 = loc("p337.2402")
#loc345 = loc("p338.2407")
#loc346 = loc("p339.2416")
#loc347 = loc("p340.2420")
#loc348 = loc("p341.2426")
#loc349 = loc("p342.2430")
#loc350 = loc("p343.2436")
#loc351 = loc("p344.2441")
#loc352 = loc("p345.2450")
#loc353 = loc("p346.2454")
#loc354 = loc("p347.2462")
#loc355 = loc("p348.2466")
#loc356 = loc("p349.2472")
#loc357 = loc("p350.2477")
#loc358 = loc("p351.2486")
#loc359 = loc("p352.2490")
#loc360 = loc("p353.2496")
#loc361 = loc("p354.2500")
#loc362 = loc("p355.2506")
#loc363 = loc("p356.2511")
#loc364 = loc("p357.2520")
#loc365 = loc("p358.2524")
#loc366 = loc("p359.2532")
#loc367 = loc("p360.2536")
#loc368 = loc("p361.2542")
#loc369 = loc("p362.2547")
#loc370 = loc("p363.2556")
#loc371 = loc("p364.2560")
#loc372 = loc("p365.2566")
#loc373 = loc("p366.2570")
#loc374 = loc("p367.2576")
#loc375 = loc("p368.2581")
#loc376 = loc("p369.2590")
#loc377 = loc("p370.2594")
#loc378 = loc("p371.2602")
#loc379 = loc("p372.2606")
#loc380 = loc("p373.2612")
#loc381 = loc("p374.2617")
#loc382 = loc("p375.2626")
#loc383 = loc("p376.2630")
#loc384 = loc("p377.2636")
#loc385 = loc("p378.2640")
#loc386 = loc("p379.2646")
#loc387 = loc("p380.2651")
#loc388 = loc("p381.2660")
#loc389 = loc("p382.2664")
#loc390 = loc("p383.2672")
#loc391 = loc("p384.2676")
#loc392 = loc("p385.2682")
#loc393 = loc("p386.2687")
#loc394 = loc("p387.2696")
#loc395 = loc("p388.2700")
#loc396 = loc("p389.2706")
#loc397 = loc("p390.2710")
#loc398 = loc("p391.2716")
#loc399 = loc("p392.2721")
#loc400 = loc("p393.2730")
#loc401 = loc("p394.2734")
#loc402 = loc("p395.2742")
#loc403 = loc("p396.2746")
#loc404 = loc("p397.2752")
#loc405 = loc("p398.2757")
#loc406 = loc("p399.2766")
#loc407 = loc("p400.2770")
#loc408 = loc("p401.2776")
#loc409 = loc("p402.2780")
#loc410 = loc("p403.2786")
#loc411 = loc("p404.2791")
#loc412 = loc("p405.2800")
#loc413 = loc("p406.2804")
#loc414 = loc("p407.2812")
#loc415 = loc("p408.2816")
#loc416 = loc("p409.2822")
#loc417 = loc("p410.2827")
#loc418 = loc("p411.2836")
#loc419 = loc("p412.2840")
#loc420 = loc("p413.2846")
#loc421 = loc("p414.2850")
#loc422 = loc("p415.2856")
#loc423 = loc("p416.2861")
#loc424 = loc("p417.2870")
#loc425 = loc("p418.2874")
#loc426 = loc("p419.2882")
#loc427 = loc("p420.2886")
#loc428 = loc("p421.2892")
#loc429 = loc("p422.2897")
#loc430 = loc("p423.2906")
#loc431 = loc("p424.2910")
#loc432 = loc("p425.2916")
#loc433 = loc("p426.2920")
#loc434 = loc("p427.2926")
#loc435 = loc("p428.2931")
#loc436 = loc("p429.2940")
#loc437 = loc("p430.2944")
#loc438 = loc("p431.2952")
#loc439 = loc("p432.2956")
#loc440 = loc("p433.2962")
#loc441 = loc("p434.2967")
#loc442 = loc("p435.2976")
#loc443 = loc("p436.2980")
#loc444 = loc("p437.2986")
#loc445 = loc("p438.2990")
#loc446 = loc("p439.2996")
#loc447 = loc("p440.3001")
#loc448 = loc("p441.3010")
#loc449 = loc("p442.3014")
#loc450 = loc("p443.3022")
#loc451 = loc("p444.3026")
#loc452 = loc("p445.3032")
#loc453 = loc("p446.3037")
#loc454 = loc("p447.3046")
#loc455 = loc("p448.3050")
#loc456 = loc("p449.3056")
#loc457 = loc("p450.3060")
#loc458 = loc("p451.3066")
#loc459 = loc("p452.3071")
#loc460 = loc("p453.3079")
#loc461 = loc("p454.3084")
#loc462 = loc("p455.3091")
#loc463 = loc("p456.3095")
#loc464 = loc("p457.3097")
#loc465 = loc("p458.3196")
#loc466 = loc("p459.3200")
#loc467 = loc("p460.3216")
#loc468 = loc("p461.3220")
#loc469 = loc("p462.3469")
#loc470 = loc("p463.3473")
#loc471 = loc("p464.3489")
#loc472 = loc("p465.3493")
#loc473 = loc("p466.3742")
#loc474 = loc("p467.3746")
#loc475 = loc("p468.3762")
#loc476 = loc("p469.3766")
#loc477 = loc("p470.4015")
#loc478 = loc("p471.4019")
#loc479 = loc("p472.4035")
#loc480 = loc("p473.4039")
#loc481 = loc("p474.4288")
#loc482 = loc("p475.4292")
#loc483 = loc("p476.4308")
#loc484 = loc("p477.4312")
#loc485 = loc("p478.4561")
#loc486 = loc("p479.4565")
#loc487 = loc("p480.4581")
#loc488 = loc("p481.4585")
#loc489 = loc("p482.4834")
#loc490 = loc("p483.4838")
#loc491 = loc("p484.4854")
#loc492 = loc("p485.4858")
#loc493 = loc("p486.5107")
#loc494 = loc("p487.5111")
#loc495 = loc("p488.5127")
#loc496 = loc("p489.5131")
#loc497 = loc("p490.5380")
#loc498 = loc("p491.5384")
#loc499 = loc("p492.5400")
#loc500 = loc("p493.5404")
#loc501 = loc("p494.5653")
#loc502 = loc("p495.5657")
#loc503 = loc("p496.5673")
#loc504 = loc("p497.5677")
#loc505 = loc("p498.5926")
#loc506 = loc("p499.5930")
#loc507 = loc("p500.5946")
#loc508 = loc("p501.5950")
#loc509 = loc("p502.6199")
#loc510 = loc("p503.6203")
#loc511 = loc("p504.6219")
#loc512 = loc("p505.6223")
#loc513 = loc("p506.6472")
#loc514 = loc("p507.6476")
#loc515 = loc("p508.6492")
#loc516 = loc("p509.6496")
#loc517 = loc("p510.6745")
#loc518 = loc("p511.6749")
#loc519 = loc("p512.6765")
#loc520 = loc("p513.6769")
#loc521 = loc("p514.7018")
#loc522 = loc("p515.7022")
#loc523 = loc("p516.7038")
#loc524 = loc("p517.7042")
#loc525 = loc("p518.7291")
#loc526 = loc("p519.7295")
#loc527 = loc("p520.7311")
#loc528 = loc("p521.7315")
#loc529 = loc("p522.7564")
#loc530 = loc("p523.7568")
#loc531 = loc("p524.7584")
#loc532 = loc("p525.7588")
#loc533 = loc("p526.7837")
#loc534 = loc("p527.7841")
#loc535 = loc("p528.7857")
#loc536 = loc("p529.7861")
#loc537 = loc("p530.8110")
#loc538 = loc("p531.8114")
#loc539 = loc("p532.8130")
#loc540 = loc("p533.8134")
#loc541 = loc("p534.8383")
#loc542 = loc("p535.8387")
#loc543 = loc("p536.8403")
#loc544 = loc("p537.8407")
#loc545 = loc("p538.8656")
#loc546 = loc("p539.8660")
#loc547 = loc("p540.8676")
#loc548 = loc("p541.8680")
#loc549 = loc("p542.8929")
#loc550 = loc("p543.8933")
#loc551 = loc("p544.8949")
#loc552 = loc("p545.8953")
#loc553 = loc("p546.9202")
#loc554 = loc("p547.9206")
#loc555 = loc("p548.9222")
#loc556 = loc("p549.9226")
#loc557 = loc("p550.9475")
#loc558 = loc("p551.9479")
#loc559 = loc("p552.9495")
#loc560 = loc("p553.9499")
#loc561 = loc("p554.9748")
#loc562 = loc("p555.9752")
#loc563 = loc("p556.9768")
#loc564 = loc("p557.9772")
#loc565 = loc("p558.10021")
#loc566 = loc("p559.10025")
#loc567 = loc("p560.10041")
#loc568 = loc("p561.10045")
#loc569 = loc("p562.10294")
#loc570 = loc("p563.10298")
#loc571 = loc("p564.10314")
#loc572 = loc("p565.10318")
#loc573 = loc("p566.11169")
#loc574 = loc("p567.18809")
#loc575 = loc("p568.25897")
#loc576 = loc("p569.25912")
#loc577 = loc("p570.25931")
#loc578 = loc("p571.25935")
#loc579 = loc("p572.25943")
#loc580 = loc("p573.25951")
#loc581 = loc("p574.26001")
#loc582 = loc("p575.26016")
#loc583 = loc("p576.26057")
#loc584 = loc("p577.26072")
#loc585 = loc("p578.26104")
#loc586 = loc("p579.26197")
#loc587 = loc("p580.26264")
#loc588 = loc("p581.26271")
#loc589 = loc("p582.26282")
#loc590 = loc("p583.26287")
#loc591 = loc("p584.26294")
#loc592 = loc("p585.26305")
#loc593 = loc("p586.26335")
#loc594 = loc("p587.26366")
#loc595 = loc("p588.26459")
#loc596 = loc("p589.26536")
#loc597 = loc("p590.26558")
#loc598 = loc("p591.26586")
#loc599 = loc("p592.26679")
#loc600 = loc("p593.26746")
#loc601 = loc("p594.26753")
#loc602 = loc("p595.26764")
#loc603 = loc("p596.26769")
#loc604 = loc("p597.26776")
#loc605 = loc("p598.26787")
#loc606 = loc("p599.26806")
#loc607 = loc("p600.26899")
#loc608 = loc("p601.26976")
#loc609 = loc("p602.26998")
#loc610 = loc("p603.27026")
#loc611 = loc("p604.27119")
#loc612 = loc("p605.27186")
#loc613 = loc("p606.27193")
#loc614 = loc("p607.27204")
#loc615 = loc("p608.27209")
#loc616 = loc("p609.27216")
#loc617 = loc("p610.27227")
#loc618 = loc("p611.27246")
#loc619 = loc("p612.27339")
#loc620 = loc("p613.27416")
#loc621 = loc("p614.27438")
#loc622 = loc("p615.27466")
#loc623 = loc("p616.27559")
#loc624 = loc("p617.27626")
#loc625 = loc("p618.27633")
#loc626 = loc("p619.27644")
#loc627 = loc("p620.27649")
#loc628 = loc("p621.27656")
#loc629 = loc("p622.27667")
#loc630 = loc("p623.27686")
#loc631 = loc("p624.27779")
#loc632 = loc("p625.27856")
#loc633 = loc("p626.27878")
#loc634 = loc("p627.27906")
#loc635 = loc("p628.27999")
#loc636 = loc("p629.28066")
#loc637 = loc("p630.28073")
#loc638 = loc("p631.28084")
#loc639 = loc("p632.28089")
#loc640 = loc("p633.28096")
#loc641 = loc("p634.28107")
#loc642 = loc("p635.28126")
#loc643 = loc("p636.28219")
#loc644 = loc("p637.28296")
#loc645 = loc("p638.28318")
#loc646 = loc("p639.28346")
#loc647 = loc("p640.28439")
#loc648 = loc("p641.28506")
#loc649 = loc("p642.28513")
#loc650 = loc("p643.28524")
#loc651 = loc("p644.28529")
#loc652 = loc("p645.28536")
#loc653 = loc("p646.28547")
#loc654 = loc("p647.28566")
#loc655 = loc("p648.28659")
#loc656 = loc("p649.28736")
#loc657 = loc("p650.28758")
#loc658 = loc("p651.28786")
#loc659 = loc("p652.28879")
#loc660 = loc("p653.28946")
#loc661 = loc("p654.28953")
#loc662 = loc("p655.28964")
#loc663 = loc("p656.28969")
#loc664 = loc("p657.28976")
#loc665 = loc("p658.28987")
#loc666 = loc("p659.29006")
#loc667 = loc("p660.29099")
#loc668 = loc("p661.29176")
#loc669 = loc("p662.29198")
#loc670 = loc("p663.29226")
#loc671 = loc("p664.29319")
#loc672 = loc("p665.29386")
#loc673 = loc("p666.29393")
#loc674 = loc("p667.29404")
#loc675 = loc("p668.29409")
#loc676 = loc("p669.29416")
#loc677 = loc("p670.29427")
#loc678 = loc("p671.29446")
#loc679 = loc("p672.29539")
#loc680 = loc("p673.29616")
#loc681 = loc("p674.29638")
#loc682 = loc("p675.29666")
#loc683 = loc("p676.29759")
#loc684 = loc("p677.29826")
#loc685 = loc("p678.29833")
#loc686 = loc("p679.29844")
#loc687 = loc("p680.29849")
#loc688 = loc("p681.29856")
#loc689 = loc("p682.29867")
#loc690 = loc("p683.29886")
#loc691 = loc("p684.29979")
#loc692 = loc("p685.30056")
#loc693 = loc("p686.30078")
#loc694 = loc("p687.30106")
#loc695 = loc("p688.30199")
#loc696 = loc("p689.30266")
#loc697 = loc("p690.30273")
#loc698 = loc("p691.30284")
#loc699 = loc("p692.30289")
#loc700 = loc("p693.30296")
#loc701 = loc("p694.30307")
#loc702 = loc("p695.30326")
#loc703 = loc("p696.30419")
#loc704 = loc("p697.30496")
#loc705 = loc("p698.30518")
#loc706 = loc("p699.30546")
#loc707 = loc("p700.30639")
#loc708 = loc("p701.30706")
#loc709 = loc("p702.30713")
#loc710 = loc("p703.30724")
#loc711 = loc("p704.30729")
#loc712 = loc("p705.30736")
#loc713 = loc("p706.30747")
#loc714 = loc("p707.30766")
#loc715 = loc("p708.30859")
#loc716 = loc("p709.30936")
#loc717 = loc("p710.30958")
#loc718 = loc("p711.30986")
#loc719 = loc("p712.31079")
#loc720 = loc("p713.31146")
#loc721 = loc("p714.31153")
#loc722 = loc("p715.31164")
#loc723 = loc("p716.31169")
#loc724 = loc("p717.31176")
#loc725 = loc("p718.31187")
#loc726 = loc("p719.31206")
#loc727 = loc("p720.31299")
#loc728 = loc("p721.31376")
#loc729 = loc("p722.31398")
#loc730 = loc("p723.31426")
#loc731 = loc("p724.31519")
#loc732 = loc("p725.31586")
#loc733 = loc("p726.31593")
#loc734 = loc("p727.31604")
#loc735 = loc("p728.31609")
#loc736 = loc("p729.31616")
#loc737 = loc("p730.31627")
#loc738 = loc("p731.31646")
#loc739 = loc("p732.31739")
#loc740 = loc("p733.31816")
#loc741 = loc("p734.31838")
#loc742 = loc("p735.31866")
#loc743 = loc("p736.31959")
#loc744 = loc("p737.32026")
#loc745 = loc("p738.32033")
#loc746 = loc("p739.32044")
#loc747 = loc("p740.32049")
#loc748 = loc("p741.32056")
#loc749 = loc("p742.32067")
#loc750 = loc("p743.32086")
#loc751 = loc("p744.32179")
#loc752 = loc("p745.32256")
#loc753 = loc("p746.32278")
#loc754 = loc("p747.32306")
#loc755 = loc("p748.32399")
#loc756 = loc("p749.32466")
#loc757 = loc("p750.32473")
#loc758 = loc("p751.32484")
#loc759 = loc("p752.32489")
#loc760 = loc("p753.32496")
#loc761 = loc("p754.32507")
#loc762 = loc("p755.32526")
#loc763 = loc("p756.32619")
#loc764 = loc("p757.32696")
#loc765 = loc("p758.32718")
#loc766 = loc("p759.32746")
#loc767 = loc("p760.32839")
#loc768 = loc("p761.32906")
#loc769 = loc("p762.32913")
#loc770 = loc("p763.32924")
#loc771 = loc("p764.32929")
#loc772 = loc("p765.32936")
#loc773 = loc("p766.32947")
#loc774 = loc("p767.32966")
#loc775 = loc("p768.33059")
#loc776 = loc("p769.33136")
#loc777 = loc("p770.33158")
#loc778 = loc("p771.33186")
#loc779 = loc("p772.33279")
#loc780 = loc("p773.33346")
#loc781 = loc("p774.33353")
#loc782 = loc("p775.33364")
#loc783 = loc("p776.33369")
#loc784 = loc("p777.33376")
#loc785 = loc("p778.33387")
#loc786 = loc("p779.33406")
#loc787 = loc("p780.33499")
#loc788 = loc("p781.33576")
#loc789 = loc("p782.33598")
#loc790 = loc("p783.33626")
#loc791 = loc("p784.33719")
#system_desc = #ttcore.system_desc<[{role = host, target_triple = "x86_64-pc-linux"}], [{arch = <wormhole_b0>, grid = 8x8, coord_translation_offsets = 18x18, l1_size = 1499136, num_dram_channels = 12, dram_channel_size = 1073741824, noc_l1_address_align_bytes = 16, pcie_address_align_bytes = 32, noc_dram_address_align_bytes = 32, l1_unreserved_base = 103712, erisc_l1_unreserved_base = 98304, dram_unreserved_base = 1920032, dram_unreserved_end = 1073119552, supported_data_types = [<f32>, <f16>, <bf16>, <bfp_f8>, <bfp_bf8>, <bfp_f4>, <bfp_bf4>, <bfp_f2>, <bfp_bf2>, <u32>, <u16>, <u8>, <si32>], supported_tile_sizes = [ 4x16,  16x16,  32x16,  4x32,  16x32,  32x32], dst_physical_size_tiles = 16, num_cbs = 64, num_compute_threads = 1, num_datamovement_threads = 2, dram_grid = 1x12, dram_bank_to_logical_worker_noc0 = [(7, 3), (0, 0), (4, 0), (1, 2), (0, 4), (7, 7), (1, 4), (6, 4), (5, 4), (2, 4), (4, 4), (3, 6)], dram_bank_to_logical_worker_noc1 = [(7, 3), (0, 0), (4, 0), (1, 2), (0, 4), (7, 7), (1, 4), (6, 4), (5, 4), (2, 4), (4, 4), (3, 6)]}], [0], [1 : i32], [ 0x0x0x0]>
#system_memory = #ttnn.buffer_type<system_memory>
#ttnn_layout = #ttnn.ttnn_layout<(d0) -> (0, d0), <1x1>, memref<1x1024xf32, #system_memory>>
#ttnn_layout1 = #ttnn.ttnn_layout<(d0) -> (0, d0), <1x1>, memref<1x2048xf32, #system_memory>>
#ttnn_layout2 = #ttnn.ttnn_layout<(d0, d1) -> (d0, d1), <1x1>, memref<2x32x!ttcore.tile<32x32, f32>, #dram>, <interleaved>>
#ttnn_layout3 = #ttnn.ttnn_layout<(d0) -> (0, d0), <1x1>, memref<1x32x!ttcore.tile<32x32, f32>, #dram>, <interleaved>>
#ttnn_layout4 = #ttnn.ttnn_layout<(d0) -> (0, d0), <1x1>, memref<1x64x!ttcore.tile<32x32, f32>, #dram>, <interleaved>>
#ttnn_layout5 = #ttnn.ttnn_layout<(d0) -> (0, d0), <1x1>, memref<1x1x!ttcore.tile<32x32, f32>, #dram>, <interleaved>>
#ttnn_layout6 = #ttnn.ttnn_layout<(d0, d1) -> (d0, d1), <1x1>, memref<50x1024xf32, #system_memory>>
#ttnn_layout7 = #ttnn.ttnn_layout<(d0) -> (0, d0), <1x1>, memref<1x1xf32, #system_memory>>
#ttnn_layout8 = #ttnn.ttnn_layout<(d0, d1) -> (d0, d1), <1x1>, memref<2x32x!ttcore.tile<32x32, f32>, #system_memory>>
#ttnn_layout9 = #ttnn.ttnn_layout<(d0) -> (0, d0), <1x1>, memref<1x32x!ttcore.tile<32x32, f32>, #system_memory>>
#ttnn_layout10 = #ttnn.ttnn_layout<(d0) -> (0, d0), <1x1>, memref<1x64x!ttcore.tile<32x32, f32>, #system_memory>>
#ttnn_layout11 = #ttnn.ttnn_layout<(d0) -> (0, d0), <1x1>, memref<1x1x!ttcore.tile<32x32, f32>, #system_memory>>
#ttnn_layout12 = #ttnn.ttnn_layout<(d0) -> (0, d0), <1x1>, memref<1x1152xf32, #system_memory>>
#ttnn_layout13 = #ttnn.ttnn_layout<(d0, d1, d2) -> (d0 * 32 + d1, d2), <1x1>, memref<1x36x!ttcore.tile<32x32, f32>, #dram>, <interleaved>>
#ttnn_layout14 = #ttnn.ttnn_layout<(d0, d1, d2) -> (d0 + d1, d2), <1x1>, memref<1x1152xf32, #system_memory>>
#ttnn_layout15 = #ttnn.ttnn_layout<(d0, d1, d2) -> (d0 * 32 + d1, d2), <1x1>, memref<1x36x!ttcore.tile<32x32, f32>, #system_memory>>
#ttnn_layout16 = #ttnn.ttnn_layout<(d0, d1, d2) -> (d0 * 32 + d1, d2), <1x1>, memref<1x108x!ttcore.tile<32x32, f32>, #dram>, <interleaved>>
#ttnn_layout17 = #ttnn.ttnn_layout<(d0, d1, d2) -> (d0 + d1, d2), <1x1>, memref<1x3456xf32, #system_memory>>
#ttnn_layout18 = #ttnn.ttnn_layout<(d0, d1, d2) -> (d0 * 32 + d1, d2), <1x1>, memref<1x108x!ttcore.tile<32x32, f32>, #system_memory>>
#ttnn_layout19 = #ttnn.ttnn_layout<(d0, d1) -> (d0, d1), <1x1>, memref<1152x1152xf32, #system_memory>>
#ttnn_layout20 = #ttnn.ttnn_layout<(d0, d1) -> (d0, d1), <1x1>, memref<36x108x!ttcore.tile<32x32, f32>, #dram>, <interleaved>>
#ttnn_layout21 = #ttnn.ttnn_layout<(d0, d1) -> (d0, d1), <1x1>, memref<1152x3456xf32, #system_memory>>
#ttnn_layout22 = #ttnn.ttnn_layout<(d0, d1) -> (d0, d1), <1x1>, memref<36x108x!ttcore.tile<32x32, f32>, #system_memory>>
#ttnn_layout23 = #ttnn.ttnn_layout<(d0, d1) -> (d0, d1), <1x1>, memref<256x1024xf32, #system_memory>>
#ttnn_layout24 = #ttnn.ttnn_layout<(d0, d1) -> (d0, d1), <1x1>, memref<2048x1024xf32, #system_memory>>
#ttnn_layout25 = #ttnn.ttnn_layout<(d0, d1) -> (d0, d1), <1x1>, memref<32x80x!ttcore.tile<32x32, f32>, #dram>, <interleaved>>
#ttnn_layout26 = #ttnn.ttnn_layout<(d0, d1) -> (d0, d1), <1x1>, memref<1024x2560xf32, #system_memory>>
#ttnn_layout27 = #ttnn.ttnn_layout<(d0, d1) -> (d0, d1), <1x1>, memref<32x80x!ttcore.tile<32x32, f32>, #system_memory>>
#ttnn_layout28 = #ttnn.ttnn_layout<(d0, d1) -> (d0, d1), <1x1>, memref<256x2048xf32, #system_memory>>
#ttnn_layout29 = #ttnn.ttnn_layout<(d0, d1) -> (d0, d1), <1x1>, memref<2048x2048xf32, #system_memory>>
#ttnn_layout30 = #ttnn.ttnn_layout<(d0, d1) -> (d0, d1), <1x1>, memref<64x80x!ttcore.tile<32x32, f32>, #dram>, <interleaved>>
#ttnn_layout31 = #ttnn.ttnn_layout<(d0, d1) -> (d0, d1), <1x1>, memref<2048x2560xf32, #system_memory>>
#ttnn_layout32 = #ttnn.ttnn_layout<(d0, d1) -> (d0, d1), <1x1>, memref<64x80x!ttcore.tile<32x32, f32>, #system_memory>>
#ttnn_layout33 = #ttnn.ttnn_layout<(d0) -> (0, d0), <1x1>, memref<1x4304xf32, #system_memory>>
#ttnn_layout34 = #ttnn.ttnn_layout<(d0, d1, d2) -> (d0 * 32 + d1, d2), <1x1>, memref<1x135x!ttcore.tile<32x32, f32>, #dram>, <interleaved>>
#ttnn_layout35 = #ttnn.ttnn_layout<(d0, d1, d2) -> (d0 + d1, d2), <1x1>, memref<1x4304xf32, #system_memory>>
#ttnn_layout36 = #ttnn.ttnn_layout<(d0, d1, d2) -> (d0 * 32 + d1, d2), <1x1>, memref<1x135x!ttcore.tile<32x32, f32>, #system_memory>>
#ttnn_layout37 = #ttnn.ttnn_layout<(d0, d1, d2, d3) -> (d0 * 32 + d1 * 32 + d2, d3), <1x1>, memref<1x1x!ttcore.tile<32x32, f32>, #dram>, <interleaved>>
#ttnn_layout38 = #ttnn.ttnn_layout<(d0, d1) -> (d0, d1), <1x1>, memref<1x1x!ttcore.tile<32x32, f32>, #dram>, <interleaved>>
#ttnn_layout39 = #ttnn.ttnn_layout<(d0) -> (0, d0), <1x1>, memref<1x128xf32, #system_memory>>
#ttnn_layout40 = #ttnn.ttnn_layout<(d0, d1, d2) -> (d0 * 128 + d1, d2), <1x1>, memref<4x1x!ttcore.tile<32x32, f32>, #dram>, <interleaved>>
#ttnn_layout41 = #ttnn.ttnn_layout<(d0, d1, d2) -> (d0 * 128 + d1, d2), <1x1>, memref<128x1xf32, #system_memory>>
#ttnn_layout42 = #ttnn.ttnn_layout<(d0, d1, d2) -> (d0 * 128 + d1, d2), <1x1>, memref<4x1x!ttcore.tile<32x32, f32>, #system_memory>>
#ttnn_layout43 = #ttnn.ttnn_layout<(d0, d1, d2, d3) -> (d0 + d1 + d2, d3), <1x1>, memref<1x1152xf32, #system_memory>>
#ttnn_layout44 = #ttnn.ttnn_layout<(d0, d1, d2) -> (d0 * 32 + d1, d2), <1x1>, memref<1x64x!ttcore.tile<32x32, f32>, #dram>, <interleaved>>
#ttnn_layout45 = #ttnn.ttnn_layout<(d0, d1, d2) -> (d0 + d1, d2), <1x1>, memref<1x2048xf32, #system_memory>>
#ttnn_layout46 = #ttnn.ttnn_layout<(d0, d1, d2) -> (d0 * 32 + d1, d2), <1x1>, memref<1x64x!ttcore.tile<32x32, f32>, #system_memory>>
#ttnn_layout47 = #ttnn.ttnn_layout<(d0, d1) -> (d0, d1), <1x1>, memref<257152x2048xf32, #system_memory>>
#ttnn_layout48 = #ttnn.ttnn_layout<(d0, d1) -> (d0, d1), <1x1>, memref<257152x2048xbf16, #dram>, <interleaved>>
#ttnn_layout49 = #ttnn.ttnn_layout<(d0, d1) -> (d0, d1), <1x1>, memref<257152x2048xbf16, #system_memory>>
#ttnn_layout50 = #ttnn.ttnn_layout<(d0, d1, d2) -> (d0 * 32 + d1, d2), <1x1>, memref<1x1x!ttcore.tile<32x32, si32>, #dram>, <interleaved>>
#ttnn_layout51 = #ttnn.ttnn_layout<(d0, d1, d2) -> (d0 * 32 + d1, d2), <1x1>, memref<1x1x!ttcore.tile<32x32, f32>, #dram>, <interleaved>>
#ttnn_layout52 = #ttnn.ttnn_layout<(d0, d1) -> (d0, d1), <1x1>, memref<1x256xsi32, #system_memory>>
#ttnn_layout53 = #ttnn.ttnn_layout<(d0, d1) -> (d0, d1), <1x1>, memref<256x1152xf32, #system_memory>>
#ttnn_layout54 = #ttnn.ttnn_layout<(d0, d1, d2, d3) -> (d0 * 256 + d1 * 256 + d2, d3), <1x1>, memref<8x36x!ttcore.tile<32x32, f32>, #dram>, <interleaved>>
#ttnn_layout55 = #ttnn.ttnn_layout<(d0, d1, d2, d3) -> (d0 * 256 + d1 * 256 + d2, d3), <1x1>, memref<256x1152xf32, #system_memory>>
#ttnn_layout56 = #ttnn.ttnn_layout<(d0, d1, d2, d3) -> (d0 * 256 + d1 * 256 + d2, d3), <1x1>, memref<8x36x!ttcore.tile<32x32, f32>, #system_memory>>
#ttnn_layout57 = #ttnn.ttnn_layout<(d0, d1) -> (d0, d1), <1x1>, memref<1x1x!ttcore.tile<32x32, si32>, #dram>, <interleaved>>
#ttnn_layout58 = #ttnn.ttnn_layout<(d0, d1) -> (d0, d1), <1x1>, memref<32x1x!ttcore.tile<32x32, f32>, #dram>, <interleaved>>
#ttnn_layout59 = #ttnn.ttnn_layout<(d0, d1) -> (d0, d1), <1x1>, memref<1x32xf32, #dram>, <interleaved>>
#ttnn_layout60 = #ttnn.ttnn_layout<(d0, d1) -> (d0, d1), <1x1>, memref<1x32x!ttcore.tile<32x32, f32>, #dram>, <interleaved>>
#ttnn_layout61 = #ttnn.ttnn_layout<(d0, d1) -> (d0, d1), <1x1>, memref<32x128x!ttcore.tile<32x32, f32>, #dram>, <interleaved>>
#ttnn_layout62 = #ttnn.ttnn_layout<(d0, d1) -> (d0, d1), <1x1>, memref<128x32x!ttcore.tile<32x32, f32>, #dram>, <interleaved>>
#ttnn_layout63 = #ttnn.ttnn_layout<(d0, d1) -> (d0, d1), <1x1>, memref<32x64x!ttcore.tile<32x32, f32>, #dram>, <interleaved>>
#ttnn_layout64 = #ttnn.ttnn_layout<(d0, d1) -> (d0, d1), <1x1>, memref<32x32x!ttcore.tile<32x32, f32>, #dram>, <interleaved>>
#ttnn_layout65 = #ttnn.ttnn_layout<(d0, d1, d2) -> (d0 * 50 + d1, d2), <1x1>, memref<50x32xf32, #dram>, <interleaved>>
#ttnn_layout66 = #ttnn.ttnn_layout<(d0, d1) -> (d0, d1), <1x1>, memref<1x48xsi32, #dram>, <interleaved>>
#ttnn_layout67 = #ttnn.ttnn_layout<(d0, d1) -> (d0, d1), <1x1>, memref<64x36x!ttcore.tile<32x32, f32>, #dram>, <interleaved>>
#ttnn_layout68 = #ttnn.ttnn_layout<(d0) -> (0, d0), <1x1>, memref<1x36x!ttcore.tile<32x32, f32>, #dram>, <interleaved>>
#ttnn_layout69 = #ttnn.ttnn_layout<(d0, d1) -> (d0, d1), <1x1>, memref<36x135x!ttcore.tile<32x32, f32>, #dram>, <interleaved>>
#ttnn_layout70 = #ttnn.ttnn_layout<(d0, d1) -> (d0, d1), <1x1>, memref<135x36x!ttcore.tile<32x32, f32>, #dram>, <interleaved>>
#ttnn_layout71 = #ttnn.ttnn_layout<(d0, d1) -> (d0, d1), <1x1>, memref<36x36x!ttcore.tile<32x32, f32>, #dram>, <interleaved>>
#ttnn_layout72 = #ttnn.ttnn_layout<(d0, d1, d2, d3) -> (d0 * 42 + d1 * 14 + d2, d3), <1x1>, memref<48384x14xf32, #system_memory>>
#ttnn_layout73 = #ttnn.ttnn_layout<(d0, d1, d2, d3) -> (d0 * 672 + d1 * 224 + d2, d3), <1x1>, memref<672x224xf32, #dram>, <interleaved>>
#ttnn_layout74 = #ttnn.ttnn_layout<() -> (0, 0), <1x1>, memref<1x1xbf16, #dram>, <interleaved>>
#ttnn_layout75 = #ttnn.ttnn_layout<(d0) -> (0, d0), <1x1>, memref<1x51xf32, #dram>, <interleaved>>
#ttnn_layout76 = #ttnn.ttnn_layout<(d0, d1) -> (d0, d1), <1x1>, memref<1x48xbf16, #dram>, <interleaved>>
#ttnn_layout77 = #ttnn.ttnn_layout<(d0) -> (0, d0), <1x1>, memref<1x1xbf16, #dram>, <interleaved>>
#ttnn_layout78 = #ttnn.ttnn_layout<(d0, d1) -> (d0, d1), <1x1>, memref<64x512x!ttcore.tile<32x32, f32>, #dram>, <interleaved>>
#ttnn_layout79 = #ttnn.ttnn_layout<(d0, d1) -> (d0, d1), <1x1>, memref<512x64x!ttcore.tile<32x32, f32>, #dram>, <interleaved>>
#ttnn_layout80 = #ttnn.ttnn_layout<(d0, d1) -> (d0, d1), <1x1>, memref<64x64x!ttcore.tile<32x32, f32>, #dram>, <interleaved>>
#ttnn_layout81 = #ttnn.ttnn_layout<(d0) -> (0, d0), <1x1>, memref<1x816xbf16, #dram>, <interleaved>>
#ttnn_layout82 = #ttnn.ttnn_layout<(d0, d1) -> (d0, d1), <1x1>, memref<8x64x!ttcore.tile<32x32, f32>, #dram>, <interleaved>>
#ttnn_layout83 = #ttnn.ttnn_layout<(d0, d1, d2) -> (d0 * 64 + d1, d2), <1x1>, memref<2x32x!ttcore.tile<32x32, f32>, #dram>, <interleaved>>
#ttnn_layout84 = #ttnn.ttnn_layout<(d0, d1, d2) -> (d0 * 32 + d1, d2), <1x1>, memref<1x32x!ttcore.tile<32x32, f32>, #dram>, <interleaved>>
#ttnn_layout85 = #ttnn.ttnn_layout<(d0, d1, d2) -> (d0 * 64 + d1, d2), <1x1>, memref<2x1x!ttcore.tile<32x32, f32>, #dram>, <interleaved>>
#ttnn_layout86 = #ttnn.ttnn_layout<(d0, d1) -> (d0, d1), <1x1>, memref<2x1x!ttcore.tile<32x32, f32>, #dram>, <interleaved>>
#ttnn_layout87 = #ttnn.ttnn_layout<(d0, d1) -> (d0, d1), <1x1>, memref<2x64x!ttcore.tile<32x32, f32>, #dram>, <interleaved>>
#ttnn_layout88 = #ttnn.ttnn_layout<(d0, d1) -> (d0, d1), <1x1>, memref<2x80x!ttcore.tile<32x32, f32>, #dram>, <interleaved>>
#ttnn_layout89 = #ttnn.ttnn_layout<(d0, d1) -> (d0, d1), <1x1>, memref<2x8x!ttcore.tile<32x32, f32>, #dram>, <interleaved>>
#ttnn_layout90 = #ttnn.ttnn_layout<(d0, d1, d2, d3) -> (d0 * 64 + d1 * 64 + d2, d3), <1x1>, memref<2x8x!ttcore.tile<32x32, f32>, #dram>, <interleaved>>
#ttnn_layout91 = #ttnn.ttnn_layout<(d0, d1, d2, d3) -> (d0 * 1632 + d1 * 32 + d2, d3), <1x1>, memref<51x8x!ttcore.tile<32x32, f32>, #dram>, <interleaved>>
#ttnn_layout92 = #ttnn.ttnn_layout<(d0, d1, d2, d3) -> (d0 * 512 + d1 * 64 + d2, d3), <1x1>, memref<16x8x!ttcore.tile<32x32, f32>, #dram>, <interleaved>>
#ttnn_layout93 = #ttnn.ttnn_layout<(d0) -> (0, d0), <1x1>, memref<1x1x!ttcore.tile<32x32, bf16>, #dram>, <interleaved>>
#ttnn_layout94 = #ttnn.ttnn_layout<(d0, d1) -> (d0, d1), <1x1>, memref<1x1x!ttcore.tile<32x32, bf16>, #dram>, <interleaved>>
#ttnn_layout95 = #ttnn.ttnn_layout<(d0, d1) -> (d0, d1), <1x1>, memref<1x8x!ttcore.tile<32x32, bf16>, #dram>, <interleaved>>
#ttnn_layout96 = #ttnn.ttnn_layout<(d0, d1) -> (d0, d1), <1x1>, memref<1x2x!ttcore.tile<32x32, bf16>, #dram>, <interleaved>>
#ttnn_layout97 = #ttnn.ttnn_layout<(d0, d1) -> (d0, d1), <1x1>, memref<1x26x!ttcore.tile<32x32, bf16>, #dram>, <interleaved>>
#ttnn_layout98 = #ttnn.ttnn_layout<(d0, d1) -> (d0, d1), <1x1>, memref<1x26x!ttcore.tile<32x32, si32>, #dram>, <interleaved>>
#ttnn_layout99 = #ttnn.ttnn_layout<() -> (0, 0), <1x1>, memref<1x1x!ttcore.tile<32x32, bf16>, #dram>, <interleaved>>
#ttnn_layout100 = #ttnn.ttnn_layout<(d0, d1) -> (d0, d1), <1x1>, memref<1x2x!ttcore.tile<32x32, si32>, #dram>, <interleaved>>
#ttnn_layout101 = #ttnn.ttnn_layout<(d0, d1, d2) -> (d0 * 32 + d1, d2), <1x1>, memref<1x2x!ttcore.tile<32x32, si32>, #dram>, <interleaved>>
#ttnn_layout102 = #ttnn.ttnn_layout<(d0, d1, d2) -> (d0 * 32 + d1, d2), <1x1>, memref<1x2x!ttcore.tile<32x32, f32>, #dram>, <interleaved>>
#ttnn_layout103 = #ttnn.ttnn_layout<(d0, d1, d2) -> (d0 * 128 + d1, d2), <1x1>, memref<4x2x!ttcore.tile<32x32, f32>, #dram>, <interleaved>>
#ttnn_layout104 = #ttnn.ttnn_layout<(d0, d1, d2) -> (d0 * 64 + d1, d2), <1x1>, memref<2x4x!ttcore.tile<32x32, f32>, #dram>, <interleaved>>
#ttnn_layout105 = #ttnn.ttnn_layout<(d0, d1, d2, d3) -> (d0 * 64 + d1 * 64 + d2, d3), <1x1>, memref<2x4x!ttcore.tile<32x32, f32>, #dram>, <interleaved>>
#ttnn_layout106 = #ttnn.ttnn_layout<(d0, d1, d2, d3) -> (d0 * 512 + d1 * 64 + d2, d3), <1x1>, memref<16x4x!ttcore.tile<32x32, f32>, #dram>, <interleaved>>
#ttnn_layout107 = #ttnn.ttnn_layout<(d0, d1, d2, d3) -> (d0 * 672 + d1 * 224 + d2, d3), <1x1>, memref<21x7x!ttcore.tile<32x32, f32>, #dram>, <interleaved>>
#ttnn_layout108 = #ttnn.ttnn_layout<(d0, d1, d2, d3) -> (d0 * 50176 + d1 * 224 + d2, d3), <1x1>, memref<1568x1x!ttcore.tile<32x32, f32>, #dram>, <interleaved>>
#ttnn_layout109 = #ttnn.ttnn_layout<(d0, d1, d2, d3) -> (d0 * 50176 + d1 * 50176 + d2, d3), <1x1>, memref<1568x1x!ttcore.tile<32x32, f32>, #dram>, <interleaved>>
#ttnn_layout110 = #ttnn.ttnn_layout<(d0, d1, d2, d3) -> (d0 * 50176 + d1 * 50176 + d2, d3), <1x1>, memref<50176x3xf32, #dram>, <interleaved>>
#ttnn_layout111 = #ttnn.ttnn_layout<(d0, d1, d2, d3) -> (d0 * 512 + d1 * 32 + d2, d3), <1x1>, memref<16x36x!ttcore.tile<32x32, f32>, #dram>, <interleaved>>
#ttnn_layout112 = #ttnn.ttnn_layout<(d0, d1, d2, d3) -> (d0 * 36864 + d1 * 32 + d2, d3), <1x1>, memref<1152x1x!ttcore.tile<32x32, f32>, #dram>, <interleaved>>
#ttnn_layout113 = #ttnn.ttnn_layout<(d0, d1, d2) -> (d0 * 1152 + d1, d2), <1x1>, memref<36x8x!ttcore.tile<32x32, f32>, #dram>, <interleaved>>
#ttnn_layout114 = #ttnn.ttnn_layout<(d0, d1, d2) -> (d0 * 256 + d1, d2), <1x1>, memref<8x36x!ttcore.tile<32x32, f32>, #dram>, <interleaved>>
#ttnn_layout115 = #ttnn.ttnn_layout<(d0, d1) -> (d0, d1), <1x1>, memref<8x36x!ttcore.tile<32x32, f32>, #dram>, <interleaved>>
#ttnn_layout116 = #ttnn.ttnn_layout<(d0, d1) -> (d0, d1), <1x1>, memref<8x108x!ttcore.tile<32x32, f32>, #dram>, <interleaved>>
#ttnn_layout117 = #ttnn.ttnn_layout<(d0, d1, d2) -> (d0 * 256 + d1, d2), <1x1>, memref<8x108x!ttcore.tile<32x32, f32>, #dram>, <interleaved>>
#ttnn_layout118 = #ttnn.ttnn_layout<(d0, d1, d2, d3) -> (d0 * 8192 + d1 * 32 + d2, d3), <1x1>, memref<256x3x!ttcore.tile<32x32, f32>, #dram>, <interleaved>>
#ttnn_layout119 = #ttnn.ttnn_layout<(d0, d1, d2, d3) -> (d0 * 4096 + d1 * 256 + d2, d3), <1x1>, memref<128x3x!ttcore.tile<32x32, f32>, #dram>, <interleaved>>
#ttnn_layout120 = #ttnn.ttnn_layout<(d0, d1, d2, d3) -> (d0 * 1536 + d1 * 96 + d2, d3), <1x1>, memref<48x8x!ttcore.tile<32x32, f32>, #dram>, <interleaved>>
#ttnn_layout121 = #ttnn.ttnn_layout<(d0, d1, d2, d3) -> (d0 * 4096 + d1 * 256 + d2, d3), <1x1>, memref<128x8x!ttcore.tile<32x32, f32>, #dram>, <interleaved>>
#ttnn_layout122 = #ttnn.ttnn_layout<(d0, d1) -> (d0, d1), <1x1>, memref<8x135x!ttcore.tile<32x32, f32>, #dram>, <interleaved>>
#ttnn_layout123 = #ttnn.ttnn_layout<(d0, d1, d2) -> (d0 * 256 + d1, d2), <1x1>, memref<8x64x!ttcore.tile<32x32, f32>, #dram>, <interleaved>>
#ttnn_layout124 = #ttnn.ttnn_layout<(d0, d1) -> (d0, d1), <1x1>, memref<1x2x!ttcore.tile<32x32, u32>, #dram>, <interleaved>>
#ttnn_layout125 = #ttnn.ttnn_layout<(d0, d1) -> (d0, d1), <1x1>, memref<1x48xui32, #dram>, <interleaved>>
#ttnn_layout126 = #ttnn.ttnn_layout<(d0, d1, d2) -> (d0 * 64 + d1, d2), <1x1>, memref<2x64x!ttcore.tile<32x32, bf16>, #dram>, <interleaved>>
#ttnn_layout127 = #ttnn.ttnn_layout<(d0, d1, d2) -> (d0 * 64 + d1, d2), <1x1>, memref<2x64x!ttcore.tile<32x32, f32>, #dram>, <interleaved>>
#ttnn_layout128 = #ttnn.ttnn_layout<(d0, d1, d2) -> (d0 * 832 + d1, d2), <1x1>, memref<26x64x!ttcore.tile<32x32, f32>, #dram>, <interleaved>>
#ttnn_layout129 = #ttnn.ttnn_layout<(d0, d1) -> (d0, d1), <1x1>, memref<26x64x!ttcore.tile<32x32, f32>, #dram>, <interleaved>>
#ttnn_layout130 = #ttnn.ttnn_layout<(d0, d1) -> (d0, d1), <1x1>, memref<26x80x!ttcore.tile<32x32, f32>, #dram>, <interleaved>>
#ttnn_layout131 = #ttnn.ttnn_layout<(d0, d1) -> (d0, d1), <1x1>, memref<26x8x!ttcore.tile<32x32, f32>, #dram>, <interleaved>>
#ttnn_layout132 = #ttnn.ttnn_layout<(d0, d1, d2, d3) -> (d0 * 832 + d1 * 832 + d2, d3), <1x1>, memref<26x8x!ttcore.tile<32x32, f32>, #dram>, <interleaved>>
#ttnn_layout133 = #ttnn.ttnn_layout<(d0, d1) -> (d0, d1), <1x1>, memref<1x26x!ttcore.tile<32x32, f32>, #dram>, <interleaved>>
#ttnn_layout134 = #ttnn.ttnn_layout<(d0, d1, d2) -> (d0 * 32 + d1, d2), <1x1>, memref<1x26x!ttcore.tile<32x32, f32>, #dram>, <interleaved>>
#ttnn_layout135 = #ttnn.ttnn_layout<(d0, d1, d2) -> (d0 * 128 + d1, d2), <1x1>, memref<4x26x!ttcore.tile<32x32, f32>, #dram>, <interleaved>>
#ttnn_layout136 = #ttnn.ttnn_layout<(d0, d1, d2) -> (d0 * 832 + d1, d2), <1x1>, memref<26x4x!ttcore.tile<32x32, f32>, #dram>, <interleaved>>
#ttnn_layout137 = #ttnn.ttnn_layout<(d0, d1, d2, d3) -> (d0 * 832 + d1 * 832 + d2, d3), <1x1>, memref<26x4x!ttcore.tile<32x32, f32>, #dram>, <interleaved>>
#ttnn_layout138 = #ttnn.ttnn_layout<(d0, d1, d2, d3) -> (d0 * 896 + d1 * 896 + d2, d3), <1x1>, memref<28x8x!ttcore.tile<32x32, f32>, #dram>, <interleaved>>
#ttnn_layout139 = #ttnn.ttnn_layout<(d0, d1, d2, d3) -> (d0 * 7168 + d1 * 896 + d2, d3), <1x1>, memref<224x8x!ttcore.tile<32x32, f32>, #dram>, <interleaved>>
#ttnn_layout140 = #ttnn.ttnn_layout<(d0, d1, d2, d3) -> (d0 * 512 + d1 * 64 + d2, d3), <1x1>, memref<16x28x!ttcore.tile<32x32, f32>, #dram>, <interleaved>>
#ttnn_layout141 = #ttnn.ttnn_layout<(d0, d1, d2, d3) -> (d0 * 32 + d1 * 32 + d2, d3), <1x1>, memref<1x26x!ttcore.tile<32x32, bf16>, #dram>, <interleaved>>
#ttnn_layout142 = #ttnn.ttnn_layout<(d0, d1, d2, d3) -> (d0 * 64 + d1 * 64 + d2, d3), <1x1>, memref<2x26x!ttcore.tile<32x32, bf16>, #dram>, <interleaved>>
#ttnn_layout143 = #ttnn.ttnn_layout<(d0) -> (0, d0), <1x1>, memref<1x2x!ttcore.tile<32x32, f32>, #dram>, <interleaved>>
#ttnn_layout144 = #ttnn.ttnn_layout<(d0, d1) -> (d0, d1), <1x1>, memref<1x2x!ttcore.tile<32x32, f32>, #dram>, <interleaved>>
#ttnn_layout145 = #ttnn.ttnn_layout<(d0, d1, d2, d3) -> (d0 * 64 + d1 * 64 + d2, d3), <1x1>, memref<2x1x!ttcore.tile<32x32, f32>, #dram>, <interleaved>>
#ttnn_layout146 = #ttnn.ttnn_layout<(d0, d1, d2, d3) -> (d0 * 32 + d1 * 32 + d2, d3), <1x1>, memref<1x2x!ttcore.tile<32x32, f32>, #dram>, <interleaved>>
#ttnn_layout147 = #ttnn.ttnn_layout<(d0, d1, d2, d3) -> (d0 * 64 + d1 * 64 + d2, d3), <1x1>, memref<2x2x!ttcore.tile<32x32, bf16>, #dram>, <interleaved>>
#ttnn_layout148 = #ttnn.ttnn_layout<(d0, d1, d2, d3) -> (d0 * 32 + d1 * 32 + d2, d3), <1x1>, memref<1x2x!ttcore.tile<32x32, bf16>, #dram>, <interleaved>>
#ttnn_layout149 = #ttnn.ttnn_layout<(d0, d1, d2, d3) -> (d0 * 64 + d1 * 64 + d2, d3), <1x1>, memref<2x1x!ttcore.tile<32x32, bf16>, #dram>, <interleaved>>
#ttnn_layout150 = #ttnn.ttnn_layout<(d0, d1, d2, d3) -> (d0 * 64 + d1 * 64 + d2, d3), <1x1>, memref<2x28x!ttcore.tile<32x32, bf16>, #dram>, <interleaved>>
#ttnn_layout151 = #ttnn.ttnn_layout<(d0, d1, d2, d3) -> (d0 * 64 + d1 * 64 + d2, d3), <1x1>, memref<2x28x!ttcore.tile<32x32, f32>, #dram>, <interleaved>>
#ttnn_layout152 = #ttnn.ttnn_layout<(d0, d1) -> (d0, d1), <1x1>, memref<2x128x!ttcore.tile<32x32, f32>, #dram>, <interleaved>>
#ttnn_layout153 = #ttnn.ttnn_layout<(d0, d1, d2, d3) -> (d0 * 26112 + d1 * 32 + d2, d3), <1x1>, memref<816x8x!ttcore.tile<32x32, f32>, #dram>, <interleaved>>
#ttnn_layout154 = #ttnn.ttnn_layout<(d0, d1, d2, d3) -> (d0 * 6656 + d1 * 832 + d2, d3), <1x1>, memref<208x8x!ttcore.tile<32x32, f32>, #dram>, <interleaved>>
#ttnn_layout155 = #ttnn.ttnn_layout<(d0, d1, d2, d3) -> (d0 * 6656 + d1 * 832 + d2, d3), <1x1>, memref<208x4x!ttcore.tile<32x32, f32>, #dram>, <interleaved>>
#ttnn_layout156 = #ttnn.ttnn_layout<(d0, d1, d2, d3) -> (d0 * 6656 + d1 * 832 + d2, d3), <1x1>, memref<208x26x!ttcore.tile<32x32, f32>, #dram>, <interleaved>>
#ttnn_layout157 = #ttnn.ttnn_layout<(d0) -> (0, d0), <1x1>, memref<1x26x!ttcore.tile<32x32, bf16>, #dram>, <interleaved>>
#ttnn_layout158 = #ttnn.ttnn_layout<(d0) -> (0, d0), <1x1>, memref<1x26x!ttcore.tile<32x32, si32>, #dram>, <interleaved>>
#ttnn_layout159 = #ttnn.ttnn_layout<(d0, d1, d2, d3) -> (d0 * 832 + d1 * 832 + d2, d3), <1x1>, memref<26x1x!ttcore.tile<32x32, si32>, #dram>, <interleaved>>
#ttnn_layout160 = #ttnn.ttnn_layout<(d0, d1, d2, d3) -> (d0 * 32 + d1 * 32 + d2, d3), <1x1>, memref<1x26x!ttcore.tile<32x32, si32>, #dram>, <interleaved>>
#ttnn_layout161 = #ttnn.ttnn_layout<(d0, d1, d2, d3) -> (d0 * 832 + d1 * 832 + d2, d3), <1x1>, memref<26x26x!ttcore.tile<32x32, bf16>, #dram>, <interleaved>>
#ttnn_layout162 = #ttnn.ttnn_layout<(d0, d1, d2, d3) -> (d0 * 832 + d1 * 832 + d2, d3), <1x1>, memref<26x1x!ttcore.tile<32x32, bf16>, #dram>, <interleaved>>
#ttnn_layout163 = #ttnn.ttnn_layout<(d0, d1, d2, d3) -> (d0 * 832 + d1 * 832 + d2, d3), <1x1>, memref<26x26x!ttcore.tile<32x32, f32>, #dram>, <interleaved>>
#ttnn_layout164 = #ttnn.ttnn_layout<(d0, d1) -> (d0, d1), <1x1>, memref<26x512x!ttcore.tile<32x32, f32>, #dram>, <interleaved>>
module @SyncTensorsGraph.33801 attributes {mhlo.cross_program_prefetches = [], mhlo.input_output_alias = [], mhlo.is_dynamic = false, mhlo.use_auto_spmd_partitioning = false, ttcore.meshes = #ttcore.meshes<[<"mesh" = 1x1>]>} {
  ttcore.device_module {
    builtin.module @SyncTensorsGraph.33801 attributes {mhlo.cross_program_prefetches = [], mhlo.input_output_alias = [], mhlo.is_dynamic = false, mhlo.use_auto_spmd_partitioning = false, ttcore.meshes = #ttcore.meshes<[<"mesh" = 1x1>]>, ttcore.system_desc = #system_desc} {
      ttcore.device @default_device = <workerGrid = #ttcore.grid<8x8, virt_to_physical_map = (d0, d1) -> (0, d0, d1), physical_to_virt_map = (d0, d1, d2) -> (d1, d2)>, dramGrid = #ttcore.grid<1x12>, l1Map = (d0, d1, d2)[s0] -> (0, d0, d1, d2 + s0), dramMap = (d0, d1, d2)[s0, s1, s2, s3, s4, s5, s6] -> (0, 0, (((d0 * s1) * (s2 * (s3 * s6)) + d1 * (s2 * (s3 * s6)) + d2) floordiv s4) mod 12, ((((d0 * s1) * (s2 * (s3 * s6)) + d1 * (s2 * (s3 * s6)) + d2) floordiv s4) floordiv 12) * s4 + ((d0 * s1) * (s2 * (s3 * s6)) + d1 * (s2 * (s3 * s6)) + d2) mod s4 + s5), meshShape = 1x1, chipIds = [0]> loc(#loc)
      func.func private @main_const_eval_0(%arg0: tensor<1024xf32, #ttnn_layout> loc(unknown), %arg1: tensor<1024xf32, #ttnn_layout> loc(unknown), %arg2: tensor<1024xf32, #ttnn_layout> loc(unknown), %arg3: tensor<1024xf32, #ttnn_layout> loc(unknown), %arg4: tensor<1024xf32, #ttnn_layout> loc(unknown), %arg5: tensor<1024xf32, #ttnn_layout> loc(unknown), %arg6: tensor<1024xf32, #ttnn_layout> loc(unknown), %arg7: tensor<1024xf32, #ttnn_layout> loc(unknown), %arg8: tensor<1024xf32, #ttnn_layout> loc(unknown), %arg9: tensor<1024xf32, #ttnn_layout> loc(unknown), %arg10: tensor<1024xf32, #ttnn_layout> loc(unknown), %arg11: tensor<1024xf32, #ttnn_layout> loc(unknown), %arg12: tensor<1024xf32, #ttnn_layout> loc(unknown), %arg13: tensor<1024xf32, #ttnn_layout> loc(unknown), %arg14: tensor<1024xf32, #ttnn_layout> loc(unknown), %arg15: tensor<1024xf32, #ttnn_layout> loc(unknown), %arg16: tensor<1024xf32, #ttnn_layout> loc(unknown), %arg17: tensor<1024xf32, #ttnn_layout> loc(unknown), %arg18: tensor<1024xf32, #ttnn_layout> loc(unknown), %arg19: tensor<1024xf32, #ttnn_layout> loc(unknown), %arg20: tensor<1024xf32, #ttnn_layout> loc(unknown), %arg21: tensor<1024xf32, #ttnn_layout> loc(unknown), %arg22: tensor<1024xf32, #ttnn_layout> loc(unknown), %arg23: tensor<1024xf32, #ttnn_layout> loc(unknown), %arg24: tensor<1024xf32, #ttnn_layout> loc(unknown), %arg25: tensor<1024xf32, #ttnn_layout> loc(unknown), %arg26: tensor<1024xf32, #ttnn_layout> loc(unknown), %arg27: tensor<1024xf32, #ttnn_layout> loc(unknown), %arg28: tensor<1024xf32, #ttnn_layout> loc(unknown), %arg29: tensor<1024xf32, #ttnn_layout> loc(unknown), %arg30: tensor<1024xf32, #ttnn_layout> loc(unknown), %arg31: tensor<1024xf32, #ttnn_layout> loc(unknown), %arg32: tensor<1024xf32, #ttnn_layout> loc(unknown), %arg33: tensor<1024xf32, #ttnn_layout> loc(unknown), %arg34: tensor<1024xf32, #ttnn_layout> loc(unknown), %arg35: tensor<1024xf32, #ttnn_layout> loc(unknown), %arg36: tensor<1024xf32, #ttnn_layout> loc(unknown), %arg37: tensor<2048xf32, #ttnn_layout1> loc(unknown), %arg38: tensor<2048xf32, #ttnn_layout1> loc(unknown), %arg39: tensor<2048xf32, #ttnn_layout1> loc(unknown), %arg40: tensor<2048xf32, #ttnn_layout1> loc(unknown), %arg41: tensor<2048xf32, #ttnn_layout1> loc(unknown), %arg42: tensor<2048xf32, #ttnn_layout1> loc(unknown), %arg43: tensor<2048xf32, #ttnn_layout1> loc(unknown), %arg44: tensor<2048xf32, #ttnn_layout1> loc(unknown), %arg45: tensor<2048xf32, #ttnn_layout1> loc(unknown), %arg46: tensor<2048xf32, #ttnn_layout1> loc(unknown), %arg47: tensor<2048xf32, #ttnn_layout1> loc(unknown), %arg48: tensor<2048xf32, #ttnn_layout1> loc(unknown), %arg49: tensor<2048xf32, #ttnn_layout1> loc(unknown), %arg50: tensor<2048xf32, #ttnn_layout1> loc(unknown), %arg51: tensor<2048xf32, #ttnn_layout1> loc(unknown), %arg52: tensor<2048xf32, #ttnn_layout1> loc(unknown), %arg53: tensor<2048xf32, #ttnn_layout1> loc(unknown), %arg54: tensor<2048xf32, #ttnn_layout1> loc(unknown), %arg55: tensor<2048xf32, #ttnn_layout1> loc(unknown), %arg56: tensor<2048xf32, #ttnn_layout1> loc(unknown), %arg57: tensor<2048xf32, #ttnn_layout1> loc(unknown), %arg58: tensor<2048xf32, #ttnn_layout1> loc(unknown), %arg59: tensor<2048xf32, #ttnn_layout1> loc(unknown), %arg60: tensor<2048xf32, #ttnn_layout1> loc(unknown), %arg61: tensor<2048xf32, #ttnn_layout1> loc(unknown), %arg62: tensor<2048xf32, #ttnn_layout1> loc(unknown), %arg63: tensor<2048xf32, #ttnn_layout1> loc(unknown), %arg64: tensor<2048xf32, #ttnn_layout1> loc(unknown), %arg65: tensor<2048xf32, #ttnn_layout1> loc(unknown), %arg66: tensor<2048xf32, #ttnn_layout1> loc(unknown), %arg67: tensor<2048xf32, #ttnn_layout1> loc(unknown), %arg68: tensor<2048xf32, #ttnn_layout1> loc(unknown), %arg69: tensor<2048xf32, #ttnn_layout1> loc(unknown), %arg70: tensor<2048xf32, #ttnn_layout1> loc(unknown), %arg71: tensor<2048xf32, #ttnn_layout1> loc(unknown)) -> (tensor<50x1024xf32, #ttnn_layout2>, tensor<1024xf32, #ttnn_layout3>, tensor<2048xf32, #ttnn_layout4>, tensor<1024xf32, #ttnn_layout3>, tensor<1024xf32, #ttnn_layout3>, tensor<2048xf32, #ttnn_layout4>, tensor<2048xf32, #ttnn_layout4>, tensor<1024xf32, #ttnn_layout3>, tensor<1024xf32, #ttnn_layout3>, tensor<2048xf32, #ttnn_layout4>, tensor<2048xf32, #ttnn_layout4>, tensor<1024xf32, #ttnn_layout3>, tensor<1024xf32, #ttnn_layout3>, tensor<2048xf32, #ttnn_layout4>, tensor<2048xf32, #ttnn_layout4>, tensor<1024xf32, #ttnn_layout3>, tensor<1024xf32, #ttnn_layout3>, tensor<2048xf32, #ttnn_layout4>, tensor<2048xf32, #ttnn_layout4>, tensor<1024xf32, #ttnn_layout3>, tensor<1024xf32, #ttnn_layout3>, tensor<2048xf32, #ttnn_layout4>, tensor<2048xf32, #ttnn_layout4>, tensor<1024xf32, #ttnn_layout3>, tensor<1024xf32, #ttnn_layout3>, tensor<2048xf32, #ttnn_layout4>, tensor<2048xf32, #ttnn_layout4>, tensor<1024xf32, #ttnn_layout3>, tensor<1024xf32, #ttnn_layout3>, tensor<2048xf32, #ttnn_layout4>, tensor<2048xf32, #ttnn_layout4>, tensor<1024xf32, #ttnn_layout3>, tensor<1024xf32, #ttnn_layout3>, tensor<2048xf32, #ttnn_layout4>, tensor<2048xf32, #ttnn_layout4>, tensor<1024xf32, #ttnn_layout3>, tensor<1024xf32, #ttnn_layout3>, tensor<2048xf32, #ttnn_layout4>, tensor<2048xf32, #ttnn_layout4>, tensor<1024xf32, #ttnn_layout3>, tensor<1024xf32, #ttnn_layout3>, tensor<2048xf32, #ttnn_layout4>, tensor<2048xf32, #ttnn_layout4>, tensor<1024xf32, #ttnn_layout3>, tensor<1024xf32, #ttnn_layout3>, tensor<2048xf32, #ttnn_layout4>, tensor<2048xf32, #ttnn_layout4>, tensor<1024xf32, #ttnn_layout3>, tensor<1024xf32, #ttnn_layout3>, tensor<2048xf32, #ttnn_layout4>, tensor<2048xf32, #ttnn_layout4>, tensor<1024xf32, #ttnn_layout3>, tensor<1024xf32, #ttnn_layout3>, tensor<2048xf32, #ttnn_layout4>, tensor<2048xf32, #ttnn_layout4>, tensor<1024xf32, #ttnn_layout3>, tensor<1024xf32, #ttnn_layout3>, tensor<2048xf32, #ttnn_layout4>, tensor<2048xf32, #ttnn_layout4>, tensor<1024xf32, #ttnn_layout3>, tensor<1024xf32, #ttnn_layout3>, tensor<2048xf32, #ttnn_layout4>, tensor<2048xf32, #ttnn_layout4>, tensor<1024xf32, #ttnn_layout3>, tensor<1024xf32, #ttnn_layout3>, tensor<2048xf32, #ttnn_layout4>, tensor<2048xf32, #ttnn_layout4>, tensor<1024xf32, #ttnn_layout3>, tensor<1024xf32, #ttnn_layout3>, tensor<2048xf32, #ttnn_layout4>, tensor<2048xf32, #ttnn_layout4>, tensor<1024xf32, #ttnn_layout3>, tensor<1024xf32, #ttnn_layout3>, tensor<1xf32, #ttnn_layout5>) attributes {tt.function_type = "const_eval"} {
        %0 = "ttnn.get_device"() <{mesh_offset = #ttnn<mesh_offset 0x0>, mesh_shape = #ttnn<mesh_shape 1x1>}> : () -> !ttnn.device loc(#loc)
        %1:74 = call @cpu_hoisted_const_eval_3358d077(%arg36, %arg37, %arg35, %arg34, %arg39, %arg38, %arg33, %arg32, %arg41, %arg40, %arg31, %arg30, %arg43, %arg42, %arg29, %arg28, %arg45, %arg44, %arg27, %arg26, %arg47, %arg46, %arg25, %arg24, %arg49, %arg48, %arg23, %arg22, %arg51, %arg50, %arg21, %arg20, %arg53, %arg52, %arg19, %arg18, %arg55, %arg54, %arg17, %arg16, %arg57, %arg56, %arg15, %arg14, %arg59, %arg58, %arg13, %arg12, %arg61, %arg60, %arg11, %arg10, %arg63, %arg62, %arg9, %arg8, %arg65, %arg64, %arg7, %arg6, %arg67, %arg66, %arg5, %arg4, %arg69, %arg68, %arg3, %arg2, %arg71, %arg70, %arg1, %arg0) {ttir.cpu_hoist_call} : (tensor<1024xf32, #ttnn_layout>, tensor<2048xf32, #ttnn_layout1>, tensor<1024xf32, #ttnn_layout>, tensor<1024xf32, #ttnn_layout>, tensor<2048xf32, #ttnn_layout1>, tensor<2048xf32, #ttnn_layout1>, tensor<1024xf32, #ttnn_layout>, tensor<1024xf32, #ttnn_layout>, tensor<2048xf32, #ttnn_layout1>, tensor<2048xf32, #ttnn_layout1>, tensor<1024xf32, #ttnn_layout>, tensor<1024xf32, #ttnn_layout>, tensor<2048xf32, #ttnn_layout1>, tensor<2048xf32, #ttnn_layout1>, tensor<1024xf32, #ttnn_layout>, tensor<1024xf32, #ttnn_layout>, tensor<2048xf32, #ttnn_layout1>, tensor<2048xf32, #ttnn_layout1>, tensor<1024xf32, #ttnn_layout>, tensor<1024xf32, #ttnn_layout>, tensor<2048xf32, #ttnn_layout1>, tensor<2048xf32, #ttnn_layout1>, tensor<1024xf32, #ttnn_layout>, tensor<1024xf32, #ttnn_layout>, tensor<2048xf32, #ttnn_layout1>, tensor<2048xf32, #ttnn_layout1>, tensor<1024xf32, #ttnn_layout>, tensor<1024xf32, #ttnn_layout>, tensor<2048xf32, #ttnn_layout1>, tensor<2048xf32, #ttnn_layout1>, tensor<1024xf32, #ttnn_layout>, tensor<1024xf32, #ttnn_layout>, tensor<2048xf32, #ttnn_layout1>, tensor<2048xf32, #ttnn_layout1>, tensor<1024xf32, #ttnn_layout>, tensor<1024xf32, #ttnn_layout>, tensor<2048xf32, #ttnn_layout1>, tensor<2048xf32, #ttnn_layout1>, tensor<1024xf32, #ttnn_layout>, tensor<1024xf32, #ttnn_layout>, tensor<2048xf32, #ttnn_layout1>, tensor<2048xf32, #ttnn_layout1>, tensor<1024xf32, #ttnn_layout>, tensor<1024xf32, #ttnn_layout>, tensor<2048xf32, #ttnn_layout1>, tensor<2048xf32, #ttnn_layout1>, tensor<1024xf32, #ttnn_layout>, tensor<1024xf32, #ttnn_layout>, tensor<2048xf32, #ttnn_layout1>, tensor<2048xf32, #ttnn_layout1>, tensor<1024xf32, #ttnn_layout>, tensor<1024xf32, #ttnn_layout>, tensor<2048xf32, #ttnn_layout1>, tensor<2048xf32, #ttnn_layout1>, tensor<1024xf32, #ttnn_layout>, tensor<1024xf32, #ttnn_layout>, tensor<2048xf32, #ttnn_layout1>, tensor<2048xf32, #ttnn_layout1>, tensor<1024xf32, #ttnn_layout>, tensor<1024xf32, #ttnn_layout>, tensor<2048xf32, #ttnn_layout1>, tensor<2048xf32, #ttnn_layout1>, tensor<1024xf32, #ttnn_layout>, tensor<1024xf32, #ttnn_layout>, tensor<2048xf32, #ttnn_layout1>, tensor<2048xf32, #ttnn_layout1>, tensor<1024xf32, #ttnn_layout>, tensor<1024xf32, #ttnn_layout>, tensor<2048xf32, #ttnn_layout1>, tensor<2048xf32, #ttnn_layout1>, tensor<1024xf32, #ttnn_layout>, tensor<1024xf32, #ttnn_layout>) -> (tensor<50x1024xf32, #ttnn_layout6>, tensor<1024xf32, #ttnn_layout>, tensor<2048xf32, #ttnn_layout1>, tensor<1024xf32, #ttnn_layout>, tensor<1024xf32, #ttnn_layout>, tensor<2048xf32, #ttnn_layout1>, tensor<2048xf32, #ttnn_layout1>, tensor<1024xf32, #ttnn_layout>, tensor<1024xf32, #ttnn_layout>, tensor<2048xf32, #ttnn_layout1>, tensor<2048xf32, #ttnn_layout1>, tensor<1024xf32, #ttnn_layout>, tensor<1024xf32, #ttnn_layout>, tensor<2048xf32, #ttnn_layout1>, tensor<2048xf32, #ttnn_layout1>, tensor<1024xf32, #ttnn_layout>, tensor<1024xf32, #ttnn_layout>, tensor<2048xf32, #ttnn_layout1>, tensor<2048xf32, #ttnn_layout1>, tensor<1024xf32, #ttnn_layout>, tensor<1024xf32, #ttnn_layout>, tensor<2048xf32, #ttnn_layout1>, tensor<2048xf32, #ttnn_layout1>, tensor<1024xf32, #ttnn_layout>, tensor<1024xf32, #ttnn_layout>, tensor<2048xf32, #ttnn_layout1>, tensor<2048xf32, #ttnn_layout1>, tensor<1024xf32, #ttnn_layout>, tensor<1024xf32, #ttnn_layout>, tensor<2048xf32, #ttnn_layout1>, tensor<2048xf32, #ttnn_layout1>, tensor<1024xf32, #ttnn_layout>, tensor<1024xf32, #ttnn_layout>, tensor<2048xf32, #ttnn_layout1>, tensor<2048xf32, #ttnn_layout1>, tensor<1024xf32, #ttnn_layout>, tensor<1024xf32, #ttnn_layout>, tensor<2048xf32, #ttnn_layout1>, tensor<2048xf32, #ttnn_layout1>, tensor<1024xf32, #ttnn_layout>, tensor<1024xf32, #ttnn_layout>, tensor<2048xf32, #ttnn_layout1>, tensor<2048xf32, #ttnn_layout1>, tensor<1024xf32, #ttnn_layout>, tensor<1024xf32, #ttnn_layout>, tensor<2048xf32, #ttnn_layout1>, tensor<2048xf32, #ttnn_layout1>, tensor<1024xf32, #ttnn_layout>, tensor<1024xf32, #ttnn_layout>, tensor<2048xf32, #ttnn_layout1>, tensor<2048xf32, #ttnn_layout1>, tensor<1024xf32, #ttnn_layout>, tensor<1024xf32, #ttnn_layout>, tensor<2048xf32, #ttnn_layout1>, tensor<2048xf32, #ttnn_layout1>, tensor<1024xf32, #ttnn_layout>, tensor<1024xf32, #ttnn_layout>, tensor<2048xf32, #ttnn_layout1>, tensor<2048xf32, #ttnn_layout1>, tensor<1024xf32, #ttnn_layout>, tensor<1024xf32, #ttnn_layout>, tensor<2048xf32, #ttnn_layout1>, tensor<2048xf32, #ttnn_layout1>, tensor<1024xf32, #ttnn_layout>, tensor<1024xf32, #ttnn_layout>, tensor<2048xf32, #ttnn_layout1>, tensor<2048xf32, #ttnn_layout1>, tensor<1024xf32, #ttnn_layout>, tensor<1024xf32, #ttnn_layout>, tensor<2048xf32, #ttnn_layout1>, tensor<2048xf32, #ttnn_layout1>, tensor<1024xf32, #ttnn_layout>, tensor<1024xf32, #ttnn_layout>, tensor<1xf32, #ttnn_layout7>) loc(#loc)
        %2 = "ttnn.to_layout"(%1#0) <{layout = #ttnn.layout<tile>}> : (tensor<50x1024xf32, #ttnn_layout6>) -> tensor<50x1024xf32, #ttnn_layout8> loc(#loc)
        "ttnn.deallocate"(%1#0) <{force = false}> : (tensor<50x1024xf32, #ttnn_layout6>) -> () loc(#loc)
        %3 = "ttnn.to_device"(%2, %0) <{memory_config = #ttnn.memory_config<#dram, <interleaved>>}> : (tensor<50x1024xf32, #ttnn_layout8>, !ttnn.device) -> tensor<50x1024xf32, #ttnn_layout2> loc(#loc)
        "ttnn.deallocate"(%2) <{force = false}> : (tensor<50x1024xf32, #ttnn_layout8>) -> () loc(#loc)
        %4 = "ttnn.to_layout"(%1#1) <{layout = #ttnn.layout<tile>}> : (tensor<1024xf32, #ttnn_layout>) -> tensor<1024xf32, #ttnn_layout9> loc(#loc)
        "ttnn.deallocate"(%1#1) <{force = false}> : (tensor<1024xf32, #ttnn_layout>) -> () loc(#loc)
        %5 = "ttnn.to_device"(%4, %0) <{memory_config = #ttnn.memory_config<#dram, <interleaved>>}> : (tensor<1024xf32, #ttnn_layout9>, !ttnn.device) -> tensor<1024xf32, #ttnn_layout3> loc(#loc)
        "ttnn.deallocate"(%4) <{force = false}> : (tensor<1024xf32, #ttnn_layout9>) -> () loc(#loc)
        %6 = "ttnn.to_layout"(%1#2) <{layout = #ttnn.layout<tile>}> : (tensor<2048xf32, #ttnn_layout1>) -> tensor<2048xf32, #ttnn_layout10> loc(#loc)
        "ttnn.deallocate"(%1#2) <{force = false}> : (tensor<2048xf32, #ttnn_layout1>) -> () loc(#loc)
        %7 = "ttnn.to_device"(%6, %0) <{memory_config = #ttnn.memory_config<#dram, <interleaved>>}> : (tensor<2048xf32, #ttnn_layout10>, !ttnn.device) -> tensor<2048xf32, #ttnn_layout4> loc(#loc)
        "ttnn.deallocate"(%6) <{force = false}> : (tensor<2048xf32, #ttnn_layout10>) -> () loc(#loc)
        %8 = "ttnn.to_layout"(%1#3) <{layout = #ttnn.layout<tile>}> : (tensor<1024xf32, #ttnn_layout>) -> tensor<1024xf32, #ttnn_layout9> loc(#loc)
        "ttnn.deallocate"(%1#3) <{force = false}> : (tensor<1024xf32, #ttnn_layout>) -> () loc(#loc)
        %9 = "ttnn.to_device"(%8, %0) <{memory_config = #ttnn.memory_config<#dram, <interleaved>>}> : (tensor<1024xf32, #ttnn_layout9>, !ttnn.device) -> tensor<1024xf32, #ttnn_layout3> loc(#loc)
        "ttnn.deallocate"(%8) <{force = false}> : (tensor<1024xf32, #ttnn_layout9>) -> () loc(#loc)
        %10 = "ttnn.to_layout"(%1#4) <{layout = #ttnn.layout<tile>}> : (tensor<1024xf32, #ttnn_layout>) -> tensor<1024xf32, #ttnn_layout9> loc(#loc)
        "ttnn.deallocate"(%1#4) <{force = false}> : (tensor<1024xf32, #ttnn_layout>) -> () loc(#loc)
        %11 = "ttnn.to_device"(%10, %0) <{memory_config = #ttnn.memory_config<#dram, <interleaved>>}> : (tensor<1024xf32, #ttnn_layout9>, !ttnn.device) -> tensor<1024xf32, #ttnn_layout3> loc(#loc)
        "ttnn.deallocate"(%10) <{force = false}> : (tensor<1024xf32, #ttnn_layout9>) -> () loc(#loc)
        %12 = "ttnn.to_layout"(%1#5) <{layout = #ttnn.layout<tile>}> : (tensor<2048xf32, #ttnn_layout1>) -> tensor<2048xf32, #ttnn_layout10> loc(#loc)
        "ttnn.deallocate"(%1#5) <{force = false}> : (tensor<2048xf32, #ttnn_layout1>) -> () loc(#loc)
        %13 = "ttnn.to_device"(%12, %0) <{memory_config = #ttnn.memory_config<#dram, <interleaved>>}> : (tensor<2048xf32, #ttnn_layout10>, !ttnn.device) -> tensor<2048xf32, #ttnn_layout4> loc(#loc)
        "ttnn.deallocate"(%12) <{force = false}> : (tensor<2048xf32, #ttnn_layout10>) -> () loc(#loc)
        %14 = "ttnn.to_layout"(%1#6) <{layout = #ttnn.layout<tile>}> : (tensor<2048xf32, #ttnn_layout1>) -> tensor<2048xf32, #ttnn_layout10> loc(#loc)
        "ttnn.deallocate"(%1#6) <{force = false}> : (tensor<2048xf32, #ttnn_layout1>) -> () loc(#loc)
        %15 = "ttnn.to_device"(%14, %0) <{memory_config = #ttnn.memory_config<#dram, <interleaved>>}> : (tensor<2048xf32, #ttnn_layout10>, !ttnn.device) -> tensor<2048xf32, #ttnn_layout4> loc(#loc)
        "ttnn.deallocate"(%14) <{force = false}> : (tensor<2048xf32, #ttnn_layout10>) -> () loc(#loc)
        %16 = "ttnn.to_layout"(%1#7) <{layout = #ttnn.layout<tile>}> : (tensor<1024xf32, #ttnn_layout>) -> tensor<1024xf32, #ttnn_layout9> loc(#loc)
        "ttnn.deallocate"(%1#7) <{force = false}> : (tensor<1024xf32, #ttnn_layout>) -> () loc(#loc)
        %17 = "ttnn.to_device"(%16, %0) <{memory_config = #ttnn.memory_config<#dram, <interleaved>>}> : (tensor<1024xf32, #ttnn_layout9>, !ttnn.device) -> tensor<1024xf32, #ttnn_layout3> loc(#loc)
        "ttnn.deallocate"(%16) <{force = false}> : (tensor<1024xf32, #ttnn_layout9>) -> () loc(#loc)
        %18 = "ttnn.to_layout"(%1#8) <{layout = #ttnn.layout<tile>}> : (tensor<1024xf32, #ttnn_layout>) -> tensor<1024xf32, #ttnn_layout9> loc(#loc)
        "ttnn.deallocate"(%1#8) <{force = false}> : (tensor<1024xf32, #ttnn_layout>) -> () loc(#loc)
        %19 = "ttnn.to_device"(%18, %0) <{memory_config = #ttnn.memory_config<#dram, <interleaved>>}> : (tensor<1024xf32, #ttnn_layout9>, !ttnn.device) -> tensor<1024xf32, #ttnn_layout3> loc(#loc)
        "ttnn.deallocate"(%18) <{force = false}> : (tensor<1024xf32, #ttnn_layout9>) -> () loc(#loc)
        %20 = "ttnn.to_layout"(%1#9) <{layout = #ttnn.layout<tile>}> : (tensor<2048xf32, #ttnn_layout1>) -> tensor<2048xf32, #ttnn_layout10> loc(#loc)
        "ttnn.deallocate"(%1#9) <{force = false}> : (tensor<2048xf32, #ttnn_layout1>) -> () loc(#loc)
        %21 = "ttnn.to_device"(%20, %0) <{memory_config = #ttnn.memory_config<#dram, <interleaved>>}> : (tensor<2048xf32, #ttnn_layout10>, !ttnn.device) -> tensor<2048xf32, #ttnn_layout4> loc(#loc)
        "ttnn.deallocate"(%20) <{force = false}> : (tensor<2048xf32, #ttnn_layout10>) -> () loc(#loc)
        %22 = "ttnn.to_layout"(%1#10) <{layout = #ttnn.layout<tile>}> : (tensor<2048xf32, #ttnn_layout1>) -> tensor<2048xf32, #ttnn_layout10> loc(#loc)
        "ttnn.deallocate"(%1#10) <{force = false}> : (tensor<2048xf32, #ttnn_layout1>) -> () loc(#loc)
        %23 = "ttnn.to_device"(%22, %0) <{memory_config = #ttnn.memory_config<#dram, <interleaved>>}> : (tensor<2048xf32, #ttnn_layout10>, !ttnn.device) -> tensor<2048xf32, #ttnn_layout4> loc(#loc)
        "ttnn.deallocate"(%22) <{force = false}> : (tensor<2048xf32, #ttnn_layout10>) -> () loc(#loc)
        %24 = "ttnn.to_layout"(%1#11) <{layout = #ttnn.layout<tile>}> : (tensor<1024xf32, #ttnn_layout>) -> tensor<1024xf32, #ttnn_layout9> loc(#loc)
        "ttnn.deallocate"(%1#11) <{force = false}> : (tensor<1024xf32, #ttnn_layout>) -> () loc(#loc)
        %25 = "ttnn.to_device"(%24, %0) <{memory_config = #ttnn.memory_config<#dram, <interleaved>>}> : (tensor<1024xf32, #ttnn_layout9>, !ttnn.device) -> tensor<1024xf32, #ttnn_layout3> loc(#loc)
        "ttnn.deallocate"(%24) <{force = false}> : (tensor<1024xf32, #ttnn_layout9>) -> () loc(#loc)
        %26 = "ttnn.to_layout"(%1#12) <{layout = #ttnn.layout<tile>}> : (tensor<1024xf32, #ttnn_layout>) -> tensor<1024xf32, #ttnn_layout9> loc(#loc)
        "ttnn.deallocate"(%1#12) <{force = false}> : (tensor<1024xf32, #ttnn_layout>) -> () loc(#loc)
        %27 = "ttnn.to_device"(%26, %0) <{memory_config = #ttnn.memory_config<#dram, <interleaved>>}> : (tensor<1024xf32, #ttnn_layout9>, !ttnn.device) -> tensor<1024xf32, #ttnn_layout3> loc(#loc)
        "ttnn.deallocate"(%26) <{force = false}> : (tensor<1024xf32, #ttnn_layout9>) -> () loc(#loc)
        %28 = "ttnn.to_layout"(%1#13) <{layout = #ttnn.layout<tile>}> : (tensor<2048xf32, #ttnn_layout1>) -> tensor<2048xf32, #ttnn_layout10> loc(#loc)
        "ttnn.deallocate"(%1#13) <{force = false}> : (tensor<2048xf32, #ttnn_layout1>) -> () loc(#loc)
        %29 = "ttnn.to_device"(%28, %0) <{memory_config = #ttnn.memory_config<#dram, <interleaved>>}> : (tensor<2048xf32, #ttnn_layout10>, !ttnn.device) -> tensor<2048xf32, #ttnn_layout4> loc(#loc)
        "ttnn.deallocate"(%28) <{force = false}> : (tensor<2048xf32, #ttnn_layout10>) -> () loc(#loc)
        %30 = "ttnn.to_layout"(%1#14) <{layout = #ttnn.layout<tile>}> : (tensor<2048xf32, #ttnn_layout1>) -> tensor<2048xf32, #ttnn_layout10> loc(#loc)
        "ttnn.deallocate"(%1#14) <{force = false}> : (tensor<2048xf32, #ttnn_layout1>) -> () loc(#loc)
        %31 = "ttnn.to_device"(%30, %0) <{memory_config = #ttnn.memory_config<#dram, <interleaved>>}> : (tensor<2048xf32, #ttnn_layout10>, !ttnn.device) -> tensor<2048xf32, #ttnn_layout4> loc(#loc)
        "ttnn.deallocate"(%30) <{force = false}> : (tensor<2048xf32, #ttnn_layout10>) -> () loc(#loc)
        %32 = "ttnn.to_layout"(%1#15) <{layout = #ttnn.layout<tile>}> : (tensor<1024xf32, #ttnn_layout>) -> tensor<1024xf32, #ttnn_layout9> loc(#loc)
        "ttnn.deallocate"(%1#15) <{force = false}> : (tensor<1024xf32, #ttnn_layout>) -> () loc(#loc)
        %33 = "ttnn.to_device"(%32, %0) <{memory_config = #ttnn.memory_config<#dram, <interleaved>>}> : (tensor<1024xf32, #ttnn_layout9>, !ttnn.device) -> tensor<1024xf32, #ttnn_layout3> loc(#loc)
        "ttnn.deallocate"(%32) <{force = false}> : (tensor<1024xf32, #ttnn_layout9>) -> () loc(#loc)
        %34 = "ttnn.to_layout"(%1#16) <{layout = #ttnn.layout<tile>}> : (tensor<1024xf32, #ttnn_layout>) -> tensor<1024xf32, #ttnn_layout9> loc(#loc)
        "ttnn.deallocate"(%1#16) <{force = false}> : (tensor<1024xf32, #ttnn_layout>) -> () loc(#loc)
        %35 = "ttnn.to_device"(%34, %0) <{memory_config = #ttnn.memory_config<#dram, <interleaved>>}> : (tensor<1024xf32, #ttnn_layout9>, !ttnn.device) -> tensor<1024xf32, #ttnn_layout3> loc(#loc)
        "ttnn.deallocate"(%34) <{force = false}> : (tensor<1024xf32, #ttnn_layout9>) -> () loc(#loc)
        %36 = "ttnn.to_layout"(%1#17) <{layout = #ttnn.layout<tile>}> : (tensor<2048xf32, #ttnn_layout1>) -> tensor<2048xf32, #ttnn_layout10> loc(#loc)
        "ttnn.deallocate"(%1#17) <{force = false}> : (tensor<2048xf32, #ttnn_layout1>) -> () loc(#loc)
        %37 = "ttnn.to_device"(%36, %0) <{memory_config = #ttnn.memory_config<#dram, <interleaved>>}> : (tensor<2048xf32, #ttnn_layout10>, !ttnn.device) -> tensor<2048xf32, #ttnn_layout4> loc(#loc)
        "ttnn.deallocate"(%36) <{force = false}> : (tensor<2048xf32, #ttnn_layout10>) -> () loc(#loc)
        %38 = "ttnn.to_layout"(%1#18) <{layout = #ttnn.layout<tile>}> : (tensor<2048xf32, #ttnn_layout1>) -> tensor<2048xf32, #ttnn_layout10> loc(#loc)
        "ttnn.deallocate"(%1#18) <{force = false}> : (tensor<2048xf32, #ttnn_layout1>) -> () loc(#loc)
        %39 = "ttnn.to_device"(%38, %0) <{memory_config = #ttnn.memory_config<#dram, <interleaved>>}> : (tensor<2048xf32, #ttnn_layout10>, !ttnn.device) -> tensor<2048xf32, #ttnn_layout4> loc(#loc)
        "ttnn.deallocate"(%38) <{force = false}> : (tensor<2048xf32, #ttnn_layout10>) -> () loc(#loc)
        %40 = "ttnn.to_layout"(%1#19) <{layout = #ttnn.layout<tile>}> : (tensor<1024xf32, #ttnn_layout>) -> tensor<1024xf32, #ttnn_layout9> loc(#loc)
        "ttnn.deallocate"(%1#19) <{force = false}> : (tensor<1024xf32, #ttnn_layout>) -> () loc(#loc)
        %41 = "ttnn.to_device"(%40, %0) <{memory_config = #ttnn.memory_config<#dram, <interleaved>>}> : (tensor<1024xf32, #ttnn_layout9>, !ttnn.device) -> tensor<1024xf32, #ttnn_layout3> loc(#loc)
        "ttnn.deallocate"(%40) <{force = false}> : (tensor<1024xf32, #ttnn_layout9>) -> () loc(#loc)
        %42 = "ttnn.to_layout"(%1#20) <{layout = #ttnn.layout<tile>}> : (tensor<1024xf32, #ttnn_layout>) -> tensor<1024xf32, #ttnn_layout9> loc(#loc)
        "ttnn.deallocate"(%1#20) <{force = false}> : (tensor<1024xf32, #ttnn_layout>) -> () loc(#loc)
        %43 = "ttnn.to_device"(%42, %0) <{memory_config = #ttnn.memory_config<#dram, <interleaved>>}> : (tensor<1024xf32, #ttnn_layout9>, !ttnn.device) -> tensor<1024xf32, #ttnn_layout3> loc(#loc)
        "ttnn.deallocate"(%42) <{force = false}> : (tensor<1024xf32, #ttnn_layout9>) -> () loc(#loc)
        %44 = "ttnn.to_layout"(%1#21) <{layout = #ttnn.layout<tile>}> : (tensor<2048xf32, #ttnn_layout1>) -> tensor<2048xf32, #ttnn_layout10> loc(#loc)
        "ttnn.deallocate"(%1#21) <{force = false}> : (tensor<2048xf32, #ttnn_layout1>) -> () loc(#loc)
        %45 = "ttnn.to_device"(%44, %0) <{memory_config = #ttnn.memory_config<#dram, <interleaved>>}> : (tensor<2048xf32, #ttnn_layout10>, !ttnn.device) -> tensor<2048xf32, #ttnn_layout4> loc(#loc)
        "ttnn.deallocate"(%44) <{force = false}> : (tensor<2048xf32, #ttnn_layout10>) -> () loc(#loc)
        %46 = "ttnn.to_layout"(%1#22) <{layout = #ttnn.layout<tile>}> : (tensor<2048xf32, #ttnn_layout1>) -> tensor<2048xf32, #ttnn_layout10> loc(#loc)
        "ttnn.deallocate"(%1#22) <{force = false}> : (tensor<2048xf32, #ttnn_layout1>) -> () loc(#loc)
        %47 = "ttnn.to_device"(%46, %0) <{memory_config = #ttnn.memory_config<#dram, <interleaved>>}> : (tensor<2048xf32, #ttnn_layout10>, !ttnn.device) -> tensor<2048xf32, #ttnn_layout4> loc(#loc)
        "ttnn.deallocate"(%46) <{force = false}> : (tensor<2048xf32, #ttnn_layout10>) -> () loc(#loc)
        %48 = "ttnn.to_layout"(%1#23) <{layout = #ttnn.layout<tile>}> : (tensor<1024xf32, #ttnn_layout>) -> tensor<1024xf32, #ttnn_layout9> loc(#loc)
        "ttnn.deallocate"(%1#23) <{force = false}> : (tensor<1024xf32, #ttnn_layout>) -> () loc(#loc)
        %49 = "ttnn.to_device"(%48, %0) <{memory_config = #ttnn.memory_config<#dram, <interleaved>>}> : (tensor<1024xf32, #ttnn_layout9>, !ttnn.device) -> tensor<1024xf32, #ttnn_layout3> loc(#loc)
        "ttnn.deallocate"(%48) <{force = false}> : (tensor<1024xf32, #ttnn_layout9>) -> () loc(#loc)
        %50 = "ttnn.to_layout"(%1#24) <{layout = #ttnn.layout<tile>}> : (tensor<1024xf32, #ttnn_layout>) -> tensor<1024xf32, #ttnn_layout9> loc(#loc)
        "ttnn.deallocate"(%1#24) <{force = false}> : (tensor<1024xf32, #ttnn_layout>) -> () loc(#loc)
        %51 = "ttnn.to_device"(%50, %0) <{memory_config = #ttnn.memory_config<#dram, <interleaved>>}> : (tensor<1024xf32, #ttnn_layout9>, !ttnn.device) -> tensor<1024xf32, #ttnn_layout3> loc(#loc)
        "ttnn.deallocate"(%50) <{force = false}> : (tensor<1024xf32, #ttnn_layout9>) -> () loc(#loc)
        %52 = "ttnn.to_layout"(%1#25) <{layout = #ttnn.layout<tile>}> : (tensor<2048xf32, #ttnn_layout1>) -> tensor<2048xf32, #ttnn_layout10> loc(#loc)
        "ttnn.deallocate"(%1#25) <{force = false}> : (tensor<2048xf32, #ttnn_layout1>) -> () loc(#loc)
        %53 = "ttnn.to_device"(%52, %0) <{memory_config = #ttnn.memory_config<#dram, <interleaved>>}> : (tensor<2048xf32, #ttnn_layout10>, !ttnn.device) -> tensor<2048xf32, #ttnn_layout4> loc(#loc)
        "ttnn.deallocate"(%52) <{force = false}> : (tensor<2048xf32, #ttnn_layout10>) -> () loc(#loc)
        %54 = "ttnn.to_layout"(%1#26) <{layout = #ttnn.layout<tile>}> : (tensor<2048xf32, #ttnn_layout1>) -> tensor<2048xf32, #ttnn_layout10> loc(#loc)
        "ttnn.deallocate"(%1#26) <{force = false}> : (tensor<2048xf32, #ttnn_layout1>) -> () loc(#loc)
        %55 = "ttnn.to_device"(%54, %0) <{memory_config = #ttnn.memory_config<#dram, <interleaved>>}> : (tensor<2048xf32, #ttnn_layout10>, !ttnn.device) -> tensor<2048xf32, #ttnn_layout4> loc(#loc)
        "ttnn.deallocate"(%54) <{force = false}> : (tensor<2048xf32, #ttnn_layout10>) -> () loc(#loc)
        %56 = "ttnn.to_layout"(%1#27) <{layout = #ttnn.layout<tile>}> : (tensor<1024xf32, #ttnn_layout>) -> tensor<1024xf32, #ttnn_layout9> loc(#loc)
        "ttnn.deallocate"(%1#27) <{force = false}> : (tensor<1024xf32, #ttnn_layout>) -> () loc(#loc)
        %57 = "ttnn.to_device"(%56, %0) <{memory_config = #ttnn.memory_config<#dram, <interleaved>>}> : (tensor<1024xf32, #ttnn_layout9>, !ttnn.device) -> tensor<1024xf32, #ttnn_layout3> loc(#loc)
        "ttnn.deallocate"(%56) <{force = false}> : (tensor<1024xf32, #ttnn_layout9>) -> () loc(#loc)
        %58 = "ttnn.to_layout"(%1#28) <{layout = #ttnn.layout<tile>}> : (tensor<1024xf32, #ttnn_layout>) -> tensor<1024xf32, #ttnn_layout9> loc(#loc)
        "ttnn.deallocate"(%1#28) <{force = false}> : (tensor<1024xf32, #ttnn_layout>) -> () loc(#loc)
        %59 = "ttnn.to_device"(%58, %0) <{memory_config = #ttnn.memory_config<#dram, <interleaved>>}> : (tensor<1024xf32, #ttnn_layout9>, !ttnn.device) -> tensor<1024xf32, #ttnn_layout3> loc(#loc)
        "ttnn.deallocate"(%58) <{force = false}> : (tensor<1024xf32, #ttnn_layout9>) -> () loc(#loc)
        %60 = "ttnn.to_layout"(%1#29) <{layout = #ttnn.layout<tile>}> : (tensor<2048xf32, #ttnn_layout1>) -> tensor<2048xf32, #ttnn_layout10> loc(#loc)
        "ttnn.deallocate"(%1#29) <{force = false}> : (tensor<2048xf32, #ttnn_layout1>) -> () loc(#loc)
        %61 = "ttnn.to_device"(%60, %0) <{memory_config = #ttnn.memory_config<#dram, <interleaved>>}> : (tensor<2048xf32, #ttnn_layout10>, !ttnn.device) -> tensor<2048xf32, #ttnn_layout4> loc(#loc)
        "ttnn.deallocate"(%60) <{force = false}> : (tensor<2048xf32, #ttnn_layout10>) -> () loc(#loc)
        %62 = "ttnn.to_layout"(%1#30) <{layout = #ttnn.layout<tile>}> : (tensor<2048xf32, #ttnn_layout1>) -> tensor<2048xf32, #ttnn_layout10> loc(#loc)
        "ttnn.deallocate"(%1#30) <{force = false}> : (tensor<2048xf32, #ttnn_layout1>) -> () loc(#loc)
        %63 = "ttnn.to_device"(%62, %0) <{memory_config = #ttnn.memory_config<#dram, <interleaved>>}> : (tensor<2048xf32, #ttnn_layout10>, !ttnn.device) -> tensor<2048xf32, #ttnn_layout4> loc(#loc)
        "ttnn.deallocate"(%62) <{force = false}> : (tensor<2048xf32, #ttnn_layout10>) -> () loc(#loc)
        %64 = "ttnn.to_layout"(%1#31) <{layout = #ttnn.layout<tile>}> : (tensor<1024xf32, #ttnn_layout>) -> tensor<1024xf32, #ttnn_layout9> loc(#loc)
        "ttnn.deallocate"(%1#31) <{force = false}> : (tensor<1024xf32, #ttnn_layout>) -> () loc(#loc)
        %65 = "ttnn.to_device"(%64, %0) <{memory_config = #ttnn.memory_config<#dram, <interleaved>>}> : (tensor<1024xf32, #ttnn_layout9>, !ttnn.device) -> tensor<1024xf32, #ttnn_layout3> loc(#loc)
        "ttnn.deallocate"(%64) <{force = false}> : (tensor<1024xf32, #ttnn_layout9>) -> () loc(#loc)
        %66 = "ttnn.to_layout"(%1#32) <{layout = #ttnn.layout<tile>}> : (tensor<1024xf32, #ttnn_layout>) -> tensor<1024xf32, #ttnn_layout9> loc(#loc)
        "ttnn.deallocate"(%1#32) <{force = false}> : (tensor<1024xf32, #ttnn_layout>) -> () loc(#loc)
        %67 = "ttnn.to_device"(%66, %0) <{memory_config = #ttnn.memory_config<#dram, <interleaved>>}> : (tensor<1024xf32, #ttnn_layout9>, !ttnn.device) -> tensor<1024xf32, #ttnn_layout3> loc(#loc)
        "ttnn.deallocate"(%66) <{force = false}> : (tensor<1024xf32, #ttnn_layout9>) -> () loc(#loc)
        %68 = "ttnn.to_layout"(%1#33) <{layout = #ttnn.layout<tile>}> : (tensor<2048xf32, #ttnn_layout1>) -> tensor<2048xf32, #ttnn_layout10> loc(#loc)
        "ttnn.deallocate"(%1#33) <{force = false}> : (tensor<2048xf32, #ttnn_layout1>) -> () loc(#loc)
        %69 = "ttnn.to_device"(%68, %0) <{memory_config = #ttnn.memory_config<#dram, <interleaved>>}> : (tensor<2048xf32, #ttnn_layout10>, !ttnn.device) -> tensor<2048xf32, #ttnn_layout4> loc(#loc)
        "ttnn.deallocate"(%68) <{force = false}> : (tensor<2048xf32, #ttnn_layout10>) -> () loc(#loc)
        %70 = "ttnn.to_layout"(%1#34) <{layout = #ttnn.layout<tile>}> : (tensor<2048xf32, #ttnn_layout1>) -> tensor<2048xf32, #ttnn_layout10> loc(#loc)
        "ttnn.deallocate"(%1#34) <{force = false}> : (tensor<2048xf32, #ttnn_layout1>) -> () loc(#loc)
        %71 = "ttnn.to_device"(%70, %0) <{memory_config = #ttnn.memory_config<#dram, <interleaved>>}> : (tensor<2048xf32, #ttnn_layout10>, !ttnn.device) -> tensor<2048xf32, #ttnn_layout4> loc(#loc)
        "ttnn.deallocate"(%70) <{force = false}> : (tensor<2048xf32, #ttnn_layout10>) -> () loc(#loc)
        %72 = "ttnn.to_layout"(%1#35) <{layout = #ttnn.layout<tile>}> : (tensor<1024xf32, #ttnn_layout>) -> tensor<1024xf32, #ttnn_layout9> loc(#loc)
        "ttnn.deallocate"(%1#35) <{force = false}> : (tensor<1024xf32, #ttnn_layout>) -> () loc(#loc)
        %73 = "ttnn.to_device"(%72, %0) <{memory_config = #ttnn.memory_config<#dram, <interleaved>>}> : (tensor<1024xf32, #ttnn_layout9>, !ttnn.device) -> tensor<1024xf32, #ttnn_layout3> loc(#loc)
        "ttnn.deallocate"(%72) <{force = false}> : (tensor<1024xf32, #ttnn_layout9>) -> () loc(#loc)
        %74 = "ttnn.to_layout"(%1#36) <{layout = #ttnn.layout<tile>}> : (tensor<1024xf32, #ttnn_layout>) -> tensor<1024xf32, #ttnn_layout9> loc(#loc)
        "ttnn.deallocate"(%1#36) <{force = false}> : (tensor<1024xf32, #ttnn_layout>) -> () loc(#loc)
        %75 = "ttnn.to_device"(%74, %0) <{memory_config = #ttnn.memory_config<#dram, <interleaved>>}> : (tensor<1024xf32, #ttnn_layout9>, !ttnn.device) -> tensor<1024xf32, #ttnn_layout3> loc(#loc)
        "ttnn.deallocate"(%74) <{force = false}> : (tensor<1024xf32, #ttnn_layout9>) -> () loc(#loc)
        %76 = "ttnn.to_layout"(%1#37) <{layout = #ttnn.layout<tile>}> : (tensor<2048xf32, #ttnn_layout1>) -> tensor<2048xf32, #ttnn_layout10> loc(#loc)
        "ttnn.deallocate"(%1#37) <{force = false}> : (tensor<2048xf32, #ttnn_layout1>) -> () loc(#loc)
        %77 = "ttnn.to_device"(%76, %0) <{memory_config = #ttnn.memory_config<#dram, <interleaved>>}> : (tensor<2048xf32, #ttnn_layout10>, !ttnn.device) -> tensor<2048xf32, #ttnn_layout4> loc(#loc)
        "ttnn.deallocate"(%76) <{force = false}> : (tensor<2048xf32, #ttnn_layout10>) -> () loc(#loc)
        %78 = "ttnn.to_layout"(%1#38) <{layout = #ttnn.layout<tile>}> : (tensor<2048xf32, #ttnn_layout1>) -> tensor<2048xf32, #ttnn_layout10> loc(#loc)
        "ttnn.deallocate"(%1#38) <{force = false}> : (tensor<2048xf32, #ttnn_layout1>) -> () loc(#loc)
        %79 = "ttnn.to_device"(%78, %0) <{memory_config = #ttnn.memory_config<#dram, <interleaved>>}> : (tensor<2048xf32, #ttnn_layout10>, !ttnn.device) -> tensor<2048xf32, #ttnn_layout4> loc(#loc)
        "ttnn.deallocate"(%78) <{force = false}> : (tensor<2048xf32, #ttnn_layout10>) -> () loc(#loc)
        %80 = "ttnn.to_layout"(%1#39) <{layout = #ttnn.layout<tile>}> : (tensor<1024xf32, #ttnn_layout>) -> tensor<1024xf32, #ttnn_layout9> loc(#loc)
        "ttnn.deallocate"(%1#39) <{force = false}> : (tensor<1024xf32, #ttnn_layout>) -> () loc(#loc)
        %81 = "ttnn.to_device"(%80, %0) <{memory_config = #ttnn.memory_config<#dram, <interleaved>>}> : (tensor<1024xf32, #ttnn_layout9>, !ttnn.device) -> tensor<1024xf32, #ttnn_layout3> loc(#loc)
        "ttnn.deallocate"(%80) <{force = false}> : (tensor<1024xf32, #ttnn_layout9>) -> () loc(#loc)
        %82 = "ttnn.to_layout"(%1#40) <{layout = #ttnn.layout<tile>}> : (tensor<1024xf32, #ttnn_layout>) -> tensor<1024xf32, #ttnn_layout9> loc(#loc)
        "ttnn.deallocate"(%1#40) <{force = false}> : (tensor<1024xf32, #ttnn_layout>) -> () loc(#loc)
        %83 = "ttnn.to_device"(%82, %0) <{memory_config = #ttnn.memory_config<#dram, <interleaved>>}> : (tensor<1024xf32, #ttnn_layout9>, !ttnn.device) -> tensor<1024xf32, #ttnn_layout3> loc(#loc)
        "ttnn.deallocate"(%82) <{force = false}> : (tensor<1024xf32, #ttnn_layout9>) -> () loc(#loc)
        %84 = "ttnn.to_layout"(%1#41) <{layout = #ttnn.layout<tile>}> : (tensor<2048xf32, #ttnn_layout1>) -> tensor<2048xf32, #ttnn_layout10> loc(#loc)
        "ttnn.deallocate"(%1#41) <{force = false}> : (tensor<2048xf32, #ttnn_layout1>) -> () loc(#loc)
        %85 = "ttnn.to_device"(%84, %0) <{memory_config = #ttnn.memory_config<#dram, <interleaved>>}> : (tensor<2048xf32, #ttnn_layout10>, !ttnn.device) -> tensor<2048xf32, #ttnn_layout4> loc(#loc)
        "ttnn.deallocate"(%84) <{force = false}> : (tensor<2048xf32, #ttnn_layout10>) -> () loc(#loc)
        %86 = "ttnn.to_layout"(%1#42) <{layout = #ttnn.layout<tile>}> : (tensor<2048xf32, #ttnn_layout1>) -> tensor<2048xf32, #ttnn_layout10> loc(#loc)
        "ttnn.deallocate"(%1#42) <{force = false}> : (tensor<2048xf32, #ttnn_layout1>) -> () loc(#loc)
        %87 = "ttnn.to_device"(%86, %0) <{memory_config = #ttnn.memory_config<#dram, <interleaved>>}> : (tensor<2048xf32, #ttnn_layout10>, !ttnn.device) -> tensor<2048xf32, #ttnn_layout4> loc(#loc)
        "ttnn.deallocate"(%86) <{force = false}> : (tensor<2048xf32, #ttnn_layout10>) -> () loc(#loc)
        %88 = "ttnn.to_layout"(%1#43) <{layout = #ttnn.layout<tile>}> : (tensor<1024xf32, #ttnn_layout>) -> tensor<1024xf32, #ttnn_layout9> loc(#loc)
        "ttnn.deallocate"(%1#43) <{force = false}> : (tensor<1024xf32, #ttnn_layout>) -> () loc(#loc)
        %89 = "ttnn.to_device"(%88, %0) <{memory_config = #ttnn.memory_config<#dram, <interleaved>>}> : (tensor<1024xf32, #ttnn_layout9>, !ttnn.device) -> tensor<1024xf32, #ttnn_layout3> loc(#loc)
        "ttnn.deallocate"(%88) <{force = false}> : (tensor<1024xf32, #ttnn_layout9>) -> () loc(#loc)
        %90 = "ttnn.to_layout"(%1#44) <{layout = #ttnn.layout<tile>}> : (tensor<1024xf32, #ttnn_layout>) -> tensor<1024xf32, #ttnn_layout9> loc(#loc)
        "ttnn.deallocate"(%1#44) <{force = false}> : (tensor<1024xf32, #ttnn_layout>) -> () loc(#loc)
        %91 = "ttnn.to_device"(%90, %0) <{memory_config = #ttnn.memory_config<#dram, <interleaved>>}> : (tensor<1024xf32, #ttnn_layout9>, !ttnn.device) -> tensor<1024xf32, #ttnn_layout3> loc(#loc)
        "ttnn.deallocate"(%90) <{force = false}> : (tensor<1024xf32, #ttnn_layout9>) -> () loc(#loc)
        %92 = "ttnn.to_layout"(%1#45) <{layout = #ttnn.layout<tile>}> : (tensor<2048xf32, #ttnn_layout1>) -> tensor<2048xf32, #ttnn_layout10> loc(#loc)
        "ttnn.deallocate"(%1#45) <{force = false}> : (tensor<2048xf32, #ttnn_layout1>) -> () loc(#loc)
        %93 = "ttnn.to_device"(%92, %0) <{memory_config = #ttnn.memory_config<#dram, <interleaved>>}> : (tensor<2048xf32, #ttnn_layout10>, !ttnn.device) -> tensor<2048xf32, #ttnn_layout4> loc(#loc)
        "ttnn.deallocate"(%92) <{force = false}> : (tensor<2048xf32, #ttnn_layout10>) -> () loc(#loc)
        %94 = "ttnn.to_layout"(%1#46) <{layout = #ttnn.layout<tile>}> : (tensor<2048xf32, #ttnn_layout1>) -> tensor<2048xf32, #ttnn_layout10> loc(#loc)
        "ttnn.deallocate"(%1#46) <{force = false}> : (tensor<2048xf32, #ttnn_layout1>) -> () loc(#loc)
        %95 = "ttnn.to_device"(%94, %0) <{memory_config = #ttnn.memory_config<#dram, <interleaved>>}> : (tensor<2048xf32, #ttnn_layout10>, !ttnn.device) -> tensor<2048xf32, #ttnn_layout4> loc(#loc)
        "ttnn.deallocate"(%94) <{force = false}> : (tensor<2048xf32, #ttnn_layout10>) -> () loc(#loc)
        %96 = "ttnn.to_layout"(%1#47) <{layout = #ttnn.layout<tile>}> : (tensor<1024xf32, #ttnn_layout>) -> tensor<1024xf32, #ttnn_layout9> loc(#loc)
        "ttnn.deallocate"(%1#47) <{force = false}> : (tensor<1024xf32, #ttnn_layout>) -> () loc(#loc)
        %97 = "ttnn.to_device"(%96, %0) <{memory_config = #ttnn.memory_config<#dram, <interleaved>>}> : (tensor<1024xf32, #ttnn_layout9>, !ttnn.device) -> tensor<1024xf32, #ttnn_layout3> loc(#loc)
        "ttnn.deallocate"(%96) <{force = false}> : (tensor<1024xf32, #ttnn_layout9>) -> () loc(#loc)
        %98 = "ttnn.to_layout"(%1#48) <{layout = #ttnn.layout<tile>}> : (tensor<1024xf32, #ttnn_layout>) -> tensor<1024xf32, #ttnn_layout9> loc(#loc)
        "ttnn.deallocate"(%1#48) <{force = false}> : (tensor<1024xf32, #ttnn_layout>) -> () loc(#loc)
        %99 = "ttnn.to_device"(%98, %0) <{memory_config = #ttnn.memory_config<#dram, <interleaved>>}> : (tensor<1024xf32, #ttnn_layout9>, !ttnn.device) -> tensor<1024xf32, #ttnn_layout3> loc(#loc)
        "ttnn.deallocate"(%98) <{force = false}> : (tensor<1024xf32, #ttnn_layout9>) -> () loc(#loc)
        %100 = "ttnn.to_layout"(%1#49) <{layout = #ttnn.layout<tile>}> : (tensor<2048xf32, #ttnn_layout1>) -> tensor<2048xf32, #ttnn_layout10> loc(#loc)
        "ttnn.deallocate"(%1#49) <{force = false}> : (tensor<2048xf32, #ttnn_layout1>) -> () loc(#loc)
        %101 = "ttnn.to_device"(%100, %0) <{memory_config = #ttnn.memory_config<#dram, <interleaved>>}> : (tensor<2048xf32, #ttnn_layout10>, !ttnn.device) -> tensor<2048xf32, #ttnn_layout4> loc(#loc)
        "ttnn.deallocate"(%100) <{force = false}> : (tensor<2048xf32, #ttnn_layout10>) -> () loc(#loc)
        %102 = "ttnn.to_layout"(%1#50) <{layout = #ttnn.layout<tile>}> : (tensor<2048xf32, #ttnn_layout1>) -> tensor<2048xf32, #ttnn_layout10> loc(#loc)
        "ttnn.deallocate"(%1#50) <{force = false}> : (tensor<2048xf32, #ttnn_layout1>) -> () loc(#loc)
        %103 = "ttnn.to_device"(%102, %0) <{memory_config = #ttnn.memory_config<#dram, <interleaved>>}> : (tensor<2048xf32, #ttnn_layout10>, !ttnn.device) -> tensor<2048xf32, #ttnn_layout4> loc(#loc)
        "ttnn.deallocate"(%102) <{force = false}> : (tensor<2048xf32, #ttnn_layout10>) -> () loc(#loc)
        %104 = "ttnn.to_layout"(%1#51) <{layout = #ttnn.layout<tile>}> : (tensor<1024xf32, #ttnn_layout>) -> tensor<1024xf32, #ttnn_layout9> loc(#loc)
        "ttnn.deallocate"(%1#51) <{force = false}> : (tensor<1024xf32, #ttnn_layout>) -> () loc(#loc)
        %105 = "ttnn.to_device"(%104, %0) <{memory_config = #ttnn.memory_config<#dram, <interleaved>>}> : (tensor<1024xf32, #ttnn_layout9>, !ttnn.device) -> tensor<1024xf32, #ttnn_layout3> loc(#loc)
        "ttnn.deallocate"(%104) <{force = false}> : (tensor<1024xf32, #ttnn_layout9>) -> () loc(#loc)
        %106 = "ttnn.to_layout"(%1#52) <{layout = #ttnn.layout<tile>}> : (tensor<1024xf32, #ttnn_layout>) -> tensor<1024xf32, #ttnn_layout9> loc(#loc)
        "ttnn.deallocate"(%1#52) <{force = false}> : (tensor<1024xf32, #ttnn_layout>) -> () loc(#loc)
        %107 = "ttnn.to_device"(%106, %0) <{memory_config = #ttnn.memory_config<#dram, <interleaved>>}> : (tensor<1024xf32, #ttnn_layout9>, !ttnn.device) -> tensor<1024xf32, #ttnn_layout3> loc(#loc)
        "ttnn.deallocate"(%106) <{force = false}> : (tensor<1024xf32, #ttnn_layout9>) -> () loc(#loc)
        %108 = "ttnn.to_layout"(%1#53) <{layout = #ttnn.layout<tile>}> : (tensor<2048xf32, #ttnn_layout1>) -> tensor<2048xf32, #ttnn_layout10> loc(#loc)
        "ttnn.deallocate"(%1#53) <{force = false}> : (tensor<2048xf32, #ttnn_layout1>) -> () loc(#loc)
        %109 = "ttnn.to_device"(%108, %0) <{memory_config = #ttnn.memory_config<#dram, <interleaved>>}> : (tensor<2048xf32, #ttnn_layout10>, !ttnn.device) -> tensor<2048xf32, #ttnn_layout4> loc(#loc)
        "ttnn.deallocate"(%108) <{force = false}> : (tensor<2048xf32, #ttnn_layout10>) -> () loc(#loc)
        %110 = "ttnn.to_layout"(%1#54) <{layout = #ttnn.layout<tile>}> : (tensor<2048xf32, #ttnn_layout1>) -> tensor<2048xf32, #ttnn_layout10> loc(#loc)
        "ttnn.deallocate"(%1#54) <{force = false}> : (tensor<2048xf32, #ttnn_layout1>) -> () loc(#loc)
        %111 = "ttnn.to_device"(%110, %0) <{memory_config = #ttnn.memory_config<#dram, <interleaved>>}> : (tensor<2048xf32, #ttnn_layout10>, !ttnn.device) -> tensor<2048xf32, #ttnn_layout4> loc(#loc)
        "ttnn.deallocate"(%110) <{force = false}> : (tensor<2048xf32, #ttnn_layout10>) -> () loc(#loc)
        %112 = "ttnn.to_layout"(%1#55) <{layout = #ttnn.layout<tile>}> : (tensor<1024xf32, #ttnn_layout>) -> tensor<1024xf32, #ttnn_layout9> loc(#loc)
        "ttnn.deallocate"(%1#55) <{force = false}> : (tensor<1024xf32, #ttnn_layout>) -> () loc(#loc)
        %113 = "ttnn.to_device"(%112, %0) <{memory_config = #ttnn.memory_config<#dram, <interleaved>>}> : (tensor<1024xf32, #ttnn_layout9>, !ttnn.device) -> tensor<1024xf32, #ttnn_layout3> loc(#loc)
        "ttnn.deallocate"(%112) <{force = false}> : (tensor<1024xf32, #ttnn_layout9>) -> () loc(#loc)
        %114 = "ttnn.to_layout"(%1#56) <{layout = #ttnn.layout<tile>}> : (tensor<1024xf32, #ttnn_layout>) -> tensor<1024xf32, #ttnn_layout9> loc(#loc)
        "ttnn.deallocate"(%1#56) <{force = false}> : (tensor<1024xf32, #ttnn_layout>) -> () loc(#loc)
        %115 = "ttnn.to_device"(%114, %0) <{memory_config = #ttnn.memory_config<#dram, <interleaved>>}> : (tensor<1024xf32, #ttnn_layout9>, !ttnn.device) -> tensor<1024xf32, #ttnn_layout3> loc(#loc)
        "ttnn.deallocate"(%114) <{force = false}> : (tensor<1024xf32, #ttnn_layout9>) -> () loc(#loc)
        %116 = "ttnn.to_layout"(%1#57) <{layout = #ttnn.layout<tile>}> : (tensor<2048xf32, #ttnn_layout1>) -> tensor<2048xf32, #ttnn_layout10> loc(#loc)
        "ttnn.deallocate"(%1#57) <{force = false}> : (tensor<2048xf32, #ttnn_layout1>) -> () loc(#loc)
        %117 = "ttnn.to_device"(%116, %0) <{memory_config = #ttnn.memory_config<#dram, <interleaved>>}> : (tensor<2048xf32, #ttnn_layout10>, !ttnn.device) -> tensor<2048xf32, #ttnn_layout4> loc(#loc)
        "ttnn.deallocate"(%116) <{force = false}> : (tensor<2048xf32, #ttnn_layout10>) -> () loc(#loc)
        %118 = "ttnn.to_layout"(%1#58) <{layout = #ttnn.layout<tile>}> : (tensor<2048xf32, #ttnn_layout1>) -> tensor<2048xf32, #ttnn_layout10> loc(#loc)
        "ttnn.deallocate"(%1#58) <{force = false}> : (tensor<2048xf32, #ttnn_layout1>) -> () loc(#loc)
        %119 = "ttnn.to_device"(%118, %0) <{memory_config = #ttnn.memory_config<#dram, <interleaved>>}> : (tensor<2048xf32, #ttnn_layout10>, !ttnn.device) -> tensor<2048xf32, #ttnn_layout4> loc(#loc)
        "ttnn.deallocate"(%118) <{force = false}> : (tensor<2048xf32, #ttnn_layout10>) -> () loc(#loc)
        %120 = "ttnn.to_layout"(%1#59) <{layout = #ttnn.layout<tile>}> : (tensor<1024xf32, #ttnn_layout>) -> tensor<1024xf32, #ttnn_layout9> loc(#loc)
        "ttnn.deallocate"(%1#59) <{force = false}> : (tensor<1024xf32, #ttnn_layout>) -> () loc(#loc)
        %121 = "ttnn.to_device"(%120, %0) <{memory_config = #ttnn.memory_config<#dram, <interleaved>>}> : (tensor<1024xf32, #ttnn_layout9>, !ttnn.device) -> tensor<1024xf32, #ttnn_layout3> loc(#loc)
        "ttnn.deallocate"(%120) <{force = false}> : (tensor<1024xf32, #ttnn_layout9>) -> () loc(#loc)
        %122 = "ttnn.to_layout"(%1#60) <{layout = #ttnn.layout<tile>}> : (tensor<1024xf32, #ttnn_layout>) -> tensor<1024xf32, #ttnn_layout9> loc(#loc)
        "ttnn.deallocate"(%1#60) <{force = false}> : (tensor<1024xf32, #ttnn_layout>) -> () loc(#loc)
        %123 = "ttnn.to_device"(%122, %0) <{memory_config = #ttnn.memory_config<#dram, <interleaved>>}> : (tensor<1024xf32, #ttnn_layout9>, !ttnn.device) -> tensor<1024xf32, #ttnn_layout3> loc(#loc)
        "ttnn.deallocate"(%122) <{force = false}> : (tensor<1024xf32, #ttnn_layout9>) -> () loc(#loc)
        %124 = "ttnn.to_layout"(%1#61) <{layout = #ttnn.layout<tile>}> : (tensor<2048xf32, #ttnn_layout1>) -> tensor<2048xf32, #ttnn_layout10> loc(#loc)
        "ttnn.deallocate"(%1#61) <{force = false}> : (tensor<2048xf32, #ttnn_layout1>) -> () loc(#loc)
        %125 = "ttnn.to_device"(%124, %0) <{memory_config = #ttnn.memory_config<#dram, <interleaved>>}> : (tensor<2048xf32, #ttnn_layout10>, !ttnn.device) -> tensor<2048xf32, #ttnn_layout4> loc(#loc)
        "ttnn.deallocate"(%124) <{force = false}> : (tensor<2048xf32, #ttnn_layout10>) -> () loc(#loc)
        %126 = "ttnn.to_layout"(%1#62) <{layout = #ttnn.layout<tile>}> : (tensor<2048xf32, #ttnn_layout1>) -> tensor<2048xf32, #ttnn_layout10> loc(#loc)
        "ttnn.deallocate"(%1#62) <{force = false}> : (tensor<2048xf32, #ttnn_layout1>) -> () loc(#loc)
        %127 = "ttnn.to_device"(%126, %0) <{memory_config = #ttnn.memory_config<#dram, <interleaved>>}> : (tensor<2048xf32, #ttnn_layout10>, !ttnn.device) -> tensor<2048xf32, #ttnn_layout4> loc(#loc)
        "ttnn.deallocate"(%126) <{force = false}> : (tensor<2048xf32, #ttnn_layout10>) -> () loc(#loc)
        %128 = "ttnn.to_layout"(%1#63) <{layout = #ttnn.layout<tile>}> : (tensor<1024xf32, #ttnn_layout>) -> tensor<1024xf32, #ttnn_layout9> loc(#loc)
        "ttnn.deallocate"(%1#63) <{force = false}> : (tensor<1024xf32, #ttnn_layout>) -> () loc(#loc)
        %129 = "ttnn.to_device"(%128, %0) <{memory_config = #ttnn.memory_config<#dram, <interleaved>>}> : (tensor<1024xf32, #ttnn_layout9>, !ttnn.device) -> tensor<1024xf32, #ttnn_layout3> loc(#loc)
        "ttnn.deallocate"(%128) <{force = false}> : (tensor<1024xf32, #ttnn_layout9>) -> () loc(#loc)
        %130 = "ttnn.to_layout"(%1#64) <{layout = #ttnn.layout<tile>}> : (tensor<1024xf32, #ttnn_layout>) -> tensor<1024xf32, #ttnn_layout9> loc(#loc)
        "ttnn.deallocate"(%1#64) <{force = false}> : (tensor<1024xf32, #ttnn_layout>) -> () loc(#loc)
        %131 = "ttnn.to_device"(%130, %0) <{memory_config = #ttnn.memory_config<#dram, <interleaved>>}> : (tensor<1024xf32, #ttnn_layout9>, !ttnn.device) -> tensor<1024xf32, #ttnn_layout3> loc(#loc)
        "ttnn.deallocate"(%130) <{force = false}> : (tensor<1024xf32, #ttnn_layout9>) -> () loc(#loc)
        %132 = "ttnn.to_layout"(%1#65) <{layout = #ttnn.layout<tile>}> : (tensor<2048xf32, #ttnn_layout1>) -> tensor<2048xf32, #ttnn_layout10> loc(#loc)
        "ttnn.deallocate"(%1#65) <{force = false}> : (tensor<2048xf32, #ttnn_layout1>) -> () loc(#loc)
        %133 = "ttnn.to_device"(%132, %0) <{memory_config = #ttnn.memory_config<#dram, <interleaved>>}> : (tensor<2048xf32, #ttnn_layout10>, !ttnn.device) -> tensor<2048xf32, #ttnn_layout4> loc(#loc)
        "ttnn.deallocate"(%132) <{force = false}> : (tensor<2048xf32, #ttnn_layout10>) -> () loc(#loc)
        %134 = "ttnn.to_layout"(%1#66) <{layout = #ttnn.layout<tile>}> : (tensor<2048xf32, #ttnn_layout1>) -> tensor<2048xf32, #ttnn_layout10> loc(#loc)
        "ttnn.deallocate"(%1#66) <{force = false}> : (tensor<2048xf32, #ttnn_layout1>) -> () loc(#loc)
        %135 = "ttnn.to_device"(%134, %0) <{memory_config = #ttnn.memory_config<#dram, <interleaved>>}> : (tensor<2048xf32, #ttnn_layout10>, !ttnn.device) -> tensor<2048xf32, #ttnn_layout4> loc(#loc)
        "ttnn.deallocate"(%134) <{force = false}> : (tensor<2048xf32, #ttnn_layout10>) -> () loc(#loc)
        %136 = "ttnn.to_layout"(%1#67) <{layout = #ttnn.layout<tile>}> : (tensor<1024xf32, #ttnn_layout>) -> tensor<1024xf32, #ttnn_layout9> loc(#loc)
        "ttnn.deallocate"(%1#67) <{force = false}> : (tensor<1024xf32, #ttnn_layout>) -> () loc(#loc)
        %137 = "ttnn.to_device"(%136, %0) <{memory_config = #ttnn.memory_config<#dram, <interleaved>>}> : (tensor<1024xf32, #ttnn_layout9>, !ttnn.device) -> tensor<1024xf32, #ttnn_layout3> loc(#loc)
        "ttnn.deallocate"(%136) <{force = false}> : (tensor<1024xf32, #ttnn_layout9>) -> () loc(#loc)
        %138 = "ttnn.to_layout"(%1#68) <{layout = #ttnn.layout<tile>}> : (tensor<1024xf32, #ttnn_layout>) -> tensor<1024xf32, #ttnn_layout9> loc(#loc)
        "ttnn.deallocate"(%1#68) <{force = false}> : (tensor<1024xf32, #ttnn_layout>) -> () loc(#loc)
        %139 = "ttnn.to_device"(%138, %0) <{memory_config = #ttnn.memory_config<#dram, <interleaved>>}> : (tensor<1024xf32, #ttnn_layout9>, !ttnn.device) -> tensor<1024xf32, #ttnn_layout3> loc(#loc)
        "ttnn.deallocate"(%138) <{force = false}> : (tensor<1024xf32, #ttnn_layout9>) -> () loc(#loc)
        %140 = "ttnn.to_layout"(%1#69) <{layout = #ttnn.layout<tile>}> : (tensor<2048xf32, #ttnn_layout1>) -> tensor<2048xf32, #ttnn_layout10> loc(#loc)
        "ttnn.deallocate"(%1#69) <{force = false}> : (tensor<2048xf32, #ttnn_layout1>) -> () loc(#loc)
        %141 = "ttnn.to_device"(%140, %0) <{memory_config = #ttnn.memory_config<#dram, <interleaved>>}> : (tensor<2048xf32, #ttnn_layout10>, !ttnn.device) -> tensor<2048xf32, #ttnn_layout4> loc(#loc)
        "ttnn.deallocate"(%140) <{force = false}> : (tensor<2048xf32, #ttnn_layout10>) -> () loc(#loc)
        %142 = "ttnn.to_layout"(%1#70) <{layout = #ttnn.layout<tile>}> : (tensor<2048xf32, #ttnn_layout1>) -> tensor<2048xf32, #ttnn_layout10> loc(#loc)
        "ttnn.deallocate"(%1#70) <{force = false}> : (tensor<2048xf32, #ttnn_layout1>) -> () loc(#loc)
        %143 = "ttnn.to_device"(%142, %0) <{memory_config = #ttnn.memory_config<#dram, <interleaved>>}> : (tensor<2048xf32, #ttnn_layout10>, !ttnn.device) -> tensor<2048xf32, #ttnn_layout4> loc(#loc)
        "ttnn.deallocate"(%142) <{force = false}> : (tensor<2048xf32, #ttnn_layout10>) -> () loc(#loc)
        %144 = "ttnn.to_layout"(%1#71) <{layout = #ttnn.layout<tile>}> : (tensor<1024xf32, #ttnn_layout>) -> tensor<1024xf32, #ttnn_layout9> loc(#loc)
        "ttnn.deallocate"(%1#71) <{force = false}> : (tensor<1024xf32, #ttnn_layout>) -> () loc(#loc)
        %145 = "ttnn.to_device"(%144, %0) <{memory_config = #ttnn.memory_config<#dram, <interleaved>>}> : (tensor<1024xf32, #ttnn_layout9>, !ttnn.device) -> tensor<1024xf32, #ttnn_layout3> loc(#loc)
        "ttnn.deallocate"(%144) <{force = false}> : (tensor<1024xf32, #ttnn_layout9>) -> () loc(#loc)
        %146 = "ttnn.to_layout"(%1#72) <{layout = #ttnn.layout<tile>}> : (tensor<1024xf32, #ttnn_layout>) -> tensor<1024xf32, #ttnn_layout9> loc(#loc)
        "ttnn.deallocate"(%1#72) <{force = false}> : (tensor<1024xf32, #ttnn_layout>) -> () loc(#loc)
        %147 = "ttnn.to_device"(%146, %0) <{memory_config = #ttnn.memory_config<#dram, <interleaved>>}> : (tensor<1024xf32, #ttnn_layout9>, !ttnn.device) -> tensor<1024xf32, #ttnn_layout3> loc(#loc)
        "ttnn.deallocate"(%146) <{force = false}> : (tensor<1024xf32, #ttnn_layout9>) -> () loc(#loc)
        %148 = "ttnn.to_layout"(%1#73) <{layout = #ttnn.layout<tile>}> : (tensor<1xf32, #ttnn_layout7>) -> tensor<1xf32, #ttnn_layout11> loc(#loc)
        "ttnn.deallocate"(%1#73) <{force = false}> : (tensor<1xf32, #ttnn_layout7>) -> () loc(#loc)
        %149 = "ttnn.to_device"(%148, %0) <{memory_config = #ttnn.memory_config<#dram, <interleaved>>}> : (tensor<1xf32, #ttnn_layout11>, !ttnn.device) -> tensor<1xf32, #ttnn_layout5> loc(#loc)
        "ttnn.deallocate"(%148) <{force = false}> : (tensor<1xf32, #ttnn_layout11>) -> () loc(#loc)
        return %3, %5, %7, %9, %11, %13, %15, %17, %19, %21, %23, %25, %27, %29, %31, %33, %35, %37, %39, %41, %43, %45, %47, %49, %51, %53, %55, %57, %59, %61, %63, %65, %67, %69, %71, %73, %75, %77, %79, %81, %83, %85, %87, %89, %91, %93, %95, %97, %99, %101, %103, %105, %107, %109, %111, %113, %115, %117, %119, %121, %123, %125, %127, %129, %131, %133, %135, %137, %139, %141, %143, %145, %147, %149 : tensor<50x1024xf32, #ttnn_layout2>, tensor<1024xf32, #ttnn_layout3>, tensor<2048xf32, #ttnn_layout4>, tensor<1024xf32, #ttnn_layout3>, tensor<1024xf32, #ttnn_layout3>, tensor<2048xf32, #ttnn_layout4>, tensor<2048xf32, #ttnn_layout4>, tensor<1024xf32, #ttnn_layout3>, tensor<1024xf32, #ttnn_layout3>, tensor<2048xf32, #ttnn_layout4>, tensor<2048xf32, #ttnn_layout4>, tensor<1024xf32, #ttnn_layout3>, tensor<1024xf32, #ttnn_layout3>, tensor<2048xf32, #ttnn_layout4>, tensor<2048xf32, #ttnn_layout4>, tensor<1024xf32, #ttnn_layout3>, tensor<1024xf32, #ttnn_layout3>, tensor<2048xf32, #ttnn_layout4>, tensor<2048xf32, #ttnn_layout4>, tensor<1024xf32, #ttnn_layout3>, tensor<1024xf32, #ttnn_layout3>, tensor<2048xf32, #ttnn_layout4>, tensor<2048xf32, #ttnn_layout4>, tensor<1024xf32, #ttnn_layout3>, tensor<1024xf32, #ttnn_layout3>, tensor<2048xf32, #ttnn_layout4>, tensor<2048xf32, #ttnn_layout4>, tensor<1024xf32, #ttnn_layout3>, tensor<1024xf32, #ttnn_layout3>, tensor<2048xf32, #ttnn_layout4>, tensor<2048xf32, #ttnn_layout4>, tensor<1024xf32, #ttnn_layout3>, tensor<1024xf32, #ttnn_layout3>, tensor<2048xf32, #ttnn_layout4>, tensor<2048xf32, #ttnn_layout4>, tensor<1024xf32, #ttnn_layout3>, tensor<1024xf32, #ttnn_layout3>, tensor<2048xf32, #ttnn_layout4>, tensor<2048xf32, #ttnn_layout4>, tensor<1024xf32, #ttnn_layout3>, tensor<1024xf32, #ttnn_layout3>, tensor<2048xf32, #ttnn_layout4>, tensor<2048xf32, #ttnn_layout4>, tensor<1024xf32, #ttnn_layout3>, tensor<1024xf32, #ttnn_layout3>, tensor<2048xf32, #ttnn_layout4>, tensor<2048xf32, #ttnn_layout4>, tensor<1024xf32, #ttnn_layout3>, tensor<1024xf32, #ttnn_layout3>, tensor<2048xf32, #ttnn_layout4>, tensor<2048xf32, #ttnn_layout4>, tensor<1024xf32, #ttnn_layout3>, tensor<1024xf32, #ttnn_layout3>, tensor<2048xf32, #ttnn_layout4>, tensor<2048xf32, #ttnn_layout4>, tensor<1024xf32, #ttnn_layout3>, tensor<1024xf32, #ttnn_layout3>, tensor<2048xf32, #ttnn_layout4>, tensor<2048xf32, #ttnn_layout4>, tensor<1024xf32, #ttnn_layout3>, tensor<1024xf32, #ttnn_layout3>, tensor<2048xf32, #ttnn_layout4>, tensor<2048xf32, #ttnn_layout4>, tensor<1024xf32, #ttnn_layout3>, tensor<1024xf32, #ttnn_layout3>, tensor<2048xf32, #ttnn_layout4>, tensor<2048xf32, #ttnn_layout4>, tensor<1024xf32, #ttnn_layout3>, tensor<1024xf32, #ttnn_layout3>, tensor<2048xf32, #ttnn_layout4>, tensor<2048xf32, #ttnn_layout4>, tensor<1024xf32, #ttnn_layout3>, tensor<1024xf32, #ttnn_layout3>, tensor<1xf32, #ttnn_layout5> loc(#loc)
      } loc(#loc)
      func.func private @main_const_eval_1(%arg0: tensor<1152xf32, #ttnn_layout12> loc(unknown)) -> tensor<1x1x1152xf32, #ttnn_layout13> attributes {tt.function_type = "const_eval"} {
        %0 = "ttnn.get_device"() <{mesh_offset = #ttnn<mesh_offset 0x0>, mesh_shape = #ttnn<mesh_shape 1x1>}> : () -> !ttnn.device loc(#loc)
        %1 = call @cpu_hoisted_const_eval_9f0fd1a7(%arg0) {ttir.cpu_hoist_call} : (tensor<1152xf32, #ttnn_layout12>) -> tensor<1x1x1152xf32, #ttnn_layout14> loc(#loc)
        %2 = "ttnn.to_layout"(%1) <{layout = #ttnn.layout<tile>}> : (tensor<1x1x1152xf32, #ttnn_layout14>) -> tensor<1x1x1152xf32, #ttnn_layout15> loc(#loc)
        "ttnn.deallocate"(%1) <{force = false}> : (tensor<1x1x1152xf32, #ttnn_layout14>) -> () loc(#loc)
        %3 = "ttnn.to_device"(%2, %0) <{memory_config = #ttnn.memory_config<#dram, <interleaved>>}> : (tensor<1x1x1152xf32, #ttnn_layout15>, !ttnn.device) -> tensor<1x1x1152xf32, #ttnn_layout13> loc(#loc)
        "ttnn.deallocate"(%2) <{force = false}> : (tensor<1x1x1152xf32, #ttnn_layout15>) -> () loc(#loc)
        return %3 : tensor<1x1x1152xf32, #ttnn_layout13> loc(#loc)
      } loc(#loc)
      func.func private @main_const_eval_2() -> tensor<1xf32, #ttnn_layout5> attributes {tt.function_type = "const_eval"} {
        %0 = "ttnn.get_device"() <{mesh_offset = #ttnn<mesh_offset 0x0>, mesh_shape = #ttnn<mesh_shape 1x1>}> : () -> !ttnn.device loc(#loc1)
        %1 = "ttnn.zeros"(%0) <{dtype = #ttcore.supportedDataTypes<f32>, layout = #ttnn.layout<tile>, memory_config = #ttnn.memory_config<#dram, <interleaved>>, shape = #ttnn.shape<1>}> : (!ttnn.device) -> tensor<1xf32, #ttnn_layout5> loc(#loc4664)
        return %1 : tensor<1xf32, #ttnn_layout5> loc(#loc)
      } loc(#loc)
      func.func private @main_const_eval_3(%arg0: tensor<1152xf32, #ttnn_layout12> loc(unknown), %arg1: tensor<1152xf32, #ttnn_layout12> loc(unknown), %arg2: tensor<1152xf32, #ttnn_layout12> loc(unknown)) -> tensor<1x1x3456xf32, #ttnn_layout16> attributes {tt.function_type = "const_eval"} {
        %0 = "ttnn.get_device"() <{mesh_offset = #ttnn<mesh_offset 0x0>, mesh_shape = #ttnn<mesh_shape 1x1>}> : () -> !ttnn.device loc(#loc)
        %1 = call @cpu_hoisted_const_eval_b9a4c459(%arg2, %arg1, %arg0) {ttir.cpu_hoist_call} : (tensor<1152xf32, #ttnn_layout12>, tensor<1152xf32, #ttnn_layout12>, tensor<1152xf32, #ttnn_layout12>) -> tensor<1x1x3456xf32, #ttnn_layout17> loc(#loc)
        %2 = "ttnn.to_layout"(%1) <{layout = #ttnn.layout<tile>}> : (tensor<1x1x3456xf32, #ttnn_layout17>) -> tensor<1x1x3456xf32, #ttnn_layout18> loc(#loc)
        "ttnn.deallocate"(%1) <{force = false}> : (tensor<1x1x3456xf32, #ttnn_layout17>) -> () loc(#loc)
        %3 = "ttnn.to_device"(%2, %0) <{memory_config = #ttnn.memory_config<#dram, <interleaved>>}> : (tensor<1x1x3456xf32, #ttnn_layout18>, !ttnn.device) -> tensor<1x1x3456xf32, #ttnn_layout16> loc(#loc)
        "ttnn.deallocate"(%2) <{force = false}> : (tensor<1x1x3456xf32, #ttnn_layout18>) -> () loc(#loc)
        return %3 : tensor<1x1x3456xf32, #ttnn_layout16> loc(#loc)
      } loc(#loc)
      func.func private @main_const_eval_4(%arg0: tensor<1152x1152xf32, #ttnn_layout19> loc(unknown), %arg1: tensor<1152x1152xf32, #ttnn_layout19> loc(unknown), %arg2: tensor<1152x1152xf32, #ttnn_layout19> loc(unknown)) -> tensor<1152x3456xf32, #ttnn_layout20> attributes {tt.function_type = "const_eval"} {
        %0 = "ttnn.get_device"() <{mesh_offset = #ttnn<mesh_offset 0x0>, mesh_shape = #ttnn<mesh_shape 1x1>}> : () -> !ttnn.device loc(#loc)
        %1 = call @cpu_hoisted_const_eval_59f6b97d(%arg1, %arg0, %arg2) {ttir.cpu_hoist_call} : (tensor<1152x1152xf32, #ttnn_layout19>, tensor<1152x1152xf32, #ttnn_layout19>, tensor<1152x1152xf32, #ttnn_layout19>) -> tensor<1152x3456xf32, #ttnn_layout21> loc(#loc)
        %2 = "ttnn.to_layout"(%1) <{layout = #ttnn.layout<tile>}> : (tensor<1152x3456xf32, #ttnn_layout21>) -> tensor<1152x3456xf32, #ttnn_layout22> loc(#loc)
        "ttnn.deallocate"(%1) <{force = false}> : (tensor<1152x3456xf32, #ttnn_layout21>) -> () loc(#loc)
        %3 = "ttnn.to_device"(%2, %0) <{memory_config = #ttnn.memory_config<#dram, <interleaved>>}> : (tensor<1152x3456xf32, #ttnn_layout22>, !ttnn.device) -> tensor<1152x3456xf32, #ttnn_layout20> loc(#loc)
        "ttnn.deallocate"(%2) <{force = false}> : (tensor<1152x3456xf32, #ttnn_layout22>) -> () loc(#loc)
        return %3 : tensor<1152x3456xf32, #ttnn_layout20> loc(#loc)
      } loc(#loc)
      func.func private @main_const_eval_5(%arg0: tensor<1152xf32, #ttnn_layout12> loc(unknown)) -> tensor<1x1x1152xf32, #ttnn_layout13> attributes {tt.function_type = "const_eval"} {
        %0 = "ttnn.get_device"() <{mesh_offset = #ttnn<mesh_offset 0x0>, mesh_shape = #ttnn<mesh_shape 1x1>}> : () -> !ttnn.device loc(#loc)
        %1 = call @cpu_hoisted_const_eval_9f0fd1a7(%arg0) {ttir.cpu_hoist_call} : (tensor<1152xf32, #ttnn_layout12>) -> tensor<1x1x1152xf32, #ttnn_layout14> loc(#loc)
        %2 = "ttnn.to_layout"(%1) <{layout = #ttnn.layout<tile>}> : (tensor<1x1x1152xf32, #ttnn_layout14>) -> tensor<1x1x1152xf32, #ttnn_layout15> loc(#loc)
        "ttnn.deallocate"(%1) <{force = false}> : (tensor<1x1x1152xf32, #ttnn_layout14>) -> () loc(#loc)
        %3 = "ttnn.to_device"(%2, %0) <{memory_config = #ttnn.memory_config<#dram, <interleaved>>}> : (tensor<1x1x1152xf32, #ttnn_layout15>, !ttnn.device) -> tensor<1x1x1152xf32, #ttnn_layout13> loc(#loc)
        "ttnn.deallocate"(%2) <{force = false}> : (tensor<1x1x1152xf32, #ttnn_layout15>) -> () loc(#loc)
        return %3 : tensor<1x1x1152xf32, #ttnn_layout13> loc(#loc)
      } loc(#loc)
      func.func private @main_const_eval_6(%arg0: tensor<256x1024xf32, #ttnn_layout23> loc(unknown), %arg1: tensor<256x1024xf32, #ttnn_layout23> loc(unknown), %arg2: tensor<2048x1024xf32, #ttnn_layout24> loc(unknown)) -> tensor<1024x2560xf32, #ttnn_layout25> attributes {tt.function_type = "const_eval"} {
        %0 = "ttnn.get_device"() <{mesh_offset = #ttnn<mesh_offset 0x0>, mesh_shape = #ttnn<mesh_shape 1x1>}> : () -> !ttnn.device loc(#loc)
        %1 = call @cpu_hoisted_const_eval_99b667bd(%arg0, %arg1, %arg2) {ttir.cpu_hoist_call} : (tensor<256x1024xf32, #ttnn_layout23>, tensor<256x1024xf32, #ttnn_layout23>, tensor<2048x1024xf32, #ttnn_layout24>) -> tensor<1024x2560xf32, #ttnn_layout26> loc(#loc)
        %2 = "ttnn.to_layout"(%1) <{layout = #ttnn.layout<tile>}> : (tensor<1024x2560xf32, #ttnn_layout26>) -> tensor<1024x2560xf32, #ttnn_layout27> loc(#loc)
        "ttnn.deallocate"(%1) <{force = false}> : (tensor<1024x2560xf32, #ttnn_layout26>) -> () loc(#loc)
        %3 = "ttnn.to_device"(%2, %0) <{memory_config = #ttnn.memory_config<#dram, <interleaved>>}> : (tensor<1024x2560xf32, #ttnn_layout27>, !ttnn.device) -> tensor<1024x2560xf32, #ttnn_layout25> loc(#loc)
        "ttnn.deallocate"(%2) <{force = false}> : (tensor<1024x2560xf32, #ttnn_layout27>) -> () loc(#loc)
        return %3 : tensor<1024x2560xf32, #ttnn_layout25> loc(#loc)
      } loc(#loc)
      func.func private @main_const_eval_7(%arg0: tensor<256x2048xf32, #ttnn_layout28> loc(unknown), %arg1: tensor<256x2048xf32, #ttnn_layout28> loc(unknown), %arg2: tensor<2048x2048xf32, #ttnn_layout29> loc(unknown)) -> tensor<2048x2560xf32, #ttnn_layout30> attributes {tt.function_type = "const_eval"} {
        %0 = "ttnn.get_device"() <{mesh_offset = #ttnn<mesh_offset 0x0>, mesh_shape = #ttnn<mesh_shape 1x1>}> : () -> !ttnn.device loc(#loc)
        %1 = call @cpu_hoisted_const_eval_32502db6(%arg2, %arg0, %arg1) {ttir.cpu_hoist_call} : (tensor<2048x2048xf32, #ttnn_layout29>, tensor<256x2048xf32, #ttnn_layout28>, tensor<256x2048xf32, #ttnn_layout28>) -> tensor<2048x2560xf32, #ttnn_layout31> loc(#loc)
        %2 = "ttnn.to_layout"(%1) <{layout = #ttnn.layout<tile>}> : (tensor<2048x2560xf32, #ttnn_layout31>) -> tensor<2048x2560xf32, #ttnn_layout32> loc(#loc)
        "ttnn.deallocate"(%1) <{force = false}> : (tensor<2048x2560xf32, #ttnn_layout31>) -> () loc(#loc)
        %3 = "ttnn.to_device"(%2, %0) <{memory_config = #ttnn.memory_config<#dram, <interleaved>>}> : (tensor<2048x2560xf32, #ttnn_layout32>, !ttnn.device) -> tensor<2048x2560xf32, #ttnn_layout30> loc(#loc)
        "ttnn.deallocate"(%2) <{force = false}> : (tensor<2048x2560xf32, #ttnn_layout32>) -> () loc(#loc)
        return %3 : tensor<2048x2560xf32, #ttnn_layout30> loc(#loc)
      } loc(#loc)
      func.func private @main_const_eval_8(%arg0: tensor<1152xf32, #ttnn_layout12> loc(unknown)) -> tensor<1x1x1152xf32, #ttnn_layout13> attributes {tt.function_type = "const_eval"} {
        %0 = "ttnn.get_device"() <{mesh_offset = #ttnn<mesh_offset 0x0>, mesh_shape = #ttnn<mesh_shape 1x1>}> : () -> !ttnn.device loc(#loc)
        %1 = call @cpu_hoisted_const_eval_9f0fd1a7(%arg0) {ttir.cpu_hoist_call} : (tensor<1152xf32, #ttnn_layout12>) -> tensor<1x1x1152xf32, #ttnn_layout14> loc(#loc)
        %2 = "ttnn.to_layout"(%1) <{layout = #ttnn.layout<tile>}> : (tensor<1x1x1152xf32, #ttnn_layout14>) -> tensor<1x1x1152xf32, #ttnn_layout15> loc(#loc)
        "ttnn.deallocate"(%1) <{force = false}> : (tensor<1x1x1152xf32, #ttnn_layout14>) -> () loc(#loc)
        %3 = "ttnn.to_device"(%2, %0) <{memory_config = #ttnn.memory_config<#dram, <interleaved>>}> : (tensor<1x1x1152xf32, #ttnn_layout15>, !ttnn.device) -> tensor<1x1x1152xf32, #ttnn_layout13> loc(#loc)
        "ttnn.deallocate"(%2) <{force = false}> : (tensor<1x1x1152xf32, #ttnn_layout15>) -> () loc(#loc)
        return %3 : tensor<1x1x1152xf32, #ttnn_layout13> loc(#loc)
      } loc(#loc)
      func.func private @main_const_eval_9(%arg0: tensor<1152xf32, #ttnn_layout12> loc(unknown)) -> tensor<1x1x1152xf32, #ttnn_layout13> attributes {tt.function_type = "const_eval"} {
        %0 = "ttnn.get_device"() <{mesh_offset = #ttnn<mesh_offset 0x0>, mesh_shape = #ttnn<mesh_shape 1x1>}> : () -> !ttnn.device loc(#loc)
        %1 = call @cpu_hoisted_const_eval_9f0fd1a7(%arg0) {ttir.cpu_hoist_call} : (tensor<1152xf32, #ttnn_layout12>) -> tensor<1x1x1152xf32, #ttnn_layout14> loc(#loc)
        %2 = "ttnn.to_layout"(%1) <{layout = #ttnn.layout<tile>}> : (tensor<1x1x1152xf32, #ttnn_layout14>) -> tensor<1x1x1152xf32, #ttnn_layout15> loc(#loc)
        "ttnn.deallocate"(%1) <{force = false}> : (tensor<1x1x1152xf32, #ttnn_layout14>) -> () loc(#loc)
        %3 = "ttnn.to_device"(%2, %0) <{memory_config = #ttnn.memory_config<#dram, <interleaved>>}> : (tensor<1x1x1152xf32, #ttnn_layout15>, !ttnn.device) -> tensor<1x1x1152xf32, #ttnn_layout13> loc(#loc)
        "ttnn.deallocate"(%2) <{force = false}> : (tensor<1x1x1152xf32, #ttnn_layout15>) -> () loc(#loc)
        return %3 : tensor<1x1x1152xf32, #ttnn_layout13> loc(#loc)
      } loc(#loc)
      func.func private @main_const_eval_10(%arg0: tensor<256x2048xf32, #ttnn_layout28> loc(unknown), %arg1: tensor<256x2048xf32, #ttnn_layout28> loc(unknown), %arg2: tensor<2048x2048xf32, #ttnn_layout29> loc(unknown)) -> tensor<2048x2560xf32, #ttnn_layout30> attributes {tt.function_type = "const_eval"} {
        %0 = "ttnn.get_device"() <{mesh_offset = #ttnn<mesh_offset 0x0>, mesh_shape = #ttnn<mesh_shape 1x1>}> : () -> !ttnn.device loc(#loc)
        %1 = call @cpu_hoisted_const_eval_32502db6(%arg2, %arg0, %arg1) {ttir.cpu_hoist_call} : (tensor<2048x2048xf32, #ttnn_layout29>, tensor<256x2048xf32, #ttnn_layout28>, tensor<256x2048xf32, #ttnn_layout28>) -> tensor<2048x2560xf32, #ttnn_layout31> loc(#loc)
        %2 = "ttnn.to_layout"(%1) <{layout = #ttnn.layout<tile>}> : (tensor<2048x2560xf32, #ttnn_layout31>) -> tensor<2048x2560xf32, #ttnn_layout32> loc(#loc)
        "ttnn.deallocate"(%1) <{force = false}> : (tensor<2048x2560xf32, #ttnn_layout31>) -> () loc(#loc)
        %3 = "ttnn.to_device"(%2, %0) <{memory_config = #ttnn.memory_config<#dram, <interleaved>>}> : (tensor<2048x2560xf32, #ttnn_layout32>, !ttnn.device) -> tensor<2048x2560xf32, #ttnn_layout30> loc(#loc)
        "ttnn.deallocate"(%2) <{force = false}> : (tensor<2048x2560xf32, #ttnn_layout32>) -> () loc(#loc)
        return %3 : tensor<2048x2560xf32, #ttnn_layout30> loc(#loc)
      } loc(#loc)
      func.func private @main_const_eval_11(%arg0: tensor<1152xf32, #ttnn_layout12> loc(unknown)) -> tensor<1x1x1152xf32, #ttnn_layout13> attributes {tt.function_type = "const_eval"} {
        %0 = "ttnn.get_device"() <{mesh_offset = #ttnn<mesh_offset 0x0>, mesh_shape = #ttnn<mesh_shape 1x1>}> : () -> !ttnn.device loc(#loc)
        %1 = call @cpu_hoisted_const_eval_9f0fd1a7(%arg0) {ttir.cpu_hoist_call} : (tensor<1152xf32, #ttnn_layout12>) -> tensor<1x1x1152xf32, #ttnn_layout14> loc(#loc)
        %2 = "ttnn.to_layout"(%1) <{layout = #ttnn.layout<tile>}> : (tensor<1x1x1152xf32, #ttnn_layout14>) -> tensor<1x1x1152xf32, #ttnn_layout15> loc(#loc)
        "ttnn.deallocate"(%1) <{force = false}> : (tensor<1x1x1152xf32, #ttnn_layout14>) -> () loc(#loc)
        %3 = "ttnn.to_device"(%2, %0) <{memory_config = #ttnn.memory_config<#dram, <interleaved>>}> : (tensor<1x1x1152xf32, #ttnn_layout15>, !ttnn.device) -> tensor<1x1x1152xf32, #ttnn_layout13> loc(#loc)
        "ttnn.deallocate"(%2) <{force = false}> : (tensor<1x1x1152xf32, #ttnn_layout15>) -> () loc(#loc)
        return %3 : tensor<1x1x1152xf32, #ttnn_layout13> loc(#loc)
      } loc(#loc)
      func.func private @main_const_eval_12(%arg0: tensor<1152xf32, #ttnn_layout12> loc(unknown)) -> tensor<1x1x1152xf32, #ttnn_layout13> attributes {tt.function_type = "const_eval"} {
        %0 = "ttnn.get_device"() <{mesh_offset = #ttnn<mesh_offset 0x0>, mesh_shape = #ttnn<mesh_shape 1x1>}> : () -> !ttnn.device loc(#loc)
        %1 = call @cpu_hoisted_const_eval_9f0fd1a7(%arg0) {ttir.cpu_hoist_call} : (tensor<1152xf32, #ttnn_layout12>) -> tensor<1x1x1152xf32, #ttnn_layout14> loc(#loc)
        %2 = "ttnn.to_layout"(%1) <{layout = #ttnn.layout<tile>}> : (tensor<1x1x1152xf32, #ttnn_layout14>) -> tensor<1x1x1152xf32, #ttnn_layout15> loc(#loc)
        "ttnn.deallocate"(%1) <{force = false}> : (tensor<1x1x1152xf32, #ttnn_layout14>) -> () loc(#loc)
        %3 = "ttnn.to_device"(%2, %0) <{memory_config = #ttnn.memory_config<#dram, <interleaved>>}> : (tensor<1x1x1152xf32, #ttnn_layout15>, !ttnn.device) -> tensor<1x1x1152xf32, #ttnn_layout13> loc(#loc)
        "ttnn.deallocate"(%2) <{force = false}> : (tensor<1x1x1152xf32, #ttnn_layout15>) -> () loc(#loc)
        return %3 : tensor<1x1x1152xf32, #ttnn_layout13> loc(#loc)
      } loc(#loc)
      func.func private @main_const_eval_13(%arg0: tensor<1152x1152xf32, #ttnn_layout19> loc(unknown), %arg1: tensor<1152x1152xf32, #ttnn_layout19> loc(unknown), %arg2: tensor<1152x1152xf32, #ttnn_layout19> loc(unknown)) -> tensor<1152x3456xf32, #ttnn_layout20> attributes {tt.function_type = "const_eval"} {
        %0 = "ttnn.get_device"() <{mesh_offset = #ttnn<mesh_offset 0x0>, mesh_shape = #ttnn<mesh_shape 1x1>}> : () -> !ttnn.device loc(#loc)
        %1 = call @cpu_hoisted_const_eval_59f6b97d(%arg1, %arg0, %arg2) {ttir.cpu_hoist_call} : (tensor<1152x1152xf32, #ttnn_layout19>, tensor<1152x1152xf32, #ttnn_layout19>, tensor<1152x1152xf32, #ttnn_layout19>) -> tensor<1152x3456xf32, #ttnn_layout21> loc(#loc)
        %2 = "ttnn.to_layout"(%1) <{layout = #ttnn.layout<tile>}> : (tensor<1152x3456xf32, #ttnn_layout21>) -> tensor<1152x3456xf32, #ttnn_layout22> loc(#loc)
        "ttnn.deallocate"(%1) <{force = false}> : (tensor<1152x3456xf32, #ttnn_layout21>) -> () loc(#loc)
        %3 = "ttnn.to_device"(%2, %0) <{memory_config = #ttnn.memory_config<#dram, <interleaved>>}> : (tensor<1152x3456xf32, #ttnn_layout22>, !ttnn.device) -> tensor<1152x3456xf32, #ttnn_layout20> loc(#loc)
        "ttnn.deallocate"(%2) <{force = false}> : (tensor<1152x3456xf32, #ttnn_layout22>) -> () loc(#loc)
        return %3 : tensor<1152x3456xf32, #ttnn_layout20> loc(#loc)
      } loc(#loc)
      func.func private @main_const_eval_14(%arg0: tensor<1152xf32, #ttnn_layout12> loc(unknown)) -> tensor<1x1x1152xf32, #ttnn_layout13> attributes {tt.function_type = "const_eval"} {
        %0 = "ttnn.get_device"() <{mesh_offset = #ttnn<mesh_offset 0x0>, mesh_shape = #ttnn<mesh_shape 1x1>}> : () -> !ttnn.device loc(#loc)
        %1 = call @cpu_hoisted_const_eval_9f0fd1a7(%arg0) {ttir.cpu_hoist_call} : (tensor<1152xf32, #ttnn_layout12>) -> tensor<1x1x1152xf32, #ttnn_layout14> loc(#loc)
        %2 = "ttnn.to_layout"(%1) <{layout = #ttnn.layout<tile>}> : (tensor<1x1x1152xf32, #ttnn_layout14>) -> tensor<1x1x1152xf32, #ttnn_layout15> loc(#loc)
        "ttnn.deallocate"(%1) <{force = false}> : (tensor<1x1x1152xf32, #ttnn_layout14>) -> () loc(#loc)
        %3 = "ttnn.to_device"(%2, %0) <{memory_config = #ttnn.memory_config<#dram, <interleaved>>}> : (tensor<1x1x1152xf32, #ttnn_layout15>, !ttnn.device) -> tensor<1x1x1152xf32, #ttnn_layout13> loc(#loc)
        "ttnn.deallocate"(%2) <{force = false}> : (tensor<1x1x1152xf32, #ttnn_layout15>) -> () loc(#loc)
        return %3 : tensor<1x1x1152xf32, #ttnn_layout13> loc(#loc)
      } loc(#loc)
      func.func private @main_const_eval_15(%arg0: tensor<1152xf32, #ttnn_layout12> loc(unknown), %arg1: tensor<1152xf32, #ttnn_layout12> loc(unknown), %arg2: tensor<1152xf32, #ttnn_layout12> loc(unknown)) -> tensor<1x1x3456xf32, #ttnn_layout16> attributes {tt.function_type = "const_eval"} {
        %0 = "ttnn.get_device"() <{mesh_offset = #ttnn<mesh_offset 0x0>, mesh_shape = #ttnn<mesh_shape 1x1>}> : () -> !ttnn.device loc(#loc)
        %1 = call @cpu_hoisted_const_eval_b9a4c459(%arg2, %arg1, %arg0) {ttir.cpu_hoist_call} : (tensor<1152xf32, #ttnn_layout12>, tensor<1152xf32, #ttnn_layout12>, tensor<1152xf32, #ttnn_layout12>) -> tensor<1x1x3456xf32, #ttnn_layout17> loc(#loc)
        %2 = "ttnn.to_layout"(%1) <{layout = #ttnn.layout<tile>}> : (tensor<1x1x3456xf32, #ttnn_layout17>) -> tensor<1x1x3456xf32, #ttnn_layout18> loc(#loc)
        "ttnn.deallocate"(%1) <{force = false}> : (tensor<1x1x3456xf32, #ttnn_layout17>) -> () loc(#loc)
        %3 = "ttnn.to_device"(%2, %0) <{memory_config = #ttnn.memory_config<#dram, <interleaved>>}> : (tensor<1x1x3456xf32, #ttnn_layout18>, !ttnn.device) -> tensor<1x1x3456xf32, #ttnn_layout16> loc(#loc)
        "ttnn.deallocate"(%2) <{force = false}> : (tensor<1x1x3456xf32, #ttnn_layout18>) -> () loc(#loc)
        return %3 : tensor<1x1x3456xf32, #ttnn_layout16> loc(#loc)
      } loc(#loc)
      func.func private @main_const_eval_16(%arg0: tensor<1152x1152xf32, #ttnn_layout19> loc(unknown), %arg1: tensor<1152x1152xf32, #ttnn_layout19> loc(unknown), %arg2: tensor<1152x1152xf32, #ttnn_layout19> loc(unknown)) -> tensor<1152x3456xf32, #ttnn_layout20> attributes {tt.function_type = "const_eval"} {
        %0 = "ttnn.get_device"() <{mesh_offset = #ttnn<mesh_offset 0x0>, mesh_shape = #ttnn<mesh_shape 1x1>}> : () -> !ttnn.device loc(#loc)
        %1 = call @cpu_hoisted_const_eval_59f6b97d(%arg1, %arg0, %arg2) {ttir.cpu_hoist_call} : (tensor<1152x1152xf32, #ttnn_layout19>, tensor<1152x1152xf32, #ttnn_layout19>, tensor<1152x1152xf32, #ttnn_layout19>) -> tensor<1152x3456xf32, #ttnn_layout21> loc(#loc)
        %2 = "ttnn.to_layout"(%1) <{layout = #ttnn.layout<tile>}> : (tensor<1152x3456xf32, #ttnn_layout21>) -> tensor<1152x3456xf32, #ttnn_layout22> loc(#loc)
        "ttnn.deallocate"(%1) <{force = false}> : (tensor<1152x3456xf32, #ttnn_layout21>) -> () loc(#loc)
        %3 = "ttnn.to_device"(%2, %0) <{memory_config = #ttnn.memory_config<#dram, <interleaved>>}> : (tensor<1152x3456xf32, #ttnn_layout22>, !ttnn.device) -> tensor<1152x3456xf32, #ttnn_layout20> loc(#loc)
        "ttnn.deallocate"(%2) <{force = false}> : (tensor<1152x3456xf32, #ttnn_layout22>) -> () loc(#loc)
        return %3 : tensor<1152x3456xf32, #ttnn_layout20> loc(#loc)
      } loc(#loc)
      func.func private @main_const_eval_17(%arg0: tensor<4304xf32, #ttnn_layout33> loc(unknown)) -> tensor<1x1x4304xf32, #ttnn_layout34> attributes {tt.function_type = "const_eval"} {
        %0 = "ttnn.get_device"() <{mesh_offset = #ttnn<mesh_offset 0x0>, mesh_shape = #ttnn<mesh_shape 1x1>}> : () -> !ttnn.device loc(#loc)
        %1 = call @cpu_hoisted_const_eval_9c930e84(%arg0) {ttir.cpu_hoist_call} : (tensor<4304xf32, #ttnn_layout33>) -> tensor<1x1x4304xf32, #ttnn_layout35> loc(#loc)
        %2 = "ttnn.to_layout"(%1) <{layout = #ttnn.layout<tile>}> : (tensor<1x1x4304xf32, #ttnn_layout35>) -> tensor<1x1x4304xf32, #ttnn_layout36> loc(#loc)
        "ttnn.deallocate"(%1) <{force = false}> : (tensor<1x1x4304xf32, #ttnn_layout35>) -> () loc(#loc)
        %3 = "ttnn.to_device"(%2, %0) <{memory_config = #ttnn.memory_config<#dram, <interleaved>>}> : (tensor<1x1x4304xf32, #ttnn_layout36>, !ttnn.device) -> tensor<1x1x4304xf32, #ttnn_layout34> loc(#loc)
        "ttnn.deallocate"(%2) <{force = false}> : (tensor<1x1x4304xf32, #ttnn_layout36>) -> () loc(#loc)
        return %3 : tensor<1x1x4304xf32, #ttnn_layout34> loc(#loc)
      } loc(#loc)
      func.func private @main_const_eval_18() -> tensor<1x1x1x1xf32, #ttnn_layout37> attributes {tt.function_type = "const_eval"} {
        %0 = "ttnn.get_device"() <{mesh_offset = #ttnn<mesh_offset 0x0>, mesh_shape = #ttnn<mesh_shape 1x1>}> : () -> !ttnn.device loc(#loc1)
        %1 = "ttnn.full"(%0) <{dtype = #ttcore.supportedDataTypes<f32>, fill_value = 0.117851131 : f32, layout = #ttnn.layout<tile>, shape = #ttnn.shape<1x1x1x1>}> : (!ttnn.device) -> tensor<1x1x1x1xf32, #ttnn_layout37> loc(#loc)
        return %1 : tensor<1x1x1x1xf32, #ttnn_layout37> loc(#loc)
      } loc(#loc)
      func.func private @main_const_eval_19(%arg0: tensor<1152x1152xf32, #ttnn_layout19> loc(unknown), %arg1: tensor<1152x1152xf32, #ttnn_layout19> loc(unknown), %arg2: tensor<1152x1152xf32, #ttnn_layout19> loc(unknown)) -> tensor<1152x3456xf32, #ttnn_layout20> attributes {tt.function_type = "const_eval"} {
        %0 = "ttnn.get_device"() <{mesh_offset = #ttnn<mesh_offset 0x0>, mesh_shape = #ttnn<mesh_shape 1x1>}> : () -> !ttnn.device loc(#loc)
        %1 = call @cpu_hoisted_const_eval_59f6b97d(%arg1, %arg0, %arg2) {ttir.cpu_hoist_call} : (tensor<1152x1152xf32, #ttnn_layout19>, tensor<1152x1152xf32, #ttnn_layout19>, tensor<1152x1152xf32, #ttnn_layout19>) -> tensor<1152x3456xf32, #ttnn_layout21> loc(#loc)
        %2 = "ttnn.to_layout"(%1) <{layout = #ttnn.layout<tile>}> : (tensor<1152x3456xf32, #ttnn_layout21>) -> tensor<1152x3456xf32, #ttnn_layout22> loc(#loc)
        "ttnn.deallocate"(%1) <{force = false}> : (tensor<1152x3456xf32, #ttnn_layout21>) -> () loc(#loc)
        %3 = "ttnn.to_device"(%2, %0) <{memory_config = #ttnn.memory_config<#dram, <interleaved>>}> : (tensor<1152x3456xf32, #ttnn_layout22>, !ttnn.device) -> tensor<1152x3456xf32, #ttnn_layout20> loc(#loc)
        "ttnn.deallocate"(%2) <{force = false}> : (tensor<1152x3456xf32, #ttnn_layout22>) -> () loc(#loc)
        return %3 : tensor<1152x3456xf32, #ttnn_layout20> loc(#loc)
      } loc(#loc)
      func.func private @main_const_eval_20(%arg0: tensor<1152x1152xf32, #ttnn_layout19> loc(unknown), %arg1: tensor<1152x1152xf32, #ttnn_layout19> loc(unknown), %arg2: tensor<1152x1152xf32, #ttnn_layout19> loc(unknown)) -> tensor<1152x3456xf32, #ttnn_layout20> attributes {tt.function_type = "const_eval"} {
        %0 = "ttnn.get_device"() <{mesh_offset = #ttnn<mesh_offset 0x0>, mesh_shape = #ttnn<mesh_shape 1x1>}> : () -> !ttnn.device loc(#loc)
        %1 = call @cpu_hoisted_const_eval_59f6b97d(%arg1, %arg0, %arg2) {ttir.cpu_hoist_call} : (tensor<1152x1152xf32, #ttnn_layout19>, tensor<1152x1152xf32, #ttnn_layout19>, tensor<1152x1152xf32, #ttnn_layout19>) -> tensor<1152x3456xf32, #ttnn_layout21> loc(#loc)
        %2 = "ttnn.to_layout"(%1) <{layout = #ttnn.layout<tile>}> : (tensor<1152x3456xf32, #ttnn_layout21>) -> tensor<1152x3456xf32, #ttnn_layout22> loc(#loc)
        "ttnn.deallocate"(%1) <{force = false}> : (tensor<1152x3456xf32, #ttnn_layout21>) -> () loc(#loc)
        %3 = "ttnn.to_device"(%2, %0) <{memory_config = #ttnn.memory_config<#dram, <interleaved>>}> : (tensor<1152x3456xf32, #ttnn_layout22>, !ttnn.device) -> tensor<1152x3456xf32, #ttnn_layout20> loc(#loc)
        "ttnn.deallocate"(%2) <{force = false}> : (tensor<1152x3456xf32, #ttnn_layout22>) -> () loc(#loc)
        return %3 : tensor<1152x3456xf32, #ttnn_layout20> loc(#loc)
      } loc(#loc)
      func.func private @main_const_eval_21(%arg0: tensor<4304xf32, #ttnn_layout33> loc(unknown)) -> tensor<1x1x4304xf32, #ttnn_layout34> attributes {tt.function_type = "const_eval"} {
        %0 = "ttnn.get_device"() <{mesh_offset = #ttnn<mesh_offset 0x0>, mesh_shape = #ttnn<mesh_shape 1x1>}> : () -> !ttnn.device loc(#loc)
        %1 = call @cpu_hoisted_const_eval_9c930e84(%arg0) {ttir.cpu_hoist_call} : (tensor<4304xf32, #ttnn_layout33>) -> tensor<1x1x4304xf32, #ttnn_layout35> loc(#loc)
        %2 = "ttnn.to_layout"(%1) <{layout = #ttnn.layout<tile>}> : (tensor<1x1x4304xf32, #ttnn_layout35>) -> tensor<1x1x4304xf32, #ttnn_layout36> loc(#loc)
        "ttnn.deallocate"(%1) <{force = false}> : (tensor<1x1x4304xf32, #ttnn_layout35>) -> () loc(#loc)
        %3 = "ttnn.to_device"(%2, %0) <{memory_config = #ttnn.memory_config<#dram, <interleaved>>}> : (tensor<1x1x4304xf32, #ttnn_layout36>, !ttnn.device) -> tensor<1x1x4304xf32, #ttnn_layout34> loc(#loc)
        "ttnn.deallocate"(%2) <{force = false}> : (tensor<1x1x4304xf32, #ttnn_layout36>) -> () loc(#loc)
        return %3 : tensor<1x1x4304xf32, #ttnn_layout34> loc(#loc)
      } loc(#loc)
      func.func private @main_const_eval_22(%arg0: tensor<4304xf32, #ttnn_layout33> loc(unknown)) -> tensor<1x1x4304xf32, #ttnn_layout34> attributes {tt.function_type = "const_eval"} {
        %0 = "ttnn.get_device"() <{mesh_offset = #ttnn<mesh_offset 0x0>, mesh_shape = #ttnn<mesh_shape 1x1>}> : () -> !ttnn.device loc(#loc)
        %1 = call @cpu_hoisted_const_eval_9c930e84(%arg0) {ttir.cpu_hoist_call} : (tensor<4304xf32, #ttnn_layout33>) -> tensor<1x1x4304xf32, #ttnn_layout35> loc(#loc)
        %2 = "ttnn.to_layout"(%1) <{layout = #ttnn.layout<tile>}> : (tensor<1x1x4304xf32, #ttnn_layout35>) -> tensor<1x1x4304xf32, #ttnn_layout36> loc(#loc)
        "ttnn.deallocate"(%1) <{force = false}> : (tensor<1x1x4304xf32, #ttnn_layout35>) -> () loc(#loc)
        %3 = "ttnn.to_device"(%2, %0) <{memory_config = #ttnn.memory_config<#dram, <interleaved>>}> : (tensor<1x1x4304xf32, #ttnn_layout36>, !ttnn.device) -> tensor<1x1x4304xf32, #ttnn_layout34> loc(#loc)
        "ttnn.deallocate"(%2) <{force = false}> : (tensor<1x1x4304xf32, #ttnn_layout36>) -> () loc(#loc)
        return %3 : tensor<1x1x4304xf32, #ttnn_layout34> loc(#loc)
      } loc(#loc)
      func.func private @main_const_eval_23(%arg0: tensor<256x2048xf32, #ttnn_layout28> loc(unknown), %arg1: tensor<256x2048xf32, #ttnn_layout28> loc(unknown), %arg2: tensor<2048x2048xf32, #ttnn_layout29> loc(unknown)) -> tensor<2048x2560xf32, #ttnn_layout30> attributes {tt.function_type = "const_eval"} {
        %0 = "ttnn.get_device"() <{mesh_offset = #ttnn<mesh_offset 0x0>, mesh_shape = #ttnn<mesh_shape 1x1>}> : () -> !ttnn.device loc(#loc)
        %1 = call @cpu_hoisted_const_eval_32502db6(%arg2, %arg0, %arg1) {ttir.cpu_hoist_call} : (tensor<2048x2048xf32, #ttnn_layout29>, tensor<256x2048xf32, #ttnn_layout28>, tensor<256x2048xf32, #ttnn_layout28>) -> tensor<2048x2560xf32, #ttnn_layout31> loc(#loc)
        %2 = "ttnn.to_layout"(%1) <{layout = #ttnn.layout<tile>}> : (tensor<2048x2560xf32, #ttnn_layout31>) -> tensor<2048x2560xf32, #ttnn_layout32> loc(#loc)
        "ttnn.deallocate"(%1) <{force = false}> : (tensor<2048x2560xf32, #ttnn_layout31>) -> () loc(#loc)
        %3 = "ttnn.to_device"(%2, %0) <{memory_config = #ttnn.memory_config<#dram, <interleaved>>}> : (tensor<2048x2560xf32, #ttnn_layout32>, !ttnn.device) -> tensor<2048x2560xf32, #ttnn_layout30> loc(#loc)
        "ttnn.deallocate"(%2) <{force = false}> : (tensor<2048x2560xf32, #ttnn_layout32>) -> () loc(#loc)
        return %3 : tensor<2048x2560xf32, #ttnn_layout30> loc(#loc)
      } loc(#loc)
      func.func private @main_const_eval_24() -> tensor<1x1xf32, #ttnn_layout38> attributes {tt.function_type = "const_eval"} {
        %0 = "ttnn.get_device"() <{mesh_offset = #ttnn<mesh_offset 0x0>, mesh_shape = #ttnn<mesh_shape 1x1>}> : () -> !ttnn.device loc(#loc1)
        %1 = "ttnn.full"(%0) <{dtype = #ttcore.supportedDataTypes<f32>, fill_value = -5.000000e-01 : f32, layout = #ttnn.layout<tile>, shape = #ttnn.shape<1x1>}> : (!ttnn.device) -> tensor<1x1xf32, #ttnn_layout38> loc(#loc4651)
        return %1 : tensor<1x1xf32, #ttnn_layout38> loc(#loc)
      } loc(#loc)
      func.func private @main_const_eval_25(%arg0: tensor<1152xf32, #ttnn_layout12> loc(unknown), %arg1: tensor<1152xf32, #ttnn_layout12> loc(unknown), %arg2: tensor<1152xf32, #ttnn_layout12> loc(unknown)) -> tensor<1x1x3456xf32, #ttnn_layout16> attributes {tt.function_type = "const_eval"} {
        %0 = "ttnn.get_device"() <{mesh_offset = #ttnn<mesh_offset 0x0>, mesh_shape = #ttnn<mesh_shape 1x1>}> : () -> !ttnn.device loc(#loc)
        %1 = call @cpu_hoisted_const_eval_b9a4c459(%arg2, %arg1, %arg0) {ttir.cpu_hoist_call} : (tensor<1152xf32, #ttnn_layout12>, tensor<1152xf32, #ttnn_layout12>, tensor<1152xf32, #ttnn_layout12>) -> tensor<1x1x3456xf32, #ttnn_layout17> loc(#loc)
        %2 = "ttnn.to_layout"(%1) <{layout = #ttnn.layout<tile>}> : (tensor<1x1x3456xf32, #ttnn_layout17>) -> tensor<1x1x3456xf32, #ttnn_layout18> loc(#loc)
        "ttnn.deallocate"(%1) <{force = false}> : (tensor<1x1x3456xf32, #ttnn_layout17>) -> () loc(#loc)
        %3 = "ttnn.to_device"(%2, %0) <{memory_config = #ttnn.memory_config<#dram, <interleaved>>}> : (tensor<1x1x3456xf32, #ttnn_layout18>, !ttnn.device) -> tensor<1x1x3456xf32, #ttnn_layout16> loc(#loc)
        "ttnn.deallocate"(%2) <{force = false}> : (tensor<1x1x3456xf32, #ttnn_layout18>) -> () loc(#loc)
        return %3 : tensor<1x1x3456xf32, #ttnn_layout16> loc(#loc)
      } loc(#loc)
      func.func private @main_const_eval_26(%arg0: tensor<4304xf32, #ttnn_layout33> loc(unknown)) -> tensor<1x1x4304xf32, #ttnn_layout34> attributes {tt.function_type = "const_eval"} {
        %0 = "ttnn.get_device"() <{mesh_offset = #ttnn<mesh_offset 0x0>, mesh_shape = #ttnn<mesh_shape 1x1>}> : () -> !ttnn.device loc(#loc)
        %1 = call @cpu_hoisted_const_eval_9c930e84(%arg0) {ttir.cpu_hoist_call} : (tensor<4304xf32, #ttnn_layout33>) -> tensor<1x1x4304xf32, #ttnn_layout35> loc(#loc)
        %2 = "ttnn.to_layout"(%1) <{layout = #ttnn.layout<tile>}> : (tensor<1x1x4304xf32, #ttnn_layout35>) -> tensor<1x1x4304xf32, #ttnn_layout36> loc(#loc)
        "ttnn.deallocate"(%1) <{force = false}> : (tensor<1x1x4304xf32, #ttnn_layout35>) -> () loc(#loc)
        %3 = "ttnn.to_device"(%2, %0) <{memory_config = #ttnn.memory_config<#dram, <interleaved>>}> : (tensor<1x1x4304xf32, #ttnn_layout36>, !ttnn.device) -> tensor<1x1x4304xf32, #ttnn_layout34> loc(#loc)
        "ttnn.deallocate"(%2) <{force = false}> : (tensor<1x1x4304xf32, #ttnn_layout36>) -> () loc(#loc)
        return %3 : tensor<1x1x4304xf32, #ttnn_layout34> loc(#loc)
      } loc(#loc)
      func.func private @main_const_eval_27(%arg0: tensor<1152xf32, #ttnn_layout12> loc(unknown)) -> tensor<1x1x1152xf32, #ttnn_layout13> attributes {tt.function_type = "const_eval"} {
        %0 = "ttnn.get_device"() <{mesh_offset = #ttnn<mesh_offset 0x0>, mesh_shape = #ttnn<mesh_shape 1x1>}> : () -> !ttnn.device loc(#loc)
        %1 = call @cpu_hoisted_const_eval_9f0fd1a7(%arg0) {ttir.cpu_hoist_call} : (tensor<1152xf32, #ttnn_layout12>) -> tensor<1x1x1152xf32, #ttnn_layout14> loc(#loc)
        %2 = "ttnn.to_layout"(%1) <{layout = #ttnn.layout<tile>}> : (tensor<1x1x1152xf32, #ttnn_layout14>) -> tensor<1x1x1152xf32, #ttnn_layout15> loc(#loc)
        "ttnn.deallocate"(%1) <{force = false}> : (tensor<1x1x1152xf32, #ttnn_layout14>) -> () loc(#loc)
        %3 = "ttnn.to_device"(%2, %0) <{memory_config = #ttnn.memory_config<#dram, <interleaved>>}> : (tensor<1x1x1152xf32, #ttnn_layout15>, !ttnn.device) -> tensor<1x1x1152xf32, #ttnn_layout13> loc(#loc)
        "ttnn.deallocate"(%2) <{force = false}> : (tensor<1x1x1152xf32, #ttnn_layout15>) -> () loc(#loc)
        return %3 : tensor<1x1x1152xf32, #ttnn_layout13> loc(#loc)
      } loc(#loc)
      func.func private @main_const_eval_28(%arg0: tensor<1152x1152xf32, #ttnn_layout19> loc(unknown), %arg1: tensor<1152x1152xf32, #ttnn_layout19> loc(unknown), %arg2: tensor<1152x1152xf32, #ttnn_layout19> loc(unknown)) -> tensor<1152x3456xf32, #ttnn_layout20> attributes {tt.function_type = "const_eval"} {
        %0 = "ttnn.get_device"() <{mesh_offset = #ttnn<mesh_offset 0x0>, mesh_shape = #ttnn<mesh_shape 1x1>}> : () -> !ttnn.device loc(#loc)
        %1 = call @cpu_hoisted_const_eval_59f6b97d(%arg1, %arg0, %arg2) {ttir.cpu_hoist_call} : (tensor<1152x1152xf32, #ttnn_layout19>, tensor<1152x1152xf32, #ttnn_layout19>, tensor<1152x1152xf32, #ttnn_layout19>) -> tensor<1152x3456xf32, #ttnn_layout21> loc(#loc)
        %2 = "ttnn.to_layout"(%1) <{layout = #ttnn.layout<tile>}> : (tensor<1152x3456xf32, #ttnn_layout21>) -> tensor<1152x3456xf32, #ttnn_layout22> loc(#loc)
        "ttnn.deallocate"(%1) <{force = false}> : (tensor<1152x3456xf32, #ttnn_layout21>) -> () loc(#loc)
        %3 = "ttnn.to_device"(%2, %0) <{memory_config = #ttnn.memory_config<#dram, <interleaved>>}> : (tensor<1152x3456xf32, #ttnn_layout22>, !ttnn.device) -> tensor<1152x3456xf32, #ttnn_layout20> loc(#loc)
        "ttnn.deallocate"(%2) <{force = false}> : (tensor<1152x3456xf32, #ttnn_layout22>) -> () loc(#loc)
        return %3 : tensor<1152x3456xf32, #ttnn_layout20> loc(#loc)
      } loc(#loc)
      func.func private @main_const_eval_29(%arg0: tensor<256x1024xf32, #ttnn_layout23> loc(unknown), %arg1: tensor<256x1024xf32, #ttnn_layout23> loc(unknown), %arg2: tensor<2048x1024xf32, #ttnn_layout24> loc(unknown)) -> tensor<1024x2560xf32, #ttnn_layout25> attributes {tt.function_type = "const_eval"} {
        %0 = "ttnn.get_device"() <{mesh_offset = #ttnn<mesh_offset 0x0>, mesh_shape = #ttnn<mesh_shape 1x1>}> : () -> !ttnn.device loc(#loc)
        %1 = call @cpu_hoisted_const_eval_99b667bd(%arg0, %arg1, %arg2) {ttir.cpu_hoist_call} : (tensor<256x1024xf32, #ttnn_layout23>, tensor<256x1024xf32, #ttnn_layout23>, tensor<2048x1024xf32, #ttnn_layout24>) -> tensor<1024x2560xf32, #ttnn_layout26> loc(#loc)
        %2 = "ttnn.to_layout"(%1) <{layout = #ttnn.layout<tile>}> : (tensor<1024x2560xf32, #ttnn_layout26>) -> tensor<1024x2560xf32, #ttnn_layout27> loc(#loc)
        "ttnn.deallocate"(%1) <{force = false}> : (tensor<1024x2560xf32, #ttnn_layout26>) -> () loc(#loc)
        %3 = "ttnn.to_device"(%2, %0) <{memory_config = #ttnn.memory_config<#dram, <interleaved>>}> : (tensor<1024x2560xf32, #ttnn_layout27>, !ttnn.device) -> tensor<1024x2560xf32, #ttnn_layout25> loc(#loc)
        "ttnn.deallocate"(%2) <{force = false}> : (tensor<1024x2560xf32, #ttnn_layout27>) -> () loc(#loc)
        return %3 : tensor<1024x2560xf32, #ttnn_layout25> loc(#loc)
      } loc(#loc)
      func.func private @main_const_eval_30(%arg0: tensor<1152xf32, #ttnn_layout12> loc(unknown)) -> tensor<1x1x1152xf32, #ttnn_layout13> attributes {tt.function_type = "const_eval"} {
        %0 = "ttnn.get_device"() <{mesh_offset = #ttnn<mesh_offset 0x0>, mesh_shape = #ttnn<mesh_shape 1x1>}> : () -> !ttnn.device loc(#loc)
        %1 = call @cpu_hoisted_const_eval_9f0fd1a7(%arg0) {ttir.cpu_hoist_call} : (tensor<1152xf32, #ttnn_layout12>) -> tensor<1x1x1152xf32, #ttnn_layout14> loc(#loc)
        %2 = "ttnn.to_layout"(%1) <{layout = #ttnn.layout<tile>}> : (tensor<1x1x1152xf32, #ttnn_layout14>) -> tensor<1x1x1152xf32, #ttnn_layout15> loc(#loc)
        "ttnn.deallocate"(%1) <{force = false}> : (tensor<1x1x1152xf32, #ttnn_layout14>) -> () loc(#loc)
        %3 = "ttnn.to_device"(%2, %0) <{memory_config = #ttnn.memory_config<#dram, <interleaved>>}> : (tensor<1x1x1152xf32, #ttnn_layout15>, !ttnn.device) -> tensor<1x1x1152xf32, #ttnn_layout13> loc(#loc)
        "ttnn.deallocate"(%2) <{force = false}> : (tensor<1x1x1152xf32, #ttnn_layout15>) -> () loc(#loc)
        return %3 : tensor<1x1x1152xf32, #ttnn_layout13> loc(#loc)
      } loc(#loc)
      func.func private @main_const_eval_31(%arg0: tensor<1152xf32, #ttnn_layout12> loc(unknown)) -> tensor<1x1x1152xf32, #ttnn_layout13> attributes {tt.function_type = "const_eval"} {
        %0 = "ttnn.get_device"() <{mesh_offset = #ttnn<mesh_offset 0x0>, mesh_shape = #ttnn<mesh_shape 1x1>}> : () -> !ttnn.device loc(#loc)
        %1 = call @cpu_hoisted_const_eval_9f0fd1a7(%arg0) {ttir.cpu_hoist_call} : (tensor<1152xf32, #ttnn_layout12>) -> tensor<1x1x1152xf32, #ttnn_layout14> loc(#loc)
        %2 = "ttnn.to_layout"(%1) <{layout = #ttnn.layout<tile>}> : (tensor<1x1x1152xf32, #ttnn_layout14>) -> tensor<1x1x1152xf32, #ttnn_layout15> loc(#loc)
        "ttnn.deallocate"(%1) <{force = false}> : (tensor<1x1x1152xf32, #ttnn_layout14>) -> () loc(#loc)
        %3 = "ttnn.to_device"(%2, %0) <{memory_config = #ttnn.memory_config<#dram, <interleaved>>}> : (tensor<1x1x1152xf32, #ttnn_layout15>, !ttnn.device) -> tensor<1x1x1152xf32, #ttnn_layout13> loc(#loc)
        "ttnn.deallocate"(%2) <{force = false}> : (tensor<1x1x1152xf32, #ttnn_layout15>) -> () loc(#loc)
        return %3 : tensor<1x1x1152xf32, #ttnn_layout13> loc(#loc)
      } loc(#loc)
      func.func private @main_const_eval_32(%arg0: tensor<1152xf32, #ttnn_layout12> loc(unknown)) -> tensor<1x1x1152xf32, #ttnn_layout13> attributes {tt.function_type = "const_eval"} {
        %0 = "ttnn.get_device"() <{mesh_offset = #ttnn<mesh_offset 0x0>, mesh_shape = #ttnn<mesh_shape 1x1>}> : () -> !ttnn.device loc(#loc)
        %1 = call @cpu_hoisted_const_eval_9f0fd1a7(%arg0) {ttir.cpu_hoist_call} : (tensor<1152xf32, #ttnn_layout12>) -> tensor<1x1x1152xf32, #ttnn_layout14> loc(#loc)
        %2 = "ttnn.to_layout"(%1) <{layout = #ttnn.layout<tile>}> : (tensor<1x1x1152xf32, #ttnn_layout14>) -> tensor<1x1x1152xf32, #ttnn_layout15> loc(#loc)
        "ttnn.deallocate"(%1) <{force = false}> : (tensor<1x1x1152xf32, #ttnn_layout14>) -> () loc(#loc)
        %3 = "ttnn.to_device"(%2, %0) <{memory_config = #ttnn.memory_config<#dram, <interleaved>>}> : (tensor<1x1x1152xf32, #ttnn_layout15>, !ttnn.device) -> tensor<1x1x1152xf32, #ttnn_layout13> loc(#loc)
        "ttnn.deallocate"(%2) <{force = false}> : (tensor<1x1x1152xf32, #ttnn_layout15>) -> () loc(#loc)
        return %3 : tensor<1x1x1152xf32, #ttnn_layout13> loc(#loc)
      } loc(#loc)
      func.func private @main_const_eval_33(%arg0: tensor<1152xf32, #ttnn_layout12> loc(unknown)) -> tensor<1x1x1152xf32, #ttnn_layout13> attributes {tt.function_type = "const_eval"} {
        %0 = "ttnn.get_device"() <{mesh_offset = #ttnn<mesh_offset 0x0>, mesh_shape = #ttnn<mesh_shape 1x1>}> : () -> !ttnn.device loc(#loc)
        %1 = call @cpu_hoisted_const_eval_9f0fd1a7(%arg0) {ttir.cpu_hoist_call} : (tensor<1152xf32, #ttnn_layout12>) -> tensor<1x1x1152xf32, #ttnn_layout14> loc(#loc)
        %2 = "ttnn.to_layout"(%1) <{layout = #ttnn.layout<tile>}> : (tensor<1x1x1152xf32, #ttnn_layout14>) -> tensor<1x1x1152xf32, #ttnn_layout15> loc(#loc)
        "ttnn.deallocate"(%1) <{force = false}> : (tensor<1x1x1152xf32, #ttnn_layout14>) -> () loc(#loc)
        %3 = "ttnn.to_device"(%2, %0) <{memory_config = #ttnn.memory_config<#dram, <interleaved>>}> : (tensor<1x1x1152xf32, #ttnn_layout15>, !ttnn.device) -> tensor<1x1x1152xf32, #ttnn_layout13> loc(#loc)
        "ttnn.deallocate"(%2) <{force = false}> : (tensor<1x1x1152xf32, #ttnn_layout15>) -> () loc(#loc)
        return %3 : tensor<1x1x1152xf32, #ttnn_layout13> loc(#loc)
      } loc(#loc)
      func.func private @main_const_eval_34(%arg0: tensor<1152xf32, #ttnn_layout12> loc(unknown), %arg1: tensor<1152xf32, #ttnn_layout12> loc(unknown), %arg2: tensor<1152xf32, #ttnn_layout12> loc(unknown)) -> tensor<1x1x3456xf32, #ttnn_layout16> attributes {tt.function_type = "const_eval"} {
        %0 = "ttnn.get_device"() <{mesh_offset = #ttnn<mesh_offset 0x0>, mesh_shape = #ttnn<mesh_shape 1x1>}> : () -> !ttnn.device loc(#loc)
        %1 = call @cpu_hoisted_const_eval_b9a4c459(%arg2, %arg1, %arg0) {ttir.cpu_hoist_call} : (tensor<1152xf32, #ttnn_layout12>, tensor<1152xf32, #ttnn_layout12>, tensor<1152xf32, #ttnn_layout12>) -> tensor<1x1x3456xf32, #ttnn_layout17> loc(#loc)
        %2 = "ttnn.to_layout"(%1) <{layout = #ttnn.layout<tile>}> : (tensor<1x1x3456xf32, #ttnn_layout17>) -> tensor<1x1x3456xf32, #ttnn_layout18> loc(#loc)
        "ttnn.deallocate"(%1) <{force = false}> : (tensor<1x1x3456xf32, #ttnn_layout17>) -> () loc(#loc)
        %3 = "ttnn.to_device"(%2, %0) <{memory_config = #ttnn.memory_config<#dram, <interleaved>>}> : (tensor<1x1x3456xf32, #ttnn_layout18>, !ttnn.device) -> tensor<1x1x3456xf32, #ttnn_layout16> loc(#loc)
        "ttnn.deallocate"(%2) <{force = false}> : (tensor<1x1x3456xf32, #ttnn_layout18>) -> () loc(#loc)
        return %3 : tensor<1x1x3456xf32, #ttnn_layout16> loc(#loc)
      } loc(#loc)
      func.func private @main_const_eval_35(%arg0: tensor<1152xf32, #ttnn_layout12> loc(unknown)) -> tensor<1x1x1152xf32, #ttnn_layout13> attributes {tt.function_type = "const_eval"} {
        %0 = "ttnn.get_device"() <{mesh_offset = #ttnn<mesh_offset 0x0>, mesh_shape = #ttnn<mesh_shape 1x1>}> : () -> !ttnn.device loc(#loc)
        %1 = call @cpu_hoisted_const_eval_9f0fd1a7(%arg0) {ttir.cpu_hoist_call} : (tensor<1152xf32, #ttnn_layout12>) -> tensor<1x1x1152xf32, #ttnn_layout14> loc(#loc)
        %2 = "ttnn.to_layout"(%1) <{layout = #ttnn.layout<tile>}> : (tensor<1x1x1152xf32, #ttnn_layout14>) -> tensor<1x1x1152xf32, #ttnn_layout15> loc(#loc)
        "ttnn.deallocate"(%1) <{force = false}> : (tensor<1x1x1152xf32, #ttnn_layout14>) -> () loc(#loc)
        %3 = "ttnn.to_device"(%2, %0) <{memory_config = #ttnn.memory_config<#dram, <interleaved>>}> : (tensor<1x1x1152xf32, #ttnn_layout15>, !ttnn.device) -> tensor<1x1x1152xf32, #ttnn_layout13> loc(#loc)
        "ttnn.deallocate"(%2) <{force = false}> : (tensor<1x1x1152xf32, #ttnn_layout15>) -> () loc(#loc)
        return %3 : tensor<1x1x1152xf32, #ttnn_layout13> loc(#loc)
      } loc(#loc)
      func.func private @main_const_eval_36(%arg0: tensor<1152xf32, #ttnn_layout12> loc(unknown)) -> tensor<1x1x1152xf32, #ttnn_layout13> attributes {tt.function_type = "const_eval"} {
        %0 = "ttnn.get_device"() <{mesh_offset = #ttnn<mesh_offset 0x0>, mesh_shape = #ttnn<mesh_shape 1x1>}> : () -> !ttnn.device loc(#loc)
        %1 = call @cpu_hoisted_const_eval_9f0fd1a7(%arg0) {ttir.cpu_hoist_call} : (tensor<1152xf32, #ttnn_layout12>) -> tensor<1x1x1152xf32, #ttnn_layout14> loc(#loc)
        %2 = "ttnn.to_layout"(%1) <{layout = #ttnn.layout<tile>}> : (tensor<1x1x1152xf32, #ttnn_layout14>) -> tensor<1x1x1152xf32, #ttnn_layout15> loc(#loc)
        "ttnn.deallocate"(%1) <{force = false}> : (tensor<1x1x1152xf32, #ttnn_layout14>) -> () loc(#loc)
        %3 = "ttnn.to_device"(%2, %0) <{memory_config = #ttnn.memory_config<#dram, <interleaved>>}> : (tensor<1x1x1152xf32, #ttnn_layout15>, !ttnn.device) -> tensor<1x1x1152xf32, #ttnn_layout13> loc(#loc)
        "ttnn.deallocate"(%2) <{force = false}> : (tensor<1x1x1152xf32, #ttnn_layout15>) -> () loc(#loc)
        return %3 : tensor<1x1x1152xf32, #ttnn_layout13> loc(#loc)
      } loc(#loc)
      func.func private @main_const_eval_37(%arg0: tensor<1152x1152xf32, #ttnn_layout19> loc(unknown), %arg1: tensor<1152x1152xf32, #ttnn_layout19> loc(unknown), %arg2: tensor<1152x1152xf32, #ttnn_layout19> loc(unknown)) -> tensor<1152x3456xf32, #ttnn_layout20> attributes {tt.function_type = "const_eval"} {
        %0 = "ttnn.get_device"() <{mesh_offset = #ttnn<mesh_offset 0x0>, mesh_shape = #ttnn<mesh_shape 1x1>}> : () -> !ttnn.device loc(#loc)
        %1 = call @cpu_hoisted_const_eval_59f6b97d(%arg1, %arg0, %arg2) {ttir.cpu_hoist_call} : (tensor<1152x1152xf32, #ttnn_layout19>, tensor<1152x1152xf32, #ttnn_layout19>, tensor<1152x1152xf32, #ttnn_layout19>) -> tensor<1152x3456xf32, #ttnn_layout21> loc(#loc)
        %2 = "ttnn.to_layout"(%1) <{layout = #ttnn.layout<tile>}> : (tensor<1152x3456xf32, #ttnn_layout21>) -> tensor<1152x3456xf32, #ttnn_layout22> loc(#loc)
        "ttnn.deallocate"(%1) <{force = false}> : (tensor<1152x3456xf32, #ttnn_layout21>) -> () loc(#loc)
        %3 = "ttnn.to_device"(%2, %0) <{memory_config = #ttnn.memory_config<#dram, <interleaved>>}> : (tensor<1152x3456xf32, #ttnn_layout22>, !ttnn.device) -> tensor<1152x3456xf32, #ttnn_layout20> loc(#loc)
        "ttnn.deallocate"(%2) <{force = false}> : (tensor<1152x3456xf32, #ttnn_layout22>) -> () loc(#loc)
        return %3 : tensor<1152x3456xf32, #ttnn_layout20> loc(#loc)
      } loc(#loc)
      func.func private @main_const_eval_38(%arg0: tensor<1152xf32, #ttnn_layout12> loc(unknown), %arg1: tensor<1152xf32, #ttnn_layout12> loc(unknown), %arg2: tensor<1152xf32, #ttnn_layout12> loc(unknown)) -> tensor<1x1x3456xf32, #ttnn_layout16> attributes {tt.function_type = "const_eval"} {
        %0 = "ttnn.get_device"() <{mesh_offset = #ttnn<mesh_offset 0x0>, mesh_shape = #ttnn<mesh_shape 1x1>}> : () -> !ttnn.device loc(#loc)
        %1 = call @cpu_hoisted_const_eval_b9a4c459(%arg2, %arg1, %arg0) {ttir.cpu_hoist_call} : (tensor<1152xf32, #ttnn_layout12>, tensor<1152xf32, #ttnn_layout12>, tensor<1152xf32, #ttnn_layout12>) -> tensor<1x1x3456xf32, #ttnn_layout17> loc(#loc)
        %2 = "ttnn.to_layout"(%1) <{layout = #ttnn.layout<tile>}> : (tensor<1x1x3456xf32, #ttnn_layout17>) -> tensor<1x1x3456xf32, #ttnn_layout18> loc(#loc)
        "ttnn.deallocate"(%1) <{force = false}> : (tensor<1x1x3456xf32, #ttnn_layout17>) -> () loc(#loc)
        %3 = "ttnn.to_device"(%2, %0) <{memory_config = #ttnn.memory_config<#dram, <interleaved>>}> : (tensor<1x1x3456xf32, #ttnn_layout18>, !ttnn.device) -> tensor<1x1x3456xf32, #ttnn_layout16> loc(#loc)
        "ttnn.deallocate"(%2) <{force = false}> : (tensor<1x1x3456xf32, #ttnn_layout18>) -> () loc(#loc)
        return %3 : tensor<1x1x3456xf32, #ttnn_layout16> loc(#loc)
      } loc(#loc)
      func.func private @main_const_eval_39(%arg0: tensor<1152x1152xf32, #ttnn_layout19> loc(unknown), %arg1: tensor<1152x1152xf32, #ttnn_layout19> loc(unknown), %arg2: tensor<1152x1152xf32, #ttnn_layout19> loc(unknown)) -> tensor<1152x3456xf32, #ttnn_layout20> attributes {tt.function_type = "const_eval"} {
        %0 = "ttnn.get_device"() <{mesh_offset = #ttnn<mesh_offset 0x0>, mesh_shape = #ttnn<mesh_shape 1x1>}> : () -> !ttnn.device loc(#loc)
        %1 = call @cpu_hoisted_const_eval_59f6b97d(%arg1, %arg0, %arg2) {ttir.cpu_hoist_call} : (tensor<1152x1152xf32, #ttnn_layout19>, tensor<1152x1152xf32, #ttnn_layout19>, tensor<1152x1152xf32, #ttnn_layout19>) -> tensor<1152x3456xf32, #ttnn_layout21> loc(#loc)
        %2 = "ttnn.to_layout"(%1) <{layout = #ttnn.layout<tile>}> : (tensor<1152x3456xf32, #ttnn_layout21>) -> tensor<1152x3456xf32, #ttnn_layout22> loc(#loc)
        "ttnn.deallocate"(%1) <{force = false}> : (tensor<1152x3456xf32, #ttnn_layout21>) -> () loc(#loc)
        %3 = "ttnn.to_device"(%2, %0) <{memory_config = #ttnn.memory_config<#dram, <interleaved>>}> : (tensor<1152x3456xf32, #ttnn_layout22>, !ttnn.device) -> tensor<1152x3456xf32, #ttnn_layout20> loc(#loc)
        "ttnn.deallocate"(%2) <{force = false}> : (tensor<1152x3456xf32, #ttnn_layout22>) -> () loc(#loc)
        return %3 : tensor<1152x3456xf32, #ttnn_layout20> loc(#loc)
      } loc(#loc)
      func.func private @main_const_eval_40(%arg0: tensor<256x2048xf32, #ttnn_layout28> loc(unknown), %arg1: tensor<256x2048xf32, #ttnn_layout28> loc(unknown), %arg2: tensor<2048x2048xf32, #ttnn_layout29> loc(unknown)) -> tensor<2048x2560xf32, #ttnn_layout30> attributes {tt.function_type = "const_eval"} {
        %0 = "ttnn.get_device"() <{mesh_offset = #ttnn<mesh_offset 0x0>, mesh_shape = #ttnn<mesh_shape 1x1>}> : () -> !ttnn.device loc(#loc)
        %1 = call @cpu_hoisted_const_eval_32502db6(%arg2, %arg0, %arg1) {ttir.cpu_hoist_call} : (tensor<2048x2048xf32, #ttnn_layout29>, tensor<256x2048xf32, #ttnn_layout28>, tensor<256x2048xf32, #ttnn_layout28>) -> tensor<2048x2560xf32, #ttnn_layout31> loc(#loc)
        %2 = "ttnn.to_layout"(%1) <{layout = #ttnn.layout<tile>}> : (tensor<2048x2560xf32, #ttnn_layout31>) -> tensor<2048x2560xf32, #ttnn_layout32> loc(#loc)
        "ttnn.deallocate"(%1) <{force = false}> : (tensor<2048x2560xf32, #ttnn_layout31>) -> () loc(#loc)
        %3 = "ttnn.to_device"(%2, %0) <{memory_config = #ttnn.memory_config<#dram, <interleaved>>}> : (tensor<2048x2560xf32, #ttnn_layout32>, !ttnn.device) -> tensor<2048x2560xf32, #ttnn_layout30> loc(#loc)
        "ttnn.deallocate"(%2) <{force = false}> : (tensor<2048x2560xf32, #ttnn_layout32>) -> () loc(#loc)
        return %3 : tensor<2048x2560xf32, #ttnn_layout30> loc(#loc)
      } loc(#loc)
      func.func private @main_const_eval_41(%arg0: tensor<1152xf32, #ttnn_layout12> loc(unknown)) -> tensor<1x1x1152xf32, #ttnn_layout13> attributes {tt.function_type = "const_eval"} {
        %0 = "ttnn.get_device"() <{mesh_offset = #ttnn<mesh_offset 0x0>, mesh_shape = #ttnn<mesh_shape 1x1>}> : () -> !ttnn.device loc(#loc)
        %1 = call @cpu_hoisted_const_eval_9f0fd1a7(%arg0) {ttir.cpu_hoist_call} : (tensor<1152xf32, #ttnn_layout12>) -> tensor<1x1x1152xf32, #ttnn_layout14> loc(#loc)
        %2 = "ttnn.to_layout"(%1) <{layout = #ttnn.layout<tile>}> : (tensor<1x1x1152xf32, #ttnn_layout14>) -> tensor<1x1x1152xf32, #ttnn_layout15> loc(#loc)
        "ttnn.deallocate"(%1) <{force = false}> : (tensor<1x1x1152xf32, #ttnn_layout14>) -> () loc(#loc)
…
#loc3461 = loc("negate.30558")
#loc3462 = loc("slice.30556")
#loc3463 = loc("concatenate.30559")
#loc3464 = loc("multiply.30562")
#loc3465 = loc("add.30568")
#loc3466 = loc("reshape.30334")
#loc3467 = loc("transpose.30335")
#loc3468 = loc("multiply.30345")
#loc3469 = loc("slice.30337")
#loc3470 = loc("negate.30338")
#loc3471 = loc("slice.30336")
#loc3472 = loc("concatenate.30339")
#loc3473 = loc("multiply.30342")
#loc3474 = loc("add.30348")
#loc3475 = loc("reshape.30323")
#loc3476 = loc("dot.30349")
#loc3477 = loc("multiply.30352")
#loc3478 = loc("add.30357")
#loc3479 = loc("divide.30374")
#loc3480 = loc("broadcast.30315")
#loc3481 = loc("dot.30375")
#loc3482 = loc("reshape.30379")
#loc3483 = loc("add.30384")
#loc3484 = loc("multiply.30413")
#loc3485 = loc("dot.30425")
#loc3486 = loc("dot.30415")
#loc3487 = loc("multiply.30445")
#loc3488 = loc("add.30451")
#loc3489 = loc("multiply.30480")
#loc3490 = loc("dot.30524")
#loc3491 = loc("transpose.30527")
#loc3492 = loc("dot.30772")
#loc3493 = loc("dot.30482")
#loc3494 = loc("reshape.30756")
#loc3495 = loc("multiply.30534")
#loc3496 = loc("slice.30529")
#loc3497 = loc("negate.30530")
#loc3498 = loc("slice.30528")
#loc3499 = loc("concatenate.30531")
#loc3500 = loc("multiply.30532")
#loc3501 = loc("add.30537")
#loc3502 = loc("multiply.30512")
#loc3503 = loc("slice.30507")
#loc3504 = loc("negate.30508")
#loc3505 = loc("slice.30506")
#loc3506 = loc("concatenate.30509")
#loc3507 = loc("multiply.30510")
#loc3508 = loc("add.30515")
#loc3509 = loc("concatenate.30538")
#loc3510 = loc("reshape.30543")
#loc3511 = loc("dot.30569")
#loc3512 = loc("multiply.30572")
#loc3513 = loc("add.30577")
#loc3514 = loc("divide.30594")
#loc3515 = loc("concatenate.30486")
#loc3516 = loc("reshape.30491")
#loc3517 = loc("dot.30595")
#loc3518 = loc("reshape.30599")
#loc3519 = loc("add.30604")
#loc3520 = loc("multiply.30633")
#loc3521 = loc("dot.30645")
#loc3522 = loc("dot.30635")
#loc3523 = loc("multiply.30665")
#loc3524 = loc("add.30671")
#loc3525 = loc("multiply.30700")
#loc3526 = loc("dot.30992")
#loc3527 = loc("dot.30702")
#loc3528 = loc("transpose.30705")
#loc3529 = loc("dot.30942")
#loc3530 = loc("transpose.30945")
#loc3531 = loc("reshape.30994")
#loc3532 = loc("transpose.30995")
#loc3533 = loc("multiply.31005")
#loc3534 = loc("slice.30997")
#loc3535 = loc("negate.30998")
#loc3536 = loc("slice.30996")
#loc3537 = loc("concatenate.30999")
#loc3538 = loc("multiply.31002")
#loc3539 = loc("add.31008")
#loc3540 = loc("reshape.30774")
#loc3541 = loc("transpose.30775")
#loc3542 = loc("multiply.30785")
#loc3543 = loc("slice.30777")
#loc3544 = loc("negate.30778")
#loc3545 = loc("slice.30776")
#loc3546 = loc("concatenate.30779")
#loc3547 = loc("multiply.30782")
#loc3548 = loc("add.30788")
#loc3549 = loc("reshape.30763")
#loc3550 = loc("dot.30789")
#loc3551 = loc("multiply.30792")
#loc3552 = loc("add.30797")
#loc3553 = loc("divide.30814")
#loc3554 = loc("broadcast.30755")
#loc3555 = loc("dot.30815")
#loc3556 = loc("reshape.30819")
#loc3557 = loc("add.30824")
#loc3558 = loc("multiply.30853")
#loc3559 = loc("dot.30865")
#loc3560 = loc("dot.30855")
#loc3561 = loc("multiply.30885")
#loc3562 = loc("add.30891")
#loc3563 = loc("multiply.30920")
#loc3564 = loc("dot.30964")
#loc3565 = loc("transpose.30967")
#loc3566 = loc("dot.31212")
#loc3567 = loc("dot.30922")
#loc3568 = loc("reshape.31196")
#loc3569 = loc("multiply.30974")
#loc3570 = loc("slice.30969")
#loc3571 = loc("negate.30970")
#loc3572 = loc("slice.30968")
#loc3573 = loc("concatenate.30971")
#loc3574 = loc("multiply.30972")
#loc3575 = loc("add.30977")
#loc3576 = loc("multiply.30952")
#loc3577 = loc("slice.30947")
#loc3578 = loc("negate.30948")
#loc3579 = loc("slice.30946")
#loc3580 = loc("concatenate.30949")
#loc3581 = loc("multiply.30950")
#loc3582 = loc("add.30955")
#loc3583 = loc("concatenate.30978")
#loc3584 = loc("reshape.30983")
#loc3585 = loc("dot.31009")
#loc3586 = loc("multiply.31012")
#loc3587 = loc("add.31017")
#loc3588 = loc("divide.31034")
#loc3589 = loc("concatenate.30926")
#loc3590 = loc("reshape.30931")
#loc3591 = loc("dot.31035")
#loc3592 = loc("reshape.31039")
#loc3593 = loc("add.31044")
#loc3594 = loc("multiply.31073")
#loc3595 = loc("dot.31085")
#loc3596 = loc("dot.31075")
#loc3597 = loc("multiply.31105")
#loc3598 = loc("add.31111")
#loc3599 = loc("multiply.31140")
#loc3600 = loc("dot.31432")
#loc3601 = loc("dot.31142")
#loc3602 = loc("transpose.31145")
#loc3603 = loc("dot.31382")
#loc3604 = loc("transpose.31385")
#loc3605 = loc("reshape.31434")
#loc3606 = loc("transpose.31435")
#loc3607 = loc("multiply.31445")
#loc3608 = loc("slice.31437")
#loc3609 = loc("negate.31438")
#loc3610 = loc("slice.31436")
#loc3611 = loc("concatenate.31439")
#loc3612 = loc("multiply.31442")
#loc3613 = loc("add.31448")
#loc3614 = loc("reshape.31214")
#loc3615 = loc("transpose.31215")
#loc3616 = loc("multiply.31225")
#loc3617 = loc("slice.31217")
#loc3618 = loc("negate.31218")
#loc3619 = loc("slice.31216")
#loc3620 = loc("concatenate.31219")
#loc3621 = loc("multiply.31222")
#loc3622 = loc("add.31228")
#loc3623 = loc("reshape.31203")
#loc3624 = loc("dot.31229")
#loc3625 = loc("multiply.31232")
#loc3626 = loc("add.31237")
#loc3627 = loc("divide.31254")
#loc3628 = loc("broadcast.31195")
#loc3629 = loc("dot.31255")
#loc3630 = loc("reshape.31259")
#loc3631 = loc("add.31264")
#loc3632 = loc("multiply.31293")
#loc3633 = loc("dot.31305")
#loc3634 = loc("dot.31295")
#loc3635 = loc("multiply.31325")
#loc3636 = loc("add.31331")
#loc3637 = loc("multiply.31360")
#loc3638 = loc("dot.31404")
#loc3639 = loc("transpose.31407")
#loc3640 = loc("dot.31652")
#loc3641 = loc("dot.31362")
#loc3642 = loc("reshape.31636")
#loc3643 = loc("multiply.31414")
#loc3644 = loc("slice.31409")
#loc3645 = loc("negate.31410")
#loc3646 = loc("slice.31408")
#loc3647 = loc("concatenate.31411")
#loc3648 = loc("multiply.31412")
#loc3649 = loc("add.31417")
#loc3650 = loc("multiply.31392")
#loc3651 = loc("slice.31387")
#loc3652 = loc("negate.31388")
#loc3653 = loc("slice.31386")
#loc3654 = loc("concatenate.31389")
#loc3655 = loc("multiply.31390")
#loc3656 = loc("add.31395")
#loc3657 = loc("concatenate.31418")
#loc3658 = loc("reshape.31423")
#loc3659 = loc("dot.31449")
#loc3660 = loc("multiply.31452")
#loc3661 = loc("add.31457")
#loc3662 = loc("divide.31474")
#loc3663 = loc("concatenate.31366")
#loc3664 = loc("reshape.31371")
#loc3665 = loc("dot.31475")
#loc3666 = loc("reshape.31479")
#loc3667 = loc("add.31484")
#loc3668 = loc("multiply.31513")
#loc3669 = loc("dot.31525")
#loc3670 = loc("dot.31515")
#loc3671 = loc("multiply.31545")
#loc3672 = loc("add.31551")
#loc3673 = loc("multiply.31580")
#loc3674 = loc("dot.31872")
#loc3675 = loc("dot.31582")
#loc3676 = loc("transpose.31585")
#loc3677 = loc("dot.31822")
#loc3678 = loc("transpose.31825")
#loc3679 = loc("reshape.31874")
#loc3680 = loc("transpose.31875")
#loc3681 = loc("multiply.31885")
#loc3682 = loc("slice.31877")
#loc3683 = loc("negate.31878")
#loc3684 = loc("slice.31876")
#loc3685 = loc("concatenate.31879")
#loc3686 = loc("multiply.31882")
#loc3687 = loc("add.31888")
#loc3688 = loc("reshape.31654")
#loc3689 = loc("transpose.31655")
#loc3690 = loc("multiply.31665")
#loc3691 = loc("slice.31657")
#loc3692 = loc("negate.31658")
#loc3693 = loc("slice.31656")
#loc3694 = loc("concatenate.31659")
#loc3695 = loc("multiply.31662")
#loc3696 = loc("add.31668")
#loc3697 = loc("reshape.31643")
#loc3698 = loc("dot.31669")
#loc3699 = loc("multiply.31672")
#loc3700 = loc("add.31677")
#loc3701 = loc("divide.31694")
#loc3702 = loc("broadcast.31635")
#loc3703 = loc("dot.31695")
#loc3704 = loc("reshape.31699")
#loc3705 = loc("add.31704")
#loc3706 = loc("multiply.31733")
#loc3707 = loc("dot.31745")
#loc3708 = loc("dot.31735")
#loc3709 = loc("multiply.31765")
#loc3710 = loc("add.31771")
#loc3711 = loc("multiply.31800")
#loc3712 = loc("dot.31844")
#loc3713 = loc("transpose.31847")
#loc3714 = loc("dot.32092")
#loc3715 = loc("dot.31802")
#loc3716 = loc("reshape.32076")
#loc3717 = loc("multiply.31854")
#loc3718 = loc("slice.31849")
#loc3719 = loc("negate.31850")
#loc3720 = loc("slice.31848")
#loc3721 = loc("concatenate.31851")
#loc3722 = loc("multiply.31852")
#loc3723 = loc("add.31857")
#loc3724 = loc("multiply.31832")
#loc3725 = loc("slice.31827")
#loc3726 = loc("negate.31828")
#loc3727 = loc("slice.31826")
#loc3728 = loc("concatenate.31829")
#loc3729 = loc("multiply.31830")
#loc3730 = loc("add.31835")
#loc3731 = loc("concatenate.31858")
#loc3732 = loc("reshape.31863")
#loc3733 = loc("dot.31889")
#loc3734 = loc("multiply.31892")
#loc3735 = loc("add.31897")
#loc3736 = loc("divide.31914")
#loc3737 = loc("concatenate.31806")
#loc3738 = loc("reshape.31811")
#loc3739 = loc("dot.31915")
#loc3740 = loc("reshape.31919")
#loc3741 = loc("add.31924")
#loc3742 = loc("multiply.31953")
#loc3743 = loc("dot.31965")
#loc3744 = loc("dot.31955")
#loc3745 = loc("multiply.31985")
#loc3746 = loc("add.31991")
#loc3747 = loc("multiply.32020")
#loc3748 = loc("dot.32312")
#loc3749 = loc("dot.32022")
#loc3750 = loc("transpose.32025")
#loc3751 = loc("dot.32262")
#loc3752 = loc("transpose.32265")
#loc3753 = loc("reshape.32314")
#loc3754 = loc("transpose.32315")
#loc3755 = loc("multiply.32325")
#loc3756 = loc("slice.32317")
#loc3757 = loc("negate.32318")
#loc3758 = loc("slice.32316")
#loc3759 = loc("concatenate.32319")
#loc3760 = loc("multiply.32322")
#loc3761 = loc("add.32328")
#loc3762 = loc("reshape.32094")
#loc3763 = loc("transpose.32095")
#loc3764 = loc("multiply.32105")
#loc3765 = loc("slice.32097")
#loc3766 = loc("negate.32098")
#loc3767 = loc("slice.32096")
#loc3768 = loc("concatenate.32099")
#loc3769 = loc("multiply.32102")
#loc3770 = loc("add.32108")
#loc3771 = loc("reshape.32083")
#loc3772 = loc("dot.32109")
#loc3773 = loc("multiply.32112")
#loc3774 = loc("add.32117")
#loc3775 = loc("divide.32134")
#loc3776 = loc("broadcast.32075")
#loc3777 = loc("dot.32135")
#loc3778 = loc("reshape.32139")
#loc3779 = loc("add.32144")
#loc3780 = loc("multiply.32173")
#loc3781 = loc("dot.32185")
#loc3782 = loc("dot.32175")
#loc3783 = loc("multiply.32205")
#loc3784 = loc("add.32211")
#loc3785 = loc("multiply.32240")
#loc3786 = loc("dot.32284")
#loc3787 = loc("transpose.32287")
#loc3788 = loc("dot.32532")
#loc3789 = loc("dot.32242")
#loc3790 = loc("reshape.32516")
#loc3791 = loc("multiply.32294")
#loc3792 = loc("slice.32289")
#loc3793 = loc("negate.32290")
#loc3794 = loc("slice.32288")
#loc3795 = loc("concatenate.32291")
#loc3796 = loc("multiply.32292")
#loc3797 = loc("add.32297")
#loc3798 = loc("multiply.32272")
#loc3799 = loc("slice.32267")
#loc3800 = loc("negate.32268")
#loc3801 = loc("slice.32266")
#loc3802 = loc("concatenate.32269")
#loc3803 = loc("multiply.32270")
#loc3804 = loc("add.32275")
#loc3805 = loc("concatenate.32298")
#loc3806 = loc("reshape.32303")
#loc3807 = loc("dot.32329")
#loc3808 = loc("multiply.32332")
#loc3809 = loc("add.32337")
#loc3810 = loc("divide.32354")
#loc3811 = loc("concatenate.32246")
#loc3812 = loc("reshape.32251")
#loc3813 = loc("dot.32355")
#loc3814 = loc("reshape.32359")
#loc3815 = loc("add.32364")
#loc3816 = loc("multiply.32393")
#loc3817 = loc("dot.32405")
#loc3818 = loc("dot.32395")
#loc3819 = loc("multiply.32425")
#loc3820 = loc("add.32431")
#loc3821 = loc("multiply.32460")
#loc3822 = loc("dot.32752")
#loc3823 = loc("dot.32462")
#loc3824 = loc("transpose.32465")
#loc3825 = loc("dot.32702")
#loc3826 = loc("transpose.32705")
#loc3827 = loc("reshape.32754")
#loc3828 = loc("transpose.32755")
#loc3829 = loc("multiply.32765")
#loc3830 = loc("slice.32757")
#loc3831 = loc("negate.32758")
#loc3832 = loc("slice.32756")
#loc3833 = loc("concatenate.32759")
#loc3834 = loc("multiply.32762")
#loc3835 = loc("add.32768")
#loc3836 = loc("reshape.32534")
#loc3837 = loc("transpose.32535")
#loc3838 = loc("multiply.32545")
#loc3839 = loc("slice.32537")
#loc3840 = loc("negate.32538")
#loc3841 = loc("slice.32536")
#loc3842 = loc("concatenate.32539")
#loc3843 = loc("multiply.32542")
#loc3844 = loc("add.32548")
#loc3845 = loc("reshape.32523")
#loc3846 = loc("dot.32549")
#loc3847 = loc("multiply.32552")
#loc3848 = loc("add.32557")
#loc3849 = loc("divide.32574")
#loc3850 = loc("broadcast.32515")
#loc3851 = loc("dot.32575")
#loc3852 = loc("reshape.32579")
#loc3853 = loc("add.32584")
#loc3854 = loc("multiply.32613")
#loc3855 = loc("dot.32625")
#loc3856 = loc("dot.32615")
#loc3857 = loc("multiply.32645")
#loc3858 = loc("add.32651")
#loc3859 = loc("multiply.32680")
#loc3860 = loc("dot.32724")
#loc3861 = loc("transpose.32727")
#loc3862 = loc("dot.32972")
#loc3863 = loc("dot.32682")
#loc3864 = loc("reshape.32956")
#loc3865 = loc("multiply.32734")
#loc3866 = loc("slice.32729")
#loc3867 = loc("negate.32730")
#loc3868 = loc("slice.32728")
#loc3869 = loc("concatenate.32731")
#loc3870 = loc("multiply.32732")
#loc3871 = loc("add.32737")
#loc3872 = loc("multiply.32712")
#loc3873 = loc("slice.32707")
#loc3874 = loc("negate.32708")
#loc3875 = loc("slice.32706")
#loc3876 = loc("concatenate.32709")
#loc3877 = loc("multiply.32710")
#loc3878 = loc("add.32715")
#loc3879 = loc("concatenate.32738")
#loc3880 = loc("reshape.32743")
#loc3881 = loc("dot.32769")
#loc3882 = loc("multiply.32772")
#loc3883 = loc("add.32777")
#loc3884 = loc("divide.32794")
#loc3885 = loc("concatenate.32686")
#loc3886 = loc("reshape.32691")
#loc3887 = loc("dot.32795")
#loc3888 = loc("reshape.32799")
#loc3889 = loc("add.32804")
#loc3890 = loc("multiply.32833")
#loc3891 = loc("dot.32845")
#loc3892 = loc("dot.32835")
#loc3893 = loc("multiply.32865")
#loc3894 = loc("add.32871")
#loc3895 = loc("multiply.32900")
#loc3896 = loc("dot.33192")
#loc3897 = loc("dot.32902")
#loc3898 = loc("transpose.32905")
#loc3899 = loc("dot.33142")
#loc3900 = loc("transpose.33145")
#loc3901 = loc("reshape.33194")
#loc3902 = loc("transpose.33195")
#loc3903 = loc("multiply.33205")
#loc3904 = loc("slice.33197")
#loc3905 = loc("negate.33198")
#loc3906 = loc("slice.33196")
#loc3907 = loc("concatenate.33199")
#loc3908 = loc("multiply.33202")
#loc3909 = loc("add.33208")
#loc3910 = loc("reshape.32974")
#loc3911 = loc("transpose.32975")
#loc3912 = loc("multiply.32985")
#loc3913 = loc("slice.32977")
#loc3914 = loc("negate.32978")
#loc3915 = loc("slice.32976")
#loc3916 = loc("concatenate.32979")
#loc3917 = loc("multiply.32982")
#loc3918 = loc("add.32988")
#loc3919 = loc("reshape.32963")
#loc3920 = loc("dot.32989")
#loc3921 = loc("multiply.32992")
#loc3922 = loc("add.32997")
#loc3923 = loc("divide.33014")
#loc3924 = loc("broadcast.32955")
#loc3925 = loc("dot.33015")
#loc3926 = loc("reshape.33019")
#loc3927 = loc("add.33024")
#loc3928 = loc("multiply.33053")
#loc3929 = loc("dot.33065")
#loc3930 = loc("dot.33055")
#loc3931 = loc("multiply.33085")
#loc3932 = loc("add.33091")
#loc3933 = loc("multiply.33120")
#loc3934 = loc("dot.33164")
#loc3935 = loc("transpose.33167")
#loc3936 = loc("dot.33412")
#loc3937 = loc("dot.33122")
#loc3938 = loc("reshape.33396")
#loc3939 = loc("multiply.33174")
#loc3940 = loc("slice.33169")
#loc3941 = loc("negate.33170")
#loc3942 = loc("slice.33168")
#loc3943 = loc("concatenate.33171")
#loc3944 = loc("multiply.33172")
#loc3945 = loc("add.33177")
#loc3946 = loc("multiply.33152")
#loc3947 = loc("slice.33147")
#loc3948 = loc("negate.33148")
#loc3949 = loc("slice.33146")
#loc3950 = loc("concatenate.33149")
#loc3951 = loc("multiply.33150")
#loc3952 = loc("add.33155")
#loc3953 = loc("concatenate.33178")
#loc3954 = loc("reshape.33183")
#loc3955 = loc("dot.33209")
#loc3956 = loc("multiply.33212")
#loc3957 = loc("add.33217")
#loc3958 = loc("divide.33234")
#loc3959 = loc("concatenate.33126")
#loc3960 = loc("reshape.33131")
#loc3961 = loc("dot.33235")
#loc3962 = loc("reshape.33239")
#loc3963 = loc("add.33244")
#loc3964 = loc("multiply.33273")
#loc3965 = loc("dot.33285")
#loc3966 = loc("dot.33275")
#loc3967 = loc("multiply.33305")
#loc3968 = loc("add.33311")
#loc3969 = loc("multiply.33340")
#loc3970 = loc("dot.33632")
#loc3971 = loc("dot.33342")
#loc3972 = loc("transpose.33345")
#loc3973 = loc("dot.33582")
#loc3974 = loc("transpose.33585")
#loc3975 = loc("reshape.33634")
#loc3976 = loc("transpose.33635")
#loc3977 = loc("multiply.33645")
#loc3978 = loc("slice.33637")
#loc3979 = loc("negate.33638")
#loc3980 = loc("slice.33636")
#loc3981 = loc("concatenate.33639")
#loc3982 = loc("multiply.33642")
#loc3983 = loc("add.33648")
#loc3984 = loc("reshape.33414")
#loc3985 = loc("transpose.33415")
#loc3986 = loc("multiply.33425")
#loc3987 = loc("slice.33417")
#loc3988 = loc("negate.33418")
#loc3989 = loc("slice.33416")
#loc3990 = loc("concatenate.33419")
#loc3991 = loc("multiply.33422")
#loc3992 = loc("add.33428")
#loc3993 = loc("reshape.33403")
#loc3994 = loc("dot.33429")
#loc3995 = loc("multiply.33432")
#loc3996 = loc("add.33437")
#loc3997 = loc("divide.33454")
#loc3998 = loc("broadcast.33395")
#loc3999 = loc("dot.33455")
#loc4000 = loc("reshape.33459")
#loc4001 = loc("add.33464")
#loc4002 = loc("multiply.33493")
#loc4003 = loc("dot.33505")
#loc4004 = loc("dot.33495")
#loc4005 = loc("multiply.33525")
#loc4006 = loc("add.33531")
#loc4007 = loc("multiply.33560")
#loc4008 = loc("dot.33604")
#loc4009 = loc("transpose.33607")
#loc4010 = loc("multiply.33614")
#loc4011 = loc("slice.33609")
#loc4012 = loc("negate.33610")
#loc4013 = loc("slice.33608")
#loc4014 = loc("concatenate.33611")
#loc4015 = loc("multiply.33612")
#loc4016 = loc("add.33617")
#loc4017 = loc("multiply.33592")
#loc4018 = loc("slice.33587")
#loc4019 = loc("negate.33588")
#loc4020 = loc("slice.33586")
#loc4021 = loc("concatenate.33589")
#loc4022 = loc("multiply.33590")
#loc4023 = loc("add.33595")
#loc4024 = loc("concatenate.33618")
#loc4025 = loc("reshape.33623")
#loc4026 = loc("dot.33649")
#loc4027 = loc("multiply.33652")
#loc4028 = loc("add.33657")
#loc4029 = loc("divide.33674")
#loc4030 = loc("dot.33562")
#loc4031 = loc("transpose.33565")
#loc4032 = loc("concatenate.33566")
#loc4033 = loc("reshape.33571")
#loc4034 = loc("dot.33675")
#loc4035 = loc("reshape.33679")
#loc4036 = loc("add.33684")
#loc4037 = loc("multiply.33713")
#loc4038 = loc("dot.33725")
#loc4039 = loc("dot.33715")
#loc4040 = loc("multiply.33745")
#loc4041 = loc("add.33751")
#loc4042 = loc("multiply.33780")
#loc4043 = loc("slice.33781")
#loc4044 = loc("add.33788")
#loc4045 = loc("multiply.33790")
#loc4046 = loc("add.33793")
#loc4047 = loc("slice.101")
#loc4048 = loc("reshape.100")
#loc4049 = loc("multiply.103")
#loc4050 = loc("add.105")
#loc4051 = loc("add.107")
#loc4052 = loc("add.33799")
#loc4053 = loc("broadcast.24837")
#loc4054 = loc("broadcast.24825")
#loc4055 = loc("broadcast.24813")
#loc4056 = loc("transpose.171")
#loc4057 = loc("transpose.33580")
#loc4058 = loc("broadcast.19304")
#loc4059 = loc("broadcast.22044")
#loc4060 = loc("transpose.28570")
#loc4061 = loc("transpose.28070")
#loc4062 = loc("transpose.22506")
#loc4063 = loc("transpose.18490")
#loc4064 = loc("reshape.26062")
#loc4065 = loc("reshape.26058")
#loc4066 = loc("transpose.18813")
#loc4067 = loc("broadcast.25841")
#loc4068 = loc("concatenate.64")
#loc4069 = loc("select.1025")
#loc4070 = loc("power.1028")
#loc4071 = loc("multiply.1030")
#loc4072 = loc("divide.1033")
#loc4073 = loc("multiply.1037")
#loc4074 = loc("multiply.1039")
#loc4075 = loc("reshape.1040")
#loc4076 = loc("sine.1045")
#loc4077 = loc("cosine.1044")
#loc4078 = loc("concatenate.1046")
#loc4079 = loc("broadcast.1051")
#loc4080 = loc("add.962")
#loc4081 = loc("add.1146")
#loc4082 = loc("add.939")
#loc4083 = loc("add.916")
#loc4084 = loc("add.26300")
#loc4085 = loc("add.26277")
#loc4086 = loc("add.893")
#loc4087 = loc("add.870")
#loc4088 = loc("add.26782")
#loc4089 = loc("add.26759")
#loc4090 = loc("add.847")
#loc4091 = loc("add.824")
#loc4092 = loc("add.27222")
#loc4093 = loc("add.27199")
#loc4094 = loc("add.801")
#loc4095 = loc("add.778")
#loc4096 = loc("add.27662")
#loc4097 = loc("add.27639")
#loc4098 = loc("add.755")
#loc4099 = loc("add.732")
#loc4100 = loc("add.28102")
#loc4101 = loc("add.28079")
#loc4102 = loc("add.709")
#loc4103 = loc("add.686")
#loc4104 = loc("add.28542")
#loc4105 = loc("add.28519")
#loc4106 = loc("add.663")
#loc4107 = loc("add.640")
#loc4108 = loc("add.28982")
#loc4109 = loc("add.28959")
#loc4110 = loc("add.617")
#loc4111 = loc("add.594")
#loc4112 = loc("add.29422")
#loc4113 = loc("add.29399")
#loc4114 = loc("add.571")
#loc4115 = loc("add.548")
#loc4116 = loc("add.29862")
#loc4117 = loc("add.29839")
#loc4118 = loc("add.525")
#loc4119 = loc("add.502")
#loc4120 = loc("add.30302")
#loc4121 = loc("add.30279")
#loc4122 = loc("add.479")
#loc4123 = loc("add.456")
#loc4124 = loc("add.30742")
#loc4125 = loc("add.30719")
#loc4126 = loc("add.433")
#loc4127 = loc("add.410")
#loc4128 = loc("add.31182")
#loc4129 = loc("add.31159")
#loc4130 = loc("add.387")
#loc4131 = loc("add.364")
#loc4132 = loc("add.31622")
#loc4133 = loc("add.31599")
#loc4134 = loc("add.341")
#loc4135 = loc("add.318")
#loc4136 = loc("add.32062")
#loc4137 = loc("add.32039")
#loc4138 = loc("add.295")
#loc4139 = loc("add.272")
#loc4140 = loc("add.32502")
#loc4141 = loc("add.32479")
#loc4142 = loc("add.249")
#loc4143 = loc("add.226")
#loc4144 = loc("add.32942")
#loc4145 = loc("add.32919")
#loc4146 = loc("add.203")
#loc4147 = loc("add.180")
#loc4148 = loc("add.33382")
#loc4149 = loc("add.33359")
#loc4150 = loc("add.157")
#loc4151 = loc("add.134")
#loc4152 = loc("multiply.61")
#loc4153 = loc("sine.63")
#loc4154 = loc("cosine.62")
#loc4155 = loc("slice.67")
#loc4156 = loc("convert.18806")
#loc4157 = loc("gather.18807")
#loc4158 = loc("multiply.108_tm0"(#loc2))
#loc4159 = loc("reshape.33794_tm1"(#loc3))
#loc4160 = loc("gather.1161_workaround"(#loc4))
#loc4161 = loc("reshape.25998_tm1"(#loc5))
#loc4162 = loc("convert.26055_tm0"(#loc6))
#loc4163 = loc("multiply.108_tm1"(#loc2))
#loc4164 = loc("reduce.25988_workaround"(#loc818))
#loc4165 = loc("reshape.25998_tm0"(#loc5))
#loc4166 = loc("convolution.18811_reshape"(#loc841))
#loc4167 = loc("convolution.18811_workaround"(#loc841))
#loc4168 = loc("add.18927_output_shape_workaround"(#loc845))
#loc4169 = loc("reshape.18955_concat_heads"(#loc858))
#loc4170 = loc("add.18961_output_shape_workaround"(#loc859))
#loc4171 = loc("add.19073_output_shape_workaround"(#loc864))
#loc4172 = loc("add.19184_output_shape_workaround"(#loc868))
#loc4173 = loc("reshape.19212_concat_heads"(#loc881))
#loc4174 = loc("add.19218_output_shape_workaround"(#loc882))
#loc4175 = loc("add.19330_output_shape_workaround"(#loc887))
#loc4176 = loc("add.19441_output_shape_workaround"(#loc891))
#loc4177 = loc("reshape.19469_concat_heads"(#loc904))
#loc4178 = loc("add.19475_output_shape_workaround"(#loc905))
#loc4179 = loc("add.19587_output_shape_workaround"(#loc910))
#loc4180 = loc("add.19698_output_shape_workaround"(#loc914))
#loc4181 = loc("reshape.19726_concat_heads"(#loc927))
#loc4182 = loc("add.19732_output_shape_workaround"(#loc928))
#loc4183 = loc("add.19844_output_shape_workaround"(#loc933))
#loc4184 = loc("add.19955_output_shape_workaround"(#loc937))
#loc4185 = loc("reshape.19983_concat_heads"(#loc950))
#loc4186 = loc("add.19989_output_shape_workaround"(#loc951))
#loc4187 = loc("add.20101_output_shape_workaround"(#loc956))
#loc4188 = loc("add.20212_output_shape_workaround"(#loc960))
#loc4189 = loc("reshape.20240_concat_heads"(#loc973))
#loc4190 = loc("add.20246_output_shape_workaround"(#loc974))
#loc4191 = loc("add.20358_output_shape_workaround"(#loc979))
#loc4192 = loc("add.20469_output_shape_workaround"(#loc983))
#loc4193 = loc("reshape.20497_concat_heads"(#loc996))
#loc4194 = loc("add.20503_output_shape_workaround"(#loc997))
#loc4195 = loc("add.20615_output_shape_workaround"(#loc1002))
#loc4196 = loc("add.20726_output_shape_workaround"(#loc1006))
#loc4197 = loc("reshape.20754_concat_heads"(#loc1019))
#loc4198 = loc("add.20760_output_shape_workaround"(#loc1020))
#loc4199 = loc("add.20872_output_shape_workaround"(#loc1025))
#loc4200 = loc("add.20983_output_shape_workaround"(#loc1029))
#loc4201 = loc("reshape.21011_concat_heads"(#loc1042))
#loc4202 = loc("add.21017_output_shape_workaround"(#loc1043))
#loc4203 = loc("add.21129_output_shape_workaround"(#loc1048))
#loc4204 = loc("add.21240_output_shape_workaround"(#loc1052))
#loc4205 = loc("reshape.21268_concat_heads"(#loc1065))
#loc4206 = loc("add.21274_output_shape_workaround"(#loc1066))
#loc4207 = loc("add.21386_output_shape_workaround"(#loc1071))
#loc4208 = loc("add.21497_output_shape_workaround"(#loc1075))
#loc4209 = loc("reshape.21525_concat_heads"(#loc1088))
#loc4210 = loc("add.21531_output_shape_workaround"(#loc1089))
#loc4211 = loc("add.21643_output_shape_workaround"(#loc1094))
#loc4212 = loc("add.21754_output_shape_workaround"(#loc1098))
#loc4213 = loc("reshape.21782_concat_heads"(#loc1111))
#loc4214 = loc("add.21788_output_shape_workaround"(#loc1112))
#loc4215 = loc("add.21900_output_shape_workaround"(#loc1117))
#loc4216 = loc("add.22011_output_shape_workaround"(#loc1121))
#loc4217 = loc("reshape.22039_concat_heads"(#loc1134))
#loc4218 = loc("add.22045_output_shape_workaround"(#loc1135))
#loc4219 = loc("add.22157_output_shape_workaround"(#loc1140))
#loc4220 = loc("add.22268_output_shape_workaround"(#loc1144))
#loc4221 = loc("reshape.22296_concat_heads"(#loc1157))
#loc4222 = loc("add.22302_output_shape_workaround"(#loc1158))
#loc4223 = loc("add.22414_output_shape_workaround"(#loc1163))
#loc4224 = loc("add.22525_output_shape_workaround"(#loc1167))
#loc4225 = loc("reshape.22553_concat_heads"(#loc1180))
#loc4226 = loc("add.22559_output_shape_workaround"(#loc1181))
#loc4227 = loc("add.22671_output_shape_workaround"(#loc1186))
#loc4228 = loc("add.22782_output_shape_workaround"(#loc1190))
#loc4229 = loc("reshape.22810_concat_heads"(#loc1203))
#loc4230 = loc("add.22816_output_shape_workaround"(#loc1204))
#loc4231 = loc("add.22928_output_shape_workaround"(#loc1209))
#loc4232 = loc("add.23039_output_shape_workaround"(#loc1213))
#loc4233 = loc("reshape.23067_concat_heads"(#loc1226))
#loc4234 = loc("add.23073_output_shape_workaround"(#loc1227))
#loc4235 = loc("add.23185_output_shape_workaround"(#loc1232))
#loc4236 = loc("add.23296_output_shape_workaround"(#loc1236))
#loc4237 = loc("reshape.23324_concat_heads"(#loc1249))
#loc4238 = loc("add.23330_output_shape_workaround"(#loc1250))
#loc4239 = loc("add.23442_output_shape_workaround"(#loc1255))
#loc4240 = loc("add.23553_output_shape_workaround"(#loc1259))
#loc4241 = loc("reshape.23581_concat_heads"(#loc1272))
#loc4242 = loc("add.23587_output_shape_workaround"(#loc1273))
#loc4243 = loc("add.23699_output_shape_workaround"(#loc1278))
#loc4244 = loc("add.23810_output_shape_workaround"(#loc1282))
#loc4245 = loc("reshape.23838_concat_heads"(#loc1295))
#loc4246 = loc("add.23844_output_shape_workaround"(#loc1296))
#loc4247 = loc("add.23956_output_shape_workaround"(#loc1301))
#loc4248 = loc("add.24067_output_shape_workaround"(#loc1305))
#loc4249 = loc("reshape.24095_concat_heads"(#loc1318))
#loc4250 = loc("add.24101_output_shape_workaround"(#loc1319))
#loc4251 = loc("add.24213_output_shape_workaround"(#loc1324))
#loc4252 = loc("add.24324_output_shape_workaround"(#loc1328))
#loc4253 = loc("reshape.24352_concat_heads"(#loc1341))
#loc4254 = loc("add.24358_output_shape_workaround"(#loc1342))
#loc4255 = loc("add.24470_output_shape_workaround"(#loc1347))
#loc4256 = loc("add.24581_output_shape_workaround"(#loc1351))
#loc4257 = loc("reshape.24609_concat_heads"(#loc1364))
#loc4258 = loc("add.24615_output_shape_workaround"(#loc1365))
#loc4259 = loc("add.24727_output_shape_workaround"(#loc1370))
#loc4260 = loc("add.24838_output_shape_workaround"(#loc1374))
#loc4261 = loc("reshape.24866_concat_heads"(#loc1387))
#loc4262 = loc("add.24872_output_shape_workaround"(#loc1388))
#loc4263 = loc("add.24984_output_shape_workaround"(#loc1393))
#loc4264 = loc("add.25095_output_shape_workaround"(#loc1397))
#loc4265 = loc("reshape.25123_concat_heads"(#loc1410))
#loc4266 = loc("add.25129_output_shape_workaround"(#loc1411))
#loc4267 = loc("add.25241_output_shape_workaround"(#loc1416))
#loc4268 = loc("add.25352_output_shape_workaround"(#loc1420))
#loc4269 = loc("reshape.25380_concat_heads"(#loc1433))
#loc4270 = loc("add.25386_output_shape_workaround"(#loc1434))
#loc4271 = loc("add.25498_output_shape_workaround"(#loc1439))
#loc4272 = loc("add.25609_output_shape_workaround"(#loc1443))
#loc4273 = loc("reshape.25637_concat_heads"(#loc1456))
#loc4274 = loc("add.25643_output_shape_workaround"(#loc1457))
#loc4275 = loc("add.25755_output_shape_workaround"(#loc1462))
#loc4276 = loc("add.25842_output_shape_workaround"(#loc1466))
#loc4277 = loc("convolution.11171_reshape"(#loc1468))
#loc4278 = loc("convolution.11171_workaround"(#loc1468))
#loc4279 = loc("add.11287_output_shape_workaround"(#loc1472))
#loc4280 = loc("reshape.11315_concat_heads"(#loc1485))
#loc4281 = loc("add.11321_output_shape_workaround"(#loc1486))
#loc4282 = loc("add.11433_output_shape_workaround"(#loc1491))
#loc4283 = loc("add.11544_output_shape_workaround"(#loc1495))
#loc4284 = loc("reshape.11572_concat_heads"(#loc1508))
#loc4285 = loc("add.11578_output_shape_workaround"(#loc1509))
#loc4286 = loc("add.11690_output_shape_workaround"(#loc1514))
#loc4287 = loc("add.11801_output_shape_workaround"(#loc1518))
#loc4288 = loc("reshape.11829_concat_heads"(#loc1531))
#loc4289 = loc("add.11835_output_shape_workaround"(#loc1532))
#loc4290 = loc("add.11947_output_shape_workaround"(#loc1537))
#loc4291 = loc("add.12058_output_shape_workaround"(#loc1541))
#loc4292 = loc("reshape.12086_concat_heads"(#loc1554))
#loc4293 = loc("add.12092_output_shape_workaround"(#loc1555))
#loc4294 = loc("add.12204_output_shape_workaround"(#loc1560))
#loc4295 = loc("add.12315_output_shape_workaround"(#loc1564))
#loc4296 = loc("reshape.12343_concat_heads"(#loc1577))
#loc4297 = loc("add.12349_output_shape_workaround"(#loc1578))
#loc4298 = loc("add.12461_output_shape_workaround"(#loc1583))
#loc4299 = loc("add.12572_output_shape_workaround"(#loc1587))
#loc4300 = loc("reshape.12600_concat_heads"(#loc1600))
#loc4301 = loc("add.12606_output_shape_workaround"(#loc1601))
#loc4302 = loc("add.12718_output_shape_workaround"(#loc1606))
#loc4303 = loc("add.12829_output_shape_workaround"(#loc1610))
#loc4304 = loc("reshape.12857_concat_heads"(#loc1623))
#loc4305 = loc("add.12863_output_shape_workaround"(#loc1624))
#loc4306 = loc("add.12975_output_shape_workaround"(#loc1629))
#loc4307 = loc("add.13086_output_shape_workaround"(#loc1633))
#loc4308 = loc("reshape.13114_concat_heads"(#loc1646))
#loc4309 = loc("add.13120_output_shape_workaround"(#loc1647))
#loc4310 = loc("add.13232_output_shape_workaround"(#loc1652))
#loc4311 = loc("add.13343_output_shape_workaround"(#loc1656))
#loc4312 = loc("reshape.13371_concat_heads"(#loc1669))
#loc4313 = loc("add.13377_output_shape_workaround"(#loc1670))
#loc4314 = loc("add.13489_output_shape_workaround"(#loc1675))
#loc4315 = loc("add.13600_output_shape_workaround"(#loc1679))
#loc4316 = loc("reshape.13628_concat_heads"(#loc1692))
#loc4317 = loc("add.13634_output_shape_workaround"(#loc1693))
#loc4318 = loc("add.13746_output_shape_workaround"(#loc1698))
#loc4319 = loc("add.13857_output_shape_workaround"(#loc1702))
#loc4320 = loc("reshape.13885_concat_heads"(#loc1715))
#loc4321 = loc("add.13891_output_shape_workaround"(#loc1716))
#loc4322 = loc("add.14003_output_shape_workaround"(#loc1721))
#loc4323 = loc("add.14114_output_shape_workaround"(#loc1725))
#loc4324 = loc("reshape.14142_concat_heads"(#loc1738))
#loc4325 = loc("add.14148_output_shape_workaround"(#loc1739))
#loc4326 = loc("add.14260_output_shape_workaround"(#loc1744))
#loc4327 = loc("add.14371_output_shape_workaround"(#loc1748))
#loc4328 = loc("reshape.14399_concat_heads"(#loc1761))
#loc4329 = loc("add.14405_output_shape_workaround"(#loc1762))
#loc4330 = loc("add.14517_output_shape_workaround"(#loc1767))
#loc4331 = loc("add.14628_output_shape_workaround"(#loc1771))
#loc4332 = loc("reshape.14656_concat_heads"(#loc1784))
#loc4333 = loc("add.14662_output_shape_workaround"(#loc1785))
#loc4334 = loc("add.14774_output_shape_workaround"(#loc1790))
#loc4335 = loc("add.14885_output_shape_workaround"(#loc1794))
#loc4336 = loc("reshape.14913_concat_heads"(#loc1807))
#loc4337 = loc("add.14919_output_shape_workaround"(#loc1808))
#loc4338 = loc("add.15031_output_shape_workaround"(#loc1813))
#loc4339 = loc("add.15142_output_shape_workaround"(#loc1817))
#loc4340 = loc("reshape.15170_concat_heads"(#loc1830))
#loc4341 = loc("add.15176_output_shape_workaround"(#loc1831))
#loc4342 = loc("add.15288_output_shape_workaround"(#loc1836))
#loc4343 = loc("add.15399_output_shape_workaround"(#loc1840))
#loc4344 = loc("reshape.15427_concat_heads"(#loc1853))
#loc4345 = loc("add.15433_output_shape_workaround"(#loc1854))
#loc4346 = loc("add.15545_output_shape_workaround"(#loc1859))
#loc4347 = loc("add.15656_output_shape_workaround"(#loc1863))
#loc4348 = loc("reshape.15684_concat_heads"(#loc1876))
#loc4349 = loc("add.15690_output_shape_workaround"(#loc1877))
#loc4350 = loc("add.15802_output_shape_workaround"(#loc1882))
#loc4351 = loc("add.15913_output_shape_workaround"(#loc1886))
#loc4352 = loc("reshape.15941_concat_heads"(#loc1899))
#loc4353 = loc("add.15947_output_shape_workaround"(#loc1900))
#loc4354 = loc("add.16059_output_shape_workaround"(#loc1905))
#loc4355 = loc("add.16170_output_shape_workaround"(#loc1909))
#loc4356 = loc("reshape.16198_concat_heads"(#loc1922))
#loc4357 = loc("add.16204_output_shape_workaround"(#loc1923))
#loc4358 = loc("add.16316_output_shape_workaround"(#loc1928))
#loc4359 = loc("add.16427_output_shape_workaround"(#loc1932))
#loc4360 = loc("reshape.16455_concat_heads"(#loc1945))
#loc4361 = loc("add.16461_output_shape_workaround"(#loc1946))
#loc4362 = loc("add.16573_output_shape_workaround"(#loc1951))
#loc4363 = loc("add.16684_output_shape_workaround"(#loc1955))
#loc4364 = loc("reshape.16712_concat_heads"(#loc1968))
#loc4365 = loc("add.16718_output_shape_workaround"(#loc1969))
#loc4366 = loc("add.16830_output_shape_workaround"(#loc1974))
#loc4367 = loc("add.16941_output_shape_workaround"(#loc1978))
#loc4368 = loc("reshape.16969_concat_heads"(#loc1991))
#loc4369 = loc("add.16975_output_shape_workaround"(#loc1992))
#loc4370 = loc("add.17087_output_shape_workaround"(#loc1997))
#loc4371 = loc("add.17198_output_shape_workaround"(#loc2001))
#loc4372 = loc("reshape.17226_concat_heads"(#loc2014))
#loc4373 = loc("add.17232_output_shape_workaround"(#loc2015))
#loc4374 = loc("add.17344_output_shape_workaround"(#loc2020))
#loc4375 = loc("add.17455_output_shape_workaround"(#loc2024))
#loc4376 = loc("reshape.17483_concat_heads"(#loc2037))
#loc4377 = loc("add.17489_output_shape_workaround"(#loc2038))
#loc4378 = loc("add.17601_output_shape_workaround"(#loc2043))
#loc4379 = loc("add.17712_output_shape_workaround"(#loc2047))
#loc4380 = loc("reshape.17740_concat_heads"(#loc2060))
#loc4381 = loc("add.17746_output_shape_workaround"(#loc2061))
#loc4382 = loc("add.17858_output_shape_workaround"(#loc2066))
#loc4383 = loc("add.17969_output_shape_workaround"(#loc2070))
#loc4384 = loc("reshape.17997_concat_heads"(#loc2083))
#loc4385 = loc("add.18003_output_shape_workaround"(#loc2084))
#loc4386 = loc("add.18115_output_shape_workaround"(#loc2089))
#loc4387 = loc("add.18202_output_shape_workaround"(#loc2093))
#loc4388 = loc("convolution.3099_reshape"(#loc2095))
#loc4389 = loc("convolution.3099_workaround"(#loc2095))
#loc4390 = loc("add.3231_output_shape_workaround"(#loc2099))
#loc4391 = loc("reshape.3259_concat_heads"(#loc2112))
#loc4392 = loc("add.3265_output_shape_workaround"(#loc2113))
#loc4393 = loc("add.3377_output_shape_workaround"(#loc2118))
#loc4394 = loc("add.3504_output_shape_workaround"(#loc2122))
#loc4395 = loc("reshape.3532_concat_heads"(#loc2135))
#loc4396 = loc("add.3538_output_shape_workaround"(#loc2136))
#loc4397 = loc("add.3650_output_shape_workaround"(#loc2141))
#loc4398 = loc("add.3777_output_shape_workaround"(#loc2145))
#loc4399 = loc("reshape.3805_concat_heads"(#loc2158))
#loc4400 = loc("add.3811_output_shape_workaround"(#loc2159))
#loc4401 = loc("add.3923_output_shape_workaround"(#loc2164))
#loc4402 = loc("add.4050_output_shape_workaround"(#loc2168))
#loc4403 = loc("reshape.4078_concat_heads"(#loc2181))
#loc4404 = loc("add.4084_output_shape_workaround"(#loc2182))
#loc4405 = loc("add.4196_output_shape_workaround"(#loc2187))
#loc4406 = loc("add.4323_output_shape_workaround"(#loc2191))
#loc4407 = loc("reshape.4351_concat_heads"(#loc2204))
#loc4408 = loc("add.4357_output_shape_workaround"(#loc2205))
#loc4409 = loc("add.4469_output_shape_workaround"(#loc2210))
#loc4410 = loc("add.4596_output_shape_workaround"(#loc2214))
#loc4411 = loc("reshape.4624_concat_heads"(#loc2227))
#loc4412 = loc("add.4630_output_shape_workaround"(#loc2228))
#loc4413 = loc("add.4742_output_shape_workaround"(#loc2233))
#loc4414 = loc("add.4869_output_shape_workaround"(#loc2237))
#loc4415 = loc("reshape.4897_concat_heads"(#loc2250))
#loc4416 = loc("add.4903_output_shape_workaround"(#loc2251))
#loc4417 = loc("add.5015_output_shape_workaround"(#loc2256))
#loc4418 = loc("add.5142_output_shape_workaround"(#loc2260))
#loc4419 = loc("reshape.5170_concat_heads"(#loc2273))
#loc4420 = loc("add.5176_output_shape_workaround"(#loc2274))
#loc4421 = loc("add.5288_output_shape_workaround"(#loc2279))
#loc4422 = loc("add.5415_output_shape_workaround"(#loc2283))
#loc4423 = loc("reshape.5443_concat_heads"(#loc2296))
#loc4424 = loc("add.5449_output_shape_workaround"(#loc2297))
#loc4425 = loc("add.5561_output_shape_workaround"(#loc2302))
#loc4426 = loc("add.5688_output_shape_workaround"(#loc2306))
#loc4427 = loc("reshape.5716_concat_heads"(#loc2319))
#loc4428 = loc("add.5722_output_shape_workaround"(#loc2320))
#loc4429 = loc("add.5834_output_shape_workaround"(#loc2325))
#loc4430 = loc("add.5961_output_shape_workaround"(#loc2329))
#loc4431 = loc("reshape.5989_concat_heads"(#loc2342))
#loc4432 = loc("add.5995_output_shape_workaround"(#loc2343))
#loc4433 = loc("add.6107_output_shape_workaround"(#loc2348))
#loc4434 = loc("add.6234_output_shape_workaround"(#loc2352))
#loc4435 = loc("reshape.6262_concat_heads"(#loc2365))
#loc4436 = loc("add.6268_output_shape_workaround"(#loc2366))
#loc4437 = loc("add.6380_output_shape_workaround"(#loc2371))
#loc4438 = loc("add.6507_output_shape_workaround"(#loc2375))
#loc4439 = loc("reshape.6535_concat_heads"(#loc2388))
#loc4440 = loc("add.6541_output_shape_workaround"(#loc2389))
#loc4441 = loc("add.6653_output_shape_workaround"(#loc2394))
#loc4442 = loc("add.6780_output_shape_workaround"(#loc2398))
#loc4443 = loc("reshape.6808_concat_heads"(#loc2411))
#loc4444 = loc("add.6814_output_shape_workaround"(#loc2412))
#loc4445 = loc("add.6926_output_shape_workaround"(#loc2417))
#loc4446 = loc("add.7053_output_shape_workaround"(#loc2421))
#loc4447 = loc("reshape.7081_concat_heads"(#loc2434))
#loc4448 = loc("add.7087_output_shape_workaround"(#loc2435))
#loc4449 = loc("add.7199_output_shape_workaround"(#loc2440))
#loc4450 = loc("add.7326_output_shape_workaround"(#loc2444))
#loc4451 = loc("reshape.7354_concat_heads"(#loc2457))
#loc4452 = loc("add.7360_output_shape_workaround"(#loc2458))
#loc4453 = loc("add.7472_output_shape_workaround"(#loc2463))
#loc4454 = loc("add.7599_output_shape_workaround"(#loc2467))
#loc4455 = loc("reshape.7627_concat_heads"(#loc2480))
#loc4456 = loc("add.7633_output_shape_workaround"(#loc2481))
#loc4457 = loc("add.7745_output_shape_workaround"(#loc2486))
#loc4458 = loc("add.7872_output_shape_workaround"(#loc2490))
#loc4459 = loc("reshape.7900_concat_heads"(#loc2503))
#loc4460 = loc("add.7906_output_shape_workaround"(#loc2504))
#loc4461 = loc("add.8018_output_shape_workaround"(#loc2509))
#loc4462 = loc("add.8145_output_shape_workaround"(#loc2513))
#loc4463 = loc("reshape.8173_concat_heads"(#loc2526))
#loc4464 = loc("add.8179_output_shape_workaround"(#loc2527))
#loc4465 = loc("add.8291_output_shape_workaround"(#loc2532))
#loc4466 = loc("add.8418_output_shape_workaround"(#loc2536))
#loc4467 = loc("reshape.8446_concat_heads"(#loc2549))
#loc4468 = loc("add.8452_output_shape_workaround"(#loc2550))
#loc4469 = loc("add.8564_output_shape_workaround"(#loc2555))
#loc4470 = loc("add.8691_output_shape_workaround"(#loc2559))
#loc4471 = loc("reshape.8719_concat_heads"(#loc2572))
#loc4472 = loc("add.8725_output_shape_workaround"(#loc2573))
#loc4473 = loc("add.8837_output_shape_workaround"(#loc2578))
#loc4474 = loc("add.8964_output_shape_workaround"(#loc2582))
#loc4475 = loc("reshape.8992_concat_heads"(#loc2595))
#loc4476 = loc("add.8998_output_shape_workaround"(#loc2596))
#loc4477 = loc("add.9110_output_shape_workaround"(#loc2601))
#loc4478 = loc("add.9237_output_shape_workaround"(#loc2605))
#loc4479 = loc("reshape.9265_concat_heads"(#loc2618))
#loc4480 = loc("add.9271_output_shape_workaround"(#loc2619))
#loc4481 = loc("add.9383_output_shape_workaround"(#loc2624))
#loc4482 = loc("add.9510_output_shape_workaround"(#loc2628))
#loc4483 = loc("reshape.9538_concat_heads"(#loc2641))
#loc4484 = loc("add.9544_output_shape_workaround"(#loc2642))
#loc4485 = loc("add.9656_output_shape_workaround"(#loc2647))
#loc4486 = loc("add.9783_output_shape_workaround"(#loc2651))
#loc4487 = loc("reshape.9811_concat_heads"(#loc2664))
#loc4488 = loc("add.9817_output_shape_workaround"(#loc2665))
#loc4489 = loc("add.9929_output_shape_workaround"(#loc2670))
#loc4490 = loc("add.10056_output_shape_workaround"(#loc2674))
#loc4491 = loc("reshape.10084_concat_heads"(#loc2687))
#loc4492 = loc("add.10090_output_shape_workaround"(#loc2688))
#loc4493 = loc("add.10202_output_shape_workaround"(#loc2693))
#loc4494 = loc("add.10329_output_shape_workaround"(#loc2697))
#loc4495 = loc("reshape.10357_concat_heads"(#loc2710))
#loc4496 = loc("add.10363_output_shape_workaround"(#loc2711))
#loc4497 = loc("add.10475_output_shape_workaround"(#loc2716))
#loc4498 = loc("add.10562_output_shape_workaround"(#loc2720))
#loc4499 = loc("concatenate.25964_tm0"(#loc2756))
#loc4500 = loc("concatenate.25964_tm1"(#loc2756))
#loc4501 = loc("select.25967_workaround"(#loc2764))
#loc4502 = loc("add.26162_decomp_matmul"(#loc2771))
#loc4503 = loc("add.26162_decomp_add"(#loc2771))
#loc4504 = loc("add.26229_decomp_matmul"(#loc2776))
#loc4505 = loc("add.26229_decomp_add"(#loc2776))
#loc4506 = loc("reshape.26355_tm0"(#loc2807))
#loc4507 = loc("reshape.26355_tm1"(#loc2807))
#loc4508 = loc("select.26357_workaround"(#loc2811))
#loc4509 = loc("add.26424_decomp_matmul"(#loc2817))
#loc4510 = loc("add.26424_decomp_add"(#loc2817))
#loc4511 = loc("add.26491_decomp_matmul"(#loc2822))
#loc4512 = loc("add.26491_decomp_add"(#loc2822))
#loc4513 = loc("add.26644_decomp_matmul"(#loc2853))
#loc4514 = loc("add.26644_decomp_add"(#loc2853))
#loc4515 = loc("add.26711_decomp_matmul"(#loc2858))
#loc4516 = loc("add.26711_decomp_add"(#loc2858))
#loc4517 = loc("add.26864_decomp_matmul"(#loc2891))
#loc4518 = loc("add.26864_decomp_add"(#loc2891))
#loc4519 = loc("add.26931_decomp_matmul"(#loc2896))
#loc4520 = loc("add.26931_decomp_add"(#loc2896))
#loc4521 = loc("add.27084_decomp_matmul"(#loc2927))
#loc4522 = loc("add.27084_decomp_add"(#loc2927))
#loc4523 = loc("add.27151_decomp_matmul"(#loc2932))
#loc4524 = loc("add.27151_decomp_add"(#loc2932))
#loc4525 = loc("add.27304_decomp_matmul"(#loc2965))
#loc4526 = loc("add.27304_decomp_add"(#loc2965))
#loc4527 = loc("add.27371_decomp_matmul"(#loc2970))
#loc4528 = loc("add.27371_decomp_add"(#loc2970))
#loc4529 = loc("add.27524_decomp_matmul"(#loc3001))
#loc4530 = loc("add.27524_decomp_add"(#loc3001))
#loc4531 = loc("add.27591_decomp_matmul"(#loc3006))
#loc4532 = loc("add.27591_decomp_add"(#loc3006))
#loc4533 = loc("add.27744_decomp_matmul"(#loc3039))
#loc4534 = loc("add.27744_decomp_add"(#loc3039))
#loc4535 = loc("add.27811_decomp_matmul"(#loc3044))
#loc4536 = loc("add.27811_decomp_add"(#loc3044))
#loc4537 = loc("add.27964_decomp_matmul"(#loc3075))
#loc4538 = loc("add.27964_decomp_add"(#loc3075))
#loc4539 = loc("add.28031_decomp_matmul"(#loc3080))
#loc4540 = loc("add.28031_decomp_add"(#loc3080))
#loc4541 = loc("add.28184_decomp_matmul"(#loc3113))
#loc4542 = loc("add.28184_decomp_add"(#loc3113))
#loc4543 = loc("add.28251_decomp_matmul"(#loc3118))
#loc4544 = loc("add.28251_decomp_add"(#loc3118))
#loc4545 = loc("add.28404_decomp_matmul"(#loc3149))
#loc4546 = loc("add.28404_decomp_add"(#loc3149))
#loc4547 = loc("add.28471_decomp_matmul"(#loc3154))
#loc4548 = loc("add.28471_decomp_add"(#loc3154))
#loc4549 = loc("add.28624_decomp_matmul"(#loc3187))
#loc4550 = loc("add.28624_decomp_add"(#loc3187))
#loc4551 = loc("add.28691_decomp_matmul"(#loc3192))
#loc4552 = loc("add.28691_decomp_add"(#loc3192))
#loc4553 = loc("add.28844_decomp_matmul"(#loc3223))
#loc4554 = loc("add.28844_decomp_add"(#loc3223))
#loc4555 = loc("add.28911_decomp_matmul"(#loc3228))
#loc4556 = loc("add.28911_decomp_add"(#loc3228))
#loc4557 = loc("add.29064_decomp_matmul"(#loc3261))
#loc4558 = loc("add.29064_decomp_add"(#loc3261))
#loc4559 = loc("add.29131_decomp_matmul"(#loc3266))
#loc4560 = loc("add.29131_decomp_add"(#loc3266))
#loc4561 = loc("add.29284_decomp_matmul"(#loc3297))
#loc4562 = loc("add.29284_decomp_add"(#loc3297))
#loc4563 = loc("add.29351_decomp_matmul"(#loc3302))
#loc4564 = loc("add.29351_decomp_add"(#loc3302))
#loc4565 = loc("add.29504_decomp_matmul"(#loc3335))
#loc4566 = loc("add.29504_decomp_add"(#loc3335))
#loc4567 = loc("add.29571_decomp_matmul"(#loc3340))
#loc4568 = loc("add.29571_decomp_add"(#loc3340))
#loc4569 = loc("add.29724_decomp_matmul"(#loc3371))
#loc4570 = loc("add.29724_decomp_add"(#loc3371))
#loc4571 = loc("add.29791_decomp_matmul"(#loc3376))
#loc4572 = loc("add.29791_decomp_add"(#loc3376))
#loc4573 = loc("add.29944_decomp_matmul"(#loc3409))
#loc4574 = loc("add.29944_decomp_add"(#loc3409))
#loc4575 = loc("add.30011_decomp_matmul"(#loc3414))
#loc4576 = loc("add.30011_decomp_add"(#loc3414))
#loc4577 = loc("add.30164_decomp_matmul"(#loc3445))
#loc4578 = loc("add.30164_decomp_add"(#loc3445))
#loc4579 = loc("add.30231_decomp_matmul"(#loc3450))
#loc4580 = loc("add.30231_decomp_add"(#loc3450))
#loc4581 = loc("add.30384_decomp_matmul"(#loc3483))
#loc4582 = loc("add.30384_decomp_add"(#loc3483))
#loc4583 = loc("add.30451_decomp_matmul"(#loc3488))
#loc4584 = loc("add.30451_decomp_add"(#loc3488))
#loc4585 = loc("add.30604_decomp_matmul"(#loc3519))
#loc4586 = loc("add.30604_decomp_add"(#loc3519))
#loc4587 = loc("add.30671_decomp_matmul"(#loc3524))
#loc4588 = loc("add.30671_decomp_add"(#loc3524))
#loc4589 = loc("add.30824_decomp_matmul"(#loc3557))
#loc4590 = loc("add.30824_decomp_add"(#loc3557))
#loc4591 = loc("add.30891_decomp_matmul"(#loc3562))
#loc4592 = loc("add.30891_decomp_add"(#loc3562))
#loc4593 = loc("add.31044_decomp_matmul"(#loc3593))
#loc4594 = loc("add.31044_decomp_add"(#loc3593))
#loc4595 = loc("add.31111_decomp_matmul"(#loc3598))
#loc4596 = loc("add.31111_decomp_add"(#loc3598))
#loc4597 = loc("add.31264_decomp_matmul"(#loc3631))
#loc4598 = loc("add.31264_decomp_add"(#loc3631))
#loc4599 = loc("add.31331_decomp_matmul"(#loc3636))
#loc4600 = loc("add.31331_decomp_add"(#loc3636))
#loc4601 = loc("add.31484_decomp_matmul"(#loc3667))
#loc4602 = loc("add.31484_decomp_add"(#loc3667))
#loc4603 = loc("add.31551_decomp_matmul"(#loc3672))
#loc4604 = loc("add.31551_decomp_add"(#loc3672))
#loc4605 = loc("add.31704_decomp_matmul"(#loc3705))
#loc4606 = loc("add.31704_decomp_add"(#loc3705))
#loc4607 = loc("add.31771_decomp_matmul"(#loc3710))
#loc4608 = loc("add.31771_decomp_add"(#loc3710))
#loc4609 = loc("add.31924_decomp_matmul"(#loc3741))
#loc4610 = loc("add.31924_decomp_add"(#loc3741))
#loc4611 = loc("add.31991_decomp_matmul"(#loc3746))
#loc4612 = loc("add.31991_decomp_add"(#loc3746))
#loc4613 = loc("add.32144_decomp_matmul"(#loc3779))
#loc4614 = loc("add.32144_decomp_add"(#loc3779))
#loc4615 = loc("add.32211_decomp_matmul"(#loc3784))
#loc4616 = loc("add.32211_decomp_add"(#loc3784))
#loc4617 = loc("add.32364_decomp_matmul"(#loc3815))
#loc4618 = loc("add.32364_decomp_add"(#loc3815))
#loc4619 = loc("add.32431_decomp_matmul"(#loc3820))
#loc4620 = loc("add.32431_decomp_add"(#loc3820))
#loc4621 = loc("add.32584_decomp_matmul"(#loc3853))
#loc4622 = loc("add.32584_decomp_add"(#loc3853))
#loc4623 = loc("add.32651_decomp_matmul"(#loc3858))
#loc4624 = loc("add.32651_decomp_add"(#loc3858))
#loc4625 = loc("add.32804_decomp_matmul"(#loc3889))
#loc4626 = loc("add.32804_decomp_add"(#loc3889))
#loc4627 = loc("add.32871_decomp_matmul"(#loc3894))
#loc4628 = loc("add.32871_decomp_add"(#loc3894))
#loc4629 = loc("add.33024_decomp_matmul"(#loc3927))
#loc4630 = loc("add.33024_decomp_add"(#loc3927))
#loc4631 = loc("add.33091_decomp_matmul"(#loc3932))
#loc4632 = loc("add.33091_decomp_add"(#loc3932))
#loc4633 = loc("add.33244_decomp_matmul"(#loc3963))
#loc4634 = loc("add.33244_decomp_add"(#loc3963))
#loc4635 = loc("add.33311_decomp_matmul"(#loc3968))
#loc4636 = loc("add.33311_decomp_add"(#loc3968))
#loc4637 = loc("add.33464_decomp_matmul"(#loc4001))
#loc4638 = loc("add.33464_decomp_add"(#loc4001))
#loc4639 = loc("add.33531_decomp_matmul"(#loc4006))
#loc4640 = loc("add.33531_decomp_add"(#loc4006))
#loc4641 = loc("add.33684_decomp_matmul"(#loc4036))
#loc4642 = loc("add.33684_decomp_add"(#loc4036))
#loc4643 = loc("add.33751_decomp_matmul"(#loc4041))
#loc4644 = loc("add.33751_decomp_add"(#loc4041))
#loc4645 = loc("add.33799_decomp_matmul"(#loc4052))
#loc4646 = loc("add.33799_decomp_add"(#loc4052))
#loc4647 = loc(fused[#loc4064, #loc4065])
#loc4648 = loc("concatenate.64_tm0"(#loc4068))
#loc4649 = loc("add.18819_tm0"(#loc842))
#loc4650 = loc("multiply.108_tm0_tm0"(#loc4158))
#loc4651 = loc("reshape.33794_tm1_tm1"(#loc4159))
#loc4652 = loc("convert.26055_tm0_tm0"(#loc4162))
#loc4653 = loc("reshape.25998_tm0_tm0"(#loc4165))
#loc4654 = loc("reshape.25998_tm0_tm1"(#loc4165))
#loc4655 = loc("concatenate.25964_tm0_tm0"(#loc4499))
#loc4656 = loc("concatenate.25964_tm0_tm1"(#loc4499))
#loc4657 = loc("concatenate.25964_tm1_tm0"(#loc4500))
#loc4658 = loc("concatenate.25964_tm1_tm1"(#loc4500))
#loc4659 = loc("reshape.26355_tm0_tm0"(#loc4506))
#loc4660 = loc("reshape.26355_tm0_tm1"(#loc4506))
#loc4661 = loc("reshape.26355_tm1_tm1"(#loc4507))
#loc4662 = loc("concatenate.64_tm0_tm1"(#loc4648))
#loc4663 = loc("multiply.108_tm0_tm0_tm0"(#loc4650))
#loc4664 = loc("multiply.108_tm0_tm0_tm0_tm1"(#loc4663))
