#loc1 = loc("p0.1")
#loc2 = loc("p1.5")
#loc3 = loc("p2.9")
#loc4 = loc("p3.13")
#loc5 = loc("p4.17")
#loc6 = loc("p5.21")
#loc7 = loc("p6.31")
#loc8 = loc("p7.35")
#loc9 = loc("p8.40")
#loc10 = loc("p9.50")
#loc11 = loc("p10.54")
#loc12 = loc("p11.58")
#loc13 = loc("p12.62")
#loc14 = loc("p13.66")
#loc15 = loc("p14.68")
#loc16 = loc("p15.72")
#loc17 = loc("p16.76")
#loc18 = loc("p17.80")
#loc19 = loc("p18.84")
#loc20 = loc("p19.86")
#loc21 = loc("p20.90")
#loc22 = loc("p21.94")
#loc23 = loc("p22.98")
#loc24 = loc("p23.102")
#loc25 = loc("p24.104")
#loc26 = loc("p25.136")
#loc27 = loc("p26.140")
#loc28 = loc("p27.144")
#loc29 = loc("p28.148")
#loc30 = loc("p29.152")
#loc31 = loc("p30.156")
#loc32 = loc("p31.166")
#loc33 = loc("p32.170")
#loc34 = loc("p33.183")
#loc35 = loc("p34.187")
#loc36 = loc("p35.191")
#loc37 = loc("p36.195")
#loc38 = loc("p37.199")
#loc39 = loc("p38.201")
#loc40 = loc("p39.205")
#loc41 = loc("p40.209")
#loc42 = loc("p41.213")
#loc43 = loc("p42.217")
#loc44 = loc("p43.219")
#loc45 = loc("p44.223")
#loc46 = loc("p45.227")
#loc47 = loc("p46.231")
#loc48 = loc("p47.235")
#loc49 = loc("p48.237")
#loc50 = loc("p49.269")
#loc51 = loc("p50.354")
#loc52 = loc("p51.358")
#loc53 = loc("p52.362")
#loc54 = loc("p53.366")
#loc55 = loc("p54.370")
#loc56 = loc("p55.476")
#loc57 = loc("p56.480")
#loc58 = loc("p57.484")
#loc59 = loc("p58.488")
#loc60 = loc("p59.492")
#loc61 = loc("p60.515")
#loc62 = loc("p61.519")
#loc63 = loc("p62.523")
#loc64 = loc("p63.527")
#loc65 = loc("p64.531")
#loc66 = loc("p65.535")
#loc67 = loc("p66.545")
#loc68 = loc("p67.549")
#loc69 = loc("p68.562")
#loc70 = loc("p69.566")
#loc71 = loc("p70.570")
#loc72 = loc("p71.574")
#loc73 = loc("p72.578")
#loc74 = loc("p73.580")
#loc75 = loc("p74.584")
#loc76 = loc("p75.588")
#loc77 = loc("p76.592")
#loc78 = loc("p77.596")
#loc79 = loc("p78.598")
#loc80 = loc("p79.602")
#loc81 = loc("p80.606")
#loc82 = loc("p81.610")
#loc83 = loc("p82.614")
#loc84 = loc("p83.616")
#loc85 = loc("p84.620")
#loc86 = loc("p85.624")
#loc87 = loc("p86.628")
#loc88 = loc("p87.632")
#loc89 = loc("p88.719")
#loc90 = loc("p89.723")
#loc91 = loc("p90.727")
#loc92 = loc("p91.731")
#loc93 = loc("p92.735")
#loc94 = loc("p93.758")
#loc95 = loc("p94.762")
#loc96 = loc("p95.766")
#loc97 = loc("p96.770")
#loc98 = loc("p97.774")
#loc99 = loc("p98.778")
#loc100 = loc("p99.788")
#loc101 = loc("p100.792")
#loc102 = loc("p101.805")
#loc103 = loc("p102.809")
#loc104 = loc("p103.813")
#loc105 = loc("p104.817")
#loc106 = loc("p105.821")
#loc107 = loc("p106.823")
#loc108 = loc("p107.827")
#loc109 = loc("p108.831")
#loc110 = loc("p109.835")
#loc111 = loc("p110.839")
#loc112 = loc("p111.841")
#loc113 = loc("p112.845")
#loc114 = loc("p113.849")
#loc115 = loc("p114.853")
#loc116 = loc("p115.857")
#loc117 = loc("p116.859")
#loc118 = loc("p117.863")
#loc119 = loc("p118.867")
#loc120 = loc("p119.871")
#loc121 = loc("p120.875")
#loc122 = loc("p121.962")
#loc123 = loc("p122.966")
#loc124 = loc("p123.970")
#loc125 = loc("p124.974")
#loc126 = loc("p125.978")
module @SyncTensorsGraph.1002 attributes {mhlo.cross_program_prefetches = [], mhlo.input_output_alias = [], mhlo.is_dynamic = false, mhlo.use_auto_spmd_partitioning = false} {
  func.func @main(%arg0: tensor<128xbf16> {ttcore.argument_type = #ttcore.argument_type<constant>, ttir.name = "l__self___neck_top_down_layers_1_final_conv_batch_norm2d_running_var"} loc("p0.1"), %arg1: tensor<128xbf16> {ttcore.argument_type = #ttcore.argument_type<constant>, ttir.name = "l__self___neck_top_down_layers_1_final_conv_batch_norm2d_running_mean"} loc("p1.5"), %arg2: tensor<128xbf16> {ttcore.argument_type = #ttcore.argument_type<parameter>, ttir.name = "l__self___neck_top_down_layers_1_final_conv_batch_norm2d_bias"} loc("p2.9"), %arg3: tensor<128xbf16> {ttcore.argument_type = #ttcore.argument_type<parameter>, ttir.name = "l__self___neck_top_down_layers_1_final_conv_batch_norm2d_weight"} loc("p3.13"), %arg4: tensor<128x256x1x1xbf16> {ttcore.argument_type = #ttcore.argument_type<parameter>, ttir.name = "l__self___neck_top_down_layers_1_final_conv_conv_weight"} loc("p4.17"), %arg5: tensor<2xbf16> {ttcore.argument_type = #ttcore.argument_type<parameter>, ttir.name = "l__self___neck_top_down_layers_1_attn_block_bias"} loc("p5.21"), %arg6: tensor<64xbf16> {ttcore.argument_type = #ttcore.argument_type<parameter>, ttir.name = "l__self___neck_top_down_layers_1_attn_block_guide_fc_bias"} loc("p6.31"), %arg7: tensor<64x512xbf16> {ttcore.argument_type = #ttcore.argument_type<parameter>, ttir.name = "l__self___neck_top_down_layers_1_attn_block_guide_fc_weight"} loc("p7.35"), %arg8: tensor<1x3x512xbf16> {ttcore.argument_type = #ttcore.argument_type<input>, ttir.name = "args_3"} loc("p8.40"), %arg9: tensor<64xbf16> {ttcore.argument_type = #ttcore.argument_type<constant>, ttir.name = "l__self___neck_top_down_layers_1_blocks_0_conv2_batch_norm2d_running_var"} loc("p9.50"), %arg10: tensor<64xbf16> {ttcore.argument_type = #ttcore.argument_type<constant>, ttir.name = "l__self___neck_top_down_layers_1_blocks_0_conv2_batch_norm2d_running_mean"} loc("p10.54"), %arg11: tensor<64xbf16> {ttcore.argument_type = #ttcore.argument_type<parameter>, ttir.name = "l__self___neck_top_down_layers_1_blocks_0_conv2_batch_norm2d_bias"} loc("p11.58"), %arg12: tensor<64xbf16> {ttcore.argument_type = #ttcore.argument_type<parameter>, ttir.name = "l__self___neck_top_down_layers_1_blocks_0_conv2_batch_norm2d_weight"} loc("p12.62"), %arg13: tensor<64x64x3x3xbf16> {ttcore.argument_type = #ttcore.argument_type<parameter>, ttir.name = "l__self___neck_top_down_layers_1_blocks_0_conv2_conv_weight"} loc("p13.66"), %arg14: tensor<64xbf16> {ttcore.argument_type = #ttcore.argument_type<constant>, ttir.name = "l__self___neck_top_down_layers_1_blocks_0_conv1_batch_norm2d_running_var"} loc("p14.68"), %arg15: tensor<64xbf16> {ttcore.argument_type = #ttcore.argument_type<constant>, ttir.name = "l__self___neck_top_down_layers_1_blocks_0_conv1_batch_norm2d_running_mean"} loc("p15.72"), %arg16: tensor<64xbf16> {ttcore.argument_type = #ttcore.argument_type<parameter>, ttir.name = "l__self___neck_top_down_layers_1_blocks_0_conv1_batch_norm2d_bias"} loc("p16.76"), %arg17: tensor<64xbf16> {ttcore.argument_type = #ttcore.argument_type<parameter>, ttir.name = "l__self___neck_top_down_layers_1_blocks_0_conv1_batch_norm2d_weight"} loc("p17.80"), %arg18: tensor<64x64x3x3xbf16> {ttcore.argument_type = #ttcore.argument_type<parameter>, ttir.name = "l__self___neck_top_down_layers_1_blocks_0_conv1_conv_weight"} loc("p18.84"), %arg19: tensor<128xbf16> {ttcore.argument_type = #ttcore.argument_type<constant>, ttir.name = "l__self___neck_top_down_layers_1_main_conv_batch_norm2d_running_var"} loc("p19.86"), %arg20: tensor<128xbf16> {ttcore.argument_type = #ttcore.argument_type<constant>, ttir.name = "l__self___neck_top_down_layers_1_main_conv_batch_norm2d_running_mean"} loc("p20.90"), %arg21: tensor<128xbf16> {ttcore.argument_type = #ttcore.argument_type<parameter>, ttir.name = "l__self___neck_top_down_layers_1_main_conv_batch_norm2d_bias"} loc("p21.94"), %arg22: tensor<128xbf16> {ttcore.argument_type = #ttcore.argument_type<parameter>, ttir.name = "l__self___neck_top_down_layers_1_main_conv_batch_norm2d_weight"} loc("p22.98"), %arg23: tensor<128x384x1x1xbf16> {ttcore.argument_type = #ttcore.argument_type<parameter>, ttir.name = "l__self___neck_top_down_layers_1_main_conv_conv_weight"} loc("p23.102"), %arg24: tensor<1x128x80x80xbf16> {ttcore.argument_type = #ttcore.argument_type<input>, ttir.name = "args_0"} loc("p24.104"), %arg25: tensor<256xbf16> {ttcore.argument_type = #ttcore.argument_type<constant>, ttir.name = "l__self___neck_top_down_layers_0_final_conv_batch_norm2d_running_var"} loc("p25.136"), %arg26: tensor<256xbf16> {ttcore.argument_type = #ttcore.argument_type<constant>, ttir.name = "l__self___neck_top_down_layers_0_final_conv_batch_norm2d_running_mean"} loc("p26.140"), %arg27: tensor<256xbf16> {ttcore.argument_type = #ttcore.argument_type<parameter>, ttir.name = "l__self___neck_top_down_layers_0_final_conv_batch_norm2d_bias"} loc("p27.144"), %arg28: tensor<256xbf16> {ttcore.argument_type = #ttcore.argument_type<parameter>, ttir.name = "l__self___neck_top_down_layers_0_final_conv_batch_norm2d_weight"} loc("p28.148"), %arg29: tensor<256x512x1x1xbf16> {ttcore.argument_type = #ttcore.argument_type<parameter>, ttir.name = "l__self___neck_top_down_layers_0_final_conv_conv_weight"} loc("p29.152"), %arg30: tensor<4xbf16> {ttcore.argument_type = #ttcore.argument_type<parameter>, ttir.name = "l__self___neck_top_down_layers_0_attn_block_bias"} loc("p30.156"), %arg31: tensor<128xbf16> {ttcore.argument_type = #ttcore.argument_type<parameter>, ttir.name = "l__self___neck_top_down_layers_0_attn_block_guide_fc_bias"} loc("p31.166"), %arg32: tensor<128x512xbf16> {ttcore.argument_type = #ttcore.argument_type<parameter>, ttir.name = "l__self___neck_top_down_layers_0_attn_block_guide_fc_weight"} loc("p32.170"), %arg33: tensor<128xbf16> {ttcore.argument_type = #ttcore.argument_type<constant>, ttir.name = "l__self___neck_top_down_layers_0_blocks_0_conv2_batch_norm2d_running_var"} loc("p33.183"), %arg34: tensor<128xbf16> {ttcore.argument_type = #ttcore.argument_type<constant>, ttir.name = "l__self___neck_top_down_layers_0_blocks_0_conv2_batch_norm2d_running_mean"} loc("p34.187"), %arg35: tensor<128xbf16> {ttcore.argument_type = #ttcore.argument_type<parameter>, ttir.name = "l__self___neck_top_down_layers_0_blocks_0_conv2_batch_norm2d_bias"} loc("p35.191"), %arg36: tensor<128xbf16> {ttcore.argument_type = #ttcore.argument_type<parameter>, ttir.name = "l__self___neck_top_down_layers_0_blocks_0_conv2_batch_norm2d_weight"} loc("p36.195"), %arg37: tensor<128x128x3x3xbf16> {ttcore.argument_type = #ttcore.argument_type<parameter>, ttir.name = "l__self___neck_top_down_layers_0_blocks_0_conv2_conv_weight"} loc("p37.199"), %arg38: tensor<128xbf16> {ttcore.argument_type = #ttcore.argument_type<constant>, ttir.name = "l__self___neck_top_down_layers_0_blocks_0_conv1_batch_norm2d_running_var"} loc("p38.201"), %arg39: tensor<128xbf16> {ttcore.argument_type = #ttcore.argument_type<constant>, ttir.name = "l__self___neck_top_down_layers_0_blocks_0_conv1_batch_norm2d_running_mean"} loc("p39.205"), %arg40: tensor<128xbf16> {ttcore.argument_type = #ttcore.argument_type<parameter>, ttir.name = "l__self___neck_top_down_layers_0_blocks_0_conv1_batch_norm2d_bias"} loc("p40.209"), %arg41: tensor<128xbf16> {ttcore.argument_type = #ttcore.argument_type<parameter>, ttir.name = "l__self___neck_top_down_layers_0_blocks_0_conv1_batch_norm2d_weight"} loc("p41.213"), %arg42: tensor<128x128x3x3xbf16> {ttcore.argument_type = #ttcore.argument_type<parameter>, ttir.name = "l__self___neck_top_down_layers_0_blocks_0_conv1_conv_weight"} loc("p42.217"), %arg43: tensor<256xbf16> {ttcore.argument_type = #ttcore.argument_type<constant>, ttir.name = "l__self___neck_top_down_layers_0_main_conv_batch_norm2d_running_var"} loc("p43.219"), %arg44: tensor<256xbf16> {ttcore.argument_type = #ttcore.argument_type<constant>, ttir.name = "l__self___neck_top_down_layers_0_main_conv_batch_norm2d_running_mean"} loc("p44.223"), %arg45: tensor<256xbf16> {ttcore.argument_type = #ttcore.argument_type<parameter>, ttir.name = "l__self___neck_top_down_layers_0_main_conv_batch_norm2d_bias"} loc("p45.227"), %arg46: tensor<256xbf16> {ttcore.argument_type = #ttcore.argument_type<parameter>, ttir.name = "l__self___neck_top_down_layers_0_main_conv_batch_norm2d_weight"} loc("p46.231"), %arg47: tensor<256x768x1x1xbf16> {ttcore.argument_type = #ttcore.argument_type<parameter>, ttir.name = "l__self___neck_top_down_layers_0_main_conv_conv_weight"} loc("p47.235"), %arg48: tensor<1x256x40x40xbf16> {ttcore.argument_type = #ttcore.argument_type<input>, ttir.name = "args_1"} loc("p48.237"), %arg49: tensor<1x512x20x20xbf16> {ttcore.argument_type = #ttcore.argument_type<input>, ttir.name = "args_2"} loc("p49.269"), %arg50: tensor<128xbf16> {ttcore.argument_type = #ttcore.argument_type<constant>, ttir.name = "l__self___neck_top_down_layers_0_attn_block_project_conv_batch_norm2d_running_var"} loc("p50.354"), %arg51: tensor<128xbf16> {ttcore.argument_type = #ttcore.argument_type<constant>, ttir.name = "l__self___neck_top_down_layers_0_attn_block_project_conv_batch_norm2d_running_mean"} loc("p51.358"), %arg52: tensor<128xbf16> {ttcore.argument_type = #ttcore.argument_type<parameter>, ttir.name = "l__self___neck_top_down_layers_0_attn_block_project_conv_batch_norm2d_bias"} loc("p52.362"), %arg53: tensor<128xbf16> {ttcore.argument_type = #ttcore.argument_type<parameter>, ttir.name = "l__self___neck_top_down_layers_0_attn_block_project_conv_batch_norm2d_weight"} loc("p53.366"), %arg54: tensor<128x128x3x3xbf16> {ttcore.argument_type = #ttcore.argument_type<parameter>, ttir.name = "l__self___neck_top_down_layers_0_attn_block_project_conv_conv_weight"} loc("p54.370"), %arg55: tensor<64xbf16> {ttcore.argument_type = #ttcore.argument_type<constant>, ttir.name = "l__self___neck_top_down_layers_1_attn_block_project_conv_batch_norm2d_running_var"} loc("p55.476"), %arg56: tensor<64xbf16> {ttcore.argument_type = #ttcore.argument_type<constant>, ttir.name = "l__self___neck_top_down_layers_1_attn_block_project_conv_batch_norm2d_running_mean"} loc("p56.480"), %arg57: tensor<64xbf16> {ttcore.argument_type = #ttcore.argument_type<parameter>, ttir.name = "l__self___neck_top_down_layers_1_attn_block_project_conv_batch_norm2d_bias"} loc("p57.484"), %arg58: tensor<64xbf16> {ttcore.argument_type = #ttcore.argument_type<parameter>, ttir.name = "l__self___neck_top_down_layers_1_attn_block_project_conv_batch_norm2d_weight"} loc("p58.488"), %arg59: tensor<64x64x3x3xbf16> {ttcore.argument_type = #ttcore.argument_type<parameter>, ttir.name = "l__self___neck_top_down_layers_1_attn_block_project_conv_conv_weight"} loc("p59.492"), %arg60: tensor<256xbf16> {ttcore.argument_type = #ttcore.argument_type<constant>, ttir.name = "l__self___neck_bottom_up_layers_0_final_conv_batch_norm2d_running_var"} loc("p60.515"), %arg61: tensor<256xbf16> {ttcore.argument_type = #ttcore.argument_type<constant>, ttir.name = "l__self___neck_bottom_up_layers_0_final_conv_batch_norm2d_running_mean"} loc("p61.519"), %arg62: tensor<256xbf16> {ttcore.argument_type = #ttcore.argument_type<parameter>, ttir.name = "l__self___neck_bottom_up_layers_0_final_conv_batch_norm2d_bias"} loc("p62.523"), %arg63: tensor<256xbf16> {ttcore.argument_type = #ttcore.argument_type<parameter>, ttir.name = "l__self___neck_bottom_up_layers_0_final_conv_batch_norm2d_weight"} loc("p63.527"), %arg64: tensor<256x512x1x1xbf16> {ttcore.argument_type = #ttcore.argument_type<parameter>, ttir.name = "l__self___neck_bottom_up_layers_0_final_conv_conv_weight"} loc("p64.531"), %arg65: tensor<4xbf16> {ttcore.argument_type = #ttcore.argument_type<parameter>, ttir.name = "l__self___neck_bottom_up_layers_0_attn_block_bias"} loc("p65.535"), %arg66: tensor<128xbf16> {ttcore.argument_type = #ttcore.argument_type<parameter>, ttir.name = "l__self___neck_bottom_up_layers_0_attn_block_guide_fc_bias"} loc("p66.545"), %arg67: tensor<128x512xbf16> {ttcore.argument_type = #ttcore.argument_type<parameter>, ttir.name = "l__self___neck_bottom_up_layers_0_attn_block_guide_fc_weight"} loc("p67.549"), %arg68: tensor<128xbf16> {ttcore.argument_type = #ttcore.argument_type<constant>, ttir.name = "l__self___neck_bottom_up_layers_0_blocks_0_conv2_batch_norm2d_running_var"} loc("p68.562"), %arg69: tensor<128xbf16> {ttcore.argument_type = #ttcore.argument_type<constant>, ttir.name = "l__self___neck_bottom_up_layers_0_blocks_0_conv2_batch_norm2d_running_mean"} loc("p69.566"), %arg70: tensor<128xbf16> {ttcore.argument_type = #ttcore.argument_type<parameter>, ttir.name = "l__self___neck_bottom_up_layers_0_blocks_0_conv2_batch_norm2d_bias"} loc("p70.570"), %arg71: tensor<128xbf16> {ttcore.argument_type = #ttcore.argument_type<parameter>, ttir.name = "l__self___neck_bottom_up_layers_0_blocks_0_conv2_batch_norm2d_weight"} loc("p71.574"), %arg72: tensor<128x128x3x3xbf16> {ttcore.argument_type = #ttcore.argument_type<parameter>, ttir.name = "l__self___neck_bottom_up_layers_0_blocks_0_conv2_conv_weight"} loc("p72.578"), %arg73: tensor<128xbf16> {ttcore.argument_type = #ttcore.argument_type<constant>, ttir.name = "l__self___neck_bottom_up_layers_0_blocks_0_conv1_batch_norm2d_running_var"} loc("p73.580"), %arg74: tensor<128xbf16> {ttcore.argument_type = #ttcore.argument_type<constant>, ttir.name = "l__self___neck_bottom_up_layers_0_blocks_0_conv1_batch_norm2d_running_mean"} loc("p74.584"), %arg75: tensor<128xbf16> {ttcore.argument_type = #ttcore.argument_type<parameter>, ttir.name = "l__self___neck_bottom_up_layers_0_blocks_0_conv1_batch_norm2d_bias"} loc("p75.588"), %arg76: tensor<128xbf16> {ttcore.argument_type = #ttcore.argument_type<parameter>, ttir.name = "l__self___neck_bottom_up_layers_0_blocks_0_conv1_batch_norm2d_weight"} loc("p76.592"), %arg77: tensor<128x128x3x3xbf16> {ttcore.argument_type = #ttcore.argument_type<parameter>, ttir.name = "l__self___neck_bottom_up_layers_0_blocks_0_conv1_conv_weight"} loc("p77.596"), %arg78: tensor<256xbf16> {ttcore.argument_type = #ttcore.argument_type<constant>, ttir.name = "l__self___neck_bottom_up_layers_0_main_conv_batch_norm2d_running_var"} loc("p78.598"), %arg79: tensor<256xbf16> {ttcore.argument_type = #ttcore.argument_type<constant>, ttir.name = "l__self___neck_bottom_up_layers_0_main_conv_batch_norm2d_running_mean"} loc("p79.602"), %arg80: tensor<256xbf16> {ttcore.argument_type = #ttcore.argument_type<parameter>, ttir.name = "l__self___neck_bottom_up_layers_0_main_conv_batch_norm2d_bias"} loc("p80.606"), %arg81: tensor<256xbf16> {ttcore.argument_type = #ttcore.argument_type<parameter>, ttir.name = "l__self___neck_bottom_up_layers_0_main_conv_batch_norm2d_weight"} loc("p81.610"), %arg82: tensor<256x384x1x1xbf16> {ttcore.argument_type = #ttcore.argument_type<parameter>, ttir.name = "l__self___neck_bottom_up_layers_0_main_conv_conv_weight"} loc("p82.614"), %arg83: tensor<128xbf16> {ttcore.argument_type = #ttcore.argument_type<constant>, ttir.name = "l__self___neck_downsample_layers_0_batch_norm2d_running_var"} loc("p83.616"), %arg84: tensor<128xbf16> {ttcore.argument_type = #ttcore.argument_type<constant>, ttir.name = "l__self___neck_downsample_layers_0_batch_norm2d_running_mean"} loc("p84.620"), %arg85: tensor<128xbf16> {ttcore.argument_type = #ttcore.argument_type<parameter>, ttir.name = "l__self___neck_downsample_layers_0_batch_norm2d_bias"} loc("p85.624"), %arg86: tensor<128xbf16> {ttcore.argument_type = #ttcore.argument_type<parameter>, ttir.name = "l__self___neck_downsample_layers_0_batch_norm2d_weight"} loc("p86.628"), %arg87: tensor<128x128x3x3xbf16> {ttcore.argument_type = #ttcore.argument_type<parameter>, ttir.name = "l__self___neck_downsample_layers_0_conv_weight"} loc("p87.632"), %arg88: tensor<128xbf16> {ttcore.argument_type = #ttcore.argument_type<constant>, ttir.name = "l__self___neck_bottom_up_layers_0_attn_block_project_conv_batch_norm2d_running_var"} loc("p88.719"), %arg89: tensor<128xbf16> {ttcore.argument_type = #ttcore.argument_type<constant>, ttir.name = "l__self___neck_bottom_up_layers_0_attn_block_project_conv_batch_norm2d_running_mean"} loc("p89.723"), %arg90: tensor<128xbf16> {ttcore.argument_type = #ttcore.argument_type<parameter>, ttir.name = "l__self___neck_bottom_up_layers_0_attn_block_project_conv_batch_norm2d_bias"} loc("p90.727"), %arg91: tensor<128xbf16> {ttcore.argument_type = #ttcore.argument_type<parameter>, ttir.name = "l__self___neck_bottom_up_layers_0_attn_block_project_conv_batch_norm2d_weight"} loc("p91.731"), %arg92: tensor<128x128x3x3xbf16> {ttcore.argument_type = #ttcore.argument_type<parameter>, ttir.name = "l__self___neck_bottom_up_layers_0_attn_block_project_conv_conv_weight"} loc("p92.735"), %arg93: tensor<512xbf16> {ttcore.argument_type = #ttcore.argument_type<constant>, ttir.name = "l__self___neck_bottom_up_layers_1_final_conv_batch_norm2d_running_var"} loc("p93.758"), %arg94: tensor<512xbf16> {ttcore.argument_type = #ttcore.argument_type<constant>, ttir.name = "l__self___neck_bottom_up_layers_1_final_conv_batch_norm2d_running_mean"} loc("p94.762"), %arg95: tensor<512xbf16> {ttcore.argument_type = #ttcore.argument_type<parameter>, ttir.name = "l__self___neck_bottom_up_layers_1_final_conv_batch_norm2d_bias"} loc("p95.766"), %arg96: tensor<512xbf16> {ttcore.argument_type = #ttcore.argument_type<parameter>, ttir.name = "l__self___neck_bottom_up_layers_1_final_conv_batch_norm2d_weight"} loc("p96.770"), %arg97: tensor<512x1024x1x1xbf16> {ttcore.argument_type = #ttcore.argument_type<parameter>, ttir.name = "l__self___neck_bottom_up_layers_1_final_conv_conv_weight"} loc("p97.774"), %arg98: tensor<8xbf16> {ttcore.argument_type = #ttcore.argument_type<parameter>, ttir.name = "l__self___neck_bottom_up_layers_1_attn_block_bias"} loc("p98.778"), %arg99: tensor<256xbf16> {ttcore.argument_type = #ttcore.argument_type<parameter>, ttir.name = "l__self___neck_bottom_up_layers_1_attn_block_guide_fc_bias"} loc("p99.788"), %arg100: tensor<256x512xbf16> {ttcore.argument_type = #ttcore.argument_type<parameter>, ttir.name = "l__self___neck_bottom_up_layers_1_attn_block_guide_fc_weight"} loc("p100.792"), %arg101: tensor<256xbf16> {ttcore.argument_type = #ttcore.argument_type<constant>, ttir.name = "l__self___neck_bottom_up_layers_1_blocks_0_conv2_batch_norm2d_running_var"} loc("p101.805"), %arg102: tensor<256xbf16> {ttcore.argument_type = #ttcore.argument_type<constant>, ttir.name = "l__self___neck_bottom_up_layers_1_blocks_0_conv2_batch_norm2d_running_mean"} loc("p102.809"), %arg103: tensor<256xbf16> {ttcore.argument_type = #ttcore.argument_type<parameter>, ttir.name = "l__self___neck_bottom_up_layers_1_blocks_0_conv2_batch_norm2d_bias"} loc("p103.813"), %arg104: tensor<256xbf16> {ttcore.argument_type = #ttcore.argument_type<parameter>, ttir.name = "l__self___neck_bottom_up_layers_1_blocks_0_conv2_batch_norm2d_weight"} loc("p104.817"), %arg105: tensor<256x256x3x3xbf16> {ttcore.argument_type = #ttcore.argument_type<parameter>, ttir.name = "l__self___neck_bottom_up_layers_1_blocks_0_conv2_conv_weight"} loc("p105.821"), %arg106: tensor<256xbf16> {ttcore.argument_type = #ttcore.argument_type<constant>, ttir.name = "l__self___neck_bottom_up_layers_1_blocks_0_conv1_batch_norm2d_running_var"} loc("p106.823"), %arg107: tensor<256xbf16> {ttcore.argument_type = #ttcore.argument_type<constant>, ttir.name = "l__self___neck_bottom_up_layers_1_blocks_0_conv1_batch_norm2d_running_mean"} loc("p107.827"), %arg108: tensor<256xbf16> {ttcore.argument_type = #ttcore.argument_type<parameter>, ttir.name = "l__self___neck_bottom_up_layers_1_blocks_0_conv1_batch_norm2d_bias"} loc("p108.831"), %arg109: tensor<256xbf16> {ttcore.argument_type = #ttcore.argument_type<parameter>, ttir.name = "l__self___neck_bottom_up_layers_1_blocks_0_conv1_batch_norm2d_weight"} loc("p109.835"), %arg110: tensor<256x256x3x3xbf16> {ttcore.argument_type = #ttcore.argument_type<parameter>, ttir.name = "l__self___neck_bottom_up_layers_1_blocks_0_conv1_conv_weight"} loc("p110.839"), %arg111: tensor<512xbf16> {ttcore.argument_type = #ttcore.argument_type<constant>, ttir.name = "l__self___neck_bottom_up_layers_1_main_conv_batch_norm2d_running_var"} loc("p111.841"), %arg112: tensor<512xbf16> {ttcore.argument_type = #ttcore.argument_type<constant>, ttir.name = "l__self___neck_bottom_up_layers_1_main_conv_batch_norm2d_running_mean"} loc("p112.845"), %arg113: tensor<512xbf16> {ttcore.argument_type = #ttcore.argument_type<parameter>, ttir.name = "l__self___neck_bottom_up_layers_1_main_conv_batch_norm2d_bias"} loc("p113.849"), %arg114: tensor<512xbf16> {ttcore.argument_type = #ttcore.argument_type<parameter>, ttir.name = "l__self___neck_bottom_up_layers_1_main_conv_batch_norm2d_weight"} loc("p114.853"), %arg115: tensor<512x768x1x1xbf16> {ttcore.argument_type = #ttcore.argument_type<parameter>, ttir.name = "l__self___neck_bottom_up_layers_1_main_conv_conv_weight"} loc("p115.857"), %arg116: tensor<256xbf16> {ttcore.argument_type = #ttcore.argument_type<constant>, ttir.name = "l__self___neck_downsample_layers_1_batch_norm2d_running_var"} loc("p116.859"), %arg117: tensor<256xbf16> {ttcore.argument_type = #ttcore.argument_type<constant>, ttir.name = "l__self___neck_downsample_layers_1_batch_norm2d_running_mean"} loc("p117.863"), %arg118: tensor<256xbf16> {ttcore.argument_type = #ttcore.argument_type<parameter>, ttir.name = "l__self___neck_downsample_layers_1_batch_norm2d_bias"} loc("p118.867"), %arg119: tensor<256xbf16> {ttcore.argument_type = #ttcore.argument_type<parameter>, ttir.name = "l__self___neck_downsample_layers_1_batch_norm2d_weight"} loc("p119.871"), %arg120: tensor<256x256x3x3xbf16> {ttcore.argument_type = #ttcore.argument_type<parameter>, ttir.name = "l__self___neck_downsample_layers_1_conv_weight"} loc("p120.875"), %arg121: tensor<256xbf16> {ttcore.argument_type = #ttcore.argument_type<constant>, ttir.name = "l__self___neck_bottom_up_layers_1_attn_block_project_conv_batch_norm2d_running_var"} loc("p121.962"), %arg122: tensor<256xbf16> {ttcore.argument_type = #ttcore.argument_type<constant>, ttir.name = "l__self___neck_bottom_up_layers_1_attn_block_project_conv_batch_norm2d_running_mean"} loc("p122.966"), %arg123: tensor<256xbf16> {ttcore.argument_type = #ttcore.argument_type<parameter>, ttir.name = "l__self___neck_bottom_up_layers_1_attn_block_project_conv_batch_norm2d_bias"} loc("p123.970"), %arg124: tensor<256xbf16> {ttcore.argument_type = #ttcore.argument_type<parameter>, ttir.name = "l__self___neck_bottom_up_layers_1_attn_block_project_conv_batch_norm2d_weight"} loc("p124.974"), %arg125: tensor<256x256x3x3xbf16> {ttcore.argument_type = #ttcore.argument_type<parameter>, ttir.name = "l__self___neck_bottom_up_layers_1_attn_block_project_conv_conv_weight"} loc("p125.978")) -> (tensor<1x128x80x80xbf16>, tensor<1x256x40x40xbf16>, tensor<1x512x20x20xbf16>) {
    %cst = stablehlo.constant dense<5.656250e+00> : tensor<1x8x20x20xbf16> loc(#loc)
    %cst_0 = stablehlo.constant dense<5.656250e+00> : tensor<1x2x80x80xbf16> loc(#loc)
    %cst_1 = stablehlo.constant dense<[… > : tensor<80xf64> loc(#loc)
    %cst_2 = stablehlo.constant dense<5.656250e+00> : tensor<1x4x40x40xbf16> loc(#loc)
    %cst_3 = stablehlo.constant dense<[… > : tensor<40xf64> loc(#loc)
    %c = stablehlo.constant dense<[0, 1, 2, 3, 4, 5, 6, 7, 8, 9, 10, 11, 12, 13, 14, 15, 16, 17, 18, 19, 20, 21, 22, 23, 24, 25, 26, 27, 28, 29, 30, 31, 32, 33, 34, 35, 36, 37, 38, 39]> : tensor<40xi64> loc(#loc)
    %cst_4 = stablehlo.constant dense<0xFF80> : tensor<bf16> loc(#loc)
    %c_5 = stablehlo.constant dense<[0, 1, 2, 3, 4, 5, 6, 7, 8, 9, 10, 11, 12, 13, 14, 15, 16, 17, 18, 19]> : tensor<20xi64> loc(#loc)
    %0 = stablehlo.reshape %arg43 : (tensor<256xbf16>) -> tensor<1x1x256xbf16> loc(#loc127)
    %1 = stablehlo.reshape %0 : (tensor<1x1x256xbf16>) -> tensor<256xbf16> loc(#loc128)
    %2 = stablehlo.reshape %arg38 : (tensor<128xbf16>) -> tensor<1x1x128xbf16> loc(#loc129)
    %3 = stablehlo.reshape %2 : (tensor<1x1x128xbf16>) -> tensor<128xbf16> loc(#loc130)
    %4 = stablehlo.reshape %arg33 : (tensor<128xbf16>) -> tensor<1x1x128xbf16> loc(#loc131)
    %5 = stablehlo.reshape %4 : (tensor<1x1x128xbf16>) -> tensor<128xbf16> loc(#loc132)
    %6 = stablehlo.transpose %arg49, dims = [0, 1, 3, 2] {result_layout = dense<[2, 3, 1, 0]> : tensor<4xindex>, xla_shape = "bf16[1,512,20,20]{2,3,1,0}"} : (tensor<1x512x20x20xbf16>) -> tensor<1x512x20x20xbf16> loc(#loc133)
    %7 = stablehlo.floor %cst_3 : tensor<40xf64> loc(#loc134)
    %8 = stablehlo.convert %7 : (tensor<40xf64>) -> tensor<40xi64> loc(#loc135)
    %9 = stablehlo.broadcast_in_dim %8, dims = [0] : (tensor<40xi64>) -> tensor<40x20xi64> loc(#loc136)
    %10 = stablehlo.broadcast_in_dim %c_5, dims = [1] : (tensor<20xi64>) -> tensor<40x20xi64> loc(#loc137)
    %11 = stablehlo.compare  EQ, %9, %10 : (tensor<40x20xi64>, tensor<40x20xi64>) -> tensor<40x20xi1> loc(#loc138)
    %12 = stablehlo.convert %11 : (tensor<40x20xi1>) -> tensor<40x20xi64> loc(#loc139)
    %13 = stablehlo.transpose %12, dims = [1, 0] {result_layout = dense<[0, 1]> : tensor<2xindex>, xla_shape = "s64[20,40]{0,1}"} : (tensor<40x20xi64>) -> tensor<20x40xi64> loc(#loc140)
    %14 = stablehlo.convert %13 {result_layout = dense<[0, 1]> : tensor<2xindex>, xla_shape = "bf16[20,40]{0,1}"} : (tensor<20x40xi64>) -> tensor<20x40xbf16> loc(#loc141)
    %15 = stablehlo.dot_general %6, %14, contracting_dims = [3] x [0] {mhlo.frontend_attributes = {grad_x = "false", grad_y = "false"}} : (tensor<1x512x20x20xbf16>, tensor<20x40xbf16>) -> tensor<1x512x20x40xbf16> loc(#loc142)
    %16 = stablehlo.transpose %15, dims = [0, 1, 3, 2] {result_layout = dense<[2, 3, 1, 0]> : tensor<4xindex>, xla_shape = "bf16[1,512,40,20]{2,3,1,0}"} : (tensor<1x512x20x40xbf16>) -> tensor<1x512x40x20xbf16> loc(#loc143)
    %17 = stablehlo.dot_general %16, %14, contracting_dims = [3] x [0] {mhlo.frontend_attributes = {grad_x = "false", grad_y = "false"}} : (tensor<1x512x40x20xbf16>, tensor<20x40xbf16>) -> tensor<1x512x40x40xbf16> loc(#loc144)
    %18 = stablehlo.concatenate %17, %arg48, dim = 1 : (tensor<1x512x40x40xbf16>, tensor<1x256x40x40xbf16>) -> tensor<1x768x40x40xbf16> loc(#loc145)
    %19 = stablehlo.convolution(%18, %arg47) dim_numbers = [b, f, 0, 1]x[o, i, 0, 1]->[b, f, 0, 1], window = {} {batch_group_count = 1 : i64, feature_group_count = 1 : i64} : (tensor<1x768x40x40xbf16>, tensor<256x768x1x1xbf16>) -> tensor<1x256x40x40xbf16> loc(#loc146)
    %20 = stablehlo.reshape %arg46 : (tensor<256xbf16>) -> tensor<1x1x256xbf16> loc(#loc147)
    %21 = stablehlo.reshape %20 : (tensor<1x1x256xbf16>) -> tensor<256xbf16> loc(#loc148)
    %22 = stablehlo.reshape %arg45 : (tensor<256xbf16>) -> tensor<1x1x256xbf16> loc(#loc149)
    %23 = stablehlo.reshape %22 : (tensor<1x1x256xbf16>) -> tensor<256xbf16> loc(#loc150)
    %24 = stablehlo.reshape %arg44 : (tensor<256xbf16>) -> tensor<1x1x256xbf16> loc(#loc151)
    %25 = stablehlo.reshape %24 : (tensor<1x1x256xbf16>) -> tensor<256xbf16> loc(#loc152)
    %26 = "stablehlo.batch_norm_inference"(%19, %21, %23, %25, %1) <{epsilon = 1.000000e-03 : f32, feature_index = 1 : i64}> : (tensor<1x256x40x40xbf16>, tensor<256xbf16>, tensor<256xbf16>, tensor<256xbf16>, tensor<256xbf16>) -> tensor<1x256x40x40xbf16> loc(#loc153)
    %27 = stablehlo.logistic %26 : tensor<1x256x40x40xbf16> loc(#loc154)
    %28 = stablehlo.multiply %26, %27 : tensor<1x256x40x40xbf16> loc(#loc155)
    %29 = stablehlo.slice %28 [0:1, 128:256, 0:40, 0:40] : (tensor<1x256x40x40xbf16>) -> tensor<1x128x40x40xbf16> loc(#loc156)
    %30 = stablehlo.convolution(%29, %arg42) dim_numbers = [b, f, 0, 1]x[o, i, 0, 1]->[b, f, 0, 1], window = {pad = [[1, 1], [1, 1]]} {batch_group_count = 1 : i64, feature_group_count = 1 : i64} : (tensor<1x128x40x40xbf16>, tensor<128x128x3x3xbf16>) -> tensor<1x128x40x40xbf16> loc(#loc157)
    %31 = stablehlo.reshape %arg41 : (tensor<128xbf16>) -> tensor<1x1x128xbf16> loc(#loc158)
    %32 = stablehlo.reshape %31 : (tensor<1x1x128xbf16>) -> tensor<128xbf16> loc(#loc159)
    %33 = stablehlo.reshape %arg40 : (tensor<128xbf16>) -> tensor<1x1x128xbf16> loc(#loc160)
    %34 = stablehlo.reshape %33 : (tensor<1x1x128xbf16>) -> tensor<128xbf16> loc(#loc161)
    %35 = stablehlo.reshape %arg39 : (tensor<128xbf16>) -> tensor<1x1x128xbf16> loc(#loc162)
    %36 = stablehlo.reshape %35 : (tensor<1x1x128xbf16>) -> tensor<128xbf16> loc(#loc163)
    %37 = "stablehlo.batch_norm_inference"(%30, %32, %34, %36, %3) <{epsilon = 1.000000e-03 : f32, feature_index = 1 : i64}> : (tensor<1x128x40x40xbf16>, tensor<128xbf16>, tensor<128xbf16>, tensor<128xbf16>, tensor<128xbf16>) -> tensor<1x128x40x40xbf16> loc(#loc164)
    %38 = stablehlo.logistic %37 : tensor<1x128x40x40xbf16> loc(#loc165)
    %39 = stablehlo.multiply %37, %38 : tensor<1x128x40x40xbf16> loc(#loc166)
    %40 = stablehlo.convolution(%39, %arg37) dim_numbers = [b, f, 0, 1]x[o, i, 0, 1]->[b, f, 0, 1], window = {pad = [[1, 1], [1, 1]]} {batch_group_count = 1 : i64, feature_group_count = 1 : i64} : (tensor<1x128x40x40xbf16>, tensor<128x128x3x3xbf16>) -> tensor<1x128x40x40xbf16> loc(#loc167)
    %41 = stablehlo.reshape %arg36 : (tensor<128xbf16>) -> tensor<1x1x128xbf16> loc(#loc168)
    %42 = stablehlo.reshape %41 : (tensor<1x1x128xbf16>) -> tensor<128xbf16> loc(#loc169)
    %43 = stablehlo.reshape %arg35 : (tensor<128xbf16>) -> tensor<1x1x128xbf16> loc(#loc170)
    %44 = stablehlo.reshape %43 : (tensor<1x1x128xbf16>) -> tensor<128xbf16> loc(#loc171)
    %45 = stablehlo.reshape %arg34 : (tensor<128xbf16>) -> tensor<1x1x128xbf16> loc(#loc172)
    %46 = stablehlo.reshape %45 : (tensor<1x1x128xbf16>) -> tensor<128xbf16> loc(#loc173)
    %47 = "stablehlo.batch_norm_inference"(%40, %42, %44, %46, %5) <{epsilon = 1.000000e-03 : f32, feature_index = 1 : i64}> : (tensor<1x128x40x40xbf16>, tensor<128xbf16>, tensor<128xbf16>, tensor<128xbf16>, tensor<128xbf16>) -> tensor<1x128x40x40xbf16> loc(#loc174)
    %48 = stablehlo.logistic %47 : tensor<1x128x40x40xbf16> loc(#loc175)
    %49 = stablehlo.multiply %47, %48 : tensor<1x128x40x40xbf16> loc(#loc176)
    %50 = stablehlo.reshape %49 : (tensor<1x128x40x40xbf16>) -> tensor<1x4x32x40x40xbf16> loc(#loc177)
    %51 = stablehlo.reshape %arg8 : (tensor<1x3x512xbf16>) -> tensor<3x512xbf16> loc(#loc178)
    %52 = stablehlo.reshape %arg32 : (tensor<128x512xbf16>) -> tensor<1x128x512xbf16> loc(#loc179)
    %53 = stablehlo.reshape %52 : (tensor<1x128x512xbf16>) -> tensor<128x512xbf16> loc(#loc180)
    %54 = stablehlo.transpose %53, dims = [1, 0] {result_layout = dense<[0, 1]> : tensor<2xindex>, xla_shape = "bf16[512,128]{0,1}"} : (tensor<128x512xbf16>) -> tensor<512x128xbf16> loc(#loc181)
    %55 = stablehlo.dot_general %51, %54, contracting_dims = [1] x [0] : (tensor<3x512xbf16>, tensor<512x128xbf16>) -> tensor<3x128xbf16> loc(#loc182)
    %56 = stablehlo.reshape %55 : (tensor<3x128xbf16>) -> tensor<1x3x128xbf16> loc(#loc183)
    %57 = stablehlo.reshape %arg31 : (tensor<128xbf16>) -> tensor<1x1x128xbf16> loc(#loc184)
    %58 = stablehlo.reshape %57 : (tensor<1x1x128xbf16>) -> tensor<128xbf16> loc(#loc185)
    %59 = stablehlo.broadcast_in_dim %58, dims = [2] : (tensor<128xbf16>) -> tensor<1x3x128xbf16> loc(#loc186)
    %60 = stablehlo.add %56, %59 : tensor<1x3x128xbf16> loc(#loc187)
    %61 = stablehlo.reshape %60 : (tensor<1x3x128xbf16>) -> tensor<1x3x4x32xbf16> loc(#loc188)
    %62 = stablehlo.dot_general %50, %61, batching_dims = [0, 1] x [0, 2], contracting_dims = [2] x [3] {mhlo.frontend_attributes = {grad_x = "false", grad_y = "false"}} : (tensor<1x4x32x40x40xbf16>, tensor<1x3x4x32xbf16>) -> tensor<1x4x40x40x3xbf16> loc(#loc189)
    %63 = stablehlo.reshape %arg50 : (tensor<128xbf16>) -> tensor<1x1x128xbf16> loc(#loc190)
    %64 = stablehlo.reshape %63 : (tensor<1x1x128xbf16>) -> tensor<128xbf16> loc(#loc191)
    %65 = stablehlo.reshape %arg25 : (tensor<256xbf16>) -> tensor<1x1x256xbf16> loc(#loc192)
    %66 = stablehlo.reshape %65 : (tensor<1x1x256xbf16>) -> tensor<256xbf16> loc(#loc193)
    %67 = stablehlo.reshape %arg19 : (tensor<128xbf16>) -> tensor<1x1x128xbf16> loc(#loc194)
    %68 = stablehlo.reshape %67 : (tensor<1x1x128xbf16>) -> tensor<128xbf16> loc(#loc195)
    %69 = stablehlo.reshape %arg14 : (tensor<64xbf16>) -> tensor<1x1x64xbf16> loc(#loc196)
    %70 = stablehlo.reshape %69 : (tensor<1x1x64xbf16>) -> tensor<64xbf16> loc(#loc197)
    %71 = stablehlo.reshape %arg9 : (tensor<64xbf16>) -> tensor<1x1x64xbf16> loc(#loc198)
    %72 = stablehlo.reshape %71 : (tensor<1x1x64xbf16>) -> tensor<64xbf16> loc(#loc199)
    %73 = stablehlo.slice %28 [0:1, 0:128, 0:40, 0:40] : (tensor<1x256x40x40xbf16>) -> tensor<1x128x40x40xbf16> loc(#loc200)
    %74 = stablehlo.convolution(%49, %arg54) dim_numbers = [b, f, 0, 1]x[o, i, 0, 1]->[b, f, 0, 1], window = {pad = [[1, 1], [1, 1]]} {batch_group_count = 1 : i64, feature_group_count = 1 : i64} : (tensor<1x128x40x40xbf16>, tensor<128x128x3x3xbf16>) -> tensor<1x128x40x40xbf16> loc(#loc201)
    %75 = stablehlo.reshape %arg53 : (tensor<128xbf16>) -> tensor<1x1x128xbf16> loc(#loc202)
    %76 = stablehlo.reshape %75 : (tensor<1x1x128xbf16>) -> tensor<128xbf16> loc(#loc203)
    %77 = stablehlo.reshape %arg52 : (tensor<128xbf16>) -> tensor<1x1x128xbf16> loc(#loc204)
    %78 = stablehlo.reshape %77 : (tensor<1x1x128xbf16>) -> tensor<128xbf16> loc(#loc205)
    %79 = stablehlo.reshape %arg51 : (tensor<128xbf16>) -> tensor<1x1x128xbf16> loc(#loc206)
    %80 = stablehlo.reshape %79 : (tensor<1x1x128xbf16>) -> tensor<128xbf16> loc(#loc207)
    %81 = "stablehlo.batch_norm_inference"(%74, %76, %78, %80, %64) <{epsilon = 1.000000e-03 : f32, feature_index = 1 : i64}> : (tensor<1x128x40x40xbf16>, tensor<128xbf16>, tensor<128xbf16>, tensor<128xbf16>, tensor<128xbf16>) -> tensor<1x128x40x40xbf16> loc(#loc208)
    %82 = stablehlo.reshape %81 : (tensor<1x128x40x40xbf16>) -> tensor<1x4x32x40x40xbf16> loc(#loc209)
    %83 = stablehlo.reduce(%62 init: %cst_4) applies stablehlo.maximum across dimensions = [4] : (tensor<1x4x40x40x3xbf16>, tensor<bf16>) -> tensor<1x4x40x40xbf16> loc(#loc210)
    %84 = stablehlo.divide %83, %cst_2 : tensor<1x4x40x40xbf16> loc(#loc211)
    %85 = stablehlo.reshape %arg30 : (tensor<4xbf16>) -> tensor<1x1x4xbf16> loc(#loc212)
    %86 = stablehlo.reshape %85 : (tensor<1x1x4xbf16>) -> tensor<1x4xbf16> loc(#loc213)
    %87 = stablehlo.broadcast_in_dim %86, dims = [0, 1] : (tensor<1x4xbf16>) -> tensor<1x4x40x40xbf16> loc(#loc214)
    %88 = stablehlo.add %84, %87 : tensor<1x4x40x40xbf16> loc(#loc215)
    %89 = stablehlo.logistic %88 : tensor<1x4x40x40xbf16> loc(#loc216)
    %90 = stablehlo.broadcast_in_dim %89, dims = [0, 1, 3, 4] : (tensor<1x4x40x40xbf16>) -> tensor<1x4x32x40x40xbf16> loc(#loc217)
    %91 = stablehlo.multiply %82, %90 : tensor<1x4x32x40x40xbf16> loc(#loc218)
    %92 = stablehlo.reshape %91 : (tensor<1x4x32x40x40xbf16>) -> tensor<1x128x40x40xbf16> loc(#loc219)
    %93 = stablehlo.concatenate %73, %29, %49, %92, dim = 1 : (tensor<1x128x40x40xbf16>, tensor<1x128x40x40xbf16>, tensor<1x128x40x40xbf16>, tensor<1x128x40x40xbf16>) -> tensor<1x512x40x40xbf16> loc(#loc220)
    %94 = stablehlo.convolution(%93, %arg29) dim_numbers = [b, f, 0, 1]x[o, i, 0, 1]->[b, f, 0, 1], window = {} {batch_group_count = 1 : i64, feature_group_count = 1 : i64} : (tensor<1x512x40x40xbf16>, tensor<256x512x1x1xbf16>) -> tensor<1x256x40x40xbf16> loc(#loc221)
    %95 = stablehlo.reshape %arg28 : (tensor<256xbf16>) -> tensor<1x1x256xbf16> loc(#loc222)
    %96 = stablehlo.reshape %95 : (tensor<1x1x256xbf16>) -> tensor<256xbf16> loc(#loc223)
    %97 = stablehlo.reshape %arg27 : (tensor<256xbf16>) -> tensor<1x1x256xbf16> loc(#loc224)
    %98 = stablehlo.reshape %97 : (tensor<1x1x256xbf16>) -> tensor<256xbf16> loc(#loc225)
    %99 = stablehlo.reshape %arg26 : (tensor<256xbf16>) -> tensor<1x1x256xbf16> loc(#loc226)
    %100 = stablehlo.reshape %99 : (tensor<1x1x256xbf16>) -> tensor<256xbf16> loc(#loc227)
    %101 = "stablehlo.batch_norm_inference"(%94, %96, %98, %100, %66) <{epsilon = 1.000000e-03 : f32, feature_index = 1 : i64}> : (tensor<1x256x40x40xbf16>, tensor<256xbf16>, tensor<256xbf16>, tensor<256xbf16>, tensor<256xbf16>) -> tensor<1x256x40x40xbf16> loc(#loc228)
    %102 = stablehlo.logistic %101 : tensor<1x256x40x40xbf16> loc(#loc229)
    %103 = stablehlo.multiply %101, %102 : tensor<1x256x40x40xbf16> loc(#loc230)
    %104 = stablehlo.transpose %103, dims = [0, 1, 3, 2] {result_layout = dense<[2, 3, 1, 0]> : tensor<4xindex>, xla_shape = "bf16[1,256,40,40]{2,3,1,0}"} : (tensor<1x256x40x40xbf16>) -> tensor<1x256x40x40xbf16> loc(#loc231)
    %105 = stablehlo.floor %cst_1 : tensor<80xf64> loc(#loc232)
    %106 = stablehlo.convert %105 : (tensor<80xf64>) -> tensor<80xi64> loc(#loc233)
    %107 = stablehlo.broadcast_in_dim %106, dims = [0] : (tensor<80xi64>) -> tensor<80x40xi64> loc(#loc234)
    %108 = stablehlo.broadcast_in_dim %c, dims = [1] : (tensor<40xi64>) -> tensor<80x40xi64> loc(#loc235)
    %109 = stablehlo.compare  EQ, %107, %108 : (tensor<80x40xi64>, tensor<80x40xi64>) -> tensor<80x40xi1> loc(#loc236)
    %110 = stablehlo.convert %109 : (tensor<80x40xi1>) -> tensor<80x40xi64> loc(#loc237)
    %111 = stablehlo.transpose %110, dims = [1, 0] {result_layout = dense<[0, 1]> : tensor<2xindex>, xla_shape = "s64[40,80]{0,1}"} : (tensor<80x40xi64>) -> tensor<40x80xi64> loc(#loc238)
    %112 = stablehlo.convert %111 {result_layout = dense<[0, 1]> : tensor<2xindex>, xla_shape = "bf16[40,80]{0,1}"} : (tensor<40x80xi64>) -> tensor<40x80xbf16> loc(#loc239)
    %113 = stablehlo.dot_general %104, %112, contracting_dims = [3] x [0] {mhlo.frontend_attributes = {grad_x = "false", grad_y = "false"}} : (tensor<1x256x40x40xbf16>, tensor<40x80xbf16>) -> tensor<1x256x40x80xbf16> loc(#loc240)
    %114 = stablehlo.transpose %113, dims = [0, 1, 3, 2] {result_layout = dense<[2, 3, 1, 0]> : tensor<4xindex>, xla_shape = "bf16[1,256,80,40]{2,3,1,0}"} : (tensor<1x256x40x80xbf16>) -> tensor<1x256x80x40xbf16> loc(#loc241)
    %115 = stablehlo.dot_general %114, %112, contracting_dims = [3] x [0] {mhlo.frontend_attributes = {grad_x = "false", grad_y = "false"}} : (tensor<1x256x80x40xbf16>, tensor<40x80xbf16>) -> tensor<1x256x80x80xbf16> loc(#loc242)
    %116 = stablehlo.concatenate %115, %arg24, dim = 1 : (tensor<1x256x80x80xbf16>, tensor<1x128x80x80xbf16>) -> tensor<1x384x80x80xbf16> loc(#loc243)
    %117 = stablehlo.convolution(%116, %arg23) dim_numbers = [b, f, 0, 1]x[o, i, 0, 1]->[b, f, 0, 1], window = {} {batch_group_count = 1 : i64, feature_group_count = 1 : i64} : (tensor<1x384x80x80xbf16>, tensor<128x384x1x1xbf16>) -> tensor<1x128x80x80xbf16> loc(#loc244)
    %118 = stablehlo.reshape %arg22 : (tensor<128xbf16>) -> tensor<1x1x128xbf16> loc(#loc245)
    %119 = stablehlo.reshape %118 : (tensor<1x1x128xbf16>) -> tensor<128xbf16> loc(#loc246)
    %120 = stablehlo.reshape %arg21 : (tensor<128xbf16>) -> tensor<1x1x128xbf16> loc(#loc247)
    %121 = stablehlo.reshape %120 : (tensor<1x1x128xbf16>) -> tensor<128xbf16> loc(#loc248)
    %122 = stablehlo.reshape %arg20 : (tensor<128xbf16>) -> tensor<1x1x128xbf16> loc(#loc249)
    %123 = stablehlo.reshape %122 : (tensor<1x1x128xbf16>) -> tensor<128xbf16> loc(#loc250)
    %124 = "stablehlo.batch_norm_inference"(%117, %119, %121, %123, %68) <{epsilon = 1.000000e-03 : f32, feature_index = 1 : i64}> : (tensor<1x128x80x80xbf16>, tensor<128xbf16>, tensor<128xbf16>, tensor<128xbf16>, tensor<128xbf16>) -> tensor<1x128x80x80xbf16> loc(#loc251)
    %125 = stablehlo.logistic %124 : tensor<1x128x80x80xbf16> loc(#loc252)
    %126 = stablehlo.multiply %124, %125 : tensor<1x128x80x80xbf16> loc(#loc253)
    %127 = stablehlo.slice %126 [0:1, 64:128, 0:80, 0:80] : (tensor<1x128x80x80xbf16>) -> tensor<1x64x80x80xbf16> loc(#loc254)
    %128 = stablehlo.convolution(%127, %arg18) dim_numbers = [b, f, 0, 1]x[o, i, 0, 1]->[b, f, 0, 1], window = {pad = [[1, 1], [1, 1]]} {batch_group_count = 1 : i64, feature_group_count = 1 : i64} : (tensor<1x64x80x80xbf16>, tensor<64x64x3x3xbf16>) -> tensor<1x64x80x80xbf16> loc(#loc255)
    %129 = stablehlo.reshape %arg17 : (tensor<64xbf16>) -> tensor<1x1x64xbf16> loc(#loc256)
    %130 = stablehlo.reshape %129 : (tensor<1x1x64xbf16>) -> tensor<64xbf16> loc(#loc257)
    %131 = stablehlo.reshape %arg16 : (tensor<64xbf16>) -> tensor<1x1x64xbf16> loc(#loc258)
    %132 = stablehlo.reshape %131 : (tensor<1x1x64xbf16>) -> tensor<64xbf16> loc(#loc259)
    %133 = stablehlo.reshape %arg15 : (tensor<64xbf16>) -> tensor<1x1x64xbf16> loc(#loc260)
    %134 = stablehlo.reshape %133 : (tensor<1x1x64xbf16>) -> tensor<64xbf16> loc(#loc261)
    %135 = "stablehlo.batch_norm_inference"(%128, %130, %132, %134, %70) <{epsilon = 1.000000e-03 : f32, feature_index = 1 : i64}> : (tensor<1x64x80x80xbf16>, tensor<64xbf16>, tensor<64xbf16>, tensor<64xbf16>, tensor<64xbf16>) -> tensor<1x64x80x80xbf16> loc(#loc262)
    %136 = stablehlo.logistic %135 : tensor<1x64x80x80xbf16> loc(#loc263)
    %137 = stablehlo.multiply %135, %136 : tensor<1x64x80x80xbf16> loc(#loc264)
    %138 = stablehlo.convolution(%137, %arg13) dim_numbers = [b, f, 0, 1]x[o, i, 0, 1]->[b, f, 0, 1], window = {pad = [[1, 1], [1, 1]]} {batch_group_count = 1 : i64, feature_group_count = 1 : i64} : (tensor<1x64x80x80xbf16>, tensor<64x64x3x3xbf16>) -> tensor<1x64x80x80xbf16> loc(#loc265)
    %139 = stablehlo.reshape %arg12 : (tensor<64xbf16>) -> tensor<1x1x64xbf16> loc(#loc266)
    %140 = stablehlo.reshape %139 : (tensor<1x1x64xbf16>) -> tensor<64xbf16> loc(#loc267)
    %141 = stablehlo.reshape %arg11 : (tensor<64xbf16>) -> tensor<1x1x64xbf16> loc(#loc268)
    %142 = stablehlo.reshape %141 : (tensor<1x1x64xbf16>) -> tensor<64xbf16> loc(#loc269)
    %143 = stablehlo.reshape %arg10 : (tensor<64xbf16>) -> tensor<1x1x64xbf16> loc(#loc270)
    %144 = stablehlo.reshape %143 : (tensor<1x1x64xbf16>) -> tensor<64xbf16> loc(#loc271)
    %145 = "stablehlo.batch_norm_inference"(%138, %140, %142, %144, %72) <{epsilon = 1.000000e-03 : f32, feature_index = 1 : i64}> : (tensor<1x64x80x80xbf16>, tensor<64xbf16>, tensor<64xbf16>, tensor<64xbf16>, tensor<64xbf16>) -> tensor<1x64x80x80xbf16> loc(#loc272)
    %146 = stablehlo.logistic %145 : tensor<1x64x80x80xbf16> loc(#loc273)
    %147 = stablehlo.multiply %145, %146 : tensor<1x64x80x80xbf16> loc(#loc274)
    %148 = stablehlo.reshape %147 : (tensor<1x64x80x80xbf16>) -> tensor<1x2x32x80x80xbf16> loc(#loc275)
    %149 = stablehlo.reshape %arg7 : (tensor<64x512xbf16>) -> tensor<1x64x512xbf16> loc(#loc276)
    %150 = stablehlo.reshape %149 : (tensor<1x64x512xbf16>) -> tensor<64x512xbf16> loc(#loc277)
    %151 = stablehlo.transpose %150, dims = [1, 0] {result_layout = dense<[0, 1]> : tensor<2xindex>, xla_shape = "bf16[512,64]{0,1}"} : (tensor<64x512xbf16>) -> tensor<512x64xbf16> loc(#loc278)
    %152 = stablehlo.dot_general %51, %151, contracting_dims = [1] x [0] : (tensor<3x512xbf16>, tensor<512x64xbf16>) -> tensor<3x64xbf16> loc(#loc279)
    %153 = stablehlo.reshape %152 : (tensor<3x64xbf16>) -> tensor<1x3x64xbf16> loc(#loc280)
    %154 = stablehlo.reshape %arg6 : (tensor<64xbf16>) -> tensor<1x1x64xbf16> loc(#loc281)
    %155 = stablehlo.reshape %154 : (tensor<1x1x64xbf16>) -> tensor<64xbf16> loc(#loc282)
    %156 = stablehlo.broadcast_in_dim %155, dims = [2] : (tensor<64xbf16>) -> tensor<1x3x64xbf16> loc(#loc283)
    %157 = stablehlo.add %153, %156 : tensor<1x3x64xbf16> loc(#loc284)
    %158 = stablehlo.reshape %157 : (tensor<1x3x64xbf16>) -> tensor<1x3x2x32xbf16> loc(#loc285)
    %159 = stablehlo.dot_general %148, %158, batching_dims = [0, 1] x [0, 2], contracting_dims = [2] x [3] {mhlo.frontend_attributes = {grad_x = "false", grad_y = "false"}} : (tensor<1x2x32x80x80xbf16>, tensor<1x3x2x32xbf16>) -> tensor<1x2x80x80x3xbf16> loc(#loc286)
    %160 = stablehlo.reshape %arg55 : (tensor<64xbf16>) -> tensor<1x1x64xbf16> loc(#loc287)
    %161 = stablehlo.reshape %160 : (tensor<1x1x64xbf16>) -> tensor<64xbf16> loc(#loc288)
    %162 = stablehlo.reshape %arg0 : (tensor<128xbf16>) -> tensor<1x1x128xbf16> loc(#loc289)
    %163 = stablehlo.reshape %162 : (tensor<1x1x128xbf16>) -> tensor<128xbf16> loc(#loc290)
    %164 = stablehlo.reshape %arg83 : (tensor<128xbf16>) -> tensor<1x1x128xbf16> loc(#loc291)
    %165 = stablehlo.reshape %164 : (tensor<1x1x128xbf16>) -> tensor<128xbf16> loc(#loc292)
    %166 = stablehlo.reshape %arg78 : (tensor<256xbf16>) -> tensor<1x1x256xbf16> loc(#loc293)
    %167 = stablehlo.reshape %166 : (tensor<1x1x256xbf16>) -> tensor<256xbf16> loc(#loc294)
    %168 = stablehlo.reshape %arg73 : (tensor<128xbf16>) -> tensor<1x1x128xbf16> loc(#loc295)
    %169 = stablehlo.reshape %168 : (tensor<1x1x128xbf16>) -> tensor<128xbf16> loc(#loc296)
    %170 = stablehlo.reshape %arg68 : (tensor<128xbf16>) -> tensor<1x1x128xbf16> loc(#loc297)
    %171 = stablehlo.reshape %170 : (tensor<1x1x128xbf16>) -> tensor<128xbf16> loc(#loc298)
    %172 = stablehlo.slice %126 [0:1, 0:64, 0:80, 0:80] : (tensor<1x128x80x80xbf16>) -> tensor<1x64x80x80xbf16> loc(#loc299)
    %173 = stablehlo.convolution(%147, %arg59) dim_numbers = [b, f, 0, 1]x[o, i, 0, 1]->[b, f, 0, 1], window = {pad = [[1, 1], [1, 1]]} {batch_group_count = 1 : i64, feature_group_count = 1 : i64} : (tensor<1x64x80x80xbf16>, tensor<64x64x3x3xbf16>) -> tensor<1x64x80x80xbf16> loc(#loc300)
    %174 = stablehlo.reshape %arg58 : (tensor<64xbf16>) -> tensor<1x1x64xbf16> loc(#loc301)
    %175 = stablehlo.reshape %174 : (tensor<1x1x64xbf16>) -> tensor<64xbf16> loc(#loc302)
    %176 = stablehlo.reshape %arg57 : (tensor<64xbf16>) -> tensor<1x1x64xbf16> loc(#loc303)
    %177 = stablehlo.reshape %176 : (tensor<1x1x64xbf16>) -> tensor<64xbf16> loc(#loc304)
    %178 = stablehlo.reshape %arg56 : (tensor<64xbf16>) -> tensor<1x1x64xbf16> loc(#loc305)
    %179 = stablehlo.reshape %178 : (tensor<1x1x64xbf16>) -> tensor<64xbf16> loc(#loc306)
    %180 = "stablehlo.batch_norm_inference"(%173, %175, %177, %179, %161) <{epsilon = 1.000000e-03 : f32, feature_index = 1 : i64}> : (tensor<1x64x80x80xbf16>, tensor<64xbf16>, tensor<64xbf16>, tensor<64xbf16>, tensor<64xbf16>) -> tensor<1x64x80x80xbf16> loc(#loc307)
    %181 = stablehlo.reshape %180 : (tensor<1x64x80x80xbf16>) -> tensor<1x2x32x80x80xbf16> loc(#loc308)
    %182 = stablehlo.reduce(%159 init: %cst_4) applies stablehlo.maximum across dimensions = [4] : (tensor<1x2x80x80x3xbf16>, tensor<bf16>) -> tensor<1x2x80x80xbf16> loc(#loc309)
    %183 = stablehlo.divide %182, %cst_0 : tensor<1x2x80x80xbf16> loc(#loc310)
    %184 = stablehlo.reshape %arg5 : (tensor<2xbf16>) -> tensor<1x1x2xbf16> loc(#loc311)
    %185 = stablehlo.reshape %184 : (tensor<1x1x2xbf16>) -> tensor<1x2xbf16> loc(#loc312)
    %186 = stablehlo.broadcast_in_dim %185, dims = [0, 1] : (tensor<1x2xbf16>) -> tensor<1x2x80x80xbf16> loc(#loc313)
    %187 = stablehlo.add %183, %186 : tensor<1x2x80x80xbf16> loc(#loc314)
    %188 = stablehlo.logistic %187 : tensor<1x2x80x80xbf16> loc(#loc315)
    %189 = stablehlo.broadcast_in_dim %188, dims = [0, 1, 3, 4] : (tensor<1x2x80x80xbf16>) -> tensor<1x2x32x80x80xbf16> loc(#loc316)
    %190 = stablehlo.multiply %181, %189 : tensor<1x2x32x80x80xbf16> loc(#loc317)
    %191 = stablehlo.reshape %190 : (tensor<1x2x32x80x80xbf16>) -> tensor<1x64x80x80xbf16> loc(#loc318)
    %192 = stablehlo.concatenate %172, %127, %147, %191, dim = 1 : (tensor<1x64x80x80xbf16>, tensor<1x64x80x80xbf16>, tensor<1x64x80x80xbf16>, tensor<1x64x80x80xbf16>) -> tensor<1x256x80x80xbf16> loc(#loc319)
    %193 = stablehlo.convolution(%192, %arg4) dim_numbers = [b, f, 0, 1]x[o, i, 0, 1]->[b, f, 0, 1], window = {} {batch_group_count = 1 : i64, feature_group_count = 1 : i64} : (tensor<1x256x80x80xbf16>, tensor<128x256x1x1xbf16>) -> tensor<1x128x80x80xbf16> loc(#loc320)
    %194 = stablehlo.reshape %arg3 : (tensor<128xbf16>) -> tensor<1x1x128xbf16> loc(#loc321)
    %195 = stablehlo.reshape %194 : (tensor<1x1x128xbf16>) -> tensor<128xbf16> loc(#loc322)
    %196 = stablehlo.reshape %arg2 : (tensor<128xbf16>) -> tensor<1x1x128xbf16> loc(#loc323)
    %197 = stablehlo.reshape %196 : (tensor<1x1x128xbf16>) -> tensor<128xbf16> loc(#loc324)
    %198 = stablehlo.reshape %arg1 : (tensor<128xbf16>) -> tensor<1x1x128xbf16> loc(#loc325)
    %199 = stablehlo.reshape %198 : (tensor<1x1x128xbf16>) -> tensor<128xbf16> loc(#loc326)
    %200 = "stablehlo.batch_norm_inference"(%193, %195, %197, %199, %163) <{epsilon = 1.000000e-03 : f32, feature_index = 1 : i64}> : (tensor<1x128x80x80xbf16>, tensor<128xbf16>, tensor<128xbf16>, tensor<128xbf16>, tensor<128xbf16>) -> tensor<1x128x80x80xbf16> loc(#loc327)
    %201 = stablehlo.logistic %200 : tensor<1x128x80x80xbf16> loc(#loc328)
    %202 = stablehlo.multiply %200, %201 : tensor<1x128x80x80xbf16> loc(#loc329)
    %203 = stablehlo.convolution(%202, %arg87) dim_numbers = [b, f, 0, 1]x[o, i, 0, 1]->[b, f, 0, 1], window = {stride = [2, 2], pad = [[1, 1], [1, 1]]} {batch_group_count = 1 : i64, feature_group_count = 1 : i64} : (tensor<1x128x80x80xbf16>, tensor<128x128x3x3xbf16>) -> tensor<1x128x40x40xbf16> loc(#loc330)
    %204 = stablehlo.reshape %arg86 : (tensor<128xbf16>) -> tensor<1x1x128xbf16> loc(#loc331)
    %205 = stablehlo.reshape %204 : (tensor<1x1x128xbf16>) -> tensor<128xbf16> loc(#loc332)
    %206 = stablehlo.reshape %arg85 : (tensor<128xbf16>) -> tensor<1x1x128xbf16> loc(#loc333)
    %207 = stablehlo.reshape %206 : (tensor<1x1x128xbf16>) -> tensor<128xbf16> loc(#loc334)
    %208 = stablehlo.reshape %arg84 : (tensor<128xbf16>) -> tensor<1x1x128xbf16> loc(#loc335)
    %209 = stablehlo.reshape %208 : (tensor<1x1x128xbf16>) -> tensor<128xbf16> loc(#loc336)
    %210 = "stablehlo.batch_norm_inference"(%203, %205, %207, %209, %165) <{epsilon = 1.000000e-03 : f32, feature_index = 1 : i64}> : (tensor<1x128x40x40xbf16>, tensor<128xbf16>, tensor<128xbf16>, tensor<128xbf16>, tensor<128xbf16>) -> tensor<1x128x40x40xbf16> loc(#loc337)
    %211 = stablehlo.logistic %210 : tensor<1x128x40x40xbf16> loc(#loc338)
    %212 = stablehlo.multiply %210, %211 : tensor<1x128x40x40xbf16> loc(#loc339)
    %213 = stablehlo.concatenate %212, %103, dim = 1 : (tensor<1x128x40x40xbf16>, tensor<1x256x40x40xbf16>) -> tensor<1x384x40x40xbf16> loc(#loc340)
    %214 = stablehlo.convolution(%213, %arg82) dim_numbers = [b, f, 0, 1]x[o, i, 0, 1]->[b, f, 0, 1], window = {} {batch_group_count = 1 : i64, feature_group_count = 1 : i64} : (tensor<1x384x40x40xbf16>, tensor<256x384x1x1xbf16>) -> tensor<1x256x40x40xbf16> loc(#loc341)
    %215 = stablehlo.reshape %arg81 : (tensor<256xbf16>) -> tensor<1x1x256xbf16> loc(#loc342)
    %216 = stablehlo.reshape %215 : (tensor<1x1x256xbf16>) -> tensor<256xbf16> loc(#loc343)
    %217 = stablehlo.reshape %arg80 : (tensor<256xbf16>) -> tensor<1x1x256xbf16> loc(#loc344)
    %218 = stablehlo.reshape %217 : (tensor<1x1x256xbf16>) -> tensor<256xbf16> loc(#loc345)
    %219 = stablehlo.reshape %arg79 : (tensor<256xbf16>) -> tensor<1x1x256xbf16> loc(#loc346)
    %220 = stablehlo.reshape %219 : (tensor<1x1x256xbf16>) -> tensor<256xbf16> loc(#loc347)
    %221 = "stablehlo.batch_norm_inference"(%214, %216, %218, %220, %167) <{epsilon = 1.000000e-03 : f32, feature_index = 1 : i64}> : (tensor<1x256x40x40xbf16>, tensor<256xbf16>, tensor<256xbf16>, tensor<256xbf16>, tensor<256xbf16>) -> tensor<1x256x40x40xbf16> loc(#loc348)
    %222 = stablehlo.logistic %221 : tensor<1x256x40x40xbf16> loc(#loc349)
    %223 = stablehlo.multiply %221, %222 : tensor<1x256x40x40xbf16> loc(#loc350)
    %224 = stablehlo.slice %223 [0:1, 128:256, 0:40, 0:40] : (tensor<1x256x40x40xbf16>) -> tensor<1x128x40x40xbf16> loc(#loc351)
    %225 = stablehlo.convolution(%224, %arg77) dim_numbers = [b, f, 0, 1]x[o, i, 0, 1]->[b, f, 0, 1], window = {pad = [[1, 1], [1, 1]]} {batch_group_count = 1 : i64, feature_group_count = 1 : i64} : (tensor<1x128x40x40xbf16>, tensor<128x128x3x3xbf16>) -> tensor<1x128x40x40xbf16> loc(#loc352)
    %226 = stablehlo.reshape %arg76 : (tensor<128xbf16>) -> tensor<1x1x128xbf16> loc(#loc353)
    %227 = stablehlo.reshape %226 : (tensor<1x1x128xbf16>) -> tensor<128xbf16> loc(#loc354)
    %228 = stablehlo.reshape %arg75 : (tensor<128xbf16>) -> tensor<1x1x128xbf16> loc(#loc355)
    %229 = stablehlo.reshape %228 : (tensor<1x1x128xbf16>) -> tensor<128xbf16> loc(#loc356)
    %230 = stablehlo.reshape %arg74 : (tensor<128xbf16>) -> tensor<1x1x128xbf16> loc(#loc357)
    %231 = stablehlo.reshape %230 : (tensor<1x1x128xbf16>) -> tensor<128xbf16> loc(#loc358)
    %232 = "stablehlo.batch_norm_inference"(%225, %227, %229, %231, %169) <{epsilon = 1.000000e-03 : f32, feature_index = 1 : i64}> : (tensor<1x128x40x40xbf16>, tensor<128xbf16>, tensor<128xbf16>, tensor<128xbf16>, tensor<128xbf16>) -> tensor<1x128x40x40xbf16> loc(#loc359)
    %233 = stablehlo.logistic %232 : tensor<1x128x40x40xbf16> loc(#loc360)
    %234 = stablehlo.multiply %232, %233 : tensor<1x128x40x40xbf16> loc(#loc361)
    %235 = stablehlo.convolution(%234, %arg72) dim_numbers = [b, f, 0, 1]x[o, i, 0, 1]->[b, f, 0, 1], window = {pad = [[1, 1], [1, 1]]} {batch_group_count = 1 : i64, feature_group_count = 1 : i64} : (tensor<1x128x40x40xbf16>, tensor<128x128x3x3xbf16>) -> tensor<1x128x40x40xbf16> loc(#loc362)
    %236 = stablehlo.reshape %arg71 : (tensor<128xbf16>) -> tensor<1x1x128xbf16> loc(#loc363)
    %237 = stablehlo.reshape %236 : (tensor<1x1x128xbf16>) -> tensor<128xbf16> loc(#loc364)
    %238 = stablehlo.reshape %arg70 : (tensor<128xbf16>) -> tensor<1x1x128xbf16> loc(#loc365)
    %239 = stablehlo.reshape %238 : (tensor<1x1x128xbf16>) -> tensor<128xbf16> loc(#loc366)
    %240 = stablehlo.reshape %arg69 : (tensor<128xbf16>) -> tensor<1x1x128xbf16> loc(#loc367)
    %241 = stablehlo.reshape %240 : (tensor<1x1x128xbf16>) -> tensor<128xbf16> loc(#loc368)
    %242 = "stablehlo.batch_norm_inference"(%235, %237, %239, %241, %171) <{epsilon = 1.000000e-03 : f32, feature_index = 1 : i64}> : (tensor<1x128x40x40xbf16>, tensor<128xbf16>, tensor<128xbf16>, tensor<128xbf16>, tensor<128xbf16>) -> tensor<1x128x40x40xbf16> loc(#loc369)
    %243 = stablehlo.logistic %242 : tensor<1x128x40x40xbf16> loc(#loc370)
    %244 = stablehlo.multiply %242, %243 : tensor<1x128x40x40xbf16> loc(#loc371)
    %245 = stablehlo.reshape %244 : (tensor<1x128x40x40xbf16>) -> tensor<1x4x32x40x40xbf16> loc(#loc372)
    %246 = stablehlo.reshape %arg67 : (tensor<128x512xbf16>) -> tensor<1x128x512xbf16> loc(#loc373)
    %247 = stablehlo.reshape %246 : (tensor<1x128x512xbf16>) -> tensor<128x512xbf16> loc(#loc374)
    %248 = stablehlo.transpose %247, dims = [1, 0] {result_layout = dense<[0, 1]> : tensor<2xindex>, xla_shape = "bf16[512,128]{0,1}"} : (tensor<128x512xbf16>) -> tensor<512x128xbf16> loc(#loc375)
    %249 = stablehlo.dot_general %51, %248, contracting_dims = [1] x [0] : (tensor<3x512xbf16>, tensor<512x128xbf16>) -> tensor<3x128xbf16> loc(#loc376)
    %250 = stablehlo.reshape %249 : (tensor<3x128xbf16>) -> tensor<1x3x128xbf16> loc(#loc377)
    %251 = stablehlo.reshape %arg66 : (tensor<128xbf16>) -> tensor<1x1x128xbf16> loc(#loc378)
    %252 = stablehlo.reshape %251 : (tensor<1x1x128xbf16>) -> tensor<128xbf16> loc(#loc379)
    %253 = stablehlo.broadcast_in_dim %252, dims = [2] : (tensor<128xbf16>) -> tensor<1x3x128xbf16> loc(#loc380)
    %254 = stablehlo.add %250, %253 : tensor<1x3x128xbf16> loc(#loc381)
    %255 = stablehlo.reshape %254 : (tensor<1x3x128xbf16>) -> tensor<1x3x4x32xbf16> loc(#loc382)
    %256 = stablehlo.dot_general %245, %255, batching_dims = [0, 1] x [0, 2], contracting_dims = [2] x [3] {mhlo.frontend_attributes = {grad_x = "false", grad_y = "false"}} : (tensor<1x4x32x40x40xbf16>, tensor<1x3x4x32xbf16>) -> tensor<1x4x40x40x3xbf16> loc(#loc383)
    %257 = stablehlo.reshape %arg88 : (tensor<128xbf16>) -> tensor<1x1x128xbf16> loc(#loc384)
    %258 = stablehlo.reshape %257 : (tensor<1x1x128xbf16>) -> tensor<128xbf16> loc(#loc385)
    %259 = stablehlo.reshape %arg60 : (tensor<256xbf16>) -> tensor<1x1x256xbf16> loc(#loc386)
    %260 = stablehlo.reshape %259 : (tensor<1x1x256xbf16>) -> tensor<256xbf16> loc(#loc387)
    %261 = stablehlo.reshape %arg116 : (tensor<256xbf16>) -> tensor<1x1x256xbf16> loc(#loc388)
    %262 = stablehlo.reshape %261 : (tensor<1x1x256xbf16>) -> tensor<256xbf16> loc(#loc389)
    %263 = stablehlo.reshape %arg111 : (tensor<512xbf16>) -> tensor<1x1x512xbf16> loc(#loc390)
    %264 = stablehlo.reshape %263 : (tensor<1x1x512xbf16>) -> tensor<512xbf16> loc(#loc391)
    %265 = stablehlo.reshape %arg106 : (tensor<256xbf16>) -> tensor<1x1x256xbf16> loc(#loc392)
    %266 = stablehlo.reshape %265 : (tensor<1x1x256xbf16>) -> tensor<256xbf16> loc(#loc393)
    %267 = stablehlo.reshape %arg101 : (tensor<256xbf16>) -> tensor<1x1x256xbf16> loc(#loc394)
    %268 = stablehlo.reshape %267 : (tensor<1x1x256xbf16>) -> tensor<256xbf16> loc(#loc395)
    %269 = stablehlo.slice %223 [0:1, 0:128, 0:40, 0:40] : (tensor<1x256x40x40xbf16>) -> tensor<1x128x40x40xbf16> loc(#loc396)
    %270 = stablehlo.convolution(%244, %arg92) dim_numbers = [b, f, 0, 1]x[o, i, 0, 1]->[b, f, 0, 1], window = {pad = [[1, 1], [1, 1]]} {batch_group_count = 1 : i64, feature_group_count = 1 : i64} : (tensor<1x128x40x40xbf16>, tensor<128x128x3x3xbf16>) -> tensor<1x128x40x40xbf16> loc(#loc397)
    %271 = stablehlo.reshape %arg91 : (tensor<128xbf16>) -> tensor<1x1x128xbf16> loc(#loc398)
    %272 = stablehlo.reshape %271 : (tensor<1x1x128xbf16>) -> tensor<128xbf16> loc(#loc399)
    %273 = stablehlo.reshape %arg90 : (tensor<128xbf16>) -> tensor<1x1x128xbf16> loc(#loc400)
    %274 = stablehlo.reshape %273 : (tensor<1x1x128xbf16>) -> tensor<128xbf16> loc(#loc401)
    %275 = stablehlo.reshape %arg89 : (tensor<128xbf16>) -> tensor<1x1x128xbf16> loc(#loc402)
    %276 = stablehlo.reshape %275 : (tensor<1x1x128xbf16>) -> tensor<128xbf16> loc(#loc403)
    %277 = "stablehlo.batch_norm_inference"(%270, %272, %274, %276, %258) <{epsilon = 1.000000e-03 : f32, feature_index = 1 : i64}> : (tensor<1x128x40x40xbf16>, tensor<128xbf16>, tensor<128xbf16>, tensor<128xbf16>, tensor<128xbf16>) -> tensor<1x128x40x40xbf16> loc(#loc404)
    %278 = stablehlo.reshape %277 : (tensor<1x128x40x40xbf16>) -> tensor<1x4x32x40x40xbf16> loc(#loc405)
    %279 = stablehlo.reduce(%256 init: %cst_4) applies stablehlo.maximum across dimensions = [4] : (tensor<1x4x40x40x3xbf16>, tensor<bf16>) -> tensor<1x4x40x40xbf16> loc(#loc406)
    %280 = stablehlo.divide %279, %cst_2 : tensor<1x4x40x40xbf16> loc(#loc407)
    %281 = stablehlo.reshape %arg65 : (tensor<4xbf16>) -> tensor<1x1x4xbf16> loc(#loc408)
    %282 = stablehlo.reshape %281 : (tensor<1x1x4xbf16>) -> tensor<1x4xbf16> loc(#loc409)
    %283 = stablehlo.broadcast_in_dim %282, dims = [0, 1] : (tensor<1x4xbf16>) -> tensor<1x4x40x40xbf16> loc(#loc410)
    %284 = stablehlo.add %280, %283 : tensor<1x4x40x40xbf16> loc(#loc411)
    %285 = stablehlo.logistic %284 : tensor<1x4x40x40xbf16> loc(#loc412)
    %286 = stablehlo.broadcast_in_dim %285, dims = [0, 1, 3, 4] : (tensor<1x4x40x40xbf16>) -> tensor<1x4x32x40x40xbf16> loc(#loc413)
    %287 = stablehlo.multiply %278, %286 : tensor<1x4x32x40x40xbf16> loc(#loc414)
    %288 = stablehlo.reshape %287 : (tensor<1x4x32x40x40xbf16>) -> tensor<1x128x40x40xbf16> loc(#loc415)
    %289 = stablehlo.concatenate %269, %224, %244, %288, dim = 1 : (tensor<1x128x40x40xbf16>, tensor<1x128x40x40xbf16>, tensor<1x128x40x40xbf16>, tensor<1x128x40x40xbf16>) -> tensor<1x512x40x40xbf16> loc(#loc416)
    %290 = stablehlo.convolution(%289, %arg64) dim_numbers = [b, f, 0, 1]x[o, i, 0, 1]->[b, f, 0, 1], window = {} {batch_group_count = 1 : i64, feature_group_count = 1 : i64} : (tensor<1x512x40x40xbf16>, tensor<256x512x1x1xbf16>) -> tensor<1x256x40x40xbf16> loc(#loc417)
    %291 = stablehlo.reshape %arg63 : (tensor<256xbf16>) -> tensor<1x1x256xbf16> loc(#loc418)
    %292 = stablehlo.reshape %291 : (tensor<1x1x256xbf16>) -> tensor<256xbf16> loc(#loc419)
    %293 = stablehlo.reshape %arg62 : (tensor<256xbf16>) -> tensor<1x1x256xbf16> loc(#loc420)
    %294 = stablehlo.reshape %293 : (tensor<1x1x256xbf16>) -> tensor<256xbf16> loc(#loc421)
    %295 = stablehlo.reshape %arg61 : (tensor<256xbf16>) -> tensor<1x1x256xbf16> loc(#loc422)
    %296 = stablehlo.reshape %295 : (tensor<1x1x256xbf16>) -> tensor<256xbf16> loc(#loc423)
    %297 = "stablehlo.batch_norm_inference"(%290, %292, %294, %296, %260) <{epsilon = 1.000000e-03 : f32, feature_index = 1 : i64}> : (tensor<1x256x40x40xbf16>, tensor<256xbf16>, tensor<256xbf16>, tensor<256xbf16>, tensor<256xbf16>) -> tensor<1x256x40x40xbf16> loc(#loc424)
    %298 = stablehlo.logistic %297 : tensor<1x256x40x40xbf16> loc(#loc425)
    %299 = stablehlo.multiply %297, %298 : tensor<1x256x40x40xbf16> loc(#loc426)
    %300 = stablehlo.convolution(%299, %arg120) dim_numbers = [b, f, 0, 1]x[o, i, 0, 1]->[b, f, 0, 1], window = {stride = [2, 2], pad = [[1, 1], [1, 1]]} {batch_group_count = 1 : i64, feature_group_count = 1 : i64} : (tensor<1x256x40x40xbf16>, tensor<256x256x3x3xbf16>) -> tensor<1x256x20x20xbf16> loc(#loc427)
    %301 = stablehlo.reshape %arg119 : (tensor<256xbf16>) -> tensor<1x1x256xbf16> loc(#loc428)
    %302 = stablehlo.reshape %301 : (tensor<1x1x256xbf16>) -> tensor<256xbf16> loc(#loc429)
    %303 = stablehlo.reshape %arg118 : (tensor<256xbf16>) -> tensor<1x1x256xbf16> loc(#loc430)
    %304 = stablehlo.reshape %303 : (tensor<1x1x256xbf16>) -> tensor<256xbf16> loc(#loc431)
    %305 = stablehlo.reshape %arg117 : (tensor<256xbf16>) -> tensor<1x1x256xbf16> loc(#loc432)
    %306 = stablehlo.reshape %305 : (tensor<1x1x256xbf16>) -> tensor<256xbf16> loc(#loc433)
    %307 = "stablehlo.batch_norm_inference"(%300, %302, %304, %306, %262) <{epsilon = 1.000000e-03 : f32, feature_index = 1 : i64}> : (tensor<1x256x20x20xbf16>, tensor<256xbf16>, tensor<256xbf16>, tensor<256xbf16>, tensor<256xbf16>) -> tensor<1x256x20x20xbf16> loc(#loc434)
    %308 = stablehlo.logistic %307 : tensor<1x256x20x20xbf16> loc(#loc435)
    %309 = stablehlo.multiply %307, %308 : tensor<1x256x20x20xbf16> loc(#loc436)
    %310 = stablehlo.concatenate %309, %arg49, dim = 1 : (tensor<1x256x20x20xbf16>, tensor<1x512x20x20xbf16>) -> tensor<1x768x20x20xbf16> loc(#loc437)
    %311 = stablehlo.convolution(%310, %arg115) dim_numbers = [b, f, 0, 1]x[o, i, 0, 1]->[b, f, 0, 1], window = {} {batch_group_count = 1 : i64, feature_group_count = 1 : i64} : (tensor<1x768x20x20xbf16>, tensor<512x768x1x1xbf16>) -> tensor<1x512x20x20xbf16> loc(#loc438)
    %312 = stablehlo.reshape %arg114 : (tensor<512xbf16>) -> tensor<1x1x512xbf16> loc(#loc439)
    %313 = stablehlo.reshape %312 : (tensor<1x1x512xbf16>) -> tensor<512xbf16> loc(#loc440)
    %314 = stablehlo.reshape %arg113 : (tensor<512xbf16>) -> tensor<1x1x512xbf16> loc(#loc441)
    %315 = stablehlo.reshape %314 : (tensor<1x1x512xbf16>) -> tensor<512xbf16> loc(#loc442)
    %316 = stablehlo.reshape %arg112 : (tensor<512xbf16>) -> tensor<1x1x512xbf16> loc(#loc443)
    %317 = stablehlo.reshape %316 : (tensor<1x1x512xbf16>) -> tensor<512xbf16> loc(#loc444)
    %318 = "stablehlo.batch_norm_inference"(%311, %313, %315, %317, %264) <{epsilon = 1.000000e-03 : f32, feature_index = 1 : i64}> : (tensor<1x512x20x20xbf16>, tensor<512xbf16>, tensor<512xbf16>, tensor<512xbf16>, tensor<512xbf16>) -> tensor<1x512x20x20xbf16> loc(#loc445)
    %319 = stablehlo.logistic %318 : tensor<1x512x20x20xbf16> loc(#loc446)
    %320 = stablehlo.multiply %318, %319 : tensor<1x512x20x20xbf16> loc(#loc447)
    %321 = stablehlo.slice %320 [0:1, 256:512, 0:20, 0:20] : (tensor<1x512x20x20xbf16>) -> tensor<1x256x20x20xbf16> loc(#loc448)
    %322 = stablehlo.convolution(%321, %arg110) dim_numbers = [b, f, 0, 1]x[o, i, 0, 1]->[b, f, 0, 1], window = {pad = [[1, 1], [1, 1]]} {batch_group_count = 1 : i64, feature_group_count = 1 : i64} : (tensor<1x256x20x20xbf16>, tensor<256x256x3x3xbf16>) -> tensor<1x256x20x20xbf16> loc(#loc449)
    %323 = stablehlo.reshape %arg109 : (tensor<256xbf16>) -> tensor<1x1x256xbf16> loc(#loc450)
    %324 = stablehlo.reshape %323 : (tensor<1x1x256xbf16>) -> tensor<256xbf16> loc(#loc451)
    %325 = stablehlo.reshape %arg108 : (tensor<256xbf16>) -> tensor<1x1x256xbf16> loc(#loc452)
    %326 = stablehlo.reshape %325 : (tensor<1x1x256xbf16>) -> tensor<256xbf16> loc(#loc453)
    %327 = stablehlo.reshape %arg107 : (tensor<256xbf16>) -> tensor<1x1x256xbf16> loc(#loc454)
    %328 = stablehlo.reshape %327 : (tensor<1x1x256xbf16>) -> tensor<256xbf16> loc(#loc455)
    %329 = "stablehlo.batch_norm_inference"(%322, %324, %326, %328, %266) <{epsilon = 1.000000e-03 : f32, feature_index = 1 : i64}> : (tensor<1x256x20x20xbf16>, tensor<256xbf16>, tensor<256xbf16>, tensor<256xbf16>, tensor<256xbf16>) -> tensor<1x256x20x20xbf16> loc(#loc456)
    %330 = stablehlo.logistic %329 : tensor<1x256x20x20xbf16> loc(#loc457)
    %331 = stablehlo.multiply %329, %330 : tensor<1x256x20x20xbf16> loc(#loc458)
    %332 = stablehlo.convolution(%331, %arg105) dim_numbers = [b, f, 0, 1]x[o, i, 0, 1]->[b, f, 0, 1], window = {pad = [[1, 1], [1, 1]]} {batch_group_count = 1 : i64, feature_group_count = 1 : i64} : (tensor<1x256x20x20xbf16>, tensor<256x256x3x3xbf16>) -> tensor<1x256x20x20xbf16> loc(#loc459)
    %333 = stablehlo.reshape %arg104 : (tensor<256xbf16>) -> tensor<1x1x256xbf16> loc(#loc460)
    %334 = stablehlo.reshape %333 : (tensor<1x1x256xbf16>) -> tensor<256xbf16> loc(#loc461)
    %335 = stablehlo.reshape %arg103 : (tensor<256xbf16>) -> tensor<1x1x256xbf16> loc(#loc462)
    %336 = stablehlo.reshape %335 : (tensor<1x1x256xbf16>) -> tensor<256xbf16> loc(#loc463)
    %337 = stablehlo.reshape %arg102 : (tensor<256xbf16>) -> tensor<1x1x256xbf16> loc(#loc464)
    %338 = stablehlo.reshape %337 : (tensor<1x1x256xbf16>) -> tensor<256xbf16> loc(#loc465)
    %339 = "stablehlo.batch_norm_inference"(%332, %334, %336, %338, %268) <{epsilon = 1.000000e-03 : f32, feature_index = 1 : i64}> : (tensor<1x256x20x20xbf16>, tensor<256xbf16>, tensor<256xbf16>, tensor<256xbf16>, tensor<256xbf16>) -> tensor<1x256x20x20xbf16> loc(#loc466)
    %340 = stablehlo.logistic %339 : tensor<1x256x20x20xbf16> loc(#loc467)
    %341 = stablehlo.multiply %339, %340 : tensor<1x256x20x20xbf16> loc(#loc468)
    %342 = stablehlo.reshape %341 : (tensor<1x256x20x20xbf16>) -> tensor<1x8x32x20x20xbf16> loc(#loc469)
    %343 = stablehlo.reshape %arg100 : (tensor<256x512xbf16>) -> tensor<1x256x512xbf16> loc(#loc470)
    %344 = stablehlo.reshape %343 : (tensor<1x256x512xbf16>) -> tensor<256x512xbf16> loc(#loc471)
    %345 = stablehlo.transpose %344, dims = [1, 0] {result_layout = dense<[0, 1]> : tensor<2xindex>, xla_shape = "bf16[512,256]{0,1}"} : (tensor<256x512xbf16>) -> tensor<512x256xbf16> loc(#loc472)
    %346 = stablehlo.dot_general %51, %345, contracting_dims = [1] x [0] : (tensor<3x512xbf16>, tensor<512x256xbf16>) -> tensor<3x256xbf16> loc(#loc473)
    %347 = stablehlo.reshape %346 : (tensor<3x256xbf16>) -> tensor<1x3x256xbf16> loc(#loc474)
    %348 = stablehlo.reshape %arg99 : (tensor<256xbf16>) -> tensor<1x1x256xbf16> loc(#loc475)
    %349 = stablehlo.reshape %348 : (tensor<1x1x256xbf16>) -> tensor<256xbf16> loc(#loc476)
    %350 = stablehlo.broadcast_in_dim %349, dims = [2] : (tensor<256xbf16>) -> tensor<1x3x256xbf16> loc(#loc477)
    %351 = stablehlo.add %347, %350 : tensor<1x3x256xbf16> loc(#loc478)
    %352 = stablehlo.reshape %351 : (tensor<1x3x256xbf16>) -> tensor<1x3x8x32xbf16> loc(#loc479)
    %353 = stablehlo.dot_general %342, %352, batching_dims = [0, 1] x [0, 2], contracting_dims = [2] x [3] {mhlo.frontend_attributes = {grad_x = "false", grad_y = "false"}} : (tensor<1x8x32x20x20xbf16>, tensor<1x3x8x32xbf16>) -> tensor<1x8x20x20x3xbf16> loc(#loc480)
    %354 = stablehlo.reshape %arg121 : (tensor<256xbf16>) -> tensor<1x1x256xbf16> loc(#loc481)
    %355 = stablehlo.reshape %354 : (tensor<1x1x256xbf16>) -> tensor<256xbf16> loc(#loc482)
    %356 = stablehlo.reshape %arg93 : (tensor<512xbf16>) -> tensor<1x1x512xbf16> loc(#loc483)
    %357 = stablehlo.reshape %356 : (tensor<1x1x512xbf16>) -> tensor<512xbf16> loc(#loc484)
    %358 = stablehlo.slice %320 [0:1, 0:256, 0:20, 0:20] : (tensor<1x512x20x20xbf16>) -> tensor<1x256x20x20xbf16> loc(#loc485)
    %359 = stablehlo.convolution(%341, %arg125) dim_numbers = [b, f, 0, 1]x[o, i, 0, 1]->[b, f, 0, 1], window = {pad = [[1, 1], [1, 1]]} {batch_group_count = 1 : i64, feature_group_count = 1 : i64} : (tensor<1x256x20x20xbf16>, tensor<256x256x3x3xbf16>) -> tensor<1x256x20x20xbf16> loc(#loc486)
    %360 = stablehlo.reshape %arg124 : (tensor<256xbf16>) -> tensor<1x1x256xbf16> loc(#loc487)
    %361 = stablehlo.reshape %360 : (tensor<1x1x256xbf16>) -> tensor<256xbf16> loc(#loc488)
    %362 = stablehlo.reshape %arg123 : (tensor<256xbf16>) -> tensor<1x1x256xbf16> loc(#loc489)
    %363 = stablehlo.reshape %362 : (tensor<1x1x256xbf16>) -> tensor<256xbf16> loc(#loc490)
    %364 = stablehlo.reshape %arg122 : (tensor<256xbf16>) -> tensor<1x1x256xbf16> loc(#loc491)
    %365 = stablehlo.reshape %364 : (tensor<1x1x256xbf16>) -> tensor<256xbf16> loc(#loc492)
    %366 = "stablehlo.batch_norm_inference"(%359, %361, %363, %365, %355) <{epsilon = 1.000000e-03 : f32, feature_index = 1 : i64}> : (tensor<1x256x20x20xbf16>, tensor<256xbf16>, tensor<256xbf16>, tensor<256xbf16>, tensor<256xbf16>) -> tensor<1x256x20x20xbf16> loc(#loc493)
    %367 = stablehlo.reshape %366 : (tensor<1x256x20x20xbf16>) -> tensor<1x8x32x20x20xbf16> loc(#loc494)
    %368 = stablehlo.reduce(%353 init: %cst_4) applies stablehlo.maximum across dimensions = [4] : (tensor<1x8x20x20x3xbf16>, tensor<bf16>) -> tensor<1x8x20x20xbf16> loc(#loc495)
    %369 = stablehlo.divide %368, %cst : tensor<1x8x20x20xbf16> loc(#loc496)
    %370 = stablehlo.reshape %arg98 : (tensor<8xbf16>) -> tensor<1x1x8xbf16> loc(#loc497)
    %371 = stablehlo.reshape %370 : (tensor<1x1x8xbf16>) -> tensor<1x8xbf16> loc(#loc498)
    %372 = stablehlo.broadcast_in_dim %371, dims = [0, 1] : (tensor<1x8xbf16>) -> tensor<1x8x20x20xbf16> loc(#loc499)
    %373 = stablehlo.add %369, %372 : tensor<1x8x20x20xbf16> loc(#loc500)
    %374 = stablehlo.logistic %373 : tensor<1x8x20x20xbf16> loc(#loc501)
    %375 = stablehlo.broadcast_in_dim %374, dims = [0, 1, 3, 4] : (tensor<1x8x20x20xbf16>) -> tensor<1x8x32x20x20xbf16> loc(#loc502)
    %376 = stablehlo.multiply %367, %375 : tensor<1x8x32x20x20xbf16> loc(#loc503)
    %377 = stablehlo.reshape %376 : (tensor<1x8x32x20x20xbf16>) -> tensor<1x256x20x20xbf16> loc(#loc504)
    %378 = stablehlo.concatenate %358, %321, %341, %377, dim = 1 : (tensor<1x256x20x20xbf16>, tensor<1x256x20x20xbf16>, tensor<1x256x20x20xbf16>, tensor<1x256x20x20xbf16>) -> tensor<1x1024x20x20xbf16> loc(#loc505)
    %379 = stablehlo.convolution(%378, %arg97) dim_numbers = [b, f, 0, 1]x[o, i, 0, 1]->[b, f, 0, 1], window = {} {batch_group_count = 1 : i64, feature_group_count = 1 : i64} : (tensor<1x1024x20x20xbf16>, tensor<512x1024x1x1xbf16>) -> tensor<1x512x20x20xbf16> loc(#loc506)
    %380 = stablehlo.reshape %arg96 : (tensor<512xbf16>) -> tensor<1x1x512xbf16> loc(#loc507)
    %381 = stablehlo.reshape %380 : (tensor<1x1x512xbf16>) -> tensor<512xbf16> loc(#loc508)
    %382 = stablehlo.reshape %arg95 : (tensor<512xbf16>) -> tensor<1x1x512xbf16> loc(#loc509)
    %383 = stablehlo.reshape %382 : (tensor<1x1x512xbf16>) -> tensor<512xbf16> loc(#loc510)
    %384 = stablehlo.reshape %arg94 : (tensor<512xbf16>) -> tensor<1x1x512xbf16> loc(#loc511)
    %385 = stablehlo.reshape %384 : (tensor<1x1x512xbf16>) -> tensor<512xbf16> loc(#loc512)
    %386 = "stablehlo.batch_norm_inference"(%379, %381, %383, %385, %357) <{epsilon = 1.000000e-03 : f32, feature_index = 1 : i64}> : (tensor<1x512x20x20xbf16>, tensor<512xbf16>, tensor<512xbf16>, tensor<512xbf16>, tensor<512xbf16>) -> tensor<1x512x20x20xbf16> loc(#loc513)
    %387 = stablehlo.logistic %386 : tensor<1x512x20x20xbf16> loc(#loc514)
    %388 = stablehlo.multiply %386, %387 : tensor<1x512x20x20xbf16> loc(#loc515)
    return %202, %299, %388 : tensor<1x128x80x80xbf16>, tensor<1x256x40x40xbf16>, tensor<1x512x20x20xbf16> loc(#loc)
  } loc(#loc)
} loc(#loc)
#loc = loc(unknown)
#loc127 = loc("reshape.220")
#loc128 = loc("reshape.222")
#loc129 = loc("reshape.202")
#loc130 = loc("reshape.204")
#loc131 = loc("reshape.184")
#loc132 = loc("reshape.186")
#loc133 = loc("transpose.271")
#loc134 = loc("floor.259")
#loc135 = loc("convert.260")
#loc136 = loc("broadcast.264")
#loc137 = loc("broadcast.262")
#loc138 = loc("compare.265")
#loc139 = loc("convert.266")
#loc140 = loc("transpose.267")
#loc141 = loc("convert.268")
#loc142 = loc("dot.272")
#loc143 = loc("transpose.274")
#loc144 = loc("dot.275")
#loc145 = loc("concatenate.277")
#loc146 = loc("convolution.278")
#loc147 = loc("reshape.232")
#loc148 = loc("reshape.234")
#loc149 = loc("reshape.228")
#loc150 = loc("reshape.230")
#loc151 = loc("reshape.224")
#loc152 = loc("reshape.226")
#loc153 = loc("batch-norm-inference.279")
#loc154 = loc("logistic.284")
#loc155 = loc("multiply.285")
#loc156 = loc("slice.286")
#loc157 = loc("convolution.287")
#loc158 = loc("reshape.214")
#loc159 = loc("reshape.216")
#loc160 = loc("reshape.210")
#loc161 = loc("reshape.212")
#loc162 = loc("reshape.206")
#loc163 = loc("reshape.208")
#loc164 = loc("batch-norm-inference.288")
#loc165 = loc("logistic.293")
#loc166 = loc("multiply.294")
#loc167 = loc("convolution.295")
#loc168 = loc("reshape.196")
#loc169 = loc("reshape.198")
#loc170 = loc("reshape.192")
#loc171 = loc("reshape.194")
#loc172 = loc("reshape.188")
#loc173 = loc("reshape.190")
#loc174 = loc("batch-norm-inference.296")
#loc175 = loc("logistic.301")
#loc176 = loc("multiply.302")
#loc177 = loc("reshape.303")
#loc178 = loc("reshape.175")
#loc179 = loc("reshape.171")
#loc180 = loc("reshape.173")
#loc181 = loc("transpose.174")
#loc182 = loc("dot.176")
#loc183 = loc("reshape.177")
#loc184 = loc("reshape.167")
#loc185 = loc("reshape.169")
#loc186 = loc("broadcast.180")
#loc187 = loc("add.181")
#loc188 = loc("reshape.182")
#loc189 = loc("dot.304")
#loc190 = loc("reshape.355")
#loc191 = loc("reshape.357")
#loc192 = loc("reshape.137")
#loc193 = loc("reshape.139")
#loc194 = loc("reshape.87")
#loc195 = loc("reshape.89")
#loc196 = loc("reshape.69")
#loc197 = loc("reshape.71")
#loc198 = loc("reshape.51")
#loc199 = loc("reshape.53")
#loc200 = loc("slice.383")
#loc201 = loc("convolution.372")
#loc202 = loc("reshape.367")
#loc203 = loc("reshape.369")
#loc204 = loc("reshape.363")
#loc205 = loc("reshape.365")
#loc206 = loc("reshape.359")
#loc207 = loc("reshape.361")
#loc208 = loc("batch-norm-inference.373")
#loc209 = loc("reshape.378")
#loc210 = loc("reduce.312")
#loc211 = loc("divide.344")
#loc212 = loc("reshape.157")
#loc213 = loc("reshape.160")
#loc214 = loc("broadcast.348")
#loc215 = loc("add.349")
#loc216 = loc("logistic.350")
#loc217 = loc("broadcast.380")
#loc218 = loc("multiply.381")
#loc219 = loc("reshape.382")
#loc220 = loc("concatenate.384")
#loc221 = loc("convolution.385")
#loc222 = loc("reshape.149")
#loc223 = loc("reshape.151")
#loc224 = loc("reshape.145")
#loc225 = loc("reshape.147")
#loc226 = loc("reshape.141")
#loc227 = loc("reshape.143")
#loc228 = loc("batch-norm-inference.386")
#loc229 = loc("logistic.391")
#loc230 = loc("multiply.392")
#loc231 = loc("transpose.393")
#loc232 = loc("floor.126")
#loc233 = loc("convert.127")
#loc234 = loc("broadcast.131")
#loc235 = loc("broadcast.129")
#loc236 = loc("compare.132")
#loc237 = loc("convert.133")
#loc238 = loc("transpose.134")
#loc239 = loc("convert.135")
#loc240 = loc("dot.394")
#loc241 = loc("transpose.396")
#loc242 = loc("dot.397")
#loc243 = loc("concatenate.399")
#loc244 = loc("convolution.400")
#loc245 = loc("reshape.99")
#loc246 = loc("reshape.101")
#loc247 = loc("reshape.95")
#loc248 = loc("reshape.97")
#loc249 = loc("reshape.91")
#loc250 = loc("reshape.93")
#loc251 = loc("batch-norm-inference.401")
#loc252 = loc("logistic.406")
#loc253 = loc("multiply.407")
#loc254 = loc("slice.408")
#loc255 = loc("convolution.409")
#loc256 = loc("reshape.81")
#loc257 = loc("reshape.83")
#loc258 = loc("reshape.77")
#loc259 = loc("reshape.79")
#loc260 = loc("reshape.73")
#loc261 = loc("reshape.75")
#loc262 = loc("batch-norm-inference.410")
#loc263 = loc("logistic.415")
#loc264 = loc("multiply.416")
#loc265 = loc("convolution.417")
#loc266 = loc("reshape.63")
#loc267 = loc("reshape.65")
#loc268 = loc("reshape.59")
#loc269 = loc("reshape.61")
#loc270 = loc("reshape.55")
#loc271 = loc("reshape.57")
#loc272 = loc("batch-norm-inference.418")
#loc273 = loc("logistic.423")
#loc274 = loc("multiply.424")
#loc275 = loc("reshape.425")
#loc276 = loc("reshape.36")
#loc277 = loc("reshape.38")
#loc278 = loc("transpose.39")
#loc279 = loc("dot.43")
#loc280 = loc("reshape.44")
#loc281 = loc("reshape.32")
#loc282 = loc("reshape.34")
#loc283 = loc("broadcast.47")
#loc284 = loc("add.48")
#loc285 = loc("reshape.49")
#loc286 = loc("dot.426")
#loc287 = loc("reshape.477")
#loc288 = loc("reshape.479")
#loc289 = loc("reshape.2")
#loc290 = loc("reshape.4")
#loc291 = loc("reshape.617")
#loc292 = loc("reshape.619")
#loc293 = loc("reshape.599")
#loc294 = loc("reshape.601")
#loc295 = loc("reshape.581")
#loc296 = loc("reshape.583")
#loc297 = loc("reshape.563")
#loc298 = loc("reshape.565")
#loc299 = loc("slice.505")
#loc300 = loc("convolution.494")
#loc301 = loc("reshape.489")
#loc302 = loc("reshape.491")
#loc303 = loc("reshape.485")
#loc304 = loc("reshape.487")
#loc305 = loc("reshape.481")
#loc306 = loc("reshape.483")
#loc307 = loc("batch-norm-inference.495")
#loc308 = loc("reshape.500")
#loc309 = loc("reduce.434")
#loc310 = loc("divide.466")
#loc311 = loc("reshape.22")
#loc312 = loc("reshape.25")
#loc313 = loc("broadcast.470")
#loc314 = loc("add.471")
#loc315 = loc("logistic.472")
#loc316 = loc("broadcast.502")
#loc317 = loc("multiply.503")
#loc318 = loc("reshape.504")
#loc319 = loc("concatenate.506")
#loc320 = loc("convolution.507")
#loc321 = loc("reshape.14")
#loc322 = loc("reshape.16")
#loc323 = loc("reshape.10")
#loc324 = loc("reshape.12")
#loc325 = loc("reshape.6")
#loc326 = loc("reshape.8")
#loc327 = loc("batch-norm-inference.508")
#loc328 = loc("logistic.513")
#loc329 = loc("multiply.514")
#loc330 = loc("convolution.634")
#loc331 = loc("reshape.629")
#loc332 = loc("reshape.631")
#loc333 = loc("reshape.625")
#loc334 = loc("reshape.627")
#loc335 = loc("reshape.621")
#loc336 = loc("reshape.623")
#loc337 = loc("batch-norm-inference.635")
#loc338 = loc("logistic.640")
#loc339 = loc("multiply.641")
#loc340 = loc("concatenate.642")
#loc341 = loc("convolution.643")
#loc342 = loc("reshape.611")
#loc343 = loc("reshape.613")
#loc344 = loc("reshape.607")
#loc345 = loc("reshape.609")
#loc346 = loc("reshape.603")
#loc347 = loc("reshape.605")
#loc348 = loc("batch-norm-inference.644")
#loc349 = loc("logistic.649")
#loc350 = loc("multiply.650")
#loc351 = loc("slice.651")
#loc352 = loc("convolution.652")
#loc353 = loc("reshape.593")
#loc354 = loc("reshape.595")
#loc355 = loc("reshape.589")
#loc356 = loc("reshape.591")
#loc357 = loc("reshape.585")
#loc358 = loc("reshape.587")
#loc359 = loc("batch-norm-inference.653")
#loc360 = loc("logistic.658")
#loc361 = loc("multiply.659")
#loc362 = loc("convolution.660")
#loc363 = loc("reshape.575")
#loc364 = loc("reshape.577")
#loc365 = loc("reshape.571")
#loc366 = loc("reshape.573")
#loc367 = loc("reshape.567")
#loc368 = loc("reshape.569")
#loc369 = loc("batch-norm-inference.661")
#loc370 = loc("logistic.666")
#loc371 = loc("multiply.667")
#loc372 = loc("reshape.668")
#loc373 = loc("reshape.550")
#loc374 = loc("reshape.552")
#loc375 = loc("transpose.553")
#loc376 = loc("dot.555")
#loc377 = loc("reshape.556")
#loc378 = loc("reshape.546")
#loc379 = loc("reshape.548")
#loc380 = loc("broadcast.559")
#loc381 = loc("add.560")
#loc382 = loc("reshape.561")
#loc383 = loc("dot.669")
#loc384 = loc("reshape.720")
#loc385 = loc("reshape.722")
#loc386 = loc("reshape.516")
#loc387 = loc("reshape.518")
#loc388 = loc("reshape.860")
#loc389 = loc("reshape.862")
#loc390 = loc("reshape.842")
#loc391 = loc("reshape.844")
#loc392 = loc("reshape.824")
#loc393 = loc("reshape.826")
#loc394 = loc("reshape.806")
#loc395 = loc("reshape.808")
#loc396 = loc("slice.748")
#loc397 = loc("convolution.737")
#loc398 = loc("reshape.732")
#loc399 = loc("reshape.734")
#loc400 = loc("reshape.728")
#loc401 = loc("reshape.730")
#loc402 = loc("reshape.724")
#loc403 = loc("reshape.726")
#loc404 = loc("batch-norm-inference.738")
#loc405 = loc("reshape.743")
#loc406 = loc("reduce.677")
#loc407 = loc("divide.709")
#loc408 = loc("reshape.536")
#loc409 = loc("reshape.539")
#loc410 = loc("broadcast.713")
#loc411 = loc("add.714")
#loc412 = loc("logistic.715")
#loc413 = loc("broadcast.745")
#loc414 = loc("multiply.746")
#loc415 = loc("reshape.747")
#loc416 = loc("concatenate.749")
#loc417 = loc("convolution.750")
#loc418 = loc("reshape.528")
#loc419 = loc("reshape.530")
#loc420 = loc("reshape.524")
#loc421 = loc("reshape.526")
#loc422 = loc("reshape.520")
#loc423 = loc("reshape.522")
#loc424 = loc("batch-norm-inference.751")
#loc425 = loc("logistic.756")
#loc426 = loc("multiply.757")
#loc427 = loc("convolution.877")
#loc428 = loc("reshape.872")
#loc429 = loc("reshape.874")
#loc430 = loc("reshape.868")
#loc431 = loc("reshape.870")
#loc432 = loc("reshape.864")
#loc433 = loc("reshape.866")
#loc434 = loc("batch-norm-inference.878")
#loc435 = loc("logistic.883")
#loc436 = loc("multiply.884")
#loc437 = loc("concatenate.885")
#loc438 = loc("convolution.886")
#loc439 = loc("reshape.854")
#loc440 = loc("reshape.856")
#loc441 = loc("reshape.850")
#loc442 = loc("reshape.852")
#loc443 = loc("reshape.846")
#loc444 = loc("reshape.848")
#loc445 = loc("batch-norm-inference.887")
#loc446 = loc("logistic.892")
#loc447 = loc("multiply.893")
#loc448 = loc("slice.894")
#loc449 = loc("convolution.895")
#loc450 = loc("reshape.836")
#loc451 = loc("reshape.838")
#loc452 = loc("reshape.832")
#loc453 = loc("reshape.834")
#loc454 = loc("reshape.828")
#loc455 = loc("reshape.830")
#loc456 = loc("batch-norm-inference.896")
#loc457 = loc("logistic.901")
#loc458 = loc("multiply.902")
#loc459 = loc("convolution.903")
#loc460 = loc("reshape.818")
#loc461 = loc("reshape.820")
#loc462 = loc("reshape.814")
#loc463 = loc("reshape.816")
#loc464 = loc("reshape.810")
#loc465 = loc("reshape.812")
#loc466 = loc("batch-norm-inference.904")
#loc467 = loc("logistic.909")
#loc468 = loc("multiply.910")
#loc469 = loc("reshape.911")
#loc470 = loc("reshape.793")
#loc471 = loc("reshape.795")
#loc472 = loc("transpose.796")
#loc473 = loc("dot.798")
#loc474 = loc("reshape.799")
#loc475 = loc("reshape.789")
#loc476 = loc("reshape.791")
#loc477 = loc("broadcast.802")
#loc478 = loc("add.803")
#loc479 = loc("reshape.804")
#loc480 = loc("dot.912")
#loc481 = loc("reshape.963")
#loc482 = loc("reshape.965")
#loc483 = loc("reshape.759")
#loc484 = loc("reshape.761")
#loc485 = loc("slice.991")
#loc486 = loc("convolution.980")
#loc487 = loc("reshape.975")
#loc488 = loc("reshape.977")
#loc489 = loc("reshape.971")
#loc490 = loc("reshape.973")
#loc491 = loc("reshape.967")
#loc492 = loc("reshape.969")
#loc493 = loc("batch-norm-inference.981")
#loc494 = loc("reshape.986")
#loc495 = loc("reduce.920")
#loc496 = loc("divide.952")
#loc497 = loc("reshape.779")
#loc498 = loc("reshape.782")
#loc499 = loc("broadcast.956")
#loc500 = loc("add.957")
#loc501 = loc("logistic.958")
#loc502 = loc("broadcast.988")
#loc503 = loc("multiply.989")
#loc504 = loc("reshape.990")
#loc505 = loc("concatenate.992")
#loc506 = loc("convolution.993")
#loc507 = loc("reshape.771")
#loc508 = loc("reshape.773")
#loc509 = loc("reshape.767")
#loc510 = loc("reshape.769")
#loc511 = loc("reshape.763")
#loc512 = loc("reshape.765")
#loc513 = loc("batch-norm-inference.994")
#loc514 = loc("logistic.999")
#loc515 = loc("multiply.1000")
