…
      (post_layernorm): T.LayerNorm((1024,), eps=1e-06, elementwise_affine=True)                      -> TtLayerNorm                                      models/tt_transformers/tt/multimodal/llama_layernorm.py
    )
    (aligner): MJ.JanusVisionAlignerMLP(                                                              -> - [#47696] TtJanusProVisionAligner               models/demos/multimodal/gemma3/tt/janus_pro_vision_aligner.py             - [#47696] test_vision_aligner
      (fc1): T.Linear(in_features=1024, out_features=4096, bias=True)
      (activation_fn): A.GELUActivation()
      (hidden_layers): T.ModuleList(
        (0): T.Linear(in_features=4096, out_features=4096, bias=True)
      )
    )
    (vqmodel): JanusVQVAE(
      (encoder): JanusVQVAEEncoder(
        (conv_in): Conv2d(3, 128, kernel_size=(3, 3), stride=(1, 1), padding=(1, 1))
        (down): ModuleList(
          (0-1): 2 x Module(
            (block): ModuleList(
              (0-1): 2 x JanusVQVAEResnetBlock(
                (norm1): GroupNorm(32, 128, eps=1e-06, affine=True)
                (conv1): Conv2d(128, 128, kernel_size=(3, 3), stride=(1, 1), padding=(1, 1))
                (norm2): GroupNorm(32, 128, eps=1e-06, affine=True)
                (dropout): Dropout(p=0.0, inplace=False)
                (conv2): Conv2d(128, 128, kernel_size=(3, 3), stride=(1, 1), padding=(1, 1))
              )
            )
            (attn): ModuleList()
            (downsample): JanusVQVAEConvDownsample(
              (conv): Conv2d(128, 128, kernel_size=(3, 3), stride=(2, 2))
            )
          )
          (2): Module(
            (block): ModuleList(
              (0): JanusVQVAEResnetBlock(
                (norm1): GroupNorm(32, 128, eps=1e-06, affine=True)
                (conv1): Conv2d(128, 256, kernel_size=(3, 3), stride=(1, 1), padding=(1, 1))
                (norm2): GroupNorm(32, 256, eps=1e-06, affine=True)
                (dropout): Dropout(p=0.0, inplace=False)
                (conv2): Conv2d(256, 256, kernel_size=(3, 3), stride=(1, 1), padding=(1, 1))
                (nin_shortcut): Conv2d(128, 256, kernel_size=(1, 1), stride=(1, 1))
              )
              (1): JanusVQVAEResnetBlock(
                (norm1): GroupNorm(32, 256, eps=1e-06, affine=True)
                (conv1): Conv2d(256, 256, kernel_size=(3, 3), stride=(1, 1), padding=(1, 1))
                (norm2): GroupNorm(32, 256, eps=1e-06, affine=True)
                (dropout): Dropout(p=0.0, inplace=False)
                (conv2): Conv2d(256, 256, kernel_size=(3, 3), stride=(1, 1), padding=(1, 1))
              )
            )
            (attn): ModuleList()
            (downsample): JanusVQVAEConvDownsample(
              (conv): Conv2d(256, 256, kernel_size=(3, 3), stride=(2, 2))
            )
          )
          (3): Module(
            (block): ModuleList(
              (0-1): 2 x JanusVQVAEResnetBlock(
                (norm1): GroupNorm(32, 256, eps=1e-06, affine=True)
                (conv1): Conv2d(256, 256, kernel_size=(3, 3), stride=(1, 1), padding=(1, 1))
                (norm2): GroupNorm(32, 256, eps=1e-06, affine=True)
                (dropout): Dropout(p=0.0, inplace=False)
                (conv2): Conv2d(256, 256, kernel_size=(3, 3), stride=(1, 1), padding=(1, 1))
              )
            )
            (attn): ModuleList()
            (downsample): JanusVQVAEConvDownsample(
              (conv): Conv2d(256, 256, kernel_size=(3, 3), stride=(2, 2))
            )
          )
          (4): Module(
            (block): ModuleList(
              (0): JanusVQVAEResnetBlock(
                (norm1): GroupNorm(32, 256, eps=1e-06, affine=True)
                (conv1): Conv2d(256, 512, kernel_size=(3, 3), stride=(1, 1), padding=(1, 1))
                (norm2): GroupNorm(32, 512, eps=1e-06, affine=True)
                (dropout): Dropout(p=0.0, inplace=False)
                (conv2): Conv2d(512, 512, kernel_size=(3, 3), stride=(1, 1), padding=(1, 1))
                (nin_shortcut): Conv2d(256, 512, kernel_size=(1, 1), stride=(1, 1))
              )
              (1): JanusVQVAEResnetBlock(
                (norm1): GroupNorm(32, 512, eps=1e-06, affine=True)
                (conv1): Conv2d(512, 512, kernel_size=(3, 3), stride=(1, 1), padding=(1, 1))
                (norm2): GroupNorm(32, 512, eps=1e-06, affine=True)
                (dropout): Dropout(p=0.0, inplace=False)
                (conv2): Conv2d(512, 512, kernel_size=(3, 3), stride=(1, 1), padding=(1, 1))
              )
            )
            (attn): ModuleList(
              (0-1): 2 x JanusVQVAEAttnBlock(
                (norm): GroupNorm(32, 512, eps=1e-06, affine=True)
                (q): Conv2d(512, 512, kernel_size=(1, 1), stride=(1, 1))
                (k): Conv2d(512, 512, kernel_size=(1, 1), stride=(1, 1))
                (v): Conv2d(512, 512, kernel_size=(1, 1), stride=(1, 1))
                (proj_out): Conv2d(512, 512, kernel_size=(1, 1), stride=(1, 1))
              )
            )
          )
        )
        (mid): JanusVQVAEMidBlock(
          (block_1): JanusVQVAEResnetBlock(
            (norm1): GroupNorm(32, 512, eps=1e-06, affine=True)
            (conv1): Conv2d(512, 512, kernel_size=(3, 3), stride=(1, 1), padding=(1, 1))
            (norm2): GroupNorm(32, 512, eps=1e-06, affine=True)
            (dropout): Dropout(p=0.0, inplace=False)
            (conv2): Conv2d(512, 512, kernel_size=(3, 3), stride=(1, 1), padding=(1, 1))
          )
          (attn_1): JanusVQVAEAttnBlock(
            (norm): GroupNorm(32, 512, eps=1e-06, affine=True)
            (q): Conv2d(512, 512, kernel_size=(1, 1), stride=(1, 1))
            (k): Conv2d(512, 512, kernel_size=(1, 1), stride=(1, 1))
            (v): Conv2d(512, 512, kernel_size=(1, 1), stride=(1, 1))
            (proj_out): Conv2d(512, 512, kernel_size=(1, 1), stride=(1, 1))
          )
          (block_2): JanusVQVAEResnetBlock(
            (norm1): GroupNorm(32, 512, eps=1e-06, affine=True)
            (conv1): Conv2d(512, 512, kernel_size=(3, 3), stride=(1, 1), padding=(1, 1))
            (norm2): GroupNorm(32, 512, eps=1e-06, affine=True)
            (dropout): Dropout(p=0.0, inplace=False)
            (conv2): Conv2d(512, 512, kernel_size=(3, 3), stride=(1, 1), padding=(1, 1))
          )
        )
        (norm_out): GroupNorm(32, 512, eps=1e-06, affine=True)
        (conv_out): Conv2d(512, 256, kernel_size=(3, 3), stride=(1, 1), padding=(1, 1))
      )
      (quantize): JanusVQVAEVectorQuantizer(
        (embedding): Embedding(16384, 8)
      )
      (quant_conv): Conv2d(256, 8, kernel_size=(1, 1), stride=(1, 1))
      (post_quant_conv): Conv2d(8, 256, kernel_size=(1, 1), stride=(1, 1))
      (decoder): JanusVQVAEDecoder(
        (conv_in): Conv2d(256, 512, kernel_size=(3, 3), stride=(1, 1), padding=(1, 1))
        (mid): JanusVQVAEMidBlock(
          (block_1): JanusVQVAEResnetBlock(
            (norm1): GroupNorm(32, 512, eps=1e-06, affine=True)
            (conv1): Conv2d(512, 512, kernel_size=(3, 3), stride=(1, 1), padding=(1, 1))
            (norm2): GroupNorm(32, 512, eps=1e-06, affine=True)
            (dropout): Dropout(p=0.0, inplace=False)
            (conv2): Conv2d(512, 512, kernel_size=(3, 3), stride=(1, 1), padding=(1, 1))
          )
          (attn_1): JanusVQVAEAttnBlock(
            (norm): GroupNorm(32, 512, eps=1e-06, affine=True)
            (q): Conv2d(512, 512, kernel_size=(1, 1), stride=(1, 1))
            (k): Conv2d(512, 512, kernel_size=(1, 1), stride=(1, 1))
            (v): Conv2d(512, 512, kernel_size=(1, 1), stride=(1, 1))
            (proj_out): Conv2d(512, 512, kernel_size=(1, 1), stride=(1, 1))
          )
          (block_2): JanusVQVAEResnetBlock(
            (norm1): GroupNorm(32, 512, eps=1e-06, affine=True)
            (conv1): Conv2d(512, 512, kernel_size=(3, 3), stride=(1, 1), padding=(1, 1))
            (norm2): GroupNorm(32, 512, eps=1e-06, affine=True)
            (dropout): Dropout(p=0.0, inplace=False)
            (conv2): Conv2d(512, 512, kernel_size=(3, 3), stride=(1, 1), padding=(1, 1))
          )
        )
        (up): ModuleList(
          (0): Module(
            (block): ModuleList(
              (0-2): 3 x JanusVQVAEResnetBlock(
                (norm1): GroupNorm(32, 512, eps=1e-06, affine=True)
                (conv1): Conv2d(512, 512, kernel_size=(3, 3), stride=(1, 1), padding=(1, 1))
                (norm2): GroupNorm(32, 512, eps=1e-06, affine=True)
                (dropout): Dropout(p=0.0, inplace=False)
                (conv2): Conv2d(512, 512, kernel_size=(3, 3), stride=(1, 1), padding=(1, 1))
              )
            )
            (attn): ModuleList(
              (0-2): 3 x JanusVQVAEAttnBlock(
                (norm): GroupNorm(32, 512, eps=1e-06, affine=True)
                (q): Conv2d(512, 512, kernel_size=(1, 1), stride=(1, 1))
                (k): Conv2d(512, 512, kernel_size=(1, 1), stride=(1, 1))
                (v): Conv2d(512, 512, kernel_size=(1, 1), stride=(1, 1))
                (proj_out): Conv2d(512, 512, kernel_size=(1, 1), stride=(1, 1))
              )
            )
            (upsample): JanusVQVAEConvUpsample(
              (conv): Conv2d(512, 512, kernel_size=(3, 3), stride=(1, 1), padding=(1, 1))
            )
          )
          (1): Module(
            (block): ModuleList(
              (0): JanusVQVAEResnetBlock(
                (norm1): GroupNorm(32, 512, eps=1e-06, affine=True)
                (conv1): Conv2d(512, 256, kernel_size=(3, 3), stride=(1, 1), padding=(1, 1))
                (norm2): GroupNorm(32, 256, eps=1e-06, affine=True)
                (dropout): Dropout(p=0.0, inplace=False)
                (conv2): Conv2d(256, 256, kernel_size=(3, 3), stride=(1, 1), padding=(1, 1))
                (nin_shortcut): Conv2d(512, 256, kernel_size=(1, 1), stride=(1, 1))
              )
              (1-2): 2 x JanusVQVAEResnetBlock(
                (norm1): GroupNorm(32, 256, eps=1e-06, affine=True)
                (conv1): Conv2d(256, 256, kernel_size=(3, 3), stride=(1, 1), padding=(1, 1))
                (norm2): GroupNorm(32, 256, eps=1e-06, affine=True)
                (dropout): Dropout(p=0.0, inplace=False)
                (conv2): Conv2d(256, 256, kernel_size=(3, 3), stride=(1, 1), padding=(1, 1))
              )
            )
            (attn): ModuleList()
            (upsample): JanusVQVAEConvUpsample(
              (conv): Conv2d(256, 256, kernel_size=(3, 3), stride=(1, 1), padding=(1, 1))
            )
          )
          (2): Module(
            (block): ModuleList(
              (0-2): 3 x JanusVQVAEResnetBlock(
                (norm1): GroupNorm(32, 256, eps=1e-06, affine=True)
                (conv1): Conv2d(256, 256, kernel_size=(3, 3), stride=(1, 1), padding=(1, 1))
                (norm2): GroupNorm(32, 256, eps=1e-06, affine=True)
                (dropout): Dropout(p=0.0, inplace=False)
                (conv2): Conv2d(256, 256, kernel_size=(3, 3), stride=(1, 1), padding=(1, 1))
              )
            )
            (attn): ModuleList()
            (upsample): JanusVQVAEConvUpsample(
              (conv): Conv2d(256, 256, kernel_size=(3, 3), stride=(1, 1), padding=(1, 1))
            )
          )
          (3): Module(
            (block): ModuleList(
              (0): JanusVQVAEResnetBlock(
                (norm1): GroupNorm(32, 256, eps=1e-06, affine=True)
                (conv1): Conv2d(256, 128, kernel_size=(3, 3), stride=(1, 1), padding=(1, 1))
                (norm2): GroupNorm(32, 128, eps=1e-06, affine=True)
                (dropout): Dropout(p=0.0, inplace=False)
                (conv2): Conv2d(128, 128, kernel_size=(3, 3), stride=(1, 1), padding=(1, 1))
                (nin_shortcut): Conv2d(256, 128, kernel_size=(1, 1), stride=(1, 1))
              )
              (1-2): 2 x JanusVQVAEResnetBlock(
                (norm1): GroupNorm(32, 128, eps=1e-06, affine=True)
                (conv1): Conv2d(128, 128, kernel_size=(3, 3), stride=(1, 1), padding=(1, 1))
                (norm2): GroupNorm(32, 128, eps=1e-06, affine=True)
                (dropout): Dropout(p=0.0, inplace=False)
                (conv2): Conv2d(128, 128, kernel_size=(3, 3), stride=(1, 1), padding=(1, 1))
              )
            )
            (attn): ModuleList()
            (upsample): JanusVQVAEConvUpsample(
              (conv): Conv2d(128, 128, kernel_size=(3, 3), stride=(1, 1), padding=(1, 1))
            )
          )
          (4): Module(
            (block): ModuleList(
              (0-2): 3 x JanusVQVAEResnetBlock(
                (norm1): GroupNorm(32, 128, eps=1e-06, affine=True)
                (conv1): Conv2d(128, 128, kernel_size=(3, 3), stride=(1, 1), padding=(1, 1))
                (norm2): GroupNorm(32, 128, eps=1e-06, affine=True)
                (dropout): Dropout(p=0.0, inplace=False)
                (conv2): Conv2d(128, 128, kernel_size=(3, 3), stride=(1, 1), padding=(1, 1))
              )
            )
            (attn): ModuleList()
          )
        )
        (norm_out): GroupNorm(32, 128, eps=1e-06, affine=True)
        (conv_out): Conv2d(128, 3, kernel_size=(3, 3), stride=(1, 1), padding=(1, 1))
      )
    )
    (generation_embeddings): Embedding(16384, 8)
    (generation_aligner): JanusVQVAEAlignerMLP(
      (fc1): Linear(in_features=8, out_features=4096, bias=True)
      (hidden_layers): ModuleList(
        (0): Linear(in_features=4096, out_features=4096, bias=True)
      )
      (activation_fn): GELUActivation()
    )
    (generation_head): JanusVQVAEHead(
      (proj_out): Linear(in_features=4096, out_features=4096, bias=True)
      (activation_fn): GELUActivation()
      (vision_head): Linear(in_features=4096, out_features=16384, bias=True)
    )
    (language_model): ML.LlamaModel(                                                                  -> Transformer                                      models/tt_transformers/tt/model.py                                        - [#47693] test_lang_decoder.py
      (embed_tokens): T.Embedding(102400, 4096, padding_idx=100015)
      (layers): T.ModuleList(
…
